…
I0509 13:35:35.594475 114092 solver.cpp:87] Creating training net from net file: examples/siamese/mnist_siamese_train_test.prototxt
I0509 13:35:35.594835 114092 net.cpp:294] The NetState phase (0) differed from the phase (1) specified by a rule in layer pair_data
I0509 13:35:35.595062 114092 net.cpp:51] Initializing net from parameters: 
name: "mnist_siamese_train_test"
state {
  phase: TRAIN
  level: 0
  stage: ""
}
layer {
  name: "pair_data"
  type: "Data"
  top: "pair_data"
  top: "sim"
  include {
    phase: TRAIN
  }
  transform_param {
    scale: 0.00390625
  }
  data_param {
    source: "examples/siamese/mnist_siamese_train_leveldb"
    batch_size: 64
  }
}
layer {
  name: "slice_pair"
  type: "Slice"
  bottom: "pair_data"
  top: "data"
  top: "data_p"
  slice_param {
    slice_dim: 1
    slice_point: 1
  }
}
layer {
  name: "conv1"
  type: "Convolution"
  bottom: "data"
  top: "conv1"
  param {
    name: "conv1_w"
    lr_mult: 1
  }
  param {
    name: "conv1_b"
    lr_mult: 2
  }
  convolution_param {
    num_output: 20
    kernel_size: 5
    stride: 1
    weight_filler {
      type: "xavier"
    }
    bias_filler {
      type: "constant"
    }
  }
}
layer {
  name: "pool1"
  type: "Pooling"
  bottom: "conv1"
  top: "pool1"
  pooling_param {
    pool: MAX
    kernel_size: 2
    stride: 2
  }
}
layer {
  name: "conv2"
  type: "Convolution"
  bottom: "pool1"
  top: "conv2"
  param {
    name: "conv2_w"
    lr_mult: 1
  }
  param {
    name: "conv2_b"
    lr_mult: 2
  }
  convolution_param {
    num_output: 50
    kernel_size: 5
    stride: 1
    weight_filler {
      type: "xavier"
    }
    bias_filler {
      type: "constant"
    }
  }
}
layer {
  name: "pool2"
  type: "Pooling"
  bottom: "conv2"
  top: "pool2"
  pooling_param {
    pool: MAX
    kernel_size: 2
    stride: 2
  }
}
layer {
  name: "ip1"
  type: "InnerProduct"
  bottom: "pool2"
  top: "ip1"
  param {
    name: "ip1_w"
    lr_mult: 1
  }
  param {
    name: "ip1_b"
    lr_mult: 2
  }
  inner_product_param {
    num_output: 500
    weight_filler {
      type: "xavier"
    }
    bias_filler {
      type: "constant"
    }
  }
}
layer {
  name: "relu1"
  type: "ReLU"
  bottom: "ip1"
  top: "ip1"
}
layer {
  name: "ip2"
  type: "InnerProduct"
  bottom: "ip1"
  top: "ip2"
  param {
    name: "ip2_w"
    lr_mult: 1
  }
  param {
    name: "ip2_b"
    lr_mult: 2
  }
  inner_product_param {
    num_output: 10
    weight_filler {
      type: "xavier"
    }
    bias_filler {
      type: "constant"
    }
  }
}
layer {
  name: "feat"
  type: "InnerProduct"
  bottom: "ip2"
  top: "feat"
  param {
    name: "feat_w"
    lr_mult: 1
  }
  param {
    name: "feat_b"
    lr_mult: 2
  }
  inner_product_param {
    num_output: 2
    weight_filler {
      type: "xavier"
    }
    bias_filler {
      type: "constant"
    }
  }
}
layer {
  name: "conv1_p"
  type: "Convolution"
  bottom: "data_p"
  top: "conv1_p"
  param {
    name: "conv1_w"
    lr_mult: 1
  }
  param {
    name: "conv1_b"
    lr_mult: 2
  }
  convolution_param {
    num_output: 20
    kernel_size: 5
    stride: 1
    weight_filler {
      type: "xavier"
    }
    bias_filler {
      type: "constant"
    }
  }
}
layer {
  name: "pool1_p"
  type: "Pooling"
  bottom: "conv1_p"
  top: "pool1_p"
  pooling_param {
    pool: MAX
    kernel_size: 2
    stride: 2
  }
}
layer {
  name: "conv2_p"
  type: "Convolution"
  bottom: "pool1_p"
  top: "conv2_p"
  param {
    name: "conv2_w"
    lr_mult: 1
  }
  param {
    name: "conv2_b"
    lr_mult: 2
  }
  convolution_param {
    num_output: 50
    kernel_size: 5
    stride: 1
    weight_filler {
      type: "xavier"
    }
    bias_filler {
      type: "constant"
    }
  }
}
layer {
  name: "pool2_p"
  type: "Pooling"
  bottom: "conv2_p"
  top: "pool2_p"
  pooling_param {
    pool: MAX
    kernel_size: 2
    stride: 2
  }
}
layer {
  name: "ip1_p"
  type: "InnerProduct"
  bottom: "pool2_p"
  top: "ip1_p"
  param {
    name: "ip1_w"
    lr_mult: 1
  }
  param {
    name: "ip1_b"
    lr_mult: 2
  }
  inner_product_param {
    num_output: 500
    weight_filler {
      type: "xavier"
    }
    bias_filler {
      type: "constant"
    }
  }
}
layer {
  name: "relu1_p"
  type: "ReLU"
  bottom: "ip1_p"
  top: "ip1_p"
}
layer {
  name: "ip2_p"
  type: "InnerProduct"
  bottom: "ip1_p"
  top: "ip2_p"
  param {
    name: "ip2_w"
    lr_mult: 1
  }
  param {
    name: "ip2_b"
    lr_mult: 2
  }
  inner_product_param {
    num_output: 10
    weight_filler {
      type: "xavier"
    }
    bias_filler {
      type: "constant"
    }
  }
}
layer {
  name: "feat_p"
  type: "InnerProduct"
  bottom: "ip2_p"
  top: "feat_p"
  param {
    name: "feat_w"
    lr_mult: 1
  }
  param {
    name: "feat_b"
    lr_mult: 2
  }
  inner_product_param {
    num_output: 2
    weight_filler {
      type: "xavier"
    }
    bias_filler {
      type: "constant"
    }
  }
}
layer {
  name: "loss"
  type: "ContrastiveLoss"
  bottom: "feat"
  bottom: "feat_p"
  bottom: "sim"
  top: "loss"
  contrastive_loss_param {
    margin: 1
  }
}
I0509 13:35:35.595196 114092 layer_factory.hpp:77] Creating layer pair_data
     0.061120246              1,343      LLC-load-misses          
     0.061120246             43,509      LLC-loads                
I0509 13:35:35.596719 114092 db_leveldb.cpp:18] Opened leveldb examples/siamese/mnist_siamese_train_leveldb
I0509 13:35:35.597225 114092 net.cpp:84] Creating Layer pair_data
I0509 13:35:35.597246 114092 net.cpp:380] pair_data -> pair_data
I0509 13:35:35.597277 114092 net.cpp:380] pair_data -> sim
I0509 13:35:35.597323 114092 data_layer.cpp:45] output data size: 64,2,28,28
I0509 13:35:35.597951 114092 net.cpp:122] Setting up pair_data
I0509 13:35:35.597968 114092 net.cpp:129] Top shape: 64 2 28 28 (100352)
I0509 13:35:35.597980 114092 net.cpp:129] Top shape: 64 (64)
I0509 13:35:35.597985 114092 net.cpp:137] Memory required for data: 401664
I0509 13:35:35.597995 114092 layer_factory.hpp:77] Creating layer slice_pair
I0509 13:35:35.598008 114092 net.cpp:84] Creating Layer slice_pair
I0509 13:35:35.598018 114092 net.cpp:406] slice_pair <- pair_data
I0509 13:35:35.598034 114092 net.cpp:380] slice_pair -> data
I0509 13:35:35.598049 114092 net.cpp:380] slice_pair -> data_p
I0509 13:35:35.598065 114092 net.cpp:122] Setting up slice_pair
I0509 13:35:35.598076 114092 net.cpp:129] Top shape: 64 1 28 28 (50176)
I0509 13:35:35.598086 114092 net.cpp:129] Top shape: 64 1 28 28 (50176)
I0509 13:35:35.598093 114092 net.cpp:137] Memory required for data: 803072
I0509 13:35:35.598098 114092 layer_factory.hpp:77] Creating layer conv1
I0509 13:35:35.598119 114092 net.cpp:84] Creating Layer conv1
I0509 13:35:35.598126 114092 net.cpp:406] conv1 <- data
I0509 13:35:35.598137 114092 net.cpp:380] conv1 -> conv1
I0509 13:35:35.598156 114092 base_conv_layer.cpp:121] Group is 1channel is1number of output is 20
I0509 13:35:35.598206 114092 net.cpp:122] Setting up conv1
I0509 13:35:35.598217 114092 net.cpp:129] Top shape: 64 20 24 24 (737280)
I0509 13:35:35.598230 114092 net.cpp:137] Memory required for data: 3752192
I0509 13:35:35.598248 114092 layer_factory.hpp:77] Creating layer pool1
I0509 13:35:35.598259 114092 net.cpp:84] Creating Layer pool1
I0509 13:35:35.598266 114092 net.cpp:406] pool1 <- conv1
I0509 13:35:35.598278 114092 net.cpp:380] pool1 -> pool1
I0509 13:35:35.598299 114092 net.cpp:122] Setting up pool1
I0509 13:35:35.598310 114092 net.cpp:129] Top shape: 64 20 12 12 (184320)
I0509 13:35:35.598316 114092 net.cpp:137] Memory required for data: 4489472
I0509 13:35:35.598322 114092 layer_factory.hpp:77] Creating layer conv2
I0509 13:35:35.598338 114092 net.cpp:84] Creating Layer conv2
I0509 13:35:35.598346 114092 net.cpp:406] conv2 <- pool1
I0509 13:35:35.598359 114092 net.cpp:380] conv2 -> conv2
I0509 13:35:35.598374 114092 base_conv_layer.cpp:121] Group is 1channel is20number of output is 50
I0509 13:35:35.598701 114092 net.cpp:122] Setting up conv2
I0509 13:35:35.598712 114092 net.cpp:129] Top shape: 64 50 8 8 (204800)
I0509 13:35:35.598731 114092 net.cpp:137] Memory required for data: 5308672
I0509 13:35:35.598742 114092 layer_factory.hpp:77] Creating layer pool2
I0509 13:35:35.598752 114092 net.cpp:84] Creating Layer pool2
I0509 13:35:35.598759 114092 net.cpp:406] pool2 <- conv2
I0509 13:35:35.598769 114092 net.cpp:380] pool2 -> pool2
I0509 13:35:35.598783 114092 net.cpp:122] Setting up pool2
I0509 13:35:35.598790 114092 net.cpp:129] Top shape: 64 50 4 4 (51200)
I0509 13:35:35.598798 114092 net.cpp:137] Memory required for data: 5513472
I0509 13:35:35.598803 114092 layer_factory.hpp:77] Creating layer ip1
I0509 13:35:35.598817 114092 net.cpp:84] Creating Layer ip1
I0509 13:35:35.598824 114092 net.cpp:406] ip1 <- pool2
I0509 13:35:35.598834 114092 net.cpp:380] ip1 -> ip1
I0509 13:35:35.604156 114092 net.cpp:122] Setting up ip1
I0509 13:35:35.604176 114092 net.cpp:129] Top shape: 64 500 (32000)
I0509 13:35:35.604182 114092 net.cpp:137] Memory required for data: 5641472
I0509 13:35:35.604199 114092 layer_factory.hpp:77] Creating layer relu1
I0509 13:35:35.604212 114092 net.cpp:84] Creating Layer relu1
I0509 13:35:35.604220 114092 net.cpp:406] relu1 <- ip1
I0509 13:35:35.604230 114092 net.cpp:367] relu1 -> ip1 (in-place)
I0509 13:35:35.604245 114092 net.cpp:122] Setting up relu1
I0509 13:35:35.604255 114092 net.cpp:129] Top shape: 64 500 (32000)
I0509 13:35:35.604261 114092 net.cpp:137] Memory required for data: 5769472
I0509 13:35:35.604269 114092 layer_factory.hpp:77] Creating layer ip2
I0509 13:35:35.604285 114092 net.cpp:84] Creating Layer ip2
I0509 13:35:35.604293 114092 net.cpp:406] ip2 <- ip1
I0509 13:35:35.604305 114092 net.cpp:380] ip2 -> ip2
I0509 13:35:35.604398 114092 net.cpp:122] Setting up ip2
I0509 13:35:35.604409 114092 net.cpp:129] Top shape: 64 10 (640)
I0509 13:35:35.604415 114092 net.cpp:137] Memory required for data: 5772032
I0509 13:35:35.604425 114092 layer_factory.hpp:77] Creating layer feat
I0509 13:35:35.604435 114092 net.cpp:84] Creating Layer feat
I0509 13:35:35.604444 114092 net.cpp:406] feat <- ip2
I0509 13:35:35.604454 114092 net.cpp:380] feat -> feat
I0509 13:35:35.604476 114092 net.cpp:122] Setting up feat
I0509 13:35:35.604485 114092 net.cpp:129] Top shape: 64 2 (128)
I0509 13:35:35.604493 114092 net.cpp:137] Memory required for data: 5772544
I0509 13:35:35.604506 114092 layer_factory.hpp:77] Creating layer conv1_p
I0509 13:35:35.604521 114092 net.cpp:84] Creating Layer conv1_p
I0509 13:35:35.604528 114092 net.cpp:406] conv1_p <- data_p
I0509 13:35:35.604544 114092 net.cpp:380] conv1_p -> conv1_p
I0509 13:35:35.604562 114092 base_conv_layer.cpp:121] Group is 1channel is1number of output is 20
I0509 13:35:35.604598 114092 net.cpp:122] Setting up conv1_p
I0509 13:35:35.604609 114092 net.cpp:129] Top shape: 64 20 24 24 (737280)
I0509 13:35:35.604617 114092 net.cpp:137] Memory required for data: 8721664
I0509 13:35:35.604625 114092 net.cpp:465] Sharing parameters 'conv1_w' owned by layer 'conv1', param index 0
I0509 13:35:35.604635 114092 net.cpp:465] Sharing parameters 'conv1_b' owned by layer 'conv1', param index 1
I0509 13:35:35.604648 114092 layer_factory.hpp:77] Creating layer pool1_p
I0509 13:35:35.604662 114092 net.cpp:84] Creating Layer pool1_p
I0509 13:35:35.604670 114092 net.cpp:406] pool1_p <- conv1_p
I0509 13:35:35.604681 114092 net.cpp:380] pool1_p -> pool1_p
I0509 13:35:35.604696 114092 net.cpp:122] Setting up pool1_p
I0509 13:35:35.604708 114092 net.cpp:129] Top shape: 64 20 12 12 (184320)
I0509 13:35:35.604714 114092 net.cpp:137] Memory required for data: 9458944
I0509 13:35:35.604722 114092 layer_factory.hpp:77] Creating layer conv2_p
I0509 13:35:35.604737 114092 net.cpp:84] Creating Layer conv2_p
I0509 13:35:35.604746 114092 net.cpp:406] conv2_p <- pool1_p
I0509 13:35:35.604759 114092 net.cpp:380] conv2_p -> conv2_p
I0509 13:35:35.604776 114092 base_conv_layer.cpp:121] Group is 1channel is20number of output is 50
I0509 13:35:35.605139 114092 net.cpp:122] Setting up conv2_p
I0509 13:35:35.605152 114092 net.cpp:129] Top shape: 64 50 8 8 (204800)
I0509 13:35:35.605170 114092 net.cpp:137] Memory required for data: 10278144
I0509 13:35:35.605180 114092 net.cpp:465] Sharing parameters 'conv2_w' owned by layer 'conv2', param index 0
I0509 13:35:35.605187 114092 net.cpp:465] Sharing parameters 'conv2_b' owned by layer 'conv2', param index 1
I0509 13:35:35.605196 114092 layer_factory.hpp:77] Creating layer pool2_p
I0509 13:35:35.605206 114092 net.cpp:84] Creating Layer pool2_p
I0509 13:35:35.605212 114092 net.cpp:406] pool2_p <- conv2_p
I0509 13:35:35.605224 114092 net.cpp:380] pool2_p -> pool2_p
I0509 13:35:35.605239 114092 net.cpp:122] Setting up pool2_p
I0509 13:35:35.605248 114092 net.cpp:129] Top shape: 64 50 4 4 (51200)
I0509 13:35:35.605255 114092 net.cpp:137] Memory required for data: 10482944
I0509 13:35:35.605262 114092 layer_factory.hpp:77] Creating layer ip1_p
I0509 13:35:35.605278 114092 net.cpp:84] Creating Layer ip1_p
I0509 13:35:35.605284 114092 net.cpp:406] ip1_p <- pool2_p
I0509 13:35:35.605295 114092 net.cpp:380] ip1_p -> ip1_p
     0.071267075              1,593      LLC-load-misses          
     0.071267075             16,832      LLC-loads                
I0509 13:35:35.610785 114092 net.cpp:122] Setting up ip1_p
I0509 13:35:35.610800 114092 net.cpp:129] Top shape: 64 500 (32000)
I0509 13:35:35.610806 114092 net.cpp:137] Memory required for data: 10610944
I0509 13:35:35.610815 114092 net.cpp:465] Sharing parameters 'ip1_w' owned by layer 'ip1', param index 0
I0509 13:35:35.610822 114092 net.cpp:465] Sharing parameters 'ip1_b' owned by layer 'ip1', param index 1
I0509 13:35:35.610831 114092 layer_factory.hpp:77] Creating layer relu1_p
I0509 13:35:35.610841 114092 net.cpp:84] Creating Layer relu1_p
I0509 13:35:35.610847 114092 net.cpp:406] relu1_p <- ip1_p
I0509 13:35:35.610858 114092 net.cpp:367] relu1_p -> ip1_p (in-place)
I0509 13:35:35.610872 114092 net.cpp:122] Setting up relu1_p
I0509 13:35:35.610880 114092 net.cpp:129] Top shape: 64 500 (32000)
I0509 13:35:35.610888 114092 net.cpp:137] Memory required for data: 10738944
I0509 13:35:35.610893 114092 layer_factory.hpp:77] Creating layer ip2_p
I0509 13:35:35.610910 114092 net.cpp:84] Creating Layer ip2_p
I0509 13:35:35.610918 114092 net.cpp:406] ip2_p <- ip1_p
I0509 13:35:35.610929 114092 net.cpp:380] ip2_p -> ip2_p
I0509 13:35:35.611021 114092 net.cpp:122] Setting up ip2_p
I0509 13:35:35.611032 114092 net.cpp:129] Top shape: 64 10 (640)
I0509 13:35:35.611039 114092 net.cpp:137] Memory required for data: 10741504
I0509 13:35:35.611049 114092 net.cpp:465] Sharing parameters 'ip2_w' owned by layer 'ip2', param index 0
I0509 13:35:35.611058 114092 net.cpp:465] Sharing parameters 'ip2_b' owned by layer 'ip2', param index 1
I0509 13:35:35.611068 114092 layer_factory.hpp:77] Creating layer feat_p
I0509 13:35:35.611078 114092 net.cpp:84] Creating Layer feat_p
I0509 13:35:35.611084 114092 net.cpp:406] feat_p <- ip2_p
I0509 13:35:35.611098 114092 net.cpp:380] feat_p -> feat_p
I0509 13:35:35.611117 114092 net.cpp:122] Setting up feat_p
I0509 13:35:35.611127 114092 net.cpp:129] Top shape: 64 2 (128)
I0509 13:35:35.611133 114092 net.cpp:137] Memory required for data: 10742016
I0509 13:35:35.611147 114092 net.cpp:465] Sharing parameters 'feat_w' owned by layer 'feat', param index 0
I0509 13:35:35.611157 114092 net.cpp:465] Sharing parameters 'feat_b' owned by layer 'feat', param index 1
I0509 13:35:35.611165 114092 layer_factory.hpp:77] Creating layer loss
I0509 13:35:35.611176 114092 net.cpp:84] Creating Layer loss
…
