…
I0509 13:35:32.906148 114078 solver.cpp:87] Creating training net from net file: examples/siamese/mnist_siamese_train_test.prototxt
I0509 13:35:32.906592 114078 net.cpp:294] The NetState phase (0) differed from the phase (1) specified by a rule in layer pair_data
I0509 13:35:32.906874 114078 net.cpp:51] Initializing net from parameters: 
name: "mnist_siamese_train_test"
state {
  phase: TRAIN
  level: 0
  stage: ""
}
layer {
  name: "pair_data"
  type: "Data"
  top: "pair_data"
  top: "sim"
  include {
    phase: TRAIN
  }
  transform_param {
    scale: 0.00390625
  }
  data_param {
    source: "examples/siamese/mnist_siamese_train_leveldb"
    batch_size: 64
  }
}
layer {
  name: "slice_pair"
  type: "Slice"
  bottom: "pair_data"
  top: "data"
  top: "data_p"
  slice_param {
    slice_dim: 1
    slice_point: 1
  }
}
layer {
  name: "conv1"
  type: "Convolution"
  bottom: "data"
  top: "conv1"
  param {
    name: "conv1_w"
    lr_mult: 1
  }
  param {
    name: "conv1_b"
    lr_mult: 2
  }
  convolution_param {
    num_output: 20
    kernel_size: 5
    stride: 1
    weight_filler {
      type: "xavier"
    }
    bias_filler {
      type: "constant"
    }
  }
}
layer {
  name: "pool1"
  type: "Pooling"
  bottom: "conv1"
  top: "pool1"
  pooling_param {
    pool: MAX
    kernel_size: 2
    stride: 2
  }
}
layer {
  name: "conv2"
  type: "Convolution"
  bottom: "pool1"
  top: "conv2"
  param {
    name: "conv2_w"
    lr_mult: 1
  }
  param {
    name: "conv2_b"
    lr_mult: 2
  }
  convolution_param {
    num_output: 50
    kernel_size: 5
    stride: 1
    weight_filler {
      type: "xavier"
    }
    bias_filler {
      type: "constant"
    }
  }
}
layer {
  name: "pool2"
  type: "Pooling"
  bottom: "conv2"
  top: "pool2"
  pooling_param {
    pool: MAX
    kernel_size: 2
    stride: 2
  }
}
layer {
  name: "ip1"
  type: "InnerProduct"
  bottom: "pool2"
  top: "ip1"
  param {
    name: "ip1_w"
    lr_mult: 1
  }
  param {
    name: "ip1_b"
    lr_mult: 2
  }
  inner_product_param {
    num_output: 500
    weight_filler {
      type: "xavier"
    }
    bias_filler {
      type: "constant"
    }
  }
}
layer {
  name: "relu1"
  type: "ReLU"
  bottom: "ip1"
  top: "ip1"
}
layer {
  name: "ip2"
  type: "InnerProduct"
  bottom: "ip1"
  top: "ip2"
  param {
    name: "ip2_w"
    lr_mult: 1
  }
  param {
    name: "ip2_b"
    lr_mult: 2
  }
  inner_product_param {
    num_output: 10
    weight_filler {
      type: "xavier"
    }
    bias_filler {
      type: "constant"
    }
  }
}
layer {
  name: "feat"
  type: "InnerProduct"
  bottom: "ip2"
  top: "feat"
  param {
    name: "feat_w"
    lr_mult: 1
  }
  param {
    name: "feat_b"
    lr_mult: 2
  }
  inner_product_param {
    num_output: 2
    weight_filler {
      type: "xavier"
    }
    bias_filler {
      type: "constant"
    }
  }
}
layer {
  name: "conv1_p"
  type: "Convolution"
  bottom: "data_p"
  top: "conv1_p"
  param {
    name: "conv1_w"
    lr_mult: 1
  }
  param {
    name: "conv1_b"
    lr_mult: 2
  }
  convolution_param {
    num_output: 20
    kernel_size: 5
    stride: 1
    weight_filler {
      type: "xavier"
    }
    bias_filler {
      type: "constant"
    }
  }
}
layer {
  name: "pool1_p"
  type: "Pooling"
  bottom: "conv1_p"
  top: "pool1_p"
  pooling_param {
    pool: MAX
    kernel_size: 2
    stride: 2
  }
}
layer {
  name: "conv2_p"
  type: "Convolution"
  bottom: "pool1_p"
  top: "conv2_p"
  param {
    name: "conv2_w"
    lr_mult: 1
  }
  param {
    name: "conv2_b"
    lr_mult: 2
  }
  convolution_param {
    num_output: 50
    kernel_size: 5
    stride: 1
    weight_filler {
      type: "xavier"
    }
    bias_filler {
      type: "constant"
    }
  }
}
layer {
  name: "pool2_p"
  type: "Pooling"
  bottom: "conv2_p"
  top: "pool2_p"
  pooling_param {
    pool: MAX
    kernel_size: 2
    stride: 2
  }
}
layer {
  name: "ip1_p"
  type: "InnerProduct"
  bottom: "pool2_p"
  top: "ip1_p"
  param {
    name: "ip1_w"
    lr_mult: 1
  }
  param {
    name: "ip1_b"
    lr_mult: 2
  }
  inner_product_param {
    num_output: 500
    weight_filler {
      type: "xavier"
    }
    bias_filler {
      type: "constant"
    }
  }
}
layer {
  name: "relu1_p"
  type: "ReLU"
  bottom: "ip1_p"
  top: "ip1_p"
}
layer {
  name: "ip2_p"
  type: "InnerProduct"
  bottom: "ip1_p"
  top: "ip2_p"
  param {
    name: "ip2_w"
    lr_mult: 1
  }
  param {
    name: "ip2_b"
    lr_mult: 2
  }
  inner_product_param {
    num_output: 10
    weight_filler {
      type: "xavier"
    }
    bias_filler {
      type: "constant"
    }
  }
}
layer {
  name: "feat_p"
  type: "InnerProduct"
  bottom: "ip2_p"
  top: "feat_p"
  param {
    name: "feat_w"
    lr_mult: 1
  }
  param {
    name: "feat_b"
    lr_mult: 2
  }
  inner_product_param {
    num_output: 2
    weight_filler {
      type: "xavier"
    }
    bias_filler {
      type: "constant"
    }
  }
}
layer {
  name: "loss"
  type: "ContrastiveLoss"
  bottom: "feat"
  bottom: "feat_p"
  bottom: "sim"
  top: "loss"
  contrastive_loss_param {
    margin: 1
  }
}
I0509 13:35:32.907043 114078 layer_factory.hpp:77] Creating layer pair_data
I0509 13:35:32.908524 114078 db_leveldb.cpp:18] Opened leveldb examples/siamese/mnist_siamese_train_leveldb
I0509 13:35:32.908947 114078 net.cpp:84] Creating Layer pair_data
I0509 13:35:32.908965 114078 net.cpp:380] pair_data -> pair_data
I0509 13:35:32.908994 114078 net.cpp:380] pair_data -> sim
I0509 13:35:32.909034 114078 data_layer.cpp:45] output data size: 64,2,28,28
I0509 13:35:32.909641 114078 net.cpp:122] Setting up pair_data
I0509 13:35:32.909658 114078 net.cpp:129] Top shape: 64 2 28 28 (100352)
I0509 13:35:32.909668 114078 net.cpp:129] Top shape: 64 (64)
I0509 13:35:32.909673 114078 net.cpp:137] Memory required for data: 401664
I0509 13:35:32.909682 114078 layer_factory.hpp:77] Creating layer slice_pair
I0509 13:35:32.909693 114078 net.cpp:84] Creating Layer slice_pair
I0509 13:35:32.909703 114078 net.cpp:406] slice_pair <- pair_data
I0509 13:35:32.909715 114078 net.cpp:380] slice_pair -> data
I0509 13:35:32.909729 114078 net.cpp:380] slice_pair -> data_p
I0509 13:35:32.909744 114078 net.cpp:122] Setting up slice_pair
I0509 13:35:32.909754 114078 net.cpp:129] Top shape: 64 1 28 28 (50176)
I0509 13:35:32.909761 114078 net.cpp:129] Top shape: 64 1 28 28 (50176)
I0509 13:35:32.909766 114078 net.cpp:137] Memory required for data: 803072
I0509 13:35:32.909772 114078 layer_factory.hpp:77] Creating layer conv1
I0509 13:35:32.909791 114078 net.cpp:84] Creating Layer conv1
I0509 13:35:32.909797 114078 net.cpp:406] conv1 <- data
I0509 13:35:32.909807 114078 net.cpp:380] conv1 -> conv1
I0509 13:35:32.909824 114078 base_conv_layer.cpp:121] Group is 1channel is1number of output is 20
I0509 13:35:32.909870 114078 net.cpp:122] Setting up conv1
I0509 13:35:32.909881 114078 net.cpp:129] Top shape: 64 20 24 24 (737280)
I0509 13:35:32.909893 114078 net.cpp:137] Memory required for data: 3752192
I0509 13:35:32.909909 114078 layer_factory.hpp:77] Creating layer pool1
I0509 13:35:32.909919 114078 net.cpp:84] Creating Layer pool1
I0509 13:35:32.909924 114078 net.cpp:406] pool1 <- conv1
I0509 13:35:32.909935 114078 net.cpp:380] pool1 -> pool1
I0509 13:35:32.909960 114078 net.cpp:122] Setting up pool1
I0509 13:35:32.909970 114078 net.cpp:129] Top shape: 64 20 12 12 (184320)
I0509 13:35:32.909976 114078 net.cpp:137] Memory required for data: 4489472
I0509 13:35:32.909981 114078 layer_factory.hpp:77] Creating layer conv2
I0509 13:35:32.909996 114078 net.cpp:84] Creating Layer conv2
I0509 13:35:32.910002 114078 net.cpp:406] conv2 <- pool1
I0509 13:35:32.910017 114078 net.cpp:380] conv2 -> conv2
I0509 13:35:32.910032 114078 base_conv_layer.cpp:121] Group is 1channel is20number of output is 50
I0509 13:35:32.910384 114078 net.cpp:122] Setting up conv2
I0509 13:35:32.910396 114078 net.cpp:129] Top shape: 64 50 8 8 (204800)
I0509 13:35:32.910413 114078 net.cpp:137] Memory required for data: 5308672
I0509 13:35:32.910424 114078 layer_factory.hpp:77] Creating layer pool2
I0509 13:35:32.910434 114078 net.cpp:84] Creating Layer pool2
I0509 13:35:32.910440 114078 net.cpp:406] pool2 <- conv2
I0509 13:35:32.910450 114078 net.cpp:380] pool2 -> pool2
I0509 13:35:32.910462 114078 net.cpp:122] Setting up pool2
I0509 13:35:32.910470 114078 net.cpp:129] Top shape: 64 50 4 4 (51200)
I0509 13:35:32.910477 114078 net.cpp:137] Memory required for data: 5513472
I0509 13:35:32.910482 114078 layer_factory.hpp:77] Creating layer ip1
I0509 13:35:32.910495 114078 net.cpp:84] Creating Layer ip1
I0509 13:35:32.910501 114078 net.cpp:406] ip1 <- pool2
I0509 13:35:32.910511 114078 net.cpp:380] ip1 -> ip1
I0509 13:35:32.915868 114078 net.cpp:122] Setting up ip1
I0509 13:35:32.915885 114078 net.cpp:129] Top shape: 64 500 (32000)
     0.071279637 I0509 13:35:32.915891 114078 net.cpp:137] Memory required for data: 5641472
        40,074,714      instructions:u           I0509 13:35:32.915908 114078 layer_factory.hpp:77] Creating layer relu1

     0.071279637         22,377,231      I0509 13:35:32.915922 114078 net.cpp:84] Creating Layer relu1
cycles:u                 
I0509 13:35:32.915930 114078 net.cpp:406] relu1 <- ip1
I0509 13:35:32.915940 114078 net.cpp:367] relu1 -> ip1 (in-place)
I0509 13:35:32.915951 114078 net.cpp:122] Setting up relu1
I0509 13:35:32.915958 114078 net.cpp:129] Top shape: 64 500 (32000)
I0509 13:35:32.915963 114078 net.cpp:137] Memory required for data: 5769472
I0509 13:35:32.915968 114078 layer_factory.hpp:77] Creating layer ip2
I0509 13:35:32.915983 114078 net.cpp:84] Creating Layer ip2
I0509 13:35:32.915989 114078 net.cpp:406] ip2 <- ip1
I0509 13:35:32.915998 114078 net.cpp:380] ip2 -> ip2
I0509 13:35:32.916093 114078 net.cpp:122] Setting up ip2
I0509 13:35:32.916105 114078 net.cpp:129] Top shape: 64 10 (640)
I0509 13:35:32.916110 114078 net.cpp:137] Memory required for data: 5772032
I0509 13:35:32.916118 114078 layer_factory.hpp:77] Creating layer feat
I0509 13:35:32.916128 114078 net.cpp:84] Creating Layer feat
I0509 13:35:32.916134 114078 net.cpp:406] feat <- ip2
I0509 13:35:32.916143 114078 net.cpp:380] feat -> feat
I0509 13:35:32.916162 114078 net.cpp:122] Setting up feat
I0509 13:35:32.916170 114078 net.cpp:129] Top shape: 64 2 (128)
I0509 13:35:32.916177 114078 net.cpp:137] Memory required for data: 5772544
I0509 13:35:32.916187 114078 layer_factory.hpp:77] Creating layer conv1_p
I0509 13:35:32.916198 114078 net.cpp:84] Creating Layer conv1_p
I0509 13:35:32.916204 114078 net.cpp:406] conv1_p <- data_p
I0509 13:35:32.916216 114078 net.cpp:380] conv1_p -> conv1_p
I0509 13:35:32.916231 114078 base_conv_layer.cpp:121] Group is 1channel is1number of output is 20
I0509 13:35:32.916262 114078 net.cpp:122] Setting up conv1_p
I0509 13:35:32.916271 114078 net.cpp:129] Top shape: 64 20 24 24 (737280)
I0509 13:35:32.916278 114078 net.cpp:137] Memory required for data: 8721664
I0509 13:35:32.916285 114078 net.cpp:465] Sharing parameters 'conv1_w' owned by layer 'conv1', param index 0
I0509 13:35:32.916296 114078 net.cpp:465] Sharing parameters 'conv1_b' owned by layer 'conv1', param index 1
I0509 13:35:32.916302 114078 layer_factory.hpp:77] Creating layer pool1_p
I0509 13:35:32.916314 114078 net.cpp:84] Creating Layer pool1_p
I0509 13:35:32.916321 114078 net.cpp:406] pool1_p <- conv1_p
I0509 13:35:32.916333 114078 net.cpp:380] pool1_p -> pool1_p
I0509 13:35:32.916344 114078 net.cpp:122] Setting up pool1_p
I0509 13:35:32.916354 114078 net.cpp:129] Top shape: 64 20 12 12 (184320)
I0509 13:35:32.916359 114078 net.cpp:137] Memory required for data: 9458944
I0509 13:35:32.916364 114078 layer_factory.hpp:77] Creating layer conv2_p
I0509 13:35:32.916378 114078 net.cpp:84] Creating Layer conv2_p
I0509 13:35:32.916384 114078 net.cpp:406] conv2_p <- pool1_p
I0509 13:35:32.916395 114078 net.cpp:380] conv2_p -> conv2_p
I0509 13:35:32.916409 114078 base_conv_layer.cpp:121] Group is 1channel is20number of output is 50
I0509 13:35:32.916751 114078 net.cpp:122] Setting up conv2_p
I0509 13:35:32.916764 114078 net.cpp:129] Top shape: 64 50 8 8 (204800)
I0509 13:35:32.916777 114078 net.cpp:137] Memory required for data: 10278144
I0509 13:35:32.916785 114078 net.cpp:465] Sharing parameters 'conv2_w' owned by layer 'conv2', param index 0
I0509 13:35:32.916790 114078 net.cpp:465] Sharing parameters 'conv2_b' owned by layer 'conv2', param index 1
I0509 13:35:32.916797 114078 layer_factory.hpp:77] Creating layer pool2_p
I0509 13:35:32.916805 114078 net.cpp:84] Creating Layer pool2_p
I0509 13:35:32.916811 114078 net.cpp:406] pool2_p <- conv2_p
I0509 13:35:32.916821 114078 net.cpp:380] pool2_p -> pool2_p
I0509 13:35:32.916833 114078 net.cpp:122] Setting up pool2_p
I0509 13:35:32.916841 114078 net.cpp:129] Top shape: 64 50 4 4 (51200)
I0509 13:35:32.916846 114078 net.cpp:137] Memory required for data: 10482944
I0509 13:35:32.916852 114078 layer_factory.hpp:77] Creating layer ip1_p
I0509 13:35:32.916864 114078 net.cpp:84] Creating Layer ip1_p
I0509 13:35:32.916870 114078 net.cpp:406] ip1_p <- pool2_p
I0509 13:35:32.916879 114078 net.cpp:380] ip1_p -> ip1_p
I0509 13:35:32.922142 114078 net.cpp:122] Setting up ip1_p
I0509 13:35:32.922157 114078 net.cpp:129] Top shape: 64 500 (32000)
I0509 13:35:32.922161 114078 net.cpp:137] Memory required for data: 10610944
I0509 13:35:32.922168 114078 net.cpp:465] Sharing parameters 'ip1_w' owned by layer 'ip1', param index 0
I0509 13:35:32.922174 114078 net.cpp:465] Sharing parameters 'ip1_b' owned by layer 'ip1', param index 1
I0509 13:35:32.922181 114078 layer_factory.hpp:77] Creating layer relu1_p
I0509 13:35:32.922189 114078 net.cpp:84] Creating Layer relu1_p
I0509 13:35:32.922195 114078 net.cpp:406] relu1_p <- ip1_p
I0509 13:35:32.922204 114078 net.cpp:367] relu1_p -> ip1_p (in-place)
I0509 13:35:32.922214 114078 net.cpp:122] Setting up relu1_p
I0509 13:35:32.922221 114078 net.cpp:129] Top shape: 64 500 (32000)
I0509 13:35:32.922226 114078 net.cpp:137] Memory required for data: 10738944
I0509 13:35:32.922232 114078 layer_factory.hpp:77] Creating layer ip2_p
I0509 13:35:32.922245 114078 net.cpp:84] Creating Layer ip2_p
I0509 13:35:32.922251 114078 net.cpp:406] ip2_p <- ip1_p
I0509 13:35:32.922260 114078 net.cpp:380] ip2_p -> ip2_p
I0509 13:35:32.922344 114078 net.cpp:122] Setting up ip2_p
I0509 13:35:32.922355 114078 net.cpp:129] Top shape: 64 10 (640)
I0509 13:35:32.922360 114078 net.cpp:137] Memory required for data: 10741504
I0509 13:35:32.922369 114078 net.cpp:465] Sharing parameters 'ip2_w' owned by layer 'ip2', param index 0
I0509 13:35:32.922375 114078 net.cpp:465] Sharing parameters 'ip2_b' owned by layer 'ip2', param index 1
I0509 13:35:32.922382 114078 layer_factory.hpp:77] Creating layer feat_p
I0509 13:35:32.922391 114078 net.cpp:84] Creating Layer feat_p
I0509 13:35:32.922396 114078 net.cpp:406] feat_p <- ip2_p
I0509 13:35:32.922407 114078 net.cpp:380] feat_p -> feat_p
I0509 13:35:32.922425 114078 net.cpp:122] Setting up feat_p
I0509 13:35:32.922432 114078 net.cpp:129] Top shape: 64 2 (128)
I0509 13:35:32.922437 114078 net.cpp:137] Memory required for data: 10742016
I0509 13:35:32.922449 114078 net.cpp:465] Sharing parameters 'feat_w' owned by layer 'feat', param index 0
I0509 13:35:32.922457 114078 net.cpp:465] Sharing parameters 'feat_b' owned by layer 'feat', param index 1
I0509 13:35:32.922463 114078 layer_factory.hpp:77] Creating layer loss
I0509 13:35:32.922472 114078 net.cpp:84] Creating Layer loss
…
