…
I0509 13:35:34.569687 114085 solver.cpp:87] Creating training net from net file: examples/siamese/mnist_siamese_train_test.prototxt
I0509 13:35:34.570042 114085 net.cpp:294] The NetState phase (0) differed from the phase (1) specified by a rule in layer pair_data
I0509 13:35:34.570269 114085 net.cpp:51] Initializing net from parameters: 
name: "mnist_siamese_train_test"
state {
  phase: TRAIN
  level: 0
  stage: ""
}
layer {
  name: "pair_data"
  type: "Data"
  top: "pair_data"
  top: "sim"
  include {
    phase: TRAIN
  }
  transform_param {
    scale: 0.00390625
  }
  data_param {
    source: "examples/siamese/mnist_siamese_train_leveldb"
    batch_size: 64
  }
}
layer {
  name: "slice_pair"
  type: "Slice"
  bottom: "pair_data"
  top: "data"
  top: "data_p"
  slice_param {
    slice_dim: 1
    slice_point: 1
  }
}
layer {
  name: "conv1"
  type: "Convolution"
  bottom: "data"
  top: "conv1"
  param {
    name: "conv1_w"
    lr_mult: 1
  }
  param {
    name: "conv1_b"
    lr_mult: 2
  }
  convolution_param {
    num_output: 20
    kernel_size: 5
    stride: 1
    weight_filler {
      type: "xavier"
    }
    bias_filler {
      type: "constant"
    }
  }
}
layer {
  name: "pool1"
  type: "Pooling"
  bottom: "conv1"
  top: "pool1"
  pooling_param {
    pool: MAX
    kernel_size: 2
    stride: 2
  }
}
layer {
  name: "conv2"
  type: "Convolution"
  bottom: "pool1"
  top: "conv2"
  param {
    name: "conv2_w"
    lr_mult: 1
  }
  param {
    name: "conv2_b"
    lr_mult: 2
  }
  convolution_param {
    num_output: 50
    kernel_size: 5
    stride: 1
    weight_filler {
      type: "xavier"
    }
    bias_filler {
      type: "constant"
    }
  }
}
layer {
  name: "pool2"
  type: "Pooling"
  bottom: "conv2"
  top: "pool2"
  pooling_param {
    pool: MAX
    kernel_size: 2
    stride: 2
  }
}
layer {
  name: "ip1"
  type: "InnerProduct"
  bottom: "pool2"
  top: "ip1"
  param {
    name: "ip1_w"
    lr_mult: 1
  }
  param {
    name: "ip1_b"
    lr_mult: 2
  }
  inner_product_param {
    num_output: 500
    weight_filler {
      type: "xavier"
    }
    bias_filler {
      type: "constant"
    }
  }
}
layer {
  name: "relu1"
  type: "ReLU"
  bottom: "ip1"
  top: "ip1"
}
layer {
  name: "ip2"
  type: "InnerProduct"
  bottom: "ip1"
  top: "ip2"
  param {
    name: "ip2_w"
    lr_mult: 1
  }
  param {
    name: "ip2_b"
    lr_mult: 2
  }
  inner_product_param {
    num_output: 10
    weight_filler {
      type: "xavier"
    }
    bias_filler {
      type: "constant"
    }
  }
}
layer {
  name: "feat"
  type: "InnerProduct"
  bottom: "ip2"
  top: "feat"
  param {
    name: "feat_w"
    lr_mult: 1
  }
  param {
    name: "feat_b"
    lr_mult: 2
  }
  inner_product_param {
    num_output: 2
    weight_filler {
      type: "xavier"
    }
    bias_filler {
      type: "constant"
    }
  }
}
layer {
  name: "conv1_p"
  type: "Convolution"
  bottom: "data_p"
  top: "conv1_p"
  param {
    name: "conv1_w"
    lr_mult: 1
  }
  param {
    name: "conv1_b"
    lr_mult: 2
  }
  convolution_param {
    num_output: 20
    kernel_size: 5
    stride: 1
    weight_filler {
      type: "xavier"
    }
    bias_filler {
      type: "constant"
    }
  }
}
layer {
  name: "pool1_p"
  type: "Pooling"
  bottom: "conv1_p"
  top: "pool1_p"
  pooling_param {
    pool: MAX
    kernel_size: 2
    stride: 2
  }
}
layer {
  name: "conv2_p"
  type: "Convolution"
  bottom: "pool1_p"
  top: "conv2_p"
  param {
    name: "conv2_w"
    lr_mult: 1
  }
  param {
    name: "conv2_b"
    lr_mult: 2
  }
  convolution_param {
    num_output: 50
    kernel_size: 5
    stride: 1
    weight_filler {
      type: "xavier"
    }
    bias_filler {
      type: "constant"
    }
  }
}
layer {
  name: "pool2_p"
  type: "Pooling"
  bottom: "conv2_p"
  top: "pool2_p"
  pooling_param {
    pool: MAX
    kernel_size: 2
    stride: 2
  }
}
layer {
  name: "ip1_p"
  type: "InnerProduct"
  bottom: "pool2_p"
  top: "ip1_p"
  param {
    name: "ip1_w"
    lr_mult: 1
  }
  param {
    name: "ip1_b"
    lr_mult: 2
  }
  inner_product_param {
    num_output: 500
    weight_filler {
      type: "xavier"
    }
    bias_filler {
      type: "constant"
    }
  }
}
layer {
  name: "relu1_p"
  type: "ReLU"
  bottom: "ip1_p"
  top: "ip1_p"
}
layer {
  name: "ip2_p"
  type: "InnerProduct"
  bottom: "ip1_p"
  top: "ip2_p"
  param {
    name: "ip2_w"
    lr_mult: 1
  }
  param {
    name: "ip2_b"
    lr_mult: 2
  }
  inner_product_param {
    num_output: 10
    weight_filler {
      type: "xavier"
    }
    bias_filler {
      type: "constant"
    }
  }
}
layer {
  name: "feat_p"
  type: "InnerProduct"
  bottom: "ip2_p"
  top: "feat_p"
  param {
    name: "feat_w"
    lr_mult: 1
  }
  param {
    name: "feat_b"
    lr_mult: 2
  }
  inner_product_param {
    num_output: 2
    weight_filler {
      type: "xavier"
    }
    bias_filler {
      type: "constant"
    }
  }
}
layer {
  name: "loss"
  type: "ContrastiveLoss"
  bottom: "feat"
  bottom: "feat_p"
  bottom: "sim"
  top: "loss"
  contrastive_loss_param {
    margin: 1
  }
}
I0509 13:35:34.570407 114085 layer_factory.hpp:77] Creating layer pair_data
     0.061158450             84,361      branch-misses:u          
     0.061158450          3,008,177      branches:u               
I0509 13:35:34.571871 114085 db_leveldb.cpp:18] Opened leveldb examples/siamese/mnist_siamese_train_leveldb
I0509 13:35:34.572399 114085 net.cpp:84] Creating Layer pair_data
I0509 13:35:34.572420 114085 net.cpp:380] pair_data -> pair_data
I0509 13:35:34.572451 114085 net.cpp:380] pair_data -> sim
I0509 13:35:34.572489 114085 data_layer.cpp:45] output data size: 64,2,28,28
I0509 13:35:34.573083 114085 net.cpp:122] Setting up pair_data
I0509 13:35:34.573107 114085 net.cpp:129] Top shape: 64 2 28 28 (100352)
I0509 13:35:34.573117 114085 net.cpp:129] Top shape: 64 (64)
I0509 13:35:34.573122 114085 net.cpp:137] Memory required for data: 401664
I0509 13:35:34.573129 114085 layer_factory.hpp:77] Creating layer slice_pair
I0509 13:35:34.573141 114085 net.cpp:84] Creating Layer slice_pair
I0509 13:35:34.573150 114085 net.cpp:406] slice_pair <- pair_data
I0509 13:35:34.573164 114085 net.cpp:380] slice_pair -> data
I0509 13:35:34.573179 114085 net.cpp:380] slice_pair -> data_p
I0509 13:35:34.573194 114085 net.cpp:122] Setting up slice_pair
I0509 13:35:34.573204 114085 net.cpp:129] Top shape: 64 1 28 28 (50176)
I0509 13:35:34.573210 114085 net.cpp:129] Top shape: 64 1 28 28 (50176)
I0509 13:35:34.573215 114085 net.cpp:137] Memory required for data: 803072
I0509 13:35:34.573220 114085 layer_factory.hpp:77] Creating layer conv1
I0509 13:35:34.573240 114085 net.cpp:84] Creating Layer conv1
I0509 13:35:34.573246 114085 net.cpp:406] conv1 <- data
I0509 13:35:34.573256 114085 net.cpp:380] conv1 -> conv1
I0509 13:35:34.573273 114085 base_conv_layer.cpp:121] Group is 1channel is1number of output is 20
I0509 13:35:34.573318 114085 net.cpp:122] Setting up conv1
I0509 13:35:34.573328 114085 net.cpp:129] Top shape: 64 20 24 24 (737280)
I0509 13:35:34.573340 114085 net.cpp:137] Memory required for data: 3752192
I0509 13:35:34.573356 114085 layer_factory.hpp:77] Creating layer pool1
I0509 13:35:34.573367 114085 net.cpp:84] Creating Layer pool1
I0509 13:35:34.573374 114085 net.cpp:406] pool1 <- conv1
I0509 13:35:34.573384 114085 net.cpp:380] pool1 -> pool1
I0509 13:35:34.573401 114085 net.cpp:122] Setting up pool1
I0509 13:35:34.573411 114085 net.cpp:129] Top shape: 64 20 12 12 (184320)
I0509 13:35:34.573416 114085 net.cpp:137] Memory required for data: 4489472
I0509 13:35:34.573421 114085 layer_factory.hpp:77] Creating layer conv2
I0509 13:35:34.573436 114085 net.cpp:84] Creating Layer conv2
I0509 13:35:34.573442 114085 net.cpp:406] conv2 <- pool1
I0509 13:35:34.573453 114085 net.cpp:380] conv2 -> conv2
I0509 13:35:34.573467 114085 base_conv_layer.cpp:121] Group is 1channel is20number of output is 50
I0509 13:35:34.573778 114085 net.cpp:122] Setting up conv2
I0509 13:35:34.573791 114085 net.cpp:129] Top shape: 64 50 8 8 (204800)
I0509 13:35:34.573808 114085 net.cpp:137] Memory required for data: 5308672
I0509 13:35:34.573819 114085 layer_factory.hpp:77] Creating layer pool2
I0509 13:35:34.573828 114085 net.cpp:84] Creating Layer pool2
I0509 13:35:34.573837 114085 net.cpp:406] pool2 <- conv2
I0509 13:35:34.573848 114085 net.cpp:380] pool2 -> pool2
I0509 13:35:34.573861 114085 net.cpp:122] Setting up pool2
I0509 13:35:34.573868 114085 net.cpp:129] Top shape: 64 50 4 4 (51200)
I0509 13:35:34.573875 114085 net.cpp:137] Memory required for data: 5513472
I0509 13:35:34.573880 114085 layer_factory.hpp:77] Creating layer ip1
I0509 13:35:34.573892 114085 net.cpp:84] Creating Layer ip1
I0509 13:35:34.573897 114085 net.cpp:406] ip1 <- pool2
I0509 13:35:34.573907 114085 net.cpp:380] ip1 -> ip1
I0509 13:35:34.578383 114085 net.cpp:122] Setting up ip1
I0509 13:35:34.578397 114085 net.cpp:129] Top shape: 64 500 (32000)
I0509 13:35:34.578403 114085 net.cpp:137] Memory required for data: 5641472
I0509 13:35:34.578418 114085 layer_factory.hpp:77] Creating layer relu1
I0509 13:35:34.578430 114085 net.cpp:84] Creating Layer relu1
I0509 13:35:34.578436 114085 net.cpp:406] relu1 <- ip1
I0509 13:35:34.578444 114085 net.cpp:367] relu1 -> ip1 (in-place)
I0509 13:35:34.578456 114085 net.cpp:122] Setting up relu1
I0509 13:35:34.578464 114085 net.cpp:129] Top shape: 64 500 (32000)
I0509 13:35:34.578469 114085 net.cpp:137] Memory required for data: 5769472
I0509 13:35:34.578474 114085 layer_factory.hpp:77] Creating layer ip2
I0509 13:35:34.578486 114085 net.cpp:84] Creating Layer ip2
I0509 13:35:34.578492 114085 net.cpp:406] ip2 <- ip1
I0509 13:35:34.578501 114085 net.cpp:380] ip2 -> ip2
I0509 13:35:34.578575 114085 net.cpp:122] Setting up ip2
I0509 13:35:34.578585 114085 net.cpp:129] Top shape: 64 10 (640)
I0509 13:35:34.578589 114085 net.cpp:137] Memory required for data: 5772032
I0509 13:35:34.578598 114085 layer_factory.hpp:77] Creating layer feat
I0509 13:35:34.578605 114085 net.cpp:84] Creating Layer feat
I0509 13:35:34.578613 114085 net.cpp:406] feat <- ip2
I0509 13:35:34.578621 114085 net.cpp:380] feat -> feat
I0509 13:35:34.578639 114085 net.cpp:122] Setting up feat
I0509 13:35:34.578645 114085 net.cpp:129] Top shape: 64 2 (128)
I0509 13:35:34.578651 114085 net.cpp:137] Memory required for data: 5772544
I0509 13:35:34.578662 114085 layer_factory.hpp:77] Creating layer conv1_p
I0509 13:35:34.578675 114085 net.cpp:84] Creating Layer conv1_p
I0509 13:35:34.578680 114085 net.cpp:406] conv1_p <- data_p
I0509 13:35:34.578691 114085 net.cpp:380] conv1_p -> conv1_p
I0509 13:35:34.578706 114085 base_conv_layer.cpp:121] Group is 1channel is1number of output is 20
I0509 13:35:34.578734 114085 net.cpp:122] Setting up conv1_p
I0509 13:35:34.578742 114085 net.cpp:129] Top shape: 64 20 24 24 (737280)
I0509 13:35:34.578749 114085 net.cpp:137] Memory required for data: 8721664
I0509 13:35:34.578755 114085 net.cpp:465] Sharing parameters 'conv1_w' owned by layer 'conv1', param index 0
I0509 13:35:34.578763 114085 net.cpp:465] Sharing parameters 'conv1_b' owned by layer 'conv1', param index 1
I0509 13:35:34.578773 114085 layer_factory.hpp:77] Creating layer pool1_p
I0509 13:35:34.578784 114085 net.cpp:84] Creating Layer pool1_p
I0509 13:35:34.578790 114085 net.cpp:406] pool1_p <- conv1_p
I0509 13:35:34.578800 114085 net.cpp:380] pool1_p -> pool1_p
I0509 13:35:34.578811 114085 net.cpp:122] Setting up pool1_p
I0509 13:35:34.578820 114085 net.cpp:129] Top shape: 64 20 12 12 (184320)
I0509 13:35:34.578825 114085 net.cpp:137] Memory required for data: 9458944
I0509 13:35:34.578830 114085 layer_factory.hpp:77] Creating layer conv2_p
I0509 13:35:34.578842 114085 net.cpp:84] Creating Layer conv2_p
I0509 13:35:34.578850 114085 net.cpp:406] conv2_p <- pool1_p
I0509 13:35:34.578860 114085 net.cpp:380] conv2_p -> conv2_p
I0509 13:35:34.578871 114085 base_conv_layer.cpp:121] Group is 1channel is20number of output is 50
I0509 13:35:34.579172 114085 net.cpp:122] Setting up conv2_p
I0509 13:35:34.579183 114085 net.cpp:129] Top shape: 64 50 8 8 (204800)
I0509 13:35:34.579200 114085 net.cpp:137] Memory required for data: 10278144
I0509 13:35:34.579205 114085 net.cpp:465] Sharing parameters 'conv2_w' owned by layer 'conv2', param index 0
I0509 13:35:34.579212 114085 net.cpp:465] Sharing parameters 'conv2_b' owned by layer 'conv2', param index 1
I0509 13:35:34.579218 114085 layer_factory.hpp:77] Creating layer pool2_p
I0509 13:35:34.579226 114085 net.cpp:84] Creating Layer pool2_p
I0509 13:35:34.579232 114085 net.cpp:406] pool2_p <- conv2_p
I0509 13:35:34.579242 114085 net.cpp:380] pool2_p -> pool2_p
I0509 13:35:34.579254 114085 net.cpp:122] Setting up pool2_p
I0509 13:35:34.579262 114085 net.cpp:129] Top shape: 64 50 4 4 (51200)
I0509 13:35:34.579267 114085 net.cpp:137] Memory required for data: 10482944
I0509 13:35:34.579272 114085 layer_factory.hpp:77] Creating layer ip1_p
I0509 13:35:34.579284 114085 net.cpp:84] Creating Layer ip1_p
I0509 13:35:34.579289 114085 net.cpp:406] ip1_p <- pool2_p
I0509 13:35:34.579298 114085 net.cpp:380] ip1_p -> ip1_p
     0.071433413             56,918      branch-misses:u          
     0.071433413          7,111,560      branches:u               
I0509 13:35:34.583746 114085 net.cpp:122] Setting up ip1_p
I0509 13:35:34.583757 114085 net.cpp:129] Top shape: 64 500 (32000)
I0509 13:35:34.583762 114085 net.cpp:137] Memory required for data: 10610944
I0509 13:35:34.583768 114085 net.cpp:465] Sharing parameters 'ip1_w' owned by layer 'ip1', param index 0
I0509 13:35:34.583775 114085 net.cpp:465] Sharing parameters 'ip1_b' owned by layer 'ip1', param index 1
I0509 13:35:34.583781 114085 layer_factory.hpp:77] Creating layer relu1_p
I0509 13:35:34.583789 114085 net.cpp:84] Creating Layer relu1_p
I0509 13:35:34.583796 114085 net.cpp:406] relu1_p <- ip1_p
I0509 13:35:34.583807 114085 net.cpp:367] relu1_p -> ip1_p (in-place)
I0509 13:35:34.583818 114085 net.cpp:122] Setting up relu1_p
I0509 13:35:34.583824 114085 net.cpp:129] Top shape: 64 500 (32000)
I0509 13:35:34.583829 114085 net.cpp:137] Memory required for data: 10738944
I0509 13:35:34.583834 114085 layer_factory.hpp:77] Creating layer ip2_p
I0509 13:35:34.583848 114085 net.cpp:84] Creating Layer ip2_p
I0509 13:35:34.583853 114085 net.cpp:406] ip2_p <- ip1_p
I0509 13:35:34.583861 114085 net.cpp:380] ip2_p -> ip2_p
I0509 13:35:34.583935 114085 net.cpp:122] Setting up ip2_p
I0509 13:35:34.583945 114085 net.cpp:129] Top shape: 64 10 (640)
I0509 13:35:34.583950 114085 net.cpp:137] Memory required for data: 10741504
I0509 13:35:34.583957 114085 net.cpp:465] Sharing parameters 'ip2_w' owned by layer 'ip2', param index 0
I0509 13:35:34.583964 114085 net.cpp:465] Sharing parameters 'ip2_b' owned by layer 'ip2', param index 1
I0509 13:35:34.583971 114085 layer_factory.hpp:77] Creating layer feat_p
I0509 13:35:34.583979 114085 net.cpp:84] Creating Layer feat_p
I0509 13:35:34.583984 114085 net.cpp:406] feat_p <- ip2_p
I0509 13:35:34.583994 114085 net.cpp:380] feat_p -> feat_p
I0509 13:35:34.584010 114085 net.cpp:122] Setting up feat_p
I0509 13:35:34.584017 114085 net.cpp:129] Top shape: 64 2 (128)
I0509 13:35:34.584022 114085 net.cpp:137] Memory required for data: 10742016
I0509 13:35:34.584034 114085 net.cpp:465] Sharing parameters 'feat_w' owned by layer 'feat', param index 0
I0509 13:35:34.584064 114085 net.cpp:465] Sharing parameters 'feat_b' owned by layer 'feat', param index 1
I0509 13:35:34.584069 114085 layer_factory.hpp:77] Creating layer loss
I0509 13:35:34.584079 114085 net.cpp:84] Creating Layer loss
…
