…
I0509 13:35:37.635936 114106 solver.cpp:87] Creating training net from net file: examples/siamese/mnist_siamese_train_test.prototxt
I0509 13:35:37.636317 114106 net.cpp:294] The NetState phase (0) differed from the phase (1) specified by a rule in layer pair_data
I0509 13:35:37.636548 114106 net.cpp:51] Initializing net from parameters: 
name: "mnist_siamese_train_test"
state {
  phase: TRAIN
  level: 0
  stage: ""
}
layer {
  name: "pair_data"
  type: "Data"
  top: "pair_data"
  top: "sim"
  include {
    phase: TRAIN
  }
  transform_param {
    scale: 0.00390625
  }
  data_param {
    source: "examples/siamese/mnist_siamese_train_leveldb"
    batch_size: 64
  }
}
layer {
  name: "slice_pair"
  type: "Slice"
  bottom: "pair_data"
  top: "data"
  top: "data_p"
  slice_param {
    slice_dim: 1
    slice_point: 1
  }
}
layer {
  name: "conv1"
  type: "Convolution"
  bottom: "data"
  top: "conv1"
  param {
    name: "conv1_w"
    lr_mult: 1
  }
  param {
    name: "conv1_b"
    lr_mult: 2
  }
  convolution_param {
    num_output: 20
    kernel_size: 5
    stride: 1
    weight_filler {
      type: "xavier"
    }
    bias_filler {
      type: "constant"
    }
  }
}
layer {
  name: "pool1"
  type: "Pooling"
  bottom: "conv1"
  top: "pool1"
  pooling_param {
    pool: MAX
    kernel_size: 2
    stride: 2
  }
}
layer {
  name: "conv2"
  type: "Convolution"
  bottom: "pool1"
  top: "conv2"
  param {
    name: "conv2_w"
    lr_mult: 1
  }
  param {
    name: "conv2_b"
    lr_mult: 2
  }
  convolution_param {
    num_output: 50
    kernel_size: 5
    stride: 1
    weight_filler {
      type: "xavier"
    }
    bias_filler {
      type: "constant"
    }
  }
}
layer {
  name: "pool2"
  type: "Pooling"
  bottom: "conv2"
  top: "pool2"
  pooling_param {
    pool: MAX
    kernel_size: 2
    stride: 2
  }
}
layer {
  name: "ip1"
  type: "InnerProduct"
  bottom: "pool2"
  top: "ip1"
  param {
    name: "ip1_w"
    lr_mult: 1
  }
  param {
    name: "ip1_b"
    lr_mult: 2
  }
  inner_product_param {
    num_output: 500
    weight_filler {
      type: "xavier"
    }
    bias_filler {
      type: "constant"
    }
  }
}
layer {
  name: "relu1"
  type: "ReLU"
  bottom: "ip1"
  top: "ip1"
}
layer {
  name: "ip2"
  type: "InnerProduct"
  bottom: "ip1"
  top: "ip2"
  param {
    name: "ip2_w"
    lr_mult: 1
  }
  param {
    name: "ip2_b"
    lr_mult: 2
  }
  inner_product_param {
    num_output: 10
    weight_filler {
      type: "xavier"
    }
    bias_filler {
      type: "constant"
    }
  }
}
layer {
  name: "feat"
  type: "InnerProduct"
  bottom: "ip2"
  top: "feat"
  param {
    name: "feat_w"
    lr_mult: 1
  }
  param {
    name: "feat_b"
    lr_mult: 2
  }
  inner_product_param {
    num_output: 2
    weight_filler {
      type: "xavier"
    }
    bias_filler {
      type: "constant"
    }
  }
}
layer {
  name: "conv1_p"
  type: "Convolution"
  bottom: "data_p"
  top: "conv1_p"
  param {
    name: "conv1_w"
    lr_mult: 1
  }
  param {
    name: "conv1_b"
    lr_mult: 2
  }
  convolution_param {
    num_output: 20
    kernel_size: 5
    stride: 1
    weight_filler {
      type: "xavier"
    }
    bias_filler {
      type: "constant"
    }
  }
}
layer {
  name: "pool1_p"
  type: "Pooling"
  bottom: "conv1_p"
  top: "pool1_p"
  pooling_param {
    pool: MAX
    kernel_size: 2
    stride: 2
  }
}
layer {
  name: "conv2_p"
  type: "Convolution"
  bottom: "pool1_p"
  top: "conv2_p"
  param {
    name: "conv2_w"
    lr_mult: 1
  }
  param {
    name: "conv2_b"
    lr_mult: 2
  }
  convolution_param {
    num_output: 50
    kernel_size: 5
    stride: 1
    weight_filler {
      type: "xavier"
    }
    bias_filler {
      type: "constant"
    }
  }
}
layer {
  name: "pool2_p"
  type: "Pooling"
  bottom: "conv2_p"
  top: "pool2_p"
  pooling_param {
    pool: MAX
    kernel_size: 2
    stride: 2
  }
}
layer {
  name: "ip1_p"
  type: "InnerProduct"
  bottom: "pool2_p"
  top: "ip1_p"
  param {
    name: "ip1_w"
    lr_mult: 1
  }
  param {
    name: "ip1_b"
    lr_mult: 2
  }
  inner_product_param {
    num_output: 500
    weight_filler {
      type: "xavier"
    }
    bias_filler {
      type: "constant"
    }
  }
}
layer {
  name: "relu1_p"
  type: "ReLU"
  bottom: "ip1_p"
  top: "ip1_p"
}
layer {
  name: "ip2_p"
  type: "InnerProduct"
  bottom: "ip1_p"
  top: "ip2_p"
  param {
    name: "ip2_w"
    lr_mult: 1
  }
  param {
    name: "ip2_b"
    lr_mult: 2
  }
  inner_product_param {
    num_output: 10
    weight_filler {
      type: "xavier"
    }
    bias_filler {
      type: "constant"
    }
  }
}
layer {
  name: "feat_p"
  type: "InnerProduct"
  bottom: "ip2_p"
  top: "feat_p"
  param {
    name: "feat_w"
    lr_mult: 1
  }
  param {
    name: "feat_b"
    lr_mult: 2
  }
  inner_product_param {
    num_output: 2
    weight_filler {
      type: "xavier"
    }
    bias_filler {
      type: "constant"
    }
  }
}
layer {
  name: "loss"
  type: "ContrastiveLoss"
  bottom: "feat"
  bottom: "feat_p"
  bottom: "sim"
  top: "loss"
  contrastive_loss_param {
    margin: 1
  }
}
I0509 13:35:37.636682 114106 layer_factory.hpp:77] Creating layer pair_data
     0.061038589            150,654      L1-dcache-load-misses    
     0.061038589          3,317,600      L1-dcache-loads          
I0509 13:35:37.638201 114106 db_leveldb.cpp:18] Opened leveldb examples/siamese/mnist_siamese_train_leveldb
I0509 13:35:37.638509 114106 net.cpp:84] Creating Layer pair_data
I0509 13:35:37.638523 114106 net.cpp:380] pair_data -> pair_data
I0509 13:35:37.638541 114106 net.cpp:380] pair_data -> sim
I0509 13:35:37.638566 114106 data_layer.cpp:45] output data size: 64,2,28,28
I0509 13:35:37.638949 114106 net.cpp:122] Setting up pair_data
I0509 13:35:37.638978 114106 net.cpp:129] Top shape: 64 2 28 28 (100352)
I0509 13:35:37.638983 114106 net.cpp:129] Top shape: 64 (64)
I0509 13:35:37.638986 114106 net.cpp:137] Memory required for data: 401664
I0509 13:35:37.638993 114106 layer_factory.hpp:77] Creating layer slice_pair
I0509 13:35:37.639000 114106 net.cpp:84] Creating Layer slice_pair
I0509 13:35:37.639005 114106 net.cpp:406] slice_pair <- pair_data
I0509 13:35:37.639014 114106 net.cpp:380] slice_pair -> data
I0509 13:35:37.639024 114106 net.cpp:380] slice_pair -> data_p
I0509 13:35:37.639032 114106 net.cpp:122] Setting up slice_pair
I0509 13:35:37.639039 114106 net.cpp:129] Top shape: 64 1 28 28 (50176)
I0509 13:35:37.639044 114106 net.cpp:129] Top shape: 64 1 28 28 (50176)
I0509 13:35:37.639046 114106 net.cpp:137] Memory required for data: 803072
I0509 13:35:37.639050 114106 layer_factory.hpp:77] Creating layer conv1
I0509 13:35:37.639062 114106 net.cpp:84] Creating Layer conv1
I0509 13:35:37.639066 114106 net.cpp:406] conv1 <- data
I0509 13:35:37.639071 114106 net.cpp:380] conv1 -> conv1
I0509 13:35:37.639082 114106 base_conv_layer.cpp:121] Group is 1channel is1number of output is 20
I0509 13:35:37.639113 114106 net.cpp:122] Setting up conv1
I0509 13:35:37.639120 114106 net.cpp:129] Top shape: 64 20 24 24 (737280)
I0509 13:35:37.639128 114106 net.cpp:137] Memory required for data: 3752192
I0509 13:35:37.639139 114106 layer_factory.hpp:77] Creating layer pool1
I0509 13:35:37.639147 114106 net.cpp:84] Creating Layer pool1
I0509 13:35:37.639152 114106 net.cpp:406] pool1 <- conv1
I0509 13:35:37.639158 114106 net.cpp:380] pool1 -> pool1
I0509 13:35:37.639189 114106 net.cpp:122] Setting up pool1
I0509 13:35:37.639195 114106 net.cpp:129] Top shape: 64 20 12 12 (184320)
I0509 13:35:37.639199 114106 net.cpp:137] Memory required for data: 4489472
I0509 13:35:37.639202 114106 layer_factory.hpp:77] Creating layer conv2
I0509 13:35:37.639212 114106 net.cpp:84] Creating Layer conv2
I0509 13:35:37.639217 114106 net.cpp:406] conv2 <- pool1
I0509 13:35:37.639225 114106 net.cpp:380] conv2 -> conv2
I0509 13:35:37.639232 114106 base_conv_layer.cpp:121] Group is 1channel is20number of output is 50
I0509 13:35:37.639417 114106 net.cpp:122] Setting up conv2
I0509 13:35:37.639425 114106 net.cpp:129] Top shape: 64 50 8 8 (204800)
I0509 13:35:37.639436 114106 net.cpp:137] Memory required for data: 5308672
I0509 13:35:37.639443 114106 layer_factory.hpp:77] Creating layer pool2
I0509 13:35:37.639448 114106 net.cpp:84] Creating Layer pool2
I0509 13:35:37.639453 114106 net.cpp:406] pool2 <- conv2
I0509 13:35:37.639459 114106 net.cpp:380] pool2 -> pool2
I0509 13:35:37.639467 114106 net.cpp:122] Setting up pool2
I0509 13:35:37.639472 114106 net.cpp:129] Top shape: 64 50 4 4 (51200)
I0509 13:35:37.639475 114106 net.cpp:137] Memory required for data: 5513472
I0509 13:35:37.639478 114106 layer_factory.hpp:77] Creating layer ip1
I0509 13:35:37.639487 114106 net.cpp:84] Creating Layer ip1
I0509 13:35:37.639490 114106 net.cpp:406] ip1 <- pool2
I0509 13:35:37.639497 114106 net.cpp:380] ip1 -> ip1
I0509 13:35:37.644266 114106 net.cpp:122] Setting up ip1
I0509 13:35:37.644284 114106 net.cpp:129] Top shape: 64 500 (32000)
I0509 13:35:37.644289 114106 net.cpp:137] Memory required for data: 5641472
I0509 13:35:37.644305 114106 layer_factory.hpp:77] Creating layer relu1
I0509 13:35:37.644318 114106 net.cpp:84] Creating Layer relu1
I0509 13:35:37.644326 114106 net.cpp:406] relu1 <- ip1
I0509 13:35:37.644336 114106 net.cpp:367] relu1 -> ip1 (in-place)
I0509 13:35:37.644351 114106 net.cpp:122] Setting up relu1
I0509 13:35:37.644359 114106 net.cpp:129] Top shape: 64 500 (32000)
I0509 13:35:37.644366 114106 net.cpp:137] Memory required for data: 5769472
I0509 13:35:37.644372 114106 layer_factory.hpp:77] Creating layer ip2
I0509 13:35:37.644389 114106 net.cpp:84] Creating Layer ip2
I0509 13:35:37.644397 114106 net.cpp:406] ip2 <- ip1
I0509 13:35:37.644407 114106 net.cpp:380] ip2 -> ip2
I0509 13:35:37.644503 114106 net.cpp:122] Setting up ip2
I0509 13:35:37.644515 114106 net.cpp:129] Top shape: 64 10 (640)
I0509 13:35:37.644521 114106 net.cpp:137] Memory required for data: 5772032
I0509 13:35:37.644531 114106 layer_factory.hpp:77] Creating layer feat
I0509 13:35:37.644541 114106 net.cpp:84] Creating Layer feat
I0509 13:35:37.644549 114106 net.cpp:406] feat <- ip2
I0509 13:35:37.644560 114106 net.cpp:380] feat -> feat
I0509 13:35:37.644582 114106 net.cpp:122] Setting up feat
I0509 13:35:37.644590 114106 net.cpp:129] Top shape: 64 2 (128)
I0509 13:35:37.644598 114106 net.cpp:137] Memory required for data: 5772544
I0509 13:35:37.644611 114106 layer_factory.hpp:77] Creating layer conv1_p
I0509 13:35:37.644625 114106 net.cpp:84] Creating Layer conv1_p
I0509 13:35:37.644632 114106 net.cpp:406] conv1_p <- data_p
I0509 13:35:37.644647 114106 net.cpp:380] conv1_p -> conv1_p
I0509 13:35:37.644664 114106 base_conv_layer.cpp:121] Group is 1channel is1number of output is 20
I0509 13:35:37.644700 114106 net.cpp:122] Setting up conv1_p
I0509 13:35:37.644711 114106 net.cpp:129] Top shape: 64 20 24 24 (737280)
I0509 13:35:37.644718 114106 net.cpp:137] Memory required for data: 8721664
I0509 13:35:37.644726 114106 net.cpp:465] Sharing parameters 'conv1_w' owned by layer 'conv1', param index 0
I0509 13:35:37.644736 114106 net.cpp:465] Sharing parameters 'conv1_b' owned by layer 'conv1', param index 1
I0509 13:35:37.644749 114106 layer_factory.hpp:77] Creating layer pool1_p
I0509 13:35:37.644763 114106 net.cpp:84] Creating Layer pool1_p
I0509 13:35:37.644770 114106 net.cpp:406] pool1_p <- conv1_p
I0509 13:35:37.644783 114106 net.cpp:380] pool1_p -> pool1_p
I0509 13:35:37.644796 114106 net.cpp:122] Setting up pool1_p
I0509 13:35:37.644807 114106 net.cpp:129] Top shape: 64 20 12 12 (184320)
I0509 13:35:37.644814 114106 net.cpp:137] Memory required for data: 9458944
I0509 13:35:37.644820 114106 layer_factory.hpp:77] Creating layer conv2_p
I0509 13:35:37.644836 114106 net.cpp:84] Creating Layer conv2_p
I0509 13:35:37.644845 114106 net.cpp:406] conv2_p <- pool1_p
I0509 13:35:37.644857 114106 net.cpp:380] conv2_p -> conv2_p
I0509 13:35:37.644872 114106 base_conv_layer.cpp:121] Group is 1channel is20number of output is 50
I0509 13:35:37.645236 114106 net.cpp:122] Setting up conv2_p
I0509 13:35:37.645248 114106 net.cpp:129] Top shape: 64 50 8 8 (204800)
I0509 13:35:37.645267 114106 net.cpp:137] Memory required for data: 10278144
I0509 13:35:37.645275 114106 net.cpp:465] Sharing parameters 'conv2_w' owned by layer 'conv2', param index 0
I0509 13:35:37.645283 114106 net.cpp:465] Sharing parameters 'conv2_b' owned by layer 'conv2', param index 1
I0509 13:35:37.645292 114106 layer_factory.hpp:77] Creating layer pool2_p
I0509 13:35:37.645303 114106 net.cpp:84] Creating Layer pool2_p
I0509 13:35:37.645309 114106 net.cpp:406] pool2_p <- conv2_p
I0509 13:35:37.645323 114106 net.cpp:380] pool2_p -> pool2_p
I0509 13:35:37.645337 114106 net.cpp:122] Setting up pool2_p
I0509 13:35:37.645346 114106 net.cpp:129] Top shape: 64 50 4 4 (51200)
I0509 13:35:37.645352 114106 net.cpp:137] Memory required for data: 10482944
I0509 13:35:37.645359 114106 layer_factory.hpp:77] Creating layer ip1_p
I0509 13:35:37.645375 114106 net.cpp:84] Creating Layer ip1_p
I0509 13:35:37.645381 114106 net.cpp:406] ip1_p <- pool2_p
I0509 13:35:37.645391 114106 net.cpp:380] ip1_p -> ip1_p
     0.071177150             75,489      L1-dcache-load-misses    
     0.071177150          6,904,108      L1-dcache-loads          
I0509 13:35:37.650871 114106 net.cpp:122] Setting up ip1_p
I0509 13:35:37.650887 114106 net.cpp:129] Top shape: 64 500 (32000)
I0509 13:35:37.650892 114106 net.cpp:137] Memory required for data: 10610944
I0509 13:35:37.650900 114106 net.cpp:465] Sharing parameters 'ip1_w' owned by layer 'ip1', param index 0
I0509 13:35:37.650909 114106 net.cpp:465] Sharing parameters 'ip1_b' owned by layer 'ip1', param index 1
I0509 13:35:37.650918 114106 layer_factory.hpp:77] Creating layer relu1_p
I0509 13:35:37.650928 114106 net.cpp:84] Creating Layer relu1_p
I0509 13:35:37.650934 114106 net.cpp:406] relu1_p <- ip1_p
I0509 13:35:37.650945 114106 net.cpp:367] relu1_p -> ip1_p (in-place)
I0509 13:35:37.650959 114106 net.cpp:122] Setting up relu1_p
I0509 13:35:37.650966 114106 net.cpp:129] Top shape: 64 500 (32000)
I0509 13:35:37.650972 114106 net.cpp:137] Memory required for data: 10738944
I0509 13:35:37.650979 114106 layer_factory.hpp:77] Creating layer ip2_p
I0509 13:35:37.650995 114106 net.cpp:84] Creating Layer ip2_p
I0509 13:35:37.651002 114106 net.cpp:406] ip2_p <- ip1_p
I0509 13:35:37.651013 114106 net.cpp:380] ip2_p -> ip2_p
I0509 13:35:37.651103 114106 net.cpp:122] Setting up ip2_p
I0509 13:35:37.651114 114106 net.cpp:129] Top shape: 64 10 (640)
I0509 13:35:37.651121 114106 net.cpp:137] Memory required for data: 10741504
I0509 13:35:37.651131 114106 net.cpp:465] Sharing parameters 'ip2_w' owned by layer 'ip2', param index 0
I0509 13:35:37.651140 114106 net.cpp:465] Sharing parameters 'ip2_b' owned by layer 'ip2', param index 1
I0509 13:35:37.651149 114106 layer_factory.hpp:77] Creating layer feat_p
I0509 13:35:37.651160 114106 net.cpp:84] Creating Layer feat_p
I0509 13:35:37.651166 114106 net.cpp:406] feat_p <- ip2_p
I0509 13:35:37.651180 114106 net.cpp:380] feat_p -> feat_p
I0509 13:35:37.651201 114106 net.cpp:122] Setting up feat_p
I0509 13:35:37.651211 114106 net.cpp:129] Top shape: 64 2 (128)
I0509 13:35:37.651216 114106 net.cpp:137] Memory required for data: 10742016
I0509 13:35:37.651232 114106 net.cpp:465] Sharing parameters 'feat_w' owned by layer 'feat', param index 0
I0509 13:35:37.651242 114106 net.cpp:465] Sharing parameters 'feat_b' owned by layer 'feat', param index 1
I0509 13:35:37.651248 114106 layer_factory.hpp:77] Creating layer loss
I0509 13:35:37.651259 114106 net.cpp:84] Creating Layer loss
…
