…
W0509 17:40:02.621112 120261 _caffe.cpp:139] DEPRECATION WARNING - deprecated use of Python interface
W0509 17:40:02.621134 120261 _caffe.cpp:140] Use this instead (with the named "weights" parameter):
W0509 17:40:02.621136 120261 _caffe.cpp:142] Net('models/bvlc_googlenet/deploy.prototxt', 1, weights='models/bvlc_googlenet/bvlc_googlenet_iter_5.caffemodel')
I0509 17:40:02.624184 120261 net.cpp:51] Initializing net from parameters: 
name: "GoogleNet"
state {
  phase: TEST
  level: 0
}
layer {
  name: "data"
  type: "Input"
  top: "data"
  input_param {
    shape {
      dim: 10
      dim: 3
      dim: 224
      dim: 224
    }
  }
}
layer {
  name: "conv1/7x7_s2"
  type: "Convolution"
  bottom: "data"
  top: "conv1/7x7_s2"
  param {
    lr_mult: 1
    decay_mult: 1
  }
  param {
    lr_mult: 2
    decay_mult: 0
  }
  convolution_param {
    num_output: 64
    pad: 3
    kernel_size: 7
    stride: 2
    weight_filler {
      type: "xavier"
      std: 0.1
    }
    bias_filler {
      type: "constant"
      value: 0.2
    }
  }
}
layer {
  name: "conv1/relu_7x7"
  type: "ReLU"
  bottom: "conv1/7x7_s2"
  top: "conv1/7x7_s2"
}
layer {
  name: "pool1/3x3_s2"
  type: "Pooling"
  bottom: "conv1/7x7_s2"
  top: "pool1/3x3_s2"
  pooling_param {
    pool: MAX
    kernel_size: 3
    stride: 2
  }
}
layer {
  name: "pool1/norm1"
  type: "LRN"
  bottom: "pool1/3x3_s2"
  top: "pool1/norm1"
  lrn_param {
    local_size: 5
    alpha: 0.0001
    beta: 0.75
  }
}
layer {
  name: "conv2/3x3_reduce"
  type: "Convolution"
  bottom: "pool1/norm1"
  top: "conv2/3x3_reduce"
  param {
    lr_mult: 1
    decay_mult: 1
  }
  param {
    lr_mult: 2
    decay_mult: 0
  }
  convolution_param {
    num_output: 64
    kernel_size: 1
    weight_filler {
      type: "xavier"
      std: 0.1
    }
    bias_filler {
      type: "constant"
      value: 0.2
    }
  }
}
layer {
  name: "conv2/relu_3x3_reduce"
  type: "ReLU"
  bottom: "conv2/3x3_reduce"
  top: "conv2/3x3_reduce"
}
layer {
  name: "conv2/3x3"
  type: "Convolution"
  bottom: "conv2/3x3_reduce"
  top: "conv2/3x3"
  param {
    lr_mult: 1
    decay_mult: 1
  }
  param {
    lr_mult: 2
    decay_mult: 0
  }
  convolution_param {
    num_output: 192
    pad: 1
    kernel_size: 3
    weight_filler {
      type: "xavier"
      std: 0.03
    }
    bias_filler {
      type: "constant"
      value: 0.2
    }
  }
}
layer {
  name: "conv2/relu_3x3"
  type: "ReLU"
  bottom: "conv2/3x3"
  top: "conv2/3x3"
}
layer {
  name: "conv2/norm2"
  type: "LRN"
  bottom: "conv2/3x3"
  top: "conv2/norm2"
  lrn_param {
    local_size: 5
    alpha: 0.0001
    beta: 0.75
  }
}
layer {
  name: "pool2/3x3_s2"
  type: "Pooling"
  bottom: "conv2/norm2"
  top: "pool2/3x3_s2"
  pooling_param {
    pool: MAX
    kernel_size: 3
    stride: 2
  }
}
layer {
  name: "inception_3a/1x1"
  type: "Convolution"
  bottom: "pool2/3x3_s2"
  top: "inception_3a/1x1"
  param {
    lr_mult: 1
    decay_mult: 1
  }
  param {
    lr_mult: 2
    decay_mult: 0
  }
  convolution_param {
    num_output: 64
    kernel_size: 1
    weight_filler {
      type: "xavier"
      std: 0.03
    }
    bias_filler {
      type: "constant"
      value: 0.2
    }
  }
}
layer {
  name: "inception_3a/relu_1x1"
  type: "ReLU"
  bottom: "inception_3a/1x1"
  top: "inception_3a/1x1"
}
layer {
  name: "inception_3a/3x3_reduce"
  type: "Convolution"
  bottom: "pool2/3x3_s2"
  top: "inception_3a/3x3_reduce"
  param {
    lr_mult: 1
    decay_mult: 1
  }
  param {
    lr_mult: 2
    decay_mult: 0
  }
  convolution_param {
    num_output: 96
    kernel_size: 1
    weight_filler {
      type: "xavier"
      std: 0.09
    }
    bias_filler {
      type: "constant"
      value: 0.2
    }
  }
}
layer {
  name: "inception_3a/relu_3x3_reduce"
  type: "ReLU"
  bottom: "inception_3a/3x3_reduce"
  top: "inception_3a/3x3_reduce"
}
layer {
  name: "inception_3a/3x3"
  type: "Convolution"
  bottom: "inception_3a/3x3_reduce"
  top: "inception_3a/3x3"
  param {
    lr_mult: 1
    decay_mult: 1
  }
  param {
    lr_mult: 2
    decay_mult: 0
  }
  convolution_param {
    num_output: 128
    pad: 1
    kernel_size: 3
    weight_filler {
      type: "xavier"
      std: 0.03
    }
    bias_filler {
      type: "constant"
      value: 0.2
    }
  }
}
layer {
  name: "inception_3a/relu_3x3"
  type: "ReLU"
  bottom: "inception_3a/3x3"
  top: "inception_3a/3x3"
}
layer {
  name: "inception_3a/5x5_reduce"
  type: "Convolution"
  bottom: "pool2/3x3_s2"
  top: "inception_3a/5x5_reduce"
  param {
    lr_mult: 1
    decay_mult: 1
  }
  param {
    lr_mult: 2
    decay_mult: 0
  }
  convolution_param {
    num_output: 16
    kernel_size: 1
    weight_filler {
      type: "xavier"
      std: 0.2
    }
    bias_filler {
      type: "constant"
      value: 0.2
    }
  }
}
layer {
  name: "inception_3a/relu_5x5_reduce"
  type: "ReLU"
  bottom: "inception_3a/5x5_reduce"
  top: "inception_3a/5x5_reduce"
}
layer {
  name: "inception_3a/5x5"
  type: "Convolution"
  bottom: "inception_3a/5x5_reduce"
  top: "inception_3a/5x5"
  param {
    lr_mult: 1
    decay_mult: 1
  }
  param {
    lr_mult: 2
    decay_mult: 0
  }
  convolution_param {
    num_output: 32
    pad: 2
    kernel_size: 5
    weight_filler {
      type: "xavier"
      std: 0.03
    }
    bias_filler {
      type: "constant"
      value: 0.2
    }
  }
}
layer {
  name: "inception_3a/relu_5x5"
  type: "ReLU"
  bottom: "inception_3a/5x5"
  top: "inception_3a/5x5"
}
layer {
  name: "inception_3a/pool"
  type: "Pooling"
  bottom: "pool2/3x3_s2"
  top: "inception_3a/pool"
  pooling_param {
    pool: MAX
    kernel_size: 3
    stride: 1
    pad: 1
  }
}
layer {
  name: "inception_3a/pool_proj"
  type: "Convolution"
  bottom: "inception_3a/pool"
  top: "inception_3a/pool_proj"
  param {
    lr_mult: 1
    decay_mult: 1
  }
  param {
    lr_mult: 2
    decay_mult: 0
  }
  convolution_param {
    num_output: 32
    kernel_size: 1
    weight_filler {
      type: "xavier"
      std: 0.1
    }
    bias_filler {
      type: "constant"
      value: 0.2
    }
  }
}
layer {
  name: "inception_3a/relu_pool_proj"
  type: "ReLU"
  bottom: "inception_3a/pool_proj"
  top: "inception_3a/pool_proj"
}
layer {
  name: "inception_3a/output"
  type: "Concat"
  bottom: "inception_3a/1x1"
  bottom: "inception_3a/3x3"
  bottom: "inception_3a/5x5"
  bottom: "inception_3a/pool_proj"
  top: "inception_3a/output"
}
layer {
  name: "inception_3b/1x1"
  type: "Convolution"
  bottom: "inception_3a/output"
  top: "inception_3b/1x1"
  param {
    lr_mult: 1
    decay_mult: 1
  }
  param {
    lr_mult: 2
    decay_mult: 0
  }
  convolution_param {
    num_output: 128
    kernel_size: 1
    weight_filler {
      type: "xavier"
      std: 0.03
    }
    bias_filler {
      type: "constant"
      value: 0.2
    }
  }
}
layer {
  name: "inception_3b/relu_1x1"
  type: "ReLU"
  bottom: "inception_3b/1x1"
  top: "inception_3b/1x1"
}
layer {
  name: "inception_3b/3x3_reduce"
  type: "Convolution"
  bottom: "inception_3a/output"
  top: "inception_3b/3x3_reduce"
  param {
    lr_mult: 1
    decay_mult: 1
  }
  param {
    lr_mult: 2
    decay_mult: 0
  }
  convolution_param {
    num_output: 128
    kernel_size: 1
    weight_filler {
      type: "xavier"
      std: 0.09
    }
    bias_filler {
      type: "constant"
      value: 0.2
    }
  }
}
layer {
  name: "inception_3b/relu_3x3_reduce"
  type: "ReLU"
  bottom: "inception_3b/3x3_reduce"
  top: "inception_3b/3x3_reduce"
}
layer {
  name: "inception_3b/3x3"
  type: "Convolution"
  bottom: "inception_3b/3x3_reduce"
  top: "inception_3b/3x3"
  param {
    lr_mult: 1
    decay_mult: 1
  }
  param {
    lr_mult: 2
    decay_mult: 0
  }
  convolution_param {
    num_output: 192
    pad: 1
    kernel_size: 3
    weight_filler {
      type: "xavier"
      std: 0.03
    }
    bias_filler {
      type: "constant"
      value: 0.2
    }
  }
}
layer {
  name: "inception_3b/relu_3x3"
  type: "ReLU"
  bottom: "inception_3b/3x3"
  top: "inception_3b/3x3"
}
layer {
  name: "inception_3b/5x5_reduce"
  type: "Convolution"
  bottom: "inception_3a/output"
  top: "inception_3b/5x5_reduce"
  param {
    lr_mult: 1
    decay_mult: 1
  }
  param {
    lr_mult: 2
    decay_mult: 0
  }
  convolution_param {
    num_output: 32
    kernel_size: 1
    weight_filler {
      type: "xavier"
      std: 0.2
    }
    bias_filler {
      type: "constant"
      value: 0.2
    }
  }
}
layer {
  name: "inception_3b/relu_5x5_reduce"
  type: "ReLU"
  bottom: "inception_3b/5x5_reduce"
  top: "inception_3b/5x5_reduce"
}
layer {
  name: "inception_3b/5x5"
  type: "Convolution"
  bottom: "inception_3b/5x5_reduce"
  top: "inception_3b/5x5"
  param {
    lr_mult: 1
    decay_mult: 1
  }
  param {
    lr_mult: 2
    decay_mult: 0
  }
  convolution_param {
    num_output: 96
    pad: 2
    kernel_size: 5
    weight_filler {
      type: "xavier"
      std: 0.03
    }
    bias_filler {
      type: "constant"
      value: 0.2
    }
  }
}
layer {
  name: "inception_3b/relu_5x5"
  type: "ReLU"
  bottom: "inception_3b/5x5"
  top: "inception_3b/5x5"
}
layer {
  name: "inception_3b/pool"
  type: "Pooling"
  bottom: "inception_3a/output"
  top: "inception_3b/pool"
  pooling_param {
    pool: MAX
    kernel_size: 3
    stride: 1
    pad: 1
  }
}
layer {
  name: "inception_3b/pool_proj"
  type: "Convolution"
  bottom: "inception_3b/pool"
  top: "inception_3b/pool_proj"
  param {
    lr_mult: 1
    decay_mult: 1
  }
  param {
    lr_mult: 2
    decay_mult: 0
  }
  convolution_param {
    num_output: 64
    kernel_size: 1
    weight_filler {
      type: "xavier"
      std: 0.1
    }
    bias_filler {
      type: "constant"
      value: 0.2
    }
  }
}
layer {
  name: "inception_3b/relu_pool_proj"
  type: "ReLU"
  bottom: "inception_3b/pool_proj"
  top: "inception_3b/pool_proj"
}
layer {
  name: "inception_3b/output"
  type: "Concat"
  bottom: "inception_3b/1x1"
  bottom: "inception_3b/3x3"
  bottom: "inception_3b/5x5"
  bottom: "inception_3b/pool_proj"
  top: "inception_3b/output"
}
layer {
  name: "pool3/3x3_s2"
  type: "Pooling"
  bottom: "inception_3b/output"
  top: "pool3/3x3_s2"
  pooling_param {
    pool: MAX
    kernel_size: 3
    stride: 2
  }
}
layer {
  name: "inception_4a/1x1"
  type: "Convolution"
  bottom: "pool3/3x3_s2"
  top: "inception_4a/1x1"
  param {
    lr_mult: 1
    decay_mult: 1
  }
  param {
    lr_mult: 2
    decay_mult: 0
  }
  convolution_param {
    num_output: 192
    kernel_size: 1
    weight_filler {
      type: "xavier"
      std: 0.03
    }
    bias_filler {
      type: "constant"
      value: 0.2
    }
  }
}
layer {
  name: "inception_4a/relu_1x1"
  type: "ReLU"
  bottom: "inception_4a/1x1"
  top: "inception_4a/1x1"
}
layer {
  name: "inception_4a/3x3_reduce"
  type: "Convolution"
  bottom: "pool3/3x3_s2"
  top: "inception_4a/3x3_reduce"
  param {
    lr_mult: 1
    decay_mult: 1
  }
  param {
    lr_mult: 2
    decay_mult: 0
  }
  convolution_param {
    num_output: 96
    kernel_size: 1
    weight_filler {
      type: "xavier"
      std: 0.09
    }
    bias_filler {
      type: "constant"
      value: 0.2
    }
  }
}
layer {
  name: "inception_4a/relu_3x3_reduce"
  type: "ReLU"
  bottom: "inception_4a/3x3_reduce"
  top: "inception_4a/3x3_reduce"
}
layer {
  name: "inception_4a/3x3"
  type: "Convolution"
  bottom: "inception_4a/3x3_reduce"
  top: "inception_4a/3x3"
  param {
    lr_mult: 1
    decay_mult: 1
  }
  param {
    lr_mult: 2
    decay_mult: 0
  }
  convolution_param {
    num_output: 208
    pad: 1
    kernel_size: 3
    weight_filler {
      type: "xavier"
      std: 0.03
    }
    bias_filler {
      type: "constant"
      value: 0.2
    }
  }
}
layer {
  name: "inception_4a/relu_3x3"
  type: "ReLU"
  bottom: "inception_4a/3x3"
  top: "inception_4a/3x3"
}
layer {
  name: "inception_4a/5x5_reduce"
  type: "Convolution"
  bottom: "pool3/3x3_s2"
  top: "inception_4a/5x5_reduce"
  param {
    lr_mult: 1
    decay_mult: 1
  }
  param {
    lr_mult: 2
    decay_mult: 0
  }
  convolution_param {
    num_output: 16
    kernel_size: 1
    weight_filler {
      type: "xavier"
      std: 0.2
    }
    bias_filler {
      type: "constant"
      value: 0.2
    }
  }
}
layer {
  name: "inception_4a/relu_5x5_reduce"
  type: "ReLU"
  bottom: "inception_4a/5x5_reduce"
  top: "inception_4a/5x5_reduce"
}
layer {
  name: "inception_4a/5x5"
  type: "Convolution"
  bottom: "inception_4a/5x5_reduce"
  top: "inception_4a/5x5"
  param {
    lr_mult: 1
    decay_mult: 1
  }
  param {
    lr_mult: 2
    decay_mult: 0
  }
  convolution_param {
    num_output: 48
    pad: 2
    kernel_size: 5
    weight_filler {
      type: "xavier"
      std: 0.03
    }
    bias_filler {
      type: "constant"
      value: 0.2
    }
  }
}
layer {
  name: "inception_4a/relu_5x5"
  type: "ReLU"
  bottom: "inception_4a/5x5"
  top: "inception_4a/5x5"
}
layer {
  name: "inception_4a/pool"
  type: "Pooling"
  bottom: "pool3/3x3_s2"
  top: "inception_4a/pool"
  pooling_param {
    pool: MAX
    kernel_size: 3
    stride: 1
    pad: 1
  }
}
layer {
  name: "inception_4a/pool_proj"
  type: "Convolution"
  bottom: "inception_4a/pool"
  top: "inception_4a/pool_proj"
  param {
    lr_mult: 1
    decay_mult: 1
  }
  param {
    lr_mult: 2
    decay_mult: 0
  }
  convolution_param {
    num_output: 64
    kernel_size: 1
    weight_filler {
      type: "xavier"
      std: 0.1
    }
    bias_filler {
      type: "constant"
      value: 0.2
    }
  }
}
layer {
  name: "inception_4a/relu_pool_proj"
  type: "ReLU"
  bottom: "inception_4a/pool_proj"
  top: "inception_4a/pool_proj"
}
layer {
  name: "inception_4a/output"
  type: "Concat"
  bottom: "inception_4a/1x1"
  bottom: "inception_4a/3x3"
  bottom: "inception_4a/5x5"
  bottom: "inception_4a/pool_proj"
  top: "inception_4a/output"
}
layer {
  name: "inception_4b/1x1"
  type: "Convolution"
  bottom: "inception_4a/output"
  top: "inception_4b/1x1"
  param {
    lr_mult: 1
    decay_mult: 1
  }
  param {
    lr_mult: 2
    decay_mult: 0
  }
  convolution_param {
    num_output: 160
    kernel_size: 1
    weight_filler {
      type: "xavier"
      std: 0.03
    }
    bias_filler {
      type: "constant"
      value: 0.2
    }
  }
}
layer {
  name: "inception_4b/relu_1x1"
  type: "ReLU"
  bottom: "inception_4b/1x1"
  top: "inception_4b/1x1"
}
layer {
  name: "inception_4b/3x3_reduce"
  type: "Convolution"
  bottom: "inception_4a/output"
  top: "inception_4b/3x3_reduce"
  param {
    lr_mult: 1
    decay_mult: 1
  }
  param {
    lr_mult: 2
    decay_mult: 0
  }
  convolution_param {
    num_output: 112
    kernel_size: 1
    weight_filler {
      type: "xavier"
      std: 0.09
    }
    bias_filler {
      type: "constant"
      value: 0.2
    }
  }
}
layer {
  name: "inception_4b/relu_3x3_reduce"
  type: "ReLU"
  bottom: "inception_4b/3x3_reduce"
  top: "inception_4b/3x3_reduce"
}
layer {
  name: "inception_4b/3x3"
  type: "Convolution"
  bottom: "inception_4b/3x3_reduce"
  top: "inception_4b/3x3"
  param {
    lr_mult: 1
    decay_mult: 1
  }
  param {
    lr_mult: 2
    decay_mult: 0
  }
  convolution_param {
    num_output: 224
    pad: 1
    kernel_size: 3
    weight_filler {
      type: "xavier"
      std: 0.03
    }
    bias_filler {
      type: "constant"
      value: 0.2
    }
  }
}
layer {
  name: "inception_4b/relu_3x3"
  type: "ReLU"
  bottom: "inception_4b/3x3"
  top: "inception_4b/3x3"
}
layer {
  name: "inception_4b/5x5_reduce"
  type: "Convolution"
  bottom: "inception_4a/output"
  top: "inception_4b/5x5_reduce"
  param {
    lr_mult: 1
    decay_mult: 1
  }
  param {
    lr_mult: 2
    decay_mult: 0
  }
  convolution_param {
    num_output: 24
    kernel_size: 1
    weight_filler {
      type: "xavier"
      std: 0.2
    }
    bias_filler {
      type: "constant"
      value: 0.2
    }
  }
}
layer {
  name: "inception_4b/relu_5x5_reduce"
  type: "ReLU"
  bottom: "inception_4b/5x5_reduce"
  top: "inception_4b/5x5_reduce"
}
layer {
  name: "inception_4b/5x5"
  type: "Convolution"
  bottom: "inception_4b/5x5_reduce"
  top: "inception_4b/5x5"
  param {
    lr_mult: 1
    decay_mult: 1
  }
  param {
    lr_mult: 2
    decay_mult: 0
  }
  convolution_param {
    num_output: 64
    pad: 2
    kernel_size: 5
    weight_filler {
      type: "xavier"
      std: 0.03
    }
    bias_filler {
      type: "constant"
      value: 0.2
    }
  }
}
layer {
  name: "inception_4b/relu_5x5"
  type: "ReLU"
  bottom: "inception_4b/5x5"
  top: "inception_4b/5x5"
}
layer {
  name: "inception_4b/pool"
  type: "Pooling"
  bottom: "inception_4a/output"
  top: "inception_4b/pool"
  pooling_param {
    pool: MAX
    kernel_size: 3
    stride: 1
    pad: 1
  }
}
layer {
  name: "inception_4b/pool_proj"
  type: "Convolution"
  bottom: "inception_4b/pool"
  top: "inception_4b/pool_proj"
  param {
    lr_mult: 1
    decay_mult: 1
  }
  param {
    lr_mult: 2
    decay_mult: 0
  }
  convolution_param {
    num_output: 64
    kernel_size: 1
    weight_filler {
      type: "xavier"
      std: 0.1
    }
    bias_filler {
      type: "constant"
      value: 0.2
    }
  }
}
layer {
  name: "inception_4b/relu_pool_proj"
  type: "ReLU"
  bottom: "inception_4b/pool_proj"
  top: "inception_4b/pool_proj"
}
layer {
  name: "inception_4b/output"
  type: "Concat"
  bottom: "inception_4b/1x1"
  bottom: "inception_4b/3x3"
  bottom: "inception_4b/5x5"
  bottom: "inception_4b/pool_proj"
  top: "inception_4b/output"
}
layer {
  name: "inception_4c/1x1"
  type: "Convolution"
  bottom: "inception_4b/output"
  top: "inception_4c/1x1"
  param {
    lr_mult: 1
    decay_mult: 1
  }
  param {
    lr_mult: 2
    decay_mult: 0
  }
  convolution_param {
    num_output: 128
    kernel_size: 1
    weight_filler {
      type: "xavier"
      std: 0.03
    }
    bias_filler {
      type: "constant"
      value: 0.2
    }
  }
}
layer {
  name: "inception_4c/relu_1x1"
  type: "ReLU"
  bottom: "inception_4c/1x1"
  top: "inception_4c/1x1"
}
layer {
  name: "inception_4c/3x3_reduce"
  type: "Convolution"
  bottom: "inception_4b/output"
  top: "inception_4c/3x3_reduce"
  param {
    lr_mult: 1
    decay_mult: 1
  }
  param {
    lr_mult: 2
    decay_mult: 0
  }
  convolution_param {
    num_output: 128
    kernel_size: 1
    weight_filler {
      type: "xavier"
      std: 0.09
    }
    bias_filler {
      type: "constant"
      value: 0.2
    }
  }
}
layer {
  name: "inception_4c/relu_3x3_reduce"
  type: "ReLU"
  bottom: "inception_4c/3x3_reduce"
  top: "inception_4c/3x3_reduce"
}
layer {
  name: "inception_4c/3x3"
  type: "Convolution"
  bottom: "inception_4c/3x3_reduce"
  top: "inception_4c/3x3"
  param {
    lr_mult: 1
    decay_mult: 1
  }
  param {
    lr_mult: 2
    decay_mult: 0
  }
  convolution_param {
    num_output: 256
    pad: 1
    kernel_size: 3
    weight_filler {
      type: "xavier"
      std: 0.03
    }
    bias_filler {
      type: "constant"
      value: 0.2
    }
  }
}
layer {
  name: "inception_4c/relu_3x3"
  type: "ReLU"
  bottom: "inception_4c/3x3"
  top: "inception_4c/3x3"
}
layer {
  name: "inception_4c/5x5_reduce"
  type: "Convolution"
  bottom: "inception_4b/output"
  top: "inception_4c/5x5_reduce"
  param {
    lr_mult: 1
    decay_mult: 1
  }
  param {
    lr_mult: 2
    decay_mult: 0
  }
  convolution_param {
    num_output: 24
    kernel_size: 1
    weight_filler {
      type: "xavier"
      std: 0.2
    }
    bias_filler {
      type: "constant"
      value: 0.2
    }
  }
}
layer {
  name: "inception_4c/relu_5x5_reduce"
  type: "ReLU"
  bottom: "inception_4c/5x5_reduce"
  top: "inception_4c/5x5_reduce"
}
layer {
  name: "inception_4c/5x5"
  type: "Convolution"
  bottom: "inception_4c/5x5_reduce"
  top: "inception_4c/5x5"
  param {
    lr_mult: 1
    decay_mult: 1
  }
  param {
    lr_mult: 2
    decay_mult: 0
  }
  convolution_param {
    num_output: 64
    pad: 2
    kernel_size: 5
    weight_filler {
      type: "xavier"
      std: 0.03
    }
    bias_filler {
      type: "constant"
      value: 0.2
    }
  }
}
layer {
  name: "inception_4c/relu_5x5"
  type: "ReLU"
  bottom: "inception_4c/5x5"
  top: "inception_4c/5x5"
}
layer {
  name: "inception_4c/pool"
  type: "Pooling"
  bottom: "inception_4b/output"
  top: "inception_4c/pool"
  pooling_param {
    pool: MAX
    kernel_size: 3
    stride: 1
    pad: 1
  }
}
layer {
  name: "inception_4c/pool_proj"
  type: "Convolution"
  bottom: "inception_4c/pool"
  top: "inception_4c/pool_proj"
  param {
    lr_mult: 1
    decay_mult: 1
  }
  param {
    lr_mult: 2
    decay_mult: 0
  }
  convolution_param {
    num_output: 64
    kernel_size: 1
    weight_filler {
      type: "xavier"
      std: 0.1
    }
    bias_filler {
      type: "constant"
      value: 0.2
    }
  }
}
layer {
  name: "inception_4c/relu_pool_proj"
  type: "ReLU"
  bottom: "inception_4c/pool_proj"
  top: "inception_4c/pool_proj"
}
layer {
  name: "inception_4c/output"
  type: "Concat"
  bottom: "inception_4c/1x1"
  bottom: "inception_4c/3x3"
  bottom: "inception_4c/5x5"
  bottom: "inception_4c/pool_proj"
  top: "inception_4c/output"
}
layer {
  name: "inception_4d/1x1"
  type: "Convolution"
  bottom: "inception_4c/output"
  top: "inception_4d/1x1"
  param {
    lr_mult: 1
    decay_mult: 1
  }
  param {
    lr_mult: 2
    decay_mult: 0
  }
  convolution_param {
    num_output: 112
    kernel_size: 1
    weight_filler {
      type: "xavier"
      std: 0.03
    }
    bias_filler {
      type: "constant"
      value: 0.2
    }
  }
}
layer {
  name: "inception_4d/relu_1x1"
  type: "ReLU"
  bottom: "inception_4d/1x1"
  top: "inception_4d/1x1"
}
layer {
  name: "inception_4d/3x3_reduce"
  type: "Convolution"
  bottom: "inception_4c/output"
  top: "inception_4d/3x3_reduce"
  param {
    lr_mult: 1
    decay_mult: 1
  }
  param {
    lr_mult: 2
    decay_mult: 0
  }
  convolution_param {
    num_output: 144
    kernel_size: 1
    weight_filler {
      type: "xavier"
      std: 0.09
    }
    bias_filler {
      type: "constant"
      value: 0.2
    }
  }
}
layer {
  name: "inception_4d/relu_3x3_reduce"
  type: "ReLU"
  bottom: "inception_4d/3x3_reduce"
  top: "inception_4d/3x3_reduce"
}
layer {
  name: "inception_4d/3x3"
  type: "Convolution"
  bottom: "inception_4d/3x3_reduce"
  top: "inception_4d/3x3"
  param {
    lr_mult: 1
    decay_mult: 1
  }
  param {
    lr_mult: 2
    decay_mult: 0
  }
  convolution_param {
    num_output: 288
    pad: 1
    kernel_size: 3
    weight_filler {
      type: "xavier"
      std: 0.03
    }
    bias_filler {
      type: "constant"
      value: 0.2
    }
  }
}
layer {
  name: "inception_4d/relu_3x3"
  type: "ReLU"
  bottom: "inception_4d/3x3"
  top: "inception_4d/3x3"
}
layer {
  name: "inception_4d/5x5_reduce"
  type: "Convolution"
  bottom: "inception_4c/output"
  top: "inception_4d/5x5_reduce"
  param {
    lr_mult: 1
    decay_mult: 1
  }
  param {
    lr_mult: 2
    decay_mult: 0
  }
  convolution_param {
    num_output: 32
    kernel_size: 1
    weight_filler {
      type: "xavier"
      std: 0.2
    }
    bias_filler {
      type: "constant"
      value: 0.2
    }
  }
}
layer {
  name: "inception_4d/relu_5x5_reduce"
  type: "ReLU"
  bottom: "inception_4d/5x5_reduce"
  top: "inception_4d/5x5_reduce"
}
layer {
  name: "inception_4d/5x5"
  type: "Convolution"
  bottom: "inception_4d/5x5_reduce"
  top: "inception_4d/5x5"
  param {
    lr_mult: 1
    decay_mult: 1
  }
  param {
    lr_mult: 2
    decay_mult: 0
  }
  convolution_param {
    num_output: 64
    pad: 2
    kernel_size: 5
    weight_filler {
      type: "xavier"
      std: 0.03
    }
    bias_filler {
      type: "constant"
      value: 0.2
    }
  }
}
layer {
  name: "inception_4d/relu_5x5"
  type: "ReLU"
  bottom: "inception_4d/5x5"
  top: "inception_4d/5x5"
}
layer {
  name: "inception_4d/pool"
  type: "Pooling"
  bottom: "inception_4c/output"
  top: "inception_4d/pool"
  pooling_param {
    pool: MAX
    kernel_size: 3
    stride: 1
    pad: 1
  }
}
layer {
  name: "inception_4d/pool_proj"
  type: "Convolution"
  bottom: "inception_4d/pool"
  top: "inception_4d/pool_proj"
  param {
    lr_mult: 1
    decay_mult: 1
  }
  param {
    lr_mult: 2
    decay_mult: 0
  }
  convolution_param {
    num_output: 64
    kernel_size: 1
    weight_filler {
      type: "xavier"
      std: 0.1
    }
    bias_filler {
      type: "constant"
      value: 0.2
    }
  }
}
layer {
  name: "inception_4d/relu_pool_proj"
  type: "ReLU"
  bottom: "inception_4d/pool_proj"
  top: "inception_4d/pool_proj"
}
layer {
  name: "inception_4d/output"
  type: "Concat"
  bottom: "inception_4d/1x1"
  bottom: "inception_4d/3x3"
  bottom: "inception_4d/5x5"
  bottom: "inception_4d/pool_proj"
  top: "inception_4d/output"
}
layer {
  name: "inception_4e/1x1"
  type: "Convolution"
  bottom: "inception_4d/output"
  top: "inception_4e/1x1"
  param {
    lr_mult: 1
    decay_mult: 1
  }
  param {
    lr_mult: 2
    decay_mult: 0
  }
  convolution_param {
    num_output: 256
    kernel_size: 1
    weight_filler {
      type: "xavier"
      std: 0.03
    }
    bias_filler {
      type: "constant"
      value: 0.2
    }
  }
}
layer {
  name: "inception_4e/relu_1x1"
  type: "ReLU"
  bottom: "inception_4e/1x1"
  top: "inception_4e/1x1"
}
layer {
  name: "inception_4e/3x3_reduce"
  type: "Convolution"
  bottom: "inception_4d/output"
  top: "inception_4e/3x3_reduce"
  param {
    lr_mult: 1
    decay_mult: 1
  }
  param {
    lr_mult: 2
    decay_mult: 0
  }
  convolution_param {
    num_output: 160
    kernel_size: 1
    weight_filler {
      type: "xavier"
      std: 0.09
    }
    bias_filler {
      type: "constant"
      value: 0.2
    }
  }
}
layer {
  name: "inception_4e/relu_3x3_reduce"
  type: "ReLU"
  bottom: "inception_4e/3x3_reduce"
  top: "inception_4e/3x3_reduce"
}
layer {
  name: "inception_4e/3x3"
  type: "Convolution"
  bottom: "inception_4e/3x3_reduce"
  top: "inception_4e/3x3"
  param {
    lr_mult: 1
    decay_mult: 1
  }
  param {
    lr_mult: 2
    decay_mult: 0
  }
  convolution_param {
    num_output: 320
    pad: 1
    kernel_size: 3
    weight_filler {
      type: "xavier"
      std: 0.03
    }
    bias_filler {
      type: "constant"
      value: 0.2
    }
  }
}
layer {
  name: "inception_4e/relu_3x3"
  type: "ReLU"
  bottom: "inception_4e/3x3"
  top: "inception_4e/3x3"
}
layer {
  name: "inception_4e/5x5_reduce"
  type: "Convolution"
  bottom: "inception_4d/output"
  top: "inception_4e/5x5_reduce"
  param {
    lr_mult: 1
    decay_mult: 1
  }
  param {
    lr_mult: 2
    decay_mult: 0
  }
  convolution_param {
    num_output: 32
    kernel_size: 1
    weight_filler {
      type: "xavier"
      std: 0.2
    }
    bias_filler {
      type: "constant"
      value: 0.2
    }
  }
}
layer {
  name: "inception_4e/relu_5x5_reduce"
  type: "ReLU"
  bottom: "inception_4e/5x5_reduce"
  top: "inception_4e/5x5_reduce"
}
layer {
  name: "inception_4e/5x5"
  type: "Convolution"
  bottom: "inception_4e/5x5_reduce"
  top: "inception_4e/5x5"
  param {
    lr_mult: 1
    decay_mult: 1
  }
  param {
    lr_mult: 2
    decay_mult: 0
  }
  convolution_param {
    num_output: 128
    pad: 2
    kernel_size: 5
    weight_filler {
      type: "xavier"
      std: 0.03
    }
    bias_filler {
      type: "constant"
      value: 0.2
    }
  }
}
layer {
  name: "inception_4e/relu_5x5"
  type: "ReLU"
  bottom: "inception_4e/5x5"
  top: "inception_4e/5x5"
}
layer {
  name: "inception_4e/pool"
  type: "Pooling"
  bottom: "inception_4d/output"
  top: "inception_4e/pool"
  pooling_param {
    pool: MAX
    kernel_size: 3
    stride: 1
    pad: 1
  }
}
layer {
  name: "inception_4e/pool_proj"
  type: "Convolution"
  bottom: "inception_4e/pool"
  top: "inception_4e/pool_proj"
  param {
    lr_mult: 1
    decay_mult: 1
  }
  param {
    lr_mult: 2
    decay_mult: 0
  }
  convolution_param {
    num_output: 128
    kernel_size: 1
    weight_filler {
      type: "xavier"
      std: 0.1
    }
    bias_filler {
      type: "constant"
      value: 0.2
    }
  }
}
layer {
  name: "inception_4e/relu_pool_proj"
  type: "ReLU"
  bottom: "inception_4e/pool_proj"
  top: "inception_4e/pool_proj"
}
layer {
  name: "inception_4e/output"
  type: "Concat"
  bottom: "inception_4e/1x1"
  bottom: "inception_4e/3x3"
  bottom: "inception_4e/5x5"
  bottom: "inception_4e/pool_proj"
  top: "inception_4e/output"
}
layer {
  name: "pool4/3x3_s2"
  type: "Pooling"
  bottom: "inception_4e/output"
  top: "pool4/3x3_s2"
  pooling_param {
    pool: MAX
    kernel_size: 3
    stride: 2
  }
}
layer {
  name: "inception_5a/1x1"
  type: "Convolution"
  bottom: "pool4/3x3_s2"
  top: "inception_5a/1x1"
  param {
    lr_mult: 1
    decay_mult: 1
  }
  param {
    lr_mult: 2
    decay_mult: 0
  }
  convolution_param {
    num_output: 256
    kernel_size: 1
    weight_filler {
      type: "xavier"
      std: 0.03
    }
    bias_filler {
      type: "constant"
      value: 0.2
    }
  }
}
layer {
  name: "inception_5a/relu_1x1"
  type: "ReLU"
  bottom: "inception_5a/1x1"
  top: "inception_5a/1x1"
}
layer {
  name: "inception_5a/3x3_reduce"
  type: "Convolution"
  bottom: "pool4/3x3_s2"
  top: "inception_5a/3x3_reduce"
  param {
    lr_mult: 1
    decay_mult: 1
  }
  param {
    lr_mult: 2
    decay_mult: 0
  }
  convolution_param {
    num_output: 160
    kernel_size: 1
    weight_filler {
      type: "xavier"
      std: 0.09
    }
    bias_filler {
      type: "constant"
      value: 0.2
    }
  }
}
layer {
  name: "inception_5a/relu_3x3_reduce"
  type: "ReLU"
  bottom: "inception_5a/3x3_reduce"
  top: "inception_5a/3x3_reduce"
}
layer {
  name: "inception_5a/3x3"
  type: "Convolution"
  bottom: "inception_5a/3x3_reduce"
  top: "inception_5a/3x3"
  param {
    lr_mult: 1
    decay_mult: 1
  }
  param {
    lr_mult: 2
    decay_mult: 0
  }
  convolution_param {
    num_output: 320
    pad: 1
    kernel_size: 3
    weight_filler {
      type: "xavier"
      std: 0.03
    }
    bias_filler {
      type: "constant"
      value: 0.2
    }
  }
}
layer {
  name: "inception_5a/relu_3x3"
  type: "ReLU"
  bottom: "inception_5a/3x3"
  top: "inception_5a/3x3"
}
layer {
  name: "inception_5a/5x5_reduce"
  type: "Convolution"
  bottom: "pool4/3x3_s2"
  top: "inception_5a/5x5_reduce"
  param {
    lr_mult: 1
    decay_mult: 1
  }
  param {
    lr_mult: 2
    decay_mult: 0
  }
  convolution_param {
    num_output: 32
    kernel_size: 1
    weight_filler {
      type: "xavier"
      std: 0.2
    }
    bias_filler {
      type: "constant"
      value
I0509 17:40:02.624760 120261 layer_factory.hpp:77] Creating layer data
I0509 17:40:02.624771 120261 net.cpp:84] Creating Layer data
I0509 17:40:02.624778 120261 net.cpp:380] data -> data
I0509 17:40:02.624790 120261 net.cpp:122] Setting up data
I0509 17:40:02.624795 120261 net.cpp:129] Top shape: 10 3 224 224 (1505280)
I0509 17:40:02.624799 120261 net.cpp:137] Memory required for data: 6021120
I0509 17:40:02.624801 120261 layer_factory.hpp:77] Creating layer conv1/7x7_s2
I0509 17:40:02.624809 120261 net.cpp:84] Creating Layer conv1/7x7_s2
I0509 17:40:02.624814 120261 net.cpp:406] conv1/7x7_s2 <- data
I0509 17:40:02.624819 120261 net.cpp:380] conv1/7x7_s2 -> conv1/7x7_s2
I0509 17:40:02.624827 120261 base_conv_layer.cpp:121] Group is 1channel is3number of output is 64
I0509 17:40:02.625229 120261 net.cpp:122] Setting up conv1/7x7_s2
I0509 17:40:02.625236 120261 net.cpp:129] Top shape: 10 64 112 112 (8028160)
I0509 17:40:02.625239 120261 net.cpp:137] Memory required for data: 38133760
I0509 17:40:02.625248 120261 layer_factory.hpp:77] Creating layer conv1/relu_7x7
I0509 17:40:02.625253 120261 net.cpp:84] Creating Layer conv1/relu_7x7
I0509 17:40:02.625257 120261 net.cpp:406] conv1/relu_7x7 <- conv1/7x7_s2
I0509 17:40:02.625260 120261 net.cpp:367] conv1/relu_7x7 -> conv1/7x7_s2 (in-place)
I0509 17:40:02.625267 120261 net.cpp:122] Setting up conv1/relu_7x7
I0509 17:40:02.625270 120261 net.cpp:129] Top shape: 10 64 112 112 (8028160)
I0509 17:40:02.625272 120261 net.cpp:137] Memory required for data: 70246400
I0509 17:40:02.625279 120261 layer_factory.hpp:77] Creating layer pool1/3x3_s2
I0509 17:40:02.625283 120261 net.cpp:84] Creating Layer pool1/3x3_s2
I0509 17:40:02.625286 120261 net.cpp:406] pool1/3x3_s2 <- conv1/7x7_s2
I0509 17:40:02.625289 120261 net.cpp:380] pool1/3x3_s2 -> pool1/3x3_s2
I0509 17:40:02.625298 120261 net.cpp:122] Setting up pool1/3x3_s2
I0509 17:40:02.625301 120261 net.cpp:129] Top shape: 10 64 56 56 (2007040)
I0509 17:40:02.625304 120261 net.cpp:137] Memory required for data: 78274560
I0509 17:40:02.625306 120261 layer_factory.hpp:77] Creating layer pool1/norm1
I0509 17:40:02.625311 120261 net.cpp:84] Creating Layer pool1/norm1
I0509 17:40:02.625314 120261 net.cpp:406] pool1/norm1 <- pool1/3x3_s2
I0509 17:40:02.625319 120261 net.cpp:380] pool1/norm1 -> pool1/norm1
I0509 17:40:02.625324 120261 net.cpp:122] Setting up pool1/norm1
I0509 17:40:02.625329 120261 net.cpp:129] Top shape: 10 64 56 56 (2007040)
I0509 17:40:02.625331 120261 net.cpp:137] Memory required for data: 86302720
I0509 17:40:02.625334 120261 layer_factory.hpp:77] Creating layer conv2/3x3_reduce
I0509 17:40:02.625340 120261 net.cpp:84] Creating Layer conv2/3x3_reduce
I0509 17:40:02.625345 120261 net.cpp:406] conv2/3x3_reduce <- pool1/norm1
I0509 17:40:02.625349 120261 net.cpp:380] conv2/3x3_reduce -> conv2/3x3_reduce
I0509 17:40:02.625357 120261 base_conv_layer.cpp:121] Group is 1channel is64number of output is 64
I0509 17:40:02.625396 120261 net.cpp:122] Setting up conv2/3x3_reduce
I0509 17:40:02.625401 120261 net.cpp:129] Top shape: 10 64 56 56 (2007040)
I0509 17:40:02.625403 120261 net.cpp:137] Memory required for data: 94330880
I0509 17:40:02.625408 120261 layer_factory.hpp:77] Creating layer conv2/relu_3x3_reduce
I0509 17:40:02.625413 120261 net.cpp:84] Creating Layer conv2/relu_3x3_reduce
I0509 17:40:02.625416 120261 net.cpp:406] conv2/relu_3x3_reduce <- conv2/3x3_reduce
I0509 17:40:02.625422 120261 net.cpp:367] conv2/relu_3x3_reduce -> conv2/3x3_reduce (in-place)
I0509 17:40:02.625425 120261 net.cpp:122] Setting up conv2/relu_3x3_reduce
I0509 17:40:02.625428 120261 net.cpp:129] Top shape: 10 64 56 56 (2007040)
I0509 17:40:02.625432 120261 net.cpp:137] Memory required for data: 102359040
I0509 17:40:02.625434 120261 layer_factory.hpp:77] Creating layer conv2/3x3
I0509 17:40:02.625440 120261 net.cpp:84] Creating Layer conv2/3x3
I0509 17:40:02.625443 120261 net.cpp:406] conv2/3x3 <- conv2/3x3_reduce
I0509 17:40:02.625447 120261 net.cpp:380] conv2/3x3 -> conv2/3x3
I0509 17:40:02.625457 120261 base_conv_layer.cpp:121] Group is 1channel is64number of output is 192
I0509 17:40:02.626121 120261 net.cpp:122] Setting up conv2/3x3
I0509 17:40:02.626126 120261 net.cpp:129] Top shape: 10 192 56 56 (6021120)
I0509 17:40:02.626128 120261 net.cpp:137] Memory required for data: 126443520
I0509 17:40:02.626135 120261 layer_factory.hpp:77] Creating layer conv2/relu_3x3
I0509 17:40:02.626140 120261 net.cpp:84] Creating Layer conv2/relu_3x3
I0509 17:40:02.626143 120261 net.cpp:406] conv2/relu_3x3 <- conv2/3x3
I0509 17:40:02.626149 120261 net.cpp:367] conv2/relu_3x3 -> conv2/3x3 (in-place)
I0509 17:40:02.626153 120261 net.cpp:122] Setting up conv2/relu_3x3
I0509 17:40:02.626157 120261 net.cpp:129] Top shape: 10 192 56 56 (6021120)
I0509 17:40:02.626159 120261 net.cpp:137] Memory required for data: 150528000
I0509 17:40:02.626163 120261 layer_factory.hpp:77] Creating layer conv2/norm2
I0509 17:40:02.626165 120261 net.cpp:84] Creating Layer conv2/norm2
I0509 17:40:02.626168 120261 net.cpp:406] conv2/norm2 <- conv2/3x3
I0509 17:40:02.626171 120261 net.cpp:380] conv2/norm2 -> conv2/norm2
I0509 17:40:02.626178 120261 net.cpp:122] Setting up conv2/norm2
I0509 17:40:02.626181 120261 net.cpp:129] Top shape: 10 192 56 56 (6021120)
I0509 17:40:02.626183 120261 net.cpp:137] Memory required for data: 174612480
I0509 17:40:02.626185 120261 layer_factory.hpp:77] Creating layer pool2/3x3_s2
I0509 17:40:02.626191 120261 net.cpp:84] Creating Layer pool2/3x3_s2
I0509 17:40:02.626194 120261 net.cpp:406] pool2/3x3_s2 <- conv2/norm2
I0509 17:40:02.626199 120261 net.cpp:380] pool2/3x3_s2 -> pool2/3x3_s2
I0509 17:40:02.626206 120261 net.cpp:122] Setting up pool2/3x3_s2
I0509 17:40:02.626210 120261 net.cpp:129] Top shape: 10 192 28 28 (1505280)
I0509 17:40:02.626214 120261 net.cpp:137] Memory required for data: 180633600
I0509 17:40:02.626215 120261 layer_factory.hpp:77] Creating layer pool2/3x3_s2_pool2/3x3_s2_0_split
I0509 17:40:02.626220 120261 net.cpp:84] Creating Layer pool2/3x3_s2_pool2/3x3_s2_0_split
I0509 17:40:02.626224 120261 net.cpp:406] pool2/3x3_s2_pool2/3x3_s2_0_split <- pool2/3x3_s2
I0509 17:40:02.626229 120261 net.cpp:380] pool2/3x3_s2_pool2/3x3_s2_0_split -> pool2/3x3_s2_pool2/3x3_s2_0_split_0
I0509 17:40:02.626235 120261 net.cpp:380] pool2/3x3_s2_pool2/3x3_s2_0_split -> pool2/3x3_s2_pool2/3x3_s2_0_split_1
I0509 17:40:02.626240 120261 net.cpp:380] pool2/3x3_s2_pool2/3x3_s2_0_split -> pool2/3x3_s2_pool2/3x3_s2_0_split_2
I0509 17:40:02.626245 120261 net.cpp:380] pool2/3x3_s2_pool2/3x3_s2_0_split -> pool2/3x3_s2_pool2/3x3_s2_0_split_3
I0509 17:40:02.626251 120261 net.cpp:122] Setting up pool2/3x3_s2_pool2/3x3_s2_0_split
I0509 17:40:02.626255 120261 net.cpp:129] Top shape: 10 192 28 28 (1505280)
I0509 17:40:02.626258 120261 net.cpp:129] Top shape: 10 192 28 28 (1505280)
I0509 17:40:02.626262 120261 net.cpp:129] Top shape: 10 192 28 28 (1505280)
I0509 17:40:02.626266 120261 net.cpp:129] Top shape: 10 192 28 28 (1505280)
I0509 17:40:02.626268 120261 net.cpp:137] Memory required for data: 204718080
I0509 17:40:02.626271 120261 layer_factory.hpp:77] Creating layer inception_3a/1x1
I0509 17:40:02.626277 120261 net.cpp:84] Creating Layer inception_3a/1x1
I0509 17:40:02.626281 120261 net.cpp:406] inception_3a/1x1 <- pool2/3x3_s2_pool2/3x3_s2_0_split_0
I0509 17:40:02.626286 120261 net.cpp:380] inception_3a/1x1 -> inception_3a/1x1
I0509 17:40:02.626292 120261 base_conv_layer.cpp:121] Group is 1channel is192number of output is 64
I0509 17:40:02.626375 120261 net.cpp:122] Setting up inception_3a/1x1
I0509 17:40:02.626380 120261 net.cpp:129] Top shape: 10 64 28 28 (501760)
I0509 17:40:02.626384 120261 net.cpp:137] Memory required for data: 206725120
I0509 17:40:02.626387 120261 layer_factory.hpp:77] Creating layer inception_3a/relu_1x1
I0509 17:40:02.626391 120261 net.cpp:84] Creating Layer inception_3a/relu_1x1
I0509 17:40:02.626394 120261 net.cpp:406] inception_3a/relu_1x1 <- inception_3a/1x1
I0509 17:40:02.626399 120261 net.cpp:367] inception_3a/relu_1x1 -> inception_3a/1x1 (in-place)
I0509 17:40:02.626405 120261 net.cpp:122] Setting up inception_3a/relu_1x1
I0509 17:40:02.626408 120261 net.cpp:129] Top shape: 10 64 28 28 (501760)
I0509 17:40:02.626410 120261 net.cpp:137] Memory required for data: 208732160
I0509 17:40:02.626413 120261 layer_factory.hpp:77] Creating layer inception_3a/3x3_reduce
I0509 17:40:02.626420 120261 net.cpp:84] Creating Layer inception_3a/3x3_reduce
I0509 17:40:02.626422 120261 net.cpp:406] inception_3a/3x3_reduce <- pool2/3x3_s2_pool2/3x3_s2_0_split_1
I0509 17:40:02.626428 120261 net.cpp:380] inception_3a/3x3_reduce -> inception_3a/3x3_reduce
I0509 17:40:02.626435 120261 base_conv_layer.cpp:121] Group is 1channel is192number of output is 96
I0509 17:40:02.626554 120261 net.cpp:122] Setting up inception_3a/3x3_reduce
I0509 17:40:02.626559 120261 net.cpp:129] Top shape: 10 96 28 28 (752640)
I0509 17:40:02.626561 120261 net.cpp:137] Memory required for data: 211742720
I0509 17:40:02.626569 120261 layer_factory.hpp:77] Creating layer inception_3a/relu_3x3_reduce
I0509 17:40:02.626572 120261 net.cpp:84] Creating Layer inception_3a/relu_3x3_reduce
I0509 17:40:02.626575 120261 net.cpp:406] inception_3a/relu_3x3_reduce <- inception_3a/3x3_reduce
I0509 17:40:02.626580 120261 net.cpp:367] inception_3a/relu_3x3_reduce -> inception_3a/3x3_reduce (in-place)
I0509 17:40:02.626585 120261 net.cpp:122] Setting up inception_3a/relu_3x3_reduce
I0509 17:40:02.626588 120261 net.cpp:129] Top shape: 10 96 28 28 (752640)
I0509 17:40:02.626591 120261 net.cpp:137] Memory required for data: 214753280
I0509 17:40:02.626593 120261 layer_factory.hpp:77] Creating layer inception_3a/3x3
I0509 17:40:02.626605 120261 net.cpp:84] Creating Layer inception_3a/3x3
I0509 17:40:02.626610 120261 net.cpp:406] inception_3a/3x3 <- inception_3a/3x3_reduce
I0509 17:40:02.626615 120261 net.cpp:380] inception_3a/3x3 -> inception_3a/3x3
I0509 17:40:02.626621 120261 base_conv_layer.cpp:121] Group is 1channel is96number of output is 128
I0509 17:40:02.627281 120261 net.cpp:122] Setting up inception_3a/3x3
I0509 17:40:02.627287 120261 net.cpp:129] Top shape: 10 128 28 28 (1003520)
I0509 17:40:02.627290 120261 net.cpp:137] Memory required for data: 218767360
I0509 17:40:02.627295 120261 layer_factory.hpp:77] Creating layer inception_3a/relu_3x3
I0509 17:40:02.627298 120261 net.cpp:84] Creating Layer inception_3a/relu_3x3
I0509 17:40:02.627302 120261 net.cpp:406] inception_3a/relu_3x3 <- inception_3a/3x3
I0509 17:40:02.627306 120261 net.cpp:367] inception_3a/relu_3x3 -> inception_3a/3x3 (in-place)
I0509 17:40:02.627310 120261 net.cpp:122] Setting up inception_3a/relu_3x3
I0509 17:40:02.627315 120261 net.cpp:129] Top shape: 10 128 28 28 (1003520)
I0509 17:40:02.627317 120261 net.cpp:137] Memory required for data: 222781440
I0509 17:40:02.627320 120261 layer_factory.hpp:77] Creating layer inception_3a/5x5_reduce
I0509 17:40:02.627326 120261 net.cpp:84] Creating Layer inception_3a/5x5_reduce
I0509 17:40:02.627328 120261 net.cpp:406] inception_3a/5x5_reduce <- pool2/3x3_s2_pool2/3x3_s2_0_split_2
I0509 17:40:02.627334 120261 net.cpp:380] inception_3a/5x5_reduce -> inception_3a/5x5_reduce
I0509 17:40:02.627341 120261 base_conv_layer.cpp:121] Group is 1channel is192number of output is 16
I0509 17:40:02.627370 120261 net.cpp:122] Setting up inception_3a/5x5_reduce
I0509 17:40:02.627374 120261 net.cpp:129] Top shape: 10 16 28 28 (125440)
I0509 17:40:02.627377 120261 net.cpp:137] Memory required for data: 223283200
I0509 17:40:02.627382 120261 layer_factory.hpp:77] Creating layer inception_3a/relu_5x5_reduce
I0509 17:40:02.627387 120261 net.cpp:84] Creating Layer inception_3a/relu_5x5_reduce
I0509 17:40:02.627389 120261 net.cpp:406] inception_3a/relu_5x5_reduce <- inception_3a/5x5_reduce
I0509 17:40:02.627393 120261 net.cpp:367] inception_3a/relu_5x5_reduce -> inception_3a/5x5_reduce (in-place)
I0509 17:40:02.627403 120261 net.cpp:122] Setting up inception_3a/relu_5x5_reduce
I0509 17:40:02.627406 120261 net.cpp:129] Top shape: 10 16 28 28 (125440)
I0509 17:40:02.627408 120261 net.cpp:137] Memory required for data: 223784960
I0509 17:40:02.627411 120261 layer_factory.hpp:77] Creating layer inception_3a/5x5
I0509 17:40:02.627416 120261 net.cpp:84] Creating Layer inception_3a/5x5
I0509 17:40:02.627419 120261 net.cpp:406] inception_3a/5x5 <- inception_3a/5x5_reduce
I0509 17:40:02.627424 120261 net.cpp:380] inception_3a/5x5 -> inception_3a/5x5
I0509 17:40:02.627434 120261 base_conv_layer.cpp:121] Group is 1channel is16number of output is 32
I0509 17:40:02.627519 120261 net.cpp:122] Setting up inception_3a/5x5
I0509 17:40:02.627526 120261 net.cpp:129] Top shape: 10 32 28 28 (250880)
I0509 17:40:02.627527 120261 net.cpp:137] Memory required for data: 224788480
I0509 17:40:02.627532 120261 layer_factory.hpp:77] Creating layer inception_3a/relu_5x5
I0509 17:40:02.627537 120261 net.cpp:84] Creating Layer inception_3a/relu_5x5
I0509 17:40:02.627539 120261 net.cpp:406] inception_3a/relu_5x5 <- inception_3a/5x5
I0509 17:40:02.627542 120261 net.cpp:367] inception_3a/relu_5x5 -> inception_3a/5x5 (in-place)
I0509 17:40:02.627547 120261 net.cpp:122] Setting up inception_3a/relu_5x5
I0509 17:40:02.627550 120261 net.cpp:129] Top shape: 10 32 28 28 (250880)
I0509 17:40:02.627553 120261 net.cpp:137] Memory required for data: 225792000
I0509 17:40:02.627555 120261 layer_factory.hpp:77] Creating layer inception_3a/pool
I0509 17:40:02.627559 120261 net.cpp:84] Creating Layer inception_3a/pool
I0509 17:40:02.627562 120261 net.cpp:406] inception_3a/pool <- pool2/3x3_s2_pool2/3x3_s2_0_split_3
I0509 17:40:02.627568 120261 net.cpp:380] inception_3a/pool -> inception_3a/pool
I0509 17:40:02.627573 120261 net.cpp:122] Setting up inception_3a/pool
I0509 17:40:02.627580 120261 net.cpp:129] Top shape: 10 192 28 28 (1505280)
I0509 17:40:02.627583 120261 net.cpp:137] Memory required for data: 231813120
I0509 17:40:02.627586 120261 layer_factory.hpp:77] Creating layer inception_3a/pool_proj
I0509 17:40:02.627591 120261 net.cpp:84] Creating Layer inception_3a/pool_proj
I0509 17:40:02.627594 120261 net.cpp:406] inception_3a/pool_proj <- inception_3a/pool
I0509 17:40:02.627600 120261 net.cpp:380] inception_3a/pool_proj -> inception_3a/pool_proj
I0509 17:40:02.627606 120261 base_conv_layer.cpp:121] Group is 1channel is192number of output is 32
I0509 17:40:02.627653 120261 net.cpp:122] Setting up inception_3a/pool_proj
I0509 17:40:02.627658 120261 net.cpp:129] Top shape: 10 32 28 28 (250880)
I0509 17:40:02.627661 120261 net.cpp:137] Memory required for data: 232816640
I0509 17:40:02.627670 120261 layer_factory.hpp:77] Creating layer inception_3a/relu_pool_proj
I0509 17:40:02.627673 120261 net.cpp:84] Creating Layer inception_3a/relu_pool_proj
I0509 17:40:02.627676 120261 net.cpp:406] inception_3a/relu_pool_proj <- inception_3a/pool_proj
I0509 17:40:02.627681 120261 net.cpp:367] inception_3a/relu_pool_proj -> inception_3a/pool_proj (in-place)
I0509 17:40:02.627686 120261 net.cpp:122] Setting up inception_3a/relu_pool_proj
I0509 17:40:02.627689 120261 net.cpp:129] Top shape: 10 32 28 28 (250880)
I0509 17:40:02.627692 120261 net.cpp:137] Memory required for data: 233820160
I0509 17:40:02.627694 120261 layer_factory.hpp:77] Creating layer inception_3a/output
I0509 17:40:02.627698 120261 net.cpp:84] Creating Layer inception_3a/output
I0509 17:40:02.627701 120261 net.cpp:406] inception_3a/output <- inception_3a/1x1
I0509 17:40:02.627704 120261 net.cpp:406] inception_3a/output <- inception_3a/3x3
I0509 17:40:02.627707 120261 net.cpp:406] inception_3a/output <- inception_3a/5x5
I0509 17:40:02.627710 120261 net.cpp:406] inception_3a/output <- inception_3a/pool_proj
I0509 17:40:02.627714 120261 net.cpp:380] inception_3a/output -> inception_3a/output
I0509 17:40:02.627722 120261 net.cpp:122] Setting up inception_3a/output
I0509 17:40:02.627727 120261 net.cpp:129] Top shape: 10 256 28 28 (2007040)
I0509 17:40:02.627728 120261 net.cpp:137] Memory required for data: 241848320
I0509 17:40:02.627732 120261 layer_factory.hpp:77] Creating layer inception_3a/output_inception_3a/output_0_split
I0509 17:40:02.627735 120261 net.cpp:84] Creating Layer inception_3a/output_inception_3a/output_0_split
I0509 17:40:02.627738 120261 net.cpp:406] inception_3a/output_inception_3a/output_0_split <- inception_3a/output
I0509 17:40:02.627743 120261 net.cpp:380] inception_3a/output_inception_3a/output_0_split -> inception_3a/output_inception_3a/output_0_split_0
I0509 17:40:02.627748 120261 net.cpp:380] inception_3a/output_inception_3a/output_0_split -> inception_3a/output_inception_3a/output_0_split_1
I0509 17:40:02.627753 120261 net.cpp:380] inception_3a/output_inception_3a/output_0_split -> inception_3a/output_inception_3a/output_0_split_2
I0509 17:40:02.627758 120261 net.cpp:380] inception_3a/output_inception_3a/output_0_split -> inception_3a/output_inception_3a/output_0_split_3
I0509 17:40:02.627765 120261 net.cpp:122] Setting up inception_3a/output_inception_3a/output_0_split
I0509 17:40:02.627769 120261 net.cpp:129] Top shape: 10 256 28 28 (2007040)
I0509 17:40:02.627773 120261 net.cpp:129] Top shape: 10 256 28 28 (2007040)
I0509 17:40:02.627776 120261 net.cpp:129] Top shape: 10 256 28 28 (2007040)
I0509 17:40:02.627780 120261 net.cpp:129] Top shape: 10 256 28 28 (2007040)
I0509 17:40:02.627782 120261 net.cpp:137] Memory required for data: 273960960
I0509 17:40:02.627784 120261 layer_factory.hpp:77] Creating layer inception_3b/1x1
I0509 17:40:02.627791 120261 net.cpp:84] Creating Layer inception_3b/1x1
I0509 17:40:02.627794 120261 net.cpp:406] inception_3b/1x1 <- inception_3a/output_inception_3a/output_0_split_0
I0509 17:40:02.627799 120261 net.cpp:380] inception_3b/1x1 -> inception_3b/1x1
I0509 17:40:02.627806 120261 base_conv_layer.cpp:121] Group is 1channel is256number of output is 128
I0509 17:40:02.628011 120261 net.cpp:122] Setting up inception_3b/1x1
I0509 17:40:02.628020 120261 net.cpp:129] Top shape: 10 128 28 28 (1003520)
I0509 17:40:02.628021 120261 net.cpp:137] Memory required for data: 277975040
I0509 17:40:02.628026 120261 layer_factory.hpp:77] Creating layer inception_3b/relu_1x1
I0509 17:40:02.628031 120261 net.cpp:84] Creating Layer inception_3b/relu_1x1
I0509 17:40:02.628033 120261 net.cpp:406] inception_3b/relu_1x1 <- inception_3b/1x1
I0509 17:40:02.628043 120261 net.cpp:367] inception_3b/relu_1x1 -> inception_3b/1x1 (in-place)
I0509 17:40:02.628065 120261 net.cpp:122] Setting up inception_3b/relu_1x1
I0509 17:40:02.628070 120261 net.cpp:129] Top shape: 10 128 28 28 (1003520)
I0509 17:40:02.628072 120261 net.cpp:137] Memory required for data: 281989120
I0509 17:40:02.628075 120261 layer_factory.hpp:77] Creating layer inception_3b/3x3_reduce
I0509 17:40:02.628082 120261 net.cpp:84] Creating Layer inception_3b/3x3_reduce
I0509 17:40:02.628087 120261 net.cpp:406] inception_3b/3x3_reduce <- inception_3a/output_inception_3a/output_0_split_1
I0509 17:40:02.628092 120261 net.cpp:380] inception_3b/3x3_reduce -> inception_3b/3x3_reduce
I0509 17:40:02.628099 120261 base_conv_layer.cpp:121] Group is 1channel is256number of output is 128
I0509 17:40:02.628329 120261 net.cpp:122] Setting up inception_3b/3x3_reduce
I0509 17:40:02.628335 120261 net.cpp:129] Top shape: 10 128 28 28 (1003520)
I0509 17:40:02.628338 120261 net.cpp:137] Memory required for data: 286003200
I0509 17:40:02.628357 120261 layer_factory.hpp:77] Creating layer inception_3b/relu_3x3_reduce
I0509 17:40:02.628361 120261 net.cpp:84] Creating Layer inception_3b/relu_3x3_reduce
I0509 17:40:02.628381 120261 net.cpp:406] inception_3b/relu_3x3_reduce <- inception_3b/3x3_reduce
I0509 17:40:02.628384 120261 net.cpp:367] inception_3b/relu_3x3_reduce -> inception_3b/3x3_reduce (in-place)
I0509 17:40:02.628388 120261 net.cpp:122] Setting up inception_3b/relu_3x3_reduce
I0509 17:40:02.628392 120261 net.cpp:129] Top shape: 10 128 28 28 (1003520)
I0509 17:40:02.628394 120261 net.cpp:137] Memory required for data: 290017280
I0509 17:40:02.628397 120261 layer_factory.hpp:77] Creating layer inception_3b/3x3
I0509 17:40:02.628403 120261 net.cpp:84] Creating Layer inception_3b/3x3
I0509 17:40:02.628407 120261 net.cpp:406] inception_3b/3x3 <- inception_3b/3x3_reduce
I0509 17:40:02.628412 120261 net.cpp:380] inception_3b/3x3 -> inception_3b/3x3
I0509 17:40:02.628418 120261 base_conv_layer.cpp:121] Group is 1channel is128number of output is 192
I0509 17:40:02.629724 120261 net.cpp:122] Setting up inception_3b/3x3
I0509 17:40:02.629729 120261 net.cpp:129] Top shape: 10 192 28 28 (1505280)
I0509 17:40:02.629731 120261 net.cpp:137] Memory required for data: 296038400
I0509 17:40:02.629735 120261 layer_factory.hpp:77] Creating layer inception_3b/relu_3x3
I0509 17:40:02.629745 120261 net.cpp:84] Creating Layer inception_3b/relu_3x3
I0509 17:40:02.629748 120261 net.cpp:406] inception_3b/relu_3x3 <- inception_3b/3x3
I0509 17:40:02.629752 120261 net.cpp:367] inception_3b/relu_3x3 -> inception_3b/3x3 (in-place)
I0509 17:40:02.629756 120261 net.cpp:122] Setting up inception_3b/relu_3x3
I0509 17:40:02.629760 120261 net.cpp:129] Top shape: 10 192 28 28 (1505280)
I0509 17:40:02.629763 120261 net.cpp:137] Memory required for data: 302059520
I0509 17:40:02.629765 120261 layer_factory.hpp:77] Creating layer inception_3b/5x5_reduce
I0509 17:40:02.629771 120261 net.cpp:84] Creating Layer inception_3b/5x5_reduce
I0509 17:40:02.629775 120261 net.cpp:406] inception_3b/5x5_reduce <- inception_3a/output_inception_3a/output_0_split_2
I0509 17:40:02.629779 120261 net.cpp:380] inception_3b/5x5_reduce -> inception_3b/5x5_reduce
I0509 17:40:02.629786 120261 base_conv_layer.cpp:121] Group is 1channel is256number of output is 32
I0509 17:40:02.629843 120261 net.cpp:122] Setting up inception_3b/5x5_reduce
I0509 17:40:02.629848 120261 net.cpp:129] Top shape: 10 32 28 28 (250880)
I0509 17:40:02.629851 120261 net.cpp:137] Memory required for data: 303063040
I0509 17:40:02.629855 120261 layer_factory.hpp:77] Creating layer inception_3b/relu_5x5_reduce
I0509 17:40:02.629863 120261 net.cpp:84] Creating Layer inception_3b/relu_5x5_reduce
I0509 17:40:02.629865 120261 net.cpp:406] inception_3b/relu_5x5_reduce <- inception_3b/5x5_reduce
I0509 17:40:02.629869 120261 net.cpp:367] inception_3b/relu_5x5_reduce -> inception_3b/5x5_reduce (in-place)
I0509 17:40:02.629873 120261 net.cpp:122] Setting up inception_3b/relu_5x5_reduce
I0509 17:40:02.629878 120261 net.cpp:129] Top shape: 10 32 28 28 (250880)
I0509 17:40:02.629879 120261 net.cpp:137] Memory required for data: 304066560
I0509 17:40:02.629883 120261 layer_factory.hpp:77] Creating layer inception_3b/5x5
I0509 17:40:02.629889 120261 net.cpp:84] Creating Layer inception_3b/5x5
I0509 17:40:02.629891 120261 net.cpp:406] inception_3b/5x5 <- inception_3b/5x5_reduce
I0509 17:40:02.629896 120261 net.cpp:380] inception_3b/5x5 -> inception_3b/5x5
I0509 17:40:02.629902 120261 base_conv_layer.cpp:121] Group is 1channel is32number of output is 96
I0509 17:40:02.630364 120261 net.cpp:122] Setting up inception_3b/5x5
I0509 17:40:02.630369 120261 net.cpp:129] Top shape: 10 96 28 28 (752640)
I0509 17:40:02.630373 120261 net.cpp:137] Memory required for data: 307077120
I0509 17:40:02.630376 120261 layer_factory.hpp:77] Creating layer inception_3b/relu_5x5
I0509 17:40:02.630381 120261 net.cpp:84] Creating Layer inception_3b/relu_5x5
I0509 17:40:02.630384 120261 net.cpp:406] inception_3b/relu_5x5 <- inception_3b/5x5
I0509 17:40:02.630388 120261 net.cpp:367] inception_3b/relu_5x5 -> inception_3b/5x5 (in-place)
I0509 17:40:02.630393 120261 net.cpp:122] Setting up inception_3b/relu_5x5
I0509 17:40:02.630396 120261 net.cpp:129] Top shape: 10 96 28 28 (752640)
I0509 17:40:02.630398 120261 net.cpp:137] Memory required for data: 310087680
I0509 17:40:02.630401 120261 layer_factory.hpp:77] Creating layer inception_3b/pool
I0509 17:40:02.630405 120261 net.cpp:84] Creating Layer inception_3b/pool
I0509 17:40:02.630409 120261 net.cpp:406] inception_3b/pool <- inception_3a/output_inception_3a/output_0_split_3
I0509 17:40:02.630414 120261 net.cpp:380] inception_3b/pool -> inception_3b/pool
I0509 17:40:02.630419 120261 net.cpp:122] Setting up inception_3b/pool
I0509 17:40:02.630424 120261 net.cpp:129] Top shape: 10 256 28 28 (2007040)
I0509 17:40:02.630425 120261 net.cpp:137] Memory required for data: 318115840
I0509 17:40:02.630429 120261 layer_factory.hpp:77] Creating layer inception_3b/pool_proj
I0509 17:40:02.630434 120261 net.cpp:84] Creating Layer inception_3b/pool_proj
I0509 17:40:02.630437 120261 net.cpp:406] inception_3b/pool_proj <- inception_3b/pool
I0509 17:40:02.630444 120261 net.cpp:380] inception_3b/pool_proj -> inception_3b/pool_proj
I0509 17:40:02.630450 120261 base_conv_layer.cpp:121] Group is 1channel is256number of output is 64
I0509 17:40:02.630558 120261 net.cpp:122] Setting up inception_3b/pool_proj
I0509 17:40:02.630563 120261 net.cpp:129] Top shape: 10 64 28 28 (501760)
I0509 17:40:02.630565 120261 net.cpp:137] Memory required for data: 320122880
I0509 17:40:02.630569 120261 layer_factory.hpp:77] Creating layer inception_3b/relu_pool_proj
I0509 17:40:02.630573 120261 net.cpp:84] Creating Layer inception_3b/relu_pool_proj
I0509 17:40:02.630576 120261 net.cpp:406] inception_3b/relu_pool_proj <- inception_3b/pool_proj
I0509 17:40:02.630581 120261 net.cpp:367] inception_3b/relu_pool_proj -> inception_3b/pool_proj (in-place)
I0509 17:40:02.630585 120261 net.cpp:122] Setting up inception_3b/relu_pool_proj
I0509 17:40:02.630589 120261 net.cpp:129] Top shape: 10 64 28 28 (501760)
I0509 17:40:02.630591 120261 net.cpp:137] Memory required for data: 322129920
I0509 17:40:02.630594 120261 layer_factory.hpp:77] Creating layer inception_3b/output
I0509 17:40:02.630599 120261 net.cpp:84] Creating Layer inception_3b/output
I0509 17:40:02.630601 120261 net.cpp:406] inception_3b/output <- inception_3b/1x1
I0509 17:40:02.630604 120261 net.cpp:406] inception_3b/output <- inception_3b/3x3
I0509 17:40:02.630607 120261 net.cpp:406] inception_3b/output <- inception_3b/5x5
I0509 17:40:02.630610 120261 net.cpp:406] inception_3b/output <- inception_3b/pool_proj
I0509 17:40:02.630619 120261 net.cpp:380] inception_3b/output -> inception_3b/output
I0509 17:40:02.630623 120261 net.cpp:122] Setting up inception_3b/output
I0509 17:40:02.630628 120261 net.cpp:129] Top shape: 10 480 28 28 (3763200)
I0509 17:40:02.630630 120261 net.cpp:137] Memory required for data: 337182720
I0509 17:40:02.630632 120261 layer_factory.hpp:77] Creating layer pool3/3x3_s2
I0509 17:40:02.630636 120261 net.cpp:84] Creating Layer pool3/3x3_s2
I0509 17:40:02.630640 120261 net.cpp:406] pool3/3x3_s2 <- inception_3b/output
I0509 17:40:02.630643 120261 net.cpp:380] pool3/3x3_s2 -> pool3/3x3_s2
I0509 17:40:02.630656 120261 net.cpp:122] Setting up pool3/3x3_s2
I0509 17:40:02.630659 120261 net.cpp:129] Top shape: 10 480 14 14 (940800)
I0509 17:40:02.630662 120261 net.cpp:137] Memory required for data: 340945920
I0509 17:40:02.630666 120261 layer_factory.hpp:77] Creating layer pool3/3x3_s2_pool3/3x3_s2_0_split
I0509 17:40:02.630669 120261 net.cpp:84] Creating Layer pool3/3x3_s2_pool3/3x3_s2_0_split
I0509 17:40:02.630671 120261 net.cpp:406] pool3/3x3_s2_pool3/3x3_s2_0_split <- pool3/3x3_s2
I0509 17:40:02.630677 120261 net.cpp:380] pool3/3x3_s2_pool3/3x3_s2_0_split -> pool3/3x3_s2_pool3/3x3_s2_0_split_0
I0509 17:40:02.630682 120261 net.cpp:380] pool3/3x3_s2_pool3/3x3_s2_0_split -> pool3/3x3_s2_pool3/3x3_s2_0_split_1
I0509 17:40:02.630687 120261 net.cpp:380] pool3/3x3_s2_pool3/3x3_s2_0_split -> pool3/3x3_s2_pool3/3x3_s2_0_split_2
I0509 17:40:02.630692 120261 net.cpp:380] pool3/3x3_s2_pool3/3x3_s2_0_split -> pool3/3x3_s2_pool3/3x3_s2_0_split_3
I0509 17:40:02.630698 120261 net.cpp:122] Setting up pool3/3x3_s2_pool3/3x3_s2_0_split
I0509 17:40:02.630703 120261 net.cpp:129] Top shape: 10 480 14 14 (940800)
I0509 17:40:02.630707 120261 net.cpp:129] Top shape: 10 480 14 14 (940800)
I0509 17:40:02.630710 120261 net.cpp:129] Top shape: 10 480 14 14 (940800)
I0509 17:40:02.630713 120261 net.cpp:129] Top shape: 10 480 14 14 (940800)
I0509 17:40:02.630717 120261 net.cpp:137] Memory required for data: 355998720
I0509 17:40:02.630718 120261 layer_factory.hpp:77] Creating layer inception_4a/1x1
I0509 17:40:02.630724 120261 net.cpp:84] Creating Layer inception_4a/1x1
I0509 17:40:02.630728 120261 net.cpp:406] inception_4a/1x1 <- pool3/3x3_s2_pool3/3x3_s2_0_split_0
I0509 17:40:02.630733 120261 net.cpp:380] inception_4a/1x1 -> inception_4a/1x1
I0509 17:40:02.630740 120261 base_conv_layer.cpp:121] Group is 1channel is480number of output is 192
I0509 17:40:02.631287 120261 net.cpp:122] Setting up inception_4a/1x1
I0509 17:40:02.631291 120261 net.cpp:129] Top shape: 10 192 14 14 (376320)
I0509 17:40:02.631294 120261 net.cpp:137] Memory required for data: 357504000
I0509 17:40:02.631299 120261 layer_factory.hpp:77] Creating layer inception_4a/relu_1x1
I0509 17:40:02.631302 120261 net.cpp:84] Creating Layer inception_4a/relu_1x1
I0509 17:40:02.631305 120261 net.cpp:406] inception_4a/relu_1x1 <- inception_4a/1x1
I0509 17:40:02.631309 120261 net.cpp:367] inception_4a/relu_1x1 -> inception_4a/1x1 (in-place)
I0509 17:40:02.631314 120261 net.cpp:122] Setting up inception_4a/relu_1x1
I0509 17:40:02.631317 120261 net.cpp:129] Top shape: 10 192 14 14 (376320)
I0509 17:40:02.631320 120261 net.cpp:137] Memory required for data: 359009280
I0509 17:40:02.631322 120261 layer_factory.hpp:77] Creating layer inception_4a/3x3_reduce
I0509 17:40:02.631328 120261 net.cpp:84] Creating Layer inception_4a/3x3_reduce
I0509 17:40:02.631331 120261 net.cpp:406] inception_4a/3x3_reduce <- pool3/3x3_s2_pool3/3x3_s2_0_split_1
I0509 17:40:02.631337 120261 net.cpp:380] inception_4a/3x3_reduce -> inception_4a/3x3_reduce
I0509 17:40:02.631345 120261 base_conv_layer.cpp:121] Group is 1channel is480number of output is 96
I0509 17:40:02.631626 120261 net.cpp:122] Setting up inception_4a/3x3_reduce
I0509 17:40:02.631631 120261 net.cpp:129] Top shape: 10 96 14 14 (188160)
I0509 17:40:02.631634 120261 net.cpp:137] Memory required for data: 359761920
I0509 17:40:02.631647 120261 layer_factory.hpp:77] Creating layer inception_4a/relu_3x3_reduce
I0509 17:40:02.631654 120261 net.cpp:84] Creating Layer inception_4a/relu_3x3_reduce
I0509 17:40:02.631656 120261 net.cpp:406] inception_4a/relu_3x3_reduce <- inception_4a/3x3_reduce
I0509 17:40:02.631661 120261 net.cpp:367] inception_4a/relu_3x3_reduce -> inception_4a/3x3_reduce (in-place)
I0509 17:40:02.631665 120261 net.cpp:122] Setting up inception_4a/relu_3x3_reduce
I0509 17:40:02.631669 120261 net.cpp:129] Top shape: 10 96 14 14 (188160)
I0509 17:40:02.631671 120261 net.cpp:137] Memory required for data: 360514560
I0509 17:40:02.631675 120261 layer_factory.hpp:77] Creating layer inception_4a/3x3
I0509 17:40:02.631680 120261 net.cpp:84] Creating Layer inception_4a/3x3
I0509 17:40:02.631683 120261 net.cpp:406] inception_4a/3x3 <- inception_4a/3x3_reduce
I0509 17:40:02.631690 120261 net.cpp:380] inception_4a/3x3 -> inception_4a/3x3
I0509 17:40:02.631696 120261 base_conv_layer.cpp:121] Group is 1channel is96number of output is 208
I0509 17:40:02.632838 120261 net.cpp:122] Setting up inception_4a/3x3
I0509 17:40:02.632843 120261 net.cpp:129] Top shape: 10 208 14 14 (407680)
I0509 17:40:02.632846 120261 net.cpp:137] Memory required for data: 362145280
I0509 17:40:02.632851 120261 layer_factory.hpp:77] Creating layer inception_4a/relu_3x3
I0509 17:40:02.632855 120261 net.cpp:84] Creating Layer inception_4a/relu_3x3
I0509 17:40:02.632858 120261 net.cpp:406] inception_4a/relu_3x3 <- inception_4a/3x3
I0509 17:40:02.632863 120261 net.cpp:367] inception_4a/relu_3x3 -> inception_4a/3x3 (in-place)
I0509 17:40:02.632869 120261 net.cpp:122] Setting up inception_4a/relu_3x3
I0509 17:40:02.632871 120261 net.cpp:129] Top shape: 10 208 14 14 (407680)
I0509 17:40:02.632874 120261 net.cpp:137] Memory required for data: 363776000
I0509 17:40:02.632876 120261 layer_factory.hpp:77] Creating layer inception_4a/5x5_reduce
I0509 17:40:02.632882 120261 net.cpp:84] Creating Layer inception_4a/5x5_reduce
I0509 17:40:02.632885 120261 net.cpp:406] inception_4a/5x5_reduce <- pool3/3x3_s2_pool3/3x3_s2_0_split_2
I0509 17:40:02.632890 120261 net.cpp:380] inception_4a/5x5_reduce -> inception_4a/5x5_reduce
I0509 17:40:02.632899 120261 base_conv_layer.cpp:121] Group is 1channel is480number of output is 16
I0509 17:40:02.632956 120261 net.cpp:122] Setting up inception_4a/5x5_reduce
I0509 17:40:02.632959 120261 net.cpp:129] Top shape: 10 16 14 14 (31360)
I0509 17:40:02.632962 120261 net.cpp:137] Memory required for data: 363901440
I0509 17:40:02.632966 120261 layer_factory.hpp:77] Creating layer inception_4a/relu_5x5_reduce
I0509 17:40:02.632972 120261 net.cpp:84] Creating Layer inception_4a/relu_5x5_reduce
I0509 17:40:02.632974 120261 net.cpp:406] inception_4a/relu_5x5_reduce <- inception_4a/5x5_reduce
I0509 17:40:02.632978 120261 net.cpp:367] inception_4a/relu_5x5_reduce -> inception_4a/5x5_reduce (in-place)
I0509 17:40:02.632982 120261 net.cpp:122] Setting up inception_4a/relu_5x5_reduce
I0509 17:40:02.632987 120261 net.cpp:129] Top shape: 10 16 14 14 (31360)
I0509 17:40:02.632988 120261 net.cpp:137] Memory required for data: 364026880
I0509 17:40:02.632992 120261 layer_factory.hpp:77] Creating layer inception_4a/5x5
I0509 17:40:02.632997 120261 net.cpp:84] Creating Layer inception_4a/5x5
I0509 17:40:02.633000 120261 net.cpp:406] inception_4a/5x5 <- inception_4a/5x5_reduce
I0509 17:40:02.633005 120261 net.cpp:380] inception_4a/5x5 -> inception_4a/5x5
I0509 17:40:02.633013 120261 base_conv_layer.cpp:121] Group is 1channel is16number of output is 48
I0509 17:40:02.633133 120261 net.cpp:122] Setting up inception_4a/5x5
I0509 17:40:02.633138 120261 net.cpp:129] Top shape: 10 48 14 14 (94080)
I0509 17:40:02.633141 120261 net.cpp:137] Memory required for data: 364403200
I0509 17:40:02.633146 120261 layer_factory.hpp:77] Creating layer inception_4a/relu_5x5
I0509 17:40:02.633150 120261 net.cpp:84] Creating Layer inception_4a/relu_5x5
I0509 17:40:02.633153 120261 net.cpp:406] inception_4a/relu_5x5 <- inception_4a/5x5
I0509 17:40:02.633157 120261 net.cpp:367] inception_4a/relu_5x5 -> inception_4a/5x5 (in-place)
I0509 17:40:02.633162 120261 net.cpp:122] Setting up inception_4a/relu_5x5
I0509 17:40:02.633168 120261 net.cpp:129] Top shape: 10 48 14 14 (94080)
I0509 17:40:02.633172 120261 net.cpp:137] Memory required for data: 364779520
I0509 17:40:02.633173 120261 layer_factory.hpp:77] Creating layer inception_4a/pool
I0509 17:40:02.633178 120261 net.cpp:84] Creating Layer inception_4a/pool
I0509 17:40:02.633180 120261 net.cpp:406] inception_4a/pool <- pool3/3x3_s2_pool3/3x3_s2_0_split_3
I0509 17:40:02.633186 120261 net.cpp:380] inception_4a/pool -> inception_4a/pool
I0509 17:40:02.633193 120261 net.cpp:122] Setting up inception_4a/pool
I0509 17:40:02.633196 120261 net.cpp:129] Top shape: 10 480 14 14 (940800)
I0509 17:40:02.633198 120261 net.cpp:137] Memory required for data: 368542720
I0509 17:40:02.633201 120261 layer_factory.hpp:77] Creating layer inception_4a/pool_proj
I0509 17:40:02.633208 120261 net.cpp:84] Creating Layer inception_4a/pool_proj
I0509 17:40:02.633210 120261 net.cpp:406] inception_4a/pool_proj <- inception_4a/pool
I0509 17:40:02.633215 120261 net.cpp:380] inception_4a/pool_proj -> inception_4a/pool_proj
I0509 17:40:02.633222 120261 base_conv_layer.cpp:121] Group is 1channel is480number of output is 64
I0509 17:40:02.633414 120261 net.cpp:122] Setting up inception_4a/pool_proj
I0509 17:40:02.633419 120261 net.cpp:129] Top shape: 10 64 14 14 (125440)
I0509 17:40:02.633422 120261 net.cpp:137] Memory required for data: 369044480
I0509 17:40:02.633426 120261 layer_factory.hpp:77] Creating layer inception_4a/relu_pool_proj
I0509 17:40:02.633430 120261 net.cpp:84] Creating Layer inception_4a/relu_pool_proj
I0509 17:40:02.633433 120261 net.cpp:406] inception_4a/relu_pool_proj <- inception_4a/pool_proj
I0509 17:40:02.633438 120261 net.cpp:367] inception_4a/relu_pool_proj -> inception_4a/pool_proj (in-place)
I0509 17:40:02.633443 120261 net.cpp:122] Setting up inception_4a/relu_pool_proj
I0509 17:40:02.633446 120261 net.cpp:129] Top shape: 10 64 14 14 (125440)
I0509 17:40:02.633450 120261 net.cpp:137] Memory required for data: 369546240
I0509 17:40:02.633451 120261 layer_factory.hpp:77] Creating layer inception_4a/output
I0509 17:40:02.633455 120261 net.cpp:84] Creating Layer inception_4a/output
I0509 17:40:02.633458 120261 net.cpp:406] inception_4a/output <- inception_4a/1x1
I0509 17:40:02.633461 120261 net.cpp:406] inception_4a/output <- inception_4a/3x3
I0509 17:40:02.633464 120261 net.cpp:406] inception_4a/output <- inception_4a/5x5
I0509 17:40:02.633468 120261 net.cpp:406] inception_4a/output <- inception_4a/pool_proj
I0509 17:40:02.633473 120261 net.cpp:380] inception_4a/output -> inception_4a/output
I0509 17:40:02.633479 120261 net.cpp:122] Setting up inception_4a/output
I0509 17:40:02.633482 120261 net.cpp:129] Top shape: 10 512 14 14 (1003520)
I0509 17:40:02.633486 120261 net.cpp:137] Memory required for data: 373560320
I0509 17:40:02.633488 120261 layer_factory.hpp:77] Creating layer inception_4a/output_inception_4a/output_0_split
I0509 17:40:02.633492 120261 net.cpp:84] Creating Layer inception_4a/output_inception_4a/output_0_split
I0509 17:40:02.633494 120261 net.cpp:406] inception_4a/output_inception_4a/output_0_split <- inception_4a/output
I0509 17:40:02.633500 120261 net.cpp:380] inception_4a/output_inception_4a/output_0_split -> inception_4a/output_inception_4a/output_0_split_0
I0509 17:40:02.633505 120261 net.cpp:380] inception_4a/output_inception_4a/output_0_split -> inception_4a/output_inception_4a/output_0_split_1
I0509 17:40:02.633510 120261 net.cpp:380] inception_4a/output_inception_4a/output_0_split -> inception_4a/output_inception_4a/output_0_split_2
I0509 17:40:02.633515 120261 net.cpp:380] inception_4a/output_inception_4a/output_0_split -> inception_4a/output_inception_4a/output_0_split_3
I0509 17:40:02.633522 120261 net.cpp:122] Setting up inception_4a/output_inception_4a/output_0_split
I0509 17:40:02.633527 120261 net.cpp:129] Top shape: 10 512 14 14 (1003520)
I0509 17:40:02.633530 120261 net.cpp:129] Top shape: 10 512 14 14 (1003520)
I0509 17:40:02.633533 120261 net.cpp:129] Top shape: 10 512 14 14 (1003520)
I0509 17:40:02.633538 120261 net.cpp:129] Top shape: 10 512 14 14 (1003520)
I0509 17:40:02.633543 120261 net.cpp:137] Memory required for data: 389616640
I0509 17:40:02.633544 120261 layer_factory.hpp:77] Creating layer inception_4b/1x1
I0509 17:40:02.633554 120261 net.cpp:84] Creating Layer inception_4b/1x1
I0509 17:40:02.633558 120261 net.cpp:406] inception_4b/1x1 <- inception_4a/output_inception_4a/output_0_split_0
I0509 17:40:02.633563 120261 net.cpp:380] inception_4b/1x1 -> inception_4b/1x1
I0509 17:40:02.633569 120261 base_conv_layer.cpp:121] Group is 1channel is512number of output is 160
I0509 17:40:02.634060 120261 net.cpp:122] Setting up inception_4b/1x1
I0509 17:40:02.634066 120261 net.cpp:129] Top shape: 10 160 14 14 (313600)
I0509 17:40:02.634068 120261 net.cpp:137] Memory required for data: 390871040
I0509 17:40:02.634073 120261 layer_factory.hpp:77] Creating layer inception_4b/relu_1x1
I0509 17:40:02.634078 120261 net.cpp:84] Creating Layer inception_4b/relu_1x1
I0509 17:40:02.634080 120261 net.cpp:406] inception_4b/relu_1x1 <- inception_4b/1x1
I0509 17:40:02.634085 120261 net.cpp:367] inception_4b/relu_1x1 -> inception_4b/1x1 (in-place)
I0509 17:40:02.634090 120261 net.cpp:122] Setting up inception_4b/relu_1x1
I0509 17:40:02.634094 120261 net.cpp:129] Top shape: 10 160 14 14 (313600)
I0509 17:40:02.634096 120261 net.cpp:137] Memory required for data: 392125440
I0509 17:40:02.634099 120261 layer_factory.hpp:77] Creating layer inception_4b/3x3_reduce
I0509 17:40:02.634105 120261 net.cpp:84] Creating Layer inception_4b/3x3_reduce
I0509 17:40:02.634109 120261 net.cpp:406] inception_4b/3x3_reduce <- inception_4a/output_inception_4a/output_0_split_1
I0509 17:40:02.634114 120261 net.cpp:380] inception_4b/3x3_reduce -> inception_4b/3x3_reduce
I0509 17:40:02.634119 120261 base_conv_layer.cpp:121] Group is 1channel is512number of output is 112
I0509 17:40:02.634469 120261 net.cpp:122] Setting up inception_4b/3x3_reduce
I0509 17:40:02.634474 120261 net.cpp:129] Top shape: 10 112 14 14 (219520)
I0509 17:40:02.634476 120261 net.cpp:137] Memory required for data: 393003520
I0509 17:40:02.634481 120261 layer_factory.hpp:77] Creating layer inception_4b/relu_3x3_reduce
I0509 17:40:02.634486 120261 net.cpp:84] Creating Layer inception_4b/relu_3x3_reduce
I0509 17:40:02.634488 120261 net.cpp:406] inception_4b/relu_3x3_reduce <- inception_4b/3x3_reduce
I0509 17:40:02.634493 120261 net.cpp:367] inception_4b/relu_3x3_reduce -> inception_4b/3x3_reduce (in-place)
I0509 17:40:02.634497 120261 net.cpp:122] Setting up inception_4b/relu_3x3_reduce
I0509 17:40:02.634500 120261 net.cpp:129] Top shape: 10 112 14 14 (219520)
I0509 17:40:02.634503 120261 net.cpp:137] Memory required for data: 393881600
I0509 17:40:02.634506 120261 layer_factory.hpp:77] Creating layer inception_4b/3x3
I0509 17:40:02.634512 120261 net.cpp:84] Creating Layer inception_4b/3x3
I0509 17:40:02.634515 120261 net.cpp:406] inception_4b/3x3 <- inception_4b/3x3_reduce
I0509 17:40:02.634521 120261 net.cpp:380] inception_4b/3x3 -> inception_4b/3x3
I0509 17:40:02.634527 120261 base_conv_layer.cpp:121] Group is 1channel is112number of output is 224
I0509 17:40:02.635856 120261 net.cpp:122] Setting up inception_4b/3x3
I0509 17:40:02.635861 120261 net.cpp:129] Top shape: 10 224 14 14 (439040)
I0509 17:40:02.635864 120261 net.cpp:137] Memory required for data: 395637760
I0509 17:40:02.635869 120261 layer_factory.hpp:77] Creating layer inception_4b/relu_3x3
I0509 17:40:02.635872 120261 net.cpp:84] Creating Layer inception_4b/relu_3x3
I0509 17:40:02.635875 120261 net.cpp:406] inception_4b/relu_3x3 <- inception_4b/3x3
I0509 17:40:02.635880 120261 net.cpp:367] inception_4b/relu_3x3 -> inception_4b/3x3 (in-place)
I0509 17:40:02.635885 120261 net.cpp:122] Setting up inception_4b/relu_3x3
I0509 17:40:02.635888 120261 net.cpp:129] Top shape: 10 224 14 14 (439040)
I0509 17:40:02.635891 120261 net.cpp:137] Memory required for data: 397393920
I0509 17:40:02.635893 120261 layer_factory.hpp:77] Creating layer inception_4b/5x5_reduce
I0509 17:40:02.635908 120261 net.cpp:84] Creating Layer inception_4b/5x5_reduce
I0509 17:40:02.635915 120261 net.cpp:406] inception_4b/5x5_reduce <- inception_4a/output_inception_4a/output_0_split_2
I0509 17:40:02.635920 120261 net.cpp:380] inception_4b/5x5_reduce -> inception_4b/5x5_reduce
I0509 17:40:02.635926 120261 base_conv_layer.cpp:121] Group is 1channel is512number of output is 24
I0509 17:40:02.636008 120261 net.cpp:122] Setting up inception_4b/5x5_reduce
I0509 17:40:02.636013 120261 net.cpp:129] Top shape: 10 24 14 14 (47040)
I0509 17:40:02.636016 120261 net.cpp:137] Memory required for data: 397582080
I0509 17:40:02.636020 120261 layer_factory.hpp:77] Creating layer inception_4b/relu_5x5_reduce
I0509 17:40:02.636024 120261 net.cpp:84] Creating Layer inception_4b/relu_5x5_reduce
I0509 17:40:02.636028 120261 net.cpp:406] inception_4b/relu_5x5_reduce <- inception_4b/5x5_reduce
I0509 17:40:02.636032 120261 net.cpp:367] inception_4b/relu_5x5_reduce -> inception_4b/5x5_reduce (in-place)
I0509 17:40:02.636099 120261 net.cpp:122] Setting up inception_4b/relu_5x5_reduce
I0509 17:40:02.636107 120261 net.cpp:129] Top shape: 10 24 14 14 (47040)
I0509 17:40:02.636111 120261 net.cpp:137] Memory required for data: 397770240
I0509 17:40:02.636113 120261 layer_factory.hpp:77] Creating layer inception_4b/5x5
I0509 17:40:02.636121 120261 net.cpp:84] Creating Layer inception_4b/5x5
I0509 17:40:02.636126 120261 net.cpp:406] inception_4b/5x5 <- inception_4b/5x5_reduce
I0509 17:40:02.636132 120261 net.cpp:380] inception_4b/5x5 -> inception_4b/5x5
I0509 17:40:02.636140 120261 base_conv_layer.cpp:121] Group is 1channel is24number of output is 64
I0509 17:40:02.636411 120261 net.cpp:122] Setting up inception_4b/5x5
I0509 17:40:02.636416 120261 net.cpp:129] Top shape: 10 64 14 14 (125440)
I0509 17:40:02.636420 120261 net.cpp:137] Memory required for data: 398272000
I0509 17:40:02.636423 120261 layer_factory.hpp:77] Creating layer inception_4b/relu_5x5
I0509 17:40:02.636428 120261 net.cpp:84] Creating Layer inception_4b/relu_5x5
I0509 17:40:02.636432 120261 net.cpp:406] inception_4b/relu_5x5 <- inception_4b/5x5
I0509 17:40:02.636435 120261 net.cpp:367] inception_4b/relu_5x5 -> inception_4b/5x5 (in-place)
I0509 17:40:02.636440 120261 net.cpp:122] Setting up inception_4b/relu_5x5
I0509 17:40:02.636443 120261 net.cpp:129] Top shape: 10 64 14 14 (125440)
I0509 17:40:02.636446 120261 net.cpp:137] Memory required for data: 398773760
I0509 17:40:02.636448 120261 layer_factory.hpp:77] Creating layer inception_4b/pool
I0509 17:40:02.636453 120261 net.cpp:84] Creating Layer inception_4b/pool
I0509 17:40:02.636456 120261 net.cpp:406] inception_4b/pool <- inception_4a/output_inception_4a/output_0_split_3
I0509 17:40:02.636461 120261 net.cpp:380] inception_4b/pool -> inception_4b/pool
I0509 17:40:02.636467 120261 net.cpp:122] Setting up inception_4b/pool
I0509 17:40:02.636471 120261 net.cpp:129] Top shape: 10 512 14 14 (1003520)
I0509 17:40:02.636473 120261 net.cpp:137] Memory required for data: 402787840
I0509 17:40:02.636476 120261 layer_factory.hpp:77] Creating layer inception_4b/pool_proj
I0509 17:40:02.636482 120261 net.cpp:84] Creating Layer inception_4b/pool_proj
I0509 17:40:02.636485 120261 net.cpp:406] inception_4b/pool_proj <- inception_4b/pool
I0509 17:40:02.636492 120261 net.cpp:380] inception_4b/pool_proj -> inception_4b/pool_proj
I0509 17:40:02.636498 120261 base_conv_layer.cpp:121] Group is 1channel is512number of output is 64
I0509 17:40:02.636703 120261 net.cpp:122] Setting up inception_4b/pool_proj
I0509 17:40:02.636708 120261 net.cpp:129] Top shape: 10 64 14 14 (125440)
I0509 17:40:02.636710 120261 net.cpp:137] Memory required for data: 403289600
I0509 17:40:02.636715 120261 layer_factory.hpp:77] Creating layer inception_4b/relu_pool_proj
I0509 17:40:02.636719 120261 net.cpp:84] Creating Layer inception_4b/relu_pool_proj
I0509 17:40:02.636723 120261 net.cpp:406] inception_4b/relu_pool_proj <- inception_4b/pool_proj
I0509 17:40:02.636729 120261 net.cpp:367] inception_4b/relu_pool_proj -> inception_4b/pool_proj (in-place)
I0509 17:40:02.636732 120261 net.cpp:122] Setting up inception_4b/relu_pool_proj
I0509 17:40:02.636739 120261 net.cpp:129] Top shape: 10 64 14 14 (125440)
I0509 17:40:02.636742 120261 net.cpp:137] Memory required for data: 403791360
I0509 17:40:02.636744 120261 layer_factory.hpp:77] Creating layer inception_4b/output
I0509 17:40:02.636749 120261 net.cpp:84] Creating Layer inception_4b/output
I0509 17:40:02.636751 120261 net.cpp:406] inception_4b/output <- inception_4b/1x1
I0509 17:40:02.636755 120261 net.cpp:406] inception_4b/output <- inception_4b/3x3
I0509 17:40:02.636759 120261 net.cpp:406] inception_4b/output <- inception_4b/5x5
I0509 17:40:02.636761 120261 net.cpp:406] inception_4b/output <- inception_4b/pool_proj
I0509 17:40:02.636766 120261 net.cpp:380] inception_4b/output -> inception_4b/output
I0509 17:40:02.636772 120261 net.cpp:122] Setting up inception_4b/output
I0509 17:40:02.636776 120261 net.cpp:129] Top shape: 10 512 14 14 (1003520)
I0509 17:40:02.636780 120261 net.cpp:137] Memory required for data: 407805440
I0509 17:40:02.636781 120261 layer_factory.hpp:77] Creating layer inception_4b/output_inception_4b/output_0_split
I0509 17:40:02.636785 120261 net.cpp:84] Creating Layer inception_4b/output_inception_4b/output_0_split
I0509 17:40:02.636788 120261 net.cpp:406] inception_4b/output_inception_4b/output_0_split <- inception_4b/output
I0509 17:40:02.636795 120261 net.cpp:380] inception_4b/output_inception_4b/output_0_split -> inception_4b/output_inception_4b/output_0_split_0
I0509 17:40:02.636800 120261 net.cpp:380] inception_4b/output_inception_4b/output_0_split -> inception_4b/output_inception_4b/output_0_split_1
I0509 17:40:02.636804 120261 net.cpp:380] inception_4b/output_inception_4b/output_0_split -> inception_4b/output_inception_4b/output_0_split_2
I0509 17:40:02.636809 120261 net.cpp:380] inception_4b/output_inception_4b/output_0_split -> inception_4b/output_inception_4b/output_0_split_3
I0509 17:40:02.636816 120261 net.cpp:122] Setting up inception_4b/output_inception_4b/output_0_split
I0509 17:40:02.636821 120261 net.cpp:129] Top shape: 10 512 14 14 (1003520)
I0509 17:40:02.636823 120261 net.cpp:129] Top shape: 10 512 14 14 (1003520)
I0509 17:40:02.636827 120261 net.cpp:129] Top shape: 10 512 14 14 (1003520)
I0509 17:40:02.636831 120261 net.cpp:129] Top shape: 10 512 14 14 (1003520)
I0509 17:40:02.636833 120261 net.cpp:137] Memory required for data: 423861760
I0509 17:40:02.636835 120261 layer_factory.hpp:77] Creating layer inception_4c/1x1
I0509 17:40:02.636842 120261 net.cpp:84] Creating Layer inception_4c/1x1
I0509 17:40:02.636845 120261 net.cpp:406] inception_4c/1x1 <- inception_4b/output_inception_4b/output_0_split_0
I0509 17:40:02.636850 120261 net.cpp:380] inception_4c/1x1 -> inception_4c/1x1
I0509 17:40:02.636857 120261 base_conv_layer.cpp:121] Group is 1channel is512number of output is 128
I0509 17:40:02.637251 120261 net.cpp:122] Setting up inception_4c/1x1
I0509 17:40:02.637256 120261 net.cpp:129] Top shape: 10 128 14 14 (250880)
I0509 17:40:02.637259 120261 net.cpp:137] Memory required for data: 424865280
I0509 17:40:02.637264 120261 layer_factory.hpp:77] Creating layer inception_4c/relu_1x1
I0509 17:40:02.637267 120261 net.cpp:84] Creating Layer inception_4c/relu_1x1
I0509 17:40:02.637270 120261 net.cpp:406] inception_4c/relu_1x1 <- inception_4c/1x1
I0509 17:40:02.637274 120261 net.cpp:367] inception_4c/relu_1x1 -> inception_4c/1x1 (in-place)
I0509 17:40:02.637280 120261 net.cpp:122] Setting up inception_4c/relu_1x1
I0509 17:40:02.637284 120261 net.cpp:129] Top shape: 10 128 14 14 (250880)
I0509 17:40:02.637286 120261 net.cpp:137] Memory required for data: 425868800
I0509 17:40:02.637290 120261 layer_factory.hpp:77] Creating layer inception_4c/3x3_reduce
I0509 17:40:02.637295 120261 net.cpp:84] Creating Layer inception_4c/3x3_reduce
I0509 17:40:02.637298 120261 net.cpp:406] inception_4c/3x3_reduce <- inception_4b/output_inception_4b/output_0_split_1
I0509 17:40:02.637303 120261 net.cpp:380] inception_4c/3x3_reduce -> inception_4c/3x3_reduce
I0509 17:40:02.637310 120261 base_conv_layer.cpp:121] Group is 1channel is512number of output is 128
I0509 17:40:02.637706 120261 net.cpp:122] Setting up inception_4c/3x3_reduce
I0509 17:40:02.637713 120261 net.cpp:129] Top shape: 10 128 14 14 (250880)
I0509 17:40:02.637717 120261 net.cpp:137] Memory required for data: 426872320
I0509 17:40:02.637720 120261 layer_factory.hpp:77] Creating layer inception_4c/relu_3x3_reduce
I0509 17:40:02.637725 120261 net.cpp:84] Creating Layer inception_4c/relu_3x3_reduce
I0509 17:40:02.637728 120261 net.cpp:406] inception_4c/relu_3x3_reduce <- inception_4c/3x3_reduce
I0509 17:40:02.637732 120261 net.cpp:367] inception_4c/relu_3x3_reduce -> inception_4c/3x3_reduce (in-place)
I0509 17:40:02.637737 120261 net.cpp:122] Setting up inception_4c/relu_3x3_reduce
I0509 17:40:02.637740 120261 net.cpp:129] Top shape: 10 128 14 14 (250880)
I0509 17:40:02.637742 120261 net.cpp:137] Memory required for data: 427875840
I0509 17:40:02.637745 120261 layer_factory.hpp:77] Creating layer inception_4c/3x3
I0509 17:40:02.637754 120261 net.cpp:84] Creating Layer inception_4c/3x3
I0509 17:40:02.637758 120261 net.cpp:406] inception_4c/3x3 <- inception_4c/3x3_reduce
I0509 17:40:02.637763 120261 net.cpp:380] inception_4c/3x3 -> inception_4c/3x3
I0509 17:40:02.637769 120261 base_conv_layer.cpp:121] Group is 1channel is128number of output is 256
I0509 17:40:02.639500 120261 net.cpp:122] Setting up inception_4c/3x3
I0509 17:40:02.639505 120261 net.cpp:129] Top shape: 10 256 14 14 (501760)
I0509 17:40:02.639508 120261 net.cpp:137] Memory required for data: 429882880
I0509 17:40:02.639513 120261 layer_factory.hpp:77] Creating layer inception_4c/relu_3x3
I0509 17:40:02.639516 120261 net.cpp:84] Creating Layer inception_4c/relu_3x3
I0509 17:40:02.639519 120261 net.cpp:406] inception_4c/relu_3x3 <- inception_4c/3x3
I0509 17:40:02.639524 120261 net.cpp:367] inception_4c/relu_3x3 -> inception_4c/3x3 (in-place)
I0509 17:40:02.639528 120261 net.cpp:122] Setting up inception_4c/relu_3x3
I0509 17:40:02.639533 120261 net.cpp:129] Top shape: 10 256 14 14 (501760)
I0509 17:40:02.639534 120261 net.cpp:137] Memory required for data: 431889920
I0509 17:40:02.639538 120261 layer_factory.hpp:77] Creating layer inception_4c/5x5_reduce
I0509 17:40:02.639544 120261 net.cpp:84] Creating Layer inception_4c/5x5_reduce
I0509 17:40:02.639546 120261 net.cpp:406] inception_4c/5x5_reduce <- inception_4b/output_inception_4b/output_0_split_2
I0509 17:40:02.639550 120261 net.cpp:380] inception_4c/5x5_reduce -> inception_4c/5x5_reduce
I0509 17:40:02.639567 120261 base_conv_layer.cpp:121] Group is 1channel is512number of output is 24
I0509 17:40:02.639645 120261 net.cpp:122] Setting up inception_4c/5x5_reduce
I0509 17:40:02.639650 120261 net.cpp:129] Top shape: 10 24 14 14 (47040)
I0509 17:40:02.639652 120261 net.cpp:137] Memory required for data: 432078080
I0509 17:40:02.639657 120261 layer_factory.hpp:77] Creating layer inception_4c/relu_5x5_reduce
I0509 17:40:02.639662 120261 net.cpp:84] Creating Layer inception_4c/relu_5x5_reduce
I0509 17:40:02.639665 120261 net.cpp:406] inception_4c/relu_5x5_reduce <- inception_4c/5x5_reduce
I0509 17:40:02.639669 120261 net.cpp:367] inception_4c/relu_5x5_reduce -> inception_4c/5x5_reduce (in-place)
I0509 17:40:02.639673 120261 net.cpp:122] Setting up inception_4c/relu_5x5_reduce
I0509 17:40:02.639678 120261 net.cpp:129] Top shape: 10 24 14 14 (47040)
I0509 17:40:02.639679 120261 net.cpp:137] Memory required for data: 432266240
I0509 17:40:02.639683 120261 layer_factory.hpp:77] Creating layer inception_4c/5x5
I0509 17:40:02.639688 120261 net.cpp:84] Creating Layer inception_4c/5x5
I0509 17:40:02.639691 120261 net.cpp:406] inception_4c/5x5 <- inception_4c/5x5_reduce
I0509 17:40:02.639695 120261 net.cpp:380] inception_4c/5x5 -> inception_4c/5x5
I0509 17:40:02.639703 120261 base_conv_layer.cpp:121] Group is 1channel is24number of output is 64
I0509 17:40:02.639942 120261 net.cpp:122] Setting up inception_4c/5x5
I0509 17:40:02.639947 120261 net.cpp:129] Top shape: 10 64 14 14 (125440)
I0509 17:40:02.639950 120261 net.cpp:137] Memory required for data: 432768000
I0509 17:40:02.639955 120261 layer_factory.hpp:77] Creating layer inception_4c/relu_5x5
I0509 17:40:02.639962 120261 net.cpp:84] Creating Layer inception_4c/relu_5x5
I0509 17:40:02.639966 120261 net.cpp:406] inception_4c/relu_5x5 <- inception_4c/5x5
I0509 17:40:02.639969 120261 net.cpp:367] inception_4c/relu_5x5 -> inception_4c/5x5 (in-place)
I0509 17:40:02.639973 120261 net.cpp:122] Setting up inception_4c/relu_5x5
I0509 17:40:02.639977 120261 net.cpp:129] Top shape: 10 64 14 14 (125440)
I0509 17:40:02.639981 120261 net.cpp:137] Memory required for data: 433269760
I0509 17:40:02.639982 120261 layer_factory.hpp:77] Creating layer inception_4c/pool
I0509 17:40:02.639987 120261 net.cpp:84] Creating Layer inception_4c/pool
I0509 17:40:02.639991 120261 net.cpp:406] inception_4c/pool <- inception_4b/output_inception_4b/output_0_split_3
I0509 17:40:02.639994 120261 net.cpp:380] inception_4c/pool -> inception_4c/pool
I0509 17:40:02.640000 120261 net.cpp:122] Setting up inception_4c/pool
I0509 17:40:02.640004 120261 net.cpp:129] Top shape: 10 512 14 14 (1003520)
I0509 17:40:02.640007 120261 net.cpp:137] Memory required for data: 437283840
I0509 17:40:02.640009 120261 layer_factory.hpp:77] Creating layer inception_4c/pool_proj
I0509 17:40:02.640017 120261 net.cpp:84] Creating Layer inception_4c/pool_proj
I0509 17:40:02.640018 120261 net.cpp:406] inception_4c/pool_proj <- inception_4c/pool
I0509 17:40:02.640024 120261 net.cpp:380] inception_4c/pool_proj -> inception_4c/pool_proj
I0509 17:40:02.640031 120261 base_conv_layer.cpp:121] Group is 1channel is512number of output is 64
I0509 17:40:02.640276 120261 net.cpp:122] Setting up inception_4c/pool_proj
I0509 17:40:02.640283 120261 net.cpp:129] Top shape: 10 64 14 14 (125440)
I0509 17:40:02.640286 120261 net.cpp:137] Memory required for data: 437785600
I0509 17:40:02.640300 120261 layer_factory.hpp:77] Creating layer inception_4c/relu_pool_proj
I0509 17:40:02.640305 120261 net.cpp:84] Creating Layer inception_4c/relu_pool_proj
I0509 17:40:02.640307 120261 net.cpp:406] inception_4c/relu_pool_proj <- inception_4c/pool_proj
I0509 17:40:02.640312 120261 net.cpp:367] inception_4c/relu_pool_proj -> inception_4c/pool_proj (in-place)
I0509 17:40:02.640318 120261 net.cpp:122] Setting up inception_4c/relu_pool_proj
I0509 17:40:02.640322 120261 net.cpp:129] Top shape: 10 64 14 14 (125440)
I0509 17:40:02.640326 120261 net.cpp:137] Memory required for data: 438287360
I0509 17:40:02.640328 120261 layer_factory.hpp:77] Creating layer inception_4c/output
I0509 17:40:02.640332 120261 net.cpp:84] Creating Layer inception_4c/output
I0509 17:40:02.640350 120261 net.cpp:406] inception_4c/output <- inception_4c/1x1
I0509 17:40:02.640354 120261 net.cpp:406] inception_4c/output <- inception_4c/3x3
I0509 17:40:02.640372 120261 net.cpp:406] inception_4c/output <- inception_4c/5x5
I0509 17:40:02.640375 120261 net.cpp:406] inception_4c/output <- inception_4c/pool_proj
I0509 17:40:02.640379 120261 net.cpp:380] inception_4c/output -> inception_4c/output
I0509 17:40:02.640384 120261 net.cpp:122] Setting up inception_4c/output
I0509 17:40:02.640388 120261 net.cpp:129] Top shape: 10 512 14 14 (1003520)
I0509 17:40:02.640391 120261 net.cpp:137] Memory required for data: 442301440
I0509 17:40:02.640393 120261 layer_factory.hpp:77] Creating layer inception_4c/output_inception_4c/output_0_split
I0509 17:40:02.640398 120261 net.cpp:84] Creating Layer inception_4c/output_inception_4c/output_0_split
I0509 17:40:02.640401 120261 net.cpp:406] inception_4c/output_inception_4c/output_0_split <- inception_4c/output
I0509 17:40:02.640406 120261 net.cpp:380] inception_4c/output_inception_4c/output_0_split -> inception_4c/output_inception_4c/output_0_split_0
I0509 17:40:02.640413 120261 net.cpp:380] inception_4c/output_inception_4c/output_0_split -> inception_4c/output_inception_4c/output_0_split_1
I0509 17:40:02.640417 120261 net.cpp:380] inception_4c/output_inception_4c/output_0_split -> inception_4c/output_inception_4c/output_0_split_2
I0509 17:40:02.640422 120261 net.cpp:380] inception_4c/output_inception_4c/output_0_split -> inception_4c/output_inception_4c/output_0_split_3
I0509 17:40:02.640429 120261 net.cpp:122] Setting up inception_4c/output_inception_4c/output_0_split
I0509 17:40:02.640434 120261 net.cpp:129] Top shape: 10 512 14 14 (1003520)
I0509 17:40:02.640439 120261 net.cpp:129] Top shape: 10 512 14 14 (1003520)
I0509 17:40:02.640442 120261 net.cpp:129] Top shape: 10 512 14 14 (1003520)
I0509 17:40:02.640445 120261 net.cpp:129] Top shape: 10 512 14 14 (1003520)
I0509 17:40:02.640449 120261 net.cpp:137] Memory required for data: 458357760
I0509 17:40:02.640450 120261 layer_factory.hpp:77] Creating layer inception_4d/1x1
I0509 17:40:02.640457 120261 net.cpp:84] Creating Layer inception_4d/1x1
I0509 17:40:02.640461 120261 net.cpp:406] inception_4d/1x1 <- inception_4c/output_inception_4c/output_0_split_0
I0509 17:40:02.640465 120261 net.cpp:380] inception_4d/1x1 -> inception_4d/1x1
I0509 17:40:02.640472 120261 base_conv_layer.cpp:121] Group is 1channel is512number of output is 112
I0509 17:40:02.640820 120261 net.cpp:122] Setting up inception_4d/1x1
I0509 17:40:02.640825 120261 net.cpp:129] Top shape: 10 112 14 14 (219520)
I0509 17:40:02.640828 120261 net.cpp:137] Memory required for data: 459235840
I0509 17:40:02.640832 120261 layer_factory.hpp:77] Creating layer inception_4d/relu_1x1
I0509 17:40:02.640838 120261 net.cpp:84] Creating Layer inception_4d/relu_1x1
I0509 17:40:02.640841 120261 net.cpp:406] inception_4d/relu_1x1 <- inception_4d/1x1
I0509 17:40:02.640846 120261 net.cpp:367] inception_4d/relu_1x1 -> inception_4d/1x1 (in-place)
I0509 17:40:02.640849 120261 net.cpp:122] Setting up inception_4d/relu_1x1
I0509 17:40:02.640853 120261 net.cpp:129] Top shape: 10 112 14 14 (219520)
I0509 17:40:02.640856 120261 net.cpp:137] Memory required for data: 460113920
I0509 17:40:02.640858 120261 layer_factory.hpp:77] Creating layer inception_4d/3x3_reduce
I0509 17:40:02.640864 120261 net.cpp:84] Creating Layer inception_4d/3x3_reduce
I0509 17:40:02.640867 120261 net.cpp:406] inception_4d/3x3_reduce <- inception_4c/output_inception_4c/output_0_split_1
I0509 17:40:02.640873 120261 net.cpp:380] inception_4d/3x3_reduce -> inception_4d/3x3_reduce
I0509 17:40:02.640880 120261 base_conv_layer.cpp:121] Group is 1channel is512number of output is 144
I0509 17:40:02.641324 120261 net.cpp:122] Setting up inception_4d/3x3_reduce
I0509 17:40:02.641329 120261 net.cpp:129] Top shape: 10 144 14 14 (282240)
I0509 17:40:02.641331 120261 net.cpp:137] Memory required for data: 461242880
I0509 17:40:02.641335 120261 layer_factory.hpp:77] Creating layer inception_4d/relu_3x3_reduce
I0509 17:40:02.641340 120261 net.cpp:84] Creating Layer inception_4d/relu_3x3_reduce
I0509 17:40:02.641342 120261 net.cpp:406] inception_4d/relu_3x3_reduce <- inception_4d/3x3_reduce
I0509 17:40:02.641347 120261 net.cpp:367] inception_4d/relu_3x3_reduce -> inception_4d/3x3_reduce (in-place)
I0509 17:40:02.641351 120261 net.cpp:122] Setting up inception_4d/relu_3x3_reduce
I0509 17:40:02.641355 120261 net.cpp:129] Top shape: 10 144 14 14 (282240)
I0509 17:40:02.641357 120261 net.cpp:137] Memory required for data: 462371840
I0509 17:40:02.641360 120261 layer_factory.hpp:77] Creating layer inception_4d/3x3
I0509 17:40:02.641366 120261 net.cpp:84] Creating Layer inception_4d/3x3
I0509 17:40:02.641369 120261 net.cpp:406] inception_4d/3x3 <- inception_4d/3x3_reduce
I0509 17:40:02.641373 120261 net.cpp:380] inception_4d/3x3 -> inception_4d/3x3
I0509 17:40:02.641381 120261 base_conv_layer.cpp:121] Group is 1channel is144number of output is 288
I0509 17:40:02.643568 120261 net.cpp:122] Setting up inception_4d/3x3
I0509 17:40:02.643573 120261 net.cpp:129] Top shape: 10 288 14 14 (564480)
I0509 17:40:02.643575 120261 net.cpp:137] Memory required for data: 464629760
I0509 17:40:02.643580 120261 layer_factory.hpp:77] Creating layer inception_4d/relu_3x3
I0509 17:40:02.643584 120261 net.cpp:84] Creating Layer inception_4d/relu_3x3
I0509 17:40:02.643587 120261 net.cpp:406] inception_4d/relu_3x3 <- inception_4d/3x3
I0509 17:40:02.643591 120261 net.cpp:367] inception_4d/relu_3x3 -> inception_4d/3x3 (in-place)
I0509 17:40:02.643596 120261 net.cpp:122] Setting up inception_4d/relu_3x3
I0509 17:40:02.643602 120261 net.cpp:129] Top shape: 10 288 14 14 (564480)
I0509 17:40:02.643605 120261 net.cpp:137] Memory required for data: 466887680
I0509 17:40:02.643607 120261 layer_factory.hpp:77] Creating layer inception_4d/5x5_reduce
I0509 17:40:02.643615 120261 net.cpp:84] Creating Layer inception_4d/5x5_reduce
I0509 17:40:02.643616 120261 net.cpp:406] inception_4d/5x5_reduce <- inception_4c/output_inception_4c/output_0_split_2
I0509 17:40:02.643621 120261 net.cpp:380] inception_4d/5x5_reduce -> inception_4d/5x5_reduce
I0509 17:40:02.643627 120261 base_conv_layer.cpp:121] Group is 1channel is512number of output is 32
I0509 17:40:02.643733 120261 net.cpp:122] Setting up inception_4d/5x5_reduce
I0509 17:40:02.643738 120261 net.cpp:129] Top shape: 10 32 14 14 (62720)
I0509 17:40:02.643741 120261 net.cpp:137] Memory required for data: 467138560
I0509 17:40:02.643745 120261 layer_factory.hpp:77] Creating layer inception_4d/relu_5x5_reduce
I0509 17:40:02.643749 120261 net.cpp:84] Creating Layer inception_4d/relu_5x5_reduce
I0509 17:40:02.643752 120261 net.cpp:406] inception_4d/relu_5x5_reduce <- inception_4d/5x5_reduce
I0509 17:40:02.643757 120261 net.cpp:367] inception_4d/relu_5x5_reduce -> inception_4d/5x5_reduce (in-place)
I0509 17:40:02.643761 120261 net.cpp:122] Setting up inception_4d/relu_5x5_reduce
I0509 17:40:02.643765 120261 net.cpp:129] Top shape: 10 32 14 14 (62720)
I0509 17:40:02.643767 120261 net.cpp:137] Memory required for data: 467389440
I0509 17:40:02.643770 120261 layer_factory.hpp:77] Creating layer inception_4d/5x5
I0509 17:40:02.643775 120261 net.cpp:84] Creating Layer inception_4d/5x5
I0509 17:40:02.643779 120261 net.cpp:406] inception_4d/5x5 <- inception_4d/5x5_reduce
I0509 17:40:02.643784 120261 net.cpp:380] inception_4d/5x5 -> inception_4d/5x5
I0509 17:40:02.643790 120261 base_conv_layer.cpp:121] Group is 1channel is32number of output is 64
I0509 17:40:02.644146 120261 net.cpp:122] Setting up inception_4d/5x5
I0509 17:40:02.644153 120261 net.cpp:129] Top shape: 10 64 14 14 (125440)
I0509 17:40:02.644156 120261 net.cpp:137] Memory required for data: 467891200
I0509 17:40:02.644161 120261 layer_factory.hpp:77] Creating layer inception_4d/relu_5x5
I0509 17:40:02.644167 120261 net.cpp:84] Creating Layer inception_4d/relu_5x5
I0509 17:40:02.644171 120261 net.cpp:406] inception_4d/relu_5x5 <- inception_4d/5x5
I0509 17:40:02.644176 120261 net.cpp:367] inception_4d/relu_5x5 -> inception_4d/5x5 (in-place)
I0509 17:40:02.644181 120261 net.cpp:122] Setting up inception_4d/relu_5x5
I0509 17:40:02.644186 120261 net.cpp:129] Top shape: 10 64 14 14 (125440)
I0509 17:40:02.644188 120261 net.cpp:137] Memory required for data: 468392960
I0509 17:40:02.644191 120261 layer_factory.hpp:77] Creating layer inception_4d/pool
I0509 17:40:02.644196 120261 net.cpp:84] Creating Layer inception_4d/pool
I0509 17:40:02.644201 120261 net.cpp:406] inception_4d/pool <- inception_4c/output_inception_4c/output_0_split_3
I0509 17:40:02.644206 120261 net.cpp:380] inception_4d/pool -> inception_4d/pool
I0509 17:40:02.644212 120261 net.cpp:122] Setting up inception_4d/pool
I0509 17:40:02.644217 120261 net.cpp:129] Top shape: 10 512 14 14 (1003520)
I0509 17:40:02.644219 120261 net.cpp:137] Memory required for data: 472407040
I0509 17:40:02.644223 120261 layer_factory.hpp:77] Creating layer inception_4d/pool_proj
I0509 17:40:02.644233 120261 net.cpp:84] Creating Layer inception_4d/pool_proj
I0509 17:40:02.644237 120261 net.cpp:406] inception_4d/pool_proj <- inception_4d/pool
I0509 17:40:02.644243 120261 net.cpp:380] inception_4d/pool_proj -> inception_4d/pool_proj
I0509 17:40:02.644250 120261 base_conv_layer.cpp:121] Group is 1channel is512number of output is 64
I0509 17:40:02.644515 120261 net.cpp:122] Setting up inception_4d/pool_proj
I0509 17:40:02.644708 120261 net.cpp:129] Top shape: 10 64 14 14 (125440)
I0509 17:40:02.644711 120261 net.cpp:137] Memory required for data: 472908800
I0509 17:40:02.644716 120261 layer_factory.hpp:77] Creating layer inception_4d/relu_pool_proj
I0509 17:40:02.644721 120261 net.cpp:84] Creating Layer inception_4d/relu_pool_proj
I0509 17:40:02.644727 120261 net.cpp:406] inception_4d/relu_pool_proj <- inception_4d/pool_proj
I0509 17:40:02.644732 120261 net.cpp:367] inception_4d/relu_pool_proj -> inception_4d/pool_proj (in-place)
I0509 17:40:02.644738 120261 net.cpp:122] Setting up inception_4d/relu_pool_proj
I0509 17:40:02.644742 120261 net.cpp:129] Top shape: 10 64 14 14 (125440)
I0509 17:40:02.644744 120261 net.cpp:137] Memory required for data: 473410560
I0509 17:40:02.644747 120261 layer_factory.hpp:77] Creating layer inception_4d/output
I0509 17:40:02.644750 120261 net.cpp:84] Creating Layer inception_4d/output
I0509 17:40:02.644753 120261 net.cpp:406] inception_4d/output <- inception_4d/1x1
I0509 17:40:02.644757 120261 net.cpp:406] inception_4d/output <- inception_4d/3x3
I0509 17:40:02.644759 120261 net.cpp:406] inception_4d/output <- inception_4d/5x5
I0509 17:40:02.644779 120261 net.cpp:406] inception_4d/output <- inception_4d/pool_proj
I0509 17:40:02.644784 120261 net.cpp:380] inception_4d/output -> inception_4d/output
I0509 17:40:02.644790 120261 net.cpp:122] Setting up inception_4d/output
I0509 17:40:02.644794 120261 net.cpp:129] Top shape: 10 528 14 14 (1034880)
I0509 17:40:02.644798 120261 net.cpp:137] Memory required for data: 477550080
I0509 17:40:02.644801 120261 layer_factory.hpp:77] Creating layer inception_4d/output_inception_4d/output_0_split
I0509 17:40:02.644805 120261 net.cpp:84] Creating Layer inception_4d/output_inception_4d/output_0_split
I0509 17:40:02.644809 120261 net.cpp:406] inception_4d/output_inception_4d/output_0_split <- inception_4d/output
I0509 17:40:02.644814 120261 net.cpp:380] inception_4d/output_inception_4d/output_0_split -> inception_4d/output_inception_4d/output_0_split_0
I0509 17:40:02.644820 120261 net.cpp:380] inception_4d/output_inception_4d/output_0_split -> inception_4d/output_inception_4d/output_0_split_1
I0509 17:40:02.644825 120261 net.cpp:380] inception_4d/output_inception_4d/output_0_split -> inception_4d/output_inception_4d/output_0_split_2
I0509 17:40:02.644831 120261 net.cpp:380] inception_4d/output_inception_4d/output_0_split -> inception_4d/output_inception_4d/output_0_split_3
I0509 17:40:02.644839 120261 net.cpp:122] Setting up inception_4d/output_inception_4d/output_0_split
I0509 17:40:02.644842 120261 net.cpp:129] Top shape: 10 528 14 14 (1034880)
I0509 17:40:02.644845 120261 net.cpp:129] Top shape: 10 528 14 14 (1034880)
I0509 17:40:02.644850 120261 net.cpp:129] Top shape: 10 528 14 14 (1034880)
I0509 17:40:02.644853 120261 net.cpp:129] Top shape: 10 528 14 14 (1034880)
I0509 17:40:02.644856 120261 net.cpp:137] Memory required for data: 494108160
I0509 17:40:02.644858 120261 layer_factory.hpp:77] Creating layer inception_4e/1x1
I0509 17:40:02.644865 120261 net.cpp:84] Creating Layer inception_4e/1x1
I0509 17:40:02.644868 120261 net.cpp:406] inception_4e/1x1 <- inception_4d/output_inception_4d/output_0_split_0
I0509 17:40:02.644876 120261 net.cpp:380] inception_4e/1x1 -> inception_4e/1x1
I0509 17:40:02.644882 120261 base_conv_layer.cpp:121] Group is 1channel is528number of output is 256
I0509 17:40:02.645704 120261 net.cpp:122] Setting up inception_4e/1x1
I0509 17:40:02.645709 120261 net.cpp:129] Top shape: 10 256 14 14 (501760)
I0509 17:40:02.645712 120261 net.cpp:137] Memory required for data: 496115200
I0509 17:40:02.645716 120261 layer_factory.hpp:77] Creating layer inception_4e/relu_1x1
I0509 17:40:02.645720 120261 net.cpp:84] Creating Layer inception_4e/relu_1x1
I0509 17:40:02.645723 120261 net.cpp:406] inception_4e/relu_1x1 <- inception_4e/1x1
I0509 17:40:02.645728 120261 net.cpp:367] inception_4e/relu_1x1 -> inception_4e/1x1 (in-place)
I0509 17:40:02.645733 120261 net.cpp:122] Setting up inception_4e/relu_1x1
I0509 17:40:02.645737 120261 net.cpp:129] Top shape: 10 256 14 14 (501760)
I0509 17:40:02.645740 120261 net.cpp:137] Memory required for data: 498122240
I0509 17:40:02.645742 120261 layer_factory.hpp:77] Creating layer inception_4e/3x3_reduce
I0509 17:40:02.645748 120261 net.cpp:84] Creating Layer inception_4e/3x3_reduce
I0509 17:40:02.645751 120261 net.cpp:406] inception_4e/3x3_reduce <- inception_4d/output_inception_4d/output_0_split_1
I0509 17:40:02.645759 120261 net.cpp:380] inception_4e/3x3_reduce -> inception_4e/3x3_reduce
I0509 17:40:02.645766 120261 base_conv_layer.cpp:121] Group is 1channel is528number of output is 160
I0509 17:40:02.646273 120261 net.cpp:122] Setting up inception_4e/3x3_reduce
I0509 17:40:02.646278 120261 net.cpp:129] Top shape: 10 160 14 14 (313600)
I0509 17:40:02.646281 120261 net.cpp:137] Memory required for data: 499376640
I0509 17:40:02.646286 120261 layer_factory.hpp:77] Creating layer inception_4e/relu_3x3_reduce
I0509 17:40:02.646289 120261 net.cpp:84] Creating Layer inception_4e/relu_3x3_reduce
I0509 17:40:02.646292 120261 net.cpp:406] inception_4e/relu_3x3_reduce <- inception_4e/3x3_reduce
I0509 17:40:02.646297 120261 net.cpp:367] inception_4e/relu_3x3_reduce -> inception_4e/3x3_reduce (in-place)
I0509 17:40:02.646302 120261 net.cpp:122] Setting up inception_4e/relu_3x3_reduce
I0509 17:40:02.646306 120261 net.cpp:129] Top shape: 10 160 14 14 (313600)
I0509 17:40:02.646308 120261 net.cpp:137] Memory required for data: 500631040
I0509 17:40:02.646311 120261 layer_factory.hpp:77] Creating layer inception_4e/3x3
I0509 17:40:02.646317 120261 net.cpp:84] Creating Layer inception_4e/3x3
I0509 17:40:02.646319 120261 net.cpp:406] inception_4e/3x3 <- inception_4e/3x3_reduce
I0509 17:40:02.646323 120261 net.cpp:380] inception_4e/3x3 -> inception_4e/3x3
I0509 17:40:02.646330 120261 base_conv_layer.cpp:121] Group is 1channel is160number of output is 320
I0509 17:40:02.649139 120261 net.cpp:122] Setting up inception_4e/3x3
I0509 17:40:02.649145 120261 net.cpp:129] Top shape: 10 320 14 14 (627200)
I0509 17:40:02.649148 120261 net.cpp:137] Memory required for data: 503139840
I0509 17:40:02.649153 120261 layer_factory.hpp:77] Creating layer inception_4e/relu_3x3
I0509 17:40:02.649158 120261 net.cpp:84] Creating Layer inception_4e/relu_3x3
I0509 17:40:02.649160 120261 net.cpp:406] inception_4e/relu_3x3 <- inception_4e/3x3
I0509 17:40:02.649165 120261 net.cpp:367] inception_4e/relu_3x3 -> inception_4e/3x3 (in-place)
I0509 17:40:02.649170 120261 net.cpp:122] Setting up inception_4e/relu_3x3
I0509 17:40:02.649173 120261 net.cpp:129] Top shape: 10 320 14 14 (627200)
I0509 17:40:02.649176 120261 net.cpp:137] Memory required for data: 505648640
I0509 17:40:02.649178 120261 layer_factory.hpp:77] Creating layer inception_4e/5x5_reduce
I0509 17:40:02.649183 120261 net.cpp:84] Creating Layer inception_4e/5x5_reduce
I0509 17:40:02.649186 120261 net.cpp:406] inception_4e/5x5_reduce <- inception_4d/output_inception_4d/output_0_split_2
I0509 17:40:02.649191 120261 net.cpp:380] inception_4e/5x5_reduce -> inception_4e/5x5_reduce
I0509 17:40:02.649199 120261 base_conv_layer.cpp:121] Group is 1channel is528number of output is 32
I0509 17:40:02.649307 120261 net.cpp:122] Setting up inception_4e/5x5_reduce
I0509 17:40:02.649312 120261 net.cpp:129] Top shape: 10 32 14 14 (62720)
I0509 17:40:02.649314 120261 net.cpp:137] Memory required for data: 505899520
I0509 17:40:02.649319 120261 layer_factory.hpp:77] Creating layer inception_4e/relu_5x5_reduce
I0509 17:40:02.649323 120261 net.cpp:84] Creating Layer inception_4e/relu_5x5_reduce
I0509 17:40:02.649325 120261 net.cpp:406] inception_4e/relu_5x5_reduce <- inception_4e/5x5_reduce
I0509 17:40:02.649330 120261 net.cpp:367] inception_4e/relu_5x5_reduce -> inception_4e/5x5_reduce (in-place)
I0509 17:40:02.649334 120261 net.cpp:122] Setting up inception_4e/relu_5x5_reduce
I0509 17:40:02.649338 120261 net.cpp:129] Top shape: 10 32 14 14 (62720)
I0509 17:40:02.649341 120261 net.cpp:137] Memory required for data: 506150400
I0509 17:40:02.649343 120261 layer_factory.hpp:77] Creating layer inception_4e/5x5
I0509 17:40:02.649349 120261 net.cpp:84] Creating Layer inception_4e/5x5
I0509 17:40:02.649353 120261 net.cpp:406] inception_4e/5x5 <- inception_4e/5x5_reduce
I0509 17:40:02.649358 120261 net.cpp:380] inception_4e/5x5 -> inception_4e/5x5
I0509 17:40:02.649364 120261 base_conv_layer.cpp:121] Group is 1channel is32number of output is 128
I0509 17:40:02.649974 120261 net.cpp:122] Setting up inception_4e/5x5
I0509 17:40:02.649979 120261 net.cpp:129] Top shape: 10 128 14 14 (250880)
I0509 17:40:02.649982 120261 net.cpp:137] Memory required for data: 507153920
I0509 17:40:02.649986 120261 layer_factory.hpp:77] Creating layer inception_4e/relu_5x5
I0509 17:40:02.649991 120261 net.cpp:84] Creating Layer inception_4e/relu_5x5
I0509 17:40:02.649994 120261 net.cpp:406] inception_4e/relu_5x5 <- inception_4e/5x5
I0509 17:40:02.649999 120261 net.cpp:367] inception_4e/relu_5x5 -> inception_4e/5x5 (in-place)
I0509 17:40:02.650003 120261 net.cpp:122] Setting up inception_4e/relu_5x5
I0509 17:40:02.650007 120261 net.cpp:129] Top shape: 10 128 14 14 (250880)
I0509 17:40:02.650010 120261 net.cpp:137] Memory required for data: 508157440
I0509 17:40:02.650012 120261 layer_factory.hpp:77] Creating layer inception_4e/pool
I0509 17:40:02.650017 120261 net.cpp:84] Creating Layer inception_4e/pool
I0509 17:40:02.650019 120261 net.cpp:406] inception_4e/pool <- inception_4d/output_inception_4d/output_0_split_3
I0509 17:40:02.650024 120261 net.cpp:380] inception_4e/pool -> inception_4e/pool
I0509 17:40:02.650030 120261 net.cpp:122] Setting up inception_4e/pool
I0509 17:40:02.650034 120261 net.cpp:129] Top shape: 10 528 14 14 (1034880)
I0509 17:40:02.650037 120261 net.cpp:137] Memory required for data: 512296960
I0509 17:40:02.650039 120261 layer_factory.hpp:77] Creating layer inception_4e/pool_proj
I0509 17:40:02.650046 120261 net.cpp:84] Creating Layer inception_4e/pool_proj
I0509 17:40:02.650049 120261 net.cpp:406] inception_4e/pool_proj <- inception_4e/pool
I0509 17:40:02.650054 120261 net.cpp:380] inception_4e/pool_proj -> inception_4e/pool_proj
I0509 17:40:02.650060 120261 base_conv_layer.cpp:121] Group is 1channel is528number of output is 128
I0509 17:40:02.650466 120261 net.cpp:122] Setting up inception_4e/pool_proj
I0509 17:40:02.650471 120261 net.cpp:129] Top shape: 10 128 14 14 (250880)
I0509 17:40:02.650473 120261 net.cpp:137] Memory required for data: 513300480
I0509 17:40:02.650478 120261 layer_factory.hpp:77] Creating layer inception_4e/relu_pool_proj
I0509 17:40:02.650486 120261 net.cpp:84] Creating Layer inception_4e/relu_pool_proj
I0509 17:40:02.650490 120261 net.cpp:406] inception_4e/relu_pool_proj <- inception_4e/pool_proj
I0509 17:40:02.650494 120261 net.cpp:367] inception_4e/relu_pool_proj -> inception_4e/pool_proj (in-place)
I0509 17:40:02.650498 120261 net.cpp:122] Setting up inception_4e/relu_pool_proj
I0509 17:40:02.650502 120261 net.cpp:129] Top shape: 10 128 14 14 (250880)
I0509 17:40:02.650504 120261 net.cpp:137] Memory required for data: 514304000
I0509 17:40:02.650507 120261 layer_factory.hpp:77] Creating layer inception_4e/output
I0509 17:40:02.650512 120261 net.cpp:84] Creating Layer inception_4e/output
I0509 17:40:02.650516 120261 net.cpp:406] inception_4e/output <- inception_4e/1x1
I0509 17:40:02.650518 120261 net.cpp:406] inception_4e/output <- inception_4e/3x3
I0509 17:40:02.650521 120261 net.cpp:406] inception_4e/output <- inception_4e/5x5
I0509 17:40:02.650524 120261 net.cpp:406] inception_4e/output <- inception_4e/pool_proj
I0509 17:40:02.650528 120261 net.cpp:380] inception_4e/output -> inception_4e/output
I0509 17:40:02.650534 120261 net.cpp:122] Setting up inception_4e/output
I0509 17:40:02.650537 120261 net.cpp:129] Top shape: 10 832 14 14 (1630720)
I0509 17:40:02.650540 120261 net.cpp:137] Memory required for data: 520826880
I0509 17:40:02.650543 120261 layer_factory.hpp:77] Creating layer pool4/3x3_s2
I0509 17:40:02.650547 120261 net.cpp:84] Creating Layer pool4/3x3_s2
I0509 17:40:02.650550 120261 net.cpp:406] pool4/3x3_s2 <- inception_4e/output
I0509 17:40:02.650554 120261 net.cpp:380] pool4/3x3_s2 -> pool4/3x3_s2
I0509 17:40:02.650560 120261 net.cpp:122] Setting up pool4/3x3_s2
I0509 17:40:02.650564 120261 net.cpp:129] Top shape: 10 832 7 7 (407680)
I0509 17:40:02.650566 120261 net.cpp:137] Memory required for data: 522457600
I0509 17:40:02.650569 120261 layer_factory.hpp:77] Creating layer pool4/3x3_s2_pool4/3x3_s2_0_split
I0509 17:40:02.650578 120261 net.cpp:84] Creating Layer pool4/3x3_s2_pool4/3x3_s2_0_split
I0509 17:40:02.650580 120261 net.cpp:406] pool4/3x3_s2_pool4/3x3_s2_0_split <- pool4/3x3_s2
I0509 17:40:02.650585 120261 net.cpp:380] pool4/3x3_s2_pool4/3x3_s2_0_split -> pool4/3x3_s2_pool4/3x3_s2_0_split_0
I0509 17:40:02.650590 120261 net.cpp:380] pool4/3x3_s2_pool4/3x3_s2_0_split -> pool4/3x3_s2_pool4/3x3_s2_0_split_1
I0509 17:40:02.650596 120261 net.cpp:380] pool4/3x3_s2_pool4/3x3_s2_0_split -> pool4/3x3_s2_pool4/3x3_s2_0_split_2
I0509 17:40:02.650601 120261 net.cpp:380] pool4/3x3_s2_pool4/3x3_s2_0_split -> pool4/3x3_s2_pool4/3x3_s2_0_split_3
I0509 17:40:02.650606 120261 net.cpp:122] Setting up pool4/3x3_s2_pool4/3x3_s2_0_split
I0509 17:40:02.650610 120261 net.cpp:129] Top shape: 10 832 7 7 (407680)
I0509 17:40:02.650614 120261 net.cpp:129] Top shape: 10 832 7 7 (407680)
I0509 17:40:02.650617 120261 net.cpp:129] Top shape: 10 832 7 7 (407680)
I0509 17:40:02.650620 120261 net.cpp:129] Top shape: 10 832 7 7 (407680)
I0509 17:40:02.650624 120261 net.cpp:137] Memory required for data: 528980480
I0509 17:40:02.650626 120261 layer_factory.hpp:77] Creating layer inception_5a/1x1
I0509 17:40:02.650632 120261 net.cpp:84] Creating Layer inception_5a/1x1
I0509 17:40:02.650635 120261 net.cpp:406] inception_5a/1x1 <- pool4/3x3_s2_pool4/3x3_s2_0_split_0
I0509 17:40:02.650642 120261 net.cpp:380] inception_5a/1x1 -> inception_5a/1x1
I0509 17:40:02.650648 120261 base_conv_layer.cpp:121] Group is 1channel is832number of output is 256
I0509 17:40:02.651902 120261 net.cpp:122] Setting up inception_5a/1x1
I0509 17:40:02.651907 120261 net.cpp:129] Top shape: 10 256 7 7 (125440)
I0509 17:40:02.651911 120261 net.cpp:137] Memory required for data: 529482240
I0509 17:40:02.651914 120261 layer_factory.hpp:77] Creating layer inception_5a/relu_1x1
I0509 17:40:02.651918 120261 net.cpp:84] Creating Layer inception_5a/relu_1x1
I0509 17:40:02.651923 120261 net.cpp:406] inception_5a/relu_1x1 <- inception_5a/1x1
I0509 17:40:02.651927 120261 net.cpp:367] inception_5a/relu_1x1 -> inception_5a/1x1 (in-place)
I0509 17:40:02.651932 120261 net.cpp:122] Setting up inception_5a/relu_1x1
I0509 17:40:02.651935 120261 net.cpp:129] Top shape: 10 256 7 7 (125440)
I0509 17:40:02.651937 120261 net.cpp:137] Memory required for data: 529984000
I0509 17:40:02.651940 120261 layer_factory.hpp:77] Creating layer inception_5a/3x3_reduce
I0509 17:40:02.651947 120261 net.cpp:84] Creating Layer inception_5a/3x3_reduce
I0509 17:40:02.651949 120261 net.cpp:406] inception_5a/3x3_reduce <- pool4/3x3_s2_pool4/3x3_s2_0_split_1
I0509 17:40:02.651955 120261 net.cpp:380] inception_5a/3x3_reduce -> inception_5a/3x3_reduce
I0509 17:40:02.651962 120261 base_conv_layer.cpp:121] Group is 1channel is832number of output is 160
I0509 17:40:02.652801 120261 net.cpp:122] Setting up inception_5a/3x3_reduce
I0509 17:40:02.652809 120261 net.cpp:129] Top shape: 10 160 7 7 (78400)
I0509 17:40:02.652812 120261 net.cpp:137] Memory required for data: 530297600
I0509 17:40:02.652817 120261 layer_factory.hpp:77] Creating layer inception_5a/relu_3x3_reduce
I0509 17:40:02.652820 120261 net.cpp:84] Creating Layer inception_5a/relu_3x3_reduce
I0509 17:40:02.652823 120261 net.cpp:406] inception_5a/relu_3x3_reduce <- inception_5a/3x3_reduce
I0509 17:40:02.652827 120261 net.cpp:367] inception_5a/relu_3x3_reduce -> inception_5a/3x3_reduce (in-place)
I0509 17:40:02.652832 120261 net.cpp:122] Setting up inception_5a/relu_3x3_reduce
I0509 17:40:02.652837 120261 net.cpp:129] Top shape: 10 160 7 7 (78400)
I0509 17:40:02.652838 120261 net.cpp:137] Memory required for data: 530611200
I0509 17:40:02.652840 120261 layer_factory.hpp:77] Creating layer inception_5a/3x3
I0509 17:40:02.652848 120261 net.cpp:84] Creating Layer inception_5a/3x3
I0509 17:40:02.652850 120261 net.cpp:406] inception_5a/3x3 <- inception_5a/3x3_reduce
I0509 17:40:02.652855 120261 net.cpp:380] inception_5a/3x3 -> inception_5a/3x3
I0509 17:40:02.652863 120261 base_conv_layer.cpp:121] Group is 1channel is160number of output is 320
I0509 17:40:02.655555 120261 net.cpp:122] Setting up inception_5a/3x3
I0509 17:40:02.655562 120261 net.cpp:129] Top shape: 10 320 7 7 (156800)
I0509 17:40:02.655565 120261 net.cpp:137] Memory required for data: 531238400
I0509 17:40:02.655570 120261 layer_factory.hpp:77] Creating layer inception_5a/relu_3x3
I0509 17:40:02.655575 120261 net.cpp:84] Creating Layer inception_5a/relu_3x3
I0509 17:40:02.655577 120261 net.cpp:406] inception_5a/relu_3x3 <- inception_5a/3x3
I0509 17:40:02.655582 120261 net.cpp:367] inception_5a/relu_3x3 -> inception_5a/3x3 (in-place)
I0509 17:40:02.655586 120261 net.cpp:122] Setting up inception_5a/relu_3x3
I0509 17:40:02.655591 120261 net.cpp:129] Top shape: 10 320 7 7 (156800)
I0509 17:40:02.655593 120261 net.cpp:137] Memory required for data: 531865600
I0509 17:40:02.655596 120261 layer_factory.hpp:77] Creating layer inception_5a/5x5_reduce
I0509 17:40:02.655601 120261 net.cpp:84] Creating Layer inception_5a/5x5_reduce
I0509 17:40:02.655604 120261 net.cpp:406] inception_5a/5x5_reduce <- pool4/3x3_s2_pool4/3x3_s2_0_split_2
I0509 17:40:02.655609 120261 net.cpp:380] inception_5a/5x5_reduce -> inception_5a/5x5_reduce
I0509 17:40:02.655617 120261 base_conv_layer.cpp:121] Group is 1channel is832number of output is 32
I0509 17:40:02.655784 120261 net.cpp:122] Setting up inception_5a/5x5_reduce
I0509 17:40:02.655789 120261 net.cpp:129] Top shape: 10 32 7 7 (15680)
I0509 17:40:02.655792 120261 net.cpp:137] Memory required for data: 531928320
I0509 17:40:02.655797 120261 layer_factory.hpp:77] Creating layer inception_5a/relu_5x5_reduce
I0509 17:40:02.655800 120261 net.cpp:84] Creating Layer inception_5a/relu_5x5_reduce
I0509 17:40:02.655803 120261 net.cpp:406] inception_5a/relu_5x5_reduce <- inception_5a/5x5_reduce
I0509 17:40:02.655808 120261 net.cpp:367] inception_5a/relu_5x5_reduce -> inception_5a/5x5_reduce (in-place)
I0509 17:40:02.655813 120261 net.cpp:122] Setting up inception_5a/relu_5x5_reduce
I0509 17:40:02.655817 120261 net.cpp:129] Top shape: 10 32 7 7 (15680)
I0509 17:40:02.655819 120261 net.cpp:137] Memory required for data: 531991040
I0509 17:40:02.655822 120261 layer_factory.hpp:77] Creating layer inception_5a/5x5
I0509 17:40:02.655827 120261 net.cpp:84] Creating Layer inception_5a/5x5
I0509 17:40:02.655830 120261 net.cpp:406] inception_5a/5x5 <- inception_5a/5x5_reduce
I0509 17:40:02.655835 120261 net.cpp:380] inception_5a/5x5 -> inception_5a/5x5
I0509 17:40:02.655843 120261 base_conv_layer.cpp:121] Group is 1channel is32number of output is 128
I0509 17:40:02.656509 120261 net.cpp:122] Setting up inception_5a/5x5
I0509 17:40:02.656515 120261 net.cpp:129] Top shape: 10 128 7 7 (62720)
I0509 17:40:02.656518 120261 net.cpp:137] Memory required for data: 532241920
I0509 17:40:02.656523 120261 layer_factory.hpp:77] Creating layer inception_5a/relu_5x5
I0509 17:40:02.656545 120261 net.cpp:84] Creating Layer inception_5a/relu_5x5
I0509 17:40:02.656549 120261 net.cpp:406] inception_5a/relu_5x5 <- inception_5a/5x5
I0509 17:40:02.656553 120261 net.cpp:367] inception_5a/relu_5x5 -> inception_5a/5x5 (in-place)
I0509 17:40:02.656558 120261 net.cpp:122] Setting up inception_5a/relu_5x5
I0509 17:40:02.656561 120261 net.cpp:129] Top shape: 10 128 7 7 (62720)
I0509 17:40:02.656564 120261 net.cpp:137] Memory required for data: 532492800
I0509 17:40:02.656568 120261 layer_factory.hpp:77] Creating layer inception_5a/pool
I0509 17:40:02.656571 120261 net.cpp:84] Creating Layer inception_5a/pool
I0509 17:40:02.656574 120261 net.cpp:406] inception_5a/pool <- pool4/3x3_s2_pool4/3x3_s2_0_split_3
I0509 17:40:02.656577 120261 net.cpp:380] inception_5a/pool -> inception_5a/pool
I0509 17:40:02.656584 120261 net.cpp:122] Setting up inception_5a/pool
I0509 17:40:02.656589 120261 net.cpp:129] Top shape: 10 832 7 7 (407680)
I0509 17:40:02.656590 120261 net.cpp:137] Memory required for data: 534123520
I0509 17:40:02.656592 120261 layer_factory.hpp:77] Creating layer inception_5a/pool_proj
I0509 17:40:02.656599 120261 net.cpp:84] Creating Layer inception_5a/pool_proj
I0509 17:40:02.656601 120261 net.cpp:406] inception_5a/pool_proj <- inception_5a/pool
I0509 17:40:02.656610 120261 net.cpp:380] inception_5a/pool_proj -> inception_5a/pool_proj
I0509 17:40:02.656616 120261 base_conv_layer.cpp:121] Group is 1channel is832number of output is 128
I0509 17:40:02.657250 120261 net.cpp:122] Setting up inception_5a/pool_proj
I0509 17:40:02.657255 120261 net.cpp:129] Top shape: 10 128 7 7 (62720)
I0509 17:40:02.657258 120261 net.cpp:137] Memory required for data: 534374400
I0509 17:40:02.657263 120261 layer_factory.hpp:77] Creating layer inception_5a/relu_pool_proj
I0509 17:40:02.657268 120261 net.cpp:84] Creating Layer inception_5a/relu_pool_proj
I0509 17:40:02.657270 120261 net.cpp:406] inception_5a/relu_pool_proj <- inception_5a/pool_proj
I0509 17:40:02.657275 120261 net.cpp:367] inception_5a/relu_pool_proj -> inception_5a/pool_proj (in-place)
I0509 17:40:02.657279 120261 net.cpp:122] Setting up inception_5a/relu_pool_proj
I0509 17:40:02.657284 120261 net.cpp:129] Top shape: 10 128 7 7 (62720)
I0509 17:40:02.657285 120261 net.cpp:137] Memory required for data: 534625280
I0509 17:40:02.657289 120261 layer_factory.hpp:77] Creating layer inception_5a/output
I0509 17:40:02.657292 120261 net.cpp:84] Creating Layer inception_5a/output
I0509 17:40:02.657295 120261 net.cpp:406] inception_5a/output <- inception_5a/1x1
I0509 17:40:02.657299 120261 net.cpp:406] inception_5a/output <- inception_5a/3x3
I0509 17:40:02.657301 120261 net.cpp:406] inception_5a/output <- inception_5a/5x5
I0509 17:40:02.657305 120261 net.cpp:406] inception_5a/output <- inception_5a/pool_proj
I0509 17:40:02.657310 120261 net.cpp:380] inception_5a/output -> inception_5a/output
I0509 17:40:02.657315 120261 net.cpp:122] Setting up inception_5a/output
I0509 17:40:02.657320 120261 net.cpp:129] Top shape: 10 832 7 7 (407680)
I0509 17:40:02.657322 120261 net.cpp:137] Memory required for data: 536256000
I0509 17:40:02.657325 120261 layer_factory.hpp:77] Creating layer inception_5a/output_inception_5a/output_0_split
I0509 17:40:02.657330 120261 net.cpp:84] Creating Layer inception_5a/output_inception_5a/output_0_split
I0509 17:40:02.657331 120261 net.cpp:406] inception_5a/output_inception_5a/output_0_split <- inception_5a/output
I0509 17:40:02.657337 120261 net.cpp:380] inception_5a/output_inception_5a/output_0_split -> inception_5a/output_inception_5a/output_0_split_0
I0509 17:40:02.657343 120261 net.cpp:380] inception_5a/output_inception_5a/output_0_split -> inception_5a/output_inception_5a/output_0_split_1
I0509 17:40:02.657349 120261 net.cpp:380] inception_5a/output_inception_5a/output_0_split -> inception_5a/output_inception_5a/output_0_split_2
I0509 17:40:02.657354 120261 net.cpp:380] inception_5a/output_inception_5a/output_0_split -> inception_5a/output_inception_5a/output_0_split_3
I0509 17:40:02.657361 120261 net.cpp:122] Setting up inception_5a/output_inception_5a/output_0_split
I0509 17:40:02.657364 120261 net.cpp:129] Top shape: 10 832 7 7 (407680)
I0509 17:40:02.657368 120261 net.cpp:129] Top shape: 10 832 7 7 (407680)
I0509 17:40:02.657371 120261 net.cpp:129] Top shape: 10 832 7 7 (407680)
I0509 17:40:02.657376 120261 net.cpp:129] Top shape: 10 832 7 7 (407680)
I0509 17:40:02.657377 120261 net.cpp:137] Memory required for data: 542778880
I0509 17:40:02.657380 120261 layer_factory.hpp:77] Creating layer inception_5b/1x1
I0509 17:40:02.657387 120261 net.cpp:84] Creating Layer inception_5b/1x1
I0509 17:40:02.657389 120261 net.cpp:406] inception_5b/1x1 <- inception_5a/output_inception_5a/output_0_split_0
I0509 17:40:02.657395 120261 net.cpp:380] inception_5b/1x1 -> inception_5b/1x1
I0509 17:40:02.657402 120261 base_conv_layer.cpp:121] Group is 1channel is832number of output is 384
I0509 17:40:02.659273 120261 net.cpp:122] Setting up inception_5b/1x1
I0509 17:40:02.659278 120261 net.cpp:129] Top shape: 10 384 7 7 (188160)
I0509 17:40:02.659281 120261 net.cpp:137] Memory required for data: 543531520
I0509 17:40:02.659286 120261 layer_factory.hpp:77] Creating layer inception_5b/relu_1x1
I0509 17:40:02.659289 120261 net.cpp:84] Creating Layer inception_5b/relu_1x1
I0509 17:40:02.659292 120261 net.cpp:406] inception_5b/relu_1x1 <- inception_5b/1x1
I0509 17:40:02.659301 120261 net.cpp:367] inception_5b/relu_1x1 -> inception_5b/1x1 (in-place)
I0509 17:40:02.659306 120261 net.cpp:122] Setting up inception_5b/relu_1x1
I0509 17:40:02.659308 120261 net.cpp:129] Top shape: 10 384 7 7 (188160)
I0509 17:40:02.659312 120261 net.cpp:137] Memory required for data: 544284160
I0509 17:40:02.659314 120261 layer_factory.hpp:77] Creating layer inception_5b/3x3_reduce
I0509 17:40:02.659323 120261 net.cpp:84] Creating Layer inception_5b/3x3_reduce
I0509 17:40:02.659327 120261 net.cpp:406] inception_5b/3x3_reduce <- inception_5a/output_inception_5a/output_0_split_1
I0509 17:40:02.659332 120261 net.cpp:380] inception_5b/3x3_reduce -> inception_5b/3x3_reduce
I0509 17:40:02.659339 120261 base_conv_layer.cpp:121] Group is 1channel is832number of output is 192
I0509 17:40:02.660310 120261 net.cpp:122] Setting up inception_5b/3x3_reduce
I0509 17:40:02.660317 120261 net.cpp:129] Top shape: 10 192 7 7 (94080)
I0509 17:40:02.660320 120261 net.cpp:137] Memory required for data: 544660480
I0509 17:40:02.660326 120261 layer_factory.hpp:77] Creating layer inception_5b/relu_3x3_reduce
I0509 17:40:02.660331 120261 net.cpp:84] Creating Layer inception_5b/relu_3x3_reduce
I0509 17:40:02.660334 120261 net.cpp:406] inception_5b/relu_3x3_reduce <- inception_5b/3x3_reduce
I0509 17:40:02.660338 120261 net.cpp:367] inception_5b/relu_3x3_reduce -> inception_5b/3x3_reduce (in-place)
I0509 17:40:02.660343 120261 net.cpp:122] Setting up inception_5b/relu_3x3_reduce
I0509 17:40:02.660346 120261 net.cpp:129] Top shape: 10 192 7 7 (94080)
I0509 17:40:02.660349 120261 net.cpp:137] Memory required for data: 545036800
I0509 17:40:02.660352 120261 layer_factory.hpp:77] Creating layer inception_5b/3x3
I0509 17:40:02.660358 120261 net.cpp:84] Creating Layer inception_5b/3x3
I0509 17:40:02.660362 120261 net.cpp:406] inception_5b/3x3 <- inception_5b/3x3_reduce
I0509 17:40:02.660382 120261 net.cpp:380] inception_5b/3x3 -> inception_5b/3x3
I0509 17:40:02.660388 120261 base_conv_layer.cpp:121] Group is 1channel is192number of output is 384
I0509 17:40:02.664299 120261 net.cpp:122] Setting up inception_5b/3x3
I0509 17:40:02.664304 120261 net.cpp:129] Top shape: 10 384 7 7 (188160)
I0509 17:40:02.664307 120261 net.cpp:137] Memory required for data: 545789440
I0509 17:40:02.664312 120261 layer_factory.hpp:77] Creating layer inception_5b/relu_3x3
I0509 17:40:02.664317 120261 net.cpp:84] Creating Layer inception_5b/relu_3x3
I0509 17:40:02.664320 120261 net.cpp:406] inception_5b/relu_3x3 <- inception_5b/3x3
I0509 17:40:02.664328 120261 net.cpp:367] inception_5b/relu_3x3 -> inception_5b/3x3 (in-place)
I0509 17:40:02.664332 120261 net.cpp:122] Setting up inception_5b/relu_3x3
I0509 17:40:02.664337 120261 net.cpp:129] Top shape: 10 384 7 7 (188160)
I0509 17:40:02.664340 120261 net.cpp:137] Memory required for data: 546542080
I0509 17:40:02.664342 120261 layer_factory.hpp:77] Creating layer inception_5b/5x5_reduce
I0509 17:40:02.664348 120261 net.cpp:84] Creating Layer inception_5b/5x5_reduce
I0509 17:40:02.664352 120261 net.cpp:406] inception_5b/5x5_reduce <- inception_5a/output_inception_5a/output_0_split_2
I0509 17:40:02.664356 120261 net.cpp:380] inception_5b/5x5_reduce -> inception_5b/5x5_reduce
I0509 17:40:02.664364 120261 base_conv_layer.cpp:121] Group is 1channel is832number of output is 48
I0509 17:40:02.664623 120261 net.cpp:122] Setting up inception_5b/5x5_reduce
I0509 17:40:02.664628 120261 net.cpp:129] Top shape: 10 48 7 7 (23520)
I0509 17:40:02.664630 120261 net.cpp:137] Memory required for data: 546636160
I0509 17:40:02.664635 120261 layer_factory.hpp:77] Creating layer inception_5b/relu_5x5_reduce
I0509 17:40:02.664639 120261 net.cpp:84] Creating Layer inception_5b/relu_5x5_reduce
I0509 17:40:02.664643 120261 net.cpp:406] inception_5b/relu_5x5_reduce <- inception_5b/5x5_reduce
I0509 17:40:02.664647 120261 net.cpp:367] inception_5b/relu_5x5_reduce -> inception_5b/5x5_reduce (in-place)
I0509 17:40:02.664651 120261 net.cpp:122] Setting up inception_5b/relu_5x5_reduce
I0509 17:40:02.664655 120261 net.cpp:129] Top shape: 10 48 7 7 (23520)
I0509 17:40:02.664660 120261 net.cpp:137] Memory required for data: 546730240
I0509 17:40:02.664664 120261 layer_factory.hpp:77] Creating layer inception_5b/5x5
I0509 17:40:02.664669 120261 net.cpp:84] Creating Layer inception_5b/5x5
I0509 17:40:02.664672 120261 net.cpp:406] inception_5b/5x5 <- inception_5b/5x5_reduce
I0509 17:40:02.664676 120261 net.cpp:380] inception_5b/5x5 -> inception_5b/5x5
I0509 17:40:02.664685 120261 base_conv_layer.cpp:121] Group is 1channel is48number of output is 128
I0509 17:40:02.665594 120261 net.cpp:122] Setting up inception_5b/5x5
I0509 17:40:02.665599 120261 net.cpp:129] Top shape: 10 128 7 7 (62720)
I0509 17:40:02.665602 120261 net.cpp:137] Memory required for data: 546981120
I0509 17:40:02.665606 120261 layer_factory.hpp:77] Creating layer inception_5b/relu_5x5
I0509 17:40:02.665611 120261 net.cpp:84] Creating Layer inception_5b/relu_5x5
I0509 17:40:02.665614 120261 net.cpp:406] inception_5b/relu_5x5 <- inception_5b/5x5
I0509 17:40:02.665618 120261 net.cpp:367] inception_5b/relu_5x5 -> inception_5b/5x5 (in-place)
I0509 17:40:02.665622 120261 net.cpp:122] Setting up inception_5b/relu_5x5
I0509 17:40:02.665627 120261 net.cpp:129] Top shape: 10 128 7 7 (62720)
I0509 17:40:02.665628 120261 net.cpp:137] Memory required for data: 547232000
I0509 17:40:02.665632 120261 layer_factory.hpp:77] Creating layer inception_5b/pool
I0509 17:40:02.665637 120261 net.cpp:84] Creating Layer inception_5b/pool
I0509 17:40:02.665640 120261 net.cpp:406] inception_5b/pool <- inception_5a/output_inception_5a/output_0_split_3
I0509 17:40:02.665644 120261 net.cpp:380] inception_5b/pool -> inception_5b/pool
I0509 17:40:02.665650 120261 net.cpp:122] Setting up inception_5b/pool
I0509 17:40:02.665654 120261 net.cpp:129] Top shape: 10 832 7 7 (407680)
I0509 17:40:02.665657 120261 net.cpp:137] Memory required for data: 548862720
I0509 17:40:02.665659 120261 layer_factory.hpp:77] Creating layer inception_5b/pool_proj
I0509 17:40:02.665665 120261 net.cpp:84] Creating Layer inception_5b/pool_proj
I0509 17:40:02.665668 120261 net.cpp:406] inception_5b/pool_proj <- inception_5b/pool
I0509 17:40:02.665674 120261 net.cpp:380] inception_5b/pool_proj -> inception_5b/pool_proj
I0509 17:40:02.665680 120261 base_conv_layer.cpp:121] Group is 1channel is832number of output is 128
I0509 17:40:02.666313 120261 net.cpp:122] Setting up inception_5b/pool_proj
I0509 17:40:02.666318 120261 net.cpp:129] Top shape: 10 128 7 7 (62720)
I0509 17:40:02.666321 120261 net.cpp:137] Memory required for data: 549113600
I0509 17:40:02.666326 120261 layer_factory.hpp:77] Creating layer inception_5b/relu_pool_proj
I0509 17:40:02.666329 120261 net.cpp:84] Creating Layer inception_5b/relu_pool_proj
I0509 17:40:02.666332 120261 net.cpp:406] inception_5b/relu_pool_proj <- inception_5b/pool_proj
I0509 17:40:02.666337 120261 net.cpp:367] inception_5b/relu_pool_proj -> inception_5b/pool_proj (in-place)
I0509 17:40:02.666342 120261 net.cpp:122] Setting up inception_5b/relu_pool_proj
I0509 17:40:02.666345 120261 net.cpp:129] Top shape: 10 128 7 7 (62720)
I0509 17:40:02.666347 120261 net.cpp:137] Memory required for data: 549364480
I0509 17:40:02.666350 120261 layer_factory.hpp:77] Creating layer inception_5b/output
I0509 17:40:02.666354 120261 net.cpp:84] Creating Layer inception_5b/output
I0509 17:40:02.666357 120261 net.cpp:406] inception_5b/output <- inception_5b/1x1
I0509 17:40:02.666360 120261 net.cpp:406] inception_5b/output <- inception_5b/3x3
I0509 17:40:02.666363 120261 net.cpp:406] inception_5b/output <- inception_5b/5x5
I0509 17:40:02.666366 120261 net.cpp:406] inception_5b/output <- inception_5b/pool_proj
I0509 17:40:02.666371 120261 net.cpp:380] inception_5b/output -> inception_5b/output
I0509 17:40:02.666378 120261 net.cpp:122] Setting up inception_5b/output
I0509 17:40:02.666381 120261 net.cpp:129] Top shape: 10 1024 7 7 (501760)
I0509 17:40:02.666383 120261 net.cpp:137] Memory required for data: 551371520
I0509 17:40:02.666386 120261 layer_factory.hpp:77] Creating layer pool5/7x7_s1
I0509 17:40:02.666393 120261 net.cpp:84] Creating Layer pool5/7x7_s1
I0509 17:40:02.666396 120261 net.cpp:406] pool5/7x7_s1 <- inception_5b/output
I0509 17:40:02.666400 120261 net.cpp:380] pool5/7x7_s1 -> pool5/7x7_s1
I0509 17:40:02.666406 120261 net.cpp:122] Setting up pool5/7x7_s1
I0509 17:40:02.666409 120261 net.cpp:129] Top shape: 10 1024 1 1 (10240)
I0509 17:40:02.666412 120261 net.cpp:137] Memory required for data: 551412480
I0509 17:40:02.666414 120261 layer_factory.hpp:77] Creating layer pool5/drop_7x7_s1
I0509 17:40:02.666420 120261 net.cpp:84] Creating Layer pool5/drop_7x7_s1
I0509 17:40:02.666424 120261 net.cpp:406] pool5/drop_7x7_s1 <- pool5/7x7_s1
I0509 17:40:02.666427 120261 net.cpp:367] pool5/drop_7x7_s1 -> pool5/7x7_s1 (in-place)
I0509 17:40:02.666434 120261 net.cpp:122] Setting up pool5/drop_7x7_s1
I0509 17:40:02.666437 120261 net.cpp:129] Top shape: 10 1024 1 1 (10240)
I0509 17:40:02.666440 120261 net.cpp:137] Memory required for data: 551453440
I0509 17:40:02.666441 120261 layer_factory.hpp:77] Creating layer loss3/classifier
I0509 17:40:02.666448 120261 net.cpp:84] Creating Layer loss3/classifier
I0509 17:40:02.666451 120261 net.cpp:406] loss3/classifier <- pool5/7x7_s1
I0509 17:40:02.666455 120261 net.cpp:380] loss3/classifier -> loss3/classifier
I0509 17:40:02.672093 120261 net.cpp:122] Setting up loss3/classifier
I0509 17:40:02.672101 120261 net.cpp:129] Top shape: 10 1000 (10000)
I0509 17:40:02.672104 120261 net.cpp:137] Memory required for data: 551493440
I0509 17:40:02.672109 120261 layer_factory.hpp:77] Creating layer prob
I0509 17:40:02.672114 120261 net.cpp:84] Creating Layer prob
I0509 17:40:02.672117 120261 net.cpp:406] prob <- loss3/classifier
I0509 17:40:02.672123 120261 net.cpp:380] prob -> prob
I0509 17:40:02.672133 120261 net.cpp:122] Setting up prob
I0509 17:40:02.672137 120261 net.cpp:129] Top shape: 10 1000 (10000)
I0509 17:40:02.672140 120261 net.cpp:137] Memory required for data: 551533440
I0509 17:40:02.672143 120261 net.cpp:200] prob does not need backward computation.
I0509 17:40:02.672147 120261 net.cpp:200] loss3/classifier does not need backward computation.
I0509 17:40:02.672149 120261 net.cpp:200] pool5/drop_7x7_s1 does not need backward computation.
I0509 17:40:02.672152 120261 net.cpp:200] pool5/7x7_s1 does not need backward computation.
…
