…
W0509 17:40:01.138872 120201 _caffe.cpp:139] DEPRECATION WARNING - deprecated use of Python interface
W0509 17:40:01.138892 120201 _caffe.cpp:140] Use this instead (with the named "weights" parameter):
W0509 17:40:01.138895 120201 _caffe.cpp:142] Net('models/bvlc_googlenet/deploy.prototxt', 1, weights='models/bvlc_googlenet/bvlc_googlenet_iter_5.caffemodel')
I0509 17:40:01.149448 120201 net.cpp:51] Initializing net from parameters: 
name: "GoogleNet"
state {
  phase: TEST
  level: 0
}
layer {
  name: "data"
  type: "Input"
  top: "data"
  input_param {
    shape {
      dim: 10
      dim: 3
      dim: 224
      dim: 224
    }
  }
}
layer {
  name: "conv1/7x7_s2"
  type: "Convolution"
  bottom: "data"
  top: "conv1/7x7_s2"
  param {
    lr_mult: 1
    decay_mult: 1
  }
  param {
    lr_mult: 2
    decay_mult: 0
  }
  convolution_param {
    num_output: 64
    pad: 3
    kernel_size: 7
    stride: 2
    weight_filler {
      type: "xavier"
      std: 0.1
    }
    bias_filler {
      type: "constant"
      value: 0.2
    }
  }
}
layer {
  name: "conv1/relu_7x7"
  type: "ReLU"
  bottom: "conv1/7x7_s2"
  top: "conv1/7x7_s2"
}
layer {
  name: "pool1/3x3_s2"
  type: "Pooling"
  bottom: "conv1/7x7_s2"
  top: "pool1/3x3_s2"
  pooling_param {
    pool: MAX
    kernel_size: 3
    stride: 2
  }
}
layer {
  name: "pool1/norm1"
  type: "LRN"
  bottom: "pool1/3x3_s2"
  top: "pool1/norm1"
  lrn_param {
    local_size: 5
    alpha: 0.0001
    beta: 0.75
  }
}
layer {
  name: "conv2/3x3_reduce"
  type: "Convolution"
  bottom: "pool1/norm1"
  top: "conv2/3x3_reduce"
  param {
    lr_mult: 1
    decay_mult: 1
  }
  param {
    lr_mult: 2
    decay_mult: 0
  }
  convolution_param {
    num_output: 64
    kernel_size: 1
    weight_filler {
      type: "xavier"
      std: 0.1
    }
    bias_filler {
      type: "constant"
      value: 0.2
    }
  }
}
layer {
  name: "conv2/relu_3x3_reduce"
  type: "ReLU"
  bottom: "conv2/3x3_reduce"
  top: "conv2/3x3_reduce"
}
layer {
  name: "conv2/3x3"
  type: "Convolution"
  bottom: "conv2/3x3_reduce"
  top: "conv2/3x3"
  param {
    lr_mult: 1
    decay_mult: 1
  }
  param {
    lr_mult: 2
    decay_mult: 0
  }
  convolution_param {
    num_output: 192
    pad: 1
    kernel_size: 3
    weight_filler {
      type: "xavier"
      std: 0.03
    }
    bias_filler {
      type: "constant"
      value: 0.2
    }
  }
}
layer {
  name: "conv2/relu_3x3"
  type: "ReLU"
  bottom: "conv2/3x3"
  top: "conv2/3x3"
}
layer {
  name: "conv2/norm2"
  type: "LRN"
  bottom: "conv2/3x3"
  top: "conv2/norm2"
  lrn_param {
    local_size: 5
    alpha: 0.0001
    beta: 0.75
  }
}
layer {
  name: "pool2/3x3_s2"
  type: "Pooling"
  bottom: "conv2/norm2"
  top: "pool2/3x3_s2"
  pooling_param {
    pool: MAX
    kernel_size: 3
    stride: 2
  }
}
layer {
  name: "inception_3a/1x1"
  type: "Convolution"
  bottom: "pool2/3x3_s2"
  top: "inception_3a/1x1"
  param {
    lr_mult: 1
    decay_mult: 1
  }
  param {
    lr_mult: 2
    decay_mult: 0
  }
  convolution_param {
    num_output: 64
    kernel_size: 1
    weight_filler {
      type: "xavier"
      std: 0.03
    }
    bias_filler {
      type: "constant"
      value: 0.2
    }
  }
}
layer {
  name: "inception_3a/relu_1x1"
  type: "ReLU"
  bottom: "inception_3a/1x1"
  top: "inception_3a/1x1"
}
layer {
  name: "inception_3a/3x3_reduce"
  type: "Convolution"
  bottom: "pool2/3x3_s2"
  top: "inception_3a/3x3_reduce"
  param {
    lr_mult: 1
    decay_mult: 1
  }
  param {
    lr_mult: 2
    decay_mult: 0
  }
  convolution_param {
    num_output: 96
    kernel_size: 1
    weight_filler {
      type: "xavier"
      std: 0.09
    }
    bias_filler {
      type: "constant"
      value: 0.2
    }
  }
}
layer {
  name: "inception_3a/relu_3x3_reduce"
  type: "ReLU"
  bottom: "inception_3a/3x3_reduce"
  top: "inception_3a/3x3_reduce"
}
layer {
  name: "inception_3a/3x3"
  type: "Convolution"
  bottom: "inception_3a/3x3_reduce"
  top: "inception_3a/3x3"
  param {
    lr_mult: 1
    decay_mult: 1
  }
  param {
    lr_mult: 2
    decay_mult: 0
  }
  convolution_param {
    num_output: 128
    pad: 1
    kernel_size: 3
    weight_filler {
      type: "xavier"
      std: 0.03
    }
    bias_filler {
      type: "constant"
      value: 0.2
    }
  }
}
layer {
  name: "inception_3a/relu_3x3"
  type: "ReLU"
  bottom: "inception_3a/3x3"
  top: "inception_3a/3x3"
}
layer {
  name: "inception_3a/5x5_reduce"
  type: "Convolution"
  bottom: "pool2/3x3_s2"
  top: "inception_3a/5x5_reduce"
  param {
    lr_mult: 1
    decay_mult: 1
  }
  param {
    lr_mult: 2
    decay_mult: 0
  }
  convolution_param {
    num_output: 16
    kernel_size: 1
    weight_filler {
      type: "xavier"
      std: 0.2
    }
    bias_filler {
      type: "constant"
      value: 0.2
    }
  }
}
layer {
  name: "inception_3a/relu_5x5_reduce"
  type: "ReLU"
  bottom: "inception_3a/5x5_reduce"
  top: "inception_3a/5x5_reduce"
}
layer {
  name: "inception_3a/5x5"
  type: "Convolution"
  bottom: "inception_3a/5x5_reduce"
  top: "inception_3a/5x5"
  param {
    lr_mult: 1
    decay_mult: 1
  }
  param {
    lr_mult: 2
    decay_mult: 0
  }
  convolution_param {
    num_output: 32
    pad: 2
    kernel_size: 5
    weight_filler {
      type: "xavier"
      std: 0.03
    }
    bias_filler {
      type: "constant"
      value: 0.2
    }
  }
}
layer {
  name: "inception_3a/relu_5x5"
  type: "ReLU"
  bottom: "inception_3a/5x5"
  top: "inception_3a/5x5"
}
layer {
  name: "inception_3a/pool"
  type: "Pooling"
  bottom: "pool2/3x3_s2"
  top: "inception_3a/pool"
  pooling_param {
    pool: MAX
    kernel_size: 3
    stride: 1
    pad: 1
  }
}
layer {
  name: "inception_3a/pool_proj"
  type: "Convolution"
  bottom: "inception_3a/pool"
  top: "inception_3a/pool_proj"
  param {
    lr_mult: 1
    decay_mult: 1
  }
  param {
    lr_mult: 2
    decay_mult: 0
  }
  convolution_param {
    num_output: 32
    kernel_size: 1
    weight_filler {
      type: "xavier"
      std: 0.1
    }
    bias_filler {
      type: "constant"
      value: 0.2
    }
  }
}
layer {
  name: "inception_3a/relu_pool_proj"
  type: "ReLU"
  bottom: "inception_3a/pool_proj"
  top: "inception_3a/pool_proj"
}
layer {
  name: "inception_3a/output"
  type: "Concat"
  bottom: "inception_3a/1x1"
  bottom: "inception_3a/3x3"
  bottom: "inception_3a/5x5"
  bottom: "inception_3a/pool_proj"
  top: "inception_3a/output"
}
layer {
  name: "inception_3b/1x1"
  type: "Convolution"
  bottom: "inception_3a/output"
  top: "inception_3b/1x1"
  param {
    lr_mult: 1
    decay_mult: 1
  }
  param {
    lr_mult: 2
    decay_mult: 0
  }
  convolution_param {
    num_output: 128
    kernel_size: 1
    weight_filler {
      type: "xavier"
      std: 0.03
    }
    bias_filler {
      type: "constant"
      value: 0.2
    }
  }
}
layer {
  name: "inception_3b/relu_1x1"
  type: "ReLU"
  bottom: "inception_3b/1x1"
  top: "inception_3b/1x1"
}
layer {
  name: "inception_3b/3x3_reduce"
  type: "Convolution"
  bottom: "inception_3a/output"
  top: "inception_3b/3x3_reduce"
  param {
    lr_mult: 1
    decay_mult: 1
  }
  param {
    lr_mult: 2
    decay_mult: 0
  }
  convolution_param {
    num_output: 128
    kernel_size: 1
    weight_filler {
      type: "xavier"
      std: 0.09
    }
    bias_filler {
      type: "constant"
      value: 0.2
    }
  }
}
layer {
  name: "inception_3b/relu_3x3_reduce"
  type: "ReLU"
  bottom: "inception_3b/3x3_reduce"
  top: "inception_3b/3x3_reduce"
}
layer {
  name: "inception_3b/3x3"
  type: "Convolution"
  bottom: "inception_3b/3x3_reduce"
  top: "inception_3b/3x3"
  param {
    lr_mult: 1
    decay_mult: 1
  }
  param {
    lr_mult: 2
    decay_mult: 0
  }
  convolution_param {
    num_output: 192
    pad: 1
    kernel_size: 3
    weight_filler {
      type: "xavier"
      std: 0.03
    }
    bias_filler {
      type: "constant"
      value: 0.2
    }
  }
}
layer {
  name: "inception_3b/relu_3x3"
  type: "ReLU"
  bottom: "inception_3b/3x3"
  top: "inception_3b/3x3"
}
layer {
  name: "inception_3b/5x5_reduce"
  type: "Convolution"
  bottom: "inception_3a/output"
  top: "inception_3b/5x5_reduce"
  param {
    lr_mult: 1
    decay_mult: 1
  }
  param {
    lr_mult: 2
    decay_mult: 0
  }
  convolution_param {
    num_output: 32
    kernel_size: 1
    weight_filler {
      type: "xavier"
      std: 0.2
    }
    bias_filler {
      type: "constant"
      value: 0.2
    }
  }
}
layer {
  name: "inception_3b/relu_5x5_reduce"
  type: "ReLU"
  bottom: "inception_3b/5x5_reduce"
  top: "inception_3b/5x5_reduce"
}
layer {
  name: "inception_3b/5x5"
  type: "Convolution"
  bottom: "inception_3b/5x5_reduce"
  top: "inception_3b/5x5"
  param {
    lr_mult: 1
    decay_mult: 1
  }
  param {
    lr_mult: 2
    decay_mult: 0
  }
  convolution_param {
    num_output: 96
    pad: 2
    kernel_size: 5
    weight_filler {
      type: "xavier"
      std: 0.03
    }
    bias_filler {
      type: "constant"
      value: 0.2
    }
  }
}
layer {
  name: "inception_3b/relu_5x5"
  type: "ReLU"
  bottom: "inception_3b/5x5"
  top: "inception_3b/5x5"
}
layer {
  name: "inception_3b/pool"
  type: "Pooling"
  bottom: "inception_3a/output"
  top: "inception_3b/pool"
  pooling_param {
    pool: MAX
    kernel_size: 3
    stride: 1
    pad: 1
  }
}
layer {
  name: "inception_3b/pool_proj"
  type: "Convolution"
  bottom: "inception_3b/pool"
  top: "inception_3b/pool_proj"
  param {
    lr_mult: 1
    decay_mult: 1
  }
  param {
    lr_mult: 2
    decay_mult: 0
  }
  convolution_param {
    num_output: 64
    kernel_size: 1
    weight_filler {
      type: "xavier"
      std: 0.1
    }
    bias_filler {
      type: "constant"
      value: 0.2
    }
  }
}
layer {
  name: "inception_3b/relu_pool_proj"
  type: "ReLU"
  bottom: "inception_3b/pool_proj"
  top: "inception_3b/pool_proj"
}
layer {
  name: "inception_3b/output"
  type: "Concat"
  bottom: "inception_3b/1x1"
  bottom: "inception_3b/3x3"
  bottom: "inception_3b/5x5"
  bottom: "inception_3b/pool_proj"
  top: "inception_3b/output"
}
layer {
  name: "pool3/3x3_s2"
  type: "Pooling"
  bottom: "inception_3b/output"
  top: "pool3/3x3_s2"
  pooling_param {
    pool: MAX
    kernel_size: 3
    stride: 2
  }
}
layer {
  name: "inception_4a/1x1"
  type: "Convolution"
  bottom: "pool3/3x3_s2"
  top: "inception_4a/1x1"
  param {
    lr_mult: 1
    decay_mult: 1
  }
  param {
    lr_mult: 2
    decay_mult: 0
  }
  convolution_param {
    num_output: 192
    kernel_size: 1
    weight_filler {
      type: "xavier"
      std: 0.03
    }
    bias_filler {
      type: "constant"
      value: 0.2
    }
  }
}
layer {
  name: "inception_4a/relu_1x1"
  type: "ReLU"
  bottom: "inception_4a/1x1"
  top: "inception_4a/1x1"
}
layer {
  name: "inception_4a/3x3_reduce"
  type: "Convolution"
  bottom: "pool3/3x3_s2"
  top: "inception_4a/3x3_reduce"
  param {
    lr_mult: 1
    decay_mult: 1
  }
  param {
    lr_mult: 2
    decay_mult: 0
  }
  convolution_param {
    num_output: 96
    kernel_size: 1
    weight_filler {
      type: "xavier"
      std: 0.09
    }
    bias_filler {
      type: "constant"
      value: 0.2
    }
  }
}
layer {
  name: "inception_4a/relu_3x3_reduce"
  type: "ReLU"
  bottom: "inception_4a/3x3_reduce"
  top: "inception_4a/3x3_reduce"
}
layer {
  name: "inception_4a/3x3"
  type: "Convolution"
  bottom: "inception_4a/3x3_reduce"
  top: "inception_4a/3x3"
  param {
    lr_mult: 1
    decay_mult: 1
  }
  param {
    lr_mult: 2
    decay_mult: 0
  }
  convolution_param {
    num_output: 208
    pad: 1
    kernel_size: 3
    weight_filler {
      type: "xavier"
      std: 0.03
    }
    bias_filler {
      type: "constant"
      value: 0.2
    }
  }
}
layer {
  name: "inception_4a/relu_3x3"
  type: "ReLU"
  bottom: "inception_4a/3x3"
  top: "inception_4a/3x3"
}
layer {
  name: "inception_4a/5x5_reduce"
  type: "Convolution"
  bottom: "pool3/3x3_s2"
  top: "inception_4a/5x5_reduce"
  param {
    lr_mult: 1
    decay_mult: 1
  }
  param {
    lr_mult: 2
    decay_mult: 0
  }
  convolution_param {
    num_output: 16
    kernel_size: 1
    weight_filler {
      type: "xavier"
      std: 0.2
    }
    bias_filler {
      type: "constant"
      value: 0.2
    }
  }
}
layer {
  name: "inception_4a/relu_5x5_reduce"
  type: "ReLU"
  bottom: "inception_4a/5x5_reduce"
  top: "inception_4a/5x5_reduce"
}
layer {
  name: "inception_4a/5x5"
  type: "Convolution"
  bottom: "inception_4a/5x5_reduce"
  top: "inception_4a/5x5"
  param {
    lr_mult: 1
    decay_mult: 1
  }
  param {
    lr_mult: 2
    decay_mult: 0
  }
  convolution_param {
    num_output: 48
    pad: 2
    kernel_size: 5
    weight_filler {
      type: "xavier"
      std: 0.03
    }
    bias_filler {
      type: "constant"
      value: 0.2
    }
  }
}
layer {
  name: "inception_4a/relu_5x5"
  type: "ReLU"
  bottom: "inception_4a/5x5"
  top: "inception_4a/5x5"
}
layer {
  name: "inception_4a/pool"
  type: "Pooling"
  bottom: "pool3/3x3_s2"
  top: "inception_4a/pool"
  pooling_param {
    pool: MAX
    kernel_size: 3
    stride: 1
    pad: 1
  }
}
layer {
  name: "inception_4a/pool_proj"
  type: "Convolution"
  bottom: "inception_4a/pool"
  top: "inception_4a/pool_proj"
  param {
    lr_mult: 1
    decay_mult: 1
  }
  param {
    lr_mult: 2
    decay_mult: 0
  }
  convolution_param {
    num_output: 64
    kernel_size: 1
    weight_filler {
      type: "xavier"
      std: 0.1
    }
    bias_filler {
      type: "constant"
      value: 0.2
    }
  }
}
layer {
  name: "inception_4a/relu_pool_proj"
  type: "ReLU"
  bottom: "inception_4a/pool_proj"
  top: "inception_4a/pool_proj"
}
layer {
  name: "inception_4a/output"
  type: "Concat"
  bottom: "inception_4a/1x1"
  bottom: "inception_4a/3x3"
  bottom: "inception_4a/5x5"
  bottom: "inception_4a/pool_proj"
  top: "inception_4a/output"
}
layer {
  name: "inception_4b/1x1"
  type: "Convolution"
  bottom: "inception_4a/output"
  top: "inception_4b/1x1"
  param {
    lr_mult: 1
    decay_mult: 1
  }
  param {
    lr_mult: 2
    decay_mult: 0
  }
  convolution_param {
    num_output: 160
    kernel_size: 1
    weight_filler {
      type: "xavier"
      std: 0.03
    }
    bias_filler {
      type: "constant"
      value: 0.2
    }
  }
}
layer {
  name: "inception_4b/relu_1x1"
  type: "ReLU"
  bottom: "inception_4b/1x1"
  top: "inception_4b/1x1"
}
layer {
  name: "inception_4b/3x3_reduce"
  type: "Convolution"
  bottom: "inception_4a/output"
  top: "inception_4b/3x3_reduce"
  param {
    lr_mult: 1
    decay_mult: 1
  }
  param {
    lr_mult: 2
    decay_mult: 0
  }
  convolution_param {
    num_output: 112
    kernel_size: 1
    weight_filler {
      type: "xavier"
      std: 0.09
    }
    bias_filler {
      type: "constant"
      value: 0.2
    }
  }
}
layer {
  name: "inception_4b/relu_3x3_reduce"
  type: "ReLU"
  bottom: "inception_4b/3x3_reduce"
  top: "inception_4b/3x3_reduce"
}
layer {
  name: "inception_4b/3x3"
  type: "Convolution"
  bottom: "inception_4b/3x3_reduce"
  top: "inception_4b/3x3"
  param {
    lr_mult: 1
    decay_mult: 1
  }
  param {
    lr_mult: 2
    decay_mult: 0
  }
  convolution_param {
    num_output: 224
    pad: 1
    kernel_size: 3
    weight_filler {
      type: "xavier"
      std: 0.03
    }
    bias_filler {
      type: "constant"
      value: 0.2
    }
  }
}
layer {
  name: "inception_4b/relu_3x3"
  type: "ReLU"
  bottom: "inception_4b/3x3"
  top: "inception_4b/3x3"
}
layer {
  name: "inception_4b/5x5_reduce"
  type: "Convolution"
  bottom: "inception_4a/output"
  top: "inception_4b/5x5_reduce"
  param {
    lr_mult: 1
    decay_mult: 1
  }
  param {
    lr_mult: 2
    decay_mult: 0
  }
  convolution_param {
    num_output: 24
    kernel_size: 1
    weight_filler {
      type: "xavier"
      std: 0.2
    }
    bias_filler {
      type: "constant"
      value: 0.2
    }
  }
}
layer {
  name: "inception_4b/relu_5x5_reduce"
  type: "ReLU"
  bottom: "inception_4b/5x5_reduce"
  top: "inception_4b/5x5_reduce"
}
layer {
  name: "inception_4b/5x5"
  type: "Convolution"
  bottom: "inception_4b/5x5_reduce"
  top: "inception_4b/5x5"
  param {
    lr_mult: 1
    decay_mult: 1
  }
  param {
    lr_mult: 2
    decay_mult: 0
  }
  convolution_param {
    num_output: 64
    pad: 2
    kernel_size: 5
    weight_filler {
      type: "xavier"
      std: 0.03
    }
    bias_filler {
      type: "constant"
      value: 0.2
    }
  }
}
layer {
  name: "inception_4b/relu_5x5"
  type: "ReLU"
  bottom: "inception_4b/5x5"
  top: "inception_4b/5x5"
}
layer {
  name: "inception_4b/pool"
  type: "Pooling"
  bottom: "inception_4a/output"
  top: "inception_4b/pool"
  pooling_param {
    pool: MAX
    kernel_size: 3
    stride: 1
    pad: 1
  }
}
layer {
  name: "inception_4b/pool_proj"
  type: "Convolution"
  bottom: "inception_4b/pool"
  top: "inception_4b/pool_proj"
  param {
    lr_mult: 1
    decay_mult: 1
  }
  param {
    lr_mult: 2
    decay_mult: 0
  }
  convolution_param {
    num_output: 64
    kernel_size: 1
    weight_filler {
      type: "xavier"
      std: 0.1
    }
    bias_filler {
      type: "constant"
      value: 0.2
    }
  }
}
layer {
  name: "inception_4b/relu_pool_proj"
  type: "ReLU"
  bottom: "inception_4b/pool_proj"
  top: "inception_4b/pool_proj"
}
layer {
  name: "inception_4b/output"
  type: "Concat"
  bottom: "inception_4b/1x1"
  bottom: "inception_4b/3x3"
  bottom: "inception_4b/5x5"
  bottom: "inception_4b/pool_proj"
  top: "inception_4b/output"
}
layer {
  name: "inception_4c/1x1"
  type: "Convolution"
  bottom: "inception_4b/output"
  top: "inception_4c/1x1"
  param {
    lr_mult: 1
    decay_mult: 1
  }
  param {
    lr_mult: 2
    decay_mult: 0
  }
  convolution_param {
    num_output: 128
    kernel_size: 1
    weight_filler {
      type: "xavier"
      std: 0.03
    }
    bias_filler {
      type: "constant"
      value: 0.2
    }
  }
}
layer {
  name: "inception_4c/relu_1x1"
  type: "ReLU"
  bottom: "inception_4c/1x1"
  top: "inception_4c/1x1"
}
layer {
  name: "inception_4c/3x3_reduce"
  type: "Convolution"
  bottom: "inception_4b/output"
  top: "inception_4c/3x3_reduce"
  param {
    lr_mult: 1
    decay_mult: 1
  }
  param {
    lr_mult: 2
    decay_mult: 0
  }
  convolution_param {
    num_output: 128
    kernel_size: 1
    weight_filler {
      type: "xavier"
      std: 0.09
    }
    bias_filler {
      type: "constant"
      value: 0.2
    }
  }
}
layer {
  name: "inception_4c/relu_3x3_reduce"
  type: "ReLU"
  bottom: "inception_4c/3x3_reduce"
  top: "inception_4c/3x3_reduce"
}
layer {
  name: "inception_4c/3x3"
  type: "Convolution"
  bottom: "inception_4c/3x3_reduce"
  top: "inception_4c/3x3"
  param {
    lr_mult: 1
    decay_mult: 1
  }
  param {
    lr_mult: 2
    decay_mult: 0
  }
  convolution_param {
    num_output: 256
    pad: 1
    kernel_size: 3
    weight_filler {
      type: "xavier"
      std: 0.03
    }
    bias_filler {
      type: "constant"
      value: 0.2
    }
  }
}
layer {
  name: "inception_4c/relu_3x3"
  type: "ReLU"
  bottom: "inception_4c/3x3"
  top: "inception_4c/3x3"
}
layer {
  name: "inception_4c/5x5_reduce"
  type: "Convolution"
  bottom: "inception_4b/output"
  top: "inception_4c/5x5_reduce"
  param {
    lr_mult: 1
    decay_mult: 1
  }
  param {
    lr_mult: 2
    decay_mult: 0
  }
  convolution_param {
    num_output: 24
    kernel_size: 1
    weight_filler {
      type: "xavier"
      std: 0.2
    }
    bias_filler {
      type: "constant"
      value: 0.2
    }
  }
}
layer {
  name: "inception_4c/relu_5x5_reduce"
  type: "ReLU"
  bottom: "inception_4c/5x5_reduce"
  top: "inception_4c/5x5_reduce"
}
layer {
  name: "inception_4c/5x5"
  type: "Convolution"
  bottom: "inception_4c/5x5_reduce"
  top: "inception_4c/5x5"
  param {
    lr_mult: 1
    decay_mult: 1
  }
  param {
    lr_mult: 2
    decay_mult: 0
  }
  convolution_param {
    num_output: 64
    pad: 2
    kernel_size: 5
    weight_filler {
      type: "xavier"
      std: 0.03
    }
    bias_filler {
      type: "constant"
      value: 0.2
    }
  }
}
layer {
  name: "inception_4c/relu_5x5"
  type: "ReLU"
  bottom: "inception_4c/5x5"
  top: "inception_4c/5x5"
}
layer {
  name: "inception_4c/pool"
  type: "Pooling"
  bottom: "inception_4b/output"
  top: "inception_4c/pool"
  pooling_param {
    pool: MAX
    kernel_size: 3
    stride: 1
    pad: 1
  }
}
layer {
  name: "inception_4c/pool_proj"
  type: "Convolution"
  bottom: "inception_4c/pool"
  top: "inception_4c/pool_proj"
  param {
    lr_mult: 1
    decay_mult: 1
  }
  param {
    lr_mult: 2
    decay_mult: 0
  }
  convolution_param {
    num_output: 64
    kernel_size: 1
    weight_filler {
      type: "xavier"
      std: 0.1
    }
    bias_filler {
      type: "constant"
      value: 0.2
    }
  }
}
layer {
  name: "inception_4c/relu_pool_proj"
  type: "ReLU"
  bottom: "inception_4c/pool_proj"
  top: "inception_4c/pool_proj"
}
layer {
  name: "inception_4c/output"
  type: "Concat"
  bottom: "inception_4c/1x1"
  bottom: "inception_4c/3x3"
  bottom: "inception_4c/5x5"
  bottom: "inception_4c/pool_proj"
  top: "inception_4c/output"
}
layer {
  name: "inception_4d/1x1"
  type: "Convolution"
  bottom: "inception_4c/output"
  top: "inception_4d/1x1"
  param {
    lr_mult: 1
    decay_mult: 1
  }
  param {
    lr_mult: 2
    decay_mult: 0
  }
  convolution_param {
    num_output: 112
    kernel_size: 1
    weight_filler {
      type: "xavier"
      std: 0.03
    }
    bias_filler {
      type: "constant"
      value: 0.2
    }
  }
}
layer {
  name: "inception_4d/relu_1x1"
  type: "ReLU"
  bottom: "inception_4d/1x1"
  top: "inception_4d/1x1"
}
layer {
  name: "inception_4d/3x3_reduce"
  type: "Convolution"
  bottom: "inception_4c/output"
  top: "inception_4d/3x3_reduce"
  param {
    lr_mult: 1
    decay_mult: 1
  }
  param {
    lr_mult: 2
    decay_mult: 0
  }
  convolution_param {
    num_output: 144
    kernel_size: 1
    weight_filler {
      type: "xavier"
      std: 0.09
    }
    bias_filler {
      type: "constant"
      value: 0.2
    }
  }
}
layer {
  name: "inception_4d/relu_3x3_reduce"
  type: "ReLU"
  bottom: "inception_4d/3x3_reduce"
  top: "inception_4d/3x3_reduce"
}
layer {
  name: "inception_4d/3x3"
  type: "Convolution"
  bottom: "inception_4d/3x3_reduce"
  top: "inception_4d/3x3"
  param {
    lr_mult: 1
    decay_mult: 1
  }
  param {
    lr_mult: 2
    decay_mult: 0
  }
  convolution_param {
    num_output: 288
    pad: 1
    kernel_size: 3
    weight_filler {
      type: "xavier"
      std: 0.03
    }
    bias_filler {
      type: "constant"
      value: 0.2
    }
  }
}
layer {
  name: "inception_4d/relu_3x3"
  type: "ReLU"
  bottom: "inception_4d/3x3"
  top: "inception_4d/3x3"
}
layer {
  name: "inception_4d/5x5_reduce"
  type: "Convolution"
  bottom: "inception_4c/output"
  top: "inception_4d/5x5_reduce"
  param {
    lr_mult: 1
    decay_mult: 1
  }
  param {
    lr_mult: 2
    decay_mult: 0
  }
  convolution_param {
    num_output: 32
    kernel_size: 1
    weight_filler {
      type: "xavier"
      std: 0.2
    }
    bias_filler {
      type: "constant"
      value: 0.2
    }
  }
}
layer {
  name: "inception_4d/relu_5x5_reduce"
  type: "ReLU"
  bottom: "inception_4d/5x5_reduce"
  top: "inception_4d/5x5_reduce"
}
layer {
  name: "inception_4d/5x5"
  type: "Convolution"
  bottom: "inception_4d/5x5_reduce"
  top: "inception_4d/5x5"
  param {
    lr_mult: 1
    decay_mult: 1
  }
  param {
    lr_mult: 2
    decay_mult: 0
  }
  convolution_param {
    num_output: 64
    pad: 2
    kernel_size: 5
    weight_filler {
      type: "xavier"
      std: 0.03
    }
    bias_filler {
      type: "constant"
      value: 0.2
    }
  }
}
layer {
  name: "inception_4d/relu_5x5"
  type: "ReLU"
  bottom: "inception_4d/5x5"
  top: "inception_4d/5x5"
}
layer {
  name: "inception_4d/pool"
  type: "Pooling"
  bottom: "inception_4c/output"
  top: "inception_4d/pool"
  pooling_param {
    pool: MAX
    kernel_size: 3
    stride: 1
    pad: 1
  }
}
layer {
  name: "inception_4d/pool_proj"
  type: "Convolution"
  bottom: "inception_4d/pool"
  top: "inception_4d/pool_proj"
  param {
    lr_mult: 1
    decay_mult: 1
  }
  param {
    lr_mult: 2
    decay_mult: 0
  }
  convolution_param {
    num_output: 64
    kernel_size: 1
    weight_filler {
      type: "xavier"
      std: 0.1
    }
    bias_filler {
      type: "constant"
      value: 0.2
    }
  }
}
layer {
  name: "inception_4d/relu_pool_proj"
  type: "ReLU"
  bottom: "inception_4d/pool_proj"
  top: "inception_4d/pool_proj"
}
layer {
  name: "inception_4d/output"
  type: "Concat"
  bottom: "inception_4d/1x1"
  bottom: "inception_4d/3x3"
  bottom: "inception_4d/5x5"
  bottom: "inception_4d/pool_proj"
  top: "inception_4d/output"
}
layer {
  name: "inception_4e/1x1"
  type: "Convolution"
  bottom: "inception_4d/output"
  top: "inception_4e/1x1"
  param {
    lr_mult: 1
    decay_mult: 1
  }
  param {
    lr_mult: 2
    decay_mult: 0
  }
  convolution_param {
    num_output: 256
    kernel_size: 1
    weight_filler {
      type: "xavier"
      std: 0.03
    }
    bias_filler {
      type: "constant"
      value: 0.2
    }
  }
}
layer {
  name: "inception_4e/relu_1x1"
  type: "ReLU"
  bottom: "inception_4e/1x1"
  top: "inception_4e/1x1"
}
layer {
  name: "inception_4e/3x3_reduce"
  type: "Convolution"
  bottom: "inception_4d/output"
  top: "inception_4e/3x3_reduce"
  param {
    lr_mult: 1
    decay_mult: 1
  }
  param {
    lr_mult: 2
    decay_mult: 0
  }
  convolution_param {
    num_output: 160
    kernel_size: 1
    weight_filler {
      type: "xavier"
      std: 0.09
    }
    bias_filler {
      type: "constant"
      value: 0.2
    }
  }
}
layer {
  name: "inception_4e/relu_3x3_reduce"
  type: "ReLU"
  bottom: "inception_4e/3x3_reduce"
  top: "inception_4e/3x3_reduce"
}
layer {
  name: "inception_4e/3x3"
  type: "Convolution"
  bottom: "inception_4e/3x3_reduce"
  top: "inception_4e/3x3"
  param {
    lr_mult: 1
    decay_mult: 1
  }
  param {
    lr_mult: 2
    decay_mult: 0
  }
  convolution_param {
    num_output: 320
    pad: 1
    kernel_size: 3
    weight_filler {
      type: "xavier"
      std: 0.03
    }
    bias_filler {
      type: "constant"
      value: 0.2
    }
  }
}
layer {
  name: "inception_4e/relu_3x3"
  type: "ReLU"
  bottom: "inception_4e/3x3"
  top: "inception_4e/3x3"
}
layer {
  name: "inception_4e/5x5_reduce"
  type: "Convolution"
  bottom: "inception_4d/output"
  top: "inception_4e/5x5_reduce"
  param {
    lr_mult: 1
    decay_mult: 1
  }
  param {
    lr_mult: 2
    decay_mult: 0
  }
  convolution_param {
    num_output: 32
    kernel_size: 1
    weight_filler {
      type: "xavier"
      std: 0.2
    }
    bias_filler {
      type: "constant"
      value: 0.2
    }
  }
}
layer {
  name: "inception_4e/relu_5x5_reduce"
  type: "ReLU"
  bottom: "inception_4e/5x5_reduce"
  top: "inception_4e/5x5_reduce"
}
layer {
  name: "inception_4e/5x5"
  type: "Convolution"
  bottom: "inception_4e/5x5_reduce"
  top: "inception_4e/5x5"
  param {
    lr_mult: 1
    decay_mult: 1
  }
  param {
    lr_mult: 2
    decay_mult: 0
  }
  convolution_param {
    num_output: 128
    pad: 2
    kernel_size: 5
    weight_filler {
      type: "xavier"
      std: 0.03
    }
    bias_filler {
      type: "constant"
      value: 0.2
    }
  }
}
layer {
  name: "inception_4e/relu_5x5"
  type: "ReLU"
  bottom: "inception_4e/5x5"
  top: "inception_4e/5x5"
}
layer {
  name: "inception_4e/pool"
  type: "Pooling"
  bottom: "inception_4d/output"
  top: "inception_4e/pool"
  pooling_param {
    pool: MAX
    kernel_size: 3
    stride: 1
    pad: 1
  }
}
layer {
  name: "inception_4e/pool_proj"
  type: "Convolution"
  bottom: "inception_4e/pool"
  top: "inception_4e/pool_proj"
  param {
    lr_mult: 1
    decay_mult: 1
  }
  param {
    lr_mult: 2
    decay_mult: 0
  }
  convolution_param {
    num_output: 128
    kernel_size: 1
    weight_filler {
      type: "xavier"
      std: 0.1
    }
    bias_filler {
      type: "constant"
      value: 0.2
    }
  }
}
layer {
  name: "inception_4e/relu_pool_proj"
  type: "ReLU"
  bottom: "inception_4e/pool_proj"
  top: "inception_4e/pool_proj"
}
layer {
  name: "inception_4e/output"
  type: "Concat"
  bottom: "inception_4e/1x1"
  bottom: "inception_4e/3x3"
  bottom: "inception_4e/5x5"
  bottom: "inception_4e/pool_proj"
  top: "inception_4e/output"
}
layer {
  name: "pool4/3x3_s2"
  type: "Pooling"
  bottom: "inception_4e/output"
  top: "pool4/3x3_s2"
  pooling_param {
    pool: MAX
    kernel_size: 3
    stride: 2
  }
}
layer {
  name: "inception_5a/1x1"
  type: "Convolution"
  bottom: "pool4/3x3_s2"
  top: "inception_5a/1x1"
  param {
    lr_mult: 1
    decay_mult: 1
  }
  param {
    lr_mult: 2
    decay_mult: 0
  }
  convolution_param {
    num_output: 256
    kernel_size: 1
    weight_filler {
      type: "xavier"
      std: 0.03
    }
    bias_filler {
      type: "constant"
      value: 0.2
    }
  }
}
layer {
  name: "inception_5a/relu_1x1"
  type: "ReLU"
  bottom: "inception_5a/1x1"
  top: "inception_5a/1x1"
}
layer {
  name: "inception_5a/3x3_reduce"
  type: "Convolution"
  bottom: "pool4/3x3_s2"
  top: "inception_5a/3x3_reduce"
  param {
    lr_mult: 1
    decay_mult: 1
  }
  param {
    lr_mult: 2
    decay_mult: 0
  }
  convolution_param {
    num_output: 160
    kernel_size: 1
    weight_filler {
      type: "xavier"
      std: 0.09
    }
    bias_filler {
      type: "constant"
      value: 0.2
    }
  }
}
layer {
  name: "inception_5a/relu_3x3_reduce"
  type: "ReLU"
  bottom: "inception_5a/3x3_reduce"
  top: "inception_5a/3x3_reduce"
}
layer {
  name: "inception_5a/3x3"
  type: "Convolution"
  bottom: "inception_5a/3x3_reduce"
  top: "inception_5a/3x3"
  param {
    lr_mult: 1
    decay_mult: 1
  }
  param {
    lr_mult: 2
    decay_mult: 0
  }
  convolution_param {
    num_output: 320
    pad: 1
    kernel_size: 3
    weight_filler {
      type: "xavier"
      std: 0.03
    }
    bias_filler {
      type: "constant"
      value: 0.2
    }
  }
}
layer {
  name: "inception_5a/relu_3x3"
  type: "ReLU"
  bottom: "inception_5a/3x3"
  top: "inception_5a/3x3"
}
layer {
  name: "inception_5a/5x5_reduce"
  type: "Convolution"
  bottom: "pool4/3x3_s2"
  top: "inception_5a/5x5_reduce"
  param {
    lr_mult: 1
    decay_mult: 1
  }
  param {
    lr_mult: 2
    decay_mult: 0
  }
  convolution_param {
    num_output: 32
    kernel_size: 1
    weight_filler {
      type: "xavier"
      std: 0.2
    }
    bias_filler {
      type: "constant"
      value
I0509 17:40:01.150400 120201 layer_factory.hpp:77] Creating layer data
I0509 17:40:01.150419 120201 net.cpp:84] Creating Layer data
I0509 17:40:01.150430 120201 net.cpp:380] data -> data
I0509 17:40:01.150449 120201 net.cpp:122] Setting up data
I0509 17:40:01.150459 120201 net.cpp:129] Top shape: 10 3 224 224 (1505280)
I0509 17:40:01.150465 120201 net.cpp:137] Memory required for data: 6021120
I0509 17:40:01.150470 120201 layer_factory.hpp:77] Creating layer conv1/7x7_s2
I0509 17:40:01.150485 120201 net.cpp:84] Creating Layer conv1/7x7_s2
I0509 17:40:01.150490 120201 net.cpp:406] conv1/7x7_s2 <- data
I0509 17:40:01.150501 120201 net.cpp:380] conv1/7x7_s2 -> conv1/7x7_s2
I0509 17:40:01.150517 120201 base_conv_layer.cpp:121] Group is 1channel is3number of output is 64
I0509 17:40:01.151199 120201 net.cpp:122] Setting up conv1/7x7_s2
I0509 17:40:01.151211 120201 net.cpp:129] Top shape: 10 64 112 112 (8028160)
I0509 17:40:01.151217 120201 net.cpp:137] Memory required for data: 38133760
I0509 17:40:01.151232 120201 layer_factory.hpp:77] Creating layer conv1/relu_7x7
I0509 17:40:01.151242 120201 net.cpp:84] Creating Layer conv1/relu_7x7
I0509 17:40:01.151247 120201 net.cpp:406] conv1/relu_7x7 <- conv1/7x7_s2
I0509 17:40:01.151255 120201 net.cpp:367] conv1/relu_7x7 -> conv1/7x7_s2 (in-place)
I0509 17:40:01.151265 120201 net.cpp:122] Setting up conv1/relu_7x7
I0509 17:40:01.151273 120201 net.cpp:129] Top shape: 10 64 112 112 (8028160)
I0509 17:40:01.151276 120201 net.cpp:137] Memory required for data: 70246400
I0509 17:40:01.151283 120201 layer_factory.hpp:77] Creating layer pool1/3x3_s2
I0509 17:40:01.151289 120201 net.cpp:84] Creating Layer pool1/3x3_s2
I0509 17:40:01.151301 120201 net.cpp:406] pool1/3x3_s2 <- conv1/7x7_s2
I0509 17:40:01.151309 120201 net.cpp:380] pool1/3x3_s2 -> pool1/3x3_s2
I0509 17:40:01.151322 120201 net.cpp:122] Setting up pool1/3x3_s2
I0509 17:40:01.151330 120201 net.cpp:129] Top shape: 10 64 56 56 (2007040)
I0509 17:40:01.151335 120201 net.cpp:137] Memory required for data: 78274560
I0509 17:40:01.151340 120201 layer_factory.hpp:77] Creating layer pool1/norm1
I0509 17:40:01.151350 120201 net.cpp:84] Creating Layer pool1/norm1
I0509 17:40:01.151355 120201 net.cpp:406] pool1/norm1 <- pool1/3x3_s2
I0509 17:40:01.151362 120201 net.cpp:380] pool1/norm1 -> pool1/norm1
I0509 17:40:01.151373 120201 net.cpp:122] Setting up pool1/norm1
I0509 17:40:01.151381 120201 net.cpp:129] Top shape: 10 64 56 56 (2007040)
I0509 17:40:01.151386 120201 net.cpp:137] Memory required for data: 86302720
I0509 17:40:01.151389 120201 layer_factory.hpp:77] Creating layer conv2/3x3_reduce
I0509 17:40:01.151402 120201 net.cpp:84] Creating Layer conv2/3x3_reduce
I0509 17:40:01.151410 120201 net.cpp:406] conv2/3x3_reduce <- pool1/norm1
I0509 17:40:01.151418 120201 net.cpp:380] conv2/3x3_reduce -> conv2/3x3_reduce
I0509 17:40:01.151433 120201 base_conv_layer.cpp:121] Group is 1channel is64number of output is 64
I0509 17:40:01.151506 120201 net.cpp:122] Setting up conv2/3x3_reduce
I0509 17:40:01.151515 120201 net.cpp:129] Top shape: 10 64 56 56 (2007040)
I0509 17:40:01.151520 120201 net.cpp:137] Memory required for data: 94330880
I0509 17:40:01.151530 120201 layer_factory.hpp:77] Creating layer conv2/relu_3x3_reduce
I0509 17:40:01.151538 120201 net.cpp:84] Creating Layer conv2/relu_3x3_reduce
I0509 17:40:01.151545 120201 net.cpp:406] conv2/relu_3x3_reduce <- conv2/3x3_reduce
I0509 17:40:01.151553 120201 net.cpp:367] conv2/relu_3x3_reduce -> conv2/3x3_reduce (in-place)
I0509 17:40:01.151561 120201 net.cpp:122] Setting up conv2/relu_3x3_reduce
I0509 17:40:01.151568 120201 net.cpp:129] Top shape: 10 64 56 56 (2007040)
I0509 17:40:01.151573 120201 net.cpp:137] Memory required for data: 102359040
I0509 17:40:01.151578 120201 layer_factory.hpp:77] Creating layer conv2/3x3
I0509 17:40:01.151590 120201 net.cpp:84] Creating Layer conv2/3x3
I0509 17:40:01.151595 120201 net.cpp:406] conv2/3x3 <- conv2/3x3_reduce
I0509 17:40:01.151604 120201 net.cpp:380] conv2/3x3 -> conv2/3x3
     0.601206446 I0509 17:40:01.151623 120201 base_conv_layer.cpp:121] Group is 1channel is64number of output is 192
       399,202,653      instructions:u           
     0.601206446        224,164,641      cycles:u                 
I0509 17:40:01.152873 120201 net.cpp:122] Setting up conv2/3x3
I0509 17:40:01.152885 120201 net.cpp:129] Top shape: 10 192 56 56 (6021120)
I0509 17:40:01.152890 120201 net.cpp:137] Memory required for data: 126443520
I0509 17:40:01.152905 120201 layer_factory.hpp:77] Creating layer conv2/relu_3x3
I0509 17:40:01.152915 120201 net.cpp:84] Creating Layer conv2/relu_3x3
I0509 17:40:01.152920 120201 net.cpp:406] conv2/relu_3x3 <- conv2/3x3
I0509 17:40:01.152930 120201 net.cpp:367] conv2/relu_3x3 -> conv2/3x3 (in-place)
I0509 17:40:01.152937 120201 net.cpp:122] Setting up conv2/relu_3x3
I0509 17:40:01.152945 120201 net.cpp:129] Top shape: 10 192 56 56 (6021120)
I0509 17:40:01.152948 120201 net.cpp:137] Memory required for data: 150528000
I0509 17:40:01.152953 120201 layer_factory.hpp:77] Creating layer conv2/norm2
I0509 17:40:01.152961 120201 net.cpp:84] Creating Layer conv2/norm2
I0509 17:40:01.152966 120201 net.cpp:406] conv2/norm2 <- conv2/3x3
I0509 17:40:01.152972 120201 net.cpp:380] conv2/norm2 -> conv2/norm2
I0509 17:40:01.152983 120201 net.cpp:122] Setting up conv2/norm2
I0509 17:40:01.152989 120201 net.cpp:129] Top shape: 10 192 56 56 (6021120)
I0509 17:40:01.152994 120201 net.cpp:137] Memory required for data: 174612480
I0509 17:40:01.152998 120201 layer_factory.hpp:77] Creating layer pool2/3x3_s2
I0509 17:40:01.153008 120201 net.cpp:84] Creating Layer pool2/3x3_s2
I0509 17:40:01.153013 120201 net.cpp:406] pool2/3x3_s2 <- conv2/norm2
I0509 17:40:01.153023 120201 net.cpp:380] pool2/3x3_s2 -> pool2/3x3_s2
I0509 17:40:01.153038 120201 net.cpp:122] Setting up pool2/3x3_s2
I0509 17:40:01.153045 120201 net.cpp:129] Top shape: 10 192 28 28 (1505280)
I0509 17:40:01.153050 120201 net.cpp:137] Memory required for data: 180633600
I0509 17:40:01.153054 120201 layer_factory.hpp:77] Creating layer pool2/3x3_s2_pool2/3x3_s2_0_split
I0509 17:40:01.153064 120201 net.cpp:84] Creating Layer pool2/3x3_s2_pool2/3x3_s2_0_split
I0509 17:40:01.153069 120201 net.cpp:406] pool2/3x3_s2_pool2/3x3_s2_0_split <- pool2/3x3_s2
I0509 17:40:01.153079 120201 net.cpp:380] pool2/3x3_s2_pool2/3x3_s2_0_split -> pool2/3x3_s2_pool2/3x3_s2_0_split_0
I0509 17:40:01.153090 120201 net.cpp:380] pool2/3x3_s2_pool2/3x3_s2_0_split -> pool2/3x3_s2_pool2/3x3_s2_0_split_1
I0509 17:40:01.153100 120201 net.cpp:380] pool2/3x3_s2_pool2/3x3_s2_0_split -> pool2/3x3_s2_pool2/3x3_s2_0_split_2
I0509 17:40:01.153110 120201 net.cpp:380] pool2/3x3_s2_pool2/3x3_s2_0_split -> pool2/3x3_s2_pool2/3x3_s2_0_split_3
I0509 17:40:01.153120 120201 net.cpp:122] Setting up pool2/3x3_s2_pool2/3x3_s2_0_split
I0509 17:40:01.153128 120201 net.cpp:129] Top shape: 10 192 28 28 (1505280)
I0509 17:40:01.153134 120201 net.cpp:129] Top shape: 10 192 28 28 (1505280)
I0509 17:40:01.153141 120201 net.cpp:129] Top shape: 10 192 28 28 (1505280)
I0509 17:40:01.153148 120201 net.cpp:129] Top shape: 10 192 28 28 (1505280)
I0509 17:40:01.153153 120201 net.cpp:137] Memory required for data: 204718080
I0509 17:40:01.153157 120201 layer_factory.hpp:77] Creating layer inception_3a/1x1
I0509 17:40:01.153170 120201 net.cpp:84] Creating Layer inception_3a/1x1
I0509 17:40:01.153175 120201 net.cpp:406] inception_3a/1x1 <- pool2/3x3_s2_pool2/3x3_s2_0_split_0
I0509 17:40:01.153187 120201 net.cpp:380] inception_3a/1x1 -> inception_3a/1x1
I0509 17:40:01.153199 120201 base_conv_layer.cpp:121] Group is 1channel is192number of output is 64
I0509 17:40:01.153352 120201 net.cpp:122] Setting up inception_3a/1x1
I0509 17:40:01.153359 120201 net.cpp:129] Top shape: 10 64 28 28 (501760)
I0509 17:40:01.153364 120201 net.cpp:137] Memory required for data: 206725120
I0509 17:40:01.153373 120201 layer_factory.hpp:77] Creating layer inception_3a/relu_1x1
I0509 17:40:01.153380 120201 net.cpp:84] Creating Layer inception_3a/relu_1x1
I0509 17:40:01.153386 120201 net.cpp:406] inception_3a/relu_1x1 <- inception_3a/1x1
I0509 17:40:01.153395 120201 net.cpp:367] inception_3a/relu_1x1 -> inception_3a/1x1 (in-place)
I0509 17:40:01.153403 120201 net.cpp:122] Setting up inception_3a/relu_1x1
I0509 17:40:01.153411 120201 net.cpp:129] Top shape: 10 64 28 28 (501760)
I0509 17:40:01.153416 120201 net.cpp:137] Memory required for data: 208732160
I0509 17:40:01.153421 120201 layer_factory.hpp:77] Creating layer inception_3a/3x3_reduce
I0509 17:40:01.153432 120201 net.cpp:84] Creating Layer inception_3a/3x3_reduce
I0509 17:40:01.153439 120201 net.cpp:406] inception_3a/3x3_reduce <- pool2/3x3_s2_pool2/3x3_s2_0_split_1
I0509 17:40:01.153450 120201 net.cpp:380] inception_3a/3x3_reduce -> inception_3a/3x3_reduce
I0509 17:40:01.153462 120201 base_conv_layer.cpp:121] Group is 1channel is192number of output is 96
I0509 17:40:01.153688 120201 net.cpp:122] Setting up inception_3a/3x3_reduce
I0509 17:40:01.153698 120201 net.cpp:129] Top shape: 10 96 28 28 (752640)
I0509 17:40:01.153702 120201 net.cpp:137] Memory required for data: 211742720
I0509 17:40:01.153715 120201 layer_factory.hpp:77] Creating layer inception_3a/relu_3x3_reduce
I0509 17:40:01.153723 120201 net.cpp:84] Creating Layer inception_3a/relu_3x3_reduce
I0509 17:40:01.153729 120201 net.cpp:406] inception_3a/relu_3x3_reduce <- inception_3a/3x3_reduce
I0509 17:40:01.153739 120201 net.cpp:367] inception_3a/relu_3x3_reduce -> inception_3a/3x3_reduce (in-place)
I0509 17:40:01.153748 120201 net.cpp:122] Setting up inception_3a/relu_3x3_reduce
I0509 17:40:01.153754 120201 net.cpp:129] Top shape: 10 96 28 28 (752640)
I0509 17:40:01.153760 120201 net.cpp:137] Memory required for data: 214753280
I0509 17:40:01.153764 120201 layer_factory.hpp:77] Creating layer inception_3a/3x3
I0509 17:40:01.153786 120201 net.cpp:84] Creating Layer inception_3a/3x3
I0509 17:40:01.153792 120201 net.cpp:406] inception_3a/3x3 <- inception_3a/3x3_reduce
I0509 17:40:01.153802 120201 net.cpp:380] inception_3a/3x3 -> inception_3a/3x3
I0509 17:40:01.153815 120201 base_conv_layer.cpp:121] Group is 1channel is96number of output is 128
I0509 17:40:01.155051 120201 net.cpp:122] Setting up inception_3a/3x3
I0509 17:40:01.155061 120201 net.cpp:129] Top shape: 10 128 28 28 (1003520)
I0509 17:40:01.155066 120201 net.cpp:137] Memory required for data: 218767360
I0509 17:40:01.155074 120201 layer_factory.hpp:77] Creating layer inception_3a/relu_3x3
I0509 17:40:01.155081 120201 net.cpp:84] Creating Layer inception_3a/relu_3x3
I0509 17:40:01.155088 120201 net.cpp:406] inception_3a/relu_3x3 <- inception_3a/3x3
I0509 17:40:01.155097 120201 net.cpp:367] inception_3a/relu_3x3 -> inception_3a/3x3 (in-place)
I0509 17:40:01.155104 120201 net.cpp:122] Setting up inception_3a/relu_3x3
I0509 17:40:01.155112 120201 net.cpp:129] Top shape: 10 128 28 28 (1003520)
I0509 17:40:01.155115 120201 net.cpp:137] Memory required for data: 222781440
I0509 17:40:01.155122 120201 layer_factory.hpp:77] Creating layer inception_3a/5x5_reduce
I0509 17:40:01.155133 120201 net.cpp:84] Creating Layer inception_3a/5x5_reduce
I0509 17:40:01.155139 120201 net.cpp:406] inception_3a/5x5_reduce <- pool2/3x3_s2_pool2/3x3_s2_0_split_2
I0509 17:40:01.155150 120201 net.cpp:380] inception_3a/5x5_reduce -> inception_3a/5x5_reduce
I0509 17:40:01.155164 120201 base_conv_layer.cpp:121] Group is 1channel is192number of output is 16
I0509 17:40:01.155218 120201 net.cpp:122] Setting up inception_3a/5x5_reduce
I0509 17:40:01.155225 120201 net.cpp:129] Top shape: 10 16 28 28 (125440)
I0509 17:40:01.155230 120201 net.cpp:137] Memory required for data: 223283200
I0509 17:40:01.155238 120201 layer_factory.hpp:77] Creating layer inception_3a/relu_5x5_reduce
I0509 17:40:01.155247 120201 net.cpp:84] Creating Layer inception_3a/relu_5x5_reduce
I0509 17:40:01.155252 120201 net.cpp:406] inception_3a/relu_5x5_reduce <- inception_3a/5x5_reduce
I0509 17:40:01.155259 120201 net.cpp:367] inception_3a/relu_5x5_reduce -> inception_3a/5x5_reduce (in-place)
I0509 17:40:01.155273 120201 net.cpp:122] Setting up inception_3a/relu_5x5_reduce
I0509 17:40:01.155280 120201 net.cpp:129] Top shape: 10 16 28 28 (125440)
I0509 17:40:01.155285 120201 net.cpp:137] Memory required for data: 223784960
I0509 17:40:01.155289 120201 layer_factory.hpp:77] Creating layer inception_3a/5x5
I0509 17:40:01.155300 120201 net.cpp:84] Creating Layer inception_3a/5x5
I0509 17:40:01.155305 120201 net.cpp:406] inception_3a/5x5 <- inception_3a/5x5_reduce
I0509 17:40:01.155315 120201 net.cpp:380] inception_3a/5x5 -> inception_3a/5x5
I0509 17:40:01.155331 120201 base_conv_layer.cpp:121] Group is 1channel is16number of output is 32
I0509 17:40:01.155488 120201 net.cpp:122] Setting up inception_3a/5x5
I0509 17:40:01.155498 120201 net.cpp:129] Top shape: 10 32 28 28 (250880)
I0509 17:40:01.155503 120201 net.cpp:137] Memory required for data: 224788480
I0509 17:40:01.155511 120201 layer_factory.hpp:77] Creating layer inception_3a/relu_5x5
I0509 17:40:01.155519 120201 net.cpp:84] Creating Layer inception_3a/relu_5x5
I0509 17:40:01.155524 120201 net.cpp:406] inception_3a/relu_5x5 <- inception_3a/5x5
I0509 17:40:01.155531 120201 net.cpp:367] inception_3a/relu_5x5 -> inception_3a/5x5 (in-place)
I0509 17:40:01.155539 120201 net.cpp:122] Setting up inception_3a/relu_5x5
I0509 17:40:01.155546 120201 net.cpp:129] Top shape: 10 32 28 28 (250880)
I0509 17:40:01.155551 120201 net.cpp:137] Memory required for data: 225792000
I0509 17:40:01.155555 120201 layer_factory.hpp:77] Creating layer inception_3a/pool
I0509 17:40:01.155563 120201 net.cpp:84] Creating Layer inception_3a/pool
I0509 17:40:01.155568 120201 net.cpp:406] inception_3a/pool <- pool2/3x3_s2_pool2/3x3_s2_0_split_3
I0509 17:40:01.155578 120201 net.cpp:380] inception_3a/pool -> inception_3a/pool
I0509 17:40:01.155589 120201 net.cpp:122] Setting up inception_3a/pool
I0509 17:40:01.155602 120201 net.cpp:129] Top shape: 10 192 28 28 (1505280)
I0509 17:40:01.155608 120201 net.cpp:137] Memory required for data: 231813120
I0509 17:40:01.155613 120201 layer_factory.hpp:77] Creating layer inception_3a/pool_proj
I0509 17:40:01.155622 120201 net.cpp:84] Creating Layer inception_3a/pool_proj
I0509 17:40:01.155628 120201 net.cpp:406] inception_3a/pool_proj <- inception_3a/pool
I0509 17:40:01.155639 120201 net.cpp:380] inception_3a/pool_proj -> inception_3a/pool_proj
I0509 17:40:01.155652 120201 base_conv_layer.cpp:121] Group is 1channel is192number of output is 32
I0509 17:40:01.155745 120201 net.cpp:122] Setting up inception_3a/pool_proj
I0509 17:40:01.155752 120201 net.cpp:129] Top shape: 10 32 28 28 (250880)
I0509 17:40:01.155758 120201 net.cpp:137] Memory required for data: 232816640
I0509 17:40:01.155772 120201 layer_factory.hpp:77] Creating layer inception_3a/relu_pool_proj
I0509 17:40:01.155779 120201 net.cpp:84] Creating Layer inception_3a/relu_pool_proj
I0509 17:40:01.155786 120201 net.cpp:406] inception_3a/relu_pool_proj <- inception_3a/pool_proj
I0509 17:40:01.155794 120201 net.cpp:367] inception_3a/relu_pool_proj -> inception_3a/pool_proj (in-place)
I0509 17:40:01.155802 120201 net.cpp:122] Setting up inception_3a/relu_pool_proj
I0509 17:40:01.155809 120201 net.cpp:129] Top shape: 10 32 28 28 (250880)
I0509 17:40:01.155814 120201 net.cpp:137] Memory required for data: 233820160
I0509 17:40:01.155819 120201 layer_factory.hpp:77] Creating layer inception_3a/output
I0509 17:40:01.155827 120201 net.cpp:84] Creating Layer inception_3a/output
I0509 17:40:01.155831 120201 net.cpp:406] inception_3a/output <- inception_3a/1x1
I0509 17:40:01.155838 120201 net.cpp:406] inception_3a/output <- inception_3a/3x3
I0509 17:40:01.155844 120201 net.cpp:406] inception_3a/output <- inception_3a/5x5
I0509 17:40:01.155850 120201 net.cpp:406] inception_3a/output <- inception_3a/pool_proj
I0509 17:40:01.155858 120201 net.cpp:380] inception_3a/output -> inception_3a/output
I0509 17:40:01.155870 120201 net.cpp:122] Setting up inception_3a/output
I0509 17:40:01.155879 120201 net.cpp:129] Top shape: 10 256 28 28 (2007040)
I0509 17:40:01.155884 120201 net.cpp:137] Memory required for data: 241848320
I0509 17:40:01.155887 120201 layer_factory.hpp:77] Creating layer inception_3a/output_inception_3a/output_0_split
I0509 17:40:01.155895 120201 net.cpp:84] Creating Layer inception_3a/output_inception_3a/output_0_split
I0509 17:40:01.155901 120201 net.cpp:406] inception_3a/output_inception_3a/output_0_split <- inception_3a/output
I0509 17:40:01.155911 120201 net.cpp:380] inception_3a/output_inception_3a/output_0_split -> inception_3a/output_inception_3a/output_0_split_0
I0509 17:40:01.155921 120201 net.cpp:380] inception_3a/output_inception_3a/output_0_split -> inception_3a/output_inception_3a/output_0_split_1
I0509 17:40:01.155931 120201 net.cpp:380] inception_3a/output_inception_3a/output_0_split -> inception_3a/output_inception_3a/output_0_split_2
I0509 17:40:01.155941 120201 net.cpp:380] inception_3a/output_inception_3a/output_0_split -> inception_3a/output_inception_3a/output_0_split_3
I0509 17:40:01.155953 120201 net.cpp:122] Setting up inception_3a/output_inception_3a/output_0_split
I0509 17:40:01.155961 120201 net.cpp:129] Top shape: 10 256 28 28 (2007040)
I0509 17:40:01.155967 120201 net.cpp:129] Top shape: 10 256 28 28 (2007040)
I0509 17:40:01.155974 120201 net.cpp:129] Top shape: 10 256 28 28 (2007040)
I0509 17:40:01.155982 120201 net.cpp:129] Top shape: 10 256 28 28 (2007040)
I0509 17:40:01.155985 120201 net.cpp:137] Memory required for data: 273960960
I0509 17:40:01.155990 120201 layer_factory.hpp:77] Creating layer inception_3b/1x1
I0509 17:40:01.156002 120201 net.cpp:84] Creating Layer inception_3b/1x1
I0509 17:40:01.156008 120201 net.cpp:406] inception_3b/1x1 <- inception_3a/output_inception_3a/output_0_split_0
I0509 17:40:01.156016 120201 net.cpp:380] inception_3b/1x1 -> inception_3b/1x1
I0509 17:40:01.156030 120201 base_conv_layer.cpp:121] Group is 1channel is256number of output is 128
I0509 17:40:01.156426 120201 net.cpp:122] Setting up inception_3b/1x1
I0509 17:40:01.156441 120201 net.cpp:129] Top shape: 10 128 28 28 (1003520)
I0509 17:40:01.156446 120201 net.cpp:137] Memory required for data: 277975040
I0509 17:40:01.156455 120201 layer_factory.hpp:77] Creating layer inception_3b/relu_1x1
I0509 17:40:01.156463 120201 net.cpp:84] Creating Layer inception_3b/relu_1x1
I0509 17:40:01.156469 120201 net.cpp:406] inception_3b/relu_1x1 <- inception_3b/1x1
I0509 17:40:01.156478 120201 net.cpp:367] inception_3b/relu_1x1 -> inception_3b/1x1 (in-place)
I0509 17:40:01.156486 120201 net.cpp:122] Setting up inception_3b/relu_1x1
I0509 17:40:01.156494 120201 net.cpp:129] Top shape: 10 128 28 28 (1003520)
I0509 17:40:01.156499 120201 net.cpp:137] Memory required for data: 281989120
I0509 17:40:01.156503 120201 layer_factory.hpp:77] Creating layer inception_3b/3x3_reduce
I0509 17:40:01.156517 120201 net.cpp:84] Creating Layer inception_3b/3x3_reduce
I0509 17:40:01.156522 120201 net.cpp:406] inception_3b/3x3_reduce <- inception_3a/output_inception_3a/output_0_split_1
I0509 17:40:01.156532 120201 net.cpp:380] inception_3b/3x3_reduce -> inception_3b/3x3_reduce
I0509 17:40:01.156543 120201 base_conv_layer.cpp:121] Group is 1channel is256number of output is 128
I0509 17:40:01.156927 120201 net.cpp:122] Setting up inception_3b/3x3_reduce
I0509 17:40:01.156939 120201 net.cpp:129] Top shape: 10 128 28 28 (1003520)
I0509 17:40:01.156944 120201 net.cpp:137] Memory required for data: 286003200
I0509 17:40:01.156952 120201 layer_factory.hpp:77] Creating layer inception_3b/relu_3x3_reduce
I0509 17:40:01.156960 120201 net.cpp:84] Creating Layer inception_3b/relu_3x3_reduce
I0509 17:40:01.156965 120201 net.cpp:406] inception_3b/relu_3x3_reduce <- inception_3b/3x3_reduce
I0509 17:40:01.156972 120201 net.cpp:367] inception_3b/relu_3x3_reduce -> inception_3b/3x3_reduce (in-place)
I0509 17:40:01.156980 120201 net.cpp:122] Setting up inception_3b/relu_3x3_reduce
I0509 17:40:01.156987 120201 net.cpp:129] Top shape: 10 128 28 28 (1003520)
I0509 17:40:01.156992 120201 net.cpp:137] Memory required for data: 290017280
I0509 17:40:01.156996 120201 layer_factory.hpp:77] Creating layer inception_3b/3x3
I0509 17:40:01.157007 120201 net.cpp:84] Creating Layer inception_3b/3x3
I0509 17:40:01.157013 120201 net.cpp:406] inception_3b/3x3 <- inception_3b/3x3_reduce
I0509 17:40:01.157023 120201 net.cpp:380] inception_3b/3x3 -> inception_3b/3x3
I0509 17:40:01.157035 120201 base_conv_layer.cpp:121] Group is 1channel is128number of output is 192
I0509 17:40:01.159482 120201 net.cpp:122] Setting up inception_3b/3x3
I0509 17:40:01.159492 120201 net.cpp:129] Top shape: 10 192 28 28 (1505280)
I0509 17:40:01.159497 120201 net.cpp:137] Memory required for data: 296038400
I0509 17:40:01.159504 120201 layer_factory.hpp:77] Creating layer inception_3b/relu_3x3
I0509 17:40:01.159521 120201 net.cpp:84] Creating Layer inception_3b/relu_3x3
I0509 17:40:01.159528 120201 net.cpp:406] inception_3b/relu_3x3 <- inception_3b/3x3
I0509 17:40:01.159535 120201 net.cpp:367] inception_3b/relu_3x3 -> inception_3b/3x3 (in-place)
I0509 17:40:01.159543 120201 net.cpp:122] Setting up inception_3b/relu_3x3
I0509 17:40:01.159550 120201 net.cpp:129] Top shape: 10 192 28 28 (1505280)
I0509 17:40:01.159555 120201 net.cpp:137] Memory required for data: 302059520
I0509 17:40:01.159560 120201 layer_factory.hpp:77] Creating layer inception_3b/5x5_reduce
I0509 17:40:01.159571 120201 net.cpp:84] Creating Layer inception_3b/5x5_reduce
I0509 17:40:01.159576 120201 net.cpp:406] inception_3b/5x5_reduce <- inception_3a/output_inception_3a/output_0_split_2
I0509 17:40:01.159585 120201 net.cpp:380] inception_3b/5x5_reduce -> inception_3b/5x5_reduce
I0509 17:40:01.159600 120201 base_conv_layer.cpp:121] Group is 1channel is256number of output is 32
I0509 17:40:01.159703 120201 net.cpp:122] Setting up inception_3b/5x5_reduce
I0509 17:40:01.159711 120201 net.cpp:129] Top shape: 10 32 28 28 (250880)
I0509 17:40:01.159716 120201 net.cpp:137] Memory required for data: 303063040
I0509 17:40:01.159725 120201 layer_factory.hpp:77] Creating layer inception_3b/relu_5x5_reduce
I0509 17:40:01.159736 120201 net.cpp:84] Creating Layer inception_3b/relu_5x5_reduce
I0509 17:40:01.159742 120201 net.cpp:406] inception_3b/relu_5x5_reduce <- inception_3b/5x5_reduce
I0509 17:40:01.159749 120201 net.cpp:367] inception_3b/relu_5x5_reduce -> inception_3b/5x5_reduce (in-place)
I0509 17:40:01.159757 120201 net.cpp:122] Setting up inception_3b/relu_5x5_reduce
I0509 17:40:01.159765 120201 net.cpp:129] Top shape: 10 32 28 28 (250880)
I0509 17:40:01.159770 120201 net.cpp:137] Memory required for data: 304066560
I0509 17:40:01.159773 120201 layer_factory.hpp:77] Creating layer inception_3b/5x5
I0509 17:40:01.159786 120201 net.cpp:84] Creating Layer inception_3b/5x5
I0509 17:40:01.159791 120201 net.cpp:406] inception_3b/5x5 <- inception_3b/5x5_reduce
I0509 17:40:01.159806 120201 net.cpp:380] inception_3b/5x5 -> inception_3b/5x5
I0509 17:40:01.159817 120201 base_conv_layer.cpp:121] Group is 1channel is32number of output is 96
I0509 17:40:01.160687 120201 net.cpp:122] Setting up inception_3b/5x5
I0509 17:40:01.160698 120201 net.cpp:129] Top shape: 10 96 28 28 (752640)
I0509 17:40:01.160702 120201 net.cpp:137] Memory required for data: 307077120
I0509 17:40:01.160712 120201 layer_factory.hpp:77] Creating layer inception_3b/relu_5x5
I0509 17:40:01.160720 120201 net.cpp:84] Creating Layer inception_3b/relu_5x5
I0509 17:40:01.160727 120201 net.cpp:406] inception_3b/relu_5x5 <- inception_3b/5x5
I0509 17:40:01.160733 120201 net.cpp:367] inception_3b/relu_5x5 -> inception_3b/5x5 (in-place)
I0509 17:40:01.160742 120201 net.cpp:122] Setting up inception_3b/relu_5x5
I0509 17:40:01.160748 120201 net.cpp:129] Top shape: 10 96 28 28 (752640)
I0509 17:40:01.160753 120201 net.cpp:137] Memory required for data: 310087680
I0509 17:40:01.160758 120201 layer_factory.hpp:77] Creating layer inception_3b/pool
I0509 17:40:01.160765 120201 net.cpp:84] Creating Layer inception_3b/pool
I0509 17:40:01.160771 120201 net.cpp:406] inception_3b/pool <- inception_3a/output_inception_3a/output_0_split_3
I0509 17:40:01.160780 120201 net.cpp:380] inception_3b/pool -> inception_3b/pool
I0509 17:40:01.160791 120201 net.cpp:122] Setting up inception_3b/pool
I0509 17:40:01.160799 120201 net.cpp:129] Top shape: 10 256 28 28 (2007040)
I0509 17:40:01.160804 120201 net.cpp:137] Memory required for data: 318115840
I0509 17:40:01.160809 120201 layer_factory.hpp:77] Creating layer inception_3b/pool_proj
I0509 17:40:01.160820 120201 net.cpp:84] Creating Layer inception_3b/pool_proj
I0509 17:40:01.160825 120201 net.cpp:406] inception_3b/pool_proj <- inception_3b/pool
I0509 17:40:01.160836 120201 net.cpp:380] inception_3b/pool_proj -> inception_3b/pool_proj
I0509 17:40:01.160848 120201 base_conv_layer.cpp:121] Group is 1channel is256number of output is 64
I0509 17:40:01.161051 120201 net.cpp:122] Setting up inception_3b/pool_proj
I0509 17:40:01.161058 120201 net.cpp:129] Top shape: 10 64 28 28 (501760)
I0509 17:40:01.161064 120201 net.cpp:137] Memory required for data: 320122880
I0509 17:40:01.161072 120201 layer_factory.hpp:77] Creating layer inception_3b/relu_pool_proj
I0509 17:40:01.161079 120201 net.cpp:84] Creating Layer inception_3b/relu_pool_proj
I0509 17:40:01.161084 120201 net.cpp:406] inception_3b/relu_pool_proj <- inception_3b/pool_proj
I0509 17:40:01.161094 120201 net.cpp:367] inception_3b/relu_pool_proj -> inception_3b/pool_proj (in-place)
I0509 17:40:01.161103 120201 net.cpp:122] Setting up inception_3b/relu_pool_proj
I0509 17:40:01.161108 120201 net.cpp:129] Top shape: 10 64 28 28 (501760)
I0509 17:40:01.161113 120201 net.cpp:137] Memory required for data: 322129920
I0509 17:40:01.161118 120201 layer_factory.hpp:77] Creating layer inception_3b/output
I0509 17:40:01.161126 120201 net.cpp:84] Creating Layer inception_3b/output
I0509 17:40:01.161130 120201 net.cpp:406] inception_3b/output <- inception_3b/1x1
I0509 17:40:01.161137 120201 net.cpp:406] inception_3b/output <- inception_3b/3x3
I0509 17:40:01.161144 120201 net.cpp:406] inception_3b/output <- inception_3b/5x5
I0509 17:40:01.161149 120201 net.cpp:406] inception_3b/output <- inception_3b/pool_proj
I0509 17:40:01.161164 120201 net.cpp:380] inception_3b/output -> inception_3b/output
I0509 17:40:01.161175 120201 net.cpp:122] Setting up inception_3b/output
I0509 17:40:01.161183 120201 net.cpp:129] Top shape: 10 480 28 28 (3763200)
I0509 17:40:01.161188 120201 net.cpp:137] Memory required for data: 337182720
I0509 17:40:01.161192 120201 layer_factory.hpp:77] Creating layer pool3/3x3_s2
I0509 17:40:01.161200 120201 net.cpp:84] Creating Layer pool3/3x3_s2
I0509 17:40:01.161206 120201 net.cpp:406] pool3/3x3_s2 <- inception_3b/output
I0509 17:40:01.161212 120201 net.cpp:380] pool3/3x3_s2 -> pool3/3x3_s2
I0509 17:40:01.161233 120201 net.cpp:122] Setting up pool3/3x3_s2
I0509 17:40:01.161242 120201 net.cpp:129] Top shape: 10 480 14 14 (940800)
I0509 17:40:01.161247 120201 net.cpp:137] Memory required for data: 340945920
I0509 17:40:01.161250 120201 layer_factory.hpp:77] Creating layer pool3/3x3_s2_pool3/3x3_s2_0_split
I0509 17:40:01.161258 120201 net.cpp:84] Creating Layer pool3/3x3_s2_pool3/3x3_s2_0_split
I0509 17:40:01.161263 120201 net.cpp:406] pool3/3x3_s2_pool3/3x3_s2_0_split <- pool3/3x3_s2
I0509 17:40:01.161275 120201 net.cpp:380] pool3/3x3_s2_pool3/3x3_s2_0_split -> pool3/3x3_s2_pool3/3x3_s2_0_split_0
I0509 17:40:01.161284 120201 net.cpp:380] pool3/3x3_s2_pool3/3x3_s2_0_split -> pool3/3x3_s2_pool3/3x3_s2_0_split_1
I0509 17:40:01.161293 120201 net.cpp:380] pool3/3x3_s2_pool3/3x3_s2_0_split -> pool3/3x3_s2_pool3/3x3_s2_0_split_2
I0509 17:40:01.161303 120201 net.cpp:380] pool3/3x3_s2_pool3/3x3_s2_0_split -> pool3/3x3_s2_pool3/3x3_s2_0_split_3
I0509 17:40:01.161312 120201 net.cpp:122] Setting up pool3/3x3_s2_pool3/3x3_s2_0_split
I0509 17:40:01.161321 120201 net.cpp:129] Top shape: 10 480 14 14 (940800)
I0509 17:40:01.161329 120201 net.cpp:129] Top shape: 10 480 14 14 (940800)
I0509 17:40:01.161334 120201 net.cpp:129] Top shape: 10 480 14 14 (940800)
I0509 17:40:01.161341 120201 net.cpp:129] Top shape: 10 480 14 14 (940800)
I0509 17:40:01.161346 120201 net.cpp:137] Memory required for data: 355998720
I0509 17:40:01.161350 120201 layer_factory.hpp:77] Creating layer inception_4a/1x1
I0509 17:40:01.161361 120201 net.cpp:84] Creating Layer inception_4a/1x1
I0509 17:40:01.161367 120201 net.cpp:406] inception_4a/1x1 <- pool3/3x3_s2_pool3/3x3_s2_0_split_0
I0509 17:40:01.161376 120201 net.cpp:380] inception_4a/1x1 -> inception_4a/1x1
I0509 17:40:01.161391 120201 base_conv_layer.cpp:121] Group is 1channel is480number of output is 192
I0509 17:40:01.162417 120201 net.cpp:122] Setting up inception_4a/1x1
I0509 17:40:01.162426 120201 net.cpp:129] Top shape: 10 192 14 14 (376320)
I0509 17:40:01.162431 120201 net.cpp:137] Memory required for data: 357504000
I0509 17:40:01.162439 120201 layer_factory.hpp:77] Creating layer inception_4a/relu_1x1
I0509 17:40:01.162446 120201 net.cpp:84] Creating Layer inception_4a/relu_1x1
I0509 17:40:01.162452 120201 net.cpp:406] inception_4a/relu_1x1 <- inception_4a/1x1
I0509 17:40:01.162461 120201 net.cpp:367] inception_4a/relu_1x1 -> inception_4a/1x1 (in-place)
I0509 17:40:01.162468 120201 net.cpp:122] Setting up inception_4a/relu_1x1
I0509 17:40:01.162474 120201 net.cpp:129] Top shape: 10 192 14 14 (376320)
I0509 17:40:01.162480 120201 net.cpp:137] Memory required for data: 359009280
I0509 17:40:01.162484 120201 layer_factory.hpp:77] Creating layer inception_4a/3x3_reduce
I0509 17:40:01.162495 120201 net.cpp:84] Creating Layer inception_4a/3x3_reduce
I0509 17:40:01.162502 120201 net.cpp:406] inception_4a/3x3_reduce <- pool3/3x3_s2_pool3/3x3_s2_0_split_1
I0509 17:40:01.162513 120201 net.cpp:380] inception_4a/3x3_reduce -> inception_4a/3x3_reduce
I0509 17:40:01.162525 120201 base_conv_layer.cpp:121] Group is 1channel is480number of output is 96
I0509 17:40:01.163055 120201 net.cpp:122] Setting up inception_4a/3x3_reduce
I0509 17:40:01.163064 120201 net.cpp:129] Top shape: 10 96 14 14 (188160)
I0509 17:40:01.163069 120201 net.cpp:137] Memory required for data: 359761920
I0509 17:40:01.163086 120201 layer_factory.hpp:77] Creating layer inception_4a/relu_3x3_reduce
I0509 17:40:01.163099 120201 net.cpp:84] Creating Layer inception_4a/relu_3x3_reduce
I0509 17:40:01.163105 120201 net.cpp:406] inception_4a/relu_3x3_reduce <- inception_4a/3x3_reduce
I0509 17:40:01.163112 120201 net.cpp:367] inception_4a/relu_3x3_reduce -> inception_4a/3x3_reduce (in-place)
I0509 17:40:01.163120 120201 net.cpp:122] Setting up inception_4a/relu_3x3_reduce
I0509 17:40:01.163127 120201 net.cpp:129] Top shape: 10 96 14 14 (188160)
I0509 17:40:01.163132 120201 net.cpp:137] Memory required for data: 360514560
I0509 17:40:01.163137 120201 layer_factory.hpp:77] Creating layer inception_4a/3x3
I0509 17:40:01.163149 120201 net.cpp:84] Creating Layer inception_4a/3x3
I0509 17:40:01.163154 120201 net.cpp:406] inception_4a/3x3 <- inception_4a/3x3_reduce
I0509 17:40:01.163166 120201 net.cpp:380] inception_4a/3x3 -> inception_4a/3x3
I0509 17:40:01.163178 120201 base_conv_layer.cpp:121] Group is 1channel is96number of output is 208
I0509 17:40:01.165149 120201 net.cpp:122] Setting up inception_4a/3x3
I0509 17:40:01.165159 120201 net.cpp:129] Top shape: 10 208 14 14 (407680)
I0509 17:40:01.165164 120201 net.cpp:137] Memory required for data: 362145280
I0509 17:40:01.165172 120201 layer_factory.hpp:77] Creating layer inception_4a/relu_3x3
I0509 17:40:01.165180 120201 net.cpp:84] Creating Layer inception_4a/relu_3x3
I0509 17:40:01.165185 120201 net.cpp:406] inception_4a/relu_3x3 <- inception_4a/3x3
I0509 17:40:01.165194 120201 net.cpp:367] inception_4a/relu_3x3 -> inception_4a/3x3 (in-place)
I0509 17:40:01.165202 120201 net.cpp:122] Setting up inception_4a/relu_3x3
I0509 17:40:01.165208 120201 net.cpp:129] Top shape: 10 208 14 14 (407680)
I0509 17:40:01.165213 120201 net.cpp:137] Memory required for data: 363776000
I0509 17:40:01.165217 120201 layer_factory.hpp:77] Creating layer inception_4a/5x5_reduce
I0509 17:40:01.165230 120201 net.cpp:84] Creating Layer inception_4a/5x5_reduce
I0509 17:40:01.165235 120201 net.cpp:406] inception_4a/5x5_reduce <- pool3/3x3_s2_pool3/3x3_s2_0_split_2
I0509 17:40:01.165243 120201 net.cpp:380] inception_4a/5x5_reduce -> inception_4a/5x5_reduce
I0509 17:40:01.165257 120201 base_conv_layer.cpp:121] Group is 1channel is480number of output is 16
I0509 17:40:01.165352 120201 net.cpp:122] Setting up inception_4a/5x5_reduce
I0509 17:40:01.165359 120201 net.cpp:129] Top shape: 10 16 14 14 (31360)
I0509 17:40:01.165364 120201 net.cpp:137] Memory required for data: 363901440
I0509 17:40:01.165371 120201 layer_factory.hpp:77] Creating layer inception_4a/relu_5x5_reduce
I0509 17:40:01.165380 120201 net.cpp:84] Creating Layer inception_4a/relu_5x5_reduce
I0509 17:40:01.165385 120201 net.cpp:406] inception_4a/relu_5x5_reduce <- inception_4a/5x5_reduce
I0509 17:40:01.165392 120201 net.cpp:367] inception_4a/relu_5x5_reduce -> inception_4a/5x5_reduce (in-place)
I0509 17:40:01.165400 120201 net.cpp:122] Setting up inception_4a/relu_5x5_reduce
I0509 17:40:01.165406 120201 net.cpp:129] Top shape: 10 16 14 14 (31360)
I0509 17:40:01.165410 120201 net.cpp:137] Memory required for data: 364026880
I0509 17:40:01.165415 120201 layer_factory.hpp:77] Creating layer inception_4a/5x5
I0509 17:40:01.165426 120201 net.cpp:84] Creating Layer inception_4a/5x5
I0509 17:40:01.165431 120201 net.cpp:406] inception_4a/5x5 <- inception_4a/5x5_reduce
I0509 17:40:01.165441 120201 net.cpp:380] inception_4a/5x5 -> inception_4a/5x5
I0509 17:40:01.165452 120201 base_conv_layer.cpp:121] Group is 1channel is16number of output is 48
I0509 17:40:01.165671 120201 net.cpp:122] Setting up inception_4a/5x5
I0509 17:40:01.165680 120201 net.cpp:129] Top shape: 10 48 14 14 (94080)
I0509 17:40:01.165684 120201 net.cpp:137] Memory required for data: 364403200
I0509 17:40:01.165693 120201 layer_factory.hpp:77] Creating layer inception_4a/relu_5x5
I0509 17:40:01.165700 120201 net.cpp:84] Creating Layer inception_4a/relu_5x5
I0509 17:40:01.165706 120201 net.cpp:406] inception_4a/relu_5x5 <- inception_4a/5x5
I0509 17:40:01.165714 120201 net.cpp:367] inception_4a/relu_5x5 -> inception_4a/5x5 (in-place)
I0509 17:40:01.165720 120201 net.cpp:122] Setting up inception_4a/relu_5x5
I0509 17:40:01.165731 120201 net.cpp:129] Top shape: 10 48 14 14 (94080)
I0509 17:40:01.165736 120201 net.cpp:137] Memory required for data: 364779520
I0509 17:40:01.165740 120201 layer_factory.hpp:77] Creating layer inception_4a/pool
I0509 17:40:01.165747 120201 net.cpp:84] Creating Layer inception_4a/pool
I0509 17:40:01.165752 120201 net.cpp:406] inception_4a/pool <- pool3/3x3_s2_pool3/3x3_s2_0_split_3
I0509 17:40:01.165762 120201 net.cpp:380] inception_4a/pool -> inception_4a/pool
I0509 17:40:01.165773 120201 net.cpp:122] Setting up inception_4a/pool
I0509 17:40:01.165779 120201 net.cpp:129] Top shape: 10 480 14 14 (940800)
I0509 17:40:01.165784 120201 net.cpp:137] Memory required for data: 368542720
I0509 17:40:01.165788 120201 layer_factory.hpp:77] Creating layer inception_4a/pool_proj
I0509 17:40:01.165799 120201 net.cpp:84] Creating Layer inception_4a/pool_proj
I0509 17:40:01.165804 120201 net.cpp:406] inception_4a/pool_proj <- inception_4a/pool
I0509 17:40:01.165814 120201 net.cpp:380] inception_4a/pool_proj -> inception_4a/pool_proj
I0509 17:40:01.165827 120201 base_conv_layer.cpp:121] Group is 1channel is480number of output is 64
I0509 17:40:01.166163 120201 net.cpp:122] Setting up inception_4a/pool_proj
I0509 17:40:01.166172 120201 net.cpp:129] Top shape: 10 64 14 14 (125440)
I0509 17:40:01.166177 120201 net.cpp:137] Memory required for data: 369044480
I0509 17:40:01.166184 120201 layer_factory.hpp:77] Creating layer inception_4a/relu_pool_proj
I0509 17:40:01.166190 120201 net.cpp:84] Creating Layer inception_4a/relu_pool_proj
I0509 17:40:01.166196 120201 net.cpp:406] inception_4a/relu_pool_proj <- inception_4a/pool_proj
I0509 17:40:01.166204 120201 net.cpp:367] inception_4a/relu_pool_proj -> inception_4a/pool_proj (in-place)
I0509 17:40:01.166213 120201 net.cpp:122] Setting up inception_4a/relu_pool_proj
I0509 17:40:01.166219 120201 net.cpp:129] Top shape: 10 64 14 14 (125440)
I0509 17:40:01.166224 120201 net.cpp:137] Memory required for data: 369546240
I0509 17:40:01.166227 120201 layer_factory.hpp:77] Creating layer inception_4a/output
I0509 17:40:01.166235 120201 net.cpp:84] Creating Layer inception_4a/output
I0509 17:40:01.166239 120201 net.cpp:406] inception_4a/output <- inception_4a/1x1
I0509 17:40:01.166245 120201 net.cpp:406] inception_4a/output <- inception_4a/3x3
I0509 17:40:01.166251 120201 net.cpp:406] inception_4a/output <- inception_4a/5x5
I0509 17:40:01.166257 120201 net.cpp:406] inception_4a/output <- inception_4a/pool_proj
I0509 17:40:01.166266 120201 net.cpp:380] inception_4a/output -> inception_4a/output
I0509 17:40:01.166275 120201 net.cpp:122] Setting up inception_4a/output
I0509 17:40:01.166282 120201 net.cpp:129] Top shape: 10 512 14 14 (1003520)
I0509 17:40:01.166287 120201 net.cpp:137] Memory required for data: 373560320
I0509 17:40:01.166291 120201 layer_factory.hpp:77] Creating layer inception_4a/output_inception_4a/output_0_split
I0509 17:40:01.166298 120201 net.cpp:84] Creating Layer inception_4a/output_inception_4a/output_0_split
I0509 17:40:01.166303 120201 net.cpp:406] inception_4a/output_inception_4a/output_0_split <- inception_4a/output
I0509 17:40:01.166314 120201 net.cpp:380] inception_4a/output_inception_4a/output_0_split -> inception_4a/output_inception_4a/output_0_split_0
I0509 17:40:01.166323 120201 net.cpp:380] inception_4a/output_inception_4a/output_0_split -> inception_4a/output_inception_4a/output_0_split_1
I0509 17:40:01.166332 120201 net.cpp:380] inception_4a/output_inception_4a/output_0_split -> inception_4a/output_inception_4a/output_0_split_2
I0509 17:40:01.166340 120201 net.cpp:380] inception_4a/output_inception_4a/output_0_split -> inception_4a/output_inception_4a/output_0_split_3
I0509 17:40:01.166353 120201 net.cpp:122] Setting up inception_4a/output_inception_4a/output_0_split
I0509 17:40:01.166359 120201 net.cpp:129] Top shape: 10 512 14 14 (1003520)
I0509 17:40:01.166366 120201 net.cpp:129] Top shape: 10 512 14 14 (1003520)
I0509 17:40:01.166373 120201 net.cpp:129] Top shape: 10 512 14 14 (1003520)
I0509 17:40:01.166379 120201 net.cpp:129] Top shape: 10 512 14 14 (1003520)
I0509 17:40:01.166388 120201 net.cpp:137] Memory required for data: 389616640
I0509 17:40:01.166393 120201 layer_factory.hpp:77] Creating layer inception_4b/1x1
I0509 17:40:01.166402 120201 net.cpp:84] Creating Layer inception_4b/1x1
I0509 17:40:01.166409 120201 net.cpp:406] inception_4b/1x1 <- inception_4a/output_inception_4a/output_0_split_0
I0509 17:40:01.166419 120201 net.cpp:380] inception_4b/1x1 -> inception_4b/1x1
I0509 17:40:01.166431 120201 base_conv_layer.cpp:121] Group is 1channel is512number of output is 160
I0509 17:40:01.167296 120201 net.cpp:122] Setting up inception_4b/1x1
I0509 17:40:01.167305 120201 net.cpp:129] Top shape: 10 160 14 14 (313600)
I0509 17:40:01.167310 120201 net.cpp:137] Memory required for data: 390871040
I0509 17:40:01.167317 120201 layer_factory.hpp:77] Creating layer inception_4b/relu_1x1
I0509 17:40:01.167325 120201 net.cpp:84] Creating Layer inception_4b/relu_1x1
I0509 17:40:01.167330 120201 net.cpp:406] inception_4b/relu_1x1 <- inception_4b/1x1
I0509 17:40:01.167340 120201 net.cpp:367] inception_4b/relu_1x1 -> inception_4b/1x1 (in-place)
I0509 17:40:01.167347 120201 net.cpp:122] Setting up inception_4b/relu_1x1
I0509 17:40:01.167353 120201 net.cpp:129] Top shape: 10 160 14 14 (313600)
I0509 17:40:01.167358 120201 net.cpp:137] Memory required for data: 392125440
I0509 17:40:01.167362 120201 layer_factory.hpp:77] Creating layer inception_4b/3x3_reduce
I0509 17:40:01.167373 120201 net.cpp:84] Creating Layer inception_4b/3x3_reduce
I0509 17:40:01.167378 120201 net.cpp:406] inception_4b/3x3_reduce <- inception_4a/output_inception_4a/output_0_split_1
I0509 17:40:01.167387 120201 net.cpp:380] inception_4b/3x3_reduce -> inception_4b/3x3_reduce
I0509 17:40:01.167398 120201 base_conv_layer.cpp:121] Group is 1channel is512number of output is 112
I0509 17:40:01.168012 120201 net.cpp:122] Setting up inception_4b/3x3_reduce
I0509 17:40:01.168020 120201 net.cpp:129] Top shape: 10 112 14 14 (219520)
I0509 17:40:01.168025 120201 net.cpp:137] Memory required for data: 393003520
I0509 17:40:01.168033 120201 layer_factory.hpp:77] Creating layer inception_4b/relu_3x3_reduce
I0509 17:40:01.168051 120201 net.cpp:84] Creating Layer inception_4b/relu_3x3_reduce
I0509 17:40:01.168056 120201 net.cpp:406] inception_4b/relu_3x3_reduce <- inception_4b/3x3_reduce
I0509 17:40:01.168064 120201 net.cpp:367] inception_4b/relu_3x3_reduce -> inception_4b/3x3_reduce (in-place)
I0509 17:40:01.168071 120201 net.cpp:122] Setting up inception_4b/relu_3x3_reduce
I0509 17:40:01.168078 120201 net.cpp:129] Top shape: 10 112 14 14 (219520)
I0509 17:40:01.168082 120201 net.cpp:137] Memory required for data: 393881600
I0509 17:40:01.168087 120201 layer_factory.hpp:77] Creating layer inception_4b/3x3
I0509 17:40:01.168098 120201 net.cpp:84] Creating Layer inception_4b/3x3
I0509 17:40:01.168103 120201 net.cpp:406] inception_4b/3x3 <- inception_4b/3x3_reduce
I0509 17:40:01.168112 120201 net.cpp:380] inception_4b/3x3 -> inception_4b/3x3
I0509 17:40:01.168125 120201 base_conv_layer.cpp:121] Group is 1channel is112number of output is 224
I0509 17:40:01.170467 120201 net.cpp:122] Setting up inception_4b/3x3
I0509 17:40:01.170475 120201 net.cpp:129] Top shape: 10 224 14 14 (439040)
I0509 17:40:01.170480 120201 net.cpp:137] Memory required for data: 395637760
I0509 17:40:01.170488 120201 layer_factory.hpp:77] Creating layer inception_4b/relu_3x3
I0509 17:40:01.170495 120201 net.cpp:84] Creating Layer inception_4b/relu_3x3
I0509 17:40:01.170500 120201 net.cpp:406] inception_4b/relu_3x3 <- inception_4b/3x3
I0509 17:40:01.170508 120201 net.cpp:367] inception_4b/relu_3x3 -> inception_4b/3x3 (in-place)
I0509 17:40:01.170516 120201 net.cpp:122] Setting up inception_4b/relu_3x3
I0509 17:40:01.170522 120201 net.cpp:129] Top shape: 10 224 14 14 (439040)
I0509 17:40:01.170527 120201 net.cpp:137] Memory required for data: 397393920
I0509 17:40:01.170531 120201 layer_factory.hpp:77] Creating layer inception_4b/5x5_reduce
I0509 17:40:01.170558 120201 net.cpp:84] Creating Layer inception_4b/5x5_reduce
I0509 17:40:01.170568 120201 net.cpp:406] inception_4b/5x5_reduce <- inception_4a/output_inception_4a/output_0_split_2
I0509 17:40:01.170577 120201 net.cpp:380] inception_4b/5x5_reduce -> inception_4b/5x5_reduce
I0509 17:40:01.170589 120201 base_conv_layer.cpp:121] Group is 1channel is512number of output is 24
I0509 17:40:01.170729 120201 net.cpp:122] Setting up inception_4b/5x5_reduce
I0509 17:40:01.170737 120201 net.cpp:129] Top shape: 10 24 14 14 (47040)
I0509 17:40:01.170742 120201 net.cpp:137] Memory required for data: 397582080
I0509 17:40:01.170749 120201 layer_factory.hpp:77] Creating layer inception_4b/relu_5x5_reduce
I0509 17:40:01.170756 120201 net.cpp:84] Creating Layer inception_4b/relu_5x5_reduce
I0509 17:40:01.170761 120201 net.cpp:406] inception_4b/relu_5x5_reduce <- inception_4b/5x5_reduce
I0509 17:40:01.170770 120201 net.cpp:367] inception_4b/relu_5x5_reduce -> inception_4b/5x5_reduce (in-place)
I0509 17:40:01.170778 120201 net.cpp:122] Setting up inception_4b/relu_5x5_reduce
I0509 17:40:01.170784 120201 net.cpp:129] Top shape: 10 24 14 14 (47040)
I0509 17:40:01.170789 120201 net.cpp:137] Memory required for data: 397770240
I0509 17:40:01.170794 120201 layer_factory.hpp:77] Creating layer inception_4b/5x5
I0509 17:40:01.170804 120201 net.cpp:84] Creating Layer inception_4b/5x5
I0509 17:40:01.170809 120201 net.cpp:406] inception_4b/5x5 <- inception_4b/5x5_reduce
I0509 17:40:01.170817 120201 net.cpp:380] inception_4b/5x5 -> inception_4b/5x5
I0509 17:40:01.170835 120201 base_conv_layer.cpp:121] Group is 1channel is24number of output is 64
I0509 17:40:01.171245 120201 net.cpp:122] Setting up inception_4b/5x5
I0509 17:40:01.171253 120201 net.cpp:129] Top shape: 10 64 14 14 (125440)
I0509 17:40:01.171258 120201 net.cpp:137] Memory required for data: 398272000
I0509 17:40:01.171265 120201 layer_factory.hpp:77] Creating layer inception_4b/relu_5x5
I0509 17:40:01.171273 120201 net.cpp:84] Creating Layer inception_4b/relu_5x5
I0509 17:40:01.171279 120201 net.cpp:406] inception_4b/relu_5x5 <- inception_4b/5x5
I0509 17:40:01.171286 120201 net.cpp:367] inception_4b/relu_5x5 -> inception_4b/5x5 (in-place)
I0509 17:40:01.171293 120201 net.cpp:122] Setting up inception_4b/relu_5x5
I0509 17:40:01.171300 120201 net.cpp:129] Top shape: 10 64 14 14 (125440)
I0509 17:40:01.171305 120201 net.cpp:137] Memory required for data: 398773760
I0509 17:40:01.171309 120201 layer_factory.hpp:77] Creating layer inception_4b/pool
I0509 17:40:01.171316 120201 net.cpp:84] Creating Layer inception_4b/pool
I0509 17:40:01.171320 120201 net.cpp:406] inception_4b/pool <- inception_4a/output_inception_4a/output_0_split_3
I0509 17:40:01.171330 120201 net.cpp:380] inception_4b/pool -> inception_4b/pool
I0509 17:40:01.171340 120201 net.cpp:122] Setting up inception_4b/pool
I0509 17:40:01.171347 120201 net.cpp:129] Top shape: 10 512 14 14 (1003520)
I0509 17:40:01.171351 120201 net.cpp:137] Memory required for data: 402787840
I0509 17:40:01.171356 120201 layer_factory.hpp:77] Creating layer inception_4b/pool_proj
I0509 17:40:01.171366 120201 net.cpp:84] Creating Layer inception_4b/pool_proj
I0509 17:40:01.171372 120201 net.cpp:406] inception_4b/pool_proj <- inception_4b/pool
I0509 17:40:01.171381 120201 net.cpp:380] inception_4b/pool_proj -> inception_4b/pool_proj
I0509 17:40:01.171393 120201 base_conv_layer.cpp:121] Group is 1channel is512number of output is 64
I0509 17:40:01.171753 120201 net.cpp:122] Setting up inception_4b/pool_proj
I0509 17:40:01.171761 120201 net.cpp:129] Top shape: 10 64 14 14 (125440)
I0509 17:40:01.171766 120201 net.cpp:137] Memory required for data: 403289600
I0509 17:40:01.171774 120201 layer_factory.hpp:77] Creating layer inception_4b/relu_pool_proj
I0509 17:40:01.171780 120201 net.cpp:84] Creating Layer inception_4b/relu_pool_proj
I0509 17:40:01.171785 120201 net.cpp:406] inception_4b/relu_pool_proj <- inception_4b/pool_proj
I0509 17:40:01.171794 120201 net.cpp:367] inception_4b/relu_pool_proj -> inception_4b/pool_proj (in-place)
I0509 17:40:01.171802 120201 net.cpp:122] Setting up inception_4b/relu_pool_proj
I0509 17:40:01.171813 120201 net.cpp:129] Top shape: 10 64 14 14 (125440)
I0509 17:40:01.171818 120201 net.cpp:137] Memory required for data: 403791360
I0509 17:40:01.171821 120201 layer_factory.hpp:77] Creating layer inception_4b/output
I0509 17:40:01.171829 120201 net.cpp:84] Creating Layer inception_4b/output
I0509 17:40:01.171834 120201 net.cpp:406] inception_4b/output <- inception_4b/1x1
I0509 17:40:01.171840 120201 net.cpp:406] inception_4b/output <- inception_4b/3x3
I0509 17:40:01.171845 120201 net.cpp:406] inception_4b/output <- inception_4b/5x5
I0509 17:40:01.171851 120201 net.cpp:406] inception_4b/output <- inception_4b/pool_proj
I0509 17:40:01.171860 120201 net.cpp:380] inception_4b/output -> inception_4b/output
I0509 17:40:01.171870 120201 net.cpp:122] Setting up inception_4b/output
I0509 17:40:01.171876 120201 net.cpp:129] Top shape: 10 512 14 14 (1003520)
I0509 17:40:01.171881 120201 net.cpp:137] Memory required for data: 407805440
I0509 17:40:01.171885 120201 layer_factory.hpp:77] Creating layer inception_4b/output_inception_4b/output_0_split
I0509 17:40:01.171892 120201 net.cpp:84] Creating Layer inception_4b/output_inception_4b/output_0_split
I0509 17:40:01.171897 120201 net.cpp:406] inception_4b/output_inception_4b/output_0_split <- inception_4b/output
I0509 17:40:01.171907 120201 net.cpp:380] inception_4b/output_inception_4b/output_0_split -> inception_4b/output_inception_4b/output_0_split_0
I0509 17:40:01.171916 120201 net.cpp:380] inception_4b/output_inception_4b/output_0_split -> inception_4b/output_inception_4b/output_0_split_1
I0509 17:40:01.171926 120201 net.cpp:380] inception_4b/output_inception_4b/output_0_split -> inception_4b/output_inception_4b/output_0_split_2
I0509 17:40:01.171933 120201 net.cpp:380] inception_4b/output_inception_4b/output_0_split -> inception_4b/output_inception_4b/output_0_split_3
I0509 17:40:01.171947 120201 net.cpp:122] Setting up inception_4b/output_inception_4b/output_0_split
I0509 17:40:01.171952 120201 net.cpp:129] Top shape: 10 512 14 14 (1003520)
I0509 17:40:01.171959 120201 net.cpp:129] Top shape: 10 512 14 14 (1003520)
I0509 17:40:01.171965 120201 net.cpp:129] Top shape: 10 512 14 14 (1003520)
I0509 17:40:01.171972 120201 net.cpp:129] Top shape: 10 512 14 14 (1003520)
I0509 17:40:01.171977 120201 net.cpp:137] Memory required for data: 423861760
I0509 17:40:01.171980 120201 layer_factory.hpp:77] Creating layer inception_4c/1x1
I0509 17:40:01.171991 120201 net.cpp:84] Creating Layer inception_4c/1x1
I0509 17:40:01.171996 120201 net.cpp:406] inception_4c/1x1 <- inception_4b/output_inception_4b/output_0_split_0
I0509 17:40:01.172006 120201 net.cpp:380] inception_4c/1x1 -> inception_4c/1x1
I0509 17:40:01.172018 120201 base_conv_layer.cpp:121] Group is 1channel is512number of output is 128
I0509 17:40:01.172701 120201 net.cpp:122] Setting up inception_4c/1x1
I0509 17:40:01.172713 120201 net.cpp:129] Top shape: 10 128 14 14 (250880)
I0509 17:40:01.172716 120201 net.cpp:137] Memory required for data: 424865280
I0509 17:40:01.172724 120201 layer_factory.hpp:77] Creating layer inception_4c/relu_1x1
I0509 17:40:01.172730 120201 net.cpp:84] Creating Layer inception_4c/relu_1x1
I0509 17:40:01.172736 120201 net.cpp:406] inception_4c/relu_1x1 <- inception_4c/1x1
I0509 17:40:01.172742 120201 net.cpp:367] inception_4c/relu_1x1 -> inception_4c/1x1 (in-place)
I0509 17:40:01.172751 120201 net.cpp:122] Setting up inception_4c/relu_1x1
I0509 17:40:01.172758 120201 net.cpp:129] Top shape: 10 128 14 14 (250880)
I0509 17:40:01.172762 120201 net.cpp:137] Memory required for data: 425868800
I0509 17:40:01.172766 120201 layer_factory.hpp:77] Creating layer inception_4c/3x3_reduce
I0509 17:40:01.172775 120201 net.cpp:84] Creating Layer inception_4c/3x3_reduce
I0509 17:40:01.172781 120201 net.cpp:406] inception_4c/3x3_reduce <- inception_4b/output_inception_4b/output_0_split_1
I0509 17:40:01.172791 120201 net.cpp:380] inception_4c/3x3_reduce -> inception_4c/3x3_reduce
I0509 17:40:01.172801 120201 base_conv_layer.cpp:121] Group is 1channel is512number of output is 128
I0509 17:40:01.173457 120201 net.cpp:122] Setting up inception_4c/3x3_reduce
I0509 17:40:01.173470 120201 net.cpp:129] Top shape: 10 128 14 14 (250880)
I0509 17:40:01.173475 120201 net.cpp:137] Memory required for data: 426872320
I0509 17:40:01.173481 120201 layer_factory.hpp:77] Creating layer inception_4c/relu_3x3_reduce
I0509 17:40:01.173490 120201 net.cpp:84] Creating Layer inception_4c/relu_3x3_reduce
I0509 17:40:01.173494 120201 net.cpp:406] inception_4c/relu_3x3_reduce <- inception_4c/3x3_reduce
I0509 17:40:01.173501 120201 net.cpp:367] inception_4c/relu_3x3_reduce -> inception_4c/3x3_reduce (in-place)
I0509 17:40:01.173508 120201 net.cpp:122] Setting up inception_4c/relu_3x3_reduce
I0509 17:40:01.173514 120201 net.cpp:129] Top shape: 10 128 14 14 (250880)
I0509 17:40:01.173518 120201 net.cpp:137] Memory required for data: 427875840
I0509 17:40:01.173522 120201 layer_factory.hpp:77] Creating layer inception_4c/3x3
I0509 17:40:01.173533 120201 net.cpp:84] Creating Layer inception_4c/3x3
I0509 17:40:01.173538 120201 net.cpp:406] inception_4c/3x3 <- inception_4c/3x3_reduce
I0509 17:40:01.173547 120201 net.cpp:380] inception_4c/3x3 -> inception_4c/3x3
I0509 17:40:01.173558 120201 base_conv_layer.cpp:121] Group is 1channel is128number of output is 256
I0509 17:40:01.176442 120201 net.cpp:122] Setting up inception_4c/3x3
I0509 17:40:01.176451 120201 net.cpp:129] Top shape: 10 256 14 14 (501760)
I0509 17:40:01.176456 120201 net.cpp:137] Memory required for data: 429882880
I0509 17:40:01.176463 120201 layer_factory.hpp:77] Creating layer inception_4c/relu_3x3
I0509 17:40:01.176470 120201 net.cpp:84] Creating Layer inception_4c/relu_3x3
I0509 17:40:01.176475 120201 net.cpp:406] inception_4c/relu_3x3 <- inception_4c/3x3
I0509 17:40:01.176482 120201 net.cpp:367] inception_4c/relu_3x3 -> inception_4c/3x3 (in-place)
I0509 17:40:01.176491 120201 net.cpp:122] Setting up inception_4c/relu_3x3
I0509 17:40:01.176496 120201 net.cpp:129] Top shape: 10 256 14 14 (501760)
I0509 17:40:01.176501 120201 net.cpp:137] Memory required for data: 431889920
I0509 17:40:01.176504 120201 layer_factory.hpp:77] Creating layer inception_4c/5x5_reduce
I0509 17:40:01.176515 120201 net.cpp:84] Creating Layer inception_4c/5x5_reduce
I0509 17:40:01.176520 120201 net.cpp:406] inception_4c/5x5_reduce <- inception_4b/output_inception_4b/output_0_split_2
I0509 17:40:01.176528 120201 net.cpp:380] inception_4c/5x5_reduce -> inception_4c/5x5_reduce
I0509 17:40:01.176554 120201 base_conv_layer.cpp:121] Group is 1channel is512number of output is 24
I0509 17:40:01.176684 120201 net.cpp:122] Setting up inception_4c/5x5_reduce
I0509 17:40:01.176692 120201 net.cpp:129] Top shape: 10 24 14 14 (47040)
I0509 17:40:01.176697 120201 net.cpp:137] Memory required for data: 432078080
I0509 17:40:01.176703 120201 layer_factory.hpp:77] Creating layer inception_4c/relu_5x5_reduce
I0509 17:40:01.176712 120201 net.cpp:84] Creating Layer inception_4c/relu_5x5_reduce
I0509 17:40:01.176717 120201 net.cpp:406] inception_4c/relu_5x5_reduce <- inception_4c/5x5_reduce
I0509 17:40:01.176724 120201 net.cpp:367] inception_4c/relu_5x5_reduce -> inception_4c/5x5_reduce (in-place)
I0509 17:40:01.176730 120201 net.cpp:122] Setting up inception_4c/relu_5x5_reduce
I0509 17:40:01.176738 120201 net.cpp:129] Top shape: 10 24 14 14 (47040)
I0509 17:40:01.176741 120201 net.cpp:137] Memory required for data: 432266240
I0509 17:40:01.176745 120201 layer_factory.hpp:77] Creating layer inception_4c/5x5
I0509 17:40:01.176755 120201 net.cpp:84] Creating Layer inception_4c/5x5
I0509 17:40:01.176760 120201 net.cpp:406] inception_4c/5x5 <- inception_4c/5x5_reduce
I0509 17:40:01.176769 120201 net.cpp:380] inception_4c/5x5 -> inception_4c/5x5
I0509 17:40:01.176780 120201 base_conv_layer.cpp:121] Group is 1channel is24number of output is 64
I0509 17:40:01.177171 120201 net.cpp:122] Setting up inception_4c/5x5
I0509 17:40:01.177179 120201 net.cpp:129] Top shape: 10 64 14 14 (125440)
I0509 17:40:01.177183 120201 net.cpp:137] Memory required for data: 432768000
I0509 17:40:01.177191 120201 layer_factory.hpp:77] Creating layer inception_4c/relu_5x5
I0509 17:40:01.177202 120201 net.cpp:84] Creating Layer inception_4c/relu_5x5
I0509 17:40:01.177208 120201 net.cpp:406] inception_4c/relu_5x5 <- inception_4c/5x5
I0509 17:40:01.177215 120201 net.cpp:367] inception_4c/relu_5x5 -> inception_4c/5x5 (in-place)
I0509 17:40:01.177222 120201 net.cpp:122] Setting up inception_4c/relu_5x5
I0509 17:40:01.177227 120201 net.cpp:129] Top shape: 10 64 14 14 (125440)
I0509 17:40:01.177232 120201 net.cpp:137] Memory required for data: 433269760
I0509 17:40:01.177237 120201 layer_factory.hpp:77] Creating layer inception_4c/pool
I0509 17:40:01.177244 120201 net.cpp:84] Creating Layer inception_4c/pool
I0509 17:40:01.177249 120201 net.cpp:406] inception_4c/pool <- inception_4b/output_inception_4b/output_0_split_3
I0509 17:40:01.177256 120201 net.cpp:380] inception_4c/pool -> inception_4c/pool
I0509 17:40:01.177266 120201 net.cpp:122] Setting up inception_4c/pool
I0509 17:40:01.177273 120201 net.cpp:129] Top shape: 10 512 14 14 (1003520)
I0509 17:40:01.177276 120201 net.cpp:137] Memory required for data: 437283840
I0509 17:40:01.177281 120201 layer_factory.hpp:77] Creating layer inception_4c/pool_proj
I0509 17:40:01.177291 120201 net.cpp:84] Creating Layer inception_4c/pool_proj
I0509 17:40:01.177296 120201 net.cpp:406] inception_4c/pool_proj <- inception_4c/pool
I0509 17:40:01.177309 120201 net.cpp:380] inception_4c/pool_proj -> inception_4c/pool_proj
I0509 17:40:01.177320 120201 base_conv_layer.cpp:121] Group is 1channel is512number of output is 64
I0509 17:40:01.177659 120201 net.cpp:122] Setting up inception_4c/pool_proj
I0509 17:40:01.177666 120201 net.cpp:129] Top shape: 10 64 14 14 (125440)
I0509 17:40:01.177670 120201 net.cpp:137] Memory required for data: 437785600
I0509 17:40:01.177688 120201 layer_factory.hpp:77] Creating layer inception_4c/relu_pool_proj
I0509 17:40:01.177695 120201 net.cpp:84] Creating Layer inception_4c/relu_pool_proj
I0509 17:40:01.177700 120201 net.cpp:406] inception_4c/relu_pool_proj <- inception_4c/pool_proj
I0509 17:40:01.177707 120201 net.cpp:367] inception_4c/relu_pool_proj -> inception_4c/pool_proj (in-place)
I0509 17:40:01.177716 120201 net.cpp:122] Setting up inception_4c/relu_pool_proj
I0509 17:40:01.177721 120201 net.cpp:129] Top shape: 10 64 14 14 (125440)
I0509 17:40:01.177726 120201 net.cpp:137] Memory required for data: 438287360
I0509 17:40:01.177731 120201 layer_factory.hpp:77] Creating layer inception_4c/output
I0509 17:40:01.177737 120201 net.cpp:84] Creating Layer inception_4c/output
I0509 17:40:01.177742 120201 net.cpp:406] inception_4c/output <- inception_4c/1x1
I0509 17:40:01.177747 120201 net.cpp:406] inception_4c/output <- inception_4c/3x3
I0509 17:40:01.177752 120201 net.cpp:406] inception_4c/output <- inception_4c/5x5
I0509 17:40:01.177758 120201 net.cpp:406] inception_4c/output <- inception_4c/pool_proj
I0509 17:40:01.177764 120201 net.cpp:380] inception_4c/output -> inception_4c/output
I0509 17:40:01.177774 120201 net.cpp:122] Setting up inception_4c/output
I0509 17:40:01.177780 120201 net.cpp:129] Top shape: 10 512 14 14 (1003520)
I0509 17:40:01.177784 120201 net.cpp:137] Memory required for data: 442301440
I0509 17:40:01.177788 120201 layer_factory.hpp:77] Creating layer inception_4c/output_inception_4c/output_0_split
I0509 17:40:01.177798 120201 net.cpp:84] Creating Layer inception_4c/output_inception_4c/output_0_split
I0509 17:40:01.177801 120201 net.cpp:406] inception_4c/output_inception_4c/output_0_split <- inception_4c/output
I0509 17:40:01.177809 120201 net.cpp:380] inception_4c/output_inception_4c/output_0_split -> inception_4c/output_inception_4c/output_0_split_0
I0509 17:40:01.177819 120201 net.cpp:380] inception_4c/output_inception_4c/output_0_split -> inception_4c/output_inception_4c/output_0_split_1
I0509 17:40:01.177827 120201 net.cpp:380] inception_4c/output_inception_4c/output_0_split -> inception_4c/output_inception_4c/output_0_split_2
I0509 17:40:01.177835 120201 net.cpp:380] inception_4c/output_inception_4c/output_0_split -> inception_4c/output_inception_4c/output_0_split_3
I0509 17:40:01.177845 120201 net.cpp:122] Setting up inception_4c/output_inception_4c/output_0_split
I0509 17:40:01.177855 120201 net.cpp:129] Top shape: 10 512 14 14 (1003520)
I0509 17:40:01.177861 120201 net.cpp:129] Top shape: 10 512 14 14 (1003520)
I0509 17:40:01.177867 120201 net.cpp:129] Top shape: 10 512 14 14 (1003520)
I0509 17:40:01.177873 120201 net.cpp:129] Top shape: 10 512 14 14 (1003520)
I0509 17:40:01.177878 120201 net.cpp:137] Memory required for data: 458357760
I0509 17:40:01.177881 120201 layer_factory.hpp:77] Creating layer inception_4d/1x1
I0509 17:40:01.177893 120201 net.cpp:84] Creating Layer inception_4d/1x1
I0509 17:40:01.177898 120201 net.cpp:406] inception_4d/1x1 <- inception_4c/output_inception_4c/output_0_split_0
I0509 17:40:01.177906 120201 net.cpp:380] inception_4d/1x1 -> inception_4d/1x1
I0509 17:40:01.177917 120201 base_conv_layer.cpp:121] Group is 1channel is512number of output is 112
I0509 17:40:01.178493 120201 net.cpp:122] Setting up inception_4d/1x1
I0509 17:40:01.178503 120201 net.cpp:129] Top shape: 10 112 14 14 (219520)
I0509 17:40:01.178506 120201 net.cpp:137] Memory required for data: 459235840
I0509 17:40:01.178514 120201 layer_factory.hpp:77] Creating layer inception_4d/relu_1x1
I0509 17:40:01.178522 120201 net.cpp:84] Creating Layer inception_4d/relu_1x1
I0509 17:40:01.178527 120201 net.cpp:406] inception_4d/relu_1x1 <- inception_4d/1x1
I0509 17:40:01.178534 120201 net.cpp:367] inception_4d/relu_1x1 -> inception_4d/1x1 (in-place)
I0509 17:40:01.178541 120201 net.cpp:122] Setting up inception_4d/relu_1x1
I0509 17:40:01.178547 120201 net.cpp:129] Top shape: 10 112 14 14 (219520)
I0509 17:40:01.178551 120201 net.cpp:137] Memory required for data: 460113920
I0509 17:40:01.178555 120201 layer_factory.hpp:77] Creating layer inception_4d/3x3_reduce
I0509 17:40:01.178565 120201 net.cpp:84] Creating Layer inception_4d/3x3_reduce
I0509 17:40:01.178570 120201 net.cpp:406] inception_4d/3x3_reduce <- inception_4c/output_inception_4c/output_0_split_1
I0509 17:40:01.178580 120201 net.cpp:380] inception_4d/3x3_reduce -> inception_4d/3x3_reduce
I0509 17:40:01.178591 120201 base_conv_layer.cpp:121] Group is 1channel is512number of output is 144
I0509 17:40:01.179323 120201 net.cpp:122] Setting up inception_4d/3x3_reduce
I0509 17:40:01.179332 120201 net.cpp:129] Top shape: 10 144 14 14 (282240)
I0509 17:40:01.179337 120201 net.cpp:137] Memory required for data: 461242880
I0509 17:40:01.179343 120201 layer_factory.hpp:77] Creating layer inception_4d/relu_3x3_reduce
I0509 17:40:01.179350 120201 net.cpp:84] Creating Layer inception_4d/relu_3x3_reduce
I0509 17:40:01.179354 120201 net.cpp:406] inception_4d/relu_3x3_reduce <- inception_4d/3x3_reduce
I0509 17:40:01.179364 120201 net.cpp:367] inception_4d/relu_3x3_reduce -> inception_4d/3x3_reduce (in-place)
I0509 17:40:01.179371 120201 net.cpp:122] Setting up inception_4d/relu_3x3_reduce
I0509 17:40:01.179378 120201 net.cpp:129] Top shape: 10 144 14 14 (282240)
I0509 17:40:01.179381 120201 net.cpp:137] Memory required for data: 462371840
I0509 17:40:01.179386 120201 layer_factory.hpp:77] Creating layer inception_4d/3x3
I0509 17:40:01.179396 120201 net.cpp:84] Creating Layer inception_4d/3x3
I0509 17:40:01.179400 120201 net.cpp:406] inception_4d/3x3 <- inception_4d/3x3_reduce
I0509 17:40:01.179409 120201 net.cpp:380] inception_4d/3x3 -> inception_4d/3x3
I0509 17:40:01.179420 120201 base_conv_layer.cpp:121] Group is 1channel is144number of output is 288
I0509 17:40:01.183058 120201 net.cpp:122] Setting up inception_4d/3x3
I0509 17:40:01.183068 120201 net.cpp:129] Top shape: 10 288 14 14 (564480)
I0509 17:40:01.183073 120201 net.cpp:137] Memory required for data: 464629760
I0509 17:40:01.183079 120201 layer_factory.hpp:77] Creating layer inception_4d/relu_3x3
I0509 17:40:01.183086 120201 net.cpp:84] Creating Layer inception_4d/relu_3x3
I0509 17:40:01.183091 120201 net.cpp:406] inception_4d/relu_3x3 <- inception_4d/3x3
I0509 17:40:01.183099 120201 net.cpp:367] inception_4d/relu_3x3 -> inception_4d/3x3 (in-place)
I0509 17:40:01.183107 120201 net.cpp:122] Setting up inception_4d/relu_3x3
I0509 17:40:01.183117 120201 net.cpp:129] Top shape: 10 288 14 14 (564480)
I0509 17:40:01.183121 120201 net.cpp:137] Memory required for data: 466887680
I0509 17:40:01.183125 120201 layer_factory.hpp:77] Creating layer inception_4d/5x5_reduce
I0509 17:40:01.183135 120201 net.cpp:84] Creating Layer inception_4d/5x5_reduce
I0509 17:40:01.183140 120201 net.cpp:406] inception_4d/5x5_reduce <- inception_4c/output_inception_4c/output_0_split_2
I0509 17:40:01.183148 120201 net.cpp:380] inception_4d/5x5_reduce -> inception_4d/5x5_reduce
I0509 17:40:01.183158 120201 base_conv_layer.cpp:121] Group is 1channel is512number of output is 32
I0509 17:40:01.183331 120201 net.cpp:122] Setting up inception_4d/5x5_reduce
I0509 17:40:01.183338 120201 net.cpp:129] Top shape: 10 32 14 14 (62720)
I0509 17:40:01.183343 120201 net.cpp:137] Memory required for data: 467138560
I0509 17:40:01.183351 120201 layer_factory.hpp:77] Creating layer inception_4d/relu_5x5_reduce
I0509 17:40:01.183357 120201 net.cpp:84] Creating Layer inception_4d/relu_5x5_reduce
I0509 17:40:01.183362 120201 net.cpp:406] inception_4d/relu_5x5_reduce <- inception_4d/5x5_reduce
I0509 17:40:01.183369 120201 net.cpp:367] inception_4d/relu_5x5_reduce -> inception_4d/5x5_reduce (in-place)
I0509 17:40:01.183377 120201 net.cpp:122] Setting up inception_4d/relu_5x5_reduce
I0509 17:40:01.183382 120201 net.cpp:129] Top shape: 10 32 14 14 (62720)
I0509 17:40:01.183387 120201 net.cpp:137] Memory required for data: 467389440
I0509 17:40:01.183390 120201 layer_factory.hpp:77] Creating layer inception_4d/5x5
I0509 17:40:01.183400 120201 net.cpp:84] Creating Layer inception_4d/5x5
I0509 17:40:01.183405 120201 net.cpp:406] inception_4d/5x5 <- inception_4d/5x5_reduce
I0509 17:40:01.183413 120201 net.cpp:380] inception_4d/5x5 -> inception_4d/5x5
I0509 17:40:01.183425 120201 base_conv_layer.cpp:121] Group is 1channel is32number of output is 64
I0509 17:40:01.183939 120201 net.cpp:122] Setting up inception_4d/5x5
I0509 17:40:01.183948 120201 net.cpp:129] Top shape: 10 64 14 14 (125440)
I0509 17:40:01.183953 120201 net.cpp:137] Memory required for data: 467891200
I0509 17:40:01.183959 120201 layer_factory.hpp:77] Creating layer inception_4d/relu_5x5
I0509 17:40:01.183966 120201 net.cpp:84] Creating Layer inception_4d/relu_5x5
I0509 17:40:01.183972 120201 net.cpp:406] inception_4d/relu_5x5 <- inception_4d/5x5
I0509 17:40:01.183979 120201 net.cpp:367] inception_4d/relu_5x5 -> inception_4d/5x5 (in-place)
I0509 17:40:01.183985 120201 net.cpp:122] Setting up inception_4d/relu_5x5
I0509 17:40:01.183991 120201 net.cpp:129] Top shape: 10 64 14 14 (125440)
I0509 17:40:01.183995 120201 net.cpp:137] Memory required for data: 468392960
I0509 17:40:01.184000 120201 layer_factory.hpp:77] Creating layer inception_4d/pool
I0509 17:40:01.184007 120201 net.cpp:84] Creating Layer inception_4d/pool
I0509 17:40:01.184012 120201 net.cpp:406] inception_4d/pool <- inception_4c/output_inception_4c/output_0_split_3
I0509 17:40:01.184020 120201 net.cpp:380] inception_4d/pool -> inception_4d/pool
I0509 17:40:01.184029 120201 net.cpp:122] Setting up inception_4d/pool
I0509 17:40:01.184041 120201 net.cpp:129] Top shape: 10 512 14 14 (1003520)
I0509 17:40:01.184047 120201 net.cpp:137] Memory required for data: 472407040
I0509 17:40:01.184052 120201 layer_factory.hpp:77] Creating layer inception_4d/pool_proj
I0509 17:40:01.184075 120201 net.cpp:84] Creating Layer inception_4d/pool_proj
I0509 17:40:01.184082 120201 net.cpp:406] inception_4d/pool_proj <- inception_4d/pool
I0509 17:40:01.184089 120201 net.cpp:380] inception_4d/pool_proj -> inception_4d/pool_proj
I0509 17:40:01.184099 120201 base_conv_layer.cpp:121] Group is 1channel is512number of output is 64
I0509 17:40:01.184420 120201 net.cpp:122] Setting up inception_4d/pool_proj
I0509 17:40:01.184428 120201 net.cpp:129] Top shape: 10 64 14 14 (125440)
I0509 17:40:01.184432 120201 net.cpp:137] Memory required for data: 472908800
I0509 17:40:01.184439 120201 layer_factory.hpp:77] Creating layer inception_4d/relu_pool_proj
I0509 17:40:01.184445 120201 net.cpp:84] Creating Layer inception_4d/relu_pool_proj
I0509 17:40:01.184453 120201 net.cpp:406] inception_4d/relu_pool_proj <- inception_4d/pool_proj
I0509 17:40:01.184461 120201 net.cpp:367] inception_4d/relu_pool_proj -> inception_4d/pool_proj (in-place)
I0509 17:40:01.184468 120201 net.cpp:122] Setting up inception_4d/relu_pool_proj
I0509 17:40:01.184474 120201 net.cpp:129] Top shape: 10 64 14 14 (125440)
I0509 17:40:01.184478 120201 net.cpp:137] Memory required for data: 473410560
I0509 17:40:01.184483 120201 layer_factory.hpp:77] Creating layer inception_4d/output
I0509 17:40:01.184489 120201 net.cpp:84] Creating Layer inception_4d/output
I0509 17:40:01.184494 120201 net.cpp:406] inception_4d/output <- inception_4d/1x1
I0509 17:40:01.184499 120201 net.cpp:406] inception_4d/output <- inception_4d/3x3
I0509 17:40:01.184504 120201 net.cpp:406] inception_4d/output <- inception_4d/5x5
I0509 17:40:01.184509 120201 net.cpp:406] inception_4d/output <- inception_4d/pool_proj
I0509 17:40:01.184516 120201 net.cpp:380] inception_4d/output -> inception_4d/output
I0509 17:40:01.184525 120201 net.cpp:122] Setting up inception_4d/output
I0509 17:40:01.184530 120201 net.cpp:129] Top shape: 10 528 14 14 (1034880)
I0509 17:40:01.184535 120201 net.cpp:137] Memory required for data: 477550080
I0509 17:40:01.184540 120201 layer_factory.hpp:77] Creating layer inception_4d/output_inception_4d/output_0_split
I0509 17:40:01.184545 120201 net.cpp:84] Creating Layer inception_4d/output_inception_4d/output_0_split
I0509 17:40:01.184550 120201 net.cpp:406] inception_4d/output_inception_4d/output_0_split <- inception_4d/output
I0509 17:40:01.184559 120201 net.cpp:380] inception_4d/output_inception_4d/output_0_split -> inception_4d/output_inception_4d/output_0_split_0
I0509 17:40:01.184567 120201 net.cpp:380] inception_4d/output_inception_4d/output_0_split -> inception_4d/output_inception_4d/output_0_split_1
I0509 17:40:01.184576 120201 net.cpp:380] inception_4d/output_inception_4d/output_0_split -> inception_4d/output_inception_4d/output_0_split_2
I0509 17:40:01.184584 120201 net.cpp:380] inception_4d/output_inception_4d/output_0_split -> inception_4d/output_inception_4d/output_0_split_3
I0509 17:40:01.184593 120201 net.cpp:122] Setting up inception_4d/output_inception_4d/output_0_split
I0509 17:40:01.184599 120201 net.cpp:129] Top shape: 10 528 14 14 (1034880)
I0509 17:40:01.184604 120201 net.cpp:129] Top shape: 10 528 14 14 (1034880)
I0509 17:40:01.184610 120201 net.cpp:129] Top shape: 10 528 14 14 (1034880)
I0509 17:40:01.184617 120201 net.cpp:129] Top shape: 10 528 14 14 (1034880)
I0509 17:40:01.184620 120201 net.cpp:137] Memory required for data: 494108160
I0509 17:40:01.184623 120201 layer_factory.hpp:77] Creating layer inception_4e/1x1
I0509 17:40:01.184633 120201 net.cpp:84] Creating Layer inception_4e/1x1
I0509 17:40:01.184638 120201 net.cpp:406] inception_4e/1x1 <- inception_4d/output_inception_4d/output_0_split_0
I0509 17:40:01.184646 120201 net.cpp:380] inception_4e/1x1 -> inception_4e/1x1
I0509 17:40:01.184656 120201 base_conv_layer.cpp:121] Group is 1channel is528number of output is 256
I0509 17:40:01.185917 120201 net.cpp:122] Setting up inception_4e/1x1
I0509 17:40:01.185926 120201 net.cpp:129] Top shape: 10 256 14 14 (501760)
I0509 17:40:01.185930 120201 net.cpp:137] Memory required for data: 496115200
I0509 17:40:01.185937 120201 layer_factory.hpp:77] Creating layer inception_4e/relu_1x1
I0509 17:40:01.185943 120201 net.cpp:84] Creating Layer inception_4e/relu_1x1
I0509 17:40:01.185948 120201 net.cpp:406] inception_4e/relu_1x1 <- inception_4e/1x1
I0509 17:40:01.185956 120201 net.cpp:367] inception_4e/relu_1x1 -> inception_4e/1x1 (in-place)
I0509 17:40:01.185962 120201 net.cpp:122] Setting up inception_4e/relu_1x1
I0509 17:40:01.185968 120201 net.cpp:129] Top shape: 10 256 14 14 (501760)
I0509 17:40:01.185972 120201 net.cpp:137] Memory required for data: 498122240
I0509 17:40:01.185976 120201 layer_factory.hpp:77] Creating layer inception_4e/3x3_reduce
I0509 17:40:01.185986 120201 net.cpp:84] Creating Layer inception_4e/3x3_reduce
I0509 17:40:01.185991 120201 net.cpp:406] inception_4e/3x3_reduce <- inception_4d/output_inception_4d/output_0_split_1
I0509 17:40:01.186003 120201 net.cpp:380] inception_4e/3x3_reduce -> inception_4e/3x3_reduce
I0509 17:40:01.186013 120201 base_conv_layer.cpp:121] Group is 1channel is528number of output is 160
I0509 17:40:01.186805 120201 net.cpp:122] Setting up inception_4e/3x3_reduce
I0509 17:40:01.186813 120201 net.cpp:129] Top shape: 10 160 14 14 (313600)
I0509 17:40:01.186817 120201 net.cpp:137] Memory required for data: 499376640
I0509 17:40:01.186825 120201 layer_factory.hpp:77] Creating layer inception_4e/relu_3x3_reduce
I0509 17:40:01.186830 120201 net.cpp:84] Creating Layer inception_4e/relu_3x3_reduce
I0509 17:40:01.186836 120201 net.cpp:406] inception_4e/relu_3x3_reduce <- inception_4e/3x3_reduce
I0509 17:40:01.186843 120201 net.cpp:367] inception_4e/relu_3x3_reduce -> inception_4e/3x3_reduce (in-place)
I0509 17:40:01.186851 120201 net.cpp:122] Setting up inception_4e/relu_3x3_reduce
I0509 17:40:01.186856 120201 net.cpp:129] Top shape: 10 160 14 14 (313600)
I0509 17:40:01.186859 120201 net.cpp:137] Memory required for data: 500631040
I0509 17:40:01.186864 120201 layer_factory.hpp:77] Creating layer inception_4e/3x3
I0509 17:40:01.186873 120201 net.cpp:84] Creating Layer inception_4e/3x3
I0509 17:40:01.186877 120201 net.cpp:406] inception_4e/3x3 <- inception_4e/3x3_reduce
I0509 17:40:01.186884 120201 net.cpp:380] inception_4e/3x3 -> inception_4e/3x3
I0509 17:40:01.186895 120201 base_conv_layer.cpp:121] Group is 1channel is160number of output is 320
I0509 17:40:01.191139 120201 net.cpp:122] Setting up inception_4e/3x3
I0509 17:40:01.191148 120201 net.cpp:129] Top shape: 10 320 14 14 (627200)
I0509 17:40:01.191153 120201 net.cpp:137] Memory required for data: 503139840
I0509 17:40:01.191160 120201 layer_factory.hpp:77] Creating layer inception_4e/relu_3x3
I0509 17:40:01.191166 120201 net.cpp:84] Creating Layer inception_4e/relu_3x3
I0509 17:40:01.191170 120201 net.cpp:406] inception_4e/relu_3x3 <- inception_4e/3x3
I0509 17:40:01.191179 120201 net.cpp:367] inception_4e/relu_3x3 -> inception_4e/3x3 (in-place)
I0509 17:40:01.191185 120201 net.cpp:122] Setting up inception_4e/relu_3x3
I0509 17:40:01.191191 120201 net.cpp:129] Top shape: 10 320 14 14 (627200)
I0509 17:40:01.191195 120201 net.cpp:137] Memory required for data: 505648640
I0509 17:40:01.191200 120201 layer_factory.hpp:77] Creating layer inception_4e/5x5_reduce
I0509 17:40:01.191207 120201 net.cpp:84] Creating Layer inception_4e/5x5_reduce
I0509 17:40:01.191211 120201 net.cpp:406] inception_4e/5x5_reduce <- inception_4d/output_inception_4d/output_0_split_2
I0509 17:40:01.191220 120201 net.cpp:380] inception_4e/5x5_reduce -> inception_4e/5x5_reduce
I0509 17:40:01.191231 120201 base_conv_layer.cpp:121] Group is 1channel is528number of output is 32
I0509 17:40:01.191401 120201 net.cpp:122] Setting up inception_4e/5x5_reduce
I0509 17:40:01.191408 120201 net.cpp:129] Top shape: 10 32 14 14 (62720)
I0509 17:40:01.191412 120201 net.cpp:137] Memory required for data: 505899520
I0509 17:40:01.191419 120201 layer_factory.hpp:77] Creating layer inception_4e/relu_5x5_reduce
I0509 17:40:01.191426 120201 net.cpp:84] Creating Layer inception_4e/relu_5x5_reduce
I0509 17:40:01.191431 120201 net.cpp:406] inception_4e/relu_5x5_reduce <- inception_4e/5x5_reduce
I0509 17:40:01.191437 120201 net.cpp:367] inception_4e/relu_5x5_reduce -> inception_4e/5x5_reduce (in-place)
I0509 17:40:01.191444 120201 net.cpp:122] Setting up inception_4e/relu_5x5_reduce
I0509 17:40:01.191450 120201 net.cpp:129] Top shape: 10 32 14 14 (62720)
I0509 17:40:01.191454 120201 net.cpp:137] Memory required for data: 506150400
I0509 17:40:01.191458 120201 layer_factory.hpp:77] Creating layer inception_4e/5x5
I0509 17:40:01.191468 120201 net.cpp:84] Creating Layer inception_4e/5x5
I0509 17:40:01.191473 120201 net.cpp:406] inception_4e/5x5 <- inception_4e/5x5_reduce
I0509 17:40:01.191478 120201 net.cpp:380] inception_4e/5x5 -> inception_4e/5x5
I0509 17:40:01.191490 120201 base_conv_layer.cpp:121] Group is 1channel is32number of output is 128
I0509 17:40:01.192451 120201 net.cpp:122] Setting up inception_4e/5x5
I0509 17:40:01.192461 120201 net.cpp:129] Top shape: 10 128 14 14 (250880)
I0509 17:40:01.192466 120201 net.cpp:137] Memory required for data: 507153920
I0509 17:40:01.192473 120201 layer_factory.hpp:77] Creating layer inception_4e/relu_5x5
I0509 17:40:01.192481 120201 net.cpp:84] Creating Layer inception_4e/relu_5x5
I0509 17:40:01.192486 120201 net.cpp:406] inception_4e/relu_5x5 <- inception_4e/5x5
I0509 17:40:01.192493 120201 net.cpp:367] inception_4e/relu_5x5 -> inception_4e/5x5 (in-place)
I0509 17:40:01.192499 120201 net.cpp:122] Setting up inception_4e/relu_5x5
I0509 17:40:01.192505 120201 net.cpp:129] Top shape: 10 128 14 14 (250880)
I0509 17:40:01.192510 120201 net.cpp:137] Memory required for data: 508157440
I0509 17:40:01.192513 120201 layer_factory.hpp:77] Creating layer inception_4e/pool
I0509 17:40:01.192519 120201 net.cpp:84] Creating Layer inception_4e/pool
I0509 17:40:01.192523 120201 net.cpp:406] inception_4e/pool <- inception_4d/output_inception_4d/output_0_split_3
I0509 17:40:01.192530 120201 net.cpp:380] inception_4e/pool -> inception_4e/pool
I0509 17:40:01.192540 120201 net.cpp:122] Setting up inception_4e/pool
I0509 17:40:01.192545 120201 net.cpp:129] Top shape: 10 528 14 14 (1034880)
I0509 17:40:01.192549 120201 net.cpp:137] Memory required for data: 512296960
I0509 17:40:01.192554 120201 layer_factory.hpp:77] Creating layer inception_4e/pool_proj
I0509 17:40:01.192565 120201 net.cpp:84] Creating Layer inception_4e/pool_proj
I0509 17:40:01.192570 120201 net.cpp:406] inception_4e/pool_proj <- inception_4e/pool
I0509 17:40:01.192577 120201 net.cpp:380] inception_4e/pool_proj -> inception_4e/pool_proj
I0509 17:40:01.192589 120201 base_conv_layer.cpp:121] Group is 1channel is528number of output is 128
I0509 17:40:01.193225 120201 net.cpp:122] Setting up inception_4e/pool_proj
I0509 17:40:01.193233 120201 net.cpp:129] Top shape: 10 128 14 14 (250880)
I0509 17:40:01.193236 120201 net.cpp:137] Memory required for data: 513300480
I0509 17:40:01.193244 120201 layer_factory.hpp:77] Creating layer inception_4e/relu_pool_proj
I0509 17:40:01.193251 120201 net.cpp:84] Creating Layer inception_4e/relu_pool_proj
I0509 17:40:01.193256 120201 net.cpp:406] inception_4e/relu_pool_proj <- inception_4e/pool_proj
I0509 17:40:01.193262 120201 net.cpp:367] inception_4e/relu_pool_proj -> inception_4e/pool_proj (in-place)
I0509 17:40:01.193269 120201 net.cpp:122] Setting up inception_4e/relu_pool_proj
I0509 17:40:01.193274 120201 net.cpp:129] Top shape: 10 128 14 14 (250880)
I0509 17:40:01.193279 120201 net.cpp:137] Memory required for data: 514304000
I0509 17:40:01.193282 120201 layer_factory.hpp:77] Creating layer inception_4e/output
I0509 17:40:01.193290 120201 net.cpp:84] Creating Layer inception_4e/output
I0509 17:40:01.193295 120201 net.cpp:406] inception_4e/output <- inception_4e/1x1
I0509 17:40:01.193300 120201 net.cpp:406] inception_4e/output <- inception_4e/3x3
I0509 17:40:01.193305 120201 net.cpp:406] inception_4e/output <- inception_4e/5x5
I0509 17:40:01.193310 120201 net.cpp:406] inception_4e/output <- inception_4e/pool_proj
I0509 17:40:01.193316 120201 net.cpp:380] inception_4e/output -> inception_4e/output
I0509 17:40:01.193325 120201 net.cpp:122] Setting up inception_4e/output
I0509 17:40:01.193331 120201 net.cpp:129] Top shape: 10 832 14 14 (1630720)
I0509 17:40:01.193334 120201 net.cpp:137] Memory required for data: 520826880
I0509 17:40:01.193338 120201 layer_factory.hpp:77] Creating layer pool4/3x3_s2
I0509 17:40:01.193346 120201 net.cpp:84] Creating Layer pool4/3x3_s2
I0509 17:40:01.193351 120201 net.cpp:406] pool4/3x3_s2 <- inception_4e/output
I0509 17:40:01.193356 120201 net.cpp:380] pool4/3x3_s2 -> pool4/3x3_s2
I0509 17:40:01.193366 120201 net.cpp:122] Setting up pool4/3x3_s2
I0509 17:40:01.193372 120201 net.cpp:129] Top shape: 10 832 7 7 (407680)
I0509 17:40:01.193375 120201 net.cpp:137] Memory required for data: 522457600
I0509 17:40:01.193379 120201 layer_factory.hpp:77] Creating layer pool4/3x3_s2_pool4/3x3_s2_0_split
I0509 17:40:01.193392 120201 net.cpp:84] Creating Layer pool4/3x3_s2_pool4/3x3_s2_0_split
I0509 17:40:01.193397 120201 net.cpp:406] pool4/3x3_s2_pool4/3x3_s2_0_split <- pool4/3x3_s2
I0509 17:40:01.193403 120201 net.cpp:380] pool4/3x3_s2_pool4/3x3_s2_0_split -> pool4/3x3_s2_pool4/3x3_s2_0_split_0
I0509 17:40:01.193413 120201 net.cpp:380] pool4/3x3_s2_pool4/3x3_s2_0_split -> pool4/3x3_s2_pool4/3x3_s2_0_split_1
I0509 17:40:01.193421 120201 net.cpp:380] pool4/3x3_s2_pool4/3x3_s2_0_split -> pool4/3x3_s2_pool4/3x3_s2_0_split_2
I0509 17:40:01.193429 120201 net.cpp:380] pool4/3x3_s2_pool4/3x3_s2_0_split -> pool4/3x3_s2_pool4/3x3_s2_0_split_3
I0509 17:40:01.193439 120201 net.cpp:122] Setting up pool4/3x3_s2_pool4/3x3_s2_0_split
I0509 17:40:01.193444 120201 net.cpp:129] Top shape: 10 832 7 7 (407680)
I0509 17:40:01.193449 120201 net.cpp:129] Top shape: 10 832 7 7 (407680)
I0509 17:40:01.193455 120201 net.cpp:129] Top shape: 10 832 7 7 (407680)
I0509 17:40:01.193460 120201 net.cpp:129] Top shape: 10 832 7 7 (407680)
I0509 17:40:01.193465 120201 net.cpp:137] Memory required for data: 528980480
I0509 17:40:01.193469 120201 layer_factory.hpp:77] Creating layer inception_5a/1x1
I0509 17:40:01.193478 120201 net.cpp:84] Creating Layer inception_5a/1x1
I0509 17:40:01.193483 120201 net.cpp:406] inception_5a/1x1 <- pool4/3x3_s2_pool4/3x3_s2_0_split_0
I0509 17:40:01.193492 120201 net.cpp:380] inception_5a/1x1 -> inception_5a/1x1
I0509 17:40:01.193503 120201 base_conv_layer.cpp:121] Group is 1channel is832number of output is 256
I0509 17:40:01.195477 120201 net.cpp:122] Setting up inception_5a/1x1
I0509 17:40:01.195484 120201 net.cpp:129] Top shape: 10 256 7 7 (125440)
I0509 17:40:01.195488 120201 net.cpp:137] Memory required for data: 529482240
I0509 17:40:01.195495 120201 layer_factory.hpp:77] Creating layer inception_5a/relu_1x1
I0509 17:40:01.195502 120201 net.cpp:84] Creating Layer inception_5a/relu_1x1
I0509 17:40:01.195508 120201 net.cpp:406] inception_5a/relu_1x1 <- inception_5a/1x1
I0509 17:40:01.195515 120201 net.cpp:367] inception_5a/relu_1x1 -> inception_5a/1x1 (in-place)
I0509 17:40:01.195523 120201 net.cpp:122] Setting up inception_5a/relu_1x1
I0509 17:40:01.195528 120201 net.cpp:129] Top shape: 10 256 7 7 (125440)
I0509 17:40:01.195531 120201 net.cpp:137] Memory required for data: 529984000
I0509 17:40:01.195536 120201 layer_factory.hpp:77] Creating layer inception_5a/3x3_reduce
I0509 17:40:01.195546 120201 net.cpp:84] Creating Layer inception_5a/3x3_reduce
I0509 17:40:01.195551 120201 net.cpp:406] inception_5a/3x3_reduce <- pool4/3x3_s2_pool4/3x3_s2_0_split_1
I0509 17:40:01.195560 120201 net.cpp:380] inception_5a/3x3_reduce -> inception_5a/3x3_reduce
I0509 17:40:01.195571 120201 base_conv_layer.cpp:121] Group is 1channel is832number of output is 160
I0509 17:40:01.196796 120201 net.cpp:122] Setting up inception_5a/3x3_reduce
I0509 17:40:01.196807 120201 net.cpp:129] Top shape: 10 160 7 7 (78400)
I0509 17:40:01.196811 120201 net.cpp:137] Memory required for data: 530297600
I0509 17:40:01.196818 120201 layer_factory.hpp:77] Creating layer inception_5a/relu_3x3_reduce
I0509 17:40:01.196825 120201 net.cpp:84] Creating Layer inception_5a/relu_3x3_reduce
I0509 17:40:01.196830 120201 net.cpp:406] inception_5a/relu_3x3_reduce <- inception_5a/3x3_reduce
I0509 17:40:01.196835 120201 net.cpp:367] inception_5a/relu_3x3_reduce -> inception_5a/3x3_reduce (in-place)
I0509 17:40:01.196842 120201 net.cpp:122] Setting up inception_5a/relu_3x3_reduce
I0509 17:40:01.196847 120201 net.cpp:129] Top shape: 10 160 7 7 (78400)
I0509 17:40:01.196851 120201 net.cpp:137] Memory required for data: 530611200
I0509 17:40:01.196854 120201 layer_factory.hpp:77] Creating layer inception_5a/3x3
I0509 17:40:01.196864 120201 net.cpp:84] Creating Layer inception_5a/3x3
I0509 17:40:01.196868 120201 net.cpp:406] inception_5a/3x3 <- inception_5a/3x3_reduce
I0509 17:40:01.196877 120201 net.cpp:380] inception_5a/3x3 -> inception_5a/3x3
I0509 17:40:01.196887 120201 base_conv_layer.cpp:121] Group is 1channel is160number of output is 320
I0509 17:40:01.200922 120201 net.cpp:122] Setting up inception_5a/3x3
I0509 17:40:01.200937 120201 net.cpp:129] Top shape: 10 320 7 7 (156800)
I0509 17:40:01.200940 120201 net.cpp:137] Memory required for data: 531238400
I0509 17:40:01.200947 120201 layer_factory.hpp:77] Creating layer inception_5a/relu_3x3
I0509 17:40:01.200953 120201 net.cpp:84] Creating Layer inception_5a/relu_3x3
I0509 17:40:01.200958 120201 net.cpp:406] inception_5a/relu_3x3 <- inception_5a/3x3
I0509 17:40:01.200965 120201 net.cpp:367] inception_5a/relu_3x3 -> inception_5a/3x3 (in-place)
I0509 17:40:01.200971 120201 net.cpp:122] Setting up inception_5a/relu_3x3
I0509 17:40:01.200978 120201 net.cpp:129] Top shape: 10 320 7 7 (156800)
I0509 17:40:01.200981 120201 net.cpp:137] Memory required for data: 531865600
I0509 17:40:01.200985 120201 layer_factory.hpp:77] Creating layer inception_5a/5x5_reduce
I0509 17:40:01.200994 120201 net.cpp:84] Creating Layer inception_5a/5x5_reduce
I0509 17:40:01.200999 120201 net.cpp:406] inception_5a/5x5_reduce <- pool4/3x3_s2_pool4/3x3_s2_0_split_2
I0509 17:40:01.201006 120201 net.cpp:380] inception_5a/5x5_reduce -> inception_5a/5x5_reduce
I0509 17:40:01.201017 120201 base_conv_layer.cpp:121] Group is 1channel is832number of output is 32
I0509 17:40:01.201267 120201 net.cpp:122] Setting up inception_5a/5x5_reduce
I0509 17:40:01.201274 120201 net.cpp:129] Top shape: 10 32 7 7 (15680)
I0509 17:40:01.201278 120201 net.cpp:137] Memory required for data: 531928320
I0509 17:40:01.201284 120201 layer_factory.hpp:77] Creating layer inception_5a/relu_5x5_reduce
I0509 17:40:01.201290 120201 net.cpp:84] Creating Layer inception_5a/relu_5x5_reduce
I0509 17:40:01.201295 120201 net.cpp:406] inception_5a/relu_5x5_reduce <- inception_5a/5x5_reduce
I0509 17:40:01.201303 120201 net.cpp:367] inception_5a/relu_5x5_reduce -> inception_5a/5x5_reduce (in-place)
I0509 17:40:01.201309 120201 net.cpp:122] Setting up inception_5a/relu_5x5_reduce
I0509 17:40:01.201314 120201 net.cpp:129] Top shape: 10 32 7 7 (15680)
I0509 17:40:01.201318 120201 net.cpp:137] Memory required for data: 531991040
I0509 17:40:01.201323 120201 layer_factory.hpp:77] Creating layer inception_5a/5x5
I0509 17:40:01.201333 120201 net.cpp:84] Creating Layer inception_5a/5x5
I0509 17:40:01.201336 120201 net.cpp:406] inception_5a/5x5 <- inception_5a/5x5_reduce
I0509 17:40:01.201344 120201 net.cpp:380] inception_5a/5x5 -> inception_5a/5x5
I0509 17:40:01.201354 120201 base_conv_layer.cpp:121] Group is 1channel is32number of output is 128
I0509 17:40:01.202266 120201 net.cpp:122] Setting up inception_5a/5x5
I0509 17:40:01.202275 120201 net.cpp:129] Top shape: 10 128 7 7 (62720)
I0509 17:40:01.202278 120201 net.cpp:137] Memory required for data: 532241920
I0509 17:40:01.202286 120201 layer_factory.hpp:77] Creating layer inception_5a/relu_5x5
I0509 17:40:01.202318 120201 net.cpp:84] Creating Layer inception_5a/relu_5x5
I0509 17:40:01.202323 120201 net.cpp:406] inception_5a/relu_5x5 <- inception_5a/5x5
I0509 17:40:01.202330 120201 net.cpp:367] inception_5a/relu_5x5 -> inception_5a/5x5 (in-place)
I0509 17:40:01.202337 120201 net.cpp:122] Setting up inception_5a/relu_5x5
I0509 17:40:01.202342 120201 net.cpp:129] Top shape: 10 128 7 7 (62720)
I0509 17:40:01.202345 120201 net.cpp:137] Memory required for data: 532492800
I0509 17:40:01.202350 120201 layer_factory.hpp:77] Creating layer inception_5a/pool
I0509 17:40:01.202356 120201 net.cpp:84] Creating Layer inception_5a/pool
I0509 17:40:01.202360 120201 net.cpp:406] inception_5a/pool <- pool4/3x3_s2_pool4/3x3_s2_0_split_3
I0509 17:40:01.202366 120201 net.cpp:380] inception_5a/pool -> inception_5a/pool
I0509 17:40:01.202376 120201 net.cpp:122] Setting up inception_5a/pool
I0509 17:40:01.202381 120201 net.cpp:129] Top shape: 10 832 7 7 (407680)
I0509 17:40:01.202385 120201 net.cpp:137] Memory required for data: 534123520
I0509 17:40:01.202389 120201 layer_factory.hpp:77] Creating layer inception_5a/pool_proj
I0509 17:40:01.202399 120201 net.cpp:84] Creating Layer inception_5a/pool_proj
I0509 17:40:01.202402 120201 net.cpp:406] inception_5a/pool_proj <- inception_5a/pool
I0509 17:40:01.202414 120201 net.cpp:380] inception_5a/pool_proj -> inception_5a/pool_proj
I0509 17:40:01.202425 120201 base_conv_layer.cpp:121] Group is 1channel is832number of output is 128
I0509 17:40:01.203377 120201 net.cpp:122] Setting up inception_5a/pool_proj
I0509 17:40:01.203384 120201 net.cpp:129] Top shape: 10 128 7 7 (62720)
I0509 17:40:01.203387 120201 net.cpp:137] Memory required for data: 534374400
I0509 17:40:01.203394 120201 layer_factory.hpp:77] Creating layer inception_5a/relu_pool_proj
I0509 17:40:01.203402 120201 net.cpp:84] Creating Layer inception_5a/relu_pool_proj
I0509 17:40:01.203405 120201 net.cpp:406] inception_5a/relu_pool_proj <- inception_5a/pool_proj
I0509 17:40:01.203413 120201 net.cpp:367] inception_5a/relu_pool_proj -> inception_5a/pool_proj (in-place)
I0509 17:40:01.203419 120201 net.cpp:122] Setting up inception_5a/relu_pool_proj
I0509 17:40:01.203425 120201 net.cpp:129] Top shape: 10 128 7 7 (62720)
I0509 17:40:01.203429 120201 net.cpp:137] Memory required for data: 534625280
I0509 17:40:01.203433 120201 layer_factory.hpp:77] Creating layer inception_5a/output
I0509 17:40:01.203438 120201 net.cpp:84] Creating Layer inception_5a/output
I0509 17:40:01.203444 120201 net.cpp:406] inception_5a/output <- inception_5a/1x1
I0509 17:40:01.203449 120201 net.cpp:406] inception_5a/output <- inception_5a/3x3
I0509 17:40:01.203452 120201 net.cpp:406] inception_5a/output <- inception_5a/5x5
I0509 17:40:01.203457 120201 net.cpp:406] inception_5a/output <- inception_5a/pool_proj
I0509 17:40:01.203464 120201 net.cpp:380] inception_5a/output -> inception_5a/output
I0509 17:40:01.203474 120201 net.cpp:122] Setting up inception_5a/output
I0509 17:40:01.203480 120201 net.cpp:129] Top shape: 10 832 7 7 (407680)
I0509 17:40:01.203483 120201 net.cpp:137] Memory required for data: 536256000
I0509 17:40:01.203487 120201 layer_factory.hpp:77] Creating layer inception_5a/output_inception_5a/output_0_split
I0509 17:40:01.203493 120201 net.cpp:84] Creating Layer inception_5a/output_inception_5a/output_0_split
I0509 17:40:01.203497 120201 net.cpp:406] inception_5a/output_inception_5a/output_0_split <- inception_5a/output
I0509 17:40:01.203506 120201 net.cpp:380] inception_5a/output_inception_5a/output_0_split -> inception_5a/output_inception_5a/output_0_split_0
I0509 17:40:01.203514 120201 net.cpp:380] inception_5a/output_inception_5a/output_0_split -> inception_5a/output_inception_5a/output_0_split_1
I0509 17:40:01.203522 120201 net.cpp:380] inception_5a/output_inception_5a/output_0_split -> inception_5a/output_inception_5a/output_0_split_2
I0509 17:40:01.203529 120201 net.cpp:380] inception_5a/output_inception_5a/output_0_split -> inception_5a/output_inception_5a/output_0_split_3
I0509 17:40:01.203539 120201 net.cpp:122] Setting up inception_5a/output_inception_5a/output_0_split
I0509 17:40:01.203546 120201 net.cpp:129] Top shape: 10 832 7 7 (407680)
I0509 17:40:01.203550 120201 net.cpp:129] Top shape: 10 832 7 7 (407680)
I0509 17:40:01.203555 120201 net.cpp:129] Top shape: 10 832 7 7 (407680)
I0509 17:40:01.203560 120201 net.cpp:129] Top shape: 10 832 7 7 (407680)
I0509 17:40:01.203564 120201 net.cpp:137] Memory required for data: 542778880
I0509 17:40:01.203568 120201 layer_factory.hpp:77] Creating layer inception_5b/1x1
I0509 17:40:01.203577 120201 net.cpp:84] Creating Layer inception_5b/1x1
I0509 17:40:01.203582 120201 net.cpp:406] inception_5b/1x1 <- inception_5a/output_inception_5a/output_0_split_0
I0509 17:40:01.203590 120201 net.cpp:380] inception_5b/1x1 -> inception_5b/1x1
I0509 17:40:01.203600 120201 base_conv_layer.cpp:121] Group is 1channel is832number of output is 384
I0509 17:40:01.206409 120201 net.cpp:122] Setting up inception_5b/1x1
I0509 17:40:01.206418 120201 net.cpp:129] Top shape: 10 384 7 7 (188160)
I0509 17:40:01.206423 120201 net.cpp:137] Memory required for data: 543531520
I0509 17:40:01.206429 120201 layer_factory.hpp:77] Creating layer inception_5b/relu_1x1
I0509 17:40:01.206435 120201 net.cpp:84] Creating Layer inception_5b/relu_1x1
I0509 17:40:01.206439 120201 net.cpp:406] inception_5b/relu_1x1 <- inception_5b/1x1
I0509 17:40:01.206452 120201 net.cpp:367] inception_5b/relu_1x1 -> inception_5b/1x1 (in-place)
I0509 17:40:01.206459 120201 net.cpp:122] Setting up inception_5b/relu_1x1
I0509 17:40:01.206465 120201 net.cpp:129] Top shape: 10 384 7 7 (188160)
I0509 17:40:01.206468 120201 net.cpp:137] Memory required for data: 544284160
I0509 17:40:01.206473 120201 layer_factory.hpp:77] Creating layer inception_5b/3x3_reduce
I0509 17:40:01.206482 120201 net.cpp:84] Creating Layer inception_5b/3x3_reduce
I0509 17:40:01.206487 120201 net.cpp:406] inception_5b/3x3_reduce <- inception_5a/output_inception_5a/output_0_split_1
I0509 17:40:01.206493 120201 net.cpp:380] inception_5b/3x3_reduce -> inception_5b/3x3_reduce
I0509 17:40:01.206506 120201 base_conv_layer.cpp:121] Group is 1channel is832number of output is 192
I0509 17:40:01.207907 120201 net.cpp:122] Setting up inception_5b/3x3_reduce
I0509 17:40:01.207914 120201 net.cpp:129] Top shape: 10 192 7 7 (94080)
I0509 17:40:01.207918 120201 net.cpp:137] Memory required for data: 544660480
I0509 17:40:01.207926 120201 layer_factory.hpp:77] Creating layer inception_5b/relu_3x3_reduce
I0509 17:40:01.207934 120201 net.cpp:84] Creating Layer inception_5b/relu_3x3_reduce
I0509 17:40:01.207938 120201 net.cpp:406] inception_5b/relu_3x3_reduce <- inception_5b/3x3_reduce
I0509 17:40:01.207944 120201 net.cpp:367] inception_5b/relu_3x3_reduce -> inception_5b/3x3_reduce (in-place)
I0509 17:40:01.207952 120201 net.cpp:122] Setting up inception_5b/relu_3x3_reduce
I0509 17:40:01.207957 120201 net.cpp:129] Top shape: 10 192 7 7 (94080)
I0509 17:40:01.207960 120201 net.cpp:137] Memory required for data: 545036800
I0509 17:40:01.207963 120201 layer_factory.hpp:77] Creating layer inception_5b/3x3
I0509 17:40:01.207973 120201 net.cpp:84] Creating Layer inception_5b/3x3
I0509 17:40:01.207978 120201 net.cpp:406] inception_5b/3x3 <- inception_5b/3x3_reduce
I0509 17:40:01.207986 120201 net.cpp:380] inception_5b/3x3 -> inception_5b/3x3
I0509 17:40:01.207995 120201 base_conv_layer.cpp:121] Group is 1channel is192number of output is 384
I0509 17:40:01.213030 120201 net.cpp:122] Setting up inception_5b/3x3
I0509 17:40:01.213039 120201 net.cpp:129] Top shape: 10 384 7 7 (188160)
I0509 17:40:01.213043 120201 net.cpp:137] Memory required for data: 545789440
I0509 17:40:01.213049 120201 layer_factory.hpp:77] Creating layer inception_5b/relu_3x3
I0509 17:40:01.213055 120201 net.cpp:84] Creating Layer inception_5b/relu_3x3
I0509 17:40:01.213059 120201 net.cpp:406] inception_5b/relu_3x3 <- inception_5b/3x3
I0509 17:40:01.213068 120201 net.cpp:367] inception_5b/relu_3x3 -> inception_5b/3x3 (in-place)
I0509 17:40:01.213073 120201 net.cpp:122] Setting up inception_5b/relu_3x3
I0509 17:40:01.213078 120201 net.cpp:129] Top shape: 10 384 7 7 (188160)
I0509 17:40:01.213083 120201 net.cpp:137] Memory required for data: 546542080
I0509 17:40:01.213085 120201 layer_factory.hpp:77] Creating layer inception_5b/5x5_reduce
I0509 17:40:01.213094 120201 net.cpp:84] Creating Layer inception_5b/5x5_reduce
I0509 17:40:01.213099 120201 net.cpp:406] inception_5b/5x5_reduce <- inception_5a/output_inception_5a/output_0_split_2
I0509 17:40:01.213105 120201 net.cpp:380] inception_5b/5x5_reduce -> inception_5b/5x5_reduce
I0509 17:40:01.213115 120201 base_conv_layer.cpp:121] Group is 1channel is832number of output is 48
I0509 17:40:01.213462 120201 net.cpp:122] Setting up inception_5b/5x5_reduce
I0509 17:40:01.213469 120201 net.cpp:129] Top shape: 10 48 7 7 (23520)
I0509 17:40:01.213474 120201 net.cpp:137] Memory required for data: 546636160
I0509 17:40:01.213479 120201 layer_factory.hpp:77] Creating layer inception_5b/relu_5x5_reduce
I0509 17:40:01.213485 120201 net.cpp:84] Creating Layer inception_5b/relu_5x5_reduce
I0509 17:40:01.213490 120201 net.cpp:406] inception_5b/relu_5x5_reduce <- inception_5b/5x5_reduce
I0509 17:40:01.213496 120201 net.cpp:367] inception_5b/relu_5x5_reduce -> inception_5b/5x5_reduce (in-place)
I0509 17:40:01.213502 120201 net.cpp:122] Setting up inception_5b/relu_5x5_reduce
I0509 17:40:01.213508 120201 net.cpp:129] Top shape: 10 48 7 7 (23520)
I0509 17:40:01.213515 120201 net.cpp:137] Memory required for data: 546730240
I0509 17:40:01.213520 120201 layer_factory.hpp:77] Creating layer inception_5b/5x5
I0509 17:40:01.213527 120201 net.cpp:84] Creating Layer inception_5b/5x5
I0509 17:40:01.213531 120201 net.cpp:406] inception_5b/5x5 <- inception_5b/5x5_reduce
I0509 17:40:01.213538 120201 net.cpp:380] inception_5b/5x5 -> inception_5b/5x5
I0509 17:40:01.213549 120201 base_conv_layer.cpp:121] Group is 1channel is48number of output is 128
I0509 17:40:01.214843 120201 net.cpp:122] Setting up inception_5b/5x5
I0509 17:40:01.214850 120201 net.cpp:129] Top shape: 10 128 7 7 (62720)
I0509 17:40:01.214854 120201 net.cpp:137] Memory required for data: 546981120
I0509 17:40:01.214860 120201 layer_factory.hpp:77] Creating layer inception_5b/relu_5x5
I0509 17:40:01.214867 120201 net.cpp:84] Creating Layer inception_5b/relu_5x5
I0509 17:40:01.214871 120201 net.cpp:406] inception_5b/relu_5x5 <- inception_5b/5x5
I0509 17:40:01.214877 120201 net.cpp:367] inception_5b/relu_5x5 -> inception_5b/5x5 (in-place)
I0509 17:40:01.214884 120201 net.cpp:122] Setting up inception_5b/relu_5x5
I0509 17:40:01.214889 120201 net.cpp:129] Top shape: 10 128 7 7 (62720)
I0509 17:40:01.214891 120201 net.cpp:137] Memory required for data: 547232000
I0509 17:40:01.214895 120201 layer_factory.hpp:77] Creating layer inception_5b/pool
I0509 17:40:01.214901 120201 net.cpp:84] Creating Layer inception_5b/pool
I0509 17:40:01.214907 120201 net.cpp:406] inception_5b/pool <- inception_5a/output_inception_5a/output_0_split_3
I0509 17:40:01.214913 120201 net.cpp:380] inception_5b/pool -> inception_5b/pool
I0509 17:40:01.214922 120201 net.cpp:122] Setting up inception_5b/pool
I0509 17:40:01.214928 120201 net.cpp:129] Top shape: 10 832 7 7 (407680)
I0509 17:40:01.214931 120201 net.cpp:137] Memory required for data: 548862720
I0509 17:40:01.214934 120201 layer_factory.hpp:77] Creating layer inception_5b/pool_proj
I0509 17:40:01.214944 120201 net.cpp:84] Creating Layer inception_5b/pool_proj
I0509 17:40:01.214948 120201 net.cpp:406] inception_5b/pool_proj <- inception_5b/pool
I0509 17:40:01.214956 120201 net.cpp:380] inception_5b/pool_proj -> inception_5b/pool_proj
I0509 17:40:01.214965 120201 base_conv_layer.cpp:121] Group is 1channel is832number of output is 128
I0509 17:40:01.215867 120201 net.cpp:122] Setting up inception_5b/pool_proj
I0509 17:40:01.215874 120201 net.cpp:129] Top shape: 10 128 7 7 (62720)
I0509 17:40:01.215878 120201 net.cpp:137] Memory required for data: 549113600
I0509 17:40:01.215884 120201 layer_factory.hpp:77] Creating layer inception_5b/relu_pool_proj
I0509 17:40:01.215890 120201 net.cpp:84] Creating Layer inception_5b/relu_pool_proj
I0509 17:40:01.215894 120201 net.cpp:406] inception_5b/relu_pool_proj <- inception_5b/pool_proj
I0509 17:40:01.215901 120201 net.cpp:367] inception_5b/relu_pool_proj -> inception_5b/pool_proj (in-place)
I0509 17:40:01.215908 120201 net.cpp:122] Setting up inception_5b/relu_pool_proj
I0509 17:40:01.215914 120201 net.cpp:129] Top shape: 10 128 7 7 (62720)
I0509 17:40:01.215916 120201 net.cpp:137] Memory required for data: 549364480
I0509 17:40:01.215919 120201 layer_factory.hpp:77] Creating layer inception_5b/output
I0509 17:40:01.215925 120201 net.cpp:84] Creating Layer inception_5b/output
I0509 17:40:01.215929 120201 net.cpp:406] inception_5b/output <- inception_5b/1x1
I0509 17:40:01.215934 120201 net.cpp:406] inception_5b/output <- inception_5b/3x3
I0509 17:40:01.215939 120201 net.cpp:406] inception_5b/output <- inception_5b/5x5
I0509 17:40:01.215943 120201 net.cpp:406] inception_5b/output <- inception_5b/pool_proj
I0509 17:40:01.215950 120201 net.cpp:380] inception_5b/output -> inception_5b/output
I0509 17:40:01.215958 120201 net.cpp:122] Setting up inception_5b/output
I0509 17:40:01.215963 120201 net.cpp:129] Top shape: 10 1024 7 7 (501760)
I0509 17:40:01.215967 120201 net.cpp:137] Memory required for data: 551371520
I0509 17:40:01.215970 120201 layer_factory.hpp:77] Creating layer pool5/7x7_s1
I0509 17:40:01.215979 120201 net.cpp:84] Creating Layer pool5/7x7_s1
I0509 17:40:01.215983 120201 net.cpp:406] pool5/7x7_s1 <- inception_5b/output
I0509 17:40:01.215989 120201 net.cpp:380] pool5/7x7_s1 -> pool5/7x7_s1
I0509 17:40:01.215997 120201 net.cpp:122] Setting up pool5/7x7_s1
I0509 17:40:01.216002 120201 net.cpp:129] Top shape: 10 1024 1 1 (10240)
I0509 17:40:01.216006 120201 net.cpp:137] Memory required for data: 551412480
I0509 17:40:01.216009 120201 layer_factory.hpp:77] Creating layer pool5/drop_7x7_s1
I0509 17:40:01.216022 120201 net.cpp:84] Creating Layer pool5/drop_7x7_s1
I0509 17:40:01.216024 120201 net.cpp:406] pool5/drop_7x7_s1 <- pool5/7x7_s1
I0509 17:40:01.216030 120201 net.cpp:367] pool5/drop_7x7_s1 -> pool5/7x7_s1 (in-place)
I0509 17:40:01.216042 120201 net.cpp:122] Setting up pool5/drop_7x7_s1
I0509 17:40:01.216049 120201 net.cpp:129] Top shape: 10 1024 1 1 (10240)
I0509 17:40:01.216053 120201 net.cpp:137] Memory required for data: 551453440
I0509 17:40:01.216056 120201 layer_factory.hpp:77] Creating layer loss3/classifier
I0509 17:40:01.216065 120201 net.cpp:84] Creating Layer loss3/classifier
I0509 17:40:01.216069 120201 net.cpp:406] loss3/classifier <- pool5/7x7_s1
I0509 17:40:01.216075 120201 net.cpp:380] loss3/classifier -> loss3/classifier
I0509 17:40:01.223935 120201 net.cpp:122] Setting up loss3/classifier
I0509 17:40:01.223944 120201 net.cpp:129] Top shape: 10 1000 (10000)
I0509 17:40:01.223948 120201 net.cpp:137] Memory required for data: 551493440
I0509 17:40:01.223954 120201 layer_factory.hpp:77] Creating layer prob
I0509 17:40:01.223961 120201 net.cpp:84] Creating Layer prob
I0509 17:40:01.223965 120201 net.cpp:406] prob <- loss3/classifier
I0509 17:40:01.223973 120201 net.cpp:380] prob -> prob
I0509 17:40:01.223985 120201 net.cpp:122] Setting up prob
I0509 17:40:01.223989 120201 net.cpp:129] Top shape: 10 1000 (10000)
I0509 17:40:01.223994 120201 net.cpp:137] Memory required for data: 551533440
I0509 17:40:01.223997 120201 net.cpp:200] prob does not need backward computation.
I0509 17:40:01.224001 120201 net.cpp:200] loss3/classifier does not need backward computation.
I0509 17:40:01.224004 120201 net.cpp:200] pool5/drop_7x7_s1 does not need backward computation.
I0509 17:40:01.224009 120201 net.cpp:200] pool5/7x7_s1 does not need backward computation.
…
