…
W0509 17:40:03.344895 120291 _caffe.cpp:139] DEPRECATION WARNING - deprecated use of Python interface
W0509 17:40:03.344919 120291 _caffe.cpp:140] Use this instead (with the named "weights" parameter):
W0509 17:40:03.344923 120291 _caffe.cpp:142] Net('models/bvlc_googlenet/deploy.prototxt', 1, weights='models/bvlc_googlenet/bvlc_googlenet_iter_5.caffemodel')
I0509 17:40:03.347941 120291 net.cpp:51] Initializing net from parameters: 
name: "GoogleNet"
state {
  phase: TEST
  level: 0
}
layer {
  name: "data"
  type: "Input"
  top: "data"
  input_param {
    shape {
      dim: 10
      dim: 3
      dim: 224
      dim: 224
    }
  }
}
layer {
  name: "conv1/7x7_s2"
  type: "Convolution"
  bottom: "data"
  top: "conv1/7x7_s2"
  param {
    lr_mult: 1
    decay_mult: 1
  }
  param {
    lr_mult: 2
    decay_mult: 0
  }
  convolution_param {
    num_output: 64
    pad: 3
    kernel_size: 7
    stride: 2
    weight_filler {
      type: "xavier"
      std: 0.1
    }
    bias_filler {
      type: "constant"
      value: 0.2
    }
  }
}
layer {
  name: "conv1/relu_7x7"
  type: "ReLU"
  bottom: "conv1/7x7_s2"
  top: "conv1/7x7_s2"
}
layer {
  name: "pool1/3x3_s2"
  type: "Pooling"
  bottom: "conv1/7x7_s2"
  top: "pool1/3x3_s2"
  pooling_param {
    pool: MAX
    kernel_size: 3
    stride: 2
  }
}
layer {
  name: "pool1/norm1"
  type: "LRN"
  bottom: "pool1/3x3_s2"
  top: "pool1/norm1"
  lrn_param {
    local_size: 5
    alpha: 0.0001
    beta: 0.75
  }
}
layer {
  name: "conv2/3x3_reduce"
  type: "Convolution"
  bottom: "pool1/norm1"
  top: "conv2/3x3_reduce"
  param {
    lr_mult: 1
    decay_mult: 1
  }
  param {
    lr_mult: 2
    decay_mult: 0
  }
  convolution_param {
    num_output: 64
    kernel_size: 1
    weight_filler {
      type: "xavier"
      std: 0.1
    }
    bias_filler {
      type: "constant"
      value: 0.2
    }
  }
}
layer {
  name: "conv2/relu_3x3_reduce"
  type: "ReLU"
  bottom: "conv2/3x3_reduce"
  top: "conv2/3x3_reduce"
}
layer {
  name: "conv2/3x3"
  type: "Convolution"
  bottom: "conv2/3x3_reduce"
  top: "conv2/3x3"
  param {
    lr_mult: 1
    decay_mult: 1
  }
  param {
    lr_mult: 2
    decay_mult: 0
  }
  convolution_param {
    num_output: 192
    pad: 1
    kernel_size: 3
    weight_filler {
      type: "xavier"
      std: 0.03
    }
    bias_filler {
      type: "constant"
      value: 0.2
    }
  }
}
layer {
  name: "conv2/relu_3x3"
  type: "ReLU"
  bottom: "conv2/3x3"
  top: "conv2/3x3"
}
layer {
  name: "conv2/norm2"
  type: "LRN"
  bottom: "conv2/3x3"
  top: "conv2/norm2"
  lrn_param {
    local_size: 5
    alpha: 0.0001
    beta: 0.75
  }
}
layer {
  name: "pool2/3x3_s2"
  type: "Pooling"
  bottom: "conv2/norm2"
  top: "pool2/3x3_s2"
  pooling_param {
    pool: MAX
    kernel_size: 3
    stride: 2
  }
}
layer {
  name: "inception_3a/1x1"
  type: "Convolution"
  bottom: "pool2/3x3_s2"
  top: "inception_3a/1x1"
  param {
    lr_mult: 1
    decay_mult: 1
  }
  param {
    lr_mult: 2
    decay_mult: 0
  }
  convolution_param {
    num_output: 64
    kernel_size: 1
    weight_filler {
      type: "xavier"
      std: 0.03
    }
    bias_filler {
      type: "constant"
      value: 0.2
    }
  }
}
layer {
  name: "inception_3a/relu_1x1"
  type: "ReLU"
  bottom: "inception_3a/1x1"
  top: "inception_3a/1x1"
}
layer {
  name: "inception_3a/3x3_reduce"
  type: "Convolution"
  bottom: "pool2/3x3_s2"
  top: "inception_3a/3x3_reduce"
  param {
    lr_mult: 1
    decay_mult: 1
  }
  param {
    lr_mult: 2
    decay_mult: 0
  }
  convolution_param {
    num_output: 96
    kernel_size: 1
    weight_filler {
      type: "xavier"
      std: 0.09
    }
    bias_filler {
      type: "constant"
      value: 0.2
    }
  }
}
layer {
  name: "inception_3a/relu_3x3_reduce"
  type: "ReLU"
  bottom: "inception_3a/3x3_reduce"
  top: "inception_3a/3x3_reduce"
}
layer {
  name: "inception_3a/3x3"
  type: "Convolution"
  bottom: "inception_3a/3x3_reduce"
  top: "inception_3a/3x3"
  param {
    lr_mult: 1
    decay_mult: 1
  }
  param {
    lr_mult: 2
    decay_mult: 0
  }
  convolution_param {
    num_output: 128
    pad: 1
    kernel_size: 3
    weight_filler {
      type: "xavier"
      std: 0.03
    }
    bias_filler {
      type: "constant"
      value: 0.2
    }
  }
}
layer {
  name: "inception_3a/relu_3x3"
  type: "ReLU"
  bottom: "inception_3a/3x3"
  top: "inception_3a/3x3"
}
layer {
  name: "inception_3a/5x5_reduce"
  type: "Convolution"
  bottom: "pool2/3x3_s2"
  top: "inception_3a/5x5_reduce"
  param {
    lr_mult: 1
    decay_mult: 1
  }
  param {
    lr_mult: 2
    decay_mult: 0
  }
  convolution_param {
    num_output: 16
    kernel_size: 1
    weight_filler {
      type: "xavier"
      std: 0.2
    }
    bias_filler {
      type: "constant"
      value: 0.2
    }
  }
}
layer {
  name: "inception_3a/relu_5x5_reduce"
  type: "ReLU"
  bottom: "inception_3a/5x5_reduce"
  top: "inception_3a/5x5_reduce"
}
layer {
  name: "inception_3a/5x5"
  type: "Convolution"
  bottom: "inception_3a/5x5_reduce"
  top: "inception_3a/5x5"
  param {
    lr_mult: 1
    decay_mult: 1
  }
  param {
    lr_mult: 2
    decay_mult: 0
  }
  convolution_param {
    num_output: 32
    pad: 2
    kernel_size: 5
    weight_filler {
      type: "xavier"
      std: 0.03
    }
    bias_filler {
      type: "constant"
      value: 0.2
    }
  }
}
layer {
  name: "inception_3a/relu_5x5"
  type: "ReLU"
  bottom: "inception_3a/5x5"
  top: "inception_3a/5x5"
}
layer {
  name: "inception_3a/pool"
  type: "Pooling"
  bottom: "pool2/3x3_s2"
  top: "inception_3a/pool"
  pooling_param {
    pool: MAX
    kernel_size: 3
    stride: 1
    pad: 1
  }
}
layer {
  name: "inception_3a/pool_proj"
  type: "Convolution"
  bottom: "inception_3a/pool"
  top: "inception_3a/pool_proj"
  param {
    lr_mult: 1
    decay_mult: 1
  }
  param {
    lr_mult: 2
    decay_mult: 0
  }
  convolution_param {
    num_output: 32
    kernel_size: 1
    weight_filler {
      type: "xavier"
      std: 0.1
    }
    bias_filler {
      type: "constant"
      value: 0.2
    }
  }
}
layer {
  name: "inception_3a/relu_pool_proj"
  type: "ReLU"
  bottom: "inception_3a/pool_proj"
  top: "inception_3a/pool_proj"
}
layer {
  name: "inception_3a/output"
  type: "Concat"
  bottom: "inception_3a/1x1"
  bottom: "inception_3a/3x3"
  bottom: "inception_3a/5x5"
  bottom: "inception_3a/pool_proj"
  top: "inception_3a/output"
}
layer {
  name: "inception_3b/1x1"
  type: "Convolution"
  bottom: "inception_3a/output"
  top: "inception_3b/1x1"
  param {
    lr_mult: 1
    decay_mult: 1
  }
  param {
    lr_mult: 2
    decay_mult: 0
  }
  convolution_param {
    num_output: 128
    kernel_size: 1
    weight_filler {
      type: "xavier"
      std: 0.03
    }
    bias_filler {
      type: "constant"
      value: 0.2
    }
  }
}
layer {
  name: "inception_3b/relu_1x1"
  type: "ReLU"
  bottom: "inception_3b/1x1"
  top: "inception_3b/1x1"
}
layer {
  name: "inception_3b/3x3_reduce"
  type: "Convolution"
  bottom: "inception_3a/output"
  top: "inception_3b/3x3_reduce"
  param {
    lr_mult: 1
    decay_mult: 1
  }
  param {
    lr_mult: 2
    decay_mult: 0
  }
  convolution_param {
    num_output: 128
    kernel_size: 1
    weight_filler {
      type: "xavier"
      std: 0.09
    }
    bias_filler {
      type: "constant"
      value: 0.2
    }
  }
}
layer {
  name: "inception_3b/relu_3x3_reduce"
  type: "ReLU"
  bottom: "inception_3b/3x3_reduce"
  top: "inception_3b/3x3_reduce"
}
layer {
  name: "inception_3b/3x3"
  type: "Convolution"
  bottom: "inception_3b/3x3_reduce"
  top: "inception_3b/3x3"
  param {
    lr_mult: 1
    decay_mult: 1
  }
  param {
    lr_mult: 2
    decay_mult: 0
  }
  convolution_param {
    num_output: 192
    pad: 1
    kernel_size: 3
    weight_filler {
      type: "xavier"
      std: 0.03
    }
    bias_filler {
      type: "constant"
      value: 0.2
    }
  }
}
layer {
  name: "inception_3b/relu_3x3"
  type: "ReLU"
  bottom: "inception_3b/3x3"
  top: "inception_3b/3x3"
}
layer {
  name: "inception_3b/5x5_reduce"
  type: "Convolution"
  bottom: "inception_3a/output"
  top: "inception_3b/5x5_reduce"
  param {
    lr_mult: 1
    decay_mult: 1
  }
  param {
    lr_mult: 2
    decay_mult: 0
  }
  convolution_param {
    num_output: 32
    kernel_size: 1
    weight_filler {
      type: "xavier"
      std: 0.2
    }
    bias_filler {
      type: "constant"
      value: 0.2
    }
  }
}
layer {
  name: "inception_3b/relu_5x5_reduce"
  type: "ReLU"
  bottom: "inception_3b/5x5_reduce"
  top: "inception_3b/5x5_reduce"
}
layer {
  name: "inception_3b/5x5"
  type: "Convolution"
  bottom: "inception_3b/5x5_reduce"
  top: "inception_3b/5x5"
  param {
    lr_mult: 1
    decay_mult: 1
  }
  param {
    lr_mult: 2
    decay_mult: 0
  }
  convolution_param {
    num_output: 96
    pad: 2
    kernel_size: 5
    weight_filler {
      type: "xavier"
      std: 0.03
    }
    bias_filler {
      type: "constant"
      value: 0.2
    }
  }
}
layer {
  name: "inception_3b/relu_5x5"
  type: "ReLU"
  bottom: "inception_3b/5x5"
  top: "inception_3b/5x5"
}
layer {
  name: "inception_3b/pool"
  type: "Pooling"
  bottom: "inception_3a/output"
  top: "inception_3b/pool"
  pooling_param {
    pool: MAX
    kernel_size: 3
    stride: 1
    pad: 1
  }
}
layer {
  name: "inception_3b/pool_proj"
  type: "Convolution"
  bottom: "inception_3b/pool"
  top: "inception_3b/pool_proj"
  param {
    lr_mult: 1
    decay_mult: 1
  }
  param {
    lr_mult: 2
    decay_mult: 0
  }
  convolution_param {
    num_output: 64
    kernel_size: 1
    weight_filler {
      type: "xavier"
      std: 0.1
    }
    bias_filler {
      type: "constant"
      value: 0.2
    }
  }
}
layer {
  name: "inception_3b/relu_pool_proj"
  type: "ReLU"
  bottom: "inception_3b/pool_proj"
  top: "inception_3b/pool_proj"
}
layer {
  name: "inception_3b/output"
  type: "Concat"
  bottom: "inception_3b/1x1"
  bottom: "inception_3b/3x3"
  bottom: "inception_3b/5x5"
  bottom: "inception_3b/pool_proj"
  top: "inception_3b/output"
}
layer {
  name: "pool3/3x3_s2"
  type: "Pooling"
  bottom: "inception_3b/output"
  top: "pool3/3x3_s2"
  pooling_param {
    pool: MAX
    kernel_size: 3
    stride: 2
  }
}
layer {
  name: "inception_4a/1x1"
  type: "Convolution"
  bottom: "pool3/3x3_s2"
  top: "inception_4a/1x1"
  param {
    lr_mult: 1
    decay_mult: 1
  }
  param {
    lr_mult: 2
    decay_mult: 0
  }
  convolution_param {
    num_output: 192
    kernel_size: 1
    weight_filler {
      type: "xavier"
      std: 0.03
    }
    bias_filler {
      type: "constant"
      value: 0.2
    }
  }
}
layer {
  name: "inception_4a/relu_1x1"
  type: "ReLU"
  bottom: "inception_4a/1x1"
  top: "inception_4a/1x1"
}
layer {
  name: "inception_4a/3x3_reduce"
  type: "Convolution"
  bottom: "pool3/3x3_s2"
  top: "inception_4a/3x3_reduce"
  param {
    lr_mult: 1
    decay_mult: 1
  }
  param {
    lr_mult: 2
    decay_mult: 0
  }
  convolution_param {
    num_output: 96
    kernel_size: 1
    weight_filler {
      type: "xavier"
      std: 0.09
    }
    bias_filler {
      type: "constant"
      value: 0.2
    }
  }
}
layer {
  name: "inception_4a/relu_3x3_reduce"
  type: "ReLU"
  bottom: "inception_4a/3x3_reduce"
  top: "inception_4a/3x3_reduce"
}
layer {
  name: "inception_4a/3x3"
  type: "Convolution"
  bottom: "inception_4a/3x3_reduce"
  top: "inception_4a/3x3"
  param {
    lr_mult: 1
    decay_mult: 1
  }
  param {
    lr_mult: 2
    decay_mult: 0
  }
  convolution_param {
    num_output: 208
    pad: 1
    kernel_size: 3
    weight_filler {
      type: "xavier"
      std: 0.03
    }
    bias_filler {
      type: "constant"
      value: 0.2
    }
  }
}
layer {
  name: "inception_4a/relu_3x3"
  type: "ReLU"
  bottom: "inception_4a/3x3"
  top: "inception_4a/3x3"
}
layer {
  name: "inception_4a/5x5_reduce"
  type: "Convolution"
  bottom: "pool3/3x3_s2"
  top: "inception_4a/5x5_reduce"
  param {
    lr_mult: 1
    decay_mult: 1
  }
  param {
    lr_mult: 2
    decay_mult: 0
  }
  convolution_param {
    num_output: 16
    kernel_size: 1
    weight_filler {
      type: "xavier"
      std: 0.2
    }
    bias_filler {
      type: "constant"
      value: 0.2
    }
  }
}
layer {
  name: "inception_4a/relu_5x5_reduce"
  type: "ReLU"
  bottom: "inception_4a/5x5_reduce"
  top: "inception_4a/5x5_reduce"
}
layer {
  name: "inception_4a/5x5"
  type: "Convolution"
  bottom: "inception_4a/5x5_reduce"
  top: "inception_4a/5x5"
  param {
    lr_mult: 1
    decay_mult: 1
  }
  param {
    lr_mult: 2
    decay_mult: 0
  }
  convolution_param {
    num_output: 48
    pad: 2
    kernel_size: 5
    weight_filler {
      type: "xavier"
      std: 0.03
    }
    bias_filler {
      type: "constant"
      value: 0.2
    }
  }
}
layer {
  name: "inception_4a/relu_5x5"
  type: "ReLU"
  bottom: "inception_4a/5x5"
  top: "inception_4a/5x5"
}
layer {
  name: "inception_4a/pool"
  type: "Pooling"
  bottom: "pool3/3x3_s2"
  top: "inception_4a/pool"
  pooling_param {
    pool: MAX
    kernel_size: 3
    stride: 1
    pad: 1
  }
}
layer {
  name: "inception_4a/pool_proj"
  type: "Convolution"
  bottom: "inception_4a/pool"
  top: "inception_4a/pool_proj"
  param {
    lr_mult: 1
    decay_mult: 1
  }
  param {
    lr_mult: 2
    decay_mult: 0
  }
  convolution_param {
    num_output: 64
    kernel_size: 1
    weight_filler {
      type: "xavier"
      std: 0.1
    }
    bias_filler {
      type: "constant"
      value: 0.2
    }
  }
}
layer {
  name: "inception_4a/relu_pool_proj"
  type: "ReLU"
  bottom: "inception_4a/pool_proj"
  top: "inception_4a/pool_proj"
}
layer {
  name: "inception_4a/output"
  type: "Concat"
  bottom: "inception_4a/1x1"
  bottom: "inception_4a/3x3"
  bottom: "inception_4a/5x5"
  bottom: "inception_4a/pool_proj"
  top: "inception_4a/output"
}
layer {
  name: "inception_4b/1x1"
  type: "Convolution"
  bottom: "inception_4a/output"
  top: "inception_4b/1x1"
  param {
    lr_mult: 1
    decay_mult: 1
  }
  param {
    lr_mult: 2
    decay_mult: 0
  }
  convolution_param {
    num_output: 160
    kernel_size: 1
    weight_filler {
      type: "xavier"
      std: 0.03
    }
    bias_filler {
      type: "constant"
      value: 0.2
    }
  }
}
layer {
  name: "inception_4b/relu_1x1"
  type: "ReLU"
  bottom: "inception_4b/1x1"
  top: "inception_4b/1x1"
}
layer {
  name: "inception_4b/3x3_reduce"
  type: "Convolution"
  bottom: "inception_4a/output"
  top: "inception_4b/3x3_reduce"
  param {
    lr_mult: 1
    decay_mult: 1
  }
  param {
    lr_mult: 2
    decay_mult: 0
  }
  convolution_param {
    num_output: 112
    kernel_size: 1
    weight_filler {
      type: "xavier"
      std: 0.09
    }
    bias_filler {
      type: "constant"
      value: 0.2
    }
  }
}
layer {
  name: "inception_4b/relu_3x3_reduce"
  type: "ReLU"
  bottom: "inception_4b/3x3_reduce"
  top: "inception_4b/3x3_reduce"
}
layer {
  name: "inception_4b/3x3"
  type: "Convolution"
  bottom: "inception_4b/3x3_reduce"
  top: "inception_4b/3x3"
  param {
    lr_mult: 1
    decay_mult: 1
  }
  param {
    lr_mult: 2
    decay_mult: 0
  }
  convolution_param {
    num_output: 224
    pad: 1
    kernel_size: 3
    weight_filler {
      type: "xavier"
      std: 0.03
    }
    bias_filler {
      type: "constant"
      value: 0.2
    }
  }
}
layer {
  name: "inception_4b/relu_3x3"
  type: "ReLU"
  bottom: "inception_4b/3x3"
  top: "inception_4b/3x3"
}
layer {
  name: "inception_4b/5x5_reduce"
  type: "Convolution"
  bottom: "inception_4a/output"
  top: "inception_4b/5x5_reduce"
  param {
    lr_mult: 1
    decay_mult: 1
  }
  param {
    lr_mult: 2
    decay_mult: 0
  }
  convolution_param {
    num_output: 24
    kernel_size: 1
    weight_filler {
      type: "xavier"
      std: 0.2
    }
    bias_filler {
      type: "constant"
      value: 0.2
    }
  }
}
layer {
  name: "inception_4b/relu_5x5_reduce"
  type: "ReLU"
  bottom: "inception_4b/5x5_reduce"
  top: "inception_4b/5x5_reduce"
}
layer {
  name: "inception_4b/5x5"
  type: "Convolution"
  bottom: "inception_4b/5x5_reduce"
  top: "inception_4b/5x5"
  param {
    lr_mult: 1
    decay_mult: 1
  }
  param {
    lr_mult: 2
    decay_mult: 0
  }
  convolution_param {
    num_output: 64
    pad: 2
    kernel_size: 5
    weight_filler {
      type: "xavier"
      std: 0.03
    }
    bias_filler {
      type: "constant"
      value: 0.2
    }
  }
}
layer {
  name: "inception_4b/relu_5x5"
  type: "ReLU"
  bottom: "inception_4b/5x5"
  top: "inception_4b/5x5"
}
layer {
  name: "inception_4b/pool"
  type: "Pooling"
  bottom: "inception_4a/output"
  top: "inception_4b/pool"
  pooling_param {
    pool: MAX
    kernel_size: 3
    stride: 1
    pad: 1
  }
}
layer {
  name: "inception_4b/pool_proj"
  type: "Convolution"
  bottom: "inception_4b/pool"
  top: "inception_4b/pool_proj"
  param {
    lr_mult: 1
    decay_mult: 1
  }
  param {
    lr_mult: 2
    decay_mult: 0
  }
  convolution_param {
    num_output: 64
    kernel_size: 1
    weight_filler {
      type: "xavier"
      std: 0.1
    }
    bias_filler {
      type: "constant"
      value: 0.2
    }
  }
}
layer {
  name: "inception_4b/relu_pool_proj"
  type: "ReLU"
  bottom: "inception_4b/pool_proj"
  top: "inception_4b/pool_proj"
}
layer {
  name: "inception_4b/output"
  type: "Concat"
  bottom: "inception_4b/1x1"
  bottom: "inception_4b/3x3"
  bottom: "inception_4b/5x5"
  bottom: "inception_4b/pool_proj"
  top: "inception_4b/output"
}
layer {
  name: "inception_4c/1x1"
  type: "Convolution"
  bottom: "inception_4b/output"
  top: "inception_4c/1x1"
  param {
    lr_mult: 1
    decay_mult: 1
  }
  param {
    lr_mult: 2
    decay_mult: 0
  }
  convolution_param {
    num_output: 128
    kernel_size: 1
    weight_filler {
      type: "xavier"
      std: 0.03
    }
    bias_filler {
      type: "constant"
      value: 0.2
    }
  }
}
layer {
  name: "inception_4c/relu_1x1"
  type: "ReLU"
  bottom: "inception_4c/1x1"
  top: "inception_4c/1x1"
}
layer {
  name: "inception_4c/3x3_reduce"
  type: "Convolution"
  bottom: "inception_4b/output"
  top: "inception_4c/3x3_reduce"
  param {
    lr_mult: 1
    decay_mult: 1
  }
  param {
    lr_mult: 2
    decay_mult: 0
  }
  convolution_param {
    num_output: 128
    kernel_size: 1
    weight_filler {
      type: "xavier"
      std: 0.09
    }
    bias_filler {
      type: "constant"
      value: 0.2
    }
  }
}
layer {
  name: "inception_4c/relu_3x3_reduce"
  type: "ReLU"
  bottom: "inception_4c/3x3_reduce"
  top: "inception_4c/3x3_reduce"
}
layer {
  name: "inception_4c/3x3"
  type: "Convolution"
  bottom: "inception_4c/3x3_reduce"
  top: "inception_4c/3x3"
  param {
    lr_mult: 1
    decay_mult: 1
  }
  param {
    lr_mult: 2
    decay_mult: 0
  }
  convolution_param {
    num_output: 256
    pad: 1
    kernel_size: 3
    weight_filler {
      type: "xavier"
      std: 0.03
    }
    bias_filler {
      type: "constant"
      value: 0.2
    }
  }
}
layer {
  name: "inception_4c/relu_3x3"
  type: "ReLU"
  bottom: "inception_4c/3x3"
  top: "inception_4c/3x3"
}
layer {
  name: "inception_4c/5x5_reduce"
  type: "Convolution"
  bottom: "inception_4b/output"
  top: "inception_4c/5x5_reduce"
  param {
    lr_mult: 1
    decay_mult: 1
  }
  param {
    lr_mult: 2
    decay_mult: 0
  }
  convolution_param {
    num_output: 24
    kernel_size: 1
    weight_filler {
      type: "xavier"
      std: 0.2
    }
    bias_filler {
      type: "constant"
      value: 0.2
    }
  }
}
layer {
  name: "inception_4c/relu_5x5_reduce"
  type: "ReLU"
  bottom: "inception_4c/5x5_reduce"
  top: "inception_4c/5x5_reduce"
}
layer {
  name: "inception_4c/5x5"
  type: "Convolution"
  bottom: "inception_4c/5x5_reduce"
  top: "inception_4c/5x5"
  param {
    lr_mult: 1
    decay_mult: 1
  }
  param {
    lr_mult: 2
    decay_mult: 0
  }
  convolution_param {
    num_output: 64
    pad: 2
    kernel_size: 5
    weight_filler {
      type: "xavier"
      std: 0.03
    }
    bias_filler {
      type: "constant"
      value: 0.2
    }
  }
}
layer {
  name: "inception_4c/relu_5x5"
  type: "ReLU"
  bottom: "inception_4c/5x5"
  top: "inception_4c/5x5"
}
layer {
  name: "inception_4c/pool"
  type: "Pooling"
  bottom: "inception_4b/output"
  top: "inception_4c/pool"
  pooling_param {
    pool: MAX
    kernel_size: 3
    stride: 1
    pad: 1
  }
}
layer {
  name: "inception_4c/pool_proj"
  type: "Convolution"
  bottom: "inception_4c/pool"
  top: "inception_4c/pool_proj"
  param {
    lr_mult: 1
    decay_mult: 1
  }
  param {
    lr_mult: 2
    decay_mult: 0
  }
  convolution_param {
    num_output: 64
    kernel_size: 1
    weight_filler {
      type: "xavier"
      std: 0.1
    }
    bias_filler {
      type: "constant"
      value: 0.2
    }
  }
}
layer {
  name: "inception_4c/relu_pool_proj"
  type: "ReLU"
  bottom: "inception_4c/pool_proj"
  top: "inception_4c/pool_proj"
}
layer {
  name: "inception_4c/output"
  type: "Concat"
  bottom: "inception_4c/1x1"
  bottom: "inception_4c/3x3"
  bottom: "inception_4c/5x5"
  bottom: "inception_4c/pool_proj"
  top: "inception_4c/output"
}
layer {
  name: "inception_4d/1x1"
  type: "Convolution"
  bottom: "inception_4c/output"
  top: "inception_4d/1x1"
  param {
    lr_mult: 1
    decay_mult: 1
  }
  param {
    lr_mult: 2
    decay_mult: 0
  }
  convolution_param {
    num_output: 112
    kernel_size: 1
    weight_filler {
      type: "xavier"
      std: 0.03
    }
    bias_filler {
      type: "constant"
      value: 0.2
    }
  }
}
layer {
  name: "inception_4d/relu_1x1"
  type: "ReLU"
  bottom: "inception_4d/1x1"
  top: "inception_4d/1x1"
}
layer {
  name: "inception_4d/3x3_reduce"
  type: "Convolution"
  bottom: "inception_4c/output"
  top: "inception_4d/3x3_reduce"
  param {
    lr_mult: 1
    decay_mult: 1
  }
  param {
    lr_mult: 2
    decay_mult: 0
  }
  convolution_param {
    num_output: 144
    kernel_size: 1
    weight_filler {
      type: "xavier"
      std: 0.09
    }
    bias_filler {
      type: "constant"
      value: 0.2
    }
  }
}
layer {
  name: "inception_4d/relu_3x3_reduce"
  type: "ReLU"
  bottom: "inception_4d/3x3_reduce"
  top: "inception_4d/3x3_reduce"
}
layer {
  name: "inception_4d/3x3"
  type: "Convolution"
  bottom: "inception_4d/3x3_reduce"
  top: "inception_4d/3x3"
  param {
    lr_mult: 1
    decay_mult: 1
  }
  param {
    lr_mult: 2
    decay_mult: 0
  }
  convolution_param {
    num_output: 288
    pad: 1
    kernel_size: 3
    weight_filler {
      type: "xavier"
      std: 0.03
    }
    bias_filler {
      type: "constant"
      value: 0.2
    }
  }
}
layer {
  name: "inception_4d/relu_3x3"
  type: "ReLU"
  bottom: "inception_4d/3x3"
  top: "inception_4d/3x3"
}
layer {
  name: "inception_4d/5x5_reduce"
  type: "Convolution"
  bottom: "inception_4c/output"
  top: "inception_4d/5x5_reduce"
  param {
    lr_mult: 1
    decay_mult: 1
  }
  param {
    lr_mult: 2
    decay_mult: 0
  }
  convolution_param {
    num_output: 32
    kernel_size: 1
    weight_filler {
      type: "xavier"
      std: 0.2
    }
    bias_filler {
      type: "constant"
      value: 0.2
    }
  }
}
layer {
  name: "inception_4d/relu_5x5_reduce"
  type: "ReLU"
  bottom: "inception_4d/5x5_reduce"
  top: "inception_4d/5x5_reduce"
}
layer {
  name: "inception_4d/5x5"
  type: "Convolution"
  bottom: "inception_4d/5x5_reduce"
  top: "inception_4d/5x5"
  param {
    lr_mult: 1
    decay_mult: 1
  }
  param {
    lr_mult: 2
    decay_mult: 0
  }
  convolution_param {
    num_output: 64
    pad: 2
    kernel_size: 5
    weight_filler {
      type: "xavier"
      std: 0.03
    }
    bias_filler {
      type: "constant"
      value: 0.2
    }
  }
}
layer {
  name: "inception_4d/relu_5x5"
  type: "ReLU"
  bottom: "inception_4d/5x5"
  top: "inception_4d/5x5"
}
layer {
  name: "inception_4d/pool"
  type: "Pooling"
  bottom: "inception_4c/output"
  top: "inception_4d/pool"
  pooling_param {
    pool: MAX
    kernel_size: 3
    stride: 1
    pad: 1
  }
}
layer {
  name: "inception_4d/pool_proj"
  type: "Convolution"
  bottom: "inception_4d/pool"
  top: "inception_4d/pool_proj"
  param {
    lr_mult: 1
    decay_mult: 1
  }
  param {
    lr_mult: 2
    decay_mult: 0
  }
  convolution_param {
    num_output: 64
    kernel_size: 1
    weight_filler {
      type: "xavier"
      std: 0.1
    }
    bias_filler {
      type: "constant"
      value: 0.2
    }
  }
}
layer {
  name: "inception_4d/relu_pool_proj"
  type: "ReLU"
  bottom: "inception_4d/pool_proj"
  top: "inception_4d/pool_proj"
}
layer {
  name: "inception_4d/output"
  type: "Concat"
  bottom: "inception_4d/1x1"
  bottom: "inception_4d/3x3"
  bottom: "inception_4d/5x5"
  bottom: "inception_4d/pool_proj"
  top: "inception_4d/output"
}
layer {
  name: "inception_4e/1x1"
  type: "Convolution"
  bottom: "inception_4d/output"
  top: "inception_4e/1x1"
  param {
    lr_mult: 1
    decay_mult: 1
  }
  param {
    lr_mult: 2
    decay_mult: 0
  }
  convolution_param {
    num_output: 256
    kernel_size: 1
    weight_filler {
      type: "xavier"
      std: 0.03
    }
    bias_filler {
      type: "constant"
      value: 0.2
    }
  }
}
layer {
  name: "inception_4e/relu_1x1"
  type: "ReLU"
  bottom: "inception_4e/1x1"
  top: "inception_4e/1x1"
}
layer {
  name: "inception_4e/3x3_reduce"
  type: "Convolution"
  bottom: "inception_4d/output"
  top: "inception_4e/3x3_reduce"
  param {
    lr_mult: 1
    decay_mult: 1
  }
  param {
    lr_mult: 2
    decay_mult: 0
  }
  convolution_param {
    num_output: 160
    kernel_size: 1
    weight_filler {
      type: "xavier"
      std: 0.09
    }
    bias_filler {
      type: "constant"
      value: 0.2
    }
  }
}
layer {
  name: "inception_4e/relu_3x3_reduce"
  type: "ReLU"
  bottom: "inception_4e/3x3_reduce"
  top: "inception_4e/3x3_reduce"
}
layer {
  name: "inception_4e/3x3"
  type: "Convolution"
  bottom: "inception_4e/3x3_reduce"
  top: "inception_4e/3x3"
  param {
    lr_mult: 1
    decay_mult: 1
  }
  param {
    lr_mult: 2
    decay_mult: 0
  }
  convolution_param {
    num_output: 320
    pad: 1
    kernel_size: 3
    weight_filler {
      type: "xavier"
      std: 0.03
    }
    bias_filler {
      type: "constant"
      value: 0.2
    }
  }
}
layer {
  name: "inception_4e/relu_3x3"
  type: "ReLU"
  bottom: "inception_4e/3x3"
  top: "inception_4e/3x3"
}
layer {
  name: "inception_4e/5x5_reduce"
  type: "Convolution"
  bottom: "inception_4d/output"
  top: "inception_4e/5x5_reduce"
  param {
    lr_mult: 1
    decay_mult: 1
  }
  param {
    lr_mult: 2
    decay_mult: 0
  }
  convolution_param {
    num_output: 32
    kernel_size: 1
    weight_filler {
      type: "xavier"
      std: 0.2
    }
    bias_filler {
      type: "constant"
      value: 0.2
    }
  }
}
layer {
  name: "inception_4e/relu_5x5_reduce"
  type: "ReLU"
  bottom: "inception_4e/5x5_reduce"
  top: "inception_4e/5x5_reduce"
}
layer {
  name: "inception_4e/5x5"
  type: "Convolution"
  bottom: "inception_4e/5x5_reduce"
  top: "inception_4e/5x5"
  param {
    lr_mult: 1
    decay_mult: 1
  }
  param {
    lr_mult: 2
    decay_mult: 0
  }
  convolution_param {
    num_output: 128
    pad: 2
    kernel_size: 5
    weight_filler {
      type: "xavier"
      std: 0.03
    }
    bias_filler {
      type: "constant"
      value: 0.2
    }
  }
}
layer {
  name: "inception_4e/relu_5x5"
  type: "ReLU"
  bottom: "inception_4e/5x5"
  top: "inception_4e/5x5"
}
layer {
  name: "inception_4e/pool"
  type: "Pooling"
  bottom: "inception_4d/output"
  top: "inception_4e/pool"
  pooling_param {
    pool: MAX
    kernel_size: 3
    stride: 1
    pad: 1
  }
}
layer {
  name: "inception_4e/pool_proj"
  type: "Convolution"
  bottom: "inception_4e/pool"
  top: "inception_4e/pool_proj"
  param {
    lr_mult: 1
    decay_mult: 1
  }
  param {
    lr_mult: 2
    decay_mult: 0
  }
  convolution_param {
    num_output: 128
    kernel_size: 1
    weight_filler {
      type: "xavier"
      std: 0.1
    }
    bias_filler {
      type: "constant"
      value: 0.2
    }
  }
}
layer {
  name: "inception_4e/relu_pool_proj"
  type: "ReLU"
  bottom: "inception_4e/pool_proj"
  top: "inception_4e/pool_proj"
}
layer {
  name: "inception_4e/output"
  type: "Concat"
  bottom: "inception_4e/1x1"
  bottom: "inception_4e/3x3"
  bottom: "inception_4e/5x5"
  bottom: "inception_4e/pool_proj"
  top: "inception_4e/output"
}
layer {
  name: "pool4/3x3_s2"
  type: "Pooling"
  bottom: "inception_4e/output"
  top: "pool4/3x3_s2"
  pooling_param {
    pool: MAX
    kernel_size: 3
    stride: 2
  }
}
layer {
  name: "inception_5a/1x1"
  type: "Convolution"
  bottom: "pool4/3x3_s2"
  top: "inception_5a/1x1"
  param {
    lr_mult: 1
    decay_mult: 1
  }
  param {
    lr_mult: 2
    decay_mult: 0
  }
  convolution_param {
    num_output: 256
    kernel_size: 1
    weight_filler {
      type: "xavier"
      std: 0.03
    }
    bias_filler {
      type: "constant"
      value: 0.2
    }
  }
}
layer {
  name: "inception_5a/relu_1x1"
  type: "ReLU"
  bottom: "inception_5a/1x1"
  top: "inception_5a/1x1"
}
layer {
  name: "inception_5a/3x3_reduce"
  type: "Convolution"
  bottom: "pool4/3x3_s2"
  top: "inception_5a/3x3_reduce"
  param {
    lr_mult: 1
    decay_mult: 1
  }
  param {
    lr_mult: 2
    decay_mult: 0
  }
  convolution_param {
    num_output: 160
    kernel_size: 1
    weight_filler {
      type: "xavier"
      std: 0.09
    }
    bias_filler {
      type: "constant"
      value: 0.2
    }
  }
}
layer {
  name: "inception_5a/relu_3x3_reduce"
  type: "ReLU"
  bottom: "inception_5a/3x3_reduce"
  top: "inception_5a/3x3_reduce"
}
layer {
  name: "inception_5a/3x3"
  type: "Convolution"
  bottom: "inception_5a/3x3_reduce"
  top: "inception_5a/3x3"
  param {
    lr_mult: 1
    decay_mult: 1
  }
  param {
    lr_mult: 2
    decay_mult: 0
  }
  convolution_param {
    num_output: 320
    pad: 1
    kernel_size: 3
    weight_filler {
      type: "xavier"
      std: 0.03
    }
    bias_filler {
      type: "constant"
      value: 0.2
    }
  }
}
layer {
  name: "inception_5a/relu_3x3"
  type: "ReLU"
  bottom: "inception_5a/3x3"
  top: "inception_5a/3x3"
}
layer {
  name: "inception_5a/5x5_reduce"
  type: "Convolution"
  bottom: "pool4/3x3_s2"
  top: "inception_5a/5x5_reduce"
  param {
    lr_mult: 1
    decay_mult: 1
  }
  param {
    lr_mult: 2
    decay_mult: 0
  }
  convolution_param {
    num_output: 32
    kernel_size: 1
    weight_filler {
      type: "xavier"
      std: 0.2
    }
    bias_filler {
      type: "constant"
      value
I0509 17:40:03.348568 120291 layer_factory.hpp:77] Creating layer data
I0509 17:40:03.348584 120291 net.cpp:84] Creating Layer data
I0509 17:40:03.348588 120291 net.cpp:380] data -> data
I0509 17:40:03.348605 120291 net.cpp:122] Setting up data
I0509 17:40:03.348610 120291 net.cpp:129] Top shape: 10 3 224 224 (1505280)
I0509 17:40:03.348613 120291 net.cpp:137] Memory required for data: 6021120
I0509 17:40:03.348616 120291 layer_factory.hpp:77] Creating layer conv1/7x7_s2
I0509 17:40:03.348623 120291 net.cpp:84] Creating Layer conv1/7x7_s2
I0509 17:40:03.348626 120291 net.cpp:406] conv1/7x7_s2 <- data
I0509 17:40:03.348633 120291 net.cpp:380] conv1/7x7_s2 -> conv1/7x7_s2
I0509 17:40:03.348641 120291 base_conv_layer.cpp:121] Group is 1channel is3number of output is 64
I0509 17:40:03.349051 120291 net.cpp:122] Setting up conv1/7x7_s2
I0509 17:40:03.349057 120291 net.cpp:129] Top shape: 10 64 112 112 (8028160)
I0509 17:40:03.349061 120291 net.cpp:137] Memory required for data: 38133760
I0509 17:40:03.349069 120291 layer_factory.hpp:77] Creating layer conv1/relu_7x7
I0509 17:40:03.349076 120291 net.cpp:84] Creating Layer conv1/relu_7x7
I0509 17:40:03.349077 120291 net.cpp:406] conv1/relu_7x7 <- conv1/7x7_s2
I0509 17:40:03.349081 120291 net.cpp:367] conv1/relu_7x7 -> conv1/7x7_s2 (in-place)
I0509 17:40:03.349087 120291 net.cpp:122] Setting up conv1/relu_7x7
I0509 17:40:03.349092 120291 net.cpp:129] Top shape: 10 64 112 112 (8028160)
I0509 17:40:03.349093 120291 net.cpp:137] Memory required for data: 70246400
I0509 17:40:03.349097 120291 layer_factory.hpp:77] Creating layer pool1/3x3_s2
I0509 17:40:03.349100 120291 net.cpp:84] Creating Layer pool1/3x3_s2
I0509 17:40:03.349102 120291 net.cpp:406] pool1/3x3_s2 <- conv1/7x7_s2
I0509 17:40:03.349107 120291 net.cpp:380] pool1/3x3_s2 -> pool1/3x3_s2
I0509 17:40:03.349114 120291 net.cpp:122] Setting up pool1/3x3_s2
I0509 17:40:03.349118 120291 net.cpp:129] Top shape: 10 64 56 56 (2007040)
I0509 17:40:03.349122 120291 net.cpp:137] Memory required for data: 78274560
I0509 17:40:03.349128 120291 layer_factory.hpp:77] Creating layer pool1/norm1
I0509 17:40:03.349133 120291 net.cpp:84] Creating Layer pool1/norm1
I0509 17:40:03.349135 120291 net.cpp:406] pool1/norm1 <- pool1/3x3_s2
I0509 17:40:03.349139 120291 net.cpp:380] pool1/norm1 -> pool1/norm1
I0509 17:40:03.349145 120291 net.cpp:122] Setting up pool1/norm1
I0509 17:40:03.349149 120291 net.cpp:129] Top shape: 10 64 56 56 (2007040)
I0509 17:40:03.349151 120291 net.cpp:137] Memory required for data: 86302720
I0509 17:40:03.349154 120291 layer_factory.hpp:77] Creating layer conv2/3x3_reduce
I0509 17:40:03.349161 120291 net.cpp:84] Creating Layer conv2/3x3_reduce
I0509 17:40:03.349164 120291 net.cpp:406] conv2/3x3_reduce <- pool1/norm1
I0509 17:40:03.349169 120291 net.cpp:380] conv2/3x3_reduce -> conv2/3x3_reduce
I0509 17:40:03.349177 120291 base_conv_layer.cpp:121] Group is 1channel is64number of output is 64
I0509 17:40:03.349216 120291 net.cpp:122] Setting up conv2/3x3_reduce
I0509 17:40:03.349221 120291 net.cpp:129] Top shape: 10 64 56 56 (2007040)
I0509 17:40:03.349223 120291 net.cpp:137] Memory required for data: 94330880
I0509 17:40:03.349230 120291 layer_factory.hpp:77] Creating layer conv2/relu_3x3_reduce
I0509 17:40:03.349233 120291 net.cpp:84] Creating Layer conv2/relu_3x3_reduce
I0509 17:40:03.349236 120291 net.cpp:406] conv2/relu_3x3_reduce <- conv2/3x3_reduce
I0509 17:40:03.349241 120291 net.cpp:367] conv2/relu_3x3_reduce -> conv2/3x3_reduce (in-place)
I0509 17:40:03.349246 120291 net.cpp:122] Setting up conv2/relu_3x3_reduce
I0509 17:40:03.349248 120291 net.cpp:129] Top shape: 10 64 56 56 (2007040)
I0509 17:40:03.349251 120291 net.cpp:137] Memory required for data: 102359040
I0509 17:40:03.349253 120291 layer_factory.hpp:77] Creating layer conv2/3x3
I0509 17:40:03.349261 120291 net.cpp:84] Creating Layer conv2/3x3
I0509 17:40:03.349263 120291 net.cpp:406] conv2/3x3 <- conv2/3x3_reduce
I0509 17:40:03.349267 120291 net.cpp:380] conv2/3x3 -> conv2/3x3
I0509 17:40:03.349275 120291 base_conv_layer.cpp:121] Group is 1channel is64number of output is 192
I0509 17:40:03.349942 120291 net.cpp:122] Setting up conv2/3x3
I0509 17:40:03.349947 120291 net.cpp:129] Top shape: 10 192 56 56 (6021120)
I0509 17:40:03.349951 120291 net.cpp:137] Memory required for data: 126443520
I0509 17:40:03.349961 120291 layer_factory.hpp:77] Creating layer conv2/relu_3x3
I0509 17:40:03.349966 120291 net.cpp:84] Creating Layer conv2/relu_3x3
I0509 17:40:03.349967 120291 net.cpp:406] conv2/relu_3x3 <- conv2/3x3
I0509 17:40:03.349972 120291 net.cpp:367] conv2/relu_3x3 -> conv2/3x3 (in-place)
I0509 17:40:03.349977 120291 net.cpp:122] Setting up conv2/relu_3x3
I0509 17:40:03.349980 120291 net.cpp:129] Top shape: 10 192 56 56 (6021120)
I0509 17:40:03.349982 120291 net.cpp:137] Memory required for data: 150528000
I0509 17:40:03.349985 120291 layer_factory.hpp:77] Creating layer conv2/norm2
I0509 17:40:03.349989 120291 net.cpp:84] Creating Layer conv2/norm2
I0509 17:40:03.349992 120291 net.cpp:406] conv2/norm2 <- conv2/3x3
I0509 17:40:03.349994 120291 net.cpp:380] conv2/norm2 -> conv2/norm2
I0509 17:40:03.350000 120291 net.cpp:122] Setting up conv2/norm2
I0509 17:40:03.350003 120291 net.cpp:129] Top shape: 10 192 56 56 (6021120)
I0509 17:40:03.350006 120291 net.cpp:137] Memory required for data: 174612480
I0509 17:40:03.350008 120291 layer_factory.hpp:77] Creating layer pool2/3x3_s2
I0509 17:40:03.350013 120291 net.cpp:84] Creating Layer pool2/3x3_s2
I0509 17:40:03.350016 120291 net.cpp:406] pool2/3x3_s2 <- conv2/norm2
I0509 17:40:03.350019 120291 net.cpp:380] pool2/3x3_s2 -> pool2/3x3_s2
I0509 17:40:03.350025 120291 net.cpp:122] Setting up pool2/3x3_s2
I0509 17:40:03.350029 120291 net.cpp:129] Top shape: 10 192 28 28 (1505280)
I0509 17:40:03.350031 120291 net.cpp:137] Memory required for data: 180633600
I0509 17:40:03.350034 120291 layer_factory.hpp:77] Creating layer pool2/3x3_s2_pool2/3x3_s2_0_split
I0509 17:40:03.350039 120291 net.cpp:84] Creating Layer pool2/3x3_s2_pool2/3x3_s2_0_split
I0509 17:40:03.350044 120291 net.cpp:406] pool2/3x3_s2_pool2/3x3_s2_0_split <- pool2/3x3_s2
I0509 17:40:03.350049 120291 net.cpp:380] pool2/3x3_s2_pool2/3x3_s2_0_split -> pool2/3x3_s2_pool2/3x3_s2_0_split_0
I0509 17:40:03.350055 120291 net.cpp:380] pool2/3x3_s2_pool2/3x3_s2_0_split -> pool2/3x3_s2_pool2/3x3_s2_0_split_1
I0509 17:40:03.350061 120291 net.cpp:380] pool2/3x3_s2_pool2/3x3_s2_0_split -> pool2/3x3_s2_pool2/3x3_s2_0_split_2
I0509 17:40:03.350066 120291 net.cpp:380] pool2/3x3_s2_pool2/3x3_s2_0_split -> pool2/3x3_s2_pool2/3x3_s2_0_split_3
I0509 17:40:03.350071 120291 net.cpp:122] Setting up pool2/3x3_s2_pool2/3x3_s2_0_split
I0509 17:40:03.350075 120291 net.cpp:129] Top shape: 10 192 28 28 (1505280)
I0509 17:40:03.350080 120291 net.cpp:129] Top shape: 10 192 28 28 (1505280)
I0509 17:40:03.350082 120291 net.cpp:129] Top shape: 10 192 28 28 (1505280)
I0509 17:40:03.350085 120291 net.cpp:129] Top shape: 10 192 28 28 (1505280)
I0509 17:40:03.350088 120291 net.cpp:137] Memory required for data: 204718080
I0509 17:40:03.350090 120291 layer_factory.hpp:77] Creating layer inception_3a/1x1
I0509 17:40:03.350096 120291 net.cpp:84] Creating Layer inception_3a/1x1
I0509 17:40:03.350100 120291 net.cpp:406] inception_3a/1x1 <- pool2/3x3_s2_pool2/3x3_s2_0_split_0
I0509 17:40:03.350106 120291 net.cpp:380] inception_3a/1x1 -> inception_3a/1x1
I0509 17:40:03.350112 120291 base_conv_layer.cpp:121] Group is 1channel is192number of output is 64
I0509 17:40:03.350193 120291 net.cpp:122] Setting up inception_3a/1x1
I0509 17:40:03.350198 120291 net.cpp:129] Top shape: 10 64 28 28 (501760)
I0509 17:40:03.350199 120291 net.cpp:137] Memory required for data: 206725120
I0509 17:40:03.350204 120291 layer_factory.hpp:77] Creating layer inception_3a/relu_1x1
I0509 17:40:03.350208 120291 net.cpp:84] Creating Layer inception_3a/relu_1x1
I0509 17:40:03.350211 120291 net.cpp:406] inception_3a/relu_1x1 <- inception_3a/1x1
I0509 17:40:03.350216 120291 net.cpp:367] inception_3a/relu_1x1 -> inception_3a/1x1 (in-place)
I0509 17:40:03.350220 120291 net.cpp:122] Setting up inception_3a/relu_1x1
I0509 17:40:03.350224 120291 net.cpp:129] Top shape: 10 64 28 28 (501760)
I0509 17:40:03.350226 120291 net.cpp:137] Memory required for data: 208732160
I0509 17:40:03.350229 120291 layer_factory.hpp:77] Creating layer inception_3a/3x3_reduce
I0509 17:40:03.350235 120291 net.cpp:84] Creating Layer inception_3a/3x3_reduce
I0509 17:40:03.350239 120291 net.cpp:406] inception_3a/3x3_reduce <- pool2/3x3_s2_pool2/3x3_s2_0_split_1
I0509 17:40:03.350242 120291 net.cpp:380] inception_3a/3x3_reduce -> inception_3a/3x3_reduce
I0509 17:40:03.350250 120291 base_conv_layer.cpp:121] Group is 1channel is192number of output is 96
I0509 17:40:03.350373 120291 net.cpp:122] Setting up inception_3a/3x3_reduce
I0509 17:40:03.350378 120291 net.cpp:129] Top shape: 10 96 28 28 (752640)
I0509 17:40:03.350379 120291 net.cpp:137] Memory required for data: 211742720
I0509 17:40:03.350386 120291 layer_factory.hpp:77] Creating layer inception_3a/relu_3x3_reduce
I0509 17:40:03.350390 120291 net.cpp:84] Creating Layer inception_3a/relu_3x3_reduce
I0509 17:40:03.350394 120291 net.cpp:406] inception_3a/relu_3x3_reduce <- inception_3a/3x3_reduce
I0509 17:40:03.350399 120291 net.cpp:367] inception_3a/relu_3x3_reduce -> inception_3a/3x3_reduce (in-place)
I0509 17:40:03.350402 120291 net.cpp:122] Setting up inception_3a/relu_3x3_reduce
I0509 17:40:03.350406 120291 net.cpp:129] Top shape: 10 96 28 28 (752640)
I0509 17:40:03.350409 120291 net.cpp:137] Memory required for data: 214753280
I0509 17:40:03.350411 120291 layer_factory.hpp:77] Creating layer inception_3a/3x3
I0509 17:40:03.350420 120291 net.cpp:84] Creating Layer inception_3a/3x3
I0509 17:40:03.350424 120291 net.cpp:406] inception_3a/3x3 <- inception_3a/3x3_reduce
I0509 17:40:03.350428 120291 net.cpp:380] inception_3a/3x3 -> inception_3a/3x3
I0509 17:40:03.350435 120291 base_conv_layer.cpp:121] Group is 1channel is96number of output is 128
I0509 17:40:03.351095 120291 net.cpp:122] Setting up inception_3a/3x3
I0509 17:40:03.351101 120291 net.cpp:129] Top shape: 10 128 28 28 (1003520)
I0509 17:40:03.351106 120291 net.cpp:137] Memory required for data: 218767360
I0509 17:40:03.351111 120291 layer_factory.hpp:77] Creating layer inception_3a/relu_3x3
I0509 17:40:03.351114 120291 net.cpp:84] Creating Layer inception_3a/relu_3x3
I0509 17:40:03.351117 120291 net.cpp:406] inception_3a/relu_3x3 <- inception_3a/3x3
I0509 17:40:03.351122 120291 net.cpp:367] inception_3a/relu_3x3 -> inception_3a/3x3 (in-place)
I0509 17:40:03.351127 120291 net.cpp:122] Setting up inception_3a/relu_3x3
I0509 17:40:03.351130 120291 net.cpp:129] Top shape: 10 128 28 28 (1003520)
I0509 17:40:03.351132 120291 net.cpp:137] Memory required for data: 222781440
I0509 17:40:03.351135 120291 layer_factory.hpp:77] Creating layer inception_3a/5x5_reduce
I0509 17:40:03.351141 120291 net.cpp:84] Creating Layer inception_3a/5x5_reduce
I0509 17:40:03.351145 120291 net.cpp:406] inception_3a/5x5_reduce <- pool2/3x3_s2_pool2/3x3_s2_0_split_2
I0509 17:40:03.351150 120291 net.cpp:380] inception_3a/5x5_reduce -> inception_3a/5x5_reduce
I0509 17:40:03.351156 120291 base_conv_layer.cpp:121] Group is 1channel is192number of output is 16
I0509 17:40:03.351189 120291 net.cpp:122] Setting up inception_3a/5x5_reduce
I0509 17:40:03.351193 120291 net.cpp:129] Top shape: 10 16 28 28 (125440)
I0509 17:40:03.351196 120291 net.cpp:137] Memory required for data: 223283200
I0509 17:40:03.351200 120291 layer_factory.hpp:77] Creating layer inception_3a/relu_5x5_reduce
I0509 17:40:03.351204 120291 net.cpp:84] Creating Layer inception_3a/relu_5x5_reduce
I0509 17:40:03.351207 120291 net.cpp:406] inception_3a/relu_5x5_reduce <- inception_3a/5x5_reduce
I0509 17:40:03.351210 120291 net.cpp:367] inception_3a/relu_5x5_reduce -> inception_3a/5x5_reduce (in-place)
I0509 17:40:03.351215 120291 net.cpp:122] Setting up inception_3a/relu_5x5_reduce
I0509 17:40:03.351218 120291 net.cpp:129] Top shape: 10 16 28 28 (125440)
I0509 17:40:03.351220 120291 net.cpp:137] Memory required for data: 223784960
I0509 17:40:03.351223 120291 layer_factory.hpp:77] Creating layer inception_3a/5x5
I0509 17:40:03.351229 120291 net.cpp:84] Creating Layer inception_3a/5x5
I0509 17:40:03.351231 120291 net.cpp:406] inception_3a/5x5 <- inception_3a/5x5_reduce
I0509 17:40:03.351238 120291 net.cpp:380] inception_3a/5x5 -> inception_3a/5x5
I0509 17:40:03.351245 120291 base_conv_layer.cpp:121] Group is 1channel is16number of output is 32
I0509 17:40:03.351328 120291 net.cpp:122] Setting up inception_3a/5x5
I0509 17:40:03.351333 120291 net.cpp:129] Top shape: 10 32 28 28 (250880)
I0509 17:40:03.351336 120291 net.cpp:137] Memory required for data: 224788480
I0509 17:40:03.351341 120291 layer_factory.hpp:77] Creating layer inception_3a/relu_5x5
I0509 17:40:03.351344 120291 net.cpp:84] Creating Layer inception_3a/relu_5x5
I0509 17:40:03.351347 120291 net.cpp:406] inception_3a/relu_5x5 <- inception_3a/5x5
I0509 17:40:03.351351 120291 net.cpp:367] inception_3a/relu_5x5 -> inception_3a/5x5 (in-place)
I0509 17:40:03.351354 120291 net.cpp:122] Setting up inception_3a/relu_5x5
I0509 17:40:03.351358 120291 net.cpp:129] Top shape: 10 32 28 28 (250880)
I0509 17:40:03.351361 120291 net.cpp:137] Memory required for data: 225792000
I0509 17:40:03.351363 120291 layer_factory.hpp:77] Creating layer inception_3a/pool
I0509 17:40:03.351366 120291 net.cpp:84] Creating Layer inception_3a/pool
I0509 17:40:03.351369 120291 net.cpp:406] inception_3a/pool <- pool2/3x3_s2_pool2/3x3_s2_0_split_3
I0509 17:40:03.351374 120291 net.cpp:380] inception_3a/pool -> inception_3a/pool
I0509 17:40:03.351380 120291 net.cpp:122] Setting up inception_3a/pool
I0509 17:40:03.351385 120291 net.cpp:129] Top shape: 10 192 28 28 (1505280)
I0509 17:40:03.351387 120291 net.cpp:137] Memory required for data: 231813120
I0509 17:40:03.351390 120291 layer_factory.hpp:77] Creating layer inception_3a/pool_proj
I0509 17:40:03.351395 120291 net.cpp:84] Creating Layer inception_3a/pool_proj
I0509 17:40:03.351397 120291 net.cpp:406] inception_3a/pool_proj <- inception_3a/pool
I0509 17:40:03.351403 120291 net.cpp:380] inception_3a/pool_proj -> inception_3a/pool_proj
I0509 17:40:03.351413 120291 base_conv_layer.cpp:121] Group is 1channel is192number of output is 32
I0509 17:40:03.351459 120291 net.cpp:122] Setting up inception_3a/pool_proj
I0509 17:40:03.351464 120291 net.cpp:129] Top shape: 10 32 28 28 (250880)
I0509 17:40:03.351466 120291 net.cpp:137] Memory required for data: 232816640
I0509 17:40:03.351475 120291 layer_factory.hpp:77] Creating layer inception_3a/relu_pool_proj
I0509 17:40:03.351477 120291 net.cpp:84] Creating Layer inception_3a/relu_pool_proj
I0509 17:40:03.351480 120291 net.cpp:406] inception_3a/relu_pool_proj <- inception_3a/pool_proj
I0509 17:40:03.351485 120291 net.cpp:367] inception_3a/relu_pool_proj -> inception_3a/pool_proj (in-place)
I0509 17:40:03.351490 120291 net.cpp:122] Setting up inception_3a/relu_pool_proj
I0509 17:40:03.351493 120291 net.cpp:129] Top shape: 10 32 28 28 (250880)
I0509 17:40:03.351495 120291 net.cpp:137] Memory required for data: 233820160
I0509 17:40:03.351498 120291 layer_factory.hpp:77] Creating layer inception_3a/output
I0509 17:40:03.351502 120291 net.cpp:84] Creating Layer inception_3a/output
I0509 17:40:03.351505 120291 net.cpp:406] inception_3a/output <- inception_3a/1x1
I0509 17:40:03.351508 120291 net.cpp:406] inception_3a/output <- inception_3a/3x3
I0509 17:40:03.351511 120291 net.cpp:406] inception_3a/output <- inception_3a/5x5
I0509 17:40:03.351514 120291 net.cpp:406] inception_3a/output <- inception_3a/pool_proj
I0509 17:40:03.351518 120291 net.cpp:380] inception_3a/output -> inception_3a/output
I0509 17:40:03.351526 120291 net.cpp:122] Setting up inception_3a/output
I0509 17:40:03.351529 120291 net.cpp:129] Top shape: 10 256 28 28 (2007040)
I0509 17:40:03.351531 120291 net.cpp:137] Memory required for data: 241848320
I0509 17:40:03.351534 120291 layer_factory.hpp:77] Creating layer inception_3a/output_inception_3a/output_0_split
I0509 17:40:03.351538 120291 net.cpp:84] Creating Layer inception_3a/output_inception_3a/output_0_split
I0509 17:40:03.351541 120291 net.cpp:406] inception_3a/output_inception_3a/output_0_split <- inception_3a/output
I0509 17:40:03.351549 120291 net.cpp:380] inception_3a/output_inception_3a/output_0_split -> inception_3a/output_inception_3a/output_0_split_0
I0509 17:40:03.351554 120291 net.cpp:380] inception_3a/output_inception_3a/output_0_split -> inception_3a/output_inception_3a/output_0_split_1
I0509 17:40:03.351559 120291 net.cpp:380] inception_3a/output_inception_3a/output_0_split -> inception_3a/output_inception_3a/output_0_split_2
I0509 17:40:03.351564 120291 net.cpp:380] inception_3a/output_inception_3a/output_0_split -> inception_3a/output_inception_3a/output_0_split_3
I0509 17:40:03.351572 120291 net.cpp:122] Setting up inception_3a/output_inception_3a/output_0_split
I0509 17:40:03.351574 120291 net.cpp:129] Top shape: 10 256 28 28 (2007040)
I0509 17:40:03.351578 120291 net.cpp:129] Top shape: 10 256 28 28 (2007040)
I0509 17:40:03.351582 120291 net.cpp:129] Top shape: 10 256 28 28 (2007040)
I0509 17:40:03.351584 120291 net.cpp:129] Top shape: 10 256 28 28 (2007040)
I0509 17:40:03.351588 120291 net.cpp:137] Memory required for data: 273960960
I0509 17:40:03.351589 120291 layer_factory.hpp:77] Creating layer inception_3b/1x1
I0509 17:40:03.351595 120291 net.cpp:84] Creating Layer inception_3b/1x1
I0509 17:40:03.351598 120291 net.cpp:406] inception_3b/1x1 <- inception_3a/output_inception_3a/output_0_split_0
I0509 17:40:03.351603 120291 net.cpp:380] inception_3b/1x1 -> inception_3b/1x1
I0509 17:40:03.351610 120291 base_conv_layer.cpp:121] Group is 1channel is256number of output is 128
I0509 17:40:03.351815 120291 net.cpp:122] Setting up inception_3b/1x1
I0509 17:40:03.351820 120291 net.cpp:129] Top shape: 10 128 28 28 (1003520)
I0509 17:40:03.351824 120291 net.cpp:137] Memory required for data: 277975040
I0509 17:40:03.351827 120291 layer_factory.hpp:77] Creating layer inception_3b/relu_1x1
I0509 17:40:03.351831 120291 net.cpp:84] Creating Layer inception_3b/relu_1x1
I0509 17:40:03.351835 120291 net.cpp:406] inception_3b/relu_1x1 <- inception_3b/1x1
I0509 17:40:03.351842 120291 net.cpp:367] inception_3b/relu_1x1 -> inception_3b/1x1 (in-place)
I0509 17:40:03.351846 120291 net.cpp:122] Setting up inception_3b/relu_1x1
I0509 17:40:03.351850 120291 net.cpp:129] Top shape: 10 128 28 28 (1003520)
I0509 17:40:03.351853 120291 net.cpp:137] Memory required for data: 281989120
I0509 17:40:03.351855 120291 layer_factory.hpp:77] Creating layer inception_3b/3x3_reduce
I0509 17:40:03.351861 120291 net.cpp:84] Creating Layer inception_3b/3x3_reduce
I0509 17:40:03.351864 120291 net.cpp:406] inception_3b/3x3_reduce <- inception_3a/output_inception_3a/output_0_split_1
I0509 17:40:03.351869 120291 net.cpp:380] inception_3b/3x3_reduce -> inception_3b/3x3_reduce
I0509 17:40:03.351876 120291 base_conv_layer.cpp:121] Group is 1channel is256number of output is 128
I0509 17:40:03.352111 120291 net.cpp:122] Setting up inception_3b/3x3_reduce
I0509 17:40:03.352119 120291 net.cpp:129] Top shape: 10 128 28 28 (1003520)
I0509 17:40:03.352123 120291 net.cpp:137] Memory required for data: 286003200
I0509 17:40:03.352128 120291 layer_factory.hpp:77] Creating layer inception_3b/relu_3x3_reduce
I0509 17:40:03.352133 120291 net.cpp:84] Creating Layer inception_3b/relu_3x3_reduce
I0509 17:40:03.352135 120291 net.cpp:406] inception_3b/relu_3x3_reduce <- inception_3b/3x3_reduce
I0509 17:40:03.352140 120291 net.cpp:367] inception_3b/relu_3x3_reduce -> inception_3b/3x3_reduce (in-place)
I0509 17:40:03.352144 120291 net.cpp:122] Setting up inception_3b/relu_3x3_reduce
I0509 17:40:03.352149 120291 net.cpp:129] Top shape: 10 128 28 28 (1003520)
I0509 17:40:03.352151 120291 net.cpp:137] Memory required for data: 290017280
I0509 17:40:03.352154 120291 layer_factory.hpp:77] Creating layer inception_3b/3x3
I0509 17:40:03.352161 120291 net.cpp:84] Creating Layer inception_3b/3x3
I0509 17:40:03.352164 120291 net.cpp:406] inception_3b/3x3 <- inception_3b/3x3_reduce
I0509 17:40:03.352171 120291 net.cpp:380] inception_3b/3x3 -> inception_3b/3x3
I0509 17:40:03.352179 120291 base_conv_layer.cpp:121] Group is 1channel is128number of output is 192
I0509 17:40:03.353554 120291 net.cpp:122] Setting up inception_3b/3x3
I0509 17:40:03.353559 120291 net.cpp:129] Top shape: 10 192 28 28 (1505280)
I0509 17:40:03.353560 120291 net.cpp:137] Memory required for data: 296038400
I0509 17:40:03.353565 120291 layer_factory.hpp:77] Creating layer inception_3b/relu_3x3
I0509 17:40:03.353574 120291 net.cpp:84] Creating Layer inception_3b/relu_3x3
I0509 17:40:03.353577 120291 net.cpp:406] inception_3b/relu_3x3 <- inception_3b/3x3
I0509 17:40:03.353581 120291 net.cpp:367] inception_3b/relu_3x3 -> inception_3b/3x3 (in-place)
I0509 17:40:03.353585 120291 net.cpp:122] Setting up inception_3b/relu_3x3
I0509 17:40:03.353590 120291 net.cpp:129] Top shape: 10 192 28 28 (1505280)
I0509 17:40:03.353591 120291 net.cpp:137] Memory required for data: 302059520
I0509 17:40:03.353595 120291 layer_factory.hpp:77] Creating layer inception_3b/5x5_reduce
I0509 17:40:03.353600 120291 net.cpp:84] Creating Layer inception_3b/5x5_reduce
I0509 17:40:03.353603 120291 net.cpp:406] inception_3b/5x5_reduce <- inception_3a/output_inception_3a/output_0_split_2
I0509 17:40:03.353607 120291 net.cpp:380] inception_3b/5x5_reduce -> inception_3b/5x5_reduce
I0509 17:40:03.353615 120291 base_conv_layer.cpp:121] Group is 1channel is256number of output is 32
I0509 17:40:03.353669 120291 net.cpp:122] Setting up inception_3b/5x5_reduce
I0509 17:40:03.353674 120291 net.cpp:129] Top shape: 10 32 28 28 (250880)
I0509 17:40:03.353677 120291 net.cpp:137] Memory required for data: 303063040
I0509 17:40:03.353682 120291 layer_factory.hpp:77] Creating layer inception_3b/relu_5x5_reduce
I0509 17:40:03.353685 120291 net.cpp:84] Creating Layer inception_3b/relu_5x5_reduce
I0509 17:40:03.353688 120291 net.cpp:406] inception_3b/relu_5x5_reduce <- inception_3b/5x5_reduce
I0509 17:40:03.353691 120291 net.cpp:367] inception_3b/relu_5x5_reduce -> inception_3b/5x5_reduce (in-place)
I0509 17:40:03.353695 120291 net.cpp:122] Setting up inception_3b/relu_5x5_reduce
I0509 17:40:03.353699 120291 net.cpp:129] Top shape: 10 32 28 28 (250880)
I0509 17:40:03.353704 120291 net.cpp:137] Memory required for data: 304066560
I0509 17:40:03.353708 120291 layer_factory.hpp:77] Creating layer inception_3b/5x5
I0509 17:40:03.353713 120291 net.cpp:84] Creating Layer inception_3b/5x5
I0509 17:40:03.353716 120291 net.cpp:406] inception_3b/5x5 <- inception_3b/5x5_reduce
I0509 17:40:03.353721 120291 net.cpp:380] inception_3b/5x5 -> inception_3b/5x5
I0509 17:40:03.353727 120291 base_conv_layer.cpp:121] Group is 1channel is32number of output is 96
I0509 17:40:03.354193 120291 net.cpp:122] Setting up inception_3b/5x5
I0509 17:40:03.354198 120291 net.cpp:129] Top shape: 10 96 28 28 (752640)
I0509 17:40:03.354202 120291 net.cpp:137] Memory required for data: 307077120
I0509 17:40:03.354205 120291 layer_factory.hpp:77] Creating layer inception_3b/relu_5x5
I0509 17:40:03.354209 120291 net.cpp:84] Creating Layer inception_3b/relu_5x5
I0509 17:40:03.354213 120291 net.cpp:406] inception_3b/relu_5x5 <- inception_3b/5x5
I0509 17:40:03.354216 120291 net.cpp:367] inception_3b/relu_5x5 -> inception_3b/5x5 (in-place)
I0509 17:40:03.354220 120291 net.cpp:122] Setting up inception_3b/relu_5x5
I0509 17:40:03.354224 120291 net.cpp:129] Top shape: 10 96 28 28 (752640)
I0509 17:40:03.354226 120291 net.cpp:137] Memory required for data: 310087680
I0509 17:40:03.354229 120291 layer_factory.hpp:77] Creating layer inception_3b/pool
I0509 17:40:03.354233 120291 net.cpp:84] Creating Layer inception_3b/pool
I0509 17:40:03.354236 120291 net.cpp:406] inception_3b/pool <- inception_3a/output_inception_3a/output_0_split_3
I0509 17:40:03.354240 120291 net.cpp:380] inception_3b/pool -> inception_3b/pool
I0509 17:40:03.354248 120291 net.cpp:122] Setting up inception_3b/pool
I0509 17:40:03.354250 120291 net.cpp:129] Top shape: 10 256 28 28 (2007040)
I0509 17:40:03.354254 120291 net.cpp:137] Memory required for data: 318115840
I0509 17:40:03.354255 120291 layer_factory.hpp:77] Creating layer inception_3b/pool_proj
I0509 17:40:03.354261 120291 net.cpp:84] Creating Layer inception_3b/pool_proj
I0509 17:40:03.354264 120291 net.cpp:406] inception_3b/pool_proj <- inception_3b/pool
I0509 17:40:03.354270 120291 net.cpp:380] inception_3b/pool_proj -> inception_3b/pool_proj
I0509 17:40:03.354276 120291 base_conv_layer.cpp:121] Group is 1channel is256number of output is 64
I0509 17:40:03.354382 120291 net.cpp:122] Setting up inception_3b/pool_proj
I0509 17:40:03.354387 120291 net.cpp:129] Top shape: 10 64 28 28 (501760)
I0509 17:40:03.354389 120291 net.cpp:137] Memory required for data: 320122880
I0509 17:40:03.354393 120291 layer_factory.hpp:77] Creating layer inception_3b/relu_pool_proj
I0509 17:40:03.354396 120291 net.cpp:84] Creating Layer inception_3b/relu_pool_proj
I0509 17:40:03.354399 120291 net.cpp:406] inception_3b/relu_pool_proj <- inception_3b/pool_proj
I0509 17:40:03.354404 120291 net.cpp:367] inception_3b/relu_pool_proj -> inception_3b/pool_proj (in-place)
I0509 17:40:03.354408 120291 net.cpp:122] Setting up inception_3b/relu_pool_proj
I0509 17:40:03.354413 120291 net.cpp:129] Top shape: 10 64 28 28 (501760)
I0509 17:40:03.354414 120291 net.cpp:137] Memory required for data: 322129920
I0509 17:40:03.354418 120291 layer_factory.hpp:77] Creating layer inception_3b/output
I0509 17:40:03.354421 120291 net.cpp:84] Creating Layer inception_3b/output
I0509 17:40:03.354423 120291 net.cpp:406] inception_3b/output <- inception_3b/1x1
I0509 17:40:03.354426 120291 net.cpp:406] inception_3b/output <- inception_3b/3x3
I0509 17:40:03.354429 120291 net.cpp:406] inception_3b/output <- inception_3b/5x5
I0509 17:40:03.354432 120291 net.cpp:406] inception_3b/output <- inception_3b/pool_proj
I0509 17:40:03.354437 120291 net.cpp:380] inception_3b/output -> inception_3b/output
I0509 17:40:03.354444 120291 net.cpp:122] Setting up inception_3b/output
I0509 17:40:03.354447 120291 net.cpp:129] Top shape: 10 480 28 28 (3763200)
I0509 17:40:03.354449 120291 net.cpp:137] Memory required for data: 337182720
I0509 17:40:03.354451 120291 layer_factory.hpp:77] Creating layer pool3/3x3_s2
I0509 17:40:03.354455 120291 net.cpp:84] Creating Layer pool3/3x3_s2
I0509 17:40:03.354461 120291 net.cpp:406] pool3/3x3_s2 <- inception_3b/output
I0509 17:40:03.354465 120291 net.cpp:380] pool3/3x3_s2 -> pool3/3x3_s2
I0509 17:40:03.354480 120291 net.cpp:122] Setting up pool3/3x3_s2
I0509 17:40:03.354485 120291 net.cpp:129] Top shape: 10 480 14 14 (940800)
I0509 17:40:03.354487 120291 net.cpp:137] Memory required for data: 340945920
I0509 17:40:03.354490 120291 layer_factory.hpp:77] Creating layer pool3/3x3_s2_pool3/3x3_s2_0_split
I0509 17:40:03.354493 120291 net.cpp:84] Creating Layer pool3/3x3_s2_pool3/3x3_s2_0_split
I0509 17:40:03.354496 120291 net.cpp:406] pool3/3x3_s2_pool3/3x3_s2_0_split <- pool3/3x3_s2
I0509 17:40:03.354501 120291 net.cpp:380] pool3/3x3_s2_pool3/3x3_s2_0_split -> pool3/3x3_s2_pool3/3x3_s2_0_split_0
I0509 17:40:03.354506 120291 net.cpp:380] pool3/3x3_s2_pool3/3x3_s2_0_split -> pool3/3x3_s2_pool3/3x3_s2_0_split_1
I0509 17:40:03.354511 120291 net.cpp:380] pool3/3x3_s2_pool3/3x3_s2_0_split -> pool3/3x3_s2_pool3/3x3_s2_0_split_2
I0509 17:40:03.354516 120291 net.cpp:380] pool3/3x3_s2_pool3/3x3_s2_0_split -> pool3/3x3_s2_pool3/3x3_s2_0_split_3
I0509 17:40:03.354521 120291 net.cpp:122] Setting up pool3/3x3_s2_pool3/3x3_s2_0_split
I0509 17:40:03.354526 120291 net.cpp:129] Top shape: 10 480 14 14 (940800)
I0509 17:40:03.354529 120291 net.cpp:129] Top shape: 10 480 14 14 (940800)
I0509 17:40:03.354533 120291 net.cpp:129] Top shape: 10 480 14 14 (940800)
I0509 17:40:03.354537 120291 net.cpp:129] Top shape: 10 480 14 14 (940800)
I0509 17:40:03.354538 120291 net.cpp:137] Memory required for data: 355998720
I0509 17:40:03.354542 120291 layer_factory.hpp:77] Creating layer inception_4a/1x1
I0509 17:40:03.354547 120291 net.cpp:84] Creating Layer inception_4a/1x1
I0509 17:40:03.354550 120291 net.cpp:406] inception_4a/1x1 <- pool3/3x3_s2_pool3/3x3_s2_0_split_0
I0509 17:40:03.354554 120291 net.cpp:380] inception_4a/1x1 -> inception_4a/1x1
I0509 17:40:03.354562 120291 base_conv_layer.cpp:121] Group is 1channel is480number of output is 192
I0509 17:40:03.355109 120291 net.cpp:122] Setting up inception_4a/1x1
I0509 17:40:03.355114 120291 net.cpp:129] Top shape: 10 192 14 14 (376320)
I0509 17:40:03.355116 120291 net.cpp:137] Memory required for data: 357504000
I0509 17:40:03.355120 120291 layer_factory.hpp:77] Creating layer inception_4a/relu_1x1
I0509 17:40:03.355124 120291 net.cpp:84] Creating Layer inception_4a/relu_1x1
I0509 17:40:03.355128 120291 net.cpp:406] inception_4a/relu_1x1 <- inception_4a/1x1
I0509 17:40:03.355131 120291 net.cpp:367] inception_4a/relu_1x1 -> inception_4a/1x1 (in-place)
I0509 17:40:03.355135 120291 net.cpp:122] Setting up inception_4a/relu_1x1
I0509 17:40:03.355139 120291 net.cpp:129] Top shape: 10 192 14 14 (376320)
I0509 17:40:03.355141 120291 net.cpp:137] Memory required for data: 359009280
I0509 17:40:03.355144 120291 layer_factory.hpp:77] Creating layer inception_4a/3x3_reduce
I0509 17:40:03.355149 120291 net.cpp:84] Creating Layer inception_4a/3x3_reduce
I0509 17:40:03.355152 120291 net.cpp:406] inception_4a/3x3_reduce <- pool3/3x3_s2_pool3/3x3_s2_0_split_1
I0509 17:40:03.355161 120291 net.cpp:380] inception_4a/3x3_reduce -> inception_4a/3x3_reduce
I0509 17:40:03.355168 120291 base_conv_layer.cpp:121] Group is 1channel is480number of output is 96
I0509 17:40:03.355451 120291 net.cpp:122] Setting up inception_4a/3x3_reduce
I0509 17:40:03.355456 120291 net.cpp:129] Top shape: 10 96 14 14 (188160)
I0509 17:40:03.355459 120291 net.cpp:137] Memory required for data: 359761920
I0509 17:40:03.355469 120291 layer_factory.hpp:77] Creating layer inception_4a/relu_3x3_reduce
I0509 17:40:03.355473 120291 net.cpp:84] Creating Layer inception_4a/relu_3x3_reduce
I0509 17:40:03.355475 120291 net.cpp:406] inception_4a/relu_3x3_reduce <- inception_4a/3x3_reduce
I0509 17:40:03.355480 120291 net.cpp:367] inception_4a/relu_3x3_reduce -> inception_4a/3x3_reduce (in-place)
I0509 17:40:03.355484 120291 net.cpp:122] Setting up inception_4a/relu_3x3_reduce
I0509 17:40:03.355489 120291 net.cpp:129] Top shape: 10 96 14 14 (188160)
I0509 17:40:03.355495 120291 net.cpp:137] Memory required for data: 360514560
I0509 17:40:03.355499 120291 layer_factory.hpp:77] Creating layer inception_4a/3x3
I0509 17:40:03.355504 120291 net.cpp:84] Creating Layer inception_4a/3x3
I0509 17:40:03.355507 120291 net.cpp:406] inception_4a/3x3 <- inception_4a/3x3_reduce
I0509 17:40:03.355514 120291 net.cpp:380] inception_4a/3x3 -> inception_4a/3x3
I0509 17:40:03.355520 120291 base_conv_layer.cpp:121] Group is 1channel is96number of output is 208
I0509 17:40:03.356716 120291 net.cpp:122] Setting up inception_4a/3x3
I0509 17:40:03.356724 120291 net.cpp:129] Top shape: 10 208 14 14 (407680)
I0509 17:40:03.356727 120291 net.cpp:137] Memory required for data: 362145280
I0509 17:40:03.356732 120291 layer_factory.hpp:77] Creating layer inception_4a/relu_3x3
I0509 17:40:03.356735 120291 net.cpp:84] Creating Layer inception_4a/relu_3x3
I0509 17:40:03.356739 120291 net.cpp:406] inception_4a/relu_3x3 <- inception_4a/3x3
I0509 17:40:03.356745 120291 net.cpp:367] inception_4a/relu_3x3 -> inception_4a/3x3 (in-place)
I0509 17:40:03.356748 120291 net.cpp:122] Setting up inception_4a/relu_3x3
I0509 17:40:03.356752 120291 net.cpp:129] Top shape: 10 208 14 14 (407680)
I0509 17:40:03.356755 120291 net.cpp:137] Memory required for data: 363776000
I0509 17:40:03.356757 120291 layer_factory.hpp:77] Creating layer inception_4a/5x5_reduce
I0509 17:40:03.356763 120291 net.cpp:84] Creating Layer inception_4a/5x5_reduce
I0509 17:40:03.356766 120291 net.cpp:406] inception_4a/5x5_reduce <- pool3/3x3_s2_pool3/3x3_s2_0_split_2
I0509 17:40:03.356771 120291 net.cpp:380] inception_4a/5x5_reduce -> inception_4a/5x5_reduce
I0509 17:40:03.356779 120291 base_conv_layer.cpp:121] Group is 1channel is480number of output is 16
I0509 17:40:03.356833 120291 net.cpp:122] Setting up inception_4a/5x5_reduce
I0509 17:40:03.356837 120291 net.cpp:129] Top shape: 10 16 14 14 (31360)
I0509 17:40:03.356840 120291 net.cpp:137] Memory required for data: 363901440
I0509 17:40:03.356844 120291 layer_factory.hpp:77] Creating layer inception_4a/relu_5x5_reduce
I0509 17:40:03.356849 120291 net.cpp:84] Creating Layer inception_4a/relu_5x5_reduce
I0509 17:40:03.356853 120291 net.cpp:406] inception_4a/relu_5x5_reduce <- inception_4a/5x5_reduce
I0509 17:40:03.356855 120291 net.cpp:367] inception_4a/relu_5x5_reduce -> inception_4a/5x5_reduce (in-place)
I0509 17:40:03.356859 120291 net.cpp:122] Setting up inception_4a/relu_5x5_reduce
I0509 17:40:03.356863 120291 net.cpp:129] Top shape: 10 16 14 14 (31360)
I0509 17:40:03.356865 120291 net.cpp:137] Memory required for data: 364026880
I0509 17:40:03.356868 120291 layer_factory.hpp:77] Creating layer inception_4a/5x5
I0509 17:40:03.356874 120291 net.cpp:84] Creating Layer inception_4a/5x5
I0509 17:40:03.356876 120291 net.cpp:406] inception_4a/5x5 <- inception_4a/5x5_reduce
I0509 17:40:03.356883 120291 net.cpp:380] inception_4a/5x5 -> inception_4a/5x5
I0509 17:40:03.356889 120291 base_conv_layer.cpp:121] Group is 1channel is16number of output is 48
I0509 17:40:03.357014 120291 net.cpp:122] Setting up inception_4a/5x5
I0509 17:40:03.357019 120291 net.cpp:129] Top shape: 10 48 14 14 (94080)
I0509 17:40:03.357022 120291 net.cpp:137] Memory required for data: 364403200
I0509 17:40:03.357026 120291 layer_factory.hpp:77] Creating layer inception_4a/relu_5x5
I0509 17:40:03.357029 120291 net.cpp:84] Creating Layer inception_4a/relu_5x5
I0509 17:40:03.357033 120291 net.cpp:406] inception_4a/relu_5x5 <- inception_4a/5x5
I0509 17:40:03.357038 120291 net.cpp:367] inception_4a/relu_5x5 -> inception_4a/5x5 (in-place)
I0509 17:40:03.357043 120291 net.cpp:122] Setting up inception_4a/relu_5x5
I0509 17:40:03.357045 120291 net.cpp:129] Top shape: 10 48 14 14 (94080)
I0509 17:40:03.357048 120291 net.cpp:137] Memory required for data: 364779520
I0509 17:40:03.357050 120291 layer_factory.hpp:77] Creating layer inception_4a/pool
I0509 17:40:03.357054 120291 net.cpp:84] Creating Layer inception_4a/pool
I0509 17:40:03.357058 120291 net.cpp:406] inception_4a/pool <- pool3/3x3_s2_pool3/3x3_s2_0_split_3
I0509 17:40:03.357062 120291 net.cpp:380] inception_4a/pool -> inception_4a/pool
I0509 17:40:03.357071 120291 net.cpp:122] Setting up inception_4a/pool
I0509 17:40:03.357075 120291 net.cpp:129] Top shape: 10 480 14 14 (940800)
I0509 17:40:03.357079 120291 net.cpp:137] Memory required for data: 368542720
I0509 17:40:03.357080 120291 layer_factory.hpp:77] Creating layer inception_4a/pool_proj
I0509 17:40:03.357086 120291 net.cpp:84] Creating Layer inception_4a/pool_proj
I0509 17:40:03.357089 120291 net.cpp:406] inception_4a/pool_proj <- inception_4a/pool
I0509 17:40:03.357095 120291 net.cpp:380] inception_4a/pool_proj -> inception_4a/pool_proj
I0509 17:40:03.357101 120291 base_conv_layer.cpp:121] Group is 1channel is480number of output is 64
I0509 17:40:03.357295 120291 net.cpp:122] Setting up inception_4a/pool_proj
I0509 17:40:03.357300 120291 net.cpp:129] Top shape: 10 64 14 14 (125440)
I0509 17:40:03.357302 120291 net.cpp:137] Memory required for data: 369044480
I0509 17:40:03.357306 120291 layer_factory.hpp:77] Creating layer inception_4a/relu_pool_proj
I0509 17:40:03.357311 120291 net.cpp:84] Creating Layer inception_4a/relu_pool_proj
I0509 17:40:03.357313 120291 net.cpp:406] inception_4a/relu_pool_proj <- inception_4a/pool_proj
I0509 17:40:03.357318 120291 net.cpp:367] inception_4a/relu_pool_proj -> inception_4a/pool_proj (in-place)
I0509 17:40:03.357322 120291 net.cpp:122] Setting up inception_4a/relu_pool_proj
I0509 17:40:03.357326 120291 net.cpp:129] Top shape: 10 64 14 14 (125440)
I0509 17:40:03.357328 120291 net.cpp:137] Memory required for data: 369546240
I0509 17:40:03.357331 120291 layer_factory.hpp:77] Creating layer inception_4a/output
I0509 17:40:03.357336 120291 net.cpp:84] Creating Layer inception_4a/output
I0509 17:40:03.357337 120291 net.cpp:406] inception_4a/output <- inception_4a/1x1
I0509 17:40:03.357341 120291 net.cpp:406] inception_4a/output <- inception_4a/3x3
I0509 17:40:03.357343 120291 net.cpp:406] inception_4a/output <- inception_4a/5x5
I0509 17:40:03.357347 120291 net.cpp:406] inception_4a/output <- inception_4a/pool_proj
I0509 17:40:03.357352 120291 net.cpp:380] inception_4a/output -> inception_4a/output
I0509 17:40:03.357357 120291 net.cpp:122] Setting up inception_4a/output
I0509 17:40:03.357362 120291 net.cpp:129] Top shape: 10 512 14 14 (1003520)
I0509 17:40:03.357364 120291 net.cpp:137] Memory required for data: 373560320
I0509 17:40:03.357367 120291 layer_factory.hpp:77] Creating layer inception_4a/output_inception_4a/output_0_split
I0509 17:40:03.357370 120291 net.cpp:84] Creating Layer inception_4a/output_inception_4a/output_0_split
I0509 17:40:03.357372 120291 net.cpp:406] inception_4a/output_inception_4a/output_0_split <- inception_4a/output
I0509 17:40:03.357378 120291 net.cpp:380] inception_4a/output_inception_4a/output_0_split -> inception_4a/output_inception_4a/output_0_split_0
I0509 17:40:03.357383 120291 net.cpp:380] inception_4a/output_inception_4a/output_0_split -> inception_4a/output_inception_4a/output_0_split_1
I0509 17:40:03.357388 120291 net.cpp:380] inception_4a/output_inception_4a/output_0_split -> inception_4a/output_inception_4a/output_0_split_2
I0509 17:40:03.357393 120291 net.cpp:380] inception_4a/output_inception_4a/output_0_split -> inception_4a/output_inception_4a/output_0_split_3
I0509 17:40:03.357400 120291 net.cpp:122] Setting up inception_4a/output_inception_4a/output_0_split
I0509 17:40:03.357404 120291 net.cpp:129] Top shape: 10 512 14 14 (1003520)
I0509 17:40:03.357408 120291 net.cpp:129] Top shape: 10 512 14 14 (1003520)
I0509 17:40:03.357410 120291 net.cpp:129] Top shape: 10 512 14 14 (1003520)
I0509 17:40:03.357414 120291 net.cpp:129] Top shape: 10 512 14 14 (1003520)
I0509 17:40:03.357416 120291 net.cpp:137] Memory required for data: 389616640
I0509 17:40:03.357419 120291 layer_factory.hpp:77] Creating layer inception_4b/1x1
I0509 17:40:03.357424 120291 net.cpp:84] Creating Layer inception_4b/1x1
I0509 17:40:03.357427 120291 net.cpp:406] inception_4b/1x1 <- inception_4a/output_inception_4a/output_0_split_0
I0509 17:40:03.357434 120291 net.cpp:380] inception_4b/1x1 -> inception_4b/1x1
I0509 17:40:03.357442 120291 base_conv_layer.cpp:121] Group is 1channel is512number of output is 160
I0509 17:40:03.357938 120291 net.cpp:122] Setting up inception_4b/1x1
I0509 17:40:03.357942 120291 net.cpp:129] Top shape: 10 160 14 14 (313600)
I0509 17:40:03.357945 120291 net.cpp:137] Memory required for data: 390871040
I0509 17:40:03.357949 120291 layer_factory.hpp:77] Creating layer inception_4b/relu_1x1
I0509 17:40:03.357954 120291 net.cpp:84] Creating Layer inception_4b/relu_1x1
I0509 17:40:03.357956 120291 net.cpp:406] inception_4b/relu_1x1 <- inception_4b/1x1
I0509 17:40:03.357961 120291 net.cpp:367] inception_4b/relu_1x1 -> inception_4b/1x1 (in-place)
I0509 17:40:03.357965 120291 net.cpp:122] Setting up inception_4b/relu_1x1
I0509 17:40:03.357969 120291 net.cpp:129] Top shape: 10 160 14 14 (313600)
I0509 17:40:03.357971 120291 net.cpp:137] Memory required for data: 392125440
I0509 17:40:03.357975 120291 layer_factory.hpp:77] Creating layer inception_4b/3x3_reduce
I0509 17:40:03.357980 120291 net.cpp:84] Creating Layer inception_4b/3x3_reduce
I0509 17:40:03.357982 120291 net.cpp:406] inception_4b/3x3_reduce <- inception_4a/output_inception_4a/output_0_split_1
I0509 17:40:03.357987 120291 net.cpp:380] inception_4b/3x3_reduce -> inception_4b/3x3_reduce
I0509 17:40:03.357995 120291 base_conv_layer.cpp:121] Group is 1channel is512number of output is 112
I0509 17:40:03.358341 120291 net.cpp:122] Setting up inception_4b/3x3_reduce
I0509 17:40:03.358346 120291 net.cpp:129] Top shape: 10 112 14 14 (219520)
I0509 17:40:03.358350 120291 net.cpp:137] Memory required for data: 393003520
I0509 17:40:03.358353 120291 layer_factory.hpp:77] Creating layer inception_4b/relu_3x3_reduce
I0509 17:40:03.358358 120291 net.cpp:84] Creating Layer inception_4b/relu_3x3_reduce
I0509 17:40:03.358361 120291 net.cpp:406] inception_4b/relu_3x3_reduce <- inception_4b/3x3_reduce
I0509 17:40:03.358366 120291 net.cpp:367] inception_4b/relu_3x3_reduce -> inception_4b/3x3_reduce (in-place)
I0509 17:40:03.358369 120291 net.cpp:122] Setting up inception_4b/relu_3x3_reduce
I0509 17:40:03.358372 120291 net.cpp:129] Top shape: 10 112 14 14 (219520)
I0509 17:40:03.358376 120291 net.cpp:137] Memory required for data: 393881600
I0509 17:40:03.358377 120291 layer_factory.hpp:77] Creating layer inception_4b/3x3
I0509 17:40:03.358386 120291 net.cpp:84] Creating Layer inception_4b/3x3
I0509 17:40:03.358389 120291 net.cpp:406] inception_4b/3x3 <- inception_4b/3x3_reduce
I0509 17:40:03.358395 120291 net.cpp:380] inception_4b/3x3 -> inception_4b/3x3
I0509 17:40:03.358402 120291 base_conv_layer.cpp:121] Group is 1channel is112number of output is 224
I0509 17:40:03.359741 120291 net.cpp:122] Setting up inception_4b/3x3
I0509 17:40:03.359746 120291 net.cpp:129] Top shape: 10 224 14 14 (439040)
I0509 17:40:03.359748 120291 net.cpp:137] Memory required for data: 395637760
I0509 17:40:03.359753 120291 layer_factory.hpp:77] Creating layer inception_4b/relu_3x3
I0509 17:40:03.359757 120291 net.cpp:84] Creating Layer inception_4b/relu_3x3
I0509 17:40:03.359760 120291 net.cpp:406] inception_4b/relu_3x3 <- inception_4b/3x3
I0509 17:40:03.359764 120291 net.cpp:367] inception_4b/relu_3x3 -> inception_4b/3x3 (in-place)
I0509 17:40:03.359769 120291 net.cpp:122] Setting up inception_4b/relu_3x3
I0509 17:40:03.359772 120291 net.cpp:129] Top shape: 10 224 14 14 (439040)
I0509 17:40:03.359776 120291 net.cpp:137] Memory required for data: 397393920
I0509 17:40:03.359777 120291 layer_factory.hpp:77] Creating layer inception_4b/5x5_reduce
I0509 17:40:03.359793 120291 net.cpp:84] Creating Layer inception_4b/5x5_reduce
I0509 17:40:03.359797 120291 net.cpp:406] inception_4b/5x5_reduce <- inception_4a/output_inception_4a/output_0_split_2
I0509 17:40:03.359800 120291 net.cpp:380] inception_4b/5x5_reduce -> inception_4b/5x5_reduce
I0509 17:40:03.359807 120291 base_conv_layer.cpp:121] Group is 1channel is512number of output is 24
I0509 17:40:03.359886 120291 net.cpp:122] Setting up inception_4b/5x5_reduce
I0509 17:40:03.359890 120291 net.cpp:129] Top shape: 10 24 14 14 (47040)
I0509 17:40:03.359895 120291 net.cpp:137] Memory required for data: 397582080
I0509 17:40:03.359900 120291 layer_factory.hpp:77] Creating layer inception_4b/relu_5x5_reduce
I0509 17:40:03.359905 120291 net.cpp:84] Creating Layer inception_4b/relu_5x5_reduce
I0509 17:40:03.359907 120291 net.cpp:406] inception_4b/relu_5x5_reduce <- inception_4b/5x5_reduce
I0509 17:40:03.359911 120291 net.cpp:367] inception_4b/relu_5x5_reduce -> inception_4b/5x5_reduce (in-place)
I0509 17:40:03.359915 120291 net.cpp:122] Setting up inception_4b/relu_5x5_reduce
I0509 17:40:03.359920 120291 net.cpp:129] Top shape: 10 24 14 14 (47040)
I0509 17:40:03.359922 120291 net.cpp:137] Memory required for data: 397770240
I0509 17:40:03.359925 120291 layer_factory.hpp:77] Creating layer inception_4b/5x5
I0509 17:40:03.359930 120291 net.cpp:84] Creating Layer inception_4b/5x5
I0509 17:40:03.359932 120291 net.cpp:406] inception_4b/5x5 <- inception_4b/5x5_reduce
I0509 17:40:03.359937 120291 net.cpp:380] inception_4b/5x5 -> inception_4b/5x5
I0509 17:40:03.359944 120291 base_conv_layer.cpp:121] Group is 1channel is24number of output is 64
I0509 17:40:03.360219 120291 net.cpp:122] Setting up inception_4b/5x5
I0509 17:40:03.360225 120291 net.cpp:129] Top shape: 10 64 14 14 (125440)
I0509 17:40:03.360229 120291 net.cpp:137] Memory required for data: 398272000
I0509 17:40:03.360234 120291 layer_factory.hpp:77] Creating layer inception_4b/relu_5x5
I0509 17:40:03.360239 120291 net.cpp:84] Creating Layer inception_4b/relu_5x5
I0509 17:40:03.360242 120291 net.cpp:406] inception_4b/relu_5x5 <- inception_4b/5x5
I0509 17:40:03.360246 120291 net.cpp:367] inception_4b/relu_5x5 -> inception_4b/5x5 (in-place)
I0509 17:40:03.360250 120291 net.cpp:122] Setting up inception_4b/relu_5x5
I0509 17:40:03.360255 120291 net.cpp:129] Top shape: 10 64 14 14 (125440)
I0509 17:40:03.360257 120291 net.cpp:137] Memory required for data: 398773760
I0509 17:40:03.360260 120291 layer_factory.hpp:77] Creating layer inception_4b/pool
I0509 17:40:03.360265 120291 net.cpp:84] Creating Layer inception_4b/pool
I0509 17:40:03.360267 120291 net.cpp:406] inception_4b/pool <- inception_4a/output_inception_4a/output_0_split_3
I0509 17:40:03.360276 120291 net.cpp:380] inception_4b/pool -> inception_4b/pool
I0509 17:40:03.360283 120291 net.cpp:122] Setting up inception_4b/pool
I0509 17:40:03.360287 120291 net.cpp:129] Top shape: 10 512 14 14 (1003520)
I0509 17:40:03.360290 120291 net.cpp:137] Memory required for data: 402787840
I0509 17:40:03.360292 120291 layer_factory.hpp:77] Creating layer inception_4b/pool_proj
I0509 17:40:03.360299 120291 net.cpp:84] Creating Layer inception_4b/pool_proj
I0509 17:40:03.360302 120291 net.cpp:406] inception_4b/pool_proj <- inception_4b/pool
I0509 17:40:03.360316 120291 net.cpp:380] inception_4b/pool_proj -> inception_4b/pool_proj
I0509 17:40:03.360322 120291 base_conv_layer.cpp:121] Group is 1channel is512number of output is 64
I0509 17:40:03.360558 120291 net.cpp:122] Setting up inception_4b/pool_proj
I0509 17:40:03.360563 120291 net.cpp:129] Top shape: 10 64 14 14 (125440)
I0509 17:40:03.360565 120291 net.cpp:137] Memory required for data: 403289600
I0509 17:40:03.360570 120291 layer_factory.hpp:77] Creating layer inception_4b/relu_pool_proj
I0509 17:40:03.360574 120291 net.cpp:84] Creating Layer inception_4b/relu_pool_proj
I0509 17:40:03.360576 120291 net.cpp:406] inception_4b/relu_pool_proj <- inception_4b/pool_proj
I0509 17:40:03.360581 120291 net.cpp:367] inception_4b/relu_pool_proj -> inception_4b/pool_proj (in-place)
I0509 17:40:03.360585 120291 net.cpp:122] Setting up inception_4b/relu_pool_proj
I0509 17:40:03.360589 120291 net.cpp:129] Top shape: 10 64 14 14 (125440)
I0509 17:40:03.360591 120291 net.cpp:137] Memory required for data: 403791360
I0509 17:40:03.360594 120291 layer_factory.hpp:77] Creating layer inception_4b/output
I0509 17:40:03.360599 120291 net.cpp:84] Creating Layer inception_4b/output
I0509 17:40:03.360600 120291 net.cpp:406] inception_4b/output <- inception_4b/1x1
I0509 17:40:03.360604 120291 net.cpp:406] inception_4b/output <- inception_4b/3x3
I0509 17:40:03.360610 120291 net.cpp:406] inception_4b/output <- inception_4b/5x5
I0509 17:40:03.360612 120291 net.cpp:406] inception_4b/output <- inception_4b/pool_proj
I0509 17:40:03.360617 120291 net.cpp:380] inception_4b/output -> inception_4b/output
I0509 17:40:03.360623 120291 net.cpp:122] Setting up inception_4b/output
I0509 17:40:03.360626 120291 net.cpp:129] Top shape: 10 512 14 14 (1003520)
I0509 17:40:03.360630 120291 net.cpp:137] Memory required for data: 407805440
I0509 17:40:03.360632 120291 layer_factory.hpp:77] Creating layer inception_4b/output_inception_4b/output_0_split
I0509 17:40:03.360636 120291 net.cpp:84] Creating Layer inception_4b/output_inception_4b/output_0_split
I0509 17:40:03.360638 120291 net.cpp:406] inception_4b/output_inception_4b/output_0_split <- inception_4b/output
I0509 17:40:03.360644 120291 net.cpp:380] inception_4b/output_inception_4b/output_0_split -> inception_4b/output_inception_4b/output_0_split_0
I0509 17:40:03.360649 120291 net.cpp:380] inception_4b/output_inception_4b/output_0_split -> inception_4b/output_inception_4b/output_0_split_1
I0509 17:40:03.360654 120291 net.cpp:380] inception_4b/output_inception_4b/output_0_split -> inception_4b/output_inception_4b/output_0_split_2
I0509 17:40:03.360659 120291 net.cpp:380] inception_4b/output_inception_4b/output_0_split -> inception_4b/output_inception_4b/output_0_split_3
I0509 17:40:03.360666 120291 net.cpp:122] Setting up inception_4b/output_inception_4b/output_0_split
I0509 17:40:03.360669 120291 net.cpp:129] Top shape: 10 512 14 14 (1003520)
I0509 17:40:03.360672 120291 net.cpp:129] Top shape: 10 512 14 14 (1003520)
I0509 17:40:03.360677 120291 net.cpp:129] Top shape: 10 512 14 14 (1003520)
I0509 17:40:03.360679 120291 net.cpp:129] Top shape: 10 512 14 14 (1003520)
I0509 17:40:03.360682 120291 net.cpp:137] Memory required for data: 423861760
I0509 17:40:03.360684 120291 layer_factory.hpp:77] Creating layer inception_4c/1x1
I0509 17:40:03.360690 120291 net.cpp:84] Creating Layer inception_4c/1x1
I0509 17:40:03.360693 120291 net.cpp:406] inception_4c/1x1 <- inception_4b/output_inception_4b/output_0_split_0
I0509 17:40:03.360698 120291 net.cpp:380] inception_4c/1x1 -> inception_4c/1x1
I0509 17:40:03.360705 120291 base_conv_layer.cpp:121] Group is 1channel is512number of output is 128
I0509 17:40:03.361102 120291 net.cpp:122] Setting up inception_4c/1x1
I0509 17:40:03.361109 120291 net.cpp:129] Top shape: 10 128 14 14 (250880)
I0509 17:40:03.361110 120291 net.cpp:137] Memory required for data: 424865280
I0509 17:40:03.361114 120291 layer_factory.hpp:77] Creating layer inception_4c/relu_1x1
I0509 17:40:03.361119 120291 net.cpp:84] Creating Layer inception_4c/relu_1x1
I0509 17:40:03.361121 120291 net.cpp:406] inception_4c/relu_1x1 <- inception_4c/1x1
I0509 17:40:03.361125 120291 net.cpp:367] inception_4c/relu_1x1 -> inception_4c/1x1 (in-place)
I0509 17:40:03.361131 120291 net.cpp:122] Setting up inception_4c/relu_1x1
I0509 17:40:03.361135 120291 net.cpp:129] Top shape: 10 128 14 14 (250880)
I0509 17:40:03.361137 120291 net.cpp:137] Memory required for data: 425868800
I0509 17:40:03.361140 120291 layer_factory.hpp:77] Creating layer inception_4c/3x3_reduce
I0509 17:40:03.361145 120291 net.cpp:84] Creating Layer inception_4c/3x3_reduce
I0509 17:40:03.361147 120291 net.cpp:406] inception_4c/3x3_reduce <- inception_4b/output_inception_4b/output_0_split_1
I0509 17:40:03.361153 120291 net.cpp:380] inception_4c/3x3_reduce -> inception_4c/3x3_reduce
I0509 17:40:03.361160 120291 base_conv_layer.cpp:121] Group is 1channel is512number of output is 128
I0509 17:40:03.361557 120291 net.cpp:122] Setting up inception_4c/3x3_reduce
I0509 17:40:03.361562 120291 net.cpp:129] Top shape: 10 128 14 14 (250880)
I0509 17:40:03.361564 120291 net.cpp:137] Memory required for data: 426872320
I0509 17:40:03.361568 120291 layer_factory.hpp:77] Creating layer inception_4c/relu_3x3_reduce
I0509 17:40:03.361573 120291 net.cpp:84] Creating Layer inception_4c/relu_3x3_reduce
I0509 17:40:03.361577 120291 net.cpp:406] inception_4c/relu_3x3_reduce <- inception_4c/3x3_reduce
I0509 17:40:03.361582 120291 net.cpp:367] inception_4c/relu_3x3_reduce -> inception_4c/3x3_reduce (in-place)
I0509 17:40:03.361588 120291 net.cpp:122] Setting up inception_4c/relu_3x3_reduce
I0509 17:40:03.361590 120291 net.cpp:129] Top shape: 10 128 14 14 (250880)
I0509 17:40:03.361593 120291 net.cpp:137] Memory required for data: 427875840
I0509 17:40:03.361595 120291 layer_factory.hpp:77] Creating layer inception_4c/3x3
I0509 17:40:03.361601 120291 net.cpp:84] Creating Layer inception_4c/3x3
I0509 17:40:03.361604 120291 net.cpp:406] inception_4c/3x3 <- inception_4c/3x3_reduce
I0509 17:40:03.361609 120291 net.cpp:380] inception_4c/3x3 -> inception_4c/3x3
I0509 17:40:03.361616 120291 base_conv_layer.cpp:121] Group is 1channel is128number of output is 256
     0.600888822             55,772      r02c0:u                  
I0509 17:40:03.363358 120291 net.cpp:122] Setting up inception_4c/3x3
I0509 17:40:03.363363 120291 net.cpp:129] Top shape: 10 256 14 14 (501760)
I0509 17:40:03.363366 120291 net.cpp:137] Memory required for data: 429882880
I0509 17:40:03.363370 120291 layer_factory.hpp:77] Creating layer inception_4c/relu_3x3
I0509 17:40:03.363374 120291 net.cpp:84] Creating Layer inception_4c/relu_3x3
I0509 17:40:03.363378 120291 net.cpp:406] inception_4c/relu_3x3 <- inception_4c/3x3
I0509 17:40:03.363382 120291 net.cpp:367] inception_4c/relu_3x3 -> inception_4c/3x3 (in-place)
I0509 17:40:03.363386 120291 net.cpp:122] Setting up inception_4c/relu_3x3
I0509 17:40:03.363390 120291 net.cpp:129] Top shape: 10 256 14 14 (501760)
I0509 17:40:03.363392 120291 net.cpp:137] Memory required for data: 431889920
I0509 17:40:03.363394 120291 layer_factory.hpp:77] Creating layer inception_4c/5x5_reduce
I0509 17:40:03.363404 120291 net.cpp:84] Creating Layer inception_4c/5x5_reduce
I0509 17:40:03.363406 120291 net.cpp:406] inception_4c/5x5_reduce <- inception_4b/output_inception_4b/output_0_split_2
I0509 17:40:03.363411 120291 net.cpp:380] inception_4c/5x5_reduce -> inception_4c/5x5_reduce
I0509 17:40:03.363431 120291 base_conv_layer.cpp:121] Group is 1channel is512number of output is 24
I0509 17:40:03.363510 120291 net.cpp:122] Setting up inception_4c/5x5_reduce
I0509 17:40:03.363515 120291 net.cpp:129] Top shape: 10 24 14 14 (47040)
I0509 17:40:03.363517 120291 net.cpp:137] Memory required for data: 432078080
I0509 17:40:03.363523 120291 layer_factory.hpp:77] Creating layer inception_4c/relu_5x5_reduce
I0509 17:40:03.363528 120291 net.cpp:84] Creating Layer inception_4c/relu_5x5_reduce
I0509 17:40:03.363530 120291 net.cpp:406] inception_4c/relu_5x5_reduce <- inception_4c/5x5_reduce
I0509 17:40:03.363534 120291 net.cpp:367] inception_4c/relu_5x5_reduce -> inception_4c/5x5_reduce (in-place)
I0509 17:40:03.363538 120291 net.cpp:122] Setting up inception_4c/relu_5x5_reduce
I0509 17:40:03.363543 120291 net.cpp:129] Top shape: 10 24 14 14 (47040)
I0509 17:40:03.363544 120291 net.cpp:137] Memory required for data: 432266240
I0509 17:40:03.363546 120291 layer_factory.hpp:77] Creating layer inception_4c/5x5
I0509 17:40:03.363553 120291 net.cpp:84] Creating Layer inception_4c/5x5
I0509 17:40:03.363555 120291 net.cpp:406] inception_4c/5x5 <- inception_4c/5x5_reduce
I0509 17:40:03.363560 120291 net.cpp:380] inception_4c/5x5 -> inception_4c/5x5
I0509 17:40:03.363567 120291 base_conv_layer.cpp:121] Group is 1channel is24number of output is 64
I0509 17:40:03.363806 120291 net.cpp:122] Setting up inception_4c/5x5
I0509 17:40:03.363811 120291 net.cpp:129] Top shape: 10 64 14 14 (125440)
I0509 17:40:03.363812 120291 net.cpp:137] Memory required for data: 432768000
I0509 17:40:03.363816 120291 layer_factory.hpp:77] Creating layer inception_4c/relu_5x5
I0509 17:40:03.363821 120291 net.cpp:84] Creating Layer inception_4c/relu_5x5
I0509 17:40:03.363824 120291 net.cpp:406] inception_4c/relu_5x5 <- inception_4c/5x5
I0509 17:40:03.363828 120291 net.cpp:367] inception_4c/relu_5x5 -> inception_4c/5x5 (in-place)
I0509 17:40:03.363832 120291 net.cpp:122] Setting up inception_4c/relu_5x5
I0509 17:40:03.363836 120291 net.cpp:129] Top shape: 10 64 14 14 (125440)
I0509 17:40:03.363842 120291 net.cpp:137] Memory required for data: 433269760
I0509 17:40:03.363843 120291 layer_factory.hpp:77] Creating layer inception_4c/pool
I0509 17:40:03.363848 120291 net.cpp:84] Creating Layer inception_4c/pool
I0509 17:40:03.363852 120291 net.cpp:406] inception_4c/pool <- inception_4b/output_inception_4b/output_0_split_3
I0509 17:40:03.363855 120291 net.cpp:380] inception_4c/pool -> inception_4c/pool
I0509 17:40:03.363862 120291 net.cpp:122] Setting up inception_4c/pool
I0509 17:40:03.363865 120291 net.cpp:129] Top shape: 10 512 14 14 (1003520)
I0509 17:40:03.363867 120291 net.cpp:137] Memory required for data: 437283840
I0509 17:40:03.363870 120291 layer_factory.hpp:77] Creating layer inception_4c/pool_proj
I0509 17:40:03.363876 120291 net.cpp:84] Creating Layer inception_4c/pool_proj
I0509 17:40:03.363879 120291 net.cpp:406] inception_4c/pool_proj <- inception_4c/pool
I0509 17:40:03.363884 120291 net.cpp:380] inception_4c/pool_proj -> inception_4c/pool_proj
I0509 17:40:03.363890 120291 base_conv_layer.cpp:121] Group is 1channel is512number of output is 64
I0509 17:40:03.364125 120291 net.cpp:122] Setting up inception_4c/pool_proj
I0509 17:40:03.364130 120291 net.cpp:129] Top shape: 10 64 14 14 (125440)
I0509 17:40:03.364133 120291 net.cpp:137] Memory required for data: 437785600
I0509 17:40:03.364145 120291 layer_factory.hpp:77] Creating layer inception_4c/relu_pool_proj
I0509 17:40:03.364150 120291 net.cpp:84] Creating Layer inception_4c/relu_pool_proj
I0509 17:40:03.364153 120291 net.cpp:406] inception_4c/relu_pool_proj <- inception_4c/pool_proj
I0509 17:40:03.364158 120291 net.cpp:367] inception_4c/relu_pool_proj -> inception_4c/pool_proj (in-place)
I0509 17:40:03.364163 120291 net.cpp:122] Setting up inception_4c/relu_pool_proj
I0509 17:40:03.364167 120291 net.cpp:129] Top shape: 10 64 14 14 (125440)
I0509 17:40:03.364171 120291 net.cpp:137] Memory required for data: 438287360
I0509 17:40:03.364172 120291 layer_factory.hpp:77] Creating layer inception_4c/output
I0509 17:40:03.364177 120291 net.cpp:84] Creating Layer inception_4c/output
I0509 17:40:03.364181 120291 net.cpp:406] inception_4c/output <- inception_4c/1x1
I0509 17:40:03.364184 120291 net.cpp:406] inception_4c/output <- inception_4c/3x3
I0509 17:40:03.364187 120291 net.cpp:406] inception_4c/output <- inception_4c/5x5
I0509 17:40:03.364190 120291 net.cpp:406] inception_4c/output <- inception_4c/pool_proj
I0509 17:40:03.364195 120291 net.cpp:380] inception_4c/output -> inception_4c/output
I0509 17:40:03.364202 120291 net.cpp:122] Setting up inception_4c/output
I0509 17:40:03.364205 120291 net.cpp:129] Top shape: 10 512 14 14 (1003520)
I0509 17:40:03.364208 120291 net.cpp:137] Memory required for data: 442301440
I0509 17:40:03.364210 120291 layer_factory.hpp:77] Creating layer inception_4c/output_inception_4c/output_0_split
I0509 17:40:03.364217 120291 net.cpp:84] Creating Layer inception_4c/output_inception_4c/output_0_split
I0509 17:40:03.364219 120291 net.cpp:406] inception_4c/output_inception_4c/output_0_split <- inception_4c/output
I0509 17:40:03.364224 120291 net.cpp:380] inception_4c/output_inception_4c/output_0_split -> inception_4c/output_inception_4c/output_0_split_0
I0509 17:40:03.364231 120291 net.cpp:380] inception_4c/output_inception_4c/output_0_split -> inception_4c/output_inception_4c/output_0_split_1
I0509 17:40:03.364236 120291 net.cpp:380] inception_4c/output_inception_4c/output_0_split -> inception_4c/output_inception_4c/output_0_split_2
I0509 17:40:03.364243 120291 net.cpp:380] inception_4c/output_inception_4c/output_0_split -> inception_4c/output_inception_4c/output_0_split_3
I0509 17:40:03.364248 120291 net.cpp:122] Setting up inception_4c/output_inception_4c/output_0_split
I0509 17:40:03.364253 120291 net.cpp:129] Top shape: 10 512 14 14 (1003520)
I0509 17:40:03.364256 120291 net.cpp:129] Top shape: 10 512 14 14 (1003520)
I0509 17:40:03.364259 120291 net.cpp:129] Top shape: 10 512 14 14 (1003520)
I0509 17:40:03.364264 120291 net.cpp:129] Top shape: 10 512 14 14 (1003520)
I0509 17:40:03.364266 120291 net.cpp:137] Memory required for data: 458357760
I0509 17:40:03.364271 120291 layer_factory.hpp:77] Creating layer inception_4d/1x1
I0509 17:40:03.364282 120291 net.cpp:84] Creating Layer inception_4d/1x1
I0509 17:40:03.364286 120291 net.cpp:406] inception_4d/1x1 <- inception_4c/output_inception_4c/output_0_split_0
I0509 17:40:03.364290 120291 net.cpp:380] inception_4d/1x1 -> inception_4d/1x1
I0509 17:40:03.364298 120291 base_conv_layer.cpp:121] Group is 1channel is512number of output is 112
I0509 17:40:03.364677 120291 net.cpp:122] Setting up inception_4d/1x1
I0509 17:40:03.364682 120291 net.cpp:129] Top shape: 10 112 14 14 (219520)
I0509 17:40:03.364686 120291 net.cpp:137] Memory required for data: 459235840
I0509 17:40:03.364689 120291 layer_factory.hpp:77] Creating layer inception_4d/relu_1x1
I0509 17:40:03.364694 120291 net.cpp:84] Creating Layer inception_4d/relu_1x1
I0509 17:40:03.364697 120291 net.cpp:406] inception_4d/relu_1x1 <- inception_4d/1x1
I0509 17:40:03.364701 120291 net.cpp:367] inception_4d/relu_1x1 -> inception_4d/1x1 (in-place)
I0509 17:40:03.364706 120291 net.cpp:122] Setting up inception_4d/relu_1x1
I0509 17:40:03.364708 120291 net.cpp:129] Top shape: 10 112 14 14 (219520)
I0509 17:40:03.364711 120291 net.cpp:137] Memory required for data: 460113920
I0509 17:40:03.364713 120291 layer_factory.hpp:77] Creating layer inception_4d/3x3_reduce
I0509 17:40:03.364720 120291 net.cpp:84] Creating Layer inception_4d/3x3_reduce
I0509 17:40:03.364722 120291 net.cpp:406] inception_4d/3x3_reduce <- inception_4c/output_inception_4c/output_0_split_1
I0509 17:40:03.364728 120291 net.cpp:380] inception_4d/3x3_reduce -> inception_4d/3x3_reduce
I0509 17:40:03.364734 120291 base_conv_layer.cpp:121] Group is 1channel is512number of output is 144
I0509 17:40:03.365181 120291 net.cpp:122] Setting up inception_4d/3x3_reduce
I0509 17:40:03.365186 120291 net.cpp:129] Top shape: 10 144 14 14 (282240)
I0509 17:40:03.365188 120291 net.cpp:137] Memory required for data: 461242880
I0509 17:40:03.365192 120291 layer_factory.hpp:77] Creating layer inception_4d/relu_3x3_reduce
I0509 17:40:03.365196 120291 net.cpp:84] Creating Layer inception_4d/relu_3x3_reduce
I0509 17:40:03.365200 120291 net.cpp:406] inception_4d/relu_3x3_reduce <- inception_4d/3x3_reduce
I0509 17:40:03.365205 120291 net.cpp:367] inception_4d/relu_3x3_reduce -> inception_4d/3x3_reduce (in-place)
I0509 17:40:03.365208 120291 net.cpp:122] Setting up inception_4d/relu_3x3_reduce
I0509 17:40:03.365212 120291 net.cpp:129] Top shape: 10 144 14 14 (282240)
I0509 17:40:03.365214 120291 net.cpp:137] Memory required for data: 462371840
I0509 17:40:03.365217 120291 layer_factory.hpp:77] Creating layer inception_4d/3x3
I0509 17:40:03.365223 120291 net.cpp:84] Creating Layer inception_4d/3x3
I0509 17:40:03.365226 120291 net.cpp:406] inception_4d/3x3 <- inception_4d/3x3_reduce
I0509 17:40:03.365231 120291 net.cpp:380] inception_4d/3x3 -> inception_4d/3x3
I0509 17:40:03.365238 120291 base_conv_layer.cpp:121] Group is 1channel is144number of output is 288
I0509 17:40:03.367432 120291 net.cpp:122] Setting up inception_4d/3x3
I0509 17:40:03.367437 120291 net.cpp:129] Top shape: 10 288 14 14 (564480)
I0509 17:40:03.367439 120291 net.cpp:137] Memory required for data: 464629760
I0509 17:40:03.367444 120291 layer_factory.hpp:77] Creating layer inception_4d/relu_3x3
I0509 17:40:03.367447 120291 net.cpp:84] Creating Layer inception_4d/relu_3x3
I0509 17:40:03.367450 120291 net.cpp:406] inception_4d/relu_3x3 <- inception_4d/3x3
I0509 17:40:03.367455 120291 net.cpp:367] inception_4d/relu_3x3 -> inception_4d/3x3 (in-place)
I0509 17:40:03.367460 120291 net.cpp:122] Setting up inception_4d/relu_3x3
I0509 17:40:03.367463 120291 net.cpp:129] Top shape: 10 288 14 14 (564480)
I0509 17:40:03.367465 120291 net.cpp:137] Memory required for data: 466887680
I0509 17:40:03.367467 120291 layer_factory.hpp:77] Creating layer inception_4d/5x5_reduce
I0509 17:40:03.367472 120291 net.cpp:84] Creating Layer inception_4d/5x5_reduce
I0509 17:40:03.367476 120291 net.cpp:406] inception_4d/5x5_reduce <- inception_4c/output_inception_4c/output_0_split_2
I0509 17:40:03.367483 120291 net.cpp:380] inception_4d/5x5_reduce -> inception_4d/5x5_reduce
I0509 17:40:03.367491 120291 base_conv_layer.cpp:121] Group is 1channel is512number of output is 32
I0509 17:40:03.367593 120291 net.cpp:122] Setting up inception_4d/5x5_reduce
I0509 17:40:03.367597 120291 net.cpp:129] Top shape: 10 32 14 14 (62720)
I0509 17:40:03.367599 120291 net.cpp:137] Memory required for data: 467138560
I0509 17:40:03.367604 120291 layer_factory.hpp:77] Creating layer inception_4d/relu_5x5_reduce
I0509 17:40:03.367607 120291 net.cpp:84] Creating Layer inception_4d/relu_5x5_reduce
I0509 17:40:03.367610 120291 net.cpp:406] inception_4d/relu_5x5_reduce <- inception_4d/5x5_reduce
I0509 17:40:03.367615 120291 net.cpp:367] inception_4d/relu_5x5_reduce -> inception_4d/5x5_reduce (in-place)
I0509 17:40:03.367619 120291 net.cpp:122] Setting up inception_4d/relu_5x5_reduce
I0509 17:40:03.367624 120291 net.cpp:129] Top shape: 10 32 14 14 (62720)
I0509 17:40:03.367625 120291 net.cpp:137] Memory required for data: 467389440
I0509 17:40:03.367629 120291 layer_factory.hpp:77] Creating layer inception_4d/5x5
I0509 17:40:03.367633 120291 net.cpp:84] Creating Layer inception_4d/5x5
I0509 17:40:03.367636 120291 net.cpp:406] inception_4d/5x5 <- inception_4d/5x5_reduce
I0509 17:40:03.367641 120291 net.cpp:380] inception_4d/5x5 -> inception_4d/5x5
I0509 17:40:03.367648 120291 base_conv_layer.cpp:121] Group is 1channel is32number of output is 64
I0509 17:40:03.367959 120291 net.cpp:122] Setting up inception_4d/5x5
I0509 17:40:03.367964 120291 net.cpp:129] Top shape: 10 64 14 14 (125440)
I0509 17:40:03.367967 120291 net.cpp:137] Memory required for data: 467891200
I0509 17:40:03.367971 120291 layer_factory.hpp:77] Creating layer inception_4d/relu_5x5
I0509 17:40:03.367976 120291 net.cpp:84] Creating Layer inception_4d/relu_5x5
I0509 17:40:03.367980 120291 net.cpp:406] inception_4d/relu_5x5 <- inception_4d/5x5
I0509 17:40:03.367982 120291 net.cpp:367] inception_4d/relu_5x5 -> inception_4d/5x5 (in-place)
I0509 17:40:03.367986 120291 net.cpp:122] Setting up inception_4d/relu_5x5
I0509 17:40:03.367990 120291 net.cpp:129] Top shape: 10 64 14 14 (125440)
I0509 17:40:03.367992 120291 net.cpp:137] Memory required for data: 468392960
I0509 17:40:03.367995 120291 layer_factory.hpp:77] Creating layer inception_4d/pool
I0509 17:40:03.368000 120291 net.cpp:84] Creating Layer inception_4d/pool
I0509 17:40:03.368002 120291 net.cpp:406] inception_4d/pool <- inception_4c/output_inception_4c/output_0_split_3
I0509 17:40:03.368006 120291 net.cpp:380] inception_4d/pool -> inception_4d/pool
I0509 17:40:03.368012 120291 net.cpp:122] Setting up inception_4d/pool
I0509 17:40:03.368016 120291 net.cpp:129] Top shape: 10 512 14 14 (1003520)
I0509 17:40:03.368018 120291 net.cpp:137] Memory required for data: 472407040
I0509 17:40:03.368021 120291 layer_factory.hpp:77] Creating layer inception_4d/pool_proj
I0509 17:40:03.368026 120291 net.cpp:84] Creating Layer inception_4d/pool_proj
I0509 17:40:03.368031 120291 net.cpp:406] inception_4d/pool_proj <- inception_4d/pool
I0509 17:40:03.368039 120291 net.cpp:380] inception_4d/pool_proj -> inception_4d/pool_proj
I0509 17:40:03.368063 120291 base_conv_layer.cpp:121] Group is 1channel is512number of output is 64
I0509 17:40:03.368283 120291 net.cpp:122] Setting up inception_4d/pool_proj
I0509 17:40:03.368288 120291 net.cpp:129] Top shape: 10 64 14 14 (125440)
I0509 17:40:03.368290 120291 net.cpp:137] Memory required for data: 472908800
I0509 17:40:03.368295 120291 layer_factory.hpp:77] Creating layer inception_4d/relu_pool_proj
I0509 17:40:03.368299 120291 net.cpp:84] Creating Layer inception_4d/relu_pool_proj
I0509 17:40:03.368302 120291 net.cpp:406] inception_4d/relu_pool_proj <- inception_4d/pool_proj
I0509 17:40:03.368307 120291 net.cpp:367] inception_4d/relu_pool_proj -> inception_4d/pool_proj (in-place)
I0509 17:40:03.368312 120291 net.cpp:122] Setting up inception_4d/relu_pool_proj
I0509 17:40:03.368316 120291 net.cpp:129] Top shape: 10 64 14 14 (125440)
I0509 17:40:03.368319 120291 net.cpp:137] Memory required for data: 473410560
I0509 17:40:03.368324 120291 layer_factory.hpp:77] Creating layer inception_4d/output
I0509 17:40:03.368329 120291 net.cpp:84] Creating Layer inception_4d/output
I0509 17:40:03.368331 120291 net.cpp:406] inception_4d/output <- inception_4d/1x1
I0509 17:40:03.368335 120291 net.cpp:406] inception_4d/output <- inception_4d/3x3
I0509 17:40:03.368352 120291 net.cpp:406] inception_4d/output <- inception_4d/5x5
I0509 17:40:03.368355 120291 net.cpp:406] inception_4d/output <- inception_4d/pool_proj
I0509 17:40:03.368360 120291 net.cpp:380] inception_4d/output -> inception_4d/output
I0509 17:40:03.368366 120291 net.cpp:122] Setting up inception_4d/output
I0509 17:40:03.368369 120291 net.cpp:129] Top shape: 10 528 14 14 (1034880)
I0509 17:40:03.368372 120291 net.cpp:137] Memory required for data: 477550080
I0509 17:40:03.368374 120291 layer_factory.hpp:77] Creating layer inception_4d/output_inception_4d/output_0_split
I0509 17:40:03.368378 120291 net.cpp:84] Creating Layer inception_4d/output_inception_4d/output_0_split
I0509 17:40:03.368381 120291 net.cpp:406] inception_4d/output_inception_4d/output_0_split <- inception_4d/output
I0509 17:40:03.368386 120291 net.cpp:380] inception_4d/output_inception_4d/output_0_split -> inception_4d/output_inception_4d/output_0_split_0
I0509 17:40:03.368391 120291 net.cpp:380] inception_4d/output_inception_4d/output_0_split -> inception_4d/output_inception_4d/output_0_split_1
I0509 17:40:03.368396 120291 net.cpp:380] inception_4d/output_inception_4d/output_0_split -> inception_4d/output_inception_4d/output_0_split_2
I0509 17:40:03.368402 120291 net.cpp:380] inception_4d/output_inception_4d/output_0_split -> inception_4d/output_inception_4d/output_0_split_3
I0509 17:40:03.368408 120291 net.cpp:122] Setting up inception_4d/output_inception_4d/output_0_split
I0509 17:40:03.368412 120291 net.cpp:129] Top shape: 10 528 14 14 (1034880)
I0509 17:40:03.368415 120291 net.cpp:129] Top shape: 10 528 14 14 (1034880)
I0509 17:40:03.368418 120291 net.cpp:129] Top shape: 10 528 14 14 (1034880)
I0509 17:40:03.368422 120291 net.cpp:129] Top shape: 10 528 14 14 (1034880)
I0509 17:40:03.368424 120291 net.cpp:137] Memory required for data: 494108160
I0509 17:40:03.368427 120291 layer_factory.hpp:77] Creating layer inception_4e/1x1
I0509 17:40:03.368433 120291 net.cpp:84] Creating Layer inception_4e/1x1
I0509 17:40:03.368436 120291 net.cpp:406] inception_4e/1x1 <- inception_4d/output_inception_4d/output_0_split_0
I0509 17:40:03.368441 120291 net.cpp:380] inception_4e/1x1 -> inception_4e/1x1
I0509 17:40:03.368448 120291 base_conv_layer.cpp:121] Group is 1channel is528number of output is 256
I0509 17:40:03.369252 120291 net.cpp:122] Setting up inception_4e/1x1
I0509 17:40:03.369258 120291 net.cpp:129] Top shape: 10 256 14 14 (501760)
I0509 17:40:03.369261 120291 net.cpp:137] Memory required for data: 496115200
I0509 17:40:03.369264 120291 layer_factory.hpp:77] Creating layer inception_4e/relu_1x1
I0509 17:40:03.369268 120291 net.cpp:84] Creating Layer inception_4e/relu_1x1
I0509 17:40:03.369271 120291 net.cpp:406] inception_4e/relu_1x1 <- inception_4e/1x1
I0509 17:40:03.369277 120291 net.cpp:367] inception_4e/relu_1x1 -> inception_4e/1x1 (in-place)
I0509 17:40:03.369280 120291 net.cpp:122] Setting up inception_4e/relu_1x1
I0509 17:40:03.369284 120291 net.cpp:129] Top shape: 10 256 14 14 (501760)
I0509 17:40:03.369287 120291 net.cpp:137] Memory required for data: 498122240
I0509 17:40:03.369289 120291 layer_factory.hpp:77] Creating layer inception_4e/3x3_reduce
I0509 17:40:03.369297 120291 net.cpp:84] Creating Layer inception_4e/3x3_reduce
I0509 17:40:03.369300 120291 net.cpp:406] inception_4e/3x3_reduce <- inception_4d/output_inception_4d/output_0_split_1
I0509 17:40:03.369307 120291 net.cpp:380] inception_4e/3x3_reduce -> inception_4e/3x3_reduce
I0509 17:40:03.369313 120291 base_conv_layer.cpp:121] Group is 1channel is528number of output is 160
I0509 17:40:03.369818 120291 net.cpp:122] Setting up inception_4e/3x3_reduce
I0509 17:40:03.369823 120291 net.cpp:129] Top shape: 10 160 14 14 (313600)
I0509 17:40:03.369828 120291 net.cpp:137] Memory required for data: 499376640
I0509 17:40:03.369832 120291 layer_factory.hpp:77] Creating layer inception_4e/relu_3x3_reduce
I0509 17:40:03.369837 120291 net.cpp:84] Creating Layer inception_4e/relu_3x3_reduce
I0509 17:40:03.369839 120291 net.cpp:406] inception_4e/relu_3x3_reduce <- inception_4e/3x3_reduce
I0509 17:40:03.369844 120291 net.cpp:367] inception_4e/relu_3x3_reduce -> inception_4e/3x3_reduce (in-place)
I0509 17:40:03.369849 120291 net.cpp:122] Setting up inception_4e/relu_3x3_reduce
I0509 17:40:03.369853 120291 net.cpp:129] Top shape: 10 160 14 14 (313600)
I0509 17:40:03.369854 120291 net.cpp:137] Memory required for data: 500631040
I0509 17:40:03.369858 120291 layer_factory.hpp:77] Creating layer inception_4e/3x3
I0509 17:40:03.369863 120291 net.cpp:84] Creating Layer inception_4e/3x3
I0509 17:40:03.369866 120291 net.cpp:406] inception_4e/3x3 <- inception_4e/3x3_reduce
I0509 17:40:03.369870 120291 net.cpp:380] inception_4e/3x3 -> inception_4e/3x3
I0509 17:40:03.369877 120291 base_conv_layer.cpp:121] Group is 1channel is160number of output is 320
I0509 17:40:03.372596 120291 net.cpp:122] Setting up inception_4e/3x3
I0509 17:40:03.372603 120291 net.cpp:129] Top shape: 10 320 14 14 (627200)
I0509 17:40:03.372606 120291 net.cpp:137] Memory required for data: 503139840
I0509 17:40:03.372611 120291 layer_factory.hpp:77] Creating layer inception_4e/relu_3x3
I0509 17:40:03.372613 120291 net.cpp:84] Creating Layer inception_4e/relu_3x3
I0509 17:40:03.372617 120291 net.cpp:406] inception_4e/relu_3x3 <- inception_4e/3x3
I0509 17:40:03.372622 120291 net.cpp:367] inception_4e/relu_3x3 -> inception_4e/3x3 (in-place)
I0509 17:40:03.372627 120291 net.cpp:122] Setting up inception_4e/relu_3x3
I0509 17:40:03.372630 120291 net.cpp:129] Top shape: 10 320 14 14 (627200)
I0509 17:40:03.372632 120291 net.cpp:137] Memory required for data: 505648640
I0509 17:40:03.372634 120291 layer_factory.hpp:77] Creating layer inception_4e/5x5_reduce
I0509 17:40:03.372639 120291 net.cpp:84] Creating Layer inception_4e/5x5_reduce
I0509 17:40:03.372642 120291 net.cpp:406] inception_4e/5x5_reduce <- inception_4d/output_inception_4d/output_0_split_2
I0509 17:40:03.372648 120291 net.cpp:380] inception_4e/5x5_reduce -> inception_4e/5x5_reduce
I0509 17:40:03.372653 120291 base_conv_layer.cpp:121] Group is 1channel is528number of output is 32
I0509 17:40:03.372761 120291 net.cpp:122] Setting up inception_4e/5x5_reduce
I0509 17:40:03.372764 120291 net.cpp:129] Top shape: 10 32 14 14 (62720)
I0509 17:40:03.372767 120291 net.cpp:137] Memory required for data: 505899520
I0509 17:40:03.372771 120291 layer_factory.hpp:77] Creating layer inception_4e/relu_5x5_reduce
I0509 17:40:03.372776 120291 net.cpp:84] Creating Layer inception_4e/relu_5x5_reduce
I0509 17:40:03.372778 120291 net.cpp:406] inception_4e/relu_5x5_reduce <- inception_4e/5x5_reduce
I0509 17:40:03.372783 120291 net.cpp:367] inception_4e/relu_5x5_reduce -> inception_4e/5x5_reduce (in-place)
I0509 17:40:03.372787 120291 net.cpp:122] Setting up inception_4e/relu_5x5_reduce
I0509 17:40:03.372792 120291 net.cpp:129] Top shape: 10 32 14 14 (62720)
I0509 17:40:03.372793 120291 net.cpp:137] Memory required for data: 506150400
I0509 17:40:03.372795 120291 layer_factory.hpp:77] Creating layer inception_4e/5x5
I0509 17:40:03.372804 120291 net.cpp:84] Creating Layer inception_4e/5x5
I0509 17:40:03.372807 120291 net.cpp:406] inception_4e/5x5 <- inception_4e/5x5_reduce
I0509 17:40:03.372812 120291 net.cpp:380] inception_4e/5x5 -> inception_4e/5x5
I0509 17:40:03.372819 120291 base_conv_layer.cpp:121] Group is 1channel is32number of output is 128
I0509 17:40:03.373428 120291 net.cpp:122] Setting up inception_4e/5x5
I0509 17:40:03.373433 120291 net.cpp:129] Top shape: 10 128 14 14 (250880)
I0509 17:40:03.373435 120291 net.cpp:137] Memory required for data: 507153920
I0509 17:40:03.373440 120291 layer_factory.hpp:77] Creating layer inception_4e/relu_5x5
I0509 17:40:03.373445 120291 net.cpp:84] Creating Layer inception_4e/relu_5x5
I0509 17:40:03.373450 120291 net.cpp:406] inception_4e/relu_5x5 <- inception_4e/5x5
I0509 17:40:03.373453 120291 net.cpp:367] inception_4e/relu_5x5 -> inception_4e/5x5 (in-place)
I0509 17:40:03.373459 120291 net.cpp:122] Setting up inception_4e/relu_5x5
I0509 17:40:03.373462 120291 net.cpp:129] Top shape: 10 128 14 14 (250880)
I0509 17:40:03.373466 120291 net.cpp:137] Memory required for data: 508157440
I0509 17:40:03.373467 120291 layer_factory.hpp:77] Creating layer inception_4e/pool
I0509 17:40:03.373471 120291 net.cpp:84] Creating Layer inception_4e/pool
I0509 17:40:03.373474 120291 net.cpp:406] inception_4e/pool <- inception_4d/output_inception_4d/output_0_split_3
I0509 17:40:03.373478 120291 net.cpp:380] inception_4e/pool -> inception_4e/pool
I0509 17:40:03.373484 120291 net.cpp:122] Setting up inception_4e/pool
I0509 17:40:03.373487 120291 net.cpp:129] Top shape: 10 528 14 14 (1034880)
I0509 17:40:03.373491 120291 net.cpp:137] Memory required for data: 512296960
I0509 17:40:03.373492 120291 layer_factory.hpp:77] Creating layer inception_4e/pool_proj
I0509 17:40:03.373499 120291 net.cpp:84] Creating Layer inception_4e/pool_proj
I0509 17:40:03.373502 120291 net.cpp:406] inception_4e/pool_proj <- inception_4e/pool
I0509 17:40:03.373507 120291 net.cpp:380] inception_4e/pool_proj -> inception_4e/pool_proj
I0509 17:40:03.373513 120291 base_conv_layer.cpp:121] Group is 1channel is528number of output is 128
I0509 17:40:03.373922 120291 net.cpp:122] Setting up inception_4e/pool_proj
I0509 17:40:03.373927 120291 net.cpp:129] Top shape: 10 128 14 14 (250880)
I0509 17:40:03.373929 120291 net.cpp:137] Memory required for data: 513300480
I0509 17:40:03.373934 120291 layer_factory.hpp:77] Creating layer inception_4e/relu_pool_proj
I0509 17:40:03.373939 120291 net.cpp:84] Creating Layer inception_4e/relu_pool_proj
I0509 17:40:03.373941 120291 net.cpp:406] inception_4e/relu_pool_proj <- inception_4e/pool_proj
I0509 17:40:03.373945 120291 net.cpp:367] inception_4e/relu_pool_proj -> inception_4e/pool_proj (in-place)
I0509 17:40:03.373950 120291 net.cpp:122] Setting up inception_4e/relu_pool_proj
I0509 17:40:03.373953 120291 net.cpp:129] Top shape: 10 128 14 14 (250880)
I0509 17:40:03.373955 120291 net.cpp:137] Memory required for data: 514304000
I0509 17:40:03.373957 120291 layer_factory.hpp:77] Creating layer inception_4e/output
I0509 17:40:03.373962 120291 net.cpp:84] Creating Layer inception_4e/output
I0509 17:40:03.373965 120291 net.cpp:406] inception_4e/output <- inception_4e/1x1
I0509 17:40:03.373968 120291 net.cpp:406] inception_4e/output <- inception_4e/3x3
I0509 17:40:03.373971 120291 net.cpp:406] inception_4e/output <- inception_4e/5x5
I0509 17:40:03.373975 120291 net.cpp:406] inception_4e/output <- inception_4e/pool_proj
I0509 17:40:03.373978 120291 net.cpp:380] inception_4e/output -> inception_4e/output
I0509 17:40:03.373983 120291 net.cpp:122] Setting up inception_4e/output
I0509 17:40:03.373987 120291 net.cpp:129] Top shape: 10 832 14 14 (1630720)
I0509 17:40:03.373989 120291 net.cpp:137] Memory required for data: 520826880
I0509 17:40:03.373992 120291 layer_factory.hpp:77] Creating layer pool4/3x3_s2
I0509 17:40:03.373996 120291 net.cpp:84] Creating Layer pool4/3x3_s2
I0509 17:40:03.373999 120291 net.cpp:406] pool4/3x3_s2 <- inception_4e/output
I0509 17:40:03.374003 120291 net.cpp:380] pool4/3x3_s2 -> pool4/3x3_s2
I0509 17:40:03.374009 120291 net.cpp:122] Setting up pool4/3x3_s2
I0509 17:40:03.374012 120291 net.cpp:129] Top shape: 10 832 7 7 (407680)
I0509 17:40:03.374016 120291 net.cpp:137] Memory required for data: 522457600
I0509 17:40:03.374017 120291 layer_factory.hpp:77] Creating layer pool4/3x3_s2_pool4/3x3_s2_0_split
I0509 17:40:03.374022 120291 net.cpp:84] Creating Layer pool4/3x3_s2_pool4/3x3_s2_0_split
I0509 17:40:03.374025 120291 net.cpp:406] pool4/3x3_s2_pool4/3x3_s2_0_split <- pool4/3x3_s2
I0509 17:40:03.374029 120291 net.cpp:380] pool4/3x3_s2_pool4/3x3_s2_0_split -> pool4/3x3_s2_pool4/3x3_s2_0_split_0
I0509 17:40:03.374035 120291 net.cpp:380] pool4/3x3_s2_pool4/3x3_s2_0_split -> pool4/3x3_s2_pool4/3x3_s2_0_split_1
I0509 17:40:03.374043 120291 net.cpp:380] pool4/3x3_s2_pool4/3x3_s2_0_split -> pool4/3x3_s2_pool4/3x3_s2_0_split_2
I0509 17:40:03.374048 120291 net.cpp:380] pool4/3x3_s2_pool4/3x3_s2_0_split -> pool4/3x3_s2_pool4/3x3_s2_0_split_3
I0509 17:40:03.374053 120291 net.cpp:122] Setting up pool4/3x3_s2_pool4/3x3_s2_0_split
I0509 17:40:03.374058 120291 net.cpp:129] Top shape: 10 832 7 7 (407680)
I0509 17:40:03.374060 120291 net.cpp:129] Top shape: 10 832 7 7 (407680)
I0509 17:40:03.374063 120291 net.cpp:129] Top shape: 10 832 7 7 (407680)
I0509 17:40:03.374066 120291 net.cpp:129] Top shape: 10 832 7 7 (407680)
I0509 17:40:03.374069 120291 net.cpp:137] Memory required for data: 528980480
I0509 17:40:03.374071 120291 layer_factory.hpp:77] Creating layer inception_5a/1x1
I0509 17:40:03.374078 120291 net.cpp:84] Creating Layer inception_5a/1x1
I0509 17:40:03.374081 120291 net.cpp:406] inception_5a/1x1 <- pool4/3x3_s2_pool4/3x3_s2_0_split_0
I0509 17:40:03.374088 120291 net.cpp:380] inception_5a/1x1 -> inception_5a/1x1
I0509 17:40:03.374094 120291 base_conv_layer.cpp:121] Group is 1channel is832number of output is 256
I0509 17:40:03.375353 120291 net.cpp:122] Setting up inception_5a/1x1
I0509 17:40:03.375357 120291 net.cpp:129] Top shape: 10 256 7 7 (125440)
I0509 17:40:03.375360 120291 net.cpp:137] Memory required for data: 529482240
I0509 17:40:03.375365 120291 layer_factory.hpp:77] Creating layer inception_5a/relu_1x1
I0509 17:40:03.375368 120291 net.cpp:84] Creating Layer inception_5a/relu_1x1
I0509 17:40:03.375372 120291 net.cpp:406] inception_5a/relu_1x1 <- inception_5a/1x1
I0509 17:40:03.375376 120291 net.cpp:367] inception_5a/relu_1x1 -> inception_5a/1x1 (in-place)
I0509 17:40:03.375380 120291 net.cpp:122] Setting up inception_5a/relu_1x1
I0509 17:40:03.375385 120291 net.cpp:129] Top shape: 10 256 7 7 (125440)
I0509 17:40:03.375386 120291 net.cpp:137] Memory required for data: 529984000
I0509 17:40:03.375389 120291 layer_factory.hpp:77] Creating layer inception_5a/3x3_reduce
I0509 17:40:03.375396 120291 net.cpp:84] Creating Layer inception_5a/3x3_reduce
I0509 17:40:03.375398 120291 net.cpp:406] inception_5a/3x3_reduce <- pool4/3x3_s2_pool4/3x3_s2_0_split_1
I0509 17:40:03.375403 120291 net.cpp:380] inception_5a/3x3_reduce -> inception_5a/3x3_reduce
I0509 17:40:03.375411 120291 base_conv_layer.cpp:121] Group is 1channel is832number of output is 160
I0509 17:40:03.376202 120291 net.cpp:122] Setting up inception_5a/3x3_reduce
I0509 17:40:03.376209 120291 net.cpp:129] Top shape: 10 160 7 7 (78400)
I0509 17:40:03.376212 120291 net.cpp:137] Memory required for data: 530297600
I0509 17:40:03.376216 120291 layer_factory.hpp:77] Creating layer inception_5a/relu_3x3_reduce
I0509 17:40:03.376220 120291 net.cpp:84] Creating Layer inception_5a/relu_3x3_reduce
I0509 17:40:03.376224 120291 net.cpp:406] inception_5a/relu_3x3_reduce <- inception_5a/3x3_reduce
I0509 17:40:03.376227 120291 net.cpp:367] inception_5a/relu_3x3_reduce -> inception_5a/3x3_reduce (in-place)
I0509 17:40:03.376232 120291 net.cpp:122] Setting up inception_5a/relu_3x3_reduce
I0509 17:40:03.376235 120291 net.cpp:129] Top shape: 10 160 7 7 (78400)
I0509 17:40:03.376237 120291 net.cpp:137] Memory required for data: 530611200
I0509 17:40:03.376240 120291 layer_factory.hpp:77] Creating layer inception_5a/3x3
I0509 17:40:03.376246 120291 net.cpp:84] Creating Layer inception_5a/3x3
I0509 17:40:03.376250 120291 net.cpp:406] inception_5a/3x3 <- inception_5a/3x3_reduce
I0509 17:40:03.376255 120291 net.cpp:380] inception_5a/3x3 -> inception_5a/3x3
I0509 17:40:03.376261 120291 base_conv_layer.cpp:121] Group is 1channel is160number of output is 320
I0509 17:40:03.378973 120291 net.cpp:122] Setting up inception_5a/3x3
I0509 17:40:03.378978 120291 net.cpp:129] Top shape: 10 320 7 7 (156800)
I0509 17:40:03.378979 120291 net.cpp:137] Memory required for data: 531238400
I0509 17:40:03.378984 120291 layer_factory.hpp:77] Creating layer inception_5a/relu_3x3
I0509 17:40:03.378988 120291 net.cpp:84] Creating Layer inception_5a/relu_3x3
I0509 17:40:03.378990 120291 net.cpp:406] inception_5a/relu_3x3 <- inception_5a/3x3
I0509 17:40:03.378999 120291 net.cpp:367] inception_5a/relu_3x3 -> inception_5a/3x3 (in-place)
I0509 17:40:03.379004 120291 net.cpp:122] Setting up inception_5a/relu_3x3
I0509 17:40:03.379007 120291 net.cpp:129] Top shape: 10 320 7 7 (156800)
I0509 17:40:03.379010 120291 net.cpp:137] Memory required for data: 531865600
I0509 17:40:03.379012 120291 layer_factory.hpp:77] Creating layer inception_5a/5x5_reduce
I0509 17:40:03.379019 120291 net.cpp:84] Creating Layer inception_5a/5x5_reduce
I0509 17:40:03.379022 120291 net.cpp:406] inception_5a/5x5_reduce <- pool4/3x3_s2_pool4/3x3_s2_0_split_2
I0509 17:40:03.379027 120291 net.cpp:380] inception_5a/5x5_reduce -> inception_5a/5x5_reduce
I0509 17:40:03.379034 120291 base_conv_layer.cpp:121] Group is 1channel is832number of output is 32
I0509 17:40:03.379204 120291 net.cpp:122] Setting up inception_5a/5x5_reduce
I0509 17:40:03.379209 120291 net.cpp:129] Top shape: 10 32 7 7 (15680)
I0509 17:40:03.379212 120291 net.cpp:137] Memory required for data: 531928320
I0509 17:40:03.379216 120291 layer_factory.hpp:77] Creating layer inception_5a/relu_5x5_reduce
I0509 17:40:03.379220 120291 net.cpp:84] Creating Layer inception_5a/relu_5x5_reduce
I0509 17:40:03.379223 120291 net.cpp:406] inception_5a/relu_5x5_reduce <- inception_5a/5x5_reduce
I0509 17:40:03.379228 120291 net.cpp:367] inception_5a/relu_5x5_reduce -> inception_5a/5x5_reduce (in-place)
I0509 17:40:03.379232 120291 net.cpp:122] Setting up inception_5a/relu_5x5_reduce
I0509 17:40:03.379235 120291 net.cpp:129] Top shape: 10 32 7 7 (15680)
I0509 17:40:03.379238 120291 net.cpp:137] Memory required for data: 531991040
I0509 17:40:03.379240 120291 layer_factory.hpp:77] Creating layer inception_5a/5x5
I0509 17:40:03.379246 120291 net.cpp:84] Creating Layer inception_5a/5x5
I0509 17:40:03.379250 120291 net.cpp:406] inception_5a/5x5 <- inception_5a/5x5_reduce
I0509 17:40:03.379254 120291 net.cpp:380] inception_5a/5x5 -> inception_5a/5x5
I0509 17:40:03.379261 120291 base_conv_layer.cpp:121] Group is 1channel is32number of output is 128
I0509 17:40:03.379874 120291 net.cpp:122] Setting up inception_5a/5x5
I0509 17:40:03.379879 120291 net.cpp:129] Top shape: 10 128 7 7 (62720)
I0509 17:40:03.379883 120291 net.cpp:137] Memory required for data: 532241920
I0509 17:40:03.379886 120291 layer_factory.hpp:77] Creating layer inception_5a/relu_5x5
I0509 17:40:03.379909 120291 net.cpp:84] Creating Layer inception_5a/relu_5x5
I0509 17:40:03.379912 120291 net.cpp:406] inception_5a/relu_5x5 <- inception_5a/5x5
I0509 17:40:03.379916 120291 net.cpp:367] inception_5a/relu_5x5 -> inception_5a/5x5 (in-place)
I0509 17:40:03.379920 120291 net.cpp:122] Setting up inception_5a/relu_5x5
I0509 17:40:03.379925 120291 net.cpp:129] Top shape: 10 128 7 7 (62720)
I0509 17:40:03.379926 120291 net.cpp:137] Memory required for data: 532492800
I0509 17:40:03.379930 120291 layer_factory.hpp:77] Creating layer inception_5a/pool
I0509 17:40:03.379933 120291 net.cpp:84] Creating Layer inception_5a/pool
I0509 17:40:03.379935 120291 net.cpp:406] inception_5a/pool <- pool4/3x3_s2_pool4/3x3_s2_0_split_3
I0509 17:40:03.379940 120291 net.cpp:380] inception_5a/pool -> inception_5a/pool
I0509 17:40:03.379946 120291 net.cpp:122] Setting up inception_5a/pool
I0509 17:40:03.379951 120291 net.cpp:129] Top shape: 10 832 7 7 (407680)
I0509 17:40:03.379952 120291 net.cpp:137] Memory required for data: 534123520
I0509 17:40:03.379954 120291 layer_factory.hpp:77] Creating layer inception_5a/pool_proj
I0509 17:40:03.379961 120291 net.cpp:84] Creating Layer inception_5a/pool_proj
I0509 17:40:03.379962 120291 net.cpp:406] inception_5a/pool_proj <- inception_5a/pool
I0509 17:40:03.379967 120291 net.cpp:380] inception_5a/pool_proj -> inception_5a/pool_proj
I0509 17:40:03.379973 120291 base_conv_layer.cpp:121] Group is 1channel is832number of output is 128
I0509 17:40:03.380617 120291 net.cpp:122] Setting up inception_5a/pool_proj
I0509 17:40:03.380623 120291 net.cpp:129] Top shape: 10 128 7 7 (62720)
I0509 17:40:03.380625 120291 net.cpp:137] Memory required for data: 534374400
I0509 17:40:03.380632 120291 layer_factory.hpp:77] Creating layer inception_5a/relu_pool_proj
I0509 17:40:03.380636 120291 net.cpp:84] Creating Layer inception_5a/relu_pool_proj
I0509 17:40:03.380640 120291 net.cpp:406] inception_5a/relu_pool_proj <- inception_5a/pool_proj
I0509 17:40:03.380645 120291 net.cpp:367] inception_5a/relu_pool_proj -> inception_5a/pool_proj (in-place)
I0509 17:40:03.380650 120291 net.cpp:122] Setting up inception_5a/relu_pool_proj
I0509 17:40:03.380653 120291 net.cpp:129] Top shape: 10 128 7 7 (62720)
I0509 17:40:03.380656 120291 net.cpp:137] Memory required for data: 534625280
I0509 17:40:03.380657 120291 layer_factory.hpp:77] Creating layer inception_5a/output
I0509 17:40:03.380661 120291 net.cpp:84] Creating Layer inception_5a/output
I0509 17:40:03.380664 120291 net.cpp:406] inception_5a/output <- inception_5a/1x1
I0509 17:40:03.380667 120291 net.cpp:406] inception_5a/output <- inception_5a/3x3
I0509 17:40:03.380671 120291 net.cpp:406] inception_5a/output <- inception_5a/5x5
I0509 17:40:03.380673 120291 net.cpp:406] inception_5a/output <- inception_5a/pool_proj
I0509 17:40:03.380677 120291 net.cpp:380] inception_5a/output -> inception_5a/output
I0509 17:40:03.380686 120291 net.cpp:122] Setting up inception_5a/output
I0509 17:40:03.380688 120291 net.cpp:129] Top shape: 10 832 7 7 (407680)
I0509 17:40:03.380692 120291 net.cpp:137] Memory required for data: 536256000
I0509 17:40:03.380693 120291 layer_factory.hpp:77] Creating layer inception_5a/output_inception_5a/output_0_split
I0509 17:40:03.380697 120291 net.cpp:84] Creating Layer inception_5a/output_inception_5a/output_0_split
I0509 17:40:03.380700 120291 net.cpp:406] inception_5a/output_inception_5a/output_0_split <- inception_5a/output
I0509 17:40:03.380705 120291 net.cpp:380] inception_5a/output_inception_5a/output_0_split -> inception_5a/output_inception_5a/output_0_split_0
I0509 17:40:03.380712 120291 net.cpp:380] inception_5a/output_inception_5a/output_0_split -> inception_5a/output_inception_5a/output_0_split_1
I0509 17:40:03.380717 120291 net.cpp:380] inception_5a/output_inception_5a/output_0_split -> inception_5a/output_inception_5a/output_0_split_2
I0509 17:40:03.380722 120291 net.cpp:380] inception_5a/output_inception_5a/output_0_split -> inception_5a/output_inception_5a/output_0_split_3
I0509 17:40:03.380728 120291 net.cpp:122] Setting up inception_5a/output_inception_5a/output_0_split
I0509 17:40:03.380733 120291 net.cpp:129] Top shape: 10 832 7 7 (407680)
I0509 17:40:03.380735 120291 net.cpp:129] Top shape: 10 832 7 7 (407680)
I0509 17:40:03.380738 120291 net.cpp:129] Top shape: 10 832 7 7 (407680)
I0509 17:40:03.380741 120291 net.cpp:129] Top shape: 10 832 7 7 (407680)
I0509 17:40:03.380744 120291 net.cpp:137] Memory required for data: 542778880
I0509 17:40:03.380746 120291 layer_factory.hpp:77] Creating layer inception_5b/1x1
I0509 17:40:03.380753 120291 net.cpp:84] Creating Layer inception_5b/1x1
I0509 17:40:03.380755 120291 net.cpp:406] inception_5b/1x1 <- inception_5a/output_inception_5a/output_0_split_0
I0509 17:40:03.380760 120291 net.cpp:380] inception_5b/1x1 -> inception_5b/1x1
I0509 17:40:03.380769 120291 base_conv_layer.cpp:121] Group is 1channel is832number of output is 384
I0509 17:40:03.382655 120291 net.cpp:122] Setting up inception_5b/1x1
I0509 17:40:03.382659 120291 net.cpp:129] Top shape: 10 384 7 7 (188160)
I0509 17:40:03.382663 120291 net.cpp:137] Memory required for data: 543531520
I0509 17:40:03.382666 120291 layer_factory.hpp:77] Creating layer inception_5b/relu_1x1
I0509 17:40:03.382670 120291 net.cpp:84] Creating Layer inception_5b/relu_1x1
I0509 17:40:03.382673 120291 net.cpp:406] inception_5b/relu_1x1 <- inception_5b/1x1
I0509 17:40:03.382679 120291 net.cpp:367] inception_5b/relu_1x1 -> inception_5b/1x1 (in-place)
I0509 17:40:03.382683 120291 net.cpp:122] Setting up inception_5b/relu_1x1
I0509 17:40:03.382686 120291 net.cpp:129] Top shape: 10 384 7 7 (188160)
I0509 17:40:03.382689 120291 net.cpp:137] Memory required for data: 544284160
I0509 17:40:03.382691 120291 layer_factory.hpp:77] Creating layer inception_5b/3x3_reduce
I0509 17:40:03.382701 120291 net.cpp:84] Creating Layer inception_5b/3x3_reduce
I0509 17:40:03.382704 120291 net.cpp:406] inception_5b/3x3_reduce <- inception_5a/output_inception_5a/output_0_split_1
I0509 17:40:03.382709 120291 net.cpp:380] inception_5b/3x3_reduce -> inception_5b/3x3_reduce
I0509 17:40:03.382717 120291 base_conv_layer.cpp:121] Group is 1channel is832number of output is 192
I0509 17:40:03.383659 120291 net.cpp:122] Setting up inception_5b/3x3_reduce
I0509 17:40:03.383664 120291 net.cpp:129] Top shape: 10 192 7 7 (94080)
I0509 17:40:03.383666 120291 net.cpp:137] Memory required for data: 544660480
I0509 17:40:03.383671 120291 layer_factory.hpp:77] Creating layer inception_5b/relu_3x3_reduce
I0509 17:40:03.383677 120291 net.cpp:84] Creating Layer inception_5b/relu_3x3_reduce
I0509 17:40:03.383679 120291 net.cpp:406] inception_5b/relu_3x3_reduce <- inception_5b/3x3_reduce
I0509 17:40:03.383683 120291 net.cpp:367] inception_5b/relu_3x3_reduce -> inception_5b/3x3_reduce (in-place)
I0509 17:40:03.383687 120291 net.cpp:122] Setting up inception_5b/relu_3x3_reduce
I0509 17:40:03.383692 120291 net.cpp:129] Top shape: 10 192 7 7 (94080)
I0509 17:40:03.383693 120291 net.cpp:137] Memory required for data: 545036800
I0509 17:40:03.383697 120291 layer_factory.hpp:77] Creating layer inception_5b/3x3
I0509 17:40:03.383703 120291 net.cpp:84] Creating Layer inception_5b/3x3
I0509 17:40:03.383705 120291 net.cpp:406] inception_5b/3x3 <- inception_5b/3x3_reduce
I0509 17:40:03.383711 120291 net.cpp:380] inception_5b/3x3 -> inception_5b/3x3
I0509 17:40:03.383718 120291 base_conv_layer.cpp:121] Group is 1channel is192number of output is 384
I0509 17:40:03.387619 120291 net.cpp:122] Setting up inception_5b/3x3
I0509 17:40:03.387624 120291 net.cpp:129] Top shape: 10 384 7 7 (188160)
I0509 17:40:03.387627 120291 net.cpp:137] Memory required for data: 545789440
I0509 17:40:03.387631 120291 layer_factory.hpp:77] Creating layer inception_5b/relu_3x3
I0509 17:40:03.387635 120291 net.cpp:84] Creating Layer inception_5b/relu_3x3
I0509 17:40:03.387639 120291 net.cpp:406] inception_5b/relu_3x3 <- inception_5b/3x3
I0509 17:40:03.387643 120291 net.cpp:367] inception_5b/relu_3x3 -> inception_5b/3x3 (in-place)
I0509 17:40:03.387648 120291 net.cpp:122] Setting up inception_5b/relu_3x3
I0509 17:40:03.387652 120291 net.cpp:129] Top shape: 10 384 7 7 (188160)
I0509 17:40:03.387655 120291 net.cpp:137] Memory required for data: 546542080
I0509 17:40:03.387657 120291 layer_factory.hpp:77] Creating layer inception_5b/5x5_reduce
I0509 17:40:03.387663 120291 net.cpp:84] Creating Layer inception_5b/5x5_reduce
I0509 17:40:03.387666 120291 net.cpp:406] inception_5b/5x5_reduce <- inception_5a/output_inception_5a/output_0_split_2
I0509 17:40:03.387670 120291 net.cpp:380] inception_5b/5x5_reduce -> inception_5b/5x5_reduce
I0509 17:40:03.387678 120291 base_conv_layer.cpp:121] Group is 1channel is832number of output is 48
I0509 17:40:03.387923 120291 net.cpp:122] Setting up inception_5b/5x5_reduce
I0509 17:40:03.387928 120291 net.cpp:129] Top shape: 10 48 7 7 (23520)
I0509 17:40:03.387930 120291 net.cpp:137] Memory required for data: 546636160
I0509 17:40:03.387935 120291 layer_factory.hpp:77] Creating layer inception_5b/relu_5x5_reduce
I0509 17:40:03.387938 120291 net.cpp:84] Creating Layer inception_5b/relu_5x5_reduce
I0509 17:40:03.387943 120291 net.cpp:406] inception_5b/relu_5x5_reduce <- inception_5b/5x5_reduce
I0509 17:40:03.387946 120291 net.cpp:367] inception_5b/relu_5x5_reduce -> inception_5b/5x5_reduce (in-place)
I0509 17:40:03.387951 120291 net.cpp:122] Setting up inception_5b/relu_5x5_reduce
I0509 17:40:03.387954 120291 net.cpp:129] Top shape: 10 48 7 7 (23520)
I0509 17:40:03.387958 120291 net.cpp:137] Memory required for data: 546730240
I0509 17:40:03.387959 120291 layer_factory.hpp:77] Creating layer inception_5b/5x5
I0509 17:40:03.387965 120291 net.cpp:84] Creating Layer inception_5b/5x5
I0509 17:40:03.387969 120291 net.cpp:406] inception_5b/5x5 <- inception_5b/5x5_reduce
I0509 17:40:03.387974 120291 net.cpp:380] inception_5b/5x5 -> inception_5b/5x5
I0509 17:40:03.387984 120291 base_conv_layer.cpp:121] Group is 1channel is48number of output is 128
I0509 17:40:03.388902 120291 net.cpp:122] Setting up inception_5b/5x5
I0509 17:40:03.388908 120291 net.cpp:129] Top shape: 10 128 7 7 (62720)
I0509 17:40:03.388911 120291 net.cpp:137] Memory required for data: 546981120
I0509 17:40:03.388916 120291 layer_factory.hpp:77] Creating layer inception_5b/relu_5x5
I0509 17:40:03.388921 120291 net.cpp:84] Creating Layer inception_5b/relu_5x5
I0509 17:40:03.388923 120291 net.cpp:406] inception_5b/relu_5x5 <- inception_5b/5x5
I0509 17:40:03.388927 120291 net.cpp:367] inception_5b/relu_5x5 -> inception_5b/5x5 (in-place)
I0509 17:40:03.388931 120291 net.cpp:122] Setting up inception_5b/relu_5x5
I0509 17:40:03.388936 120291 net.cpp:129] Top shape: 10 128 7 7 (62720)
I0509 17:40:03.388937 120291 net.cpp:137] Memory required for data: 547232000
I0509 17:40:03.388941 120291 layer_factory.hpp:77] Creating layer inception_5b/pool
I0509 17:40:03.388944 120291 net.cpp:84] Creating Layer inception_5b/pool
I0509 17:40:03.388948 120291 net.cpp:406] inception_5b/pool <- inception_5a/output_inception_5a/output_0_split_3
I0509 17:40:03.388952 120291 net.cpp:380] inception_5b/pool -> inception_5b/pool
I0509 17:40:03.388958 120291 net.cpp:122] Setting up inception_5b/pool
I0509 17:40:03.388962 120291 net.cpp:129] Top shape: 10 832 7 7 (407680)
I0509 17:40:03.388964 120291 net.cpp:137] Memory required for data: 548862720
I0509 17:40:03.388967 120291 layer_factory.hpp:77] Creating layer inception_5b/pool_proj
I0509 17:40:03.388973 120291 net.cpp:84] Creating Layer inception_5b/pool_proj
I0509 17:40:03.388977 120291 net.cpp:406] inception_5b/pool_proj <- inception_5b/pool
I0509 17:40:03.388983 120291 net.cpp:380] inception_5b/pool_proj -> inception_5b/pool_proj
I0509 17:40:03.388988 120291 base_conv_layer.cpp:121] Group is 1channel is832number of output is 128
I0509 17:40:03.389627 120291 net.cpp:122] Setting up inception_5b/pool_proj
I0509 17:40:03.389632 120291 net.cpp:129] Top shape: 10 128 7 7 (62720)
I0509 17:40:03.389636 120291 net.cpp:137] Memory required for data: 549113600
I0509 17:40:03.389639 120291 layer_factory.hpp:77] Creating layer inception_5b/relu_pool_proj
I0509 17:40:03.389643 120291 net.cpp:84] Creating Layer inception_5b/relu_pool_proj
I0509 17:40:03.389647 120291 net.cpp:406] inception_5b/relu_pool_proj <- inception_5b/pool_proj
I0509 17:40:03.389652 120291 net.cpp:367] inception_5b/relu_pool_proj -> inception_5b/pool_proj (in-place)
I0509 17:40:03.389655 120291 net.cpp:122] Setting up inception_5b/relu_pool_proj
I0509 17:40:03.389659 120291 net.cpp:129] Top shape: 10 128 7 7 (62720)
I0509 17:40:03.389662 120291 net.cpp:137] Memory required for data: 549364480
I0509 17:40:03.389664 120291 layer_factory.hpp:77] Creating layer inception_5b/output
I0509 17:40:03.389667 120291 net.cpp:84] Creating Layer inception_5b/output
I0509 17:40:03.389670 120291 net.cpp:406] inception_5b/output <- inception_5b/1x1
I0509 17:40:03.389673 120291 net.cpp:406] inception_5b/output <- inception_5b/3x3
I0509 17:40:03.389677 120291 net.cpp:406] inception_5b/output <- inception_5b/5x5
I0509 17:40:03.389679 120291 net.cpp:406] inception_5b/output <- inception_5b/pool_proj
I0509 17:40:03.389685 120291 net.cpp:380] inception_5b/output -> inception_5b/output
I0509 17:40:03.389691 120291 net.cpp:122] Setting up inception_5b/output
I0509 17:40:03.389694 120291 net.cpp:129] Top shape: 10 1024 7 7 (501760)
I0509 17:40:03.389698 120291 net.cpp:137] Memory required for data: 551371520
I0509 17:40:03.389699 120291 layer_factory.hpp:77] Creating layer pool5/7x7_s1
I0509 17:40:03.389703 120291 net.cpp:84] Creating Layer pool5/7x7_s1
I0509 17:40:03.389705 120291 net.cpp:406] pool5/7x7_s1 <- inception_5b/output
I0509 17:40:03.389709 120291 net.cpp:380] pool5/7x7_s1 -> pool5/7x7_s1
I0509 17:40:03.389715 120291 net.cpp:122] Setting up pool5/7x7_s1
I0509 17:40:03.389719 120291 net.cpp:129] Top shape: 10 1024 1 1 (10240)
I0509 17:40:03.389721 120291 net.cpp:137] Memory required for data: 551412480
I0509 17:40:03.389726 120291 layer_factory.hpp:77] Creating layer pool5/drop_7x7_s1
I0509 17:40:03.389732 120291 net.cpp:84] Creating Layer pool5/drop_7x7_s1
I0509 17:40:03.389735 120291 net.cpp:406] pool5/drop_7x7_s1 <- pool5/7x7_s1
I0509 17:40:03.389739 120291 net.cpp:367] pool5/drop_7x7_s1 -> pool5/7x7_s1 (in-place)
I0509 17:40:03.389744 120291 net.cpp:122] Setting up pool5/drop_7x7_s1
I0509 17:40:03.389749 120291 net.cpp:129] Top shape: 10 1024 1 1 (10240)
I0509 17:40:03.389750 120291 net.cpp:137] Memory required for data: 551453440
I0509 17:40:03.389753 120291 layer_factory.hpp:77] Creating layer loss3/classifier
I0509 17:40:03.389760 120291 net.cpp:84] Creating Layer loss3/classifier
I0509 17:40:03.389762 120291 net.cpp:406] loss3/classifier <- pool5/7x7_s1
I0509 17:40:03.389766 120291 net.cpp:380] loss3/classifier -> loss3/classifier
I0509 17:40:03.395413 120291 net.cpp:122] Setting up loss3/classifier
I0509 17:40:03.395421 120291 net.cpp:129] Top shape: 10 1000 (10000)
I0509 17:40:03.395422 120291 net.cpp:137] Memory required for data: 551493440
I0509 17:40:03.395427 120291 layer_factory.hpp:77] Creating layer prob
I0509 17:40:03.395431 120291 net.cpp:84] Creating Layer prob
I0509 17:40:03.395434 120291 net.cpp:406] prob <- loss3/classifier
I0509 17:40:03.395440 120291 net.cpp:380] prob -> prob
I0509 17:40:03.395450 120291 net.cpp:122] Setting up prob
I0509 17:40:03.395453 120291 net.cpp:129] Top shape: 10 1000 (10000)
I0509 17:40:03.395455 120291 net.cpp:137] Memory required for data: 551533440
I0509 17:40:03.395459 120291 net.cpp:200] prob does not need backward computation.
I0509 17:40:03.395462 120291 net.cpp:200] loss3/classifier does not need backward computation.
I0509 17:40:03.395464 120291 net.cpp:200] pool5/drop_7x7_s1 does not need backward computation.
I0509 17:40:03.395467 120291 net.cpp:200] pool5/7x7_s1 does not need backward computation.
…
