…
W0509 17:40:04.060469 120321 _caffe.cpp:139] DEPRECATION WARNING - deprecated use of Python interface
W0509 17:40:04.060492 120321 _caffe.cpp:140] Use this instead (with the named "weights" parameter):
W0509 17:40:04.060495 120321 _caffe.cpp:142] Net('models/bvlc_googlenet/deploy.prototxt', 1, weights='models/bvlc_googlenet/bvlc_googlenet_iter_5.caffemodel')
I0509 17:40:04.063503 120321 net.cpp:51] Initializing net from parameters: 
name: "GoogleNet"
state {
  phase: TEST
  level: 0
}
layer {
  name: "data"
  type: "Input"
  top: "data"
  input_param {
    shape {
      dim: 10
      dim: 3
      dim: 224
      dim: 224
    }
  }
}
layer {
  name: "conv1/7x7_s2"
  type: "Convolution"
  bottom: "data"
  top: "conv1/7x7_s2"
  param {
    lr_mult: 1
    decay_mult: 1
  }
  param {
    lr_mult: 2
    decay_mult: 0
  }
  convolution_param {
    num_output: 64
    pad: 3
    kernel_size: 7
    stride: 2
    weight_filler {
      type: "xavier"
      std: 0.1
    }
    bias_filler {
      type: "constant"
      value: 0.2
    }
  }
}
layer {
  name: "conv1/relu_7x7"
  type: "ReLU"
  bottom: "conv1/7x7_s2"
  top: "conv1/7x7_s2"
}
layer {
  name: "pool1/3x3_s2"
  type: "Pooling"
  bottom: "conv1/7x7_s2"
  top: "pool1/3x3_s2"
  pooling_param {
    pool: MAX
    kernel_size: 3
    stride: 2
  }
}
layer {
  name: "pool1/norm1"
  type: "LRN"
  bottom: "pool1/3x3_s2"
  top: "pool1/norm1"
  lrn_param {
    local_size: 5
    alpha: 0.0001
    beta: 0.75
  }
}
layer {
  name: "conv2/3x3_reduce"
  type: "Convolution"
  bottom: "pool1/norm1"
  top: "conv2/3x3_reduce"
  param {
    lr_mult: 1
    decay_mult: 1
  }
  param {
    lr_mult: 2
    decay_mult: 0
  }
  convolution_param {
    num_output: 64
    kernel_size: 1
    weight_filler {
      type: "xavier"
      std: 0.1
    }
    bias_filler {
      type: "constant"
      value: 0.2
    }
  }
}
layer {
  name: "conv2/relu_3x3_reduce"
  type: "ReLU"
  bottom: "conv2/3x3_reduce"
  top: "conv2/3x3_reduce"
}
layer {
  name: "conv2/3x3"
  type: "Convolution"
  bottom: "conv2/3x3_reduce"
  top: "conv2/3x3"
  param {
    lr_mult: 1
    decay_mult: 1
  }
  param {
    lr_mult: 2
    decay_mult: 0
  }
  convolution_param {
    num_output: 192
    pad: 1
    kernel_size: 3
    weight_filler {
      type: "xavier"
      std: 0.03
    }
    bias_filler {
      type: "constant"
      value: 0.2
    }
  }
}
layer {
  name: "conv2/relu_3x3"
  type: "ReLU"
  bottom: "conv2/3x3"
  top: "conv2/3x3"
}
layer {
  name: "conv2/norm2"
  type: "LRN"
  bottom: "conv2/3x3"
  top: "conv2/norm2"
  lrn_param {
    local_size: 5
    alpha: 0.0001
    beta: 0.75
  }
}
layer {
  name: "pool2/3x3_s2"
  type: "Pooling"
  bottom: "conv2/norm2"
  top: "pool2/3x3_s2"
  pooling_param {
    pool: MAX
    kernel_size: 3
    stride: 2
  }
}
layer {
  name: "inception_3a/1x1"
  type: "Convolution"
  bottom: "pool2/3x3_s2"
  top: "inception_3a/1x1"
  param {
    lr_mult: 1
    decay_mult: 1
  }
  param {
    lr_mult: 2
    decay_mult: 0
  }
  convolution_param {
    num_output: 64
    kernel_size: 1
    weight_filler {
      type: "xavier"
      std: 0.03
    }
    bias_filler {
      type: "constant"
      value: 0.2
    }
  }
}
layer {
  name: "inception_3a/relu_1x1"
  type: "ReLU"
  bottom: "inception_3a/1x1"
  top: "inception_3a/1x1"
}
layer {
  name: "inception_3a/3x3_reduce"
  type: "Convolution"
  bottom: "pool2/3x3_s2"
  top: "inception_3a/3x3_reduce"
  param {
    lr_mult: 1
    decay_mult: 1
  }
  param {
    lr_mult: 2
    decay_mult: 0
  }
  convolution_param {
    num_output: 96
    kernel_size: 1
    weight_filler {
      type: "xavier"
      std: 0.09
    }
    bias_filler {
      type: "constant"
      value: 0.2
    }
  }
}
layer {
  name: "inception_3a/relu_3x3_reduce"
  type: "ReLU"
  bottom: "inception_3a/3x3_reduce"
  top: "inception_3a/3x3_reduce"
}
layer {
  name: "inception_3a/3x3"
  type: "Convolution"
  bottom: "inception_3a/3x3_reduce"
  top: "inception_3a/3x3"
  param {
    lr_mult: 1
    decay_mult: 1
  }
  param {
    lr_mult: 2
    decay_mult: 0
  }
  convolution_param {
    num_output: 128
    pad: 1
    kernel_size: 3
    weight_filler {
      type: "xavier"
      std: 0.03
    }
    bias_filler {
      type: "constant"
      value: 0.2
    }
  }
}
layer {
  name: "inception_3a/relu_3x3"
  type: "ReLU"
  bottom: "inception_3a/3x3"
  top: "inception_3a/3x3"
}
layer {
  name: "inception_3a/5x5_reduce"
  type: "Convolution"
  bottom: "pool2/3x3_s2"
  top: "inception_3a/5x5_reduce"
  param {
    lr_mult: 1
    decay_mult: 1
  }
  param {
    lr_mult: 2
    decay_mult: 0
  }
  convolution_param {
    num_output: 16
    kernel_size: 1
    weight_filler {
      type: "xavier"
      std: 0.2
    }
    bias_filler {
      type: "constant"
      value: 0.2
    }
  }
}
layer {
  name: "inception_3a/relu_5x5_reduce"
  type: "ReLU"
  bottom: "inception_3a/5x5_reduce"
  top: "inception_3a/5x5_reduce"
}
layer {
  name: "inception_3a/5x5"
  type: "Convolution"
  bottom: "inception_3a/5x5_reduce"
  top: "inception_3a/5x5"
  param {
    lr_mult: 1
    decay_mult: 1
  }
  param {
    lr_mult: 2
    decay_mult: 0
  }
  convolution_param {
    num_output: 32
    pad: 2
    kernel_size: 5
    weight_filler {
      type: "xavier"
      std: 0.03
    }
    bias_filler {
      type: "constant"
      value: 0.2
    }
  }
}
layer {
  name: "inception_3a/relu_5x5"
  type: "ReLU"
  bottom: "inception_3a/5x5"
  top: "inception_3a/5x5"
}
layer {
  name: "inception_3a/pool"
  type: "Pooling"
  bottom: "pool2/3x3_s2"
  top: "inception_3a/pool"
  pooling_param {
    pool: MAX
    kernel_size: 3
    stride: 1
    pad: 1
  }
}
layer {
  name: "inception_3a/pool_proj"
  type: "Convolution"
  bottom: "inception_3a/pool"
  top: "inception_3a/pool_proj"
  param {
    lr_mult: 1
    decay_mult: 1
  }
  param {
    lr_mult: 2
    decay_mult: 0
  }
  convolution_param {
    num_output: 32
    kernel_size: 1
    weight_filler {
      type: "xavier"
      std: 0.1
    }
    bias_filler {
      type: "constant"
      value: 0.2
    }
  }
}
layer {
  name: "inception_3a/relu_pool_proj"
  type: "ReLU"
  bottom: "inception_3a/pool_proj"
  top: "inception_3a/pool_proj"
}
layer {
  name: "inception_3a/output"
  type: "Concat"
  bottom: "inception_3a/1x1"
  bottom: "inception_3a/3x3"
  bottom: "inception_3a/5x5"
  bottom: "inception_3a/pool_proj"
  top: "inception_3a/output"
}
layer {
  name: "inception_3b/1x1"
  type: "Convolution"
  bottom: "inception_3a/output"
  top: "inception_3b/1x1"
  param {
    lr_mult: 1
    decay_mult: 1
  }
  param {
    lr_mult: 2
    decay_mult: 0
  }
  convolution_param {
    num_output: 128
    kernel_size: 1
    weight_filler {
      type: "xavier"
      std: 0.03
    }
    bias_filler {
      type: "constant"
      value: 0.2
    }
  }
}
layer {
  name: "inception_3b/relu_1x1"
  type: "ReLU"
  bottom: "inception_3b/1x1"
  top: "inception_3b/1x1"
}
layer {
  name: "inception_3b/3x3_reduce"
  type: "Convolution"
  bottom: "inception_3a/output"
  top: "inception_3b/3x3_reduce"
  param {
    lr_mult: 1
    decay_mult: 1
  }
  param {
    lr_mult: 2
    decay_mult: 0
  }
  convolution_param {
    num_output: 128
    kernel_size: 1
    weight_filler {
      type: "xavier"
      std: 0.09
    }
    bias_filler {
      type: "constant"
      value: 0.2
    }
  }
}
layer {
  name: "inception_3b/relu_3x3_reduce"
  type: "ReLU"
  bottom: "inception_3b/3x3_reduce"
  top: "inception_3b/3x3_reduce"
}
layer {
  name: "inception_3b/3x3"
  type: "Convolution"
  bottom: "inception_3b/3x3_reduce"
  top: "inception_3b/3x3"
  param {
    lr_mult: 1
    decay_mult: 1
  }
  param {
    lr_mult: 2
    decay_mult: 0
  }
  convolution_param {
    num_output: 192
    pad: 1
    kernel_size: 3
    weight_filler {
      type: "xavier"
      std: 0.03
    }
    bias_filler {
      type: "constant"
      value: 0.2
    }
  }
}
layer {
  name: "inception_3b/relu_3x3"
  type: "ReLU"
  bottom: "inception_3b/3x3"
  top: "inception_3b/3x3"
}
layer {
  name: "inception_3b/5x5_reduce"
  type: "Convolution"
  bottom: "inception_3a/output"
  top: "inception_3b/5x5_reduce"
  param {
    lr_mult: 1
    decay_mult: 1
  }
  param {
    lr_mult: 2
    decay_mult: 0
  }
  convolution_param {
    num_output: 32
    kernel_size: 1
    weight_filler {
      type: "xavier"
      std: 0.2
    }
    bias_filler {
      type: "constant"
      value: 0.2
    }
  }
}
layer {
  name: "inception_3b/relu_5x5_reduce"
  type: "ReLU"
  bottom: "inception_3b/5x5_reduce"
  top: "inception_3b/5x5_reduce"
}
layer {
  name: "inception_3b/5x5"
  type: "Convolution"
  bottom: "inception_3b/5x5_reduce"
  top: "inception_3b/5x5"
  param {
    lr_mult: 1
    decay_mult: 1
  }
  param {
    lr_mult: 2
    decay_mult: 0
  }
  convolution_param {
    num_output: 96
    pad: 2
    kernel_size: 5
    weight_filler {
      type: "xavier"
      std: 0.03
    }
    bias_filler {
      type: "constant"
      value: 0.2
    }
  }
}
layer {
  name: "inception_3b/relu_5x5"
  type: "ReLU"
  bottom: "inception_3b/5x5"
  top: "inception_3b/5x5"
}
layer {
  name: "inception_3b/pool"
  type: "Pooling"
  bottom: "inception_3a/output"
  top: "inception_3b/pool"
  pooling_param {
    pool: MAX
    kernel_size: 3
    stride: 1
    pad: 1
  }
}
layer {
  name: "inception_3b/pool_proj"
  type: "Convolution"
  bottom: "inception_3b/pool"
  top: "inception_3b/pool_proj"
  param {
    lr_mult: 1
    decay_mult: 1
  }
  param {
    lr_mult: 2
    decay_mult: 0
  }
  convolution_param {
    num_output: 64
    kernel_size: 1
    weight_filler {
      type: "xavier"
      std: 0.1
    }
    bias_filler {
      type: "constant"
      value: 0.2
    }
  }
}
layer {
  name: "inception_3b/relu_pool_proj"
  type: "ReLU"
  bottom: "inception_3b/pool_proj"
  top: "inception_3b/pool_proj"
}
layer {
  name: "inception_3b/output"
  type: "Concat"
  bottom: "inception_3b/1x1"
  bottom: "inception_3b/3x3"
  bottom: "inception_3b/5x5"
  bottom: "inception_3b/pool_proj"
  top: "inception_3b/output"
}
layer {
  name: "pool3/3x3_s2"
  type: "Pooling"
  bottom: "inception_3b/output"
  top: "pool3/3x3_s2"
  pooling_param {
    pool: MAX
    kernel_size: 3
    stride: 2
  }
}
layer {
  name: "inception_4a/1x1"
  type: "Convolution"
  bottom: "pool3/3x3_s2"
  top: "inception_4a/1x1"
  param {
    lr_mult: 1
    decay_mult: 1
  }
  param {
    lr_mult: 2
    decay_mult: 0
  }
  convolution_param {
    num_output: 192
    kernel_size: 1
    weight_filler {
      type: "xavier"
      std: 0.03
    }
    bias_filler {
      type: "constant"
      value: 0.2
    }
  }
}
layer {
  name: "inception_4a/relu_1x1"
  type: "ReLU"
  bottom: "inception_4a/1x1"
  top: "inception_4a/1x1"
}
layer {
  name: "inception_4a/3x3_reduce"
  type: "Convolution"
  bottom: "pool3/3x3_s2"
  top: "inception_4a/3x3_reduce"
  param {
    lr_mult: 1
    decay_mult: 1
  }
  param {
    lr_mult: 2
    decay_mult: 0
  }
  convolution_param {
    num_output: 96
    kernel_size: 1
    weight_filler {
      type: "xavier"
      std: 0.09
    }
    bias_filler {
      type: "constant"
      value: 0.2
    }
  }
}
layer {
  name: "inception_4a/relu_3x3_reduce"
  type: "ReLU"
  bottom: "inception_4a/3x3_reduce"
  top: "inception_4a/3x3_reduce"
}
layer {
  name: "inception_4a/3x3"
  type: "Convolution"
  bottom: "inception_4a/3x3_reduce"
  top: "inception_4a/3x3"
  param {
    lr_mult: 1
    decay_mult: 1
  }
  param {
    lr_mult: 2
    decay_mult: 0
  }
  convolution_param {
    num_output: 208
    pad: 1
    kernel_size: 3
    weight_filler {
      type: "xavier"
      std: 0.03
    }
    bias_filler {
      type: "constant"
      value: 0.2
    }
  }
}
layer {
  name: "inception_4a/relu_3x3"
  type: "ReLU"
  bottom: "inception_4a/3x3"
  top: "inception_4a/3x3"
}
layer {
  name: "inception_4a/5x5_reduce"
  type: "Convolution"
  bottom: "pool3/3x3_s2"
  top: "inception_4a/5x5_reduce"
  param {
    lr_mult: 1
    decay_mult: 1
  }
  param {
    lr_mult: 2
    decay_mult: 0
  }
  convolution_param {
    num_output: 16
    kernel_size: 1
    weight_filler {
      type: "xavier"
      std: 0.2
    }
    bias_filler {
      type: "constant"
      value: 0.2
    }
  }
}
layer {
  name: "inception_4a/relu_5x5_reduce"
  type: "ReLU"
  bottom: "inception_4a/5x5_reduce"
  top: "inception_4a/5x5_reduce"
}
layer {
  name: "inception_4a/5x5"
  type: "Convolution"
  bottom: "inception_4a/5x5_reduce"
  top: "inception_4a/5x5"
  param {
    lr_mult: 1
    decay_mult: 1
  }
  param {
    lr_mult: 2
    decay_mult: 0
  }
  convolution_param {
    num_output: 48
    pad: 2
    kernel_size: 5
    weight_filler {
      type: "xavier"
      std: 0.03
    }
    bias_filler {
      type: "constant"
      value: 0.2
    }
  }
}
layer {
  name: "inception_4a/relu_5x5"
  type: "ReLU"
  bottom: "inception_4a/5x5"
  top: "inception_4a/5x5"
}
layer {
  name: "inception_4a/pool"
  type: "Pooling"
  bottom: "pool3/3x3_s2"
  top: "inception_4a/pool"
  pooling_param {
    pool: MAX
    kernel_size: 3
    stride: 1
    pad: 1
  }
}
layer {
  name: "inception_4a/pool_proj"
  type: "Convolution"
  bottom: "inception_4a/pool"
  top: "inception_4a/pool_proj"
  param {
    lr_mult: 1
    decay_mult: 1
  }
  param {
    lr_mult: 2
    decay_mult: 0
  }
  convolution_param {
    num_output: 64
    kernel_size: 1
    weight_filler {
      type: "xavier"
      std: 0.1
    }
    bias_filler {
      type: "constant"
      value: 0.2
    }
  }
}
layer {
  name: "inception_4a/relu_pool_proj"
  type: "ReLU"
  bottom: "inception_4a/pool_proj"
  top: "inception_4a/pool_proj"
}
layer {
  name: "inception_4a/output"
  type: "Concat"
  bottom: "inception_4a/1x1"
  bottom: "inception_4a/3x3"
  bottom: "inception_4a/5x5"
  bottom: "inception_4a/pool_proj"
  top: "inception_4a/output"
}
layer {
  name: "inception_4b/1x1"
  type: "Convolution"
  bottom: "inception_4a/output"
  top: "inception_4b/1x1"
  param {
    lr_mult: 1
    decay_mult: 1
  }
  param {
    lr_mult: 2
    decay_mult: 0
  }
  convolution_param {
    num_output: 160
    kernel_size: 1
    weight_filler {
      type: "xavier"
      std: 0.03
    }
    bias_filler {
      type: "constant"
      value: 0.2
    }
  }
}
layer {
  name: "inception_4b/relu_1x1"
  type: "ReLU"
  bottom: "inception_4b/1x1"
  top: "inception_4b/1x1"
}
layer {
  name: "inception_4b/3x3_reduce"
  type: "Convolution"
  bottom: "inception_4a/output"
  top: "inception_4b/3x3_reduce"
  param {
    lr_mult: 1
    decay_mult: 1
  }
  param {
    lr_mult: 2
    decay_mult: 0
  }
  convolution_param {
    num_output: 112
    kernel_size: 1
    weight_filler {
      type: "xavier"
      std: 0.09
    }
    bias_filler {
      type: "constant"
      value: 0.2
    }
  }
}
layer {
  name: "inception_4b/relu_3x3_reduce"
  type: "ReLU"
  bottom: "inception_4b/3x3_reduce"
  top: "inception_4b/3x3_reduce"
}
layer {
  name: "inception_4b/3x3"
  type: "Convolution"
  bottom: "inception_4b/3x3_reduce"
  top: "inception_4b/3x3"
  param {
    lr_mult: 1
    decay_mult: 1
  }
  param {
    lr_mult: 2
    decay_mult: 0
  }
  convolution_param {
    num_output: 224
    pad: 1
    kernel_size: 3
    weight_filler {
      type: "xavier"
      std: 0.03
    }
    bias_filler {
      type: "constant"
      value: 0.2
    }
  }
}
layer {
  name: "inception_4b/relu_3x3"
  type: "ReLU"
  bottom: "inception_4b/3x3"
  top: "inception_4b/3x3"
}
layer {
  name: "inception_4b/5x5_reduce"
  type: "Convolution"
  bottom: "inception_4a/output"
  top: "inception_4b/5x5_reduce"
  param {
    lr_mult: 1
    decay_mult: 1
  }
  param {
    lr_mult: 2
    decay_mult: 0
  }
  convolution_param {
    num_output: 24
    kernel_size: 1
    weight_filler {
      type: "xavier"
      std: 0.2
    }
    bias_filler {
      type: "constant"
      value: 0.2
    }
  }
}
layer {
  name: "inception_4b/relu_5x5_reduce"
  type: "ReLU"
  bottom: "inception_4b/5x5_reduce"
  top: "inception_4b/5x5_reduce"
}
layer {
  name: "inception_4b/5x5"
  type: "Convolution"
  bottom: "inception_4b/5x5_reduce"
  top: "inception_4b/5x5"
  param {
    lr_mult: 1
    decay_mult: 1
  }
  param {
    lr_mult: 2
    decay_mult: 0
  }
  convolution_param {
    num_output: 64
    pad: 2
    kernel_size: 5
    weight_filler {
      type: "xavier"
      std: 0.03
    }
    bias_filler {
      type: "constant"
      value: 0.2
    }
  }
}
layer {
  name: "inception_4b/relu_5x5"
  type: "ReLU"
  bottom: "inception_4b/5x5"
  top: "inception_4b/5x5"
}
layer {
  name: "inception_4b/pool"
  type: "Pooling"
  bottom: "inception_4a/output"
  top: "inception_4b/pool"
  pooling_param {
    pool: MAX
    kernel_size: 3
    stride: 1
    pad: 1
  }
}
layer {
  name: "inception_4b/pool_proj"
  type: "Convolution"
  bottom: "inception_4b/pool"
  top: "inception_4b/pool_proj"
  param {
    lr_mult: 1
    decay_mult: 1
  }
  param {
    lr_mult: 2
    decay_mult: 0
  }
  convolution_param {
    num_output: 64
    kernel_size: 1
    weight_filler {
      type: "xavier"
      std: 0.1
    }
    bias_filler {
      type: "constant"
      value: 0.2
    }
  }
}
layer {
  name: "inception_4b/relu_pool_proj"
  type: "ReLU"
  bottom: "inception_4b/pool_proj"
  top: "inception_4b/pool_proj"
}
layer {
  name: "inception_4b/output"
  type: "Concat"
  bottom: "inception_4b/1x1"
  bottom: "inception_4b/3x3"
  bottom: "inception_4b/5x5"
  bottom: "inception_4b/pool_proj"
  top: "inception_4b/output"
}
layer {
  name: "inception_4c/1x1"
  type: "Convolution"
  bottom: "inception_4b/output"
  top: "inception_4c/1x1"
  param {
    lr_mult: 1
    decay_mult: 1
  }
  param {
    lr_mult: 2
    decay_mult: 0
  }
  convolution_param {
    num_output: 128
    kernel_size: 1
    weight_filler {
      type: "xavier"
      std: 0.03
    }
    bias_filler {
      type: "constant"
      value: 0.2
    }
  }
}
layer {
  name: "inception_4c/relu_1x1"
  type: "ReLU"
  bottom: "inception_4c/1x1"
  top: "inception_4c/1x1"
}
layer {
  name: "inception_4c/3x3_reduce"
  type: "Convolution"
  bottom: "inception_4b/output"
  top: "inception_4c/3x3_reduce"
  param {
    lr_mult: 1
    decay_mult: 1
  }
  param {
    lr_mult: 2
    decay_mult: 0
  }
  convolution_param {
    num_output: 128
    kernel_size: 1
    weight_filler {
      type: "xavier"
      std: 0.09
    }
    bias_filler {
      type: "constant"
      value: 0.2
    }
  }
}
layer {
  name: "inception_4c/relu_3x3_reduce"
  type: "ReLU"
  bottom: "inception_4c/3x3_reduce"
  top: "inception_4c/3x3_reduce"
}
layer {
  name: "inception_4c/3x3"
  type: "Convolution"
  bottom: "inception_4c/3x3_reduce"
  top: "inception_4c/3x3"
  param {
    lr_mult: 1
    decay_mult: 1
  }
  param {
    lr_mult: 2
    decay_mult: 0
  }
  convolution_param {
    num_output: 256
    pad: 1
    kernel_size: 3
    weight_filler {
      type: "xavier"
      std: 0.03
    }
    bias_filler {
      type: "constant"
      value: 0.2
    }
  }
}
layer {
  name: "inception_4c/relu_3x3"
  type: "ReLU"
  bottom: "inception_4c/3x3"
  top: "inception_4c/3x3"
}
layer {
  name: "inception_4c/5x5_reduce"
  type: "Convolution"
  bottom: "inception_4b/output"
  top: "inception_4c/5x5_reduce"
  param {
    lr_mult: 1
    decay_mult: 1
  }
  param {
    lr_mult: 2
    decay_mult: 0
  }
  convolution_param {
    num_output: 24
    kernel_size: 1
    weight_filler {
      type: "xavier"
      std: 0.2
    }
    bias_filler {
      type: "constant"
      value: 0.2
    }
  }
}
layer {
  name: "inception_4c/relu_5x5_reduce"
  type: "ReLU"
  bottom: "inception_4c/5x5_reduce"
  top: "inception_4c/5x5_reduce"
}
layer {
  name: "inception_4c/5x5"
  type: "Convolution"
  bottom: "inception_4c/5x5_reduce"
  top: "inception_4c/5x5"
  param {
    lr_mult: 1
    decay_mult: 1
  }
  param {
    lr_mult: 2
    decay_mult: 0
  }
  convolution_param {
    num_output: 64
    pad: 2
    kernel_size: 5
    weight_filler {
      type: "xavier"
      std: 0.03
    }
    bias_filler {
      type: "constant"
      value: 0.2
    }
  }
}
layer {
  name: "inception_4c/relu_5x5"
  type: "ReLU"
  bottom: "inception_4c/5x5"
  top: "inception_4c/5x5"
}
layer {
  name: "inception_4c/pool"
  type: "Pooling"
  bottom: "inception_4b/output"
  top: "inception_4c/pool"
  pooling_param {
    pool: MAX
    kernel_size: 3
    stride: 1
    pad: 1
  }
}
layer {
  name: "inception_4c/pool_proj"
  type: "Convolution"
  bottom: "inception_4c/pool"
  top: "inception_4c/pool_proj"
  param {
    lr_mult: 1
    decay_mult: 1
  }
  param {
    lr_mult: 2
    decay_mult: 0
  }
  convolution_param {
    num_output: 64
    kernel_size: 1
    weight_filler {
      type: "xavier"
      std: 0.1
    }
    bias_filler {
      type: "constant"
      value: 0.2
    }
  }
}
layer {
  name: "inception_4c/relu_pool_proj"
  type: "ReLU"
  bottom: "inception_4c/pool_proj"
  top: "inception_4c/pool_proj"
}
layer {
  name: "inception_4c/output"
  type: "Concat"
  bottom: "inception_4c/1x1"
  bottom: "inception_4c/3x3"
  bottom: "inception_4c/5x5"
  bottom: "inception_4c/pool_proj"
  top: "inception_4c/output"
}
layer {
  name: "inception_4d/1x1"
  type: "Convolution"
  bottom: "inception_4c/output"
  top: "inception_4d/1x1"
  param {
    lr_mult: 1
    decay_mult: 1
  }
  param {
    lr_mult: 2
    decay_mult: 0
  }
  convolution_param {
    num_output: 112
    kernel_size: 1
    weight_filler {
      type: "xavier"
      std: 0.03
    }
    bias_filler {
      type: "constant"
      value: 0.2
    }
  }
}
layer {
  name: "inception_4d/relu_1x1"
  type: "ReLU"
  bottom: "inception_4d/1x1"
  top: "inception_4d/1x1"
}
layer {
  name: "inception_4d/3x3_reduce"
  type: "Convolution"
  bottom: "inception_4c/output"
  top: "inception_4d/3x3_reduce"
  param {
    lr_mult: 1
    decay_mult: 1
  }
  param {
    lr_mult: 2
    decay_mult: 0
  }
  convolution_param {
    num_output: 144
    kernel_size: 1
    weight_filler {
      type: "xavier"
      std: 0.09
    }
    bias_filler {
      type: "constant"
      value: 0.2
    }
  }
}
layer {
  name: "inception_4d/relu_3x3_reduce"
  type: "ReLU"
  bottom: "inception_4d/3x3_reduce"
  top: "inception_4d/3x3_reduce"
}
layer {
  name: "inception_4d/3x3"
  type: "Convolution"
  bottom: "inception_4d/3x3_reduce"
  top: "inception_4d/3x3"
  param {
    lr_mult: 1
    decay_mult: 1
  }
  param {
    lr_mult: 2
    decay_mult: 0
  }
  convolution_param {
    num_output: 288
    pad: 1
    kernel_size: 3
    weight_filler {
      type: "xavier"
      std: 0.03
    }
    bias_filler {
      type: "constant"
      value: 0.2
    }
  }
}
layer {
  name: "inception_4d/relu_3x3"
  type: "ReLU"
  bottom: "inception_4d/3x3"
  top: "inception_4d/3x3"
}
layer {
  name: "inception_4d/5x5_reduce"
  type: "Convolution"
  bottom: "inception_4c/output"
  top: "inception_4d/5x5_reduce"
  param {
    lr_mult: 1
    decay_mult: 1
  }
  param {
    lr_mult: 2
    decay_mult: 0
  }
  convolution_param {
    num_output: 32
    kernel_size: 1
    weight_filler {
      type: "xavier"
      std: 0.2
    }
    bias_filler {
      type: "constant"
      value: 0.2
    }
  }
}
layer {
  name: "inception_4d/relu_5x5_reduce"
  type: "ReLU"
  bottom: "inception_4d/5x5_reduce"
  top: "inception_4d/5x5_reduce"
}
layer {
  name: "inception_4d/5x5"
  type: "Convolution"
  bottom: "inception_4d/5x5_reduce"
  top: "inception_4d/5x5"
  param {
    lr_mult: 1
    decay_mult: 1
  }
  param {
    lr_mult: 2
    decay_mult: 0
  }
  convolution_param {
    num_output: 64
    pad: 2
    kernel_size: 5
    weight_filler {
      type: "xavier"
      std: 0.03
    }
    bias_filler {
      type: "constant"
      value: 0.2
    }
  }
}
layer {
  name: "inception_4d/relu_5x5"
  type: "ReLU"
  bottom: "inception_4d/5x5"
  top: "inception_4d/5x5"
}
layer {
  name: "inception_4d/pool"
  type: "Pooling"
  bottom: "inception_4c/output"
  top: "inception_4d/pool"
  pooling_param {
    pool: MAX
    kernel_size: 3
    stride: 1
    pad: 1
  }
}
layer {
  name: "inception_4d/pool_proj"
  type: "Convolution"
  bottom: "inception_4d/pool"
  top: "inception_4d/pool_proj"
  param {
    lr_mult: 1
    decay_mult: 1
  }
  param {
    lr_mult: 2
    decay_mult: 0
  }
  convolution_param {
    num_output: 64
    kernel_size: 1
    weight_filler {
      type: "xavier"
      std: 0.1
    }
    bias_filler {
      type: "constant"
      value: 0.2
    }
  }
}
layer {
  name: "inception_4d/relu_pool_proj"
  type: "ReLU"
  bottom: "inception_4d/pool_proj"
  top: "inception_4d/pool_proj"
}
layer {
  name: "inception_4d/output"
  type: "Concat"
  bottom: "inception_4d/1x1"
  bottom: "inception_4d/3x3"
  bottom: "inception_4d/5x5"
  bottom: "inception_4d/pool_proj"
  top: "inception_4d/output"
}
layer {
  name: "inception_4e/1x1"
  type: "Convolution"
  bottom: "inception_4d/output"
  top: "inception_4e/1x1"
  param {
    lr_mult: 1
    decay_mult: 1
  }
  param {
    lr_mult: 2
    decay_mult: 0
  }
  convolution_param {
    num_output: 256
    kernel_size: 1
    weight_filler {
      type: "xavier"
      std: 0.03
    }
    bias_filler {
      type: "constant"
      value: 0.2
    }
  }
}
layer {
  name: "inception_4e/relu_1x1"
  type: "ReLU"
  bottom: "inception_4e/1x1"
  top: "inception_4e/1x1"
}
layer {
  name: "inception_4e/3x3_reduce"
  type: "Convolution"
  bottom: "inception_4d/output"
  top: "inception_4e/3x3_reduce"
  param {
    lr_mult: 1
    decay_mult: 1
  }
  param {
    lr_mult: 2
    decay_mult: 0
  }
  convolution_param {
    num_output: 160
    kernel_size: 1
    weight_filler {
      type: "xavier"
      std: 0.09
    }
    bias_filler {
      type: "constant"
      value: 0.2
    }
  }
}
layer {
  name: "inception_4e/relu_3x3_reduce"
  type: "ReLU"
  bottom: "inception_4e/3x3_reduce"
  top: "inception_4e/3x3_reduce"
}
layer {
  name: "inception_4e/3x3"
  type: "Convolution"
  bottom: "inception_4e/3x3_reduce"
  top: "inception_4e/3x3"
  param {
    lr_mult: 1
    decay_mult: 1
  }
  param {
    lr_mult: 2
    decay_mult: 0
  }
  convolution_param {
    num_output: 320
    pad: 1
    kernel_size: 3
    weight_filler {
      type: "xavier"
      std: 0.03
    }
    bias_filler {
      type: "constant"
      value: 0.2
    }
  }
}
layer {
  name: "inception_4e/relu_3x3"
  type: "ReLU"
  bottom: "inception_4e/3x3"
  top: "inception_4e/3x3"
}
layer {
  name: "inception_4e/5x5_reduce"
  type: "Convolution"
  bottom: "inception_4d/output"
  top: "inception_4e/5x5_reduce"
  param {
    lr_mult: 1
    decay_mult: 1
  }
  param {
    lr_mult: 2
    decay_mult: 0
  }
  convolution_param {
    num_output: 32
    kernel_size: 1
    weight_filler {
      type: "xavier"
      std: 0.2
    }
    bias_filler {
      type: "constant"
      value: 0.2
    }
  }
}
layer {
  name: "inception_4e/relu_5x5_reduce"
  type: "ReLU"
  bottom: "inception_4e/5x5_reduce"
  top: "inception_4e/5x5_reduce"
}
layer {
  name: "inception_4e/5x5"
  type: "Convolution"
  bottom: "inception_4e/5x5_reduce"
  top: "inception_4e/5x5"
  param {
    lr_mult: 1
    decay_mult: 1
  }
  param {
    lr_mult: 2
    decay_mult: 0
  }
  convolution_param {
    num_output: 128
    pad: 2
    kernel_size: 5
    weight_filler {
      type: "xavier"
      std: 0.03
    }
    bias_filler {
      type: "constant"
      value: 0.2
    }
  }
}
layer {
  name: "inception_4e/relu_5x5"
  type: "ReLU"
  bottom: "inception_4e/5x5"
  top: "inception_4e/5x5"
}
layer {
  name: "inception_4e/pool"
  type: "Pooling"
  bottom: "inception_4d/output"
  top: "inception_4e/pool"
  pooling_param {
    pool: MAX
    kernel_size: 3
    stride: 1
    pad: 1
  }
}
layer {
  name: "inception_4e/pool_proj"
  type: "Convolution"
  bottom: "inception_4e/pool"
  top: "inception_4e/pool_proj"
  param {
    lr_mult: 1
    decay_mult: 1
  }
  param {
    lr_mult: 2
    decay_mult: 0
  }
  convolution_param {
    num_output: 128
    kernel_size: 1
    weight_filler {
      type: "xavier"
      std: 0.1
    }
    bias_filler {
      type: "constant"
      value: 0.2
    }
  }
}
layer {
  name: "inception_4e/relu_pool_proj"
  type: "ReLU"
  bottom: "inception_4e/pool_proj"
  top: "inception_4e/pool_proj"
}
layer {
  name: "inception_4e/output"
  type: "Concat"
  bottom: "inception_4e/1x1"
  bottom: "inception_4e/3x3"
  bottom: "inception_4e/5x5"
  bottom: "inception_4e/pool_proj"
  top: "inception_4e/output"
}
layer {
  name: "pool4/3x3_s2"
  type: "Pooling"
  bottom: "inception_4e/output"
  top: "pool4/3x3_s2"
  pooling_param {
    pool: MAX
    kernel_size: 3
    stride: 2
  }
}
layer {
  name: "inception_5a/1x1"
  type: "Convolution"
  bottom: "pool4/3x3_s2"
  top: "inception_5a/1x1"
  param {
    lr_mult: 1
    decay_mult: 1
  }
  param {
    lr_mult: 2
    decay_mult: 0
  }
  convolution_param {
    num_output: 256
    kernel_size: 1
    weight_filler {
      type: "xavier"
      std: 0.03
    }
    bias_filler {
      type: "constant"
      value: 0.2
    }
  }
}
layer {
  name: "inception_5a/relu_1x1"
  type: "ReLU"
  bottom: "inception_5a/1x1"
  top: "inception_5a/1x1"
}
layer {
  name: "inception_5a/3x3_reduce"
  type: "Convolution"
  bottom: "pool4/3x3_s2"
  top: "inception_5a/3x3_reduce"
  param {
    lr_mult: 1
    decay_mult: 1
  }
  param {
    lr_mult: 2
    decay_mult: 0
  }
  convolution_param {
    num_output: 160
    kernel_size: 1
    weight_filler {
      type: "xavier"
      std: 0.09
    }
    bias_filler {
      type: "constant"
      value: 0.2
    }
  }
}
layer {
  name: "inception_5a/relu_3x3_reduce"
  type: "ReLU"
  bottom: "inception_5a/3x3_reduce"
  top: "inception_5a/3x3_reduce"
}
layer {
  name: "inception_5a/3x3"
  type: "Convolution"
  bottom: "inception_5a/3x3_reduce"
  top: "inception_5a/3x3"
  param {
    lr_mult: 1
    decay_mult: 1
  }
  param {
    lr_mult: 2
    decay_mult: 0
  }
  convolution_param {
    num_output: 320
    pad: 1
    kernel_size: 3
    weight_filler {
      type: "xavier"
      std: 0.03
    }
    bias_filler {
      type: "constant"
      value: 0.2
    }
  }
}
layer {
  name: "inception_5a/relu_3x3"
  type: "ReLU"
  bottom: "inception_5a/3x3"
  top: "inception_5a/3x3"
}
layer {
  name: "inception_5a/5x5_reduce"
  type: "Convolution"
  bottom: "pool4/3x3_s2"
  top: "inception_5a/5x5_reduce"
  param {
    lr_mult: 1
    decay_mult: 1
  }
  param {
    lr_mult: 2
    decay_mult: 0
  }
  convolution_param {
    num_output: 32
    kernel_size: 1
    weight_filler {
      type: "xavier"
      std: 0.2
    }
    bias_filler {
      type: "constant"
      value
I0509 17:40:04.064012 120321 layer_factory.hpp:77] Creating layer data
I0509 17:40:04.064025 120321 net.cpp:84] Creating Layer data
I0509 17:40:04.064029 120321 net.cpp:380] data -> data
I0509 17:40:04.064095 120321 net.cpp:122] Setting up data
I0509 17:40:04.064105 120321 net.cpp:129] Top shape: 10 3 224 224 (1505280)
I0509 17:40:04.064107 120321 net.cpp:137] Memory required for data: 6021120
I0509 17:40:04.064111 120321 layer_factory.hpp:77] Creating layer conv1/7x7_s2
I0509 17:40:04.064121 120321 net.cpp:84] Creating Layer conv1/7x7_s2
I0509 17:40:04.064124 120321 net.cpp:406] conv1/7x7_s2 <- data
I0509 17:40:04.064131 120321 net.cpp:380] conv1/7x7_s2 -> conv1/7x7_s2
I0509 17:40:04.064141 120321 base_conv_layer.cpp:121] Group is 1channel is3number of output is 64
I0509 17:40:04.064587 120321 net.cpp:122] Setting up conv1/7x7_s2
I0509 17:40:04.064594 120321 net.cpp:129] Top shape: 10 64 112 112 (8028160)
I0509 17:40:04.064596 120321 net.cpp:137] Memory required for data: 38133760
I0509 17:40:04.064605 120321 layer_factory.hpp:77] Creating layer conv1/relu_7x7
I0509 17:40:04.064611 120321 net.cpp:84] Creating Layer conv1/relu_7x7
I0509 17:40:04.064615 120321 net.cpp:406] conv1/relu_7x7 <- conv1/7x7_s2
I0509 17:40:04.064618 120321 net.cpp:367] conv1/relu_7x7 -> conv1/7x7_s2 (in-place)
I0509 17:40:04.064623 120321 net.cpp:122] Setting up conv1/relu_7x7
I0509 17:40:04.064627 120321 net.cpp:129] Top shape: 10 64 112 112 (8028160)
I0509 17:40:04.064630 120321 net.cpp:137] Memory required for data: 70246400
I0509 17:40:04.064632 120321 layer_factory.hpp:77] Creating layer pool1/3x3_s2
I0509 17:40:04.064636 120321 net.cpp:84] Creating Layer pool1/3x3_s2
I0509 17:40:04.064642 120321 net.cpp:406] pool1/3x3_s2 <- conv1/7x7_s2
I0509 17:40:04.064646 120321 net.cpp:380] pool1/3x3_s2 -> pool1/3x3_s2
I0509 17:40:04.064654 120321 net.cpp:122] Setting up pool1/3x3_s2
I0509 17:40:04.064658 120321 net.cpp:129] Top shape: 10 64 56 56 (2007040)
I0509 17:40:04.064661 120321 net.cpp:137] Memory required for data: 78274560
I0509 17:40:04.064663 120321 layer_factory.hpp:77] Creating layer pool1/norm1
I0509 17:40:04.064668 120321 net.cpp:84] Creating Layer pool1/norm1
I0509 17:40:04.064671 120321 net.cpp:406] pool1/norm1 <- pool1/3x3_s2
I0509 17:40:04.064676 120321 net.cpp:380] pool1/norm1 -> pool1/norm1
I0509 17:40:04.064682 120321 net.cpp:122] Setting up pool1/norm1
I0509 17:40:04.064685 120321 net.cpp:129] Top shape: 10 64 56 56 (2007040)
I0509 17:40:04.064687 120321 net.cpp:137] Memory required for data: 86302720
I0509 17:40:04.064689 120321 layer_factory.hpp:77] Creating layer conv2/3x3_reduce
I0509 17:40:04.064697 120321 net.cpp:84] Creating Layer conv2/3x3_reduce
I0509 17:40:04.064699 120321 net.cpp:406] conv2/3x3_reduce <- pool1/norm1
I0509 17:40:04.064705 120321 net.cpp:380] conv2/3x3_reduce -> conv2/3x3_reduce
I0509 17:40:04.064713 120321 base_conv_layer.cpp:121] Group is 1channel is64number of output is 64
I0509 17:40:04.064750 120321 net.cpp:122] Setting up conv2/3x3_reduce
I0509 17:40:04.064755 120321 net.cpp:129] Top shape: 10 64 56 56 (2007040)
I0509 17:40:04.064759 120321 net.cpp:137] Memory required for data: 94330880
I0509 17:40:04.064764 120321 layer_factory.hpp:77] Creating layer conv2/relu_3x3_reduce
I0509 17:40:04.064769 120321 net.cpp:84] Creating Layer conv2/relu_3x3_reduce
I0509 17:40:04.064771 120321 net.cpp:406] conv2/relu_3x3_reduce <- conv2/3x3_reduce
I0509 17:40:04.064776 120321 net.cpp:367] conv2/relu_3x3_reduce -> conv2/3x3_reduce (in-place)
I0509 17:40:04.064780 120321 net.cpp:122] Setting up conv2/relu_3x3_reduce
I0509 17:40:04.064784 120321 net.cpp:129] Top shape: 10 64 56 56 (2007040)
I0509 17:40:04.064786 120321 net.cpp:137] Memory required for data: 102359040
I0509 17:40:04.064790 120321 layer_factory.hpp:77] Creating layer conv2/3x3
I0509 17:40:04.064795 120321 net.cpp:84] Creating Layer conv2/3x3
I0509 17:40:04.064798 120321 net.cpp:406] conv2/3x3 <- conv2/3x3_reduce
I0509 17:40:04.064802 120321 net.cpp:380] conv2/3x3 -> conv2/3x3
I0509 17:40:04.064811 120321 base_conv_layer.cpp:121] Group is 1channel is64number of output is 192
I0509 17:40:04.065472 120321 net.cpp:122] Setting up conv2/3x3
I0509 17:40:04.065477 120321 net.cpp:129] Top shape: 10 192 56 56 (6021120)
I0509 17:40:04.065480 120321 net.cpp:137] Memory required for data: 126443520
I0509 17:40:04.065486 120321 layer_factory.hpp:77] Creating layer conv2/relu_3x3
I0509 17:40:04.065491 120321 net.cpp:84] Creating Layer conv2/relu_3x3
I0509 17:40:04.065495 120321 net.cpp:406] conv2/relu_3x3 <- conv2/3x3
I0509 17:40:04.065500 120321 net.cpp:367] conv2/relu_3x3 -> conv2/3x3 (in-place)
I0509 17:40:04.065505 120321 net.cpp:122] Setting up conv2/relu_3x3
I0509 17:40:04.065508 120321 net.cpp:129] Top shape: 10 192 56 56 (6021120)
I0509 17:40:04.065510 120321 net.cpp:137] Memory required for data: 150528000
I0509 17:40:04.065513 120321 layer_factory.hpp:77] Creating layer conv2/norm2
I0509 17:40:04.065516 120321 net.cpp:84] Creating Layer conv2/norm2
I0509 17:40:04.065520 120321 net.cpp:406] conv2/norm2 <- conv2/3x3
I0509 17:40:04.065522 120321 net.cpp:380] conv2/norm2 -> conv2/norm2
I0509 17:40:04.065528 120321 net.cpp:122] Setting up conv2/norm2
I0509 17:40:04.065531 120321 net.cpp:129] Top shape: 10 192 56 56 (6021120)
I0509 17:40:04.065534 120321 net.cpp:137] Memory required for data: 174612480
I0509 17:40:04.065536 120321 layer_factory.hpp:77] Creating layer pool2/3x3_s2
I0509 17:40:04.065541 120321 net.cpp:84] Creating Layer pool2/3x3_s2
I0509 17:40:04.065544 120321 net.cpp:406] pool2/3x3_s2 <- conv2/norm2
I0509 17:40:04.065548 120321 net.cpp:380] pool2/3x3_s2 -> pool2/3x3_s2
I0509 17:40:04.065554 120321 net.cpp:122] Setting up pool2/3x3_s2
I0509 17:40:04.065558 120321 net.cpp:129] Top shape: 10 192 28 28 (1505280)
I0509 17:40:04.065563 120321 net.cpp:137] Memory required for data: 180633600
I0509 17:40:04.065565 120321 layer_factory.hpp:77] Creating layer pool2/3x3_s2_pool2/3x3_s2_0_split
I0509 17:40:04.065570 120321 net.cpp:84] Creating Layer pool2/3x3_s2_pool2/3x3_s2_0_split
I0509 17:40:04.065573 120321 net.cpp:406] pool2/3x3_s2_pool2/3x3_s2_0_split <- pool2/3x3_s2
I0509 17:40:04.065578 120321 net.cpp:380] pool2/3x3_s2_pool2/3x3_s2_0_split -> pool2/3x3_s2_pool2/3x3_s2_0_split_0
I0509 17:40:04.065583 120321 net.cpp:380] pool2/3x3_s2_pool2/3x3_s2_0_split -> pool2/3x3_s2_pool2/3x3_s2_0_split_1
I0509 17:40:04.065589 120321 net.cpp:380] pool2/3x3_s2_pool2/3x3_s2_0_split -> pool2/3x3_s2_pool2/3x3_s2_0_split_2
I0509 17:40:04.065594 120321 net.cpp:380] pool2/3x3_s2_pool2/3x3_s2_0_split -> pool2/3x3_s2_pool2/3x3_s2_0_split_3
I0509 17:40:04.065600 120321 net.cpp:122] Setting up pool2/3x3_s2_pool2/3x3_s2_0_split
I0509 17:40:04.065604 120321 net.cpp:129] Top shape: 10 192 28 28 (1505280)
I0509 17:40:04.065608 120321 net.cpp:129] Top shape: 10 192 28 28 (1505280)
I0509 17:40:04.065611 120321 net.cpp:129] Top shape: 10 192 28 28 (1505280)
I0509 17:40:04.065614 120321 net.cpp:129] Top shape: 10 192 28 28 (1505280)
I0509 17:40:04.065618 120321 net.cpp:137] Memory required for data: 204718080
I0509 17:40:04.065619 120321 layer_factory.hpp:77] Creating layer inception_3a/1x1
I0509 17:40:04.065626 120321 net.cpp:84] Creating Layer inception_3a/1x1
I0509 17:40:04.065629 120321 net.cpp:406] inception_3a/1x1 <- pool2/3x3_s2_pool2/3x3_s2_0_split_0
I0509 17:40:04.065635 120321 net.cpp:380] inception_3a/1x1 -> inception_3a/1x1
I0509 17:40:04.065641 120321 base_conv_layer.cpp:121] Group is 1channel is192number of output is 64
I0509 17:40:04.065721 120321 net.cpp:122] Setting up inception_3a/1x1
I0509 17:40:04.065726 120321 net.cpp:129] Top shape: 10 64 28 28 (501760)
I0509 17:40:04.065728 120321 net.cpp:137] Memory required for data: 206725120
I0509 17:40:04.065732 120321 layer_factory.hpp:77] Creating layer inception_3a/relu_1x1
I0509 17:40:04.065737 120321 net.cpp:84] Creating Layer inception_3a/relu_1x1
I0509 17:40:04.065740 120321 net.cpp:406] inception_3a/relu_1x1 <- inception_3a/1x1
I0509 17:40:04.065744 120321 net.cpp:367] inception_3a/relu_1x1 -> inception_3a/1x1 (in-place)
I0509 17:40:04.065749 120321 net.cpp:122] Setting up inception_3a/relu_1x1
I0509 17:40:04.065753 120321 net.cpp:129] Top shape: 10 64 28 28 (501760)
I0509 17:40:04.065755 120321 net.cpp:137] Memory required for data: 208732160
I0509 17:40:04.065757 120321 layer_factory.hpp:77] Creating layer inception_3a/3x3_reduce
I0509 17:40:04.065764 120321 net.cpp:84] Creating Layer inception_3a/3x3_reduce
I0509 17:40:04.065768 120321 net.cpp:406] inception_3a/3x3_reduce <- pool2/3x3_s2_pool2/3x3_s2_0_split_1
I0509 17:40:04.065771 120321 net.cpp:380] inception_3a/3x3_reduce -> inception_3a/3x3_reduce
I0509 17:40:04.065779 120321 base_conv_layer.cpp:121] Group is 1channel is192number of output is 96
I0509 17:40:04.065899 120321 net.cpp:122] Setting up inception_3a/3x3_reduce
I0509 17:40:04.065904 120321 net.cpp:129] Top shape: 10 96 28 28 (752640)
I0509 17:40:04.065907 120321 net.cpp:137] Memory required for data: 211742720
I0509 17:40:04.065913 120321 layer_factory.hpp:77] Creating layer inception_3a/relu_3x3_reduce
I0509 17:40:04.065917 120321 net.cpp:84] Creating Layer inception_3a/relu_3x3_reduce
I0509 17:40:04.065920 120321 net.cpp:406] inception_3a/relu_3x3_reduce <- inception_3a/3x3_reduce
I0509 17:40:04.065925 120321 net.cpp:367] inception_3a/relu_3x3_reduce -> inception_3a/3x3_reduce (in-place)
I0509 17:40:04.065930 120321 net.cpp:122] Setting up inception_3a/relu_3x3_reduce
I0509 17:40:04.065933 120321 net.cpp:129] Top shape: 10 96 28 28 (752640)
I0509 17:40:04.065937 120321 net.cpp:137] Memory required for data: 214753280
I0509 17:40:04.065938 120321 layer_factory.hpp:77] Creating layer inception_3a/3x3
I0509 17:40:04.065948 120321 net.cpp:84] Creating Layer inception_3a/3x3
I0509 17:40:04.065950 120321 net.cpp:406] inception_3a/3x3 <- inception_3a/3x3_reduce
I0509 17:40:04.065959 120321 net.cpp:380] inception_3a/3x3 -> inception_3a/3x3
I0509 17:40:04.065966 120321 base_conv_layer.cpp:121] Group is 1channel is96number of output is 128
I0509 17:40:04.066623 120321 net.cpp:122] Setting up inception_3a/3x3
I0509 17:40:04.066628 120321 net.cpp:129] Top shape: 10 128 28 28 (1003520)
I0509 17:40:04.066632 120321 net.cpp:137] Memory required for data: 218767360
I0509 17:40:04.066635 120321 layer_factory.hpp:77] Creating layer inception_3a/relu_3x3
I0509 17:40:04.066639 120321 net.cpp:84] Creating Layer inception_3a/relu_3x3
I0509 17:40:04.066642 120321 net.cpp:406] inception_3a/relu_3x3 <- inception_3a/3x3
I0509 17:40:04.066648 120321 net.cpp:367] inception_3a/relu_3x3 -> inception_3a/3x3 (in-place)
I0509 17:40:04.066651 120321 net.cpp:122] Setting up inception_3a/relu_3x3
I0509 17:40:04.066654 120321 net.cpp:129] Top shape: 10 128 28 28 (1003520)
I0509 17:40:04.066658 120321 net.cpp:137] Memory required for data: 222781440
I0509 17:40:04.066659 120321 layer_factory.hpp:77] Creating layer inception_3a/5x5_reduce
I0509 17:40:04.066666 120321 net.cpp:84] Creating Layer inception_3a/5x5_reduce
I0509 17:40:04.066668 120321 net.cpp:406] inception_3a/5x5_reduce <- pool2/3x3_s2_pool2/3x3_s2_0_split_2
I0509 17:40:04.066674 120321 net.cpp:380] inception_3a/5x5_reduce -> inception_3a/5x5_reduce
I0509 17:40:04.066681 120321 base_conv_layer.cpp:121] Group is 1channel is192number of output is 16
I0509 17:40:04.066710 120321 net.cpp:122] Setting up inception_3a/5x5_reduce
I0509 17:40:04.066715 120321 net.cpp:129] Top shape: 10 16 28 28 (125440)
I0509 17:40:04.066717 120321 net.cpp:137] Memory required for data: 223283200
I0509 17:40:04.066721 120321 layer_factory.hpp:77] Creating layer inception_3a/relu_5x5_reduce
I0509 17:40:04.066726 120321 net.cpp:84] Creating Layer inception_3a/relu_5x5_reduce
I0509 17:40:04.066730 120321 net.cpp:406] inception_3a/relu_5x5_reduce <- inception_3a/5x5_reduce
I0509 17:40:04.066732 120321 net.cpp:367] inception_3a/relu_5x5_reduce -> inception_3a/5x5_reduce (in-place)
I0509 17:40:04.066737 120321 net.cpp:122] Setting up inception_3a/relu_5x5_reduce
I0509 17:40:04.066740 120321 net.cpp:129] Top shape: 10 16 28 28 (125440)
I0509 17:40:04.066742 120321 net.cpp:137] Memory required for data: 223784960
I0509 17:40:04.066745 120321 layer_factory.hpp:77] Creating layer inception_3a/5x5
I0509 17:40:04.066751 120321 net.cpp:84] Creating Layer inception_3a/5x5
I0509 17:40:04.066754 120321 net.cpp:406] inception_3a/5x5 <- inception_3a/5x5_reduce
I0509 17:40:04.066759 120321 net.cpp:380] inception_3a/5x5 -> inception_3a/5x5
I0509 17:40:04.066768 120321 base_conv_layer.cpp:121] Group is 1channel is16number of output is 32
I0509 17:40:04.066850 120321 net.cpp:122] Setting up inception_3a/5x5
I0509 17:40:04.066855 120321 net.cpp:129] Top shape: 10 32 28 28 (250880)
I0509 17:40:04.066859 120321 net.cpp:137] Memory required for data: 224788480
I0509 17:40:04.066862 120321 layer_factory.hpp:77] Creating layer inception_3a/relu_5x5
I0509 17:40:04.066866 120321 net.cpp:84] Creating Layer inception_3a/relu_5x5
I0509 17:40:04.066869 120321 net.cpp:406] inception_3a/relu_5x5 <- inception_3a/5x5
I0509 17:40:04.066874 120321 net.cpp:367] inception_3a/relu_5x5 -> inception_3a/5x5 (in-place)
I0509 17:40:04.066877 120321 net.cpp:122] Setting up inception_3a/relu_5x5
I0509 17:40:04.066880 120321 net.cpp:129] Top shape: 10 32 28 28 (250880)
I0509 17:40:04.066884 120321 net.cpp:137] Memory required for data: 225792000
I0509 17:40:04.066885 120321 layer_factory.hpp:77] Creating layer inception_3a/pool
I0509 17:40:04.066890 120321 net.cpp:84] Creating Layer inception_3a/pool
I0509 17:40:04.066892 120321 net.cpp:406] inception_3a/pool <- pool2/3x3_s2_pool2/3x3_s2_0_split_3
I0509 17:40:04.066897 120321 net.cpp:380] inception_3a/pool -> inception_3a/pool
I0509 17:40:04.066903 120321 net.cpp:122] Setting up inception_3a/pool
I0509 17:40:04.066908 120321 net.cpp:129] Top shape: 10 192 28 28 (1505280)
I0509 17:40:04.066911 120321 net.cpp:137] Memory required for data: 231813120
I0509 17:40:04.066915 120321 layer_factory.hpp:77] Creating layer inception_3a/pool_proj
I0509 17:40:04.066921 120321 net.cpp:84] Creating Layer inception_3a/pool_proj
I0509 17:40:04.066925 120321 net.cpp:406] inception_3a/pool_proj <- inception_3a/pool
I0509 17:40:04.066931 120321 net.cpp:380] inception_3a/pool_proj -> inception_3a/pool_proj
I0509 17:40:04.066936 120321 base_conv_layer.cpp:121] Group is 1channel is192number of output is 32
I0509 17:40:04.066985 120321 net.cpp:122] Setting up inception_3a/pool_proj
I0509 17:40:04.066990 120321 net.cpp:129] Top shape: 10 32 28 28 (250880)
I0509 17:40:04.066992 120321 net.cpp:137] Memory required for data: 232816640
I0509 17:40:04.067000 120321 layer_factory.hpp:77] Creating layer inception_3a/relu_pool_proj
I0509 17:40:04.067004 120321 net.cpp:84] Creating Layer inception_3a/relu_pool_proj
I0509 17:40:04.067008 120321 net.cpp:406] inception_3a/relu_pool_proj <- inception_3a/pool_proj
I0509 17:40:04.067013 120321 net.cpp:367] inception_3a/relu_pool_proj -> inception_3a/pool_proj (in-place)
I0509 17:40:04.067016 120321 net.cpp:122] Setting up inception_3a/relu_pool_proj
I0509 17:40:04.067020 120321 net.cpp:129] Top shape: 10 32 28 28 (250880)
I0509 17:40:04.067023 120321 net.cpp:137] Memory required for data: 233820160
I0509 17:40:04.067025 120321 layer_factory.hpp:77] Creating layer inception_3a/output
I0509 17:40:04.067029 120321 net.cpp:84] Creating Layer inception_3a/output
I0509 17:40:04.067032 120321 net.cpp:406] inception_3a/output <- inception_3a/1x1
I0509 17:40:04.067035 120321 net.cpp:406] inception_3a/output <- inception_3a/3x3
I0509 17:40:04.067039 120321 net.cpp:406] inception_3a/output <- inception_3a/5x5
I0509 17:40:04.067041 120321 net.cpp:406] inception_3a/output <- inception_3a/pool_proj
I0509 17:40:04.067045 120321 net.cpp:380] inception_3a/output -> inception_3a/output
I0509 17:40:04.067052 120321 net.cpp:122] Setting up inception_3a/output
I0509 17:40:04.067056 120321 net.cpp:129] Top shape: 10 256 28 28 (2007040)
I0509 17:40:04.067059 120321 net.cpp:137] Memory required for data: 241848320
I0509 17:40:04.067061 120321 layer_factory.hpp:77] Creating layer inception_3a/output_inception_3a/output_0_split
I0509 17:40:04.067065 120321 net.cpp:84] Creating Layer inception_3a/output_inception_3a/output_0_split
I0509 17:40:04.067068 120321 net.cpp:406] inception_3a/output_inception_3a/output_0_split <- inception_3a/output
I0509 17:40:04.067075 120321 net.cpp:380] inception_3a/output_inception_3a/output_0_split -> inception_3a/output_inception_3a/output_0_split_0
I0509 17:40:04.067080 120321 net.cpp:380] inception_3a/output_inception_3a/output_0_split -> inception_3a/output_inception_3a/output_0_split_1
I0509 17:40:04.067085 120321 net.cpp:380] inception_3a/output_inception_3a/output_0_split -> inception_3a/output_inception_3a/output_0_split_2
I0509 17:40:04.067090 120321 net.cpp:380] inception_3a/output_inception_3a/output_0_split -> inception_3a/output_inception_3a/output_0_split_3
I0509 17:40:04.067096 120321 net.cpp:122] Setting up inception_3a/output_inception_3a/output_0_split
I0509 17:40:04.067100 120321 net.cpp:129] Top shape: 10 256 28 28 (2007040)
I0509 17:40:04.067103 120321 net.cpp:129] Top shape: 10 256 28 28 (2007040)
I0509 17:40:04.067106 120321 net.cpp:129] Top shape: 10 256 28 28 (2007040)
I0509 17:40:04.067111 120321 net.cpp:129] Top shape: 10 256 28 28 (2007040)
I0509 17:40:04.067112 120321 net.cpp:137] Memory required for data: 273960960
I0509 17:40:04.067114 120321 layer_factory.hpp:77] Creating layer inception_3b/1x1
I0509 17:40:04.067121 120321 net.cpp:84] Creating Layer inception_3b/1x1
I0509 17:40:04.067124 120321 net.cpp:406] inception_3b/1x1 <- inception_3a/output_inception_3a/output_0_split_0
I0509 17:40:04.067128 120321 net.cpp:380] inception_3b/1x1 -> inception_3b/1x1
I0509 17:40:04.067137 120321 base_conv_layer.cpp:121] Group is 1channel is256number of output is 128
I0509 17:40:04.067340 120321 net.cpp:122] Setting up inception_3b/1x1
I0509 17:40:04.067345 120321 net.cpp:129] Top shape: 10 128 28 28 (1003520)
I0509 17:40:04.067350 120321 net.cpp:137] Memory required for data: 277975040
I0509 17:40:04.067354 120321 layer_factory.hpp:77] Creating layer inception_3b/relu_1x1
I0509 17:40:04.067358 120321 net.cpp:84] Creating Layer inception_3b/relu_1x1
I0509 17:40:04.067361 120321 net.cpp:406] inception_3b/relu_1x1 <- inception_3b/1x1
I0509 17:40:04.067366 120321 net.cpp:367] inception_3b/relu_1x1 -> inception_3b/1x1 (in-place)
I0509 17:40:04.067371 120321 net.cpp:122] Setting up inception_3b/relu_1x1
I0509 17:40:04.067375 120321 net.cpp:129] Top shape: 10 128 28 28 (1003520)
I0509 17:40:04.067378 120321 net.cpp:137] Memory required for data: 281989120
I0509 17:40:04.067379 120321 layer_factory.hpp:77] Creating layer inception_3b/3x3_reduce
I0509 17:40:04.067385 120321 net.cpp:84] Creating Layer inception_3b/3x3_reduce
I0509 17:40:04.067389 120321 net.cpp:406] inception_3b/3x3_reduce <- inception_3a/output_inception_3a/output_0_split_1
I0509 17:40:04.067394 120321 net.cpp:380] inception_3b/3x3_reduce -> inception_3b/3x3_reduce
I0509 17:40:04.067399 120321 base_conv_layer.cpp:121] Group is 1channel is256number of output is 128
I0509 17:40:04.067605 120321 net.cpp:122] Setting up inception_3b/3x3_reduce
I0509 17:40:04.067611 120321 net.cpp:129] Top shape: 10 128 28 28 (1003520)
I0509 17:40:04.067613 120321 net.cpp:137] Memory required for data: 286003200
I0509 17:40:04.067618 120321 layer_factory.hpp:77] Creating layer inception_3b/relu_3x3_reduce
I0509 17:40:04.067622 120321 net.cpp:84] Creating Layer inception_3b/relu_3x3_reduce
I0509 17:40:04.067625 120321 net.cpp:406] inception_3b/relu_3x3_reduce <- inception_3b/3x3_reduce
I0509 17:40:04.067629 120321 net.cpp:367] inception_3b/relu_3x3_reduce -> inception_3b/3x3_reduce (in-place)
I0509 17:40:04.067633 120321 net.cpp:122] Setting up inception_3b/relu_3x3_reduce
I0509 17:40:04.067636 120321 net.cpp:129] Top shape: 10 128 28 28 (1003520)
I0509 17:40:04.067639 120321 net.cpp:137] Memory required for data: 290017280
I0509 17:40:04.067641 120321 layer_factory.hpp:77] Creating layer inception_3b/3x3
I0509 17:40:04.067647 120321 net.cpp:84] Creating Layer inception_3b/3x3
I0509 17:40:04.067651 120321 net.cpp:406] inception_3b/3x3 <- inception_3b/3x3_reduce
I0509 17:40:04.067656 120321 net.cpp:380] inception_3b/3x3 -> inception_3b/3x3
I0509 17:40:04.067662 120321 base_conv_layer.cpp:121] Group is 1channel is128number of output is 192
I0509 17:40:04.069053 120321 net.cpp:122] Setting up inception_3b/3x3
I0509 17:40:04.069059 120321 net.cpp:129] Top shape: 10 192 28 28 (1505280)
I0509 17:40:04.069062 120321 net.cpp:137] Memory required for data: 296038400
I0509 17:40:04.069067 120321 layer_factory.hpp:77] Creating layer inception_3b/relu_3x3
I0509 17:40:04.069077 120321 net.cpp:84] Creating Layer inception_3b/relu_3x3
I0509 17:40:04.069080 120321 net.cpp:406] inception_3b/relu_3x3 <- inception_3b/3x3
I0509 17:40:04.069084 120321 net.cpp:367] inception_3b/relu_3x3 -> inception_3b/3x3 (in-place)
I0509 17:40:04.069089 120321 net.cpp:122] Setting up inception_3b/relu_3x3
I0509 17:40:04.069092 120321 net.cpp:129] Top shape: 10 192 28 28 (1505280)
I0509 17:40:04.069095 120321 net.cpp:137] Memory required for data: 302059520
I0509 17:40:04.069097 120321 layer_factory.hpp:77] Creating layer inception_3b/5x5_reduce
I0509 17:40:04.069103 120321 net.cpp:84] Creating Layer inception_3b/5x5_reduce
I0509 17:40:04.069106 120321 net.cpp:406] inception_3b/5x5_reduce <- inception_3a/output_inception_3a/output_0_split_2
I0509 17:40:04.069111 120321 net.cpp:380] inception_3b/5x5_reduce -> inception_3b/5x5_reduce
I0509 17:40:04.069119 120321 base_conv_layer.cpp:121] Group is 1channel is256number of output is 32
I0509 17:40:04.069174 120321 net.cpp:122] Setting up inception_3b/5x5_reduce
I0509 17:40:04.069178 120321 net.cpp:129] Top shape: 10 32 28 28 (250880)
I0509 17:40:04.069180 120321 net.cpp:137] Memory required for data: 303063040
I0509 17:40:04.069185 120321 layer_factory.hpp:77] Creating layer inception_3b/relu_5x5_reduce
I0509 17:40:04.069190 120321 net.cpp:84] Creating Layer inception_3b/relu_5x5_reduce
I0509 17:40:04.069195 120321 net.cpp:406] inception_3b/relu_5x5_reduce <- inception_3b/5x5_reduce
I0509 17:40:04.069198 120321 net.cpp:367] inception_3b/relu_5x5_reduce -> inception_3b/5x5_reduce (in-place)
I0509 17:40:04.069202 120321 net.cpp:122] Setting up inception_3b/relu_5x5_reduce
I0509 17:40:04.069206 120321 net.cpp:129] Top shape: 10 32 28 28 (250880)
I0509 17:40:04.069208 120321 net.cpp:137] Memory required for data: 304066560
I0509 17:40:04.069211 120321 layer_factory.hpp:77] Creating layer inception_3b/5x5
I0509 17:40:04.069217 120321 net.cpp:84] Creating Layer inception_3b/5x5
I0509 17:40:04.069219 120321 net.cpp:406] inception_3b/5x5 <- inception_3b/5x5_reduce
I0509 17:40:04.069226 120321 net.cpp:380] inception_3b/5x5 -> inception_3b/5x5
I0509 17:40:04.069231 120321 base_conv_layer.cpp:121] Group is 1channel is32number of output is 96
I0509 17:40:04.069694 120321 net.cpp:122] Setting up inception_3b/5x5
I0509 17:40:04.069699 120321 net.cpp:129] Top shape: 10 96 28 28 (752640)
I0509 17:40:04.069700 120321 net.cpp:137] Memory required for data: 307077120
I0509 17:40:04.069705 120321 layer_factory.hpp:77] Creating layer inception_3b/relu_5x5
I0509 17:40:04.069708 120321 net.cpp:84] Creating Layer inception_3b/relu_5x5
I0509 17:40:04.069712 120321 net.cpp:406] inception_3b/relu_5x5 <- inception_3b/5x5
I0509 17:40:04.069716 120321 net.cpp:367] inception_3b/relu_5x5 -> inception_3b/5x5 (in-place)
I0509 17:40:04.069720 120321 net.cpp:122] Setting up inception_3b/relu_5x5
I0509 17:40:04.069725 120321 net.cpp:129] Top shape: 10 96 28 28 (752640)
I0509 17:40:04.069726 120321 net.cpp:137] Memory required for data: 310087680
I0509 17:40:04.069730 120321 layer_factory.hpp:77] Creating layer inception_3b/pool
I0509 17:40:04.069732 120321 net.cpp:84] Creating Layer inception_3b/pool
I0509 17:40:04.069736 120321 net.cpp:406] inception_3b/pool <- inception_3a/output_inception_3a/output_0_split_3
I0509 17:40:04.069741 120321 net.cpp:380] inception_3b/pool -> inception_3b/pool
I0509 17:40:04.069747 120321 net.cpp:122] Setting up inception_3b/pool
I0509 17:40:04.069751 120321 net.cpp:129] Top shape: 10 256 28 28 (2007040)
I0509 17:40:04.069753 120321 net.cpp:137] Memory required for data: 318115840
I0509 17:40:04.069756 120321 layer_factory.hpp:77] Creating layer inception_3b/pool_proj
I0509 17:40:04.069762 120321 net.cpp:84] Creating Layer inception_3b/pool_proj
I0509 17:40:04.069764 120321 net.cpp:406] inception_3b/pool_proj <- inception_3b/pool
I0509 17:40:04.069771 120321 net.cpp:380] inception_3b/pool_proj -> inception_3b/pool_proj
I0509 17:40:04.069777 120321 base_conv_layer.cpp:121] Group is 1channel is256number of output is 64
I0509 17:40:04.069885 120321 net.cpp:122] Setting up inception_3b/pool_proj
I0509 17:40:04.069890 120321 net.cpp:129] Top shape: 10 64 28 28 (501760)
I0509 17:40:04.069892 120321 net.cpp:137] Memory required for data: 320122880
I0509 17:40:04.069896 120321 layer_factory.hpp:77] Creating layer inception_3b/relu_pool_proj
I0509 17:40:04.069900 120321 net.cpp:84] Creating Layer inception_3b/relu_pool_proj
I0509 17:40:04.069903 120321 net.cpp:406] inception_3b/relu_pool_proj <- inception_3b/pool_proj
I0509 17:40:04.069908 120321 net.cpp:367] inception_3b/relu_pool_proj -> inception_3b/pool_proj (in-place)
I0509 17:40:04.069912 120321 net.cpp:122] Setting up inception_3b/relu_pool_proj
I0509 17:40:04.069916 120321 net.cpp:129] Top shape: 10 64 28 28 (501760)
I0509 17:40:04.069918 120321 net.cpp:137] Memory required for data: 322129920
I0509 17:40:04.069921 120321 layer_factory.hpp:77] Creating layer inception_3b/output
I0509 17:40:04.069926 120321 net.cpp:84] Creating Layer inception_3b/output
I0509 17:40:04.069927 120321 net.cpp:406] inception_3b/output <- inception_3b/1x1
I0509 17:40:04.069931 120321 net.cpp:406] inception_3b/output <- inception_3b/3x3
I0509 17:40:04.069934 120321 net.cpp:406] inception_3b/output <- inception_3b/5x5
I0509 17:40:04.069937 120321 net.cpp:406] inception_3b/output <- inception_3b/pool_proj
I0509 17:40:04.069942 120321 net.cpp:380] inception_3b/output -> inception_3b/output
I0509 17:40:04.069949 120321 net.cpp:122] Setting up inception_3b/output
I0509 17:40:04.069954 120321 net.cpp:129] Top shape: 10 480 28 28 (3763200)
I0509 17:40:04.069957 120321 net.cpp:137] Memory required for data: 337182720
I0509 17:40:04.069958 120321 layer_factory.hpp:77] Creating layer pool3/3x3_s2
I0509 17:40:04.069962 120321 net.cpp:84] Creating Layer pool3/3x3_s2
I0509 17:40:04.069965 120321 net.cpp:406] pool3/3x3_s2 <- inception_3b/output
I0509 17:40:04.069969 120321 net.cpp:380] pool3/3x3_s2 -> pool3/3x3_s2
I0509 17:40:04.069981 120321 net.cpp:122] Setting up pool3/3x3_s2
I0509 17:40:04.069985 120321 net.cpp:129] Top shape: 10 480 14 14 (940800)
I0509 17:40:04.069988 120321 net.cpp:137] Memory required for data: 340945920
I0509 17:40:04.069990 120321 layer_factory.hpp:77] Creating layer pool3/3x3_s2_pool3/3x3_s2_0_split
I0509 17:40:04.069994 120321 net.cpp:84] Creating Layer pool3/3x3_s2_pool3/3x3_s2_0_split
I0509 17:40:04.069998 120321 net.cpp:406] pool3/3x3_s2_pool3/3x3_s2_0_split <- pool3/3x3_s2
I0509 17:40:04.070003 120321 net.cpp:380] pool3/3x3_s2_pool3/3x3_s2_0_split -> pool3/3x3_s2_pool3/3x3_s2_0_split_0
I0509 17:40:04.070008 120321 net.cpp:380] pool3/3x3_s2_pool3/3x3_s2_0_split -> pool3/3x3_s2_pool3/3x3_s2_0_split_1
I0509 17:40:04.070013 120321 net.cpp:380] pool3/3x3_s2_pool3/3x3_s2_0_split -> pool3/3x3_s2_pool3/3x3_s2_0_split_2
I0509 17:40:04.070017 120321 net.cpp:380] pool3/3x3_s2_pool3/3x3_s2_0_split -> pool3/3x3_s2_pool3/3x3_s2_0_split_3
I0509 17:40:04.070024 120321 net.cpp:122] Setting up pool3/3x3_s2_pool3/3x3_s2_0_split
I0509 17:40:04.070027 120321 net.cpp:129] Top shape: 10 480 14 14 (940800)
I0509 17:40:04.070031 120321 net.cpp:129] Top shape: 10 480 14 14 (940800)
I0509 17:40:04.070034 120321 net.cpp:129] Top shape: 10 480 14 14 (940800)
I0509 17:40:04.070039 120321 net.cpp:129] Top shape: 10 480 14 14 (940800)
I0509 17:40:04.070040 120321 net.cpp:137] Memory required for data: 355998720
I0509 17:40:04.070042 120321 layer_factory.hpp:77] Creating layer inception_4a/1x1
I0509 17:40:04.070049 120321 net.cpp:84] Creating Layer inception_4a/1x1
I0509 17:40:04.070052 120321 net.cpp:406] inception_4a/1x1 <- pool3/3x3_s2_pool3/3x3_s2_0_split_0
I0509 17:40:04.070056 120321 net.cpp:380] inception_4a/1x1 -> inception_4a/1x1
I0509 17:40:04.070065 120321 base_conv_layer.cpp:121] Group is 1channel is480number of output is 192
I0509 17:40:04.070610 120321 net.cpp:122] Setting up inception_4a/1x1
I0509 17:40:04.070614 120321 net.cpp:129] Top shape: 10 192 14 14 (376320)
I0509 17:40:04.070616 120321 net.cpp:137] Memory required for data: 357504000
I0509 17:40:04.070621 120321 layer_factory.hpp:77] Creating layer inception_4a/relu_1x1
I0509 17:40:04.070626 120321 net.cpp:84] Creating Layer inception_4a/relu_1x1
I0509 17:40:04.070628 120321 net.cpp:406] inception_4a/relu_1x1 <- inception_4a/1x1
I0509 17:40:04.070631 120321 net.cpp:367] inception_4a/relu_1x1 -> inception_4a/1x1 (in-place)
I0509 17:40:04.070636 120321 net.cpp:122] Setting up inception_4a/relu_1x1
I0509 17:40:04.070639 120321 net.cpp:129] Top shape: 10 192 14 14 (376320)
I0509 17:40:04.070642 120321 net.cpp:137] Memory required for data: 359009280
I0509 17:40:04.070644 120321 layer_factory.hpp:77] Creating layer inception_4a/3x3_reduce
I0509 17:40:04.070650 120321 net.cpp:84] Creating Layer inception_4a/3x3_reduce
I0509 17:40:04.070653 120321 net.cpp:406] inception_4a/3x3_reduce <- pool3/3x3_s2_pool3/3x3_s2_0_split_1
I0509 17:40:04.070659 120321 net.cpp:380] inception_4a/3x3_reduce -> inception_4a/3x3_reduce
I0509 17:40:04.070667 120321 base_conv_layer.cpp:121] Group is 1channel is480number of output is 96
I0509 17:40:04.070946 120321 net.cpp:122] Setting up inception_4a/3x3_reduce
I0509 17:40:04.070951 120321 net.cpp:129] Top shape: 10 96 14 14 (188160)
I0509 17:40:04.070955 120321 net.cpp:137] Memory required for data: 359761920
I0509 17:40:04.070963 120321 layer_factory.hpp:77] Creating layer inception_4a/relu_3x3_reduce
I0509 17:40:04.070967 120321 net.cpp:84] Creating Layer inception_4a/relu_3x3_reduce
I0509 17:40:04.070971 120321 net.cpp:406] inception_4a/relu_3x3_reduce <- inception_4a/3x3_reduce
I0509 17:40:04.070977 120321 net.cpp:367] inception_4a/relu_3x3_reduce -> inception_4a/3x3_reduce (in-place)
I0509 17:40:04.070982 120321 net.cpp:122] Setting up inception_4a/relu_3x3_reduce
I0509 17:40:04.070986 120321 net.cpp:129] Top shape: 10 96 14 14 (188160)
I0509 17:40:04.070988 120321 net.cpp:137] Memory required for data: 360514560
I0509 17:40:04.070991 120321 layer_factory.hpp:77] Creating layer inception_4a/3x3
I0509 17:40:04.070997 120321 net.cpp:84] Creating Layer inception_4a/3x3
I0509 17:40:04.071000 120321 net.cpp:406] inception_4a/3x3 <- inception_4a/3x3_reduce
I0509 17:40:04.071005 120321 net.cpp:380] inception_4a/3x3 -> inception_4a/3x3
I0509 17:40:04.071012 120321 base_conv_layer.cpp:121] Group is 1channel is96number of output is 208
I0509 17:40:04.072095 120321 net.cpp:122] Setting up inception_4a/3x3
I0509 17:40:04.072103 120321 net.cpp:129] Top shape: 10 208 14 14 (407680)
I0509 17:40:04.072105 120321 net.cpp:137] Memory required for data: 362145280
I0509 17:40:04.072110 120321 layer_factory.hpp:77] Creating layer inception_4a/relu_3x3
I0509 17:40:04.072115 120321 net.cpp:84] Creating Layer inception_4a/relu_3x3
I0509 17:40:04.072118 120321 net.cpp:406] inception_4a/relu_3x3 <- inception_4a/3x3
I0509 17:40:04.072124 120321 net.cpp:367] inception_4a/relu_3x3 -> inception_4a/3x3 (in-place)
I0509 17:40:04.072129 120321 net.cpp:122] Setting up inception_4a/relu_3x3
I0509 17:40:04.072134 120321 net.cpp:129] Top shape: 10 208 14 14 (407680)
I0509 17:40:04.072136 120321 net.cpp:137] Memory required for data: 363776000
I0509 17:40:04.072139 120321 layer_factory.hpp:77] Creating layer inception_4a/5x5_reduce
I0509 17:40:04.072146 120321 net.cpp:84] Creating Layer inception_4a/5x5_reduce
I0509 17:40:04.072149 120321 net.cpp:406] inception_4a/5x5_reduce <- pool3/3x3_s2_pool3/3x3_s2_0_split_2
I0509 17:40:04.072155 120321 net.cpp:380] inception_4a/5x5_reduce -> inception_4a/5x5_reduce
I0509 17:40:04.072163 120321 base_conv_layer.cpp:121] Group is 1channel is480number of output is 16
I0509 17:40:04.072227 120321 net.cpp:122] Setting up inception_4a/5x5_reduce
I0509 17:40:04.072232 120321 net.cpp:129] Top shape: 10 16 14 14 (31360)
I0509 17:40:04.072233 120321 net.cpp:137] Memory required for data: 363901440
I0509 17:40:04.072238 120321 layer_factory.hpp:77] Creating layer inception_4a/relu_5x5_reduce
I0509 17:40:04.072244 120321 net.cpp:84] Creating Layer inception_4a/relu_5x5_reduce
I0509 17:40:04.072247 120321 net.cpp:406] inception_4a/relu_5x5_reduce <- inception_4a/5x5_reduce
I0509 17:40:04.072252 120321 net.cpp:367] inception_4a/relu_5x5_reduce -> inception_4a/5x5_reduce (in-place)
I0509 17:40:04.072257 120321 net.cpp:122] Setting up inception_4a/relu_5x5_reduce
I0509 17:40:04.072262 120321 net.cpp:129] Top shape: 10 16 14 14 (31360)
I0509 17:40:04.072263 120321 net.cpp:137] Memory required for data: 364026880
I0509 17:40:04.072266 120321 layer_factory.hpp:77] Creating layer inception_4a/5x5
I0509 17:40:04.072273 120321 net.cpp:84] Creating Layer inception_4a/5x5
I0509 17:40:04.072276 120321 net.cpp:406] inception_4a/5x5 <- inception_4a/5x5_reduce
I0509 17:40:04.072283 120321 net.cpp:380] inception_4a/5x5 -> inception_4a/5x5
I0509 17:40:04.072290 120321 base_conv_layer.cpp:121] Group is 1channel is16number of output is 48
I0509 17:40:04.072453 120321 net.cpp:122] Setting up inception_4a/5x5
I0509 17:40:04.072458 120321 net.cpp:129] Top shape: 10 48 14 14 (94080)
I0509 17:40:04.072460 120321 net.cpp:137] Memory required for data: 364403200
I0509 17:40:04.072464 120321 layer_factory.hpp:77] Creating layer inception_4a/relu_5x5
I0509 17:40:04.072468 120321 net.cpp:84] Creating Layer inception_4a/relu_5x5
I0509 17:40:04.072471 120321 net.cpp:406] inception_4a/relu_5x5 <- inception_4a/5x5
I0509 17:40:04.072476 120321 net.cpp:367] inception_4a/relu_5x5 -> inception_4a/5x5 (in-place)
I0509 17:40:04.072480 120321 net.cpp:122] Setting up inception_4a/relu_5x5
I0509 17:40:04.072484 120321 net.cpp:129] Top shape: 10 48 14 14 (94080)
I0509 17:40:04.072486 120321 net.cpp:137] Memory required for data: 364779520
I0509 17:40:04.072492 120321 layer_factory.hpp:77] Creating layer inception_4a/pool
I0509 17:40:04.072496 120321 net.cpp:84] Creating Layer inception_4a/pool
I0509 17:40:04.072499 120321 net.cpp:406] inception_4a/pool <- pool3/3x3_s2_pool3/3x3_s2_0_split_3
I0509 17:40:04.072504 120321 net.cpp:380] inception_4a/pool -> inception_4a/pool
I0509 17:40:04.072510 120321 net.cpp:122] Setting up inception_4a/pool
I0509 17:40:04.072515 120321 net.cpp:129] Top shape: 10 480 14 14 (940800)
I0509 17:40:04.072517 120321 net.cpp:137] Memory required for data: 368542720
I0509 17:40:04.072520 120321 layer_factory.hpp:77] Creating layer inception_4a/pool_proj
I0509 17:40:04.072526 120321 net.cpp:84] Creating Layer inception_4a/pool_proj
I0509 17:40:04.072528 120321 net.cpp:406] inception_4a/pool_proj <- inception_4a/pool
I0509 17:40:04.072535 120321 net.cpp:380] inception_4a/pool_proj -> inception_4a/pool_proj
I0509 17:40:04.072541 120321 base_conv_layer.cpp:121] Group is 1channel is480number of output is 64
I0509 17:40:04.072731 120321 net.cpp:122] Setting up inception_4a/pool_proj
I0509 17:40:04.072736 120321 net.cpp:129] Top shape: 10 64 14 14 (125440)
I0509 17:40:04.072739 120321 net.cpp:137] Memory required for data: 369044480
I0509 17:40:04.072743 120321 layer_factory.hpp:77] Creating layer inception_4a/relu_pool_proj
I0509 17:40:04.072747 120321 net.cpp:84] Creating Layer inception_4a/relu_pool_proj
I0509 17:40:04.072751 120321 net.cpp:406] inception_4a/relu_pool_proj <- inception_4a/pool_proj
I0509 17:40:04.072755 120321 net.cpp:367] inception_4a/relu_pool_proj -> inception_4a/pool_proj (in-place)
I0509 17:40:04.072760 120321 net.cpp:122] Setting up inception_4a/relu_pool_proj
I0509 17:40:04.072763 120321 net.cpp:129] Top shape: 10 64 14 14 (125440)
I0509 17:40:04.072765 120321 net.cpp:137] Memory required for data: 369546240
I0509 17:40:04.072768 120321 layer_factory.hpp:77] Creating layer inception_4a/output
I0509 17:40:04.072772 120321 net.cpp:84] Creating Layer inception_4a/output
I0509 17:40:04.072775 120321 net.cpp:406] inception_4a/output <- inception_4a/1x1
I0509 17:40:04.072778 120321 net.cpp:406] inception_4a/output <- inception_4a/3x3
I0509 17:40:04.072782 120321 net.cpp:406] inception_4a/output <- inception_4a/5x5
I0509 17:40:04.072784 120321 net.cpp:406] inception_4a/output <- inception_4a/pool_proj
I0509 17:40:04.072789 120321 net.cpp:380] inception_4a/output -> inception_4a/output
I0509 17:40:04.072794 120321 net.cpp:122] Setting up inception_4a/output
I0509 17:40:04.072798 120321 net.cpp:129] Top shape: 10 512 14 14 (1003520)
I0509 17:40:04.072801 120321 net.cpp:137] Memory required for data: 373560320
I0509 17:40:04.072803 120321 layer_factory.hpp:77] Creating layer inception_4a/output_inception_4a/output_0_split
I0509 17:40:04.072808 120321 net.cpp:84] Creating Layer inception_4a/output_inception_4a/output_0_split
I0509 17:40:04.072810 120321 net.cpp:406] inception_4a/output_inception_4a/output_0_split <- inception_4a/output
I0509 17:40:04.072816 120321 net.cpp:380] inception_4a/output_inception_4a/output_0_split -> inception_4a/output_inception_4a/output_0_split_0
I0509 17:40:04.072821 120321 net.cpp:380] inception_4a/output_inception_4a/output_0_split -> inception_4a/output_inception_4a/output_0_split_1
I0509 17:40:04.072826 120321 net.cpp:380] inception_4a/output_inception_4a/output_0_split -> inception_4a/output_inception_4a/output_0_split_2
I0509 17:40:04.072831 120321 net.cpp:380] inception_4a/output_inception_4a/output_0_split -> inception_4a/output_inception_4a/output_0_split_3
I0509 17:40:04.072837 120321 net.cpp:122] Setting up inception_4a/output_inception_4a/output_0_split
I0509 17:40:04.072841 120321 net.cpp:129] Top shape: 10 512 14 14 (1003520)
I0509 17:40:04.072844 120321 net.cpp:129] Top shape: 10 512 14 14 (1003520)
I0509 17:40:04.072849 120321 net.cpp:129] Top shape: 10 512 14 14 (1003520)
I0509 17:40:04.072851 120321 net.cpp:129] Top shape: 10 512 14 14 (1003520)
I0509 17:40:04.072854 120321 net.cpp:137] Memory required for data: 389616640
I0509 17:40:04.072860 120321 layer_factory.hpp:77] Creating layer inception_4b/1x1
I0509 17:40:04.072865 120321 net.cpp:84] Creating Layer inception_4b/1x1
I0509 17:40:04.072868 120321 net.cpp:406] inception_4b/1x1 <- inception_4a/output_inception_4a/output_0_split_0
I0509 17:40:04.072875 120321 net.cpp:380] inception_4b/1x1 -> inception_4b/1x1
I0509 17:40:04.072880 120321 base_conv_layer.cpp:121] Group is 1channel is512number of output is 160
I0509 17:40:04.073371 120321 net.cpp:122] Setting up inception_4b/1x1
I0509 17:40:04.073377 120321 net.cpp:129] Top shape: 10 160 14 14 (313600)
I0509 17:40:04.073379 120321 net.cpp:137] Memory required for data: 390871040
I0509 17:40:04.073385 120321 layer_factory.hpp:77] Creating layer inception_4b/relu_1x1
I0509 17:40:04.073388 120321 net.cpp:84] Creating Layer inception_4b/relu_1x1
I0509 17:40:04.073391 120321 net.cpp:406] inception_4b/relu_1x1 <- inception_4b/1x1
I0509 17:40:04.073396 120321 net.cpp:367] inception_4b/relu_1x1 -> inception_4b/1x1 (in-place)
I0509 17:40:04.073400 120321 net.cpp:122] Setting up inception_4b/relu_1x1
I0509 17:40:04.073405 120321 net.cpp:129] Top shape: 10 160 14 14 (313600)
I0509 17:40:04.073407 120321 net.cpp:137] Memory required for data: 392125440
I0509 17:40:04.073410 120321 layer_factory.hpp:77] Creating layer inception_4b/3x3_reduce
I0509 17:40:04.073415 120321 net.cpp:84] Creating Layer inception_4b/3x3_reduce
I0509 17:40:04.073418 120321 net.cpp:406] inception_4b/3x3_reduce <- inception_4a/output_inception_4a/output_0_split_1
I0509 17:40:04.073423 120321 net.cpp:380] inception_4b/3x3_reduce -> inception_4b/3x3_reduce
I0509 17:40:04.073429 120321 base_conv_layer.cpp:121] Group is 1channel is512number of output is 112
I0509 17:40:04.073777 120321 net.cpp:122] Setting up inception_4b/3x3_reduce
I0509 17:40:04.073782 120321 net.cpp:129] Top shape: 10 112 14 14 (219520)
I0509 17:40:04.073786 120321 net.cpp:137] Memory required for data: 393003520
I0509 17:40:04.073789 120321 layer_factory.hpp:77] Creating layer inception_4b/relu_3x3_reduce
I0509 17:40:04.073794 120321 net.cpp:84] Creating Layer inception_4b/relu_3x3_reduce
I0509 17:40:04.073797 120321 net.cpp:406] inception_4b/relu_3x3_reduce <- inception_4b/3x3_reduce
I0509 17:40:04.073801 120321 net.cpp:367] inception_4b/relu_3x3_reduce -> inception_4b/3x3_reduce (in-place)
I0509 17:40:04.073806 120321 net.cpp:122] Setting up inception_4b/relu_3x3_reduce
I0509 17:40:04.073809 120321 net.cpp:129] Top shape: 10 112 14 14 (219520)
I0509 17:40:04.073812 120321 net.cpp:137] Memory required for data: 393881600
I0509 17:40:04.073814 120321 layer_factory.hpp:77] Creating layer inception_4b/3x3
I0509 17:40:04.073820 120321 net.cpp:84] Creating Layer inception_4b/3x3
I0509 17:40:04.073822 120321 net.cpp:406] inception_4b/3x3 <- inception_4b/3x3_reduce
I0509 17:40:04.073828 120321 net.cpp:380] inception_4b/3x3 -> inception_4b/3x3
I0509 17:40:04.073834 120321 base_conv_layer.cpp:121] Group is 1channel is112number of output is 224
I0509 17:40:04.075160 120321 net.cpp:122] Setting up inception_4b/3x3
I0509 17:40:04.075165 120321 net.cpp:129] Top shape: 10 224 14 14 (439040)
I0509 17:40:04.075168 120321 net.cpp:137] Memory required for data: 395637760
I0509 17:40:04.075172 120321 layer_factory.hpp:77] Creating layer inception_4b/relu_3x3
I0509 17:40:04.075176 120321 net.cpp:84] Creating Layer inception_4b/relu_3x3
I0509 17:40:04.075179 120321 net.cpp:406] inception_4b/relu_3x3 <- inception_4b/3x3
I0509 17:40:04.075183 120321 net.cpp:367] inception_4b/relu_3x3 -> inception_4b/3x3 (in-place)
I0509 17:40:04.075188 120321 net.cpp:122] Setting up inception_4b/relu_3x3
I0509 17:40:04.075192 120321 net.cpp:129] Top shape: 10 224 14 14 (439040)
I0509 17:40:04.075194 120321 net.cpp:137] Memory required for data: 397393920
I0509 17:40:04.075196 120321 layer_factory.hpp:77] Creating layer inception_4b/5x5_reduce
I0509 17:40:04.075212 120321 net.cpp:84] Creating Layer inception_4b/5x5_reduce
I0509 17:40:04.075215 120321 net.cpp:406] inception_4b/5x5_reduce <- inception_4a/output_inception_4a/output_0_split_2
I0509 17:40:04.075222 120321 net.cpp:380] inception_4b/5x5_reduce -> inception_4b/5x5_reduce
I0509 17:40:04.075229 120321 base_conv_layer.cpp:121] Group is 1channel is512number of output is 24
I0509 17:40:04.075309 120321 net.cpp:122] Setting up inception_4b/5x5_reduce
I0509 17:40:04.075312 120321 net.cpp:129] Top shape: 10 24 14 14 (47040)
I0509 17:40:04.075315 120321 net.cpp:137] Memory required for data: 397582080
I0509 17:40:04.075320 120321 layer_factory.hpp:77] Creating layer inception_4b/relu_5x5_reduce
I0509 17:40:04.075323 120321 net.cpp:84] Creating Layer inception_4b/relu_5x5_reduce
I0509 17:40:04.075326 120321 net.cpp:406] inception_4b/relu_5x5_reduce <- inception_4b/5x5_reduce
I0509 17:40:04.075331 120321 net.cpp:367] inception_4b/relu_5x5_reduce -> inception_4b/5x5_reduce (in-place)
I0509 17:40:04.075335 120321 net.cpp:122] Setting up inception_4b/relu_5x5_reduce
I0509 17:40:04.075340 120321 net.cpp:129] Top shape: 10 24 14 14 (47040)
I0509 17:40:04.075341 120321 net.cpp:137] Memory required for data: 397770240
I0509 17:40:04.075345 120321 layer_factory.hpp:77] Creating layer inception_4b/5x5
I0509 17:40:04.075350 120321 net.cpp:84] Creating Layer inception_4b/5x5
I0509 17:40:04.075352 120321 net.cpp:406] inception_4b/5x5 <- inception_4b/5x5_reduce
I0509 17:40:04.075357 120321 net.cpp:380] inception_4b/5x5 -> inception_4b/5x5
I0509 17:40:04.075364 120321 base_conv_layer.cpp:121] Group is 1channel is24number of output is 64
I0509 17:40:04.075600 120321 net.cpp:122] Setting up inception_4b/5x5
I0509 17:40:04.075606 120321 net.cpp:129] Top shape: 10 64 14 14 (125440)
I0509 17:40:04.075608 120321 net.cpp:137] Memory required for data: 398272000
I0509 17:40:04.075613 120321 layer_factory.hpp:77] Creating layer inception_4b/relu_5x5
I0509 17:40:04.075618 120321 net.cpp:84] Creating Layer inception_4b/relu_5x5
I0509 17:40:04.075620 120321 net.cpp:406] inception_4b/relu_5x5 <- inception_4b/5x5
I0509 17:40:04.075624 120321 net.cpp:367] inception_4b/relu_5x5 -> inception_4b/5x5 (in-place)
I0509 17:40:04.075628 120321 net.cpp:122] Setting up inception_4b/relu_5x5
I0509 17:40:04.075631 120321 net.cpp:129] Top shape: 10 64 14 14 (125440)
I0509 17:40:04.075634 120321 net.cpp:137] Memory required for data: 398773760
I0509 17:40:04.075636 120321 layer_factory.hpp:77] Creating layer inception_4b/pool
I0509 17:40:04.075640 120321 net.cpp:84] Creating Layer inception_4b/pool
I0509 17:40:04.075644 120321 net.cpp:406] inception_4b/pool <- inception_4a/output_inception_4a/output_0_split_3
I0509 17:40:04.075649 120321 net.cpp:380] inception_4b/pool -> inception_4b/pool
I0509 17:40:04.075654 120321 net.cpp:122] Setting up inception_4b/pool
I0509 17:40:04.075659 120321 net.cpp:129] Top shape: 10 512 14 14 (1003520)
I0509 17:40:04.075660 120321 net.cpp:137] Memory required for data: 402787840
I0509 17:40:04.075664 120321 layer_factory.hpp:77] Creating layer inception_4b/pool_proj
I0509 17:40:04.075670 120321 net.cpp:84] Creating Layer inception_4b/pool_proj
I0509 17:40:04.075672 120321 net.cpp:406] inception_4b/pool_proj <- inception_4b/pool
I0509 17:40:04.075677 120321 net.cpp:380] inception_4b/pool_proj -> inception_4b/pool_proj
I0509 17:40:04.075685 120321 base_conv_layer.cpp:121] Group is 1channel is512number of output is 64
I0509 17:40:04.075888 120321 net.cpp:122] Setting up inception_4b/pool_proj
I0509 17:40:04.075893 120321 net.cpp:129] Top shape: 10 64 14 14 (125440)
I0509 17:40:04.075896 120321 net.cpp:137] Memory required for data: 403289600
I0509 17:40:04.075901 120321 layer_factory.hpp:77] Creating layer inception_4b/relu_pool_proj
I0509 17:40:04.075904 120321 net.cpp:84] Creating Layer inception_4b/relu_pool_proj
I0509 17:40:04.075907 120321 net.cpp:406] inception_4b/relu_pool_proj <- inception_4b/pool_proj
I0509 17:40:04.075912 120321 net.cpp:367] inception_4b/relu_pool_proj -> inception_4b/pool_proj (in-place)
I0509 17:40:04.075917 120321 net.cpp:122] Setting up inception_4b/relu_pool_proj
I0509 17:40:04.075920 120321 net.cpp:129] Top shape: 10 64 14 14 (125440)
I0509 17:40:04.075923 120321 net.cpp:137] Memory required for data: 403791360
I0509 17:40:04.075928 120321 layer_factory.hpp:77] Creating layer inception_4b/output
I0509 17:40:04.075932 120321 net.cpp:84] Creating Layer inception_4b/output
I0509 17:40:04.075935 120321 net.cpp:406] inception_4b/output <- inception_4b/1x1
I0509 17:40:04.075938 120321 net.cpp:406] inception_4b/output <- inception_4b/3x3
I0509 17:40:04.075942 120321 net.cpp:406] inception_4b/output <- inception_4b/5x5
I0509 17:40:04.075944 120321 net.cpp:406] inception_4b/output <- inception_4b/pool_proj
I0509 17:40:04.075949 120321 net.cpp:380] inception_4b/output -> inception_4b/output
I0509 17:40:04.075955 120321 net.cpp:122] Setting up inception_4b/output
I0509 17:40:04.075958 120321 net.cpp:129] Top shape: 10 512 14 14 (1003520)
I0509 17:40:04.075961 120321 net.cpp:137] Memory required for data: 407805440
I0509 17:40:04.075964 120321 layer_factory.hpp:77] Creating layer inception_4b/output_inception_4b/output_0_split
I0509 17:40:04.075968 120321 net.cpp:84] Creating Layer inception_4b/output_inception_4b/output_0_split
I0509 17:40:04.075970 120321 net.cpp:406] inception_4b/output_inception_4b/output_0_split <- inception_4b/output
I0509 17:40:04.075976 120321 net.cpp:380] inception_4b/output_inception_4b/output_0_split -> inception_4b/output_inception_4b/output_0_split_0
I0509 17:40:04.075981 120321 net.cpp:380] inception_4b/output_inception_4b/output_0_split -> inception_4b/output_inception_4b/output_0_split_1
I0509 17:40:04.075986 120321 net.cpp:380] inception_4b/output_inception_4b/output_0_split -> inception_4b/output_inception_4b/output_0_split_2
I0509 17:40:04.075991 120321 net.cpp:380] inception_4b/output_inception_4b/output_0_split -> inception_4b/output_inception_4b/output_0_split_3
I0509 17:40:04.075999 120321 net.cpp:122] Setting up inception_4b/output_inception_4b/output_0_split
I0509 17:40:04.076001 120321 net.cpp:129] Top shape: 10 512 14 14 (1003520)
I0509 17:40:04.076005 120321 net.cpp:129] Top shape: 10 512 14 14 (1003520)
I0509 17:40:04.076009 120321 net.cpp:129] Top shape: 10 512 14 14 (1003520)
I0509 17:40:04.076012 120321 net.cpp:129] Top shape: 10 512 14 14 (1003520)
I0509 17:40:04.076014 120321 net.cpp:137] Memory required for data: 423861760
I0509 17:40:04.076016 120321 layer_factory.hpp:77] Creating layer inception_4c/1x1
I0509 17:40:04.076022 120321 net.cpp:84] Creating Layer inception_4c/1x1
I0509 17:40:04.076026 120321 net.cpp:406] inception_4c/1x1 <- inception_4b/output_inception_4b/output_0_split_0
I0509 17:40:04.076031 120321 net.cpp:380] inception_4c/1x1 -> inception_4c/1x1
I0509 17:40:04.076061 120321 base_conv_layer.cpp:121] Group is 1channel is512number of output is 128
I0509 17:40:04.076522 120321 net.cpp:122] Setting up inception_4c/1x1
I0509 17:40:04.076529 120321 net.cpp:129] Top shape: 10 128 14 14 (250880)
I0509 17:40:04.076530 120321 net.cpp:137] Memory required for data: 424865280
I0509 17:40:04.076535 120321 layer_factory.hpp:77] Creating layer inception_4c/relu_1x1
I0509 17:40:04.076539 120321 net.cpp:84] Creating Layer inception_4c/relu_1x1
I0509 17:40:04.076542 120321 net.cpp:406] inception_4c/relu_1x1 <- inception_4c/1x1
I0509 17:40:04.076546 120321 net.cpp:367] inception_4c/relu_1x1 -> inception_4c/1x1 (in-place)
I0509 17:40:04.076551 120321 net.cpp:122] Setting up inception_4c/relu_1x1
I0509 17:40:04.076555 120321 net.cpp:129] Top shape: 10 128 14 14 (250880)
I0509 17:40:04.076558 120321 net.cpp:137] Memory required for data: 425868800
I0509 17:40:04.076560 120321 layer_factory.hpp:77] Creating layer inception_4c/3x3_reduce
I0509 17:40:04.076565 120321 net.cpp:84] Creating Layer inception_4c/3x3_reduce
I0509 17:40:04.076568 120321 net.cpp:406] inception_4c/3x3_reduce <- inception_4b/output_inception_4b/output_0_split_1
I0509 17:40:04.076575 120321 net.cpp:380] inception_4c/3x3_reduce -> inception_4c/3x3_reduce
I0509 17:40:04.076581 120321 base_conv_layer.cpp:121] Group is 1channel is512number of output is 128
I0509 17:40:04.076975 120321 net.cpp:122] Setting up inception_4c/3x3_reduce
I0509 17:40:04.076980 120321 net.cpp:129] Top shape: 10 128 14 14 (250880)
I0509 17:40:04.076985 120321 net.cpp:137] Memory required for data: 426872320
I0509 17:40:04.076990 120321 layer_factory.hpp:77] Creating layer inception_4c/relu_3x3_reduce
I0509 17:40:04.076995 120321 net.cpp:84] Creating Layer inception_4c/relu_3x3_reduce
I0509 17:40:04.076997 120321 net.cpp:406] inception_4c/relu_3x3_reduce <- inception_4c/3x3_reduce
I0509 17:40:04.077003 120321 net.cpp:367] inception_4c/relu_3x3_reduce -> inception_4c/3x3_reduce (in-place)
I0509 17:40:04.077006 120321 net.cpp:122] Setting up inception_4c/relu_3x3_reduce
I0509 17:40:04.077009 120321 net.cpp:129] Top shape: 10 128 14 14 (250880)
I0509 17:40:04.077013 120321 net.cpp:137] Memory required for data: 427875840
I0509 17:40:04.077015 120321 layer_factory.hpp:77] Creating layer inception_4c/3x3
I0509 17:40:04.077021 120321 net.cpp:84] Creating Layer inception_4c/3x3
I0509 17:40:04.077024 120321 net.cpp:406] inception_4c/3x3 <- inception_4c/3x3_reduce
I0509 17:40:04.077029 120321 net.cpp:380] inception_4c/3x3 -> inception_4c/3x3
I0509 17:40:04.077036 120321 base_conv_layer.cpp:121] Group is 1channel is128number of output is 256
I0509 17:40:04.078769 120321 net.cpp:122] Setting up inception_4c/3x3
I0509 17:40:04.078774 120321 net.cpp:129] Top shape: 10 256 14 14 (501760)
I0509 17:40:04.078776 120321 net.cpp:137] Memory required for data: 429882880
I0509 17:40:04.078781 120321 layer_factory.hpp:77] Creating layer inception_4c/relu_3x3
I0509 17:40:04.078785 120321 net.cpp:84] Creating Layer inception_4c/relu_3x3
I0509 17:40:04.078788 120321 net.cpp:406] inception_4c/relu_3x3 <- inception_4c/3x3
I0509 17:40:04.078794 120321 net.cpp:367] inception_4c/relu_3x3 -> inception_4c/3x3 (in-place)
I0509 17:40:04.078797 120321 net.cpp:122] Setting up inception_4c/relu_3x3
I0509 17:40:04.078801 120321 net.cpp:129] Top shape: 10 256 14 14 (501760)
I0509 17:40:04.078804 120321 net.cpp:137] Memory required for data: 431889920
I0509 17:40:04.078805 120321 layer_factory.hpp:77] Creating layer inception_4c/5x5_reduce
I0509 17:40:04.078812 120321 net.cpp:84] Creating Layer inception_4c/5x5_reduce
I0509 17:40:04.078814 120321 net.cpp:406] inception_4c/5x5_reduce <- inception_4b/output_inception_4b/output_0_split_2
I0509 17:40:04.078819 120321 net.cpp:380] inception_4c/5x5_reduce -> inception_4c/5x5_reduce
I0509 17:40:04.078840 120321 base_conv_layer.cpp:121] Group is 1channel is512number of output is 24
I0509 17:40:04.078918 120321 net.cpp:122] Setting up inception_4c/5x5_reduce
I0509 17:40:04.078923 120321 net.cpp:129] Top shape: 10 24 14 14 (47040)
I0509 17:40:04.078927 120321 net.cpp:137] Memory required for data: 432078080
I0509 17:40:04.078930 120321 layer_factory.hpp:77] Creating layer inception_4c/relu_5x5_reduce
I0509 17:40:04.078936 120321 net.cpp:84] Creating Layer inception_4c/relu_5x5_reduce
I0509 17:40:04.078939 120321 net.cpp:406] inception_4c/relu_5x5_reduce <- inception_4c/5x5_reduce
I0509 17:40:04.078943 120321 net.cpp:367] inception_4c/relu_5x5_reduce -> inception_4c/5x5_reduce (in-place)
I0509 17:40:04.078948 120321 net.cpp:122] Setting up inception_4c/relu_5x5_reduce
I0509 17:40:04.078951 120321 net.cpp:129] Top shape: 10 24 14 14 (47040)
I0509 17:40:04.078953 120321 net.cpp:137] Memory required for data: 432266240
I0509 17:40:04.078956 120321 layer_factory.hpp:77] Creating layer inception_4c/5x5
I0509 17:40:04.078963 120321 net.cpp:84] Creating Layer inception_4c/5x5
I0509 17:40:04.078965 120321 net.cpp:406] inception_4c/5x5 <- inception_4c/5x5_reduce
I0509 17:40:04.078969 120321 net.cpp:380] inception_4c/5x5 -> inception_4c/5x5
I0509 17:40:04.078977 120321 base_conv_layer.cpp:121] Group is 1channel is24number of output is 64
I0509 17:40:04.079212 120321 net.cpp:122] Setting up inception_4c/5x5
I0509 17:40:04.079218 120321 net.cpp:129] Top shape: 10 64 14 14 (125440)
I0509 17:40:04.079221 120321 net.cpp:137] Memory required for data: 432768000
I0509 17:40:04.079224 120321 layer_factory.hpp:77] Creating layer inception_4c/relu_5x5
I0509 17:40:04.079229 120321 net.cpp:84] Creating Layer inception_4c/relu_5x5
I0509 17:40:04.079232 120321 net.cpp:406] inception_4c/relu_5x5 <- inception_4c/5x5
I0509 17:40:04.079238 120321 net.cpp:367] inception_4c/relu_5x5 -> inception_4c/5x5 (in-place)
I0509 17:40:04.079243 120321 net.cpp:122] Setting up inception_4c/relu_5x5
I0509 17:40:04.079246 120321 net.cpp:129] Top shape: 10 64 14 14 (125440)
I0509 17:40:04.079249 120321 net.cpp:137] Memory required for data: 433269760
I0509 17:40:04.079252 120321 layer_factory.hpp:77] Creating layer inception_4c/pool
I0509 17:40:04.079257 120321 net.cpp:84] Creating Layer inception_4c/pool
I0509 17:40:04.079259 120321 net.cpp:406] inception_4c/pool <- inception_4b/output_inception_4b/output_0_split_3
I0509 17:40:04.079264 120321 net.cpp:380] inception_4c/pool -> inception_4c/pool
I0509 17:40:04.079269 120321 net.cpp:122] Setting up inception_4c/pool
I0509 17:40:04.079273 120321 net.cpp:129] Top shape: 10 512 14 14 (1003520)
I0509 17:40:04.079275 120321 net.cpp:137] Memory required for data: 437283840
I0509 17:40:04.079278 120321 layer_factory.hpp:77] Creating layer inception_4c/pool_proj
I0509 17:40:04.079285 120321 net.cpp:84] Creating Layer inception_4c/pool_proj
I0509 17:40:04.079288 120321 net.cpp:406] inception_4c/pool_proj <- inception_4c/pool
I0509 17:40:04.079293 120321 net.cpp:380] inception_4c/pool_proj -> inception_4c/pool_proj
I0509 17:40:04.079299 120321 base_conv_layer.cpp:121] Group is 1channel is512number of output is 64
I0509 17:40:04.079502 120321 net.cpp:122] Setting up inception_4c/pool_proj
I0509 17:40:04.079507 120321 net.cpp:129] Top shape: 10 64 14 14 (125440)
I0509 17:40:04.079510 120321 net.cpp:137] Memory required for data: 437785600
I0509 17:40:04.079524 120321 layer_factory.hpp:77] Creating layer inception_4c/relu_pool_proj
I0509 17:40:04.079529 120321 net.cpp:84] Creating Layer inception_4c/relu_pool_proj
I0509 17:40:04.079531 120321 net.cpp:406] inception_4c/relu_pool_proj <- inception_4c/pool_proj
I0509 17:40:04.079536 120321 net.cpp:367] inception_4c/relu_pool_proj -> inception_4c/pool_proj (in-place)
I0509 17:40:04.079541 120321 net.cpp:122] Setting up inception_4c/relu_pool_proj
I0509 17:40:04.079545 120321 net.cpp:129] Top shape: 10 64 14 14 (125440)
I0509 17:40:04.079547 120321 net.cpp:137] Memory required for data: 438287360
I0509 17:40:04.079550 120321 layer_factory.hpp:77] Creating layer inception_4c/output
I0509 17:40:04.079555 120321 net.cpp:84] Creating Layer inception_4c/output
I0509 17:40:04.079556 120321 net.cpp:406] inception_4c/output <- inception_4c/1x1
I0509 17:40:04.079560 120321 net.cpp:406] inception_4c/output <- inception_4c/3x3
I0509 17:40:04.079562 120321 net.cpp:406] inception_4c/output <- inception_4c/5x5
I0509 17:40:04.079566 120321 net.cpp:406] inception_4c/output <- inception_4c/pool_proj
I0509 17:40:04.079571 120321 net.cpp:380] inception_4c/output -> inception_4c/output
I0509 17:40:04.079576 120321 net.cpp:122] Setting up inception_4c/output
I0509 17:40:04.079579 120321 net.cpp:129] Top shape: 10 512 14 14 (1003520)
I0509 17:40:04.079581 120321 net.cpp:137] Memory required for data: 442301440
I0509 17:40:04.079584 120321 layer_factory.hpp:77] Creating layer inception_4c/output_inception_4c/output_0_split
I0509 17:40:04.079589 120321 net.cpp:84] Creating Layer inception_4c/output_inception_4c/output_0_split
I0509 17:40:04.079591 120321 net.cpp:406] inception_4c/output_inception_4c/output_0_split <- inception_4c/output
I0509 17:40:04.079596 120321 net.cpp:380] inception_4c/output_inception_4c/output_0_split -> inception_4c/output_inception_4c/output_0_split_0
I0509 17:40:04.079602 120321 net.cpp:380] inception_4c/output_inception_4c/output_0_split -> inception_4c/output_inception_4c/output_0_split_1
I0509 17:40:04.079607 120321 net.cpp:380] inception_4c/output_inception_4c/output_0_split -> inception_4c/output_inception_4c/output_0_split_2
I0509 17:40:04.079612 120321 net.cpp:380] inception_4c/output_inception_4c/output_0_split -> inception_4c/output_inception_4c/output_0_split_3
I0509 17:40:04.079617 120321 net.cpp:122] Setting up inception_4c/output_inception_4c/output_0_split
I0509 17:40:04.079622 120321 net.cpp:129] Top shape: 10 512 14 14 (1003520)
I0509 17:40:04.079627 120321 net.cpp:129] Top shape: 10 512 14 14 (1003520)
I0509 17:40:04.079630 120321 net.cpp:129] Top shape: 10 512 14 14 (1003520)
I0509 17:40:04.079634 120321 net.cpp:129] Top shape: 10 512 14 14 (1003520)
I0509 17:40:04.079637 120321 net.cpp:137] Memory required for data: 458357760
I0509 17:40:04.079639 120321 layer_factory.hpp:77] Creating layer inception_4d/1x1
I0509 17:40:04.079646 120321 net.cpp:84] Creating Layer inception_4d/1x1
I0509 17:40:04.079649 120321 net.cpp:406] inception_4d/1x1 <- inception_4c/output_inception_4c/output_0_split_0
I0509 17:40:04.079653 120321 net.cpp:380] inception_4d/1x1 -> inception_4d/1x1
I0509 17:40:04.079660 120321 base_conv_layer.cpp:121] Group is 1channel is512number of output is 112
I0509 17:40:04.080004 120321 net.cpp:122] Setting up inception_4d/1x1
I0509 17:40:04.080009 120321 net.cpp:129] Top shape: 10 112 14 14 (219520)
I0509 17:40:04.080013 120321 net.cpp:137] Memory required for data: 459235840
I0509 17:40:04.080016 120321 layer_factory.hpp:77] Creating layer inception_4d/relu_1x1
I0509 17:40:04.080024 120321 net.cpp:84] Creating Layer inception_4d/relu_1x1
I0509 17:40:04.080027 120321 net.cpp:406] inception_4d/relu_1x1 <- inception_4d/1x1
I0509 17:40:04.080031 120321 net.cpp:367] inception_4d/relu_1x1 -> inception_4d/1x1 (in-place)
I0509 17:40:04.080094 120321 net.cpp:122] Setting up inception_4d/relu_1x1
I0509 17:40:04.080101 120321 net.cpp:129] Top shape: 10 112 14 14 (219520)
I0509 17:40:04.080104 120321 net.cpp:137] Memory required for data: 460113920
I0509 17:40:04.080107 120321 layer_factory.hpp:77] Creating layer inception_4d/3x3_reduce
I0509 17:40:04.080116 120321 net.cpp:84] Creating Layer inception_4d/3x3_reduce
I0509 17:40:04.080119 120321 net.cpp:406] inception_4d/3x3_reduce <- inception_4c/output_inception_4c/output_0_split_1
I0509 17:40:04.080127 120321 net.cpp:380] inception_4d/3x3_reduce -> inception_4d/3x3_reduce
I0509 17:40:04.080134 120321 base_conv_layer.cpp:121] Group is 1channel is512number of output is 144
I0509 17:40:04.080637 120321 net.cpp:122] Setting up inception_4d/3x3_reduce
I0509 17:40:04.080642 120321 net.cpp:129] Top shape: 10 144 14 14 (282240)
I0509 17:40:04.080646 120321 net.cpp:137] Memory required for data: 461242880
I0509 17:40:04.080649 120321 layer_factory.hpp:77] Creating layer inception_4d/relu_3x3_reduce
I0509 17:40:04.080653 120321 net.cpp:84] Creating Layer inception_4d/relu_3x3_reduce
I0509 17:40:04.080657 120321 net.cpp:406] inception_4d/relu_3x3_reduce <- inception_4d/3x3_reduce
I0509 17:40:04.080662 120321 net.cpp:367] inception_4d/relu_3x3_reduce -> inception_4d/3x3_reduce (in-place)
I0509 17:40:04.080667 120321 net.cpp:122] Setting up inception_4d/relu_3x3_reduce
I0509 17:40:04.080669 120321 net.cpp:129] Top shape: 10 144 14 14 (282240)
I0509 17:40:04.080672 120321 net.cpp:137] Memory required for data: 462371840
I0509 17:40:04.080674 120321 layer_factory.hpp:77] Creating layer inception_4d/3x3
I0509 17:40:04.080682 120321 net.cpp:84] Creating Layer inception_4d/3x3
I0509 17:40:04.080684 120321 net.cpp:406] inception_4d/3x3 <- inception_4d/3x3_reduce
I0509 17:40:04.080688 120321 net.cpp:380] inception_4d/3x3 -> inception_4d/3x3
I0509 17:40:04.080696 120321 base_conv_layer.cpp:121] Group is 1channel is144number of output is 288
I0509 17:40:04.082883 120321 net.cpp:122] Setting up inception_4d/3x3
I0509 17:40:04.082887 120321 net.cpp:129] Top shape: 10 288 14 14 (564480)
I0509 17:40:04.082890 120321 net.cpp:137] Memory required for data: 464629760
I0509 17:40:04.082895 120321 layer_factory.hpp:77] Creating layer inception_4d/relu_3x3
I0509 17:40:04.082898 120321 net.cpp:84] Creating Layer inception_4d/relu_3x3
I0509 17:40:04.082901 120321 net.cpp:406] inception_4d/relu_3x3 <- inception_4d/3x3
I0509 17:40:04.082906 120321 net.cpp:367] inception_4d/relu_3x3 -> inception_4d/3x3 (in-place)
I0509 17:40:04.082911 120321 net.cpp:122] Setting up inception_4d/relu_3x3
I0509 17:40:04.082914 120321 net.cpp:129] Top shape: 10 288 14 14 (564480)
I0509 17:40:04.082917 120321 net.cpp:137] Memory required for data: 466887680
I0509 17:40:04.082922 120321 layer_factory.hpp:77] Creating layer inception_4d/5x5_reduce
I0509 17:40:04.082927 120321 net.cpp:84] Creating Layer inception_4d/5x5_reduce
I0509 17:40:04.082931 120321 net.cpp:406] inception_4d/5x5_reduce <- inception_4c/output_inception_4c/output_0_split_2
I0509 17:40:04.082937 120321 net.cpp:380] inception_4d/5x5_reduce -> inception_4d/5x5_reduce
I0509 17:40:04.082942 120321 base_conv_layer.cpp:121] Group is 1channel is512number of output is 32
I0509 17:40:04.083045 120321 net.cpp:122] Setting up inception_4d/5x5_reduce
I0509 17:40:04.083050 120321 net.cpp:129] Top shape: 10 32 14 14 (62720)
I0509 17:40:04.083052 120321 net.cpp:137] Memory required for data: 467138560
I0509 17:40:04.083056 120321 layer_factory.hpp:77] Creating layer inception_4d/relu_5x5_reduce
I0509 17:40:04.083060 120321 net.cpp:84] Creating Layer inception_4d/relu_5x5_reduce
I0509 17:40:04.083063 120321 net.cpp:406] inception_4d/relu_5x5_reduce <- inception_4d/5x5_reduce
I0509 17:40:04.083068 120321 net.cpp:367] inception_4d/relu_5x5_reduce -> inception_4d/5x5_reduce (in-place)
I0509 17:40:04.083072 120321 net.cpp:122] Setting up inception_4d/relu_5x5_reduce
I0509 17:40:04.083076 120321 net.cpp:129] Top shape: 10 32 14 14 (62720)
I0509 17:40:04.083078 120321 net.cpp:137] Memory required for data: 467389440
I0509 17:40:04.083081 120321 layer_factory.hpp:77] Creating layer inception_4d/5x5
I0509 17:40:04.083087 120321 net.cpp:84] Creating Layer inception_4d/5x5
I0509 17:40:04.083091 120321 net.cpp:406] inception_4d/5x5 <- inception_4d/5x5_reduce
I0509 17:40:04.083094 120321 net.cpp:380] inception_4d/5x5 -> inception_4d/5x5
I0509 17:40:04.083101 120321 base_conv_layer.cpp:121] Group is 1channel is32number of output is 64
I0509 17:40:04.083412 120321 net.cpp:122] Setting up inception_4d/5x5
I0509 17:40:04.083417 120321 net.cpp:129] Top shape: 10 64 14 14 (125440)
I0509 17:40:04.083420 120321 net.cpp:137] Memory required for data: 467891200
I0509 17:40:04.083425 120321 layer_factory.hpp:77] Creating layer inception_4d/relu_5x5
I0509 17:40:04.083428 120321 net.cpp:84] Creating Layer inception_4d/relu_5x5
I0509 17:40:04.083432 120321 net.cpp:406] inception_4d/relu_5x5 <- inception_4d/5x5
I0509 17:40:04.083436 120321 net.cpp:367] inception_4d/relu_5x5 -> inception_4d/5x5 (in-place)
I0509 17:40:04.083439 120321 net.cpp:122] Setting up inception_4d/relu_5x5
I0509 17:40:04.083443 120321 net.cpp:129] Top shape: 10 64 14 14 (125440)
I0509 17:40:04.083446 120321 net.cpp:137] Memory required for data: 468392960
I0509 17:40:04.083448 120321 layer_factory.hpp:77] Creating layer inception_4d/pool
I0509 17:40:04.083453 120321 net.cpp:84] Creating Layer inception_4d/pool
I0509 17:40:04.083456 120321 net.cpp:406] inception_4d/pool <- inception_4c/output_inception_4c/output_0_split_3
I0509 17:40:04.083461 120321 net.cpp:380] inception_4d/pool -> inception_4d/pool
I0509 17:40:04.083467 120321 net.cpp:122] Setting up inception_4d/pool
I0509 17:40:04.083469 120321 net.cpp:129] Top shape: 10 512 14 14 (1003520)
I0509 17:40:04.083472 120321 net.cpp:137] Memory required for data: 472407040
I0509 17:40:04.083475 120321 layer_factory.hpp:77] Creating layer inception_4d/pool_proj
I0509 17:40:04.083482 120321 net.cpp:84] Creating Layer inception_4d/pool_proj
I0509 17:40:04.083484 120321 net.cpp:406] inception_4d/pool_proj <- inception_4d/pool
I0509 17:40:04.083489 120321 net.cpp:380] inception_4d/pool_proj -> inception_4d/pool_proj
I0509 17:40:04.083497 120321 base_conv_layer.cpp:121] Group is 1channel is512number of output is 64
I0509 17:40:04.083699 120321 net.cpp:122] Setting up inception_4d/pool_proj
I0509 17:40:04.083704 120321 net.cpp:129] Top shape: 10 64 14 14 (125440)
I0509 17:40:04.083706 120321 net.cpp:137] Memory required for data: 472908800
I0509 17:40:04.083711 120321 layer_factory.hpp:77] Creating layer inception_4d/relu_pool_proj
I0509 17:40:04.083714 120321 net.cpp:84] Creating Layer inception_4d/relu_pool_proj
I0509 17:40:04.083717 120321 net.cpp:406] inception_4d/relu_pool_proj <- inception_4d/pool_proj
I0509 17:40:04.083725 120321 net.cpp:367] inception_4d/relu_pool_proj -> inception_4d/pool_proj (in-place)
I0509 17:40:04.083729 120321 net.cpp:122] Setting up inception_4d/relu_pool_proj
I0509 17:40:04.083734 120321 net.cpp:129] Top shape: 10 64 14 14 (125440)
I0509 17:40:04.083735 120321 net.cpp:137] Memory required for data: 473410560
I0509 17:40:04.083739 120321 layer_factory.hpp:77] Creating layer inception_4d/output
I0509 17:40:04.083742 120321 net.cpp:84] Creating Layer inception_4d/output
I0509 17:40:04.083745 120321 net.cpp:406] inception_4d/output <- inception_4d/1x1
I0509 17:40:04.083748 120321 net.cpp:406] inception_4d/output <- inception_4d/3x3
I0509 17:40:04.083751 120321 net.cpp:406] inception_4d/output <- inception_4d/5x5
I0509 17:40:04.083755 120321 net.cpp:406] inception_4d/output <- inception_4d/pool_proj
I0509 17:40:04.083760 120321 net.cpp:380] inception_4d/output -> inception_4d/output
I0509 17:40:04.083765 120321 net.cpp:122] Setting up inception_4d/output
I0509 17:40:04.083770 120321 net.cpp:129] Top shape: 10 528 14 14 (1034880)
I0509 17:40:04.083771 120321 net.cpp:137] Memory required for data: 477550080
I0509 17:40:04.083775 120321 layer_factory.hpp:77] Creating layer inception_4d/output_inception_4d/output_0_split
I0509 17:40:04.083778 120321 net.cpp:84] Creating Layer inception_4d/output_inception_4d/output_0_split
I0509 17:40:04.083781 120321 net.cpp:406] inception_4d/output_inception_4d/output_0_split <- inception_4d/output
I0509 17:40:04.083786 120321 net.cpp:380] inception_4d/output_inception_4d/output_0_split -> inception_4d/output_inception_4d/output_0_split_0
I0509 17:40:04.083791 120321 net.cpp:380] inception_4d/output_inception_4d/output_0_split -> inception_4d/output_inception_4d/output_0_split_1
I0509 17:40:04.083796 120321 net.cpp:380] inception_4d/output_inception_4d/output_0_split -> inception_4d/output_inception_4d/output_0_split_2
I0509 17:40:04.083802 120321 net.cpp:380] inception_4d/output_inception_4d/output_0_split -> inception_4d/output_inception_4d/output_0_split_3
I0509 17:40:04.083808 120321 net.cpp:122] Setting up inception_4d/output_inception_4d/output_0_split
I0509 17:40:04.083811 120321 net.cpp:129] Top shape: 10 528 14 14 (1034880)
I0509 17:40:04.083816 120321 net.cpp:129] Top shape: 10 528 14 14 (1034880)
I0509 17:40:04.083818 120321 net.cpp:129] Top shape: 10 528 14 14 (1034880)
I0509 17:40:04.083822 120321 net.cpp:129] Top shape: 10 528 14 14 (1034880)
I0509 17:40:04.083824 120321 net.cpp:137] Memory required for data: 494108160
I0509 17:40:04.083827 120321 layer_factory.hpp:77] Creating layer inception_4e/1x1
I0509 17:40:04.083832 120321 net.cpp:84] Creating Layer inception_4e/1x1
I0509 17:40:04.083837 120321 net.cpp:406] inception_4e/1x1 <- inception_4d/output_inception_4d/output_0_split_0
I0509 17:40:04.083842 120321 net.cpp:380] inception_4e/1x1 -> inception_4e/1x1
I0509 17:40:04.083848 120321 base_conv_layer.cpp:121] Group is 1channel is528number of output is 256
I0509 17:40:04.084739 120321 net.cpp:122] Setting up inception_4e/1x1
I0509 17:40:04.084746 120321 net.cpp:129] Top shape: 10 256 14 14 (501760)
I0509 17:40:04.084748 120321 net.cpp:137] Memory required for data: 496115200
I0509 17:40:04.084753 120321 layer_factory.hpp:77] Creating layer inception_4e/relu_1x1
I0509 17:40:04.084758 120321 net.cpp:84] Creating Layer inception_4e/relu_1x1
I0509 17:40:04.084760 120321 net.cpp:406] inception_4e/relu_1x1 <- inception_4e/1x1
I0509 17:40:04.084765 120321 net.cpp:367] inception_4e/relu_1x1 -> inception_4e/1x1 (in-place)
I0509 17:40:04.084769 120321 net.cpp:122] Setting up inception_4e/relu_1x1
I0509 17:40:04.084774 120321 net.cpp:129] Top shape: 10 256 14 14 (501760)
I0509 17:40:04.084776 120321 net.cpp:137] Memory required for data: 498122240
I0509 17:40:04.084779 120321 layer_factory.hpp:77] Creating layer inception_4e/3x3_reduce
I0509 17:40:04.084784 120321 net.cpp:84] Creating Layer inception_4e/3x3_reduce
I0509 17:40:04.084787 120321 net.cpp:406] inception_4e/3x3_reduce <- inception_4d/output_inception_4d/output_0_split_1
I0509 17:40:04.084794 120321 net.cpp:380] inception_4e/3x3_reduce -> inception_4e/3x3_reduce
I0509 17:40:04.084802 120321 base_conv_layer.cpp:121] Group is 1channel is528number of output is 160
I0509 17:40:04.085306 120321 net.cpp:122] Setting up inception_4e/3x3_reduce
I0509 17:40:04.085311 120321 net.cpp:129] Top shape: 10 160 14 14 (313600)
I0509 17:40:04.085314 120321 net.cpp:137] Memory required for data: 499376640
I0509 17:40:04.085319 120321 layer_factory.hpp:77] Creating layer inception_4e/relu_3x3_reduce
I0509 17:40:04.085322 120321 net.cpp:84] Creating Layer inception_4e/relu_3x3_reduce
I0509 17:40:04.085325 120321 net.cpp:406] inception_4e/relu_3x3_reduce <- inception_4e/3x3_reduce
I0509 17:40:04.085330 120321 net.cpp:367] inception_4e/relu_3x3_reduce -> inception_4e/3x3_reduce (in-place)
I0509 17:40:04.085335 120321 net.cpp:122] Setting up inception_4e/relu_3x3_reduce
I0509 17:40:04.085338 120321 net.cpp:129] Top shape: 10 160 14 14 (313600)
I0509 17:40:04.085340 120321 net.cpp:137] Memory required for data: 500631040
I0509 17:40:04.085343 120321 layer_factory.hpp:77] Creating layer inception_4e/3x3
I0509 17:40:04.085350 120321 net.cpp:84] Creating Layer inception_4e/3x3
I0509 17:40:04.085352 120321 net.cpp:406] inception_4e/3x3 <- inception_4e/3x3_reduce
I0509 17:40:04.085356 120321 net.cpp:380] inception_4e/3x3 -> inception_4e/3x3
I0509 17:40:04.085363 120321 base_conv_layer.cpp:121] Group is 1channel is160number of output is 320
     0.601353524          4,747,225      L1-dcache-load-misses    
     0.601353524        116,343,335      L1-dcache-loads          
I0509 17:40:04.088096 120321 net.cpp:122] Setting up inception_4e/3x3
I0509 17:40:04.088104 120321 net.cpp:129] Top shape: 10 320 14 14 (627200)
I0509 17:40:04.088106 120321 net.cpp:137] Memory required for data: 503139840
I0509 17:40:04.088111 120321 layer_factory.hpp:77] Creating layer inception_4e/relu_3x3
I0509 17:40:04.088116 120321 net.cpp:84] Creating Layer inception_4e/relu_3x3
I0509 17:40:04.088119 120321 net.cpp:406] inception_4e/relu_3x3 <- inception_4e/3x3
I0509 17:40:04.088125 120321 net.cpp:367] inception_4e/relu_3x3 -> inception_4e/3x3 (in-place)
I0509 17:40:04.088130 120321 net.cpp:122] Setting up inception_4e/relu_3x3
I0509 17:40:04.088135 120321 net.cpp:129] Top shape: 10 320 14 14 (627200)
I0509 17:40:04.088137 120321 net.cpp:137] Memory required for data: 505648640
I0509 17:40:04.088140 120321 layer_factory.hpp:77] Creating layer inception_4e/5x5_reduce
I0509 17:40:04.088146 120321 net.cpp:84] Creating Layer inception_4e/5x5_reduce
I0509 17:40:04.088150 120321 net.cpp:406] inception_4e/5x5_reduce <- inception_4d/output_inception_4d/output_0_split_2
I0509 17:40:04.088156 120321 net.cpp:380] inception_4e/5x5_reduce -> inception_4e/5x5_reduce
I0509 17:40:04.088163 120321 base_conv_layer.cpp:121] Group is 1channel is528number of output is 32
I0509 17:40:04.088289 120321 net.cpp:122] Setting up inception_4e/5x5_reduce
I0509 17:40:04.088294 120321 net.cpp:129] Top shape: 10 32 14 14 (62720)
I0509 17:40:04.088297 120321 net.cpp:137] Memory required for data: 505899520
I0509 17:40:04.088302 120321 layer_factory.hpp:77] Creating layer inception_4e/relu_5x5_reduce
I0509 17:40:04.088307 120321 net.cpp:84] Creating Layer inception_4e/relu_5x5_reduce
I0509 17:40:04.088310 120321 net.cpp:406] inception_4e/relu_5x5_reduce <- inception_4e/5x5_reduce
I0509 17:40:04.088315 120321 net.cpp:367] inception_4e/relu_5x5_reduce -> inception_4e/5x5_reduce (in-place)
I0509 17:40:04.088320 120321 net.cpp:122] Setting up inception_4e/relu_5x5_reduce
I0509 17:40:04.088325 120321 net.cpp:129] Top shape: 10 32 14 14 (62720)
I0509 17:40:04.088327 120321 net.cpp:137] Memory required for data: 506150400
I0509 17:40:04.088330 120321 layer_factory.hpp:77] Creating layer inception_4e/5x5
I0509 17:40:04.088337 120321 net.cpp:84] Creating Layer inception_4e/5x5
I0509 17:40:04.088340 120321 net.cpp:406] inception_4e/5x5 <- inception_4e/5x5_reduce
I0509 17:40:04.088346 120321 net.cpp:380] inception_4e/5x5 -> inception_4e/5x5
I0509 17:40:04.088367 120321 base_conv_layer.cpp:121] Group is 1channel is32number of output is 128
I0509 17:40:04.088994 120321 net.cpp:122] Setting up inception_4e/5x5
I0509 17:40:04.089000 120321 net.cpp:129] Top shape: 10 128 14 14 (250880)
I0509 17:40:04.089002 120321 net.cpp:137] Memory required for data: 507153920
I0509 17:40:04.089007 120321 layer_factory.hpp:77] Creating layer inception_4e/relu_5x5
I0509 17:40:04.089012 120321 net.cpp:84] Creating Layer inception_4e/relu_5x5
I0509 17:40:04.089015 120321 net.cpp:406] inception_4e/relu_5x5 <- inception_4e/5x5
I0509 17:40:04.089020 120321 net.cpp:367] inception_4e/relu_5x5 -> inception_4e/5x5 (in-place)
I0509 17:40:04.089025 120321 net.cpp:122] Setting up inception_4e/relu_5x5
I0509 17:40:04.089028 120321 net.cpp:129] Top shape: 10 128 14 14 (250880)
I0509 17:40:04.089030 120321 net.cpp:137] Memory required for data: 508157440
I0509 17:40:04.089033 120321 layer_factory.hpp:77] Creating layer inception_4e/pool
I0509 17:40:04.089037 120321 net.cpp:84] Creating Layer inception_4e/pool
I0509 17:40:04.089040 120321 net.cpp:406] inception_4e/pool <- inception_4d/output_inception_4d/output_0_split_3
I0509 17:40:04.089045 120321 net.cpp:380] inception_4e/pool -> inception_4e/pool
I0509 17:40:04.089049 120321 net.cpp:122] Setting up inception_4e/pool
I0509 17:40:04.089053 120321 net.cpp:129] Top shape: 10 528 14 14 (1034880)
I0509 17:40:04.089056 120321 net.cpp:137] Memory required for data: 512296960
I0509 17:40:04.089058 120321 layer_factory.hpp:77] Creating layer inception_4e/pool_proj
I0509 17:40:04.089066 120321 net.cpp:84] Creating Layer inception_4e/pool_proj
I0509 17:40:04.089068 120321 net.cpp:406] inception_4e/pool_proj <- inception_4e/pool
I0509 17:40:04.089073 120321 net.cpp:380] inception_4e/pool_proj -> inception_4e/pool_proj
I0509 17:40:04.089079 120321 base_conv_layer.cpp:121] Group is 1channel is528number of output is 128
I0509 17:40:04.089488 120321 net.cpp:122] Setting up inception_4e/pool_proj
I0509 17:40:04.089493 120321 net.cpp:129] Top shape: 10 128 14 14 (250880)
I0509 17:40:04.089494 120321 net.cpp:137] Memory required for data: 513300480
I0509 17:40:04.089499 120321 layer_factory.hpp:77] Creating layer inception_4e/relu_pool_proj
I0509 17:40:04.089504 120321 net.cpp:84] Creating Layer inception_4e/relu_pool_proj
I0509 17:40:04.089507 120321 net.cpp:406] inception_4e/relu_pool_proj <- inception_4e/pool_proj
I0509 17:40:04.089510 120321 net.cpp:367] inception_4e/relu_pool_proj -> inception_4e/pool_proj (in-place)
I0509 17:40:04.089515 120321 net.cpp:122] Setting up inception_4e/relu_pool_proj
I0509 17:40:04.089519 120321 net.cpp:129] Top shape: 10 128 14 14 (250880)
I0509 17:40:04.089521 120321 net.cpp:137] Memory required for data: 514304000
I0509 17:40:04.089524 120321 layer_factory.hpp:77] Creating layer inception_4e/output
I0509 17:40:04.089529 120321 net.cpp:84] Creating Layer inception_4e/output
I0509 17:40:04.089531 120321 net.cpp:406] inception_4e/output <- inception_4e/1x1
I0509 17:40:04.089534 120321 net.cpp:406] inception_4e/output <- inception_4e/3x3
I0509 17:40:04.089537 120321 net.cpp:406] inception_4e/output <- inception_4e/5x5
I0509 17:40:04.089540 120321 net.cpp:406] inception_4e/output <- inception_4e/pool_proj
I0509 17:40:04.089545 120321 net.cpp:380] inception_4e/output -> inception_4e/output
I0509 17:40:04.089550 120321 net.cpp:122] Setting up inception_4e/output
I0509 17:40:04.089553 120321 net.cpp:129] Top shape: 10 832 14 14 (1630720)
I0509 17:40:04.089556 120321 net.cpp:137] Memory required for data: 520826880
I0509 17:40:04.089558 120321 layer_factory.hpp:77] Creating layer pool4/3x3_s2
I0509 17:40:04.089563 120321 net.cpp:84] Creating Layer pool4/3x3_s2
I0509 17:40:04.089566 120321 net.cpp:406] pool4/3x3_s2 <- inception_4e/output
I0509 17:40:04.089570 120321 net.cpp:380] pool4/3x3_s2 -> pool4/3x3_s2
I0509 17:40:04.089576 120321 net.cpp:122] Setting up pool4/3x3_s2
I0509 17:40:04.089579 120321 net.cpp:129] Top shape: 10 832 7 7 (407680)
I0509 17:40:04.089582 120321 net.cpp:137] Memory required for data: 522457600
I0509 17:40:04.089584 120321 layer_factory.hpp:77] Creating layer pool4/3x3_s2_pool4/3x3_s2_0_split
I0509 17:40:04.089592 120321 net.cpp:84] Creating Layer pool4/3x3_s2_pool4/3x3_s2_0_split
I0509 17:40:04.089596 120321 net.cpp:406] pool4/3x3_s2_pool4/3x3_s2_0_split <- pool4/3x3_s2
I0509 17:40:04.089599 120321 net.cpp:380] pool4/3x3_s2_pool4/3x3_s2_0_split -> pool4/3x3_s2_pool4/3x3_s2_0_split_0
I0509 17:40:04.089606 120321 net.cpp:380] pool4/3x3_s2_pool4/3x3_s2_0_split -> pool4/3x3_s2_pool4/3x3_s2_0_split_1
I0509 17:40:04.089610 120321 net.cpp:380] pool4/3x3_s2_pool4/3x3_s2_0_split -> pool4/3x3_s2_pool4/3x3_s2_0_split_2
I0509 17:40:04.089615 120321 net.cpp:380] pool4/3x3_s2_pool4/3x3_s2_0_split -> pool4/3x3_s2_pool4/3x3_s2_0_split_3
I0509 17:40:04.089622 120321 net.cpp:122] Setting up pool4/3x3_s2_pool4/3x3_s2_0_split
I0509 17:40:04.089624 120321 net.cpp:129] Top shape: 10 832 7 7 (407680)
I0509 17:40:04.089628 120321 net.cpp:129] Top shape: 10 832 7 7 (407680)
I0509 17:40:04.089632 120321 net.cpp:129] Top shape: 10 832 7 7 (407680)
I0509 17:40:04.089634 120321 net.cpp:129] Top shape: 10 832 7 7 (407680)
I0509 17:40:04.089637 120321 net.cpp:137] Memory required for data: 528980480
I0509 17:40:04.089639 120321 layer_factory.hpp:77] Creating layer inception_5a/1x1
I0509 17:40:04.089646 120321 net.cpp:84] Creating Layer inception_5a/1x1
I0509 17:40:04.089648 120321 net.cpp:406] inception_5a/1x1 <- pool4/3x3_s2_pool4/3x3_s2_0_split_0
I0509 17:40:04.089655 120321 net.cpp:380] inception_5a/1x1 -> inception_5a/1x1
I0509 17:40:04.089663 120321 base_conv_layer.cpp:121] Group is 1channel is832number of output is 256
I0509 17:40:04.090921 120321 net.cpp:122] Setting up inception_5a/1x1
I0509 17:40:04.090926 120321 net.cpp:129] Top shape: 10 256 7 7 (125440)
I0509 17:40:04.090929 120321 net.cpp:137] Memory required for data: 529482240
I0509 17:40:04.090934 120321 layer_factory.hpp:77] Creating layer inception_5a/relu_1x1
I0509 17:40:04.090937 120321 net.cpp:84] Creating Layer inception_5a/relu_1x1
I0509 17:40:04.090941 120321 net.cpp:406] inception_5a/relu_1x1 <- inception_5a/1x1
I0509 17:40:04.090945 120321 net.cpp:367] inception_5a/relu_1x1 -> inception_5a/1x1 (in-place)
I0509 17:40:04.090950 120321 net.cpp:122] Setting up inception_5a/relu_1x1
I0509 17:40:04.090953 120321 net.cpp:129] Top shape: 10 256 7 7 (125440)
I0509 17:40:04.090955 120321 net.cpp:137] Memory required for data: 529984000
I0509 17:40:04.090958 120321 layer_factory.hpp:77] Creating layer inception_5a/3x3_reduce
I0509 17:40:04.090965 120321 net.cpp:84] Creating Layer inception_5a/3x3_reduce
I0509 17:40:04.090967 120321 net.cpp:406] inception_5a/3x3_reduce <- pool4/3x3_s2_pool4/3x3_s2_0_split_1
I0509 17:40:04.090973 120321 net.cpp:380] inception_5a/3x3_reduce -> inception_5a/3x3_reduce
I0509 17:40:04.090981 120321 base_conv_layer.cpp:121] Group is 1channel is832number of output is 160
I0509 17:40:04.091764 120321 net.cpp:122] Setting up inception_5a/3x3_reduce
I0509 17:40:04.091771 120321 net.cpp:129] Top shape: 10 160 7 7 (78400)
I0509 17:40:04.091773 120321 net.cpp:137] Memory required for data: 530297600
I0509 17:40:04.091778 120321 layer_factory.hpp:77] Creating layer inception_5a/relu_3x3_reduce
I0509 17:40:04.091783 120321 net.cpp:84] Creating Layer inception_5a/relu_3x3_reduce
I0509 17:40:04.091785 120321 net.cpp:406] inception_5a/relu_3x3_reduce <- inception_5a/3x3_reduce
I0509 17:40:04.091789 120321 net.cpp:367] inception_5a/relu_3x3_reduce -> inception_5a/3x3_reduce (in-place)
I0509 17:40:04.091794 120321 net.cpp:122] Setting up inception_5a/relu_3x3_reduce
I0509 17:40:04.091797 120321 net.cpp:129] Top shape: 10 160 7 7 (78400)
I0509 17:40:04.091799 120321 net.cpp:137] Memory required for data: 530611200
I0509 17:40:04.091802 120321 layer_factory.hpp:77] Creating layer inception_5a/3x3
I0509 17:40:04.091810 120321 net.cpp:84] Creating Layer inception_5a/3x3
I0509 17:40:04.091814 120321 net.cpp:406] inception_5a/3x3 <- inception_5a/3x3_reduce
I0509 17:40:04.091819 120321 net.cpp:380] inception_5a/3x3 -> inception_5a/3x3
I0509 17:40:04.091825 120321 base_conv_layer.cpp:121] Group is 1channel is160number of output is 320
I0509 17:40:04.094645 120321 net.cpp:122] Setting up inception_5a/3x3
I0509 17:40:04.094653 120321 net.cpp:129] Top shape: 10 320 7 7 (156800)
I0509 17:40:04.094656 120321 net.cpp:137] Memory required for data: 531238400
I0509 17:40:04.094660 120321 layer_factory.hpp:77] Creating layer inception_5a/relu_3x3
I0509 17:40:04.094666 120321 net.cpp:84] Creating Layer inception_5a/relu_3x3
I0509 17:40:04.094668 120321 net.cpp:406] inception_5a/relu_3x3 <- inception_5a/3x3
I0509 17:40:04.094673 120321 net.cpp:367] inception_5a/relu_3x3 -> inception_5a/3x3 (in-place)
I0509 17:40:04.094678 120321 net.cpp:122] Setting up inception_5a/relu_3x3
I0509 17:40:04.094682 120321 net.cpp:129] Top shape: 10 320 7 7 (156800)
I0509 17:40:04.094684 120321 net.cpp:137] Memory required for data: 531865600
I0509 17:40:04.094686 120321 layer_factory.hpp:77] Creating layer inception_5a/5x5_reduce
I0509 17:40:04.094693 120321 net.cpp:84] Creating Layer inception_5a/5x5_reduce
I0509 17:40:04.094696 120321 net.cpp:406] inception_5a/5x5_reduce <- pool4/3x3_s2_pool4/3x3_s2_0_split_2
I0509 17:40:04.094702 120321 net.cpp:380] inception_5a/5x5_reduce -> inception_5a/5x5_reduce
I0509 17:40:04.094709 120321 base_conv_layer.cpp:121] Group is 1channel is832number of output is 32
I0509 17:40:04.094877 120321 net.cpp:122] Setting up inception_5a/5x5_reduce
I0509 17:40:04.094882 120321 net.cpp:129] Top shape: 10 32 7 7 (15680)
I0509 17:40:04.094884 120321 net.cpp:137] Memory required for data: 531928320
I0509 17:40:04.094888 120321 layer_factory.hpp:77] Creating layer inception_5a/relu_5x5_reduce
I0509 17:40:04.094892 120321 net.cpp:84] Creating Layer inception_5a/relu_5x5_reduce
I0509 17:40:04.094895 120321 net.cpp:406] inception_5a/relu_5x5_reduce <- inception_5a/5x5_reduce
I0509 17:40:04.094900 120321 net.cpp:367] inception_5a/relu_5x5_reduce -> inception_5a/5x5_reduce (in-place)
I0509 17:40:04.094905 120321 net.cpp:122] Setting up inception_5a/relu_5x5_reduce
I0509 17:40:04.094908 120321 net.cpp:129] Top shape: 10 32 7 7 (15680)
I0509 17:40:04.094911 120321 net.cpp:137] Memory required for data: 531991040
I0509 17:40:04.094913 120321 layer_factory.hpp:77] Creating layer inception_5a/5x5
I0509 17:40:04.094920 120321 net.cpp:84] Creating Layer inception_5a/5x5
I0509 17:40:04.094923 120321 net.cpp:406] inception_5a/5x5 <- inception_5a/5x5_reduce
I0509 17:40:04.094928 120321 net.cpp:380] inception_5a/5x5 -> inception_5a/5x5
I0509 17:40:04.094935 120321 base_conv_layer.cpp:121] Group is 1channel is32number of output is 128
I0509 17:40:04.095546 120321 net.cpp:122] Setting up inception_5a/5x5
I0509 17:40:04.095551 120321 net.cpp:129] Top shape: 10 128 7 7 (62720)
I0509 17:40:04.095554 120321 net.cpp:137] Memory required for data: 532241920
I0509 17:40:04.095558 120321 layer_factory.hpp:77] Creating layer inception_5a/relu_5x5
I0509 17:40:04.095582 120321 net.cpp:84] Creating Layer inception_5a/relu_5x5
I0509 17:40:04.095585 120321 net.cpp:406] inception_5a/relu_5x5 <- inception_5a/5x5
I0509 17:40:04.095589 120321 net.cpp:367] inception_5a/relu_5x5 -> inception_5a/5x5 (in-place)
I0509 17:40:04.095594 120321 net.cpp:122] Setting up inception_5a/relu_5x5
I0509 17:40:04.095597 120321 net.cpp:129] Top shape: 10 128 7 7 (62720)
I0509 17:40:04.095600 120321 net.cpp:137] Memory required for data: 532492800
I0509 17:40:04.095603 120321 layer_factory.hpp:77] Creating layer inception_5a/pool
I0509 17:40:04.095607 120321 net.cpp:84] Creating Layer inception_5a/pool
I0509 17:40:04.095609 120321 net.cpp:406] inception_5a/pool <- pool4/3x3_s2_pool4/3x3_s2_0_split_3
I0509 17:40:04.095613 120321 net.cpp:380] inception_5a/pool -> inception_5a/pool
I0509 17:40:04.095620 120321 net.cpp:122] Setting up inception_5a/pool
I0509 17:40:04.095623 120321 net.cpp:129] Top shape: 10 832 7 7 (407680)
I0509 17:40:04.095626 120321 net.cpp:137] Memory required for data: 534123520
I0509 17:40:04.095628 120321 layer_factory.hpp:77] Creating layer inception_5a/pool_proj
I0509 17:40:04.095634 120321 net.cpp:84] Creating Layer inception_5a/pool_proj
I0509 17:40:04.095638 120321 net.cpp:406] inception_5a/pool_proj <- inception_5a/pool
I0509 17:40:04.095648 120321 net.cpp:380] inception_5a/pool_proj -> inception_5a/pool_proj
I0509 17:40:04.095655 120321 base_conv_layer.cpp:121] Group is 1channel is832number of output is 128
I0509 17:40:04.096331 120321 net.cpp:122] Setting up inception_5a/pool_proj
I0509 17:40:04.096338 120321 net.cpp:129] Top shape: 10 128 7 7 (62720)
I0509 17:40:04.096340 120321 net.cpp:137] Memory required for data: 534374400
I0509 17:40:04.096344 120321 layer_factory.hpp:77] Creating layer inception_5a/relu_pool_proj
I0509 17:40:04.096364 120321 net.cpp:84] Creating Layer inception_5a/relu_pool_proj
I0509 17:40:04.096366 120321 net.cpp:406] inception_5a/relu_pool_proj <- inception_5a/pool_proj
I0509 17:40:04.096371 120321 net.cpp:367] inception_5a/relu_pool_proj -> inception_5a/pool_proj (in-place)
I0509 17:40:04.096376 120321 net.cpp:122] Setting up inception_5a/relu_pool_proj
I0509 17:40:04.096380 120321 net.cpp:129] Top shape: 10 128 7 7 (62720)
I0509 17:40:04.096382 120321 net.cpp:137] Memory required for data: 534625280
I0509 17:40:04.096385 120321 layer_factory.hpp:77] Creating layer inception_5a/output
I0509 17:40:04.096390 120321 net.cpp:84] Creating Layer inception_5a/output
I0509 17:40:04.096392 120321 net.cpp:406] inception_5a/output <- inception_5a/1x1
I0509 17:40:04.096395 120321 net.cpp:406] inception_5a/output <- inception_5a/3x3
I0509 17:40:04.096398 120321 net.cpp:406] inception_5a/output <- inception_5a/5x5
I0509 17:40:04.096401 120321 net.cpp:406] inception_5a/output <- inception_5a/pool_proj
I0509 17:40:04.096406 120321 net.cpp:380] inception_5a/output -> inception_5a/output
I0509 17:40:04.096412 120321 net.cpp:122] Setting up inception_5a/output
I0509 17:40:04.096416 120321 net.cpp:129] Top shape: 10 832 7 7 (407680)
I0509 17:40:04.096418 120321 net.cpp:137] Memory required for data: 536256000
I0509 17:40:04.096421 120321 layer_factory.hpp:77] Creating layer inception_5a/output_inception_5a/output_0_split
I0509 17:40:04.096426 120321 net.cpp:84] Creating Layer inception_5a/output_inception_5a/output_0_split
I0509 17:40:04.096429 120321 net.cpp:406] inception_5a/output_inception_5a/output_0_split <- inception_5a/output
I0509 17:40:04.096436 120321 net.cpp:380] inception_5a/output_inception_5a/output_0_split -> inception_5a/output_inception_5a/output_0_split_0
I0509 17:40:04.096441 120321 net.cpp:380] inception_5a/output_inception_5a/output_0_split -> inception_5a/output_inception_5a/output_0_split_1
I0509 17:40:04.096446 120321 net.cpp:380] inception_5a/output_inception_5a/output_0_split -> inception_5a/output_inception_5a/output_0_split_2
I0509 17:40:04.096451 120321 net.cpp:380] inception_5a/output_inception_5a/output_0_split -> inception_5a/output_inception_5a/output_0_split_3
I0509 17:40:04.096457 120321 net.cpp:122] Setting up inception_5a/output_inception_5a/output_0_split
I0509 17:40:04.096462 120321 net.cpp:129] Top shape: 10 832 7 7 (407680)
I0509 17:40:04.096465 120321 net.cpp:129] Top shape: 10 832 7 7 (407680)
I0509 17:40:04.096468 120321 net.cpp:129] Top shape: 10 832 7 7 (407680)
I0509 17:40:04.096472 120321 net.cpp:129] Top shape: 10 832 7 7 (407680)
I0509 17:40:04.096474 120321 net.cpp:137] Memory required for data: 542778880
I0509 17:40:04.096477 120321 layer_factory.hpp:77] Creating layer inception_5b/1x1
I0509 17:40:04.096483 120321 net.cpp:84] Creating Layer inception_5b/1x1
I0509 17:40:04.096487 120321 net.cpp:406] inception_5b/1x1 <- inception_5a/output_inception_5a/output_0_split_0
I0509 17:40:04.096490 120321 net.cpp:380] inception_5b/1x1 -> inception_5b/1x1
I0509 17:40:04.096498 120321 base_conv_layer.cpp:121] Group is 1channel is832number of output is 384
I0509 17:40:04.098381 120321 net.cpp:122] Setting up inception_5b/1x1
I0509 17:40:04.098387 120321 net.cpp:129] Top shape: 10 384 7 7 (188160)
I0509 17:40:04.098389 120321 net.cpp:137] Memory required for data: 543531520
I0509 17:40:04.098394 120321 layer_factory.hpp:77] Creating layer inception_5b/relu_1x1
I0509 17:40:04.098398 120321 net.cpp:84] Creating Layer inception_5b/relu_1x1
I0509 17:40:04.098400 120321 net.cpp:406] inception_5b/relu_1x1 <- inception_5b/1x1
I0509 17:40:04.098408 120321 net.cpp:367] inception_5b/relu_1x1 -> inception_5b/1x1 (in-place)
I0509 17:40:04.098413 120321 net.cpp:122] Setting up inception_5b/relu_1x1
I0509 17:40:04.098417 120321 net.cpp:129] Top shape: 10 384 7 7 (188160)
I0509 17:40:04.098419 120321 net.cpp:137] Memory required for data: 544284160
I0509 17:40:04.098423 120321 layer_factory.hpp:77] Creating layer inception_5b/3x3_reduce
I0509 17:40:04.098429 120321 net.cpp:84] Creating Layer inception_5b/3x3_reduce
I0509 17:40:04.098431 120321 net.cpp:406] inception_5b/3x3_reduce <- inception_5a/output_inception_5a/output_0_split_1
I0509 17:40:04.098436 120321 net.cpp:380] inception_5b/3x3_reduce -> inception_5b/3x3_reduce
I0509 17:40:04.098444 120321 base_conv_layer.cpp:121] Group is 1channel is832number of output is 192
I0509 17:40:04.099387 120321 net.cpp:122] Setting up inception_5b/3x3_reduce
I0509 17:40:04.099392 120321 net.cpp:129] Top shape: 10 192 7 7 (94080)
I0509 17:40:04.099395 120321 net.cpp:137] Memory required for data: 544660480
I0509 17:40:04.099400 120321 layer_factory.hpp:77] Creating layer inception_5b/relu_3x3_reduce
I0509 17:40:04.099406 120321 net.cpp:84] Creating Layer inception_5b/relu_3x3_reduce
I0509 17:40:04.099408 120321 net.cpp:406] inception_5b/relu_3x3_reduce <- inception_5b/3x3_reduce
I0509 17:40:04.099411 120321 net.cpp:367] inception_5b/relu_3x3_reduce -> inception_5b/3x3_reduce (in-place)
I0509 17:40:04.099416 120321 net.cpp:122] Setting up inception_5b/relu_3x3_reduce
I0509 17:40:04.099419 120321 net.cpp:129] Top shape: 10 192 7 7 (94080)
I0509 17:40:04.099422 120321 net.cpp:137] Memory required for data: 545036800
I0509 17:40:04.099424 120321 layer_factory.hpp:77] Creating layer inception_5b/3x3
I0509 17:40:04.099431 120321 net.cpp:84] Creating Layer inception_5b/3x3
I0509 17:40:04.099434 120321 net.cpp:406] inception_5b/3x3 <- inception_5b/3x3_reduce
I0509 17:40:04.099439 120321 net.cpp:380] inception_5b/3x3 -> inception_5b/3x3
I0509 17:40:04.099445 120321 base_conv_layer.cpp:121] Group is 1channel is192number of output is 384
I0509 17:40:04.103341 120321 net.cpp:122] Setting up inception_5b/3x3
I0509 17:40:04.103348 120321 net.cpp:129] Top shape: 10 384 7 7 (188160)
I0509 17:40:04.103350 120321 net.cpp:137] Memory required for data: 545789440
I0509 17:40:04.103354 120321 layer_factory.hpp:77] Creating layer inception_5b/relu_3x3
I0509 17:40:04.103358 120321 net.cpp:84] Creating Layer inception_5b/relu_3x3
I0509 17:40:04.103361 120321 net.cpp:406] inception_5b/relu_3x3 <- inception_5b/3x3
I0509 17:40:04.103366 120321 net.cpp:367] inception_5b/relu_3x3 -> inception_5b/3x3 (in-place)
I0509 17:40:04.103370 120321 net.cpp:122] Setting up inception_5b/relu_3x3
I0509 17:40:04.103374 120321 net.cpp:129] Top shape: 10 384 7 7 (188160)
I0509 17:40:04.103377 120321 net.cpp:137] Memory required for data: 546542080
I0509 17:40:04.103379 120321 layer_factory.hpp:77] Creating layer inception_5b/5x5_reduce
I0509 17:40:04.103386 120321 net.cpp:84] Creating Layer inception_5b/5x5_reduce
I0509 17:40:04.103389 120321 net.cpp:406] inception_5b/5x5_reduce <- inception_5a/output_inception_5a/output_0_split_2
I0509 17:40:04.103394 120321 net.cpp:380] inception_5b/5x5_reduce -> inception_5b/5x5_reduce
I0509 17:40:04.103401 120321 base_conv_layer.cpp:121] Group is 1channel is832number of output is 48
I0509 17:40:04.103646 120321 net.cpp:122] Setting up inception_5b/5x5_reduce
I0509 17:40:04.103652 120321 net.cpp:129] Top shape: 10 48 7 7 (23520)
I0509 17:40:04.103653 120321 net.cpp:137] Memory required for data: 546636160
I0509 17:40:04.103658 120321 layer_factory.hpp:77] Creating layer inception_5b/relu_5x5_reduce
I0509 17:40:04.103662 120321 net.cpp:84] Creating Layer inception_5b/relu_5x5_reduce
I0509 17:40:04.103664 120321 net.cpp:406] inception_5b/relu_5x5_reduce <- inception_5b/5x5_reduce
I0509 17:40:04.103672 120321 net.cpp:367] inception_5b/relu_5x5_reduce -> inception_5b/5x5_reduce (in-place)
I0509 17:40:04.103677 120321 net.cpp:122] Setting up inception_5b/relu_5x5_reduce
I0509 17:40:04.103680 120321 net.cpp:129] Top shape: 10 48 7 7 (23520)
I0509 17:40:04.103685 120321 net.cpp:137] Memory required for data: 546730240
I0509 17:40:04.103688 120321 layer_factory.hpp:77] Creating layer inception_5b/5x5
I0509 17:40:04.103695 120321 net.cpp:84] Creating Layer inception_5b/5x5
I0509 17:40:04.103698 120321 net.cpp:406] inception_5b/5x5 <- inception_5b/5x5_reduce
I0509 17:40:04.103703 120321 net.cpp:380] inception_5b/5x5 -> inception_5b/5x5
I0509 17:40:04.103710 120321 base_conv_layer.cpp:121] Group is 1channel is48number of output is 128
I0509 17:40:04.104624 120321 net.cpp:122] Setting up inception_5b/5x5
I0509 17:40:04.104630 120321 net.cpp:129] Top shape: 10 128 7 7 (62720)
I0509 17:40:04.104634 120321 net.cpp:137] Memory required for data: 546981120
I0509 17:40:04.104637 120321 layer_factory.hpp:77] Creating layer inception_5b/relu_5x5
I0509 17:40:04.104642 120321 net.cpp:84] Creating Layer inception_5b/relu_5x5
I0509 17:40:04.104645 120321 net.cpp:406] inception_5b/relu_5x5 <- inception_5b/5x5
I0509 17:40:04.104650 120321 net.cpp:367] inception_5b/relu_5x5 -> inception_5b/5x5 (in-place)
I0509 17:40:04.104655 120321 net.cpp:122] Setting up inception_5b/relu_5x5
I0509 17:40:04.104657 120321 net.cpp:129] Top shape: 10 128 7 7 (62720)
I0509 17:40:04.104660 120321 net.cpp:137] Memory required for data: 547232000
I0509 17:40:04.104662 120321 layer_factory.hpp:77] Creating layer inception_5b/pool
I0509 17:40:04.104667 120321 net.cpp:84] Creating Layer inception_5b/pool
I0509 17:40:04.104671 120321 net.cpp:406] inception_5b/pool <- inception_5a/output_inception_5a/output_0_split_3
I0509 17:40:04.104676 120321 net.cpp:380] inception_5b/pool -> inception_5b/pool
I0509 17:40:04.104681 120321 net.cpp:122] Setting up inception_5b/pool
I0509 17:40:04.104684 120321 net.cpp:129] Top shape: 10 832 7 7 (407680)
I0509 17:40:04.104687 120321 net.cpp:137] Memory required for data: 548862720
I0509 17:40:04.104689 120321 layer_factory.hpp:77] Creating layer inception_5b/pool_proj
I0509 17:40:04.104698 120321 net.cpp:84] Creating Layer inception_5b/pool_proj
I0509 17:40:04.104701 120321 net.cpp:406] inception_5b/pool_proj <- inception_5b/pool
I0509 17:40:04.104707 120321 net.cpp:380] inception_5b/pool_proj -> inception_5b/pool_proj
I0509 17:40:04.104713 120321 base_conv_layer.cpp:121] Group is 1channel is832number of output is 128
I0509 17:40:04.105350 120321 net.cpp:122] Setting up inception_5b/pool_proj
I0509 17:40:04.105355 120321 net.cpp:129] Top shape: 10 128 7 7 (62720)
I0509 17:40:04.105356 120321 net.cpp:137] Memory required for data: 549113600
I0509 17:40:04.105360 120321 layer_factory.hpp:77] Creating layer inception_5b/relu_pool_proj
I0509 17:40:04.105365 120321 net.cpp:84] Creating Layer inception_5b/relu_pool_proj
I0509 17:40:04.105367 120321 net.cpp:406] inception_5b/relu_pool_proj <- inception_5b/pool_proj
I0509 17:40:04.105372 120321 net.cpp:367] inception_5b/relu_pool_proj -> inception_5b/pool_proj (in-place)
I0509 17:40:04.105377 120321 net.cpp:122] Setting up inception_5b/relu_pool_proj
I0509 17:40:04.105381 120321 net.cpp:129] Top shape: 10 128 7 7 (62720)
I0509 17:40:04.105383 120321 net.cpp:137] Memory required for data: 549364480
I0509 17:40:04.105386 120321 layer_factory.hpp:77] Creating layer inception_5b/output
I0509 17:40:04.105389 120321 net.cpp:84] Creating Layer inception_5b/output
I0509 17:40:04.105392 120321 net.cpp:406] inception_5b/output <- inception_5b/1x1
I0509 17:40:04.105396 120321 net.cpp:406] inception_5b/output <- inception_5b/3x3
I0509 17:40:04.105398 120321 net.cpp:406] inception_5b/output <- inception_5b/5x5
I0509 17:40:04.105401 120321 net.cpp:406] inception_5b/output <- inception_5b/pool_proj
I0509 17:40:04.105406 120321 net.cpp:380] inception_5b/output -> inception_5b/output
I0509 17:40:04.105412 120321 net.cpp:122] Setting up inception_5b/output
I0509 17:40:04.105415 120321 net.cpp:129] Top shape: 10 1024 7 7 (501760)
I0509 17:40:04.105418 120321 net.cpp:137] Memory required for data: 551371520
I0509 17:40:04.105420 120321 layer_factory.hpp:77] Creating layer pool5/7x7_s1
I0509 17:40:04.105427 120321 net.cpp:84] Creating Layer pool5/7x7_s1
I0509 17:40:04.105430 120321 net.cpp:406] pool5/7x7_s1 <- inception_5b/output
I0509 17:40:04.105434 120321 net.cpp:380] pool5/7x7_s1 -> pool5/7x7_s1
I0509 17:40:04.105440 120321 net.cpp:122] Setting up pool5/7x7_s1
I0509 17:40:04.105443 120321 net.cpp:129] Top shape: 10 1024 1 1 (10240)
I0509 17:40:04.105446 120321 net.cpp:137] Memory required for data: 551412480
I0509 17:40:04.105448 120321 layer_factory.hpp:77] Creating layer pool5/drop_7x7_s1
I0509 17:40:04.105455 120321 net.cpp:84] Creating Layer pool5/drop_7x7_s1
I0509 17:40:04.105458 120321 net.cpp:406] pool5/drop_7x7_s1 <- pool5/7x7_s1
I0509 17:40:04.105461 120321 net.cpp:367] pool5/drop_7x7_s1 -> pool5/7x7_s1 (in-place)
I0509 17:40:04.105468 120321 net.cpp:122] Setting up pool5/drop_7x7_s1
I0509 17:40:04.105471 120321 net.cpp:129] Top shape: 10 1024 1 1 (10240)
I0509 17:40:04.105473 120321 net.cpp:137] Memory required for data: 551453440
I0509 17:40:04.105476 120321 layer_factory.hpp:77] Creating layer loss3/classifier
I0509 17:40:04.105482 120321 net.cpp:84] Creating Layer loss3/classifier
I0509 17:40:04.105485 120321 net.cpp:406] loss3/classifier <- pool5/7x7_s1
I0509 17:40:04.105489 120321 net.cpp:380] loss3/classifier -> loss3/classifier
I0509 17:40:04.111135 120321 net.cpp:122] Setting up loss3/classifier
I0509 17:40:04.111142 120321 net.cpp:129] Top shape: 10 1000 (10000)
I0509 17:40:04.111145 120321 net.cpp:137] Memory required for data: 551493440
I0509 17:40:04.111150 120321 layer_factory.hpp:77] Creating layer prob
I0509 17:40:04.111153 120321 net.cpp:84] Creating Layer prob
I0509 17:40:04.111156 120321 net.cpp:406] prob <- loss3/classifier
I0509 17:40:04.111162 120321 net.cpp:380] prob -> prob
I0509 17:40:04.111172 120321 net.cpp:122] Setting up prob
I0509 17:40:04.111176 120321 net.cpp:129] Top shape: 10 1000 (10000)
I0509 17:40:04.111177 120321 net.cpp:137] Memory required for data: 551533440
I0509 17:40:04.111181 120321 net.cpp:200] prob does not need backward computation.
I0509 17:40:04.111183 120321 net.cpp:200] loss3/classifier does not need backward computation.
I0509 17:40:04.111186 120321 net.cpp:200] pool5/drop_7x7_s1 does not need backward computation.
I0509 17:40:04.111189 120321 net.cpp:200] pool5/7x7_s1 does not need backward computation.
…
