…
W0509 13:35:45.867082 114173 _caffe.cpp:139] DEPRECATION WARNING - deprecated use of Python interface
W0509 13:35:45.867105 114173 _caffe.cpp:140] Use this instead (with the named "weights" parameter):
W0509 13:35:45.867108 114173 _caffe.cpp:142] Net('examples/siamese/mnist_siamese.prototxt', 1, weights='examples/siamese/mnist_siamese_iter_5.caffemodel')
I0509 13:35:45.868604 114173 net.cpp:51] Initializing net from parameters: 
name: "mnist_siamese"
state {
  phase: TEST
  level: 0
}
layer {
  name: "data"
  type: "Input"
  top: "data"
  input_param {
    shape {
      dim: 64
      dim: 1
      dim: 28
      dim: 28
    }
  }
}
layer {
  name: "conv1"
  type: "Convolution"
  bottom: "data"
  top: "conv1"
  param {
    lr_mult: 1
  }
  param {
    lr_mult: 2
  }
  convolution_param {
    num_output: 20
    kernel_size: 5
    stride: 1
  }
}
layer {
  name: "pool1"
  type: "Pooling"
  bottom: "conv1"
  top: "pool1"
  pooling_param {
    pool: MAX
    kernel_size: 2
    stride: 2
  }
}
layer {
  name: "conv2"
  type: "Convolution"
  bottom: "pool1"
  top: "conv2"
  param {
    lr_mult: 1
  }
  param {
    lr_mult: 2
  }
  convolution_param {
    num_output: 50
    kernel_size: 5
    stride: 1
  }
}
layer {
  name: "pool2"
  type: "Pooling"
  bottom: "conv2"
  top: "pool2"
  pooling_param {
    pool: MAX
    kernel_size: 2
    stride: 2
  }
}
layer {
  name: "ip1"
  type: "InnerProduct"
  bottom: "pool2"
  top: "ip1"
  param {
    lr_mult: 1
  }
  param {
    lr_mult: 2
  }
  inner_product_param {
    num_output: 500
  }
}
layer {
  name: "relu1"
  type: "ReLU"
  bottom: "ip1"
  top: "ip1"
}
layer {
  name: "ip2"
  type: "InnerProduct"
  bottom: "ip1"
  top: "ip2"
  param {
    lr_mult: 1
  }
  param {
    lr_mult: 2
  }
  inner_product_param {
    num_output: 10
  }
}
layer {
  name: "feat"
  type: "InnerProduct"
  bottom: "ip2"
  top: "feat"
  param {
    lr_mult: 1
  }
  param {
    lr_mult: 2
  }
  inner_product_param {
    num_output: 2
  }
}
I0509 13:35:45.868647 114173 layer_factory.hpp:77] Creating layer data
I0509 13:35:45.868659 114173 net.cpp:84] Creating Layer data
I0509 13:35:45.868667 114173 net.cpp:380] data -> data
I0509 13:35:45.868685 114173 net.cpp:122] Setting up data
I0509 13:35:45.868692 114173 net.cpp:129] Top shape: 64 1 28 28 (50176)
I0509 13:35:45.868695 114173 net.cpp:137] Memory required for data: 200704
I0509 13:35:45.868698 114173 layer_factory.hpp:77] Creating layer conv1
I0509 13:35:45.868705 114173 net.cpp:84] Creating Layer conv1
I0509 13:35:45.868710 114173 net.cpp:406] conv1 <- data
I0509 13:35:45.868715 114173 net.cpp:380] conv1 -> conv1
I0509 13:35:45.868724 114173 base_conv_layer.cpp:121] Group is 1channel is1number of output is 20
I0509 13:35:45.868741 114173 net.cpp:122] Setting up conv1
I0509 13:35:45.868752 114173 net.cpp:129] Top shape: 64 20 24 24 (737280)
I0509 13:35:45.868754 114173 net.cpp:137] Memory required for data: 3149824
I0509 13:35:45.868763 114173 layer_factory.hpp:77] Creating layer pool1
I0509 13:35:45.868769 114173 net.cpp:84] Creating Layer pool1
I0509 13:35:45.868772 114173 net.cpp:406] pool1 <- conv1
I0509 13:35:45.868777 114173 net.cpp:380] pool1 -> pool1
I0509 13:35:45.868787 114173 net.cpp:122] Setting up pool1
I0509 13:35:45.868790 114173 net.cpp:129] Top shape: 64 20 12 12 (184320)
I0509 13:35:45.868793 114173 net.cpp:137] Memory required for data: 3887104
I0509 13:35:45.868795 114173 layer_factory.hpp:77] Creating layer conv2
I0509 13:35:45.868800 114173 net.cpp:84] Creating Layer conv2
I0509 13:35:45.868803 114173 net.cpp:406] conv2 <- pool1
I0509 13:35:45.868808 114173 net.cpp:380] conv2 -> conv2
I0509 13:35:45.868815 114173 base_conv_layer.cpp:121] Group is 1channel is20number of output is 50
I0509 13:35:45.868872 114173 net.cpp:122] Setting up conv2
I0509 13:35:45.868878 114173 net.cpp:129] Top shape: 64 50 8 8 (204800)
I0509 13:35:45.868881 114173 net.cpp:137] Memory required for data: 4706304
I0509 13:35:45.868888 114173 layer_factory.hpp:77] Creating layer pool2
I0509 13:35:45.868893 114173 net.cpp:84] Creating Layer pool2
I0509 13:35:45.868896 114173 net.cpp:406] pool2 <- conv2
I0509 13:35:45.868901 114173 net.cpp:380] pool2 -> pool2
I0509 13:35:45.868907 114173 net.cpp:122] Setting up pool2
I0509 13:35:45.868912 114173 net.cpp:129] Top shape: 64 50 4 4 (51200)
I0509 13:35:45.868914 114173 net.cpp:137] Memory required for data: 4911104
I0509 13:35:45.868917 114173 layer_factory.hpp:77] Creating layer ip1
I0509 13:35:45.868922 114173 net.cpp:84] Creating Layer ip1
I0509 13:35:45.868926 114173 net.cpp:406] ip1 <- pool2
I0509 13:35:45.868929 114173 net.cpp:380] ip1 -> ip1
I0509 13:35:45.869541 114173 net.cpp:122] Setting up ip1
I0509 13:35:45.869549 114173 net.cpp:129] Top shape: 64 500 (32000)
I0509 13:35:45.869550 114173 net.cpp:137] Memory required for data: 5039104
I0509 13:35:45.869557 114173 layer_factory.hpp:77] Creating layer relu1
I0509 13:35:45.869562 114173 net.cpp:84] Creating Layer relu1
I0509 13:35:45.869565 114173 net.cpp:406] relu1 <- ip1
I0509 13:35:45.869570 114173 net.cpp:367] relu1 -> ip1 (in-place)
I0509 13:35:45.869575 114173 net.cpp:122] Setting up relu1
I0509 13:35:45.869578 114173 net.cpp:129] Top shape: 64 500 (32000)
I0509 13:35:45.869581 114173 net.cpp:137] Memory required for data: 5167104
I0509 13:35:45.869583 114173 layer_factory.hpp:77] Creating layer ip2
I0509 13:35:45.869587 114173 net.cpp:84] Creating Layer ip2
I0509 13:35:45.869590 114173 net.cpp:406] ip2 <- ip1
I0509 13:35:45.869596 114173 net.cpp:380] ip2 -> ip2
I0509 13:35:45.869607 114173 net.cpp:122] Setting up ip2
I0509 13:35:45.869611 114173 net.cpp:129] Top shape: 64 10 (640)
I0509 13:35:45.869613 114173 net.cpp:137] Memory required for data: 5169664
I0509 13:35:45.869618 114173 layer_factory.hpp:77] Creating layer feat
I0509 13:35:45.869623 114173 net.cpp:84] Creating Layer feat
I0509 13:35:45.869626 114173 net.cpp:406] feat <- ip2
I0509 13:35:45.869630 114173 net.cpp:380] feat -> feat
I0509 13:35:45.869639 114173 net.cpp:122] Setting up feat
I0509 13:35:45.869642 114173 net.cpp:129] Top shape: 64 2 (128)
I0509 13:35:45.869645 114173 net.cpp:137] Memory required for data: 5170176
I0509 13:35:45.869652 114173 net.cpp:200] feat does not need backward computation.
I0509 13:35:45.869655 114173 net.cpp:200] ip2 does not need backward computation.
I0509 13:35:45.869658 114173 net.cpp:200] relu1 does not need backward computation.
I0509 13:35:45.869660 114173 net.cpp:200] ip1 does not need backward computation.
…
