…
W0509 13:35:45.063017 114143 _caffe.cpp:139] DEPRECATION WARNING - deprecated use of Python interface
W0509 13:35:45.063048 114143 _caffe.cpp:140] Use this instead (with the named "weights" parameter):
W0509 13:35:45.063052 114143 _caffe.cpp:142] Net('examples/siamese/mnist_siamese.prototxt', 1, weights='examples/siamese/mnist_siamese_iter_5.caffemodel')
I0509 13:35:45.065009 114143 net.cpp:51] Initializing net from parameters: 
name: "mnist_siamese"
state {
  phase: TEST
  level: 0
}
layer {
  name: "data"
  type: "Input"
  top: "data"
  input_param {
    shape {
      dim: 64
      dim: 1
      dim: 28
      dim: 28
    }
  }
}
layer {
  name: "conv1"
  type: "Convolution"
  bottom: "data"
  top: "conv1"
  param {
    lr_mult: 1
  }
  param {
    lr_mult: 2
  }
  convolution_param {
    num_output: 20
    kernel_size: 5
    stride: 1
  }
}
layer {
  name: "pool1"
  type: "Pooling"
  bottom: "conv1"
  top: "pool1"
  pooling_param {
    pool: MAX
    kernel_size: 2
    stride: 2
  }
}
layer {
  name: "conv2"
  type: "Convolution"
  bottom: "pool1"
  top: "conv2"
  param {
    lr_mult: 1
  }
  param {
    lr_mult: 2
  }
  convolution_param {
    num_output: 50
    kernel_size: 5
    stride: 1
  }
}
layer {
  name: "pool2"
  type: "Pooling"
  bottom: "conv2"
  top: "pool2"
  pooling_param {
    pool: MAX
    kernel_size: 2
    stride: 2
  }
}
layer {
  name: "ip1"
  type: "InnerProduct"
  bottom: "pool2"
  top: "ip1"
  param {
    lr_mult: 1
  }
  param {
    lr_mult: 2
  }
  inner_product_param {
    num_output: 500
  }
}
layer {
  name: "relu1"
  type: "ReLU"
  bottom: "ip1"
  top: "ip1"
}
layer {
  name: "ip2"
  type: "InnerProduct"
  bottom: "ip1"
  top: "ip2"
  param {
    lr_mult: 1
  }
  param {
    lr_mult: 2
  }
  inner_product_param {
    num_output: 10
  }
}
layer {
  name: "feat"
  type: "InnerProduct"
  bottom: "ip2"
  top: "feat"
  param {
    lr_mult: 1
  }
  param {
    lr_mult: 2
  }
  inner_product_param {
    num_output: 2
  }
}
I0509 13:35:45.065066 114143 layer_factory.hpp:77] Creating layer data
I0509 13:35:45.065078 114143 net.cpp:84] Creating Layer data
I0509 13:35:45.065088 114143 net.cpp:380] data -> data
I0509 13:35:45.065106 114143 net.cpp:122] Setting up data
I0509 13:35:45.065115 114143 net.cpp:129] Top shape: 64 1 28 28 (50176)
I0509 13:35:45.065119 114143 net.cpp:137] Memory required for data: 200704
I0509 13:35:45.065124 114143 layer_factory.hpp:77] Creating layer conv1
I0509 13:35:45.065134 114143 net.cpp:84] Creating Layer conv1
I0509 13:35:45.065137 114143 net.cpp:406] conv1 <- data
I0509 13:35:45.065145 114143 net.cpp:380] conv1 -> conv1
I0509 13:35:45.065157 114143 base_conv_layer.cpp:121] Group is 1channel is1number of output is 20
I0509 13:35:45.065178 114143 net.cpp:122] Setting up conv1
I0509 13:35:45.065186 114143 net.cpp:129] Top shape: 64 20 24 24 (737280)
I0509 13:35:45.065189 114143 net.cpp:137] Memory required for data: 3149824
I0509 13:35:45.065201 114143 layer_factory.hpp:77] Creating layer pool1
I0509 13:35:45.065207 114143 net.cpp:84] Creating Layer pool1
I0509 13:35:45.065212 114143 net.cpp:406] pool1 <- conv1
I0509 13:35:45.065218 114143 net.cpp:380] pool1 -> pool1
I0509 13:35:45.065229 114143 net.cpp:122] Setting up pool1
I0509 13:35:45.065234 114143 net.cpp:129] Top shape: 64 20 12 12 (184320)
I0509 13:35:45.065238 114143 net.cpp:137] Memory required for data: 3887104
I0509 13:35:45.065243 114143 layer_factory.hpp:77] Creating layer conv2
I0509 13:35:45.065249 114143 net.cpp:84] Creating Layer conv2
I0509 13:35:45.065253 114143 net.cpp:406] conv2 <- pool1
I0509 13:35:45.065259 114143 net.cpp:380] conv2 -> conv2
I0509 13:35:45.065268 114143 base_conv_layer.cpp:121] Group is 1channel is20number of output is 50
I0509 13:35:45.065346 114143 net.cpp:122] Setting up conv2
I0509 13:35:45.065354 114143 net.cpp:129] Top shape: 64 50 8 8 (204800)
I0509 13:35:45.065358 114143 net.cpp:137] Memory required for data: 4706304
I0509 13:35:45.065368 114143 layer_factory.hpp:77] Creating layer pool2
I0509 13:35:45.065374 114143 net.cpp:84] Creating Layer pool2
I0509 13:35:45.065379 114143 net.cpp:406] pool2 <- conv2
I0509 13:35:45.065385 114143 net.cpp:380] pool2 -> pool2
I0509 13:35:45.065395 114143 net.cpp:122] Setting up pool2
I0509 13:35:45.065400 114143 net.cpp:129] Top shape: 64 50 4 4 (51200)
I0509 13:35:45.065404 114143 net.cpp:137] Memory required for data: 4911104
I0509 13:35:45.065408 114143 layer_factory.hpp:77] Creating layer ip1
I0509 13:35:45.065415 114143 net.cpp:84] Creating Layer ip1
I0509 13:35:45.065419 114143 net.cpp:406] ip1 <- pool2
I0509 13:35:45.065425 114143 net.cpp:380] ip1 -> ip1
I0509 13:35:45.066182 114143 net.cpp:122] Setting up ip1
I0509 13:35:45.066190 114143 net.cpp:129] Top shape: 64 500 (32000)
I0509 13:35:45.066193 114143 net.cpp:137] Memory required for data: 5039104
I0509 13:35:45.066202 114143 layer_factory.hpp:77] Creating layer relu1
I0509 13:35:45.066208 114143 net.cpp:84] Creating Layer relu1
I0509 13:35:45.066212 114143 net.cpp:406] relu1 <- ip1
I0509 13:35:45.066218 114143 net.cpp:367] relu1 -> ip1 (in-place)
I0509 13:35:45.066226 114143 net.cpp:122] Setting up relu1
I0509 13:35:45.066229 114143 net.cpp:129] Top shape: 64 500 (32000)
I0509 13:35:45.066233 114143 net.cpp:137] Memory required for data: 5167104
I0509 13:35:45.066237 114143 layer_factory.hpp:77] Creating layer ip2
I0509 13:35:45.066242 114143 net.cpp:84] Creating Layer ip2
I0509 13:35:45.066246 114143 net.cpp:406] ip2 <- ip1
I0509 13:35:45.066253 114143 net.cpp:380] ip2 -> ip2
I0509 13:35:45.066269 114143 net.cpp:122] Setting up ip2
I0509 13:35:45.066274 114143 net.cpp:129] Top shape: 64 10 (640)
I0509 13:35:45.066277 114143 net.cpp:137] Memory required for data: 5169664
I0509 13:35:45.066284 114143 layer_factory.hpp:77] Creating layer feat
I0509 13:35:45.066292 114143 net.cpp:84] Creating Layer feat
I0509 13:35:45.066295 114143 net.cpp:406] feat <- ip2
I0509 13:35:45.066300 114143 net.cpp:380] feat -> feat
I0509 13:35:45.066311 114143 net.cpp:122] Setting up feat
I0509 13:35:45.066316 114143 net.cpp:129] Top shape: 64 2 (128)
I0509 13:35:45.066320 114143 net.cpp:137] Memory required for data: 5170176
I0509 13:35:45.066329 114143 net.cpp:200] feat does not need backward computation.
I0509 13:35:45.066334 114143 net.cpp:200] ip2 does not need backward computation.
I0509 13:35:45.066337 114143 net.cpp:200] relu1 does not need backward computation.
I0509 13:35:45.066341 114143 net.cpp:200] ip1 does not need backward computation.
…
