…
W0509 13:35:47.503401 114233 _caffe.cpp:139] DEPRECATION WARNING - deprecated use of Python interface
W0509 13:35:47.503424 114233 _caffe.cpp:140] Use this instead (with the named "weights" parameter):
W0509 13:35:47.503427 114233 _caffe.cpp:142] Net('examples/siamese/mnist_siamese.prototxt', 1, weights='examples/siamese/mnist_siamese_iter_5.caffemodel')
I0509 13:35:47.504891 114233 net.cpp:51] Initializing net from parameters: 
name: "mnist_siamese"
state {
  phase: TEST
  level: 0
}
layer {
  name: "data"
  type: "Input"
  top: "data"
  input_param {
    shape {
      dim: 64
      dim: 1
      dim: 28
      dim: 28
    }
  }
}
layer {
  name: "conv1"
  type: "Convolution"
  bottom: "data"
  top: "conv1"
  param {
    lr_mult: 1
  }
  param {
    lr_mult: 2
  }
  convolution_param {
    num_output: 20
    kernel_size: 5
    stride: 1
  }
}
layer {
  name: "pool1"
  type: "Pooling"
  bottom: "conv1"
  top: "pool1"
  pooling_param {
    pool: MAX
    kernel_size: 2
    stride: 2
  }
}
layer {
  name: "conv2"
  type: "Convolution"
  bottom: "pool1"
  top: "conv2"
  param {
    lr_mult: 1
  }
  param {
    lr_mult: 2
  }
  convolution_param {
    num_output: 50
    kernel_size: 5
    stride: 1
  }
}
layer {
  name: "pool2"
  type: "Pooling"
  bottom: "conv2"
  top: "pool2"
  pooling_param {
    pool: MAX
    kernel_size: 2
    stride: 2
  }
}
layer {
  name: "ip1"
  type: "InnerProduct"
  bottom: "pool2"
  top: "ip1"
  param {
    lr_mult: 1
  }
  param {
    lr_mult: 2
  }
  inner_product_param {
    num_output: 500
  }
}
layer {
  name: "relu1"
  type: "ReLU"
  bottom: "ip1"
  top: "ip1"
}
layer {
  name: "ip2"
  type: "InnerProduct"
  bottom: "ip1"
  top: "ip2"
  param {
    lr_mult: 1
  }
  param {
    lr_mult: 2
  }
  inner_product_param {
    num_output: 10
  }
}
layer {
  name: "feat"
  type: "InnerProduct"
  bottom: "ip2"
  top: "feat"
  param {
    lr_mult: 1
  }
  param {
    lr_mult: 2
  }
  inner_product_param {
    num_output: 2
  }
}
I0509 13:35:47.504933 114233 layer_factory.hpp:77] Creating layer data
I0509 13:35:47.504942 114233 net.cpp:84] Creating Layer data
I0509 13:35:47.504950 114233 net.cpp:380] data -> data
I0509 13:35:47.504968 114233 net.cpp:122] Setting up data
I0509 13:35:47.504976 114233 net.cpp:129] Top shape: 64 1 28 28 (50176)
I0509 13:35:47.504979 114233 net.cpp:137] Memory required for data: 200704
I0509 13:35:47.504982 114233 layer_factory.hpp:77] Creating layer conv1
I0509 13:35:47.504989 114233 net.cpp:84] Creating Layer conv1
I0509 13:35:47.504992 114233 net.cpp:406] conv1 <- data
I0509 13:35:47.504998 114233 net.cpp:380] conv1 -> conv1
I0509 13:35:47.505008 114233 base_conv_layer.cpp:121] Group is 1channel is1number of output is 20
I0509 13:35:47.505023 114233 net.cpp:122] Setting up conv1
I0509 13:35:47.505028 114233 net.cpp:129] Top shape: 64 20 24 24 (737280)
I0509 13:35:47.505031 114233 net.cpp:137] Memory required for data: 3149824
I0509 13:35:47.505040 114233 layer_factory.hpp:77] Creating layer pool1
I0509 13:35:47.505053 114233 net.cpp:84] Creating Layer pool1
I0509 13:35:47.505056 114233 net.cpp:406] pool1 <- conv1
I0509 13:35:47.505060 114233 net.cpp:380] pool1 -> pool1
I0509 13:35:47.505069 114233 net.cpp:122] Setting up pool1
I0509 13:35:47.505072 114233 net.cpp:129] Top shape: 64 20 12 12 (184320)
I0509 13:35:47.505075 114233 net.cpp:137] Memory required for data: 3887104
I0509 13:35:47.505079 114233 layer_factory.hpp:77] Creating layer conv2
I0509 13:35:47.505084 114233 net.cpp:84] Creating Layer conv2
I0509 13:35:47.505086 114233 net.cpp:406] conv2 <- pool1
I0509 13:35:47.505090 114233 net.cpp:380] conv2 -> conv2
I0509 13:35:47.505098 114233 base_conv_layer.cpp:121] Group is 1channel is20number of output is 50
I0509 13:35:47.505154 114233 net.cpp:122] Setting up conv2
I0509 13:35:47.505161 114233 net.cpp:129] Top shape: 64 50 8 8 (204800)
I0509 13:35:47.505163 114233 net.cpp:137] Memory required for data: 4706304
I0509 13:35:47.505169 114233 layer_factory.hpp:77] Creating layer pool2
I0509 13:35:47.505175 114233 net.cpp:84] Creating Layer pool2
I0509 13:35:47.505178 114233 net.cpp:406] pool2 <- conv2
I0509 13:35:47.505182 114233 net.cpp:380] pool2 -> pool2
I0509 13:35:47.505189 114233 net.cpp:122] Setting up pool2
I0509 13:35:47.505194 114233 net.cpp:129] Top shape: 64 50 4 4 (51200)
I0509 13:35:47.505197 114233 net.cpp:137] Memory required for data: 4911104
I0509 13:35:47.505199 114233 layer_factory.hpp:77] Creating layer ip1
I0509 13:35:47.505204 114233 net.cpp:84] Creating Layer ip1
I0509 13:35:47.505208 114233 net.cpp:406] ip1 <- pool2
I0509 13:35:47.505211 114233 net.cpp:380] ip1 -> ip1
I0509 13:35:47.505810 114233 net.cpp:122] Setting up ip1
I0509 13:35:47.505817 114233 net.cpp:129] Top shape: 64 500 (32000)
I0509 13:35:47.505820 114233 net.cpp:137] Memory required for data: 5039104
I0509 13:35:47.505826 114233 layer_factory.hpp:77] Creating layer relu1
I0509 13:35:47.505831 114233 net.cpp:84] Creating Layer relu1
I0509 13:35:47.505836 114233 net.cpp:406] relu1 <- ip1
I0509 13:35:47.505839 114233 net.cpp:367] relu1 -> ip1 (in-place)
I0509 13:35:47.505844 114233 net.cpp:122] Setting up relu1
I0509 13:35:47.505847 114233 net.cpp:129] Top shape: 64 500 (32000)
I0509 13:35:47.505851 114233 net.cpp:137] Memory required for data: 5167104
I0509 13:35:47.505853 114233 layer_factory.hpp:77] Creating layer ip2
I0509 13:35:47.505857 114233 net.cpp:84] Creating Layer ip2
I0509 13:35:47.505859 114233 net.cpp:406] ip2 <- ip1
I0509 13:35:47.505864 114233 net.cpp:380] ip2 -> ip2
I0509 13:35:47.505875 114233 net.cpp:122] Setting up ip2
I0509 13:35:47.505879 114233 net.cpp:129] Top shape: 64 10 (640)
I0509 13:35:47.505882 114233 net.cpp:137] Memory required for data: 5169664
I0509 13:35:47.505887 114233 layer_factory.hpp:77] Creating layer feat
I0509 13:35:47.505892 114233 net.cpp:84] Creating Layer feat
I0509 13:35:47.505894 114233 net.cpp:406] feat <- ip2
I0509 13:35:47.505898 114233 net.cpp:380] feat -> feat
I0509 13:35:47.505908 114233 net.cpp:122] Setting up feat
I0509 13:35:47.505910 114233 net.cpp:129] Top shape: 64 2 (128)
I0509 13:35:47.505913 114233 net.cpp:137] Memory required for data: 5170176
I0509 13:35:47.505919 114233 net.cpp:200] feat does not need backward computation.
I0509 13:35:47.505923 114233 net.cpp:200] ip2 does not need backward computation.
I0509 13:35:47.505925 114233 net.cpp:200] relu1 does not need backward computation.
I0509 13:35:47.505928 114233 net.cpp:200] ip1 does not need backward computation.
…
