…
W0509 13:35:46.703001 114203 _caffe.cpp:139] DEPRECATION WARNING - deprecated use of Python interface
W0509 13:35:46.703033 114203 _caffe.cpp:140] Use this instead (with the named "weights" parameter):
W0509 13:35:46.703038 114203 _caffe.cpp:142] Net('examples/siamese/mnist_siamese.prototxt', 1, weights='examples/siamese/mnist_siamese_iter_5.caffemodel')
I0509 13:35:46.705397 114203 net.cpp:51] Initializing net from parameters: 
name: "mnist_siamese"
state {
  phase: TEST
  level: 0
}
layer {
  name: "data"
  type: "Input"
  top: "data"
  input_param {
    shape {
      dim: 64
      dim: 1
      dim: 28
      dim: 28
    }
  }
}
layer {
  name: "conv1"
  type: "Convolution"
  bottom: "data"
  top: "conv1"
  param {
    lr_mult: 1
  }
  param {
    lr_mult: 2
  }
  convolution_param {
    num_output: 20
    kernel_size: 5
    stride: 1
  }
}
layer {
  name: "pool1"
  type: "Pooling"
  bottom: "conv1"
  top: "pool1"
  pooling_param {
    pool: MAX
    kernel_size: 2
    stride: 2
  }
}
layer {
  name: "conv2"
  type: "Convolution"
  bottom: "pool1"
  top: "conv2"
  param {
    lr_mult: 1
  }
  param {
    lr_mult: 2
  }
  convolution_param {
    num_output: 50
    kernel_size: 5
    stride: 1
  }
}
layer {
  name: "pool2"
  type: "Pooling"
  bottom: "conv2"
  top: "pool2"
  pooling_param {
    pool: MAX
    kernel_size: 2
    stride: 2
  }
}
layer {
  name: "ip1"
  type: "InnerProduct"
  bottom: "pool2"
  top: "ip1"
  param {
    lr_mult: 1
  }
  param {
    lr_mult: 2
  }
  inner_product_param {
    num_output: 500
  }
}
layer {
  name: "relu1"
  type: "ReLU"
  bottom: "ip1"
  top: "ip1"
}
layer {
  name: "ip2"
  type: "InnerProduct"
  bottom: "ip1"
  top: "ip2"
  param {
    lr_mult: 1
  }
  param {
    lr_mult: 2
  }
  inner_product_param {
    num_output: 10
  }
}
layer {
  name: "feat"
  type: "InnerProduct"
  bottom: "ip2"
  top: "feat"
  param {
    lr_mult: 1
  }
  param {
    lr_mult: 2
  }
  inner_product_param {
    num_output: 2
  }
}
I0509 13:35:46.705468 114203 layer_factory.hpp:77] Creating layer data
I0509 13:35:46.705482 114203 net.cpp:84] Creating Layer data
I0509 13:35:46.705494 114203 net.cpp:380] data -> data
I0509 13:35:46.705518 114203 net.cpp:122] Setting up data
I0509 13:35:46.705528 114203 net.cpp:129] Top shape: 64 1 28 28 (50176)
I0509 13:35:46.705534 114203 net.cpp:137] Memory required for data: 200704
I0509 13:35:46.705539 114203 layer_factory.hpp:77] Creating layer conv1
I0509 13:35:46.705551 114203 net.cpp:84] Creating Layer conv1
I0509 13:35:46.705556 114203 net.cpp:406] conv1 <- data
I0509 13:35:46.705566 114203 net.cpp:380] conv1 -> conv1
I0509 13:35:46.705581 114203 base_conv_layer.cpp:121] Group is 1channel is1number of output is 20
I0509 13:35:46.705606 114203 net.cpp:122] Setting up conv1
I0509 13:35:46.705615 114203 net.cpp:129] Top shape: 64 20 24 24 (737280)
I0509 13:35:46.705620 114203 net.cpp:137] Memory required for data: 3149824
I0509 13:35:46.705634 114203 layer_factory.hpp:77] Creating layer pool1
I0509 13:35:46.705652 114203 net.cpp:84] Creating Layer pool1
I0509 13:35:46.705657 114203 net.cpp:406] pool1 <- conv1
I0509 13:35:46.705665 114203 net.cpp:380] pool1 -> pool1
I0509 13:35:46.705679 114203 net.cpp:122] Setting up pool1
I0509 13:35:46.705687 114203 net.cpp:129] Top shape: 64 20 12 12 (184320)
I0509 13:35:46.705691 114203 net.cpp:137] Memory required for data: 3887104
I0509 13:35:46.705696 114203 layer_factory.hpp:77] Creating layer conv2
I0509 13:35:46.705705 114203 net.cpp:84] Creating Layer conv2
I0509 13:35:46.705710 114203 net.cpp:406] conv2 <- pool1
I0509 13:35:46.705718 114203 net.cpp:380] conv2 -> conv2
I0509 13:35:46.705730 114203 base_conv_layer.cpp:121] Group is 1channel is20number of output is 50
I0509 13:35:46.705821 114203 net.cpp:122] Setting up conv2
I0509 13:35:46.705829 114203 net.cpp:129] Top shape: 64 50 8 8 (204800)
I0509 13:35:46.705834 114203 net.cpp:137] Memory required for data: 4706304
I0509 13:35:46.705845 114203 layer_factory.hpp:77] Creating layer pool2
I0509 13:35:46.705854 114203 net.cpp:84] Creating Layer pool2
I0509 13:35:46.705859 114203 net.cpp:406] pool2 <- conv2
I0509 13:35:46.705866 114203 net.cpp:380] pool2 -> pool2
I0509 13:35:46.705878 114203 net.cpp:122] Setting up pool2
I0509 13:35:46.705886 114203 net.cpp:129] Top shape: 64 50 4 4 (51200)
I0509 13:35:46.705890 114203 net.cpp:137] Memory required for data: 4911104
I0509 13:35:46.705895 114203 layer_factory.hpp:77] Creating layer ip1
I0509 13:35:46.705904 114203 net.cpp:84] Creating Layer ip1
I0509 13:35:46.705909 114203 net.cpp:406] ip1 <- pool2
I0509 13:35:46.705915 114203 net.cpp:380] ip1 -> ip1
I0509 13:35:46.706854 114203 net.cpp:122] Setting up ip1
I0509 13:35:46.706866 114203 net.cpp:129] Top shape: 64 500 (32000)
I0509 13:35:46.706869 114203 net.cpp:137] Memory required for data: 5039104
I0509 13:35:46.706881 114203 layer_factory.hpp:77] Creating layer relu1
I0509 13:35:46.706888 114203 net.cpp:84] Creating Layer relu1
I0509 13:35:46.706894 114203 net.cpp:406] relu1 <- ip1
I0509 13:35:46.706902 114203 net.cpp:367] relu1 -> ip1 (in-place)
I0509 13:35:46.706910 114203 net.cpp:122] Setting up relu1
I0509 13:35:46.706917 114203 net.cpp:129] Top shape: 64 500 (32000)
I0509 13:35:46.706921 114203 net.cpp:137] Memory required for data: 5167104
I0509 13:35:46.706925 114203 layer_factory.hpp:77] Creating layer ip2
I0509 13:35:46.706933 114203 net.cpp:84] Creating Layer ip2
I0509 13:35:46.706938 114203 net.cpp:406] ip2 <- ip1
I0509 13:35:46.706945 114203 net.cpp:380] ip2 -> ip2
I0509 13:35:46.706965 114203 net.cpp:122] Setting up ip2
I0509 13:35:46.706971 114203 net.cpp:129] Top shape: 64 10 (640)
I0509 13:35:46.706976 114203 net.cpp:137] Memory required for data: 5169664
I0509 13:35:46.706984 114203 layer_factory.hpp:77] Creating layer feat
I0509 13:35:46.706993 114203 net.cpp:84] Creating Layer feat
I0509 13:35:46.706998 114203 net.cpp:406] feat <- ip2
I0509 13:35:46.707005 114203 net.cpp:380] feat -> feat
I0509 13:35:46.707020 114203 net.cpp:122] Setting up feat
I0509 13:35:46.707026 114203 net.cpp:129] Top shape: 64 2 (128)
I0509 13:35:46.707031 114203 net.cpp:137] Memory required for data: 5170176
I0509 13:35:46.707041 114203 net.cpp:200] feat does not need backward computation.
I0509 13:35:46.707046 114203 net.cpp:200] ip2 does not need backward computation.
I0509 13:35:46.707052 114203 net.cpp:200] relu1 does not need backward computation.
I0509 13:35:46.707056 114203 net.cpp:200] ip1 does not need backward computation.
…
