…
W0509 13:35:44.336525 114113 _caffe.cpp:139] DEPRECATION WARNING - deprecated use of Python interface
W0509 13:35:44.336549 114113 _caffe.cpp:140] Use this instead (with the named "weights" parameter):
W0509 13:35:44.336552 114113 _caffe.cpp:142] Net('examples/siamese/mnist_siamese.prototxt', 1, weights='examples/siamese/mnist_siamese_iter_5.caffemodel')
I0509 13:35:44.337994 114113 net.cpp:51] Initializing net from parameters: 
name: "mnist_siamese"
state {
  phase: TEST
  level: 0
}
layer {
  name: "data"
  type: "Input"
  top: "data"
  input_param {
    shape {
      dim: 64
      dim: 1
      dim: 28
      dim: 28
    }
  }
}
layer {
  name: "conv1"
  type: "Convolution"
  bottom: "data"
  top: "conv1"
  param {
    lr_mult: 1
  }
  param {
    lr_mult: 2
  }
  convolution_param {
    num_output: 20
    kernel_size: 5
    stride: 1
  }
}
layer {
  name: "pool1"
  type: "Pooling"
  bottom: "conv1"
  top: "pool1"
  pooling_param {
    pool: MAX
    kernel_size: 2
    stride: 2
  }
}
layer {
  name: "conv2"
  type: "Convolution"
  bottom: "pool1"
  top: "conv2"
  param {
    lr_mult: 1
  }
  param {
    lr_mult: 2
  }
  convolution_param {
    num_output: 50
    kernel_size: 5
    stride: 1
  }
}
layer {
  name: "pool2"
  type: "Pooling"
  bottom: "conv2"
  top: "pool2"
  pooling_param {
    pool: MAX
    kernel_size: 2
    stride: 2
  }
}
layer {
  name: "ip1"
  type: "InnerProduct"
  bottom: "pool2"
  top: "ip1"
  param {
    lr_mult: 1
  }
  param {
    lr_mult: 2
  }
  inner_product_param {
    num_output: 500
  }
}
layer {
  name: "relu1"
  type: "ReLU"
  bottom: "ip1"
  top: "ip1"
}
layer {
  name: "ip2"
  type: "InnerProduct"
  bottom: "ip1"
  top: "ip2"
  param {
    lr_mult: 1
  }
  param {
    lr_mult: 2
  }
  inner_product_param {
    num_output: 10
  }
}
layer {
  name: "feat"
  type: "InnerProduct"
  bottom: "ip2"
  top: "feat"
  param {
    lr_mult: 1
  }
  param {
    lr_mult: 2
  }
  inner_product_param {
    num_output: 2
  }
}
I0509 13:35:44.338057 114113 layer_factory.hpp:77] Creating layer data
I0509 13:35:44.338066 114113 net.cpp:84] Creating Layer data
I0509 13:35:44.338074 114113 net.cpp:380] data -> data
I0509 13:35:44.338089 114113 net.cpp:122] Setting up data
I0509 13:35:44.338095 114113 net.cpp:129] Top shape: 64 1 28 28 (50176)
I0509 13:35:44.338099 114113 net.cpp:137] Memory required for data: 200704
I0509 13:35:44.338102 114113 layer_factory.hpp:77] Creating layer conv1
I0509 13:35:44.338109 114113 net.cpp:84] Creating Layer conv1
I0509 13:35:44.338112 114113 net.cpp:406] conv1 <- data
I0509 13:35:44.338119 114113 net.cpp:380] conv1 -> conv1
I0509 13:35:44.338134 114113 base_conv_layer.cpp:121] Group is 1channel is1number of output is 20
I0509 13:35:44.338150 114113 net.cpp:122] Setting up conv1
I0509 13:35:44.338155 114113 net.cpp:129] Top shape: 64 20 24 24 (737280)
I0509 13:35:44.338157 114113 net.cpp:137] Memory required for data: 3149824
I0509 13:35:44.338166 114113 layer_factory.hpp:77] Creating layer pool1
I0509 13:35:44.338172 114113 net.cpp:84] Creating Layer pool1
I0509 13:35:44.338174 114113 net.cpp:406] pool1 <- conv1
I0509 13:35:44.338179 114113 net.cpp:380] pool1 -> pool1
I0509 13:35:44.338187 114113 net.cpp:122] Setting up pool1
I0509 13:35:44.338192 114113 net.cpp:129] Top shape: 64 20 12 12 (184320)
I0509 13:35:44.338194 114113 net.cpp:137] Memory required for data: 3887104
I0509 13:35:44.338197 114113 layer_factory.hpp:77] Creating layer conv2
I0509 13:35:44.338202 114113 net.cpp:84] Creating Layer conv2
I0509 13:35:44.338205 114113 net.cpp:406] conv2 <- pool1
I0509 13:35:44.338209 114113 net.cpp:380] conv2 -> conv2
I0509 13:35:44.338217 114113 base_conv_layer.cpp:121] Group is 1channel is20number of output is 50
I0509 13:35:44.338274 114113 net.cpp:122] Setting up conv2
I0509 13:35:44.338279 114113 net.cpp:129] Top shape: 64 50 8 8 (204800)
I0509 13:35:44.338281 114113 net.cpp:137] Memory required for data: 4706304
I0509 13:35:44.338289 114113 layer_factory.hpp:77] Creating layer pool2
I0509 13:35:44.338294 114113 net.cpp:84] Creating Layer pool2
I0509 13:35:44.338296 114113 net.cpp:406] pool2 <- conv2
I0509 13:35:44.338300 114113 net.cpp:380] pool2 -> pool2
I0509 13:35:44.338307 114113 net.cpp:122] Setting up pool2
I0509 13:35:44.338311 114113 net.cpp:129] Top shape: 64 50 4 4 (51200)
I0509 13:35:44.338315 114113 net.cpp:137] Memory required for data: 4911104
I0509 13:35:44.338316 114113 layer_factory.hpp:77] Creating layer ip1
I0509 13:35:44.338322 114113 net.cpp:84] Creating Layer ip1
I0509 13:35:44.338325 114113 net.cpp:406] ip1 <- pool2
I0509 13:35:44.338328 114113 net.cpp:380] ip1 -> ip1
I0509 13:35:44.338939 114113 net.cpp:122] Setting up ip1
I0509 13:35:44.338946 114113 net.cpp:129] Top shape: 64 500 (32000)
I0509 13:35:44.338948 114113 net.cpp:137] Memory required for data: 5039104
I0509 13:35:44.338955 114113 layer_factory.hpp:77] Creating layer relu1
I0509 13:35:44.338959 114113 net.cpp:84] Creating Layer relu1
I0509 13:35:44.338963 114113 net.cpp:406] relu1 <- ip1
I0509 13:35:44.338968 114113 net.cpp:367] relu1 -> ip1 (in-place)
I0509 13:35:44.338971 114113 net.cpp:122] Setting up relu1
I0509 13:35:44.338975 114113 net.cpp:129] Top shape: 64 500 (32000)
I0509 13:35:44.338979 114113 net.cpp:137] Memory required for data: 5167104
I0509 13:35:44.338980 114113 layer_factory.hpp:77] Creating layer ip2
I0509 13:35:44.338984 114113 net.cpp:84] Creating Layer ip2
I0509 13:35:44.338987 114113 net.cpp:406] ip2 <- ip1
I0509 13:35:44.338992 114113 net.cpp:380] ip2 -> ip2
I0509 13:35:44.339004 114113 net.cpp:122] Setting up ip2
I0509 13:35:44.339007 114113 net.cpp:129] Top shape: 64 10 (640)
I0509 13:35:44.339010 114113 net.cpp:137] Memory required for data: 5169664
I0509 13:35:44.339015 114113 layer_factory.hpp:77] Creating layer feat
I0509 13:35:44.339020 114113 net.cpp:84] Creating Layer feat
I0509 13:35:44.339022 114113 net.cpp:406] feat <- ip2
I0509 13:35:44.339027 114113 net.cpp:380] feat -> feat
I0509 13:35:44.339035 114113 net.cpp:122] Setting up feat
I0509 13:35:44.339040 114113 net.cpp:129] Top shape: 64 2 (128)
I0509 13:35:44.339041 114113 net.cpp:137] Memory required for data: 5170176
I0509 13:35:44.339047 114113 net.cpp:200] feat does not need backward computation.
I0509 13:35:44.339051 114113 net.cpp:200] ip2 does not need backward computation.
I0509 13:35:44.339054 114113 net.cpp:200] relu1 does not need backward computation.
I0509 13:35:44.339056 114113 net.cpp:200] ip1 does not need backward computation.
…
