…
I0509 13:41:48.127835 114378 net.cpp:294] The NetState phase (0) differed from the phase (1) specified by a rule in layer accuracy
I0509 13:41:48.127990 114378 net.cpp:51] Initializing net from parameters: 
name: "CIFAR10_quick"
state {
  phase: TRAIN
  level: 0
  stage: ""
}
layer {
  name: "cifar"
  type: "Data"
  top: "data"
  top: "label"
  include {
    phase: TRAIN
  }
  transform_param {
    mean_file: "examples/cifar10/mean.binaryproto"
  }
  data_param {
    source: "examples/cifar10/cifar10_train_lmdb"
    batch_size: 100
    backend: LMDB
  }
}
layer {
  name: "conv1"
  type: "Convolution"
  bottom: "data"
  top: "conv1"
  param {
    lr_mult: 1
  }
  param {
    lr_mult: 2
  }
  convolution_param {
    num_output: 30
    pad: 2
    kernel_size: 5
    stride: 1
    weight_filler {
      type: "gaussian"
      std: 0.0001
    }
    bias_filler {
      type: "constant"
    }
  }
}
layer {
  name: "pool1"
  type: "Pooling"
  bottom: "conv1"
  top: "pool1"
  pooling_param {
    pool: MAX
    kernel_size: 3
    stride: 2
  }
}
layer {
  name: "relu1"
  type: "ReLU"
  bottom: "pool1"
  top: "pool1"
}
layer {
  name: "conv2"
  type: "Convolution"
  bottom: "pool1"
  top: "conv2"
  param {
    lr_mult: 1
  }
  param {
    lr_mult: 2
  }
  convolution_param {
    num_output: 30
    pad: 2
    kernel_size: 5
    stride: 1
    weight_filler {
      type: "gaussian"
      std: 0.01
    }
    bias_filler {
      type: "constant"
    }
  }
}
layer {
  name: "relu2"
  type: "ReLU"
  bottom: "conv2"
  top: "conv2"
}
layer {
  name: "pool2"
  type: "Pooling"
  bottom: "conv2"
  top: "pool2"
  pooling_param {
    pool: AVE
    kernel_size: 3
    stride: 2
  }
}
layer {
  name: "conv3"
  type: "Convolution"
  bottom: "pool2"
  top: "conv3"
  param {
    lr_mult: 1
  }
  param {
    lr_mult: 2
  }
  convolution_param {
    num_output: 60
    pad: 2
    kernel_size: 5
    stride: 1
    weight_filler {
      type: "gaussian"
      std: 0.01
    }
    bias_filler {
      type: "constant"
    }
  }
}
layer {
  name: "relu3"
  type: "ReLU"
  bottom: "conv3"
  top: "conv3"
}
layer {
  name: "pool3"
  type: "Pooling"
  bottom: "conv3"
  top: "pool3"
  pooling_param {
    pool: AVE
    kernel_size: 3
    stride: 2
  }
}
layer {
  name: "ip1"
  type: "InnerProduct"
  bottom: "pool3"
  top: "ip1"
  param {
    lr_mult: 1
  }
  param {
    lr_mult: 2
  }
  inner_product_param {
    num_output: 60
    weight_filler {
      type: "gaussian"
      std: 0.1
    }
    bias_filler {
      type: "constant"
    }
  }
}
layer {
  name: "ip2"
  type: "InnerProduct"
  bottom: "ip1"
  top: "ip2"
  param {
    lr_mult: 1
  }
  param {
    lr_mult: 2
  }
  inner_product_param {
    num_output: 12
    weight_filler {
      type: "gaussian"
      std: 0.1
    }
    bias_filler {
      type: "constant"
    }
  }
}
layer {
  name: "loss"
  type: "SoftmaxWithLoss"
  bottom: "ip2"
  bottom: "label"
  top: "loss"
}
I0509 13:41:48.128111 114378 layer_factory.hpp:77] Creating layer cifar
I0509 13:41:48.128219 114378 db_lmdb.cpp:35] Opened lmdb examples/cifar10/cifar10_train_lmdb
I0509 13:41:48.128253 114378 net.cpp:84] Creating Layer cifar
I0509 13:41:48.128267 114378 net.cpp:380] cifar -> data
I0509 13:41:48.128291 114378 net.cpp:380] cifar -> label
I0509 13:41:48.128306 114378 data_transformer.cpp:25] Loading mean file from: examples/cifar10/mean.binaryproto
I0509 13:41:48.128401 114378 data_layer.cpp:45] output data size: 100,3,32,32
     0.061106506              1,174      LLC-load-misses          
     0.061106506             45,762      LLC-loads                
I0509 13:41:48.128970 114378 net.cpp:122] Setting up cifar
I0509 13:41:48.128999 114378 net.cpp:129] Top shape: 100 3 32 32 (307200)
I0509 13:41:48.129007 114378 net.cpp:129] Top shape: 100 (100)
I0509 13:41:48.129012 114378 net.cpp:137] Memory required for data: 1229200
I0509 13:41:48.129021 114378 layer_factory.hpp:77] Creating layer conv1
I0509 13:41:48.129040 114378 net.cpp:84] Creating Layer conv1
I0509 13:41:48.129047 114378 net.cpp:406] conv1 <- data
I0509 13:41:48.129062 114378 net.cpp:380] conv1 -> conv1
I0509 13:41:48.129082 114378 base_conv_layer.cpp:121] Group is 1channel is3number of output is 30
I0509 13:41:48.129159 114378 net.cpp:122] Setting up conv1
I0509 13:41:48.129169 114378 net.cpp:129] Top shape: 100 30 32 32 (3072000)
I0509 13:41:48.129174 114378 net.cpp:137] Memory required for data: 13517200
I0509 13:41:48.129195 114378 layer_factory.hpp:77] Creating layer pool1
I0509 13:41:48.129205 114378 net.cpp:84] Creating Layer pool1
I0509 13:41:48.129210 114378 net.cpp:406] pool1 <- conv1
I0509 13:41:48.129218 114378 net.cpp:380] pool1 -> pool1
I0509 13:41:48.129236 114378 net.cpp:122] Setting up pool1
I0509 13:41:48.129245 114378 net.cpp:129] Top shape: 100 30 16 16 (768000)
I0509 13:41:48.129250 114378 net.cpp:137] Memory required for data: 16589200
I0509 13:41:48.129254 114378 layer_factory.hpp:77] Creating layer relu1
I0509 13:41:48.129262 114378 net.cpp:84] Creating Layer relu1
I0509 13:41:48.129267 114378 net.cpp:406] relu1 <- pool1
I0509 13:41:48.129274 114378 net.cpp:367] relu1 -> pool1 (in-place)
I0509 13:41:48.129282 114378 net.cpp:122] Setting up relu1
I0509 13:41:48.129290 114378 net.cpp:129] Top shape: 100 30 16 16 (768000)
I0509 13:41:48.129297 114378 net.cpp:137] Memory required for data: 19661200
I0509 13:41:48.129302 114378 layer_factory.hpp:77] Creating layer conv2
I0509 13:41:48.129312 114378 net.cpp:84] Creating Layer conv2
I0509 13:41:48.129319 114378 net.cpp:406] conv2 <- pool1
I0509 13:41:48.129326 114378 net.cpp:380] conv2 -> conv2
I0509 13:41:48.129341 114378 base_conv_layer.cpp:121] Group is 1channel is30number of output is 30
I0509 13:41:48.129767 114378 net.cpp:122] Setting up conv2
I0509 13:41:48.129778 114378 net.cpp:129] Top shape: 100 30 16 16 (768000)
I0509 13:41:48.129784 114378 net.cpp:137] Memory required for data: 22733200
I0509 13:41:48.129796 114378 layer_factory.hpp:77] Creating layer relu2
I0509 13:41:48.129802 114378 net.cpp:84] Creating Layer relu2
I0509 13:41:48.129808 114378 net.cpp:406] relu2 <- conv2
I0509 13:41:48.129815 114378 net.cpp:367] relu2 -> conv2 (in-place)
I0509 13:41:48.129822 114378 net.cpp:122] Setting up relu2
I0509 13:41:48.129829 114378 net.cpp:129] Top shape: 100 30 16 16 (768000)
I0509 13:41:48.129835 114378 net.cpp:137] Memory required for data: 25805200
I0509 13:41:48.129840 114378 layer_factory.hpp:77] Creating layer pool2
I0509 13:41:48.129847 114378 net.cpp:84] Creating Layer pool2
I0509 13:41:48.129851 114378 net.cpp:406] pool2 <- conv2
I0509 13:41:48.129859 114378 net.cpp:380] pool2 -> pool2
I0509 13:41:48.129870 114378 net.cpp:122] Setting up pool2
I0509 13:41:48.129878 114378 net.cpp:129] Top shape: 100 30 8 8 (192000)
I0509 13:41:48.129889 114378 net.cpp:137] Memory required for data: 26573200
I0509 13:41:48.129895 114378 layer_factory.hpp:77] Creating layer conv3
I0509 13:41:48.129906 114378 net.cpp:84] Creating Layer conv3
I0509 13:41:48.129911 114378 net.cpp:406] conv3 <- pool2
I0509 13:41:48.129918 114378 net.cpp:380] conv3 -> conv3
I0509 13:41:48.129932 114378 base_conv_layer.cpp:121] Group is 1channel is30number of output is 60
I0509 13:41:48.130755 114378 net.cpp:122] Setting up conv3
I0509 13:41:48.130765 114378 net.cpp:129] Top shape: 100 60 8 8 (384000)
I0509 13:41:48.130770 114378 net.cpp:137] Memory required for data: 28109200
I0509 13:41:48.130782 114378 layer_factory.hpp:77] Creating layer relu3
I0509 13:41:48.130790 114378 net.cpp:84] Creating Layer relu3
I0509 13:41:48.130795 114378 net.cpp:406] relu3 <- conv3
I0509 13:41:48.130803 114378 net.cpp:367] relu3 -> conv3 (in-place)
I0509 13:41:48.130812 114378 net.cpp:122] Setting up relu3
I0509 13:41:48.130820 114378 net.cpp:129] Top shape: 100 60 8 8 (384000)
I0509 13:41:48.130833 114378 net.cpp:137] Memory required for data: 29645200
I0509 13:41:48.130838 114378 layer_factory.hpp:77] Creating layer pool3
I0509 13:41:48.130846 114378 net.cpp:84] Creating Layer pool3
I0509 13:41:48.130851 114378 net.cpp:406] pool3 <- conv3
I0509 13:41:48.130858 114378 net.cpp:380] pool3 -> pool3
I0509 13:41:48.130867 114378 net.cpp:122] Setting up pool3
I0509 13:41:48.130877 114378 net.cpp:129] Top shape: 100 60 4 4 (96000)
I0509 13:41:48.130880 114378 net.cpp:137] Memory required for data: 30029200
I0509 13:41:48.130885 114378 layer_factory.hpp:77] Creating layer ip1
I0509 13:41:48.130897 114378 net.cpp:84] Creating Layer ip1
I0509 13:41:48.130904 114378 net.cpp:406] ip1 <- pool3
I0509 13:41:48.130913 114378 net.cpp:380] ip1 -> ip1
I0509 13:41:48.131956 114378 net.cpp:122] Setting up ip1
I0509 13:41:48.131966 114378 net.cpp:129] Top shape: 100 60 (6000)
I0509 13:41:48.131973 114378 net.cpp:137] Memory required for data: 30053200
I0509 13:41:48.131981 114378 layer_factory.hpp:77] Creating layer ip2
I0509 13:41:48.131992 114378 net.cpp:84] Creating Layer ip2
I0509 13:41:48.131999 114378 net.cpp:406] ip2 <- ip1
I0509 13:41:48.132007 114378 net.cpp:380] ip2 -> ip2
I0509 13:41:48.132060 114378 net.cpp:122] Setting up ip2
I0509 13:41:48.132071 114378 net.cpp:129] Top shape: 100 12 (1200)
I0509 13:41:48.132076 114378 net.cpp:137] Memory required for data: 30058000
I0509 13:41:48.132087 114378 layer_factory.hpp:77] Creating layer loss
I0509 13:41:48.132095 114378 net.cpp:84] Creating Layer loss
I0509 13:41:48.132100 114378 net.cpp:406] loss <- ip2
I0509 13:41:48.132107 114378 net.cpp:406] loss <- label
I0509 13:41:48.132120 114378 net.cpp:380] loss -> loss
I0509 13:41:48.132143 114378 layer_factory.hpp:77] Creating layer loss
…
