…
I0509 13:41:42.476109 114364 net.cpp:294] The NetState phase (0) differed from the phase (1) specified by a rule in layer accuracy
I0509 13:41:42.476253 114364 net.cpp:51] Initializing net from parameters: 
name: "CIFAR10_quick"
state {
  phase: TRAIN
  level: 0
  stage: ""
}
layer {
  name: "cifar"
  type: "Data"
  top: "data"
  top: "label"
  include {
    phase: TRAIN
  }
  transform_param {
    mean_file: "examples/cifar10/mean.binaryproto"
  }
  data_param {
    source: "examples/cifar10/cifar10_train_lmdb"
    batch_size: 100
    backend: LMDB
  }
}
layer {
  name: "conv1"
  type: "Convolution"
  bottom: "data"
  top: "conv1"
  param {
    lr_mult: 1
  }
  param {
    lr_mult: 2
  }
  convolution_param {
    num_output: 30
    pad: 2
    kernel_size: 5
    stride: 1
    weight_filler {
      type: "gaussian"
      std: 0.0001
    }
    bias_filler {
      type: "constant"
    }
  }
}
layer {
  name: "pool1"
  type: "Pooling"
  bottom: "conv1"
  top: "pool1"
  pooling_param {
    pool: MAX
    kernel_size: 3
    stride: 2
  }
}
layer {
  name: "relu1"
  type: "ReLU"
  bottom: "pool1"
  top: "pool1"
}
layer {
  name: "conv2"
  type: "Convolution"
  bottom: "pool1"
  top: "conv2"
  param {
    lr_mult: 1
  }
  param {
    lr_mult: 2
  }
  convolution_param {
    num_output: 30
    pad: 2
    kernel_size: 5
    stride: 1
    weight_filler {
      type: "gaussian"
      std: 0.01
    }
    bias_filler {
      type: "constant"
    }
  }
}
layer {
  name: "relu2"
  type: "ReLU"
  bottom: "conv2"
  top: "conv2"
}
layer {
  name: "pool2"
  type: "Pooling"
  bottom: "conv2"
  top: "pool2"
  pooling_param {
    pool: AVE
    kernel_size: 3
    stride: 2
  }
}
layer {
  name: "conv3"
  type: "Convolution"
  bottom: "pool2"
  top: "conv3"
  param {
    lr_mult: 1
  }
  param {
    lr_mult: 2
  }
  convolution_param {
    num_output: 60
    pad: 2
    kernel_size: 5
    stride: 1
    weight_filler {
      type: "gaussian"
      std: 0.01
    }
    bias_filler {
      type: "constant"
    }
  }
}
layer {
  name: "relu3"
  type: "ReLU"
  bottom: "conv3"
  top: "conv3"
}
layer {
  name: "pool3"
  type: "Pooling"
  bottom: "conv3"
  top: "pool3"
  pooling_param {
    pool: AVE
    kernel_size: 3
    stride: 2
  }
}
layer {
  name: "ip1"
  type: "InnerProduct"
  bottom: "pool3"
  top: "ip1"
  param {
    lr_mult: 1
  }
  param {
    lr_mult: 2
  }
  inner_product_param {
    num_output: 60
    weight_filler {
      type: "gaussian"
      std: 0.1
    }
    bias_filler {
      type: "constant"
    }
  }
}
layer {
  name: "ip2"
  type: "InnerProduct"
  bottom: "ip1"
  top: "ip2"
  param {
    lr_mult: 1
  }
  param {
    lr_mult: 2
  }
  inner_product_param {
    num_output: 12
    weight_filler {
      type: "gaussian"
      std: 0.1
    }
    bias_filler {
      type: "constant"
    }
  }
}
layer {
  name: "loss"
  type: "SoftmaxWithLoss"
  bottom: "ip2"
  bottom: "label"
  top: "loss"
}
I0509 13:41:42.476344 114364 layer_factory.hpp:77] Creating layer cifar
I0509 13:41:42.476452 114364 db_lmdb.cpp:35] Opened lmdb examples/cifar10/cifar10_train_lmdb
I0509 13:41:42.476486 114364 net.cpp:84] Creating Layer cifar
I0509 13:41:42.476497 114364 net.cpp:380] cifar -> data
I0509 13:41:42.476521 114364 net.cpp:380] cifar -> label
I0509 13:41:42.476541 114364 data_transformer.cpp:25] Loading mean file from: examples/cifar10/mean.binaryproto
I0509 13:41:42.476629 114364 data_layer.cpp:45] output data size: 100,3,32,32
     0.061150050         14,631,825      instructions:u           
     0.061150050         11,069,916      cycles:u                 
I0509 13:41:42.477198 114364 net.cpp:122] Setting up cifar
I0509 13:41:42.477226 114364 net.cpp:129] Top shape: 100 3 32 32 (307200)
I0509 13:41:42.477233 114364 net.cpp:129] Top shape: 100 (100)
I0509 13:41:42.477237 114364 net.cpp:137] Memory required for data: 1229200
I0509 13:41:42.477247 114364 layer_factory.hpp:77] Creating layer conv1
I0509 13:41:42.477265 114364 net.cpp:84] Creating Layer conv1
I0509 13:41:42.477272 114364 net.cpp:406] conv1 <- data
I0509 13:41:42.477286 114364 net.cpp:380] conv1 -> conv1
I0509 13:41:42.477306 114364 base_conv_layer.cpp:121] Group is 1channel is3number of output is 30
I0509 13:41:42.477380 114364 net.cpp:122] Setting up conv1
I0509 13:41:42.477390 114364 net.cpp:129] Top shape: 100 30 32 32 (3072000)
I0509 13:41:42.477394 114364 net.cpp:137] Memory required for data: 13517200
I0509 13:41:42.477416 114364 layer_factory.hpp:77] Creating layer pool1
I0509 13:41:42.477425 114364 net.cpp:84] Creating Layer pool1
I0509 13:41:42.477432 114364 net.cpp:406] pool1 <- conv1
I0509 13:41:42.477439 114364 net.cpp:380] pool1 -> pool1
I0509 13:41:42.477458 114364 net.cpp:122] Setting up pool1
I0509 13:41:42.477464 114364 net.cpp:129] Top shape: 100 30 16 16 (768000)
I0509 13:41:42.477469 114364 net.cpp:137] Memory required for data: 16589200
I0509 13:41:42.477474 114364 layer_factory.hpp:77] Creating layer relu1
I0509 13:41:42.477483 114364 net.cpp:84] Creating Layer relu1
I0509 13:41:42.477488 114364 net.cpp:406] relu1 <- pool1
I0509 13:41:42.477494 114364 net.cpp:367] relu1 -> pool1 (in-place)
I0509 13:41:42.477502 114364 net.cpp:122] Setting up relu1
I0509 13:41:42.477510 114364 net.cpp:129] Top shape: 100 30 16 16 (768000)
I0509 13:41:42.477515 114364 net.cpp:137] Memory required for data: 19661200
I0509 13:41:42.477520 114364 layer_factory.hpp:77] Creating layer conv2
I0509 13:41:42.477531 114364 net.cpp:84] Creating Layer conv2
I0509 13:41:42.477537 114364 net.cpp:406] conv2 <- pool1
I0509 13:41:42.477545 114364 net.cpp:380] conv2 -> conv2
I0509 13:41:42.477558 114364 base_conv_layer.cpp:121] Group is 1channel is30number of output is 30
I0509 13:41:42.477984 114364 net.cpp:122] Setting up conv2
I0509 13:41:42.477998 114364 net.cpp:129] Top shape: 100 30 16 16 (768000)
I0509 13:41:42.478003 114364 net.cpp:137] Memory required for data: 22733200
I0509 13:41:42.478013 114364 layer_factory.hpp:77] Creating layer relu2
I0509 13:41:42.478019 114364 net.cpp:84] Creating Layer relu2
I0509 13:41:42.478026 114364 net.cpp:406] relu2 <- conv2
I0509 13:41:42.478032 114364 net.cpp:367] relu2 -> conv2 (in-place)
I0509 13:41:42.478039 114364 net.cpp:122] Setting up relu2
I0509 13:41:42.478046 114364 net.cpp:129] Top shape: 100 30 16 16 (768000)
I0509 13:41:42.478052 114364 net.cpp:137] Memory required for data: 25805200
I0509 13:41:42.478058 114364 layer_factory.hpp:77] Creating layer pool2
I0509 13:41:42.478065 114364 net.cpp:84] Creating Layer pool2
I0509 13:41:42.478070 114364 net.cpp:406] pool2 <- conv2
I0509 13:41:42.478077 114364 net.cpp:380] pool2 -> pool2
I0509 13:41:42.478087 114364 net.cpp:122] Setting up pool2
I0509 13:41:42.478094 114364 net.cpp:129] Top shape: 100 30 8 8 (192000)
I0509 13:41:42.478106 114364 net.cpp:137] Memory required for data: 26573200
I0509 13:41:42.478111 114364 layer_factory.hpp:77] Creating layer conv3
I0509 13:41:42.478122 114364 net.cpp:84] Creating Layer conv3
I0509 13:41:42.478127 114364 net.cpp:406] conv3 <- pool2
I0509 13:41:42.478135 114364 net.cpp:380] conv3 -> conv3
I0509 13:41:42.478148 114364 base_conv_layer.cpp:121] Group is 1channel is30number of output is 60
I0509 13:41:42.478981 114364 net.cpp:122] Setting up conv3
I0509 13:41:42.478989 114364 net.cpp:129] Top shape: 100 60 8 8 (384000)
I0509 13:41:42.478994 114364 net.cpp:137] Memory required for data: 28109200
I0509 13:41:42.479007 114364 layer_factory.hpp:77] Creating layer relu3
I0509 13:41:42.479014 114364 net.cpp:84] Creating Layer relu3
I0509 13:41:42.479019 114364 net.cpp:406] relu3 <- conv3
I0509 13:41:42.479027 114364 net.cpp:367] relu3 -> conv3 (in-place)
I0509 13:41:42.479034 114364 net.cpp:122] Setting up relu3
I0509 13:41:42.479041 114364 net.cpp:129] Top shape: 100 60 8 8 (384000)
I0509 13:41:42.479054 114364 net.cpp:137] Memory required for data: 29645200
I0509 13:41:42.479059 114364 layer_factory.hpp:77] Creating layer pool3
I0509 13:41:42.479068 114364 net.cpp:84] Creating Layer pool3
I0509 13:41:42.479073 114364 net.cpp:406] pool3 <- conv3
I0509 13:41:42.479079 114364 net.cpp:380] pool3 -> pool3
I0509 13:41:42.479089 114364 net.cpp:122] Setting up pool3
I0509 13:41:42.479096 114364 net.cpp:129] Top shape: 100 60 4 4 (96000)
I0509 13:41:42.479101 114364 net.cpp:137] Memory required for data: 30029200
I0509 13:41:42.479106 114364 layer_factory.hpp:77] Creating layer ip1
I0509 13:41:42.479117 114364 net.cpp:84] Creating Layer ip1
I0509 13:41:42.479123 114364 net.cpp:406] ip1 <- pool3
I0509 13:41:42.479131 114364 net.cpp:380] ip1 -> ip1
I0509 13:41:42.480201 114364 net.cpp:122] Setting up ip1
I0509 13:41:42.480211 114364 net.cpp:129] Top shape: 100 60 (6000)
I0509 13:41:42.480217 114364 net.cpp:137] Memory required for data: 30053200
I0509 13:41:42.480226 114364 layer_factory.hpp:77] Creating layer ip2
I0509 13:41:42.480237 114364 net.cpp:84] Creating Layer ip2
I0509 13:41:42.480242 114364 net.cpp:406] ip2 <- ip1
I0509 13:41:42.480250 114364 net.cpp:380] ip2 -> ip2
I0509 13:41:42.480283 114364 net.cpp:122] Setting up ip2
I0509 13:41:42.480306 114364 net.cpp:129] Top shape: 100 12 (1200)
I0509 13:41:42.480311 114364 net.cpp:137] Memory required for data: 30058000
I0509 13:41:42.480322 114364 layer_factory.hpp:77] Creating layer loss
I0509 13:41:42.480330 114364 net.cpp:84] Creating Layer loss
I0509 13:41:42.480334 114364 net.cpp:406] loss <- ip2
I0509 13:41:42.480340 114364 net.cpp:406] loss <- label
I0509 13:41:42.480373 114364 net.cpp:380] loss -> loss
I0509 13:41:42.480402 114364 layer_factory.hpp:77] Creating layer loss
…
