…
I0509 13:41:45.338197 114371 net.cpp:294] The NetState phase (0) differed from the phase (1) specified by a rule in layer accuracy
I0509 13:41:45.338337 114371 net.cpp:51] Initializing net from parameters: 
name: "CIFAR10_quick"
state {
  phase: TRAIN
  level: 0
  stage: ""
}
layer {
  name: "cifar"
  type: "Data"
  top: "data"
  top: "label"
  include {
    phase: TRAIN
  }
  transform_param {
    mean_file: "examples/cifar10/mean.binaryproto"
  }
  data_param {
    source: "examples/cifar10/cifar10_train_lmdb"
    batch_size: 100
    backend: LMDB
  }
}
layer {
  name: "conv1"
  type: "Convolution"
  bottom: "data"
  top: "conv1"
  param {
    lr_mult: 1
  }
  param {
    lr_mult: 2
  }
  convolution_param {
    num_output: 30
    pad: 2
    kernel_size: 5
    stride: 1
    weight_filler {
      type: "gaussian"
      std: 0.0001
    }
    bias_filler {
      type: "constant"
    }
  }
}
layer {
  name: "pool1"
  type: "Pooling"
  bottom: "conv1"
  top: "pool1"
  pooling_param {
    pool: MAX
    kernel_size: 3
    stride: 2
  }
}
layer {
  name: "relu1"
  type: "ReLU"
  bottom: "pool1"
  top: "pool1"
}
layer {
  name: "conv2"
  type: "Convolution"
  bottom: "pool1"
  top: "conv2"
  param {
    lr_mult: 1
  }
  param {
    lr_mult: 2
  }
  convolution_param {
    num_output: 30
    pad: 2
    kernel_size: 5
    stride: 1
    weight_filler {
      type: "gaussian"
      std: 0.01
    }
    bias_filler {
      type: "constant"
    }
  }
}
layer {
  name: "relu2"
  type: "ReLU"
  bottom: "conv2"
  top: "conv2"
}
layer {
  name: "pool2"
  type: "Pooling"
  bottom: "conv2"
  top: "pool2"
  pooling_param {
    pool: AVE
    kernel_size: 3
    stride: 2
  }
}
layer {
  name: "conv3"
  type: "Convolution"
  bottom: "pool2"
  top: "conv3"
  param {
    lr_mult: 1
  }
  param {
    lr_mult: 2
  }
  convolution_param {
    num_output: 60
    pad: 2
    kernel_size: 5
    stride: 1
    weight_filler {
      type: "gaussian"
      std: 0.01
    }
    bias_filler {
      type: "constant"
    }
  }
}
layer {
  name: "relu3"
  type: "ReLU"
  bottom: "conv3"
  top: "conv3"
}
layer {
  name: "pool3"
  type: "Pooling"
  bottom: "conv3"
  top: "pool3"
  pooling_param {
    pool: AVE
    kernel_size: 3
    stride: 2
  }
}
layer {
  name: "ip1"
  type: "InnerProduct"
  bottom: "pool3"
  top: "ip1"
  param {
    lr_mult: 1
  }
  param {
    lr_mult: 2
  }
  inner_product_param {
    num_output: 60
    weight_filler {
      type: "gaussian"
      std: 0.1
    }
    bias_filler {
      type: "constant"
    }
  }
}
layer {
  name: "ip2"
  type: "InnerProduct"
  bottom: "ip1"
  top: "ip2"
  param {
    lr_mult: 1
  }
  param {
    lr_mult: 2
  }
  inner_product_param {
    num_output: 12
    weight_filler {
      type: "gaussian"
      std: 0.1
    }
    bias_filler {
      type: "constant"
    }
  }
}
layer {
  name: "loss"
  type: "SoftmaxWithLoss"
  bottom: "ip2"
  bottom: "label"
  top: "loss"
}
I0509 13:41:45.338425 114371 layer_factory.hpp:77] Creating layer cifar
I0509 13:41:45.338523 114371 db_lmdb.cpp:35] Opened lmdb examples/cifar10/cifar10_train_lmdb
I0509 13:41:45.338558 114371 net.cpp:84] Creating Layer cifar
I0509 13:41:45.338570 114371 net.cpp:380] cifar -> data
I0509 13:41:45.338593 114371 net.cpp:380] cifar -> label
I0509 13:41:45.338608 114371 data_transformer.cpp:25] Loading mean file from: examples/cifar10/mean.binaryproto
I0509 13:41:45.338688 114371 data_layer.cpp:45] output data size: 100,3,32,32
I0509 13:41:45.339221 114371 net.cpp:122] Setting up cifar
I0509 13:41:45.339257 114371 net.cpp:129] Top shape: 100 3 32 32 (307200)
I0509 13:41:45.339263 114371 net.cpp:129] Top shape: 100 (100)
I0509 13:41:45.339268 114371 net.cpp:137] Memory required for data: 1229200
I0509 13:41:45.339277 114371 layer_factory.hpp:77] Creating layer conv1
I0509 13:41:45.339295 114371 net.cpp:84] Creating Layer conv1
I0509 13:41:45.339303 114371 net.cpp:406] conv1 <- data
I0509 13:41:45.339315 114371 net.cpp:380] conv1 -> conv1
I0509 13:41:45.339334 114371 base_conv_layer.cpp:121] Group is 1channel is3number of output is 30
I0509 13:41:45.339404 114371 net.cpp:122] Setting up conv1
I0509 13:41:45.339413 114371 net.cpp:129] Top shape: 100 30 32 32 (3072000)
I0509 13:41:45.339418 114371 net.cpp:137] Memory required for data: 13517200
I0509 13:41:45.339438 114371 layer_factory.hpp:77] Creating layer pool1
I0509 13:41:45.339447 114371 net.cpp:84] Creating Layer pool1
I0509 13:41:45.339452 114371 net.cpp:406] pool1 <- conv1
I0509 13:41:45.339462 114371 net.cpp:380] pool1 -> pool1
I0509 13:41:45.339480 114371 net.cpp:122] Setting up pool1
I0509 13:41:45.339488 114371 net.cpp:129] Top shape: 100 30 16 16 (768000)
I0509 13:41:45.339493 114371 net.cpp:137] Memory required for data: 16589200
I0509 13:41:45.339498 114371 layer_factory.hpp:77] Creating layer relu1
I0509 13:41:45.339505 114371 net.cpp:84] Creating Layer relu1
I0509 13:41:45.339510 114371 net.cpp:406] relu1 <- pool1
I0509 13:41:45.339516 114371 net.cpp:367] relu1 -> pool1 (in-place)
I0509 13:41:45.339524 114371 net.cpp:122] Setting up relu1
I0509 13:41:45.339532 114371 net.cpp:129] Top shape: 100 30 16 16 (768000)
I0509 13:41:45.339536 114371 net.cpp:137] Memory required for data: 19661200
I0509 13:41:45.339540 114371 layer_factory.hpp:77] Creating layer conv2
I0509 13:41:45.339551 114371 net.cpp:84] Creating Layer conv2
I0509 13:41:45.339557 114371 net.cpp:406] conv2 <- pool1
I0509 13:41:45.339565 114371 net.cpp:380] conv2 -> conv2
I0509 13:41:45.339576 114371 base_conv_layer.cpp:121] Group is 1channel is30number of output is 30
I0509 13:41:45.339972 114371 net.cpp:122] Setting up conv2
I0509 13:41:45.339983 114371 net.cpp:129] Top shape: 100 30 16 16 (768000)
I0509 13:41:45.339988 114371 net.cpp:137] Memory required for data: 22733200
I0509 13:41:45.339999 114371 layer_factory.hpp:77] Creating layer relu2
I0509 13:41:45.340005 114371 net.cpp:84] Creating Layer relu2
I0509 13:41:45.340011 114371 net.cpp:406] relu2 <- conv2
I0509 13:41:45.340018 114371 net.cpp:367] relu2 -> conv2 (in-place)
I0509 13:41:45.340025 114371 net.cpp:122] Setting up relu2
I0509 13:41:45.340031 114371 net.cpp:129] Top shape: 100 30 16 16 (768000)
I0509 13:41:45.340044 114371 net.cpp:137] Memory required for data: 25805200
I0509 13:41:45.340049 114371 layer_factory.hpp:77] Creating layer pool2
I0509 13:41:45.340061 114371 net.cpp:84] Creating Layer pool2
I0509 13:41:45.340065 114371 net.cpp:406] pool2 <- conv2
I0509 13:41:45.340073 114371 net.cpp:380] pool2 -> pool2
I0509 13:41:45.340082 114371 net.cpp:122] Setting up pool2
I0509 13:41:45.340090 114371 net.cpp:129] Top shape: 100 30 8 8 (192000)
I0509 13:41:45.340093 114371 net.cpp:137] Memory required for data: 26573200
I0509 13:41:45.340100 114371 layer_factory.hpp:77] Creating layer conv3
I0509 13:41:45.340117 114371 net.cpp:84] Creating Layer conv3
I0509 13:41:45.340122 114371 net.cpp:406] conv3 <- pool2
I0509 13:41:45.340131 114371 net.cpp:380] conv3 -> conv3
I0509 13:41:45.340143 114371 base_conv_layer.cpp:121] Group is 1channel is30number of output is 60
I0509 13:41:45.340920 114371 net.cpp:122] Setting up conv3
I0509 13:41:45.340929 114371 net.cpp:129] Top shape: 100 60 8 8 (384000)
I0509 13:41:45.340934 114371 net.cpp:137] Memory required for data: 28109200
I0509 13:41:45.340946 114371 layer_factory.hpp:77] Creating layer relu3
I0509 13:41:45.340955 114371 net.cpp:84] Creating Layer relu3
I0509 13:41:45.340958 114371 net.cpp:406] relu3 <- conv3
I0509 13:41:45.340965 114371 net.cpp:367] relu3 -> conv3 (in-place)
I0509 13:41:45.340973 114371 net.cpp:122] Setting up relu3
I0509 13:41:45.340979 114371 net.cpp:129] Top shape: 100 60 8 8 (384000)
I0509 13:41:45.340993 114371 net.cpp:137] Memory required for data: 29645200
I0509 13:41:45.340998 114371 layer_factory.hpp:77] Creating layer pool3
I0509 13:41:45.341006 114371 net.cpp:84] Creating Layer pool3
I0509 13:41:45.341012 114371 net.cpp:406] pool3 <- conv3
I0509 13:41:45.341017 114371 net.cpp:380] pool3 -> pool3
I0509 13:41:45.341027 114371 net.cpp:122] Setting up pool3
I0509 13:41:45.341035 114371 net.cpp:129] Top shape: 100 60 4 4 (96000)
I0509 13:41:45.341040 114371 net.cpp:137] Memory required for data: 30029200
I0509 13:41:45.341044 114371 layer_factory.hpp:77] Creating layer ip1
I0509 13:41:45.341056 114371 net.cpp:84] Creating Layer ip1
I0509 13:41:45.341063 114371 net.cpp:406] ip1 <- pool3
I0509 13:41:45.341069 114371 net.cpp:380] ip1 -> ip1
I0509 13:41:45.342046 114371 net.cpp:122] Setting up ip1
I0509 13:41:45.342056 114371 net.cpp:129] Top shape: 100 60 (6000)
I0509 13:41:45.342061 114371 net.cpp:137] Memory required for data: 30053200
I0509 13:41:45.342069 114371 layer_factory.hpp:77] Creating layer ip2
I0509 13:41:45.342079 114371 net.cpp:84] Creating Layer ip2
I0509 13:41:45.342084 114371 net.cpp:406] ip2 <- ip1
I0509 13:41:45.342092 114371 net.cpp:380] ip2 -> ip2
I0509 13:41:45.342121 114371 net.cpp:122] Setting up ip2
I0509 13:41:45.342130 114371 net.cpp:129] Top shape: 100 12 (1200)
I0509 13:41:45.342134 114371 net.cpp:137] Memory required for data: 30058000
I0509 13:41:45.342146 114371 layer_factory.hpp:77] Creating layer loss
I0509 13:41:45.342154 114371 net.cpp:84] Creating Layer loss
I0509 13:41:45.342159 114371 net.cpp:406] loss <- ip2
I0509 13:41:45.342164 114371 net.cpp:406] loss <- label
I0509 13:41:45.342177 114371 net.cpp:380] loss -> loss
I0509 13:41:45.342201 114371 layer_factory.hpp:77] Creating layer loss
…
