…
I0509 13:41:53.613183 114392 net.cpp:294] The NetState phase (0) differed from the phase (1) specified by a rule in layer accuracy
I0509 13:41:53.613327 114392 net.cpp:51] Initializing net from parameters: 
name: "CIFAR10_quick"
state {
  phase: TRAIN
  level: 0
  stage: ""
}
layer {
  name: "cifar"
  type: "Data"
  top: "data"
  top: "label"
  include {
    phase: TRAIN
  }
  transform_param {
    mean_file: "examples/cifar10/mean.binaryproto"
  }
  data_param {
    source: "examples/cifar10/cifar10_train_lmdb"
    batch_size: 100
    backend: LMDB
  }
}
layer {
  name: "conv1"
  type: "Convolution"
  bottom: "data"
  top: "conv1"
  param {
    lr_mult: 1
  }
  param {
    lr_mult: 2
  }
  convolution_param {
    num_output: 30
    pad: 2
    kernel_size: 5
    stride: 1
    weight_filler {
      type: "gaussian"
      std: 0.0001
    }
    bias_filler {
      type: "constant"
    }
  }
}
layer {
  name: "pool1"
  type: "Pooling"
  bottom: "conv1"
  top: "pool1"
  pooling_param {
    pool: MAX
    kernel_size: 3
    stride: 2
  }
}
layer {
  name: "relu1"
  type: "ReLU"
  bottom: "pool1"
  top: "pool1"
}
layer {
  name: "conv2"
  type: "Convolution"
  bottom: "pool1"
  top: "conv2"
  param {
    lr_mult: 1
  }
  param {
    lr_mult: 2
  }
  convolution_param {
    num_output: 30
    pad: 2
    kernel_size: 5
    stride: 1
    weight_filler {
      type: "gaussian"
      std: 0.01
    }
    bias_filler {
      type: "constant"
    }
  }
}
layer {
  name: "relu2"
  type: "ReLU"
  bottom: "conv2"
  top: "conv2"
}
layer {
  name: "pool2"
  type: "Pooling"
  bottom: "conv2"
  top: "pool2"
  pooling_param {
    pool: AVE
    kernel_size: 3
    stride: 2
  }
}
layer {
  name: "conv3"
  type: "Convolution"
  bottom: "pool2"
  top: "conv3"
  param {
    lr_mult: 1
  }
  param {
    lr_mult: 2
  }
  convolution_param {
    num_output: 60
    pad: 2
    kernel_size: 5
    stride: 1
    weight_filler {
      type: "gaussian"
      std: 0.01
    }
    bias_filler {
      type: "constant"
    }
  }
}
layer {
  name: "relu3"
  type: "ReLU"
  bottom: "conv3"
  top: "conv3"
}
layer {
  name: "pool3"
  type: "Pooling"
  bottom: "conv3"
  top: "pool3"
  pooling_param {
    pool: AVE
    kernel_size: 3
    stride: 2
  }
}
layer {
  name: "ip1"
  type: "InnerProduct"
  bottom: "pool3"
  top: "ip1"
  param {
    lr_mult: 1
  }
  param {
    lr_mult: 2
  }
  inner_product_param {
    num_output: 60
    weight_filler {
      type: "gaussian"
      std: 0.1
    }
    bias_filler {
      type: "constant"
    }
  }
}
layer {
  name: "ip2"
  type: "InnerProduct"
  bottom: "ip1"
  top: "ip2"
  param {
    lr_mult: 1
  }
  param {
    lr_mult: 2
  }
  inner_product_param {
    num_output: 12
    weight_filler {
      type: "gaussian"
      std: 0.1
    }
    bias_filler {
      type: "constant"
    }
  }
}
layer {
  name: "loss"
  type: "SoftmaxWithLoss"
  bottom: "ip2"
  bottom: "label"
  top: "loss"
}
I0509 13:41:53.613423 114392 layer_factory.hpp:77] Creating layer cifar
I0509 13:41:53.613525 114392 db_lmdb.cpp:35] Opened lmdb examples/cifar10/cifar10_train_lmdb
I0509 13:41:53.613559 114392 net.cpp:84] Creating Layer cifar
I0509 13:41:53.613572 114392 net.cpp:380] cifar -> data
I0509 13:41:53.613596 114392 net.cpp:380] cifar -> label
I0509 13:41:53.613612 114392 data_transformer.cpp:25] Loading mean file from: examples/cifar10/mean.binaryproto
I0509 13:41:53.613698 114392 data_layer.cpp:45] output data size: 100,3,32,32
     0.061127632            152,236      L1-dcache-load-misses    
     0.061127632          3,196,262      L1-dcache-loads          
I0509 13:41:53.614264 114392 net.cpp:122] Setting up cifar
I0509 13:41:53.614290 114392 net.cpp:129] Top shape: 100 3 32 32 (307200)
I0509 13:41:53.614297 114392 net.cpp:129] Top shape: 100 (100)
I0509 13:41:53.614302 114392 net.cpp:137] Memory required for data: 1229200
I0509 13:41:53.614312 114392 layer_factory.hpp:77] Creating layer conv1
I0509 13:41:53.614331 114392 net.cpp:84] Creating Layer conv1
I0509 13:41:53.614338 114392 net.cpp:406] conv1 <- data
I0509 13:41:53.614352 114392 net.cpp:380] conv1 -> conv1
I0509 13:41:53.614372 114392 base_conv_layer.cpp:121] Group is 1channel is3number of output is 30
I0509 13:41:53.614445 114392 net.cpp:122] Setting up conv1
I0509 13:41:53.614454 114392 net.cpp:129] Top shape: 100 30 32 32 (3072000)
I0509 13:41:53.614459 114392 net.cpp:137] Memory required for data: 13517200
I0509 13:41:53.614481 114392 layer_factory.hpp:77] Creating layer pool1
I0509 13:41:53.614491 114392 net.cpp:84] Creating Layer pool1
I0509 13:41:53.614497 114392 net.cpp:406] pool1 <- conv1
I0509 13:41:53.614506 114392 net.cpp:380] pool1 -> pool1
I0509 13:41:53.614526 114392 net.cpp:122] Setting up pool1
I0509 13:41:53.614533 114392 net.cpp:129] Top shape: 100 30 16 16 (768000)
I0509 13:41:53.614538 114392 net.cpp:137] Memory required for data: 16589200
I0509 13:41:53.614543 114392 layer_factory.hpp:77] Creating layer relu1
I0509 13:41:53.614552 114392 net.cpp:84] Creating Layer relu1
I0509 13:41:53.614557 114392 net.cpp:406] relu1 <- pool1
I0509 13:41:53.614564 114392 net.cpp:367] relu1 -> pool1 (in-place)
I0509 13:41:53.614573 114392 net.cpp:122] Setting up relu1
I0509 13:41:53.614581 114392 net.cpp:129] Top shape: 100 30 16 16 (768000)
I0509 13:41:53.614586 114392 net.cpp:137] Memory required for data: 19661200
I0509 13:41:53.614590 114392 layer_factory.hpp:77] Creating layer conv2
I0509 13:41:53.614603 114392 net.cpp:84] Creating Layer conv2
I0509 13:41:53.614609 114392 net.cpp:406] conv2 <- pool1
I0509 13:41:53.614616 114392 net.cpp:380] conv2 -> conv2
I0509 13:41:53.614629 114392 base_conv_layer.cpp:121] Group is 1channel is30number of output is 30
I0509 13:41:53.615048 114392 net.cpp:122] Setting up conv2
I0509 13:41:53.615059 114392 net.cpp:129] Top shape: 100 30 16 16 (768000)
I0509 13:41:53.615064 114392 net.cpp:137] Memory required for data: 22733200
I0509 13:41:53.615075 114392 layer_factory.hpp:77] Creating layer relu2
I0509 13:41:53.615082 114392 net.cpp:84] Creating Layer relu2
I0509 13:41:53.615088 114392 net.cpp:406] relu2 <- conv2
I0509 13:41:53.615095 114392 net.cpp:367] relu2 -> conv2 (in-place)
I0509 13:41:53.615103 114392 net.cpp:122] Setting up relu2
I0509 13:41:53.615109 114392 net.cpp:129] Top shape: 100 30 16 16 (768000)
I0509 13:41:53.615115 114392 net.cpp:137] Memory required for data: 25805200
I0509 13:41:53.615120 114392 layer_factory.hpp:77] Creating layer pool2
I0509 13:41:53.615128 114392 net.cpp:84] Creating Layer pool2
I0509 13:41:53.615133 114392 net.cpp:406] pool2 <- conv2
I0509 13:41:53.615140 114392 net.cpp:380] pool2 -> pool2
I0509 13:41:53.615150 114392 net.cpp:122] Setting up pool2
I0509 13:41:53.615157 114392 net.cpp:129] Top shape: 100 30 8 8 (192000)
I0509 13:41:53.615169 114392 net.cpp:137] Memory required for data: 26573200
I0509 13:41:53.615175 114392 layer_factory.hpp:77] Creating layer conv3
I0509 13:41:53.615186 114392 net.cpp:84] Creating Layer conv3
I0509 13:41:53.615191 114392 net.cpp:406] conv3 <- pool2
I0509 13:41:53.615200 114392 net.cpp:380] conv3 -> conv3
I0509 13:41:53.615213 114392 base_conv_layer.cpp:121] Group is 1channel is30number of output is 60
I0509 13:41:53.616047 114392 net.cpp:122] Setting up conv3
I0509 13:41:53.616058 114392 net.cpp:129] Top shape: 100 60 8 8 (384000)
I0509 13:41:53.616065 114392 net.cpp:137] Memory required for data: 28109200
I0509 13:41:53.616076 114392 layer_factory.hpp:77] Creating layer relu3
I0509 13:41:53.616084 114392 net.cpp:84] Creating Layer relu3
I0509 13:41:53.616091 114392 net.cpp:406] relu3 <- conv3
I0509 13:41:53.616098 114392 net.cpp:367] relu3 -> conv3 (in-place)
I0509 13:41:53.616123 114392 net.cpp:122] Setting up relu3
I0509 13:41:53.616129 114392 net.cpp:129] Top shape: 100 60 8 8 (384000)
I0509 13:41:53.616143 114392 net.cpp:137] Memory required for data: 29645200
I0509 13:41:53.616148 114392 layer_factory.hpp:77] Creating layer pool3
I0509 13:41:53.616156 114392 net.cpp:84] Creating Layer pool3
I0509 13:41:53.616161 114392 net.cpp:406] pool3 <- conv3
I0509 13:41:53.616168 114392 net.cpp:380] pool3 -> pool3
I0509 13:41:53.616178 114392 net.cpp:122] Setting up pool3
I0509 13:41:53.616185 114392 net.cpp:129] Top shape: 100 60 4 4 (96000)
I0509 13:41:53.616190 114392 net.cpp:137] Memory required for data: 30029200
I0509 13:41:53.616195 114392 layer_factory.hpp:77] Creating layer ip1
I0509 13:41:53.616206 114392 net.cpp:84] Creating Layer ip1
I0509 13:41:53.616212 114392 net.cpp:406] ip1 <- pool3
I0509 13:41:53.616221 114392 net.cpp:380] ip1 -> ip1
I0509 13:41:53.617219 114392 net.cpp:122] Setting up ip1
I0509 13:41:53.617228 114392 net.cpp:129] Top shape: 100 60 (6000)
I0509 13:41:53.617233 114392 net.cpp:137] Memory required for data: 30053200
I0509 13:41:53.617243 114392 layer_factory.hpp:77] Creating layer ip2
I0509 13:41:53.617252 114392 net.cpp:84] Creating Layer ip2
I0509 13:41:53.617257 114392 net.cpp:406] ip2 <- ip1
I0509 13:41:53.617266 114392 net.cpp:380] ip2 -> ip2
I0509 13:41:53.617295 114392 net.cpp:122] Setting up ip2
I0509 13:41:53.617303 114392 net.cpp:129] Top shape: 100 12 (1200)
I0509 13:41:53.617307 114392 net.cpp:137] Memory required for data: 30058000
I0509 13:41:53.617318 114392 layer_factory.hpp:77] Creating layer loss
I0509 13:41:53.617326 114392 net.cpp:84] Creating Layer loss
I0509 13:41:53.617331 114392 net.cpp:406] loss <- ip2
I0509 13:41:53.617337 114392 net.cpp:406] loss <- label
I0509 13:41:53.617352 114392 net.cpp:380] loss -> loss
I0509 13:41:53.617368 114392 layer_factory.hpp:77] Creating layer loss
…
