…
I0509 13:41:50.875037 114385 net.cpp:294] The NetState phase (0) differed from the phase (1) specified by a rule in layer accuracy
I0509 13:41:50.875171 114385 net.cpp:51] Initializing net from parameters: 
name: "CIFAR10_quick"
state {
  phase: TRAIN
  level: 0
  stage: ""
}
layer {
  name: "cifar"
  type: "Data"
  top: "data"
  top: "label"
  include {
    phase: TRAIN
  }
  transform_param {
    mean_file: "examples/cifar10/mean.binaryproto"
  }
  data_param {
    source: "examples/cifar10/cifar10_train_lmdb"
    batch_size: 100
    backend: LMDB
  }
}
layer {
  name: "conv1"
  type: "Convolution"
  bottom: "data"
  top: "conv1"
  param {
    lr_mult: 1
  }
  param {
    lr_mult: 2
  }
  convolution_param {
    num_output: 30
    pad: 2
    kernel_size: 5
    stride: 1
    weight_filler {
      type: "gaussian"
      std: 0.0001
    }
    bias_filler {
      type: "constant"
    }
  }
}
layer {
  name: "pool1"
  type: "Pooling"
  bottom: "conv1"
  top: "pool1"
  pooling_param {
    pool: MAX
    kernel_size: 3
    stride: 2
  }
}
layer {
  name: "relu1"
  type: "ReLU"
  bottom: "pool1"
  top: "pool1"
}
layer {
  name: "conv2"
  type: "Convolution"
  bottom: "pool1"
  top: "conv2"
  param {
    lr_mult: 1
  }
  param {
    lr_mult: 2
  }
  convolution_param {
    num_output: 30
    pad: 2
    kernel_size: 5
    stride: 1
    weight_filler {
      type: "gaussian"
      std: 0.01
    }
    bias_filler {
      type: "constant"
    }
  }
}
layer {
  name: "relu2"
  type: "ReLU"
  bottom: "conv2"
  top: "conv2"
}
layer {
  name: "pool2"
  type: "Pooling"
  bottom: "conv2"
  top: "pool2"
  pooling_param {
    pool: AVE
    kernel_size: 3
    stride: 2
  }
}
layer {
  name: "conv3"
  type: "Convolution"
  bottom: "pool2"
  top: "conv3"
  param {
    lr_mult: 1
  }
  param {
    lr_mult: 2
  }
  convolution_param {
    num_output: 60
    pad: 2
    kernel_size: 5
    stride: 1
    weight_filler {
      type: "gaussian"
      std: 0.01
    }
    bias_filler {
      type: "constant"
    }
  }
}
layer {
  name: "relu3"
  type: "ReLU"
  bottom: "conv3"
  top: "conv3"
}
layer {
  name: "pool3"
  type: "Pooling"
  bottom: "conv3"
  top: "pool3"
  pooling_param {
    pool: AVE
    kernel_size: 3
    stride: 2
  }
}
layer {
  name: "ip1"
  type: "InnerProduct"
  bottom: "pool3"
  top: "ip1"
  param {
    lr_mult: 1
  }
  param {
    lr_mult: 2
  }
  inner_product_param {
    num_output: 60
    weight_filler {
      type: "gaussian"
      std: 0.1
    }
    bias_filler {
      type: "constant"
    }
  }
}
layer {
  name: "ip2"
  type: "InnerProduct"
  bottom: "ip1"
  top: "ip2"
  param {
    lr_mult: 1
  }
  param {
    lr_mult: 2
  }
  inner_product_param {
    num_output: 12
    weight_filler {
      type: "gaussian"
      std: 0.1
    }
    bias_filler {
      type: "constant"
    }
  }
}
layer {
  name: "loss"
  type: "SoftmaxWithLoss"
  bottom: "ip2"
  bottom: "label"
  top: "loss"
}
I0509 13:41:50.875254 114385 layer_factory.hpp:77] Creating layer cifar
I0509 13:41:50.875360 114385 db_lmdb.cpp:35] Opened lmdb examples/cifar10/cifar10_train_lmdb
I0509 13:41:50.875394 114385 net.cpp:84] Creating Layer cifar
I0509 13:41:50.875406 114385 net.cpp:380] cifar -> data
I0509 13:41:50.875428 114385 net.cpp:380] cifar -> label
I0509 13:41:50.875443 114385 data_transformer.cpp:25] Loading mean file from: examples/cifar10/mean.binaryproto
I0509 13:41:50.875524 114385 data_layer.cpp:45] output data size: 100,3,32,32
I0509 13:41:50.876080 114385 net.cpp:122] Setting up cifar
I0509 13:41:50.876111 114385 net.cpp:129] Top shape: 100 3 32 32 (307200)
I0509 13:41:50.876118 114385 net.cpp:129] Top shape: 100 (100)
I0509 13:41:50.876123 114385 net.cpp:137] Memory required for data: 1229200
I0509 13:41:50.876132 114385 layer_factory.hpp:77] Creating layer conv1
I0509 13:41:50.876149 114385 net.cpp:84] Creating Layer conv1
I0509 13:41:50.876157 114385 net.cpp:406] conv1 <- data
I0509 13:41:50.876169 114385 net.cpp:380] conv1 -> conv1
I0509 13:41:50.876188 114385 base_conv_layer.cpp:121] Group is 1channel is3number of output is 30
I0509 13:41:50.876258 114385 net.cpp:122] Setting up conv1
I0509 13:41:50.876266 114385 net.cpp:129] Top shape: 100 30 32 32 (3072000)
I0509 13:41:50.876272 114385 net.cpp:137] Memory required for data: 13517200
I0509 13:41:50.876292 114385 layer_factory.hpp:77] Creating layer pool1
I0509 13:41:50.876303 114385 net.cpp:84] Creating Layer pool1
I0509 13:41:50.876308 114385 net.cpp:406] pool1 <- conv1
I0509 13:41:50.876317 114385 net.cpp:380] pool1 -> pool1
I0509 13:41:50.876333 114385 net.cpp:122] Setting up pool1
I0509 13:41:50.876341 114385 net.cpp:129] Top shape: 100 30 16 16 (768000)
I0509 13:41:50.876345 114385 net.cpp:137] Memory required for data: 16589200
I0509 13:41:50.876350 114385 layer_factory.hpp:77] Creating layer relu1
I0509 13:41:50.876364 114385 net.cpp:84] Creating Layer relu1
I0509 13:41:50.876369 114385 net.cpp:406] relu1 <- pool1
I0509 13:41:50.876376 114385 net.cpp:367] relu1 -> pool1 (in-place)
I0509 13:41:50.876384 114385 net.cpp:122] Setting up relu1
I0509 13:41:50.876391 114385 net.cpp:129] Top shape: 100 30 16 16 (768000)
I0509 13:41:50.876396 114385 net.cpp:137] Memory required for data: 19661200
I0509 13:41:50.876400 114385 layer_factory.hpp:77] Creating layer conv2
I0509 13:41:50.876411 114385 net.cpp:84] Creating Layer conv2
I0509 13:41:50.876416 114385 net.cpp:406] conv2 <- pool1
I0509 13:41:50.876423 114385 net.cpp:380] conv2 -> conv2
I0509 13:41:50.876436 114385 base_conv_layer.cpp:121] Group is 1channel is30number of output is 30
I0509 13:41:50.876832 114385 net.cpp:122] Setting up conv2
I0509 13:41:50.876843 114385 net.cpp:129] Top shape: 100 30 16 16 (768000)
I0509 13:41:50.876848 114385 net.cpp:137] Memory required for data: 22733200
I0509 13:41:50.876858 114385 layer_factory.hpp:77] Creating layer relu2
I0509 13:41:50.876865 114385 net.cpp:84] Creating Layer relu2
I0509 13:41:50.876871 114385 net.cpp:406] relu2 <- conv2
I0509 13:41:50.876878 114385 net.cpp:367] relu2 -> conv2 (in-place)
I0509 13:41:50.876884 114385 net.cpp:122] Setting up relu2
I0509 13:41:50.876890 114385 net.cpp:129] Top shape: 100 30 16 16 (768000)
I0509 13:41:50.876896 114385 net.cpp:137] Memory required for data: 25805200
I0509 13:41:50.876902 114385 layer_factory.hpp:77] Creating layer pool2
I0509 13:41:50.876909 114385 net.cpp:84] Creating Layer pool2
I0509 13:41:50.876914 114385 net.cpp:406] pool2 <- conv2
I0509 13:41:50.876920 114385 net.cpp:380] pool2 -> pool2
I0509 13:41:50.876929 114385 net.cpp:122] Setting up pool2
I0509 13:41:50.876936 114385 net.cpp:129] Top shape: 100 30 8 8 (192000)
I0509 13:41:50.876940 114385 net.cpp:137] Memory required for data: 26573200
I0509 13:41:50.876946 114385 layer_factory.hpp:77] Creating layer conv3
I0509 13:41:50.876956 114385 net.cpp:84] Creating Layer conv3
I0509 13:41:50.876961 114385 net.cpp:406] conv3 <- pool2
I0509 13:41:50.876968 114385 net.cpp:380] conv3 -> conv3
I0509 13:41:50.876981 114385 base_conv_layer.cpp:121] Group is 1channel is30number of output is 60
I0509 13:41:50.877754 114385 net.cpp:122] Setting up conv3
I0509 13:41:50.877764 114385 net.cpp:129] Top shape: 100 60 8 8 (384000)
I0509 13:41:50.877769 114385 net.cpp:137] Memory required for data: 28109200
I0509 13:41:50.877780 114385 layer_factory.hpp:77] Creating layer relu3
I0509 13:41:50.877789 114385 net.cpp:84] Creating Layer relu3
I0509 13:41:50.877794 114385 net.cpp:406] relu3 <- conv3
I0509 13:41:50.877800 114385 net.cpp:367] relu3 -> conv3 (in-place)
I0509 13:41:50.877809 114385 net.cpp:122] Setting up relu3
I0509 13:41:50.877815 114385 net.cpp:129] Top shape: 100 60 8 8 (384000)
I0509 13:41:50.877830 114385 net.cpp:137] Memory required for data: 29645200
I0509 13:41:50.877835 114385 layer_factory.hpp:77] Creating layer pool3
I0509 13:41:50.877842 114385 net.cpp:84] Creating Layer pool3
I0509 13:41:50.877846 114385 net.cpp:406] pool3 <- conv3
I0509 13:41:50.877853 114385 net.cpp:380] pool3 -> pool3
I0509 13:41:50.877862 114385 net.cpp:122] Setting up pool3
I0509 13:41:50.877871 114385 net.cpp:129] Top shape: 100 60 4 4 (96000)
I0509 13:41:50.877876 114385 net.cpp:137] Memory required for data: 30029200
I0509 13:41:50.877879 114385 layer_factory.hpp:77] Creating layer ip1
I0509 13:41:50.877890 114385 net.cpp:84] Creating Layer ip1
I0509 13:41:50.877897 114385 net.cpp:406] ip1 <- pool3
I0509 13:41:50.877905 114385 net.cpp:380] ip1 -> ip1
I0509 13:41:50.878893 114385 net.cpp:122] Setting up ip1
I0509 13:41:50.878903 114385 net.cpp:129] Top shape: 100 60 (6000)
I0509 13:41:50.878909 114385 net.cpp:137] Memory required for data: 30053200
I0509 13:41:50.878918 114385 layer_factory.hpp:77] Creating layer ip2
I0509 13:41:50.878927 114385 net.cpp:84] Creating Layer ip2
I0509 13:41:50.878933 114385 net.cpp:406] ip2 <- ip1
I0509 13:41:50.878942 114385 net.cpp:380] ip2 -> ip2
I0509 13:41:50.878970 114385 net.cpp:122] Setting up ip2
I0509 13:41:50.878979 114385 net.cpp:129] Top shape: 100 12 (1200)
I0509 13:41:50.878984 114385 net.cpp:137] Memory required for data: 30058000
I0509 13:41:50.878995 114385 layer_factory.hpp:77] Creating layer loss
I0509 13:41:50.879004 114385 net.cpp:84] Creating Layer loss
I0509 13:41:50.879007 114385 net.cpp:406] loss <- ip2
I0509 13:41:50.879014 114385 net.cpp:406] loss <- label
I0509 13:41:50.879027 114385 net.cpp:380] loss -> loss
I0509 13:41:50.879048 114385 layer_factory.hpp:77] Creating layer loss
…
