…
I0510 10:09:48.141283 129404 net.cpp:294] The NetState phase (0) differed from the phase (1) specified by a rule in layer accuracy
I0510 10:09:48.141419 129404 net.cpp:51] Initializing net from parameters: 
name: "CIFAR10_quick"
state {
  phase: TRAIN
  level: 0
  stage: ""
}
layer {
  name: "cifar"
  type: "Data"
  top: "data"
  top: "label"
  include {
    phase: TRAIN
  }
  transform_param {
    mean_file: "examples/cifar10/mean.binaryproto"
  }
  data_param {
    source: "examples/cifar10/cifar10_train_lmdb"
    batch_size: 100
    backend: LMDB
  }
}
layer {
  name: "conv1"
  type: "Convolution"
  bottom: "data"
  top: "conv1"
  param {
    lr_mult: 1
  }
  param {
    lr_mult: 2
  }
  convolution_param {
    num_output: 30
    pad: 2
    kernel_size: 5
    stride: 1
    weight_filler {
      type: "gaussian"
      std: 0.0001
    }
    bias_filler {
      type: "constant"
    }
  }
}
layer {
  name: "pool1"
  type: "Pooling"
  bottom: "conv1"
  top: "pool1"
  pooling_param {
    pool: MAX
    kernel_size: 3
    stride: 2
  }
}
layer {
  name: "relu1"
  type: "ReLU"
  bottom: "pool1"
  top: "pool1"
}
layer {
  name: "conv2"
  type: "Convolution"
  bottom: "pool1"
  top: "conv2"
  param {
    lr_mult: 1
  }
  param {
    lr_mult: 2
  }
  convolution_param {
    num_output: 30
    pad: 2
    kernel_size: 5
    stride: 1
    weight_filler {
      type: "gaussian"
      std: 0.01
    }
    bias_filler {
      type: "constant"
    }
  }
}
layer {
  name: "relu2"
  type: "ReLU"
  bottom: "conv2"
  top: "conv2"
}
layer {
  name: "pool2"
  type: "Pooling"
  bottom: "conv2"
  top: "pool2"
  pooling_param {
    pool: AVE
    kernel_size: 3
    stride: 2
  }
}
layer {
  name: "conv3"
  type: "Convolution"
  bottom: "pool2"
  top: "conv3"
  param {
    lr_mult: 1
  }
  param {
    lr_mult: 2
  }
  convolution_param {
    num_output: 60
    pad: 2
    kernel_size: 5
    stride: 1
    weight_filler {
      type: "gaussian"
      std: 0.01
    }
    bias_filler {
      type: "constant"
    }
  }
}
layer {
  name: "relu3"
  type: "ReLU"
  bottom: "conv3"
  top: "conv3"
}
layer {
  name: "pool3"
  type: "Pooling"
  bottom: "conv3"
  top: "pool3"
  pooling_param {
    pool: AVE
    kernel_size: 3
    stride: 2
  }
}
layer {
  name: "ip1"
  type: "InnerProduct"
  bottom: "pool3"
  top: "ip1"
  param {
    lr_mult: 1
  }
  param {
    lr_mult: 2
  }
  inner_product_param {
    num_output: 60
    weight_filler {
      type: "gaussian"
      std: 0.1
    }
    bias_filler {
      type: "constant"
    }
  }
}
layer {
  name: "ip2"
  type: "InnerProduct"
  bottom: "ip1"
  top: "ip2"
  param {
    lr_mult: 1
  }
  param {
    lr_mult: 2
  }
  inner_product_param {
    num_output: 12
    weight_filler {
      type: "gaussian"
      std: 0.1
    }
    bias_filler {
      type: "constant"
    }
  }
}
layer {
  name: "loss"
  type: "SoftmaxWithLoss"
  bottom: "ip2"
  bottom: "label"
  top: "loss"
}
I0510 10:09:48.141501 129404 layer_factory.hpp:77] Creating layer cifar
I0510 10:09:48.141600 129404 db_lmdb.cpp:35] Opened lmdb examples/cifar10/cifar10_train_lmdb
I0510 10:09:48.141633 129404 net.cpp:84] Creating Layer cifar
I0510 10:09:48.141644 129404 net.cpp:380] cifar -> data
I0510 10:09:48.141665 129404 net.cpp:380] cifar -> label
I0510 10:09:48.141680 129404 data_transformer.cpp:25] Loading mean file from: examples/cifar10/mean.binaryproto
I0510 10:09:48.141762 129404 data_layer.cpp:45] output data size: 100,3,32,32
I0510 10:09:48.142304 129404 net.cpp:122] Setting up cifar
I0510 10:09:48.142328 129404 net.cpp:129] Top shape: 100 3 32 32 (307200)
I0510 10:09:48.142335 129404 net.cpp:129] Top shape: 100 (100)
I0510 10:09:48.142339 129404 net.cpp:137] Memory required for data: 1229200
I0510 10:09:48.142349 129404 layer_factory.hpp:77] Creating layer conv1
I0510 10:09:48.142366 129404 net.cpp:84] Creating Layer conv1
I0510 10:09:48.142374 129404 net.cpp:406] conv1 <- data
I0510 10:09:48.142386 129404 net.cpp:380] conv1 -> conv1
I0510 10:09:48.142405 129404 base_conv_layer.cpp:121] Group is 1channel is3number of output is 30
I0510 10:09:48.142473 129404 net.cpp:122] Setting up conv1
I0510 10:09:48.142482 129404 net.cpp:129] Top shape: 100 30 32 32 (3072000)
I0510 10:09:48.142488 129404 net.cpp:137] Memory required for data: 13517200
I0510 10:09:48.142508 129404 layer_factory.hpp:77] Creating layer pool1
I0510 10:09:48.142516 129404 net.cpp:84] Creating Layer pool1
I0510 10:09:48.142521 129404 net.cpp:406] pool1 <- conv1
I0510 10:09:48.142531 129404 net.cpp:380] pool1 -> pool1
I0510 10:09:48.142549 129404 net.cpp:122] Setting up pool1
I0510 10:09:48.142556 129404 net.cpp:129] Top shape: 100 30 16 16 (768000)
I0510 10:09:48.142561 129404 net.cpp:137] Memory required for data: 16589200
I0510 10:09:48.142566 129404 layer_factory.hpp:77] Creating layer relu1
I0510 10:09:48.142573 129404 net.cpp:84] Creating Layer relu1
I0510 10:09:48.142578 129404 net.cpp:406] relu1 <- pool1
I0510 10:09:48.142585 129404 net.cpp:367] relu1 -> pool1 (in-place)
I0510 10:09:48.142592 129404 net.cpp:122] Setting up relu1
I0510 10:09:48.142601 129404 net.cpp:129] Top shape: 100 30 16 16 (768000)
I0510 10:09:48.142606 129404 net.cpp:137] Memory required for data: 19661200
I0510 10:09:48.142611 129404 layer_factory.hpp:77] Creating layer conv2
I0510 10:09:48.142621 129404 net.cpp:84] Creating Layer conv2
I0510 10:09:48.142627 129404 net.cpp:406] conv2 <- pool1
I0510 10:09:48.142633 129404 net.cpp:380] conv2 -> conv2
I0510 10:09:48.142645 129404 base_conv_layer.cpp:121] Group is 1channel is30number of output is 30
I0510 10:09:48.143045 129404 net.cpp:122] Setting up conv2
I0510 10:09:48.143055 129404 net.cpp:129] Top shape: 100 30 16 16 (768000)
I0510 10:09:48.143059 129404 net.cpp:137] Memory required for data: 22733200
I0510 10:09:48.143069 129404 layer_factory.hpp:77] Creating layer relu2
I0510 10:09:48.143076 129404 net.cpp:84] Creating Layer relu2
I0510 10:09:48.143082 129404 net.cpp:406] relu2 <- conv2
I0510 10:09:48.143088 129404 net.cpp:367] relu2 -> conv2 (in-place)
I0510 10:09:48.143095 129404 net.cpp:122] Setting up relu2
I0510 10:09:48.143102 129404 net.cpp:129] Top shape: 100 30 16 16 (768000)
I0510 10:09:48.143108 129404 net.cpp:137] Memory required for data: 25805200
I0510 10:09:48.143112 129404 layer_factory.hpp:77] Creating layer pool2
I0510 10:09:48.143118 129404 net.cpp:84] Creating Layer pool2
I0510 10:09:48.143123 129404 net.cpp:406] pool2 <- conv2
I0510 10:09:48.143131 129404 net.cpp:380] pool2 -> pool2
I0510 10:09:48.143139 129404 net.cpp:122] Setting up pool2
I0510 10:09:48.143146 129404 net.cpp:129] Top shape: 100 30 8 8 (192000)
I0510 10:09:48.143151 129404 net.cpp:137] Memory required for data: 26573200
I0510 10:09:48.143155 129404 layer_factory.hpp:77] Creating layer conv3
I0510 10:09:48.143165 129404 net.cpp:84] Creating Layer conv3
I0510 10:09:48.143169 129404 net.cpp:406] conv3 <- pool2
I0510 10:09:48.143177 129404 net.cpp:380] conv3 -> conv3
I0510 10:09:48.143190 129404 base_conv_layer.cpp:121] Group is 1channel is30number of output is 60
I0510 10:09:48.143961 129404 net.cpp:122] Setting up conv3
I0510 10:09:48.143970 129404 net.cpp:129] Top shape: 100 60 8 8 (384000)
I0510 10:09:48.143975 129404 net.cpp:137] Memory required for data: 28109200
I0510 10:09:48.143985 129404 layer_factory.hpp:77] Creating layer relu3
I0510 10:09:48.143993 129404 net.cpp:84] Creating Layer relu3
I0510 10:09:48.143997 129404 net.cpp:406] relu3 <- conv3
I0510 10:09:48.144003 129404 net.cpp:367] relu3 -> conv3 (in-place)
I0510 10:09:48.144011 129404 net.cpp:122] Setting up relu3
I0510 10:09:48.144022 129404 net.cpp:129] Top shape: 100 60 8 8 (384000)
I0510 10:09:48.144033 129404 net.cpp:137] Memory required for data: 29645200
I0510 10:09:48.144055 129404 layer_factory.hpp:77] Creating layer pool3
I0510 10:09:48.144063 129404 net.cpp:84] Creating Layer pool3
I0510 10:09:48.144068 129404 net.cpp:406] pool3 <- conv3
I0510 10:09:48.144074 129404 net.cpp:380] pool3 -> pool3
I0510 10:09:48.144084 129404 net.cpp:122] Setting up pool3
I0510 10:09:48.144093 129404 net.cpp:129] Top shape: 100 60 4 4 (96000)
I0510 10:09:48.144096 129404 net.cpp:137] Memory required for data: 30029200
I0510 10:09:48.144101 129404 layer_factory.hpp:77] Creating layer ip1
I0510 10:09:48.144112 129404 net.cpp:84] Creating Layer ip1
I0510 10:09:48.144119 129404 net.cpp:406] ip1 <- pool3
I0510 10:09:48.144126 129404 net.cpp:380] ip1 -> ip1
I0510 10:09:48.145078 129404 net.cpp:122] Setting up ip1
I0510 10:09:48.145087 129404 net.cpp:129] Top shape: 100 60 (6000)
I0510 10:09:48.145092 129404 net.cpp:137] Memory required for data: 30053200
I0510 10:09:48.145099 129404 layer_factory.hpp:77] Creating layer ip2
I0510 10:09:48.145108 129404 net.cpp:84] Creating Layer ip2
I0510 10:09:48.145113 129404 net.cpp:406] ip2 <- ip1
I0510 10:09:48.145122 129404 net.cpp:380] ip2 -> ip2
I0510 10:09:48.145148 129404 net.cpp:122] Setting up ip2
I0510 10:09:48.145156 129404 net.cpp:129] Top shape: 100 12 (1200)
I0510 10:09:48.145160 129404 net.cpp:137] Memory required for data: 30058000
I0510 10:09:48.145171 129404 layer_factory.hpp:77] Creating layer loss
I0510 10:09:48.145177 129404 net.cpp:84] Creating Layer loss
I0510 10:09:48.145182 129404 net.cpp:406] loss <- ip2
I0510 10:09:48.145187 129404 net.cpp:406] loss <- label
I0510 10:09:48.145200 129404 net.cpp:380] loss -> loss
I0510 10:09:48.145241 129404 layer_factory.hpp:77] Creating layer loss
…
