…
I0510 10:10:11.037042 129425 net.cpp:294] The NetState phase (0) differed from the phase (1) specified by a rule in layer accuracy
I0510 10:10:11.037187 129425 net.cpp:51] Initializing net from parameters: 
name: "CIFAR10_quick"
state {
  phase: TRAIN
  level: 0
  stage: ""
}
layer {
  name: "cifar"
  type: "Data"
  top: "data"
  top: "label"
  include {
    phase: TRAIN
  }
  transform_param {
    mean_file: "examples/cifar10/mean.binaryproto"
  }
  data_param {
    source: "examples/cifar10/cifar10_train_lmdb"
    batch_size: 100
    backend: LMDB
  }
}
layer {
  name: "conv1"
  type: "Convolution"
  bottom: "data"
  top: "conv1"
  param {
    lr_mult: 1
  }
  param {
    lr_mult: 2
  }
  convolution_param {
    num_output: 30
    pad: 2
    kernel_size: 5
    stride: 1
    weight_filler {
      type: "gaussian"
      std: 0.0001
    }
    bias_filler {
      type: "constant"
    }
  }
}
layer {
  name: "pool1"
  type: "Pooling"
  bottom: "conv1"
  top: "pool1"
  pooling_param {
    pool: MAX
    kernel_size: 3
    stride: 2
  }
}
layer {
  name: "relu1"
  type: "ReLU"
  bottom: "pool1"
  top: "pool1"
}
layer {
  name: "conv2"
  type: "Convolution"
  bottom: "pool1"
  top: "conv2"
  param {
    lr_mult: 1
  }
  param {
    lr_mult: 2
  }
  convolution_param {
    num_output: 30
    pad: 2
    kernel_size: 5
    stride: 1
    weight_filler {
      type: "gaussian"
      std: 0.01
    }
    bias_filler {
      type: "constant"
    }
  }
}
layer {
  name: "relu2"
  type: "ReLU"
  bottom: "conv2"
  top: "conv2"
}
layer {
  name: "pool2"
  type: "Pooling"
  bottom: "conv2"
  top: "pool2"
  pooling_param {
    pool: AVE
    kernel_size: 3
    stride: 2
  }
}
layer {
  name: "conv3"
  type: "Convolution"
  bottom: "pool2"
  top: "conv3"
  param {
    lr_mult: 1
  }
  param {
    lr_mult: 2
  }
  convolution_param {
    num_output: 60
    pad: 2
    kernel_size: 5
    stride: 1
    weight_filler {
      type: "gaussian"
      std: 0.01
    }
    bias_filler {
      type: "constant"
    }
  }
}
layer {
  name: "relu3"
  type: "ReLU"
  bottom: "conv3"
  top: "conv3"
}
layer {
  name: "pool3"
  type: "Pooling"
  bottom: "conv3"
  top: "pool3"
  pooling_param {
    pool: AVE
    kernel_size: 3
    stride: 2
  }
}
layer {
  name: "ip1"
  type: "InnerProduct"
  bottom: "pool3"
  top: "ip1"
  param {
    lr_mult: 1
  }
  param {
    lr_mult: 2
  }
  inner_product_param {
    num_output: 60
    weight_filler {
      type: "gaussian"
      std: 0.1
    }
    bias_filler {
      type: "constant"
    }
  }
}
layer {
  name: "ip2"
  type: "InnerProduct"
  bottom: "ip1"
  top: "ip2"
  param {
    lr_mult: 1
  }
  param {
    lr_mult: 2
  }
  inner_product_param {
    num_output: 12
    weight_filler {
      type: "gaussian"
      std: 0.1
    }
    bias_filler {
      type: "constant"
    }
  }
}
layer {
  name: "loss"
  type: "SoftmaxWithLoss"
  bottom: "ip2"
  bottom: "label"
  top: "loss"
}
I0510 10:10:11.037276 129425 layer_factory.hpp:77] Creating layer cifar
I0510 10:10:11.037377 129425 db_lmdb.cpp:35] Opened lmdb examples/cifar10/cifar10_train_lmdb
I0510 10:10:11.037410 129425 net.cpp:84] Creating Layer cifar
I0510 10:10:11.037421 129425 net.cpp:380] cifar -> data
I0510 10:10:11.037446 129425 net.cpp:380] cifar -> label
I0510 10:10:11.037461 129425 data_transformer.cpp:25] Loading mean file from: examples/cifar10/mean.binaryproto
I0510 10:10:11.037547 129425 data_layer.cpp:45] output data size: 100,3,32,32
I0510 10:10:11.038118 129425 net.cpp:122] Setting up cifar
I0510 10:10:11.038143 129425 net.cpp:129] Top shape: 100 3 32 32 (307200)
I0510 10:10:11.038151 129425 net.cpp:129] Top shape: 100 (100)
I0510 10:10:11.038156 129425 net.cpp:137] Memory required for data: 1229200
I0510 10:10:11.038166 129425 layer_factory.hpp:77] Creating layer conv1
I0510 10:10:11.038183 129425 net.cpp:84] Creating Layer conv1
I0510 10:10:11.038190 129425 net.cpp:406] conv1 <- data
I0510 10:10:11.038205 129425 net.cpp:380] conv1 -> conv1
I0510 10:10:11.038225 129425 base_conv_layer.cpp:121] Group is 1channel is3number of output is 30
I0510 10:10:11.038296 129425 net.cpp:122] Setting up conv1
I0510 10:10:11.038305 129425 net.cpp:129] Top shape: 100 30 32 32 (3072000)
I0510 10:10:11.038311 129425 net.cpp:137] Memory required for data: 13517200
I0510 10:10:11.038331 129425 layer_factory.hpp:77] Creating layer pool1
I0510 10:10:11.038342 129425 net.cpp:84] Creating Layer pool1
I0510 10:10:11.038347 129425 net.cpp:406] pool1 <- conv1
I0510 10:10:11.038355 129425 net.cpp:380] pool1 -> pool1
I0510 10:10:11.038373 129425 net.cpp:122] Setting up pool1
I0510 10:10:11.038381 129425 net.cpp:129] Top shape: 100 30 16 16 (768000)
I0510 10:10:11.038386 129425 net.cpp:137] Memory required for data: 16589200
I0510 10:10:11.038391 129425 layer_factory.hpp:77] Creating layer relu1
I0510 10:10:11.038399 129425 net.cpp:84] Creating Layer relu1
I0510 10:10:11.038404 129425 net.cpp:406] relu1 <- pool1
I0510 10:10:11.038411 129425 net.cpp:367] relu1 -> pool1 (in-place)
I0510 10:10:11.038419 129425 net.cpp:122] Setting up relu1
I0510 10:10:11.038427 129425 net.cpp:129] Top shape: 100 30 16 16 (768000)
I0510 10:10:11.038434 129425 net.cpp:137] Memory required for data: 19661200
I0510 10:10:11.038439 129425 layer_factory.hpp:77] Creating layer conv2
I0510 10:10:11.038450 129425 net.cpp:84] Creating Layer conv2
I0510 10:10:11.038456 129425 net.cpp:406] conv2 <- pool1
I0510 10:10:11.038465 129425 net.cpp:380] conv2 -> conv2
I0510 10:10:11.038478 129425 base_conv_layer.cpp:121] Group is 1channel is30number of output is 30
I0510 10:10:11.038898 129425 net.cpp:122] Setting up conv2
I0510 10:10:11.038909 129425 net.cpp:129] Top shape: 100 30 16 16 (768000)
I0510 10:10:11.038914 129425 net.cpp:137] Memory required for data: 22733200
I0510 10:10:11.038926 129425 layer_factory.hpp:77] Creating layer relu2
I0510 10:10:11.038933 129425 net.cpp:84] Creating Layer relu2
I0510 10:10:11.038939 129425 net.cpp:406] relu2 <- conv2
I0510 10:10:11.038946 129425 net.cpp:367] relu2 -> conv2 (in-place)
I0510 10:10:11.038954 129425 net.cpp:122] Setting up relu2
I0510 10:10:11.038959 129425 net.cpp:129] Top shape: 100 30 16 16 (768000)
I0510 10:10:11.038965 129425 net.cpp:137] Memory required for data: 25805200
I0510 10:10:11.038970 129425 layer_factory.hpp:77] Creating layer pool2
I0510 10:10:11.038977 129425 net.cpp:84] Creating Layer pool2
I0510 10:10:11.038981 129425 net.cpp:406] pool2 <- conv2
I0510 10:10:11.038990 129425 net.cpp:380] pool2 -> pool2
I0510 10:10:11.039000 129425 net.cpp:122] Setting up pool2
I0510 10:10:11.039006 129425 net.cpp:129] Top shape: 100 30 8 8 (192000)
I0510 10:10:11.039011 129425 net.cpp:137] Memory required for data: 26573200
I0510 10:10:11.039016 129425 layer_factory.hpp:77] Creating layer conv3
I0510 10:10:11.039027 129425 net.cpp:84] Creating Layer conv3
I0510 10:10:11.039032 129425 net.cpp:406] conv3 <- pool2
I0510 10:10:11.039039 129425 net.cpp:380] conv3 -> conv3
I0510 10:10:11.039052 129425 base_conv_layer.cpp:121] Group is 1channel is30number of output is 60
I0510 10:10:11.039867 129425 net.cpp:122] Setting up conv3
I0510 10:10:11.039877 129425 net.cpp:129] Top shape: 100 60 8 8 (384000)
I0510 10:10:11.039882 129425 net.cpp:137] Memory required for data: 28109200
I0510 10:10:11.039894 129425 layer_factory.hpp:77] Creating layer relu3
I0510 10:10:11.039903 129425 net.cpp:84] Creating Layer relu3
I0510 10:10:11.039908 129425 net.cpp:406] relu3 <- conv3
I0510 10:10:11.039914 129425 net.cpp:367] relu3 -> conv3 (in-place)
I0510 10:10:11.039923 129425 net.cpp:122] Setting up relu3
I0510 10:10:11.039935 129425 net.cpp:129] Top shape: 100 60 8 8 (384000)
I0510 10:10:11.039948 129425 net.cpp:137] Memory required for data: 29645200
I0510 10:10:11.039953 129425 layer_factory.hpp:77] Creating layer pool3
I0510 10:10:11.039961 129425 net.cpp:84] Creating Layer pool3
I0510 10:10:11.039965 129425 net.cpp:406] pool3 <- conv3
I0510 10:10:11.039973 129425 net.cpp:380] pool3 -> pool3
I0510 10:10:11.039983 129425 net.cpp:122] Setting up pool3
I0510 10:10:11.039990 129425 net.cpp:129] Top shape: 100 60 4 4 (96000)
I0510 10:10:11.039995 129425 net.cpp:137] Memory required for data: 30029200
I0510 10:10:11.039999 129425 layer_factory.hpp:77] Creating layer ip1
I0510 10:10:11.040011 129425 net.cpp:84] Creating Layer ip1
I0510 10:10:11.040017 129425 net.cpp:406] ip1 <- pool3
I0510 10:10:11.040025 129425 net.cpp:380] ip1 -> ip1
I0510 10:10:11.041082 129425 net.cpp:122] Setting up ip1
I0510 10:10:11.041095 129425 net.cpp:129] Top shape: 100 60 (6000)
I0510 10:10:11.041100 129425 net.cpp:137] Memory required for data: 30053200
I0510 10:10:11.041110 129425 layer_factory.hpp:77] Creating layer ip2
I0510 10:10:11.041119 129425 net.cpp:84] Creating Layer ip2
I0510 10:10:11.041126 129425 net.cpp:406] ip2 <- ip1
I0510 10:10:11.041134 129425 net.cpp:380] ip2 -> ip2
I0510 10:10:11.041167 129425 net.cpp:122] Setting up ip2
I0510 10:10:11.041174 129425 net.cpp:129] Top shape: 100 12 (1200)
I0510 10:10:11.041179 129425 net.cpp:137] Memory required for data: 30058000
I0510 10:10:11.041191 129425 layer_factory.hpp:77] Creating layer loss
I0510 10:10:11.041199 129425 net.cpp:84] Creating Layer loss
I0510 10:10:11.041206 129425 net.cpp:406] loss <- ip2
I0510 10:10:11.041213 129425 net.cpp:406] loss <- label
I0510 10:10:11.041231 129425 net.cpp:380] loss -> loss
I0510 10:10:11.041275 129425 layer_factory.hpp:77] Creating layer loss
…
