…
I0510 10:09:55.780707 129411 net.cpp:294] The NetState phase (0) differed from the phase (1) specified by a rule in layer accuracy
I0510 10:09:55.780836 129411 net.cpp:51] Initializing net from parameters: 
name: "CIFAR10_quick"
state {
  phase: TRAIN
  level: 0
  stage: ""
}
layer {
  name: "cifar"
  type: "Data"
  top: "data"
  top: "label"
  include {
    phase: TRAIN
  }
  transform_param {
    mean_file: "examples/cifar10/mean.binaryproto"
  }
  data_param {
    source: "examples/cifar10/cifar10_train_lmdb"
    batch_size: 100
    backend: LMDB
  }
}
layer {
  name: "conv1"
  type: "Convolution"
  bottom: "data"
  top: "conv1"
  param {
    lr_mult: 1
  }
  param {
    lr_mult: 2
  }
  convolution_param {
    num_output: 30
    pad: 2
    kernel_size: 5
    stride: 1
    weight_filler {
      type: "gaussian"
      std: 0.0001
    }
    bias_filler {
      type: "constant"
    }
  }
}
layer {
  name: "pool1"
  type: "Pooling"
  bottom: "conv1"
  top: "pool1"
  pooling_param {
    pool: MAX
    kernel_size: 3
    stride: 2
  }
}
layer {
  name: "relu1"
  type: "ReLU"
  bottom: "pool1"
  top: "pool1"
}
layer {
  name: "conv2"
  type: "Convolution"
  bottom: "pool1"
  top: "conv2"
  param {
    lr_mult: 1
  }
  param {
    lr_mult: 2
  }
  convolution_param {
    num_output: 30
    pad: 2
    kernel_size: 5
    stride: 1
    weight_filler {
      type: "gaussian"
      std: 0.01
    }
    bias_filler {
      type: "constant"
    }
  }
}
layer {
  name: "relu2"
  type: "ReLU"
  bottom: "conv2"
  top: "conv2"
}
layer {
  name: "pool2"
  type: "Pooling"
  bottom: "conv2"
  top: "pool2"
  pooling_param {
    pool: AVE
    kernel_size: 3
    stride: 2
  }
}
layer {
  name: "conv3"
  type: "Convolution"
  bottom: "pool2"
  top: "conv3"
  param {
    lr_mult: 1
  }
  param {
    lr_mult: 2
  }
  convolution_param {
    num_output: 60
    pad: 2
    kernel_size: 5
    stride: 1
    weight_filler {
      type: "gaussian"
      std: 0.01
    }
    bias_filler {
      type: "constant"
    }
  }
}
layer {
  name: "relu3"
  type: "ReLU"
  bottom: "conv3"
  top: "conv3"
}
layer {
  name: "pool3"
  type: "Pooling"
  bottom: "conv3"
  top: "pool3"
  pooling_param {
    pool: AVE
    kernel_size: 3
    stride: 2
  }
}
layer {
  name: "ip1"
  type: "InnerProduct"
  bottom: "pool3"
  top: "ip1"
  param {
    lr_mult: 1
  }
  param {
    lr_mult: 2
  }
  inner_product_param {
    num_output: 60
    weight_filler {
      type: "gaussian"
      std: 0.1
    }
    bias_filler {
      type: "constant"
    }
  }
}
layer {
  name: "ip2"
  type: "InnerProduct"
  bottom: "ip1"
  top: "ip2"
  param {
    lr_mult: 1
  }
  param {
    lr_mult: 2
  }
  inner_product_param {
    num_output: 12
    weight_filler {
      type: "gaussian"
      std: 0.1
    }
    bias_filler {
      type: "constant"
    }
  }
}
layer {
  name: "loss"
  type: "SoftmaxWithLoss"
  bottom: "ip2"
  bottom: "label"
  top: "loss"
}
I0510 10:09:55.780911 129411 layer_factory.hpp:77] Creating layer cifar
I0510 10:09:55.781004 129411 db_lmdb.cpp:35] Opened lmdb examples/cifar10/cifar10_train_lmdb
I0510 10:09:55.781034 129411 net.cpp:84] Creating Layer cifar
I0510 10:09:55.781045 129411 net.cpp:380] cifar -> data
I0510 10:09:55.781066 129411 net.cpp:380] cifar -> label
I0510 10:09:55.781080 129411 data_transformer.cpp:25] Loading mean file from: examples/cifar10/mean.binaryproto
I0510 10:09:55.781155 129411 data_layer.cpp:45] output data size: 100,3,32,32
I0510 10:09:55.781677 129411 net.cpp:122] Setting up cifar
I0510 10:09:55.781700 129411 net.cpp:129] Top shape: 100 3 32 32 (307200)
I0510 10:09:55.781708 129411 net.cpp:129] Top shape: 100 (100)
I0510 10:09:55.781711 129411 net.cpp:137] Memory required for data: 1229200
I0510 10:09:55.781720 129411 layer_factory.hpp:77] Creating layer conv1
I0510 10:09:55.781736 129411 net.cpp:84] Creating Layer conv1
I0510 10:09:55.781743 129411 net.cpp:406] conv1 <- data
I0510 10:09:55.781755 129411 net.cpp:380] conv1 -> conv1
I0510 10:09:55.781774 129411 base_conv_layer.cpp:121] Group is 1channel is3number of output is 30
I0510 10:09:55.781837 129411 net.cpp:122] Setting up conv1
I0510 10:09:55.781846 129411 net.cpp:129] Top shape: 100 30 32 32 (3072000)
I0510 10:09:55.781850 129411 net.cpp:137] Memory required for data: 13517200
I0510 10:09:55.781869 129411 layer_factory.hpp:77] Creating layer pool1
I0510 10:09:55.781879 129411 net.cpp:84] Creating Layer pool1
I0510 10:09:55.781884 129411 net.cpp:406] pool1 <- conv1
I0510 10:09:55.781891 129411 net.cpp:380] pool1 -> pool1
I0510 10:09:55.781908 129411 net.cpp:122] Setting up pool1
I0510 10:09:55.781915 129411 net.cpp:129] Top shape: 100 30 16 16 (768000)
I0510 10:09:55.781919 129411 net.cpp:137] Memory required for data: 16589200
I0510 10:09:55.781924 129411 layer_factory.hpp:77] Creating layer relu1
I0510 10:09:55.781931 129411 net.cpp:84] Creating Layer relu1
I0510 10:09:55.781935 129411 net.cpp:406] relu1 <- pool1
I0510 10:09:55.781941 129411 net.cpp:367] relu1 -> pool1 (in-place)
I0510 10:09:55.781949 129411 net.cpp:122] Setting up relu1
I0510 10:09:55.781956 129411 net.cpp:129] Top shape: 100 30 16 16 (768000)
I0510 10:09:55.781961 129411 net.cpp:137] Memory required for data: 19661200
I0510 10:09:55.781965 129411 layer_factory.hpp:77] Creating layer conv2
I0510 10:09:55.781975 129411 net.cpp:84] Creating Layer conv2
I0510 10:09:55.781980 129411 net.cpp:406] conv2 <- pool1
I0510 10:09:55.781987 129411 net.cpp:380] conv2 -> conv2
I0510 10:09:55.781999 129411 base_conv_layer.cpp:121] Group is 1channel is30number of output is 30
I0510 10:09:55.782377 129411 net.cpp:122] Setting up conv2
I0510 10:09:55.782385 129411 net.cpp:129] Top shape: 100 30 16 16 (768000)
I0510 10:09:55.782390 129411 net.cpp:137] Memory required for data: 22733200
I0510 10:09:55.782399 129411 layer_factory.hpp:77] Creating layer relu2
I0510 10:09:55.782405 129411 net.cpp:84] Creating Layer relu2
I0510 10:09:55.782411 129411 net.cpp:406] relu2 <- conv2
I0510 10:09:55.782418 129411 net.cpp:367] relu2 -> conv2 (in-place)
I0510 10:09:55.782424 129411 net.cpp:122] Setting up relu2
I0510 10:09:55.782430 129411 net.cpp:129] Top shape: 100 30 16 16 (768000)
I0510 10:09:55.782435 129411 net.cpp:137] Memory required for data: 25805200
I0510 10:09:55.782439 129411 layer_factory.hpp:77] Creating layer pool2
I0510 10:09:55.782445 129411 net.cpp:84] Creating Layer pool2
I0510 10:09:55.782449 129411 net.cpp:406] pool2 <- conv2
I0510 10:09:55.782456 129411 net.cpp:380] pool2 -> pool2
I0510 10:09:55.782465 129411 net.cpp:122] Setting up pool2
I0510 10:09:55.782471 129411 net.cpp:129] Top shape: 100 30 8 8 (192000)
I0510 10:09:55.782475 129411 net.cpp:137] Memory required for data: 26573200
I0510 10:09:55.782480 129411 layer_factory.hpp:77] Creating layer conv3
I0510 10:09:55.782490 129411 net.cpp:84] Creating Layer conv3
I0510 10:09:55.782495 129411 net.cpp:406] conv3 <- pool2
I0510 10:09:55.782502 129411 net.cpp:380] conv3 -> conv3
I0510 10:09:55.782513 129411 base_conv_layer.cpp:121] Group is 1channel is30number of output is 60
I0510 10:09:55.783243 129411 net.cpp:122] Setting up conv3
I0510 10:09:55.783252 129411 net.cpp:129] Top shape: 100 60 8 8 (384000)
I0510 10:09:55.783255 129411 net.cpp:137] Memory required for data: 28109200
I0510 10:09:55.783267 129411 layer_factory.hpp:77] Creating layer relu3
I0510 10:09:55.783273 129411 net.cpp:84] Creating Layer relu3
I0510 10:09:55.783277 129411 net.cpp:406] relu3 <- conv3
I0510 10:09:55.783283 129411 net.cpp:367] relu3 -> conv3 (in-place)
I0510 10:09:55.783290 129411 net.cpp:122] Setting up relu3
I0510 10:09:55.783301 129411 net.cpp:129] Top shape: 100 60 8 8 (384000)
I0510 10:09:55.783311 129411 net.cpp:137] Memory required for data: 29645200
I0510 10:09:55.783316 129411 layer_factory.hpp:77] Creating layer pool3
I0510 10:09:55.783324 129411 net.cpp:84] Creating Layer pool3
I0510 10:09:55.783327 129411 net.cpp:406] pool3 <- conv3
I0510 10:09:55.783334 129411 net.cpp:380] pool3 -> pool3
I0510 10:09:55.783341 129411 net.cpp:122] Setting up pool3
I0510 10:09:55.783349 129411 net.cpp:129] Top shape: 100 60 4 4 (96000)
I0510 10:09:55.783354 129411 net.cpp:137] Memory required for data: 30029200
I0510 10:09:55.783357 129411 layer_factory.hpp:77] Creating layer ip1
I0510 10:09:55.783367 129411 net.cpp:84] Creating Layer ip1
I0510 10:09:55.783372 129411 net.cpp:406] ip1 <- pool3
I0510 10:09:55.783380 129411 net.cpp:380] ip1 -> ip1
I0510 10:09:55.784354 129411 net.cpp:122] Setting up ip1
I0510 10:09:55.784368 129411 net.cpp:129] Top shape: 100 60 (6000)
I0510 10:09:55.784373 129411 net.cpp:137] Memory required for data: 30053200
I0510 10:09:55.784380 129411 layer_factory.hpp:77] Creating layer ip2
I0510 10:09:55.784390 129411 net.cpp:84] Creating Layer ip2
I0510 10:09:55.784395 129411 net.cpp:406] ip2 <- ip1
I0510 10:09:55.784404 129411 net.cpp:380] ip2 -> ip2
I0510 10:09:55.784432 129411 net.cpp:122] Setting up ip2
I0510 10:09:55.784440 129411 net.cpp:129] Top shape: 100 12 (1200)
I0510 10:09:55.784445 129411 net.cpp:137] Memory required for data: 30058000
I0510 10:09:55.784456 129411 layer_factory.hpp:77] Creating layer loss
I0510 10:09:55.784462 129411 net.cpp:84] Creating Layer loss
I0510 10:09:55.784466 129411 net.cpp:406] loss <- ip2
I0510 10:09:55.784472 129411 net.cpp:406] loss <- label
I0510 10:09:55.784502 129411 net.cpp:380] loss -> loss
I0510 10:09:55.784523 129411 layer_factory.hpp:77] Creating layer loss
…
