…
I0510 10:09:40.447515 129397 net.cpp:294] The NetState phase (0) differed from the phase (1) specified by a rule in layer accuracy
I0510 10:09:40.447679 129397 net.cpp:51] Initializing net from parameters: 
name: "CIFAR10_quick"
state {
  phase: TRAIN
  level: 0
  stage: ""
}
layer {
  name: "cifar"
  type: "Data"
  top: "data"
  top: "label"
  include {
    phase: TRAIN
  }
  transform_param {
    mean_file: "examples/cifar10/mean.binaryproto"
  }
  data_param {
    source: "examples/cifar10/cifar10_train_lmdb"
    batch_size: 100
    backend: LMDB
  }
}
layer {
  name: "conv1"
  type: "Convolution"
  bottom: "data"
  top: "conv1"
  param {
    lr_mult: 1
  }
  param {
    lr_mult: 2
  }
  convolution_param {
    num_output: 30
    pad: 2
    kernel_size: 5
    stride: 1
    weight_filler {
      type: "gaussian"
      std: 0.0001
    }
    bias_filler {
      type: "constant"
    }
  }
}
layer {
  name: "pool1"
  type: "Pooling"
  bottom: "conv1"
  top: "pool1"
  pooling_param {
    pool: MAX
    kernel_size: 3
    stride: 2
  }
}
layer {
  name: "relu1"
  type: "ReLU"
  bottom: "pool1"
  top: "pool1"
}
layer {
  name: "conv2"
  type: "Convolution"
  bottom: "pool1"
  top: "conv2"
  param {
    lr_mult: 1
  }
  param {
    lr_mult: 2
  }
  convolution_param {
    num_output: 30
    pad: 2
    kernel_size: 5
    stride: 1
    weight_filler {
      type: "gaussian"
      std: 0.01
    }
    bias_filler {
      type: "constant"
    }
  }
}
layer {
  name: "relu2"
  type: "ReLU"
  bottom: "conv2"
  top: "conv2"
}
layer {
  name: "pool2"
  type: "Pooling"
  bottom: "conv2"
  top: "pool2"
  pooling_param {
    pool: AVE
    kernel_size: 3
    stride: 2
  }
}
layer {
  name: "conv3"
  type: "Convolution"
  bottom: "pool2"
  top: "conv3"
  param {
    lr_mult: 1
  }
  param {
    lr_mult: 2
  }
  convolution_param {
    num_output: 60
    pad: 2
    kernel_size: 5
    stride: 1
    weight_filler {
      type: "gaussian"
      std: 0.01
    }
    bias_filler {
      type: "constant"
    }
  }
}
layer {
  name: "relu3"
  type: "ReLU"
  bottom: "conv3"
  top: "conv3"
}
layer {
  name: "pool3"
  type: "Pooling"
  bottom: "conv3"
  top: "pool3"
  pooling_param {
    pool: AVE
    kernel_size: 3
    stride: 2
  }
}
layer {
  name: "ip1"
  type: "InnerProduct"
  bottom: "pool3"
  top: "ip1"
  param {
    lr_mult: 1
  }
  param {
    lr_mult: 2
  }
  inner_product_param {
    num_output: 60
    weight_filler {
      type: "gaussian"
      std: 0.1
    }
    bias_filler {
      type: "constant"
    }
  }
}
layer {
  name: "ip2"
  type: "InnerProduct"
  bottom: "ip1"
  top: "ip2"
  param {
    lr_mult: 1
  }
  param {
    lr_mult: 2
  }
  inner_product_param {
    num_output: 12
    weight_filler {
      type: "gaussian"
      std: 0.1
    }
    bias_filler {
      type: "constant"
    }
  }
}
layer {
  name: "loss"
  type: "SoftmaxWithLoss"
  bottom: "ip2"
  bottom: "label"
  top: "loss"
}
I0510 10:09:40.447784 129397 layer_factory.hpp:77] Creating layer cifar
I0510 10:09:40.447908 129397 db_lmdb.cpp:35] Opened lmdb examples/cifar10/cifar10_train_lmdb
I0510 10:09:40.447947 129397 net.cpp:84] Creating Layer cifar
I0510 10:09:40.447962 129397 net.cpp:380] cifar -> data
I0510 10:09:40.447990 129397 net.cpp:380] cifar -> label
I0510 10:09:40.448009 129397 data_transformer.cpp:25] Loading mean file from: examples/cifar10/mean.binaryproto
I0510 10:09:40.448125 129397 data_layer.cpp:45] output data size: 100,3,32,32
I0510 10:09:40.448755 129397 net.cpp:122] Setting up cifar
I0510 10:09:40.448786 129397 net.cpp:129] Top shape: 100 3 32 32 (307200)
I0510 10:09:40.448793 129397 net.cpp:129] Top shape: 100 (100)
I0510 10:09:40.448798 129397 net.cpp:137] Memory required for data: 1229200
I0510 10:09:40.448808 129397 layer_factory.hpp:77] Creating layer conv1
I0510 10:09:40.448828 129397 net.cpp:84] Creating Layer conv1
I0510 10:09:40.448838 129397 net.cpp:406] conv1 <- data
I0510 10:09:40.448854 129397 net.cpp:380] conv1 -> conv1
I0510 10:09:40.448876 129397 base_conv_layer.cpp:121] Group is 1channel is3number of output is 30
I0510 10:09:40.448962 129397 net.cpp:122] Setting up conv1
I0510 10:09:40.448973 129397 net.cpp:129] Top shape: 100 30 32 32 (3072000)
I0510 10:09:40.448979 129397 net.cpp:137] Memory required for data: 13517200
I0510 10:09:40.449002 129397 layer_factory.hpp:77] Creating layer pool1
I0510 10:09:40.449013 129397 net.cpp:84] Creating Layer pool1
I0510 10:09:40.449019 129397 net.cpp:406] pool1 <- conv1
I0510 10:09:40.449028 129397 net.cpp:380] pool1 -> pool1
I0510 10:09:40.449048 129397 net.cpp:122] Setting up pool1
I0510 10:09:40.449056 129397 net.cpp:129] Top shape: 100 30 16 16 (768000)
I0510 10:09:40.449061 129397 net.cpp:137] Memory required for data: 16589200
I0510 10:09:40.449066 129397 layer_factory.hpp:77] Creating layer relu1
I0510 10:09:40.449075 129397 net.cpp:84] Creating Layer relu1
I0510 10:09:40.449080 129397 net.cpp:406] relu1 <- pool1
I0510 10:09:40.449089 129397 net.cpp:367] relu1 -> pool1 (in-place)
I0510 10:09:40.449097 129397 net.cpp:122] Setting up relu1
I0510 10:09:40.449106 129397 net.cpp:129] Top shape: 100 30 16 16 (768000)
I0510 10:09:40.449111 129397 net.cpp:137] Memory required for data: 19661200
I0510 10:09:40.449116 129397 layer_factory.hpp:77] Creating layer conv2
I0510 10:09:40.449129 129397 net.cpp:84] Creating Layer conv2
I0510 10:09:40.449136 129397 net.cpp:406] conv2 <- pool1
I0510 10:09:40.449144 129397 net.cpp:380] conv2 -> conv2
I0510 10:09:40.449158 129397 base_conv_layer.cpp:121] Group is 1channel is30number of output is 30
I0510 10:09:40.449606 129397 net.cpp:122] Setting up conv2
I0510 10:09:40.449617 129397 net.cpp:129] Top shape: 100 30 16 16 (768000)
I0510 10:09:40.449623 129397 net.cpp:137] Memory required for data: 22733200
I0510 10:09:40.449635 129397 layer_factory.hpp:77] Creating layer relu2
I0510 10:09:40.449643 129397 net.cpp:84] Creating Layer relu2
I0510 10:09:40.449650 129397 net.cpp:406] relu2 <- conv2
I0510 10:09:40.449656 129397 net.cpp:367] relu2 -> conv2 (in-place)
I0510 10:09:40.449664 129397 net.cpp:122] Setting up relu2
I0510 10:09:40.449671 129397 net.cpp:129] Top shape: 100 30 16 16 (768000)
I0510 10:09:40.449678 129397 net.cpp:137] Memory required for data: 25805200
I0510 10:09:40.449683 129397 layer_factory.hpp:77] Creating layer pool2
I0510 10:09:40.449690 129397 net.cpp:84] Creating Layer pool2
I0510 10:09:40.449695 129397 net.cpp:406] pool2 <- conv2
I0510 10:09:40.449703 129397 net.cpp:380] pool2 -> pool2
I0510 10:09:40.449713 129397 net.cpp:122] Setting up pool2
I0510 10:09:40.449721 129397 net.cpp:129] Top shape: 100 30 8 8 (192000)
I0510 10:09:40.449726 129397 net.cpp:137] Memory required for data: 26573200
I0510 10:09:40.449733 129397 layer_factory.hpp:77] Creating layer conv3
I0510 10:09:40.449744 129397 net.cpp:84] Creating Layer conv3
I0510 10:09:40.449749 129397 net.cpp:406] conv3 <- pool2
I0510 10:09:40.449759 129397 net.cpp:380] conv3 -> conv3
I0510 10:09:40.449772 129397 base_conv_layer.cpp:121] Group is 1channel is30number of output is 60
I0510 10:09:40.450639 129397 net.cpp:122] Setting up conv3
I0510 10:09:40.450649 129397 net.cpp:129] Top shape: 100 60 8 8 (384000)
I0510 10:09:40.450654 129397 net.cpp:137] Memory required for data: 28109200
I0510 10:09:40.450667 129397 layer_factory.hpp:77] Creating layer relu3
I0510 10:09:40.450676 129397 net.cpp:84] Creating Layer relu3
I0510 10:09:40.450682 129397 net.cpp:406] relu3 <- conv3
I0510 10:09:40.450690 129397 net.cpp:367] relu3 -> conv3 (in-place)
I0510 10:09:40.450698 129397 net.cpp:122] Setting up relu3
I0510 10:09:40.450711 129397 net.cpp:129] Top shape: 100 60 8 8 (384000)
I0510 10:09:40.450724 129397 net.cpp:137] Memory required for data: 29645200
I0510 10:09:40.450729 129397 layer_factory.hpp:77] Creating layer pool3
I0510 10:09:40.450738 129397 net.cpp:84] Creating Layer pool3
I0510 10:09:40.450743 129397 net.cpp:406] pool3 <- conv3
I0510 10:09:40.450750 129397 net.cpp:380] pool3 -> pool3
I0510 10:09:40.450760 129397 net.cpp:122] Setting up pool3
I0510 10:09:40.450769 129397 net.cpp:129] Top shape: 100 60 4 4 (96000)
I0510 10:09:40.450774 129397 net.cpp:137] Memory required for data: 30029200
I0510 10:09:40.450779 129397 layer_factory.hpp:77] Creating layer ip1
I0510 10:09:40.450791 129397 net.cpp:84] Creating Layer ip1
I0510 10:09:40.450799 129397 net.cpp:406] ip1 <- pool3
I0510 10:09:40.450809 129397 net.cpp:380] ip1 -> ip1
I0510 10:09:40.451948 129397 net.cpp:122] Setting up ip1
I0510 10:09:40.451961 129397 net.cpp:129] Top shape: 100 60 (6000)
I0510 10:09:40.451967 129397 net.cpp:137] Memory required for data: 30053200
I0510 10:09:40.451977 129397 layer_factory.hpp:77] Creating layer ip2
I0510 10:09:40.451989 129397 net.cpp:84] Creating Layer ip2
I0510 10:09:40.451997 129397 net.cpp:406] ip2 <- ip1
I0510 10:09:40.452006 129397 net.cpp:380] ip2 -> ip2
I0510 10:09:40.452052 129397 net.cpp:122] Setting up ip2
I0510 10:09:40.452064 129397 net.cpp:129] Top shape: 100 12 (1200)
I0510 10:09:40.452069 129397 net.cpp:137] Memory required for data: 30058000
I0510 10:09:40.452082 129397 layer_factory.hpp:77] Creating layer loss
I0510 10:09:40.452091 129397 net.cpp:84] Creating Layer loss
I0510 10:09:40.452096 129397 net.cpp:406] loss <- ip2
I0510 10:09:40.452102 129397 net.cpp:406] loss <- label
I0510 10:09:40.452118 129397 net.cpp:380] loss -> loss
I0510 10:09:40.452167 129397 layer_factory.hpp:77] Creating layer loss
…
