…
I0510 10:10:03.380417 129418 net.cpp:294] The NetState phase (0) differed from the phase (1) specified by a rule in layer accuracy
I0510 10:10:03.380554 129418 net.cpp:51] Initializing net from parameters: 
name: "CIFAR10_quick"
state {
  phase: TRAIN
  level: 0
  stage: ""
}
layer {
  name: "cifar"
  type: "Data"
  top: "data"
  top: "label"
  include {
    phase: TRAIN
  }
  transform_param {
    mean_file: "examples/cifar10/mean.binaryproto"
  }
  data_param {
    source: "examples/cifar10/cifar10_train_lmdb"
    batch_size: 100
    backend: LMDB
  }
}
layer {
  name: "conv1"
  type: "Convolution"
  bottom: "data"
  top: "conv1"
  param {
    lr_mult: 1
  }
  param {
    lr_mult: 2
  }
  convolution_param {
    num_output: 30
    pad: 2
    kernel_size: 5
    stride: 1
    weight_filler {
      type: "gaussian"
      std: 0.0001
    }
    bias_filler {
      type: "constant"
    }
  }
}
layer {
  name: "pool1"
  type: "Pooling"
  bottom: "conv1"
  top: "pool1"
  pooling_param {
    pool: MAX
    kernel_size: 3
    stride: 2
  }
}
layer {
  name: "relu1"
  type: "ReLU"
  bottom: "pool1"
  top: "pool1"
}
layer {
  name: "conv2"
  type: "Convolution"
  bottom: "pool1"
  top: "conv2"
  param {
    lr_mult: 1
  }
  param {
    lr_mult: 2
  }
  convolution_param {
    num_output: 30
    pad: 2
    kernel_size: 5
    stride: 1
    weight_filler {
      type: "gaussian"
      std: 0.01
    }
    bias_filler {
      type: "constant"
    }
  }
}
layer {
  name: "relu2"
  type: "ReLU"
  bottom: "conv2"
  top: "conv2"
}
layer {
  name: "pool2"
  type: "Pooling"
  bottom: "conv2"
  top: "pool2"
  pooling_param {
    pool: AVE
    kernel_size: 3
    stride: 2
  }
}
layer {
  name: "conv3"
  type: "Convolution"
  bottom: "pool2"
  top: "conv3"
  param {
    lr_mult: 1
  }
  param {
    lr_mult: 2
  }
  convolution_param {
    num_output: 60
    pad: 2
    kernel_size: 5
    stride: 1
    weight_filler {
      type: "gaussian"
      std: 0.01
    }
    bias_filler {
      type: "constant"
    }
  }
}
layer {
  name: "relu3"
  type: "ReLU"
  bottom: "conv3"
  top: "conv3"
}
layer {
  name: "pool3"
  type: "Pooling"
  bottom: "conv3"
  top: "pool3"
  pooling_param {
    pool: AVE
    kernel_size: 3
    stride: 2
  }
}
layer {
  name: "ip1"
  type: "InnerProduct"
  bottom: "pool3"
  top: "ip1"
  param {
    lr_mult: 1
  }
  param {
    lr_mult: 2
  }
  inner_product_param {
    num_output: 60
    weight_filler {
      type: "gaussian"
      std: 0.1
    }
    bias_filler {
      type: "constant"
    }
  }
}
layer {
  name: "ip2"
  type: "InnerProduct"
  bottom: "ip1"
  top: "ip2"
  param {
    lr_mult: 1
  }
  param {
    lr_mult: 2
  }
  inner_product_param {
    num_output: 12
    weight_filler {
      type: "gaussian"
      std: 0.1
    }
    bias_filler {
      type: "constant"
    }
  }
}
layer {
  name: "loss"
  type: "SoftmaxWithLoss"
  bottom: "ip2"
  bottom: "label"
  top: "loss"
}
I0510 10:10:03.380636 129418 layer_factory.hpp:77] Creating layer cifar
I0510 10:10:03.380734 129418 db_lmdb.cpp:35] Opened lmdb examples/cifar10/cifar10_train_lmdb
I0510 10:10:03.380765 129418 net.cpp:84] Creating Layer cifar
I0510 10:10:03.380777 129418 net.cpp:380] cifar -> data
I0510 10:10:03.380800 129418 net.cpp:380] cifar -> label
I0510 10:10:03.380817 129418 data_transformer.cpp:25] Loading mean file from: examples/cifar10/mean.binaryproto
I0510 10:10:03.380897 129418 data_layer.cpp:45] output data size: 100,3,32,32
I0510 10:10:03.381436 129418 net.cpp:122] Setting up cifar
I0510 10:10:03.381461 129418 net.cpp:129] Top shape: 100 3 32 32 (307200)
I0510 10:10:03.381469 129418 net.cpp:129] Top shape: 100 (100)
I0510 10:10:03.381472 129418 net.cpp:137] Memory required for data: 1229200
I0510 10:10:03.381481 129418 layer_factory.hpp:77] Creating layer conv1
I0510 10:10:03.381500 129418 net.cpp:84] Creating Layer conv1
I0510 10:10:03.381506 129418 net.cpp:406] conv1 <- data
I0510 10:10:03.381520 129418 net.cpp:380] conv1 -> conv1
I0510 10:10:03.381538 129418 base_conv_layer.cpp:121] Group is 1channel is3number of output is 30
I0510 10:10:03.381605 129418 net.cpp:122] Setting up conv1
I0510 10:10:03.381614 129418 net.cpp:129] Top shape: 100 30 32 32 (3072000)
I0510 10:10:03.381618 129418 net.cpp:137] Memory required for data: 13517200
I0510 10:10:03.381639 129418 layer_factory.hpp:77] Creating layer pool1
I0510 10:10:03.381649 129418 net.cpp:84] Creating Layer pool1
I0510 10:10:03.381654 129418 net.cpp:406] pool1 <- conv1
I0510 10:10:03.381661 129418 net.cpp:380] pool1 -> pool1
I0510 10:10:03.381678 129418 net.cpp:122] Setting up pool1
I0510 10:10:03.381685 129418 net.cpp:129] Top shape: 100 30 16 16 (768000)
I0510 10:10:03.381690 129418 net.cpp:137] Memory required for data: 16589200
I0510 10:10:03.381695 129418 layer_factory.hpp:77] Creating layer relu1
I0510 10:10:03.381702 129418 net.cpp:84] Creating Layer relu1
I0510 10:10:03.381707 129418 net.cpp:406] relu1 <- pool1
I0510 10:10:03.381713 129418 net.cpp:367] relu1 -> pool1 (in-place)
I0510 10:10:03.381721 129418 net.cpp:122] Setting up relu1
I0510 10:10:03.381729 129418 net.cpp:129] Top shape: 100 30 16 16 (768000)
I0510 10:10:03.381734 129418 net.cpp:137] Memory required for data: 19661200
I0510 10:10:03.381739 129418 layer_factory.hpp:77] Creating layer conv2
I0510 10:10:03.381749 129418 net.cpp:84] Creating Layer conv2
I0510 10:10:03.381755 129418 net.cpp:406] conv2 <- pool1
I0510 10:10:03.381762 129418 net.cpp:380] conv2 -> conv2
I0510 10:10:03.381775 129418 base_conv_layer.cpp:121] Group is 1channel is30number of output is 30
I0510 10:10:03.382175 129418 net.cpp:122] Setting up conv2
I0510 10:10:03.382185 129418 net.cpp:129] Top shape: 100 30 16 16 (768000)
I0510 10:10:03.382189 129418 net.cpp:137] Memory required for data: 22733200
I0510 10:10:03.382200 129418 layer_factory.hpp:77] Creating layer relu2
I0510 10:10:03.382206 129418 net.cpp:84] Creating Layer relu2
I0510 10:10:03.382212 129418 net.cpp:406] relu2 <- conv2
I0510 10:10:03.382218 129418 net.cpp:367] relu2 -> conv2 (in-place)
I0510 10:10:03.382226 129418 net.cpp:122] Setting up relu2
I0510 10:10:03.382233 129418 net.cpp:129] Top shape: 100 30 16 16 (768000)
I0510 10:10:03.382238 129418 net.cpp:137] Memory required for data: 25805200
I0510 10:10:03.382243 129418 layer_factory.hpp:77] Creating layer pool2
I0510 10:10:03.382249 129418 net.cpp:84] Creating Layer pool2
I0510 10:10:03.382253 129418 net.cpp:406] pool2 <- conv2
I0510 10:10:03.382261 129418 net.cpp:380] pool2 -> pool2
I0510 10:10:03.382269 129418 net.cpp:122] Setting up pool2
I0510 10:10:03.382277 129418 net.cpp:129] Top shape: 100 30 8 8 (192000)
I0510 10:10:03.382280 129418 net.cpp:137] Memory required for data: 26573200
I0510 10:10:03.382287 129418 layer_factory.hpp:77] Creating layer conv3
I0510 10:10:03.382297 129418 net.cpp:84] Creating Layer conv3
I0510 10:10:03.382300 129418 net.cpp:406] conv3 <- pool2
I0510 10:10:03.382308 129418 net.cpp:380] conv3 -> conv3
I0510 10:10:03.382320 129418 base_conv_layer.cpp:121] Group is 1channel is30number of output is 60
I0510 10:10:03.383088 129418 net.cpp:122] Setting up conv3
I0510 10:10:03.383096 129418 net.cpp:129] Top shape: 100 60 8 8 (384000)
I0510 10:10:03.383101 129418 net.cpp:137] Memory required for data: 28109200
I0510 10:10:03.383112 129418 layer_factory.hpp:77] Creating layer relu3
I0510 10:10:03.383121 129418 net.cpp:84] Creating Layer relu3
I0510 10:10:03.383126 129418 net.cpp:406] relu3 <- conv3
I0510 10:10:03.383131 129418 net.cpp:367] relu3 -> conv3 (in-place)
I0510 10:10:03.383139 129418 net.cpp:122] Setting up relu3
I0510 10:10:03.383150 129418 net.cpp:129] Top shape: 100 60 8 8 (384000)
I0510 10:10:03.383162 129418 net.cpp:137] Memory required for data: 29645200
I0510 10:10:03.383167 129418 layer_factory.hpp:77] Creating layer pool3
I0510 10:10:03.383174 129418 net.cpp:84] Creating Layer pool3
I0510 10:10:03.383178 129418 net.cpp:406] pool3 <- conv3
I0510 10:10:03.383186 129418 net.cpp:380] pool3 -> pool3
I0510 10:10:03.383195 129418 net.cpp:122] Setting up pool3
I0510 10:10:03.383203 129418 net.cpp:129] Top shape: 100 60 4 4 (96000)
I0510 10:10:03.383208 129418 net.cpp:137] Memory required for data: 30029200
I0510 10:10:03.383213 129418 layer_factory.hpp:77] Creating layer ip1
I0510 10:10:03.383224 129418 net.cpp:84] Creating Layer ip1
I0510 10:10:03.383229 129418 net.cpp:406] ip1 <- pool3
I0510 10:10:03.383236 129418 net.cpp:380] ip1 -> ip1
I0510 10:10:03.384237 129418 net.cpp:122] Setting up ip1
I0510 10:10:03.384246 129418 net.cpp:129] Top shape: 100 60 (6000)
I0510 10:10:03.384253 129418 net.cpp:137] Memory required for data: 30053200
I0510 10:10:03.384260 129418 layer_factory.hpp:77] Creating layer ip2
I0510 10:10:03.384270 129418 net.cpp:84] Creating Layer ip2
I0510 10:10:03.384275 129418 net.cpp:406] ip2 <- ip1
I0510 10:10:03.384284 129418 net.cpp:380] ip2 -> ip2
I0510 10:10:03.384312 129418 net.cpp:122] Setting up ip2
I0510 10:10:03.384320 129418 net.cpp:129] Top shape: 100 12 (1200)
I0510 10:10:03.384325 129418 net.cpp:137] Memory required for data: 30058000
I0510 10:10:03.384335 129418 layer_factory.hpp:77] Creating layer loss
I0510 10:10:03.384343 129418 net.cpp:84] Creating Layer loss
I0510 10:10:03.384347 129418 net.cpp:406] loss <- ip2
I0510 10:10:03.384353 129418 net.cpp:406] loss <- label
I0510 10:10:03.384366 129418 net.cpp:380] loss -> loss
I0510 10:10:03.384390 129418 layer_factory.hpp:77] Creating layer loss
…
