…
I0509 13:24:59.353235 113615 net.cpp:294] The NetState phase (0) differed from the phase (1) specified by a rule in layer mnist
I0509 13:24:59.353251 113615 net.cpp:294] The NetState phase (0) differed from the phase (1) specified by a rule in layer accuracy
I0509 13:24:59.353358 113615 net.cpp:51] Initializing net from parameters: 
name: "LeNet"
state {
  phase: TRAIN
  level: 0
  stage: ""
}
layer {
  name: "mnist"
  type: "Data"
  top: "data"
  top: "label"
  include {
    phase: TRAIN
  }
  transform_param {
    scale: 0.00390625
  }
  data_param {
    source: "examples/mnist/mnist_train_lmdb"
    batch_size: 64
    backend: LMDB
  }
}
layer {
  name: "conv1"
  type: "Convolution"
  bottom: "data"
  top: "conv1"
  param {
    lr_mult: 1
  }
  param {
    lr_mult: 2
  }
  convolution_param {
    num_output: 20
    kernel_size: 5
    stride: 1
    weight_filler {
      type: "xavier"
    }
    bias_filler {
      type: "constant"
    }
  }
}
layer {
  name: "pool1"
  type: "Pooling"
  bottom: "conv1"
  top: "pool1"
  pooling_param {
    pool: MAX
    kernel_size: 2
    stride: 2
  }
}
layer {
  name: "conv2"
  type: "Convolution"
  bottom: "pool1"
  top: "conv2"
  param {
    lr_mult: 1
  }
  param {
    lr_mult: 2
  }
  convolution_param {
    num_output: 50
    kernel_size: 5
    stride: 1
    weight_filler {
      type: "xavier"
    }
    bias_filler {
      type: "constant"
    }
  }
}
layer {
  name: "pool2"
  type: "Pooling"
  bottom: "conv2"
  top: "pool2"
  pooling_param {
    pool: MAX
    kernel_size: 2
    stride: 2
  }
}
layer {
  name: "ip1"
  type: "InnerProduct"
  bottom: "pool2"
  top: "ip1"
  param {
    lr_mult: 1
  }
  param {
    lr_mult: 2
  }
  inner_product_param {
    num_output: 500
    weight_filler {
      type: "xavier"
    }
    bias_filler {
      type: "constant"
    }
  }
}
layer {
  name: "relu1"
  type: "ReLU"
  bottom: "ip1"
  top: "ip1"
}
layer {
  name: "ip2"
  type: "InnerProduct"
  bottom: "ip1"
  top: "ip2"
  param {
    lr_mult: 1
  }
  param {
    lr_mult: 2
  }
  inner_product_param {
    num_output: 10
    weight_filler {
      type: "xavier"
    }
    bias_filler {
      type: "constant"
    }
  }
}
layer {
  name: "loss"
  type: "SoftmaxWithLoss"
  bottom: "ip2"
  bottom: "label"
  top: "loss"
}
I0509 13:24:59.353423 113615 layer_factory.hpp:77] Creating layer mnist
I0509 13:24:59.353519 113615 db_lmdb.cpp:35] Opened lmdb examples/mnist/mnist_train_lmdb
I0509 13:24:59.353548 113615 net.cpp:84] Creating Layer mnist
I0509 13:24:59.353559 113615 net.cpp:380] mnist -> data
I0509 13:24:59.353582 113615 net.cpp:380] mnist -> label
I0509 13:24:59.353613 113615 data_layer.cpp:45] output data size: 64,1,28,28
I0509 13:24:59.354140 113615 net.cpp:122] Setting up mnist
I0509 13:24:59.354154 113615 net.cpp:129] Top shape: 64 1 28 28 (50176)
I0509 13:24:59.354161 113615 net.cpp:129] Top shape: 64 (64)
I0509 13:24:59.354166 113615 net.cpp:137] Memory required for data: 200960
I0509 13:24:59.354173 113615 layer_factory.hpp:77] Creating layer conv1
I0509 13:24:59.354192 113615 net.cpp:84] Creating Layer conv1
I0509 13:24:59.354205 113615 net.cpp:406] conv1 <- data
I0509 13:24:59.354219 113615 net.cpp:380] conv1 -> conv1
I0509 13:24:59.354236 113615 base_conv_layer.cpp:121] Group is 1channel is1number of output is 20
I0509 13:24:59.354274 113615 net.cpp:122] Setting up conv1
I0509 13:24:59.354281 113615 net.cpp:129] Top shape: 64 20 24 24 (737280)
I0509 13:24:59.354286 113615 net.cpp:137] Memory required for data: 3150080
I0509 13:24:59.354305 113615 layer_factory.hpp:77] Creating layer pool1
I0509 13:24:59.354315 113615 net.cpp:84] Creating Layer pool1
I0509 13:24:59.354332 113615 net.cpp:406] pool1 <- conv1
I0509 13:24:59.354341 113615 net.cpp:380] pool1 -> pool1
I0509 13:24:59.354357 113615 net.cpp:122] Setting up pool1
I0509 13:24:59.354365 113615 net.cpp:129] Top shape: 64 20 12 12 (184320)
I0509 13:24:59.354370 113615 net.cpp:137] Memory required for data: 3887360
I0509 13:24:59.354374 113615 layer_factory.hpp:77] Creating layer conv2
I0509 13:24:59.354385 113615 net.cpp:84] Creating Layer conv2
I0509 13:24:59.354391 113615 net.cpp:406] conv2 <- pool1
I0509 13:24:59.354398 113615 net.cpp:380] conv2 -> conv2
I0509 13:24:59.354411 113615 base_conv_layer.cpp:121] Group is 1channel is20number of output is 50
I0509 13:24:59.354686 113615 net.cpp:122] Setting up conv2
I0509 13:24:59.354696 113615 net.cpp:129] Top shape: 64 50 8 8 (204800)
I0509 13:24:59.354701 113615 net.cpp:137] Memory required for data: 4706560
I0509 13:24:59.354712 113615 layer_factory.hpp:77] Creating layer pool2
I0509 13:24:59.354719 113615 net.cpp:84] Creating Layer pool2
I0509 13:24:59.354725 113615 net.cpp:406] pool2 <- conv2
I0509 13:24:59.354732 113615 net.cpp:380] pool2 -> pool2
I0509 13:24:59.354743 113615 net.cpp:122] Setting up pool2
I0509 13:24:59.354748 113615 net.cpp:129] Top shape: 64 50 4 4 (51200)
I0509 13:24:59.354754 113615 net.cpp:137] Memory required for data: 4911360
I0509 13:24:59.354758 113615 layer_factory.hpp:77] Creating layer ip1
I0509 13:24:59.354768 113615 net.cpp:84] Creating Layer ip1
I0509 13:24:59.354771 113615 net.cpp:406] ip1 <- pool2
I0509 13:24:59.354780 113615 net.cpp:380] ip1 -> ip1
     0.060751196             11,547      r02c0:u                  
I0509 13:24:59.358716 113615 net.cpp:122] Setting up ip1
I0509 13:24:59.358726 113615 net.cpp:129] Top shape: 64 500 (32000)
I0509 13:24:59.358731 113615 net.cpp:137] Memory required for data: 5039360
I0509 13:24:59.358742 113615 layer_factory.hpp:77] Creating layer relu1
I0509 13:24:59.358749 113615 net.cpp:84] Creating Layer relu1
I0509 13:24:59.358754 113615 net.cpp:406] relu1 <- ip1
I0509 13:24:59.358760 113615 net.cpp:367] relu1 -> ip1 (in-place)
I0509 13:24:59.358770 113615 net.cpp:122] Setting up relu1
I0509 13:24:59.358777 113615 net.cpp:129] Top shape: 64 500 (32000)
I0509 13:24:59.358780 113615 net.cpp:137] Memory required for data: 5167360
I0509 13:24:59.358784 113615 layer_factory.hpp:77] Creating layer ip2
I0509 13:24:59.358793 113615 net.cpp:84] Creating Layer ip2
I0509 13:24:59.358798 113615 net.cpp:406] ip2 <- ip1
I0509 13:24:59.358805 113615 net.cpp:380] ip2 -> ip2
I0509 13:24:59.358875 113615 net.cpp:122] Setting up ip2
I0509 13:24:59.358882 113615 net.cpp:129] Top shape: 64 10 (640)
I0509 13:24:59.358886 113615 net.cpp:137] Memory required for data: 5169920
I0509 13:24:59.358894 113615 layer_factory.hpp:77] Creating layer loss
I0509 13:24:59.358902 113615 net.cpp:84] Creating Layer loss
I0509 13:24:59.358908 113615 net.cpp:406] loss <- ip2
I0509 13:24:59.358913 113615 net.cpp:406] loss <- label
I0509 13:24:59.358922 113615 net.cpp:380] loss -> loss
I0509 13:24:59.358934 113615 layer_factory.hpp:77] Creating layer loss
…
