…
I0509 13:24:53.426502 113594 net.cpp:294] The NetState phase (0) differed from the phase (1) specified by a rule in layer mnist
I0509 13:24:53.426520 113594 net.cpp:294] The NetState phase (0) differed from the phase (1) specified by a rule in layer accuracy
I0509 13:24:53.426625 113594 net.cpp:51] Initializing net from parameters: 
name: "LeNet"
state {
  phase: TRAIN
  level: 0
  stage: ""
}
layer {
  name: "mnist"
  type: "Data"
  top: "data"
  top: "label"
  include {
    phase: TRAIN
  }
  transform_param {
    scale: 0.00390625
  }
  data_param {
    source: "examples/mnist/mnist_train_lmdb"
    batch_size: 64
    backend: LMDB
  }
}
layer {
  name: "conv1"
  type: "Convolution"
  bottom: "data"
  top: "conv1"
  param {
    lr_mult: 1
  }
  param {
    lr_mult: 2
  }
  convolution_param {
    num_output: 20
    kernel_size: 5
    stride: 1
    weight_filler {
      type: "xavier"
    }
    bias_filler {
      type: "constant"
    }
  }
}
layer {
  name: "pool1"
  type: "Pooling"
  bottom: "conv1"
  top: "pool1"
  pooling_param {
    pool: MAX
    kernel_size: 2
    stride: 2
  }
}
layer {
  name: "conv2"
  type: "Convolution"
  bottom: "pool1"
  top: "conv2"
  param {
    lr_mult: 1
  }
  param {
    lr_mult: 2
  }
  convolution_param {
    num_output: 50
    kernel_size: 5
    stride: 1
    weight_filler {
      type: "xavier"
    }
    bias_filler {
      type: "constant"
    }
  }
}
layer {
  name: "pool2"
  type: "Pooling"
  bottom: "conv2"
  top: "pool2"
  pooling_param {
    pool: MAX
    kernel_size: 2
    stride: 2
  }
}
layer {
  name: "ip1"
  type: "InnerProduct"
  bottom: "pool2"
  top: "ip1"
  param {
    lr_mult: 1
  }
  param {
    lr_mult: 2
  }
  inner_product_param {
    num_output: 500
    weight_filler {
      type: "xavier"
    }
    bias_filler {
      type: "constant"
    }
  }
}
layer {
  name: "relu1"
  type: "ReLU"
  bottom: "ip1"
  top: "ip1"
}
layer {
  name: "ip2"
  type: "InnerProduct"
  bottom: "ip1"
  top: "ip2"
  param {
    lr_mult: 1
  }
  param {
    lr_mult: 2
  }
  inner_product_param {
    num_output: 10
    weight_filler {
      type: "xavier"
    }
    bias_filler {
      type: "constant"
    }
  }
}
layer {
  name: "loss"
  type: "SoftmaxWithLoss"
  bottom: "ip2"
  bottom: "label"
  top: "loss"
}
I0509 13:24:53.426697 113594 layer_factory.hpp:77] Creating layer mnist
I0509 13:24:53.426800 113594 db_lmdb.cpp:35] Opened lmdb examples/mnist/mnist_train_lmdb
I0509 13:24:53.426828 113594 net.cpp:84] Creating Layer mnist
I0509 13:24:53.426841 113594 net.cpp:380] mnist -> data
I0509 13:24:53.426864 113594 net.cpp:380] mnist -> label
I0509 13:24:53.426895 113594 data_layer.cpp:45] output data size: 64,1,28,28
I0509 13:24:53.427428 113594 net.cpp:122] Setting up mnist
I0509 13:24:53.427448 113594 net.cpp:129] Top shape: 64 1 28 28 (50176)
I0509 13:24:53.427456 113594 net.cpp:129] Top shape: 64 (64)
I0509 13:24:53.427461 113594 net.cpp:137] Memory required for data: 200960
I0509 13:24:53.427469 113594 layer_factory.hpp:77] Creating layer conv1
I0509 13:24:53.427486 113594 net.cpp:84] Creating Layer conv1
I0509 13:24:53.427495 113594 net.cpp:406] conv1 <- data
I0509 13:24:53.427507 113594 net.cpp:380] conv1 -> conv1
I0509 13:24:53.427525 113594 base_conv_layer.cpp:121] Group is 1channel is1number of output is 20
I0509 13:24:53.427563 113594 net.cpp:122] Setting up conv1
I0509 13:24:53.427572 113594 net.cpp:129] Top shape: 64 20 24 24 (737280)
I0509 13:24:53.427579 113594 net.cpp:137] Memory required for data: 3150080
I0509 13:24:53.427598 113594 layer_factory.hpp:77] Creating layer pool1
I0509 13:24:53.427609 113594 net.cpp:84] Creating Layer pool1
I0509 13:24:53.427625 113594 net.cpp:406] pool1 <- conv1
I0509 13:24:53.427634 113594 net.cpp:380] pool1 -> pool1
I0509 13:24:53.427652 113594 net.cpp:122] Setting up pool1
I0509 13:24:53.427661 113594 net.cpp:129] Top shape: 64 20 12 12 (184320)
I0509 13:24:53.427666 113594 net.cpp:137] Memory required for data: 3887360
I0509 13:24:53.427671 113594 layer_factory.hpp:77] Creating layer conv2
I0509 13:24:53.427681 113594 net.cpp:84] Creating Layer conv2
I0509 13:24:53.427688 113594 net.cpp:406] conv2 <- pool1
I0509 13:24:53.427696 113594 net.cpp:380] conv2 -> conv2
I0509 13:24:53.427709 113594 base_conv_layer.cpp:121] Group is 1channel is20number of output is 50
I0509 13:24:53.427990 113594 net.cpp:122] Setting up conv2
I0509 13:24:53.428001 113594 net.cpp:129] Top shape: 64 50 8 8 (204800)
I0509 13:24:53.428007 113594 net.cpp:137] Memory required for data: 4706560
I0509 13:24:53.428017 113594 layer_factory.hpp:77] Creating layer pool2
I0509 13:24:53.428025 113594 net.cpp:84] Creating Layer pool2
I0509 13:24:53.428032 113594 net.cpp:406] pool2 <- conv2
I0509 13:24:53.428050 113594 net.cpp:380] pool2 -> pool2
I0509 13:24:53.428061 113594 net.cpp:122] Setting up pool2
I0509 13:24:53.428068 113594 net.cpp:129] Top shape: 64 50 4 4 (51200)
I0509 13:24:53.428074 113594 net.cpp:137] Memory required for data: 4911360
I0509 13:24:53.428079 113594 layer_factory.hpp:77] Creating layer ip1
I0509 13:24:53.428088 113594 net.cpp:84] Creating Layer ip1
I0509 13:24:53.428093 113594 net.cpp:406] ip1 <- pool2
I0509 13:24:53.428103 113594 net.cpp:380] ip1 -> ip1
     0.061128443         31,348,790      instructions:u           
     0.061128443         14,826,614      cycles:u                 
I0509 13:24:53.432050 113594 net.cpp:122] Setting up ip1
I0509 13:24:53.432067 113594 net.cpp:129] Top shape: 64 500 (32000)
I0509 13:24:53.432075 113594 net.cpp:137] Memory required for data: 5039360
I0509 13:24:53.432090 113594 layer_factory.hpp:77] Creating layer relu1
I0509 13:24:53.432097 113594 net.cpp:84] Creating Layer relu1
I0509 13:24:53.432102 113594 net.cpp:406] relu1 <- ip1
I0509 13:24:53.432109 113594 net.cpp:367] relu1 -> ip1 (in-place)
I0509 13:24:53.432121 113594 net.cpp:122] Setting up relu1
I0509 13:24:53.432126 113594 net.cpp:129] Top shape: 64 500 (32000)
I0509 13:24:53.432132 113594 net.cpp:137] Memory required for data: 5167360
I0509 13:24:53.432137 113594 layer_factory.hpp:77] Creating layer ip2
I0509 13:24:53.432145 113594 net.cpp:84] Creating Layer ip2
I0509 13:24:53.432150 113594 net.cpp:406] ip2 <- ip1
I0509 13:24:53.432157 113594 net.cpp:380] ip2 -> ip2
I0509 13:24:53.432229 113594 net.cpp:122] Setting up ip2
I0509 13:24:53.432238 113594 net.cpp:129] Top shape: 64 10 (640)
I0509 13:24:53.432242 113594 net.cpp:137] Memory required for data: 5169920
I0509 13:24:53.432251 113594 layer_factory.hpp:77] Creating layer loss
I0509 13:24:53.432260 113594 net.cpp:84] Creating Layer loss
I0509 13:24:53.432266 113594 net.cpp:406] loss <- ip2
I0509 13:24:53.432272 113594 net.cpp:406] loss <- label
I0509 13:24:53.432281 113594 net.cpp:380] loss -> loss
I0509 13:24:53.432293 113594 layer_factory.hpp:77] Creating layer loss
…
