…
I0509 13:24:55.397800 113601 net.cpp:294] The NetState phase (0) differed from the phase (1) specified by a rule in layer mnist
I0509 13:24:55.397814 113601 net.cpp:294] The NetState phase (0) differed from the phase (1) specified by a rule in layer accuracy
I0509 13:24:55.397887 113601 net.cpp:51] Initializing net from parameters: 
name: "LeNet"
state {
  phase: TRAIN
  level: 0
  stage: ""
}
layer {
  name: "mnist"
  type: "Data"
  top: "data"
  top: "label"
  include {
    phase: TRAIN
  }
  transform_param {
    scale: 0.00390625
  }
  data_param {
    source: "examples/mnist/mnist_train_lmdb"
    batch_size: 64
    backend: LMDB
  }
}
layer {
  name: "conv1"
  type: "Convolution"
  bottom: "data"
  top: "conv1"
  param {
    lr_mult: 1
  }
  param {
    lr_mult: 2
  }
  convolution_param {
    num_output: 20
    kernel_size: 5
    stride: 1
    weight_filler {
      type: "xavier"
    }
    bias_filler {
      type: "constant"
    }
  }
}
layer {
  name: "pool1"
  type: "Pooling"
  bottom: "conv1"
  top: "pool1"
  pooling_param {
    pool: MAX
    kernel_size: 2
    stride: 2
  }
}
layer {
  name: "conv2"
  type: "Convolution"
  bottom: "pool1"
  top: "conv2"
  param {
    lr_mult: 1
  }
  param {
    lr_mult: 2
  }
  convolution_param {
    num_output: 50
    kernel_size: 5
    stride: 1
    weight_filler {
      type: "xavier"
    }
    bias_filler {
      type: "constant"
    }
  }
}
layer {
  name: "pool2"
  type: "Pooling"
  bottom: "conv2"
  top: "pool2"
  pooling_param {
    pool: MAX
    kernel_size: 2
    stride: 2
  }
}
layer {
  name: "ip1"
  type: "InnerProduct"
  bottom: "pool2"
  top: "ip1"
  param {
    lr_mult: 1
  }
  param {
    lr_mult: 2
  }
  inner_product_param {
    num_output: 500
    weight_filler {
      type: "xavier"
    }
    bias_filler {
      type: "constant"
    }
  }
}
layer {
  name: "relu1"
  type: "ReLU"
  bottom: "ip1"
  top: "ip1"
}
layer {
  name: "ip2"
  type: "InnerProduct"
  bottom: "ip1"
  top: "ip2"
  param {
    lr_mult: 1
  }
  param {
    lr_mult: 2
  }
  inner_product_param {
    num_output: 10
    weight_filler {
      type: "xavier"
    }
    bias_filler {
      type: "constant"
    }
  }
}
layer {
  name: "loss"
  type: "SoftmaxWithLoss"
  bottom: "ip2"
  bottom: "label"
  top: "loss"
}
I0509 13:24:55.397938 113601 layer_factory.hpp:77] Creating layer mnist
I0509 13:24:55.398012 113601 db_lmdb.cpp:35] Opened lmdb examples/mnist/mnist_train_lmdb
I0509 13:24:55.398035 113601 net.cpp:84] Creating Layer mnist
I0509 13:24:55.398042 113601 net.cpp:380] mnist -> data
I0509 13:24:55.398059 113601 net.cpp:380] mnist -> label
I0509 13:24:55.398082 113601 data_layer.cpp:45] output data size: 64,1,28,28
I0509 13:24:55.398474 113601 net.cpp:122] Setting up mnist
I0509 13:24:55.398486 113601 net.cpp:129] Top shape: 64 1 28 28 (50176)
I0509 13:24:55.398491 113601 net.cpp:129] Top shape: 64 (64)
I0509 13:24:55.398494 113601 net.cpp:137] Memory required for data: 200960
I0509 13:24:55.398500 113601 layer_factory.hpp:77] Creating layer conv1
I0509 13:24:55.398517 113601 net.cpp:84] Creating Layer conv1
I0509 13:24:55.398524 113601 net.cpp:406] conv1 <- data
I0509 13:24:55.398532 113601 net.cpp:380] conv1 -> conv1
I0509 13:24:55.398545 113601 base_conv_layer.cpp:121] Group is 1channel is1number of output is 20
I0509 13:24:55.398574 113601 net.cpp:122] Setting up conv1
I0509 13:24:55.398581 113601 net.cpp:129] Top shape: 64 20 24 24 (737280)
I0509 13:24:55.398583 113601 net.cpp:137] Memory required for data: 3150080
I0509 13:24:55.398597 113601 layer_factory.hpp:77] Creating layer pool1
I0509 13:24:55.398605 113601 net.cpp:84] Creating Layer pool1
I0509 13:24:55.398617 113601 net.cpp:406] pool1 <- conv1
I0509 13:24:55.398622 113601 net.cpp:380] pool1 -> pool1
I0509 13:24:55.398634 113601 net.cpp:122] Setting up pool1
I0509 13:24:55.398641 113601 net.cpp:129] Top shape: 64 20 12 12 (184320)
I0509 13:24:55.398644 113601 net.cpp:137] Memory required for data: 3887360
I0509 13:24:55.398648 113601 layer_factory.hpp:77] Creating layer conv2
I0509 13:24:55.398655 113601 net.cpp:84] Creating Layer conv2
I0509 13:24:55.398660 113601 net.cpp:406] conv2 <- pool1
I0509 13:24:55.398666 113601 net.cpp:380] conv2 -> conv2
I0509 13:24:55.398675 113601 base_conv_layer.cpp:121] Group is 1channel is20number of output is 50
I0509 13:24:55.398864 113601 net.cpp:122] Setting up conv2
I0509 13:24:55.398871 113601 net.cpp:129] Top shape: 64 50 8 8 (204800)
I0509 13:24:55.398874 113601 net.cpp:137] Memory required for data: 4706560
I0509 13:24:55.398881 113601 layer_factory.hpp:77] Creating layer pool2
I0509 13:24:55.398888 113601 net.cpp:84] Creating Layer pool2
I0509 13:24:55.398892 113601 net.cpp:406] pool2 <- conv2
I0509 13:24:55.398897 113601 net.cpp:380] pool2 -> pool2
I0509 13:24:55.398905 113601 net.cpp:122] Setting up pool2
I0509 13:24:55.398910 113601 net.cpp:129] Top shape: 64 50 4 4 (51200)
I0509 13:24:55.398913 113601 net.cpp:137] Memory required for data: 4911360
I0509 13:24:55.398917 113601 layer_factory.hpp:77] Creating layer ip1
I0509 13:24:55.398923 113601 net.cpp:84] Creating Layer ip1
I0509 13:24:55.398926 113601 net.cpp:406] ip1 <- pool2
I0509 13:24:55.398933 113601 net.cpp:380] ip1 -> ip1
     0.040832966             96,452      branch-misses:u          
     0.040832966          6,132,740      branches:u               
I0509 13:24:55.401665 113601 net.cpp:122] Setting up ip1
I0509 13:24:55.401674 113601 net.cpp:129] Top shape: 64 500 (32000)
I0509 13:24:55.401676 113601 net.cpp:137] Memory required for data: 5039360
I0509 13:24:55.401684 113601 layer_factory.hpp:77] Creating layer relu1
I0509 13:24:55.401690 113601 net.cpp:84] Creating Layer relu1
I0509 13:24:55.401693 113601 net.cpp:406] relu1 <- ip1
I0509 13:24:55.401698 113601 net.cpp:367] relu1 -> ip1 (in-place)
I0509 13:24:55.401705 113601 net.cpp:122] Setting up relu1
I0509 13:24:55.401710 113601 net.cpp:129] Top shape: 64 500 (32000)
I0509 13:24:55.401712 113601 net.cpp:137] Memory required for data: 5167360
I0509 13:24:55.401715 113601 layer_factory.hpp:77] Creating layer ip2
I0509 13:24:55.401721 113601 net.cpp:84] Creating Layer ip2
I0509 13:24:55.401724 113601 net.cpp:406] ip2 <- ip1
I0509 13:24:55.401729 113601 net.cpp:380] ip2 -> ip2
I0509 13:24:55.401778 113601 net.cpp:122] Setting up ip2
I0509 13:24:55.401784 113601 net.cpp:129] Top shape: 64 10 (640)
I0509 13:24:55.401787 113601 net.cpp:137] Memory required for data: 5169920
I0509 13:24:55.401793 113601 layer_factory.hpp:77] Creating layer loss
I0509 13:24:55.401798 113601 net.cpp:84] Creating Layer loss
I0509 13:24:55.401803 113601 net.cpp:406] loss <- ip2
I0509 13:24:55.401806 113601 net.cpp:406] loss <- label
I0509 13:24:55.401811 113601 net.cpp:380] loss -> loss
I0509 13:24:55.401821 113601 layer_factory.hpp:77] Creating layer loss
…
