…
I0509 13:24:57.366142 113608 net.cpp:294] The NetState phase (0) differed from the phase (1) specified by a rule in layer mnist
I0509 13:24:57.366159 113608 net.cpp:294] The NetState phase (0) differed from the phase (1) specified by a rule in layer accuracy
I0509 13:24:57.366266 113608 net.cpp:51] Initializing net from parameters: 
name: "LeNet"
state {
  phase: TRAIN
  level: 0
  stage: ""
}
layer {
  name: "mnist"
  type: "Data"
  top: "data"
  top: "label"
  include {
    phase: TRAIN
  }
  transform_param {
    scale: 0.00390625
  }
  data_param {
    source: "examples/mnist/mnist_train_lmdb"
    batch_size: 64
    backend: LMDB
  }
}
layer {
  name: "conv1"
  type: "Convolution"
  bottom: "data"
  top: "conv1"
  param {
    lr_mult: 1
  }
  param {
    lr_mult: 2
  }
  convolution_param {
    num_output: 20
    kernel_size: 5
    stride: 1
    weight_filler {
      type: "xavier"
    }
    bias_filler {
      type: "constant"
    }
  }
}
layer {
  name: "pool1"
  type: "Pooling"
  bottom: "conv1"
  top: "pool1"
  pooling_param {
    pool: MAX
    kernel_size: 2
    stride: 2
  }
}
layer {
  name: "conv2"
  type: "Convolution"
  bottom: "pool1"
  top: "conv2"
  param {
    lr_mult: 1
  }
  param {
    lr_mult: 2
  }
  convolution_param {
    num_output: 50
    kernel_size: 5
    stride: 1
    weight_filler {
      type: "xavier"
    }
    bias_filler {
      type: "constant"
    }
  }
}
layer {
  name: "pool2"
  type: "Pooling"
  bottom: "conv2"
  top: "pool2"
  pooling_param {
    pool: MAX
    kernel_size: 2
    stride: 2
  }
}
layer {
  name: "ip1"
  type: "InnerProduct"
  bottom: "pool2"
  top: "ip1"
  param {
    lr_mult: 1
  }
  param {
    lr_mult: 2
  }
  inner_product_param {
    num_output: 500
    weight_filler {
      type: "xavier"
    }
    bias_filler {
      type: "constant"
    }
  }
}
layer {
  name: "relu1"
  type: "ReLU"
  bottom: "ip1"
  top: "ip1"
}
layer {
  name: "ip2"
  type: "InnerProduct"
  bottom: "ip1"
  top: "ip2"
  param {
    lr_mult: 1
  }
  param {
    lr_mult: 2
  }
  inner_product_param {
    num_output: 10
    weight_filler {
      type: "xavier"
    }
    bias_filler {
      type: "constant"
    }
  }
}
layer {
  name: "loss"
  type: "SoftmaxWithLoss"
  bottom: "ip2"
  bottom: "label"
  top: "loss"
}
I0509 13:24:57.366331 113608 layer_factory.hpp:77] Creating layer mnist
I0509 13:24:57.366431 113608 db_lmdb.cpp:35] Opened lmdb examples/mnist/mnist_train_lmdb
I0509 13:24:57.366461 113608 net.cpp:84] Creating Layer mnist
I0509 13:24:57.366472 113608 net.cpp:380] mnist -> data
I0509 13:24:57.366495 113608 net.cpp:380] mnist -> label
I0509 13:24:57.366525 113608 data_layer.cpp:45] output data size: 64,1,28,28
I0509 13:24:57.367053 113608 net.cpp:122] Setting up mnist
I0509 13:24:57.367074 113608 net.cpp:129] Top shape: 64 1 28 28 (50176)
I0509 13:24:57.367082 113608 net.cpp:129] Top shape: 64 (64)
I0509 13:24:57.367086 113608 net.cpp:137] Memory required for data: 200960
I0509 13:24:57.367094 113608 layer_factory.hpp:77] Creating layer conv1
I0509 13:24:57.367112 113608 net.cpp:84] Creating Layer conv1
I0509 13:24:57.367120 113608 net.cpp:406] conv1 <- data
I0509 13:24:57.367135 113608 net.cpp:380] conv1 -> conv1
I0509 13:24:57.367151 113608 base_conv_layer.cpp:121] Group is 1channel is1number of output is 20
I0509 13:24:57.367188 113608 net.cpp:122] Setting up conv1
I0509 13:24:57.367197 113608 net.cpp:129] Top shape: 64 20 24 24 (737280)
I0509 13:24:57.367202 113608 net.cpp:137] Memory required for data: 3150080
I0509 13:24:57.367221 113608 layer_factory.hpp:77] Creating layer pool1
I0509 13:24:57.367231 113608 net.cpp:84] Creating Layer pool1
I0509 13:24:57.367246 113608 net.cpp:406] pool1 <- conv1
I0509 13:24:57.367256 113608 net.cpp:380] pool1 -> pool1
I0509 13:24:57.367274 113608 net.cpp:122] Setting up pool1
I0509 13:24:57.367285 113608 net.cpp:129] Top shape: 64 20 12 12 (184320)
I0509 13:24:57.367290 113608 net.cpp:137] Memory required for data: 3887360
I0509 13:24:57.367295 113608 layer_factory.hpp:77] Creating layer conv2
I0509 13:24:57.367305 113608 net.cpp:84] Creating Layer conv2
I0509 13:24:57.367311 113608 net.cpp:406] conv2 <- pool1
I0509 13:24:57.367318 113608 net.cpp:380] conv2 -> conv2
I0509 13:24:57.367331 113608 base_conv_layer.cpp:121] Group is 1channel is20number of output is 50
I0509 13:24:57.367609 113608 net.cpp:122] Setting up conv2
I0509 13:24:57.367620 113608 net.cpp:129] Top shape: 64 50 8 8 (204800)
I0509 13:24:57.367625 113608 net.cpp:137] Memory required for data: 4706560
I0509 13:24:57.367636 113608 layer_factory.hpp:77] Creating layer pool2
I0509 13:24:57.367645 113608 net.cpp:84] Creating Layer pool2
I0509 13:24:57.367651 113608 net.cpp:406] pool2 <- conv2
I0509 13:24:57.367657 113608 net.cpp:380] pool2 -> pool2
I0509 13:24:57.367668 113608 net.cpp:122] Setting up pool2
I0509 13:24:57.367676 113608 net.cpp:129] Top shape: 64 50 4 4 (51200)
I0509 13:24:57.367681 113608 net.cpp:137] Memory required for data: 4911360
I0509 13:24:57.367686 113608 layer_factory.hpp:77] Creating layer ip1
I0509 13:24:57.367693 113608 net.cpp:84] Creating Layer ip1
I0509 13:24:57.367698 113608 net.cpp:406] ip1 <- pool2
I0509 13:24:57.367707 113608 net.cpp:380] ip1 -> ip1
     0.061065830              3,691      LLC-load-misses          
     0.061065830             40,966      LLC-loads                
I0509 13:24:57.371640 113608 net.cpp:122] Setting up ip1
I0509 13:24:57.371650 113608 net.cpp:129] Top shape: 64 500 (32000)
I0509 13:24:57.371655 113608 net.cpp:137] Memory required for data: 5039360
I0509 13:24:57.371667 113608 layer_factory.hpp:77] Creating layer relu1
I0509 13:24:57.371675 113608 net.cpp:84] Creating Layer relu1
I0509 13:24:57.371680 113608 net.cpp:406] relu1 <- ip1
I0509 13:24:57.371686 113608 net.cpp:367] relu1 -> ip1 (in-place)
I0509 13:24:57.371696 113608 net.cpp:122] Setting up relu1
I0509 13:24:57.371702 113608 net.cpp:129] Top shape: 64 500 (32000)
I0509 13:24:57.371706 113608 net.cpp:137] Memory required for data: 5167360
I0509 13:24:57.371711 113608 layer_factory.hpp:77] Creating layer ip2
I0509 13:24:57.371718 113608 net.cpp:84] Creating Layer ip2
I0509 13:24:57.371723 113608 net.cpp:406] ip2 <- ip1
I0509 13:24:57.371731 113608 net.cpp:380] ip2 -> ip2
I0509 13:24:57.371803 113608 net.cpp:122] Setting up ip2
I0509 13:24:57.371811 113608 net.cpp:129] Top shape: 64 10 (640)
I0509 13:24:57.371815 113608 net.cpp:137] Memory required for data: 5169920
I0509 13:24:57.371824 113608 layer_factory.hpp:77] Creating layer loss
I0509 13:24:57.371831 113608 net.cpp:84] Creating Layer loss
I0509 13:24:57.371837 113608 net.cpp:406] loss <- ip2
I0509 13:24:57.371842 113608 net.cpp:406] loss <- label
I0509 13:24:57.371850 113608 net.cpp:380] loss -> loss
I0509 13:24:57.371865 113608 layer_factory.hpp:77] Creating layer loss
…
