…
I0509 13:25:01.345437 113622 net.cpp:294] The NetState phase (0) differed from the phase (1) specified by a rule in layer mnist
I0509 13:25:01.345453 113622 net.cpp:294] The NetState phase (0) differed from the phase (1) specified by a rule in layer accuracy
I0509 13:25:01.345553 113622 net.cpp:51] Initializing net from parameters: 
name: "LeNet"
state {
  phase: TRAIN
  level: 0
  stage: ""
}
layer {
  name: "mnist"
  type: "Data"
  top: "data"
  top: "label"
  include {
    phase: TRAIN
  }
  transform_param {
    scale: 0.00390625
  }
  data_param {
    source: "examples/mnist/mnist_train_lmdb"
    batch_size: 64
    backend: LMDB
  }
}
layer {
  name: "conv1"
  type: "Convolution"
  bottom: "data"
  top: "conv1"
  param {
    lr_mult: 1
  }
  param {
    lr_mult: 2
  }
  convolution_param {
    num_output: 20
    kernel_size: 5
    stride: 1
    weight_filler {
      type: "xavier"
    }
    bias_filler {
      type: "constant"
    }
  }
}
layer {
  name: "pool1"
  type: "Pooling"
  bottom: "conv1"
  top: "pool1"
  pooling_param {
    pool: MAX
    kernel_size: 2
    stride: 2
  }
}
layer {
  name: "conv2"
  type: "Convolution"
  bottom: "pool1"
  top: "conv2"
  param {
    lr_mult: 1
  }
  param {
    lr_mult: 2
  }
  convolution_param {
    num_output: 50
    kernel_size: 5
    stride: 1
    weight_filler {
      type: "xavier"
    }
    bias_filler {
      type: "constant"
    }
  }
}
layer {
  name: "pool2"
  type: "Pooling"
  bottom: "conv2"
  top: "pool2"
  pooling_param {
    pool: MAX
    kernel_size: 2
    stride: 2
  }
}
layer {
  name: "ip1"
  type: "InnerProduct"
  bottom: "pool2"
  top: "ip1"
  param {
    lr_mult: 1
  }
  param {
    lr_mult: 2
  }
  inner_product_param {
    num_output: 500
    weight_filler {
      type: "xavier"
    }
    bias_filler {
      type: "constant"
    }
  }
}
layer {
  name: "relu1"
  type: "ReLU"
  bottom: "ip1"
  top: "ip1"
}
layer {
  name: "ip2"
  type: "InnerProduct"
  bottom: "ip1"
  top: "ip2"
  param {
    lr_mult: 1
  }
  param {
    lr_mult: 2
  }
  inner_product_param {
    num_output: 10
    weight_filler {
      type: "xavier"
    }
    bias_filler {
      type: "constant"
    }
  }
}
layer {
  name: "loss"
  type: "SoftmaxWithLoss"
  bottom: "ip2"
  bottom: "label"
  top: "loss"
}
I0509 13:25:01.345618 113622 layer_factory.hpp:77] Creating layer mnist
I0509 13:25:01.345711 113622 db_lmdb.cpp:35] Opened lmdb examples/mnist/mnist_train_lmdb
I0509 13:25:01.345737 113622 net.cpp:84] Creating Layer mnist
I0509 13:25:01.345748 113622 net.cpp:380] mnist -> data
I0509 13:25:01.345769 113622 net.cpp:380] mnist -> label
I0509 13:25:01.345798 113622 data_layer.cpp:45] output data size: 64,1,28,28
I0509 13:25:01.346303 113622 net.cpp:122] Setting up mnist
I0509 13:25:01.346325 113622 net.cpp:129] Top shape: 64 1 28 28 (50176)
I0509 13:25:01.346333 113622 net.cpp:129] Top shape: 64 (64)
I0509 13:25:01.346336 113622 net.cpp:137] Memory required for data: 200960
I0509 13:25:01.346343 113622 layer_factory.hpp:77] Creating layer conv1
I0509 13:25:01.346360 113622 net.cpp:84] Creating Layer conv1
I0509 13:25:01.346367 113622 net.cpp:406] conv1 <- data
I0509 13:25:01.346379 113622 net.cpp:380] conv1 -> conv1
I0509 13:25:01.346402 113622 base_conv_layer.cpp:121] Group is 1channel is1number of output is 20
I0509 13:25:01.346437 113622 net.cpp:122] Setting up conv1
I0509 13:25:01.346446 113622 net.cpp:129] Top shape: 64 20 24 24 (737280)
I0509 13:25:01.346451 113622 net.cpp:137] Memory required for data: 3150080
I0509 13:25:01.346468 113622 layer_factory.hpp:77] Creating layer pool1
I0509 13:25:01.346477 113622 net.cpp:84] Creating Layer pool1
I0509 13:25:01.346491 113622 net.cpp:406] pool1 <- conv1
I0509 13:25:01.346499 113622 net.cpp:380] pool1 -> pool1
I0509 13:25:01.346515 113622 net.cpp:122] Setting up pool1
I0509 13:25:01.346524 113622 net.cpp:129] Top shape: 64 20 12 12 (184320)
I0509 13:25:01.346529 113622 net.cpp:137] Memory required for data: 3887360
I0509 13:25:01.346534 113622 layer_factory.hpp:77] Creating layer conv2
I0509 13:25:01.346542 113622 net.cpp:84] Creating Layer conv2
I0509 13:25:01.346549 113622 net.cpp:406] conv2 <- pool1
I0509 13:25:01.346556 113622 net.cpp:380] conv2 -> conv2
I0509 13:25:01.346568 113622 base_conv_layer.cpp:121] Group is 1channel is20number of output is 50
I0509 13:25:01.346834 113622 net.cpp:122] Setting up conv2
I0509 13:25:01.346845 113622 net.cpp:129] Top shape: 64 50 8 8 (204800)
I0509 13:25:01.346850 113622 net.cpp:137] Memory required for data: 4706560
I0509 13:25:01.346860 113622 layer_factory.hpp:77] Creating layer pool2
I0509 13:25:01.346868 113622 net.cpp:84] Creating Layer pool2
I0509 13:25:01.346873 113622 net.cpp:406] pool2 <- conv2
I0509 13:25:01.346880 113622 net.cpp:380] pool2 -> pool2
I0509 13:25:01.346889 113622 net.cpp:122] Setting up pool2
I0509 13:25:01.346896 113622 net.cpp:129] Top shape: 64 50 4 4 (51200)
I0509 13:25:01.346901 113622 net.cpp:137] Memory required for data: 4911360
I0509 13:25:01.346906 113622 layer_factory.hpp:77] Creating layer ip1
I0509 13:25:01.346915 113622 net.cpp:84] Creating Layer ip1
I0509 13:25:01.346920 113622 net.cpp:406] ip1 <- pool2
I0509 13:25:01.346928 113622 net.cpp:380] ip1 -> ip1
I0509 13:25:01.350630 113622 net.cpp:122] Setting up ip1
I0509 13:25:01.350639 113622 net.cpp:129] Top shape: 64 500 (32000)
I0509 13:25:01.350643 113622 net.cpp:137] Memory required for data: 5039360
I0509 13:25:01.350654 113622 layer_factory.hpp:77] Creating layer relu1
I0509 13:25:01.350661 113622 net.cpp:84] Creating Layer relu1
I0509 13:25:01.350666 113622 net.cpp:406] relu1 <- ip1
I0509 13:25:01.350672 113622 net.cpp:367] relu1 -> ip1 (in-place)
I0509 13:25:01.350682 113622 net.cpp:122] Setting up relu1
I0509 13:25:01.350687 113622 net.cpp:129] Top shape: 64 500 (32000)
I0509 13:25:01.350690 113622 net.cpp:137] Memory required for data: 5167360
I0509 13:25:01.350695 113622 layer_factory.hpp:77] Creating layer ip2
I0509 13:25:01.350703 113622 net.cpp:84] Creating Layer ip2
I0509 13:25:01.350708 113622 net.cpp:406] ip2 <- ip1
I0509 13:25:01.350713 113622 net.cpp:380] ip2 -> ip2
I0509 13:25:01.350780 113622 net.cpp:122] Setting up ip2
I0509 13:25:01.350787 113622 net.cpp:129] Top shape: 64 10 (640)
I0509 13:25:01.350791 113622 net.cpp:137] Memory required for data: 5169920
I0509 13:25:01.350798 113622 layer_factory.hpp:77] Creating layer loss
I0509 13:25:01.350806 113622 net.cpp:84] Creating Layer loss
I0509 13:25:01.350812 113622 net.cpp:406] loss <- ip2
I0509 13:25:01.350817 113622 net.cpp:406] loss <- label
I0509 13:25:01.350824 113622 net.cpp:380] loss -> loss
I0509 13:25:01.350837 113622 layer_factory.hpp:77] Creating layer loss
…
