…
W0509 13:42:20.196913 114462 _caffe.cpp:139] DEPRECATION WARNING - deprecated use of Python interface
W0509 13:42:20.196943 114462 _caffe.cpp:140] Use this instead (with the named "weights" parameter):
W0509 13:42:20.196946 114462 _caffe.cpp:142] Net('examples/cifar10/cifar10_quick.prototxt', 1, weights='examples/cifar10/cifar10_quick_iter_5000.caffemodel.h5')
I0509 13:42:20.198850 114462 net.cpp:51] Initializing net from parameters: 
name: "CIFAR10_quick_test"
state {
  phase: TEST
  level: 0
}
layer {
  name: "data"
  type: "Input"
  top: "data"
  input_param {
    shape {
      dim: 1
      dim: 3
      dim: 32
      dim: 32
    }
  }
}
layer {
  name: "conv1"
  type: "Convolution"
  bottom: "data"
  top: "conv1"
  param {
    lr_mult: 1
  }
  param {
    lr_mult: 2
  }
  convolution_param {
    num_output: 32
    pad: 2
    kernel_size: 5
    stride: 1
  }
}
layer {
  name: "pool1"
  type: "Pooling"
  bottom: "conv1"
  top: "pool1"
  pooling_param {
    pool: MAX
    kernel_size: 3
    stride: 2
  }
}
layer {
  name: "relu1"
  type: "ReLU"
  bottom: "pool1"
  top: "pool1"
}
layer {
  name: "conv2"
  type: "Convolution"
  bottom: "pool1"
  top: "conv2"
  param {
    lr_mult: 1
  }
  param {
    lr_mult: 2
  }
  convolution_param {
    num_output: 32
    pad: 2
    kernel_size: 5
    stride: 1
  }
}
layer {
  name: "relu2"
  type: "ReLU"
  bottom: "conv2"
  top: "conv2"
}
layer {
  name: "pool2"
  type: "Pooling"
  bottom: "conv2"
  top: "pool2"
  pooling_param {
    pool: AVE
    kernel_size: 3
    stride: 2
  }
}
layer {
  name: "conv3"
  type: "Convolution"
  bottom: "pool2"
  top: "conv3"
  param {
    lr_mult: 1
  }
  param {
    lr_mult: 2
  }
  convolution_param {
    num_output: 64
    pad: 2
    kernel_size: 5
    stride: 1
  }
}
layer {
  name: "relu3"
  type: "ReLU"
  bottom: "conv3"
  top: "conv3"
}
layer {
  name: "pool3"
  type: "Pooling"
  bottom: "conv3"
  top: "pool3"
  pooling_param {
    pool: AVE
    kernel_size: 3
    stride: 2
  }
}
layer {
  name: "ip1"
  type: "InnerProduct"
  bottom: "pool3"
  top: "ip1"
  param {
    lr_mult: 1
  }
  param {
    lr_mult: 2
  }
  inner_product_param {
    num_output: 64
  }
}
layer {
  name: "ip2"
  type: "InnerProduct"
  bottom: "ip1"
  top: "ip2"
  param {
    lr_mult: 1
  }
  param {
    lr_mult: 2
  }
  inner_product_param {
    num_output: 10
  }
}
layer {
  name: "prob"
  type: "Softmax"
  bottom: "ip2"
  top: "prob"
}
I0509 13:42:20.198906 114462 layer_factory.hpp:77] Creating layer data
I0509 13:42:20.198922 114462 net.cpp:84] Creating Layer data
I0509 13:42:20.198928 114462 net.cpp:380] data -> data
I0509 13:42:20.198949 114462 net.cpp:122] Setting up data
I0509 13:42:20.198958 114462 net.cpp:129] Top shape: 1 3 32 32 (3072)
I0509 13:42:20.198962 114462 net.cpp:137] Memory required for data: 12288
I0509 13:42:20.198966 114462 layer_factory.hpp:77] Creating layer conv1
I0509 13:42:20.198976 114462 net.cpp:84] Creating Layer conv1
I0509 13:42:20.198982 114462 net.cpp:406] conv1 <- data
I0509 13:42:20.198988 114462 net.cpp:380] conv1 -> conv1
I0509 13:42:20.199002 114462 base_conv_layer.cpp:121] Group is 1channel is3number of output is 32
I0509 13:42:20.199028 114462 net.cpp:122] Setting up conv1
I0509 13:42:20.199034 114462 net.cpp:129] Top shape: 1 32 32 32 (32768)
I0509 13:42:20.199038 114462 net.cpp:137] Memory required for data: 143360
I0509 13:42:20.199049 114462 layer_factory.hpp:77] Creating layer pool1
I0509 13:42:20.199056 114462 net.cpp:84] Creating Layer pool1
I0509 13:42:20.199060 114462 net.cpp:406] pool1 <- conv1
I0509 13:42:20.199066 114462 net.cpp:380] pool1 -> pool1
I0509 13:42:20.199082 114462 net.cpp:122] Setting up pool1
I0509 13:42:20.199089 114462 net.cpp:129] Top shape: 1 32 16 16 (8192)
I0509 13:42:20.199092 114462 net.cpp:137] Memory required for data: 176128
I0509 13:42:20.199096 114462 layer_factory.hpp:77] Creating layer relu1
I0509 13:42:20.199102 114462 net.cpp:84] Creating Layer relu1
I0509 13:42:20.199106 114462 net.cpp:406] relu1 <- pool1
I0509 13:42:20.199111 114462 net.cpp:367] relu1 -> pool1 (in-place)
I0509 13:42:20.199118 114462 net.cpp:122] Setting up relu1
I0509 13:42:20.199123 114462 net.cpp:129] Top shape: 1 32 16 16 (8192)
I0509 13:42:20.199126 114462 net.cpp:137] Memory required for data: 208896
I0509 13:42:20.199129 114462 layer_factory.hpp:77] Creating layer conv2
I0509 13:42:20.199138 114462 net.cpp:84] Creating Layer conv2
I0509 13:42:20.199142 114462 net.cpp:406] conv2 <- pool1
I0509 13:42:20.199148 114462 net.cpp:380] conv2 -> conv2
I0509 13:42:20.199157 114462 base_conv_layer.cpp:121] Group is 1channel is32number of output is 32
I0509 13:42:20.199230 114462 net.cpp:122] Setting up conv2
I0509 13:42:20.199237 114462 net.cpp:129] Top shape: 1 32 16 16 (8192)
I0509 13:42:20.199241 114462 net.cpp:137] Memory required for data: 241664
I0509 13:42:20.199249 114462 layer_factory.hpp:77] Creating layer relu2
I0509 13:42:20.199255 114462 net.cpp:84] Creating Layer relu2
I0509 13:42:20.199259 114462 net.cpp:406] relu2 <- conv2
I0509 13:42:20.199265 114462 net.cpp:367] relu2 -> conv2 (in-place)
I0509 13:42:20.199270 114462 net.cpp:122] Setting up relu2
I0509 13:42:20.199275 114462 net.cpp:129] Top shape: 1 32 16 16 (8192)
I0509 13:42:20.199280 114462 net.cpp:137] Memory required for data: 274432
I0509 13:42:20.199282 114462 layer_factory.hpp:77] Creating layer pool2
I0509 13:42:20.199287 114462 net.cpp:84] Creating Layer pool2
I0509 13:42:20.199291 114462 net.cpp:406] pool2 <- conv2
I0509 13:42:20.199296 114462 net.cpp:380] pool2 -> pool2
I0509 13:42:20.199306 114462 net.cpp:122] Setting up pool2
I0509 13:42:20.199311 114462 net.cpp:129] Top shape: 1 32 8 8 (2048)
I0509 13:42:20.199314 114462 net.cpp:137] Memory required for data: 282624
I0509 13:42:20.199317 114462 layer_factory.hpp:77] Creating layer conv3
I0509 13:42:20.199324 114462 net.cpp:84] Creating Layer conv3
I0509 13:42:20.199328 114462 net.cpp:406] conv3 <- pool2
I0509 13:42:20.199334 114462 net.cpp:380] conv3 -> conv3
I0509 13:42:20.199343 114462 base_conv_layer.cpp:121] Group is 1channel is32number of output is 64
I0509 13:42:20.199463 114462 net.cpp:122] Setting up conv3
I0509 13:42:20.199470 114462 net.cpp:129] Top shape: 1 64 8 8 (4096)
I0509 13:42:20.199475 114462 net.cpp:137] Memory required for data: 299008
I0509 13:42:20.199483 114462 layer_factory.hpp:77] Creating layer relu3
I0509 13:42:20.199489 114462 net.cpp:84] Creating Layer relu3
I0509 13:42:20.199492 114462 net.cpp:406] relu3 <- conv3
I0509 13:42:20.199498 114462 net.cpp:367] relu3 -> conv3 (in-place)
I0509 13:42:20.199504 114462 net.cpp:122] Setting up relu3
I0509 13:42:20.199509 114462 net.cpp:129] Top shape: 1 64 8 8 (4096)
I0509 13:42:20.199512 114462 net.cpp:137] Memory required for data: 315392
I0509 13:42:20.199517 114462 layer_factory.hpp:77] Creating layer pool3
I0509 13:42:20.199522 114462 net.cpp:84] Creating Layer pool3
I0509 13:42:20.199524 114462 net.cpp:406] pool3 <- conv3
I0509 13:42:20.199529 114462 net.cpp:380] pool3 -> pool3
I0509 13:42:20.199537 114462 net.cpp:122] Setting up pool3
I0509 13:42:20.199542 114462 net.cpp:129] Top shape: 1 64 4 4 (1024)
I0509 13:42:20.199545 114462 net.cpp:137] Memory required for data: 319488
I0509 13:42:20.199548 114462 layer_factory.hpp:77] Creating layer ip1
I0509 13:42:20.199558 114462 net.cpp:84] Creating Layer ip1
I0509 13:42:20.199561 114462 net.cpp:406] ip1 <- pool3
I0509 13:42:20.199568 114462 net.cpp:380] ip1 -> ip1
I0509 13:42:20.199715 114462 net.cpp:122] Setting up ip1
I0509 13:42:20.199723 114462 net.cpp:129] Top shape: 1 64 (64)
I0509 13:42:20.199726 114462 net.cpp:137] Memory required for data: 319744
I0509 13:42:20.199733 114462 layer_factory.hpp:77] Creating layer ip2
I0509 13:42:20.199743 114462 net.cpp:84] Creating Layer ip2
I0509 13:42:20.199748 114462 net.cpp:406] ip2 <- ip1
I0509 13:42:20.199753 114462 net.cpp:380] ip2 -> ip2
I0509 13:42:20.199766 114462 net.cpp:122] Setting up ip2
I0509 13:42:20.199772 114462 net.cpp:129] Top shape: 1 10 (10)
I0509 13:42:20.199776 114462 net.cpp:137] Memory required for data: 319784
I0509 13:42:20.199784 114462 layer_factory.hpp:77] Creating layer prob
I0509 13:42:20.199790 114462 net.cpp:84] Creating Layer prob
I0509 13:42:20.199793 114462 net.cpp:406] prob <- ip2
I0509 13:42:20.199798 114462 net.cpp:380] prob -> prob
I0509 13:42:20.199807 114462 net.cpp:122] Setting up prob
I0509 13:42:20.199812 114462 net.cpp:129] Top shape: 1 10 (10)
I0509 13:42:20.199815 114462 net.cpp:137] Memory required for data: 319824
I0509 13:42:20.199820 114462 net.cpp:200] prob does not need backward computation.
I0509 13:42:20.199825 114462 net.cpp:200] ip2 does not need backward computation.
I0509 13:42:20.199827 114462 net.cpp:200] ip1 does not need backward computation.
I0509 13:42:20.199831 114462 net.cpp:200] pool3 does not need backward computation.
…
