…
W0509 13:42:01.942821 114399 _caffe.cpp:139] DEPRECATION WARNING - deprecated use of Python interface
W0509 13:42:01.942844 114399 _caffe.cpp:140] Use this instead (with the named "weights" parameter):
W0509 13:42:01.942847 114399 _caffe.cpp:142] Net('examples/cifar10/cifar10_quick.prototxt', 1, weights='examples/cifar10/cifar10_quick_iter_5000.caffemodel.h5')
I0509 13:42:01.944277 114399 net.cpp:51] Initializing net from parameters: 
name: "CIFAR10_quick_test"
state {
  phase: TEST
  level: 0
}
layer {
  name: "data"
  type: "Input"
  top: "data"
  input_param {
    shape {
      dim: 1
      dim: 3
      dim: 32
      dim: 32
    }
  }
}
layer {
  name: "conv1"
  type: "Convolution"
  bottom: "data"
  top: "conv1"
  param {
    lr_mult: 1
  }
  param {
    lr_mult: 2
  }
  convolution_param {
    num_output: 32
    pad: 2
    kernel_size: 5
    stride: 1
  }
}
layer {
  name: "pool1"
  type: "Pooling"
  bottom: "conv1"
  top: "pool1"
  pooling_param {
    pool: MAX
    kernel_size: 3
    stride: 2
  }
}
layer {
  name: "relu1"
  type: "ReLU"
  bottom: "pool1"
  top: "pool1"
}
layer {
  name: "conv2"
  type: "Convolution"
  bottom: "pool1"
  top: "conv2"
  param {
    lr_mult: 1
  }
  param {
    lr_mult: 2
  }
  convolution_param {
    num_output: 32
    pad: 2
    kernel_size: 5
    stride: 1
  }
}
layer {
  name: "relu2"
  type: "ReLU"
  bottom: "conv2"
  top: "conv2"
}
layer {
  name: "pool2"
  type: "Pooling"
  bottom: "conv2"
  top: "pool2"
  pooling_param {
    pool: AVE
    kernel_size: 3
    stride: 2
  }
}
layer {
  name: "conv3"
  type: "Convolution"
  bottom: "pool2"
  top: "conv3"
  param {
    lr_mult: 1
  }
  param {
    lr_mult: 2
  }
  convolution_param {
    num_output: 64
    pad: 2
    kernel_size: 5
    stride: 1
  }
}
layer {
  name: "relu3"
  type: "ReLU"
  bottom: "conv3"
  top: "conv3"
}
layer {
  name: "pool3"
  type: "Pooling"
  bottom: "conv3"
  top: "pool3"
  pooling_param {
    pool: AVE
    kernel_size: 3
    stride: 2
  }
}
layer {
  name: "ip1"
  type: "InnerProduct"
  bottom: "pool3"
  top: "ip1"
  param {
    lr_mult: 1
  }
  param {
    lr_mult: 2
  }
  inner_product_param {
    num_output: 64
  }
}
layer {
  name: "ip2"
  type: "InnerProduct"
  bottom: "ip1"
  top: "ip2"
  param {
    lr_mult: 1
  }
  param {
    lr_mult: 2
  }
  inner_product_param {
    num_output: 10
  }
}
layer {
  name: "prob"
  type: "Softmax"
  bottom: "ip2"
  top: "prob"
}
I0509 13:42:01.944327 114399 layer_factory.hpp:77] Creating layer data
I0509 13:42:01.944337 114399 net.cpp:84] Creating Layer data
I0509 13:42:01.944344 114399 net.cpp:380] data -> data
I0509 13:42:01.944356 114399 net.cpp:122] Setting up data
I0509 13:42:01.944380 114399 net.cpp:129] Top shape: 1 3 32 32 (3072)
I0509 13:42:01.944384 114399 net.cpp:137] Memory required for data: 12288
I0509 13:42:01.944386 114399 layer_factory.hpp:77] Creating layer conv1
I0509 13:42:01.944394 114399 net.cpp:84] Creating Layer conv1
I0509 13:42:01.944397 114399 net.cpp:406] conv1 <- data
I0509 13:42:01.944402 114399 net.cpp:380] conv1 -> conv1
I0509 13:42:01.944412 114399 base_conv_layer.cpp:121] Group is 1channel is3number of output is 32
I0509 13:42:01.944429 114399 net.cpp:122] Setting up conv1
I0509 13:42:01.944434 114399 net.cpp:129] Top shape: 1 32 32 32 (32768)
I0509 13:42:01.944437 114399 net.cpp:137] Memory required for data: 143360
I0509 13:42:01.944445 114399 layer_factory.hpp:77] Creating layer pool1
I0509 13:42:01.944458 114399 net.cpp:84] Creating Layer pool1
I0509 13:42:01.944460 114399 net.cpp:406] pool1 <- conv1
I0509 13:42:01.944464 114399 net.cpp:380] pool1 -> pool1
I0509 13:42:01.944473 114399 net.cpp:122] Setting up pool1
I0509 13:42:01.944478 114399 net.cpp:129] Top shape: 1 32 16 16 (8192)
I0509 13:42:01.944479 114399 net.cpp:137] Memory required for data: 176128
I0509 13:42:01.944483 114399 layer_factory.hpp:77] Creating layer relu1
I0509 13:42:01.944488 114399 net.cpp:84] Creating Layer relu1
I0509 13:42:01.944489 114399 net.cpp:406] relu1 <- pool1
I0509 13:42:01.944494 114399 net.cpp:367] relu1 -> pool1 (in-place)
I0509 13:42:01.944499 114399 net.cpp:122] Setting up relu1
I0509 13:42:01.944501 114399 net.cpp:129] Top shape: 1 32 16 16 (8192)
I0509 13:42:01.944504 114399 net.cpp:137] Memory required for data: 208896
I0509 13:42:01.944506 114399 layer_factory.hpp:77] Creating layer conv2
I0509 13:42:01.944512 114399 net.cpp:84] Creating Layer conv2
I0509 13:42:01.944515 114399 net.cpp:406] conv2 <- pool1
I0509 13:42:01.944519 114399 net.cpp:380] conv2 -> conv2
I0509 13:42:01.944526 114399 base_conv_layer.cpp:121] Group is 1channel is32number of output is 32
I0509 13:42:01.944577 114399 net.cpp:122] Setting up conv2
I0509 13:42:01.944582 114399 net.cpp:129] Top shape: 1 32 16 16 (8192)
I0509 13:42:01.944586 114399 net.cpp:137] Memory required for data: 241664
I0509 13:42:01.944591 114399 layer_factory.hpp:77] Creating layer relu2
I0509 13:42:01.944595 114399 net.cpp:84] Creating Layer relu2
I0509 13:42:01.944598 114399 net.cpp:406] relu2 <- conv2
I0509 13:42:01.944602 114399 net.cpp:367] relu2 -> conv2 (in-place)
I0509 13:42:01.944605 114399 net.cpp:122] Setting up relu2
I0509 13:42:01.944609 114399 net.cpp:129] Top shape: 1 32 16 16 (8192)
I0509 13:42:01.944612 114399 net.cpp:137] Memory required for data: 274432
I0509 13:42:01.944614 114399 layer_factory.hpp:77] Creating layer pool2
I0509 13:42:01.944618 114399 net.cpp:84] Creating Layer pool2
I0509 13:42:01.944622 114399 net.cpp:406] pool2 <- conv2
I0509 13:42:01.944625 114399 net.cpp:380] pool2 -> pool2
I0509 13:42:01.944631 114399 net.cpp:122] Setting up pool2
I0509 13:42:01.944635 114399 net.cpp:129] Top shape: 1 32 8 8 (2048)
I0509 13:42:01.944638 114399 net.cpp:137] Memory required for data: 282624
I0509 13:42:01.944640 114399 layer_factory.hpp:77] Creating layer conv3
I0509 13:42:01.944645 114399 net.cpp:84] Creating Layer conv3
I0509 13:42:01.944648 114399 net.cpp:406] conv3 <- pool2
I0509 13:42:01.944653 114399 net.cpp:380] conv3 -> conv3
I0509 13:42:01.944658 114399 base_conv_layer.cpp:121] Group is 1channel is32number of output is 64
I0509 13:42:01.944748 114399 net.cpp:122] Setting up conv3
I0509 13:42:01.944754 114399 net.cpp:129] Top shape: 1 64 8 8 (4096)
I0509 13:42:01.944757 114399 net.cpp:137] Memory required for data: 299008
I0509 13:42:01.944763 114399 layer_factory.hpp:77] Creating layer relu3
I0509 13:42:01.944768 114399 net.cpp:84] Creating Layer relu3
I0509 13:42:01.944771 114399 net.cpp:406] relu3 <- conv3
I0509 13:42:01.944774 114399 net.cpp:367] relu3 -> conv3 (in-place)
I0509 13:42:01.944778 114399 net.cpp:122] Setting up relu3
I0509 13:42:01.944782 114399 net.cpp:129] Top shape: 1 64 8 8 (4096)
I0509 13:42:01.944784 114399 net.cpp:137] Memory required for data: 315392
I0509 13:42:01.944787 114399 layer_factory.hpp:77] Creating layer pool3
I0509 13:42:01.944790 114399 net.cpp:84] Creating Layer pool3
I0509 13:42:01.944793 114399 net.cpp:406] pool3 <- conv3
I0509 13:42:01.944797 114399 net.cpp:380] pool3 -> pool3
I0509 13:42:01.944802 114399 net.cpp:122] Setting up pool3
I0509 13:42:01.944806 114399 net.cpp:129] Top shape: 1 64 4 4 (1024)
I0509 13:42:01.944808 114399 net.cpp:137] Memory required for data: 319488
I0509 13:42:01.944810 114399 layer_factory.hpp:77] Creating layer ip1
I0509 13:42:01.944816 114399 net.cpp:84] Creating Layer ip1
I0509 13:42:01.944818 114399 net.cpp:406] ip1 <- pool3
I0509 13:42:01.944823 114399 net.cpp:380] ip1 -> ip1
I0509 13:42:01.944933 114399 net.cpp:122] Setting up ip1
I0509 13:42:01.944942 114399 net.cpp:129] Top shape: 1 64 (64)
I0509 13:42:01.944946 114399 net.cpp:137] Memory required for data: 319744
I0509 13:42:01.944950 114399 layer_factory.hpp:77] Creating layer ip2
I0509 13:42:01.944954 114399 net.cpp:84] Creating Layer ip2
I0509 13:42:01.944957 114399 net.cpp:406] ip2 <- ip1
I0509 13:42:01.944962 114399 net.cpp:380] ip2 -> ip2
I0509 13:42:01.944972 114399 net.cpp:122] Setting up ip2
I0509 13:42:01.944977 114399 net.cpp:129] Top shape: 1 10 (10)
I0509 13:42:01.944978 114399 net.cpp:137] Memory required for data: 319784
I0509 13:42:01.944984 114399 layer_factory.hpp:77] Creating layer prob
I0509 13:42:01.944988 114399 net.cpp:84] Creating Layer prob
I0509 13:42:01.944991 114399 net.cpp:406] prob <- ip2
I0509 13:42:01.944995 114399 net.cpp:380] prob -> prob
I0509 13:42:01.945001 114399 net.cpp:122] Setting up prob
I0509 13:42:01.945005 114399 net.cpp:129] Top shape: 1 10 (10)
I0509 13:42:01.945008 114399 net.cpp:137] Memory required for data: 319824
I0509 13:42:01.945010 114399 net.cpp:200] prob does not need backward computation.
I0509 13:42:01.945013 114399 net.cpp:200] ip2 does not need backward computation.
I0509 13:42:01.945016 114399 net.cpp:200] ip1 does not need backward computation.
I0509 13:42:01.945019 114399 net.cpp:200] pool3 does not need backward computation.
…
