…
W0509 13:42:19.119859 114431 _caffe.cpp:142] Net('examples/cifar10/cifar10_quick.prototxt', 1, weights='examples/cifar10/cifar10_quick_iter_5000.caffemodel.h5')
     0.678530972            169,625      branch-misses:u          
     0.678530972          8,355,605      branches:u               
I0509 13:42:19.121333 114431 net.cpp:51] Initializing net from parameters: 
name: "CIFAR10_quick_test"
state {
  phase: TEST
  level: 0
}
layer {
  name: "data"
  type: "Input"
  top: "data"
  input_param {
    shape {
      dim: 1
      dim: 3
      dim: 32
      dim: 32
    }
  }
}
layer {
  name: "conv1"
  type: "Convolution"
  bottom: "data"
  top: "conv1"
  param {
    lr_mult: 1
  }
  param {
    lr_mult: 2
  }
  convolution_param {
    num_output: 32
    pad: 2
    kernel_size: 5
    stride: 1
  }
}
layer {
  name: "pool1"
  type: "Pooling"
  bottom: "conv1"
  top: "pool1"
  pooling_param {
    pool: MAX
    kernel_size: 3
    stride: 2
  }
}
layer {
  name: "relu1"
  type: "ReLU"
  bottom: "pool1"
  top: "pool1"
}
layer {
  name: "conv2"
  type: "Convolution"
  bottom: "pool1"
  top: "conv2"
  param {
    lr_mult: 1
  }
  param {
    lr_mult: 2
  }
  convolution_param {
    num_output: 32
    pad: 2
    kernel_size: 5
    stride: 1
  }
}
layer {
  name: "relu2"
  type: "ReLU"
  bottom: "conv2"
  top: "conv2"
}
layer {
  name: "pool2"
  type: "Pooling"
  bottom: "conv2"
  top: "pool2"
  pooling_param {
    pool: AVE
    kernel_size: 3
    stride: 2
  }
}
layer {
  name: "conv3"
  type: "Convolution"
  bottom: "pool2"
  top: "conv3"
  param {
    lr_mult: 1
  }
  param {
    lr_mult: 2
  }
  convolution_param {
    num_output: 64
    pad: 2
    kernel_size: 5
    stride: 1
  }
}
layer {
  name: "relu3"
  type: "ReLU"
  bottom: "conv3"
  top: "conv3"
}
layer {
  name: "pool3"
  type: "Pooling"
  bottom: "conv3"
  top: "pool3"
  pooling_param {
    pool: AVE
    kernel_size: 3
    stride: 2
  }
}
layer {
  name: "ip1"
  type: "InnerProduct"
  bottom: "pool3"
  top: "ip1"
  param {
    lr_mult: 1
  }
  param {
    lr_mult: 2
  }
  inner_product_param {
    num_output: 64
  }
}
layer {
  name: "ip2"
  type: "InnerProduct"
  bottom: "ip1"
  top: "ip2"
  param {
    lr_mult: 1
  }
  param {
    lr_mult: 2
  }
  inner_product_param {
    num_output: 10
  }
}
layer {
  name: "prob"
  type: "Softmax"
  bottom: "ip2"
  top: "prob"
}
I0509 13:42:19.121377 114431 layer_factory.hpp:77] Creating layer data
I0509 13:42:19.121389 114431 net.cpp:84] Creating Layer data
I0509 13:42:19.121393 114431 net.cpp:380] data -> data
I0509 13:42:19.121413 114431 net.cpp:122] Setting up data
I0509 13:42:19.121420 114431 net.cpp:129] Top shape: 1 3 32 32 (3072)
I0509 13:42:19.121423 114431 net.cpp:137] Memory required for data: 12288
I0509 13:42:19.121426 114431 layer_factory.hpp:77] Creating layer conv1
I0509 13:42:19.121434 114431 net.cpp:84] Creating Layer conv1
I0509 13:42:19.121438 114431 net.cpp:406] conv1 <- data
I0509 13:42:19.121449 114431 net.cpp:380] conv1 -> conv1
I0509 13:42:19.121459 114431 base_conv_layer.cpp:121] Group is 1channel is3number of output is 32
I0509 13:42:19.121481 114431 net.cpp:122] Setting up conv1
I0509 13:42:19.121486 114431 net.cpp:129] Top shape: 1 32 32 32 (32768)
I0509 13:42:19.121490 114431 net.cpp:137] Memory required for data: 143360
I0509 13:42:19.121498 114431 layer_factory.hpp:77] Creating layer pool1
I0509 13:42:19.121505 114431 net.cpp:84] Creating Layer pool1
I0509 13:42:19.121507 114431 net.cpp:406] pool1 <- conv1
I0509 13:42:19.121512 114431 net.cpp:380] pool1 -> pool1
I0509 13:42:19.121521 114431 net.cpp:122] Setting up pool1
I0509 13:42:19.121526 114431 net.cpp:129] Top shape: 1 32 16 16 (8192)
I0509 13:42:19.121527 114431 net.cpp:137] Memory required for data: 176128
I0509 13:42:19.121546 114431 layer_factory.hpp:77] Creating layer relu1
I0509 13:42:19.121549 114431 net.cpp:84] Creating Layer relu1
I0509 13:42:19.121552 114431 net.cpp:406] relu1 <- pool1
I0509 13:42:19.121556 114431 net.cpp:367] relu1 -> pool1 (in-place)
I0509 13:42:19.121562 114431 net.cpp:122] Setting up relu1
I0509 13:42:19.121564 114431 net.cpp:129] Top shape: 1 32 16 16 (8192)
I0509 13:42:19.121567 114431 net.cpp:137] Memory required for data: 208896
I0509 13:42:19.121569 114431 layer_factory.hpp:77] Creating layer conv2
I0509 13:42:19.121575 114431 net.cpp:84] Creating Layer conv2
I0509 13:42:19.121578 114431 net.cpp:406] conv2 <- pool1
I0509 13:42:19.121582 114431 net.cpp:380] conv2 -> conv2
I0509 13:42:19.121589 114431 base_conv_layer.cpp:121] Group is 1channel is32number of output is 32
I0509 13:42:19.121644 114431 net.cpp:122] Setting up conv2
I0509 13:42:19.121649 114431 net.cpp:129] Top shape: 1 32 16 16 (8192)
I0509 13:42:19.121651 114431 net.cpp:137] Memory required for data: 241664
I0509 13:42:19.121657 114431 layer_factory.hpp:77] Creating layer relu2
I0509 13:42:19.121662 114431 net.cpp:84] Creating Layer relu2
I0509 13:42:19.121665 114431 net.cpp:406] relu2 <- conv2
I0509 13:42:19.121670 114431 net.cpp:367] relu2 -> conv2 (in-place)
I0509 13:42:19.121673 114431 net.cpp:122] Setting up relu2
I0509 13:42:19.121677 114431 net.cpp:129] Top shape: 1 32 16 16 (8192)
I0509 13:42:19.121680 114431 net.cpp:137] Memory required for data: 274432
I0509 13:42:19.121682 114431 layer_factory.hpp:77] Creating layer pool2
I0509 13:42:19.121686 114431 net.cpp:84] Creating Layer pool2
I0509 13:42:19.121690 114431 net.cpp:406] pool2 <- conv2
I0509 13:42:19.121693 114431 net.cpp:380] pool2 -> pool2
I0509 13:42:19.121700 114431 net.cpp:122] Setting up pool2
I0509 13:42:19.121703 114431 net.cpp:129] Top shape: 1 32 8 8 (2048)
I0509 13:42:19.121706 114431 net.cpp:137] Memory required for data: 282624
I0509 13:42:19.121708 114431 layer_factory.hpp:77] Creating layer conv3
I0509 13:42:19.121713 114431 net.cpp:84] Creating Layer conv3
I0509 13:42:19.121716 114431 net.cpp:406] conv3 <- pool2
I0509 13:42:19.121721 114431 net.cpp:380] conv3 -> conv3
I0509 13:42:19.121727 114431 base_conv_layer.cpp:121] Group is 1channel is32number of output is 64
I0509 13:42:19.121816 114431 net.cpp:122] Setting up conv3
I0509 13:42:19.121822 114431 net.cpp:129] Top shape: 1 64 8 8 (4096)
I0509 13:42:19.121824 114431 net.cpp:137] Memory required for data: 299008
I0509 13:42:19.121831 114431 layer_factory.hpp:77] Creating layer relu3
I0509 13:42:19.121836 114431 net.cpp:84] Creating Layer relu3
I0509 13:42:19.121839 114431 net.cpp:406] relu3 <- conv3
I0509 13:42:19.121843 114431 net.cpp:367] relu3 -> conv3 (in-place)
I0509 13:42:19.121847 114431 net.cpp:122] Setting up relu3
I0509 13:42:19.121850 114431 net.cpp:129] Top shape: 1 64 8 8 (4096)
I0509 13:42:19.121853 114431 net.cpp:137] Memory required for data: 315392
I0509 13:42:19.121856 114431 layer_factory.hpp:77] Creating layer pool3
I0509 13:42:19.121860 114431 net.cpp:84] Creating Layer pool3
I0509 13:42:19.121862 114431 net.cpp:406] pool3 <- conv3
I0509 13:42:19.121866 114431 net.cpp:380] pool3 -> pool3
I0509 13:42:19.121871 114431 net.cpp:122] Setting up pool3
I0509 13:42:19.121876 114431 net.cpp:129] Top shape: 1 64 4 4 (1024)
I0509 13:42:19.121881 114431 net.cpp:137] Memory required for data: 319488
I0509 13:42:19.121883 114431 layer_factory.hpp:77] Creating layer ip1
I0509 13:42:19.121892 114431 net.cpp:84] Creating Layer ip1
I0509 13:42:19.121896 114431 net.cpp:406] ip1 <- pool3
I0509 13:42:19.121899 114431 net.cpp:380] ip1 -> ip1
I0509 13:42:19.122006 114431 net.cpp:122] Setting up ip1
I0509 13:42:19.122012 114431 net.cpp:129] Top shape: 1 64 (64)
I0509 13:42:19.122014 114431 net.cpp:137] Memory required for data: 319744
I0509 13:42:19.122020 114431 layer_factory.hpp:77] Creating layer ip2
I0509 13:42:19.122023 114431 net.cpp:84] Creating Layer ip2
I0509 13:42:19.122026 114431 net.cpp:406] ip2 <- ip1
I0509 13:42:19.122031 114431 net.cpp:380] ip2 -> ip2
I0509 13:42:19.122041 114431 net.cpp:122] Setting up ip2
I0509 13:42:19.122045 114431 net.cpp:129] Top shape: 1 10 (10)
I0509 13:42:19.122047 114431 net.cpp:137] Memory required for data: 319784
I0509 13:42:19.122053 114431 layer_factory.hpp:77] Creating layer prob
I0509 13:42:19.122057 114431 net.cpp:84] Creating Layer prob
I0509 13:42:19.122061 114431 net.cpp:406] prob <- ip2
I0509 13:42:19.122064 114431 net.cpp:380] prob -> prob
I0509 13:42:19.122071 114431 net.cpp:122] Setting up prob
I0509 13:42:19.122074 114431 net.cpp:129] Top shape: 1 10 (10)
I0509 13:42:19.122077 114431 net.cpp:137] Memory required for data: 319824
I0509 13:42:19.122081 114431 net.cpp:200] prob does not need backward computation.
I0509 13:42:19.122083 114431 net.cpp:200] ip2 does not need backward computation.
I0509 13:42:19.122087 114431 net.cpp:200] ip1 does not need backward computation.
I0509 13:42:19.122088 114431 net.cpp:200] pool3 does not need backward computation.
…
