…
W0509 13:42:21.785241 114524 _caffe.cpp:139] DEPRECATION WARNING - deprecated use of Python interface
W0509 13:42:21.785265 114524 _caffe.cpp:140] Use this instead (with the named "weights" parameter):
W0509 13:42:21.785269 114524 _caffe.cpp:142] Net('examples/cifar10/cifar10_quick.prototxt', 1, weights='examples/cifar10/cifar10_quick_iter_5000.caffemodel.h5')
I0509 13:42:21.786669 114524 net.cpp:51] Initializing net from parameters: 
name: "CIFAR10_quick_test"
state {
  phase: TEST
  level: 0
}
layer {
  name: "data"
  type: "Input"
  top: "data"
  input_param {
    shape {
      dim: 1
      dim: 3
      dim: 32
      dim: 32
    }
  }
}
layer {
  name: "conv1"
  type: "Convolution"
  bottom: "data"
  top: "conv1"
  param {
    lr_mult: 1
  }
  param {
    lr_mult: 2
  }
  convolution_param {
    num_output: 32
    pad: 2
    kernel_size: 5
    stride: 1
  }
}
layer {
  name: "pool1"
  type: "Pooling"
  bottom: "conv1"
  top: "pool1"
  pooling_param {
    pool: MAX
    kernel_size: 3
    stride: 2
  }
}
layer {
  name: "relu1"
  type: "ReLU"
  bottom: "pool1"
  top: "pool1"
}
layer {
  name: "conv2"
  type: "Convolution"
  bottom: "pool1"
  top: "conv2"
  param {
    lr_mult: 1
  }
  param {
    lr_mult: 2
  }
  convolution_param {
    num_output: 32
    pad: 2
    kernel_size: 5
    stride: 1
  }
}
layer {
  name: "relu2"
  type: "ReLU"
  bottom: "conv2"
  top: "conv2"
}
layer {
  name: "pool2"
  type: "Pooling"
  bottom: "conv2"
  top: "pool2"
  pooling_param {
    pool: AVE
    kernel_size: 3
    stride: 2
  }
}
layer {
  name: "conv3"
  type: "Convolution"
  bottom: "pool2"
  top: "conv3"
  param {
    lr_mult: 1
  }
  param {
    lr_mult: 2
  }
  convolution_param {
    num_output: 64
    pad: 2
    kernel_size: 5
    stride: 1
  }
}
layer {
  name: "relu3"
  type: "ReLU"
  bottom: "conv3"
  top: "conv3"
}
layer {
  name: "pool3"
  type: "Pooling"
  bottom: "conv3"
  top: "pool3"
  pooling_param {
    pool: AVE
    kernel_size: 3
    stride: 2
  }
}
layer {
  name: "ip1"
  type: "InnerProduct"
  bottom: "pool3"
  top: "ip1"
  param {
    lr_mult: 1
  }
  param {
    lr_mult: 2
  }
  inner_product_param {
    num_output: 64
  }
}
layer {
  name: "ip2"
  type: "InnerProduct"
  bottom: "ip1"
  top: "ip2"
  param {
    lr_mult: 1
  }
  param {
    lr_mult: 2
  }
  inner_product_param {
    num_output: 10
  }
}
layer {
  name: "prob"
  type: "Softmax"
  bottom: "ip2"
  top: "prob"
}
I0509 13:42:21.786717 114524 layer_factory.hpp:77] Creating layer data
I0509 13:42:21.786726 114524 net.cpp:84] Creating Layer data
I0509 13:42:21.786733 114524 net.cpp:380] data -> data
I0509 13:42:21.786748 114524 net.cpp:122] Setting up data
I0509 13:42:21.786756 114524 net.cpp:129] Top shape: 1 3 32 32 (3072)
I0509 13:42:21.786758 114524 net.cpp:137] Memory required for data: 12288
I0509 13:42:21.786761 114524 layer_factory.hpp:77] Creating layer conv1
I0509 13:42:21.786768 114524 net.cpp:84] Creating Layer conv1
I0509 13:42:21.786772 114524 net.cpp:406] conv1 <- data
I0509 13:42:21.786777 114524 net.cpp:380] conv1 -> conv1
I0509 13:42:21.786787 114524 base_conv_layer.cpp:121] Group is 1channel is3number of output is 32
I0509 13:42:21.786803 114524 net.cpp:122] Setting up conv1
I0509 13:42:21.786808 114524 net.cpp:129] Top shape: 1 32 32 32 (32768)
I0509 13:42:21.786811 114524 net.cpp:137] Memory required for data: 143360
I0509 13:42:21.786819 114524 layer_factory.hpp:77] Creating layer pool1
I0509 13:42:21.786830 114524 net.cpp:84] Creating Layer pool1
I0509 13:42:21.786834 114524 net.cpp:406] pool1 <- conv1
I0509 13:42:21.786839 114524 net.cpp:380] pool1 -> pool1
I0509 13:42:21.786846 114524 net.cpp:122] Setting up pool1
I0509 13:42:21.786850 114524 net.cpp:129] Top shape: 1 32 16 16 (8192)
I0509 13:42:21.786854 114524 net.cpp:137] Memory required for data: 176128
I0509 13:42:21.786856 114524 layer_factory.hpp:77] Creating layer relu1
I0509 13:42:21.786860 114524 net.cpp:84] Creating Layer relu1
I0509 13:42:21.786864 114524 net.cpp:406] relu1 <- pool1
I0509 13:42:21.786866 114524 net.cpp:367] relu1 -> pool1 (in-place)
I0509 13:42:21.786871 114524 net.cpp:122] Setting up relu1
I0509 13:42:21.786875 114524 net.cpp:129] Top shape: 1 32 16 16 (8192)
I0509 13:42:21.786878 114524 net.cpp:137] Memory required for data: 208896
I0509 13:42:21.786880 114524 layer_factory.hpp:77] Creating layer conv2
I0509 13:42:21.786886 114524 net.cpp:84] Creating Layer conv2
I0509 13:42:21.786890 114524 net.cpp:406] conv2 <- pool1
I0509 13:42:21.786893 114524 net.cpp:380] conv2 -> conv2
I0509 13:42:21.786900 114524 base_conv_layer.cpp:121] Group is 1channel is32number of output is 32
I0509 13:42:21.786957 114524 net.cpp:122] Setting up conv2
I0509 13:42:21.786962 114524 net.cpp:129] Top shape: 1 32 16 16 (8192)
I0509 13:42:21.786964 114524 net.cpp:137] Memory required for data: 241664
I0509 13:42:21.786970 114524 layer_factory.hpp:77] Creating layer relu2
I0509 13:42:21.786975 114524 net.cpp:84] Creating Layer relu2
I0509 13:42:21.786978 114524 net.cpp:406] relu2 <- conv2
I0509 13:42:21.786981 114524 net.cpp:367] relu2 -> conv2 (in-place)
I0509 13:42:21.786985 114524 net.cpp:122] Setting up relu2
I0509 13:42:21.786989 114524 net.cpp:129] Top shape: 1 32 16 16 (8192)
I0509 13:42:21.786993 114524 net.cpp:137] Memory required for data: 274432
I0509 13:42:21.786994 114524 layer_factory.hpp:77] Creating layer pool2
I0509 13:42:21.786998 114524 net.cpp:84] Creating Layer pool2
I0509 13:42:21.787001 114524 net.cpp:406] pool2 <- conv2
I0509 13:42:21.787005 114524 net.cpp:380] pool2 -> pool2
I0509 13:42:21.787011 114524 net.cpp:122] Setting up pool2
I0509 13:42:21.787015 114524 net.cpp:129] Top shape: 1 32 8 8 (2048)
I0509 13:42:21.787017 114524 net.cpp:137] Memory required for data: 282624
I0509 13:42:21.787020 114524 layer_factory.hpp:77] Creating layer conv3
I0509 13:42:21.787025 114524 net.cpp:84] Creating Layer conv3
I0509 13:42:21.787027 114524 net.cpp:406] conv3 <- pool2
I0509 13:42:21.787032 114524 net.cpp:380] conv3 -> conv3
I0509 13:42:21.787039 114524 base_conv_layer.cpp:121] Group is 1channel is32number of output is 64
I0509 13:42:21.787130 114524 net.cpp:122] Setting up conv3
I0509 13:42:21.787135 114524 net.cpp:129] Top shape: 1 64 8 8 (4096)
I0509 13:42:21.787138 114524 net.cpp:137] Memory required for data: 299008
I0509 13:42:21.787144 114524 layer_factory.hpp:77] Creating layer relu3
I0509 13:42:21.787149 114524 net.cpp:84] Creating Layer relu3
I0509 13:42:21.787153 114524 net.cpp:406] relu3 <- conv3
I0509 13:42:21.787156 114524 net.cpp:367] relu3 -> conv3 (in-place)
I0509 13:42:21.787160 114524 net.cpp:122] Setting up relu3
I0509 13:42:21.787164 114524 net.cpp:129] Top shape: 1 64 8 8 (4096)
I0509 13:42:21.787166 114524 net.cpp:137] Memory required for data: 315392
I0509 13:42:21.787169 114524 layer_factory.hpp:77] Creating layer pool3
I0509 13:42:21.787173 114524 net.cpp:84] Creating Layer pool3
I0509 13:42:21.787175 114524 net.cpp:406] pool3 <- conv3
I0509 13:42:21.787179 114524 net.cpp:380] pool3 -> pool3
I0509 13:42:21.787184 114524 net.cpp:122] Setting up pool3
I0509 13:42:21.787187 114524 net.cpp:129] Top shape: 1 64 4 4 (1024)
I0509 13:42:21.787190 114524 net.cpp:137] Memory required for data: 319488
I0509 13:42:21.787192 114524 layer_factory.hpp:77] Creating layer ip1
I0509 13:42:21.787199 114524 net.cpp:84] Creating Layer ip1
I0509 13:42:21.787202 114524 net.cpp:406] ip1 <- pool3
I0509 13:42:21.787206 114524 net.cpp:380] ip1 -> ip1
I0509 13:42:21.787318 114524 net.cpp:122] Setting up ip1
I0509 13:42:21.787328 114524 net.cpp:129] Top shape: 1 64 (64)
I0509 13:42:21.787329 114524 net.cpp:137] Memory required for data: 319744
I0509 13:42:21.787334 114524 layer_factory.hpp:77] Creating layer ip2
I0509 13:42:21.787339 114524 net.cpp:84] Creating Layer ip2
I0509 13:42:21.787343 114524 net.cpp:406] ip2 <- ip1
I0509 13:42:21.787346 114524 net.cpp:380] ip2 -> ip2
I0509 13:42:21.787356 114524 net.cpp:122] Setting up ip2
I0509 13:42:21.787360 114524 net.cpp:129] Top shape: 1 10 (10)
I0509 13:42:21.787362 114524 net.cpp:137] Memory required for data: 319784
I0509 13:42:21.787369 114524 layer_factory.hpp:77] Creating layer prob
I0509 13:42:21.787372 114524 net.cpp:84] Creating Layer prob
I0509 13:42:21.787375 114524 net.cpp:406] prob <- ip2
I0509 13:42:21.787379 114524 net.cpp:380] prob -> prob
I0509 13:42:21.787385 114524 net.cpp:122] Setting up prob
I0509 13:42:21.787389 114524 net.cpp:129] Top shape: 1 10 (10)
I0509 13:42:21.787391 114524 net.cpp:137] Memory required for data: 319824
I0509 13:42:21.787395 114524 net.cpp:200] prob does not need backward computation.
I0509 13:42:21.787397 114524 net.cpp:200] ip2 does not need backward computation.
I0509 13:42:21.787400 114524 net.cpp:200] ip1 does not need backward computation.
I0509 13:42:21.787403 114524 net.cpp:200] pool3 does not need backward computation.
…
