…
I0509 14:31:29.617982 116982 net.cpp:294] The NetState phase (0) differed from the phase (1) specified by a rule in layer accuracy
I0509 14:31:29.618227 116982 net.cpp:51] Initializing net from parameters: 
name: "AlexNet"
state {
  phase: TRAIN
  level: 0
  stage: ""
}
layer {
  name: "data"
  type: "Data"
  top: "data"
  top: "label"
  include {
    phase: TRAIN
  }
  transform_param {
    mirror: true
    crop_size: 227
    mean_file: "data/ilsvrc12/imagenet_mean.binaryproto"
  }
  data_param {
    source: "examples/imagenet/ilsvrc12_train_lmdb"
    batch_size: 256
    backend: LMDB
  }
}
layer {
  name: "conv1"
  type: "Convolution"
  bottom: "data"
  top: "conv1"
  param {
    lr_mult: 1
    decay_mult: 1
  }
  param {
    lr_mult: 2
    decay_mult: 0
  }
  convolution_param {
    num_output: 96
    kernel_size: 11
    stride: 4
    weight_filler {
      type: "gaussian"
      std: 0.01
    }
    bias_filler {
      type: "constant"
      value: 0
    }
  }
}
layer {
  name: "relu1"
  type: "ReLU"
  bottom: "conv1"
  top: "conv1"
}
layer {
  name: "norm1"
  type: "LRN"
  bottom: "conv1"
  top: "norm1"
  lrn_param {
    local_size: 5
    alpha: 0.0001
    beta: 0.75
  }
}
layer {
  name: "pool1"
  type: "Pooling"
  bottom: "norm1"
  top: "pool1"
  pooling_param {
    pool: MAX
    kernel_size: 3
    stride: 2
  }
}
layer {
  name: "conv2"
  type: "Convolution"
  bottom: "pool1"
  top: "conv2"
  param {
    lr_mult: 1
    decay_mult: 1
  }
  param {
    lr_mult: 2
    decay_mult: 0
  }
  convolution_param {
    num_output: 256
    pad: 2
    kernel_size: 5
    group: 2
    weight_filler {
      type: "gaussian"
      std: 0.01
    }
    bias_filler {
      type: "constant"
      value: 0.1
    }
  }
}
layer {
  name: "relu2"
  type: "ReLU"
  bottom: "conv2"
  top: "conv2"
}
layer {
  name: "norm2"
  type: "LRN"
  bottom: "conv2"
  top: "norm2"
  lrn_param {
    local_size: 5
    alpha: 0.0001
    beta: 0.75
  }
}
layer {
  name: "pool2"
  type: "Pooling"
  bottom: "norm2"
  top: "pool2"
  pooling_param {
    pool: MAX
    kernel_size: 3
    stride: 2
  }
}
layer {
  name: "conv3"
  type: "Convolution"
  bottom: "pool2"
  top: "conv3"
  param {
    lr_mult: 1
    decay_mult: 1
  }
  param {
    lr_mult: 2
    decay_mult: 0
  }
  convolution_param {
    num_output: 384
    pad: 1
    kernel_size: 3
    weight_filler {
      type: "gaussian"
      std: 0.01
    }
    bias_filler {
      type: "constant"
      value: 0
    }
  }
}
layer {
  name: "relu3"
  type: "ReLU"
  bottom: "conv3"
  top: "conv3"
}
layer {
  name: "conv4"
  type: "Convolution"
  bottom: "conv3"
  top: "conv4"
  param {
    lr_mult: 1
    decay_mult: 1
  }
  param {
    lr_mult: 2
    decay_mult: 0
  }
  convolution_param {
    num_output: 384
    pad: 1
    kernel_size: 3
    group: 2
    weight_filler {
      type: "gaussian"
      std: 0.01
    }
    bias_filler {
      type: "constant"
      value: 0.1
    }
  }
}
layer {
  name: "relu4"
  type: "ReLU"
  bottom: "conv4"
  top: "conv4"
}
layer {
  name: "conv5"
  type: "Convolution"
  bottom: "conv4"
  top: "conv5"
  param {
    lr_mult: 1
    decay_mult: 1
  }
  param {
    lr_mult: 2
    decay_mult: 0
  }
  convolution_param {
    num_output: 256
    pad: 1
    kernel_size: 3
    group: 2
    weight_filler {
      type: "gaussian"
      std: 0.01
    }
    bias_filler {
      type: "constant"
      value: 0.1
    }
  }
}
layer {
  name: "relu5"
  type: "ReLU"
  bottom: "conv5"
  top: "conv5"
}
layer {
  name: "pool5"
  type: "Pooling"
  bottom: "conv5"
  top: "pool5"
  pooling_param {
    pool: MAX
    kernel_size: 3
    stride: 2
  }
}
layer {
  name: "fc6"
  type: "InnerProduct"
  bottom: "pool5"
  top: "fc6"
  param {
    lr_mult: 1
    decay_mult: 1
  }
  param {
    lr_mult: 2
    decay_mult: 0
  }
  inner_product_param {
    num_output: 4096
    weight_filler {
      type: "gaussian"
      std: 0.005
    }
    bias_filler {
      type: "constant"
      value: 0.1
    }
  }
}
layer {
  name: "relu6"
  type: "ReLU"
  bottom: "fc6"
  top: "fc6"
}
layer {
  name: "drop6"
  type: "Dropout"
  bottom: "fc6"
  top: "fc6"
  dropout_param {
    dropout_ratio: 0.5
  }
}
layer {
  name: "fc7"
  type: "InnerProduct"
  bottom: "fc6"
  top: "fc7"
  param {
    lr_mult: 1
    decay_mult: 1
  }
  param {
    lr_mult: 2
    decay_mult: 0
  }
  inner_product_param {
    num_output: 4096
    weight_filler {
      type: "gaussian"
      std: 0.005
    }
    bias_filler {
      type: "constant"
      value: 0.1
    }
  }
}
layer {
  name: "relu7"
  type: "ReLU"
  bottom: "fc7"
  top: "fc7"
}
layer {
  name: "drop7"
  type: "Dropout"
  bottom: "fc7"
  top: "fc7"
  dropout_param {
    dropout_ratio: 0.5
  }
}
layer {
  name: "fc8"
  type: "InnerProduct"
  bottom: "fc7"
  top: "fc8"
  param {
    lr_mult: 1
    decay_mult: 1
  }
  param {
    lr_mult: 2
    decay_mult: 0
  }
  inner_product_param {
    num_output: 1000
    weight_filler {
      type: "gaussian"
      std: 0.01
    }
    bias_filler {
      type: "constant"
      value: 0
    }
  }
}
layer {
  name: "loss"
  type: "SoftmaxWithLoss"
  bottom: "fc8"
  bottom: "label"
  top: "loss"
}
I0509 14:31:29.618362 116982 layer_factory.hpp:77] Creating layer data
I0509 14:31:29.618456 116982 db_lmdb.cpp:35] Opened lmdb examples/imagenet/ilsvrc12_train_lmdb
I0509 14:31:29.618502 116982 net.cpp:84] Creating Layer data
I0509 14:31:29.618515 116982 net.cpp:380] data -> data
I0509 14:31:29.618538 116982 net.cpp:380] data -> label
I0509 14:31:29.618554 116982 data_transformer.cpp:25] Loading mean file from: data/ilsvrc12/imagenet_mean.binaryproto
I0509 14:31:29.621712 116982 data_layer.cpp:45] output data size: 256,3,227,227
I0509 14:31:29.621793 116982 net.cpp:122] Setting up data
I0509 14:31:29.621806 116982 net.cpp:129] Top shape: 256 3 227 227 (39574272)
I0509 14:31:29.621814 116982 net.cpp:129] Top shape: 256 (256)
I0509 14:31:29.621817 116982 net.cpp:137] Memory required for data: 158298112
I0509 14:31:29.621826 116982 layer_factory.hpp:77] Creating layer conv1
I0509 14:31:29.621843 116982 net.cpp:84] Creating Layer conv1
I0509 14:31:29.621850 116982 net.cpp:406] conv1 <- data
I0509 14:31:29.621865 116982 net.cpp:380] conv1 -> conv1
I0509 14:31:29.621884 116982 base_conv_layer.cpp:121] Group is 1channel is3number of output is 96
I0509 14:31:29.622447 116982 net.cpp:122] Setting up conv1
I0509 14:31:29.622457 116982 net.cpp:129] Top shape: 256 96 55 55 (74342400)
I0509 14:31:29.622462 116982 net.cpp:137] Memory required for data: 455667712
I0509 14:31:29.622481 116982 layer_factory.hpp:77] Creating layer relu1
I0509 14:31:29.622489 116982 net.cpp:84] Creating Layer relu1
I0509 14:31:29.622494 116982 net.cpp:406] relu1 <- conv1
I0509 14:31:29.622503 116982 net.cpp:367] relu1 -> conv1 (in-place)
I0509 14:31:29.622512 116982 net.cpp:122] Setting up relu1
I0509 14:31:29.622519 116982 net.cpp:129] Top shape: 256 96 55 55 (74342400)
I0509 14:31:29.622524 116982 net.cpp:137] Memory required for data: 753037312
I0509 14:31:29.622529 116982 layer_factory.hpp:77] Creating layer norm1
I0509 14:31:29.622536 116982 net.cpp:84] Creating Layer norm1
I0509 14:31:29.622541 116982 net.cpp:406] norm1 <- conv1
I0509 14:31:29.622547 116982 net.cpp:380] norm1 -> norm1
I0509 14:31:29.622560 116982 net.cpp:122] Setting up norm1
I0509 14:31:29.622567 116982 net.cpp:129] Top shape: 256 96 55 55 (74342400)
I0509 14:31:29.622571 116982 net.cpp:137] Memory required for data: 1050406912
I0509 14:31:29.622576 116982 layer_factory.hpp:77] Creating layer pool1
I0509 14:31:29.622591 116982 net.cpp:84] Creating Layer pool1
I0509 14:31:29.622604 116982 net.cpp:406] pool1 <- norm1
I0509 14:31:29.622611 116982 net.cpp:380] pool1 -> pool1
I0509 14:31:29.622627 116982 net.cpp:122] Setting up pool1
I0509 14:31:29.622634 116982 net.cpp:129] Top shape: 256 96 27 27 (17915904)
I0509 14:31:29.622640 116982 net.cpp:137] Memory required for data: 1122070528
I0509 14:31:29.622645 116982 layer_factory.hpp:77] Creating layer conv2
I0509 14:31:29.622654 116982 net.cpp:84] Creating Layer conv2
I0509 14:31:29.622659 116982 net.cpp:406] conv2 <- pool1
I0509 14:31:29.622668 116982 net.cpp:380] conv2 -> conv2
I0509 14:31:29.622679 116982 base_conv_layer.cpp:121] Group is 2channel is96number of output is 256
I0509 14:31:29.627754 116982 net.cpp:122] Setting up conv2
I0509 14:31:29.627766 116982 net.cpp:129] Top shape: 256 256 27 27 (47775744)
I0509 14:31:29.627773 116982 net.cpp:137] Memory required for data: 1313173504
I0509 14:31:29.627784 116982 layer_factory.hpp:77] Creating layer relu2
I0509 14:31:29.627790 116982 net.cpp:84] Creating Layer relu2
I0509 14:31:29.627795 116982 net.cpp:406] relu2 <- conv2
I0509 14:31:29.627804 116982 net.cpp:367] relu2 -> conv2 (in-place)
I0509 14:31:29.627810 116982 net.cpp:122] Setting up relu2
I0509 14:31:29.627816 116982 net.cpp:129] Top shape: 256 256 27 27 (47775744)
I0509 14:31:29.627821 116982 net.cpp:137] Memory required for data: 1504276480
I0509 14:31:29.627826 116982 layer_factory.hpp:77] Creating layer norm2
I0509 14:31:29.627833 116982 net.cpp:84] Creating Layer norm2
I0509 14:31:29.627837 116982 net.cpp:406] norm2 <- conv2
I0509 14:31:29.627845 116982 net.cpp:380] norm2 -> norm2
I0509 14:31:29.627854 116982 net.cpp:122] Setting up norm2
I0509 14:31:29.627861 116982 net.cpp:129] Top shape: 256 256 27 27 (47775744)
I0509 14:31:29.627866 116982 net.cpp:137] Memory required for data: 1695379456
I0509 14:31:29.627869 116982 layer_factory.hpp:77] Creating layer pool2
I0509 14:31:29.627878 116982 net.cpp:84] Creating Layer pool2
I0509 14:31:29.627883 116982 net.cpp:406] pool2 <- norm2
I0509 14:31:29.627889 116982 net.cpp:380] pool2 -> pool2
I0509 14:31:29.627898 116982 net.cpp:122] Setting up pool2
I0509 14:31:29.627905 116982 net.cpp:129] Top shape: 256 256 13 13 (11075584)
I0509 14:31:29.627910 116982 net.cpp:137] Memory required for data: 1739681792
I0509 14:31:29.627914 116982 layer_factory.hpp:77] Creating layer conv3
I0509 14:31:29.627924 116982 net.cpp:84] Creating Layer conv3
I0509 14:31:29.627930 116982 net.cpp:406] conv3 <- pool2
I0509 14:31:29.627938 116982 net.cpp:380] conv3 -> conv3
I0509 14:31:29.627949 116982 base_conv_layer.cpp:121] Group is 1channel is256number of output is 384
I0509 14:31:29.642040 116982 net.cpp:122] Setting up conv3
I0509 14:31:29.642056 116982 net.cpp:129] Top shape: 256 384 13 13 (16613376)
I0509 14:31:29.642060 116982 net.cpp:137] Memory required for data: 1806135296
I0509 14:31:29.642072 116982 layer_factory.hpp:77] Creating layer relu3
I0509 14:31:29.642079 116982 net.cpp:84] Creating Layer relu3
I0509 14:31:29.642084 116982 net.cpp:406] relu3 <- conv3
I0509 14:31:29.642091 116982 net.cpp:367] relu3 -> conv3 (in-place)
I0509 14:31:29.642098 116982 net.cpp:122] Setting up relu3
I0509 14:31:29.642105 116982 net.cpp:129] Top shape: 256 384 13 13 (16613376)
I0509 14:31:29.642110 116982 net.cpp:137] Memory required for data: 1872588800
I0509 14:31:29.642114 116982 layer_factory.hpp:77] Creating layer conv4
I0509 14:31:29.642123 116982 net.cpp:84] Creating Layer conv4
I0509 14:31:29.642127 116982 net.cpp:406] conv4 <- conv3
I0509 14:31:29.642135 116982 net.cpp:380] conv4 -> conv4
I0509 14:31:29.642146 116982 base_conv_layer.cpp:121] Group is 2channel is384number of output is 384
I0509 14:31:29.651554 116982 net.cpp:122] Setting up conv4
I0509 14:31:29.651566 116982 net.cpp:129] Top shape: 256 384 13 13 (16613376)
I0509 14:31:29.651571 116982 net.cpp:137] Memory required for data: 1939042304
I0509 14:31:29.651578 116982 layer_factory.hpp:77] Creating layer relu4
I0509 14:31:29.651584 116982 net.cpp:84] Creating Layer relu4
I0509 14:31:29.651597 116982 net.cpp:406] relu4 <- conv4
I0509 14:31:29.651612 116982 net.cpp:367] relu4 -> conv4 (in-place)
I0509 14:31:29.651619 116982 net.cpp:122] Setting up relu4
I0509 14:31:29.651625 116982 net.cpp:129] Top shape: 256 384 13 13 (16613376)
I0509 14:31:29.651629 116982 net.cpp:137] Memory required for data: 2005495808
I0509 14:31:29.651634 116982 layer_factory.hpp:77] Creating layer conv5
I0509 14:31:29.651643 116982 net.cpp:84] Creating Layer conv5
I0509 14:31:29.651648 116982 net.cpp:406] conv5 <- conv4
I0509 14:31:29.651654 116982 net.cpp:380] conv5 -> conv5
I0509 14:31:29.651664 116982 base_conv_layer.cpp:121] Group is 2channel is384number of output is 256
#           time             counts unit events
     0.100405644        391,157,424      instructions:u           
     0.100405644        167,178,192      cycles:u                 
I0509 14:31:29.658154 116982 net.cpp:122] Setting up conv5
I0509 14:31:29.658164 116982 net.cpp:129] Top shape: 256 256 13 13 (11075584)
I0509 14:31:29.658167 116982 net.cpp:137] Memory required for data: 2049798144
I0509 14:31:29.658177 116982 layer_factory.hpp:77] Creating layer relu5
I0509 14:31:29.658184 116982 net.cpp:84] Creating Layer relu5
I0509 14:31:29.658187 116982 net.cpp:406] relu5 <- conv5
I0509 14:31:29.658193 116982 net.cpp:367] relu5 -> conv5 (in-place)
I0509 14:31:29.658200 116982 net.cpp:122] Setting up relu5
I0509 14:31:29.658205 116982 net.cpp:129] Top shape: 256 256 13 13 (11075584)
I0509 14:31:29.658210 116982 net.cpp:137] Memory required for data: 2094100480
I0509 14:31:29.658213 116982 layer_factory.hpp:77] Creating layer pool5
I0509 14:31:29.658221 116982 net.cpp:84] Creating Layer pool5
I0509 14:31:29.658224 116982 net.cpp:406] pool5 <- conv5
I0509 14:31:29.658231 116982 net.cpp:380] pool5 -> pool5
I0509 14:31:29.658239 116982 net.cpp:122] Setting up pool5
I0509 14:31:29.658246 116982 net.cpp:129] Top shape: 256 256 6 6 (2359296)
I0509 14:31:29.658249 116982 net.cpp:137] Memory required for data: 2103537664
I0509 14:31:29.658253 116982 layer_factory.hpp:77] Creating layer fc6
I0509 14:31:29.658263 116982 net.cpp:84] Creating Layer fc6
I0509 14:31:29.658268 116982 net.cpp:406] fc6 <- pool5
I0509 14:31:29.658274 116982 net.cpp:380] fc6 -> fc6
     0.200613989      1,258,168,895      instructions:u           
     0.200613989        402,344,437      cycles:u                 
     0.300803233      1,543,097,281      instructions:u           
     0.300803233        492,148,960      cycles:u                 
     0.400992587      1,191,495,469      instructions:u           
     0.400992587        407,266,501      cycles:u                 
     0.501183449        981,382,804      instructions:u           
     0.501183449        320,292,243      cycles:u                 
I0509 14:31:30.078805 116982 net.cpp:122] Setting up fc6
I0509 14:31:30.078836 116982 net.cpp:129] Top shape: 256 4096 (1048576)
I0509 14:31:30.078840 116982 net.cpp:137] Memory required for data: 2107731968
I0509 14:31:30.078850 116982 layer_factory.hpp:77] Creating layer relu6
I0509 14:31:30.078858 116982 net.cpp:84] Creating Layer relu6
I0509 14:31:30.078862 116982 net.cpp:406] relu6 <- fc6
I0509 14:31:30.078869 116982 net.cpp:367] relu6 -> fc6 (in-place)
I0509 14:31:30.078876 116982 net.cpp:122] Setting up relu6
I0509 14:31:30.078881 116982 net.cpp:129] Top shape: 256 4096 (1048576)
I0509 14:31:30.078883 116982 net.cpp:137] Memory required for data: 2111926272
I0509 14:31:30.078887 116982 layer_factory.hpp:77] Creating layer drop6
I0509 14:31:30.078893 116982 net.cpp:84] Creating Layer drop6
I0509 14:31:30.078896 116982 net.cpp:406] drop6 <- fc6
I0509 14:31:30.078900 116982 net.cpp:367] drop6 -> fc6 (in-place)
I0509 14:31:30.078910 116982 net.cpp:122] Setting up drop6
I0509 14:31:30.078914 116982 net.cpp:129] Top shape: 256 4096 (1048576)
I0509 14:31:30.078917 116982 net.cpp:137] Memory required for data: 2116120576
I0509 14:31:30.078920 116982 layer_factory.hpp:77] Creating layer fc7
I0509 14:31:30.078927 116982 net.cpp:84] Creating Layer fc7
I0509 14:31:30.078930 116982 net.cpp:406] fc7 <- fc6
I0509 14:31:30.078943 116982 net.cpp:380] fc7 -> fc7
     0.601369972      1,000,499,643      instructions:u           
     0.601369972        325,982,855      cycles:u                 
     0.701557418        548,128,341      instructions:u           
     0.701557418        190,334,760      cycles:u                 
I0509 14:31:30.355669 116982 net.cpp:122] Setting up fc7
I0509 14:31:30.355696 116982 net.cpp:129] Top shape: 256 4096 (1048576)
I0509 14:31:30.355700 116982 net.cpp:137] Memory required for data: 2120314880
I0509 14:31:30.355710 116982 layer_factory.hpp:77] Creating layer relu7
I0509 14:31:30.355718 116982 net.cpp:84] Creating Layer relu7
I0509 14:31:30.355722 116982 net.cpp:406] relu7 <- fc7
I0509 14:31:30.355728 116982 net.cpp:367] relu7 -> fc7 (in-place)
I0509 14:31:30.355736 116982 net.cpp:122] Setting up relu7
I0509 14:31:30.355741 116982 net.cpp:129] Top shape: 256 4096 (1048576)
I0509 14:31:30.355743 116982 net.cpp:137] Memory required for data: 2124509184
I0509 14:31:30.355746 116982 layer_factory.hpp:77] Creating layer drop7
I0509 14:31:30.355764 116982 net.cpp:84] Creating Layer drop7
I0509 14:31:30.355767 116982 net.cpp:406] drop7 <- fc7
I0509 14:31:30.355772 116982 net.cpp:367] drop7 -> fc7 (in-place)
I0509 14:31:30.355779 116982 net.cpp:122] Setting up drop7
I0509 14:31:30.355783 116982 net.cpp:129] Top shape: 256 4096 (1048576)
I0509 14:31:30.355787 116982 net.cpp:137] Memory required for data: 2128703488
I0509 14:31:30.355789 116982 layer_factory.hpp:77] Creating layer fc8
I0509 14:31:30.355796 116982 net.cpp:84] Creating Layer fc8
I0509 14:31:30.355798 116982 net.cpp:406] fc8 <- fc7
I0509 14:31:30.355803 116982 net.cpp:380] fc8 -> fc8
     0.801736257        557,977,177      instructions:u           
     0.801736257        194,218,086      cycles:u                 
I0509 14:31:30.427440 116982 net.cpp:122] Setting up fc8
I0509 14:31:30.427469 116982 net.cpp:129] Top shape: 256 1000 (256000)
I0509 14:31:30.427472 116982 net.cpp:137] Memory required for data: 2129727488
I0509 14:31:30.427481 116982 layer_factory.hpp:77] Creating layer loss
I0509 14:31:30.427489 116982 net.cpp:84] Creating Layer loss
I0509 14:31:30.427494 116982 net.cpp:406] loss <- fc8
I0509 14:31:30.427500 116982 net.cpp:406] loss <- label
I0509 14:31:30.427505 116982 net.cpp:380] loss -> loss
I0509 14:31:30.427517 116982 layer_factory.hpp:77] Creating layer loss
…
