…
I0509 15:00:33.561273 117846 net.cpp:294] The NetState phase (0) differed from the phase (1) specified by a rule in layer accuracy
I0509 15:00:33.561517 117846 net.cpp:51] Initializing net from parameters: 
name: "AlexNet"
state {
  phase: TRAIN
  level: 0
  stage: ""
}
layer {
  name: "data"
  type: "Data"
  top: "data"
  top: "label"
  include {
    phase: TRAIN
  }
  transform_param {
    mirror: true
    crop_size: 227
    mean_file: "data/ilsvrc12/imagenet_mean.binaryproto"
  }
  data_param {
    source: "examples/imagenet/ilsvrc12_train_lmdb"
    batch_size: 256
    backend: LMDB
  }
}
layer {
  name: "conv1"
  type: "Convolution"
  bottom: "data"
  top: "conv1"
  param {
    lr_mult: 1
    decay_mult: 1
  }
  param {
    lr_mult: 2
    decay_mult: 0
  }
  convolution_param {
    num_output: 96
    kernel_size: 11
    stride: 4
    weight_filler {
      type: "gaussian"
      std: 0.01
    }
    bias_filler {
      type: "constant"
      value: 0
    }
  }
}
layer {
  name: "relu1"
  type: "ReLU"
  bottom: "conv1"
  top: "conv1"
}
layer {
  name: "norm1"
  type: "LRN"
  bottom: "conv1"
  top: "norm1"
  lrn_param {
    local_size: 5
    alpha: 0.0001
    beta: 0.75
  }
}
layer {
  name: "pool1"
  type: "Pooling"
  bottom: "norm1"
  top: "pool1"
  pooling_param {
    pool: MAX
    kernel_size: 3
    stride: 2
  }
}
layer {
  name: "conv2"
  type: "Convolution"
  bottom: "pool1"
  top: "conv2"
  param {
    lr_mult: 1
    decay_mult: 1
  }
  param {
    lr_mult: 2
    decay_mult: 0
  }
  convolution_param {
    num_output: 256
    pad: 2
    kernel_size: 5
    group: 2
    weight_filler {
      type: "gaussian"
      std: 0.01
    }
    bias_filler {
      type: "constant"
      value: 0.1
    }
  }
}
layer {
  name: "relu2"
  type: "ReLU"
  bottom: "conv2"
  top: "conv2"
}
layer {
  name: "norm2"
  type: "LRN"
  bottom: "conv2"
  top: "norm2"
  lrn_param {
    local_size: 5
    alpha: 0.0001
    beta: 0.75
  }
}
layer {
  name: "pool2"
  type: "Pooling"
  bottom: "norm2"
  top: "pool2"
  pooling_param {
    pool: MAX
    kernel_size: 3
    stride: 2
  }
}
layer {
  name: "conv3"
  type: "Convolution"
  bottom: "pool2"
  top: "conv3"
  param {
    lr_mult: 1
    decay_mult: 1
  }
  param {
    lr_mult: 2
    decay_mult: 0
  }
  convolution_param {
    num_output: 384
    pad: 1
    kernel_size: 3
    weight_filler {
      type: "gaussian"
      std: 0.01
    }
    bias_filler {
      type: "constant"
      value: 0
    }
  }
}
layer {
  name: "relu3"
  type: "ReLU"
  bottom: "conv3"
  top: "conv3"
}
layer {
  name: "conv4"
  type: "Convolution"
  bottom: "conv3"
  top: "conv4"
  param {
    lr_mult: 1
    decay_mult: 1
  }
  param {
    lr_mult: 2
    decay_mult: 0
  }
  convolution_param {
    num_output: 384
    pad: 1
    kernel_size: 3
    group: 2
    weight_filler {
      type: "gaussian"
      std: 0.01
    }
    bias_filler {
      type: "constant"
      value: 0.1
    }
  }
}
layer {
  name: "relu4"
  type: "ReLU"
  bottom: "conv4"
  top: "conv4"
}
layer {
  name: "conv5"
  type: "Convolution"
  bottom: "conv4"
  top: "conv5"
  param {
    lr_mult: 1
    decay_mult: 1
  }
  param {
    lr_mult: 2
    decay_mult: 0
  }
  convolution_param {
    num_output: 256
    pad: 1
    kernel_size: 3
    group: 2
    weight_filler {
      type: "gaussian"
      std: 0.01
    }
    bias_filler {
      type: "constant"
      value: 0.1
    }
  }
}
layer {
  name: "relu5"
  type: "ReLU"
  bottom: "conv5"
  top: "conv5"
}
layer {
  name: "pool5"
  type: "Pooling"
  bottom: "conv5"
  top: "pool5"
  pooling_param {
    pool: MAX
    kernel_size: 3
    stride: 2
  }
}
layer {
  name: "fc6"
  type: "InnerProduct"
  bottom: "pool5"
  top: "fc6"
  param {
    lr_mult: 1
    decay_mult: 1
  }
  param {
    lr_mult: 2
    decay_mult: 0
  }
  inner_product_param {
    num_output: 4096
    weight_filler {
      type: "gaussian"
      std: 0.005
    }
    bias_filler {
      type: "constant"
      value: 0.1
    }
  }
}
layer {
  name: "relu6"
  type: "ReLU"
  bottom: "fc6"
  top: "fc6"
}
layer {
  name: "drop6"
  type: "Dropout"
  bottom: "fc6"
  top: "fc6"
  dropout_param {
    dropout_ratio: 0.5
  }
}
layer {
  name: "fc7"
  type: "InnerProduct"
  bottom: "fc6"
  top: "fc7"
  param {
    lr_mult: 1
    decay_mult: 1
  }
  param {
    lr_mult: 2
    decay_mult: 0
  }
  inner_product_param {
    num_output: 4096
    weight_filler {
      type: "gaussian"
      std: 0.005
    }
    bias_filler {
      type: "constant"
      value: 0.1
    }
  }
}
layer {
  name: "relu7"
  type: "ReLU"
  bottom: "fc7"
  top: "fc7"
}
layer {
  name: "drop7"
  type: "Dropout"
  bottom: "fc7"
  top: "fc7"
  dropout_param {
    dropout_ratio: 0.5
  }
}
layer {
  name: "fc8"
  type: "InnerProduct"
  bottom: "fc7"
  top: "fc8"
  param {
    lr_mult: 1
    decay_mult: 1
  }
  param {
    lr_mult: 2
    decay_mult: 0
  }
  inner_product_param {
    num_output: 1000
    weight_filler {
      type: "gaussian"
      std: 0.01
    }
    bias_filler {
      type: "constant"
      value: 0
    }
  }
}
layer {
  name: "loss"
  type: "SoftmaxWithLoss"
  bottom: "fc8"
  bottom: "label"
  top: "loss"
}
I0509 15:00:33.561647 117846 layer_factory.hpp:77] Creating layer data
I0509 15:00:33.561738 117846 db_lmdb.cpp:35] Opened lmdb examples/imagenet/ilsvrc12_train_lmdb
I0509 15:00:33.561784 117846 net.cpp:84] Creating Layer data
I0509 15:00:33.561797 117846 net.cpp:380] data -> data
I0509 15:00:33.561820 117846 net.cpp:380] data -> label
I0509 15:00:33.561836 117846 data_transformer.cpp:25] Loading mean file from: data/ilsvrc12/imagenet_mean.binaryproto
I0509 15:00:33.565028 117846 data_layer.cpp:45] output data size: 256,3,227,227
I0509 15:00:33.565322 117846 net.cpp:122] Setting up data
I0509 15:00:33.565335 117846 net.cpp:129] Top shape: 256 3 227 227 (39574272)
I0509 15:00:33.565342 117846 net.cpp:129] Top shape: 256 (256)
I0509 15:00:33.565346 117846 net.cpp:137] Memory required for data: 158298112
I0509 15:00:33.565356 117846 layer_factory.hpp:77] Creating layer conv1
I0509 15:00:33.565373 117846 net.cpp:84] Creating Layer conv1
I0509 15:00:33.565379 117846 net.cpp:406] conv1 <- data
I0509 15:00:33.565393 117846 net.cpp:380] conv1 -> conv1
I0509 15:00:33.565412 117846 base_conv_layer.cpp:121] Group is 1channel is3number of output is 96
I0509 15:00:33.565976 117846 net.cpp:122] Setting up conv1
I0509 15:00:33.565986 117846 net.cpp:129] Top shape: 256 96 55 55 (74342400)
I0509 15:00:33.565990 117846 net.cpp:137] Memory required for data: 455667712
I0509 15:00:33.566011 117846 layer_factory.hpp:77] Creating layer relu1
I0509 15:00:33.566020 117846 net.cpp:84] Creating Layer relu1
I0509 15:00:33.566025 117846 net.cpp:406] relu1 <- conv1
I0509 15:00:33.566031 117846 net.cpp:367] relu1 -> conv1 (in-place)
I0509 15:00:33.566040 117846 net.cpp:122] Setting up relu1
I0509 15:00:33.566047 117846 net.cpp:129] Top shape: 256 96 55 55 (74342400)
I0509 15:00:33.566051 117846 net.cpp:137] Memory required for data: 753037312
I0509 15:00:33.566056 117846 layer_factory.hpp:77] Creating layer norm1
I0509 15:00:33.566064 117846 net.cpp:84] Creating Layer norm1
I0509 15:00:33.566068 117846 net.cpp:406] norm1 <- conv1
I0509 15:00:33.566074 117846 net.cpp:380] norm1 -> norm1
I0509 15:00:33.566085 117846 net.cpp:122] Setting up norm1
I0509 15:00:33.566093 117846 net.cpp:129] Top shape: 256 96 55 55 (74342400)
I0509 15:00:33.566097 117846 net.cpp:137] Memory required for data: 1050406912
I0509 15:00:33.566102 117846 layer_factory.hpp:77] Creating layer pool1
I0509 15:00:33.566117 117846 net.cpp:84] Creating Layer pool1
I0509 15:00:33.566130 117846 net.cpp:406] pool1 <- norm1
I0509 15:00:33.566138 117846 net.cpp:380] pool1 -> pool1
I0509 15:00:33.566153 117846 net.cpp:122] Setting up pool1
I0509 15:00:33.566159 117846 net.cpp:129] Top shape: 256 96 27 27 (17915904)
I0509 15:00:33.566165 117846 net.cpp:137] Memory required for data: 1122070528
I0509 15:00:33.566169 117846 layer_factory.hpp:77] Creating layer conv2
I0509 15:00:33.566179 117846 net.cpp:84] Creating Layer conv2
I0509 15:00:33.566184 117846 net.cpp:406] conv2 <- pool1
I0509 15:00:33.566191 117846 net.cpp:380] conv2 -> conv2
I0509 15:00:33.566202 117846 base_conv_layer.cpp:121] Group is 2channel is96number of output is 256
I0509 15:00:33.571295 117846 net.cpp:122] Setting up conv2
I0509 15:00:33.571306 117846 net.cpp:129] Top shape: 256 256 27 27 (47775744)
I0509 15:00:33.571312 117846 net.cpp:137] Memory required for data: 1313173504
I0509 15:00:33.571323 117846 layer_factory.hpp:77] Creating layer relu2
I0509 15:00:33.571331 117846 net.cpp:84] Creating Layer relu2
I0509 15:00:33.571336 117846 net.cpp:406] relu2 <- conv2
I0509 15:00:33.571343 117846 net.cpp:367] relu2 -> conv2 (in-place)
I0509 15:00:33.571351 117846 net.cpp:122] Setting up relu2
I0509 15:00:33.571357 117846 net.cpp:129] Top shape: 256 256 27 27 (47775744)
I0509 15:00:33.571360 117846 net.cpp:137] Memory required for data: 1504276480
I0509 15:00:33.571367 117846 layer_factory.hpp:77] Creating layer norm2
I0509 15:00:33.571372 117846 net.cpp:84] Creating Layer norm2
I0509 15:00:33.571377 117846 net.cpp:406] norm2 <- conv2
I0509 15:00:33.571383 117846 net.cpp:380] norm2 -> norm2
I0509 15:00:33.571393 117846 net.cpp:122] Setting up norm2
I0509 15:00:33.571400 117846 net.cpp:129] Top shape: 256 256 27 27 (47775744)
I0509 15:00:33.571404 117846 net.cpp:137] Memory required for data: 1695379456
I0509 15:00:33.571409 117846 layer_factory.hpp:77] Creating layer pool2
I0509 15:00:33.571418 117846 net.cpp:84] Creating Layer pool2
I0509 15:00:33.571422 117846 net.cpp:406] pool2 <- norm2
I0509 15:00:33.571429 117846 net.cpp:380] pool2 -> pool2
I0509 15:00:33.571437 117846 net.cpp:122] Setting up pool2
I0509 15:00:33.571444 117846 net.cpp:129] Top shape: 256 256 13 13 (11075584)
I0509 15:00:33.571449 117846 net.cpp:137] Memory required for data: 1739681792
I0509 15:00:33.571454 117846 layer_factory.hpp:77] Creating layer conv3
I0509 15:00:33.571462 117846 net.cpp:84] Creating Layer conv3
I0509 15:00:33.571467 117846 net.cpp:406] conv3 <- pool2
I0509 15:00:33.571475 117846 net.cpp:380] conv3 -> conv3
I0509 15:00:33.571486 117846 base_conv_layer.cpp:121] Group is 1channel is256number of output is 384
I0509 15:00:33.585084 117846 net.cpp:122] Setting up conv3
I0509 15:00:33.585099 117846 net.cpp:129] Top shape: 256 384 13 13 (16613376)
I0509 15:00:33.585104 117846 net.cpp:137] Memory required for data: 1806135296
I0509 15:00:33.585115 117846 layer_factory.hpp:77] Creating layer relu3
I0509 15:00:33.585124 117846 net.cpp:84] Creating Layer relu3
I0509 15:00:33.585129 117846 net.cpp:406] relu3 <- conv3
I0509 15:00:33.585135 117846 net.cpp:367] relu3 -> conv3 (in-place)
I0509 15:00:33.585142 117846 net.cpp:122] Setting up relu3
I0509 15:00:33.585149 117846 net.cpp:129] Top shape: 256 384 13 13 (16613376)
I0509 15:00:33.585155 117846 net.cpp:137] Memory required for data: 1872588800
I0509 15:00:33.585158 117846 layer_factory.hpp:77] Creating layer conv4
I0509 15:00:33.585167 117846 net.cpp:84] Creating Layer conv4
I0509 15:00:33.585171 117846 net.cpp:406] conv4 <- conv3
I0509 15:00:33.585180 117846 net.cpp:380] conv4 -> conv4
I0509 15:00:33.585189 117846 base_conv_layer.cpp:121] Group is 2channel is384number of output is 384
I0509 15:00:33.595599 117846 net.cpp:122] Setting up conv4
I0509 15:00:33.595612 117846 net.cpp:129] Top shape: 256 384 13 13 (16613376)
I0509 15:00:33.595616 117846 net.cpp:137] Memory required for data: 1939042304
I0509 15:00:33.595624 117846 layer_factory.hpp:77] Creating layer relu4
I0509 15:00:33.595630 117846 net.cpp:84] Creating Layer relu4
I0509 15:00:33.595643 117846 net.cpp:406] relu4 <- conv4
I0509 15:00:33.595660 117846 net.cpp:367] relu4 -> conv4 (in-place)
I0509 15:00:33.595667 117846 net.cpp:122] Setting up relu4
I0509 15:00:33.595674 117846 net.cpp:129] Top shape: 256 384 13 13 (16613376)
I0509 15:00:33.595679 117846 net.cpp:137] Memory required for data: 2005495808
I0509 15:00:33.595684 117846 layer_factory.hpp:77] Creating layer conv5
I0509 15:00:33.595693 117846 net.cpp:84] Creating Layer conv5
I0509 15:00:33.595697 117846 net.cpp:406] conv5 <- conv4
I0509 15:00:33.595705 117846 net.cpp:380] conv5 -> conv5
I0509 15:00:33.595715 117846 base_conv_layer.cpp:121] Group is 2channel is384number of output is 256
#           time             counts unit events
     0.100123281             65,798      r02c0:u                  
I0509 15:00:33.602519 117846 net.cpp:122] Setting up conv5
I0509 15:00:33.602529 117846 net.cpp:129] Top shape: 256 256 13 13 (11075584)
I0509 15:00:33.602532 117846 net.cpp:137] Memory required for data: 2049798144
I0509 15:00:33.602543 117846 layer_factory.hpp:77] Creating layer relu5
I0509 15:00:33.602550 117846 net.cpp:84] Creating Layer relu5
I0509 15:00:33.602555 117846 net.cpp:406] relu5 <- conv5
I0509 15:00:33.602560 117846 net.cpp:367] relu5 -> conv5 (in-place)
I0509 15:00:33.602567 117846 net.cpp:122] Setting up relu5
I0509 15:00:33.602573 117846 net.cpp:129] Top shape: 256 256 13 13 (11075584)
I0509 15:00:33.602576 117846 net.cpp:137] Memory required for data: 2094100480
I0509 15:00:33.602581 117846 layer_factory.hpp:77] Creating layer pool5
I0509 15:00:33.602588 117846 net.cpp:84] Creating Layer pool5
I0509 15:00:33.602591 117846 net.cpp:406] pool5 <- conv5
I0509 15:00:33.602597 117846 net.cpp:380] pool5 -> pool5
I0509 15:00:33.602607 117846 net.cpp:122] Setting up pool5
I0509 15:00:33.602614 117846 net.cpp:129] Top shape: 256 256 6 6 (2359296)
I0509 15:00:33.602618 117846 net.cpp:137] Memory required for data: 2103537664
I0509 15:00:33.602622 117846 layer_factory.hpp:77] Creating layer fc6
I0509 15:00:33.602632 117846 net.cpp:84] Creating Layer fc6
I0509 15:00:33.602636 117846 net.cpp:406] fc6 <- pool5
I0509 15:00:33.602643 117846 net.cpp:380] fc6 -> fc6
     0.200318775                802      r02c0:u                  
     0.300475240              1,080      r02c0:u                  
     0.400599740              1,099      r02c0:u                  
I0509 15:00:33.962956 117846 net.cpp:122] Setting up fc6
I0509 15:00:33.962978 117846 net.cpp:129] Top shape: 256 4096 (1048576)
I0509 15:00:33.962982 117846 net.cpp:137] Memory required for data: 2107731968
I0509 15:00:33.962990 117846 layer_factory.hpp:77] Creating layer relu6
I0509 15:00:33.962997 117846 net.cpp:84] Creating Layer relu6
I0509 15:00:33.963001 117846 net.cpp:406] relu6 <- fc6
I0509 15:00:33.963007 117846 net.cpp:367] relu6 -> fc6 (in-place)
I0509 15:00:33.963014 117846 net.cpp:122] Setting up relu6
I0509 15:00:33.963017 117846 net.cpp:129] Top shape: 256 4096 (1048576)
I0509 15:00:33.963021 117846 net.cpp:137] Memory required for data: 2111926272
I0509 15:00:33.963023 117846 layer_factory.hpp:77] Creating layer drop6
I0509 15:00:33.963029 117846 net.cpp:84] Creating Layer drop6
I0509 15:00:33.963032 117846 net.cpp:406] drop6 <- fc6
I0509 15:00:33.963035 117846 net.cpp:367] drop6 -> fc6 (in-place)
I0509 15:00:33.963044 117846 net.cpp:122] Setting up drop6
I0509 15:00:33.963048 117846 net.cpp:129] Top shape: 256 4096 (1048576)
I0509 15:00:33.963050 117846 net.cpp:137] Memory required for data: 2116120576
I0509 15:00:33.963053 117846 layer_factory.hpp:77] Creating layer fc7
I0509 15:00:33.963059 117846 net.cpp:84] Creating Layer fc7
I0509 15:00:33.963063 117846 net.cpp:406] fc7 <- fc6
I0509 15:00:33.963066 117846 net.cpp:380] fc7 -> fc7
     0.500762104                875      r02c0:u                  
     0.600916425                256      r02c0:u                  
     0.701067552                  2      r02c0:u                  
I0509 15:00:34.207942 117846 net.cpp:122] Setting up fc7
I0509 15:00:34.207958 117846 net.cpp:129] Top shape: 256 4096 (1048576)
I0509 15:00:34.207970 117846 net.cpp:137] Memory required for data: 2120314880
I0509 15:00:34.207978 117846 layer_factory.hpp:77] Creating layer relu7
I0509 15:00:34.207986 117846 net.cpp:84] Creating Layer relu7
I0509 15:00:34.207990 117846 net.cpp:406] relu7 <- fc7
I0509 15:00:34.207996 117846 net.cpp:367] relu7 -> fc7 (in-place)
I0509 15:00:34.208003 117846 net.cpp:122] Setting up relu7
I0509 15:00:34.208006 117846 net.cpp:129] Top shape: 256 4096 (1048576)
I0509 15:00:34.208009 117846 net.cpp:137] Memory required for data: 2124509184
I0509 15:00:34.208012 117846 layer_factory.hpp:77] Creating layer drop7
I0509 15:00:34.208026 117846 net.cpp:84] Creating Layer drop7
I0509 15:00:34.208029 117846 net.cpp:406] drop7 <- fc7
I0509 15:00:34.208034 117846 net.cpp:367] drop7 -> fc7 (in-place)
I0509 15:00:34.208041 117846 net.cpp:122] Setting up drop7
I0509 15:00:34.208046 117846 net.cpp:129] Top shape: 256 4096 (1048576)
I0509 15:00:34.208048 117846 net.cpp:137] Memory required for data: 2128703488
I0509 15:00:34.208051 117846 layer_factory.hpp:77] Creating layer fc8
I0509 15:00:34.208057 117846 net.cpp:84] Creating Layer fc8
I0509 15:00:34.208060 117846 net.cpp:406] fc8 <- fc7
I0509 15:00:34.208065 117846 net.cpp:380] fc8 -> fc8
I0509 15:00:34.265377 117846 net.cpp:122] Setting up fc8
I0509 15:00:34.265386 117846 net.cpp:129] Top shape: 256 1000 (256000)
I0509 15:00:34.265389 117846 net.cpp:137] Memory required for data: 2129727488
I0509 15:00:34.265395 117846 layer_factory.hpp:77] Creating layer loss
I0509 15:00:34.265401 117846 net.cpp:84] Creating Layer loss
I0509 15:00:34.265404 117846 net.cpp:406] loss <- fc8
I0509 15:00:34.265408 117846 net.cpp:406] loss <- label
I0509 15:00:34.265414 117846 net.cpp:380] loss -> loss
I0509 15:00:34.265426 117846 layer_factory.hpp:77] Creating layer loss
…
