…
I0509 15:35:08.548128 118321 net.cpp:294] The NetState phase (0) differed from the phase (1) specified by a rule in layer accuracy
I0509 15:35:08.548372 118321 net.cpp:51] Initializing net from parameters: 
name: "AlexNet"
state {
  phase: TRAIN
  level: 0
  stage: ""
}
layer {
  name: "data"
  type: "Data"
  top: "data"
  top: "label"
  include {
    phase: TRAIN
  }
  transform_param {
    mirror: true
    crop_size: 227
    mean_file: "data/ilsvrc12/imagenet_mean.binaryproto"
  }
  data_param {
    source: "examples/imagenet/ilsvrc12_train_lmdb"
    batch_size: 256
    backend: LMDB
  }
}
layer {
  name: "conv1"
  type: "Convolution"
  bottom: "data"
  top: "conv1"
  param {
    lr_mult: 1
    decay_mult: 1
  }
  param {
    lr_mult: 2
    decay_mult: 0
  }
  convolution_param {
    num_output: 96
    kernel_size: 11
    stride: 4
    weight_filler {
      type: "gaussian"
      std: 0.01
    }
    bias_filler {
      type: "constant"
      value: 0
    }
  }
}
layer {
  name: "relu1"
  type: "ReLU"
  bottom: "conv1"
  top: "conv1"
}
layer {
  name: "norm1"
  type: "LRN"
  bottom: "conv1"
  top: "norm1"
  lrn_param {
    local_size: 5
    alpha: 0.0001
    beta: 0.75
  }
}
layer {
  name: "pool1"
  type: "Pooling"
  bottom: "norm1"
  top: "pool1"
  pooling_param {
    pool: MAX
    kernel_size: 3
    stride: 2
  }
}
layer {
  name: "conv2"
  type: "Convolution"
  bottom: "pool1"
  top: "conv2"
  param {
    lr_mult: 1
    decay_mult: 1
  }
  param {
    lr_mult: 2
    decay_mult: 0
  }
  convolution_param {
    num_output: 256
    pad: 2
    kernel_size: 5
    group: 2
    weight_filler {
      type: "gaussian"
      std: 0.01
    }
    bias_filler {
      type: "constant"
      value: 0.1
    }
  }
}
layer {
  name: "relu2"
  type: "ReLU"
  bottom: "conv2"
  top: "conv2"
}
layer {
  name: "norm2"
  type: "LRN"
  bottom: "conv2"
  top: "norm2"
  lrn_param {
    local_size: 5
    alpha: 0.0001
    beta: 0.75
  }
}
layer {
  name: "pool2"
  type: "Pooling"
  bottom: "norm2"
  top: "pool2"
  pooling_param {
    pool: MAX
    kernel_size: 3
    stride: 2
  }
}
layer {
  name: "conv3"
  type: "Convolution"
  bottom: "pool2"
  top: "conv3"
  param {
    lr_mult: 1
    decay_mult: 1
  }
  param {
    lr_mult: 2
    decay_mult: 0
  }
  convolution_param {
    num_output: 384
    pad: 1
    kernel_size: 3
    weight_filler {
      type: "gaussian"
      std: 0.01
    }
    bias_filler {
      type: "constant"
      value: 0
    }
  }
}
layer {
  name: "relu3"
  type: "ReLU"
  bottom: "conv3"
  top: "conv3"
}
layer {
  name: "conv4"
  type: "Convolution"
  bottom: "conv3"
  top: "conv4"
  param {
    lr_mult: 1
    decay_mult: 1
  }
  param {
    lr_mult: 2
    decay_mult: 0
  }
  convolution_param {
    num_output: 384
    pad: 1
    kernel_size: 3
    group: 2
    weight_filler {
      type: "gaussian"
      std: 0.01
    }
    bias_filler {
      type: "constant"
      value: 0.1
    }
  }
}
layer {
  name: "relu4"
  type: "ReLU"
  bottom: "conv4"
  top: "conv4"
}
layer {
  name: "conv5"
  type: "Convolution"
  bottom: "conv4"
  top: "conv5"
  param {
    lr_mult: 1
    decay_mult: 1
  }
  param {
    lr_mult: 2
    decay_mult: 0
  }
  convolution_param {
    num_output: 256
    pad: 1
    kernel_size: 3
    group: 2
    weight_filler {
      type: "gaussian"
      std: 0.01
    }
    bias_filler {
      type: "constant"
      value: 0.1
    }
  }
}
layer {
  name: "relu5"
  type: "ReLU"
  bottom: "conv5"
  top: "conv5"
}
layer {
  name: "pool5"
  type: "Pooling"
  bottom: "conv5"
  top: "pool5"
  pooling_param {
    pool: MAX
    kernel_size: 3
    stride: 2
  }
}
layer {
  name: "fc6"
  type: "InnerProduct"
  bottom: "pool5"
  top: "fc6"
  param {
    lr_mult: 1
    decay_mult: 1
  }
  param {
    lr_mult: 2
    decay_mult: 0
  }
  inner_product_param {
    num_output: 4096
    weight_filler {
      type: "gaussian"
      std: 0.005
    }
    bias_filler {
      type: "constant"
      value: 0.1
    }
  }
}
layer {
  name: "relu6"
  type: "ReLU"
  bottom: "fc6"
  top: "fc6"
}
layer {
  name: "drop6"
  type: "Dropout"
  bottom: "fc6"
  top: "fc6"
  dropout_param {
    dropout_ratio: 0.5
  }
}
layer {
  name: "fc7"
  type: "InnerProduct"
  bottom: "fc6"
  top: "fc7"
  param {
    lr_mult: 1
    decay_mult: 1
  }
  param {
    lr_mult: 2
    decay_mult: 0
  }
  inner_product_param {
    num_output: 4096
    weight_filler {
      type: "gaussian"
      std: 0.005
    }
    bias_filler {
      type: "constant"
      value: 0.1
    }
  }
}
layer {
  name: "relu7"
  type: "ReLU"
  bottom: "fc7"
  top: "fc7"
}
layer {
  name: "drop7"
  type: "Dropout"
  bottom: "fc7"
  top: "fc7"
  dropout_param {
    dropout_ratio: 0.5
  }
}
layer {
  name: "fc8"
  type: "InnerProduct"
  bottom: "fc7"
  top: "fc8"
  param {
    lr_mult: 1
    decay_mult: 1
  }
  param {
    lr_mult: 2
    decay_mult: 0
  }
  inner_product_param {
    num_output: 1000
    weight_filler {
      type: "gaussian"
      std: 0.01
    }
    bias_filler {
      type: "constant"
      value: 0
    }
  }
}
layer {
  name: "loss"
  type: "SoftmaxWithLoss"
  bottom: "fc8"
  bottom: "label"
  top: "loss"
}
I0509 15:35:08.548506 118321 layer_factory.hpp:77] Creating layer data
I0509 15:35:08.548600 118321 db_lmdb.cpp:35] Opened lmdb examples/imagenet/ilsvrc12_train_lmdb
I0509 15:35:08.548646 118321 net.cpp:84] Creating Layer data
I0509 15:35:08.548660 118321 net.cpp:380] data -> data
I0509 15:35:08.548683 118321 net.cpp:380] data -> label
I0509 15:35:08.548699 118321 data_transformer.cpp:25] Loading mean file from: data/ilsvrc12/imagenet_mean.binaryproto
I0509 15:35:08.551941 118321 data_layer.cpp:45] output data size: 256,3,227,227
I0509 15:35:08.552026 118321 net.cpp:122] Setting up data
I0509 15:35:08.552052 118321 net.cpp:129] Top shape: 256 3 227 227 (39574272)
I0509 15:35:08.552062 118321 net.cpp:129] Top shape: 256 (256)
I0509 15:35:08.552065 118321 net.cpp:137] Memory required for data: 158298112
I0509 15:35:08.552075 118321 layer_factory.hpp:77] Creating layer conv1
I0509 15:35:08.552094 118321 net.cpp:84] Creating Layer conv1
I0509 15:35:08.552103 118321 net.cpp:406] conv1 <- data
I0509 15:35:08.552117 118321 net.cpp:380] conv1 -> conv1
I0509 15:35:08.552137 118321 base_conv_layer.cpp:121] Group is 1channel is3number of output is 96
I0509 15:35:08.552737 118321 net.cpp:122] Setting up conv1
I0509 15:35:08.552747 118321 net.cpp:129] Top shape: 256 96 55 55 (74342400)
I0509 15:35:08.552752 118321 net.cpp:137] Memory required for data: 455667712
I0509 15:35:08.552772 118321 layer_factory.hpp:77] Creating layer relu1
I0509 15:35:08.552781 118321 net.cpp:84] Creating Layer relu1
I0509 15:35:08.552786 118321 net.cpp:406] relu1 <- conv1
I0509 15:35:08.552794 118321 net.cpp:367] relu1 -> conv1 (in-place)
I0509 15:35:08.552803 118321 net.cpp:122] Setting up relu1
I0509 15:35:08.552810 118321 net.cpp:129] Top shape: 256 96 55 55 (74342400)
I0509 15:35:08.552815 118321 net.cpp:137] Memory required for data: 753037312
I0509 15:35:08.552819 118321 layer_factory.hpp:77] Creating layer norm1
I0509 15:35:08.552827 118321 net.cpp:84] Creating Layer norm1
I0509 15:35:08.552832 118321 net.cpp:406] norm1 <- conv1
I0509 15:35:08.552839 118321 net.cpp:380] norm1 -> norm1
I0509 15:35:08.552850 118321 net.cpp:122] Setting up norm1
I0509 15:35:08.552857 118321 net.cpp:129] Top shape: 256 96 55 55 (74342400)
I0509 15:35:08.552862 118321 net.cpp:137] Memory required for data: 1050406912
I0509 15:35:08.552866 118321 layer_factory.hpp:77] Creating layer pool1
I0509 15:35:08.552881 118321 net.cpp:84] Creating Layer pool1
I0509 15:35:08.552896 118321 net.cpp:406] pool1 <- norm1
I0509 15:35:08.552903 118321 net.cpp:380] pool1 -> pool1
I0509 15:35:08.552918 118321 net.cpp:122] Setting up pool1
I0509 15:35:08.552927 118321 net.cpp:129] Top shape: 256 96 27 27 (17915904)
I0509 15:35:08.552932 118321 net.cpp:137] Memory required for data: 1122070528
I0509 15:35:08.552937 118321 layer_factory.hpp:77] Creating layer conv2
I0509 15:35:08.552947 118321 net.cpp:84] Creating Layer conv2
I0509 15:35:08.552950 118321 net.cpp:406] conv2 <- pool1
I0509 15:35:08.552959 118321 net.cpp:380] conv2 -> conv2
I0509 15:35:08.552970 118321 base_conv_layer.cpp:121] Group is 2channel is96number of output is 256
I0509 15:35:08.558032 118321 net.cpp:122] Setting up conv2
I0509 15:35:08.558044 118321 net.cpp:129] Top shape: 256 256 27 27 (47775744)
I0509 15:35:08.558049 118321 net.cpp:137] Memory required for data: 1313173504
I0509 15:35:08.558060 118321 layer_factory.hpp:77] Creating layer relu2
I0509 15:35:08.558068 118321 net.cpp:84] Creating Layer relu2
I0509 15:35:08.558073 118321 net.cpp:406] relu2 <- conv2
I0509 15:35:08.558080 118321 net.cpp:367] relu2 -> conv2 (in-place)
I0509 15:35:08.558087 118321 net.cpp:122] Setting up relu2
I0509 15:35:08.558094 118321 net.cpp:129] Top shape: 256 256 27 27 (47775744)
I0509 15:35:08.558099 118321 net.cpp:137] Memory required for data: 1504276480
I0509 15:35:08.558104 118321 layer_factory.hpp:77] Creating layer norm2
I0509 15:35:08.558110 118321 net.cpp:84] Creating Layer norm2
I0509 15:35:08.558115 118321 net.cpp:406] norm2 <- conv2
I0509 15:35:08.558121 118321 net.cpp:380] norm2 -> norm2
I0509 15:35:08.558131 118321 net.cpp:122] Setting up norm2
I0509 15:35:08.558138 118321 net.cpp:129] Top shape: 256 256 27 27 (47775744)
I0509 15:35:08.558142 118321 net.cpp:137] Memory required for data: 1695379456
I0509 15:35:08.558146 118321 layer_factory.hpp:77] Creating layer pool2
I0509 15:35:08.558156 118321 net.cpp:84] Creating Layer pool2
I0509 15:35:08.558161 118321 net.cpp:406] pool2 <- norm2
I0509 15:35:08.558166 118321 net.cpp:380] pool2 -> pool2
I0509 15:35:08.558176 118321 net.cpp:122] Setting up pool2
I0509 15:35:08.558183 118321 net.cpp:129] Top shape: 256 256 13 13 (11075584)
I0509 15:35:08.558187 118321 net.cpp:137] Memory required for data: 1739681792
I0509 15:35:08.558192 118321 layer_factory.hpp:77] Creating layer conv3
I0509 15:35:08.558200 118321 net.cpp:84] Creating Layer conv3
I0509 15:35:08.558207 118321 net.cpp:406] conv3 <- pool2
I0509 15:35:08.558213 118321 net.cpp:380] conv3 -> conv3
I0509 15:35:08.558225 118321 base_conv_layer.cpp:121] Group is 1channel is256number of output is 384
I0509 15:35:08.571832 118321 net.cpp:122] Setting up conv3
I0509 15:35:08.571848 118321 net.cpp:129] Top shape: 256 384 13 13 (16613376)
I0509 15:35:08.571853 118321 net.cpp:137] Memory required for data: 1806135296
I0509 15:35:08.571864 118321 layer_factory.hpp:77] Creating layer relu3
I0509 15:35:08.571871 118321 net.cpp:84] Creating Layer relu3
I0509 15:35:08.571877 118321 net.cpp:406] relu3 <- conv3
I0509 15:35:08.571884 118321 net.cpp:367] relu3 -> conv3 (in-place)
I0509 15:35:08.571892 118321 net.cpp:122] Setting up relu3
I0509 15:35:08.571897 118321 net.cpp:129] Top shape: 256 384 13 13 (16613376)
I0509 15:35:08.571902 118321 net.cpp:137] Memory required for data: 1872588800
I0509 15:35:08.571907 118321 layer_factory.hpp:77] Creating layer conv4
I0509 15:35:08.571915 118321 net.cpp:84] Creating Layer conv4
I0509 15:35:08.571919 118321 net.cpp:406] conv4 <- conv3
I0509 15:35:08.571928 118321 net.cpp:380] conv4 -> conv4
I0509 15:35:08.571938 118321 base_conv_layer.cpp:121] Group is 2channel is384number of output is 384
I0509 15:35:08.582365 118321 net.cpp:122] Setting up conv4
I0509 15:35:08.582378 118321 net.cpp:129] Top shape: 256 384 13 13 (16613376)
I0509 15:35:08.582384 118321 net.cpp:137] Memory required for data: 1939042304
I0509 15:35:08.582392 118321 layer_factory.hpp:77] Creating layer relu4
I0509 15:35:08.582399 118321 net.cpp:84] Creating Layer relu4
I0509 15:35:08.582412 118321 net.cpp:406] relu4 <- conv4
I0509 15:35:08.582429 118321 net.cpp:367] relu4 -> conv4 (in-place)
I0509 15:35:08.582437 118321 net.cpp:122] Setting up relu4
I0509 15:35:08.582444 118321 net.cpp:129] Top shape: 256 384 13 13 (16613376)
I0509 15:35:08.582448 118321 net.cpp:137] Memory required for data: 2005495808
I0509 15:35:08.582453 118321 layer_factory.hpp:77] Creating layer conv5
I0509 15:35:08.582463 118321 net.cpp:84] Creating Layer conv5
I0509 15:35:08.582468 118321 net.cpp:406] conv5 <- conv4
I0509 15:35:08.582475 118321 net.cpp:380] conv5 -> conv5
I0509 15:35:08.582487 118321 base_conv_layer.cpp:121] Group is 2channel is384number of output is 256
#           time             counts unit events
     0.100390598          4,993,489      L1-dcache-load-misses    
     0.100390598         77,926,245      L1-dcache-loads          
I0509 15:35:08.589174 118321 net.cpp:122] Setting up conv5
I0509 15:35:08.589185 118321 net.cpp:129] Top shape: 256 256 13 13 (11075584)
I0509 15:35:08.589190 118321 net.cpp:137] Memory required for data: 2049798144
I0509 15:35:08.589201 118321 layer_factory.hpp:77] Creating layer relu5
I0509 15:35:08.589208 118321 net.cpp:84] Creating Layer relu5
I0509 15:35:08.589213 118321 net.cpp:406] relu5 <- conv5
I0509 15:35:08.589220 118321 net.cpp:367] relu5 -> conv5 (in-place)
I0509 15:35:08.589226 118321 net.cpp:122] Setting up relu5
I0509 15:35:08.589232 118321 net.cpp:129] Top shape: 256 256 13 13 (11075584)
I0509 15:35:08.589236 118321 net.cpp:137] Memory required for data: 2094100480
I0509 15:35:08.589241 118321 layer_factory.hpp:77] Creating layer pool5
I0509 15:35:08.589247 118321 net.cpp:84] Creating Layer pool5
I0509 15:35:08.589251 118321 net.cpp:406] pool5 <- conv5
I0509 15:35:08.589257 118321 net.cpp:380] pool5 -> pool5
I0509 15:35:08.589267 118321 net.cpp:122] Setting up pool5
I0509 15:35:08.589274 118321 net.cpp:129] Top shape: 256 256 6 6 (2359296)
I0509 15:35:08.589278 118321 net.cpp:137] Memory required for data: 2103537664
I0509 15:35:08.589282 118321 layer_factory.hpp:77] Creating layer fc6
I0509 15:35:08.589293 118321 net.cpp:84] Creating Layer fc6
I0509 15:35:08.589298 118321 net.cpp:406] fc6 <- pool5
I0509 15:35:08.589304 118321 net.cpp:380] fc6 -> fc6
     0.200600921          7,184,829      L1-dcache-load-misses    
     0.200600921        226,385,455      L1-dcache-loads          
     0.300800049         10,398,310      L1-dcache-load-misses    
     0.300800049        287,530,869      L1-dcache-loads          
     0.401049652         10,704,078      L1-dcache-load-misses    
     0.401049652        292,054,940      L1-dcache-loads          
I0509 15:35:08.955302 118321 net.cpp:122] Setting up fc6
I0509 15:35:08.955330 118321 net.cpp:129] Top shape: 256 4096 (1048576)
I0509 15:35:08.955333 118321 net.cpp:137] Memory required for data: 2107731968
I0509 15:35:08.955343 118321 layer_factory.hpp:77] Creating layer relu6
I0509 15:35:08.955350 118321 net.cpp:84] Creating Layer relu6
I0509 15:35:08.955353 118321 net.cpp:406] relu6 <- fc6
I0509 15:35:08.955360 118321 net.cpp:367] relu6 -> fc6 (in-place)
I0509 15:35:08.955368 118321 net.cpp:122] Setting up relu6
I0509 15:35:08.955371 118321 net.cpp:129] Top shape: 256 4096 (1048576)
I0509 15:35:08.955374 118321 net.cpp:137] Memory required for data: 2111926272
I0509 15:35:08.955377 118321 layer_factory.hpp:77] Creating layer drop6
I0509 15:35:08.955384 118321 net.cpp:84] Creating Layer drop6
I0509 15:35:08.955386 118321 net.cpp:406] drop6 <- fc6
I0509 15:35:08.955389 118321 net.cpp:367] drop6 -> fc6 (in-place)
I0509 15:35:08.955399 118321 net.cpp:122] Setting up drop6
I0509 15:35:08.955404 118321 net.cpp:129] Top shape: 256 4096 (1048576)
I0509 15:35:08.955405 118321 net.cpp:137] Memory required for data: 2116120576
I0509 15:35:08.955409 118321 layer_factory.hpp:77] Creating layer fc7
I0509 15:35:08.955415 118321 net.cpp:84] Creating Layer fc7
I0509 15:35:08.955418 118321 net.cpp:406] fc7 <- fc6
I0509 15:35:08.955422 118321 net.cpp:380] fc7 -> fc7
     0.501252603         10,540,573      L1-dcache-load-misses    
     0.501252603        272,509,035      L1-dcache-loads          
     0.601440050          2,280,843      L1-dcache-load-misses    
     0.601440050        185,493,983      L1-dcache-loads          
I0509 15:35:09.108103 118321 net.cpp:122] Setting up fc7
I0509 15:35:09.108119 118321 net.cpp:129] Top shape: 256 4096 (1048576)
I0509 15:35:09.108122 118321 net.cpp:137] Memory required for data: 2120314880
I0509 15:35:09.108129 118321 layer_factory.hpp:77] Creating layer relu7
I0509 15:35:09.108137 118321 net.cpp:84] Creating Layer relu7
I0509 15:35:09.108141 118321 net.cpp:406] relu7 <- fc7
I0509 15:35:09.108147 118321 net.cpp:367] relu7 -> fc7 (in-place)
I0509 15:35:09.108153 118321 net.cpp:122] Setting up relu7
I0509 15:35:09.108157 118321 net.cpp:129] Top shape: 256 4096 (1048576)
I0509 15:35:09.108160 118321 net.cpp:137] Memory required for data: 2124509184
I0509 15:35:09.108163 118321 layer_factory.hpp:77] Creating layer drop7
I0509 15:35:09.108181 118321 net.cpp:84] Creating Layer drop7
I0509 15:35:09.108184 118321 net.cpp:406] drop7 <- fc7
I0509 15:35:09.108188 118321 net.cpp:367] drop7 -> fc7 (in-place)
I0509 15:35:09.108194 118321 net.cpp:122] Setting up drop7
I0509 15:35:09.108198 118321 net.cpp:129] Top shape: 256 4096 (1048576)
I0509 15:35:09.108201 118321 net.cpp:137] Memory required for data: 2128703488
I0509 15:35:09.108203 118321 layer_factory.hpp:77] Creating layer fc8
I0509 15:35:09.108209 118321 net.cpp:84] Creating Layer fc8
I0509 15:35:09.108212 118321 net.cpp:406] fc8 <- fc7
I0509 15:35:09.108217 118321 net.cpp:380] fc8 -> fc8
I0509 15:35:09.145584 118321 net.cpp:122] Setting up fc8
I0509 15:35:09.145594 118321 net.cpp:129] Top shape: 256 1000 (256000)
I0509 15:35:09.145597 118321 net.cpp:137] Memory required for data: 2129727488
I0509 15:35:09.145603 118321 layer_factory.hpp:77] Creating layer loss
I0509 15:35:09.145611 118321 net.cpp:84] Creating Layer loss
I0509 15:35:09.145613 118321 net.cpp:406] loss <- fc8
I0509 15:35:09.145617 118321 net.cpp:406] loss <- label
I0509 15:35:09.145623 118321 net.cpp:380] loss -> loss
I0509 15:35:09.145635 118321 layer_factory.hpp:77] Creating layer loss
…
