…
I0509 15:00:19.914831 117838 net.cpp:294] The NetState phase (0) differed from the phase (1) specified by a rule in layer accuracy
I0509 15:00:19.914969 117838 net.cpp:51] Initializing net from parameters: 
name: "AlexNet"
state {
  phase: TRAIN
  level: 0
  stage: ""
}
layer {
  name: "data"
  type: "Data"
  top: "data"
  top: "label"
  include {
    phase: TRAIN
  }
  transform_param {
    mirror: true
    crop_size: 227
    mean_file: "data/ilsvrc12/imagenet_mean.binaryproto"
  }
  data_param {
    source: "examples/imagenet/ilsvrc12_train_lmdb"
    batch_size: 256
    backend: LMDB
  }
}
layer {
  name: "conv1"
  type: "Convolution"
  bottom: "data"
  top: "conv1"
  param {
    lr_mult: 1
    decay_mult: 1
  }
  param {
    lr_mult: 2
    decay_mult: 0
  }
  convolution_param {
    num_output: 96
    kernel_size: 11
    stride: 4
    weight_filler {
      type: "gaussian"
      std: 0.01
    }
    bias_filler {
      type: "constant"
      value: 0
    }
  }
}
layer {
  name: "relu1"
  type: "ReLU"
  bottom: "conv1"
  top: "conv1"
}
layer {
  name: "norm1"
  type: "LRN"
  bottom: "conv1"
  top: "norm1"
  lrn_param {
    local_size: 5
    alpha: 0.0001
    beta: 0.75
  }
}
layer {
  name: "pool1"
  type: "Pooling"
  bottom: "norm1"
  top: "pool1"
  pooling_param {
    pool: MAX
    kernel_size: 3
    stride: 2
  }
}
layer {
  name: "conv2"
  type: "Convolution"
  bottom: "pool1"
  top: "conv2"
  param {
    lr_mult: 1
    decay_mult: 1
  }
  param {
    lr_mult: 2
    decay_mult: 0
  }
  convolution_param {
    num_output: 256
    pad: 2
    kernel_size: 5
    group: 2
    weight_filler {
      type: "gaussian"
      std: 0.01
    }
    bias_filler {
      type: "constant"
      value: 0.1
    }
  }
}
layer {
  name: "relu2"
  type: "ReLU"
  bottom: "conv2"
  top: "conv2"
}
layer {
  name: "norm2"
  type: "LRN"
  bottom: "conv2"
  top: "norm2"
  lrn_param {
    local_size: 5
    alpha: 0.0001
    beta: 0.75
  }
}
layer {
  name: "pool2"
  type: "Pooling"
  bottom: "norm2"
  top: "pool2"
  pooling_param {
    pool: MAX
    kernel_size: 3
    stride: 2
  }
}
layer {
  name: "conv3"
  type: "Convolution"
  bottom: "pool2"
  top: "conv3"
  param {
    lr_mult: 1
    decay_mult: 1
  }
  param {
    lr_mult: 2
    decay_mult: 0
  }
  convolution_param {
    num_output: 384
    pad: 1
    kernel_size: 3
    weight_filler {
      type: "gaussian"
      std: 0.01
    }
    bias_filler {
      type: "constant"
      value: 0
    }
  }
}
layer {
  name: "relu3"
  type: "ReLU"
  bottom: "conv3"
  top: "conv3"
}
layer {
  name: "conv4"
  type: "Convolution"
  bottom: "conv3"
  top: "conv4"
  param {
    lr_mult: 1
    decay_mult: 1
  }
  param {
    lr_mult: 2
    decay_mult: 0
  }
  convolution_param {
    num_output: 384
    pad: 1
    kernel_size: 3
    group: 2
    weight_filler {
      type: "gaussian"
      std: 0.01
    }
    bias_filler {
      type: "constant"
      value: 0.1
    }
  }
}
layer {
  name: "relu4"
  type: "ReLU"
  bottom: "conv4"
  top: "conv4"
}
layer {
  name: "conv5"
  type: "Convolution"
  bottom: "conv4"
  top: "conv5"
  param {
    lr_mult: 1
    decay_mult: 1
  }
  param {
    lr_mult: 2
    decay_mult: 0
  }
  convolution_param {
    num_output: 256
    pad: 1
    kernel_size: 3
    group: 2
    weight_filler {
      type: "gaussian"
      std: 0.01
    }
    bias_filler {
      type: "constant"
      value: 0.1
    }
  }
}
layer {
  name: "relu5"
  type: "ReLU"
  bottom: "conv5"
  top: "conv5"
}
layer {
  name: "pool5"
  type: "Pooling"
  bottom: "conv5"
  top: "pool5"
  pooling_param {
    pool: MAX
    kernel_size: 3
    stride: 2
  }
}
layer {
  name: "fc6"
  type: "InnerProduct"
  bottom: "pool5"
  top: "fc6"
  param {
    lr_mult: 1
    decay_mult: 1
  }
  param {
    lr_mult: 2
    decay_mult: 0
  }
  inner_product_param {
    num_output: 4096
    weight_filler {
      type: "gaussian"
      std: 0.005
    }
    bias_filler {
      type: "constant"
      value: 0.1
    }
  }
}
layer {
  name: "relu6"
  type: "ReLU"
  bottom: "fc6"
  top: "fc6"
}
layer {
  name: "drop6"
  type: "Dropout"
  bottom: "fc6"
  top: "fc6"
  dropout_param {
    dropout_ratio: 0.5
  }
}
layer {
  name: "fc7"
  type: "InnerProduct"
  bottom: "fc6"
  top: "fc7"
  param {
    lr_mult: 1
    decay_mult: 1
  }
  param {
    lr_mult: 2
    decay_mult: 0
  }
  inner_product_param {
    num_output: 4096
    weight_filler {
      type: "gaussian"
      std: 0.005
    }
    bias_filler {
      type: "constant"
      value: 0.1
    }
  }
}
layer {
  name: "relu7"
  type: "ReLU"
  bottom: "fc7"
  top: "fc7"
}
layer {
  name: "drop7"
  type: "Dropout"
  bottom: "fc7"
  top: "fc7"
  dropout_param {
    dropout_ratio: 0.5
  }
}
layer {
  name: "fc8"
  type: "InnerProduct"
  bottom: "fc7"
  top: "fc8"
  param {
    lr_mult: 1
    decay_mult: 1
  }
  param {
    lr_mult: 2
    decay_mult: 0
  }
  inner_product_param {
    num_output: 1000
    weight_filler {
      type: "gaussian"
      std: 0.01
    }
    bias_filler {
      type: "constant"
      value: 0
    }
  }
}
layer {
  name: "loss"
  type: "SoftmaxWithLoss"
  bottom: "fc8"
  bottom: "label"
  top: "loss"
}
I0509 15:00:19.915050 117838 layer_factory.hpp:77] Creating layer data
I0509 15:00:19.915119 117838 db_lmdb.cpp:35] Opened lmdb examples/imagenet/ilsvrc12_train_lmdb
I0509 15:00:19.915153 117838 net.cpp:84] Creating Layer data
I0509 15:00:19.915160 117838 net.cpp:380] data -> data
I0509 15:00:19.915179 117838 net.cpp:380] data -> label
I0509 15:00:19.915189 117838 data_transformer.cpp:25] Loading mean file from: data/ilsvrc12/imagenet_mean.binaryproto
I0509 15:00:19.917260 117838 data_layer.cpp:45] output data size: 256,3,227,227
I0509 15:00:19.917328 117838 net.cpp:122] Setting up data
I0509 15:00:19.917352 117838 net.cpp:129] Top shape: 256 3 227 227 (39574272)
I0509 15:00:19.917357 117838 net.cpp:129] Top shape: 256 (256)
I0509 15:00:19.917361 117838 net.cpp:137] Memory required for data: 158298112
I0509 15:00:19.917366 117838 layer_factory.hpp:77] Creating layer conv1
I0509 15:00:19.917379 117838 net.cpp:84] Creating Layer conv1
I0509 15:00:19.917385 117838 net.cpp:406] conv1 <- data
I0509 15:00:19.917395 117838 net.cpp:380] conv1 -> conv1
I0509 15:00:19.917409 117838 base_conv_layer.cpp:121] Group is 1channel is3number of output is 96
I0509 15:00:19.917774 117838 net.cpp:122] Setting up conv1
I0509 15:00:19.917781 117838 net.cpp:129] Top shape: 256 96 55 55 (74342400)
I0509 15:00:19.917784 117838 net.cpp:137] Memory required for data: 455667712
I0509 15:00:19.917799 117838 layer_factory.hpp:77] Creating layer relu1
I0509 15:00:19.917805 117838 net.cpp:84] Creating Layer relu1
I0509 15:00:19.917809 117838 net.cpp:406] relu1 <- conv1
I0509 15:00:19.917814 117838 net.cpp:367] relu1 -> conv1 (in-place)
I0509 15:00:19.917820 117838 net.cpp:122] Setting up relu1
I0509 15:00:19.917824 117838 net.cpp:129] Top shape: 256 96 55 55 (74342400)
I0509 15:00:19.917827 117838 net.cpp:137] Memory required for data: 753037312
I0509 15:00:19.917830 117838 layer_factory.hpp:77] Creating layer norm1
I0509 15:00:19.917836 117838 net.cpp:84] Creating Layer norm1
I0509 15:00:19.917840 117838 net.cpp:406] norm1 <- conv1
I0509 15:00:19.917843 117838 net.cpp:380] norm1 -> norm1
I0509 15:00:19.917851 117838 net.cpp:122] Setting up norm1
I0509 15:00:19.917856 117838 net.cpp:129] Top shape: 256 96 55 55 (74342400)
I0509 15:00:19.917860 117838 net.cpp:137] Memory required for data: 1050406912
I0509 15:00:19.917862 117838 layer_factory.hpp:77] Creating layer pool1
I0509 15:00:19.917872 117838 net.cpp:84] Creating Layer pool1
I0509 15:00:19.917882 117838 net.cpp:406] pool1 <- norm1
I0509 15:00:19.917886 117838 net.cpp:380] pool1 -> pool1
I0509 15:00:19.917899 117838 net.cpp:122] Setting up pool1
I0509 15:00:19.917904 117838 net.cpp:129] Top shape: 256 96 27 27 (17915904)
I0509 15:00:19.917908 117838 net.cpp:137] Memory required for data: 1122070528
I0509 15:00:19.917910 117838 layer_factory.hpp:77] Creating layer conv2
I0509 15:00:19.917917 117838 net.cpp:84] Creating Layer conv2
I0509 15:00:19.917920 117838 net.cpp:406] conv2 <- pool1
I0509 15:00:19.917925 117838 net.cpp:380] conv2 -> conv2
I0509 15:00:19.917933 117838 base_conv_layer.cpp:121] Group is 2channel is96number of output is 256
I0509 15:00:19.921270 117838 net.cpp:122] Setting up conv2
I0509 15:00:19.921283 117838 net.cpp:129] Top shape: 256 256 27 27 (47775744)
I0509 15:00:19.921285 117838 net.cpp:137] Memory required for data: 1313173504
I0509 15:00:19.921294 117838 layer_factory.hpp:77] Creating layer relu2
I0509 15:00:19.921300 117838 net.cpp:84] Creating Layer relu2
I0509 15:00:19.921303 117838 net.cpp:406] relu2 <- conv2
I0509 15:00:19.921309 117838 net.cpp:367] relu2 -> conv2 (in-place)
I0509 15:00:19.921315 117838 net.cpp:122] Setting up relu2
I0509 15:00:19.921319 117838 net.cpp:129] Top shape: 256 256 27 27 (47775744)
I0509 15:00:19.921322 117838 net.cpp:137] Memory required for data: 1504276480
I0509 15:00:19.921325 117838 layer_factory.hpp:77] Creating layer norm2
I0509 15:00:19.921330 117838 net.cpp:84] Creating Layer norm2
I0509 15:00:19.921334 117838 net.cpp:406] norm2 <- conv2
I0509 15:00:19.921339 117838 net.cpp:380] norm2 -> norm2
I0509 15:00:19.921345 117838 net.cpp:122] Setting up norm2
I0509 15:00:19.921350 117838 net.cpp:129] Top shape: 256 256 27 27 (47775744)
I0509 15:00:19.921352 117838 net.cpp:137] Memory required for data: 1695379456
I0509 15:00:19.921355 117838 layer_factory.hpp:77] Creating layer pool2
I0509 15:00:19.921361 117838 net.cpp:84] Creating Layer pool2
I0509 15:00:19.921365 117838 net.cpp:406] pool2 <- norm2
I0509 15:00:19.921368 117838 net.cpp:380] pool2 -> pool2
I0509 15:00:19.921375 117838 net.cpp:122] Setting up pool2
I0509 15:00:19.921380 117838 net.cpp:129] Top shape: 256 256 13 13 (11075584)
I0509 15:00:19.921383 117838 net.cpp:137] Memory required for data: 1739681792
I0509 15:00:19.921386 117838 layer_factory.hpp:77] Creating layer conv3
I0509 15:00:19.921392 117838 net.cpp:84] Creating Layer conv3
I0509 15:00:19.921396 117838 net.cpp:406] conv3 <- pool2
I0509 15:00:19.921401 117838 net.cpp:380] conv3 -> conv3
I0509 15:00:19.921408 117838 base_conv_layer.cpp:121] Group is 1channel is256number of output is 384
I0509 15:00:19.930451 117838 net.cpp:122] Setting up conv3
I0509 15:00:19.930472 117838 net.cpp:129] Top shape: 256 384 13 13 (16613376)
I0509 15:00:19.930475 117838 net.cpp:137] Memory required for data: 1806135296
I0509 15:00:19.930486 117838 layer_factory.hpp:77] Creating layer relu3
I0509 15:00:19.930493 117838 net.cpp:84] Creating Layer relu3
I0509 15:00:19.930497 117838 net.cpp:406] relu3 <- conv3
I0509 15:00:19.930503 117838 net.cpp:367] relu3 -> conv3 (in-place)
I0509 15:00:19.930510 117838 net.cpp:122] Setting up relu3
I0509 15:00:19.930513 117838 net.cpp:129] Top shape: 256 384 13 13 (16613376)
I0509 15:00:19.930516 117838 net.cpp:137] Memory required for data: 1872588800
I0509 15:00:19.930519 117838 layer_factory.hpp:77] Creating layer conv4
I0509 15:00:19.930527 117838 net.cpp:84] Creating Layer conv4
I0509 15:00:19.930529 117838 net.cpp:406] conv4 <- conv3
I0509 15:00:19.930536 117838 net.cpp:380] conv4 -> conv4
I0509 15:00:19.930543 117838 base_conv_layer.cpp:121] Group is 2channel is384number of output is 384
I0509 15:00:19.937153 117838 net.cpp:122] Setting up conv4
I0509 15:00:19.937161 117838 net.cpp:129] Top shape: 256 384 13 13 (16613376)
I0509 15:00:19.937165 117838 net.cpp:137] Memory required for data: 1939042304
I0509 15:00:19.937170 117838 layer_factory.hpp:77] Creating layer relu4
I0509 15:00:19.937175 117838 net.cpp:84] Creating Layer relu4
I0509 15:00:19.937183 117838 net.cpp:406] relu4 <- conv4
I0509 15:00:19.937198 117838 net.cpp:367] relu4 -> conv4 (in-place)
I0509 15:00:19.937204 117838 net.cpp:122] Setting up relu4
I0509 15:00:19.937208 117838 net.cpp:129] Top shape: 256 384 13 13 (16613376)
I0509 15:00:19.937211 117838 net.cpp:137] Memory required for data: 2005495808
I0509 15:00:19.937214 117838 layer_factory.hpp:77] Creating layer conv5
I0509 15:00:19.937221 117838 net.cpp:84] Creating Layer conv5
I0509 15:00:19.937223 117838 net.cpp:406] conv5 <- conv4
I0509 15:00:19.937228 117838 net.cpp:380] conv5 -> conv5
I0509 15:00:19.937235 117838 base_conv_layer.cpp:121] Group is 2channel is384number of output is 256
I0509 15:00:19.941581 117838 net.cpp:122] Setting up conv5
I0509 15:00:19.941589 117838 net.cpp:129] Top shape: 256 256 13 13 (11075584)
I0509 15:00:19.941592 117838 net.cpp:137] Memory required for data: 2049798144
I0509 15:00:19.941601 117838 layer_factory.hpp:77] Creating layer relu5
I0509 15:00:19.941606 117838 net.cpp:84] Creating Layer relu5
I0509 15:00:19.941608 117838 net.cpp:406] relu5 <- conv5
I0509 15:00:19.941612 117838 net.cpp:367] relu5 -> conv5 (in-place)
I0509 15:00:19.941617 117838 net.cpp:122] Setting up relu5
I0509 15:00:19.941622 117838 net.cpp:129] Top shape: 256 256 13 13 (11075584)
I0509 15:00:19.941624 117838 net.cpp:137] Memory required for data: 2094100480
I0509 15:00:19.941627 117838 layer_factory.hpp:77] Creating layer pool5
I0509 15:00:19.941632 117838 net.cpp:84] Creating Layer pool5
I0509 15:00:19.941634 117838 net.cpp:406] pool5 <- conv5
I0509 15:00:19.941639 117838 net.cpp:380] pool5 -> pool5
I0509 15:00:19.941646 117838 net.cpp:122] Setting up pool5
I0509 15:00:19.941650 117838 net.cpp:129] Top shape: 256 256 6 6 (2359296)
I0509 15:00:19.941653 117838 net.cpp:137] Memory required for data: 2103537664
I0509 15:00:19.941656 117838 layer_factory.hpp:77] Creating layer fc6
I0509 15:00:19.941663 117838 net.cpp:84] Creating Layer fc6
I0509 15:00:19.941668 117838 net.cpp:406] fc6 <- pool5
I0509 15:00:19.941673 117838 net.cpp:380] fc6 -> fc6
#           time             counts unit events
     0.100380313            133,208      LLC-load-misses          
     0.100380313            886,544      LLC-loads                
     0.200589049            330,077      LLC-load-misses          
     0.200589049            736,192      LLC-loads                
     0.300770961            389,410      LLC-load-misses          
     0.300770961            874,043      LLC-loads                
     0.400951187            391,654      LLC-load-misses          
     0.400951187            876,525      LLC-loads                
I0509 15:00:20.285619 117838 net.cpp:122] Setting up fc6
I0509 15:00:20.285640 117838 net.cpp:129] Top shape: 256 4096 (1048576)
I0509 15:00:20.285645 117838 net.cpp:137] Memory required for data: 2107731968
I0509 15:00:20.285652 117838 layer_factory.hpp:77] Creating layer relu6
I0509 15:00:20.285660 117838 net.cpp:84] Creating Layer relu6
I0509 15:00:20.285663 117838 net.cpp:406] relu6 <- fc6
I0509 15:00:20.285670 117838 net.cpp:367] relu6 -> fc6 (in-place)
I0509 15:00:20.285676 117838 net.cpp:122] Setting up relu6
I0509 15:00:20.285681 117838 net.cpp:129] Top shape: 256 4096 (1048576)
I0509 15:00:20.285683 117838 net.cpp:137] Memory required for data: 2111926272
I0509 15:00:20.285686 117838 layer_factory.hpp:77] Creating layer drop6
I0509 15:00:20.285692 117838 net.cpp:84] Creating Layer drop6
I0509 15:00:20.285694 117838 net.cpp:406] drop6 <- fc6
I0509 15:00:20.285698 117838 net.cpp:367] drop6 -> fc6 (in-place)
I0509 15:00:20.285708 117838 net.cpp:122] Setting up drop6
I0509 15:00:20.285712 117838 net.cpp:129] Top shape: 256 4096 (1048576)
I0509 15:00:20.285715 117838 net.cpp:137] Memory required for data: 2116120576
I0509 15:00:20.285718 117838 layer_factory.hpp:77] Creating layer fc7
I0509 15:00:20.285725 117838 net.cpp:84] Creating Layer fc7
I0509 15:00:20.285728 117838 net.cpp:406] fc7 <- fc6
I0509 15:00:20.285733 117838 net.cpp:380] fc7 -> fc7
     0.501137676            285,316      LLC-load-misses          
     0.501137676            615,058      LLC-loads                
     0.601334500                 21      LLC-load-misses          
     0.601334500              1,161      LLC-loads                
I0509 15:00:20.503325 117838 net.cpp:122] Setting up fc7
I0509 15:00:20.503342 117838 net.cpp:129] Top shape: 256 4096 (1048576)
I0509 15:00:20.503345 117838 net.cpp:137] Memory required for data: 2120314880
I0509 15:00:20.503355 117838 layer_factory.hpp:77] Creating layer relu7
I0509 15:00:20.503361 117838 net.cpp:84] Creating Layer relu7
I0509 15:00:20.503366 117838 net.cpp:406] relu7 <- fc7
I0509 15:00:20.503372 117838 net.cpp:367] relu7 -> fc7 (in-place)
I0509 15:00:20.503378 117838 net.cpp:122] Setting up relu7
I0509 15:00:20.503382 117838 net.cpp:129] Top shape: 256 4096 (1048576)
I0509 15:00:20.503386 117838 net.cpp:137] Memory required for data: 2124509184
I0509 15:00:20.503388 117838 layer_factory.hpp:77] Creating layer drop7
I0509 15:00:20.503407 117838 net.cpp:84] Creating Layer drop7
I0509 15:00:20.503409 117838 net.cpp:406] drop7 <- fc7
I0509 15:00:20.503413 117838 net.cpp:367] drop7 -> fc7 (in-place)
I0509 15:00:20.503418 117838 net.cpp:122] Setting up drop7
I0509 15:00:20.503422 117838 net.cpp:129] Top shape: 256 4096 (1048576)
I0509 15:00:20.503425 117838 net.cpp:137] Memory required for data: 2128703488
I0509 15:00:20.503428 117838 layer_factory.hpp:77] Creating layer fc8
I0509 15:00:20.503434 117838 net.cpp:84] Creating Layer fc8
I0509 15:00:20.503437 117838 net.cpp:406] fc8 <- fc7
I0509 15:00:20.503443 117838 net.cpp:380] fc8 -> fc8
I0509 15:00:20.563571 117838 net.cpp:122] Setting up fc8
I0509 15:00:20.563581 117838 net.cpp:129] Top shape: 256 1000 (256000)
I0509 15:00:20.563585 117838 net.cpp:137] Memory required for data: 2129727488
I0509 15:00:20.563591 117838 layer_factory.hpp:77] Creating layer loss
I0509 15:00:20.563596 117838 net.cpp:84] Creating Layer loss
I0509 15:00:20.563599 117838 net.cpp:406] loss <- fc8
I0509 15:00:20.563603 117838 net.cpp:406] loss <- label
I0509 15:00:20.563609 117838 net.cpp:380] loss -> loss
I0509 15:00:20.563621 117838 layer_factory.hpp:77] Creating layer loss
…
