…
I0509 14:50:41.851722 117738 net.cpp:294] The NetState phase (0) differed from the phase (1) specified by a rule in layer accuracy
I0509 14:50:41.851858 117738 net.cpp:51] Initializing net from parameters: 
name: "AlexNet"
state {
  phase: TRAIN
  level: 0
  stage: ""
}
layer {
  name: "data"
  type: "Data"
  top: "data"
  top: "label"
  include {
    phase: TRAIN
  }
  transform_param {
    mirror: true
    crop_size: 227
    mean_file: "data/ilsvrc12/imagenet_mean.binaryproto"
  }
  data_param {
    source: "examples/imagenet/ilsvrc12_train_lmdb"
    batch_size: 256
    backend: LMDB
  }
}
layer {
  name: "conv1"
  type: "Convolution"
  bottom: "data"
  top: "conv1"
  param {
    lr_mult: 1
    decay_mult: 1
  }
  param {
    lr_mult: 2
    decay_mult: 0
  }
  convolution_param {
    num_output: 96
    kernel_size: 11
    stride: 4
    weight_filler {
      type: "gaussian"
      std: 0.01
    }
    bias_filler {
      type: "constant"
      value: 0
    }
  }
}
layer {
  name: "relu1"
  type: "ReLU"
  bottom: "conv1"
  top: "conv1"
}
layer {
  name: "norm1"
  type: "LRN"
  bottom: "conv1"
  top: "norm1"
  lrn_param {
    local_size: 5
    alpha: 0.0001
    beta: 0.75
  }
}
layer {
  name: "pool1"
  type: "Pooling"
  bottom: "norm1"
  top: "pool1"
  pooling_param {
    pool: MAX
    kernel_size: 3
    stride: 2
  }
}
layer {
  name: "conv2"
  type: "Convolution"
  bottom: "pool1"
  top: "conv2"
  param {
    lr_mult: 1
    decay_mult: 1
  }
  param {
    lr_mult: 2
    decay_mult: 0
  }
  convolution_param {
    num_output: 256
    pad: 2
    kernel_size: 5
    group: 2
    weight_filler {
      type: "gaussian"
      std: 0.01
    }
    bias_filler {
      type: "constant"
      value: 0.1
    }
  }
}
layer {
  name: "relu2"
  type: "ReLU"
  bottom: "conv2"
  top: "conv2"
}
layer {
  name: "norm2"
  type: "LRN"
  bottom: "conv2"
  top: "norm2"
  lrn_param {
    local_size: 5
    alpha: 0.0001
    beta: 0.75
  }
}
layer {
  name: "pool2"
  type: "Pooling"
  bottom: "norm2"
  top: "pool2"
  pooling_param {
    pool: MAX
    kernel_size: 3
    stride: 2
  }
}
layer {
  name: "conv3"
  type: "Convolution"
  bottom: "pool2"
  top: "conv3"
  param {
    lr_mult: 1
    decay_mult: 1
  }
  param {
    lr_mult: 2
    decay_mult: 0
  }
  convolution_param {
    num_output: 384
    pad: 1
    kernel_size: 3
    weight_filler {
      type: "gaussian"
      std: 0.01
    }
    bias_filler {
      type: "constant"
      value: 0
    }
  }
}
layer {
  name: "relu3"
  type: "ReLU"
  bottom: "conv3"
  top: "conv3"
}
layer {
  name: "conv4"
  type: "Convolution"
  bottom: "conv3"
  top: "conv4"
  param {
    lr_mult: 1
    decay_mult: 1
  }
  param {
    lr_mult: 2
    decay_mult: 0
  }
  convolution_param {
    num_output: 384
    pad: 1
    kernel_size: 3
    group: 2
    weight_filler {
      type: "gaussian"
      std: 0.01
    }
    bias_filler {
      type: "constant"
      value: 0.1
    }
  }
}
layer {
  name: "relu4"
  type: "ReLU"
  bottom: "conv4"
  top: "conv4"
}
layer {
  name: "conv5"
  type: "Convolution"
  bottom: "conv4"
  top: "conv5"
  param {
    lr_mult: 1
    decay_mult: 1
  }
  param {
    lr_mult: 2
    decay_mult: 0
  }
  convolution_param {
    num_output: 256
    pad: 1
    kernel_size: 3
    group: 2
    weight_filler {
      type: "gaussian"
      std: 0.01
    }
    bias_filler {
      type: "constant"
      value: 0.1
    }
  }
}
layer {
  name: "relu5"
  type: "ReLU"
  bottom: "conv5"
  top: "conv5"
}
layer {
  name: "pool5"
  type: "Pooling"
  bottom: "conv5"
  top: "pool5"
  pooling_param {
    pool: MAX
    kernel_size: 3
    stride: 2
  }
}
layer {
  name: "fc6"
  type: "InnerProduct"
  bottom: "pool5"
  top: "fc6"
  param {
    lr_mult: 1
    decay_mult: 1
  }
  param {
    lr_mult: 2
    decay_mult: 0
  }
  inner_product_param {
    num_output: 4096
    weight_filler {
      type: "gaussian"
      std: 0.005
    }
    bias_filler {
      type: "constant"
      value: 0.1
    }
  }
}
layer {
  name: "relu6"
  type: "ReLU"
  bottom: "fc6"
  top: "fc6"
}
layer {
  name: "drop6"
  type: "Dropout"
  bottom: "fc6"
  top: "fc6"
  dropout_param {
    dropout_ratio: 0.5
  }
}
layer {
  name: "fc7"
  type: "InnerProduct"
  bottom: "fc6"
  top: "fc7"
  param {
    lr_mult: 1
    decay_mult: 1
  }
  param {
    lr_mult: 2
    decay_mult: 0
  }
  inner_product_param {
    num_output: 4096
    weight_filler {
      type: "gaussian"
      std: 0.005
    }
    bias_filler {
      type: "constant"
      value: 0.1
    }
  }
}
layer {
  name: "relu7"
  type: "ReLU"
  bottom: "fc7"
  top: "fc7"
}
layer {
  name: "drop7"
  type: "Dropout"
  bottom: "fc7"
  top: "fc7"
  dropout_param {
    dropout_ratio: 0.5
  }
}
layer {
  name: "fc8"
  type: "InnerProduct"
  bottom: "fc7"
  top: "fc8"
  param {
    lr_mult: 1
    decay_mult: 1
  }
  param {
    lr_mult: 2
    decay_mult: 0
  }
  inner_product_param {
    num_output: 1000
    weight_filler {
      type: "gaussian"
      std: 0.01
    }
    bias_filler {
      type: "constant"
      value: 0
    }
  }
}
layer {
  name: "loss"
  type: "SoftmaxWithLoss"
  bottom: "fc8"
  bottom: "label"
  top: "loss"
}
I0509 14:50:41.851939 117738 layer_factory.hpp:77] Creating layer data
I0509 14:50:41.851997 117738 db_lmdb.cpp:35] Opened lmdb examples/imagenet/ilsvrc12_train_lmdb
I0509 14:50:41.852028 117738 net.cpp:84] Creating Layer data
I0509 14:50:41.852044 117738 net.cpp:380] data -> data
I0509 14:50:41.852077 117738 net.cpp:380] data -> label
I0509 14:50:41.852088 117738 data_transformer.cpp:25] Loading mean file from: data/ilsvrc12/imagenet_mean.binaryproto
I0509 14:50:41.854051 117738 data_layer.cpp:45] output data size: 256,3,227,227
I0509 14:50:41.854102 117738 net.cpp:122] Setting up data
I0509 14:50:41.854113 117738 net.cpp:129] Top shape: 256 3 227 227 (39574272)
I0509 14:50:41.854117 117738 net.cpp:129] Top shape: 256 (256)
I0509 14:50:41.854120 117738 net.cpp:137] Memory required for data: 158298112
I0509 14:50:41.854126 117738 layer_factory.hpp:77] Creating layer conv1
I0509 14:50:41.854137 117738 net.cpp:84] Creating Layer conv1
I0509 14:50:41.854141 117738 net.cpp:406] conv1 <- data
I0509 14:50:41.854151 117738 net.cpp:380] conv1 -> conv1
I0509 14:50:41.854163 117738 base_conv_layer.cpp:121] Group is 1channel is3number of output is 96
I0509 14:50:41.854498 117738 net.cpp:122] Setting up conv1
I0509 14:50:41.854506 117738 net.cpp:129] Top shape: 256 96 55 55 (74342400)
I0509 14:50:41.854508 117738 net.cpp:137] Memory required for data: 455667712
I0509 14:50:41.854521 117738 layer_factory.hpp:77] Creating layer relu1
I0509 14:50:41.854527 117738 net.cpp:84] Creating Layer relu1
I0509 14:50:41.854531 117738 net.cpp:406] relu1 <- conv1
I0509 14:50:41.854535 117738 net.cpp:367] relu1 -> conv1 (in-place)
I0509 14:50:41.854542 117738 net.cpp:122] Setting up relu1
I0509 14:50:41.854545 117738 net.cpp:129] Top shape: 256 96 55 55 (74342400)
I0509 14:50:41.854548 117738 net.cpp:137] Memory required for data: 753037312
I0509 14:50:41.854552 117738 layer_factory.hpp:77] Creating layer norm1
I0509 14:50:41.854557 117738 net.cpp:84] Creating Layer norm1
I0509 14:50:41.854558 117738 net.cpp:406] norm1 <- conv1
I0509 14:50:41.854562 117738 net.cpp:380] norm1 -> norm1
I0509 14:50:41.854569 117738 net.cpp:122] Setting up norm1
I0509 14:50:41.854575 117738 net.cpp:129] Top shape: 256 96 55 55 (74342400)
I0509 14:50:41.854578 117738 net.cpp:137] Memory required for data: 1050406912
I0509 14:50:41.854580 117738 layer_factory.hpp:77] Creating layer pool1
I0509 14:50:41.854590 117738 net.cpp:84] Creating Layer pool1
I0509 14:50:41.854599 117738 net.cpp:406] pool1 <- norm1
I0509 14:50:41.854604 117738 net.cpp:380] pool1 -> pool1
I0509 14:50:41.854614 117738 net.cpp:122] Setting up pool1
I0509 14:50:41.854619 117738 net.cpp:129] Top shape: 256 96 27 27 (17915904)
I0509 14:50:41.854622 117738 net.cpp:137] Memory required for data: 1122070528
I0509 14:50:41.854625 117738 layer_factory.hpp:77] Creating layer conv2
I0509 14:50:41.854631 117738 net.cpp:84] Creating Layer conv2
I0509 14:50:41.854635 117738 net.cpp:406] conv2 <- pool1
I0509 14:50:41.854640 117738 net.cpp:380] conv2 -> conv2
I0509 14:50:41.854646 117738 base_conv_layer.cpp:121] Group is 2channel is96number of output is 256
I0509 14:50:41.857745 117738 net.cpp:122] Setting up conv2
I0509 14:50:41.857753 117738 net.cpp:129] Top shape: 256 256 27 27 (47775744)
I0509 14:50:41.857758 117738 net.cpp:137] Memory required for data: 1313173504
I0509 14:50:41.857764 117738 layer_factory.hpp:77] Creating layer relu2
I0509 14:50:41.857769 117738 net.cpp:84] Creating Layer relu2
I0509 14:50:41.857772 117738 net.cpp:406] relu2 <- conv2
I0509 14:50:41.857777 117738 net.cpp:367] relu2 -> conv2 (in-place)
I0509 14:50:41.857781 117738 net.cpp:122] Setting up relu2
I0509 14:50:41.857785 117738 net.cpp:129] Top shape: 256 256 27 27 (47775744)
I0509 14:50:41.857789 117738 net.cpp:137] Memory required for data: 1504276480
I0509 14:50:41.857792 117738 layer_factory.hpp:77] Creating layer norm2
I0509 14:50:41.857795 117738 net.cpp:84] Creating Layer norm2
I0509 14:50:41.857798 117738 net.cpp:406] norm2 <- conv2
I0509 14:50:41.857802 117738 net.cpp:380] norm2 -> norm2
I0509 14:50:41.857810 117738 net.cpp:122] Setting up norm2
I0509 14:50:41.857813 117738 net.cpp:129] Top shape: 256 256 27 27 (47775744)
I0509 14:50:41.857816 117738 net.cpp:137] Memory required for data: 1695379456
I0509 14:50:41.857818 117738 layer_factory.hpp:77] Creating layer pool2
I0509 14:50:41.857825 117738 net.cpp:84] Creating Layer pool2
I0509 14:50:41.857827 117738 net.cpp:406] pool2 <- norm2
I0509 14:50:41.857831 117738 net.cpp:380] pool2 -> pool2
I0509 14:50:41.857836 117738 net.cpp:122] Setting up pool2
I0509 14:50:41.857841 117738 net.cpp:129] Top shape: 256 256 13 13 (11075584)
I0509 14:50:41.857844 117738 net.cpp:137] Memory required for data: 1739681792
I0509 14:50:41.857847 117738 layer_factory.hpp:77] Creating layer conv3
I0509 14:50:41.857853 117738 net.cpp:84] Creating Layer conv3
I0509 14:50:41.857856 117738 net.cpp:406] conv3 <- pool2
I0509 14:50:41.857861 117738 net.cpp:380] conv3 -> conv3
I0509 14:50:41.857868 117738 base_conv_layer.cpp:121] Group is 1channel is256number of output is 384
I0509 14:50:41.866767 117738 net.cpp:122] Setting up conv3
I0509 14:50:41.866778 117738 net.cpp:129] Top shape: 256 384 13 13 (16613376)
I0509 14:50:41.866781 117738 net.cpp:137] Memory required for data: 1806135296
I0509 14:50:41.866788 117738 layer_factory.hpp:77] Creating layer relu3
I0509 14:50:41.866793 117738 net.cpp:84] Creating Layer relu3
I0509 14:50:41.866797 117738 net.cpp:406] relu3 <- conv3
I0509 14:50:41.866802 117738 net.cpp:367] relu3 -> conv3 (in-place)
I0509 14:50:41.866806 117738 net.cpp:122] Setting up relu3
I0509 14:50:41.866811 117738 net.cpp:129] Top shape: 256 384 13 13 (16613376)
I0509 14:50:41.866814 117738 net.cpp:137] Memory required for data: 1872588800
I0509 14:50:41.866816 117738 layer_factory.hpp:77] Creating layer conv4
I0509 14:50:41.866822 117738 net.cpp:84] Creating Layer conv4
I0509 14:50:41.866825 117738 net.cpp:406] conv4 <- conv3
I0509 14:50:41.866830 117738 net.cpp:380] conv4 -> conv4
I0509 14:50:41.866837 117738 base_conv_layer.cpp:121] Group is 2channel is384number of output is 384
I0509 14:50:41.873092 117738 net.cpp:122] Setting up conv4
I0509 14:50:41.873101 117738 net.cpp:129] Top shape: 256 384 13 13 (16613376)
I0509 14:50:41.873105 117738 net.cpp:137] Memory required for data: 1939042304
I0509 14:50:41.873109 117738 layer_factory.hpp:77] Creating layer relu4
I0509 14:50:41.873114 117738 net.cpp:84] Creating Layer relu4
I0509 14:50:41.873121 117738 net.cpp:406] relu4 <- conv4
I0509 14:50:41.873132 117738 net.cpp:367] relu4 -> conv4 (in-place)
I0509 14:50:41.873137 117738 net.cpp:122] Setting up relu4
I0509 14:50:41.873142 117738 net.cpp:129] Top shape: 256 384 13 13 (16613376)
I0509 14:50:41.873144 117738 net.cpp:137] Memory required for data: 2005495808
I0509 14:50:41.873148 117738 layer_factory.hpp:77] Creating layer conv5
I0509 14:50:41.873154 117738 net.cpp:84] Creating Layer conv5
I0509 14:50:41.873157 117738 net.cpp:406] conv5 <- conv4
I0509 14:50:41.873162 117738 net.cpp:380] conv5 -> conv5
I0509 14:50:41.873169 117738 base_conv_layer.cpp:121] Group is 2channel is384number of output is 256
I0509 14:50:41.877529 117738 net.cpp:122] Setting up conv5
I0509 14:50:41.877537 117738 net.cpp:129] Top shape: 256 256 13 13 (11075584)
I0509 14:50:41.877539 117738 net.cpp:137] Memory required for data: 2049798144
I0509 14:50:41.877547 117738 layer_factory.hpp:77] Creating layer relu5
I0509 14:50:41.877552 117738 net.cpp:84] Creating Layer relu5
I0509 14:50:41.877555 117738 net.cpp:406] relu5 <- conv5
I0509 14:50:41.877559 117738 net.cpp:367] relu5 -> conv5 (in-place)
I0509 14:50:41.877564 117738 net.cpp:122] Setting up relu5
I0509 14:50:41.877568 117738 net.cpp:129] Top shape: 256 256 13 13 (11075584)
I0509 14:50:41.877570 117738 net.cpp:137] Memory required for data: 2094100480
I0509 14:50:41.877573 117738 layer_factory.hpp:77] Creating layer pool5
I0509 14:50:41.877578 117738 net.cpp:84] Creating Layer pool5
I0509 14:50:41.877581 117738 net.cpp:406] pool5 <- conv5
I0509 14:50:41.877585 117738 net.cpp:380] pool5 -> pool5
I0509 14:50:41.877591 117738 net.cpp:122] Setting up pool5
I0509 14:50:41.877596 117738 net.cpp:129] Top shape: 256 256 6 6 (2359296)
I0509 14:50:41.877599 117738 net.cpp:137] Memory required for data: 2103537664
I0509 14:50:41.877601 117738 layer_factory.hpp:77] Creating layer fc6
I0509 14:50:41.877609 117738 net.cpp:84] Creating Layer fc6
I0509 14:50:41.877612 117738 net.cpp:406] fc6 <- pool5
I0509 14:50:41.877616 117738 net.cpp:380] fc6 -> fc6
#           time             counts unit events
     0.100362290            709,588      branch-misses:u          
     0.100362290         75,544,712      branches:u               
     0.200570650            680,081      branch-misses:u          
     0.200570650        142,473,153      branches:u               
     0.300747540            719,531      branch-misses:u          
     0.300747540        170,783,571      branches:u               
     0.400925233            722,282      branch-misses:u          
     0.400925233        171,426,298      branches:u               
I0509 14:50:42.219818 117738 net.cpp:122] Setting up fc6
I0509 14:50:42.219837 117738 net.cpp:129] Top shape: 256 4096 (1048576)
I0509 14:50:42.219841 117738 net.cpp:137] Memory required for data: 2107731968
I0509 14:50:42.219851 117738 layer_factory.hpp:77] Creating layer relu6
I0509 14:50:42.219858 117738 net.cpp:84] Creating Layer relu6
I0509 14:50:42.219862 117738 net.cpp:406] relu6 <- fc6
I0509 14:50:42.219868 117738 net.cpp:367] relu6 -> fc6 (in-place)
I0509 14:50:42.219874 117738 net.cpp:122] Setting up relu6
I0509 14:50:42.219878 117738 net.cpp:129] Top shape: 256 4096 (1048576)
I0509 14:50:42.219882 117738 net.cpp:137] Memory required for data: 2111926272
I0509 14:50:42.219884 117738 layer_factory.hpp:77] Creating layer drop6
I0509 14:50:42.219890 117738 net.cpp:84] Creating Layer drop6
I0509 14:50:42.219893 117738 net.cpp:406] drop6 <- fc6
I0509 14:50:42.219897 117738 net.cpp:367] drop6 -> fc6 (in-place)
I0509 14:50:42.219907 117738 net.cpp:122] Setting up drop6
I0509 14:50:42.219911 117738 net.cpp:129] Top shape: 256 4096 (1048576)
I0509 14:50:42.219914 117738 net.cpp:137] Memory required for data: 2116120576
I0509 14:50:42.219916 117738 layer_factory.hpp:77] Creating layer fc7
I0509 14:50:42.219923 117738 net.cpp:84] Creating Layer fc7
I0509 14:50:42.219926 117738 net.cpp:406] fc7 <- fc6
I0509 14:50:42.219930 117738 net.cpp:380] fc7 -> fc7
     0.501094624            528,698      branch-misses:u          
     0.501094624        114,825,581      branches:u               
     0.601279225            325,738      branch-misses:u          
     0.601279225         58,661,223      branches:u               
I0509 14:50:42.488636 117738 net.cpp:122] Setting up fc7
I0509 14:50:42.488662 117738 net.cpp:129] Top shape: 256 4096 (1048576)
I0509 14:50:42.488667 117738 net.cpp:137] Memory required for data: 2120314880
I0509 14:50:42.488678 117738 layer_factory.hpp:77] Creating layer relu7
I0509 14:50:42.488689 117738 net.cpp:84] Creating Layer relu7
I0509 14:50:42.488695 117738 net.cpp:406] relu7 <- fc7
I0509 14:50:42.488703 117738 net.cpp:367] relu7 -> fc7 (in-place)
I0509 14:50:42.488713 117738 net.cpp:122] Setting up relu7
I0509 14:50:42.488718 117738 net.cpp:129] Top shape: 256 4096 (1048576)
I0509 14:50:42.488723 117738 net.cpp:137] Memory required for data: 2124509184
I0509 14:50:42.488728 117738 layer_factory.hpp:77] Creating layer drop7
I0509 14:50:42.488754 117738 net.cpp:84] Creating Layer drop7
I0509 14:50:42.488759 117738 net.cpp:406] drop7 <- fc7
I0509 14:50:42.488765 117738 net.cpp:367] drop7 -> fc7 (in-place)
I0509 14:50:42.488773 117738 net.cpp:122] Setting up drop7
I0509 14:50:42.488780 117738 net.cpp:129] Top shape: 256 4096 (1048576)
I0509 14:50:42.488783 117738 net.cpp:137] Memory required for data: 2128703488
I0509 14:50:42.488788 117738 layer_factory.hpp:77] Creating layer fc8
I0509 14:50:42.488797 117738 net.cpp:84] Creating Layer fc8
I0509 14:50:42.488801 117738 net.cpp:406] fc8 <- fc7
I0509 14:50:42.488808 117738 net.cpp:380] fc8 -> fc8
     0.701446007            224,323      branch-misses:u          
     0.701446007         20,854,780      branches:u               
I0509 14:50:42.577615 117738 net.cpp:122] Setting up fc8
I0509 14:50:42.577627 117738 net.cpp:129] Top shape: 256 1000 (256000)
I0509 14:50:42.577630 117738 net.cpp:137] Memory required for data: 2129727488
I0509 14:50:42.577636 117738 layer_factory.hpp:77] Creating layer loss
I0509 14:50:42.577643 117738 net.cpp:84] Creating Layer loss
I0509 14:50:42.577647 117738 net.cpp:406] loss <- fc8
I0509 14:50:42.577651 117738 net.cpp:406] loss <- label
I0509 14:50:42.577658 117738 net.cpp:380] loss -> loss
I0509 14:50:42.577672 117738 layer_factory.hpp:77] Creating layer loss
…
