…
W0509 13:25:10.478924 113692 _caffe.cpp:139] DEPRECATION WARNING - deprecated use of Python interface
W0509 13:25:10.478950 113692 _caffe.cpp:140] Use this instead (with the named "weights" parameter):
W0509 13:25:10.478952 113692 _caffe.cpp:142] Net('examples/mnist/lenet.prototxt', 1, weights='examples/mnist/lenet_iter_5000.caffemodel')
I0509 13:25:10.480449 113692 net.cpp:51] Initializing net from parameters: 
name: "LeNet"
state {
  phase: TEST
  level: 0
}
layer {
  name: "data"
  type: "Input"
  top: "data"
  input_param {
    shape {
      dim: 64
      dim: 1
      dim: 28
      dim: 28
    }
  }
}
layer {
  name: "conv1"
  type: "Convolution"
  bottom: "data"
  top: "conv1"
  param {
    lr_mult: 1
  }
  param {
    lr_mult: 2
  }
  convolution_param {
    num_output: 20
    kernel_size: 5
    stride: 1
    weight_filler {
      type: "xavier"
    }
    bias_filler {
      type: "constant"
    }
  }
}
layer {
  name: "pool1"
  type: "Pooling"
  bottom: "conv1"
  top: "pool1"
  pooling_param {
    pool: MAX
    kernel_size: 2
    stride: 2
  }
}
layer {
  name: "conv2"
  type: "Convolution"
  bottom: "pool1"
  top: "conv2"
  param {
    lr_mult: 1
  }
  param {
    lr_mult: 2
  }
  convolution_param {
    num_output: 50
    kernel_size: 5
    stride: 1
    weight_filler {
      type: "xavier"
    }
    bias_filler {
      type: "constant"
    }
  }
}
layer {
  name: "pool2"
  type: "Pooling"
  bottom: "conv2"
  top: "pool2"
  pooling_param {
    pool: MAX
    kernel_size: 2
    stride: 2
  }
}
layer {
  name: "ip1"
  type: "InnerProduct"
  bottom: "pool2"
  top: "ip1"
  param {
    lr_mult: 1
  }
  param {
    lr_mult: 2
  }
  inner_product_param {
    num_output: 500
    weight_filler {
      type: "xavier"
    }
    bias_filler {
      type: "constant"
    }
  }
}
layer {
  name: "relu1"
  type: "ReLU"
  bottom: "ip1"
  top: "ip1"
}
layer {
  name: "ip2"
  type: "InnerProduct"
  bottom: "ip1"
  top: "ip2"
  param {
    lr_mult: 1
  }
  param {
    lr_mult: 2
  }
  inner_product_param {
    num_output: 10
    weight_filler {
      type: "xavier"
    }
    bias_filler {
      type: "constant"
    }
  }
}
layer {
  name: "prob"
  type: "Softmax"
  bottom: "ip2"
  top: "prob"
}
I0509 13:25:10.480494 113692 layer_factory.hpp:77] Creating layer data
I0509 13:25:10.480502 113692 net.cpp:84] Creating Layer data
I0509 13:25:10.480510 113692 net.cpp:380] data -> data
I0509 13:25:10.480523 113692 net.cpp:122] Setting up data
I0509 13:25:10.480530 113692 net.cpp:129] Top shape: 64 1 28 28 (50176)
I0509 13:25:10.480533 113692 net.cpp:137] Memory required for data: 200704
I0509 13:25:10.480537 113692 layer_factory.hpp:77] Creating layer conv1
I0509 13:25:10.480545 113692 net.cpp:84] Creating Layer conv1
I0509 13:25:10.480554 113692 net.cpp:406] conv1 <- data
I0509 13:25:10.480561 113692 net.cpp:380] conv1 -> conv1
I0509 13:25:10.480572 113692 base_conv_layer.cpp:121] Group is 1channel is1number of output is 20
I0509 13:25:10.480933 113692 net.cpp:122] Setting up conv1
I0509 13:25:10.480940 113692 net.cpp:129] Top shape: 64 20 24 24 (737280)
I0509 13:25:10.480943 113692 net.cpp:137] Memory required for data: 3149824
I0509 13:25:10.480952 113692 layer_factory.hpp:77] Creating layer pool1
I0509 13:25:10.480958 113692 net.cpp:84] Creating Layer pool1
I0509 13:25:10.480962 113692 net.cpp:406] pool1 <- conv1
I0509 13:25:10.480967 113692 net.cpp:380] pool1 -> pool1
I0509 13:25:10.480975 113692 net.cpp:122] Setting up pool1
I0509 13:25:10.480980 113692 net.cpp:129] Top shape: 64 20 12 12 (184320)
I0509 13:25:10.480983 113692 net.cpp:137] Memory required for data: 3887104
I0509 13:25:10.480986 113692 layer_factory.hpp:77] Creating layer conv2
I0509 13:25:10.480993 113692 net.cpp:84] Creating Layer conv2
I0509 13:25:10.480995 113692 net.cpp:406] conv2 <- pool1
I0509 13:25:10.481000 113692 net.cpp:380] conv2 -> conv2
I0509 13:25:10.481009 113692 base_conv_layer.cpp:121] Group is 1channel is20number of output is 50
I0509 13:25:10.481196 113692 net.cpp:122] Setting up conv2
I0509 13:25:10.481204 113692 net.cpp:129] Top shape: 64 50 8 8 (204800)
I0509 13:25:10.481206 113692 net.cpp:137] Memory required for data: 4706304
I0509 13:25:10.481212 113692 layer_factory.hpp:77] Creating layer pool2
I0509 13:25:10.481218 113692 net.cpp:84] Creating Layer pool2
I0509 13:25:10.481221 113692 net.cpp:406] pool2 <- conv2
I0509 13:25:10.481225 113692 net.cpp:380] pool2 -> pool2
I0509 13:25:10.481233 113692 net.cpp:122] Setting up pool2
I0509 13:25:10.481237 113692 net.cpp:129] Top shape: 64 50 4 4 (51200)
I0509 13:25:10.481240 113692 net.cpp:137] Memory required for data: 4911104
I0509 13:25:10.481243 113692 layer_factory.hpp:77] Creating layer ip1
I0509 13:25:10.481250 113692 net.cpp:84] Creating Layer ip1
I0509 13:25:10.481252 113692 net.cpp:406] ip1 <- pool2
I0509 13:25:10.481257 113692 net.cpp:380] ip1 -> ip1
I0509 13:25:10.483935 113692 net.cpp:122] Setting up ip1
I0509 13:25:10.483942 113692 net.cpp:129] Top shape: 64 500 (32000)
I0509 13:25:10.483944 113692 net.cpp:137] Memory required for data: 5039104
I0509 13:25:10.483952 113692 layer_factory.hpp:77] Creating layer relu1
I0509 13:25:10.483956 113692 net.cpp:84] Creating Layer relu1
I0509 13:25:10.483959 113692 net.cpp:406] relu1 <- ip1
I0509 13:25:10.483963 113692 net.cpp:367] relu1 -> ip1 (in-place)
I0509 13:25:10.483968 113692 net.cpp:122] Setting up relu1
I0509 13:25:10.483973 113692 net.cpp:129] Top shape: 64 500 (32000)
I0509 13:25:10.483975 113692 net.cpp:137] Memory required for data: 5167104
I0509 13:25:10.483978 113692 layer_factory.hpp:77] Creating layer ip2
I0509 13:25:10.483983 113692 net.cpp:84] Creating Layer ip2
I0509 13:25:10.483985 113692 net.cpp:406] ip2 <- ip1
I0509 13:25:10.483990 113692 net.cpp:380] ip2 -> ip2
I0509 13:25:10.484030 113692 net.cpp:122] Setting up ip2
I0509 13:25:10.484040 113692 net.cpp:129] Top shape: 64 10 (640)
I0509 13:25:10.484043 113692 net.cpp:137] Memory required for data: 5169664
I0509 13:25:10.484050 113692 layer_factory.hpp:77] Creating layer prob
I0509 13:25:10.484055 113692 net.cpp:84] Creating Layer prob
I0509 13:25:10.484057 113692 net.cpp:406] prob <- ip2
I0509 13:25:10.484062 113692 net.cpp:380] prob -> prob
I0509 13:25:10.484069 113692 net.cpp:122] Setting up prob
I0509 13:25:10.484073 113692 net.cpp:129] Top shape: 64 10 (640)
I0509 13:25:10.484076 113692 net.cpp:137] Memory required for data: 5172224
I0509 13:25:10.484078 113692 net.cpp:200] prob does not need backward computation.
I0509 13:25:10.484082 113692 net.cpp:200] ip2 does not need backward computation.
I0509 13:25:10.484086 113692 net.cpp:200] relu1 does not need backward computation.
I0509 13:25:10.484088 113692 net.cpp:200] ip1 does not need backward computation.
…
