…
W0509 13:25:12.354411 113752 _caffe.cpp:139] DEPRECATION WARNING - deprecated use of Python interface
W0509 13:25:12.354441 113752 _caffe.cpp:140] Use this instead (with the named "weights" parameter):
W0509 13:25:12.354446 113752 _caffe.cpp:142] Net('examples/mnist/lenet.prototxt', 1, weights='examples/mnist/lenet_iter_5000.caffemodel')
I0509 13:25:12.356796 113752 net.cpp:51] Initializing net from parameters: 
name: "LeNet"
state {
  phase: TEST
  level: 0
}
layer {
  name: "data"
  type: "Input"
  top: "data"
  input_param {
    shape {
      dim: 64
      dim: 1
      dim: 28
      dim: 28
    }
  }
}
layer {
  name: "conv1"
  type: "Convolution"
  bottom: "data"
  top: "conv1"
  param {
    lr_mult: 1
  }
  param {
    lr_mult: 2
  }
  convolution_param {
    num_output: 20
    kernel_size: 5
    stride: 1
    weight_filler {
      type: "xavier"
    }
    bias_filler {
      type: "constant"
    }
  }
}
layer {
  name: "pool1"
  type: "Pooling"
  bottom: "conv1"
  top: "pool1"
  pooling_param {
    pool: MAX
    kernel_size: 2
    stride: 2
  }
}
layer {
  name: "conv2"
  type: "Convolution"
  bottom: "pool1"
  top: "conv2"
  param {
    lr_mult: 1
  }
  param {
    lr_mult: 2
  }
  convolution_param {
    num_output: 50
    kernel_size: 5
    stride: 1
    weight_filler {
      type: "xavier"
    }
    bias_filler {
      type: "constant"
    }
  }
}
layer {
  name: "pool2"
  type: "Pooling"
  bottom: "conv2"
  top: "pool2"
  pooling_param {
    pool: MAX
    kernel_size: 2
    stride: 2
  }
}
layer {
  name: "ip1"
  type: "InnerProduct"
  bottom: "pool2"
  top: "ip1"
  param {
    lr_mult: 1
  }
  param {
    lr_mult: 2
  }
  inner_product_param {
    num_output: 500
    weight_filler {
      type: "xavier"
    }
    bias_filler {
      type: "constant"
    }
  }
}
layer {
  name: "relu1"
  type: "ReLU"
  bottom: "ip1"
  top: "ip1"
}
layer {
  name: "ip2"
  type: "InnerProduct"
  bottom: "ip1"
  top: "ip2"
  param {
    lr_mult: 1
  }
  param {
    lr_mult: 2
  }
  inner_product_param {
    num_output: 10
    weight_filler {
      type: "xavier"
    }
    bias_filler {
      type: "constant"
    }
  }
}
layer {
  name: "prob"
  type: "Softmax"
  bottom: "ip2"
  top: "prob"
}
I0509 13:25:12.356860 113752 layer_factory.hpp:77] Creating layer data
I0509 13:25:12.356878 113752 net.cpp:84] Creating Layer data
I0509 13:25:12.356889 113752 net.cpp:380] data -> data
I0509 13:25:12.356915 113752 net.cpp:122] Setting up data
I0509 13:25:12.356926 113752 net.cpp:129] Top shape: 64 1 28 28 (50176)
I0509 13:25:12.356932 113752 net.cpp:137] Memory required for data: 200704
I0509 13:25:12.356937 113752 layer_factory.hpp:77] Creating layer conv1
I0509 13:25:12.356950 113752 net.cpp:84] Creating Layer conv1
I0509 13:25:12.356956 113752 net.cpp:406] conv1 <- data
I0509 13:25:12.356972 113752 net.cpp:380] conv1 -> conv1
I0509 13:25:12.356989 113752 base_conv_layer.cpp:121] Group is 1channel is1number of output is 20
     1.015599928            653,308      L1-dcache-load-misses    
     1.015599928          5,441,690      L1-dcache-loads          
I0509 13:25:12.357552 113752 net.cpp:122] Setting up conv1
I0509 13:25:12.357563 113752 net.cpp:129] Top shape: 64 20 24 24 (737280)
I0509 13:25:12.357569 113752 net.cpp:137] Memory required for data: 3149824
I0509 13:25:12.357584 113752 layer_factory.hpp:77] Creating layer pool1
I0509 13:25:12.357594 113752 net.cpp:84] Creating Layer pool1
I0509 13:25:12.357600 113752 net.cpp:406] pool1 <- conv1
I0509 13:25:12.357609 113752 net.cpp:380] pool1 -> pool1
I0509 13:25:12.357622 113752 net.cpp:122] Setting up pool1
I0509 13:25:12.357631 113752 net.cpp:129] Top shape: 64 20 12 12 (184320)
I0509 13:25:12.357636 113752 net.cpp:137] Memory required for data: 3887104
I0509 13:25:12.357641 113752 layer_factory.hpp:77] Creating layer conv2
I0509 13:25:12.357652 113752 net.cpp:84] Creating Layer conv2
I0509 13:25:12.357658 113752 net.cpp:406] conv2 <- pool1
I0509 13:25:12.357667 113752 net.cpp:380] conv2 -> conv2
I0509 13:25:12.357681 113752 base_conv_layer.cpp:121] Group is 1channel is20number of output is 50
I0509 13:25:12.358041 113752 net.cpp:122] Setting up conv2
I0509 13:25:12.358050 113752 net.cpp:129] Top shape: 64 50 8 8 (204800)
I0509 13:25:12.358055 113752 net.cpp:137] Memory required for data: 4706304
I0509 13:25:12.358067 113752 layer_factory.hpp:77] Creating layer pool2
I0509 13:25:12.358075 113752 net.cpp:84] Creating Layer pool2
I0509 13:25:12.358080 113752 net.cpp:406] pool2 <- conv2
I0509 13:25:12.358088 113752 net.cpp:380] pool2 -> pool2
I0509 13:25:12.358100 113752 net.cpp:122] Setting up pool2
I0509 13:25:12.358108 113752 net.cpp:129] Top shape: 64 50 4 4 (51200)
I0509 13:25:12.358114 113752 net.cpp:137] Memory required for data: 4911104
I0509 13:25:12.358117 113752 layer_factory.hpp:77] Creating layer ip1
I0509 13:25:12.358127 113752 net.cpp:84] Creating Layer ip1
I0509 13:25:12.358132 113752 net.cpp:406] ip1 <- pool2
I0509 13:25:12.358140 113752 net.cpp:380] ip1 -> ip1
I0509 13:25:12.363116 113752 net.cpp:122] Setting up ip1
I0509 13:25:12.363129 113752 net.cpp:129] Top shape: 64 500 (32000)
I0509 13:25:12.363134 113752 net.cpp:137] Memory required for data: 5039104
I0509 13:25:12.363145 113752 layer_factory.hpp:77] Creating layer relu1
I0509 13:25:12.363154 113752 net.cpp:84] Creating Layer relu1
I0509 13:25:12.363159 113752 net.cpp:406] relu1 <- ip1
I0509 13:25:12.363168 113752 net.cpp:367] relu1 -> ip1 (in-place)
I0509 13:25:12.363175 113752 net.cpp:122] Setting up relu1
I0509 13:25:12.363183 113752 net.cpp:129] Top shape: 64 500 (32000)
I0509 13:25:12.363188 113752 net.cpp:137] Memory required for data: 5167104
I0509 13:25:12.363193 113752 layer_factory.hpp:77] Creating layer ip2
I0509 13:25:12.363200 113752 net.cpp:84] Creating Layer ip2
I0509 13:25:12.363205 113752 net.cpp:406] ip2 <- ip1
I0509 13:25:12.363214 113752 net.cpp:380] ip2 -> ip2
I0509 13:25:12.363289 113752 net.cpp:122] Setting up ip2
I0509 13:25:12.363297 113752 net.cpp:129] Top shape: 64 10 (640)
I0509 13:25:12.363302 113752 net.cpp:137] Memory required for data: 5169664
I0509 13:25:12.363312 113752 layer_factory.hpp:77] Creating layer prob
I0509 13:25:12.363320 113752 net.cpp:84] Creating Layer prob
I0509 13:25:12.363327 113752 net.cpp:406] prob <- ip2
I0509 13:25:12.363333 113752 net.cpp:380] prob -> prob
I0509 13:25:12.363344 113752 net.cpp:122] Setting up prob
I0509 13:25:12.363351 113752 net.cpp:129] Top shape: 64 10 (640)
I0509 13:25:12.363356 113752 net.cpp:137] Memory required for data: 5172224
I0509 13:25:12.363361 113752 net.cpp:200] prob does not need backward computation.
I0509 13:25:12.363368 113752 net.cpp:200] ip2 does not need backward computation.
I0509 13:25:12.363373 113752 net.cpp:200] relu1 does not need backward computation.
I0509 13:25:12.363378 113752 net.cpp:200] ip1 does not need backward computation.
…
