…
W0509 13:25:09.678153 113662 _caffe.cpp:139] DEPRECATION WARNING - deprecated use of Python interface
W0509 13:25:09.678179 113662 _caffe.cpp:140] Use this instead (with the named "weights" parameter):
W0509 13:25:09.678181 113662 _caffe.cpp:142] Net('examples/mnist/lenet.prototxt', 1, weights='examples/mnist/lenet_iter_5000.caffemodel')
I0509 13:25:09.679694 113662 net.cpp:51] Initializing net from parameters: 
name: "LeNet"
state {
  phase: TEST
  level: 0
}
layer {
  name: "data"
  type: "Input"
  top: "data"
  input_param {
    shape {
      dim: 64
      dim: 1
      dim: 28
      dim: 28
    }
  }
}
layer {
  name: "conv1"
  type: "Convolution"
  bottom: "data"
  top: "conv1"
  param {
    lr_mult: 1
  }
  param {
    lr_mult: 2
  }
  convolution_param {
    num_output: 20
    kernel_size: 5
    stride: 1
    weight_filler {
      type: "xavier"
    }
    bias_filler {
      type: "constant"
    }
  }
}
layer {
  name: "pool1"
  type: "Pooling"
  bottom: "conv1"
  top: "pool1"
  pooling_param {
    pool: MAX
    kernel_size: 2
    stride: 2
  }
}
layer {
  name: "conv2"
  type: "Convolution"
  bottom: "pool1"
  top: "conv2"
  param {
    lr_mult: 1
  }
  param {
    lr_mult: 2
  }
  convolution_param {
    num_output: 50
    kernel_size: 5
    stride: 1
    weight_filler {
      type: "xavier"
    }
    bias_filler {
      type: "constant"
    }
  }
}
layer {
  name: "pool2"
  type: "Pooling"
  bottom: "conv2"
  top: "pool2"
  pooling_param {
    pool: MAX
    kernel_size: 2
    stride: 2
  }
}
layer {
  name: "ip1"
  type: "InnerProduct"
  bottom: "pool2"
  top: "ip1"
  param {
    lr_mult: 1
  }
  param {
    lr_mult: 2
  }
  inner_product_param {
    num_output: 500
    weight_filler {
      type: "xavier"
    }
    bias_filler {
      type: "constant"
    }
  }
}
layer {
  name: "relu1"
  type: "ReLU"
  bottom: "ip1"
  top: "ip1"
}
layer {
  name: "ip2"
  type: "InnerProduct"
  bottom: "ip1"
  top: "ip2"
  param {
    lr_mult: 1
  }
  param {
    lr_mult: 2
  }
  inner_product_param {
    num_output: 10
    weight_filler {
      type: "xavier"
    }
    bias_filler {
      type: "constant"
    }
  }
}
layer {
  name: "prob"
  type: "Softmax"
  bottom: "ip2"
  top: "prob"
}
I0509 13:25:09.679738 113662 layer_factory.hpp:77] Creating layer data
I0509 13:25:09.679749 113662 net.cpp:84] Creating Layer data
I0509 13:25:09.679756 113662 net.cpp:380] data -> data
I0509 13:25:09.679776 113662 net.cpp:122] Setting up data
I0509 13:25:09.679783 113662 net.cpp:129] Top shape: 64 1 28 28 (50176)
I0509 13:25:09.679786 113662 net.cpp:137] Memory required for data: 200704
I0509 13:25:09.679790 113662 layer_factory.hpp:77] Creating layer conv1
I0509 13:25:09.679798 113662 net.cpp:84] Creating Layer conv1
I0509 13:25:09.679802 113662 net.cpp:406] conv1 <- data
I0509 13:25:09.679808 113662 net.cpp:380] conv1 -> conv1
I0509 13:25:09.679818 113662 base_conv_layer.cpp:121] Group is 1channel is1number of output is 20
     0.668502531            165,522      branch-misses:u          
     0.668502531          7,208,846      branches:u               
I0509 13:25:09.680199 113662 net.cpp:122] Setting up conv1
I0509 13:25:09.680207 113662 net.cpp:129] Top shape: 64 20 24 24 (737280)
I0509 13:25:09.680212 113662 net.cpp:137] Memory required for data: 3149824
I0509 13:25:09.680227 113662 layer_factory.hpp:77] Creating layer pool1
I0509 13:25:09.680233 113662 net.cpp:84] Creating Layer pool1
I0509 13:25:09.680238 113662 net.cpp:406] pool1 <- conv1
I0509 13:25:09.680243 113662 net.cpp:380] pool1 -> pool1
I0509 13:25:09.680251 113662 net.cpp:122] Setting up pool1
I0509 13:25:09.680255 113662 net.cpp:129] Top shape: 64 20 12 12 (184320)
I0509 13:25:09.680258 113662 net.cpp:137] Memory required for data: 3887104
I0509 13:25:09.680263 113662 layer_factory.hpp:77] Creating layer conv2
I0509 13:25:09.680269 113662 net.cpp:84] Creating Layer conv2
I0509 13:25:09.680271 113662 net.cpp:406] conv2 <- pool1
I0509 13:25:09.680276 113662 net.cpp:380] conv2 -> conv2
I0509 13:25:09.680284 113662 base_conv_layer.cpp:121] Group is 1channel is20number of output is 50
I0509 13:25:09.680474 113662 net.cpp:122] Setting up conv2
I0509 13:25:09.680480 113662 net.cpp:129] Top shape: 64 50 8 8 (204800)
I0509 13:25:09.680483 113662 net.cpp:137] Memory required for data: 4706304
I0509 13:25:09.680490 113662 layer_factory.hpp:77] Creating layer pool2
I0509 13:25:09.680495 113662 net.cpp:84] Creating Layer pool2
I0509 13:25:09.680498 113662 net.cpp:406] pool2 <- conv2
I0509 13:25:09.680503 113662 net.cpp:380] pool2 -> pool2
I0509 13:25:09.680511 113662 net.cpp:122] Setting up pool2
I0509 13:25:09.680516 113662 net.cpp:129] Top shape: 64 50 4 4 (51200)
I0509 13:25:09.680518 113662 net.cpp:137] Memory required for data: 4911104
I0509 13:25:09.680521 113662 layer_factory.hpp:77] Creating layer ip1
I0509 13:25:09.680527 113662 net.cpp:84] Creating Layer ip1
I0509 13:25:09.680531 113662 net.cpp:406] ip1 <- pool2
I0509 13:25:09.680534 113662 net.cpp:380] ip1 -> ip1
I0509 13:25:09.683221 113662 net.cpp:122] Setting up ip1
I0509 13:25:09.683228 113662 net.cpp:129] Top shape: 64 500 (32000)
I0509 13:25:09.683230 113662 net.cpp:137] Memory required for data: 5039104
I0509 13:25:09.683238 113662 layer_factory.hpp:77] Creating layer relu1
I0509 13:25:09.683243 113662 net.cpp:84] Creating Layer relu1
I0509 13:25:09.683246 113662 net.cpp:406] relu1 <- ip1
I0509 13:25:09.683250 113662 net.cpp:367] relu1 -> ip1 (in-place)
I0509 13:25:09.683256 113662 net.cpp:122] Setting up relu1
I0509 13:25:09.683259 113662 net.cpp:129] Top shape: 64 500 (32000)
I0509 13:25:09.683262 113662 net.cpp:137] Memory required for data: 5167104
I0509 13:25:09.683265 113662 layer_factory.hpp:77] Creating layer ip2
I0509 13:25:09.683270 113662 net.cpp:84] Creating Layer ip2
I0509 13:25:09.683274 113662 net.cpp:406] ip2 <- ip1
I0509 13:25:09.683279 113662 net.cpp:380] ip2 -> ip2
I0509 13:25:09.683318 113662 net.cpp:122] Setting up ip2
I0509 13:25:09.683323 113662 net.cpp:129] Top shape: 64 10 (640)
I0509 13:25:09.683326 113662 net.cpp:137] Memory required for data: 5169664
I0509 13:25:09.683331 113662 layer_factory.hpp:77] Creating layer prob
I0509 13:25:09.683337 113662 net.cpp:84] Creating Layer prob
I0509 13:25:09.683341 113662 net.cpp:406] prob <- ip2
I0509 13:25:09.683344 113662 net.cpp:380] prob -> prob
I0509 13:25:09.683351 113662 net.cpp:122] Setting up prob
I0509 13:25:09.683357 113662 net.cpp:129] Top shape: 64 10 (640)
I0509 13:25:09.683358 113662 net.cpp:137] Memory required for data: 5172224
I0509 13:25:09.683362 113662 net.cpp:200] prob does not need backward computation.
I0509 13:25:09.683365 113662 net.cpp:200] ip2 does not need backward computation.
I0509 13:25:09.683368 113662 net.cpp:200] relu1 does not need backward computation.
I0509 13:25:09.683372 113662 net.cpp:200] ip1 does not need backward computation.
…
