…
W0509 13:25:08.913692 113632 _caffe.cpp:139] DEPRECATION WARNING - deprecated use of Python interface
W0509 13:25:08.913723 113632 _caffe.cpp:140] Use this instead (with the named "weights" parameter):
W0509 13:25:08.913727 113632 _caffe.cpp:142] Net('examples/mnist/lenet.prototxt', 1, weights='examples/mnist/lenet_iter_5000.caffemodel')
I0509 13:25:08.915226 113632 net.cpp:51] Initializing net from parameters: 
name: "LeNet"
state {
  phase: TEST
  level: 0
}
layer {
  name: "data"
  type: "Input"
  top: "data"
  input_param {
    shape {
      dim: 64
      dim: 1
      dim: 28
      dim: 28
    }
  }
}
layer {
  name: "conv1"
  type: "Convolution"
  bottom: "data"
  top: "conv1"
  param {
    lr_mult: 1
  }
  param {
    lr_mult: 2
  }
  convolution_param {
    num_output: 20
    kernel_size: 5
    stride: 1
    weight_filler {
      type: "xavier"
    }
    bias_filler {
      type: "constant"
    }
  }
}
layer {
  name: "pool1"
  type: "Pooling"
  bottom: "conv1"
  top: "pool1"
  pooling_param {
    pool: MAX
    kernel_size: 2
    stride: 2
  }
}
layer {
  name: "conv2"
  type: "Convolution"
  bottom: "pool1"
  top: "conv2"
  param {
    lr_mult: 1
  }
  param {
    lr_mult: 2
  }
  convolution_param {
    num_output: 50
    kernel_size: 5
    stride: 1
    weight_filler {
      type: "xavier"
    }
    bias_filler {
      type: "constant"
    }
  }
}
layer {
  name: "pool2"
  type: "Pooling"
  bottom: "conv2"
  top: "pool2"
  pooling_param {
    pool: MAX
    kernel_size: 2
    stride: 2
  }
}
layer {
  name: "ip1"
  type: "InnerProduct"
  bottom: "pool2"
  top: "ip1"
  param {
    lr_mult: 1
  }
  param {
    lr_mult: 2
  }
  inner_product_param {
    num_output: 500
    weight_filler {
      type: "xavier"
    }
    bias_filler {
      type: "constant"
    }
  }
}
layer {
  name: "relu1"
  type: "ReLU"
  bottom: "ip1"
  top: "ip1"
}
layer {
  name: "ip2"
  type: "InnerProduct"
  bottom: "ip1"
  top: "ip2"
  param {
    lr_mult: 1
  }
  param {
    lr_mult: 2
  }
  inner_product_param {
    num_output: 10
    weight_filler {
      type: "xavier"
    }
    bias_filler {
      type: "constant"
    }
  }
}
layer {
  name: "prob"
  type: "Softmax"
  bottom: "ip2"
  top: "prob"
}
I0509 13:25:08.915274 113632 layer_factory.hpp:77] Creating layer data
I0509 13:25:08.915283 113632 net.cpp:84] Creating Layer data
I0509 13:25:08.915292 113632 net.cpp:380] data -> data
I0509 13:25:08.915307 113632 net.cpp:122] Setting up data
I0509 13:25:08.915313 113632 net.cpp:129] Top shape: 64 1 28 28 (50176)
I0509 13:25:08.915318 113632 net.cpp:137] Memory required for data: 200704
I0509 13:25:08.915320 113632 layer_factory.hpp:77] Creating layer conv1
I0509 13:25:08.915329 113632 net.cpp:84] Creating Layer conv1
I0509 13:25:08.915333 113632 net.cpp:406] conv1 <- data
I0509 13:25:08.915339 113632 net.cpp:380] conv1 -> conv1
I0509 13:25:08.915349 113632 base_conv_layer.cpp:121] Group is 1channel is1number of output is 20
I0509 13:25:08.915719 113632 net.cpp:122] Setting up conv1
I0509 13:25:08.915724 113632 net.cpp:129] Top shape: 64 20 24 24 (737280)
I0509 13:25:08.915729 113632 net.cpp:137] Memory required for data: 3149824
I0509 13:25:08.915737 113632 layer_factory.hpp:77] Creating layer pool1
I0509 13:25:08.915743 113632 net.cpp:84] Creating Layer pool1
I0509 13:25:08.915746 113632 net.cpp:406] pool1 <- conv1
I0509 13:25:08.915751 113632 net.cpp:380] pool1 -> pool1
I0509 13:25:08.915760 113632 net.cpp:122] Setting up pool1
I0509 13:25:08.915765 113632 net.cpp:129] Top shape: 64 20 12 12 (184320)
I0509 13:25:08.915776 113632 net.cpp:137] Memory required for data: 3887104
I0509 13:25:08.915779 113632 layer_factory.hpp:77] Creating layer conv2
I0509 13:25:08.915786 113632 net.cpp:84] Creating Layer conv2
I0509 13:25:08.915789 113632 net.cpp:406] conv2 <- pool1
I0509 13:25:08.915794 113632 net.cpp:380] conv2 -> conv2
I0509 13:25:08.915802 113632 base_conv_layer.cpp:121] Group is 1channel is20number of output is 50
I0509 13:25:08.915988 113632 net.cpp:122] Setting up conv2
I0509 13:25:08.915994 113632 net.cpp:129] Top shape: 64 50 8 8 (204800)
I0509 13:25:08.915997 113632 net.cpp:137] Memory required for data: 4706304
I0509 13:25:08.916003 113632 layer_factory.hpp:77] Creating layer pool2
I0509 13:25:08.916009 113632 net.cpp:84] Creating Layer pool2
I0509 13:25:08.916013 113632 net.cpp:406] pool2 <- conv2
I0509 13:25:08.916016 113632 net.cpp:380] pool2 -> pool2
I0509 13:25:08.916024 113632 net.cpp:122] Setting up pool2
I0509 13:25:08.916028 113632 net.cpp:129] Top shape: 64 50 4 4 (51200)
I0509 13:25:08.916031 113632 net.cpp:137] Memory required for data: 4911104
I0509 13:25:08.916033 113632 layer_factory.hpp:77] Creating layer ip1
I0509 13:25:08.916084 113632 net.cpp:84] Creating Layer ip1
I0509 13:25:08.916087 113632 net.cpp:406] ip1 <- pool2
I0509 13:25:08.916092 113632 net.cpp:380] ip1 -> ip1
     0.648114616         37,700,366      instructions:u           
     0.648114616         21,556,593      cycles:u                 
I0509 13:25:08.918778 113632 net.cpp:122] Setting up ip1
I0509 13:25:08.918787 113632 net.cpp:129] Top shape: 64 500 (32000)
I0509 13:25:08.918789 113632 net.cpp:137] Memory required for data: 5039104
I0509 13:25:08.918797 113632 layer_factory.hpp:77] Creating layer relu1
I0509 13:25:08.918802 113632 net.cpp:84] Creating Layer relu1
I0509 13:25:08.918805 113632 net.cpp:406] relu1 <- ip1
I0509 13:25:08.918809 113632 net.cpp:367] relu1 -> ip1 (in-place)
I0509 13:25:08.918815 113632 net.cpp:122] Setting up relu1
I0509 13:25:08.918819 113632 net.cpp:129] Top shape: 64 500 (32000)
I0509 13:25:08.918823 113632 net.cpp:137] Memory required for data: 5167104
I0509 13:25:08.918824 113632 layer_factory.hpp:77] Creating layer ip2
I0509 13:25:08.918829 113632 net.cpp:84] Creating Layer ip2
I0509 13:25:08.918833 113632 net.cpp:406] ip2 <- ip1
I0509 13:25:08.918836 113632 net.cpp:380] ip2 -> ip2
I0509 13:25:08.918879 113632 net.cpp:122] Setting up ip2
I0509 13:25:08.918884 113632 net.cpp:129] Top shape: 64 10 (640)
I0509 13:25:08.918885 113632 net.cpp:137] Memory required for data: 5169664
I0509 13:25:08.918891 113632 layer_factory.hpp:77] Creating layer prob
I0509 13:25:08.918897 113632 net.cpp:84] Creating Layer prob
I0509 13:25:08.918900 113632 net.cpp:406] prob <- ip2
I0509 13:25:08.918905 113632 net.cpp:380] prob -> prob
I0509 13:25:08.918911 113632 net.cpp:122] Setting up prob
I0509 13:25:08.918915 113632 net.cpp:129] Top shape: 64 10 (640)
I0509 13:25:08.918918 113632 net.cpp:137] Memory required for data: 5172224
I0509 13:25:08.918921 113632 net.cpp:200] prob does not need backward computation.
I0509 13:25:08.918925 113632 net.cpp:200] ip2 does not need backward computation.
I0509 13:25:08.918927 113632 net.cpp:200] relu1 does not need backward computation.
I0509 13:25:08.918931 113632 net.cpp:200] ip1 does not need backward computation.
…
