…
I0509 18:26:41.017222 122093 net.cpp:294] The NetState phase (0) differed from the phase (1) specified by a rule in layer accuracy
I0509 18:26:41.017463 122093 net.cpp:51] Initializing net from parameters: 
name: "CaffeNet"
state {
  phase: TRAIN
  level: 0
  stage: ""
}
layer {
  name: "data"
  type: "Data"
  top: "data"
  top: "label"
  include {
    phase: TRAIN
  }
  transform_param {
    mirror: true
    crop_size: 227
    mean_file: "data/ilsvrc12/imagenet_mean.binaryproto"
  }
  data_param {
    source: "examples/imagenet/ilsvrc12_train_lmdb"
    batch_size: 256
    backend: LMDB
  }
}
layer {
  name: "conv1"
  type: "Convolution"
  bottom: "data"
  top: "conv1"
  param {
    lr_mult: 1
    decay_mult: 1
  }
  param {
    lr_mult: 2
    decay_mult: 0
  }
  convolution_param {
    num_output: 96
    kernel_size: 11
    stride: 4
    weight_filler {
      type: "gaussian"
      std: 0.01
    }
    bias_filler {
      type: "constant"
      value: 0
    }
  }
}
layer {
  name: "relu1"
  type: "ReLU"
  bottom: "conv1"
  top: "conv1"
}
layer {
  name: "pool1"
  type: "Pooling"
  bottom: "conv1"
  top: "pool1"
  pooling_param {
    pool: MAX
    kernel_size: 3
    stride: 2
  }
}
layer {
  name: "norm1"
  type: "LRN"
  bottom: "pool1"
  top: "norm1"
  lrn_param {
    local_size: 5
    alpha: 0.0001
    beta: 0.75
  }
}
layer {
  name: "conv2"
  type: "Convolution"
  bottom: "norm1"
  top: "conv2"
  param {
    lr_mult: 1
    decay_mult: 1
  }
  param {
    lr_mult: 2
    decay_mult: 0
  }
  convolution_param {
    num_output: 256
    pad: 2
    kernel_size: 5
    group: 2
    weight_filler {
      type: "gaussian"
      std: 0.01
    }
    bias_filler {
      type: "constant"
      value: 1
    }
  }
}
layer {
  name: "relu2"
  type: "ReLU"
  bottom: "conv2"
  top: "conv2"
}
layer {
  name: "pool2"
  type: "Pooling"
  bottom: "conv2"
  top: "pool2"
  pooling_param {
    pool: MAX
    kernel_size: 3
    stride: 2
  }
}
layer {
  name: "norm2"
  type: "LRN"
  bottom: "pool2"
  top: "norm2"
  lrn_param {
    local_size: 5
    alpha: 0.0001
    beta: 0.75
  }
}
layer {
  name: "conv3"
  type: "Convolution"
  bottom: "norm2"
  top: "conv3"
  param {
    lr_mult: 1
    decay_mult: 1
  }
  param {
    lr_mult: 2
    decay_mult: 0
  }
  convolution_param {
    num_output: 384
    pad: 1
    kernel_size: 3
    weight_filler {
      type: "gaussian"
      std: 0.01
    }
    bias_filler {
      type: "constant"
      value: 0
    }
  }
}
layer {
  name: "relu3"
  type: "ReLU"
  bottom: "conv3"
  top: "conv3"
}
layer {
  name: "conv4"
  type: "Convolution"
  bottom: "conv3"
  top: "conv4"
  param {
    lr_mult: 1
    decay_mult: 1
  }
  param {
    lr_mult: 2
    decay_mult: 0
  }
  convolution_param {
    num_output: 384
    pad: 1
    kernel_size: 3
    group: 2
    weight_filler {
      type: "gaussian"
      std: 0.01
    }
    bias_filler {
      type: "constant"
      value: 1
    }
  }
}
layer {
  name: "relu4"
  type: "ReLU"
  bottom: "conv4"
  top: "conv4"
}
layer {
  name: "conv5"
  type: "Convolution"
  bottom: "conv4"
  top: "conv5"
  param {
    lr_mult: 1
    decay_mult: 1
  }
  param {
    lr_mult: 2
    decay_mult: 0
  }
  convolution_param {
    num_output: 256
    pad: 1
    kernel_size: 3
    group: 2
    weight_filler {
      type: "gaussian"
      std: 0.01
    }
    bias_filler {
      type: "constant"
      value: 1
    }
  }
}
layer {
  name: "relu5"
  type: "ReLU"
  bottom: "conv5"
  top: "conv5"
}
layer {
  name: "pool5"
  type: "Pooling"
  bottom: "conv5"
  top: "pool5"
  pooling_param {
    pool: MAX
    kernel_size: 3
    stride: 2
  }
}
layer {
  name: "fc6"
  type: "InnerProduct"
  bottom: "pool5"
  top: "fc6"
  param {
    lr_mult: 1
    decay_mult: 1
  }
  param {
    lr_mult: 2
    decay_mult: 0
  }
  inner_product_param {
    num_output: 4096
    weight_filler {
      type: "gaussian"
      std: 0.005
    }
    bias_filler {
      type: "constant"
      value: 1
    }
  }
}
layer {
  name: "relu6"
  type: "ReLU"
  bottom: "fc6"
  top: "fc6"
}
layer {
  name: "drop6"
  type: "Dropout"
  bottom: "fc6"
  top: "fc6"
  dropout_param {
    dropout_ratio: 0.5
  }
}
layer {
  name: "fc7"
  type: "InnerProduct"
  bottom: "fc6"
  top: "fc7"
  param {
    lr_mult: 1
    decay_mult: 1
  }
  param {
    lr_mult: 2
    decay_mult: 0
  }
  inner_product_param {
    num_output: 4096
    weight_filler {
      type: "gaussian"
      std: 0.005
    }
    bias_filler {
      type: "constant"
      value: 1
    }
  }
}
layer {
  name: "relu7"
  type: "ReLU"
  bottom: "fc7"
  top: "fc7"
}
layer {
  name: "drop7"
  type: "Dropout"
  bottom: "fc7"
  top: "fc7"
  dropout_param {
    dropout_ratio: 0.5
  }
}
layer {
  name: "fc8"
  type: "InnerProduct"
  bottom: "fc7"
  top: "fc8"
  param {
    lr_mult: 1
    decay_mult: 1
  }
  param {
    lr_mult: 2
    decay_mult: 0
  }
  inner_product_param {
    num_output: 1000
    weight_filler {
      type: "gaussian"
      std: 0.01
    }
    bias_filler {
      type: "constant"
      value: 0
    }
  }
}
layer {
  name: "loss"
  type: "SoftmaxWithLoss"
  bottom: "fc8"
  bottom: "label"
  top: "loss"
}
I0509 18:26:41.017599 122093 layer_factory.hpp:77] Creating layer data
I0509 18:26:41.017707 122093 db_lmdb.cpp:35] Opened lmdb examples/imagenet/ilsvrc12_train_lmdb
I0509 18:26:41.017741 122093 net.cpp:84] Creating Layer data
I0509 18:26:41.017755 122093 net.cpp:380] data -> data
I0509 18:26:41.017779 122093 net.cpp:380] data -> label
I0509 18:26:41.017794 122093 data_transformer.cpp:25] Loading mean file from: data/ilsvrc12/imagenet_mean.binaryproto
I0509 18:26:41.020982 122093 data_layer.cpp:45] output data size: 256,3,227,227
I0509 18:26:41.021064 122093 net.cpp:122] Setting up data
I0509 18:26:41.021077 122093 net.cpp:129] Top shape: 256 3 227 227 (39574272)
I0509 18:26:41.021085 122093 net.cpp:129] Top shape: 256 (256)
I0509 18:26:41.021088 122093 net.cpp:137] Memory required for data: 158298112
I0509 18:26:41.021098 122093 layer_factory.hpp:77] Creating layer conv1
I0509 18:26:41.021116 122093 net.cpp:84] Creating Layer conv1
I0509 18:26:41.021122 122093 net.cpp:406] conv1 <- data
I0509 18:26:41.021136 122093 net.cpp:380] conv1 -> conv1
I0509 18:26:41.021155 122093 base_conv_layer.cpp:121] Group is 1channel is3number of output is 96
I0509 18:26:41.021723 122093 net.cpp:122] Setting up conv1
I0509 18:26:41.021733 122093 net.cpp:129] Top shape: 256 96 55 55 (74342400)
I0509 18:26:41.021739 122093 net.cpp:137] Memory required for data: 455667712
I0509 18:26:41.021759 122093 layer_factory.hpp:77] Creating layer relu1
I0509 18:26:41.021769 122093 net.cpp:84] Creating Layer relu1
I0509 18:26:41.021773 122093 net.cpp:406] relu1 <- conv1
I0509 18:26:41.021781 122093 net.cpp:367] relu1 -> conv1 (in-place)
I0509 18:26:41.021790 122093 net.cpp:122] Setting up relu1
I0509 18:26:41.021797 122093 net.cpp:129] Top shape: 256 96 55 55 (74342400)
I0509 18:26:41.021802 122093 net.cpp:137] Memory required for data: 753037312
I0509 18:26:41.021806 122093 layer_factory.hpp:77] Creating layer pool1
I0509 18:26:41.021816 122093 net.cpp:84] Creating Layer pool1
I0509 18:26:41.021821 122093 net.cpp:406] pool1 <- conv1
I0509 18:26:41.021826 122093 net.cpp:380] pool1 -> pool1
I0509 18:26:41.021842 122093 net.cpp:122] Setting up pool1
I0509 18:26:41.021850 122093 net.cpp:129] Top shape: 256 96 27 27 (17915904)
I0509 18:26:41.021855 122093 net.cpp:137] Memory required for data: 824700928
I0509 18:26:41.021859 122093 layer_factory.hpp:77] Creating layer norm1
I0509 18:26:41.021875 122093 net.cpp:84] Creating Layer norm1
I0509 18:26:41.021889 122093 net.cpp:406] norm1 <- pool1
I0509 18:26:41.021898 122093 net.cpp:380] norm1 -> norm1
I0509 18:26:41.021908 122093 net.cpp:122] Setting up norm1
I0509 18:26:41.021916 122093 net.cpp:129] Top shape: 256 96 27 27 (17915904)
I0509 18:26:41.021921 122093 net.cpp:137] Memory required for data: 896364544
I0509 18:26:41.021926 122093 layer_factory.hpp:77] Creating layer conv2
I0509 18:26:41.021936 122093 net.cpp:84] Creating Layer conv2
I0509 18:26:41.021941 122093 net.cpp:406] conv2 <- norm1
I0509 18:26:41.021950 122093 net.cpp:380] conv2 -> conv2
I0509 18:26:41.021961 122093 base_conv_layer.cpp:121] Group is 2channel is96number of output is 256
I0509 18:26:41.027092 122093 net.cpp:122] Setting up conv2
I0509 18:26:41.027107 122093 net.cpp:129] Top shape: 256 256 27 27 (47775744)
I0509 18:26:41.027113 122093 net.cpp:137] Memory required for data: 1087467520
I0509 18:26:41.027124 122093 layer_factory.hpp:77] Creating layer relu2
I0509 18:26:41.027132 122093 net.cpp:84] Creating Layer relu2
I0509 18:26:41.027137 122093 net.cpp:406] relu2 <- conv2
I0509 18:26:41.027145 122093 net.cpp:367] relu2 -> conv2 (in-place)
I0509 18:26:41.027153 122093 net.cpp:122] Setting up relu2
I0509 18:26:41.027160 122093 net.cpp:129] Top shape: 256 256 27 27 (47775744)
I0509 18:26:41.027164 122093 net.cpp:137] Memory required for data: 1278570496
I0509 18:26:41.027170 122093 layer_factory.hpp:77] Creating layer pool2
I0509 18:26:41.027178 122093 net.cpp:84] Creating Layer pool2
I0509 18:26:41.027181 122093 net.cpp:406] pool2 <- conv2
I0509 18:26:41.027189 122093 net.cpp:380] pool2 -> pool2
I0509 18:26:41.027199 122093 net.cpp:122] Setting up pool2
I0509 18:26:41.027206 122093 net.cpp:129] Top shape: 256 256 13 13 (11075584)
I0509 18:26:41.027210 122093 net.cpp:137] Memory required for data: 1322872832
I0509 18:26:41.027215 122093 layer_factory.hpp:77] Creating layer norm2
I0509 18:26:41.027225 122093 net.cpp:84] Creating Layer norm2
I0509 18:26:41.027230 122093 net.cpp:406] norm2 <- pool2
I0509 18:26:41.027235 122093 net.cpp:380] norm2 -> norm2
I0509 18:26:41.027245 122093 net.cpp:122] Setting up norm2
I0509 18:26:41.027252 122093 net.cpp:129] Top shape: 256 256 13 13 (11075584)
I0509 18:26:41.027256 122093 net.cpp:137] Memory required for data: 1367175168
I0509 18:26:41.027261 122093 layer_factory.hpp:77] Creating layer conv3
I0509 18:26:41.027271 122093 net.cpp:84] Creating Layer conv3
I0509 18:26:41.027276 122093 net.cpp:406] conv3 <- norm2
I0509 18:26:41.027284 122093 net.cpp:380] conv3 -> conv3
I0509 18:26:41.027297 122093 base_conv_layer.cpp:121] Group is 1channel is256number of output is 384
I0509 18:26:41.040984 122093 net.cpp:122] Setting up conv3
I0509 18:26:41.041009 122093 net.cpp:129] Top shape: 256 384 13 13 (16613376)
I0509 18:26:41.041013 122093 net.cpp:137] Memory required for data: 1433628672
I0509 18:26:41.041026 122093 layer_factory.hpp:77] Creating layer relu3
I0509 18:26:41.041035 122093 net.cpp:84] Creating Layer relu3
I0509 18:26:41.041043 122093 net.cpp:406] relu3 <- conv3
I0509 18:26:41.041049 122093 net.cpp:367] relu3 -> conv3 (in-place)
I0509 18:26:41.041057 122093 net.cpp:122] Setting up relu3
I0509 18:26:41.041064 122093 net.cpp:129] Top shape: 256 384 13 13 (16613376)
I0509 18:26:41.041069 122093 net.cpp:137] Memory required for data: 1500082176
I0509 18:26:41.041074 122093 layer_factory.hpp:77] Creating layer conv4
I0509 18:26:41.041085 122093 net.cpp:84] Creating Layer conv4
I0509 18:26:41.041090 122093 net.cpp:406] conv4 <- conv3
I0509 18:26:41.041097 122093 net.cpp:380] conv4 -> conv4
I0509 18:26:41.041108 122093 base_conv_layer.cpp:121] Group is 2channel is384number of output is 384
I0509 18:26:41.051134 122093 net.cpp:122] Setting up conv4
I0509 18:26:41.051147 122093 net.cpp:129] Top shape: 256 384 13 13 (16613376)
I0509 18:26:41.051152 122093 net.cpp:137] Memory required for data: 1566535680
I0509 18:26:41.051161 122093 layer_factory.hpp:77] Creating layer relu4
I0509 18:26:41.051167 122093 net.cpp:84] Creating Layer relu4
I0509 18:26:41.051178 122093 net.cpp:406] relu4 <- conv4
I0509 18:26:41.051198 122093 net.cpp:367] relu4 -> conv4 (in-place)
I0509 18:26:41.051205 122093 net.cpp:122] Setting up relu4
I0509 18:26:41.051213 122093 net.cpp:129] Top shape: 256 384 13 13 (16613376)
I0509 18:26:41.051216 122093 net.cpp:137] Memory required for data: 1632989184
I0509 18:26:41.051221 122093 layer_factory.hpp:77] Creating layer conv5
I0509 18:26:41.051231 122093 net.cpp:84] Creating Layer conv5
I0509 18:26:41.051235 122093 net.cpp:406] conv5 <- conv4
I0509 18:26:41.051242 122093 net.cpp:380] conv5 -> conv5
I0509 18:26:41.051254 122093 base_conv_layer.cpp:121] Group is 2channel is384number of output is 256
#           time             counts unit events
     0.100390162            554,788      branch-misses:u          
     0.100390162         68,961,500      branches:u               
I0509 18:26:41.057875 122093 net.cpp:122] Setting up conv5
I0509 18:26:41.057888 122093 net.cpp:129] Top shape: 256 256 13 13 (11075584)
I0509 18:26:41.057891 122093 net.cpp:137] Memory required for data: 1677291520
I0509 18:26:41.057904 122093 layer_factory.hpp:77] Creating layer relu5
I0509 18:26:41.057910 122093 net.cpp:84] Creating Layer relu5
I0509 18:26:41.057914 122093 net.cpp:406] relu5 <- conv5
I0509 18:26:41.057920 122093 net.cpp:367] relu5 -> conv5 (in-place)
I0509 18:26:41.057929 122093 net.cpp:122] Setting up relu5
I0509 18:26:41.057934 122093 net.cpp:129] Top shape: 256 256 13 13 (11075584)
I0509 18:26:41.057938 122093 net.cpp:137] Memory required for data: 1721593856
I0509 18:26:41.057942 122093 layer_factory.hpp:77] Creating layer pool5
I0509 18:26:41.057950 122093 net.cpp:84] Creating Layer pool5
I0509 18:26:41.057953 122093 net.cpp:406] pool5 <- conv5
I0509 18:26:41.057960 122093 net.cpp:380] pool5 -> pool5
I0509 18:26:41.057970 122093 net.cpp:122] Setting up pool5
I0509 18:26:41.057976 122093 net.cpp:129] Top shape: 256 256 6 6 (2359296)
I0509 18:26:41.057981 122093 net.cpp:137] Memory required for data: 1731031040
I0509 18:26:41.057984 122093 layer_factory.hpp:77] Creating layer fc6
I0509 18:26:41.057994 122093 net.cpp:84] Creating Layer fc6
I0509 18:26:41.057999 122093 net.cpp:406] fc6 <- pool5
I0509 18:26:41.058007 122093 net.cpp:380] fc6 -> fc6
     0.200603107            592,527      branch-misses:u          
     0.200603107        158,621,844      branches:u               
     0.300796966            633,644      branch-misses:u          
     0.300796966        161,970,625      branches:u               
     0.401019581            633,822      branch-misses:u          
     0.401019581        162,075,175      branches:u               
     0.501197681            555,231      branch-misses:u          
     0.501197681        115,039,110      branches:u               
I0509 18:26:41.477555 122093 net.cpp:122] Setting up fc6
I0509 18:26:41.477571 122093 net.cpp:129] Top shape: 256 4096 (1048576)
I0509 18:26:41.477576 122093 net.cpp:137] Memory required for data: 1735225344
I0509 18:26:41.477583 122093 layer_factory.hpp:77] Creating layer relu6
I0509 18:26:41.477591 122093 net.cpp:84] Creating Layer relu6
I0509 18:26:41.477594 122093 net.cpp:406] relu6 <- fc6
I0509 18:26:41.477602 122093 net.cpp:367] relu6 -> fc6 (in-place)
I0509 18:26:41.477608 122093 net.cpp:122] Setting up relu6
I0509 18:26:41.477612 122093 net.cpp:129] Top shape: 256 4096 (1048576)
I0509 18:26:41.477614 122093 net.cpp:137] Memory required for data: 1739419648
I0509 18:26:41.477618 122093 layer_factory.hpp:77] Creating layer drop6
I0509 18:26:41.477624 122093 net.cpp:84] Creating Layer drop6
I0509 18:26:41.477627 122093 net.cpp:406] drop6 <- fc6
I0509 18:26:41.477632 122093 net.cpp:367] drop6 -> fc6 (in-place)
I0509 18:26:41.477640 122093 net.cpp:122] Setting up drop6
I0509 18:26:41.477644 122093 net.cpp:129] Top shape: 256 4096 (1048576)
I0509 18:26:41.477648 122093 net.cpp:137] Memory required for data: 1743613952
I0509 18:26:41.477649 122093 layer_factory.hpp:77] Creating layer fc7
I0509 18:26:41.477656 122093 net.cpp:84] Creating Layer fc7
I0509 18:26:41.477666 122093 net.cpp:406] fc7 <- fc6
I0509 18:26:41.477672 122093 net.cpp:380] fc7 -> fc7
     0.601384250            455,546      branch-misses:u          
     0.601384250         41,664,939      branches:u               
     0.701555562            451,073      branch-misses:u          
     0.701555562         41,508,122      branches:u               
I0509 18:26:41.659670 122093 net.cpp:122] Setting up fc7
I0509 18:26:41.659689 122093 net.cpp:129] Top shape: 256 4096 (1048576)
I0509 18:26:41.659693 122093 net.cpp:137] Memory required for data: 1747808256
I0509 18:26:41.659701 122093 layer_factory.hpp:77] Creating layer relu7
I0509 18:26:41.659709 122093 net.cpp:84] Creating Layer relu7
I0509 18:26:41.659714 122093 net.cpp:406] relu7 <- fc7
I0509 18:26:41.659720 122093 net.cpp:367] relu7 -> fc7 (in-place)
I0509 18:26:41.659728 122093 net.cpp:122] Setting up relu7
I0509 18:26:41.659731 122093 net.cpp:129] Top shape: 256 4096 (1048576)
I0509 18:26:41.659734 122093 net.cpp:137] Memory required for data: 1752002560
I0509 18:26:41.659754 122093 layer_factory.hpp:77] Creating layer drop7
I0509 18:26:41.659759 122093 net.cpp:84] Creating Layer drop7
I0509 18:26:41.659762 122093 net.cpp:406] drop7 <- fc7
I0509 18:26:41.659766 122093 net.cpp:367] drop7 -> fc7 (in-place)
I0509 18:26:41.659772 122093 net.cpp:122] Setting up drop7
I0509 18:26:41.659776 122093 net.cpp:129] Top shape: 256 4096 (1048576)
I0509 18:26:41.659780 122093 net.cpp:137] Memory required for data: 1756196864
I0509 18:26:41.659782 122093 layer_factory.hpp:77] Creating layer fc8
I0509 18:26:41.659790 122093 net.cpp:84] Creating Layer fc8
I0509 18:26:41.659791 122093 net.cpp:406] fc8 <- fc7
I0509 18:26:41.659796 122093 net.cpp:380] fc8 -> fc8
I0509 18:26:41.704771 122093 net.cpp:122] Setting up fc8
I0509 18:26:41.704782 122093 net.cpp:129] Top shape: 256 1000 (256000)
I0509 18:26:41.704784 122093 net.cpp:137] Memory required for data: 1757220864
I0509 18:26:41.704789 122093 layer_factory.hpp:77] Creating layer loss
I0509 18:26:41.704797 122093 net.cpp:84] Creating Layer loss
I0509 18:26:41.704799 122093 net.cpp:406] loss <- fc8
I0509 18:26:41.704803 122093 net.cpp:406] loss <- label
I0509 18:26:41.704810 122093 net.cpp:380] loss -> loss
I0509 18:26:41.704823 122093 layer_factory.hpp:77] Creating layer loss
…
