…
I0509 19:38:02.807176 122539 net.cpp:294] The NetState phase (0) differed from the phase (1) specified by a rule in layer accuracy
I0509 19:38:02.807391 122539 net.cpp:51] Initializing net from parameters: 
name: "CaffeNet"
state {
  phase: TRAIN
  level: 0
  stage: ""
}
layer {
  name: "data"
  type: "Data"
  top: "data"
  top: "label"
  include {
    phase: TRAIN
  }
  transform_param {
    mirror: true
    crop_size: 227
    mean_file: "data/ilsvrc12/imagenet_mean.binaryproto"
  }
  data_param {
    source: "examples/imagenet/ilsvrc12_train_lmdb"
    batch_size: 256
    backend: LMDB
  }
}
layer {
  name: "conv1"
  type: "Convolution"
  bottom: "data"
  top: "conv1"
  param {
    lr_mult: 1
    decay_mult: 1
  }
  param {
    lr_mult: 2
    decay_mult: 0
  }
  convolution_param {
    num_output: 96
    kernel_size: 11
    stride: 4
    weight_filler {
      type: "gaussian"
      std: 0.01
    }
    bias_filler {
      type: "constant"
      value: 0
    }
  }
}
layer {
  name: "relu1"
  type: "ReLU"
  bottom: "conv1"
  top: "conv1"
}
layer {
  name: "pool1"
  type: "Pooling"
  bottom: "conv1"
  top: "pool1"
  pooling_param {
    pool: MAX
    kernel_size: 3
    stride: 2
  }
}
layer {
  name: "norm1"
  type: "LRN"
  bottom: "pool1"
  top: "norm1"
  lrn_param {
    local_size: 5
    alpha: 0.0001
    beta: 0.75
  }
}
layer {
  name: "conv2"
  type: "Convolution"
  bottom: "norm1"
  top: "conv2"
  param {
    lr_mult: 1
    decay_mult: 1
  }
  param {
    lr_mult: 2
    decay_mult: 0
  }
  convolution_param {
    num_output: 256
    pad: 2
    kernel_size: 5
    group: 2
    weight_filler {
      type: "gaussian"
      std: 0.01
    }
    bias_filler {
      type: "constant"
      value: 1
    }
  }
}
layer {
  name: "relu2"
  type: "ReLU"
  bottom: "conv2"
  top: "conv2"
}
layer {
  name: "pool2"
  type: "Pooling"
  bottom: "conv2"
  top: "pool2"
  pooling_param {
    pool: MAX
    kernel_size: 3
    stride: 2
  }
}
layer {
  name: "norm2"
  type: "LRN"
  bottom: "pool2"
  top: "norm2"
  lrn_param {
    local_size: 5
    alpha: 0.0001
    beta: 0.75
  }
}
layer {
  name: "conv3"
  type: "Convolution"
  bottom: "norm2"
  top: "conv3"
  param {
    lr_mult: 1
    decay_mult: 1
  }
  param {
    lr_mult: 2
    decay_mult: 0
  }
  convolution_param {
    num_output: 384
    pad: 1
    kernel_size: 3
    weight_filler {
      type: "gaussian"
      std: 0.01
    }
    bias_filler {
      type: "constant"
      value: 0
    }
  }
}
layer {
  name: "relu3"
  type: "ReLU"
  bottom: "conv3"
  top: "conv3"
}
layer {
  name: "conv4"
  type: "Convolution"
  bottom: "conv3"
  top: "conv4"
  param {
    lr_mult: 1
    decay_mult: 1
  }
  param {
    lr_mult: 2
    decay_mult: 0
  }
  convolution_param {
    num_output: 384
    pad: 1
    kernel_size: 3
    group: 2
    weight_filler {
      type: "gaussian"
      std: 0.01
    }
    bias_filler {
      type: "constant"
      value: 1
    }
  }
}
layer {
  name: "relu4"
  type: "ReLU"
  bottom: "conv4"
  top: "conv4"
}
layer {
  name: "conv5"
  type: "Convolution"
  bottom: "conv4"
  top: "conv5"
  param {
    lr_mult: 1
    decay_mult: 1
  }
  param {
    lr_mult: 2
    decay_mult: 0
  }
  convolution_param {
    num_output: 256
    pad: 1
    kernel_size: 3
    group: 2
    weight_filler {
      type: "gaussian"
      std: 0.01
    }
    bias_filler {
      type: "constant"
      value: 1
    }
  }
}
layer {
  name: "relu5"
  type: "ReLU"
  bottom: "conv5"
  top: "conv5"
}
layer {
  name: "pool5"
  type: "Pooling"
  bottom: "conv5"
  top: "pool5"
  pooling_param {
    pool: MAX
    kernel_size: 3
    stride: 2
  }
}
layer {
  name: "fc6"
  type: "InnerProduct"
  bottom: "pool5"
  top: "fc6"
  param {
    lr_mult: 1
    decay_mult: 1
  }
  param {
    lr_mult: 2
    decay_mult: 0
  }
  inner_product_param {
    num_output: 4096
    weight_filler {
      type: "gaussian"
      std: 0.005
    }
    bias_filler {
      type: "constant"
      value: 1
    }
  }
}
layer {
  name: "relu6"
  type: "ReLU"
  bottom: "fc6"
  top: "fc6"
}
layer {
  name: "drop6"
  type: "Dropout"
  bottom: "fc6"
  top: "fc6"
  dropout_param {
    dropout_ratio: 0.5
  }
}
layer {
  name: "fc7"
  type: "InnerProduct"
  bottom: "fc6"
  top: "fc7"
  param {
    lr_mult: 1
    decay_mult: 1
  }
  param {
    lr_mult: 2
    decay_mult: 0
  }
  inner_product_param {
    num_output: 4096
    weight_filler {
      type: "gaussian"
      std: 0.005
    }
    bias_filler {
      type: "constant"
      value: 1
    }
  }
}
layer {
  name: "relu7"
  type: "ReLU"
  bottom: "fc7"
  top: "fc7"
}
layer {
  name: "drop7"
  type: "Dropout"
  bottom: "fc7"
  top: "fc7"
  dropout_param {
    dropout_ratio: 0.5
  }
}
layer {
  name: "fc8"
  type: "InnerProduct"
  bottom: "fc7"
  top: "fc8"
  param {
    lr_mult: 1
    decay_mult: 1
  }
  param {
    lr_mult: 2
    decay_mult: 0
  }
  inner_product_param {
    num_output: 1000
    weight_filler {
      type: "gaussian"
      std: 0.01
    }
    bias_filler {
      type: "constant"
      value: 0
    }
  }
}
layer {
  name: "loss"
  type: "SoftmaxWithLoss"
  bottom: "fc8"
  bottom: "label"
  top: "loss"
}
I0509 19:38:02.807512 122539 layer_factory.hpp:77] Creating layer data
I0509 19:38:02.807608 122539 db_lmdb.cpp:35] Opened lmdb examples/imagenet/ilsvrc12_train_lmdb
I0509 19:38:02.807641 122539 net.cpp:84] Creating Layer data
I0509 19:38:02.807651 122539 net.cpp:380] data -> data
I0509 19:38:02.807673 122539 net.cpp:380] data -> label
I0509 19:38:02.807693 122539 data_transformer.cpp:25] Loading mean file from: data/ilsvrc12/imagenet_mean.binaryproto
I0509 19:38:02.810600 122539 data_layer.cpp:45] output data size: 256,3,227,227
I0509 19:38:02.810675 122539 net.cpp:122] Setting up data
I0509 19:38:02.810688 122539 net.cpp:129] Top shape: 256 3 227 227 (39574272)
I0509 19:38:02.810695 122539 net.cpp:129] Top shape: 256 (256)
I0509 19:38:02.810699 122539 net.cpp:137] Memory required for data: 158298112
I0509 19:38:02.810708 122539 layer_factory.hpp:77] Creating layer conv1
I0509 19:38:02.810724 122539 net.cpp:84] Creating Layer conv1
I0509 19:38:02.810731 122539 net.cpp:406] conv1 <- data
I0509 19:38:02.810745 122539 net.cpp:380] conv1 -> conv1
I0509 19:38:02.810763 122539 base_conv_layer.cpp:121] Group is 1channel is3number of output is 96
I0509 19:38:02.811305 122539 net.cpp:122] Setting up conv1
I0509 19:38:02.811314 122539 net.cpp:129] Top shape: 256 96 55 55 (74342400)
I0509 19:38:02.811319 122539 net.cpp:137] Memory required for data: 455667712
I0509 19:38:02.811338 122539 layer_factory.hpp:77] Creating layer relu1
I0509 19:38:02.811347 122539 net.cpp:84] Creating Layer relu1
I0509 19:38:02.811352 122539 net.cpp:406] relu1 <- conv1
I0509 19:38:02.811359 122539 net.cpp:367] relu1 -> conv1 (in-place)
I0509 19:38:02.811368 122539 net.cpp:122] Setting up relu1
I0509 19:38:02.811375 122539 net.cpp:129] Top shape: 256 96 55 55 (74342400)
I0509 19:38:02.811379 122539 net.cpp:137] Memory required for data: 753037312
I0509 19:38:02.811383 122539 layer_factory.hpp:77] Creating layer pool1
I0509 19:38:02.811391 122539 net.cpp:84] Creating Layer pool1
I0509 19:38:02.811396 122539 net.cpp:406] pool1 <- conv1
I0509 19:38:02.811403 122539 net.cpp:380] pool1 -> pool1
I0509 19:38:02.811417 122539 net.cpp:122] Setting up pool1
I0509 19:38:02.811425 122539 net.cpp:129] Top shape: 256 96 27 27 (17915904)
I0509 19:38:02.811430 122539 net.cpp:137] Memory required for data: 824700928
I0509 19:38:02.811434 122539 layer_factory.hpp:77] Creating layer norm1
I0509 19:38:02.811449 122539 net.cpp:84] Creating Layer norm1
I0509 19:38:02.811461 122539 net.cpp:406] norm1 <- pool1
I0509 19:38:02.811470 122539 net.cpp:380] norm1 -> norm1
I0509 19:38:02.811480 122539 net.cpp:122] Setting up norm1
I0509 19:38:02.811487 122539 net.cpp:129] Top shape: 256 96 27 27 (17915904)
I0509 19:38:02.811493 122539 net.cpp:137] Memory required for data: 896364544
I0509 19:38:02.811497 122539 layer_factory.hpp:77] Creating layer conv2
I0509 19:38:02.811506 122539 net.cpp:84] Creating Layer conv2
I0509 19:38:02.811511 122539 net.cpp:406] conv2 <- norm1
I0509 19:38:02.811518 122539 net.cpp:380] conv2 -> conv2
I0509 19:38:02.811529 122539 base_conv_layer.cpp:121] Group is 2channel is96number of output is 256
I0509 19:38:02.816213 122539 net.cpp:122] Setting up conv2
I0509 19:38:02.816226 122539 net.cpp:129] Top shape: 256 256 27 27 (47775744)
I0509 19:38:02.816232 122539 net.cpp:137] Memory required for data: 1087467520
I0509 19:38:02.816242 122539 layer_factory.hpp:77] Creating layer relu2
I0509 19:38:02.816249 122539 net.cpp:84] Creating Layer relu2
I0509 19:38:02.816254 122539 net.cpp:406] relu2 <- conv2
I0509 19:38:02.816262 122539 net.cpp:367] relu2 -> conv2 (in-place)
I0509 19:38:02.816268 122539 net.cpp:122] Setting up relu2
I0509 19:38:02.816274 122539 net.cpp:129] Top shape: 256 256 27 27 (47775744)
I0509 19:38:02.816278 122539 net.cpp:137] Memory required for data: 1278570496
I0509 19:38:02.816283 122539 layer_factory.hpp:77] Creating layer pool2
I0509 19:38:02.816289 122539 net.cpp:84] Creating Layer pool2
I0509 19:38:02.816293 122539 net.cpp:406] pool2 <- conv2
I0509 19:38:02.816299 122539 net.cpp:380] pool2 -> pool2
I0509 19:38:02.816309 122539 net.cpp:122] Setting up pool2
I0509 19:38:02.816315 122539 net.cpp:129] Top shape: 256 256 13 13 (11075584)
I0509 19:38:02.816319 122539 net.cpp:137] Memory required for data: 1322872832
I0509 19:38:02.816323 122539 layer_factory.hpp:77] Creating layer norm2
I0509 19:38:02.816331 122539 net.cpp:84] Creating Layer norm2
I0509 19:38:02.816335 122539 net.cpp:406] norm2 <- pool2
I0509 19:38:02.816341 122539 net.cpp:380] norm2 -> norm2
I0509 19:38:02.816349 122539 net.cpp:122] Setting up norm2
I0509 19:38:02.816356 122539 net.cpp:129] Top shape: 256 256 13 13 (11075584)
I0509 19:38:02.816360 122539 net.cpp:137] Memory required for data: 1367175168
I0509 19:38:02.816365 122539 layer_factory.hpp:77] Creating layer conv3
I0509 19:38:02.816372 122539 net.cpp:84] Creating Layer conv3
I0509 19:38:02.816378 122539 net.cpp:406] conv3 <- norm2
I0509 19:38:02.816385 122539 net.cpp:380] conv3 -> conv3
I0509 19:38:02.816395 122539 base_conv_layer.cpp:121] Group is 1channel is256number of output is 384
I0509 19:38:02.828891 122539 net.cpp:122] Setting up conv3
I0509 19:38:02.828905 122539 net.cpp:129] Top shape: 256 384 13 13 (16613376)
I0509 19:38:02.828909 122539 net.cpp:137] Memory required for data: 1433628672
I0509 19:38:02.828919 122539 layer_factory.hpp:77] Creating layer relu3
I0509 19:38:02.828927 122539 net.cpp:84] Creating Layer relu3
I0509 19:38:02.828933 122539 net.cpp:406] relu3 <- conv3
I0509 19:38:02.828938 122539 net.cpp:367] relu3 -> conv3 (in-place)
I0509 19:38:02.828944 122539 net.cpp:122] Setting up relu3
I0509 19:38:02.828950 122539 net.cpp:129] Top shape: 256 384 13 13 (16613376)
I0509 19:38:02.828955 122539 net.cpp:137] Memory required for data: 1500082176
I0509 19:38:02.828959 122539 layer_factory.hpp:77] Creating layer conv4
I0509 19:38:02.828968 122539 net.cpp:84] Creating Layer conv4
I0509 19:38:02.828971 122539 net.cpp:406] conv4 <- conv3
I0509 19:38:02.828979 122539 net.cpp:380] conv4 -> conv4
I0509 19:38:02.828989 122539 base_conv_layer.cpp:121] Group is 2channel is384number of output is 384
I0509 19:38:02.838377 122539 net.cpp:122] Setting up conv4
I0509 19:38:02.838387 122539 net.cpp:129] Top shape: 256 384 13 13 (16613376)
I0509 19:38:02.838392 122539 net.cpp:137] Memory required for data: 1566535680
I0509 19:38:02.838398 122539 layer_factory.hpp:77] Creating layer relu4
I0509 19:38:02.838404 122539 net.cpp:84] Creating Layer relu4
I0509 19:38:02.838414 122539 net.cpp:406] relu4 <- conv4
I0509 19:38:02.838429 122539 net.cpp:367] relu4 -> conv4 (in-place)
I0509 19:38:02.838435 122539 net.cpp:122] Setting up relu4
I0509 19:38:02.838441 122539 net.cpp:129] Top shape: 256 384 13 13 (16613376)
I0509 19:38:02.838445 122539 net.cpp:137] Memory required for data: 1632989184
I0509 19:38:02.838449 122539 layer_factory.hpp:77] Creating layer conv5
I0509 19:38:02.838459 122539 net.cpp:84] Creating Layer conv5
I0509 19:38:02.838461 122539 net.cpp:406] conv5 <- conv4
I0509 19:38:02.838467 122539 net.cpp:380] conv5 -> conv5
I0509 19:38:02.838477 122539 base_conv_layer.cpp:121] Group is 2channel is384number of output is 256
I0509 19:38:02.844475 122539 net.cpp:122] Setting up conv5
I0509 19:38:02.844485 122539 net.cpp:129] Top shape: 256 256 13 13 (11075584)
I0509 19:38:02.844488 122539 net.cpp:137] Memory required for data: 1677291520
I0509 19:38:02.844497 122539 layer_factory.hpp:77] Creating layer relu5
I0509 19:38:02.844503 122539 net.cpp:84] Creating Layer relu5
I0509 19:38:02.844507 122539 net.cpp:406] relu5 <- conv5
I0509 19:38:02.844513 122539 net.cpp:367] relu5 -> conv5 (in-place)
I0509 19:38:02.844519 122539 net.cpp:122] Setting up relu5
I0509 19:38:02.844525 122539 net.cpp:129] Top shape: 256 256 13 13 (11075584)
I0509 19:38:02.844529 122539 net.cpp:137] Memory required for data: 1721593856
I0509 19:38:02.844532 122539 layer_factory.hpp:77] Creating layer pool5
I0509 19:38:02.844540 122539 net.cpp:84] Creating Layer pool5
I0509 19:38:02.844544 122539 net.cpp:406] pool5 <- conv5
I0509 19:38:02.844549 122539 net.cpp:380] pool5 -> pool5
I0509 19:38:02.844558 122539 net.cpp:122] Setting up pool5
I0509 19:38:02.844564 122539 net.cpp:129] Top shape: 256 256 6 6 (2359296)
I0509 19:38:02.844568 122539 net.cpp:137] Memory required for data: 1731031040
I0509 19:38:02.844573 122539 layer_factory.hpp:77] Creating layer fc6
I0509 19:38:02.844581 122539 net.cpp:84] Creating Layer fc6
I0509 19:38:02.844586 122539 net.cpp:406] fc6 <- pool5
I0509 19:38:02.844593 122539 net.cpp:380] fc6 -> fc6
#           time             counts unit events
     0.100381146          5,790,615      L1-dcache-load-misses    
     0.100381146         96,116,836      L1-dcache-loads          
     0.200591928          7,797,415      L1-dcache-load-misses    
     0.200591928        253,257,886      L1-dcache-loads          
     0.300772870         10,551,460      L1-dcache-load-misses    
     0.300772870        290,769,680      L1-dcache-loads          
     0.400968334         10,410,638      L1-dcache-load-misses    
     0.400968334        286,773,198      L1-dcache-loads          
I0509 19:38:03.192104 122539 net.cpp:122] Setting up fc6
I0509 19:38:03.192129 122539 net.cpp:129] Top shape: 256 4096 (1048576)
I0509 19:38:03.192133 122539 net.cpp:137] Memory required for data: 1735225344
I0509 19:38:03.192142 122539 layer_factory.hpp:77] Creating layer relu6
I0509 19:38:03.192150 122539 net.cpp:84] Creating Layer relu6
I0509 19:38:03.192153 122539 net.cpp:406] relu6 <- fc6
I0509 19:38:03.192162 122539 net.cpp:367] relu6 -> fc6 (in-place)
I0509 19:38:03.192168 122539 net.cpp:122] Setting up relu6
I0509 19:38:03.192173 122539 net.cpp:129] Top shape: 256 4096 (1048576)
I0509 19:38:03.192175 122539 net.cpp:137] Memory required for data: 1739419648
I0509 19:38:03.192178 122539 layer_factory.hpp:77] Creating layer drop6
I0509 19:38:03.192184 122539 net.cpp:84] Creating Layer drop6
I0509 19:38:03.192186 122539 net.cpp:406] drop6 <- fc6
I0509 19:38:03.192190 122539 net.cpp:367] drop6 -> fc6 (in-place)
I0509 19:38:03.192200 122539 net.cpp:122] Setting up drop6
I0509 19:38:03.192204 122539 net.cpp:129] Top shape: 256 4096 (1048576)
I0509 19:38:03.192207 122539 net.cpp:137] Memory required for data: 1743613952
I0509 19:38:03.192210 122539 layer_factory.hpp:77] Creating layer fc7
I0509 19:38:03.192217 122539 net.cpp:84] Creating Layer fc7
I0509 19:38:03.192219 122539 net.cpp:406] fc7 <- fc6
I0509 19:38:03.192224 122539 net.cpp:380] fc7 -> fc7
     0.501151524         10,558,022      L1-dcache-load-misses    
     0.501151524        290,434,820      L1-dcache-loads          
I0509 19:38:03.344566 122539 net.cpp:122] Setting up fc7
I0509 19:38:03.344589 122539 net.cpp:129] Top shape: 256 4096 (1048576)
I0509 19:38:03.344593 122539 net.cpp:137] Memory required for data: 1747808256
I0509 19:38:03.344600 122539 layer_factory.hpp:77] Creating layer relu7
I0509 19:38:03.344607 122539 net.cpp:84] Creating Layer relu7
I0509 19:38:03.344611 122539 net.cpp:406] relu7 <- fc7
I0509 19:38:03.344619 122539 net.cpp:367] relu7 -> fc7 (in-place)
I0509 19:38:03.344624 122539 net.cpp:122] Setting up relu7
I0509 19:38:03.344629 122539 net.cpp:129] Top shape: 256 4096 (1048576)
I0509 19:38:03.344631 122539 net.cpp:137] Memory required for data: 1752002560
I0509 19:38:03.344650 122539 layer_factory.hpp:77] Creating layer drop7
I0509 19:38:03.344655 122539 net.cpp:84] Creating Layer drop7
I0509 19:38:03.344657 122539 net.cpp:406] drop7 <- fc7
I0509 19:38:03.344662 122539 net.cpp:367] drop7 -> fc7 (in-place)
I0509 19:38:03.344668 122539 net.cpp:122] Setting up drop7
I0509 19:38:03.344672 122539 net.cpp:129] Top shape: 256 4096 (1048576)
I0509 19:38:03.344674 122539 net.cpp:137] Memory required for data: 1756196864
I0509 19:38:03.344678 122539 layer_factory.hpp:77] Creating layer fc8
I0509 19:38:03.344684 122539 net.cpp:84] Creating Layer fc8
I0509 19:38:03.344687 122539 net.cpp:406] fc8 <- fc7
I0509 19:38:03.344691 122539 net.cpp:380] fc8 -> fc8
     0.601342010          1,201,222      L1-dcache-load-misses    
     0.601342010        172,645,202      L1-dcache-loads          
I0509 19:38:03.382009 122539 net.cpp:122] Setting up fc8
I0509 19:38:03.382019 122539 net.cpp:129] Top shape: 256 1000 (256000)
I0509 19:38:03.382020 122539 net.cpp:137] Memory required for data: 1757220864
I0509 19:38:03.382027 122539 layer_factory.hpp:77] Creating layer loss
I0509 19:38:03.382033 122539 net.cpp:84] Creating Layer loss
I0509 19:38:03.382036 122539 net.cpp:406] loss <- fc8
I0509 19:38:03.382040 122539 net.cpp:406] loss <- label
I0509 19:38:03.382046 122539 net.cpp:380] loss -> loss
I0509 19:38:03.382061 122539 layer_factory.hpp:77] Creating layer loss
…
