…
I0510 09:48:50.108394 128886 net.cpp:294] The NetState phase (0) differed from the phase (1) specified by a rule in layer accuracy
I0510 09:48:50.108633 128886 net.cpp:51] Initializing net from parameters: 
name: "CaffeNet"
state {
  phase: TRAIN
  level: 0
  stage: ""
}
layer {
  name: "data"
  type: "Data"
  top: "data"
  top: "label"
  include {
    phase: TRAIN
  }
  transform_param {
    mirror: true
    crop_size: 227
    mean_file: "data/ilsvrc12/imagenet_mean.binaryproto"
  }
  data_param {
    source: "examples/imagenet/ilsvrc12_train_lmdb"
    batch_size: 256
    backend: LMDB
  }
}
layer {
  name: "conv1"
  type: "Convolution"
  bottom: "data"
  top: "conv1"
  param {
    lr_mult: 1
    decay_mult: 1
  }
  param {
    lr_mult: 2
    decay_mult: 0
  }
  convolution_param {
    num_output: 96
    kernel_size: 11
    stride: 4
    weight_filler {
      type: "gaussian"
      std: 0.01
    }
    bias_filler {
      type: "constant"
      value: 0
    }
  }
}
layer {
  name: "relu1"
  type: "ReLU"
  bottom: "conv1"
  top: "conv1"
}
layer {
  name: "pool1"
  type: "Pooling"
  bottom: "conv1"
  top: "pool1"
  pooling_param {
    pool: MAX
    kernel_size: 3
    stride: 2
  }
}
layer {
  name: "norm1"
  type: "LRN"
  bottom: "pool1"
  top: "norm1"
  lrn_param {
    local_size: 5
    alpha: 0.0001
    beta: 0.75
  }
}
layer {
  name: "conv2"
  type: "Convolution"
  bottom: "norm1"
  top: "conv2"
  param {
    lr_mult: 1
    decay_mult: 1
  }
  param {
    lr_mult: 2
    decay_mult: 0
  }
  convolution_param {
    num_output: 256
    pad: 2
    kernel_size: 5
    group: 2
    weight_filler {
      type: "gaussian"
      std: 0.01
    }
    bias_filler {
      type: "constant"
      value: 1
    }
  }
}
layer {
  name: "relu2"
  type: "ReLU"
  bottom: "conv2"
  top: "conv2"
}
layer {
  name: "pool2"
  type: "Pooling"
  bottom: "conv2"
  top: "pool2"
  pooling_param {
    pool: MAX
    kernel_size: 3
    stride: 2
  }
}
layer {
  name: "norm2"
  type: "LRN"
  bottom: "pool2"
  top: "norm2"
  lrn_param {
    local_size: 5
    alpha: 0.0001
    beta: 0.75
  }
}
layer {
  name: "conv3"
  type: "Convolution"
  bottom: "norm2"
  top: "conv3"
  param {
    lr_mult: 1
    decay_mult: 1
  }
  param {
    lr_mult: 2
    decay_mult: 0
  }
  convolution_param {
    num_output: 384
    pad: 1
    kernel_size: 3
    weight_filler {
      type: "gaussian"
      std: 0.01
    }
    bias_filler {
      type: "constant"
      value: 0
    }
  }
}
layer {
  name: "relu3"
  type: "ReLU"
  bottom: "conv3"
  top: "conv3"
}
layer {
  name: "conv4"
  type: "Convolution"
  bottom: "conv3"
  top: "conv4"
  param {
    lr_mult: 1
    decay_mult: 1
  }
  param {
    lr_mult: 2
    decay_mult: 0
  }
  convolution_param {
    num_output: 384
    pad: 1
    kernel_size: 3
    group: 2
    weight_filler {
      type: "gaussian"
      std: 0.01
    }
    bias_filler {
      type: "constant"
      value: 1
    }
  }
}
layer {
  name: "relu4"
  type: "ReLU"
  bottom: "conv4"
  top: "conv4"
}
layer {
  name: "conv5"
  type: "Convolution"
  bottom: "conv4"
  top: "conv5"
  param {
    lr_mult: 1
    decay_mult: 1
  }
  param {
    lr_mult: 2
    decay_mult: 0
  }
  convolution_param {
    num_output: 256
    pad: 1
    kernel_size: 3
    group: 2
    weight_filler {
      type: "gaussian"
      std: 0.01
    }
    bias_filler {
      type: "constant"
      value: 1
    }
  }
}
layer {
  name: "relu5"
  type: "ReLU"
  bottom: "conv5"
  top: "conv5"
}
layer {
  name: "pool5"
  type: "Pooling"
  bottom: "conv5"
  top: "pool5"
  pooling_param {
    pool: MAX
    kernel_size: 3
    stride: 2
  }
}
layer {
  name: "fc6"
  type: "InnerProduct"
  bottom: "pool5"
  top: "fc6"
  param {
    lr_mult: 1
    decay_mult: 1
  }
  param {
    lr_mult: 2
    decay_mult: 0
  }
  inner_product_param {
    num_output: 4096
    weight_filler {
      type: "gaussian"
      std: 0.005
    }
    bias_filler {
      type: "constant"
      value: 1
    }
  }
}
layer {
  name: "relu6"
  type: "ReLU"
  bottom: "fc6"
  top: "fc6"
}
layer {
  name: "drop6"
  type: "Dropout"
  bottom: "fc6"
  top: "fc6"
  dropout_param {
    dropout_ratio: 0.5
  }
}
layer {
  name: "fc7"
  type: "InnerProduct"
  bottom: "fc6"
  top: "fc7"
  param {
    lr_mult: 1
    decay_mult: 1
  }
  param {
    lr_mult: 2
    decay_mult: 0
  }
  inner_product_param {
    num_output: 4096
    weight_filler {
      type: "gaussian"
      std: 0.005
    }
    bias_filler {
      type: "constant"
      value: 1
    }
  }
}
layer {
  name: "relu7"
  type: "ReLU"
  bottom: "fc7"
  top: "fc7"
}
layer {
  name: "drop7"
  type: "Dropout"
  bottom: "fc7"
  top: "fc7"
  dropout_param {
    dropout_ratio: 0.5
  }
}
layer {
  name: "fc8"
  type: "InnerProduct"
  bottom: "fc7"
  top: "fc8"
  param {
    lr_mult: 1
    decay_mult: 1
  }
  param {
    lr_mult: 2
    decay_mult: 0
  }
  inner_product_param {
    num_output: 1000
    weight_filler {
      type: "gaussian"
      std: 0.01
    }
    bias_filler {
      type: "constant"
      value: 0
    }
  }
}
layer {
  name: "loss"
  type: "SoftmaxWithLoss"
  bottom: "fc8"
  bottom: "label"
  top: "loss"
}
I0510 09:48:50.108775 128886 layer_factory.hpp:77] Creating layer data
I0510 09:48:50.108886 128886 db_lmdb.cpp:35] Opened lmdb examples/imagenet/ilsvrc12_train_lmdb
I0510 09:48:50.108922 128886 net.cpp:84] Creating Layer data
I0510 09:48:50.108934 128886 net.cpp:380] data -> data
I0510 09:48:50.108959 128886 net.cpp:380] data -> label
I0510 09:48:50.108974 128886 data_transformer.cpp:25] Loading mean file from: data/ilsvrc12/imagenet_mean.binaryproto
I0510 09:48:50.112233 128886 data_layer.cpp:45] output data size: 256,3,227,227
I0510 09:48:50.112334 128886 net.cpp:122] Setting up data
I0510 09:48:50.112346 128886 net.cpp:129] Top shape: 256 3 227 227 (39574272)
I0510 09:48:50.112354 128886 net.cpp:129] Top shape: 256 (256)
I0510 09:48:50.112357 128886 net.cpp:137] Memory required for data: 158298112
I0510 09:48:50.112367 128886 layer_factory.hpp:77] Creating layer conv1
I0510 09:48:50.112385 128886 net.cpp:84] Creating Layer conv1
I0510 09:48:50.112393 128886 net.cpp:406] conv1 <- data
I0510 09:48:50.112407 128886 net.cpp:380] conv1 -> conv1
I0510 09:48:50.112426 128886 base_conv_layer.cpp:121] Group is 1channel is3number of output is 96
I0510 09:48:50.112993 128886 net.cpp:122] Setting up conv1
I0510 09:48:50.113003 128886 net.cpp:129] Top shape: 256 96 55 55 (74342400)
I0510 09:48:50.113008 128886 net.cpp:137] Memory required for data: 455667712
I0510 09:48:50.113028 128886 layer_factory.hpp:77] Creating layer relu1
I0510 09:48:50.113035 128886 net.cpp:84] Creating Layer relu1
I0510 09:48:50.113040 128886 net.cpp:406] relu1 <- conv1
I0510 09:48:50.113049 128886 net.cpp:367] relu1 -> conv1 (in-place)
I0510 09:48:50.113057 128886 net.cpp:122] Setting up relu1
I0510 09:48:50.113065 128886 net.cpp:129] Top shape: 256 96 55 55 (74342400)
I0510 09:48:50.113068 128886 net.cpp:137] Memory required for data: 753037312
I0510 09:48:50.113073 128886 layer_factory.hpp:77] Creating layer pool1
I0510 09:48:50.113081 128886 net.cpp:84] Creating Layer pool1
I0510 09:48:50.113086 128886 net.cpp:406] pool1 <- conv1
I0510 09:48:50.113092 128886 net.cpp:380] pool1 -> pool1
I0510 09:48:50.113108 128886 net.cpp:122] Setting up pool1
I0510 09:48:50.113116 128886 net.cpp:129] Top shape: 256 96 27 27 (17915904)
I0510 09:48:50.113121 128886 net.cpp:137] Memory required for data: 824700928
I0510 09:48:50.113126 128886 layer_factory.hpp:77] Creating layer norm1
I0510 09:48:50.113140 128886 net.cpp:84] Creating Layer norm1
I0510 09:48:50.113155 128886 net.cpp:406] norm1 <- pool1
I0510 09:48:50.113162 128886 net.cpp:380] norm1 -> norm1
I0510 09:48:50.113174 128886 net.cpp:122] Setting up norm1
I0510 09:48:50.113181 128886 net.cpp:129] Top shape: 256 96 27 27 (17915904)
I0510 09:48:50.113188 128886 net.cpp:137] Memory required for data: 896364544
I0510 09:48:50.113191 128886 layer_factory.hpp:77] Creating layer conv2
I0510 09:48:50.113203 128886 net.cpp:84] Creating Layer conv2
I0510 09:48:50.113206 128886 net.cpp:406] conv2 <- norm1
I0510 09:48:50.113215 128886 net.cpp:380] conv2 -> conv2
I0510 09:48:50.113226 128886 base_conv_layer.cpp:121] Group is 2channel is96number of output is 256
I0510 09:48:50.118314 128886 net.cpp:122] Setting up conv2
I0510 09:48:50.118325 128886 net.cpp:129] Top shape: 256 256 27 27 (47775744)
I0510 09:48:50.118331 128886 net.cpp:137] Memory required for data: 1087467520
I0510 09:48:50.118342 128886 layer_factory.hpp:77] Creating layer relu2
I0510 09:48:50.118350 128886 net.cpp:84] Creating Layer relu2
I0510 09:48:50.118355 128886 net.cpp:406] relu2 <- conv2
I0510 09:48:50.118362 128886 net.cpp:367] relu2 -> conv2 (in-place)
I0510 09:48:50.118371 128886 net.cpp:122] Setting up relu2
I0510 09:48:50.118376 128886 net.cpp:129] Top shape: 256 256 27 27 (47775744)
I0510 09:48:50.118381 128886 net.cpp:137] Memory required for data: 1278570496
I0510 09:48:50.118386 128886 layer_factory.hpp:77] Creating layer pool2
I0510 09:48:50.118393 128886 net.cpp:84] Creating Layer pool2
I0510 09:48:50.118397 128886 net.cpp:406] pool2 <- conv2
I0510 09:48:50.118403 128886 net.cpp:380] pool2 -> pool2
I0510 09:48:50.118414 128886 net.cpp:122] Setting up pool2
I0510 09:48:50.118422 128886 net.cpp:129] Top shape: 256 256 13 13 (11075584)
I0510 09:48:50.118425 128886 net.cpp:137] Memory required for data: 1322872832
I0510 09:48:50.118429 128886 layer_factory.hpp:77] Creating layer norm2
I0510 09:48:50.118438 128886 net.cpp:84] Creating Layer norm2
I0510 09:48:50.118443 128886 net.cpp:406] norm2 <- pool2
I0510 09:48:50.118449 128886 net.cpp:380] norm2 -> norm2
I0510 09:48:50.118458 128886 net.cpp:122] Setting up norm2
I0510 09:48:50.118465 128886 net.cpp:129] Top shape: 256 256 13 13 (11075584)
I0510 09:48:50.118470 128886 net.cpp:137] Memory required for data: 1367175168
I0510 09:48:50.118474 128886 layer_factory.hpp:77] Creating layer conv3
I0510 09:48:50.118484 128886 net.cpp:84] Creating Layer conv3
I0510 09:48:50.118489 128886 net.cpp:406] conv3 <- norm2
I0510 09:48:50.118496 128886 net.cpp:380] conv3 -> conv3
I0510 09:48:50.118508 128886 base_conv_layer.cpp:121] Group is 1channel is256number of output is 384
I0510 09:48:50.132678 128886 net.cpp:122] Setting up conv3
I0510 09:48:50.132692 128886 net.cpp:129] Top shape: 256 384 13 13 (16613376)
I0510 09:48:50.132696 128886 net.cpp:137] Memory required for data: 1433628672
I0510 09:48:50.132707 128886 layer_factory.hpp:77] Creating layer relu3
I0510 09:48:50.132714 128886 net.cpp:84] Creating Layer relu3
I0510 09:48:50.132720 128886 net.cpp:406] relu3 <- conv3
I0510 09:48:50.132726 128886 net.cpp:367] relu3 -> conv3 (in-place)
I0510 09:48:50.132733 128886 net.cpp:122] Setting up relu3
I0510 09:48:50.132740 128886 net.cpp:129] Top shape: 256 384 13 13 (16613376)
I0510 09:48:50.132745 128886 net.cpp:137] Memory required for data: 1500082176
I0510 09:48:50.132748 128886 layer_factory.hpp:77] Creating layer conv4
I0510 09:48:50.132758 128886 net.cpp:84] Creating Layer conv4
I0510 09:48:50.132762 128886 net.cpp:406] conv4 <- conv3
I0510 09:48:50.132769 128886 net.cpp:380] conv4 -> conv4
I0510 09:48:50.132781 128886 base_conv_layer.cpp:121] Group is 2channel is384number of output is 384
I0510 09:48:50.142271 128886 net.cpp:122] Setting up conv4
I0510 09:48:50.142282 128886 net.cpp:129] Top shape: 256 384 13 13 (16613376)
I0510 09:48:50.142288 128886 net.cpp:137] Memory required for data: 1566535680
I0510 09:48:50.142295 128886 layer_factory.hpp:77] Creating layer relu4
I0510 09:48:50.142302 128886 net.cpp:84] Creating Layer relu4
I0510 09:48:50.142313 128886 net.cpp:406] relu4 <- conv4
I0510 09:48:50.142328 128886 net.cpp:367] relu4 -> conv4 (in-place)
I0510 09:48:50.142335 128886 net.cpp:122] Setting up relu4
I0510 09:48:50.142341 128886 net.cpp:129] Top shape: 256 384 13 13 (16613376)
I0510 09:48:50.142345 128886 net.cpp:137] Memory required for data: 1632989184
I0510 09:48:50.142350 128886 layer_factory.hpp:77] Creating layer conv5
I0510 09:48:50.142359 128886 net.cpp:84] Creating Layer conv5
I0510 09:48:50.142364 128886 net.cpp:406] conv5 <- conv4
I0510 09:48:50.142370 128886 net.cpp:380] conv5 -> conv5
I0510 09:48:50.142381 128886 base_conv_layer.cpp:121] Group is 2channel is384number of output is 256
#           time             counts unit events
     0.100136172             65,932      r02c0:u                  
I0510 09:48:50.148916 128886 net.cpp:122] Setting up conv5
I0510 09:48:50.148926 128886 net.cpp:129] Top shape: 256 256 13 13 (11075584)
I0510 09:48:50.148929 128886 net.cpp:137] Memory required for data: 1677291520
I0510 09:48:50.148941 128886 layer_factory.hpp:77] Creating layer relu5
I0510 09:48:50.148947 128886 net.cpp:84] Creating Layer relu5
I0510 09:48:50.148950 128886 net.cpp:406] relu5 <- conv5
I0510 09:48:50.148957 128886 net.cpp:367] relu5 -> conv5 (in-place)
I0510 09:48:50.148963 128886 net.cpp:122] Setting up relu5
I0510 09:48:50.148968 128886 net.cpp:129] Top shape: 256 256 13 13 (11075584)
I0510 09:48:50.148972 128886 net.cpp:137] Memory required for data: 1721593856
I0510 09:48:50.148977 128886 layer_factory.hpp:77] Creating layer pool5
I0510 09:48:50.148983 128886 net.cpp:84] Creating Layer pool5
I0510 09:48:50.148988 128886 net.cpp:406] pool5 <- conv5
I0510 09:48:50.148993 128886 net.cpp:380] pool5 -> pool5
I0510 09:48:50.149001 128886 net.cpp:122] Setting up pool5
I0510 09:48:50.149008 128886 net.cpp:129] Top shape: 256 256 6 6 (2359296)
I0510 09:48:50.149011 128886 net.cpp:137] Memory required for data: 1731031040
I0510 09:48:50.149015 128886 layer_factory.hpp:77] Creating layer fc6
I0510 09:48:50.149025 128886 net.cpp:84] Creating Layer fc6
I0510 09:48:50.149030 128886 net.cpp:406] fc6 <- pool5
I0510 09:48:50.149036 128886 net.cpp:380] fc6 -> fc6
     0.200328470                745      r02c0:u                  
     0.300496884                934      r02c0:u                  
     0.400660276                933      r02c0:u                  
     0.500827204                935      r02c0:u                  
I0510 09:48:50.550312 128886 net.cpp:122] Setting up fc6
I0510 09:48:50.550328 128886 net.cpp:129] Top shape: 256 4096 (1048576)
I0510 09:48:50.550333 128886 net.cpp:137] Memory required for data: 1735225344
I0510 09:48:50.550341 128886 layer_factory.hpp:77] Creating layer relu6
I0510 09:48:50.550349 128886 net.cpp:84] Creating Layer relu6
I0510 09:48:50.550354 128886 net.cpp:406] relu6 <- fc6
I0510 09:48:50.550360 128886 net.cpp:367] relu6 -> fc6 (in-place)
I0510 09:48:50.550366 128886 net.cpp:122] Setting up relu6
I0510 09:48:50.550371 128886 net.cpp:129] Top shape: 256 4096 (1048576)
I0510 09:48:50.550374 128886 net.cpp:137] Memory required for data: 1739419648
I0510 09:48:50.550379 128886 layer_factory.hpp:77] Creating layer drop6
I0510 09:48:50.550384 128886 net.cpp:84] Creating Layer drop6
I0510 09:48:50.550387 128886 net.cpp:406] drop6 <- fc6
I0510 09:48:50.550391 128886 net.cpp:367] drop6 -> fc6 (in-place)
I0510 09:48:50.550402 128886 net.cpp:122] Setting up drop6
I0510 09:48:50.550407 128886 net.cpp:129] Top shape: 256 4096 (1048576)
I0510 09:48:50.550410 128886 net.cpp:137] Memory required for data: 1743613952
I0510 09:48:50.550413 128886 layer_factory.hpp:77] Creating layer fc7
I0510 09:48:50.550420 128886 net.cpp:84] Creating Layer fc7
I0510 09:48:50.550423 128886 net.cpp:406] fc7 <- fc6
I0510 09:48:50.550429 128886 net.cpp:380] fc7 -> fc7
     0.600987162                460      r02c0:u                  
I0510 09:48:50.726539 128886 net.cpp:122] Setting up fc7
I0510 09:48:50.726564 128886 net.cpp:129] Top shape: 256 4096 (1048576)
I0510 09:48:50.726567 128886 net.cpp:137] Memory required for data: 1747808256
I0510 09:48:50.726584 128886 layer_factory.hpp:77] Creating layer relu7
I0510 09:48:50.726593 128886 net.cpp:84] Creating Layer relu7
I0510 09:48:50.726598 128886 net.cpp:406] relu7 <- fc7
I0510 09:48:50.726605 128886 net.cpp:367] relu7 -> fc7 (in-place)
I0510 09:48:50.726613 128886 net.cpp:122] Setting up relu7
I0510 09:48:50.726616 128886 net.cpp:129] Top shape: 256 4096 (1048576)
I0510 09:48:50.726620 128886 net.cpp:137] Memory required for data: 1752002560
I0510 09:48:50.726634 128886 layer_factory.hpp:77] Creating layer drop7
I0510 09:48:50.726639 128886 net.cpp:84] Creating Layer drop7
I0510 09:48:50.726642 128886 net.cpp:406] drop7 <- fc7
I0510 09:48:50.726647 128886 net.cpp:367] drop7 -> fc7 (in-place)
I0510 09:48:50.726653 128886 net.cpp:122] Setting up drop7
I0510 09:48:50.726657 128886 net.cpp:129] Top shape: 256 4096 (1048576)
I0510 09:48:50.726660 128886 net.cpp:137] Memory required for data: 1756196864
I0510 09:48:50.726665 128886 layer_factory.hpp:77] Creating layer fc8
I0510 09:48:50.726671 128886 net.cpp:84] Creating Layer fc8
I0510 09:48:50.726675 128886 net.cpp:406] fc8 <- fc7
I0510 09:48:50.726680 128886 net.cpp:380] fc8 -> fc8
     0.701139623                 13      r02c0:u                  
I0510 09:48:50.770279 128886 net.cpp:122] Setting up fc8
I0510 09:48:50.770287 128886 net.cpp:129] Top shape: 256 1000 (256000)
I0510 09:48:50.770292 128886 net.cpp:137] Memory required for data: 1757220864
I0510 09:48:50.770297 128886 layer_factory.hpp:77] Creating layer loss
I0510 09:48:50.770303 128886 net.cpp:84] Creating Layer loss
I0510 09:48:50.770306 128886 net.cpp:406] loss <- fc8
I0510 09:48:50.770311 128886 net.cpp:406] loss <- label
I0510 09:48:50.770318 128886 net.cpp:380] loss -> loss
I0510 09:48:50.770330 128886 layer_factory.hpp:77] Creating layer loss
…
