…
I0509 18:49:13.014281 122290 net.cpp:294] The NetState phase (0) differed from the phase (1) specified by a rule in layer accuracy
I0509 18:49:13.014495 122290 net.cpp:51] Initializing net from parameters: 
name: "CaffeNet"
state {
  phase: TRAIN
  level: 0
  stage: ""
}
layer {
  name: "data"
  type: "Data"
  top: "data"
  top: "label"
  include {
    phase: TRAIN
  }
  transform_param {
    mirror: true
    crop_size: 227
    mean_file: "data/ilsvrc12/imagenet_mean.binaryproto"
  }
  data_param {
    source: "examples/imagenet/ilsvrc12_train_lmdb"
    batch_size: 256
    backend: LMDB
  }
}
layer {
  name: "conv1"
  type: "Convolution"
  bottom: "data"
  top: "conv1"
  param {
    lr_mult: 1
    decay_mult: 1
  }
  param {
    lr_mult: 2
    decay_mult: 0
  }
  convolution_param {
    num_output: 96
    kernel_size: 11
    stride: 4
    weight_filler {
      type: "gaussian"
      std: 0.01
    }
    bias_filler {
      type: "constant"
      value: 0
    }
  }
}
layer {
  name: "relu1"
  type: "ReLU"
  bottom: "conv1"
  top: "conv1"
}
layer {
  name: "pool1"
  type: "Pooling"
  bottom: "conv1"
  top: "pool1"
  pooling_param {
    pool: MAX
    kernel_size: 3
    stride: 2
  }
}
layer {
  name: "norm1"
  type: "LRN"
  bottom: "pool1"
  top: "norm1"
  lrn_param {
    local_size: 5
    alpha: 0.0001
    beta: 0.75
  }
}
layer {
  name: "conv2"
  type: "Convolution"
  bottom: "norm1"
  top: "conv2"
  param {
    lr_mult: 1
    decay_mult: 1
  }
  param {
    lr_mult: 2
    decay_mult: 0
  }
  convolution_param {
    num_output: 256
    pad: 2
    kernel_size: 5
    group: 2
    weight_filler {
      type: "gaussian"
      std: 0.01
    }
    bias_filler {
      type: "constant"
      value: 1
    }
  }
}
layer {
  name: "relu2"
  type: "ReLU"
  bottom: "conv2"
  top: "conv2"
}
layer {
  name: "pool2"
  type: "Pooling"
  bottom: "conv2"
  top: "pool2"
  pooling_param {
    pool: MAX
    kernel_size: 3
    stride: 2
  }
}
layer {
  name: "norm2"
  type: "LRN"
  bottom: "pool2"
  top: "norm2"
  lrn_param {
    local_size: 5
    alpha: 0.0001
    beta: 0.75
  }
}
layer {
  name: "conv3"
  type: "Convolution"
  bottom: "norm2"
  top: "conv3"
  param {
    lr_mult: 1
    decay_mult: 1
  }
  param {
    lr_mult: 2
    decay_mult: 0
  }
  convolution_param {
    num_output: 384
    pad: 1
    kernel_size: 3
    weight_filler {
      type: "gaussian"
      std: 0.01
    }
    bias_filler {
      type: "constant"
      value: 0
    }
  }
}
layer {
  name: "relu3"
  type: "ReLU"
  bottom: "conv3"
  top: "conv3"
}
layer {
  name: "conv4"
  type: "Convolution"
  bottom: "conv3"
  top: "conv4"
  param {
    lr_mult: 1
    decay_mult: 1
  }
  param {
    lr_mult: 2
    decay_mult: 0
  }
  convolution_param {
    num_output: 384
    pad: 1
    kernel_size: 3
    group: 2
    weight_filler {
      type: "gaussian"
      std: 0.01
    }
    bias_filler {
      type: "constant"
      value: 1
    }
  }
}
layer {
  name: "relu4"
  type: "ReLU"
  bottom: "conv4"
  top: "conv4"
}
layer {
  name: "conv5"
  type: "Convolution"
  bottom: "conv4"
  top: "conv5"
  param {
    lr_mult: 1
    decay_mult: 1
  }
  param {
    lr_mult: 2
    decay_mult: 0
  }
  convolution_param {
    num_output: 256
    pad: 1
    kernel_size: 3
    group: 2
    weight_filler {
      type: "gaussian"
      std: 0.01
    }
    bias_filler {
      type: "constant"
      value: 1
    }
  }
}
layer {
  name: "relu5"
  type: "ReLU"
  bottom: "conv5"
  top: "conv5"
}
layer {
  name: "pool5"
  type: "Pooling"
  bottom: "conv5"
  top: "pool5"
  pooling_param {
    pool: MAX
    kernel_size: 3
    stride: 2
  }
}
layer {
  name: "fc6"
  type: "InnerProduct"
  bottom: "pool5"
  top: "fc6"
  param {
    lr_mult: 1
    decay_mult: 1
  }
  param {
    lr_mult: 2
    decay_mult: 0
  }
  inner_product_param {
    num_output: 4096
    weight_filler {
      type: "gaussian"
      std: 0.005
    }
    bias_filler {
      type: "constant"
      value: 1
    }
  }
}
layer {
  name: "relu6"
  type: "ReLU"
  bottom: "fc6"
  top: "fc6"
}
layer {
  name: "drop6"
  type: "Dropout"
  bottom: "fc6"
  top: "fc6"
  dropout_param {
    dropout_ratio: 0.5
  }
}
layer {
  name: "fc7"
  type: "InnerProduct"
  bottom: "fc6"
  top: "fc7"
  param {
    lr_mult: 1
    decay_mult: 1
  }
  param {
    lr_mult: 2
    decay_mult: 0
  }
  inner_product_param {
    num_output: 4096
    weight_filler {
      type: "gaussian"
      std: 0.005
    }
    bias_filler {
      type: "constant"
      value: 1
    }
  }
}
layer {
  name: "relu7"
  type: "ReLU"
  bottom: "fc7"
  top: "fc7"
}
layer {
  name: "drop7"
  type: "Dropout"
  bottom: "fc7"
  top: "fc7"
  dropout_param {
    dropout_ratio: 0.5
  }
}
layer {
  name: "fc8"
  type: "InnerProduct"
  bottom: "fc7"
  top: "fc8"
  param {
    lr_mult: 1
    decay_mult: 1
  }
  param {
    lr_mult: 2
    decay_mult: 0
  }
  inner_product_param {
    num_output: 1000
    weight_filler {
      type: "gaussian"
      std: 0.01
    }
    bias_filler {
      type: "constant"
      value: 0
    }
  }
}
layer {
  name: "loss"
  type: "SoftmaxWithLoss"
  bottom: "fc8"
  bottom: "label"
  top: "loss"
}
I0509 18:49:13.014618 122290 layer_factory.hpp:77] Creating layer data
I0509 18:49:13.014714 122290 db_lmdb.cpp:35] Opened lmdb examples/imagenet/ilsvrc12_train_lmdb
I0509 18:49:13.014744 122290 net.cpp:84] Creating Layer data
I0509 18:49:13.014755 122290 net.cpp:380] data -> data
I0509 18:49:13.014778 122290 net.cpp:380] data -> label
I0509 18:49:13.014792 122290 data_transformer.cpp:25] Loading mean file from: data/ilsvrc12/imagenet_mean.binaryproto
I0509 18:49:13.017712 122290 data_layer.cpp:45] output data size: 256,3,227,227
I0509 18:49:13.017789 122290 net.cpp:122] Setting up data
I0509 18:49:13.017802 122290 net.cpp:129] Top shape: 256 3 227 227 (39574272)
I0509 18:49:13.017809 122290 net.cpp:129] Top shape: 256 (256)
I0509 18:49:13.017814 122290 net.cpp:137] Memory required for data: 158298112
I0509 18:49:13.017822 122290 layer_factory.hpp:77] Creating layer conv1
I0509 18:49:13.017839 122290 net.cpp:84] Creating Layer conv1
I0509 18:49:13.017846 122290 net.cpp:406] conv1 <- data
I0509 18:49:13.017859 122290 net.cpp:380] conv1 -> conv1
I0509 18:49:13.017877 122290 base_conv_layer.cpp:121] Group is 1channel is3number of output is 96
I0509 18:49:13.018415 122290 net.cpp:122] Setting up conv1
I0509 18:49:13.018425 122290 net.cpp:129] Top shape: 256 96 55 55 (74342400)
I0509 18:49:13.018430 122290 net.cpp:137] Memory required for data: 455667712
I0509 18:49:13.018450 122290 layer_factory.hpp:77] Creating layer relu1
I0509 18:49:13.018458 122290 net.cpp:84] Creating Layer relu1
I0509 18:49:13.018463 122290 net.cpp:406] relu1 <- conv1
I0509 18:49:13.018471 122290 net.cpp:367] relu1 -> conv1 (in-place)
I0509 18:49:13.018481 122290 net.cpp:122] Setting up relu1
I0509 18:49:13.018486 122290 net.cpp:129] Top shape: 256 96 55 55 (74342400)
I0509 18:49:13.018491 122290 net.cpp:137] Memory required for data: 753037312
I0509 18:49:13.018496 122290 layer_factory.hpp:77] Creating layer pool1
I0509 18:49:13.018503 122290 net.cpp:84] Creating Layer pool1
I0509 18:49:13.018508 122290 net.cpp:406] pool1 <- conv1
I0509 18:49:13.018514 122290 net.cpp:380] pool1 -> pool1
I0509 18:49:13.018529 122290 net.cpp:122] Setting up pool1
I0509 18:49:13.018537 122290 net.cpp:129] Top shape: 256 96 27 27 (17915904)
I0509 18:49:13.018543 122290 net.cpp:137] Memory required for data: 824700928
I0509 18:49:13.018546 122290 layer_factory.hpp:77] Creating layer norm1
I0509 18:49:13.018560 122290 net.cpp:84] Creating Layer norm1
I0509 18:49:13.018574 122290 net.cpp:406] norm1 <- pool1
I0509 18:49:13.018581 122290 net.cpp:380] norm1 -> norm1
I0509 18:49:13.018592 122290 net.cpp:122] Setting up norm1
I0509 18:49:13.018599 122290 net.cpp:129] Top shape: 256 96 27 27 (17915904)
I0509 18:49:13.018605 122290 net.cpp:137] Memory required for data: 896364544
I0509 18:49:13.018610 122290 layer_factory.hpp:77] Creating layer conv2
I0509 18:49:13.018618 122290 net.cpp:84] Creating Layer conv2
I0509 18:49:13.018623 122290 net.cpp:406] conv2 <- norm1
I0509 18:49:13.018631 122290 net.cpp:380] conv2 -> conv2
I0509 18:49:13.018642 122290 base_conv_layer.cpp:121] Group is 2channel is96number of output is 256
I0509 18:49:13.023457 122290 net.cpp:122] Setting up conv2
I0509 18:49:13.023468 122290 net.cpp:129] Top shape: 256 256 27 27 (47775744)
I0509 18:49:13.023473 122290 net.cpp:137] Memory required for data: 1087467520
I0509 18:49:13.023483 122290 layer_factory.hpp:77] Creating layer relu2
I0509 18:49:13.023490 122290 net.cpp:84] Creating Layer relu2
I0509 18:49:13.023495 122290 net.cpp:406] relu2 <- conv2
I0509 18:49:13.023502 122290 net.cpp:367] relu2 -> conv2 (in-place)
I0509 18:49:13.023509 122290 net.cpp:122] Setting up relu2
I0509 18:49:13.023516 122290 net.cpp:129] Top shape: 256 256 27 27 (47775744)
I0509 18:49:13.023520 122290 net.cpp:137] Memory required for data: 1278570496
I0509 18:49:13.023525 122290 layer_factory.hpp:77] Creating layer pool2
I0509 18:49:13.023532 122290 net.cpp:84] Creating Layer pool2
I0509 18:49:13.023536 122290 net.cpp:406] pool2 <- conv2
I0509 18:49:13.023542 122290 net.cpp:380] pool2 -> pool2
I0509 18:49:13.023552 122290 net.cpp:122] Setting up pool2
I0509 18:49:13.023560 122290 net.cpp:129] Top shape: 256 256 13 13 (11075584)
I0509 18:49:13.023563 122290 net.cpp:137] Memory required for data: 1322872832
I0509 18:49:13.023567 122290 layer_factory.hpp:77] Creating layer norm2
I0509 18:49:13.023576 122290 net.cpp:84] Creating Layer norm2
I0509 18:49:13.023581 122290 net.cpp:406] norm2 <- pool2
I0509 18:49:13.023587 122290 net.cpp:380] norm2 -> norm2
I0509 18:49:13.023596 122290 net.cpp:122] Setting up norm2
I0509 18:49:13.023602 122290 net.cpp:129] Top shape: 256 256 13 13 (11075584)
I0509 18:49:13.023607 122290 net.cpp:137] Memory required for data: 1367175168
I0509 18:49:13.023612 122290 layer_factory.hpp:77] Creating layer conv3
I0509 18:49:13.023620 122290 net.cpp:84] Creating Layer conv3
I0509 18:49:13.023625 122290 net.cpp:406] conv3 <- norm2
I0509 18:49:13.023633 122290 net.cpp:380] conv3 -> conv3
I0509 18:49:13.023644 122290 base_conv_layer.cpp:121] Group is 1channel is256number of output is 384
I0509 18:49:13.036326 122290 net.cpp:122] Setting up conv3
I0509 18:49:13.036342 122290 net.cpp:129] Top shape: 256 384 13 13 (16613376)
I0509 18:49:13.036347 122290 net.cpp:137] Memory required for data: 1433628672
I0509 18:49:13.036357 122290 layer_factory.hpp:77] Creating layer relu3
I0509 18:49:13.036365 122290 net.cpp:84] Creating Layer relu3
I0509 18:49:13.036370 122290 net.cpp:406] relu3 <- conv3
I0509 18:49:13.036375 122290 net.cpp:367] relu3 -> conv3 (in-place)
I0509 18:49:13.036382 122290 net.cpp:122] Setting up relu3
I0509 18:49:13.036387 122290 net.cpp:129] Top shape: 256 384 13 13 (16613376)
I0509 18:49:13.036392 122290 net.cpp:137] Memory required for data: 1500082176
I0509 18:49:13.036396 122290 layer_factory.hpp:77] Creating layer conv4
I0509 18:49:13.036404 122290 net.cpp:84] Creating Layer conv4
I0509 18:49:13.036409 122290 net.cpp:406] conv4 <- conv3
I0509 18:49:13.036417 122290 net.cpp:380] conv4 -> conv4
I0509 18:49:13.036427 122290 base_conv_layer.cpp:121] Group is 2channel is384number of output is 384
I0509 18:49:13.045826 122290 net.cpp:122] Setting up conv4
I0509 18:49:13.045836 122290 net.cpp:129] Top shape: 256 384 13 13 (16613376)
I0509 18:49:13.045841 122290 net.cpp:137] Memory required for data: 1566535680
I0509 18:49:13.045848 122290 layer_factory.hpp:77] Creating layer relu4
I0509 18:49:13.045855 122290 net.cpp:84] Creating Layer relu4
I0509 18:49:13.045866 122290 net.cpp:406] relu4 <- conv4
I0509 18:49:13.045881 122290 net.cpp:367] relu4 -> conv4 (in-place)
I0509 18:49:13.045887 122290 net.cpp:122] Setting up relu4
I0509 18:49:13.045892 122290 net.cpp:129] Top shape: 256 384 13 13 (16613376)
I0509 18:49:13.045897 122290 net.cpp:137] Memory required for data: 1632989184
I0509 18:49:13.045902 122290 layer_factory.hpp:77] Creating layer conv5
I0509 18:49:13.045910 122290 net.cpp:84] Creating Layer conv5
I0509 18:49:13.045914 122290 net.cpp:406] conv5 <- conv4
I0509 18:49:13.045922 122290 net.cpp:380] conv5 -> conv5
I0509 18:49:13.045931 122290 base_conv_layer.cpp:121] Group is 2channel is384number of output is 256
I0509 18:49:13.052011 122290 net.cpp:122] Setting up conv5
I0509 18:49:13.052021 122290 net.cpp:129] Top shape: 256 256 13 13 (11075584)
I0509 18:49:13.052024 122290 net.cpp:137] Memory required for data: 1677291520
I0509 18:49:13.052038 122290 layer_factory.hpp:77] Creating layer relu5
I0509 18:49:13.052044 122290 net.cpp:84] Creating Layer relu5
I0509 18:49:13.052048 122290 net.cpp:406] relu5 <- conv5
I0509 18:49:13.052054 122290 net.cpp:367] relu5 -> conv5 (in-place)
I0509 18:49:13.052062 122290 net.cpp:122] Setting up relu5
I0509 18:49:13.052067 122290 net.cpp:129] Top shape: 256 256 13 13 (11075584)
I0509 18:49:13.052070 122290 net.cpp:137] Memory required for data: 1721593856
I0509 18:49:13.052074 122290 layer_factory.hpp:77] Creating layer pool5
I0509 18:49:13.052081 122290 net.cpp:84] Creating Layer pool5
I0509 18:49:13.052085 122290 net.cpp:406] pool5 <- conv5
I0509 18:49:13.052090 122290 net.cpp:380] pool5 -> pool5
I0509 18:49:13.052099 122290 net.cpp:122] Setting up pool5
I0509 18:49:13.052106 122290 net.cpp:129] Top shape: 256 256 6 6 (2359296)
I0509 18:49:13.052110 122290 net.cpp:137] Memory required for data: 1731031040
I0509 18:49:13.052114 122290 layer_factory.hpp:77] Creating layer fc6
I0509 18:49:13.052124 122290 net.cpp:84] Creating Layer fc6
I0509 18:49:13.052129 122290 net.cpp:406] fc6 <- pool5
I0509 18:49:13.052134 122290 net.cpp:380] fc6 -> fc6
#           time             counts unit events
     0.100394194             92,844      LLC-load-misses          
     0.100394194            775,976      LLC-loads                
     0.200607429            275,403      LLC-load-misses          
     0.200607429            572,134      LLC-loads                
     0.300798955            385,389      LLC-load-misses          
     0.300798955            886,297      LLC-loads                
     0.400983396            384,358      LLC-load-misses          
     0.400983396            873,276      LLC-loads                
I0509 18:49:13.402675 122290 net.cpp:122] Setting up fc6
I0509 18:49:13.402694 122290 net.cpp:129] Top shape: 256 4096 (1048576)
I0509 18:49:13.402698 122290 net.cpp:137] Memory required for data: 1735225344
I0509 18:49:13.402706 122290 layer_factory.hpp:77] Creating layer relu6
I0509 18:49:13.402714 122290 net.cpp:84] Creating Layer relu6
I0509 18:49:13.402717 122290 net.cpp:406] relu6 <- fc6
I0509 18:49:13.402724 122290 net.cpp:367] relu6 -> fc6 (in-place)
I0509 18:49:13.402730 122290 net.cpp:122] Setting up relu6
I0509 18:49:13.402734 122290 net.cpp:129] Top shape: 256 4096 (1048576)
I0509 18:49:13.402737 122290 net.cpp:137] Memory required for data: 1739419648
I0509 18:49:13.402740 122290 layer_factory.hpp:77] Creating layer drop6
I0509 18:49:13.402746 122290 net.cpp:84] Creating Layer drop6
I0509 18:49:13.402750 122290 net.cpp:406] drop6 <- fc6
I0509 18:49:13.402752 122290 net.cpp:367] drop6 -> fc6 (in-place)
I0509 18:49:13.402763 122290 net.cpp:122] Setting up drop6
I0509 18:49:13.402767 122290 net.cpp:129] Top shape: 256 4096 (1048576)
I0509 18:49:13.402770 122290 net.cpp:137] Memory required for data: 1743613952
I0509 18:49:13.402772 122290 layer_factory.hpp:77] Creating layer fc7
I0509 18:49:13.402779 122290 net.cpp:84] Creating Layer fc7
I0509 18:49:13.402782 122290 net.cpp:406] fc7 <- fc6
I0509 18:49:13.402787 122290 net.cpp:380] fc7 -> fc7
     0.501169358            387,064      LLC-load-misses          
     0.501169358            879,884      LLC-loads                
I0509 18:49:13.556556 122290 net.cpp:122] Setting up fc7
I0509 18:49:13.556578 122290 net.cpp:129] Top shape: 256 4096 (1048576)
I0509 18:49:13.556581 122290 net.cpp:137] Memory required for data: 1747808256
I0509 18:49:13.556589 122290 layer_factory.hpp:77] Creating layer relu7
I0509 18:49:13.556597 122290 net.cpp:84] Creating Layer relu7
I0509 18:49:13.556602 122290 net.cpp:406] relu7 <- fc7
I0509 18:49:13.556607 122290 net.cpp:367] relu7 -> fc7 (in-place)
I0509 18:49:13.556614 122290 net.cpp:122] Setting up relu7
I0509 18:49:13.556618 122290 net.cpp:129] Top shape: 256 4096 (1048576)
I0509 18:49:13.556622 122290 net.cpp:137] Memory required for data: 1752002560
I0509 18:49:13.556638 122290 layer_factory.hpp:77] Creating layer drop7
I0509 18:49:13.556643 122290 net.cpp:84] Creating Layer drop7
I0509 18:49:13.556646 122290 net.cpp:406] drop7 <- fc7
I0509 18:49:13.556650 122290 net.cpp:367] drop7 -> fc7 (in-place)
I0509 18:49:13.556656 122290 net.cpp:122] Setting up drop7
I0509 18:49:13.556660 122290 net.cpp:129] Top shape: 256 4096 (1048576)
I0509 18:49:13.556663 122290 net.cpp:137] Memory required for data: 1756196864
I0509 18:49:13.556666 122290 layer_factory.hpp:77] Creating layer fc8
I0509 18:49:13.556674 122290 net.cpp:84] Creating Layer fc8
I0509 18:49:13.556675 122290 net.cpp:406] fc8 <- fc7
I0509 18:49:13.556680 122290 net.cpp:380] fc8 -> fc8
     0.601367013                881      LLC-load-misses          
     0.601367013              2,921      LLC-loads                
I0509 18:49:13.594455 122290 net.cpp:122] Setting up fc8
I0509 18:49:13.594466 122290 net.cpp:129] Top shape: 256 1000 (256000)
I0509 18:49:13.594470 122290 net.cpp:137] Memory required for data: 1757220864
I0509 18:49:13.594475 122290 layer_factory.hpp:77] Creating layer loss
I0509 18:49:13.594482 122290 net.cpp:84] Creating Layer loss
I0509 18:49:13.594485 122290 net.cpp:406] loss <- fc8
I0509 18:49:13.594490 122290 net.cpp:406] loss <- label
I0509 18:49:13.594496 122290 net.cpp:380] loss -> loss
I0509 18:49:13.594509 122290 layer_factory.hpp:77] Creating layer loss
…
