…
I0509 17:52:08.051573 121801 net.cpp:294] The NetState phase (0) differed from the phase (1) specified by a rule in layer accuracy
I0509 17:52:08.051818 121801 net.cpp:51] Initializing net from parameters: 
name: "CaffeNet"
state {
  phase: TRAIN
  level: 0
  stage: ""
}
layer {
  name: "data"
  type: "Data"
  top: "data"
  top: "label"
  include {
    phase: TRAIN
  }
  transform_param {
    mirror: true
    crop_size: 227
    mean_file: "data/ilsvrc12/imagenet_mean.binaryproto"
  }
  data_param {
    source: "examples/imagenet/ilsvrc12_train_lmdb"
    batch_size: 256
    backend: LMDB
  }
}
layer {
  name: "conv1"
  type: "Convolution"
  bottom: "data"
  top: "conv1"
  param {
    lr_mult: 1
    decay_mult: 1
  }
  param {
    lr_mult: 2
    decay_mult: 0
  }
  convolution_param {
    num_output: 96
    kernel_size: 11
    stride: 4
    weight_filler {
      type: "gaussian"
      std: 0.01
    }
    bias_filler {
      type: "constant"
      value: 0
    }
  }
}
layer {
  name: "relu1"
  type: "ReLU"
  bottom: "conv1"
  top: "conv1"
}
layer {
  name: "pool1"
  type: "Pooling"
  bottom: "conv1"
  top: "pool1"
  pooling_param {
    pool: MAX
    kernel_size: 3
    stride: 2
  }
}
layer {
  name: "norm1"
  type: "LRN"
  bottom: "pool1"
  top: "norm1"
  lrn_param {
    local_size: 5
    alpha: 0.0001
    beta: 0.75
  }
}
layer {
  name: "conv2"
  type: "Convolution"
  bottom: "norm1"
  top: "conv2"
  param {
    lr_mult: 1
    decay_mult: 1
  }
  param {
    lr_mult: 2
    decay_mult: 0
  }
  convolution_param {
    num_output: 256
    pad: 2
    kernel_size: 5
    group: 2
    weight_filler {
      type: "gaussian"
      std: 0.01
    }
    bias_filler {
      type: "constant"
      value: 1
    }
  }
}
layer {
  name: "relu2"
  type: "ReLU"
  bottom: "conv2"
  top: "conv2"
}
layer {
  name: "pool2"
  type: "Pooling"
  bottom: "conv2"
  top: "pool2"
  pooling_param {
    pool: MAX
    kernel_size: 3
    stride: 2
  }
}
layer {
  name: "norm2"
  type: "LRN"
  bottom: "pool2"
  top: "norm2"
  lrn_param {
    local_size: 5
    alpha: 0.0001
    beta: 0.75
  }
}
layer {
  name: "conv3"
  type: "Convolution"
  bottom: "norm2"
  top: "conv3"
  param {
    lr_mult: 1
    decay_mult: 1
  }
  param {
    lr_mult: 2
    decay_mult: 0
  }
  convolution_param {
    num_output: 384
    pad: 1
    kernel_size: 3
    weight_filler {
      type: "gaussian"
      std: 0.01
    }
    bias_filler {
      type: "constant"
      value: 0
    }
  }
}
layer {
  name: "relu3"
  type: "ReLU"
  bottom: "conv3"
  top: "conv3"
}
layer {
  name: "conv4"
  type: "Convolution"
  bottom: "conv3"
  top: "conv4"
  param {
    lr_mult: 1
    decay_mult: 1
  }
  param {
    lr_mult: 2
    decay_mult: 0
  }
  convolution_param {
    num_output: 384
    pad: 1
    kernel_size: 3
    group: 2
    weight_filler {
      type: "gaussian"
      std: 0.01
    }
    bias_filler {
      type: "constant"
      value: 1
    }
  }
}
layer {
  name: "relu4"
  type: "ReLU"
  bottom: "conv4"
  top: "conv4"
}
layer {
  name: "conv5"
  type: "Convolution"
  bottom: "conv4"
  top: "conv5"
  param {
    lr_mult: 1
    decay_mult: 1
  }
  param {
    lr_mult: 2
    decay_mult: 0
  }
  convolution_param {
    num_output: 256
    pad: 1
    kernel_size: 3
    group: 2
    weight_filler {
      type: "gaussian"
      std: 0.01
    }
    bias_filler {
      type: "constant"
      value: 1
    }
  }
}
layer {
  name: "relu5"
  type: "ReLU"
  bottom: "conv5"
  top: "conv5"
}
layer {
  name: "pool5"
  type: "Pooling"
  bottom: "conv5"
  top: "pool5"
  pooling_param {
    pool: MAX
    kernel_size: 3
    stride: 2
  }
}
layer {
  name: "fc6"
  type: "InnerProduct"
  bottom: "pool5"
  top: "fc6"
  param {
    lr_mult: 1
    decay_mult: 1
  }
  param {
    lr_mult: 2
    decay_mult: 0
  }
  inner_product_param {
    num_output: 4096
    weight_filler {
      type: "gaussian"
      std: 0.005
    }
    bias_filler {
      type: "constant"
      value: 1
    }
  }
}
layer {
  name: "relu6"
  type: "ReLU"
  bottom: "fc6"
  top: "fc6"
}
layer {
  name: "drop6"
  type: "Dropout"
  bottom: "fc6"
  top: "fc6"
  dropout_param {
    dropout_ratio: 0.5
  }
}
layer {
  name: "fc7"
  type: "InnerProduct"
  bottom: "fc6"
  top: "fc7"
  param {
    lr_mult: 1
    decay_mult: 1
  }
  param {
    lr_mult: 2
    decay_mult: 0
  }
  inner_product_param {
    num_output: 4096
    weight_filler {
      type: "gaussian"
      std: 0.005
    }
    bias_filler {
      type: "constant"
      value: 1
    }
  }
}
layer {
  name: "relu7"
  type: "ReLU"
  bottom: "fc7"
  top: "fc7"
}
layer {
  name: "drop7"
  type: "Dropout"
  bottom: "fc7"
  top: "fc7"
  dropout_param {
    dropout_ratio: 0.5
  }
}
layer {
  name: "fc8"
  type: "InnerProduct"
  bottom: "fc7"
  top: "fc8"
  param {
    lr_mult: 1
    decay_mult: 1
  }
  param {
    lr_mult: 2
    decay_mult: 0
  }
  inner_product_param {
    num_output: 1000
    weight_filler {
      type: "gaussian"
      std: 0.01
    }
    bias_filler {
      type: "constant"
      value: 0
    }
  }
}
layer {
  name: "loss"
  type: "SoftmaxWithLoss"
  bottom: "fc8"
  bottom: "label"
  top: "loss"
}
I0509 17:52:08.051952 121801 layer_factory.hpp:77] Creating layer data
I0509 17:52:08.052073 121801 db_lmdb.cpp:35] Opened lmdb examples/imagenet/ilsvrc12_train_lmdb
I0509 17:52:08.052109 121801 net.cpp:84] Creating Layer data
I0509 17:52:08.052122 121801 net.cpp:380] data -> data
I0509 17:52:08.052147 121801 net.cpp:380] data -> label
I0509 17:52:08.052163 121801 data_transformer.cpp:25] Loading mean file from: data/ilsvrc12/imagenet_mean.binaryproto
I0509 17:52:08.055408 121801 data_layer.cpp:45] output data size: 256,3,227,227
I0509 17:52:08.055490 121801 net.cpp:122] Setting up data
I0509 17:52:08.055505 121801 net.cpp:129] Top shape: 256 3 227 227 (39574272)
I0509 17:52:08.055511 121801 net.cpp:129] Top shape: 256 (256)
I0509 17:52:08.055516 121801 net.cpp:137] Memory required for data: 158298112
I0509 17:52:08.055526 121801 layer_factory.hpp:77] Creating layer conv1
I0509 17:52:08.055546 121801 net.cpp:84] Creating Layer conv1
I0509 17:52:08.055553 121801 net.cpp:406] conv1 <- data
I0509 17:52:08.055568 121801 net.cpp:380] conv1 -> conv1
I0509 17:52:08.055589 121801 base_conv_layer.cpp:121] Group is 1channel is3number of output is 96
I0509 17:52:08.056219 121801 net.cpp:122] Setting up conv1
I0509 17:52:08.056231 121801 net.cpp:129] Top shape: 256 96 55 55 (74342400)
I0509 17:52:08.056236 121801 net.cpp:137] Memory required for data: 455667712
I0509 17:52:08.056257 121801 layer_factory.hpp:77] Creating layer relu1
I0509 17:52:08.056267 121801 net.cpp:84] Creating Layer relu1
I0509 17:52:08.056272 121801 net.cpp:406] relu1 <- conv1
I0509 17:52:08.056279 121801 net.cpp:367] relu1 -> conv1 (in-place)
I0509 17:52:08.056289 121801 net.cpp:122] Setting up relu1
I0509 17:52:08.056296 121801 net.cpp:129] Top shape: 256 96 55 55 (74342400)
I0509 17:52:08.056300 121801 net.cpp:137] Memory required for data: 753037312
I0509 17:52:08.056305 121801 layer_factory.hpp:77] Creating layer pool1
I0509 17:52:08.056313 121801 net.cpp:84] Creating Layer pool1
I0509 17:52:08.056318 121801 net.cpp:406] pool1 <- conv1
I0509 17:52:08.056324 121801 net.cpp:380] pool1 -> pool1
I0509 17:52:08.056340 121801 net.cpp:122] Setting up pool1
I0509 17:52:08.056349 121801 net.cpp:129] Top shape: 256 96 27 27 (17915904)
I0509 17:52:08.056354 121801 net.cpp:137] Memory required for data: 824700928
I0509 17:52:08.056357 121801 layer_factory.hpp:77] Creating layer norm1
I0509 17:52:08.056372 121801 net.cpp:84] Creating Layer norm1
I0509 17:52:08.056386 121801 net.cpp:406] norm1 <- pool1
I0509 17:52:08.056393 121801 net.cpp:380] norm1 -> norm1
I0509 17:52:08.056406 121801 net.cpp:122] Setting up norm1
I0509 17:52:08.056413 121801 net.cpp:129] Top shape: 256 96 27 27 (17915904)
I0509 17:52:08.056418 121801 net.cpp:137] Memory required for data: 896364544
I0509 17:52:08.056423 121801 layer_factory.hpp:77] Creating layer conv2
I0509 17:52:08.056433 121801 net.cpp:84] Creating Layer conv2
I0509 17:52:08.056437 121801 net.cpp:406] conv2 <- norm1
I0509 17:52:08.056447 121801 net.cpp:380] conv2 -> conv2
I0509 17:52:08.056458 121801 base_conv_layer.cpp:121] Group is 2channel is96number of output is 256
I0509 17:52:08.061560 121801 net.cpp:122] Setting up conv2
I0509 17:52:08.061571 121801 net.cpp:129] Top shape: 256 256 27 27 (47775744)
I0509 17:52:08.061578 121801 net.cpp:137] Memory required for data: 1087467520
I0509 17:52:08.061589 121801 layer_factory.hpp:77] Creating layer relu2
I0509 17:52:08.061596 121801 net.cpp:84] Creating Layer relu2
I0509 17:52:08.061601 121801 net.cpp:406] relu2 <- conv2
I0509 17:52:08.061609 121801 net.cpp:367] relu2 -> conv2 (in-place)
I0509 17:52:08.061616 121801 net.cpp:122] Setting up relu2
I0509 17:52:08.061624 121801 net.cpp:129] Top shape: 256 256 27 27 (47775744)
I0509 17:52:08.061627 121801 net.cpp:137] Memory required for data: 1278570496
I0509 17:52:08.061633 121801 layer_factory.hpp:77] Creating layer pool2
I0509 17:52:08.061640 121801 net.cpp:84] Creating Layer pool2
I0509 17:52:08.061643 121801 net.cpp:406] pool2 <- conv2
I0509 17:52:08.061650 121801 net.cpp:380] pool2 -> pool2
I0509 17:52:08.061661 121801 net.cpp:122] Setting up pool2
I0509 17:52:08.061667 121801 net.cpp:129] Top shape: 256 256 13 13 (11075584)
I0509 17:52:08.061672 121801 net.cpp:137] Memory required for data: 1322872832
I0509 17:52:08.061676 121801 layer_factory.hpp:77] Creating layer norm2
I0509 17:52:08.061686 121801 net.cpp:84] Creating Layer norm2
I0509 17:52:08.061691 121801 net.cpp:406] norm2 <- pool2
I0509 17:52:08.061697 121801 net.cpp:380] norm2 -> norm2
I0509 17:52:08.061705 121801 net.cpp:122] Setting up norm2
I0509 17:52:08.061712 121801 net.cpp:129] Top shape: 256 256 13 13 (11075584)
I0509 17:52:08.061719 121801 net.cpp:137] Memory required for data: 1367175168
I0509 17:52:08.061723 121801 layer_factory.hpp:77] Creating layer conv3
I0509 17:52:08.061733 121801 net.cpp:84] Creating Layer conv3
I0509 17:52:08.061739 121801 net.cpp:406] conv3 <- norm2
I0509 17:52:08.061746 121801 net.cpp:380] conv3 -> conv3
I0509 17:52:08.061758 121801 base_conv_layer.cpp:121] Group is 1channel is256number of output is 384
I0509 17:52:08.075422 121801 net.cpp:122] Setting up conv3
I0509 17:52:08.075438 121801 net.cpp:129] Top shape: 256 384 13 13 (16613376)
I0509 17:52:08.075443 121801 net.cpp:137] Memory required for data: 1433628672
I0509 17:52:08.075454 121801 layer_factory.hpp:77] Creating layer relu3
I0509 17:52:08.075461 121801 net.cpp:84] Creating Layer relu3
I0509 17:52:08.075467 121801 net.cpp:406] relu3 <- conv3
I0509 17:52:08.075474 121801 net.cpp:367] relu3 -> conv3 (in-place)
I0509 17:52:08.075481 121801 net.cpp:122] Setting up relu3
I0509 17:52:08.075489 121801 net.cpp:129] Top shape: 256 384 13 13 (16613376)
I0509 17:52:08.075494 121801 net.cpp:137] Memory required for data: 1500082176
I0509 17:52:08.075497 121801 layer_factory.hpp:77] Creating layer conv4
I0509 17:52:08.075507 121801 net.cpp:84] Creating Layer conv4
I0509 17:52:08.075511 121801 net.cpp:406] conv4 <- conv3
I0509 17:52:08.075520 121801 net.cpp:380] conv4 -> conv4
I0509 17:52:08.075531 121801 base_conv_layer.cpp:121] Group is 2channel is384number of output is 384
I0509 17:52:08.085640 121801 net.cpp:122] Setting up conv4
I0509 17:52:08.085652 121801 net.cpp:129] Top shape: 256 384 13 13 (16613376)
I0509 17:52:08.085657 121801 net.cpp:137] Memory required for data: 1566535680
I0509 17:52:08.085664 121801 layer_factory.hpp:77] Creating layer relu4
I0509 17:52:08.085671 121801 net.cpp:84] Creating Layer relu4
I0509 17:52:08.085681 121801 net.cpp:406] relu4 <- conv4
I0509 17:52:08.085698 121801 net.cpp:367] relu4 -> conv4 (in-place)
I0509 17:52:08.085705 121801 net.cpp:122] Setting up relu4
I0509 17:52:08.085711 121801 net.cpp:129] Top shape: 256 384 13 13 (16613376)
I0509 17:52:08.085716 121801 net.cpp:137] Memory required for data: 1632989184
I0509 17:52:08.085721 121801 layer_factory.hpp:77] Creating layer conv5
I0509 17:52:08.085731 121801 net.cpp:84] Creating Layer conv5
I0509 17:52:08.085734 121801 net.cpp:406] conv5 <- conv4
I0509 17:52:08.085741 121801 net.cpp:380] conv5 -> conv5
I0509 17:52:08.085752 121801 base_conv_layer.cpp:121] Group is 2channel is384number of output is 256
#           time             counts unit events
     0.100400604        393,969,816      instructions:u           
     0.100400604        167,208,875      cycles:u                 
I0509 17:52:08.092342 121801 net.cpp:122] Setting up conv5
I0509 17:52:08.092353 121801 net.cpp:129] Top shape: 256 256 13 13 (11075584)
I0509 17:52:08.092358 121801 net.cpp:137] Memory required for data: 1677291520
I0509 17:52:08.092370 121801 layer_factory.hpp:77] Creating layer relu5
I0509 17:52:08.092376 121801 net.cpp:84] Creating Layer relu5
I0509 17:52:08.092381 121801 net.cpp:406] relu5 <- conv5
I0509 17:52:08.092386 121801 net.cpp:367] relu5 -> conv5 (in-place)
I0509 17:52:08.092394 121801 net.cpp:122] Setting up relu5
I0509 17:52:08.092401 121801 net.cpp:129] Top shape: 256 256 13 13 (11075584)
I0509 17:52:08.092404 121801 net.cpp:137] Memory required for data: 1721593856
I0509 17:52:08.092408 121801 layer_factory.hpp:77] Creating layer pool5
I0509 17:52:08.092417 121801 net.cpp:84] Creating Layer pool5
I0509 17:52:08.092420 121801 net.cpp:406] pool5 <- conv5
I0509 17:52:08.092427 121801 net.cpp:380] pool5 -> pool5
I0509 17:52:08.092437 121801 net.cpp:122] Setting up pool5
I0509 17:52:08.092443 121801 net.cpp:129] Top shape: 256 256 6 6 (2359296)
I0509 17:52:08.092447 121801 net.cpp:137] Memory required for data: 1731031040
I0509 17:52:08.092452 121801 layer_factory.hpp:77] Creating layer fc6
I0509 17:52:08.092463 121801 net.cpp:84] Creating Layer fc6
I0509 17:52:08.092468 121801 net.cpp:406] fc6 <- pool5
I0509 17:52:08.092474 121801 net.cpp:380] fc6 -> fc6
     0.200599377      1,229,696,099      instructions:u           
     0.200599377        390,686,692      cycles:u                 
     0.300785362      1,442,416,168      instructions:u           
     0.300785362        456,493,616      cycles:u                 
     0.400973500      1,444,211,802      instructions:u           
     0.400973500        457,118,764      cycles:u                 
     0.501152696      1,442,603,543      instructions:u           
     0.501152696        456,537,884      cycles:u                 
I0509 17:52:08.494498 121801 net.cpp:122] Setting up fc6
I0509 17:52:08.494515 121801 net.cpp:129] Top shape: 256 4096 (1048576)
I0509 17:52:08.494520 121801 net.cpp:137] Memory required for data: 1735225344
I0509 17:52:08.494529 121801 layer_factory.hpp:77] Creating layer relu6
I0509 17:52:08.494537 121801 net.cpp:84] Creating Layer relu6
I0509 17:52:08.494541 121801 net.cpp:406] relu6 <- fc6
I0509 17:52:08.494549 121801 net.cpp:367] relu6 -> fc6 (in-place)
I0509 17:52:08.494556 121801 net.cpp:122] Setting up relu6
I0509 17:52:08.494561 121801 net.cpp:129] Top shape: 256 4096 (1048576)
I0509 17:52:08.494565 121801 net.cpp:137] Memory required for data: 1739419648
I0509 17:52:08.494568 121801 layer_factory.hpp:77] Creating layer drop6
I0509 17:52:08.494575 121801 net.cpp:84] Creating Layer drop6
I0509 17:52:08.494577 121801 net.cpp:406] drop6 <- fc6
I0509 17:52:08.494581 121801 net.cpp:367] drop6 -> fc6 (in-place)
I0509 17:52:08.494591 121801 net.cpp:122] Setting up drop6
I0509 17:52:08.494596 121801 net.cpp:129] Top shape: 256 4096 (1048576)
I0509 17:52:08.494599 121801 net.cpp:137] Memory required for data: 1743613952
I0509 17:52:08.494602 121801 layer_factory.hpp:77] Creating layer fc7
I0509 17:52:08.494611 121801 net.cpp:84] Creating Layer fc7
I0509 17:52:08.494621 121801 net.cpp:406] fc7 <- fc6
I0509 17:52:08.494627 121801 net.cpp:380] fc7 -> fc7
     0.601322838      1,044,345,337      instructions:u           
     0.601322838        343,273,366      cycles:u                 
I0509 17:52:08.667933 121801 net.cpp:122] Setting up fc7
I0509 17:52:08.667955 121801 net.cpp:129] Top shape: 256 4096 (1048576)
I0509 17:52:08.667959 121801 net.cpp:137] Memory required for data: 1747808256
I0509 17:52:08.667968 121801 layer_factory.hpp:77] Creating layer relu7
I0509 17:52:08.667975 121801 net.cpp:84] Creating Layer relu7
I0509 17:52:08.667979 121801 net.cpp:406] relu7 <- fc7
I0509 17:52:08.667986 121801 net.cpp:367] relu7 -> fc7 (in-place)
I0509 17:52:08.667994 121801 net.cpp:122] Setting up relu7
I0509 17:52:08.667999 121801 net.cpp:129] Top shape: 256 4096 (1048576)
I0509 17:52:08.668002 121801 net.cpp:137] Memory required for data: 1752002560
I0509 17:52:08.668020 121801 layer_factory.hpp:77] Creating layer drop7
I0509 17:52:08.668025 121801 net.cpp:84] Creating Layer drop7
I0509 17:52:08.668028 121801 net.cpp:406] drop7 <- fc7
I0509 17:52:08.668033 121801 net.cpp:367] drop7 -> fc7 (in-place)
I0509 17:52:08.668045 121801 net.cpp:122] Setting up drop7
I0509 17:52:08.668048 121801 net.cpp:129] Top shape: 256 4096 (1048576)
I0509 17:52:08.668051 121801 net.cpp:137] Memory required for data: 1756196864
I0509 17:52:08.668056 121801 layer_factory.hpp:77] Creating layer fc8
I0509 17:52:08.668063 121801 net.cpp:84] Creating Layer fc8
I0509 17:52:08.668066 121801 net.cpp:406] fc8 <- fc7
I0509 17:52:08.668071 121801 net.cpp:380] fc8 -> fc8
     0.701497489        709,940,229      instructions:u           
     0.701497489        250,389,986      cycles:u                 
I0509 17:52:08.709856 121801 net.cpp:122] Setting up fc8
I0509 17:52:08.709867 121801 net.cpp:129] Top shape: 256 1000 (256000)
I0509 17:52:08.709869 121801 net.cpp:137] Memory required for data: 1757220864
I0509 17:52:08.709877 121801 layer_factory.hpp:77] Creating layer loss
I0509 17:52:08.709883 121801 net.cpp:84] Creating Layer loss
I0509 17:52:08.709887 121801 net.cpp:406] loss <- fc8
I0509 17:52:08.709892 121801 net.cpp:406] loss <- label
I0509 17:52:08.709898 121801 net.cpp:380] loss -> loss
I0509 17:52:08.709913 121801 layer_factory.hpp:77] Creating layer loss
…
