…
W0429 17:11:00.551995  1602 _caffe.cpp:142] Net('examples/siamese/mnist_siamese_train_test.prototxt', 1, weights='examples/siamese/mnist_siamese_iter_1000.caffemodel')
I0429 17:11:00.553488  1602 net.cpp:294] The NetState phase (1) differed from the phase (0) specified by a rule in layer pair_data
I0429 17:11:00.553637  1602 net.cpp:51] Initializing net from parameters: 
name: "mnist_siamese_train_test"
state {
  phase: TEST
  level: 0
}
layer {
  name: "pair_data"
  type: "Data"
  top: "pair_data"
  top: "sim"
  include {
    phase: TEST
  }
  transform_param {
    scale: 0.00390625
  }
  data_param {
    source: "examples/siamese/mnist_siamese_test_leveldb"
    batch_size: 100
  }
}
layer {
  name: "slice_pair"
  type: "Slice"
  bottom: "pair_data"
  top: "data"
  top: "data_p"
  slice_param {
    slice_dim: 1
    slice_point: 1
  }
}
layer {
  name: "conv1"
  type: "Convolution"
  bottom: "data"
  top: "conv1"
  param {
    name: "conv1_w"
    lr_mult: 1
  }
  param {
    name: "conv1_b"
    lr_mult: 2
  }
  convolution_param {
    num_output: 20
    kernel_size: 5
    stride: 1
    weight_filler {
      type: "xavier"
    }
    bias_filler {
      type: "constant"
    }
  }
}
layer {
  name: "pool1"
  type: "Pooling"
  bottom: "conv1"
  top: "pool1"
  pooling_param {
    pool: MAX
    kernel_size: 2
    stride: 2
  }
}
layer {
  name: "conv2"
  type: "Convolution"
  bottom: "pool1"
  top: "conv2"
  param {
    name: "conv2_w"
    lr_mult: 1
  }
  param {
    name: "conv2_b"
    lr_mult: 2
  }
  convolution_param {
    num_output: 50
    kernel_size: 5
    stride: 1
    weight_filler {
      type: "xavier"
    }
    bias_filler {
      type: "constant"
    }
  }
}
layer {
  name: "pool2"
  type: "Pooling"
  bottom: "conv2"
  top: "pool2"
  pooling_param {
    pool: MAX
    kernel_size: 2
    stride: 2
  }
}
layer {
  name: "ip1"
  type: "InnerProduct"
  bottom: "pool2"
  top: "ip1"
  param {
    name: "ip1_w"
    lr_mult: 1
  }
  param {
    name: "ip1_b"
    lr_mult: 2
  }
  inner_product_param {
    num_output: 500
    weight_filler {
      type: "xavier"
    }
    bias_filler {
      type: "constant"
    }
  }
}
layer {
  name: "relu1"
  type: "ReLU"
  bottom: "ip1"
  top: "ip1"
}
layer {
  name: "ip2"
  type: "InnerProduct"
  bottom: "ip1"
  top: "ip2"
  param {
    name: "ip2_w"
    lr_mult: 1
  }
  param {
    name: "ip2_b"
    lr_mult: 2
  }
  inner_product_param {
    num_output: 10
    weight_filler {
      type: "xavier"
    }
    bias_filler {
      type: "constant"
    }
  }
}
layer {
  name: "feat"
  type: "InnerProduct"
  bottom: "ip2"
  top: "feat"
  param {
    name: "feat_w"
    lr_mult: 1
  }
  param {
    name: "feat_b"
    lr_mult: 2
  }
  inner_product_param {
    num_output: 2
    weight_filler {
      type: "xavier"
    }
    bias_filler {
      type: "constant"
    }
  }
}
layer {
  name: "conv1_p"
  type: "Convolution"
  bottom: "data_p"
  top: "conv1_p"
  param {
    name: "conv1_w"
    lr_mult: 1
  }
  param {
    name: "conv1_b"
    lr_mult: 2
  }
  convolution_param {
    num_output: 20
    kernel_size: 5
    stride: 1
    weight_filler {
      type: "xavier"
    }
    bias_filler {
      type: "constant"
    }
  }
}
layer {
  name: "pool1_p"
  type: "Pooling"
  bottom: "conv1_p"
  top: "pool1_p"
  pooling_param {
    pool: MAX
    kernel_size: 2
    stride: 2
  }
}
layer {
  name: "conv2_p"
  type: "Convolution"
  bottom: "pool1_p"
  top: "conv2_p"
  param {
    name: "conv2_w"
    lr_mult: 1
  }
  param {
    name: "conv2_b"
    lr_mult: 2
  }
  convolution_param {
    num_output: 50
    kernel_size: 5
    stride: 1
    weight_filler {
      type: "xavier"
    }
    bias_filler {
      type: "constant"
    }
  }
}
layer {
  name: "pool2_p"
  type: "Pooling"
  bottom: "conv2_p"
  top: "pool2_p"
  pooling_param {
    pool: MAX
    kernel_size: 2
    stride: 2
  }
}
layer {
  name: "ip1_p"
  type: "InnerProduct"
  bottom: "pool2_p"
  top: "ip1_p"
  param {
    name: "ip1_w"
    lr_mult: 1
  }
  param {
    name: "ip1_b"
    lr_mult: 2
  }
  inner_product_param {
    num_output: 500
    weight_filler {
      type: "xavier"
    }
    bias_filler {
      type: "constant"
    }
  }
}
layer {
  name: "relu1_p"
  type: "ReLU"
  bottom: "ip1_p"
  top: "ip1_p"
}
layer {
  name: "ip2_p"
  type: "InnerProduct"
  bottom: "ip1_p"
  top: "ip2_p"
  param {
    name: "ip2_w"
    lr_mult: 1
  }
  param {
    name: "ip2_b"
    lr_mult: 2
  }
  inner_product_param {
    num_output: 10
    weight_filler {
      type: "xavier"
    }
    bias_filler {
      type: "constant"
    }
  }
}
layer {
  name: "feat_p"
  type: "InnerProduct"
  bottom: "ip2_p"
  top: "feat_p"
  param {
    name: "feat_w"
    lr_mult: 1
  }
  param {
    name: "feat_b"
    lr_mult: 2
  }
  inner_product_param {
    num_output: 2
    weight_filler {
      type: "xavier"
    }
    bias_filler {
      type: "constant"
    }
  }
}
layer {
  name: "loss"
  type: "ContrastiveLoss"
  bottom: "feat"
  bottom: "feat_p"
  bottom: "sim"
  top: "loss"
  contrastive_loss_param {
    margin: 1
  }
}
I0429 17:11:00.553706  1602 layer_factory.hpp:77] Creating layer pair_data
I0429 17:11:00.554627  1602 db_leveldb.cpp:18] Opened leveldb examples/siamese/mnist_siamese_test_leveldb
I0429 17:11:00.554831  1602 net.cpp:84] Creating Layer pair_data
I0429 17:11:00.554843  1602 net.cpp:380] pair_data -> pair_data
I0429 17:11:00.554855  1602 net.cpp:380] pair_data -> sim
I0429 17:11:00.554877  1602 data_layer.cpp:45] output data size: 100,2,28,28
I0429 17:11:00.555441  1602 net.cpp:122] Setting up pair_data
I0429 17:11:00.555451  1602 net.cpp:129] Top shape: 100 2 28 28 (156800)
I0429 17:11:00.555456  1602 net.cpp:129] Top shape: 100 (100)
I0429 17:11:00.555459  1602 net.cpp:137] Memory required for data: 627600
I0429 17:11:00.555464  1602 layer_factory.hpp:77] Creating layer slice_pair
I0429 17:11:00.555471  1602 net.cpp:84] Creating Layer slice_pair
I0429 17:11:00.555476  1602 net.cpp:406] slice_pair <- pair_data
I0429 17:11:00.555481  1602 net.cpp:380] slice_pair -> data
I0429 17:11:00.555488  1602 net.cpp:380] slice_pair -> data_p
I0429 17:11:00.555497  1602 net.cpp:122] Setting up slice_pair
I0429 17:11:00.555503  1602 net.cpp:129] Top shape: 100 1 28 28 (78400)
I0429 17:11:00.555507  1602 net.cpp:129] Top shape: 100 1 28 28 (78400)
I0429 17:11:00.555510  1602 net.cpp:137] Memory required for data: 1254800
I0429 17:11:00.555513  1602 layer_factory.hpp:77] Creating layer conv1
I0429 17:11:00.555523  1602 net.cpp:84] Creating Layer conv1
I0429 17:11:00.555527  1602 net.cpp:406] conv1 <- data
I0429 17:11:00.555532  1602 net.cpp:380] conv1 -> conv1
I0429 17:11:00.555562  1602 net.cpp:122] Setting up conv1
I0429 17:11:00.555569  1602 net.cpp:129] Top shape: 100 20 24 24 (1152000)
I0429 17:11:00.555572  1602 net.cpp:137] Memory required for data: 5862800
I0429 17:11:00.555580  1602 layer_factory.hpp:77] Creating layer pool1
I0429 17:11:00.555588  1602 net.cpp:84] Creating Layer pool1
I0429 17:11:00.555593  1602 net.cpp:406] pool1 <- conv1
I0429 17:11:00.555598  1602 net.cpp:380] pool1 -> pool1
I0429 17:11:00.555605  1602 net.cpp:122] Setting up pool1
I0429 17:11:00.555610  1602 net.cpp:129] Top shape: 100 20 12 12 (288000)
I0429 17:11:00.555614  1602 net.cpp:137] Memory required for data: 7014800
I0429 17:11:00.555618  1602 layer_factory.hpp:77] Creating layer conv2
I0429 17:11:00.555627  1602 net.cpp:84] Creating Layer conv2
I0429 17:11:00.555631  1602 net.cpp:406] conv2 <- pool1
I0429 17:11:00.555637  1602 net.cpp:380] conv2 -> conv2
I0429 17:11:00.555825  1602 net.cpp:122] Setting up conv2
I0429 17:11:00.555831  1602 net.cpp:129] Top shape: 100 50 8 8 (320000)
I0429 17:11:00.555835  1602 net.cpp:137] Memory required for data: 8294800
I0429 17:11:00.555841  1602 layer_factory.hpp:77] Creating layer pool2
I0429 17:11:00.555847  1602 net.cpp:84] Creating Layer pool2
I0429 17:11:00.555852  1602 net.cpp:406] pool2 <- conv2
I0429 17:11:00.555862  1602 net.cpp:380] pool2 -> pool2
I0429 17:11:00.555871  1602 net.cpp:122] Setting up pool2
I0429 17:11:00.555876  1602 net.cpp:129] Top shape: 100 50 4 4 (80000)
I0429 17:11:00.555878  1602 net.cpp:137] Memory required for data: 8614800
I0429 17:11:00.555881  1602 layer_factory.hpp:77] Creating layer ip1
I0429 17:11:00.555888  1602 net.cpp:84] Creating Layer ip1
I0429 17:11:00.555891  1602 net.cpp:406] ip1 <- pool2
I0429 17:11:00.555898  1602 net.cpp:380] ip1 -> ip1
I0429 17:11:00.558650  1602 net.cpp:122] Setting up ip1
I0429 17:11:00.558660  1602 net.cpp:129] Top shape: 100 500 (50000)
I0429 17:11:00.558662  1602 net.cpp:137] Memory required for data: 8814800
I0429 17:11:00.558670  1602 layer_factory.hpp:77] Creating layer relu1
I0429 17:11:00.558676  1602 net.cpp:84] Creating Layer relu1
I0429 17:11:00.558681  1602 net.cpp:406] relu1 <- ip1
I0429 17:11:00.558686  1602 net.cpp:367] relu1 -> ip1 (in-place)
I0429 17:11:00.558693  1602 net.cpp:122] Setting up relu1
I0429 17:11:00.558697  1602 net.cpp:129] Top shape: 100 500 (50000)
I0429 17:11:00.558701  1602 net.cpp:137] Memory required for data: 9014800
I0429 17:11:00.558704  1602 layer_factory.hpp:77] Creating layer ip2
I0429 17:11:00.558712  1602 net.cpp:84] Creating Layer ip2
I0429 17:11:00.558715  1602 net.cpp:406] ip2 <- ip1
I0429 17:11:00.558722  1602 net.cpp:380] ip2 -> ip2
I0429 17:11:00.558765  1602 net.cpp:122] Setting up ip2
I0429 17:11:00.558770  1602 net.cpp:129] Top shape: 100 10 (1000)
I0429 17:11:00.558773  1602 net.cpp:137] Memory required for data: 9018800
I0429 17:11:00.558779  1602 layer_factory.hpp:77] Creating layer feat
I0429 17:11:00.558784  1602 net.cpp:84] Creating Layer feat
I0429 17:11:00.558787  1602 net.cpp:406] feat <- ip2
I0429 17:11:00.558794  1602 net.cpp:380] feat -> feat
I0429 17:11:00.558804  1602 net.cpp:122] Setting up feat
I0429 17:11:00.558807  1602 net.cpp:129] Top shape: 100 2 (200)
I0429 17:11:00.558810  1602 net.cpp:137] Memory required for data: 9019600
I0429 17:11:00.558817  1602 layer_factory.hpp:77] Creating layer conv1_p
I0429 17:11:00.558826  1602 net.cpp:84] Creating Layer conv1_p
I0429 17:11:00.558830  1602 net.cpp:406] conv1_p <- data_p
I0429 17:11:00.558835  1602 net.cpp:380] conv1_p -> conv1_p
I0429 17:11:00.558857  1602 net.cpp:122] Setting up conv1_p
I0429 17:11:00.558863  1602 net.cpp:129] Top shape: 100 20 24 24 (1152000)
I0429 17:11:00.558867  1602 net.cpp:137] Memory required for data: 13627600
I0429 17:11:00.558871  1602 net.cpp:465] Sharing parameters 'conv1_w' owned by layer 'conv1', param index 0
I0429 17:11:00.558876  1602 net.cpp:465] Sharing parameters 'conv1_b' owned by layer 'conv1', param index 1
I0429 17:11:00.558878  1602 layer_factory.hpp:77] Creating layer pool1_p
I0429 17:11:00.558883  1602 net.cpp:84] Creating Layer pool1_p
I0429 17:11:00.558887  1602 net.cpp:406] pool1_p <- conv1_p
I0429 17:11:00.558892  1602 net.cpp:380] pool1_p -> pool1_p
I0429 17:11:00.558899  1602 net.cpp:122] Setting up pool1_p
I0429 17:11:00.558904  1602 net.cpp:129] Top shape: 100 20 12 12 (288000)
I0429 17:11:00.558907  1602 net.cpp:137] Memory required for data: 14779600
I0429 17:11:00.558910  1602 layer_factory.hpp:77] Creating layer conv2_p
I0429 17:11:00.558919  1602 net.cpp:84] Creating Layer conv2_p
I0429 17:11:00.558923  1602 net.cpp:406] conv2_p <- pool1_p
I0429 17:11:00.558928  1602 net.cpp:380] conv2_p -> conv2_p
I0429 17:11:00.559115  1602 net.cpp:122] Setting up conv2_p
I0429 17:11:00.559123  1602 net.cpp:129] Top shape: 100 50 8 8 (320000)
I0429 17:11:00.559125  1602 net.cpp:137] Memory required for data: 16059600
I0429 17:11:00.559129  1602 net.cpp:465] Sharing parameters 'conv2_w' owned by layer 'conv2', param index 0
I0429 17:11:00.559134  1602 net.cpp:465] Sharing parameters 'conv2_b' owned by layer 'conv2', param index 1
I0429 17:11:00.559137  1602 layer_factory.hpp:77] Creating layer pool2_p
I0429 17:11:00.559141  1602 net.cpp:84] Creating Layer pool2_p
I0429 17:11:00.559144  1602 net.cpp:406] pool2_p <- conv2_p
I0429 17:11:00.559151  1602 net.cpp:380] pool2_p -> pool2_p
I0429 17:11:00.559159  1602 net.cpp:122] Setting up pool2_p
I0429 17:11:00.559167  1602 net.cpp:129] Top shape: 100 50 4 4 (80000)
I0429 17:11:00.559170  1602 net.cpp:137] Memory required for data: 16379600
I0429 17:11:00.559175  1602 layer_factory.hpp:77] Creating layer ip1_p
I0429 17:11:00.559180  1602 net.cpp:84] Creating Layer ip1_p
I0429 17:11:00.559183  1602 net.cpp:406] ip1_p <- pool2_p
I0429 17:11:00.559190  1602 net.cpp:380] ip1_p -> ip1_p
I0429 17:11:00.561913  1602 net.cpp:122] Setting up ip1_p
I0429 17:11:00.561920  1602 net.cpp:129] Top shape: 100 500 (50000)
I0429 17:11:00.561923  1602 net.cpp:137] Memory required for data: 16579600
I0429 17:11:00.561926  1602 net.cpp:465] Sharing parameters 'ip1_w' owned by layer 'ip1', param index 0
I0429 17:11:00.561930  1602 net.cpp:465] Sharing parameters 'ip1_b' owned by layer 'ip1', param index 1
I0429 17:11:00.561933  1602 layer_factory.hpp:77] Creating layer relu1_p
I0429 17:11:00.561939  1602 net.cpp:84] Creating Layer relu1_p
I0429 17:11:00.561942  1602 net.cpp:406] relu1_p <- ip1_p
I0429 17:11:00.561947  1602 net.cpp:367] relu1_p -> ip1_p (in-place)
I0429 17:11:00.561954  1602 net.cpp:122] Setting up relu1_p
I0429 17:11:00.561957  1602 net.cpp:129] Top shape: 100 500 (50000)
I0429 17:11:00.561960  1602 net.cpp:137] Memory required for data: 16779600
I0429 17:11:00.561964  1602 layer_factory.hpp:77] Creating layer ip2_p
I0429 17:11:00.561971  1602 net.cpp:84] Creating Layer ip2_p
I0429 17:11:00.561975  1602 net.cpp:406] ip2_p <- ip1_p
I0429 17:11:00.561980  1602 net.cpp:380] ip2_p -> ip2_p
I0429 17:11:00.562023  1602 net.cpp:122] Setting up ip2_p
I0429 17:11:00.562028  1602 net.cpp:129] Top shape: 100 10 (1000)
I0429 17:11:00.562031  1602 net.cpp:137] Memory required for data: 16783600
I0429 17:11:00.562036  1602 net.cpp:465] Sharing parameters 'ip2_w' owned by layer 'ip2', param index 0
I0429 17:11:00.562041  1602 net.cpp:465] Sharing parameters 'ip2_b' owned by layer 'ip2', param index 1
I0429 17:11:00.562043  1602 layer_factory.hpp:77] Creating layer feat_p
I0429 17:11:00.562049  1602 net.cpp:84] Creating Layer feat_p
I0429 17:11:00.562053  1602 net.cpp:406] feat_p <- ip2_p
I0429 17:11:00.562057  1602 net.cpp:380] feat_p -> feat_p
I0429 17:11:00.562067  1602 net.cpp:122] Setting up feat_p
I0429 17:11:00.562072  1602 net.cpp:129] Top shape: 100 2 (200)
I0429 17:11:00.562073  1602 net.cpp:137] Memory required for data: 16784400
I0429 17:11:00.562077  1602 net.cpp:465] Sharing parameters 'feat_w' owned by layer 'feat', param index 0
I0429 17:11:00.562081  1602 net.cpp:465] Sharing parameters 'feat_b' owned by layer 'feat', param index 1
I0429 17:11:00.562084  1602 layer_factory.hpp:77] Creating layer loss
I0429 17:11:00.562090  1602 net.cpp:84] Creating Layer loss
…
