…
I0506 20:45:28.156182 38177 net.cpp:294] The NetState phase (0) differed from the phase (1) specified by a rule in layer mnist
I0506 20:45:28.156203 38177 net.cpp:294] The NetState phase (0) differed from the phase (1) specified by a rule in layer accuracy
I0506 20:45:28.156334 38177 net.cpp:51] Initializing net from parameters: 
name: "LeNet"
state {
  phase: TRAIN
  level: 0
  stage: ""
}
layer {
  name: "mnist"
  type: "Data"
  top: "data"
  top: "label"
  include {
    phase: TRAIN
  }
  transform_param {
    scale: 0.00390625
  }
  data_param {
    source: "examples/mnist/mnist_train_lmdb"
    batch_size: 64
    backend: LMDB
  }
}
layer {
  name: "conv1"
  type: "Convolution"
  bottom: "data"
  top: "conv1"
  param {
    lr_mult: 1
  }
  param {
    lr_mult: 2
  }
  convolution_param {
    num_output: 10
    kernel_size: 5
    stride: 1
    weight_filler {
      type: "xavier"
    }
    bias_filler {
      type: "constant"
    }
  }
}
layer {
  name: "conv3"
  type: "Convolution"
  bottom: "conv1"
  top: "conv3"
  param {
    lr_mult: 1
  }
  param {
    lr_mult: 2
  }
  convolution_param {
    num_output: 15
    kernel_size: 5
    stride: 1
    weight_filler {
      type: "xavier"
    }
    bias_filler {
      type: "constant"
    }
  }
}
layer {
  name: "conv4"
  type: "Convolution"
  bottom: "conv3"
  top: "conv4"
  param {
    lr_mult: 1
  }
  param {
    lr_mult: 2
  }
  convolution_param {
    num_output: 20
    kernel_size: 5
    stride: 1
    weight_filler {
      type: "xavier"
    }
    bias_filler {
      type: "constant"
    }
  }
}
layer {
  name: "pool1"
  type: "Pooling"
  bottom: "conv4"
  top: "pool1"
  pooling_param {
    pool: MAX
    kernel_size: 2
    stride: 2
  }
}
layer {
  name: "conv2"
  type: "Convolution"
  bottom: "pool1"
  top: "conv2"
  param {
    lr_mult: 1
  }
  param {
    lr_mult: 2
  }
  convolution_param {
    num_output: 50
    kernel_size: 5
    stride: 1
    weight_filler {
      type: "xavier"
    }
    bias_filler {
      type: "constant"
    }
  }
}
layer {
  name: "pool2"
  type: "Pooling"
  bottom: "conv2"
  top: "pool2"
  pooling_param {
    pool: MAX
    kernel_size: 2
    stride: 2
  }
}
layer {
  name: "ip1"
  type: "InnerProduct"
  bottom: "pool2"
  top: "ip1"
  param {
    lr_mult: 1
  }
  param {
    lr_mult: 2
  }
  inner_product_param {
    num_output: 500
    weight_filler {
      type: "xavier"
    }
    bias_filler {
      type: "constant"
    }
  }
}
layer {
  name: "relu1"
  type: "ReLU"
  bottom: "ip1"
  top: "ip1"
}
layer {
  name: "ip2"
  type: "InnerProduct"
  bottom: "ip1"
  top: "ip2"
  param {
    lr_mult: 1
  }
  param {
    lr_mult: 2
  }
  inner_product_param {
    num_output: 10
    weight_filler {
      type: "xavier"
    }
    bias_filler {
      type: "constant"
    }
  }
}
layer {
  name: "loss"
  type: "SoftmaxWithLoss"
  bottom: "ip2"
  bottom: "label"
  top: "loss"
}
I0506 20:45:28.156414 38177 layer_factory.hpp:77] Creating layer mnist
I0506 20:45:28.156524 38177 db_lmdb.cpp:35] Opened lmdb examples/mnist/mnist_train_lmdb
I0506 20:45:28.156558 38177 net.cpp:84] Creating Layer mnist
I0506 20:45:28.156577 38177 net.cpp:380] mnist -> data
I0506 20:45:28.156602 38177 net.cpp:380] mnist -> label
I0506 20:45:28.156641 38177 data_layer.cpp:45] output data size: 64,1,28,28
I0506 20:45:28.157199 38177 net.cpp:122] Setting up mnist
I0506 20:45:28.157222 38177 net.cpp:129] Top shape: 64 1 28 28 (50176)
I0506 20:45:28.157229 38177 net.cpp:129] Top shape: 64 (64)
I0506 20:45:28.157233 38177 net.cpp:137] Memory required for data: 200960
I0506 20:45:28.157241 38177 layer_factory.hpp:77] Creating layer conv1
I0506 20:45:28.157260 38177 net.cpp:84] Creating Layer conv1
I0506 20:45:28.157279 38177 net.cpp:406] conv1 <- data
I0506 20:45:28.157295 38177 net.cpp:380] conv1 -> conv1
I0506 20:45:28.157351 38177 net.cpp:122] Setting up conv1
I0506 20:45:28.157362 38177 net.cpp:129] Top shape: 64 10 24 24 (368640)
I0506 20:45:28.157368 38177 net.cpp:137] Memory required for data: 1675520
I0506 20:45:28.157390 38177 layer_factory.hpp:77] Creating layer conv3
I0506 20:45:28.157402 38177 net.cpp:84] Creating Layer conv3
I0506 20:45:28.157408 38177 net.cpp:406] conv3 <- conv1
I0506 20:45:28.157418 38177 net.cpp:380] conv3 -> conv3
I0506 20:45:28.157477 38177 net.cpp:122] Setting up conv3
I0506 20:45:28.157486 38177 net.cpp:129] Top shape: 64 15 20 20 (384000)
I0506 20:45:28.157492 38177 net.cpp:137] Memory required for data: 3211520
I0506 20:45:28.157503 38177 layer_factory.hpp:77] Creating layer conv4
I0506 20:45:28.157512 38177 net.cpp:84] Creating Layer conv4
I0506 20:45:28.157518 38177 net.cpp:406] conv4 <- conv3
I0506 20:45:28.157527 38177 net.cpp:380] conv4 -> conv4
I0506 20:45:28.157639 38177 net.cpp:122] Setting up conv4
I0506 20:45:28.157655 38177 net.cpp:129] Top shape: 64 20 16 16 (327680)
I0506 20:45:28.157660 38177 net.cpp:137] Memory required for data: 4522240
I0506 20:45:28.157672 38177 layer_factory.hpp:77] Creating layer pool1
I0506 20:45:28.157682 38177 net.cpp:84] Creating Layer pool1
I0506 20:45:28.157690 38177 net.cpp:406] pool1 <- conv4
I0506 20:45:28.157696 38177 net.cpp:380] pool1 -> pool1
I0506 20:45:28.157716 38177 net.cpp:122] Setting up pool1
I0506 20:45:28.157724 38177 net.cpp:129] Top shape: 64 20 8 8 (81920)
I0506 20:45:28.157729 38177 net.cpp:137] Memory required for data: 4849920
I0506 20:45:28.157735 38177 layer_factory.hpp:77] Creating layer conv2
I0506 20:45:28.157747 38177 net.cpp:84] Creating Layer conv2
I0506 20:45:28.157752 38177 net.cpp:406] conv2 <- pool1
I0506 20:45:28.157760 38177 net.cpp:380] conv2 -> conv2
I0506 20:45:28.158049 38177 net.cpp:122] Setting up conv2
I0506 20:45:28.158061 38177 net.cpp:129] Top shape: 64 50 4 4 (51200)
I0506 20:45:28.158066 38177 net.cpp:137] Memory required for data: 5054720
I0506 20:45:28.158074 38177 layer_factory.hpp:77] Creating layer pool2
I0506 20:45:28.158082 38177 net.cpp:84] Creating Layer pool2
I0506 20:45:28.158088 38177 net.cpp:406] pool2 <- conv2
I0506 20:45:28.158095 38177 net.cpp:380] pool2 -> pool2
I0506 20:45:28.158107 38177 net.cpp:122] Setting up pool2
I0506 20:45:28.158113 38177 net.cpp:129] Top shape: 64 50 2 2 (12800)
I0506 20:45:28.158119 38177 net.cpp:137] Memory required for data: 5105920
I0506 20:45:28.158124 38177 layer_factory.hpp:77] Creating layer ip1
I0506 20:45:28.158133 38177 net.cpp:84] Creating Layer ip1
I0506 20:45:28.158139 38177 net.cpp:406] ip1 <- pool2
I0506 20:45:28.158171 38177 net.cpp:380] ip1 -> ip1
I0506 20:45:28.159255 38177 net.cpp:122] Setting up ip1
I0506 20:45:28.159265 38177 net.cpp:129] Top shape: 64 500 (32000)
I0506 20:45:28.159271 38177 net.cpp:137] Memory required for data: 5233920
I0506 20:45:28.159286 38177 layer_factory.hpp:77] Creating layer relu1
I0506 20:45:28.159294 38177 net.cpp:84] Creating Layer relu1
I0506 20:45:28.159301 38177 net.cpp:406] relu1 <- ip1
I0506 20:45:28.159308 38177 net.cpp:367] relu1 -> ip1 (in-place)
I0506 20:45:28.159319 38177 net.cpp:122] Setting up relu1
I0506 20:45:28.159325 38177 net.cpp:129] Top shape: 64 500 (32000)
I0506 20:45:28.159330 38177 net.cpp:137] Memory required for data: 5361920
I0506 20:45:28.159335 38177 layer_factory.hpp:77] Creating layer ip2
I0506 20:45:28.159349 38177 net.cpp:84] Creating Layer ip2
I0506 20:45:28.159355 38177 net.cpp:406] ip2 <- ip1
I0506 20:45:28.159364 38177 net.cpp:380] ip2 -> ip2
I0506 20:45:28.159435 38177 net.cpp:122] Setting up ip2
I0506 20:45:28.159445 38177 net.cpp:129] Top shape: 64 10 (640)
I0506 20:45:28.159449 38177 net.cpp:137] Memory required for data: 5364480
I0506 20:45:28.159457 38177 layer_factory.hpp:77] Creating layer loss
I0506 20:45:28.159464 38177 net.cpp:84] Creating Layer loss
I0506 20:45:28.159471 38177 net.cpp:406] loss <- ip2
I0506 20:45:28.159476 38177 net.cpp:406] loss <- label
I0506 20:45:28.159493 38177 net.cpp:380] loss -> loss
I0506 20:45:28.159508 38177 layer_factory.hpp:77] Creating layer loss
…
