…
I0429 18:12:45.922255  2861 net.cpp:294] The NetState phase (0) differed from the phase (1) specified by a rule in layer mnist
I0429 18:12:45.922271  2861 net.cpp:294] The NetState phase (0) differed from the phase (1) specified by a rule in layer accuracy
I0429 18:12:45.922363  2861 net.cpp:51] Initializing net from parameters: 
name: "LeNet"
state {
  phase: TRAIN
  level: 0
  stage: ""
}
layer {
  name: "mnist"
  type: "Data"
  top: "data"
  top: "label"
  include {
    phase: TRAIN
  }
  transform_param {
    scale: 0.00390625
  }
  data_param {
    source: "examples/mnist/mnist_train_lmdb"
    batch_size: 64
    backend: LMDB
  }
}
layer {
  name: "conv1"
  type: "Convolution"
  bottom: "data"
  top: "conv1"
  param {
    lr_mult: 1
  }
  param {
    lr_mult: 2
  }
  convolution_param {
    num_output: 20
    kernel_size: 5
    stride: 1
    weight_filler {
      type: "xavier"
    }
    bias_filler {
      type: "constant"
    }
  }
}
layer {
  name: "pool1"
  type: "Pooling"
  bottom: "conv1"
  top: "pool1"
  pooling_param {
    pool: MAX
    kernel_size: 2
    stride: 2
  }
}
layer {
  name: "conv2"
  type: "Convolution"
  bottom: "pool1"
  top: "conv2"
  param {
    lr_mult: 1
  }
  param {
    lr_mult: 2
  }
  convolution_param {
    num_output: 50
    kernel_size: 5
    stride: 1
    weight_filler {
      type: "xavier"
    }
    bias_filler {
      type: "constant"
    }
  }
}
layer {
  name: "pool2"
  type: "Pooling"
  bottom: "conv2"
  top: "pool2"
  pooling_param {
    pool: MAX
    kernel_size: 2
    stride: 2
  }
}
layer {
  name: "ip1"
  type: "InnerProduct"
  bottom: "pool2"
  top: "ip1"
  param {
    lr_mult: 1
  }
  param {
    lr_mult: 2
  }
  inner_product_param {
    num_output: 500
    weight_filler {
      type: "xavier"
    }
    bias_filler {
      type: "constant"
    }
  }
}
layer {
  name: "relu1"
  type: "ReLU"
  bottom: "ip1"
  top: "ip1"
}
layer {
  name: "ip2"
  type: "InnerProduct"
  bottom: "ip1"
  top: "ip2"
  param {
    lr_mult: 1
  }
  param {
    lr_mult: 2
  }
  inner_product_param {
    num_output: 10
    weight_filler {
      type: "xavier"
    }
    bias_filler {
      type: "constant"
    }
  }
}
layer {
  name: "loss"
  type: "SoftmaxWithLoss"
  bottom: "ip2"
  bottom: "label"
  top: "loss"
}
I0429 18:12:45.922428  2861 layer_factory.hpp:77] Creating layer mnist
I0429 18:12:45.922529  2861 db_lmdb.cpp:35] Opened lmdb examples/mnist/mnist_train_lmdb
I0429 18:12:45.922556  2861 net.cpp:84] Creating Layer mnist
I0429 18:12:45.922567  2861 net.cpp:380] mnist -> data
I0429 18:12:45.922590  2861 net.cpp:380] mnist -> label
I0429 18:12:45.922621  2861 data_layer.cpp:45] output data size: 64,1,28,28
I0429 18:12:45.923105  2861 net.cpp:122] Setting up mnist
I0429 18:12:45.923122  2861 net.cpp:129] Top shape: 64 1 28 28 (50176)
I0429 18:12:45.923128  2861 net.cpp:129] Top shape: 64 (64)
I0429 18:12:45.923132  2861 net.cpp:137] Memory required for data: 200960
I0429 18:12:45.923140  2861 layer_factory.hpp:77] Creating layer conv1
I0429 18:12:45.923156  2861 net.cpp:84] Creating Layer conv1
I0429 18:12:45.923162  2861 net.cpp:406] conv1 <- data
I0429 18:12:45.923174  2861 net.cpp:380] conv1 -> conv1
I0429 18:12:45.923220  2861 net.cpp:122] Setting up conv1
I0429 18:12:45.923228  2861 net.cpp:129] Top shape: 64 20 24 24 (737280)
I0429 18:12:45.923234  2861 net.cpp:137] Memory required for data: 3150080
I0429 18:12:45.923252  2861 layer_factory.hpp:77] Creating layer pool1
I0429 18:12:45.923260  2861 net.cpp:84] Creating Layer pool1
I0429 18:12:45.923265  2861 net.cpp:406] pool1 <- conv1
I0429 18:12:45.923281  2861 net.cpp:380] pool1 -> pool1
I0429 18:12:45.923297  2861 net.cpp:122] Setting up pool1
I0429 18:12:45.923303  2861 net.cpp:129] Top shape: 64 20 12 12 (184320)
I0429 18:12:45.923308  2861 net.cpp:137] Memory required for data: 3887360
I0429 18:12:45.923312  2861 layer_factory.hpp:77] Creating layer conv2
I0429 18:12:45.923321  2861 net.cpp:84] Creating Layer conv2
I0429 18:12:45.923326  2861 net.cpp:406] conv2 <- pool1
I0429 18:12:45.923333  2861 net.cpp:380] conv2 -> conv2
I0429 18:12:45.923588  2861 net.cpp:122] Setting up conv2
I0429 18:12:45.923599  2861 net.cpp:129] Top shape: 64 50 8 8 (204800)
I0429 18:12:45.923604  2861 net.cpp:137] Memory required for data: 4706560
I0429 18:12:45.923614  2861 layer_factory.hpp:77] Creating layer pool2
I0429 18:12:45.923621  2861 net.cpp:84] Creating Layer pool2
I0429 18:12:45.923625  2861 net.cpp:406] pool2 <- conv2
I0429 18:12:45.923631  2861 net.cpp:380] pool2 -> pool2
I0429 18:12:45.923642  2861 net.cpp:122] Setting up pool2
I0429 18:12:45.923648  2861 net.cpp:129] Top shape: 64 50 4 4 (51200)
I0429 18:12:45.923652  2861 net.cpp:137] Memory required for data: 4911360
I0429 18:12:45.923657  2861 layer_factory.hpp:77] Creating layer ip1
I0429 18:12:45.923666  2861 net.cpp:84] Creating Layer ip1
I0429 18:12:45.923669  2861 net.cpp:406] ip1 <- pool2
I0429 18:12:45.923676  2861 net.cpp:380] ip1 -> ip1
I0429 18:12:45.927055  2861 net.cpp:122] Setting up ip1
I0429 18:12:45.927067  2861 net.cpp:129] Top shape: 64 500 (32000)
I0429 18:12:45.927072  2861 net.cpp:137] Memory required for data: 5039360
I0429 18:12:45.927081  2861 layer_factory.hpp:77] Creating layer relu1
I0429 18:12:45.927088  2861 net.cpp:84] Creating Layer relu1
I0429 18:12:45.927093  2861 net.cpp:406] relu1 <- ip1
I0429 18:12:45.927098  2861 net.cpp:367] relu1 -> ip1 (in-place)
I0429 18:12:45.927106  2861 net.cpp:122] Setting up relu1
I0429 18:12:45.927111  2861 net.cpp:129] Top shape: 64 500 (32000)
I0429 18:12:45.927116  2861 net.cpp:137] Memory required for data: 5167360
I0429 18:12:45.927120  2861 layer_factory.hpp:77] Creating layer ip2
I0429 18:12:45.927127  2861 net.cpp:84] Creating Layer ip2
I0429 18:12:45.927131  2861 net.cpp:406] ip2 <- ip1
I0429 18:12:45.927139  2861 net.cpp:380] ip2 -> ip2
I0429 18:12:45.927197  2861 net.cpp:122] Setting up ip2
I0429 18:12:45.927203  2861 net.cpp:129] Top shape: 64 10 (640)
I0429 18:12:45.927207  2861 net.cpp:137] Memory required for data: 5169920
I0429 18:12:45.927214  2861 layer_factory.hpp:77] Creating layer loss
I0429 18:12:45.927222  2861 net.cpp:84] Creating Layer loss
I0429 18:12:45.927225  2861 net.cpp:406] loss <- ip2
I0429 18:12:45.927230  2861 net.cpp:406] loss <- label
I0429 18:12:45.927238  2861 net.cpp:380] loss -> loss
I0429 18:12:45.927250  2861 layer_factory.hpp:77] Creating layer loss
…
I0429 18:12:45.927546  2861 solver.cpp:172] Creating test net (#0) specified by net file: examples/mnist/lenet_train_test.prototxt
I0429 18:12:45.927573  2861 net.cpp:294] The NetState phase (1) differed from the phase (0) specified by a rule in layer mnist
I0429 18:12:45.927685  2861 net.cpp:51] Initializing net from parameters: 
name: "LeNet"
state {
  phase: TEST
}
layer {
  name: "mnist"
  type: "Data"
  top: "data"
  top: "label"
  include {
    phase: TEST
  }
  transform_param {
    scale: 0.00390625
  }
  data_param {
    source: "examples/mnist/mnist_test_lmdb"
    batch_size: 100
    backend: LMDB
  }
}
layer {
  name: "conv1"
  type: "Convolution"
  bottom: "data"
  top: "conv1"
  param {
    lr_mult: 1
  }
  param {
    lr_mult: 2
  }
  convolution_param {
    num_output: 20
    kernel_size: 5
    stride: 1
    weight_filler {
      type: "xavier"
    }
    bias_filler {
      type: "constant"
    }
  }
}
layer {
  name: "pool1"
  type: "Pooling"
  bottom: "conv1"
  top: "pool1"
  pooling_param {
    pool: MAX
    kernel_size: 2
    stride: 2
  }
}
layer {
  name: "conv2"
  type: "Convolution"
  bottom: "pool1"
  top: "conv2"
  param {
    lr_mult: 1
  }
  param {
    lr_mult: 2
  }
  convolution_param {
    num_output: 50
    kernel_size: 5
    stride: 1
    weight_filler {
      type: "xavier"
    }
    bias_filler {
      type: "constant"
    }
  }
}
layer {
  name: "pool2"
  type: "Pooling"
  bottom: "conv2"
  top: "pool2"
  pooling_param {
    pool: MAX
    kernel_size: 2
    stride: 2
  }
}
layer {
  name: "ip1"
  type: "InnerProduct"
  bottom: "pool2"
  top: "ip1"
  param {
    lr_mult: 1
  }
  param {
    lr_mult: 2
  }
  inner_product_param {
    num_output: 500
    weight_filler {
      type: "xavier"
    }
    bias_filler {
      type: "constant"
    }
  }
}
layer {
  name: "relu1"
  type: "ReLU"
  bottom: "ip1"
  top: "ip1"
}
layer {
  name: "ip2"
  type: "InnerProduct"
  bottom: "ip1"
  top: "ip2"
  param {
    lr_mult: 1
  }
  param {
    lr_mult: 2
  }
  inner_product_param {
    num_output: 10
    weight_filler {
      type: "xavier"
    }
    bias_filler {
      type: "constant"
    }
  }
}
layer {
  name: "accuracy"
  type: "Accuracy"
  bottom: "ip2"
  bottom: "label"
  top: "accuracy"
  include {
    phase: TEST
  }
}
layer {
  name: "loss"
  type: "SoftmaxWithLoss"
  bottom: "ip2"
  bottom: "label"
  top: "loss"
}
I0429 18:12:45.927765  2861 layer_factory.hpp:77] Creating layer mnist
I0429 18:12:45.927824  2861 db_lmdb.cpp:35] Opened lmdb examples/mnist/mnist_test_lmdb
I0429 18:12:45.927839  2861 net.cpp:84] Creating Layer mnist
I0429 18:12:45.927846  2861 net.cpp:380] mnist -> data
I0429 18:12:45.927856  2861 net.cpp:380] mnist -> label
I0429 18:12:45.927872  2861 data_layer.cpp:45] output data size: 100,1,28,28
I0429 18:12:45.927933  2861 net.cpp:122] Setting up mnist
I0429 18:12:45.927942  2861 net.cpp:129] Top shape: 100 1 28 28 (78400)
I0429 18:12:45.927948  2861 net.cpp:129] Top shape: 100 (100)
I0429 18:12:45.927953  2861 net.cpp:137] Memory required for data: 314000
I0429 18:12:45.927958  2861 layer_factory.hpp:77] Creating layer label_mnist_1_split
I0429 18:12:45.927968  2861 net.cpp:84] Creating Layer label_mnist_1_split
I0429 18:12:45.927973  2861 net.cpp:406] label_mnist_1_split <- label
I0429 18:12:45.927979  2861 net.cpp:380] label_mnist_1_split -> label_mnist_1_split_0
I0429 18:12:45.927990  2861 net.cpp:380] label_mnist_1_split -> label_mnist_1_split_1
I0429 18:12:45.928004  2861 net.cpp:122] Setting up label_mnist_1_split
I0429 18:12:45.928009  2861 net.cpp:129] Top shape: 100 (100)
I0429 18:12:45.928015  2861 net.cpp:129] Top shape: 100 (100)
I0429 18:12:45.928019  2861 net.cpp:137] Memory required for data: 314800
I0429 18:12:45.928022  2861 layer_factory.hpp:77] Creating layer conv1
I0429 18:12:45.928042  2861 net.cpp:84] Creating Layer conv1
I0429 18:12:45.928050  2861 net.cpp:406] conv1 <- data
I0429 18:12:45.928057  2861 net.cpp:380] conv1 -> conv1
I0429 18:12:45.928091  2861 net.cpp:122] Setting up conv1
I0429 18:12:45.928098  2861 net.cpp:129] Top shape: 100 20 24 24 (1152000)
I0429 18:12:45.928102  2861 net.cpp:137] Memory required for data: 4922800
I0429 18:12:45.928114  2861 layer_factory.hpp:77] Creating layer pool1
I0429 18:12:45.928122  2861 net.cpp:84] Creating Layer pool1
I0429 18:12:45.928135  2861 net.cpp:406] pool1 <- conv1
I0429 18:12:45.928144  2861 net.cpp:380] pool1 -> pool1
I0429 18:12:45.928153  2861 net.cpp:122] Setting up pool1
I0429 18:12:45.928158  2861 net.cpp:129] Top shape: 100 20 12 12 (288000)
I0429 18:12:45.928163  2861 net.cpp:137] Memory required for data: 6074800
I0429 18:12:45.928167  2861 layer_factory.hpp:77] Creating layer conv2
I0429 18:12:45.928179  2861 net.cpp:84] Creating Layer conv2
I0429 18:12:45.928184  2861 net.cpp:406] conv2 <- pool1
I0429 18:12:45.928190  2861 net.cpp:380] conv2 -> conv2
I0429 18:12:45.928426  2861 net.cpp:122] Setting up conv2
I0429 18:12:45.928434  2861 net.cpp:129] Top shape: 100 50 8 8 (320000)
I0429 18:12:45.928438  2861 net.cpp:137] Memory required for data: 7354800
I0429 18:12:45.928447  2861 layer_factory.hpp:77] Creating layer pool2
I0429 18:12:45.928457  2861 net.cpp:84] Creating Layer pool2
I0429 18:12:45.928460  2861 net.cpp:406] pool2 <- conv2
I0429 18:12:45.928467  2861 net.cpp:380] pool2 -> pool2
I0429 18:12:45.928474  2861 net.cpp:122] Setting up pool2
I0429 18:12:45.928480  2861 net.cpp:129] Top shape: 100 50 4 4 (80000)
I0429 18:12:45.928484  2861 net.cpp:137] Memory required for data: 7674800
I0429 18:12:45.928488  2861 layer_factory.hpp:77] Creating layer ip1
I0429 18:12:45.928496  2861 net.cpp:84] Creating Layer ip1
I0429 18:12:45.928503  2861 net.cpp:406] ip1 <- pool2
I0429 18:12:45.928508  2861 net.cpp:380] ip1 -> ip1
     0.111524808              3,861      r02C0:u                  
I0429 18:12:45.931867  2861 net.cpp:122] Setting up ip1
I0429 18:12:45.931876  2861 net.cpp:129] Top shape: 100 500 (50000)
I0429 18:12:45.931880  2861 net.cpp:137] Memory required for data: 7874800
I0429 18:12:45.931891  2861 layer_factory.hpp:77] Creating layer relu1
I0429 18:12:45.931897  2861 net.cpp:84] Creating Layer relu1
I0429 18:12:45.931901  2861 net.cpp:406] relu1 <- ip1
I0429 18:12:45.931908  2861 net.cpp:367] relu1 -> ip1 (in-place)
I0429 18:12:45.931916  2861 net.cpp:122] Setting up relu1
I0429 18:12:45.931921  2861 net.cpp:129] Top shape: 100 500 (50000)
I0429 18:12:45.931924  2861 net.cpp:137] Memory required for data: 8074800
I0429 18:12:45.931929  2861 layer_factory.hpp:77] Creating layer ip2
I0429 18:12:45.931939  2861 net.cpp:84] Creating Layer ip2
I0429 18:12:45.931943  2861 net.cpp:406] ip2 <- ip1
I0429 18:12:45.931951  2861 net.cpp:380] ip2 -> ip2
I0429 18:12:45.932005  2861 net.cpp:122] Setting up ip2
I0429 18:12:45.932011  2861 net.cpp:129] Top shape: 100 10 (1000)
I0429 18:12:45.932015  2861 net.cpp:137] Memory required for data: 8078800
I0429 18:12:45.932021  2861 layer_factory.hpp:77] Creating layer ip2_ip2_0_split
I0429 18:12:45.932029  2861 net.cpp:84] Creating Layer ip2_ip2_0_split
I0429 18:12:45.932031  2861 net.cpp:406] ip2_ip2_0_split <- ip2
I0429 18:12:45.932046  2861 net.cpp:380] ip2_ip2_0_split -> ip2_ip2_0_split_0
I0429 18:12:45.932055  2861 net.cpp:380] ip2_ip2_0_split -> ip2_ip2_0_split_1
I0429 18:12:45.932063  2861 net.cpp:122] Setting up ip2_ip2_0_split
I0429 18:12:45.932068  2861 net.cpp:129] Top shape: 100 10 (1000)
I0429 18:12:45.932073  2861 net.cpp:129] Top shape: 100 10 (1000)
I0429 18:12:45.932076  2861 net.cpp:137] Memory required for data: 8086800
I0429 18:12:45.932085  2861 layer_factory.hpp:77] Creating layer accuracy
I0429 18:12:45.932092  2861 net.cpp:84] Creating Layer accuracy
I0429 18:12:45.932096  2861 net.cpp:406] accuracy <- ip2_ip2_0_split_0
I0429 18:12:45.932101  2861 net.cpp:406] accuracy <- label_mnist_1_split_0
I0429 18:12:45.932108  2861 net.cpp:380] accuracy -> accuracy
…
