…
I0428 21:10:53.240439 168369 net.cpp:294] The NetState phase (0) differed from the phase (1) specified by a rule in layer mnist
I0428 21:10:53.240455 168369 net.cpp:294] The NetState phase (0) differed from the phase (1) specified by a rule in layer accuracy
I0428 21:10:53.240555 168369 net.cpp:51] Initializing net from parameters: 
name: "LeNet"
state {
  phase: TRAIN
  level: 0
  stage: ""
}
layer {
  name: "mnist"
  type: "Data"
  top: "data"
  top: "label"
  include {
    phase: TRAIN
  }
  transform_param {
    scale: 0.00390625
  }
  data_param {
    source: "examples/mnist/mnist_train_lmdb"
    batch_size: 64
    backend: LMDB
  }
}
layer {
  name: "conv1"
  type: "Convolution"
  bottom: "data"
  top: "conv1"
  param {
    lr_mult: 1
  }
  param {
    lr_mult: 2
  }
  convolution_param {
    num_output: 20
    kernel_size: 5
    stride: 1
    weight_filler {
      type: "xavier"
    }
    bias_filler {
      type: "constant"
    }
  }
}
layer {
  name: "pool1"
  type: "Pooling"
  bottom: "conv1"
  top: "pool1"
  pooling_param {
    pool: MAX
    kernel_size: 2
    stride: 2
  }
}
layer {
  name: "conv2"
  type: "Convolution"
  bottom: "pool1"
  top: "conv2"
  param {
    lr_mult: 1
  }
  param {
    lr_mult: 2
  }
  convolution_param {
    num_output: 50
    kernel_size: 5
    stride: 1
    weight_filler {
      type: "xavier"
    }
    bias_filler {
      type: "constant"
    }
  }
}
layer {
  name: "pool2"
  type: "Pooling"
  bottom: "conv2"
  top: "pool2"
  pooling_param {
    pool: MAX
    kernel_size: 2
    stride: 2
  }
}
layer {
  name: "ip1"
  type: "InnerProduct"
  bottom: "pool2"
  top: "ip1"
  param {
    lr_mult: 1
  }
  param {
    lr_mult: 2
  }
  inner_product_param {
    num_output: 500
    weight_filler {
      type: "xavier"
    }
    bias_filler {
      type: "constant"
    }
  }
}
layer {
  name: "relu1"
  type: "ReLU"
  bottom: "ip1"
  top: "ip1"
}
layer {
  name: "ip2"
  type: "InnerProduct"
  bottom: "ip1"
  top: "ip2"
  param {
    lr_mult: 1
  }
  param {
    lr_mult: 2
  }
  inner_product_param {
    num_output: 10
    weight_filler {
      type: "xavier"
    }
    bias_filler {
      type: "constant"
    }
  }
}
layer {
  name: "loss"
  type: "SoftmaxWithLoss"
  bottom: "ip2"
  bottom: "label"
  top: "loss"
}
I0428 21:10:53.240619 168369 layer_factory.hpp:77] Creating layer mnist
I0428 21:10:53.240718 168369 db_lmdb.cpp:35] Opened lmdb examples/mnist/mnist_train_lmdb
I0428 21:10:53.240744 168369 net.cpp:84] Creating Layer mnist
I0428 21:10:53.240756 168369 net.cpp:380] mnist -> data
I0428 21:10:53.240777 168369 net.cpp:380] mnist -> label
I0428 21:10:53.240806 168369 data_layer.cpp:45] output data size: 64,1,28,28
I0428 21:10:53.241307 168369 net.cpp:122] Setting up mnist
I0428 21:10:53.241330 168369 net.cpp:129] Top shape: 64 1 28 28 (50176)
I0428 21:10:53.241336 168369 net.cpp:129] Top shape: 64 (64)
I0428 21:10:53.241340 168369 net.cpp:137] Memory required for data: 200960
I0428 21:10:53.241348 168369 layer_factory.hpp:77] Creating layer conv1
I0428 21:10:53.241364 168369 net.cpp:84] Creating Layer conv1
I0428 21:10:53.241370 168369 net.cpp:406] conv1 <- data
I0428 21:10:53.241382 168369 net.cpp:380] conv1 -> conv1
I0428 21:10:53.241428 168369 net.cpp:122] Setting up conv1
I0428 21:10:53.241437 168369 net.cpp:129] Top shape: 64 20 24 24 (737280)
I0428 21:10:53.241442 168369 net.cpp:137] Memory required for data: 3150080
I0428 21:10:53.241461 168369 layer_factory.hpp:77] Creating layer pool1
I0428 21:10:53.241469 168369 net.cpp:84] Creating Layer pool1
I0428 21:10:53.241482 168369 net.cpp:406] pool1 <- conv1
I0428 21:10:53.241499 168369 net.cpp:380] pool1 -> pool1
I0428 21:10:53.241515 168369 net.cpp:122] Setting up pool1
I0428 21:10:53.241523 168369 net.cpp:129] Top shape: 64 20 12 12 (184320)
I0428 21:10:53.241528 168369 net.cpp:137] Memory required for data: 3887360
I0428 21:10:53.241533 168369 layer_factory.hpp:77] Creating layer conv2
I0428 21:10:53.241542 168369 net.cpp:84] Creating Layer conv2
I0428 21:10:53.241547 168369 net.cpp:406] conv2 <- pool1
I0428 21:10:53.241555 168369 net.cpp:380] conv2 -> conv2
I0428 21:10:53.241817 168369 net.cpp:122] Setting up conv2
I0428 21:10:53.241827 168369 net.cpp:129] Top shape: 64 50 8 8 (204800)
I0428 21:10:53.241832 168369 net.cpp:137] Memory required for data: 4706560
I0428 21:10:53.241843 168369 layer_factory.hpp:77] Creating layer pool2
I0428 21:10:53.241852 168369 net.cpp:84] Creating Layer pool2
I0428 21:10:53.241856 168369 net.cpp:406] pool2 <- conv2
I0428 21:10:53.241863 168369 net.cpp:380] pool2 -> pool2
I0428 21:10:53.241873 168369 net.cpp:122] Setting up pool2
I0428 21:10:53.241879 168369 net.cpp:129] Top shape: 64 50 4 4 (51200)
I0428 21:10:53.241883 168369 net.cpp:137] Memory required for data: 4911360
I0428 21:10:53.241888 168369 layer_factory.hpp:77] Creating layer ip1
I0428 21:10:53.241896 168369 net.cpp:84] Creating Layer ip1
I0428 21:10:53.241901 168369 net.cpp:406] ip1 <- pool2
I0428 21:10:53.241910 168369 net.cpp:380] ip1 -> ip1
I0428 21:10:53.245671 168369 net.cpp:122] Setting up ip1
I0428 21:10:53.245682 168369 net.cpp:129] Top shape: 64 500 (32000)
I0428 21:10:53.245687 168369 net.cpp:137] Memory required for data: 5039360
I0428 21:10:53.245697 168369 layer_factory.hpp:77] Creating layer relu1
I0428 21:10:53.245704 168369 net.cpp:84] Creating Layer relu1
I0428 21:10:53.245710 168369 net.cpp:406] relu1 <- ip1
I0428 21:10:53.245717 168369 net.cpp:367] relu1 -> ip1 (in-place)
I0428 21:10:53.245725 168369 net.cpp:122] Setting up relu1
I0428 21:10:53.245730 168369 net.cpp:129] Top shape: 64 500 (32000)
I0428 21:10:53.245735 168369 net.cpp:137] Memory required for data: 5167360
I0428 21:10:53.245739 168369 layer_factory.hpp:77] Creating layer ip2
I0428 21:10:53.245746 168369 net.cpp:84] Creating Layer ip2
I0428 21:10:53.245750 168369 net.cpp:406] ip2 <- ip1
I0428 21:10:53.245759 168369 net.cpp:380] ip2 -> ip2
I0428 21:10:53.245824 168369 net.cpp:122] Setting up ip2
I0428 21:10:53.245831 168369 net.cpp:129] Top shape: 64 10 (640)
I0428 21:10:53.245834 168369 net.cpp:137] Memory required for data: 5169920
I0428 21:10:53.245842 168369 layer_factory.hpp:77] Creating layer loss
I0428 21:10:53.245851 168369 net.cpp:84] Creating Layer loss
I0428 21:10:53.245854 168369 net.cpp:406] loss <- ip2
I0428 21:10:53.245860 168369 net.cpp:406] loss <- label
I0428 21:10:53.245868 168369 net.cpp:380] loss -> loss
I0428 21:10:53.245882 168369 layer_factory.hpp:77] Creating layer loss
…
I0428 21:10:53.246165 168369 solver.cpp:172] Creating test net (#0) specified by net file: examples/mnist/lenet_train_test.prototxt
I0428 21:10:53.246208 168369 net.cpp:294] The NetState phase (1) differed from the phase (0) specified by a rule in layer mnist
I0428 21:10:53.246315 168369 net.cpp:51] Initializing net from parameters: 
name: "LeNet"
state {
  phase: TEST
}
layer {
  name: "mnist"
  type: "Data"
  top: "data"
  top: "label"
  include {
    phase: TEST
  }
  transform_param {
    scale: 0.00390625
  }
  data_param {
    source: "examples/mnist/mnist_test_lmdb"
    batch_size: 100
    backend: LMDB
  }
}
layer {
  name: "conv1"
  type: "Convolution"
  bottom: "data"
  top: "conv1"
  param {
    lr_mult: 1
  }
  param {
    lr_mult: 2
  }
  convolution_param {
    num_output: 20
    kernel_size: 5
    stride: 1
    weight_filler {
      type: "xavier"
    }
    bias_filler {
      type: "constant"
    }
  }
}
layer {
  name: "pool1"
  type: "Pooling"
  bottom: "conv1"
  top: "pool1"
  pooling_param {
    pool: MAX
    kernel_size: 2
    stride: 2
  }
}
layer {
  name: "conv2"
  type: "Convolution"
  bottom: "pool1"
  top: "conv2"
  param {
    lr_mult: 1
  }
  param {
    lr_mult: 2
  }
  convolution_param {
    num_output: 50
    kernel_size: 5
    stride: 1
    weight_filler {
      type: "xavier"
    }
    bias_filler {
      type: "constant"
    }
  }
}
layer {
  name: "pool2"
  type: "Pooling"
  bottom: "conv2"
  top: "pool2"
  pooling_param {
    pool: MAX
    kernel_size: 2
    stride: 2
  }
}
layer {
  name: "ip1"
  type: "InnerProduct"
  bottom: "pool2"
  top: "ip1"
  param {
    lr_mult: 1
  }
  param {
    lr_mult: 2
  }
  inner_product_param {
    num_output: 500
    weight_filler {
      type: "xavier"
    }
    bias_filler {
      type: "constant"
    }
  }
}
layer {
  name: "relu1"
  type: "ReLU"
  bottom: "ip1"
  top: "ip1"
}
layer {
  name: "ip2"
  type: "InnerProduct"
  bottom: "ip1"
  top: "ip2"
  param {
    lr_mult: 1
  }
  param {
    lr_mult: 2
  }
  inner_product_param {
    num_output: 10
    weight_filler {
      type: "xavier"
    }
    bias_filler {
      type: "constant"
    }
  }
}
layer {
  name: "accuracy"
  type: "Accuracy"
  bottom: "ip2"
  bottom: "label"
  top: "accuracy"
  include {
    phase: TEST
  }
}
layer {
  name: "loss"
  type: "SoftmaxWithLoss"
  bottom: "ip2"
  bottom: "label"
  top: "loss"
}
I0428 21:10:53.246399 168369 layer_factory.hpp:77] Creating layer mnist
I0428 21:10:53.246451 168369 db_lmdb.cpp:35] Opened lmdb examples/mnist/mnist_test_lmdb
I0428 21:10:53.246466 168369 net.cpp:84] Creating Layer mnist
I0428 21:10:53.246474 168369 net.cpp:380] mnist -> data
I0428 21:10:53.246485 168369 net.cpp:380] mnist -> label
I0428 21:10:53.246502 168369 data_layer.cpp:45] output data size: 100,1,28,28
I0428 21:10:53.246772 168369 net.cpp:122] Setting up mnist
I0428 21:10:53.246783 168369 net.cpp:129] Top shape: 100 1 28 28 (78400)
I0428 21:10:53.246788 168369 net.cpp:129] Top shape: 100 (100)
I0428 21:10:53.246793 168369 net.cpp:137] Memory required for data: 314000
I0428 21:10:53.246798 168369 layer_factory.hpp:77] Creating layer label_mnist_1_split
I0428 21:10:53.246809 168369 net.cpp:84] Creating Layer label_mnist_1_split
I0428 21:10:53.246814 168369 net.cpp:406] label_mnist_1_split <- label
I0428 21:10:53.246821 168369 net.cpp:380] label_mnist_1_split -> label_mnist_1_split_0
I0428 21:10:53.246855 168369 net.cpp:380] label_mnist_1_split -> label_mnist_1_split_1
I0428 21:10:53.246866 168369 net.cpp:122] Setting up label_mnist_1_split
I0428 21:10:53.246873 168369 net.cpp:129] Top shape: 100 (100)
I0428 21:10:53.246878 168369 net.cpp:129] Top shape: 100 (100)
I0428 21:10:53.246882 168369 net.cpp:137] Memory required for data: 314800
I0428 21:10:53.246886 168369 layer_factory.hpp:77] Creating layer conv1
I0428 21:10:53.246901 168369 net.cpp:84] Creating Layer conv1
I0428 21:10:53.246906 168369 net.cpp:406] conv1 <- data
I0428 21:10:53.246914 168369 net.cpp:380] conv1 -> conv1
I0428 21:10:53.246949 168369 net.cpp:122] Setting up conv1
I0428 21:10:53.246958 168369 net.cpp:129] Top shape: 100 20 24 24 (1152000)
I0428 21:10:53.246963 168369 net.cpp:137] Memory required for data: 4922800
I0428 21:10:53.246991 168369 layer_factory.hpp:77] Creating layer pool1
I0428 21:10:53.246999 168369 net.cpp:84] Creating Layer pool1
I0428 21:10:53.247004 168369 net.cpp:406] pool1 <- conv1
I0428 21:10:53.247011 168369 net.cpp:380] pool1 -> pool1
I0428 21:10:53.247021 168369 net.cpp:122] Setting up pool1
I0428 21:10:53.247027 168369 net.cpp:129] Top shape: 100 20 12 12 (288000)
I0428 21:10:53.247033 168369 net.cpp:137] Memory required for data: 6074800
I0428 21:10:53.247038 168369 layer_factory.hpp:77] Creating layer conv2
I0428 21:10:53.247051 168369 net.cpp:84] Creating Layer conv2
I0428 21:10:53.247056 168369 net.cpp:406] conv2 <- pool1
I0428 21:10:53.247066 168369 net.cpp:380] conv2 -> conv2
I0428 21:10:53.247316 168369 net.cpp:122] Setting up conv2
I0428 21:10:53.247324 168369 net.cpp:129] Top shape: 100 50 8 8 (320000)
I0428 21:10:53.247329 168369 net.cpp:137] Memory required for data: 7354800
I0428 21:10:53.247339 168369 layer_factory.hpp:77] Creating layer pool2
I0428 21:10:53.247349 168369 net.cpp:84] Creating Layer pool2
I0428 21:10:53.247354 168369 net.cpp:406] pool2 <- conv2
I0428 21:10:53.247359 168369 net.cpp:380] pool2 -> pool2
I0428 21:10:53.247370 168369 net.cpp:122] Setting up pool2
I0428 21:10:53.247375 168369 net.cpp:129] Top shape: 100 50 4 4 (80000)
I0428 21:10:53.247380 168369 net.cpp:137] Memory required for data: 7674800
I0428 21:10:53.247383 168369 layer_factory.hpp:77] Creating layer ip1
I0428 21:10:53.247393 168369 net.cpp:84] Creating Layer ip1
I0428 21:10:53.247397 168369 net.cpp:406] ip1 <- pool2
I0428 21:10:53.247406 168369 net.cpp:380] ip1 -> ip1
I0428 21:10:53.251181 168369 net.cpp:122] Setting up ip1
I0428 21:10:53.251194 168369 net.cpp:129] Top shape: 100 500 (50000)
I0428 21:10:53.251197 168369 net.cpp:137] Memory required for data: 7874800
I0428 21:10:53.251209 168369 layer_factory.hpp:77] Creating layer relu1
I0428 21:10:53.251215 168369 net.cpp:84] Creating Layer relu1
I0428 21:10:53.251220 168369 net.cpp:406] relu1 <- ip1
I0428 21:10:53.251227 168369 net.cpp:367] relu1 -> ip1 (in-place)
I0428 21:10:53.251235 168369 net.cpp:122] Setting up relu1
I0428 21:10:53.251240 168369 net.cpp:129] Top shape: 100 500 (50000)
I0428 21:10:53.251245 168369 net.cpp:137] Memory required for data: 8074800
I0428 21:10:53.251248 168369 layer_factory.hpp:77] Creating layer ip2
I0428 21:10:53.251260 168369 net.cpp:84] Creating Layer ip2
I0428 21:10:53.251263 168369 net.cpp:406] ip2 <- ip1
I0428 21:10:53.251271 168369 net.cpp:380] ip2 -> ip2
I0428 21:10:53.251330 168369 net.cpp:122] Setting up ip2
I0428 21:10:53.251337 168369 net.cpp:129] Top shape: 100 10 (1000)
I0428 21:10:53.251340 168369 net.cpp:137] Memory required for data: 8078800
I0428 21:10:53.251348 168369 layer_factory.hpp:77] Creating layer ip2_ip2_0_split
I0428 21:10:53.251354 168369 net.cpp:84] Creating Layer ip2_ip2_0_split
I0428 21:10:53.251358 168369 net.cpp:406] ip2_ip2_0_split <- ip2
I0428 21:10:53.251366 168369 net.cpp:380] ip2_ip2_0_split -> ip2_ip2_0_split_0
I0428 21:10:53.251375 168369 net.cpp:380] ip2_ip2_0_split -> ip2_ip2_0_split_1
I0428 21:10:53.251382 168369 net.cpp:122] Setting up ip2_ip2_0_split
I0428 21:10:53.251389 168369 net.cpp:129] Top shape: 100 10 (1000)
I0428 21:10:53.251394 168369 net.cpp:129] Top shape: 100 10 (1000)
I0428 21:10:53.251397 168369 net.cpp:137] Memory required for data: 8086800
I0428 21:10:53.251401 168369 layer_factory.hpp:77] Creating layer accuracy
I0428 21:10:53.251410 168369 net.cpp:84] Creating Layer accuracy
I0428 21:10:53.251413 168369 net.cpp:406] accuracy <- ip2_ip2_0_split_0
I0428 21:10:53.251420 168369 net.cpp:406] accuracy <- label_mnist_1_split_0
I0428 21:10:53.251426 168369 net.cpp:380] accuracy -> accuracy
…
