…
I0504 17:02:55.275328 94920 net.cpp:294] The NetState phase (0) differed from the phase (1) specified by a rule in layer mnist
I0504 17:02:55.275346 94920 net.cpp:294] The NetState phase (0) differed from the phase (1) specified by a rule in layer accuracy
I0504 17:02:55.275450 94920 net.cpp:51] Initializing net from parameters: 
name: "LeNet"
state {
  phase: TRAIN
  level: 0
  stage: ""
}
layer {
  name: "mnist"
  type: "Data"
  top: "data"
  top: "label"
  include {
    phase: TRAIN
  }
  transform_param {
    scale: 0.00390625
  }
  data_param {
    source: "examples/mnist/mnist_train_lmdb"
    batch_size: 64
    backend: LMDB
  }
}
layer {
  name: "conv1"
  type: "Convolution"
  bottom: "data"
  top: "conv1"
  param {
    lr_mult: 1
  }
  param {
    lr_mult: 2
  }
  convolution_param {
    num_output: 20
    kernel_size: 5
    stride: 1
    weight_filler {
      type: "xavier"
    }
    bias_filler {
      type: "constant"
    }
  }
}
layer {
  name: "pool1"
  type: "Pooling"
  bottom: "conv1"
  top: "pool1"
  pooling_param {
    pool: MAX
    kernel_size: 2
    stride: 2
  }
}
layer {
  name: "conv2"
  type: "Convolution"
  bottom: "pool1"
  top: "conv2"
  param {
    lr_mult: 1
  }
  param {
    lr_mult: 2
  }
  convolution_param {
    num_output: 50
    kernel_size: 5
    stride: 1
    weight_filler {
      type: "xavier"
    }
    bias_filler {
      type: "constant"
    }
  }
}
layer {
  name: "pool2"
  type: "Pooling"
  bottom: "conv2"
  top: "pool2"
  pooling_param {
    pool: MAX
    kernel_size: 2
    stride: 2
  }
}
layer {
  name: "ip1"
  type: "InnerProduct"
  bottom: "pool2"
  top: "ip1"
  param {
    lr_mult: 1
  }
  param {
    lr_mult: 2
  }
  inner_product_param {
    num_output: 500
    weight_filler {
      type: "xavier"
    }
    bias_filler {
      type: "constant"
    }
  }
}
layer {
  name: "relu1"
  type: "ReLU"
  bottom: "ip1"
  top: "ip1"
}
layer {
  name: "ip2"
  type: "InnerProduct"
  bottom: "ip1"
  top: "ip2"
  param {
    lr_mult: 1
  }
  param {
    lr_mult: 2
  }
  inner_product_param {
    num_output: 10
    weight_filler {
      type: "xavier"
    }
    bias_filler {
      type: "constant"
    }
  }
}
layer {
  name: "loss"
  type: "SoftmaxWithLoss"
  bottom: "ip2"
  bottom: "label"
  top: "loss"
}
I0504 17:02:55.275518 94920 layer_factory.hpp:77] Creating layer mnist
I0504 17:02:55.275615 94920 db_lmdb.cpp:35] Opened lmdb examples/mnist/mnist_train_lmdb
I0504 17:02:55.275641 94920 net.cpp:84] Creating Layer mnist
I0504 17:02:55.275652 94920 net.cpp:380] mnist -> data
I0504 17:02:55.275676 94920 net.cpp:380] mnist -> label
I0504 17:02:55.275709 94920 data_layer.cpp:45] output data size: 64,1,28,28
I0504 17:02:55.276247 94920 net.cpp:122] Setting up mnist
I0504 17:02:55.276263 94920 net.cpp:129] Top shape: 64 1 28 28 (50176)
I0504 17:02:55.276269 94920 net.cpp:129] Top shape: 64 (64)
I0504 17:02:55.276274 94920 net.cpp:137] Memory required for data: 200960
I0504 17:02:55.276281 94920 layer_factory.hpp:77] Creating layer conv1
I0504 17:02:55.276299 94920 net.cpp:84] Creating Layer conv1
I0504 17:02:55.276306 94920 net.cpp:406] conv1 <- data
I0504 17:02:55.276319 94920 net.cpp:380] conv1 -> conv1
I0504 17:02:55.276365 94920 net.cpp:122] Setting up conv1
I0504 17:02:55.276376 94920 net.cpp:129] Top shape: 64 20 24 24 (737280)
I0504 17:02:55.276379 94920 net.cpp:137] Memory required for data: 3150080
I0504 17:02:55.276399 94920 layer_factory.hpp:77] Creating layer pool1
I0504 17:02:55.276409 94920 net.cpp:84] Creating Layer pool1
I0504 17:02:55.276415 94920 net.cpp:406] pool1 <- conv1
I0504 17:02:55.276429 94920 net.cpp:380] pool1 -> pool1
I0504 17:02:55.276454 94920 net.cpp:122] Setting up pool1
I0504 17:02:55.276463 94920 net.cpp:129] Top shape: 64 20 12 12 (184320)
I0504 17:02:55.276468 94920 net.cpp:137] Memory required for data: 3887360
I0504 17:02:55.276473 94920 layer_factory.hpp:77] Creating layer conv2
I0504 17:02:55.276484 94920 net.cpp:84] Creating Layer conv2
I0504 17:02:55.276489 94920 net.cpp:406] conv2 <- pool1
I0504 17:02:55.276496 94920 net.cpp:380] conv2 -> conv2
I0504 17:02:55.276769 94920 net.cpp:122] Setting up conv2
I0504 17:02:55.276779 94920 net.cpp:129] Top shape: 64 50 8 8 (204800)
I0504 17:02:55.276783 94920 net.cpp:137] Memory required for data: 4706560
I0504 17:02:55.276794 94920 layer_factory.hpp:77] Creating layer pool2
I0504 17:02:55.276803 94920 net.cpp:84] Creating Layer pool2
I0504 17:02:55.276808 94920 net.cpp:406] pool2 <- conv2
I0504 17:02:55.276814 94920 net.cpp:380] pool2 -> pool2
I0504 17:02:55.276825 94920 net.cpp:122] Setting up pool2
I0504 17:02:55.276832 94920 net.cpp:129] Top shape: 64 50 4 4 (51200)
I0504 17:02:55.276837 94920 net.cpp:137] Memory required for data: 4911360
I0504 17:02:55.276842 94920 layer_factory.hpp:77] Creating layer ip1
I0504 17:02:55.276852 94920 net.cpp:84] Creating Layer ip1
I0504 17:02:55.276857 94920 net.cpp:406] ip1 <- pool2
I0504 17:02:55.276866 94920 net.cpp:380] ip1 -> ip1
I0504 17:02:55.280769 94920 net.cpp:122] Setting up ip1
I0504 17:02:55.280781 94920 net.cpp:129] Top shape: 64 500 (32000)
I0504 17:02:55.280784 94920 net.cpp:137] Memory required for data: 5039360
I0504 17:02:55.280796 94920 layer_factory.hpp:77] Creating layer relu1
I0504 17:02:55.280802 94920 net.cpp:84] Creating Layer relu1
I0504 17:02:55.280807 94920 net.cpp:406] relu1 <- ip1
I0504 17:02:55.280813 94920 net.cpp:367] relu1 -> ip1 (in-place)
I0504 17:02:55.280822 94920 net.cpp:122] Setting up relu1
I0504 17:02:55.280827 94920 net.cpp:129] Top shape: 64 500 (32000)
I0504 17:02:55.280833 94920 net.cpp:137] Memory required for data: 5167360
I0504 17:02:55.280836 94920 layer_factory.hpp:77] Creating layer ip2
I0504 17:02:55.280843 94920 net.cpp:84] Creating Layer ip2
I0504 17:02:55.280848 94920 net.cpp:406] ip2 <- ip1
I0504 17:02:55.280855 94920 net.cpp:380] ip2 -> ip2
I0504 17:02:55.280920 94920 net.cpp:122] Setting up ip2
I0504 17:02:55.280927 94920 net.cpp:129] Top shape: 64 10 (640)
I0504 17:02:55.280931 94920 net.cpp:137] Memory required for data: 5169920
I0504 17:02:55.280939 94920 layer_factory.hpp:77] Creating layer loss
I0504 17:02:55.280946 94920 net.cpp:84] Creating Layer loss
I0504 17:02:55.280951 94920 net.cpp:406] loss <- ip2
I0504 17:02:55.280956 94920 net.cpp:406] loss <- label
I0504 17:02:55.280964 94920 net.cpp:380] loss -> loss
I0504 17:02:55.280977 94920 layer_factory.hpp:77] Creating layer loss
…
