…
I0428 21:02:47.227617 168281 net.cpp:294] The NetState phase (0) differed from the phase (1) specified by a rule in layer mnist
I0428 21:02:47.227632 168281 net.cpp:294] The NetState phase (0) differed from the phase (1) specified by a rule in layer accuracy
I0428 21:02:47.227721 168281 net.cpp:51] Initializing net from parameters: 
name: "LeNet"
state {
  phase: TRAIN
  level: 0
  stage: ""
}
layer {
  name: "mnist"
  type: "Data"
  top: "data"
  top: "label"
  include {
    phase: TRAIN
  }
  transform_param {
    scale: 0.00390625
  }
  data_param {
    source: "examples/mnist/mnist_train_lmdb"
    batch_size: 64
    backend: LMDB
  }
}
layer {
  name: "conv1"
  type: "Convolution"
  bottom: "data"
  top: "conv1"
  param {
    lr_mult: 1
  }
  param {
    lr_mult: 2
  }
  convolution_param {
    num_output: 20
    kernel_size: 5
    stride: 1
    weight_filler {
      type: "xavier"
    }
    bias_filler {
      type: "constant"
    }
  }
}
layer {
  name: "pool1"
  type: "Pooling"
  bottom: "conv1"
  top: "pool1"
  pooling_param {
    pool: MAX
    kernel_size: 2
    stride: 2
  }
}
layer {
  name: "conv2"
  type: "Convolution"
  bottom: "pool1"
  top: "conv2"
  param {
    lr_mult: 1
  }
  param {
    lr_mult: 2
  }
  convolution_param {
    num_output: 50
    kernel_size: 5
    stride: 1
    weight_filler {
      type: "xavier"
    }
    bias_filler {
      type: "constant"
    }
  }
}
layer {
  name: "pool2"
  type: "Pooling"
  bottom: "conv2"
  top: "pool2"
  pooling_param {
    pool: MAX
    kernel_size: 2
    stride: 2
  }
}
layer {
  name: "ip1"
  type: "InnerProduct"
  bottom: "pool2"
  top: "ip1"
  param {
    lr_mult: 1
  }
  param {
    lr_mult: 2
  }
  inner_product_param {
    num_output: 500
    weight_filler {
      type: "xavier"
    }
    bias_filler {
      type: "constant"
    }
  }
}
layer {
  name: "relu1"
  type: "ReLU"
  bottom: "ip1"
  top: "ip1"
}
layer {
  name: "ip2"
  type: "InnerProduct"
  bottom: "ip1"
  top: "ip2"
  param {
    lr_mult: 1
  }
  param {
    lr_mult: 2
  }
  inner_product_param {
    num_output: 10
    weight_filler {
      type: "xavier"
    }
    bias_filler {
      type: "constant"
    }
  }
}
layer {
  name: "loss"
  type: "SoftmaxWithLoss"
  bottom: "ip2"
  bottom: "label"
  top: "loss"
}
I0428 21:02:47.227782 168281 layer_factory.hpp:77] Creating layer mnist
I0428 21:02:47.227869 168281 db_lmdb.cpp:35] Opened lmdb examples/mnist/mnist_train_lmdb
I0428 21:02:47.227895 168281 net.cpp:84] Creating Layer mnist
I0428 21:02:47.227905 168281 net.cpp:380] mnist -> data
I0428 21:02:47.227924 168281 net.cpp:380] mnist -> label
I0428 21:02:47.227955 168281 data_layer.cpp:45] output data size: 64,1,28,28
I0428 21:02:47.228425 168281 net.cpp:122] Setting up mnist
I0428 21:02:47.228444 168281 net.cpp:129] Top shape: 64 1 28 28 (50176)
I0428 21:02:47.228451 168281 net.cpp:129] Top shape: 64 (64)
I0428 21:02:47.228453 168281 net.cpp:137] Memory required for data: 200960
I0428 21:02:47.228461 168281 layer_factory.hpp:77] Creating layer conv1
I0428 21:02:47.228474 168281 net.cpp:84] Creating Layer conv1
I0428 21:02:47.228480 168281 net.cpp:406] conv1 <- data
I0428 21:02:47.228492 168281 net.cpp:380] conv1 -> conv1
I0428 21:02:47.228531 168281 net.cpp:122] Setting up conv1
I0428 21:02:47.228539 168281 net.cpp:129] Top shape: 64 20 24 24 (737280)
I0428 21:02:47.228543 168281 net.cpp:137] Memory required for data: 3150080
I0428 21:02:47.228561 168281 layer_factory.hpp:77] Creating layer pool1
I0428 21:02:47.228569 168281 net.cpp:84] Creating Layer pool1
I0428 21:02:47.228581 168281 net.cpp:406] pool1 <- conv1
I0428 21:02:47.228602 168281 net.cpp:380] pool1 -> pool1
I0428 21:02:47.228616 168281 net.cpp:122] Setting up pool1
I0428 21:02:47.228622 168281 net.cpp:129] Top shape: 64 20 12 12 (184320)
I0428 21:02:47.228626 168281 net.cpp:137] Memory required for data: 3887360
I0428 21:02:47.228631 168281 layer_factory.hpp:77] Creating layer conv2
I0428 21:02:47.228641 168281 net.cpp:84] Creating Layer conv2
I0428 21:02:47.228644 168281 net.cpp:406] conv2 <- pool1
I0428 21:02:47.228652 168281 net.cpp:380] conv2 -> conv2
I0428 21:02:47.228878 168281 net.cpp:122] Setting up conv2
I0428 21:02:47.228885 168281 net.cpp:129] Top shape: 64 50 8 8 (204800)
I0428 21:02:47.228889 168281 net.cpp:137] Memory required for data: 4706560
I0428 21:02:47.228898 168281 layer_factory.hpp:77] Creating layer pool2
I0428 21:02:47.228905 168281 net.cpp:84] Creating Layer pool2
I0428 21:02:47.228910 168281 net.cpp:406] pool2 <- conv2
I0428 21:02:47.228915 168281 net.cpp:380] pool2 -> pool2
I0428 21:02:47.228924 168281 net.cpp:122] Setting up pool2
I0428 21:02:47.228931 168281 net.cpp:129] Top shape: 64 50 4 4 (51200)
I0428 21:02:47.228935 168281 net.cpp:137] Memory required for data: 4911360
I0428 21:02:47.228940 168281 layer_factory.hpp:77] Creating layer ip1
I0428 21:02:47.228947 168281 net.cpp:84] Creating Layer ip1
I0428 21:02:47.228952 168281 net.cpp:406] ip1 <- pool2
I0428 21:02:47.228960 168281 net.cpp:380] ip1 -> ip1
I0428 21:02:47.232223 168281 net.cpp:122] Setting up ip1
I0428 21:02:47.232231 168281 net.cpp:129] Top shape: 64 500 (32000)
I0428 21:02:47.232235 168281 net.cpp:137] Memory required for data: 5039360
I0428 21:02:47.232244 168281 layer_factory.hpp:77] Creating layer relu1
I0428 21:02:47.232250 168281 net.cpp:84] Creating Layer relu1
I0428 21:02:47.232255 168281 net.cpp:406] relu1 <- ip1
I0428 21:02:47.232261 168281 net.cpp:367] relu1 -> ip1 (in-place)
I0428 21:02:47.232270 168281 net.cpp:122] Setting up relu1
I0428 21:02:47.232275 168281 net.cpp:129] Top shape: 64 500 (32000)
I0428 21:02:47.232277 168281 net.cpp:137] Memory required for data: 5167360
I0428 21:02:47.232282 168281 layer_factory.hpp:77] Creating layer ip2
I0428 21:02:47.232288 168281 net.cpp:84] Creating Layer ip2
I0428 21:02:47.232292 168281 net.cpp:406] ip2 <- ip1
I0428 21:02:47.232298 168281 net.cpp:380] ip2 -> ip2
I0428 21:02:47.232359 168281 net.cpp:122] Setting up ip2
I0428 21:02:47.232365 168281 net.cpp:129] Top shape: 64 10 (640)
I0428 21:02:47.232368 168281 net.cpp:137] Memory required for data: 5169920
I0428 21:02:47.232375 168281 layer_factory.hpp:77] Creating layer loss
I0428 21:02:47.232383 168281 net.cpp:84] Creating Layer loss
I0428 21:02:47.232388 168281 net.cpp:406] loss <- ip2
I0428 21:02:47.232391 168281 net.cpp:406] loss <- label
I0428 21:02:47.232398 168281 net.cpp:380] loss -> loss
I0428 21:02:47.232410 168281 layer_factory.hpp:77] Creating layer loss
…
I0428 21:02:47.232662 168281 solver.cpp:172] Creating test net (#0) specified by net file: examples/mnist/lenet_train_test.prototxt
I0428 21:02:47.232700 168281 net.cpp:294] The NetState phase (1) differed from the phase (0) specified by a rule in layer mnist
I0428 21:02:47.232794 168281 net.cpp:51] Initializing net from parameters: 
name: "LeNet"
state {
  phase: TEST
}
layer {
  name: "mnist"
  type: "Data"
  top: "data"
  top: "label"
  include {
    phase: TEST
  }
  transform_param {
    scale: 0.00390625
  }
  data_param {
    source: "examples/mnist/mnist_test_lmdb"
    batch_size: 100
    backend: LMDB
  }
}
layer {
  name: "conv1"
  type: "Convolution"
  bottom: "data"
  top: "conv1"
  param {
    lr_mult: 1
  }
  param {
    lr_mult: 2
  }
  convolution_param {
    num_output: 20
    kernel_size: 5
    stride: 1
    weight_filler {
      type: "xavier"
    }
    bias_filler {
      type: "constant"
    }
  }
}
layer {
  name: "pool1"
  type: "Pooling"
  bottom: "conv1"
  top: "pool1"
  pooling_param {
    pool: MAX
    kernel_size: 2
    stride: 2
  }
}
layer {
  name: "conv2"
  type: "Convolution"
  bottom: "pool1"
  top: "conv2"
  param {
    lr_mult: 1
  }
  param {
    lr_mult: 2
  }
  convolution_param {
    num_output: 50
    kernel_size: 5
    stride: 1
    weight_filler {
      type: "xavier"
    }
    bias_filler {
      type: "constant"
    }
  }
}
layer {
  name: "pool2"
  type: "Pooling"
  bottom: "conv2"
  top: "pool2"
  pooling_param {
    pool: MAX
    kernel_size: 2
    stride: 2
  }
}
layer {
  name: "ip1"
  type: "InnerProduct"
  bottom: "pool2"
  top: "ip1"
  param {
    lr_mult: 1
  }
  param {
    lr_mult: 2
  }
  inner_product_param {
    num_output: 500
    weight_filler {
      type: "xavier"
    }
    bias_filler {
      type: "constant"
    }
  }
}
layer {
  name: "relu1"
  type: "ReLU"
  bottom: "ip1"
  top: "ip1"
}
layer {
  name: "ip2"
  type: "InnerProduct"
  bottom: "ip1"
  top: "ip2"
  param {
    lr_mult: 1
  }
  param {
    lr_mult: 2
  }
  inner_product_param {
    num_output: 10
    weight_filler {
      type: "xavier"
    }
    bias_filler {
      type: "constant"
    }
  }
}
layer {
  name: "accuracy"
  type: "Accuracy"
  bottom: "ip2"
  bottom: "label"
  top: "accuracy"
  include {
    phase: TEST
  }
}
layer {
  name: "loss"
  type: "SoftmaxWithLoss"
  bottom: "ip2"
  bottom: "label"
  top: "loss"
}
I0428 21:02:47.232864 168281 layer_factory.hpp:77] Creating layer mnist
I0428 21:02:47.232913 168281 db_lmdb.cpp:35] Opened lmdb examples/mnist/mnist_test_lmdb
I0428 21:02:47.232926 168281 net.cpp:84] Creating Layer mnist
I0428 21:02:47.232933 168281 net.cpp:380] mnist -> data
I0428 21:02:47.232942 168281 net.cpp:380] mnist -> label
I0428 21:02:47.232957 168281 data_layer.cpp:45] output data size: 100,1,28,28
I0428 21:02:47.233006 168281 net.cpp:122] Setting up mnist
I0428 21:02:47.233016 168281 net.cpp:129] Top shape: 100 1 28 28 (78400)
I0428 21:02:47.233021 168281 net.cpp:129] Top shape: 100 (100)
I0428 21:02:47.233024 168281 net.cpp:137] Memory required for data: 314000
I0428 21:02:47.233029 168281 layer_factory.hpp:77] Creating layer label_mnist_1_split
I0428 21:02:47.233049 168281 net.cpp:84] Creating Layer label_mnist_1_split
I0428 21:02:47.233054 168281 net.cpp:406] label_mnist_1_split <- label
I0428 21:02:47.233062 168281 net.cpp:380] label_mnist_1_split -> label_mnist_1_split_0
I0428 21:02:47.233072 168281 net.cpp:380] label_mnist_1_split -> label_mnist_1_split_1
I0428 21:02:47.233080 168281 net.cpp:122] Setting up label_mnist_1_split
I0428 21:02:47.233085 168281 net.cpp:129] Top shape: 100 (100)
I0428 21:02:47.233091 168281 net.cpp:129] Top shape: 100 (100)
I0428 21:02:47.233094 168281 net.cpp:137] Memory required for data: 314800
I0428 21:02:47.233098 168281 layer_factory.hpp:77] Creating layer conv1
I0428 21:02:47.233109 168281 net.cpp:84] Creating Layer conv1
I0428 21:02:47.233115 168281 net.cpp:406] conv1 <- data
I0428 21:02:47.233122 168281 net.cpp:380] conv1 -> conv1
I0428 21:02:47.233152 168281 net.cpp:122] Setting up conv1
I0428 21:02:47.233158 168281 net.cpp:129] Top shape: 100 20 24 24 (1152000)
I0428 21:02:47.233163 168281 net.cpp:137] Memory required for data: 4922800
I0428 21:02:47.233186 168281 layer_factory.hpp:77] Creating layer pool1
I0428 21:02:47.233194 168281 net.cpp:84] Creating Layer pool1
I0428 21:02:47.233198 168281 net.cpp:406] pool1 <- conv1
I0428 21:02:47.233206 168281 net.cpp:380] pool1 -> pool1
I0428 21:02:47.233214 168281 net.cpp:122] Setting up pool1
I0428 21:02:47.233220 168281 net.cpp:129] Top shape: 100 20 12 12 (288000)
I0428 21:02:47.233224 168281 net.cpp:137] Memory required for data: 6074800
I0428 21:02:47.233229 168281 layer_factory.hpp:77] Creating layer conv2
I0428 21:02:47.233242 168281 net.cpp:84] Creating Layer conv2
I0428 21:02:47.233245 168281 net.cpp:406] conv2 <- pool1
I0428 21:02:47.233252 168281 net.cpp:380] conv2 -> conv2
I0428 21:02:47.233516 168281 net.cpp:122] Setting up conv2
I0428 21:02:47.233526 168281 net.cpp:129] Top shape: 100 50 8 8 (320000)
I0428 21:02:47.233530 168281 net.cpp:137] Memory required for data: 7354800
I0428 21:02:47.233539 168281 layer_factory.hpp:77] Creating layer pool2
I0428 21:02:47.233548 168281 net.cpp:84] Creating Layer pool2
I0428 21:02:47.233553 168281 net.cpp:406] pool2 <- conv2
I0428 21:02:47.233559 168281 net.cpp:380] pool2 -> pool2
I0428 21:02:47.233567 168281 net.cpp:122] Setting up pool2
I0428 21:02:47.233574 168281 net.cpp:129] Top shape: 100 50 4 4 (80000)
I0428 21:02:47.233577 168281 net.cpp:137] Memory required for data: 7674800
I0428 21:02:47.233582 168281 layer_factory.hpp:77] Creating layer ip1
I0428 21:02:47.233590 168281 net.cpp:84] Creating Layer ip1
I0428 21:02:47.233595 168281 net.cpp:406] ip1 <- pool2
I0428 21:02:47.233602 168281 net.cpp:380] ip1 -> ip1
I0428 21:02:47.236907 168281 net.cpp:122] Setting up ip1
I0428 21:02:47.236917 168281 net.cpp:129] Top shape: 100 500 (50000)
I0428 21:02:47.236922 168281 net.cpp:137] Memory required for data: 7874800
I0428 21:02:47.236932 168281 layer_factory.hpp:77] Creating layer relu1
I0428 21:02:47.236937 168281 net.cpp:84] Creating Layer relu1
I0428 21:02:47.236941 168281 net.cpp:406] relu1 <- ip1
I0428 21:02:47.236948 168281 net.cpp:367] relu1 -> ip1 (in-place)
I0428 21:02:47.236954 168281 net.cpp:122] Setting up relu1
I0428 21:02:47.236959 168281 net.cpp:129] Top shape: 100 500 (50000)
I0428 21:02:47.236963 168281 net.cpp:137] Memory required for data: 8074800
I0428 21:02:47.236968 168281 layer_factory.hpp:77] Creating layer ip2
I0428 21:02:47.236976 168281 net.cpp:84] Creating Layer ip2
I0428 21:02:47.236981 168281 net.cpp:406] ip2 <- ip1
I0428 21:02:47.236987 168281 net.cpp:380] ip2 -> ip2
I0428 21:02:47.237040 168281 net.cpp:122] Setting up ip2
I0428 21:02:47.237045 168281 net.cpp:129] Top shape: 100 10 (1000)
I0428 21:02:47.237048 168281 net.cpp:137] Memory required for data: 8078800
I0428 21:02:47.237054 168281 layer_factory.hpp:77] Creating layer ip2_ip2_0_split
I0428 21:02:47.237061 168281 net.cpp:84] Creating Layer ip2_ip2_0_split
I0428 21:02:47.237066 168281 net.cpp:406] ip2_ip2_0_split <- ip2
I0428 21:02:47.237071 168281 net.cpp:380] ip2_ip2_0_split -> ip2_ip2_0_split_0
I0428 21:02:47.237079 168281 net.cpp:380] ip2_ip2_0_split -> ip2_ip2_0_split_1
I0428 21:02:47.237087 168281 net.cpp:122] Setting up ip2_ip2_0_split
I0428 21:02:47.237092 168281 net.cpp:129] Top shape: 100 10 (1000)
I0428 21:02:47.237097 168281 net.cpp:129] Top shape: 100 10 (1000)
I0428 21:02:47.237099 168281 net.cpp:137] Memory required for data: 8086800
I0428 21:02:47.237104 168281 layer_factory.hpp:77] Creating layer accuracy
I0428 21:02:47.237110 168281 net.cpp:84] Creating Layer accuracy
I0428 21:02:47.237114 168281 net.cpp:406] accuracy <- ip2_ip2_0_split_0
I0428 21:02:47.237119 168281 net.cpp:406] accuracy <- label_mnist_1_split_0
I0428 21:02:47.237126 168281 net.cpp:380] accuracy -> accuracy
…
