…
I0428 21:19:02.166401 168386 net.cpp:294] The NetState phase (0) differed from the phase (1) specified by a rule in layer mnist
I0428 21:19:02.166417 168386 net.cpp:294] The NetState phase (0) differed from the phase (1) specified by a rule in layer accuracy
I0428 21:19:02.166522 168386 net.cpp:51] Initializing net from parameters: 
name: "LeNet"
state {
  phase: TRAIN
  level: 0
  stage: ""
}
layer {
  name: "mnist"
  type: "Data"
  top: "data"
  top: "label"
  include {
    phase: TRAIN
  }
  transform_param {
    scale: 0.00390625
  }
  data_param {
    source: "examples/mnist/mnist_train_lmdb"
    batch_size: 64
    backend: LMDB
  }
}
layer {
  name: "conv1"
  type: "Convolution"
  bottom: "data"
  top: "conv1"
  param {
    lr_mult: 1
  }
  param {
    lr_mult: 2
  }
  convolution_param {
    num_output: 20
    kernel_size: 5
    stride: 1
    weight_filler {
      type: "xavier"
    }
    bias_filler {
      type: "constant"
    }
  }
}
layer {
  name: "pool1"
  type: "Pooling"
  bottom: "conv1"
  top: "pool1"
  pooling_param {
    pool: MAX
    kernel_size: 2
    stride: 2
  }
}
layer {
  name: "conv2"
  type: "Convolution"
  bottom: "pool1"
  top: "conv2"
  param {
    lr_mult: 1
  }
  param {
    lr_mult: 2
  }
  convolution_param {
    num_output: 50
    kernel_size: 5
    stride: 1
    weight_filler {
      type: "xavier"
    }
    bias_filler {
      type: "constant"
    }
  }
}
layer {
  name: "pool2"
  type: "Pooling"
  bottom: "conv2"
  top: "pool2"
  pooling_param {
    pool: MAX
    kernel_size: 2
    stride: 2
  }
}
layer {
  name: "ip1"
  type: "InnerProduct"
  bottom: "pool2"
  top: "ip1"
  param {
    lr_mult: 1
  }
  param {
    lr_mult: 2
  }
  inner_product_param {
    num_output: 500
    weight_filler {
      type: "xavier"
    }
    bias_filler {
      type: "constant"
    }
  }
}
layer {
  name: "relu1"
  type: "ReLU"
  bottom: "ip1"
  top: "ip1"
}
layer {
  name: "ip2"
  type: "InnerProduct"
  bottom: "ip1"
  top: "ip2"
  param {
    lr_mult: 1
  }
  param {
    lr_mult: 2
  }
  inner_product_param {
    num_output: 10
    weight_filler {
      type: "xavier"
    }
    bias_filler {
      type: "constant"
    }
  }
}
layer {
  name: "loss"
  type: "SoftmaxWithLoss"
  bottom: "ip2"
  bottom: "label"
  top: "loss"
}
I0428 21:19:02.166590 168386 layer_factory.hpp:77] Creating layer mnist
I0428 21:19:02.166690 168386 db_lmdb.cpp:35] Opened lmdb examples/mnist/mnist_train_lmdb
I0428 21:19:02.166718 168386 net.cpp:84] Creating Layer mnist
I0428 21:19:02.166729 168386 net.cpp:380] mnist -> data
I0428 21:19:02.166752 168386 net.cpp:380] mnist -> label
I0428 21:19:02.166786 168386 data_layer.cpp:45] output data size: 64,1,28,28
I0428 21:19:02.167315 168386 net.cpp:122] Setting up mnist
I0428 21:19:02.167335 168386 net.cpp:129] Top shape: 64 1 28 28 (50176)
I0428 21:19:02.167342 168386 net.cpp:129] Top shape: 64 (64)
I0428 21:19:02.167346 168386 net.cpp:137] Memory required for data: 200960
I0428 21:19:02.167354 168386 layer_factory.hpp:77] Creating layer conv1
I0428 21:19:02.167371 168386 net.cpp:84] Creating Layer conv1
I0428 21:19:02.167378 168386 net.cpp:406] conv1 <- data
I0428 21:19:02.167392 168386 net.cpp:380] conv1 -> conv1
I0428 21:19:02.167438 168386 net.cpp:122] Setting up conv1
I0428 21:19:02.167448 168386 net.cpp:129] Top shape: 64 20 24 24 (737280)
I0428 21:19:02.167453 168386 net.cpp:137] Memory required for data: 3150080
I0428 21:19:02.167472 168386 layer_factory.hpp:77] Creating layer pool1
I0428 21:19:02.167482 168386 net.cpp:84] Creating Layer pool1
I0428 21:19:02.167497 168386 net.cpp:406] pool1 <- conv1
I0428 21:19:02.167513 168386 net.cpp:380] pool1 -> pool1
I0428 21:19:02.167531 168386 net.cpp:122] Setting up pool1
I0428 21:19:02.167538 168386 net.cpp:129] Top shape: 64 20 12 12 (184320)
I0428 21:19:02.167543 168386 net.cpp:137] Memory required for data: 3887360
I0428 21:19:02.167548 168386 layer_factory.hpp:77] Creating layer conv2
I0428 21:19:02.167559 168386 net.cpp:84] Creating Layer conv2
I0428 21:19:02.167564 168386 net.cpp:406] conv2 <- pool1
I0428 21:19:02.167573 168386 net.cpp:380] conv2 -> conv2
I0428 21:19:02.167860 168386 net.cpp:122] Setting up conv2
I0428 21:19:02.167870 168386 net.cpp:129] Top shape: 64 50 8 8 (204800)
I0428 21:19:02.167876 168386 net.cpp:137] Memory required for data: 4706560
I0428 21:19:02.167886 168386 layer_factory.hpp:77] Creating layer pool2
I0428 21:19:02.167894 168386 net.cpp:84] Creating Layer pool2
I0428 21:19:02.167899 168386 net.cpp:406] pool2 <- conv2
I0428 21:19:02.167906 168386 net.cpp:380] pool2 -> pool2
I0428 21:19:02.167917 168386 net.cpp:122] Setting up pool2
I0428 21:19:02.167924 168386 net.cpp:129] Top shape: 64 50 4 4 (51200)
I0428 21:19:02.167929 168386 net.cpp:137] Memory required for data: 4911360
I0428 21:19:02.167935 168386 layer_factory.hpp:77] Creating layer ip1
I0428 21:19:02.167944 168386 net.cpp:84] Creating Layer ip1
I0428 21:19:02.167949 168386 net.cpp:406] ip1 <- pool2
I0428 21:19:02.167958 168386 net.cpp:380] ip1 -> ip1
I0428 21:19:02.171753 168386 net.cpp:122] Setting up ip1
I0428 21:19:02.171764 168386 net.cpp:129] Top shape: 64 500 (32000)
I0428 21:19:02.171769 168386 net.cpp:137] Memory required for data: 5039360
I0428 21:19:02.171779 168386 layer_factory.hpp:77] Creating layer relu1
I0428 21:19:02.171787 168386 net.cpp:84] Creating Layer relu1
I0428 21:19:02.171792 168386 net.cpp:406] relu1 <- ip1
I0428 21:19:02.171799 168386 net.cpp:367] relu1 -> ip1 (in-place)
I0428 21:19:02.171808 168386 net.cpp:122] Setting up relu1
I0428 21:19:02.171813 168386 net.cpp:129] Top shape: 64 500 (32000)
I0428 21:19:02.171818 168386 net.cpp:137] Memory required for data: 5167360
I0428 21:19:02.171823 168386 layer_factory.hpp:77] Creating layer ip2
I0428 21:19:02.171829 168386 net.cpp:84] Creating Layer ip2
I0428 21:19:02.171833 168386 net.cpp:406] ip2 <- ip1
I0428 21:19:02.171841 168386 net.cpp:380] ip2 -> ip2
I0428 21:19:02.171908 168386 net.cpp:122] Setting up ip2
I0428 21:19:02.171916 168386 net.cpp:129] Top shape: 64 10 (640)
I0428 21:19:02.171919 168386 net.cpp:137] Memory required for data: 5169920
I0428 21:19:02.171927 168386 layer_factory.hpp:77] Creating layer loss
I0428 21:19:02.171936 168386 net.cpp:84] Creating Layer loss
I0428 21:19:02.171939 168386 net.cpp:406] loss <- ip2
I0428 21:19:02.171946 168386 net.cpp:406] loss <- label
I0428 21:19:02.171953 168386 net.cpp:380] loss -> loss
I0428 21:19:02.171965 168386 layer_factory.hpp:77] Creating layer loss
…
I0428 21:19:02.172264 168386 solver.cpp:172] Creating test net (#0) specified by net file: examples/mnist/lenet_train_test.prototxt
I0428 21:19:02.172307 168386 net.cpp:294] The NetState phase (1) differed from the phase (0) specified by a rule in layer mnist
I0428 21:19:02.172415 168386 net.cpp:51] Initializing net from parameters: 
name: "LeNet"
state {
  phase: TEST
}
layer {
  name: "mnist"
  type: "Data"
  top: "data"
  top: "label"
  include {
    phase: TEST
  }
  transform_param {
    scale: 0.00390625
  }
  data_param {
    source: "examples/mnist/mnist_test_lmdb"
    batch_size: 100
    backend: LMDB
  }
}
layer {
  name: "conv1"
  type: "Convolution"
  bottom: "data"
  top: "conv1"
  param {
    lr_mult: 1
  }
  param {
    lr_mult: 2
  }
  convolution_param {
    num_output: 20
    kernel_size: 5
    stride: 1
    weight_filler {
      type: "xavier"
    }
    bias_filler {
      type: "constant"
    }
  }
}
layer {
  name: "pool1"
  type: "Pooling"
  bottom: "conv1"
  top: "pool1"
  pooling_param {
    pool: MAX
    kernel_size: 2
    stride: 2
  }
}
layer {
  name: "conv2"
  type: "Convolution"
  bottom: "pool1"
  top: "conv2"
  param {
    lr_mult: 1
  }
  param {
    lr_mult: 2
  }
  convolution_param {
    num_output: 50
    kernel_size: 5
    stride: 1
    weight_filler {
      type: "xavier"
    }
    bias_filler {
      type: "constant"
    }
  }
}
layer {
  name: "pool2"
  type: "Pooling"
  bottom: "conv2"
  top: "pool2"
  pooling_param {
    pool: MAX
    kernel_size: 2
    stride: 2
  }
}
layer {
  name: "ip1"
  type: "InnerProduct"
  bottom: "pool2"
  top: "ip1"
  param {
    lr_mult: 1
  }
  param {
    lr_mult: 2
  }
  inner_product_param {
    num_output: 500
    weight_filler {
      type: "xavier"
    }
    bias_filler {
      type: "constant"
    }
  }
}
layer {
  name: "relu1"
  type: "ReLU"
  bottom: "ip1"
  top: "ip1"
}
layer {
  name: "ip2"
  type: "InnerProduct"
  bottom: "ip1"
  top: "ip2"
  param {
    lr_mult: 1
  }
  param {
    lr_mult: 2
  }
  inner_product_param {
    num_output: 10
    weight_filler {
      type: "xavier"
    }
    bias_filler {
      type: "constant"
    }
  }
}
layer {
  name: "accuracy"
  type: "Accuracy"
  bottom: "ip2"
  bottom: "label"
  top: "accuracy"
  include {
    phase: TEST
  }
}
layer {
  name: "loss"
  type: "SoftmaxWithLoss"
  bottom: "ip2"
  bottom: "label"
  top: "loss"
}
I0428 21:19:02.172497 168386 layer_factory.hpp:77] Creating layer mnist
I0428 21:19:02.172551 168386 db_lmdb.cpp:35] Opened lmdb examples/mnist/mnist_test_lmdb
I0428 21:19:02.172571 168386 net.cpp:84] Creating Layer mnist
I0428 21:19:02.172580 168386 net.cpp:380] mnist -> data
I0428 21:19:02.172591 168386 net.cpp:380] mnist -> label
I0428 21:19:02.172608 168386 data_layer.cpp:45] output data size: 100,1,28,28
I0428 21:19:02.172662 168386 net.cpp:122] Setting up mnist
I0428 21:19:02.172673 168386 net.cpp:129] Top shape: 100 1 28 28 (78400)
I0428 21:19:02.172680 168386 net.cpp:129] Top shape: 100 (100)
I0428 21:19:02.172684 168386 net.cpp:137] Memory required for data: 314000
I0428 21:19:02.172689 168386 layer_factory.hpp:77] Creating layer label_mnist_1_split
I0428 21:19:02.172700 168386 net.cpp:84] Creating Layer label_mnist_1_split
I0428 21:19:02.172705 168386 net.cpp:406] label_mnist_1_split <- label
I0428 21:19:02.172713 168386 net.cpp:380] label_mnist_1_split -> label_mnist_1_split_0
I0428 21:19:02.172732 168386 net.cpp:380] label_mnist_1_split -> label_mnist_1_split_1
I0428 21:19:02.172742 168386 net.cpp:122] Setting up label_mnist_1_split
I0428 21:19:02.172749 168386 net.cpp:129] Top shape: 100 (100)
I0428 21:19:02.172755 168386 net.cpp:129] Top shape: 100 (100)
I0428 21:19:02.172758 168386 net.cpp:137] Memory required for data: 314800
I0428 21:19:02.172762 168386 layer_factory.hpp:77] Creating layer conv1
I0428 21:19:02.172776 168386 net.cpp:84] Creating Layer conv1
I0428 21:19:02.172782 168386 net.cpp:406] conv1 <- data
I0428 21:19:02.172791 168386 net.cpp:380] conv1 -> conv1
I0428 21:19:02.172827 168386 net.cpp:122] Setting up conv1
I0428 21:19:02.172835 168386 net.cpp:129] Top shape: 100 20 24 24 (1152000)
I0428 21:19:02.172839 168386 net.cpp:137] Memory required for data: 4922800
I0428 21:19:02.172865 168386 layer_factory.hpp:77] Creating layer pool1
I0428 21:19:02.172873 168386 net.cpp:84] Creating Layer pool1
I0428 21:19:02.172878 168386 net.cpp:406] pool1 <- conv1
I0428 21:19:02.172885 168386 net.cpp:380] pool1 -> pool1
I0428 21:19:02.172895 168386 net.cpp:122] Setting up pool1
I0428 21:19:02.172901 168386 net.cpp:129] Top shape: 100 20 12 12 (288000)
I0428 21:19:02.172907 168386 net.cpp:137] Memory required for data: 6074800
I0428 21:19:02.172911 168386 layer_factory.hpp:77] Creating layer conv2
I0428 21:19:02.172924 168386 net.cpp:84] Creating Layer conv2
I0428 21:19:02.172929 168386 net.cpp:406] conv2 <- pool1
I0428 21:19:02.172937 168386 net.cpp:380] conv2 -> conv2
I0428 21:19:02.173213 168386 net.cpp:122] Setting up conv2
I0428 21:19:02.173223 168386 net.cpp:129] Top shape: 100 50 8 8 (320000)
I0428 21:19:02.173228 168386 net.cpp:137] Memory required for data: 7354800
I0428 21:19:02.173239 168386 layer_factory.hpp:77] Creating layer pool2
I0428 21:19:02.173249 168386 net.cpp:84] Creating Layer pool2
I0428 21:19:02.173252 168386 net.cpp:406] pool2 <- conv2
I0428 21:19:02.173259 168386 net.cpp:380] pool2 -> pool2
I0428 21:19:02.173269 168386 net.cpp:122] Setting up pool2
I0428 21:19:02.173277 168386 net.cpp:129] Top shape: 100 50 4 4 (80000)
I0428 21:19:02.173281 168386 net.cpp:137] Memory required for data: 7674800
I0428 21:19:02.173285 168386 layer_factory.hpp:77] Creating layer ip1
I0428 21:19:02.173296 168386 net.cpp:84] Creating Layer ip1
I0428 21:19:02.173301 168386 net.cpp:406] ip1 <- pool2
I0428 21:19:02.173308 168386 net.cpp:380] ip1 -> ip1
I0428 21:19:02.177093 168386 net.cpp:122] Setting up ip1
I0428 21:19:02.177103 168386 net.cpp:129] Top shape: 100 500 (50000)
I0428 21:19:02.177109 168386 net.cpp:137] Memory required for data: 7874800
I0428 21:19:02.177119 168386 layer_factory.hpp:77] Creating layer relu1
I0428 21:19:02.177126 168386 net.cpp:84] Creating Layer relu1
I0428 21:19:02.177131 168386 net.cpp:406] relu1 <- ip1
I0428 21:19:02.177139 168386 net.cpp:367] relu1 -> ip1 (in-place)
I0428 21:19:02.177145 168386 net.cpp:122] Setting up relu1
I0428 21:19:02.177151 168386 net.cpp:129] Top shape: 100 500 (50000)
I0428 21:19:02.177155 168386 net.cpp:137] Memory required for data: 8074800
I0428 21:19:02.177160 168386 layer_factory.hpp:77] Creating layer ip2
I0428 21:19:02.177170 168386 net.cpp:84] Creating Layer ip2
I0428 21:19:02.177175 168386 net.cpp:406] ip2 <- ip1
I0428 21:19:02.177182 168386 net.cpp:380] ip2 -> ip2
I0428 21:19:02.177242 168386 net.cpp:122] Setting up ip2
I0428 21:19:02.177248 168386 net.cpp:129] Top shape: 100 10 (1000)
I0428 21:19:02.177251 168386 net.cpp:137] Memory required for data: 8078800
I0428 21:19:02.177259 168386 layer_factory.hpp:77] Creating layer ip2_ip2_0_split
I0428 21:19:02.177265 168386 net.cpp:84] Creating Layer ip2_ip2_0_split
I0428 21:19:02.177270 168386 net.cpp:406] ip2_ip2_0_split <- ip2
I0428 21:19:02.177278 168386 net.cpp:380] ip2_ip2_0_split -> ip2_ip2_0_split_0
I0428 21:19:02.177286 168386 net.cpp:380] ip2_ip2_0_split -> ip2_ip2_0_split_1
I0428 21:19:02.177294 168386 net.cpp:122] Setting up ip2_ip2_0_split
I0428 21:19:02.177300 168386 net.cpp:129] Top shape: 100 10 (1000)
I0428 21:19:02.177305 168386 net.cpp:129] Top shape: 100 10 (1000)
I0428 21:19:02.177309 168386 net.cpp:137] Memory required for data: 8086800
I0428 21:19:02.177314 168386 layer_factory.hpp:77] Creating layer accuracy
I0428 21:19:02.177320 168386 net.cpp:84] Creating Layer accuracy
I0428 21:19:02.177325 168386 net.cpp:406] accuracy <- ip2_ip2_0_split_0
I0428 21:19:02.177331 168386 net.cpp:406] accuracy <- label_mnist_1_split_0
I0428 21:19:02.177338 168386 net.cpp:380] accuracy -> accuracy
…
