…
I0429 19:37:52.853210  3505 net.cpp:294] The NetState phase (0) differed from the phase (1) specified by a rule in layer mnist
I0429 19:37:52.853226  3505 net.cpp:294] The NetState phase (0) differed from the phase (1) specified by a rule in layer accuracy
I0429 19:37:52.853317  3505 net.cpp:51] Initializing net from parameters: 
name: "LeNet"
state {
  phase: TRAIN
  level: 0
  stage: ""
}
layer {
  name: "mnist"
  type: "Data"
  top: "data"
  top: "label"
  include {
    phase: TRAIN
  }
  transform_param {
    scale: 0.00390625
  }
  data_param {
    source: "examples/mnist/mnist_train_lmdb"
    batch_size: 64
    backend: LMDB
  }
}
layer {
  name: "conv1"
  type: "Convolution"
  bottom: "data"
  top: "conv1"
  param {
    lr_mult: 1
  }
  param {
    lr_mult: 2
  }
  convolution_param {
    num_output: 20
    kernel_size: 5
    stride: 1
    weight_filler {
      type: "xavier"
    }
    bias_filler {
      type: "constant"
    }
  }
}
layer {
  name: "pool1"
  type: "Pooling"
  bottom: "conv1"
  top: "pool1"
  pooling_param {
    pool: MAX
    kernel_size: 2
    stride: 2
  }
}
layer {
  name: "ip1"
  type: "InnerProduct"
  bottom: "pool1"
  top: "ip1"
  param {
    lr_mult: 1
  }
  param {
    lr_mult: 2
  }
  inner_product_param {
    num_output: 500
    weight_filler {
      type: "xavier"
    }
    bias_filler {
      type: "constant"
    }
  }
}
layer {
  name: "relu1"
  type: "ReLU"
  bottom: "ip1"
  top: "ip1"
}
layer {
  name: "ip2"
  type: "InnerProduct"
  bottom: "ip1"
  top: "ip2"
  param {
    lr_mult: 1
  }
  param {
    lr_mult: 2
  }
  inner_product_param {
    num_output: 10
    weight_filler {
      type: "xavier"
    }
    bias_filler {
      type: "constant"
    }
  }
}
layer {
  name: "loss"
  type: "SoftmaxWithLoss"
  bottom: "ip2"
  bottom: "label"
  top: "loss"
}
I0429 19:37:52.853374  3505 layer_factory.hpp:77] Creating layer mnist
I0429 19:37:52.853474  3505 db_lmdb.cpp:35] Opened lmdb examples/mnist/mnist_train_lmdb
I0429 19:37:52.853503  3505 net.cpp:84] Creating Layer mnist
I0429 19:37:52.853516  3505 net.cpp:380] mnist -> data
I0429 19:37:52.853540  3505 net.cpp:380] mnist -> label
I0429 19:37:52.853574  3505 data_layer.cpp:45] output data size: 64,1,28,28
I0429 19:37:52.854099  3505 net.cpp:122] Setting up mnist
I0429 19:37:52.854116  3505 net.cpp:129] Top shape: 64 1 28 28 (50176)
I0429 19:37:52.854123  3505 net.cpp:129] Top shape: 64 (64)
I0429 19:37:52.854127  3505 net.cpp:137] Memory required for data: 200960
I0429 19:37:52.854135  3505 layer_factory.hpp:77] Creating layer conv1
I0429 19:37:52.854154  3505 net.cpp:84] Creating Layer conv1
I0429 19:37:52.854161  3505 net.cpp:406] conv1 <- data
I0429 19:37:52.854176  3505 net.cpp:380] conv1 -> conv1
I0429 19:37:52.854225  3505 net.cpp:122] Setting up conv1
I0429 19:37:52.854236  3505 net.cpp:129] Top shape: 64 20 24 24 (737280)
I0429 19:37:52.854240  3505 net.cpp:137] Memory required for data: 3150080
I0429 19:37:52.854260  3505 layer_factory.hpp:77] Creating layer pool1
I0429 19:37:52.854296  3505 net.cpp:84] Creating Layer pool1
I0429 19:37:52.854303  3505 net.cpp:406] pool1 <- conv1
I0429 19:37:52.854311  3505 net.cpp:380] pool1 -> pool1
I0429 19:37:52.854331  3505 net.cpp:122] Setting up pool1
I0429 19:37:52.854338  3505 net.cpp:129] Top shape: 64 20 12 12 (184320)
I0429 19:37:52.854346  3505 net.cpp:137] Memory required for data: 3887360
I0429 19:37:52.854351  3505 layer_factory.hpp:77] Creating layer ip1
I0429 19:37:52.854359  3505 net.cpp:84] Creating Layer ip1
I0429 19:37:52.854364  3505 net.cpp:406] ip1 <- pool1
I0429 19:37:52.854374  3505 net.cpp:380] ip1 -> ip1
     0.070900556              9,118      r02C0:u                  
I0429 19:37:52.867719  3505 net.cpp:122] Setting up ip1
I0429 19:37:52.867733  3505 net.cpp:129] Top shape: 64 500 (32000)
I0429 19:37:52.867736  3505 net.cpp:137] Memory required for data: 4015360
I0429 19:37:52.867748  3505 layer_factory.hpp:77] Creating layer relu1
I0429 19:37:52.867756  3505 net.cpp:84] Creating Layer relu1
I0429 19:37:52.867761  3505 net.cpp:406] relu1 <- ip1
I0429 19:37:52.867769  3505 net.cpp:367] relu1 -> ip1 (in-place)
I0429 19:37:52.867779  3505 net.cpp:122] Setting up relu1
I0429 19:37:52.867785  3505 net.cpp:129] Top shape: 64 500 (32000)
I0429 19:37:52.867789  3505 net.cpp:137] Memory required for data: 4143360
I0429 19:37:52.867794  3505 layer_factory.hpp:77] Creating layer ip2
I0429 19:37:52.867801  3505 net.cpp:84] Creating Layer ip2
I0429 19:37:52.867806  3505 net.cpp:406] ip2 <- ip1
I0429 19:37:52.867813  3505 net.cpp:380] ip2 -> ip2
I0429 19:37:52.867882  3505 net.cpp:122] Setting up ip2
I0429 19:37:52.867894  3505 net.cpp:129] Top shape: 64 10 (640)
I0429 19:37:52.867899  3505 net.cpp:137] Memory required for data: 4145920
I0429 19:37:52.867909  3505 layer_factory.hpp:77] Creating layer loss
I0429 19:37:52.867916  3505 net.cpp:84] Creating Layer loss
I0429 19:37:52.867923  3505 net.cpp:406] loss <- ip2
I0429 19:37:52.867928  3505 net.cpp:406] loss <- label
I0429 19:37:52.867935  3505 net.cpp:380] loss -> loss
I0429 19:37:52.867949  3505 layer_factory.hpp:77] Creating layer loss
…
I0429 19:37:52.868216  3505 solver.cpp:172] Creating test net (#0) specified by net file: examples/mnist/lenet_train_test.prototxt
I0429 19:37:52.868243  3505 net.cpp:294] The NetState phase (1) differed from the phase (0) specified by a rule in layer mnist
I0429 19:37:52.868333  3505 net.cpp:51] Initializing net from parameters: 
name: "LeNet"
state {
  phase: TEST
}
layer {
  name: "mnist"
  type: "Data"
  top: "data"
  top: "label"
  include {
    phase: TEST
  }
  transform_param {
    scale: 0.00390625
  }
  data_param {
    source: "examples/mnist/mnist_test_lmdb"
    batch_size: 100
    backend: LMDB
  }
}
layer {
  name: "conv1"
  type: "Convolution"
  bottom: "data"
  top: "conv1"
  param {
    lr_mult: 1
  }
  param {
    lr_mult: 2
  }
  convolution_param {
    num_output: 20
    kernel_size: 5
    stride: 1
    weight_filler {
      type: "xavier"
    }
    bias_filler {
      type: "constant"
    }
  }
}
layer {
  name: "pool1"
  type: "Pooling"
  bottom: "conv1"
  top: "pool1"
  pooling_param {
    pool: MAX
    kernel_size: 2
    stride: 2
  }
}
layer {
  name: "ip1"
  type: "InnerProduct"
  bottom: "pool1"
  top: "ip1"
  param {
    lr_mult: 1
  }
  param {
    lr_mult: 2
  }
  inner_product_param {
    num_output: 500
    weight_filler {
      type: "xavier"
    }
    bias_filler {
      type: "constant"
    }
  }
}
layer {
  name: "relu1"
  type: "ReLU"
  bottom: "ip1"
  top: "ip1"
}
layer {
  name: "ip2"
  type: "InnerProduct"
  bottom: "ip1"
  top: "ip2"
  param {
    lr_mult: 1
  }
  param {
    lr_mult: 2
  }
  inner_product_param {
    num_output: 10
    weight_filler {
      type: "xavier"
    }
    bias_filler {
      type: "constant"
    }
  }
}
layer {
  name: "accuracy"
  type: "Accuracy"
  bottom: "ip2"
  bottom: "label"
  top: "accuracy"
  include {
    phase: TEST
  }
}
layer {
  name: "loss"
  type: "SoftmaxWithLoss"
  bottom: "ip2"
  bottom: "label"
  top: "loss"
}
I0429 19:37:52.868432  3505 layer_factory.hpp:77] Creating layer mnist
I0429 19:37:52.868485  3505 db_lmdb.cpp:35] Opened lmdb examples/mnist/mnist_test_lmdb
I0429 19:37:52.868500  3505 net.cpp:84] Creating Layer mnist
I0429 19:37:52.868507  3505 net.cpp:380] mnist -> data
I0429 19:37:52.868520  3505 net.cpp:380] mnist -> label
I0429 19:37:52.868535  3505 data_layer.cpp:45] output data size: 100,1,28,28
I0429 19:37:52.868587  3505 net.cpp:122] Setting up mnist
I0429 19:37:52.868597  3505 net.cpp:129] Top shape: 100 1 28 28 (78400)
I0429 19:37:52.868603  3505 net.cpp:129] Top shape: 100 (100)
I0429 19:37:52.868607  3505 net.cpp:137] Memory required for data: 314000
I0429 19:37:52.868613  3505 layer_factory.hpp:77] Creating layer label_mnist_1_split
I0429 19:37:52.868620  3505 net.cpp:84] Creating Layer label_mnist_1_split
I0429 19:37:52.868626  3505 net.cpp:406] label_mnist_1_split <- label
I0429 19:37:52.868633  3505 net.cpp:380] label_mnist_1_split -> label_mnist_1_split_0
I0429 19:37:52.868643  3505 net.cpp:380] label_mnist_1_split -> label_mnist_1_split_1
I0429 19:37:52.868651  3505 net.cpp:122] Setting up label_mnist_1_split
I0429 19:37:52.868659  3505 net.cpp:129] Top shape: 100 (100)
I0429 19:37:52.868664  3505 net.cpp:129] Top shape: 100 (100)
I0429 19:37:52.868669  3505 net.cpp:137] Memory required for data: 314800
I0429 19:37:52.868672  3505 layer_factory.hpp:77] Creating layer conv1
I0429 19:37:52.868685  3505 net.cpp:84] Creating Layer conv1
I0429 19:37:52.868690  3505 net.cpp:406] conv1 <- data
I0429 19:37:52.868696  3505 net.cpp:380] conv1 -> conv1
I0429 19:37:52.868726  3505 net.cpp:122] Setting up conv1
I0429 19:37:52.868736  3505 net.cpp:129] Top shape: 100 20 24 24 (1152000)
I0429 19:37:52.868739  3505 net.cpp:137] Memory required for data: 4922800
I0429 19:37:52.868752  3505 layer_factory.hpp:77] Creating layer pool1
I0429 19:37:52.868758  3505 net.cpp:84] Creating Layer pool1
I0429 19:37:52.868763  3505 net.cpp:406] pool1 <- conv1
I0429 19:37:52.868770  3505 net.cpp:380] pool1 -> pool1
I0429 19:37:52.868779  3505 net.cpp:122] Setting up pool1
I0429 19:37:52.868785  3505 net.cpp:129] Top shape: 100 20 12 12 (288000)
I0429 19:37:52.868791  3505 net.cpp:137] Memory required for data: 6074800
I0429 19:37:52.868795  3505 layer_factory.hpp:77] Creating layer ip1
I0429 19:37:52.868808  3505 net.cpp:84] Creating Layer ip1
I0429 19:37:52.868813  3505 net.cpp:406] ip1 <- pool1
I0429 19:37:52.868820  3505 net.cpp:380] ip1 -> ip1
     0.081016659                367      r02C0:u                  
     0.091160786                339      r02C0:u                  
I0429 19:37:52.881322  3505 net.cpp:122] Setting up ip1
I0429 19:37:52.881332  3505 net.cpp:129] Top shape: 100 500 (50000)
I0429 19:37:52.881336  3505 net.cpp:137] Memory required for data: 6274800
I0429 19:37:52.881346  3505 layer_factory.hpp:77] Creating layer relu1
I0429 19:37:52.881353  3505 net.cpp:84] Creating Layer relu1
I0429 19:37:52.881357  3505 net.cpp:406] relu1 <- ip1
I0429 19:37:52.881363  3505 net.cpp:367] relu1 -> ip1 (in-place)
I0429 19:37:52.881371  3505 net.cpp:122] Setting up relu1
I0429 19:37:52.881376  3505 net.cpp:129] Top shape: 100 500 (50000)
I0429 19:37:52.881384  3505 net.cpp:137] Memory required for data: 6474800
I0429 19:37:52.881389  3505 layer_factory.hpp:77] Creating layer ip2
I0429 19:37:52.881397  3505 net.cpp:84] Creating Layer ip2
I0429 19:37:52.881402  3505 net.cpp:406] ip2 <- ip1
I0429 19:37:52.881409  3505 net.cpp:380] ip2 -> ip2
I0429 19:37:52.881464  3505 net.cpp:122] Setting up ip2
I0429 19:37:52.881471  3505 net.cpp:129] Top shape: 100 10 (1000)
I0429 19:37:52.881475  3505 net.cpp:137] Memory required for data: 6478800
I0429 19:37:52.881484  3505 layer_factory.hpp:77] Creating layer ip2_ip2_0_split
I0429 19:37:52.881490  3505 net.cpp:84] Creating Layer ip2_ip2_0_split
I0429 19:37:52.881495  3505 net.cpp:406] ip2_ip2_0_split <- ip2
I0429 19:37:52.881501  3505 net.cpp:380] ip2_ip2_0_split -> ip2_ip2_0_split_0
I0429 19:37:52.881511  3505 net.cpp:380] ip2_ip2_0_split -> ip2_ip2_0_split_1
I0429 19:37:52.881527  3505 net.cpp:122] Setting up ip2_ip2_0_split
I0429 19:37:52.881534  3505 net.cpp:129] Top shape: 100 10 (1000)
I0429 19:37:52.881538  3505 net.cpp:129] Top shape: 100 10 (1000)
I0429 19:37:52.881542  3505 net.cpp:137] Memory required for data: 6486800
I0429 19:37:52.881546  3505 layer_factory.hpp:77] Creating layer accuracy
I0429 19:37:52.881556  3505 net.cpp:84] Creating Layer accuracy
I0429 19:37:52.881559  3505 net.cpp:406] accuracy <- ip2_ip2_0_split_0
I0429 19:37:52.881564  3505 net.cpp:406] accuracy <- label_mnist_1_split_0
I0429 19:37:52.881572  3505 net.cpp:380] accuracy -> accuracy
…
