…
I0506 18:24:33.582599 31685 net.cpp:294] The NetState phase (0) differed from the phase (1) specified by a rule in layer mnist
I0506 18:24:33.582619 31685 net.cpp:294] The NetState phase (0) differed from the phase (1) specified by a rule in layer accuracy
I0506 18:24:33.582731 31685 net.cpp:51] Initializing net from parameters: 
name: "LeNet"
state {
  phase: TRAIN
  level: 0
  stage: ""
}
layer {
  name: "mnist"
  type: "Data"
  top: "data"
  top: "label"
  include {
    phase: TRAIN
  }
  transform_param {
    scale: 0.00390625
  }
  data_param {
    source: "examples/mnist/mnist_train_lmdb"
    batch_size: 64
    backend: LMDB
  }
}
layer {
  name: "conv1"
  type: "Convolution"
  bottom: "data"
  top: "conv1"
  param {
    lr_mult: 1
  }
  param {
    lr_mult: 2
  }
  convolution_param {
    num_output: 20
    kernel_size: 5
    stride: 1
    weight_filler {
      type: "xavier"
    }
    bias_filler {
      type: "constant"
    }
  }
}
layer {
  name: "pool1"
  type: "Pooling"
  bottom: "conv1"
  top: "pool1"
  pooling_param {
    pool: MAX
    kernel_size: 2
    stride: 2
  }
}
layer {
  name: "conv2"
  type: "Convolution"
  bottom: "pool1"
  top: "conv2"
  param {
    lr_mult: 1
  }
  param {
    lr_mult: 2
  }
  convolution_param {
    num_output: 50
    kernel_size: 5
    stride: 1
    weight_filler {
      type: "xavier"
    }
    bias_filler {
      type: "constant"
    }
  }
}
layer {
  name: "pool2"
  type: "Pooling"
  bottom: "conv2"
  top: "pool2"
  pooling_param {
    pool: MAX
    kernel_size: 2
    stride: 2
  }
}
layer {
  name: "ip1"
  type: "InnerProduct"
  bottom: "pool2"
  top: "ip1"
  param {
    lr_mult: 1
  }
  param {
    lr_mult: 2
  }
  inner_product_param {
    num_output: 500
    weight_filler {
      type: "xavier"
    }
    bias_filler {
      type: "constant"
    }
  }
}
layer {
  name: "relu1"
  type: "ReLU"
  bottom: "ip1"
  top: "ip1"
}
layer {
  name: "ip2"
  type: "InnerProduct"
  bottom: "ip1"
  top: "ip2"
  param {
    lr_mult: 1
  }
  param {
    lr_mult: 2
  }
  inner_product_param {
    num_output: 10
    weight_filler {
      type: "xavier"
    }
    bias_filler {
      type: "constant"
    }
  }
}
layer {
  name: "loss"
  type: "SoftmaxWithLoss"
  bottom: "ip2"
  bottom: "label"
  top: "loss"
}
I0506 18:24:33.582808 31685 layer_factory.hpp:77] Creating layer mnist
     0.061144044 I0506 18:24:33.582919 31685 db_lmdb.cpp:35] Opened lmdb examples/mnist/mnist_train_lmdb
            11,733      r02c0:u                  
     0.061144044          3,073,599      L1-dcache-loads          
I0506 18:24:33.582950 31685 net.cpp:84] Creating Layer mnist
I0506 18:24:33.582963 31685 net.cpp:380] mnist -> data
I0506 18:24:33.582988 31685 net.cpp:380] mnist -> label
I0506 18:24:33.583020 31685 data_layer.cpp:45] output data size: 64,1,28,28
I0506 18:24:33.583580 31685 net.cpp:122] Setting up mnist
I0506 18:24:33.583602 31685 net.cpp:129] Top shape: 64 1 28 28 (50176)
I0506 18:24:33.583611 31685 net.cpp:129] Top shape: 64 (64)
I0506 18:24:33.583616 31685 net.cpp:137] Memory required for data: 200960
I0506 18:24:33.583622 31685 layer_factory.hpp:77] Creating layer conv1
I0506 18:24:33.583642 31685 net.cpp:84] Creating Layer conv1
I0506 18:24:33.583648 31685 net.cpp:406] conv1 <- data
I0506 18:24:33.583662 31685 net.cpp:380] conv1 -> conv1
I0506 18:24:33.583714 31685 net.cpp:122] Setting up conv1
I0506 18:24:33.583724 31685 net.cpp:129] Top shape: 64 20 24 24 (737280)
I0506 18:24:33.583729 31685 net.cpp:137] Memory required for data: 3150080
I0506 18:24:33.583750 31685 layer_factory.hpp:77] Creating layer pool1
I0506 18:24:33.583760 31685 net.cpp:84] Creating Layer pool1
I0506 18:24:33.583766 31685 net.cpp:406] pool1 <- conv1
I0506 18:24:33.583775 31685 net.cpp:380] pool1 -> pool1
I0506 18:24:33.583791 31685 net.cpp:122] Setting up pool1
I0506 18:24:33.583811 31685 net.cpp:129] Top shape: 64 20 12 12 (184320)
I0506 18:24:33.583818 31685 net.cpp:137] Memory required for data: 3887360
I0506 18:24:33.583823 31685 layer_factory.hpp:77] Creating layer conv2
I0506 18:24:33.583834 31685 net.cpp:84] Creating Layer conv2
I0506 18:24:33.583839 31685 net.cpp:406] conv2 <- pool1
I0506 18:24:33.583849 31685 net.cpp:380] conv2 -> conv2
I0506 18:24:33.584152 31685 net.cpp:122] Setting up conv2
I0506 18:24:33.584164 31685 net.cpp:129] Top shape: 64 50 8 8 (204800)
I0506 18:24:33.584170 31685 net.cpp:137] Memory required for data: 4706560
I0506 18:24:33.584183 31685 layer_factory.hpp:77] Creating layer pool2
I0506 18:24:33.584192 31685 net.cpp:84] Creating Layer pool2
I0506 18:24:33.584197 31685 net.cpp:406] pool2 <- conv2
I0506 18:24:33.584205 31685 net.cpp:380] pool2 -> pool2
I0506 18:24:33.584233 31685 net.cpp:122] Setting up pool2
I0506 18:24:33.584240 31685 net.cpp:129] Top shape: 64 50 4 4 (51200)
I0506 18:24:33.584244 31685 net.cpp:137] Memory required for data: 4911360
I0506 18:24:33.584249 31685 layer_factory.hpp:77] Creating layer ip1
I0506 18:24:33.584259 31685 net.cpp:84] Creating Layer ip1
I0506 18:24:33.584264 31685 net.cpp:406] ip1 <- pool2
I0506 18:24:33.584271 31685 net.cpp:380] ip1 -> ip1
I0506 18:24:33.588178 31685 net.cpp:122] Setting up ip1
I0506 18:24:33.588189 31685 net.cpp:129] Top shape: 64 500 (32000)
I0506 18:24:33.588194 31685 net.cpp:137] Memory required for data: 5039360
I0506 18:24:33.588204 31685 layer_factory.hpp:77] Creating layer relu1
I0506 18:24:33.588212 31685 net.cpp:84] Creating Layer relu1
I0506 18:24:33.588217 31685 net.cpp:406] relu1 <- ip1
I0506 18:24:33.588224 31685 net.cpp:367] relu1 -> ip1 (in-place)
I0506 18:24:33.588232 31685 net.cpp:122] Setting up relu1
I0506 18:24:33.588239 31685 net.cpp:129] Top shape: 64 500 (32000)
I0506 18:24:33.588244 31685 net.cpp:137] Memory required for data: 5167360
I0506 18:24:33.588248 31685 layer_factory.hpp:77] Creating layer ip2
I0506 18:24:33.588255 31685 net.cpp:84] Creating Layer ip2
I0506 18:24:33.588260 31685 net.cpp:406] ip2 <- ip1
I0506 18:24:33.588268 31685 net.cpp:380] ip2 -> ip2
I0506 18:24:33.588336 31685 net.cpp:122] Setting up ip2
I0506 18:24:33.588343 31685 net.cpp:129] Top shape: 64 10 (640)
I0506 18:24:33.588347 31685 net.cpp:137] Memory required for data: 5169920
I0506 18:24:33.588356 31685 layer_factory.hpp:77] Creating layer loss
I0506 18:24:33.588364 31685 net.cpp:84] Creating Layer loss
I0506 18:24:33.588369 31685 net.cpp:406] loss <- ip2
I0506 18:24:33.588376 31685 net.cpp:406] loss <- label
I0506 18:24:33.588383 31685 net.cpp:380] loss -> loss
I0506 18:24:33.588397 31685 layer_factory.hpp:77] Creating layer loss
…
