…
I0429 18:03:54.481515  2751 net.cpp:294] The NetState phase (0) differed from the phase (1) specified by a rule in layer mnist
I0429 18:03:54.481531  2751 net.cpp:294] The NetState phase (0) differed from the phase (1) specified by a rule in layer accuracy
I0429 18:03:54.481606  2751 net.cpp:51] Initializing net from parameters: 
name: "LeNet"
state {
  phase: TRAIN
  level: 0
  stage: ""
}
layer {
  name: "mnist"
  type: "Data"
  top: "data"
  top: "label"
  include {
    phase: TRAIN
  }
  transform_param {
    scale: 0.00390625
  }
  data_param {
    source: "examples/mnist/mnist_train_lmdb"
    batch_size: 64
    backend: LMDB
  }
}
layer {
  name: "conv1"
  type: "Convolution"
  bottom: "data"
  top: "conv1"
  param {
    lr_mult: 1
  }
  param {
    lr_mult: 2
  }
  convolution_param {
    num_output: 20
    kernel_size: 5
    stride: 1
    weight_filler {
      type: "xavier"
    }
    bias_filler {
      type: "constant"
    }
  }
}
layer {
  name: "pool1"
  type: "Pooling"
  bottom: "conv1"
  top: "pool1"
  pooling_param {
    pool: MAX
    kernel_size: 2
    stride: 2
  }
}
layer {
  name: "conv2"
  type: "Convolution"
  bottom: "pool1"
  top: "conv2"
  param {
    lr_mult: 1
  }
  param {
    lr_mult: 2
  }
  convolution_param {
    num_output: 50
    kernel_size: 5
    stride: 1
    weight_filler {
      type: "xavier"
    }
    bias_filler {
      type: "constant"
    }
  }
}
layer {
  name: "pool2"
  type: "Pooling"
  bottom: "conv2"
  top: "pool2"
  pooling_param {
    pool: MAX
    kernel_size: 2
    stride: 2
  }
}
layer {
  name: "ip1"
  type: "InnerProduct"
  bottom: "pool2"
  top: "ip1"
  param {
    lr_mult: 1
  }
  param {
    lr_mult: 2
  }
  inner_product_param {
    num_output: 500
    weight_filler {
      type: "xavier"
    }
    bias_filler {
      type: "constant"
    }
  }
}
layer {
  name: "relu1"
  type: "ReLU"
  bottom: "ip1"
  top: "ip1"
}
layer {
  name: "ip2"
  type: "InnerProduct"
  bottom: "ip1"
  top: "ip2"
  param {
    lr_mult: 1
  }
  param {
    lr_mult: 2
  }
  inner_product_param {
    num_output: 10
    weight_filler {
      type: "xavier"
    }
    bias_filler {
      type: "constant"
    }
  }
}
layer {
  name: "loss"
  type: "SoftmaxWithLoss"
  bottom: "ip2"
  bottom: "label"
  top: "loss"
}
I0429 18:03:54.481667  2751 layer_factory.hpp:77] Creating layer mnist
I0429 18:03:54.481755  2751 db_lmdb.cpp:35] Opened lmdb examples/mnist/mnist_train_lmdb
I0429 18:03:54.481777  2751 net.cpp:84] Creating Layer mnist
I0429 18:03:54.481786  2751 net.cpp:380] mnist -> data
I0429 18:03:54.481806  2751 net.cpp:380] mnist -> label
I0429 18:03:54.481832  2751 data_layer.cpp:45] output data size: 64,1,28,28
I0429 18:03:54.482236  2751 net.cpp:122] Setting up mnist
I0429 18:03:54.482249  2751 net.cpp:129] Top shape: 64 1 28 28 (50176)
I0429 18:03:54.482252  2751 net.cpp:129] Top shape: 64 (64)
I0429 18:03:54.482255  2751 net.cpp:137] Memory required for data: 200960
I0429 18:03:54.482261  2751 layer_factory.hpp:77] Creating layer conv1
I0429 18:03:54.482275  2751 net.cpp:84] Creating Layer conv1
I0429 18:03:54.482280  2751 net.cpp:406] conv1 <- data
I0429 18:03:54.482290  2751 net.cpp:380] conv1 -> conv1
I0429 18:03:54.482328  2751 net.cpp:122] Setting up conv1
I0429 18:03:54.482336  2751 net.cpp:129] Top shape: 64 20 24 24 (737280)
I0429 18:03:54.482339  2751 net.cpp:137] Memory required for data: 3150080
I0429 18:03:54.482357  2751 layer_factory.hpp:77] Creating layer pool1
I0429 18:03:54.482362  2751 net.cpp:84] Creating Layer pool1
I0429 18:03:54.482367  2751 net.cpp:406] pool1 <- conv1
I0429 18:03:54.482372  2751 net.cpp:380] pool1 -> pool1
I0429 18:03:54.482393  2751 net.cpp:122] Setting up pool1
I0429 18:03:54.482399  2751 net.cpp:129] Top shape: 64 20 12 12 (184320)
I0429 18:03:54.482403  2751 net.cpp:137] Memory required for data: 3887360
I0429 18:03:54.482406  2751 layer_factory.hpp:77] Creating layer conv2
I0429 18:03:54.482414  2751 net.cpp:84] Creating Layer conv2
I0429 18:03:54.482417  2751 net.cpp:406] conv2 <- pool1
I0429 18:03:54.482424  2751 net.cpp:380] conv2 -> conv2
I0429 18:03:54.482616  2751 net.cpp:122] Setting up conv2
I0429 18:03:54.482623  2751 net.cpp:129] Top shape: 64 50 8 8 (204800)
I0429 18:03:54.482627  2751 net.cpp:137] Memory required for data: 4706560
I0429 18:03:54.482635  2751 layer_factory.hpp:77] Creating layer pool2
I0429 18:03:54.482640  2751 net.cpp:84] Creating Layer pool2
I0429 18:03:54.482645  2751 net.cpp:406] pool2 <- conv2
I0429 18:03:54.482650  2751 net.cpp:380] pool2 -> pool2
I0429 18:03:54.482657  2751 net.cpp:122] Setting up pool2
I0429 18:03:54.482662  2751 net.cpp:129] Top shape: 64 50 4 4 (51200)
I0429 18:03:54.482666  2751 net.cpp:137] Memory required for data: 4911360
I0429 18:03:54.482668  2751 layer_factory.hpp:77] Creating layer ip1
I0429 18:03:54.482676  2751 net.cpp:84] Creating Layer ip1
I0429 18:03:54.482679  2751 net.cpp:406] ip1 <- pool2
I0429 18:03:54.482686  2751 net.cpp:380] ip1 -> ip1
I0429 18:03:54.485447  2751 net.cpp:122] Setting up ip1
I0429 18:03:54.485456  2751 net.cpp:129] Top shape: 64 500 (32000)
I0429 18:03:54.485460  2751 net.cpp:137] Memory required for data: 5039360
I0429 18:03:54.485467  2751 layer_factory.hpp:77] Creating layer relu1
I0429 18:03:54.485473  2751 net.cpp:84] Creating Layer relu1
I0429 18:03:54.485477  2751 net.cpp:406] relu1 <- ip1
I0429 18:03:54.485481  2751 net.cpp:367] relu1 -> ip1 (in-place)
I0429 18:03:54.485488  2751 net.cpp:122] Setting up relu1
I0429 18:03:54.485492  2751 net.cpp:129] Top shape: 64 500 (32000)
I0429 18:03:54.485496  2751 net.cpp:137] Memory required for data: 5167360
I0429 18:03:54.485499  2751 layer_factory.hpp:77] Creating layer ip2
I0429 18:03:54.485504  2751 net.cpp:84] Creating Layer ip2
I0429 18:03:54.485507  2751 net.cpp:406] ip2 <- ip1
I0429 18:03:54.485512  2751 net.cpp:380] ip2 -> ip2
I0429 18:03:54.485561  2751 net.cpp:122] Setting up ip2
I0429 18:03:54.485566  2751 net.cpp:129] Top shape: 64 10 (640)
I0429 18:03:54.485569  2751 net.cpp:137] Memory required for data: 5169920
I0429 18:03:54.485575  2751 layer_factory.hpp:77] Creating layer loss
I0429 18:03:54.485581  2751 net.cpp:84] Creating Layer loss
I0429 18:03:54.485584  2751 net.cpp:406] loss <- ip2
I0429 18:03:54.485592  2751 net.cpp:406] loss <- label
I0429 18:03:54.485599  2751 net.cpp:380] loss -> loss
I0429 18:03:54.485610  2751 layer_factory.hpp:77] Creating layer loss
…
I0429 18:03:54.485822  2751 solver.cpp:172] Creating test net (#0) specified by net file: examples/mnist/lenet_train_test.prototxt
I0429 18:03:54.485844  2751 net.cpp:294] The NetState phase (1) differed from the phase (0) specified by a rule in layer mnist
I0429 18:03:54.485932  2751 net.cpp:51] Initializing net from parameters: 
name: "LeNet"
state {
  phase: TEST
}
layer {
  name: "mnist"
  type: "Data"
  top: "data"
  top: "label"
  include {
    phase: TEST
  }
  transform_param {
    scale: 0.00390625
  }
  data_param {
    source: "examples/mnist/mnist_test_lmdb"
    batch_size: 100
    backend: LMDB
  }
}
layer {
  name: "conv1"
  type: "Convolution"
  bottom: "data"
  top: "conv1"
  param {
    lr_mult: 1
  }
  param {
    lr_mult: 2
  }
  convolution_param {
    num_output: 20
    kernel_size: 5
    stride: 1
    weight_filler {
      type: "xavier"
    }
    bias_filler {
      type: "constant"
    }
  }
}
layer {
  name: "pool1"
  type: "Pooling"
  bottom: "conv1"
  top: "pool1"
  pooling_param {
    pool: MAX
    kernel_size: 2
    stride: 2
  }
}
layer {
  name: "conv2"
  type: "Convolution"
  bottom: "pool1"
  top: "conv2"
  param {
    lr_mult: 1
  }
  param {
    lr_mult: 2
  }
  convolution_param {
    num_output: 50
    kernel_size: 5
    stride: 1
    weight_filler {
      type: "xavier"
    }
    bias_filler {
      type: "constant"
    }
  }
}
layer {
  name: "pool2"
  type: "Pooling"
  bottom: "conv2"
  top: "pool2"
  pooling_param {
    pool: MAX
    kernel_size: 2
    stride: 2
  }
}
layer {
  name: "ip1"
  type: "InnerProduct"
  bottom: "pool2"
  top: "ip1"
  param {
    lr_mult: 1
  }
  param {
    lr_mult: 2
  }
  inner_product_param {
    num_output: 500
    weight_filler {
      type: "xavier"
    }
    bias_filler {
      type: "constant"
    }
  }
}
layer {
  name: "relu1"
  type: "ReLU"
  bottom: "ip1"
  top: "ip1"
}
layer {
  name: "ip2"
  type: "InnerProduct"
  bottom: "ip1"
  top: "ip2"
  param {
    lr_mult: 1
  }
  param {
    lr_mult: 2
  }
  inner_product_param {
    num_output: 10
    weight_filler {
      type: "xavier"
    }
    bias_filler {
      type: "constant"
    }
  }
}
layer {
  name: "accuracy"
  type: "Accuracy"
  bottom: "ip2"
  bottom: "label"
  top: "accuracy"
  include {
    phase: TEST
  }
}
layer {
  name: "loss"
  type: "SoftmaxWithLoss"
  bottom: "ip2"
  bottom: "label"
  top: "loss"
}
I0429 18:03:54.485996  2751 layer_factory.hpp:77] Creating layer mnist
I0429 18:03:54.486038  2751 db_lmdb.cpp:35] Opened lmdb examples/mnist/mnist_test_lmdb
I0429 18:03:54.486052  2751 net.cpp:84] Creating Layer mnist
I0429 18:03:54.486057  2751 net.cpp:380] mnist -> data
I0429 18:03:54.486065  2751 net.cpp:380] mnist -> label
I0429 18:03:54.486078  2751 data_layer.cpp:45] output data size: 100,1,28,28
I0429 18:03:54.486125  2751 net.cpp:122] Setting up mnist
I0429 18:03:54.486137  2751 net.cpp:129] Top shape: 100 1 28 28 (78400)
I0429 18:03:54.486142  2751 net.cpp:129] Top shape: 100 (100)
I0429 18:03:54.486145  2751 net.cpp:137] Memory required for data: 314000
I0429 18:03:54.486150  2751 layer_factory.hpp:77] Creating layer label_mnist_1_split
I0429 18:03:54.486158  2751 net.cpp:84] Creating Layer label_mnist_1_split
I0429 18:03:54.486162  2751 net.cpp:406] label_mnist_1_split <- label
I0429 18:03:54.486168  2751 net.cpp:380] label_mnist_1_split -> label_mnist_1_split_0
I0429 18:03:54.486178  2751 net.cpp:380] label_mnist_1_split -> label_mnist_1_split_1
I0429 18:03:54.486186  2751 net.cpp:122] Setting up label_mnist_1_split
I0429 18:03:54.486191  2751 net.cpp:129] Top shape: 100 (100)
I0429 18:03:54.486194  2751 net.cpp:129] Top shape: 100 (100)
I0429 18:03:54.486197  2751 net.cpp:137] Memory required for data: 314800
I0429 18:03:54.486201  2751 layer_factory.hpp:77] Creating layer conv1
I0429 18:03:54.486213  2751 net.cpp:84] Creating Layer conv1
I0429 18:03:54.486217  2751 net.cpp:406] conv1 <- data
I0429 18:03:54.486223  2751 net.cpp:380] conv1 -> conv1
I0429 18:03:54.486248  2751 net.cpp:122] Setting up conv1
I0429 18:03:54.486255  2751 net.cpp:129] Top shape: 100 20 24 24 (1152000)
I0429 18:03:54.486258  2751 net.cpp:137] Memory required for data: 4922800
I0429 18:03:54.486268  2751 layer_factory.hpp:77] Creating layer pool1
I0429 18:03:54.486274  2751 net.cpp:84] Creating Layer pool1
I0429 18:03:54.486284  2751 net.cpp:406] pool1 <- conv1
I0429 18:03:54.486289  2751 net.cpp:380] pool1 -> pool1
I0429 18:03:54.486297  2751 net.cpp:122] Setting up pool1
I0429 18:03:54.486301  2751 net.cpp:129] Top shape: 100 20 12 12 (288000)
I0429 18:03:54.486305  2751 net.cpp:137] Memory required for data: 6074800
I0429 18:03:54.486309  2751 layer_factory.hpp:77] Creating layer conv2
I0429 18:03:54.486320  2751 net.cpp:84] Creating Layer conv2
I0429 18:03:54.486325  2751 net.cpp:406] conv2 <- pool1
I0429 18:03:54.486330  2751 net.cpp:380] conv2 -> conv2
I0429 18:03:54.486516  2751 net.cpp:122] Setting up conv2
I0429 18:03:54.486522  2751 net.cpp:129] Top shape: 100 50 8 8 (320000)
I0429 18:03:54.486526  2751 net.cpp:137] Memory required for data: 7354800
I0429 18:03:54.486533  2751 layer_factory.hpp:77] Creating layer pool2
I0429 18:03:54.486539  2751 net.cpp:84] Creating Layer pool2
I0429 18:03:54.486543  2751 net.cpp:406] pool2 <- conv2
I0429 18:03:54.486547  2751 net.cpp:380] pool2 -> pool2
I0429 18:03:54.486555  2751 net.cpp:122] Setting up pool2
I0429 18:03:54.486559  2751 net.cpp:129] Top shape: 100 50 4 4 (80000)
I0429 18:03:54.486562  2751 net.cpp:137] Memory required for data: 7674800
I0429 18:03:54.486565  2751 layer_factory.hpp:77] Creating layer ip1
I0429 18:03:54.486573  2751 net.cpp:84] Creating Layer ip1
I0429 18:03:54.486577  2751 net.cpp:406] ip1 <- pool2
I0429 18:03:54.486582  2751 net.cpp:380] ip1 -> ip1
I0429 18:03:54.489346  2751 net.cpp:122] Setting up ip1
I0429 18:03:54.489356  2751 net.cpp:129] Top shape: 100 500 (50000)
I0429 18:03:54.489359  2751 net.cpp:137] Memory required for data: 7874800
I0429 18:03:54.489368  2751 layer_factory.hpp:77] Creating layer relu1
I0429 18:03:54.489373  2751 net.cpp:84] Creating Layer relu1
I0429 18:03:54.489378  2751 net.cpp:406] relu1 <- ip1
I0429 18:03:54.489384  2751 net.cpp:367] relu1 -> ip1 (in-place)
I0429 18:03:54.489389  2751 net.cpp:122] Setting up relu1
I0429 18:03:54.489393  2751 net.cpp:129] Top shape: 100 500 (50000)
I0429 18:03:54.489398  2751 net.cpp:137] Memory required for data: 8074800
I0429 18:03:54.489400  2751 layer_factory.hpp:77] Creating layer ip2
I0429 18:03:54.489408  2751 net.cpp:84] Creating Layer ip2
I0429 18:03:54.489411  2751 net.cpp:406] ip2 <- ip1
I0429 18:03:54.489418  2751 net.cpp:380] ip2 -> ip2
I0429 18:03:54.489462  2751 net.cpp:122] Setting up ip2
I0429 18:03:54.489467  2751 net.cpp:129] Top shape: 100 10 (1000)
I0429 18:03:54.489470  2751 net.cpp:137] Memory required for data: 8078800
I0429 18:03:54.489475  2751 layer_factory.hpp:77] Creating layer ip2_ip2_0_split
I0429 18:03:54.489483  2751 net.cpp:84] Creating Layer ip2_ip2_0_split
I0429 18:03:54.489486  2751 net.cpp:406] ip2_ip2_0_split <- ip2
I0429 18:03:54.489492  2751 net.cpp:380] ip2_ip2_0_split -> ip2_ip2_0_split_0
I0429 18:03:54.489500  2751 net.cpp:380] ip2_ip2_0_split -> ip2_ip2_0_split_1
I0429 18:03:54.489506  2751 net.cpp:122] Setting up ip2_ip2_0_split
I0429 18:03:54.489511  2751 net.cpp:129] Top shape: 100 10 (1000)
I0429 18:03:54.489513  2751 net.cpp:129] Top shape: 100 10 (1000)
I0429 18:03:54.489517  2751 net.cpp:137] Memory required for data: 8086800
I0429 18:03:54.489521  2751 layer_factory.hpp:77] Creating layer accuracy
I0429 18:03:54.489526  2751 net.cpp:84] Creating Layer accuracy
I0429 18:03:54.489529  2751 net.cpp:406] accuracy <- ip2_ip2_0_split_0
I0429 18:03:54.489534  2751 net.cpp:406] accuracy <- label_mnist_1_split_0
I0429 18:03:54.489540  2751 net.cpp:380] accuracy -> accuracy
…
