…
I0429 17:51:52.496239  2653 net.cpp:294] The NetState phase (0) differed from the phase (1) specified by a rule in layer mnist
I0429 17:51:52.496258  2653 net.cpp:294] The NetState phase (0) differed from the phase (1) specified by a rule in layer accuracy
I0429 17:51:52.496366  2653 net.cpp:51] Initializing net from parameters: 
name: "LeNet"
state {
  phase: TRAIN
  level: 0
  stage: ""
}
layer {
  name: "mnist"
  type: "Data"
  top: "data"
  top: "label"
  include {
    phase: TRAIN
  }
  transform_param {
    scale: 0.00390625
  }
  data_param {
    source: "examples/mnist/mnist_train_lmdb"
    batch_size: 64
    backend: LMDB
  }
}
layer {
  name: "conv1"
  type: "Convolution"
  bottom: "data"
  top: "conv1"
  param {
    lr_mult: 1
  }
  param {
    lr_mult: 2
  }
  convolution_param {
    num_output: 20
    kernel_size: 5
    stride: 1
    weight_filler {
      type: "xavier"
    }
    bias_filler {
      type: "constant"
    }
  }
}
layer {
  name: "pool1"
  type: "Pooling"
  bottom: "conv1"
  top: "pool1"
  pooling_param {
    pool: MAX
    kernel_size: 2
    stride: 2
  }
}
layer {
  name: "conv2"
  type: "Convolution"
  bottom: "pool1"
  top: "conv2"
  param {
    lr_mult: 1
  }
  param {
    lr_mult: 2
  }
  convolution_param {
    num_output: 50
    kernel_size: 5
    stride: 1
    weight_filler {
      type: "xavier"
    }
    bias_filler {
      type: "constant"
    }
  }
}
layer {
  name: "pool2"
  type: "Pooling"
  bottom: "conv2"
  top: "pool2"
  pooling_param {
    pool: MAX
    kernel_size: 2
    stride: 2
  }
}
layer {
  name: "ip1"
  type: "InnerProduct"
  bottom: "pool2"
  top: "ip1"
  param {
    lr_mult: 1
  }
  param {
    lr_mult: 2
  }
  inner_product_param {
    num_output: 500
    weight_filler {
      type: "xavier"
    }
    bias_filler {
      type: "constant"
    }
  }
}
layer {
  name: "relu1"
  type: "ReLU"
  bottom: "ip1"
  top: "ip1"
}
layer {
  name: "ip2"
  type: "InnerProduct"
  bottom: "ip1"
  top: "ip2"
  param {
    lr_mult: 1
  }
  param {
    lr_mult: 2
  }
  inner_product_param {
    num_output: 10
    weight_filler {
      type: "xavier"
    }
    bias_filler {
      type: "constant"
    }
  }
}
layer {
  name: "loss"
  type: "SoftmaxWithLoss"
  bottom: "ip2"
  bottom: "label"
  top: "loss"
}
I0429 17:51:52.496443  2653 layer_factory.hpp:77] Creating layer mnist
I0429 17:51:52.496542  2653 db_lmdb.cpp:35] Opened lmdb examples/mnist/mnist_train_lmdb
I0429 17:51:52.496572  2653 net.cpp:84] Creating Layer mnist
I0429 17:51:52.496583  2653 net.cpp:380] mnist -> data
I0429 17:51:52.496608  2653 net.cpp:380] mnist -> label
I0429 17:51:52.496640  2653 data_layer.cpp:45] output data size: 64,1,28,28
I0429 17:51:52.497181  2653 net.cpp:122] Setting up mnist
I0429 17:51:52.497197  2653 net.cpp:129] Top shape: 64 1 28 28 (50176)
I0429 17:51:52.497205  2653 net.cpp:129] Top shape: 64 (64)
I0429 17:51:52.497210  2653 net.cpp:137] Memory required for data: 200960
I0429 17:51:52.497217  2653 layer_factory.hpp:77] Creating layer conv1
I0429 17:51:52.497236  2653 net.cpp:84] Creating Layer conv1
I0429 17:51:52.497243  2653 net.cpp:406] conv1 <- data
I0429 17:51:52.497257  2653 net.cpp:380] conv1 -> conv1
I0429 17:51:52.497308  2653 net.cpp:122] Setting up conv1
I0429 17:51:52.497318  2653 net.cpp:129] Top shape: 64 20 24 24 (737280)
I0429 17:51:52.497323  2653 net.cpp:137] Memory required for data: 3150080
I0429 17:51:52.497342  2653 layer_factory.hpp:77] Creating layer pool1
I0429 17:51:52.497352  2653 net.cpp:84] Creating Layer pool1
I0429 17:51:52.497359  2653 net.cpp:406] pool1 <- conv1
I0429 17:51:52.497380  2653 net.cpp:380] pool1 -> pool1
I0429 17:51:52.497396  2653 net.cpp:122] Setting up pool1
I0429 17:51:52.497404  2653 net.cpp:129] Top shape: 64 20 12 12 (184320)
I0429 17:51:52.497411  2653 net.cpp:137] Memory required for data: 3887360
I0429 17:51:52.497416  2653 layer_factory.hpp:77] Creating layer conv2
I0429 17:51:52.497426  2653 net.cpp:84] Creating Layer conv2
I0429 17:51:52.497432  2653 net.cpp:406] conv2 <- pool1
I0429 17:51:52.497440  2653 net.cpp:380] conv2 -> conv2
I0429 17:51:52.497717  2653 net.cpp:122] Setting up conv2
I0429 17:51:52.497726  2653 net.cpp:129] Top shape: 64 50 8 8 (204800)
I0429 17:51:52.497731  2653 net.cpp:137] Memory required for data: 4706560
I0429 17:51:52.497743  2653 layer_factory.hpp:77] Creating layer pool2
I0429 17:51:52.497752  2653 net.cpp:84] Creating Layer pool2
I0429 17:51:52.497757  2653 net.cpp:406] pool2 <- conv2
I0429 17:51:52.497763  2653 net.cpp:380] pool2 -> pool2
I0429 17:51:52.497774  2653 net.cpp:122] Setting up pool2
I0429 17:51:52.497782  2653 net.cpp:129] Top shape: 64 50 4 4 (51200)
I0429 17:51:52.497786  2653 net.cpp:137] Memory required for data: 4911360
I0429 17:51:52.497792  2653 layer_factory.hpp:77] Creating layer ip1
I0429 17:51:52.497800  2653 net.cpp:84] Creating Layer ip1
I0429 17:51:52.497805  2653 net.cpp:406] ip1 <- pool2
I0429 17:51:52.497813  2653 net.cpp:380] ip1 -> ip1
     0.071327039          5,142,964      r01A1:u                    (78.17%)
     0.071327039          2,946,813      r02A1:u                    (75.30%)
     0.071327039          4,724,869      r20a1:u                    (83.59%)
     0.071327039          7,233,088      r40a1:u                    (83.81%)
     0.071327039             11,607      r02C0:u                    (79.88%)
I0429 17:51:52.501754  2653 net.cpp:122] Setting up ip1
I0429 17:51:52.501766  2653 net.cpp:129] Top shape: 64 500 (32000)
I0429 17:51:52.501771  2653 net.cpp:137] Memory required for data: 5039360
I0429 17:51:52.501782  2653 layer_factory.hpp:77] Creating layer relu1
I0429 17:51:52.501791  2653 net.cpp:84] Creating Layer relu1
I0429 17:51:52.501797  2653 net.cpp:406] relu1 <- ip1
I0429 17:51:52.501804  2653 net.cpp:367] relu1 -> ip1 (in-place)
I0429 17:51:52.501813  2653 net.cpp:122] Setting up relu1
I0429 17:51:52.501819  2653 net.cpp:129] Top shape: 64 500 (32000)
I0429 17:51:52.501826  2653 net.cpp:137] Memory required for data: 5167360
I0429 17:51:52.501829  2653 layer_factory.hpp:77] Creating layer ip2
I0429 17:51:52.501837  2653 net.cpp:84] Creating Layer ip2
I0429 17:51:52.501842  2653 net.cpp:406] ip2 <- ip1
I0429 17:51:52.501849  2653 net.cpp:380] ip2 -> ip2
I0429 17:51:52.501919  2653 net.cpp:122] Setting up ip2
I0429 17:51:52.501926  2653 net.cpp:129] Top shape: 64 10 (640)
I0429 17:51:52.501930  2653 net.cpp:137] Memory required for data: 5169920
I0429 17:51:52.501940  2653 layer_factory.hpp:77] Creating layer loss
I0429 17:51:52.501947  2653 net.cpp:84] Creating Layer loss
I0429 17:51:52.501952  2653 net.cpp:406] loss <- ip2
I0429 17:51:52.501958  2653 net.cpp:406] loss <- label
I0429 17:51:52.501967  2653 net.cpp:380] loss -> loss
I0429 17:51:52.501981  2653 layer_factory.hpp:77] Creating layer loss
…
I0429 17:51:52.502287  2653 solver.cpp:172] Creating test net (#0) specified by net file: examples/mnist/lenet_train_test.prototxt
I0429 17:51:52.502318  2653 net.cpp:294] The NetState phase (1) differed from the phase (0) specified by a rule in layer mnist
I0429 17:51:52.502445  2653 net.cpp:51] Initializing net from parameters: 
name: "LeNet"
state {
  phase: TEST
}
layer {
  name: "mnist"
  type: "Data"
  top: "data"
  top: "label"
  include {
    phase: TEST
  }
  transform_param {
    scale: 0.00390625
  }
  data_param {
    source: "examples/mnist/mnist_test_lmdb"
    batch_size: 100
    backend: LMDB
  }
}
layer {
  name: "conv1"
  type: "Convolution"
  bottom: "data"
  top: "conv1"
  param {
    lr_mult: 1
  }
  param {
    lr_mult: 2
  }
  convolution_param {
    num_output: 20
    kernel_size: 5
    stride: 1
    weight_filler {
      type: "xavier"
    }
    bias_filler {
      type: "constant"
    }
  }
}
layer {
  name: "pool1"
  type: "Pooling"
  bottom: "conv1"
  top: "pool1"
  pooling_param {
    pool: MAX
    kernel_size: 2
    stride: 2
  }
}
layer {
  name: "conv2"
  type: "Convolution"
  bottom: "pool1"
  top: "conv2"
  param {
    lr_mult: 1
  }
  param {
    lr_mult: 2
  }
  convolution_param {
    num_output: 50
    kernel_size: 5
    stride: 1
    weight_filler {
      type: "xavier"
    }
    bias_filler {
      type: "constant"
    }
  }
}
layer {
  name: "pool2"
  type: "Pooling"
  bottom: "conv2"
  top: "pool2"
  pooling_param {
    pool: MAX
    kernel_size: 2
    stride: 2
  }
}
layer {
  name: "ip1"
  type: "InnerProduct"
  bottom: "pool2"
  top: "ip1"
  param {
    lr_mult: 1
  }
  param {
    lr_mult: 2
  }
  inner_product_param {
    num_output: 500
    weight_filler {
      type: "xavier"
    }
    bias_filler {
      type: "constant"
    }
  }
}
layer {
  name: "relu1"
  type: "ReLU"
  bottom: "ip1"
  top: "ip1"
}
layer {
  name: "ip2"
  type: "InnerProduct"
  bottom: "ip1"
  top: "ip2"
  param {
    lr_mult: 1
  }
  param {
    lr_mult: 2
  }
  inner_product_param {
    num_output: 10
    weight_filler {
      type: "xavier"
    }
    bias_filler {
      type: "constant"
    }
  }
}
layer {
  name: "accuracy"
  type: "Accuracy"
  bottom: "ip2"
  bottom: "label"
  top: "accuracy"
  include {
    phase: TEST
  }
}
layer {
  name: "loss"
  type: "SoftmaxWithLoss"
  bottom: "ip2"
  bottom: "label"
  top: "loss"
}
I0429 17:51:52.502542  2653 layer_factory.hpp:77] Creating layer mnist
I0429 17:51:52.502598  2653 db_lmdb.cpp:35] Opened lmdb examples/mnist/mnist_test_lmdb
I0429 17:51:52.502614  2653 net.cpp:84] Creating Layer mnist
I0429 17:51:52.502622  2653 net.cpp:380] mnist -> data
I0429 17:51:52.502635  2653 net.cpp:380] mnist -> label
I0429 17:51:52.502653  2653 data_layer.cpp:45] output data size: 100,1,28,28
I0429 17:51:52.502723  2653 net.cpp:122] Setting up mnist
I0429 17:51:52.502734  2653 net.cpp:129] Top shape: 100 1 28 28 (78400)
I0429 17:51:52.502741  2653 net.cpp:129] Top shape: 100 (100)
I0429 17:51:52.502746  2653 net.cpp:137] Memory required for data: 314000
I0429 17:51:52.502751  2653 layer_factory.hpp:77] Creating layer label_mnist_1_split
I0429 17:51:52.502763  2653 net.cpp:84] Creating Layer label_mnist_1_split
I0429 17:51:52.502769  2653 net.cpp:406] label_mnist_1_split <- label
I0429 17:51:52.502777  2653 net.cpp:380] label_mnist_1_split -> label_mnist_1_split_0
I0429 17:51:52.502816  2653 net.cpp:380] label_mnist_1_split -> label_mnist_1_split_1
I0429 17:51:52.502830  2653 net.cpp:122] Setting up label_mnist_1_split
I0429 17:51:52.502836  2653 net.cpp:129] Top shape: 100 (100)
I0429 17:51:52.502842  2653 net.cpp:129] Top shape: 100 (100)
I0429 17:51:52.502846  2653 net.cpp:137] Memory required for data: 314800
I0429 17:51:52.502851  2653 layer_factory.hpp:77] Creating layer conv1
I0429 17:51:52.502866  2653 net.cpp:84] Creating Layer conv1
I0429 17:51:52.502872  2653 net.cpp:406] conv1 <- data
I0429 17:51:52.502881  2653 net.cpp:380] conv1 -> conv1
I0429 17:51:52.502917  2653 net.cpp:122] Setting up conv1
I0429 17:51:52.502926  2653 net.cpp:129] Top shape: 100 20 24 24 (1152000)
I0429 17:51:52.502930  2653 net.cpp:137] Memory required for data: 4922800
I0429 17:51:52.502944  2653 layer_factory.hpp:77] Creating layer pool1
I0429 17:51:52.502954  2653 net.cpp:84] Creating Layer pool1
I0429 17:51:52.502969  2653 net.cpp:406] pool1 <- conv1
I0429 17:51:52.502977  2653 net.cpp:380] pool1 -> pool1
I0429 17:51:52.502988  2653 net.cpp:122] Setting up pool1
I0429 17:51:52.502995  2653 net.cpp:129] Top shape: 100 20 12 12 (288000)
I0429 17:51:52.503000  2653 net.cpp:137] Memory required for data: 6074800
I0429 17:51:52.503005  2653 layer_factory.hpp:77] Creating layer conv2
I0429 17:51:52.503018  2653 net.cpp:84] Creating Layer conv2
I0429 17:51:52.503023  2653 net.cpp:406] conv2 <- pool1
I0429 17:51:52.503032  2653 net.cpp:380] conv2 -> conv2
I0429 17:51:52.503319  2653 net.cpp:122] Setting up conv2
I0429 17:51:52.503329  2653 net.cpp:129] Top shape: 100 50 8 8 (320000)
I0429 17:51:52.503334  2653 net.cpp:137] Memory required for data: 7354800
I0429 17:51:52.503347  2653 layer_factory.hpp:77] Creating layer pool2
I0429 17:51:52.503357  2653 net.cpp:84] Creating Layer pool2
I0429 17:51:52.503362  2653 net.cpp:406] pool2 <- conv2
I0429 17:51:52.503368  2653 net.cpp:380] pool2 -> pool2
I0429 17:51:52.503381  2653 net.cpp:122] Setting up pool2
I0429 17:51:52.503386  2653 net.cpp:129] Top shape: 100 50 4 4 (80000)
I0429 17:51:52.503391  2653 net.cpp:137] Memory required for data: 7674800
I0429 17:51:52.503401  2653 layer_factory.hpp:77] Creating layer ip1
I0429 17:51:52.503412  2653 net.cpp:84] Creating Layer ip1
I0429 17:51:52.503417  2653 net.cpp:406] ip1 <- pool2
I0429 17:51:52.503424  2653 net.cpp:380] ip1 -> ip1
I0429 17:51:52.507221  2653 net.cpp:122] Setting up ip1
I0429 17:51:52.507235  2653 net.cpp:129] Top shape: 100 500 (50000)
I0429 17:51:52.507238  2653 net.cpp:137] Memory required for data: 7874800
I0429 17:51:52.507251  2653 layer_factory.hpp:77] Creating layer relu1
I0429 17:51:52.507259  2653 net.cpp:84] Creating Layer relu1
I0429 17:51:52.507266  2653 net.cpp:406] relu1 <- ip1
I0429 17:51:52.507272  2653 net.cpp:367] relu1 -> ip1 (in-place)
I0429 17:51:52.507279  2653 net.cpp:122] Setting up relu1
I0429 17:51:52.507284  2653 net.cpp:129] Top shape: 100 500 (50000)
I0429 17:51:52.507289  2653 net.cpp:137] Memory required for data: 8074800
I0429 17:51:52.507293  2653 layer_factory.hpp:77] Creating layer ip2
I0429 17:51:52.507304  2653 net.cpp:84] Creating Layer ip2
I0429 17:51:52.507308  2653 net.cpp:406] ip2 <- ip1
I0429 17:51:52.507316  2653 net.cpp:380] ip2 -> ip2
I0429 17:51:52.507377  2653 net.cpp:122] Setting up ip2
I0429 17:51:52.507385  2653 net.cpp:129] Top shape: 100 10 (1000)
I0429 17:51:52.507388  2653 net.cpp:137] Memory required for data: 8078800
I0429 17:51:52.507395  2653 layer_factory.hpp:77] Creating layer ip2_ip2_0_split
I0429 17:51:52.507402  2653 net.cpp:84] Creating Layer ip2_ip2_0_split
I0429 17:51:52.507406  2653 net.cpp:406] ip2_ip2_0_split <- ip2
I0429 17:51:52.507414  2653 net.cpp:380] ip2_ip2_0_split -> ip2_ip2_0_split_0
I0429 17:51:52.507424  2653 net.cpp:380] ip2_ip2_0_split -> ip2_ip2_0_split_1
I0429 17:51:52.507432  2653 net.cpp:122] Setting up ip2_ip2_0_split
I0429 17:51:52.507437  2653 net.cpp:129] Top shape: 100 10 (1000)
I0429 17:51:52.507442  2653 net.cpp:129] Top shape: 100 10 (1000)
I0429 17:51:52.507447  2653 net.cpp:137] Memory required for data: 8086800
I0429 17:51:52.507452  2653 layer_factory.hpp:77] Creating layer accuracy
I0429 17:51:52.507458  2653 net.cpp:84] Creating Layer accuracy
I0429 17:51:52.507462  2653 net.cpp:406] accuracy <- ip2_ip2_0_split_0
I0429 17:51:52.507469  2653 net.cpp:406] accuracy <- label_mnist_1_split_0
I0429 17:51:52.507477  2653 net.cpp:380] accuracy -> accuracy
…
