…
I0428 21:27:07.976548 168401 net.cpp:294] The NetState phase (0) differed from the phase (1) specified by a rule in layer mnist
I0428 21:27:07.976567 168401 net.cpp:294] The NetState phase (0) differed from the phase (1) specified by a rule in layer accuracy
I0428 21:27:07.976661 168401 net.cpp:51] Initializing net from parameters: 
name: "LeNet"
state {
  phase: TRAIN
  level: 0
  stage: ""
}
layer {
  name: "mnist"
  type: "Data"
  top: "data"
  top: "label"
  include {
    phase: TRAIN
  }
  transform_param {
    scale: 0.00390625
  }
  data_param {
    source: "examples/mnist/mnist_train_lmdb"
    batch_size: 64
    backend: LMDB
  }
}
layer {
  name: "conv1"
  type: "Convolution"
  bottom: "data"
  top: "conv1"
  param {
    lr_mult: 1
  }
  param {
    lr_mult: 2
  }
  convolution_param {
    num_output: 20
    kernel_size: 5
    stride: 1
    weight_filler {
      type: "xavier"
    }
    bias_filler {
      type: "constant"
    }
  }
}
layer {
  name: "pool1"
  type: "Pooling"
  bottom: "conv1"
  top: "pool1"
  pooling_param {
    pool: MAX
    kernel_size: 2
    stride: 2
  }
}
layer {
  name: "conv2"
  type: "Convolution"
  bottom: "pool1"
  top: "conv2"
  param {
    lr_mult: 1
  }
  param {
    lr_mult: 2
  }
  convolution_param {
    num_output: 50
    kernel_size: 5
    stride: 1
    weight_filler {
      type: "xavier"
    }
    bias_filler {
      type: "constant"
    }
  }
}
layer {
  name: "pool2"
  type: "Pooling"
  bottom: "conv2"
  top: "pool2"
  pooling_param {
    pool: MAX
    kernel_size: 2
    stride: 2
  }
}
layer {
  name: "ip1"
  type: "InnerProduct"
  bottom: "pool2"
  top: "ip1"
  param {
    lr_mult: 1
  }
  param {
    lr_mult: 2
  }
  inner_product_param {
    num_output: 500
    weight_filler {
      type: "xavier"
    }
    bias_filler {
      type: "constant"
    }
  }
}
layer {
  name: "relu1"
  type: "ReLU"
  bottom: "ip1"
  top: "ip1"
}
layer {
  name: "ip2"
  type: "InnerProduct"
  bottom: "ip1"
  top: "ip2"
  param {
    lr_mult: 1
  }
  param {
    lr_mult: 2
  }
  inner_product_param {
    num_output: 10
    weight_filler {
      type: "xavier"
    }
    bias_filler {
      type: "constant"
    }
  }
}
layer {
  name: "loss"
  type: "SoftmaxWithLoss"
  bottom: "ip2"
  bottom: "label"
  top: "loss"
}
I0428 21:27:07.976723 168401 layer_factory.hpp:77] Creating layer mnist
I0428 21:27:07.976814 168401 db_lmdb.cpp:35] Opened lmdb examples/mnist/mnist_train_lmdb
I0428 21:27:07.976841 168401 net.cpp:84] Creating Layer mnist
I0428 21:27:07.976852 168401 net.cpp:380] mnist -> data
I0428 21:27:07.976873 168401 net.cpp:380] mnist -> label
I0428 21:27:07.976902 168401 data_layer.cpp:45] output data size: 64,1,28,28
I0428 21:27:07.977388 168401 net.cpp:122] Setting up mnist
I0428 21:27:07.977411 168401 net.cpp:129] Top shape: 64 1 28 28 (50176)
I0428 21:27:07.977416 168401 net.cpp:129] Top shape: 64 (64)
I0428 21:27:07.977421 168401 net.cpp:137] Memory required for data: 200960
I0428 21:27:07.977428 168401 layer_factory.hpp:77] Creating layer conv1
I0428 21:27:07.977444 168401 net.cpp:84] Creating Layer conv1
I0428 21:27:07.977452 168401 net.cpp:406] conv1 <- data
I0428 21:27:07.977463 168401 net.cpp:380] conv1 -> conv1
I0428 21:27:07.977507 168401 net.cpp:122] Setting up conv1
I0428 21:27:07.977516 168401 net.cpp:129] Top shape: 64 20 24 24 (737280)
I0428 21:27:07.977521 168401 net.cpp:137] Memory required for data: 3150080
I0428 21:27:07.977540 168401 layer_factory.hpp:77] Creating layer pool1
I0428 21:27:07.977547 168401 net.cpp:84] Creating Layer pool1
I0428 21:27:07.977560 168401 net.cpp:406] pool1 <- conv1
I0428 21:27:07.977576 168401 net.cpp:380] pool1 -> pool1
I0428 21:27:07.977591 168401 net.cpp:122] Setting up pool1
I0428 21:27:07.977598 168401 net.cpp:129] Top shape: 64 20 12 12 (184320)
I0428 21:27:07.977603 168401 net.cpp:137] Memory required for data: 3887360
I0428 21:27:07.977608 168401 layer_factory.hpp:77] Creating layer conv2
I0428 21:27:07.977617 168401 net.cpp:84] Creating Layer conv2
I0428 21:27:07.977622 168401 net.cpp:406] conv2 <- pool1
I0428 21:27:07.977629 168401 net.cpp:380] conv2 -> conv2
I0428 21:27:07.977876 168401 net.cpp:122] Setting up conv2
I0428 21:27:07.977885 168401 net.cpp:129] Top shape: 64 50 8 8 (204800)
I0428 21:27:07.977890 168401 net.cpp:137] Memory required for data: 4706560
I0428 21:27:07.977901 168401 layer_factory.hpp:77] Creating layer pool2
I0428 21:27:07.977908 168401 net.cpp:84] Creating Layer pool2
I0428 21:27:07.977913 168401 net.cpp:406] pool2 <- conv2
I0428 21:27:07.977919 168401 net.cpp:380] pool2 -> pool2
I0428 21:27:07.977929 168401 net.cpp:122] Setting up pool2
I0428 21:27:07.977936 168401 net.cpp:129] Top shape: 64 50 4 4 (51200)
I0428 21:27:07.977941 168401 net.cpp:137] Memory required for data: 4911360
I0428 21:27:07.977946 168401 layer_factory.hpp:77] Creating layer ip1
I0428 21:27:07.977954 168401 net.cpp:84] Creating Layer ip1
I0428 21:27:07.977959 168401 net.cpp:406] ip1 <- pool2
I0428 21:27:07.977967 168401 net.cpp:380] ip1 -> ip1
I0428 21:27:07.981487 168401 net.cpp:122] Setting up ip1
I0428 21:27:07.981499 168401 net.cpp:129] Top shape: 64 500 (32000)
I0428 21:27:07.981503 168401 net.cpp:137] Memory required for data: 5039360
I0428 21:27:07.981513 168401 layer_factory.hpp:77] Creating layer relu1
I0428 21:27:07.981520 168401 net.cpp:84] Creating Layer relu1
I0428 21:27:07.981525 168401 net.cpp:406] relu1 <- ip1
I0428 21:27:07.981531 168401 net.cpp:367] relu1 -> ip1 (in-place)
I0428 21:27:07.981539 168401 net.cpp:122] Setting up relu1
I0428 21:27:07.981545 168401 net.cpp:129] Top shape: 64 500 (32000)
I0428 21:27:07.981550 168401 net.cpp:137] Memory required for data: 5167360
I0428 21:27:07.981554 168401 layer_factory.hpp:77] Creating layer ip2
I0428 21:27:07.981560 168401 net.cpp:84] Creating Layer ip2
I0428 21:27:07.981564 168401 net.cpp:406] ip2 <- ip1
I0428 21:27:07.981572 168401 net.cpp:380] ip2 -> ip2
I0428 21:27:07.981632 168401 net.cpp:122] Setting up ip2
I0428 21:27:07.981639 168401 net.cpp:129] Top shape: 64 10 (640)
I0428 21:27:07.981643 168401 net.cpp:137] Memory required for data: 5169920
I0428 21:27:07.981652 168401 layer_factory.hpp:77] Creating layer loss
I0428 21:27:07.981658 168401 net.cpp:84] Creating Layer loss
I0428 21:27:07.981662 168401 net.cpp:406] loss <- ip2
I0428 21:27:07.981667 168401 net.cpp:406] loss <- label
I0428 21:27:07.981675 168401 net.cpp:380] loss -> loss
I0428 21:27:07.981688 168401 layer_factory.hpp:77] Creating layer loss
…
I0428 21:27:07.981950 168401 solver.cpp:172] Creating test net (#0) specified by net file: examples/mnist/lenet_train_test.prototxt
I0428 21:27:07.981989 168401 net.cpp:294] The NetState phase (1) differed from the phase (0) specified by a rule in layer mnist
I0428 21:27:07.982087 168401 net.cpp:51] Initializing net from parameters: 
name: "LeNet"
state {
  phase: TEST
}
layer {
  name: "mnist"
  type: "Data"
  top: "data"
  top: "label"
  include {
    phase: TEST
  }
  transform_param {
    scale: 0.00390625
  }
  data_param {
    source: "examples/mnist/mnist_test_lmdb"
    batch_size: 100
    backend: LMDB
  }
}
layer {
  name: "conv1"
  type: "Convolution"
  bottom: "data"
  top: "conv1"
  param {
    lr_mult: 1
  }
  param {
    lr_mult: 2
  }
  convolution_param {
    num_output: 20
    kernel_size: 5
    stride: 1
    weight_filler {
      type: "xavier"
    }
    bias_filler {
      type: "constant"
    }
  }
}
layer {
  name: "pool1"
  type: "Pooling"
  bottom: "conv1"
  top: "pool1"
  pooling_param {
    pool: MAX
    kernel_size: 2
    stride: 2
  }
}
layer {
  name: "conv2"
  type: "Convolution"
  bottom: "pool1"
  top: "conv2"
  param {
    lr_mult: 1
  }
  param {
    lr_mult: 2
  }
  convolution_param {
    num_output: 50
    kernel_size: 5
    stride: 1
    weight_filler {
      type: "xavier"
    }
    bias_filler {
      type: "constant"
    }
  }
}
layer {
  name: "pool2"
  type: "Pooling"
  bottom: "conv2"
  top: "pool2"
  pooling_param {
    pool: MAX
    kernel_size: 2
    stride: 2
  }
}
layer {
  name: "ip1"
  type: "InnerProduct"
  bottom: "pool2"
  top: "ip1"
  param {
    lr_mult: 1
  }
  param {
    lr_mult: 2
  }
  inner_product_param {
    num_output: 500
    weight_filler {
      type: "xavier"
    }
    bias_filler {
      type: "constant"
    }
  }
}
layer {
  name: "relu1"
  type: "ReLU"
  bottom: "ip1"
  top: "ip1"
}
layer {
  name: "ip2"
  type: "InnerProduct"
  bottom: "ip1"
  top: "ip2"
  param {
    lr_mult: 1
  }
  param {
    lr_mult: 2
  }
  inner_product_param {
    num_output: 10
    weight_filler {
      type: "xavier"
    }
    bias_filler {
      type: "constant"
    }
  }
}
layer {
  name: "accuracy"
  type: "Accuracy"
  bottom: "ip2"
  bottom: "label"
  top: "accuracy"
  include {
    phase: TEST
  }
}
layer {
  name: "loss"
  type: "SoftmaxWithLoss"
  bottom: "ip2"
  bottom: "label"
  top: "loss"
}
I0428 21:27:07.982163 168401 layer_factory.hpp:77] Creating layer mnist
I0428 21:27:07.982213 168401 db_lmdb.cpp:35] Opened lmdb examples/mnist/mnist_test_lmdb
I0428 21:27:07.982228 168401 net.cpp:84] Creating Layer mnist
I0428 21:27:07.982235 168401 net.cpp:380] mnist -> data
I0428 21:27:07.982246 168401 net.cpp:380] mnist -> label
I0428 21:27:07.982261 168401 data_layer.cpp:45] output data size: 100,1,28,28
I0428 21:27:07.982313 168401 net.cpp:122] Setting up mnist
I0428 21:27:07.982324 168401 net.cpp:129] Top shape: 100 1 28 28 (78400)
I0428 21:27:07.982331 168401 net.cpp:129] Top shape: 100 (100)
I0428 21:27:07.982334 168401 net.cpp:137] Memory required for data: 314000
I0428 21:27:07.982339 168401 layer_factory.hpp:77] Creating layer label_mnist_1_split
I0428 21:27:07.982349 168401 net.cpp:84] Creating Layer label_mnist_1_split
I0428 21:27:07.982354 168401 net.cpp:406] label_mnist_1_split <- label
I0428 21:27:07.982362 168401 net.cpp:380] label_mnist_1_split -> label_mnist_1_split_0
I0428 21:27:07.982394 168401 net.cpp:380] label_mnist_1_split -> label_mnist_1_split_1
I0428 21:27:07.982406 168401 net.cpp:122] Setting up label_mnist_1_split
I0428 21:27:07.982414 168401 net.cpp:129] Top shape: 100 (100)
I0428 21:27:07.982419 168401 net.cpp:129] Top shape: 100 (100)
I0428 21:27:07.982421 168401 net.cpp:137] Memory required for data: 314800
I0428 21:27:07.982425 168401 layer_factory.hpp:77] Creating layer conv1
I0428 21:27:07.982439 168401 net.cpp:84] Creating Layer conv1
I0428 21:27:07.982444 168401 net.cpp:406] conv1 <- data
I0428 21:27:07.982451 168401 net.cpp:380] conv1 -> conv1
I0428 21:27:07.982483 168401 net.cpp:122] Setting up conv1
I0428 21:27:07.982491 168401 net.cpp:129] Top shape: 100 20 24 24 (1152000)
I0428 21:27:07.982496 168401 net.cpp:137] Memory required for data: 4922800
I0428 21:27:07.982519 168401 layer_factory.hpp:77] Creating layer pool1
I0428 21:27:07.982527 168401 net.cpp:84] Creating Layer pool1
I0428 21:27:07.982532 168401 net.cpp:406] pool1 <- conv1
I0428 21:27:07.982538 168401 net.cpp:380] pool1 -> pool1
I0428 21:27:07.982548 168401 net.cpp:122] Setting up pool1
I0428 21:27:07.982554 168401 net.cpp:129] Top shape: 100 20 12 12 (288000)
I0428 21:27:07.982558 168401 net.cpp:137] Memory required for data: 6074800
I0428 21:27:07.982563 168401 layer_factory.hpp:77] Creating layer conv2
I0428 21:27:07.982574 168401 net.cpp:84] Creating Layer conv2
I0428 21:27:07.982578 168401 net.cpp:406] conv2 <- pool1
I0428 21:27:07.982586 168401 net.cpp:380] conv2 -> conv2
I0428 21:27:07.982822 168401 net.cpp:122] Setting up conv2
I0428 21:27:07.982831 168401 net.cpp:129] Top shape: 100 50 8 8 (320000)
I0428 21:27:07.982834 168401 net.cpp:137] Memory required for data: 7354800
I0428 21:27:07.982844 168401 layer_factory.hpp:77] Creating layer pool2
I0428 21:27:07.982853 168401 net.cpp:84] Creating Layer pool2
I0428 21:27:07.982858 168401 net.cpp:406] pool2 <- conv2
I0428 21:27:07.982864 168401 net.cpp:380] pool2 -> pool2
I0428 21:27:07.982874 168401 net.cpp:122] Setting up pool2
I0428 21:27:07.982880 168401 net.cpp:129] Top shape: 100 50 4 4 (80000)
I0428 21:27:07.982884 168401 net.cpp:137] Memory required for data: 7674800
I0428 21:27:07.982888 168401 layer_factory.hpp:77] Creating layer ip1
I0428 21:27:07.982897 168401 net.cpp:84] Creating Layer ip1
I0428 21:27:07.982903 168401 net.cpp:406] ip1 <- pool2
I0428 21:27:07.982908 168401 net.cpp:380] ip1 -> ip1
I0428 21:27:07.986327 168401 net.cpp:122] Setting up ip1
I0428 21:27:07.986338 168401 net.cpp:129] Top shape: 100 500 (50000)
I0428 21:27:07.986342 168401 net.cpp:137] Memory required for data: 7874800
I0428 21:27:07.986353 168401 layer_factory.hpp:77] Creating layer relu1
I0428 21:27:07.986359 168401 net.cpp:84] Creating Layer relu1
I0428 21:27:07.986366 168401 net.cpp:406] relu1 <- ip1
I0428 21:27:07.986371 168401 net.cpp:367] relu1 -> ip1 (in-place)
I0428 21:27:07.986377 168401 net.cpp:122] Setting up relu1
I0428 21:27:07.986383 168401 net.cpp:129] Top shape: 100 500 (50000)
I0428 21:27:07.986387 168401 net.cpp:137] Memory required for data: 8074800
I0428 21:27:07.986392 168401 layer_factory.hpp:77] Creating layer ip2
I0428 21:27:07.986402 168401 net.cpp:84] Creating Layer ip2
I0428 21:27:07.986405 168401 net.cpp:406] ip2 <- ip1
I0428 21:27:07.986413 168401 net.cpp:380] ip2 -> ip2
I0428 21:27:07.986469 168401 net.cpp:122] Setting up ip2
I0428 21:27:07.986474 168401 net.cpp:129] Top shape: 100 10 (1000)
I0428 21:27:07.986479 168401 net.cpp:137] Memory required for data: 8078800
I0428 21:27:07.986485 168401 layer_factory.hpp:77] Creating layer ip2_ip2_0_split
I0428 21:27:07.986491 168401 net.cpp:84] Creating Layer ip2_ip2_0_split
I0428 21:27:07.986495 168401 net.cpp:406] ip2_ip2_0_split <- ip2
I0428 21:27:07.986502 168401 net.cpp:380] ip2_ip2_0_split -> ip2_ip2_0_split_0
I0428 21:27:07.986511 168401 net.cpp:380] ip2_ip2_0_split -> ip2_ip2_0_split_1
I0428 21:27:07.986518 168401 net.cpp:122] Setting up ip2_ip2_0_split
I0428 21:27:07.986524 168401 net.cpp:129] Top shape: 100 10 (1000)
I0428 21:27:07.986528 168401 net.cpp:129] Top shape: 100 10 (1000)
I0428 21:27:07.986533 168401 net.cpp:137] Memory required for data: 8086800
I0428 21:27:07.986537 168401 layer_factory.hpp:77] Creating layer accuracy
I0428 21:27:07.986543 168401 net.cpp:84] Creating Layer accuracy
I0428 21:27:07.986547 168401 net.cpp:406] accuracy <- ip2_ip2_0_split_0
I0428 21:27:07.986554 168401 net.cpp:406] accuracy <- label_mnist_1_split_0
I0428 21:27:07.986560 168401 net.cpp:380] accuracy -> accuracy
…
