…
weight_decay: 0.0005
snapshot: 20
snapshot_prefix: "examples/mnist/lenet"
solver_mode: CPU
net: "examples/mnist/lenet_train_test.prototxt"
train_state {
  level: 0
  stage: ""
}
I0429 19:55:54.083508  4000 solver.cpp:87] Creating training net from net file: examples/mnist/lenet_train_test.prototxt
I0429 19:55:54.083736  4000 net.cpp:51] Initializing net from parameters: 
state {
  phase: TRAIN
  level: 0
  stage: ""
}
layer {
  name: "data"
  type: "Input"
  top: "data"
  input_param {
    shape {
      dim: 1
      dim: 1
      dim: 28
      dim: 28
    }
  }
}
layer {
  name: "conv1"
  type: "Convolution"
  bottom: "data"
  top: "conv1"
  param {
    lr_mult: 1
  }
  param {
    lr_mult: 2
  }
  convolution_param {
    num_output: 20
    kernel_size: 5
    stride: 1
    weight_filler {
      type: "xavier"
    }
    bias_filler {
      type: "constant"
    }
  }
}
layer {
  name: "pool1"
  type: "Pooling"
  bottom: "conv1"
  top: "pool1"
  pooling_param {
    pool: MAX
    kernel_size: 2
    stride: 2
  }
}
layer {
  name: "conv2"
  type: "Convolution"
  bottom: "pool1"
  top: "conv2"
  param {
    lr_mult: 1
  }
  param {
    lr_mult: 2
  }
  convolution_param {
    num_output: 50
    kernel_size: 5
    stride: 1
    weight_filler {
      type: "xavier"
    }
    bias_filler {
      type: "constant"
    }
  }
}
layer {
  name: "pool2"
  type: "Pooling"
  bottom: "conv2"
  top: "pool2"
  pooling_param {
    pool: MAX
    kernel_size: 2
    stride: 2
  }
}
layer {
  name: "conv3"
  type: "Convolution"
  bottom: "pool2"
  top: "conv3"
  param {
    lr_mult: 1
  }
  param {
    lr_mult: 2
  }
  convolution_param {
    num_output: 50
    kernel_size: 5
    stride: 1
    weight_filler {
      type: "xavier"
    }
    bias_filler {
      type: "constant"
    }
  }
}
layer {
  name: "pool3"
  type: "Pooling"
  bottom: "conv3"
  top: "pool3"
  pooling_param {
    pool: MAX
    kernel_size: 2
    stride: 2
  }
}
layer {
  name: "ip1"
  type: "InnerProduct"
  bottom: "pool3"
  top: "ip1"
  param {
    lr_mult: 1
  }
  param {
    lr_mult: 2
  }
  inner_product_param {
    num_output: 500
    weight_filler {
      type: "xavier"
    }
    bias_filler {
      type: "constant"
    }
  }
}
layer {
  name: "relu1"
  type: "ReLU"
  bottom: "ip1"
  top: "ip1"
}
layer {
  name: "ip2"
  type: "InnerProduct"
  bottom: "ip1"
  top: "ip2"
  param {
    lr_mult: 1
  }
  param {
    lr_mult: 2
  }
  inner_product_param {
    num_output: 10
    weight_filler {
      type: "xavier"
    }
    bias_filler {
      type: "constant"
    }
  }
}
layer {
  name: "loss"
  type: "Softmax"
  bottom: "ip2"
  top: "loss"
}
I0429 19:55:54.083794  4000 layer_factory.hpp:77] Creating layer data
I0429 19:55:54.083816  4000 net.cpp:84] Creating Layer data
I0429 19:55:54.083822  4000 net.cpp:380] data -> data
I0429 19:55:54.083847  4000 net.cpp:122] Setting up data
I0429 19:55:54.083853  4000 net.cpp:129] Top shape: 1 1 28 28 (784)
I0429 19:55:54.083856  4000 net.cpp:137] Memory required for data: 3136
I0429 19:55:54.083861  4000 layer_factory.hpp:77] Creating layer conv1
I0429 19:55:54.083873  4000 net.cpp:84] Creating Layer conv1
I0429 19:55:54.083878  4000 net.cpp:406] conv1 <- data
I0429 19:55:54.083885  4000 net.cpp:380] conv1 -> conv1
I0429 19:55:54.084275  4000 net.cpp:122] Setting up conv1
I0429 19:55:54.084283  4000 net.cpp:129] Top shape: 1 20 24 24 (11520)
I0429 19:55:54.084287  4000 net.cpp:137] Memory required for data: 49216
I0429 19:55:54.084301  4000 layer_factory.hpp:77] Creating layer pool1
I0429 19:55:54.084308  4000 net.cpp:84] Creating Layer pool1
I0429 19:55:54.084311  4000 net.cpp:406] pool1 <- conv1
I0429 19:55:54.084317  4000 net.cpp:380] pool1 -> pool1
I0429 19:55:54.084331  4000 net.cpp:122] Setting up pool1
I0429 19:55:54.084336  4000 net.cpp:129] Top shape: 1 20 12 12 (2880)
I0429 19:55:54.084338  4000 net.cpp:137] Memory required for data: 60736
I0429 19:55:54.084349  4000 layer_factory.hpp:77] Creating layer conv2
I0429 19:55:54.084357  4000 net.cpp:84] Creating Layer conv2
I0429 19:55:54.084362  4000 net.cpp:406] conv2 <- pool1
I0429 19:55:54.084367  4000 net.cpp:380] conv2 -> conv2
I0429 19:55:54.084555  4000 net.cpp:122] Setting up conv2
I0429 19:55:54.084561  4000 net.cpp:129] Top shape: 1 50 8 8 (3200)
I0429 19:55:54.084564  4000 net.cpp:137] Memory required for data: 73536
I0429 19:55:54.084571  4000 layer_factory.hpp:77] Creating layer pool2
I0429 19:55:54.084578  4000 net.cpp:84] Creating Layer pool2
I0429 19:55:54.084581  4000 net.cpp:406] pool2 <- conv2
I0429 19:55:54.084585  4000 net.cpp:380] pool2 -> pool2
I0429 19:55:54.084594  4000 net.cpp:122] Setting up pool2
I0429 19:55:54.084599  4000 net.cpp:129] Top shape: 1 50 4 4 (800)
I0429 19:55:54.084601  4000 net.cpp:137] Memory required for data: 76736
I0429 19:55:54.084604  4000 layer_factory.hpp:77] Creating layer conv3
I0429 19:55:54.084611  4000 net.cpp:84] Creating Layer conv3
I0429 19:55:54.084614  4000 net.cpp:406] conv3 <- pool2
I0429 19:55:54.084620  4000 net.cpp:380] conv3 -> conv3
F0429 19:55:54.085059  4000 blob.cpp:133] Check failed: data_ 
*** Check failure stack trace: ***
…
