…
I0428 20:54:38.305765 168267 net.cpp:294] The NetState phase (0) differed from the phase (1) specified by a rule in layer mnist
I0428 20:54:38.305778 168267 net.cpp:294] The NetState phase (0) differed from the phase (1) specified by a rule in layer accuracy
I0428 20:54:38.305846 168267 net.cpp:51] Initializing net from parameters: 
name: "LeNet"
state {
  phase: TRAIN
  level: 0
  stage: ""
}
layer {
  name: "mnist"
  type: "Data"
  top: "data"
  top: "label"
  include {
    phase: TRAIN
  }
  transform_param {
    scale: 0.00390625
  }
  data_param {
    source: "examples/mnist/mnist_train_lmdb"
    batch_size: 64
    backend: LMDB
  }
}
layer {
  name: "conv1"
  type: "Convolution"
  bottom: "data"
  top: "conv1"
  param {
    lr_mult: 1
  }
  param {
    lr_mult: 2
  }
  convolution_param {
    num_output: 20
    kernel_size: 5
    stride: 1
    weight_filler {
      type: "xavier"
    }
    bias_filler {
      type: "constant"
    }
  }
}
layer {
  name: "pool1"
  type: "Pooling"
  bottom: "conv1"
  top: "pool1"
  pooling_param {
    pool: MAX
    kernel_size: 2
    stride: 2
  }
}
layer {
  name: "conv2"
  type: "Convolution"
  bottom: "pool1"
  top: "conv2"
  param {
    lr_mult: 1
  }
  param {
    lr_mult: 2
  }
  convolution_param {
    num_output: 50
    kernel_size: 5
    stride: 1
    weight_filler {
      type: "xavier"
    }
    bias_filler {
      type: "constant"
    }
  }
}
layer {
  name: "pool2"
  type: "Pooling"
  bottom: "conv2"
  top: "pool2"
  pooling_param {
    pool: MAX
    kernel_size: 2
    stride: 2
  }
}
layer {
  name: "ip1"
  type: "InnerProduct"
  bottom: "pool2"
  top: "ip1"
  param {
    lr_mult: 1
  }
  param {
    lr_mult: 2
  }
  inner_product_param {
    num_output: 500
    weight_filler {
      type: "xavier"
    }
    bias_filler {
      type: "constant"
    }
  }
}
layer {
  name: "relu1"
  type: "ReLU"
  bottom: "ip1"
  top: "ip1"
}
layer {
  name: "ip2"
  type: "InnerProduct"
  bottom: "ip1"
  top: "ip2"
  param {
    lr_mult: 1
  }
  param {
    lr_mult: 2
  }
  inner_product_param {
    num_output: 10
    weight_filler {
      type: "xavier"
    }
    bias_filler {
      type: "constant"
    }
  }
}
layer {
  name: "loss"
  type: "SoftmaxWithLoss"
  bottom: "ip2"
  bottom: "label"
  top: "loss"
}
I0428 20:54:38.305896 168267 layer_factory.hpp:77] Creating layer mnist
I0428 20:54:38.305974 168267 db_lmdb.cpp:35] Opened lmdb examples/mnist/mnist_train_lmdb
I0428 20:54:38.305995 168267 net.cpp:84] Creating Layer mnist
I0428 20:54:38.306005 168267 net.cpp:380] mnist -> data
I0428 20:54:38.306022 168267 net.cpp:380] mnist -> label
I0428 20:54:38.306047 168267 data_layer.cpp:45] output data size: 64,1,28,28
I0428 20:54:38.306419 168267 net.cpp:122] Setting up mnist
I0428 20:54:38.306445 168267 net.cpp:129] Top shape: 64 1 28 28 (50176)
I0428 20:54:38.306450 168267 net.cpp:129] Top shape: 64 (64)
I0428 20:54:38.306453 168267 net.cpp:137] Memory required for data: 200960
I0428 20:54:38.306458 168267 layer_factory.hpp:77] Creating layer conv1
I0428 20:54:38.306471 168267 net.cpp:84] Creating Layer conv1
I0428 20:54:38.306476 168267 net.cpp:406] conv1 <- data
I0428 20:54:38.306485 168267 net.cpp:380] conv1 -> conv1
I0428 20:54:38.306524 168267 net.cpp:122] Setting up conv1
I0428 20:54:38.306530 168267 net.cpp:129] Top shape: 64 20 24 24 (737280)
I0428 20:54:38.306535 168267 net.cpp:137] Memory required for data: 3150080
I0428 20:54:38.306550 168267 layer_factory.hpp:77] Creating layer pool1
I0428 20:54:38.306555 168267 net.cpp:84] Creating Layer pool1
I0428 20:54:38.306565 168267 net.cpp:406] pool1 <- conv1
I0428 20:54:38.306576 168267 net.cpp:380] pool1 -> pool1
I0428 20:54:38.306588 168267 net.cpp:122] Setting up pool1
I0428 20:54:38.306594 168267 net.cpp:129] Top shape: 64 20 12 12 (184320)
I0428 20:54:38.306598 168267 net.cpp:137] Memory required for data: 3887360
I0428 20:54:38.306602 168267 layer_factory.hpp:77] Creating layer conv2
I0428 20:54:38.306608 168267 net.cpp:84] Creating Layer conv2
I0428 20:54:38.306612 168267 net.cpp:406] conv2 <- pool1
I0428 20:54:38.306617 168267 net.cpp:380] conv2 -> conv2
I0428 20:54:38.306802 168267 net.cpp:122] Setting up conv2
I0428 20:54:38.306809 168267 net.cpp:129] Top shape: 64 50 8 8 (204800)
I0428 20:54:38.306813 168267 net.cpp:137] Memory required for data: 4706560
I0428 20:54:38.306820 168267 layer_factory.hpp:77] Creating layer pool2
I0428 20:54:38.306826 168267 net.cpp:84] Creating Layer pool2
I0428 20:54:38.306829 168267 net.cpp:406] pool2 <- conv2
I0428 20:54:38.306833 168267 net.cpp:380] pool2 -> pool2
I0428 20:54:38.306841 168267 net.cpp:122] Setting up pool2
I0428 20:54:38.306845 168267 net.cpp:129] Top shape: 64 50 4 4 (51200)
I0428 20:54:38.306849 168267 net.cpp:137] Memory required for data: 4911360
I0428 20:54:38.306852 168267 layer_factory.hpp:77] Creating layer ip1
I0428 20:54:38.306859 168267 net.cpp:84] Creating Layer ip1
I0428 20:54:38.306861 168267 net.cpp:406] ip1 <- pool2
I0428 20:54:38.306867 168267 net.cpp:380] ip1 -> ip1
I0428 20:54:38.309588 168267 net.cpp:122] Setting up ip1
I0428 20:54:38.309597 168267 net.cpp:129] Top shape: 64 500 (32000)
I0428 20:54:38.309600 168267 net.cpp:137] Memory required for data: 5039360
I0428 20:54:38.309608 168267 layer_factory.hpp:77] Creating layer relu1
I0428 20:54:38.309613 168267 net.cpp:84] Creating Layer relu1
I0428 20:54:38.309617 168267 net.cpp:406] relu1 <- ip1
I0428 20:54:38.309623 168267 net.cpp:367] relu1 -> ip1 (in-place)
I0428 20:54:38.309628 168267 net.cpp:122] Setting up relu1
I0428 20:54:38.309633 168267 net.cpp:129] Top shape: 64 500 (32000)
I0428 20:54:38.309635 168267 net.cpp:137] Memory required for data: 5167360
I0428 20:54:38.309638 168267 layer_factory.hpp:77] Creating layer ip2
I0428 20:54:38.309643 168267 net.cpp:84] Creating Layer ip2
I0428 20:54:38.309646 168267 net.cpp:406] ip2 <- ip1
I0428 20:54:38.309651 168267 net.cpp:380] ip2 -> ip2
I0428 20:54:38.309697 168267 net.cpp:122] Setting up ip2
I0428 20:54:38.309702 168267 net.cpp:129] Top shape: 64 10 (640)
I0428 20:54:38.309705 168267 net.cpp:137] Memory required for data: 5169920
I0428 20:54:38.309710 168267 layer_factory.hpp:77] Creating layer loss
I0428 20:54:38.309715 168267 net.cpp:84] Creating Layer loss
I0428 20:54:38.309718 168267 net.cpp:406] loss <- ip2
I0428 20:54:38.309722 168267 net.cpp:406] loss <- label
I0428 20:54:38.309728 168267 net.cpp:380] loss -> loss
I0428 20:54:38.309738 168267 layer_factory.hpp:77] Creating layer loss
…
I0428 20:54:38.309937 168267 solver.cpp:172] Creating test net (#0) specified by net file: examples/mnist/lenet_train_test.prototxt
I0428 20:54:38.309969 168267 net.cpp:294] The NetState phase (1) differed from the phase (0) specified by a rule in layer mnist
I0428 20:54:38.310042 168267 net.cpp:51] Initializing net from parameters: 
name: "LeNet"
state {
  phase: TEST
}
layer {
  name: "mnist"
  type: "Data"
  top: "data"
  top: "label"
  include {
    phase: TEST
  }
  transform_param {
    scale: 0.00390625
  }
  data_param {
    source: "examples/mnist/mnist_test_lmdb"
    batch_size: 100
    backend: LMDB
  }
}
layer {
  name: "conv1"
  type: "Convolution"
  bottom: "data"
  top: "conv1"
  param {
    lr_mult: 1
  }
  param {
    lr_mult: 2
  }
  convolution_param {
    num_output: 20
    kernel_size: 5
    stride: 1
    weight_filler {
      type: "xavier"
    }
    bias_filler {
      type: "constant"
    }
  }
}
layer {
  name: "pool1"
  type: "Pooling"
  bottom: "conv1"
  top: "pool1"
  pooling_param {
    pool: MAX
    kernel_size: 2
    stride: 2
  }
}
layer {
  name: "conv2"
  type: "Convolution"
  bottom: "pool1"
  top: "conv2"
  param {
    lr_mult: 1
  }
  param {
    lr_mult: 2
  }
  convolution_param {
    num_output: 50
    kernel_size: 5
    stride: 1
    weight_filler {
      type: "xavier"
    }
    bias_filler {
      type: "constant"
    }
  }
}
layer {
  name: "pool2"
  type: "Pooling"
  bottom: "conv2"
  top: "pool2"
  pooling_param {
    pool: MAX
    kernel_size: 2
    stride: 2
  }
}
layer {
  name: "ip1"
  type: "InnerProduct"
  bottom: "pool2"
  top: "ip1"
  param {
    lr_mult: 1
  }
  param {
    lr_mult: 2
  }
  inner_product_param {
    num_output: 500
    weight_filler {
      type: "xavier"
    }
    bias_filler {
      type: "constant"
    }
  }
}
layer {
  name: "relu1"
  type: "ReLU"
  bottom: "ip1"
  top: "ip1"
}
layer {
  name: "ip2"
  type: "InnerProduct"
  bottom: "ip1"
  top: "ip2"
  param {
    lr_mult: 1
  }
  param {
    lr_mult: 2
  }
  inner_product_param {
    num_output: 10
    weight_filler {
      type: "xavier"
    }
    bias_filler {
      type: "constant"
    }
  }
}
layer {
  name: "accuracy"
  type: "Accuracy"
  bottom: "ip2"
  bottom: "label"
  top: "accuracy"
  include {
    phase: TEST
  }
}
layer {
  name: "loss"
  type: "SoftmaxWithLoss"
  bottom: "ip2"
  bottom: "label"
  top: "loss"
}
I0428 20:54:38.310101 168267 layer_factory.hpp:77] Creating layer mnist
I0428 20:54:38.310139 168267 db_lmdb.cpp:35] Opened lmdb examples/mnist/mnist_test_lmdb
I0428 20:54:38.310153 168267 net.cpp:84] Creating Layer mnist
I0428 20:54:38.310158 168267 net.cpp:380] mnist -> data
I0428 20:54:38.310166 168267 net.cpp:380] mnist -> label
I0428 20:54:38.310178 168267 data_layer.cpp:45] output data size: 100,1,28,28
I0428 20:54:38.310217 168267 net.cpp:122] Setting up mnist
I0428 20:54:38.310240 168267 net.cpp:129] Top shape: 100 1 28 28 (78400)
I0428 20:54:38.310245 168267 net.cpp:129] Top shape: 100 (100)
I0428 20:54:38.310247 168267 net.cpp:137] Memory required for data: 314000
I0428 20:54:38.310250 168267 layer_factory.hpp:77] Creating layer label_mnist_1_split
I0428 20:54:38.310258 168267 net.cpp:84] Creating Layer label_mnist_1_split
I0428 20:54:38.310262 168267 net.cpp:406] label_mnist_1_split <- label
I0428 20:54:38.310267 168267 net.cpp:380] label_mnist_1_split -> label_mnist_1_split_0
I0428 20:54:38.310284 168267 net.cpp:380] label_mnist_1_split -> label_mnist_1_split_1
I0428 20:54:38.310292 168267 net.cpp:122] Setting up label_mnist_1_split
I0428 20:54:38.310297 168267 net.cpp:129] Top shape: 100 (100)
I0428 20:54:38.310299 168267 net.cpp:129] Top shape: 100 (100)
I0428 20:54:38.310302 168267 net.cpp:137] Memory required for data: 314800
I0428 20:54:38.310304 168267 layer_factory.hpp:77] Creating layer conv1
I0428 20:54:38.310315 168267 net.cpp:84] Creating Layer conv1
I0428 20:54:38.310318 168267 net.cpp:406] conv1 <- data
I0428 20:54:38.310340 168267 net.cpp:380] conv1 -> conv1
I0428 20:54:38.310367 168267 net.cpp:122] Setting up conv1
I0428 20:54:38.310374 168267 net.cpp:129] Top shape: 100 20 24 24 (1152000)
I0428 20:54:38.310377 168267 net.cpp:137] Memory required for data: 4922800
I0428 20:54:38.310395 168267 layer_factory.hpp:77] Creating layer pool1
I0428 20:54:38.310401 168267 net.cpp:84] Creating Layer pool1
I0428 20:54:38.310405 168267 net.cpp:406] pool1 <- conv1
I0428 20:54:38.310410 168267 net.cpp:380] pool1 -> pool1
I0428 20:54:38.310417 168267 net.cpp:122] Setting up pool1
I0428 20:54:38.310421 168267 net.cpp:129] Top shape: 100 20 12 12 (288000)
I0428 20:54:38.310425 168267 net.cpp:137] Memory required for data: 6074800
I0428 20:54:38.310428 168267 layer_factory.hpp:77] Creating layer conv2
I0428 20:54:38.310437 168267 net.cpp:84] Creating Layer conv2
I0428 20:54:38.310441 168267 net.cpp:406] conv2 <- pool1
I0428 20:54:38.310446 168267 net.cpp:380] conv2 -> conv2
I0428 20:54:38.310631 168267 net.cpp:122] Setting up conv2
I0428 20:54:38.310636 168267 net.cpp:129] Top shape: 100 50 8 8 (320000)
I0428 20:54:38.310639 168267 net.cpp:137] Memory required for data: 7354800
I0428 20:54:38.310647 168267 layer_factory.hpp:77] Creating layer pool2
I0428 20:54:38.310654 168267 net.cpp:84] Creating Layer pool2
I0428 20:54:38.310657 168267 net.cpp:406] pool2 <- conv2
I0428 20:54:38.310662 168267 net.cpp:380] pool2 -> pool2
I0428 20:54:38.310669 168267 net.cpp:122] Setting up pool2
I0428 20:54:38.310673 168267 net.cpp:129] Top shape: 100 50 4 4 (80000)
I0428 20:54:38.310677 168267 net.cpp:137] Memory required for data: 7674800
I0428 20:54:38.310679 168267 layer_factory.hpp:77] Creating layer ip1
I0428 20:54:38.310686 168267 net.cpp:84] Creating Layer ip1
I0428 20:54:38.310690 168267 net.cpp:406] ip1 <- pool2
I0428 20:54:38.310694 168267 net.cpp:380] ip1 -> ip1
I0428 20:54:38.313356 168267 net.cpp:122] Setting up ip1
I0428 20:54:38.313366 168267 net.cpp:129] Top shape: 100 500 (50000)
I0428 20:54:38.313369 168267 net.cpp:137] Memory required for data: 7874800
I0428 20:54:38.313379 168267 layer_factory.hpp:77] Creating layer relu1
I0428 20:54:38.313385 168267 net.cpp:84] Creating Layer relu1
I0428 20:54:38.313388 168267 net.cpp:406] relu1 <- ip1
I0428 20:54:38.313393 168267 net.cpp:367] relu1 -> ip1 (in-place)
I0428 20:54:38.313415 168267 net.cpp:122] Setting up relu1
I0428 20:54:38.313418 168267 net.cpp:129] Top shape: 100 500 (50000)
I0428 20:54:38.313421 168267 net.cpp:137] Memory required for data: 8074800
I0428 20:54:38.313426 168267 layer_factory.hpp:77] Creating layer ip2
I0428 20:54:38.313433 168267 net.cpp:84] Creating Layer ip2
I0428 20:54:38.313436 168267 net.cpp:406] ip2 <- ip1
I0428 20:54:38.313442 168267 net.cpp:380] ip2 -> ip2
I0428 20:54:38.313486 168267 net.cpp:122] Setting up ip2
I0428 20:54:38.313491 168267 net.cpp:129] Top shape: 100 10 (1000)
I0428 20:54:38.313494 168267 net.cpp:137] Memory required for data: 8078800
I0428 20:54:38.313500 168267 layer_factory.hpp:77] Creating layer ip2_ip2_0_split
I0428 20:54:38.313504 168267 net.cpp:84] Creating Layer ip2_ip2_0_split
I0428 20:54:38.313508 168267 net.cpp:406] ip2_ip2_0_split <- ip2
I0428 20:54:38.313513 168267 net.cpp:380] ip2_ip2_0_split -> ip2_ip2_0_split_0
I0428 20:54:38.313520 168267 net.cpp:380] ip2_ip2_0_split -> ip2_ip2_0_split_1
I0428 20:54:38.313526 168267 net.cpp:122] Setting up ip2_ip2_0_split
I0428 20:54:38.313530 168267 net.cpp:129] Top shape: 100 10 (1000)
I0428 20:54:38.313534 168267 net.cpp:129] Top shape: 100 10 (1000)
I0428 20:54:38.313537 168267 net.cpp:137] Memory required for data: 8086800
I0428 20:54:38.313540 168267 layer_factory.hpp:77] Creating layer accuracy
I0428 20:54:38.313545 168267 net.cpp:84] Creating Layer accuracy
I0428 20:54:38.313549 168267 net.cpp:406] accuracy <- ip2_ip2_0_split_0
I0428 20:54:38.313554 168267 net.cpp:406] accuracy <- label_mnist_1_split_0
I0428 20:54:38.313558 168267 net.cpp:380] accuracy -> accuracy
…
