…
I0428 21:35:15.300678 168475 net.cpp:294] The NetState phase (0) differed from the phase (1) specified by a rule in layer mnist
I0428 21:35:15.300696 168475 net.cpp:294] The NetState phase (0) differed from the phase (1) specified by a rule in layer accuracy
I0428 21:35:15.300807 168475 net.cpp:51] Initializing net from parameters: 
name: "LeNet"
state {
  phase: TRAIN
  level: 0
  stage: ""
}
layer {
  name: "mnist"
  type: "Data"
  top: "data"
  top: "label"
  include {
    phase: TRAIN
  }
  transform_param {
    scale: 0.00390625
  }
  data_param {
    source: "examples/mnist/mnist_train_lmdb"
    batch_size: 64
    backend: LMDB
  }
}
layer {
  name: "conv1"
  type: "Convolution"
  bottom: "data"
  top: "conv1"
  param {
    lr_mult: 1
  }
  param {
    lr_mult: 2
  }
  convolution_param {
    num_output: 20
    kernel_size: 5
    stride: 1
    weight_filler {
      type: "xavier"
    }
    bias_filler {
      type: "constant"
    }
  }
}
layer {
  name: "pool1"
  type: "Pooling"
  bottom: "conv1"
  top: "pool1"
  pooling_param {
    pool: MAX
    kernel_size: 2
    stride: 2
  }
}
layer {
  name: "conv2"
  type: "Convolution"
  bottom: "pool1"
  top: "conv2"
  param {
    lr_mult: 1
  }
  param {
    lr_mult: 2
  }
  convolution_param {
    num_output: 50
    kernel_size: 5
    stride: 1
    weight_filler {
      type: "xavier"
    }
    bias_filler {
      type: "constant"
    }
  }
}
layer {
  name: "pool2"
  type: "Pooling"
  bottom: "conv2"
  top: "pool2"
  pooling_param {
    pool: MAX
    kernel_size: 2
    stride: 2
  }
}
layer {
  name: "ip1"
  type: "InnerProduct"
  bottom: "pool2"
  top: "ip1"
  param {
    lr_mult: 1
  }
  param {
    lr_mult: 2
  }
  inner_product_param {
    num_output: 500
    weight_filler {
      type: "xavier"
    }
    bias_filler {
      type: "constant"
    }
  }
}
layer {
  name: "relu1"
  type: "ReLU"
  bottom: "ip1"
  top: "ip1"
}
layer {
  name: "ip2"
  type: "InnerProduct"
  bottom: "ip1"
  top: "ip2"
  param {
    lr_mult: 1
  }
  param {
    lr_mult: 2
  }
  inner_product_param {
    num_output: 10
    weight_filler {
      type: "xavier"
    }
    bias_filler {
      type: "constant"
    }
  }
}
layer {
  name: "loss"
  type: "SoftmaxWithLoss"
  bottom: "ip2"
  bottom: "label"
  top: "loss"
}
I0428 21:35:15.300879 168475 layer_factory.hpp:77] Creating layer mnist
I0428 21:35:15.300982 168475 db_lmdb.cpp:35] Opened lmdb examples/mnist/mnist_train_lmdb
I0428 21:35:15.301012 168475 net.cpp:84] Creating Layer mnist
I0428 21:35:15.301024 168475 net.cpp:380] mnist -> data
I0428 21:35:15.301048 168475 net.cpp:380] mnist -> label
I0428 21:35:15.301082 168475 data_layer.cpp:45] output data size: 64,1,28,28
I0428 21:35:15.301641 168475 net.cpp:122] Setting up mnist
I0428 21:35:15.301657 168475 net.cpp:129] Top shape: 64 1 28 28 (50176)
I0428 21:35:15.301664 168475 net.cpp:129] Top shape: 64 (64)
I0428 21:35:15.301669 168475 net.cpp:137] Memory required for data: 200960
I0428 21:35:15.301678 168475 layer_factory.hpp:77] Creating layer conv1
I0428 21:35:15.301697 168475 net.cpp:84] Creating Layer conv1
I0428 21:35:15.301703 168475 net.cpp:406] conv1 <- data
I0428 21:35:15.301717 168475 net.cpp:380] conv1 -> conv1
I0428 21:35:15.301769 168475 net.cpp:122] Setting up conv1
I0428 21:35:15.301779 168475 net.cpp:129] Top shape: 64 20 24 24 (737280)
I0428 21:35:15.301784 168475 net.cpp:137] Memory required for data: 3150080
I0428 21:35:15.301805 168475 layer_factory.hpp:77] Creating layer pool1
I0428 21:35:15.301815 168475 net.cpp:84] Creating Layer pool1
I0428 21:35:15.301828 168475 net.cpp:406] pool1 <- conv1
I0428 21:35:15.301848 168475 net.cpp:380] pool1 -> pool1
I0428 21:35:15.301875 168475 net.cpp:122] Setting up pool1
I0428 21:35:15.301884 168475 net.cpp:129] Top shape: 64 20 12 12 (184320)
I0428 21:35:15.301892 168475 net.cpp:137] Memory required for data: 3887360
I0428 21:35:15.301897 168475 layer_factory.hpp:77] Creating layer conv2
I0428 21:35:15.301908 168475 net.cpp:84] Creating Layer conv2
I0428 21:35:15.301923 168475 net.cpp:406] conv2 <- pool1
I0428 21:35:15.301934 168475 net.cpp:380] conv2 -> conv2
I0428 21:35:15.302227 168475 net.cpp:122] Setting up conv2
I0428 21:35:15.302237 168475 net.cpp:129] Top shape: 64 50 8 8 (204800)
I0428 21:35:15.302243 168475 net.cpp:137] Memory required for data: 4706560
I0428 21:35:15.302255 168475 layer_factory.hpp:77] Creating layer pool2
I0428 21:35:15.302264 168475 net.cpp:84] Creating Layer pool2
I0428 21:35:15.302270 168475 net.cpp:406] pool2 <- conv2
I0428 21:35:15.302278 168475 net.cpp:380] pool2 -> pool2
I0428 21:35:15.302290 168475 net.cpp:122] Setting up pool2
I0428 21:35:15.302299 168475 net.cpp:129] Top shape: 64 50 4 4 (51200)
I0428 21:35:15.302304 168475 net.cpp:137] Memory required for data: 4911360
I0428 21:35:15.302310 168475 layer_factory.hpp:77] Creating layer ip1
I0428 21:35:15.302321 168475 net.cpp:84] Creating Layer ip1
I0428 21:35:15.302327 168475 net.cpp:406] ip1 <- pool2
I0428 21:35:15.302335 168475 net.cpp:380] ip1 -> ip1
I0428 21:35:15.306421 168475 net.cpp:122] Setting up ip1
I0428 21:35:15.306433 168475 net.cpp:129] Top shape: 64 500 (32000)
I0428 21:35:15.306438 168475 net.cpp:137] Memory required for data: 5039360
I0428 21:35:15.306449 168475 layer_factory.hpp:77] Creating layer relu1
I0428 21:35:15.306458 168475 net.cpp:84] Creating Layer relu1
I0428 21:35:15.306465 168475 net.cpp:406] relu1 <- ip1
I0428 21:35:15.306473 168475 net.cpp:367] relu1 -> ip1 (in-place)
I0428 21:35:15.306481 168475 net.cpp:122] Setting up relu1
I0428 21:35:15.306488 168475 net.cpp:129] Top shape: 64 500 (32000)
I0428 21:35:15.306493 168475 net.cpp:137] Memory required for data: 5167360
I0428 21:35:15.306499 168475 layer_factory.hpp:77] Creating layer ip2
I0428 21:35:15.306505 168475 net.cpp:84] Creating Layer ip2
I0428 21:35:15.306510 168475 net.cpp:406] ip2 <- ip1
I0428 21:35:15.306519 168475 net.cpp:380] ip2 -> ip2
I0428 21:35:15.306589 168475 net.cpp:122] Setting up ip2
I0428 21:35:15.306597 168475 net.cpp:129] Top shape: 64 10 (640)
I0428 21:35:15.306602 168475 net.cpp:137] Memory required for data: 5169920
I0428 21:35:15.306612 168475 layer_factory.hpp:77] Creating layer loss
I0428 21:35:15.306619 168475 net.cpp:84] Creating Layer loss
I0428 21:35:15.306624 168475 net.cpp:406] loss <- ip2
I0428 21:35:15.306632 168475 net.cpp:406] loss <- label
I0428 21:35:15.306640 168475 net.cpp:380] loss -> loss
I0428 21:35:15.306653 168475 layer_factory.hpp:77] Creating layer loss
…
I0428 21:35:15.306962 168475 solver.cpp:172] Creating test net (#0) specified by net file: examples/mnist/lenet_train_test.prototxt
I0428 21:35:15.307008 168475 net.cpp:294] The NetState phase (1) differed from the phase (0) specified by a rule in layer mnist
I0428 21:35:15.307122 168475 net.cpp:51] Initializing net from parameters: 
name: "LeNet"
state {
  phase: TEST
}
layer {
  name: "mnist"
  type: "Data"
  top: "data"
  top: "label"
  include {
    phase: TEST
  }
  transform_param {
    scale: 0.00390625
  }
  data_param {
    source: "examples/mnist/mnist_test_lmdb"
    batch_size: 100
    backend: LMDB
  }
}
layer {
  name: "conv1"
  type: "Convolution"
  bottom: "data"
  top: "conv1"
  param {
    lr_mult: 1
  }
  param {
    lr_mult: 2
  }
  convolution_param {
    num_output: 20
    kernel_size: 5
    stride: 1
    weight_filler {
      type: "xavier"
    }
    bias_filler {
      type: "constant"
    }
  }
}
layer {
  name: "pool1"
  type: "Pooling"
  bottom: "conv1"
  top: "pool1"
  pooling_param {
    pool: MAX
    kernel_size: 2
    stride: 2
  }
}
layer {
  name: "conv2"
  type: "Convolution"
  bottom: "pool1"
  top: "conv2"
  param {
    lr_mult: 1
  }
  param {
    lr_mult: 2
  }
  convolution_param {
    num_output: 50
    kernel_size: 5
    stride: 1
    weight_filler {
      type: "xavier"
    }
    bias_filler {
      type: "constant"
    }
  }
}
layer {
  name: "pool2"
  type: "Pooling"
  bottom: "conv2"
  top: "pool2"
  pooling_param {
    pool: MAX
    kernel_size: 2
    stride: 2
  }
}
layer {
  name: "ip1"
  type: "InnerProduct"
  bottom: "pool2"
  top: "ip1"
  param {
    lr_mult: 1
  }
  param {
    lr_mult: 2
  }
  inner_product_param {
    num_output: 500
    weight_filler {
      type: "xavier"
    }
    bias_filler {
      type: "constant"
    }
  }
}
layer {
  name: "relu1"
  type: "ReLU"
  bottom: "ip1"
  top: "ip1"
}
layer {
  name: "ip2"
  type: "InnerProduct"
  bottom: "ip1"
  top: "ip2"
  param {
    lr_mult: 1
  }
  param {
    lr_mult: 2
  }
  inner_product_param {
    num_output: 10
    weight_filler {
      type: "xavier"
    }
    bias_filler {
      type: "constant"
    }
  }
}
layer {
  name: "accuracy"
  type: "Accuracy"
  bottom: "ip2"
  bottom: "label"
  top: "accuracy"
  include {
    phase: TEST
  }
}
layer {
  name: "loss"
  type: "SoftmaxWithLoss"
  bottom: "ip2"
  bottom: "label"
  top: "loss"
}
I0428 21:35:15.307210 168475 layer_factory.hpp:77] Creating layer mnist
I0428 21:35:15.307279 168475 db_lmdb.cpp:35] Opened lmdb examples/mnist/mnist_test_lmdb
I0428 21:35:15.307296 168475 net.cpp:84] Creating Layer mnist
I0428 21:35:15.307304 168475 net.cpp:380] mnist -> data
I0428 21:35:15.307317 168475 net.cpp:380] mnist -> label
I0428 21:35:15.307335 168475 data_layer.cpp:45] output data size: 100,1,28,28
I0428 21:35:15.307627 168475 net.cpp:122] Setting up mnist
I0428 21:35:15.307638 168475 net.cpp:129] Top shape: 100 1 28 28 (78400)
I0428 21:35:15.307646 168475 net.cpp:129] Top shape: 100 (100)
I0428 21:35:15.307651 168475 net.cpp:137] Memory required for data: 314000
I0428 21:35:15.307657 168475 layer_factory.hpp:77] Creating layer label_mnist_1_split
I0428 21:35:15.307668 168475 net.cpp:84] Creating Layer label_mnist_1_split
I0428 21:35:15.307675 168475 net.cpp:406] label_mnist_1_split <- label
I0428 21:35:15.307683 168475 net.cpp:380] label_mnist_1_split -> label_mnist_1_split_0
I0428 21:35:15.307696 168475 net.cpp:380] label_mnist_1_split -> label_mnist_1_split_1
I0428 21:35:15.307708 168475 net.cpp:122] Setting up label_mnist_1_split
I0428 21:35:15.307715 168475 net.cpp:129] Top shape: 100 (100)
I0428 21:35:15.307720 168475 net.cpp:129] Top shape: 100 (100)
I0428 21:35:15.307725 168475 net.cpp:137] Memory required for data: 314800
I0428 21:35:15.307729 168475 layer_factory.hpp:77] Creating layer conv1
I0428 21:35:15.307744 168475 net.cpp:84] Creating Layer conv1
I0428 21:35:15.307750 168475 net.cpp:406] conv1 <- data
I0428 21:35:15.307759 168475 net.cpp:380] conv1 -> conv1
I0428 21:35:15.307796 168475 net.cpp:122] Setting up conv1
I0428 21:35:15.307806 168475 net.cpp:129] Top shape: 100 20 24 24 (1152000)
I0428 21:35:15.307811 168475 net.cpp:137] Memory required for data: 4922800
I0428 21:35:15.307838 168475 layer_factory.hpp:77] Creating layer pool1
I0428 21:35:15.307847 168475 net.cpp:84] Creating Layer pool1
I0428 21:35:15.307854 168475 net.cpp:406] pool1 <- conv1
I0428 21:35:15.307862 168475 net.cpp:380] pool1 -> pool1
I0428 21:35:15.307873 168475 net.cpp:122] Setting up pool1
I0428 21:35:15.307880 168475 net.cpp:129] Top shape: 100 20 12 12 (288000)
I0428 21:35:15.307886 168475 net.cpp:137] Memory required for data: 6074800
I0428 21:35:15.307890 168475 layer_factory.hpp:77] Creating layer conv2
I0428 21:35:15.307907 168475 net.cpp:84] Creating Layer conv2
I0428 21:35:15.307912 168475 net.cpp:406] conv2 <- pool1
I0428 21:35:15.307924 168475 net.cpp:380] conv2 -> conv2
I0428 21:35:15.308205 168475 net.cpp:122] Setting up conv2
I0428 21:35:15.308217 168475 net.cpp:129] Top shape: 100 50 8 8 (320000)
I0428 21:35:15.308221 168475 net.cpp:137] Memory required for data: 7354800
I0428 21:35:15.308233 168475 layer_factory.hpp:77] Creating layer pool2
I0428 21:35:15.308244 168475 net.cpp:84] Creating Layer pool2
I0428 21:35:15.308250 168475 net.cpp:406] pool2 <- conv2
I0428 21:35:15.308257 168475 net.cpp:380] pool2 -> pool2
I0428 21:35:15.308269 168475 net.cpp:122] Setting up pool2
I0428 21:35:15.308276 168475 net.cpp:129] Top shape: 100 50 4 4 (80000)
I0428 21:35:15.308281 168475 net.cpp:137] Memory required for data: 7674800
I0428 21:35:15.308285 168475 layer_factory.hpp:77] Creating layer ip1
I0428 21:35:15.308297 168475 net.cpp:84] Creating Layer ip1
I0428 21:35:15.308307 168475 net.cpp:406] ip1 <- pool2
I0428 21:35:15.308315 168475 net.cpp:380] ip1 -> ip1
I0428 21:35:15.312322 168475 net.cpp:122] Setting up ip1
I0428 21:35:15.312337 168475 net.cpp:129] Top shape: 100 500 (50000)
I0428 21:35:15.312342 168475 net.cpp:137] Memory required for data: 7874800
I0428 21:35:15.312355 168475 layer_factory.hpp:77] Creating layer relu1
I0428 21:35:15.312363 168475 net.cpp:84] Creating Layer relu1
I0428 21:35:15.312369 168475 net.cpp:406] relu1 <- ip1
I0428 21:35:15.312377 168475 net.cpp:367] relu1 -> ip1 (in-place)
I0428 21:35:15.312386 168475 net.cpp:122] Setting up relu1
I0428 21:35:15.312392 168475 net.cpp:129] Top shape: 100 500 (50000)
I0428 21:35:15.312397 168475 net.cpp:137] Memory required for data: 8074800
I0428 21:35:15.312402 168475 layer_factory.hpp:77] Creating layer ip2
I0428 21:35:15.312413 168475 net.cpp:84] Creating Layer ip2
I0428 21:35:15.312418 168475 net.cpp:406] ip2 <- ip1
I0428 21:35:15.312428 168475 net.cpp:380] ip2 -> ip2
I0428 21:35:15.312491 168475 net.cpp:122] Setting up ip2
I0428 21:35:15.312499 168475 net.cpp:129] Top shape: 100 10 (1000)
I0428 21:35:15.312503 168475 net.cpp:137] Memory required for data: 8078800
I0428 21:35:15.312511 168475 layer_factory.hpp:77] Creating layer ip2_ip2_0_split
I0428 21:35:15.312518 168475 net.cpp:84] Creating Layer ip2_ip2_0_split
I0428 21:35:15.312523 168475 net.cpp:406] ip2_ip2_0_split <- ip2
I0428 21:35:15.312532 168475 net.cpp:380] ip2_ip2_0_split -> ip2_ip2_0_split_0
I0428 21:35:15.312542 168475 net.cpp:380] ip2_ip2_0_split -> ip2_ip2_0_split_1
I0428 21:35:15.312552 168475 net.cpp:122] Setting up ip2_ip2_0_split
I0428 21:35:15.312558 168475 net.cpp:129] Top shape: 100 10 (1000)
I0428 21:35:15.312563 168475 net.cpp:129] Top shape: 100 10 (1000)
I0428 21:35:15.312569 168475 net.cpp:137] Memory required for data: 8086800
I0428 21:35:15.312573 168475 layer_factory.hpp:77] Creating layer accuracy
I0428 21:35:15.312582 168475 net.cpp:84] Creating Layer accuracy
I0428 21:35:15.312587 168475 net.cpp:406] accuracy <- ip2_ip2_0_split_0
I0428 21:35:15.312593 168475 net.cpp:406] accuracy <- label_mnist_1_split_0
I0428 21:35:15.312602 168475 net.cpp:380] accuracy -> accuracy
…
