…
I0509 17:02:51.392542 119807 net.cpp:294] The NetState phase (0) differed from the phase (1) specified by a rule in layer loss3/top-5
I0509 17:02:51.394037 119807 net.cpp:51] Initializing net from parameters: 
name: "GoogleNet"
state {
  phase: TRAIN
  level: 0
  stage: ""
}
layer {
  name: "data"
  type: "Data"
  top: "data"
  top: "label"
  include {
    phase: TRAIN
  }
  transform_param {
    mirror: true
    crop_size: 224
    mean_value: 104
    mean_value: 117
    mean_value: 123
  }
  data_param {
    source: "examples/imagenet/ilsvrc12_train_lmdb"
    batch_size: 32
    backend: LMDB
  }
}
layer {
  name: "conv1/7x7_s2"
  type: "Convolution"
  bottom: "data"
  top: "conv1/7x7_s2"
  param {
    lr_mult: 1
    decay_mult: 1
  }
  param {
    lr_mult: 2
    decay_mult: 0
  }
  convolution_param {
    num_output: 64
    pad: 3
    kernel_size: 7
    stride: 2
    weight_filler {
      type: "xavier"
    }
    bias_filler {
      type: "constant"
      value: 0.2
    }
  }
}
layer {
  name: "conv1/relu_7x7"
  type: "ReLU"
  bottom: "conv1/7x7_s2"
  top: "conv1/7x7_s2"
}
layer {
  name: "pool1/3x3_s2"
  type: "Pooling"
  bottom: "conv1/7x7_s2"
  top: "pool1/3x3_s2"
  pooling_param {
    pool: MAX
    kernel_size: 3
    stride: 2
  }
}
layer {
  name: "pool1/norm1"
  type: "LRN"
  bottom: "pool1/3x3_s2"
  top: "pool1/norm1"
  lrn_param {
    local_size: 5
    alpha: 0.0001
    beta: 0.75
  }
}
layer {
  name: "conv2/3x3_reduce"
  type: "Convolution"
  bottom: "pool1/norm1"
  top: "conv2/3x3_reduce"
  param {
    lr_mult: 1
    decay_mult: 1
  }
  param {
    lr_mult: 2
    decay_mult: 0
  }
  convolution_param {
    num_output: 64
    kernel_size: 1
    weight_filler {
      type: "xavier"
    }
    bias_filler {
      type: "constant"
      value: 0.2
    }
  }
}
layer {
  name: "conv2/relu_3x3_reduce"
  type: "ReLU"
  bottom: "conv2/3x3_reduce"
  top: "conv2/3x3_reduce"
}
layer {
  name: "conv2/3x3"
  type: "Convolution"
  bottom: "conv2/3x3_reduce"
  top: "conv2/3x3"
  param {
    lr_mult: 1
    decay_mult: 1
  }
  param {
    lr_mult: 2
    decay_mult: 0
  }
  convolution_param {
    num_output: 192
    pad: 1
    kernel_size: 3
    weight_filler {
      type: "xavier"
    }
    bias_filler {
      type: "constant"
      value: 0.2
    }
  }
}
layer {
  name: "conv2/relu_3x3"
  type: "ReLU"
  bottom: "conv2/3x3"
  top: "conv2/3x3"
}
layer {
  name: "conv2/norm2"
  type: "LRN"
  bottom: "conv2/3x3"
  top: "conv2/norm2"
  lrn_param {
    local_size: 5
    alpha: 0.0001
    beta: 0.75
  }
}
layer {
  name: "pool2/3x3_s2"
  type: "Pooling"
  bottom: "conv2/norm2"
  top: "pool2/3x3_s2"
  pooling_param {
    pool: MAX
    kernel_size: 3
    stride: 2
  }
}
layer {
  name: "inception_3a/1x1"
  type: "Convolution"
  bottom: "pool2/3x3_s2"
  top: "inception_3a/1x1"
  param {
    lr_mult: 1
    decay_mult: 1
  }
  param {
    lr_mult: 2
    decay_mult: 0
  }
  convolution_param {
    num_output: 64
    kernel_size: 1
    weight_filler {
      type: "xavier"
    }
    bias_filler {
      type: "constant"
      value: 0.2
    }
  }
}
layer {
  name: "inception_3a/relu_1x1"
  type: "ReLU"
  bottom: "inception_3a/1x1"
  top: "inception_3a/1x1"
}
layer {
  name: "inception_3a/3x3_reduce"
  type: "Convolution"
  bottom: "pool2/3x3_s2"
  top: "inception_3a/3x3_reduce"
  param {
    lr_mult: 1
    decay_mult: 1
  }
  param {
    lr_mult: 2
    decay_mult: 0
  }
  convolution_param {
    num_output: 96
    kernel_size: 1
    weight_filler {
      type: "xavier"
    }
    bias_filler {
      type: "constant"
      value: 0.2
    }
  }
}
layer {
  name: "inception_3a/relu_3x3_reduce"
  type: "ReLU"
  bottom: "inception_3a/3x3_reduce"
  top: "inception_3a/3x3_reduce"
}
layer {
  name: "inception_3a/3x3"
  type: "Convolution"
  bottom: "inception_3a/3x3_reduce"
  top: "inception_3a/3x3"
  param {
    lr_mult: 1
    decay_mult: 1
  }
  param {
    lr_mult: 2
    decay_mult: 0
  }
  convolution_param {
    num_output: 128
    pad: 1
    kernel_size: 3
    weight_filler {
      type: "xavier"
    }
    bias_filler {
      type: "constant"
      value: 0.2
    }
  }
}
layer {
  name: "inception_3a/relu_3x3"
  type: "ReLU"
  bottom: "inception_3a/3x3"
  top: "inception_3a/3x3"
}
layer {
  name: "inception_3a/5x5_reduce"
  type: "Convolution"
  bottom: "pool2/3x3_s2"
  top: "inception_3a/5x5_reduce"
  param {
    lr_mult: 1
    decay_mult: 1
  }
  param {
    lr_mult: 2
    decay_mult: 0
  }
  convolution_param {
    num_output: 16
    kernel_size: 1
    weight_filler {
      type: "xavier"
    }
    bias_filler {
      type: "constant"
      value: 0.2
    }
  }
}
layer {
  name: "inception_3a/relu_5x5_reduce"
  type: "ReLU"
  bottom: "inception_3a/5x5_reduce"
  top: "inception_3a/5x5_reduce"
}
layer {
  name: "inception_3a/5x5"
  type: "Convolution"
  bottom: "inception_3a/5x5_reduce"
  top: "inception_3a/5x5"
  param {
    lr_mult: 1
    decay_mult: 1
  }
  param {
    lr_mult: 2
    decay_mult: 0
  }
  convolution_param {
    num_output: 32
    pad: 2
    kernel_size: 5
    weight_filler {
      type: "xavier"
    }
    bias_filler {
      type: "constant"
      value: 0.2
    }
  }
}
layer {
  name: "inception_3a/relu_5x5"
  type: "ReLU"
  bottom: "inception_3a/5x5"
  top: "inception_3a/5x5"
}
layer {
  name: "inception_3a/pool"
  type: "Pooling"
  bottom: "pool2/3x3_s2"
  top: "inception_3a/pool"
  pooling_param {
    pool: MAX
    kernel_size: 3
    stride: 1
    pad: 1
  }
}
layer {
  name: "inception_3a/pool_proj"
  type: "Convolution"
  bottom: "inception_3a/pool"
  top: "inception_3a/pool_proj"
  param {
    lr_mult: 1
    decay_mult: 1
  }
  param {
    lr_mult: 2
    decay_mult: 0
  }
  convolution_param {
    num_output: 32
    kernel_size: 1
    weight_filler {
      type: "xavier"
    }
    bias_filler {
      type: "constant"
      value: 0.2
    }
  }
}
layer {
  name: "inception_3a/relu_pool_proj"
  type: "ReLU"
  bottom: "inception_3a/pool_proj"
  top: "inception_3a/pool_proj"
}
layer {
  name: "inception_3a/output"
  type: "Concat"
  bottom: "inception_3a/1x1"
  bottom: "inception_3a/3x3"
  bottom: "inception_3a/5x5"
  bottom: "inception_3a/pool_proj"
  top: "inception_3a/output"
}
layer {
  name: "inception_3b/1x1"
  type: "Convolution"
  bottom: "inception_3a/output"
  top: "inception_3b/1x1"
  param {
    lr_mult: 1
    decay_mult: 1
  }
  param {
    lr_mult: 2
    decay_mult: 0
  }
  convolution_param {
    num_output: 128
    kernel_size: 1
    weight_filler {
      type: "xavier"
    }
    bias_filler {
      type: "constant"
      value: 0.2
    }
  }
}
layer {
  name: "inception_3b/relu_1x1"
  type: "ReLU"
  bottom: "inception_3b/1x1"
  top: "inception_3b/1x1"
}
layer {
  name: "inception_3b/3x3_reduce"
  type: "Convolution"
  bottom: "inception_3a/output"
  top: "inception_3b/3x3_reduce"
  param {
    lr_mult: 1
    decay_mult: 1
  }
  param {
    lr_mult: 2
    decay_mult: 0
  }
  convolution_param {
    num_output: 128
    kernel_size: 1
    weight_filler {
      type: "xavier"
    }
    bias_filler {
      type: "constant"
      value: 0.2
    }
  }
}
layer {
  name: "inception_3b/relu_3x3_reduce"
  type: "ReLU"
  bottom: "inception_3b/3x3_reduce"
  top: "inception_3b/3x3_reduce"
}
layer {
  name: "inception_3b/3x3"
  type: "Convolution"
  bottom: "inception_3b/3x3_reduce"
  top: "inception_3b/3x3"
  param {
    lr_mult: 1
    decay_mult: 1
  }
  param {
    lr_mult: 2
    decay_mult: 0
  }
  convolution_param {
    num_output: 192
    pad: 1
    kernel_size: 3
    weight_filler {
      type: "xavier"
    }
    bias_filler {
      type: "constant"
      value: 0.2
    }
  }
}
layer {
  name: "inception_3b/relu_3x3"
  type: "ReLU"
  bottom: "inception_3b/3x3"
  top: "inception_3b/3x3"
}
layer {
  name: "inception_3b/5x5_reduce"
  type: "Convolution"
  bottom: "inception_3a/output"
  top: "inception_3b/5x5_reduce"
  param {
    lr_mult: 1
    decay_mult: 1
  }
  param {
    lr_mult: 2
    decay_mult: 0
  }
  convolution_param {
    num_output: 32
    kernel_size: 1
    weight_filler {
      type: "xavier"
    }
    bias_filler {
      type: "constant"
      value: 0.2
    }
  }
}
layer {
  name: "inception_3b/relu_5x5_reduce"
  type: "ReLU"
  bottom: "inception_3b/5x5_reduce"
  top: "inception_3b/5x5_reduce"
}
layer {
  name: "inception_3b/5x5"
  type: "Convolution"
  bottom: "inception_3b/5x5_reduce"
  top: "inception_3b/5x5"
  param {
    lr_mult: 1
    decay_mult: 1
  }
  param {
    lr_mult: 2
    decay_mult: 0
  }
  convolution_param {
    num_output: 96
    pad: 2
    kernel_size: 5
    weight_filler {
      type: "xavier"
    }
    bias_filler {
      type: "constant"
      value: 0.2
    }
  }
}
layer {
  name: "inception_3b/relu_5x5"
  type: "ReLU"
  bottom: "inception_3b/5x5"
  top: "inception_3b/5x5"
}
layer {
  name: "inception_3b/pool"
  type: "Pooling"
  bottom: "inception_3a/output"
  top: "inception_3b/pool"
  pooling_param {
    pool: MAX
    kernel_size: 3
    stride: 1
    pad: 1
  }
}
layer {
  name: "inception_3b/pool_proj"
  type: "Convolution"
  bottom: "inception_3b/pool"
  top: "inception_3b/pool_proj"
  param {
    lr_mult: 1
    decay_mult: 1
  }
  param {
    lr_mult: 2
    decay_mult: 0
  }
  convolution_param {
    num_output: 64
    kernel_size: 1
    weight_filler {
      type: "xavier"
    }
    bias_filler {
      type: "constant"
      value: 0.2
    }
  }
}
layer {
  name: "inception_3b/relu_pool_proj"
  type: "ReLU"
  bottom: "inception_3b/pool_proj"
  top: "inception_3b/pool_proj"
}
layer {
  name: "inception_3b/output"
  type: "Concat"
  bottom: "inception_3b/1x1"
  bottom: "inception_3b/3x3"
  bottom: "inception_3b/5x5"
  bottom: "inception_3b/pool_proj"
  top: "inception_3b/output"
}
layer {
  name: "pool3/3x3_s2"
  type: "Pooling"
  bottom: "inception_3b/output"
  top: "pool3/3x3_s2"
  pooling_param {
    pool: MAX
    kernel_size: 3
    stride: 2
  }
}
layer {
  name: "inception_4a/1x1"
  type: "Convolution"
  bottom: "pool3/3x3_s2"
  top: "inception_4a/1x1"
  param {
    lr_mult: 1
    decay_mult: 1
  }
  param {
    lr_mult: 2
    decay_mult: 0
  }
  convolution_param {
    num_output: 192
    kernel_size: 1
    weight_filler {
      type: "xavier"
    }
    bias_filler {
      type: "constant"
      value: 0.2
    }
  }
}
layer {
  name: "inception_4a/relu_1x1"
  type: "ReLU"
  bottom: "inception_4a/1x1"
  top: "inception_4a/1x1"
}
layer {
  name: "inception_4a/3x3_reduce"
  type: "Convolution"
  bottom: "pool3/3x3_s2"
  top: "inception_4a/3x3_reduce"
  param {
    lr_mult: 1
    decay_mult: 1
  }
  param {
    lr_mult: 2
    decay_mult: 0
  }
  convolution_param {
    num_output: 96
    kernel_size: 1
    weight_filler {
      type: "xavier"
    }
    bias_filler {
      type: "constant"
      value: 0.2
    }
  }
}
layer {
  name: "inception_4a/relu_3x3_reduce"
  type: "ReLU"
  bottom: "inception_4a/3x3_reduce"
  top: "inception_4a/3x3_reduce"
}
layer {
  name: "inception_4a/3x3"
  type: "Convolution"
  bottom: "inception_4a/3x3_reduce"
  top: "inception_4a/3x3"
  param {
    lr_mult: 1
    decay_mult: 1
  }
  param {
    lr_mult: 2
    decay_mult: 0
  }
  convolution_param {
    num_output: 208
    pad: 1
    kernel_size: 3
    weight_filler {
      type: "xavier"
    }
    bias_filler {
      type: "constant"
      value: 0.2
    }
  }
}
layer {
  name: "inception_4a/relu_3x3"
  type: "ReLU"
  bottom: "inception_4a/3x3"
  top: "inception_4a/3x3"
}
layer {
  name: "inception_4a/5x5_reduce"
  type: "Convolution"
  bottom: "pool3/3x3_s2"
  top: "inception_4a/5x5_reduce"
  param {
    lr_mult: 1
    decay_mult: 1
  }
  param {
    lr_mult: 2
    decay_mult: 0
  }
  convolution_param {
    num_output: 16
    kernel_size: 1
    weight_filler {
      type: "xavier"
    }
    bias_filler {
      type: "constant"
      value: 0.2
    }
  }
}
layer {
  name: "inception_4a/relu_5x5_reduce"
  type: "ReLU"
  bottom: "inception_4a/5x5_reduce"
  top: "inception_4a/5x5_reduce"
}
layer {
  name: "inception_4a/5x5"
  type: "Convolution"
  bottom: "inception_4a/5x5_reduce"
  top: "inception_4a/5x5"
  param {
    lr_mult: 1
    decay_mult: 1
  }
  param {
    lr_mult: 2
    decay_mult: 0
  }
  convolution_param {
    num_output: 48
    pad: 2
    kernel_size: 5
    weight_filler {
      type: "xavier"
    }
    bias_filler {
      type: "constant"
      value: 0.2
    }
  }
}
layer {
  name: "inception_4a/relu_5x5"
  type: "ReLU"
  bottom: "inception_4a/5x5"
  top: "inception_4a/5x5"
}
layer {
  name: "inception_4a/pool"
  type: "Pooling"
  bottom: "pool3/3x3_s2"
  top: "inception_4a/pool"
  pooling_param {
    pool: MAX
    kernel_size: 3
    stride: 1
    pad: 1
  }
}
layer {
  name: "inception_4a/pool_proj"
  type: "Convolution"
  bottom: "inception_4a/pool"
  top: "inception_4a/pool_proj"
  param {
    lr_mult: 1
    decay_mult: 1
  }
  param {
    lr_mult: 2
    decay_mult: 0
  }
  convolution_param {
    num_output: 64
    kernel_size: 1
    weight_filler {
      type: "xavier"
    }
    bias_filler {
      type: "constant"
      value: 0.2
    }
  }
}
layer {
  name: "inception_4a/relu_pool_proj"
  type: "ReLU"
  bottom: "inception_4a/pool_proj"
  top: "inception_4a/pool_proj"
}
layer {
  name: "inception_4a/output"
  type: "Concat"
  bottom: "inception_4a/1x1"
  bottom: "inception_4a/3x3"
  bottom: "inception_4a/5x5"
  bottom: "inception_4a/pool_proj"
  top: "inception_4a/output"
}
layer {
  name: "loss1/ave_pool"
  type: "Pooling"
  bottom: "inception_4a/output"
  top: "loss1/ave_pool"
  pooling_param {
    pool: AVE
    kernel_size: 5
    stride: 3
  }
}
layer {
  name: "loss1/conv"
  type: "Convolution"
  bottom: "loss1/ave_pool"
  top: "loss1/conv"
  param {
    lr_mult: 1
    decay_mult: 1
  }
  param {
    lr_mult: 2
    decay_mult: 0
  }
  convolution_param {
    num_output: 128
    kernel_size: 1
    weight_filler {
      type: "xavier"
    }
    bias_filler {
      type: "constant"
      value: 0.2
    }
  }
}
layer {
  name: "loss1/relu_conv"
  type: "ReLU"
  bottom: "loss1/conv"
  top: "loss1/conv"
}
layer {
  name: "loss1/fc"
  type: "InnerProduct"
  bottom: "loss1/conv"
  top: "loss1/fc"
  param {
    lr_mult: 1
    decay_mult: 1
  }
  param {
    lr_mult: 2
    decay_mult: 0
  }
  inner_product_param {
    num_output: 1024
    weight_filler {
      type: "xavier"
    }
    bias_filler {
      type: "constant"
      value: 0.2
    }
  }
}
layer {
  name: "loss1/relu_fc"
  type: "ReLU"
  bottom: "loss1/fc"
  top: "loss1/fc"
}
layer {
  name: "loss1/drop_fc"
  type: "Dropout"
  bottom: "loss1/fc"
  top: "loss1/fc"
  dropout_param {
    dropout_ratio: 0.7
  }
}
layer {
  name: "loss1/classifier"
  type: "InnerProduct"
  bottom: "loss1/fc"
  top: "loss1/classifier"
  param {
    lr_mult: 1
    decay_mult: 1
  }
  param {
    lr_mult: 2
    decay_mult: 0
  }
  inner_product_param {
    num_output: 1000
    weight_filler {
      type: "xavier"
    }
    bias_filler {
      type: "constant"
      value: 0
    }
  }
}
layer {
  name: "loss1/loss"
  type: "SoftmaxWithLoss"
  bottom: "loss1/classifier"
  bottom: "label"
  top: "loss1/loss1"
  loss_weight: 0.3
}
layer {
  name: "inception_4b/1x1"
  type: "Convolution"
  bottom: "inception_4a/output"
  top: "inception_4b/1x1"
  param {
    lr_mult: 1
    decay_mult: 1
  }
  param {
    lr_mult: 2
    decay_mult: 0
  }
  convolution_param {
    num_output: 160
    kernel_size: 1
    weight_filler {
      type: "xavier"
    }
    bias_filler {
      type: "constant"
      value: 0.2
    }
  }
}
layer {
  name: "inception_4b/relu_1x1"
  type: "ReLU"
  bottom: "inception_4b/1x1"
  top: "inception_4b/1x1"
}
layer {
  name: "inception_4b/3x3_reduce"
  type: "Convolution"
  bottom: "inception_4a/output"
  top: "inception_4b/3x3_reduce"
  param {
    lr_mult: 1
    decay_mult: 1
  }
  param {
    lr_mult: 2
    decay_mult: 0
  }
  convolution_param {
    num_output: 112
    kernel_size: 1
    weight_filler {
      type: "xavier"
    }
    bias_filler {
      type: "constant"
      value: 0.2
    }
  }
}
layer {
  name: "inception_4b/relu_3x3_reduce"
  type: "ReLU"
  bottom: "inception_4b/3x3_reduce"
  top: "inception_4b/3x3_reduce"
}
layer {
  name: "inception_4b/3x3"
  type: "Convolution"
  bottom: "inception_4b/3x3_reduce"
  top: "inception_4b/3x3"
  param {
    lr_mult: 1
    decay_mult: 1
  }
  param {
    lr_mult: 2
    decay_mult: 0
  }
  convolution_param {
    num_output: 224
    pad: 1
    kernel_size: 3
    weight_filler {
      type: "xavier"
    }
    bias_filler {
      type: "constant"
      value: 0.2
    }
  }
}
layer {
  name: "inception_4b/relu_3x3"
  type: "ReLU"
  bottom: "inception_4b/3x3"
  top: "inception_4b/3x3"
}
layer {
  name: "inception_4b/5x5_reduce"
  type: "Convolution"
  bottom: "inception_4a/output"
  top: "inception_4b/5x5_reduce"
  param {
    lr_mult: 1
    decay_mult: 1
  }
  param {
    lr_mult: 2
    decay_mult: 0
  }
  convolution_param {
    num_output: 24
    kernel_size: 1
    weight_filler {
      type: "xavier"
    }
    bias_filler {
      type: "constant"
      value: 0.2
    }
  }
}
layer {
  name: "inception_4b/relu_5x5_reduce"
  type: "ReLU"
  bottom: "inception_4b/5x5_reduce"
  top: "inception_4b/5x5_reduce"
}
layer {
  name: "inception_4b/5x5"
  type: "Convolution"
  bottom: "inception_4b/5x5_reduce"
  top: "inception_4b/5x5"
  param {
    lr_mult: 1
    decay_mult: 1
  }
  param {
    lr_mult: 2
    decay_mult: 0
  }
  convolution_param {
    num_output: 64
    pad: 2
    kernel_size: 5
    weight_filler {
      type: "xavier"
    }
    bias_filler {
      type: "constant"
      value: 0.2
    }
  }
}
layer {
  name: "inception_4b/relu_5x5"
  type: "ReLU"
  bottom: "inception_4b/5x5"
  top: "inception_4b/5x5"
}
layer {
  name: "inception_4b/pool"
  type: "Pooling"
  bottom: "inception_4a/output"
  top: "inception_4b/pool"
  pooling_param {
    pool: MAX
    kernel_size: 3
    stride: 1
    pad: 1
  }
}
layer {
  name: "inception_4b/pool_proj"
  type: "Convolution"
  bottom: "inception_4b/pool"
  top: "inception_4b/pool_proj"
  param {
    lr_mult: 1
    decay_mult: 1
  }
  param {
    lr_mult: 2
    decay_mult: 0
  }
  convolution_param {
    num_output: 64
    kernel_size: 1
    weight_filler {
      type: "xavier"
    }
    bias_filler {
      type: "constant"
      value: 0.2
    }
  }
}
layer {
  name: "inception_4b/relu_pool_proj"
  type: "ReLU"
  bottom: "inception_4b/pool_proj"
  top: "inception_4b/pool_proj"
}
layer {
  name: "inception_4b/output"
  type: "Concat"
  bottom: "inception_4b/1x1"
  bottom: "inception_4b/3x3"
  bottom: "inception_4b/5x5"
  bottom: "inception_4b/pool_proj"
  top: "inception_4b/output"
}
layer {
  name: "inception_4c/1x1"
  type: "Convolution"
  bottom: "inception_4b/output"
  top: "inception_4c/1x1"
  param {
    lr_mult: 1
    decay_mult: 1
  }
  param {
    lr_mult: 2
    decay_mult: 0
  }
  convolution_param {
    num_output: 128
    kernel_size: 1
    weight_filler {
      type: "xavier"
    }
    bias_filler {
      type: "constant"
      value: 0.2
    }
  }
}
layer {
  name: "inception_4c/relu_1x1"
  type: "ReLU"
  bottom: "inception_4c/1x1"
  top: "inception_4c/1x1"
}
layer {
  name: "inception_4c/3x3_reduce"
  type: "Convolution"
  bottom: "inception_4b/output"
  top: "inception_4c/3x3_reduce"
  param {
    lr_mult: 1
    decay_mult: 1
  }
  param {
    lr_mult: 2
    decay_mult: 0
  }
  convolution_param {
    num_output: 128
    kernel_size: 1
    weight_filler {
      type: "xavier"
    }
    bias_filler {
      type: "constant"
      value: 0.2
    }
  }
}
layer {
  name: "inception_4c/relu_3x3_reduce"
  type: "ReLU"
  bottom: "inception_4c/3x3_reduce"
  top: "inception_4c/3x3_reduce"
}
layer {
  name: "inception_4c/3x3"
  type: "Convolution"
  bottom: "inception_4c/3x3_reduce"
  top: "inception_4c/3x3"
  param {
    lr_mult: 1
    decay_mult: 1
  }
  param {
    lr_mult: 2
    decay_mult: 0
  }
  convolution_param {
    num_output: 256
    pad: 1
    kernel_size: 3
    weight_filler {
      type: "xavier"
    }
    bias_filler {
      type: "constant"
      value: 0.2
    }
  }
}
layer {
  name: "inception_4c/relu_3x3"
  type: "ReLU"
  bottom: "inception_4c/3x3"
  top: "inception_4c/3x3"
}
layer {
  name: "inception_4c/5x5_reduce"
  type: "Convolution"
  bottom: "inception_4b/output"
  top: "inception_4c/5x5_reduce"
  param {
    lr_mult: 1
    decay_mult: 1
  }
  param {
    lr_mult: 2
    decay_mult: 0
  }
  convolution_param {
    num_output: 24
    kernel_size: 1
    weight_filler {
      type: "xavier"
    }
    bias_filler {
      type: "constant"
      value: 0.2
    }
  }
}
layer {
  name: "inception_4c/relu_5x5_reduce"
  type: "ReLU"
  bottom: "inception_4c/5x5_reduce"
  top: "inception_4c/5x5_reduce"
}
layer {
  name: "inception_4c/5x5"
  type: "Convolution"
  bottom: "inception_4c/5x5_reduce"
  top: "inception_4c/5x5"
  param {
    lr_mult: 1
    decay_mult: 1
  }
  param {
    lr_mult: 2
    decay_mult: 0
  }
  convolution_param {
    num_output: 64
    pad: 2
    kernel_size: 5
    weight_filler {
      type: "xavier"
    }
    bias_filler {
      type: "constant"
      value: 0.2
    }
  }
}
layer {
  name: "inception_4c/relu_5x5"
  type: "ReLU"
  bottom: "inception_4c/5x5"
  top: "inception_4c/5x5"
}
layer {
  name: "inception_4c/pool"
  type: "Pooling"
  bottom: "inception_4b/output"
  top: "inception_4c/pool"
  pooling_param {
    pool: MAX
    kernel_size: 3
    stride: 1
    pad: 1
  }
}
layer {
  name: "inception_4c/pool_proj"
  type: "Convolution"
  bottom: "inception_4c/pool"
  top: "inception_4c/pool_proj"
  param {
    lr_mult: 1
    decay_mult: 1
  }
  param {
    lr_mult: 2
    decay_mult: 0
  }
  convolution_param {
    num_output: 64
    kernel_size: 1
    weight_filler {
      type: "xavier"
    }
    bias_filler {
      type: "constant"
      value: 0.2
    }
  }
}
layer {
  name: "inception_4c/relu_pool_proj"
  type: "ReLU"
  bottom: "inception_4c/pool_proj"
  top: "inception_4c/pool_proj"
}
layer {
  name: "inception_4c/output"
  type: "Concat"
  bottom: "inception_4c/1x1"
  bottom: "inception_4c/3x3"
  bottom: "inception_4c/5x5"
  bottom: "inception_4c/pool_proj"
  top: "inception_4c/output"
}
layer {
  name: "inception_4d/1x1"
  type: "Convolution"
  bottom: "inception_4c/output"
  top: "inception_4d/1x1"
  param {
    lr_mult: 1
    decay_mult: 1
  }
  param {
    lr_mult: 2
    decay_mult: 0
  }
  convolution_param {
    num_output: 112
    kernel_size: 1
    weight_filler {
      type: "xavier"
    }
    bias_filler {
      type: "constant"
      value: 0.2
    }
  }
}
layer {
  name: "inception_4d/relu_1x1"
  type: "ReLU"
  bottom: "inception_4d/1x1"
  top: "inception_4d/1x1"
}
layer {
  name: "inception_4d/3x3_reduce"
  type: "Convolution"
  bottom: "inception_4c/output"
  top: "inception_4d/3x3_reduce"
  param {
    lr_mult: 1
    decay_mult: 1
  }
  param {
    lr_mult: 2
    decay_mult: 0
  }
  convolution_param {
    num_output: 144
    kernel_size: 1
    weight_filler {
      type: "xavier"
    }
    bias_filler {
      type: "constant"
      value: 0.2
    }
  }
}
layer {
  name: "inception_4d/relu_3x3_reduce"
  type: "ReLU"
  bottom: "inception_4d/3x3_reduce"
  top: "inception_4d/3x3_reduce"
}
layer {
  name: "inception_4d/3x3"
  type: "Convolution"
  bottom: "inception_4d/3x3_reduce"
  top: "inception_4d/3x3"
  param {
    lr_mult: 1
    decay_mult: 1
  }
  param {
    lr_mult: 2
    decay_mult: 0
  }
  convolution_param {
    num_output: 288
    pad: 1
    kernel_size: 3
    weight_filler {
      type: "xavier"
    }
    bias_filler {
      type: "constant"
      value: 0.2
    }
  }
}
layer {
  name: "inception_4d/relu_3x3"
  type: "ReLU"
  bottom: "inception_4d/3x3"
  top: "inception_4d/3x3"
}
layer {
  name: "inception_4d/5x5_reduce"
  type: "Convolution"
  bottom: "inception_4c/output"
  top: "inception_4d/5x5_reduce"
  param {
    lr_mult: 1
    decay_mult: 1
  }
  param {
    lr_mult: 2
    decay_mult: 0
  }
  convolution_param {
    num_output: 32
    kernel_size: 1
    weight_filler {
      type: "xavier"
    }
    bias_filler {
      type: "constant"
      value: 0.2
    }
  }
}
layer {
  name: "inception_4d/relu_5x5_reduce"
  type: "ReLU"
  bottom: "inception_4d/5x5_reduce"
  top: "inception_4d/5x5_reduce"
}
layer {
  name: "inception_4d/5x5"
  type: "Convolution"
  bottom: "inception_4d/5x5_reduce"
  top: "inception_4d/5x5"
  param {
    lr_mult: 1
    decay_mult: 1
  }
  param {
    lr_mult: 2
    decay_mult: 0
  }
  convolution_param {
    num_output: 64
    pad: 2
    kernel_size: 5
    weight_filler {
      type: "xavier"
    }
    bias_filler {
      type: "constant"
      value: 0.2
    }
  }
}
layer {
  name: "inception_4d/relu_5x5"
  type: "ReLU"
  bottom: "inception_4d/5x5"
  top: "inception_4d/5x5"
}
layer {
  name: "inception_4d/pool"
  type: "Pooling"
  bottom: "inception_4c/output"
  top: "inception_4d/pool"
  pooling_param {
    pool: MAX
    kernel_size: 3
    stride: 1
    pad: 1
  }
}
layer {
  name: "inception_4d/pool_proj"
  type: "Convolution"
  bottom: "inception_4d/pool"
  top: "inception_4d/pool_proj"
  param {
    lr_mult: 1
    decay_mult: 1
  }
  param {
    lr_mult: 2
    decay_mult: 0
  }
  convolution_param {
    num_output: 64
    kernel_size: 1
    weight_filler {
      type: "xavier"
    }
    bias_filler {
      type: "constant"
      value: 0.2
    }
  }
}
layer {
  name: "inception_4d/relu_pool_proj"
  type: "ReLU"
  bottom: "inception_4d/pool_proj"
  top: "inception_4d/pool_proj"
}
layer {
  name: "inception_4d/output"
  type: "Concat"
  bottom: "inception_4d/1x1"
  bottom: "inception_4d/3x3"
  bottom: "inception_4d/5x5"
  bottom: "inception_4d/pool_proj"
  top: "inception_4d/output"
}
layer {
  name: "loss2/ave_pool"
  type: "Pooling"
  bottom: "inception_4d/output"
  top: "loss2/ave_pool"
  pooling_param {
    pool: AVE
    kernel_size: 5
    stride: 3
  }
}
layer {
  name: "loss2/conv"
  type: "Convolution"
  bottom: "loss2/ave_pool"
  top: "loss2/conv"
  param {
    lr_mult: 1
    decay_mult: 1
  }
  param {
    lr_mult: 2
    decay_mult: 0
  }
  convolution_param {
    num_output: 128
    kernel_size: 1
    weight_filler {
      type: "xavier"
    }
    bias_filler {
      type: "constant"
      value: 0.2
    }
  }
}
layer {
  name: "loss2/relu_conv"
  type: "ReLU"
  bottom: "loss2/conv"
  top: "loss2/conv"
}
layer {
  name: "loss2/fc"
  type: "InnerProduct"
  bottom: "loss2/conv"
  top: "loss2/fc"
  param {
    lr_mult: 1
    decay_mult: 1
  }
  param {
    lr_mult: 2
    decay_mult: 0
  }
  inner_product_param {
    num_output: 1024
    weight_filler {
      type: "xavier"
    }
    bias_filler {
      type: "constant"
      value: 0.2
    }
  }
}
layer {
  name: "loss2/relu_fc"
  type: "ReLU"
  bottom: "loss2/fc"
  top: "loss2/fc"
}
layer {
  name: "loss2/drop_fc"
  type: "Dropout"
  bottom: "loss2/fc"
  top: "loss2/fc"
  dropout_param {
    dropout_ratio: 0.7
  }
}
layer {
  name: "loss2/classifier"
  type: "InnerProduct"
  bottom: "loss2/fc"
  top: "loss2/classifier"
  param {
    lr_mult: 1
    decay_mult: 1
  }
  param {
    lr_mult: 2
    decay_mult: 0
  }
  inner_product_param {
    num_output: 1000
    weight_filler {
      type: "xavier"
    }
    bias_filler {
      type: "constant"
      value: 0
    }
  }
}
layer {
  name: "loss2/loss"
  type: "SoftmaxWithLoss"
  bottom: "loss2/classifier"
  bottom: "label"
  top: "loss2/loss2"
  loss_weight: 0.3
}
layer {
  name: "inception_4e/1x1"
  type: "Convolution"
  bottom: "inception_4d/output"
  top: "inception_4e/1x1"
  param {
    lr_mult: 1
    decay_mult: 1
  }
  param {
    lr_mult: 2
    decay_mult: 0
  }
  convolution_param {
    num_output: 256
    kernel_size: 1
    weight_filler {
      type: "xavier"
    }
    bias_filler {
      type: "constant"
      value: 0.2
    }
  }
}
layer {
  name: "inception_4e/relu_1x1"
  type: "ReLU"
  bottom: "inception_4e/1x1"
  top: "inception_4e/1x1"
}
layer {
  name: "inception_4e/3x3_reduce"
  type: "Convolution"
  bottom: "inception_4d/output"
  top: "inception_4e/3x3_reduce"
  param {
    lr_mult: 1
    decay_mult: 1
  }
  param {
    lr_mult: 2
    decay_mult: 0
  }
  convolution_param {
    num_output: 160
    kernel_size: 1
    weight_filler {
      type: "xavier"
    }
    bias_filler {
      type: "constant"
      value: 0.2
    }
  }
}
layer {
  name: "inception_4e/relu_3x3_reduce"
  type: "ReLU"
  bottom: "inception_4e/3x3_reduce"
  top: "inception_4e/3x3_reduce"
}
layer {
  name: "inception_4e/3x3"
  type: "Convolution"
  bottom: "inception_4e/3x3_reduce"
  top: "inception_4e/3x3"
  param {
    lr_mult: 1
    decay_mult: 1
  }
  param {
    lr_mult: 2
    decay_mult: 0
  }
  convolution_param {
    num_output: 320
    pad: 1
    kernel_size: 3
    weight_filler {
      type: "xavier"
    }
    bias_filler {
      type: "constant"
      value: 0.2
    }
  }
}
layer {
  name: "inception_4e/relu_3x3"
  type: "ReLU"
  bottom: "inception_4e/3x3"
  top: "inception_4e/3x3"
}
layer {
  name: "inception_4e/5x5_reduce"
  type: "Convolution"
  bottom: "inception_4d/output"
  top: "inception_4e/5x5_reduce"
  param {
    lr_mult: 1
    decay_mult: 1
  }
  param {
    lr_mult: 2
    decay_mult: 0
  }
  convolution_param {
    num_output: 32
    kernel_size: 1
    weight_filler {
      type: "xavier"
    }
    bias_filler {
      type: "constant"
      value: 0.2
    }
  }
}
layer {
  name: "inception_4e/relu_5x5_reduce"
  type: "ReLU"
  bottom: "inception_4e/5x5_reduce"
  top: "inception_4e/5x5_reduce"
}
layer {
  name: "inception_4e/5x5"
  type: "Convolution"
  bottom: "inception_4e/5x5_reduce"
  top: "inception_4e/5x5"
  param {
    lr_mult: 1
    decay_mult: 1
  }
  param {
    lr_mult: 2
    decay_mult: 0
  }
  convolution_param {
    num_output: 128
    pad: 2
    kernel_size: 5
    weight_filler {
      type: "xavier"
    }
    bias_filler {
      type: "constant"
      value: 0.2
    }
  }
}
layer {
  name: "inception_4e/relu_5x5"
  type: "ReLU"
  bottom: "inception_4e/5x5"
  top: "inception_4e/5x5"
}
layer {
  name: "inception_4e/pool"
  type: "Pooling"
  bottom: "inception_4d/output"
  top: "inception_4e/pool"
  pooling_param {
    pool: MAX
    kerne
I0509 17:02:51.395115 119807 layer_factory.hpp:77] Creating layer data
I0509 17:02:51.395223 119807 db_lmdb.cpp:35] Opened lmdb examples/imagenet/ilsvrc12_train_lmdb
I0509 17:02:51.395257 119807 net.cpp:84] Creating Layer data
I0509 17:02:51.395268 119807 net.cpp:380] data -> data
I0509 17:02:51.395292 119807 net.cpp:380] data -> label
I0509 17:02:51.396081 119807 data_layer.cpp:45] output data size: 32,3,224,224
I0509 17:02:51.396174 119807 net.cpp:122] Setting up data
I0509 17:02:51.396189 119807 net.cpp:129] Top shape: 32 3 224 224 (4816896)
I0509 17:02:51.396195 119807 net.cpp:129] Top shape: 32 (32)
I0509 17:02:51.396200 119807 net.cpp:137] Memory required for data: 19267712
I0509 17:02:51.396209 119807 layer_factory.hpp:77] Creating layer label_data_1_split
I0509 17:02:51.396220 119807 net.cpp:84] Creating Layer label_data_1_split
I0509 17:02:51.396227 119807 net.cpp:406] label_data_1_split <- label
I0509 17:02:51.396240 119807 net.cpp:380] label_data_1_split -> label_data_1_split_0
I0509 17:02:51.396253 119807 net.cpp:380] label_data_1_split -> label_data_1_split_1
I0509 17:02:51.396262 119807 net.cpp:380] label_data_1_split -> label_data_1_split_2
I0509 17:02:51.396275 119807 net.cpp:122] Setting up label_data_1_split
I0509 17:02:51.396291 119807 net.cpp:129] Top shape: 32 (32)
I0509 17:02:51.396306 119807 net.cpp:129] Top shape: 32 (32)
I0509 17:02:51.396311 119807 net.cpp:129] Top shape: 32 (32)
I0509 17:02:51.396316 119807 net.cpp:137] Memory required for data: 19268096
I0509 17:02:51.396320 119807 layer_factory.hpp:77] Creating layer conv1/7x7_s2
I0509 17:02:51.396338 119807 net.cpp:84] Creating Layer conv1/7x7_s2
I0509 17:02:51.396343 119807 net.cpp:406] conv1/7x7_s2 <- data
I0509 17:02:51.396354 119807 net.cpp:380] conv1/7x7_s2 -> conv1/7x7_s2
I0509 17:02:51.396369 119807 base_conv_layer.cpp:121] Group is 1channel is3number of output is 64
I0509 17:02:51.396550 119807 net.cpp:122] Setting up conv1/7x7_s2
I0509 17:02:51.396562 119807 net.cpp:129] Top shape: 32 64 112 112 (25690112)
I0509 17:02:51.396566 119807 net.cpp:137] Memory required for data: 122028544
I0509 17:02:51.396586 119807 layer_factory.hpp:77] Creating layer conv1/relu_7x7
I0509 17:02:51.396595 119807 net.cpp:84] Creating Layer conv1/relu_7x7
I0509 17:02:51.396600 119807 net.cpp:406] conv1/relu_7x7 <- conv1/7x7_s2
I0509 17:02:51.396607 119807 net.cpp:367] conv1/relu_7x7 -> conv1/7x7_s2 (in-place)
I0509 17:02:51.396615 119807 net.cpp:122] Setting up conv1/relu_7x7
I0509 17:02:51.396623 119807 net.cpp:129] Top shape: 32 64 112 112 (25690112)
I0509 17:02:51.396628 119807 net.cpp:137] Memory required for data: 224788992
I0509 17:02:51.396632 119807 layer_factory.hpp:77] Creating layer pool1/3x3_s2
I0509 17:02:51.396643 119807 net.cpp:84] Creating Layer pool1/3x3_s2
I0509 17:02:51.396649 119807 net.cpp:406] pool1/3x3_s2 <- conv1/7x7_s2
I0509 17:02:51.396656 119807 net.cpp:380] pool1/3x3_s2 -> pool1/3x3_s2
I0509 17:02:51.396674 119807 net.cpp:122] Setting up pool1/3x3_s2
I0509 17:02:51.396682 119807 net.cpp:129] Top shape: 32 64 56 56 (6422528)
I0509 17:02:51.396687 119807 net.cpp:137] Memory required for data: 250479104
I0509 17:02:51.396692 119807 layer_factory.hpp:77] Creating layer pool1/norm1
I0509 17:02:51.396698 119807 net.cpp:84] Creating Layer pool1/norm1
I0509 17:02:51.396703 119807 net.cpp:406] pool1/norm1 <- pool1/3x3_s2
I0509 17:02:51.396713 119807 net.cpp:380] pool1/norm1 -> pool1/norm1
I0509 17:02:51.396723 119807 net.cpp:122] Setting up pool1/norm1
I0509 17:02:51.396729 119807 net.cpp:129] Top shape: 32 64 56 56 (6422528)
I0509 17:02:51.396733 119807 net.cpp:137] Memory required for data: 276169216
I0509 17:02:51.396739 119807 layer_factory.hpp:77] Creating layer conv2/3x3_reduce
I0509 17:02:51.396751 119807 net.cpp:84] Creating Layer conv2/3x3_reduce
I0509 17:02:51.396756 119807 net.cpp:406] conv2/3x3_reduce <- pool1/norm1
I0509 17:02:51.396766 119807 net.cpp:380] conv2/3x3_reduce -> conv2/3x3_reduce
I0509 17:02:51.396782 119807 base_conv_layer.cpp:121] Group is 1channel is64number of output is 64
I0509 17:02:51.396843 119807 net.cpp:122] Setting up conv2/3x3_reduce
I0509 17:02:51.396852 119807 net.cpp:129] Top shape: 32 64 56 56 (6422528)
I0509 17:02:51.396857 119807 net.cpp:137] Memory required for data: 301859328
I0509 17:02:51.396868 119807 layer_factory.hpp:77] Creating layer conv2/relu_3x3_reduce
I0509 17:02:51.396877 119807 net.cpp:84] Creating Layer conv2/relu_3x3_reduce
I0509 17:02:51.396881 119807 net.cpp:406] conv2/relu_3x3_reduce <- conv2/3x3_reduce
I0509 17:02:51.396891 119807 net.cpp:367] conv2/relu_3x3_reduce -> conv2/3x3_reduce (in-place)
I0509 17:02:51.396900 119807 net.cpp:122] Setting up conv2/relu_3x3_reduce
I0509 17:02:51.396906 119807 net.cpp:129] Top shape: 32 64 56 56 (6422528)
I0509 17:02:51.396911 119807 net.cpp:137] Memory required for data: 327549440
I0509 17:02:51.396915 119807 layer_factory.hpp:77] Creating layer conv2/3x3
I0509 17:02:51.396929 119807 net.cpp:84] Creating Layer conv2/3x3
I0509 17:02:51.396934 119807 net.cpp:406] conv2/3x3 <- conv2/3x3_reduce
I0509 17:02:51.396942 119807 net.cpp:380] conv2/3x3 -> conv2/3x3
I0509 17:02:51.396955 119807 base_conv_layer.cpp:121] Group is 1channel is64number of output is 192
I0509 17:02:51.398068 119807 net.cpp:122] Setting up conv2/3x3
I0509 17:02:51.398077 119807 net.cpp:129] Top shape: 32 192 56 56 (19267584)
I0509 17:02:51.398087 119807 net.cpp:137] Memory required for data: 404619776
I0509 17:02:51.398105 119807 layer_factory.hpp:77] Creating layer conv2/relu_3x3
I0509 17:02:51.398114 119807 net.cpp:84] Creating Layer conv2/relu_3x3
I0509 17:02:51.398119 119807 net.cpp:406] conv2/relu_3x3 <- conv2/3x3
I0509 17:02:51.398125 119807 net.cpp:367] conv2/relu_3x3 -> conv2/3x3 (in-place)
I0509 17:02:51.398133 119807 net.cpp:122] Setting up conv2/relu_3x3
I0509 17:02:51.398140 119807 net.cpp:129] Top shape: 32 192 56 56 (19267584)
I0509 17:02:51.398144 119807 net.cpp:137] Memory required for data: 481690112
I0509 17:02:51.398149 119807 layer_factory.hpp:77] Creating layer conv2/norm2
I0509 17:02:51.398164 119807 net.cpp:84] Creating Layer conv2/norm2
I0509 17:02:51.398169 119807 net.cpp:406] conv2/norm2 <- conv2/3x3
I0509 17:02:51.398175 119807 net.cpp:380] conv2/norm2 -> conv2/norm2
I0509 17:02:51.398185 119807 net.cpp:122] Setting up conv2/norm2
I0509 17:02:51.398190 119807 net.cpp:129] Top shape: 32 192 56 56 (19267584)
I0509 17:02:51.398196 119807 net.cpp:137] Memory required for data: 558760448
I0509 17:02:51.398200 119807 layer_factory.hpp:77] Creating layer pool2/3x3_s2
I0509 17:02:51.398207 119807 net.cpp:84] Creating Layer pool2/3x3_s2
I0509 17:02:51.398211 119807 net.cpp:406] pool2/3x3_s2 <- conv2/norm2
I0509 17:02:51.398219 119807 net.cpp:380] pool2/3x3_s2 -> pool2/3x3_s2
I0509 17:02:51.398228 119807 net.cpp:122] Setting up pool2/3x3_s2
I0509 17:02:51.398236 119807 net.cpp:129] Top shape: 32 192 28 28 (4816896)
I0509 17:02:51.398239 119807 net.cpp:137] Memory required for data: 578028032
I0509 17:02:51.398246 119807 layer_factory.hpp:77] Creating layer pool2/3x3_s2_pool2/3x3_s2_0_split
I0509 17:02:51.398254 119807 net.cpp:84] Creating Layer pool2/3x3_s2_pool2/3x3_s2_0_split
I0509 17:02:51.398259 119807 net.cpp:406] pool2/3x3_s2_pool2/3x3_s2_0_split <- pool2/3x3_s2
I0509 17:02:51.398267 119807 net.cpp:380] pool2/3x3_s2_pool2/3x3_s2_0_split -> pool2/3x3_s2_pool2/3x3_s2_0_split_0
I0509 17:02:51.398277 119807 net.cpp:380] pool2/3x3_s2_pool2/3x3_s2_0_split -> pool2/3x3_s2_pool2/3x3_s2_0_split_1
I0509 17:02:51.398285 119807 net.cpp:380] pool2/3x3_s2_pool2/3x3_s2_0_split -> pool2/3x3_s2_pool2/3x3_s2_0_split_2
I0509 17:02:51.398294 119807 net.cpp:380] pool2/3x3_s2_pool2/3x3_s2_0_split -> pool2/3x3_s2_pool2/3x3_s2_0_split_3
I0509 17:02:51.398304 119807 net.cpp:122] Setting up pool2/3x3_s2_pool2/3x3_s2_0_split
I0509 17:02:51.398311 119807 net.cpp:129] Top shape: 32 192 28 28 (4816896)
I0509 17:02:51.398317 119807 net.cpp:129] Top shape: 32 192 28 28 (4816896)
I0509 17:02:51.398324 119807 net.cpp:129] Top shape: 32 192 28 28 (4816896)
I0509 17:02:51.398329 119807 net.cpp:129] Top shape: 32 192 28 28 (4816896)
I0509 17:02:51.398335 119807 net.cpp:137] Memory required for data: 655098368
I0509 17:02:51.398339 119807 layer_factory.hpp:77] Creating layer inception_3a/1x1
I0509 17:02:51.398351 119807 net.cpp:84] Creating Layer inception_3a/1x1
I0509 17:02:51.398356 119807 net.cpp:406] inception_3a/1x1 <- pool2/3x3_s2_pool2/3x3_s2_0_split_0
I0509 17:02:51.398366 119807 net.cpp:380] inception_3a/1x1 -> inception_3a/1x1
I0509 17:02:51.398383 119807 base_conv_layer.cpp:121] Group is 1channel is192number of output is 64
I0509 17:02:51.398530 119807 net.cpp:122] Setting up inception_3a/1x1
I0509 17:02:51.398540 119807 net.cpp:129] Top shape: 32 64 28 28 (1605632)
I0509 17:02:51.398546 119807 net.cpp:137] Memory required for data: 661520896
I0509 17:02:51.398555 119807 layer_factory.hpp:77] Creating layer inception_3a/relu_1x1
I0509 17:02:51.398561 119807 net.cpp:84] Creating Layer inception_3a/relu_1x1
I0509 17:02:51.398566 119807 net.cpp:406] inception_3a/relu_1x1 <- inception_3a/1x1
I0509 17:02:51.398576 119807 net.cpp:367] inception_3a/relu_1x1 -> inception_3a/1x1 (in-place)
I0509 17:02:51.398583 119807 net.cpp:122] Setting up inception_3a/relu_1x1
I0509 17:02:51.398591 119807 net.cpp:129] Top shape: 32 64 28 28 (1605632)
I0509 17:02:51.398594 119807 net.cpp:137] Memory required for data: 667943424
I0509 17:02:51.398600 119807 layer_factory.hpp:77] Creating layer inception_3a/3x3_reduce
I0509 17:02:51.398623 119807 net.cpp:84] Creating Layer inception_3a/3x3_reduce
I0509 17:02:51.398629 119807 net.cpp:406] inception_3a/3x3_reduce <- pool2/3x3_s2_pool2/3x3_s2_0_split_1
I0509 17:02:51.398638 119807 net.cpp:380] inception_3a/3x3_reduce -> inception_3a/3x3_reduce
I0509 17:02:51.398653 119807 base_conv_layer.cpp:121] Group is 1channel is192number of output is 96
I0509 17:02:51.398856 119807 net.cpp:122] Setting up inception_3a/3x3_reduce
I0509 17:02:51.398866 119807 net.cpp:129] Top shape: 32 96 28 28 (2408448)
I0509 17:02:51.398871 119807 net.cpp:137] Memory required for data: 677577216
I0509 17:02:51.398882 119807 layer_factory.hpp:77] Creating layer inception_3a/relu_3x3_reduce
I0509 17:02:51.398895 119807 net.cpp:84] Creating Layer inception_3a/relu_3x3_reduce
I0509 17:02:51.398900 119807 net.cpp:406] inception_3a/relu_3x3_reduce <- inception_3a/3x3_reduce
I0509 17:02:51.398907 119807 net.cpp:367] inception_3a/relu_3x3_reduce -> inception_3a/3x3_reduce (in-place)
I0509 17:02:51.398916 119807 net.cpp:122] Setting up inception_3a/relu_3x3_reduce
I0509 17:02:51.398922 119807 net.cpp:129] Top shape: 32 96 28 28 (2408448)
I0509 17:02:51.398927 119807 net.cpp:137] Memory required for data: 687211008
I0509 17:02:51.398931 119807 layer_factory.hpp:77] Creating layer inception_3a/3x3
I0509 17:02:51.398944 119807 net.cpp:84] Creating Layer inception_3a/3x3
I0509 17:02:51.398948 119807 net.cpp:406] inception_3a/3x3 <- inception_3a/3x3_reduce
I0509 17:02:51.398958 119807 net.cpp:380] inception_3a/3x3 -> inception_3a/3x3
I0509 17:02:51.398970 119807 base_conv_layer.cpp:121] Group is 1channel is96number of output is 128
I0509 17:02:51.400086 119807 net.cpp:122] Setting up inception_3a/3x3
I0509 17:02:51.400097 119807 net.cpp:129] Top shape: 32 128 28 28 (3211264)
I0509 17:02:51.400101 119807 net.cpp:137] Memory required for data: 700056064
I0509 17:02:51.400110 119807 layer_factory.hpp:77] Creating layer inception_3a/relu_3x3
I0509 17:02:51.400117 119807 net.cpp:84] Creating Layer inception_3a/relu_3x3
I0509 17:02:51.400122 119807 net.cpp:406] inception_3a/relu_3x3 <- inception_3a/3x3
I0509 17:02:51.400131 119807 net.cpp:367] inception_3a/relu_3x3 -> inception_3a/3x3 (in-place)
I0509 17:02:51.400138 119807 net.cpp:122] Setting up inception_3a/relu_3x3
I0509 17:02:51.400146 119807 net.cpp:129] Top shape: 32 128 28 28 (3211264)
I0509 17:02:51.400151 119807 net.cpp:137] Memory required for data: 712901120
I0509 17:02:51.400156 119807 layer_factory.hpp:77] Creating layer inception_3a/5x5_reduce
I0509 17:02:51.400166 119807 net.cpp:84] Creating Layer inception_3a/5x5_reduce
I0509 17:02:51.400172 119807 net.cpp:406] inception_3a/5x5_reduce <- pool2/3x3_s2_pool2/3x3_s2_0_split_2
I0509 17:02:51.400180 119807 net.cpp:380] inception_3a/5x5_reduce -> inception_3a/5x5_reduce
I0509 17:02:51.400197 119807 base_conv_layer.cpp:121] Group is 1channel is192number of output is 16
I0509 17:02:51.400246 119807 net.cpp:122] Setting up inception_3a/5x5_reduce
I0509 17:02:51.400255 119807 net.cpp:129] Top shape: 32 16 28 28 (401408)
I0509 17:02:51.400259 119807 net.cpp:137] Memory required for data: 714506752
I0509 17:02:51.400266 119807 layer_factory.hpp:77] Creating layer inception_3a/relu_5x5_reduce
I0509 17:02:51.400274 119807 net.cpp:84] Creating Layer inception_3a/relu_5x5_reduce
I0509 17:02:51.400279 119807 net.cpp:406] inception_3a/relu_5x5_reduce <- inception_3a/5x5_reduce
I0509 17:02:51.400286 119807 net.cpp:367] inception_3a/relu_5x5_reduce -> inception_3a/5x5_reduce (in-place)
I0509 17:02:51.400293 119807 net.cpp:122] Setting up inception_3a/relu_5x5_reduce
I0509 17:02:51.400300 119807 net.cpp:129] Top shape: 32 16 28 28 (401408)
I0509 17:02:51.400305 119807 net.cpp:137] Memory required for data: 716112384
I0509 17:02:51.400310 119807 layer_factory.hpp:77] Creating layer inception_3a/5x5
I0509 17:02:51.400321 119807 net.cpp:84] Creating Layer inception_3a/5x5
I0509 17:02:51.400326 119807 net.cpp:406] inception_3a/5x5 <- inception_3a/5x5_reduce
I0509 17:02:51.400339 119807 net.cpp:380] inception_3a/5x5 -> inception_3a/5x5
I0509 17:02:51.400359 119807 base_conv_layer.cpp:121] Group is 1channel is16number of output is 32
I0509 17:02:51.400499 119807 net.cpp:122] Setting up inception_3a/5x5
I0509 17:02:51.400507 119807 net.cpp:129] Top shape: 32 32 28 28 (802816)
I0509 17:02:51.400513 119807 net.cpp:137] Memory required for data: 719323648
I0509 17:02:51.400521 119807 layer_factory.hpp:77] Creating layer inception_3a/relu_5x5
I0509 17:02:51.400527 119807 net.cpp:84] Creating Layer inception_3a/relu_5x5
I0509 17:02:51.400532 119807 net.cpp:406] inception_3a/relu_5x5 <- inception_3a/5x5
I0509 17:02:51.400542 119807 net.cpp:367] inception_3a/relu_5x5 -> inception_3a/5x5 (in-place)
I0509 17:02:51.400549 119807 net.cpp:122] Setting up inception_3a/relu_5x5
I0509 17:02:51.400555 119807 net.cpp:129] Top shape: 32 32 28 28 (802816)
I0509 17:02:51.400560 119807 net.cpp:137] Memory required for data: 722534912
I0509 17:02:51.400565 119807 layer_factory.hpp:77] Creating layer inception_3a/pool
I0509 17:02:51.400573 119807 net.cpp:84] Creating Layer inception_3a/pool
I0509 17:02:51.400578 119807 net.cpp:406] inception_3a/pool <- pool2/3x3_s2_pool2/3x3_s2_0_split_3
I0509 17:02:51.400586 119807 net.cpp:380] inception_3a/pool -> inception_3a/pool
I0509 17:02:51.400599 119807 net.cpp:122] Setting up inception_3a/pool
I0509 17:02:51.400605 119807 net.cpp:129] Top shape: 32 192 28 28 (4816896)
I0509 17:02:51.400609 119807 net.cpp:137] Memory required for data: 741802496
I0509 17:02:51.400614 119807 layer_factory.hpp:77] Creating layer inception_3a/pool_proj
I0509 17:02:51.400626 119807 net.cpp:84] Creating Layer inception_3a/pool_proj
I0509 17:02:51.400631 119807 net.cpp:406] inception_3a/pool_proj <- inception_3a/pool
I0509 17:02:51.400642 119807 net.cpp:380] inception_3a/pool_proj -> inception_3a/pool_proj
I0509 17:02:51.400655 119807 base_conv_layer.cpp:121] Group is 1channel is192number of output is 32
I0509 17:02:51.400730 119807 net.cpp:122] Setting up inception_3a/pool_proj
I0509 17:02:51.400738 119807 net.cpp:129] Top shape: 32 32 28 28 (802816)
I0509 17:02:51.400743 119807 net.cpp:137] Memory required for data: 745013760
I0509 17:02:51.400756 119807 layer_factory.hpp:77] Creating layer inception_3a/relu_pool_proj
I0509 17:02:51.400764 119807 net.cpp:84] Creating Layer inception_3a/relu_pool_proj
I0509 17:02:51.400769 119807 net.cpp:406] inception_3a/relu_pool_proj <- inception_3a/pool_proj
I0509 17:02:51.400776 119807 net.cpp:367] inception_3a/relu_pool_proj -> inception_3a/pool_proj (in-place)
I0509 17:02:51.400784 119807 net.cpp:122] Setting up inception_3a/relu_pool_proj
I0509 17:02:51.400791 119807 net.cpp:129] Top shape: 32 32 28 28 (802816)
I0509 17:02:51.400795 119807 net.cpp:137] Memory required for data: 748225024
I0509 17:02:51.400800 119807 layer_factory.hpp:77] Creating layer inception_3a/output
I0509 17:02:51.400807 119807 net.cpp:84] Creating Layer inception_3a/output
I0509 17:02:51.400812 119807 net.cpp:406] inception_3a/output <- inception_3a/1x1
I0509 17:02:51.400818 119807 net.cpp:406] inception_3a/output <- inception_3a/3x3
I0509 17:02:51.400825 119807 net.cpp:406] inception_3a/output <- inception_3a/5x5
I0509 17:02:51.400830 119807 net.cpp:406] inception_3a/output <- inception_3a/pool_proj
I0509 17:02:51.400840 119807 net.cpp:380] inception_3a/output -> inception_3a/output
I0509 17:02:51.400851 119807 net.cpp:122] Setting up inception_3a/output
I0509 17:02:51.400856 119807 net.cpp:129] Top shape: 32 256 28 28 (6422528)
I0509 17:02:51.400861 119807 net.cpp:137] Memory required for data: 773915136
I0509 17:02:51.400866 119807 layer_factory.hpp:77] Creating layer inception_3a/output_inception_3a/output_0_split
I0509 17:02:51.400874 119807 net.cpp:84] Creating Layer inception_3a/output_inception_3a/output_0_split
I0509 17:02:51.400878 119807 net.cpp:406] inception_3a/output_inception_3a/output_0_split <- inception_3a/output
I0509 17:02:51.400888 119807 net.cpp:380] inception_3a/output_inception_3a/output_0_split -> inception_3a/output_inception_3a/output_0_split_0
I0509 17:02:51.400904 119807 net.cpp:380] inception_3a/output_inception_3a/output_0_split -> inception_3a/output_inception_3a/output_0_split_1
I0509 17:02:51.400925 119807 net.cpp:380] inception_3a/output_inception_3a/output_0_split -> inception_3a/output_inception_3a/output_0_split_2
I0509 17:02:51.400935 119807 net.cpp:380] inception_3a/output_inception_3a/output_0_split -> inception_3a/output_inception_3a/output_0_split_3
I0509 17:02:51.400945 119807 net.cpp:122] Setting up inception_3a/output_inception_3a/output_0_split
I0509 17:02:51.400954 119807 net.cpp:129] Top shape: 32 256 28 28 (6422528)
I0509 17:02:51.400959 119807 net.cpp:129] Top shape: 32 256 28 28 (6422528)
I0509 17:02:51.400965 119807 net.cpp:129] Top shape: 32 256 28 28 (6422528)
I0509 17:02:51.400971 119807 net.cpp:129] Top shape: 32 256 28 28 (6422528)
I0509 17:02:51.400977 119807 net.cpp:137] Memory required for data: 876675584
I0509 17:02:51.400981 119807 layer_factory.hpp:77] Creating layer inception_3b/1x1
I0509 17:02:51.400992 119807 net.cpp:84] Creating Layer inception_3b/1x1
I0509 17:02:51.400998 119807 net.cpp:406] inception_3b/1x1 <- inception_3a/output_inception_3a/output_0_split_0
I0509 17:02:51.401010 119807 net.cpp:380] inception_3b/1x1 -> inception_3b/1x1
I0509 17:02:51.401022 119807 base_conv_layer.cpp:121] Group is 1channel is256number of output is 128
I0509 17:02:51.401362 119807 net.cpp:122] Setting up inception_3b/1x1
I0509 17:02:51.401371 119807 net.cpp:129] Top shape: 32 128 28 28 (3211264)
I0509 17:02:51.401376 119807 net.cpp:137] Memory required for data: 889520640
I0509 17:02:51.401383 119807 layer_factory.hpp:77] Creating layer inception_3b/relu_1x1
I0509 17:02:51.401392 119807 net.cpp:84] Creating Layer inception_3b/relu_1x1
I0509 17:02:51.401397 119807 net.cpp:406] inception_3b/relu_1x1 <- inception_3b/1x1
I0509 17:02:51.401407 119807 net.cpp:367] inception_3b/relu_1x1 -> inception_3b/1x1 (in-place)
I0509 17:02:51.401414 119807 net.cpp:122] Setting up inception_3b/relu_1x1
I0509 17:02:51.401420 119807 net.cpp:129] Top shape: 32 128 28 28 (3211264)
I0509 17:02:51.401425 119807 net.cpp:137] Memory required for data: 902365696
I0509 17:02:51.401430 119807 layer_factory.hpp:77] Creating layer inception_3b/3x3_reduce
I0509 17:02:51.401442 119807 net.cpp:84] Creating Layer inception_3b/3x3_reduce
I0509 17:02:51.401446 119807 net.cpp:406] inception_3b/3x3_reduce <- inception_3a/output_inception_3a/output_0_split_1
I0509 17:02:51.401458 119807 net.cpp:380] inception_3b/3x3_reduce -> inception_3b/3x3_reduce
I0509 17:02:51.401469 119807 base_conv_layer.cpp:121] Group is 1channel is256number of output is 128
I0509 17:02:51.401811 119807 net.cpp:122] Setting up inception_3b/3x3_reduce
I0509 17:02:51.401820 119807 net.cpp:129] Top shape: 32 128 28 28 (3211264)
I0509 17:02:51.401824 119807 net.cpp:137] Memory required for data: 915210752
I0509 17:02:51.401834 119807 layer_factory.hpp:77] Creating layer inception_3b/relu_3x3_reduce
I0509 17:02:51.401839 119807 net.cpp:84] Creating Layer inception_3b/relu_3x3_reduce
I0509 17:02:51.401844 119807 net.cpp:406] inception_3b/relu_3x3_reduce <- inception_3b/3x3_reduce
I0509 17:02:51.401854 119807 net.cpp:367] inception_3b/relu_3x3_reduce -> inception_3b/3x3_reduce (in-place)
I0509 17:02:51.401862 119807 net.cpp:122] Setting up inception_3b/relu_3x3_reduce
I0509 17:02:51.401868 119807 net.cpp:129] Top shape: 32 128 28 28 (3211264)
I0509 17:02:51.401872 119807 net.cpp:137] Memory required for data: 928055808
I0509 17:02:51.401877 119807 layer_factory.hpp:77] Creating layer inception_3b/3x3
I0509 17:02:51.401896 119807 net.cpp:84] Creating Layer inception_3b/3x3
I0509 17:02:51.401902 119807 net.cpp:406] inception_3b/3x3 <- inception_3b/3x3_reduce
I0509 17:02:51.401911 119807 net.cpp:380] inception_3b/3x3 -> inception_3b/3x3
I0509 17:02:51.401922 119807 base_conv_layer.cpp:121] Group is 1channel is128number of output is 192
I0509 17:02:51.404116 119807 net.cpp:122] Setting up inception_3b/3x3
I0509 17:02:51.404127 119807 net.cpp:129] Top shape: 32 192 28 28 (4816896)
I0509 17:02:51.404131 119807 net.cpp:137] Memory required for data: 947323392
I0509 17:02:51.404150 119807 layer_factory.hpp:77] Creating layer inception_3b/relu_3x3
I0509 17:02:51.404160 119807 net.cpp:84] Creating Layer inception_3b/relu_3x3
I0509 17:02:51.404166 119807 net.cpp:406] inception_3b/relu_3x3 <- inception_3b/3x3
I0509 17:02:51.404173 119807 net.cpp:367] inception_3b/relu_3x3 -> inception_3b/3x3 (in-place)
I0509 17:02:51.404181 119807 net.cpp:122] Setting up inception_3b/relu_3x3
I0509 17:02:51.404188 119807 net.cpp:129] Top shape: 32 192 28 28 (4816896)
I0509 17:02:51.404193 119807 net.cpp:137] Memory required for data: 966590976
I0509 17:02:51.404197 119807 layer_factory.hpp:77] Creating layer inception_3b/5x5_reduce
I0509 17:02:51.404208 119807 net.cpp:84] Creating Layer inception_3b/5x5_reduce
I0509 17:02:51.404216 119807 net.cpp:406] inception_3b/5x5_reduce <- inception_3a/output_inception_3a/output_0_split_2
I0509 17:02:51.404225 119807 net.cpp:380] inception_3b/5x5_reduce -> inception_3b/5x5_reduce
I0509 17:02:51.404248 119807 base_conv_layer.cpp:121] Group is 1channel is256number of output is 32
I0509 17:02:51.404336 119807 net.cpp:122] Setting up inception_3b/5x5_reduce
I0509 17:02:51.404345 119807 net.cpp:129] Top shape: 32 32 28 28 (802816)
I0509 17:02:51.404350 119807 net.cpp:137] Memory required for data: 969802240
I0509 17:02:51.404356 119807 layer_factory.hpp:77] Creating layer inception_3b/relu_5x5_reduce
I0509 17:02:51.404362 119807 net.cpp:84] Creating Layer inception_3b/relu_5x5_reduce
I0509 17:02:51.404367 119807 net.cpp:406] inception_3b/relu_5x5_reduce <- inception_3b/5x5_reduce
I0509 17:02:51.404376 119807 net.cpp:367] inception_3b/relu_5x5_reduce -> inception_3b/5x5_reduce (in-place)
I0509 17:02:51.404382 119807 net.cpp:122] Setting up inception_3b/relu_5x5_reduce
I0509 17:02:51.404388 119807 net.cpp:129] Top shape: 32 32 28 28 (802816)
I0509 17:02:51.404393 119807 net.cpp:137] Memory required for data: 973013504
I0509 17:02:51.404398 119807 layer_factory.hpp:77] Creating layer inception_3b/5x5
I0509 17:02:51.404408 119807 net.cpp:84] Creating Layer inception_3b/5x5
I0509 17:02:51.404412 119807 net.cpp:406] inception_3b/5x5 <- inception_3b/5x5_reduce
I0509 17:02:51.404422 119807 net.cpp:380] inception_3b/5x5 -> inception_3b/5x5
I0509 17:02:51.404440 119807 base_conv_layer.cpp:121] Group is 1channel is32number of output is 96
I0509 17:02:51.405175 119807 net.cpp:122] Setting up inception_3b/5x5
I0509 17:02:51.405184 119807 net.cpp:129] Top shape: 32 96 28 28 (2408448)
I0509 17:02:51.405189 119807 net.cpp:137] Memory required for data: 982647296
I0509 17:02:51.405195 119807 layer_factory.hpp:77] Creating layer inception_3b/relu_5x5
I0509 17:02:51.405203 119807 net.cpp:84] Creating Layer inception_3b/relu_5x5
I0509 17:02:51.405208 119807 net.cpp:406] inception_3b/relu_5x5 <- inception_3b/5x5
I0509 17:02:51.405216 119807 net.cpp:367] inception_3b/relu_5x5 -> inception_3b/5x5 (in-place)
I0509 17:02:51.405222 119807 net.cpp:122] Setting up inception_3b/relu_5x5
I0509 17:02:51.405228 119807 net.cpp:129] Top shape: 32 96 28 28 (2408448)
I0509 17:02:51.405233 119807 net.cpp:137] Memory required for data: 992281088
I0509 17:02:51.405238 119807 layer_factory.hpp:77] Creating layer inception_3b/pool
I0509 17:02:51.405246 119807 net.cpp:84] Creating Layer inception_3b/pool
I0509 17:02:51.405251 119807 net.cpp:406] inception_3b/pool <- inception_3a/output_inception_3a/output_0_split_3
I0509 17:02:51.405257 119807 net.cpp:380] inception_3b/pool -> inception_3b/pool
I0509 17:02:51.405268 119807 net.cpp:122] Setting up inception_3b/pool
I0509 17:02:51.405275 119807 net.cpp:129] Top shape: 32 256 28 28 (6422528)
I0509 17:02:51.405279 119807 net.cpp:137] Memory required for data: 1017971200
I0509 17:02:51.405283 119807 layer_factory.hpp:77] Creating layer inception_3b/pool_proj
I0509 17:02:51.405295 119807 net.cpp:84] Creating Layer inception_3b/pool_proj
I0509 17:02:51.405300 119807 net.cpp:406] inception_3b/pool_proj <- inception_3b/pool
I0509 17:02:51.405309 119807 net.cpp:380] inception_3b/pool_proj -> inception_3b/pool_proj
I0509 17:02:51.405324 119807 base_conv_layer.cpp:121] Group is 1channel is256number of output is 64
I0509 17:02:51.405496 119807 net.cpp:122] Setting up inception_3b/pool_proj
I0509 17:02:51.405504 119807 net.cpp:129] Top shape: 32 64 28 28 (1605632)
I0509 17:02:51.405509 119807 net.cpp:137] Memory required for data: 1024393728
I0509 17:02:51.405516 119807 layer_factory.hpp:77] Creating layer inception_3b/relu_pool_proj
I0509 17:02:51.405525 119807 net.cpp:84] Creating Layer inception_3b/relu_pool_proj
I0509 17:02:51.405530 119807 net.cpp:406] inception_3b/relu_pool_proj <- inception_3b/pool_proj
I0509 17:02:51.405537 119807 net.cpp:367] inception_3b/relu_pool_proj -> inception_3b/pool_proj (in-place)
I0509 17:02:51.405544 119807 net.cpp:122] Setting up inception_3b/relu_pool_proj
I0509 17:02:51.405551 119807 net.cpp:129] Top shape: 32 64 28 28 (1605632)
I0509 17:02:51.405555 119807 net.cpp:137] Memory required for data: 1030816256
I0509 17:02:51.405560 119807 layer_factory.hpp:77] Creating layer inception_3b/output
I0509 17:02:51.405566 119807 net.cpp:84] Creating Layer inception_3b/output
I0509 17:02:51.405571 119807 net.cpp:406] inception_3b/output <- inception_3b/1x1
I0509 17:02:51.405577 119807 net.cpp:406] inception_3b/output <- inception_3b/3x3
I0509 17:02:51.405582 119807 net.cpp:406] inception_3b/output <- inception_3b/5x5
I0509 17:02:51.405587 119807 net.cpp:406] inception_3b/output <- inception_3b/pool_proj
I0509 17:02:51.405601 119807 net.cpp:380] inception_3b/output -> inception_3b/output
I0509 17:02:51.405611 119807 net.cpp:122] Setting up inception_3b/output
I0509 17:02:51.405616 119807 net.cpp:129] Top shape: 32 480 28 28 (12042240)
I0509 17:02:51.405620 119807 net.cpp:137] Memory required for data: 1078985216
I0509 17:02:51.405625 119807 layer_factory.hpp:77] Creating layer pool3/3x3_s2
I0509 17:02:51.405633 119807 net.cpp:84] Creating Layer pool3/3x3_s2
I0509 17:02:51.405638 119807 net.cpp:406] pool3/3x3_s2 <- inception_3b/output
I0509 17:02:51.405645 119807 net.cpp:380] pool3/3x3_s2 -> pool3/3x3_s2
I0509 17:02:51.405655 119807 net.cpp:122] Setting up pool3/3x3_s2
I0509 17:02:51.405661 119807 net.cpp:129] Top shape: 32 480 14 14 (3010560)
I0509 17:02:51.405665 119807 net.cpp:137] Memory required for data: 1091027456
I0509 17:02:51.405669 119807 layer_factory.hpp:77] Creating layer pool3/3x3_s2_pool3/3x3_s2_0_split
I0509 17:02:51.405678 119807 net.cpp:84] Creating Layer pool3/3x3_s2_pool3/3x3_s2_0_split
I0509 17:02:51.405683 119807 net.cpp:406] pool3/3x3_s2_pool3/3x3_s2_0_split <- pool3/3x3_s2
I0509 17:02:51.405690 119807 net.cpp:380] pool3/3x3_s2_pool3/3x3_s2_0_split -> pool3/3x3_s2_pool3/3x3_s2_0_split_0
I0509 17:02:51.405699 119807 net.cpp:380] pool3/3x3_s2_pool3/3x3_s2_0_split -> pool3/3x3_s2_pool3/3x3_s2_0_split_1
I0509 17:02:51.405710 119807 net.cpp:380] pool3/3x3_s2_pool3/3x3_s2_0_split -> pool3/3x3_s2_pool3/3x3_s2_0_split_2
I0509 17:02:51.405719 119807 net.cpp:380] pool3/3x3_s2_pool3/3x3_s2_0_split -> pool3/3x3_s2_pool3/3x3_s2_0_split_3
I0509 17:02:51.405728 119807 net.cpp:122] Setting up pool3/3x3_s2_pool3/3x3_s2_0_split
I0509 17:02:51.405735 119807 net.cpp:129] Top shape: 32 480 14 14 (3010560)
I0509 17:02:51.405740 119807 net.cpp:129] Top shape: 32 480 14 14 (3010560)
I0509 17:02:51.405746 119807 net.cpp:129] Top shape: 32 480 14 14 (3010560)
I0509 17:02:51.405752 119807 net.cpp:129] Top shape: 32 480 14 14 (3010560)
I0509 17:02:51.405756 119807 net.cpp:137] Memory required for data: 1139196416
I0509 17:02:51.405761 119807 layer_factory.hpp:77] Creating layer inception_4a/1x1
I0509 17:02:51.405772 119807 net.cpp:84] Creating Layer inception_4a/1x1
I0509 17:02:51.405777 119807 net.cpp:406] inception_4a/1x1 <- pool3/3x3_s2_pool3/3x3_s2_0_split_0
I0509 17:02:51.405787 119807 net.cpp:380] inception_4a/1x1 -> inception_4a/1x1
I0509 17:02:51.405799 119807 base_conv_layer.cpp:121] Group is 1channel is480number of output is 192
I0509 17:02:51.406675 119807 net.cpp:122] Setting up inception_4a/1x1
I0509 17:02:51.406683 119807 net.cpp:129] Top shape: 32 192 14 14 (1204224)
I0509 17:02:51.406688 119807 net.cpp:137] Memory required for data: 1144013312
I0509 17:02:51.406702 119807 layer_factory.hpp:77] Creating layer inception_4a/relu_1x1
I0509 17:02:51.406714 119807 net.cpp:84] Creating Layer inception_4a/relu_1x1
I0509 17:02:51.406719 119807 net.cpp:406] inception_4a/relu_1x1 <- inception_4a/1x1
I0509 17:02:51.406728 119807 net.cpp:367] inception_4a/relu_1x1 -> inception_4a/1x1 (in-place)
I0509 17:02:51.406736 119807 net.cpp:122] Setting up inception_4a/relu_1x1
I0509 17:02:51.406743 119807 net.cpp:129] Top shape: 32 192 14 14 (1204224)
I0509 17:02:51.406746 119807 net.cpp:137] Memory required for data: 1148830208
I0509 17:02:51.406751 119807 layer_factory.hpp:77] Creating layer inception_4a/3x3_reduce
I0509 17:02:51.406762 119807 net.cpp:84] Creating Layer inception_4a/3x3_reduce
I0509 17:02:51.406769 119807 net.cpp:406] inception_4a/3x3_reduce <- pool3/3x3_s2_pool3/3x3_s2_0_split_1
I0509 17:02:51.406776 119807 net.cpp:380] inception_4a/3x3_reduce -> inception_4a/3x3_reduce
I0509 17:02:51.406790 119807 base_conv_layer.cpp:121] Group is 1channel is480number of output is 96
I0509 17:02:51.407232 119807 net.cpp:122] Setting up inception_4a/3x3_reduce
I0509 17:02:51.407240 119807 net.cpp:129] Top shape: 32 96 14 14 (602112)
I0509 17:02:51.407245 119807 net.cpp:137] Memory required for data: 1151238656
I0509 17:02:51.407259 119807 layer_factory.hpp:77] Creating layer inception_4a/relu_3x3_reduce
I0509 17:02:51.407268 119807 net.cpp:84] Creating Layer inception_4a/relu_3x3_reduce
I0509 17:02:51.407271 119807 net.cpp:406] inception_4a/relu_3x3_reduce <- inception_4a/3x3_reduce
I0509 17:02:51.407281 119807 net.cpp:367] inception_4a/relu_3x3_reduce -> inception_4a/3x3_reduce (in-place)
I0509 17:02:51.407289 119807 net.cpp:122] Setting up inception_4a/relu_3x3_reduce
I0509 17:02:51.407295 119807 net.cpp:129] Top shape: 32 96 14 14 (602112)
I0509 17:02:51.407299 119807 net.cpp:137] Memory required for data: 1153647104
I0509 17:02:51.407304 119807 layer_factory.hpp:77] Creating layer inception_4a/3x3
I0509 17:02:51.407313 119807 net.cpp:84] Creating Layer inception_4a/3x3
I0509 17:02:51.407318 119807 net.cpp:406] inception_4a/3x3 <- inception_4a/3x3_reduce
I0509 17:02:51.407326 119807 net.cpp:380] inception_4a/3x3 -> inception_4a/3x3
I0509 17:02:51.407336 119807 base_conv_layer.cpp:121] Group is 1channel is96number of output is 208
I0509 17:02:51.409029 119807 net.cpp:122] Setting up inception_4a/3x3
I0509 17:02:51.409040 119807 net.cpp:129] Top shape: 32 208 14 14 (1304576)
I0509 17:02:51.409044 119807 net.cpp:137] Memory required for data: 1158865408
I0509 17:02:51.409051 119807 layer_factory.hpp:77] Creating layer inception_4a/relu_3x3
I0509 17:02:51.409060 119807 net.cpp:84] Creating Layer inception_4a/relu_3x3
I0509 17:02:51.409065 119807 net.cpp:406] inception_4a/relu_3x3 <- inception_4a/3x3
I0509 17:02:51.409071 119807 net.cpp:367] inception_4a/relu_3x3 -> inception_4a/3x3 (in-place)
I0509 17:02:51.409078 119807 net.cpp:122] Setting up inception_4a/relu_3x3
I0509 17:02:51.409085 119807 net.cpp:129] Top shape: 32 208 14 14 (1304576)
I0509 17:02:51.409090 119807 net.cpp:137] Memory required for data: 1164083712
I0509 17:02:51.409093 119807 layer_factory.hpp:77] Creating layer inception_4a/5x5_reduce
I0509 17:02:51.409103 119807 net.cpp:84] Creating Layer inception_4a/5x5_reduce
I0509 17:02:51.409107 119807 net.cpp:406] inception_4a/5x5_reduce <- pool3/3x3_s2_pool3/3x3_s2_0_split_2
I0509 17:02:51.409118 119807 net.cpp:380] inception_4a/5x5_reduce -> inception_4a/5x5_reduce
I0509 17:02:51.409129 119807 base_conv_layer.cpp:121] Group is 1channel is480number of output is 16
I0509 17:02:51.409209 119807 net.cpp:122] Setting up inception_4a/5x5_reduce
I0509 17:02:51.409216 119807 net.cpp:129] Top shape: 32 16 14 14 (100352)
I0509 17:02:51.409221 119807 net.cpp:137] Memory required for data: 1164485120
I0509 17:02:51.409229 119807 layer_factory.hpp:77] Creating layer inception_4a/relu_5x5_reduce
I0509 17:02:51.409235 119807 net.cpp:84] Creating Layer inception_4a/relu_5x5_reduce
I0509 17:02:51.409240 119807 net.cpp:406] inception_4a/relu_5x5_reduce <- inception_4a/5x5_reduce
I0509 17:02:51.409252 119807 net.cpp:367] inception_4a/relu_5x5_reduce -> inception_4a/5x5_reduce (in-place)
I0509 17:02:51.409266 119807 net.cpp:122] Setting up inception_4a/relu_5x5_reduce
I0509 17:02:51.409273 119807 net.cpp:129] Top shape: 32 16 14 14 (100352)
I0509 17:02:51.409277 119807 net.cpp:137] Memory required for data: 1164886528
I0509 17:02:51.409282 119807 layer_factory.hpp:77] Creating layer inception_4a/5x5
I0509 17:02:51.409292 119807 net.cpp:84] Creating Layer inception_4a/5x5
I0509 17:02:51.409297 119807 net.cpp:406] inception_4a/5x5 <- inception_4a/5x5_reduce
I0509 17:02:51.409304 119807 net.cpp:380] inception_4a/5x5 -> inception_4a/5x5
I0509 17:02:51.409317 119807 base_conv_layer.cpp:121] Group is 1channel is16number of output is 48
I0509 17:02:51.409515 119807 net.cpp:122] Setting up inception_4a/5x5
I0509 17:02:51.409523 119807 net.cpp:129] Top shape: 32 48 14 14 (301056)
I0509 17:02:51.409528 119807 net.cpp:137] Memory required for data: 1166090752
I0509 17:02:51.409535 119807 layer_factory.hpp:77] Creating layer inception_4a/relu_5x5
I0509 17:02:51.409541 119807 net.cpp:84] Creating Layer inception_4a/relu_5x5
I0509 17:02:51.409545 119807 net.cpp:406] inception_4a/relu_5x5 <- inception_4a/5x5
I0509 17:02:51.409551 119807 net.cpp:367] inception_4a/relu_5x5 -> inception_4a/5x5 (in-place)
I0509 17:02:51.409561 119807 net.cpp:122] Setting up inception_4a/relu_5x5
I0509 17:02:51.409567 119807 net.cpp:129] Top shape: 32 48 14 14 (301056)
I0509 17:02:51.409571 119807 net.cpp:137] Memory required for data: 1167294976
I0509 17:02:51.409575 119807 layer_factory.hpp:77] Creating layer inception_4a/pool
I0509 17:02:51.409582 119807 net.cpp:84] Creating Layer inception_4a/pool
I0509 17:02:51.409587 119807 net.cpp:406] inception_4a/pool <- pool3/3x3_s2_pool3/3x3_s2_0_split_3
I0509 17:02:51.409593 119807 net.cpp:380] inception_4a/pool -> inception_4a/pool
I0509 17:02:51.409605 119807 net.cpp:122] Setting up inception_4a/pool
I0509 17:02:51.409612 119807 net.cpp:129] Top shape: 32 480 14 14 (3010560)
I0509 17:02:51.409616 119807 net.cpp:137] Memory required for data: 1179337216
I0509 17:02:51.409621 119807 layer_factory.hpp:77] Creating layer inception_4a/pool_proj
I0509 17:02:51.409631 119807 net.cpp:84] Creating Layer inception_4a/pool_proj
I0509 17:02:51.409636 119807 net.cpp:406] inception_4a/pool_proj <- inception_4a/pool
I0509 17:02:51.409644 119807 net.cpp:380] inception_4a/pool_proj -> inception_4a/pool_proj
I0509 17:02:51.409657 119807 base_conv_layer.cpp:121] Group is 1channel is480number of output is 64
I0509 17:02:51.409958 119807 net.cpp:122] Setting up inception_4a/pool_proj
I0509 17:02:51.409970 119807 net.cpp:129] Top shape: 32 64 14 14 (401408)
I0509 17:02:51.409973 119807 net.cpp:137] Memory required for data: 1180942848
I0509 17:02:51.409981 119807 layer_factory.hpp:77] Creating layer inception_4a/relu_pool_proj
I0509 17:02:51.409987 119807 net.cpp:84] Creating Layer inception_4a/relu_pool_proj
I0509 17:02:51.409992 119807 net.cpp:406] inception_4a/relu_pool_proj <- inception_4a/pool_proj
I0509 17:02:51.409998 119807 net.cpp:367] inception_4a/relu_pool_proj -> inception_4a/pool_proj (in-place)
I0509 17:02:51.410006 119807 net.cpp:122] Setting up inception_4a/relu_pool_proj
I0509 17:02:51.410012 119807 net.cpp:129] Top shape: 32 64 14 14 (401408)
I0509 17:02:51.410017 119807 net.cpp:137] Memory required for data: 1182548480
I0509 17:02:51.410020 119807 layer_factory.hpp:77] Creating layer inception_4a/output
I0509 17:02:51.410027 119807 net.cpp:84] Creating Layer inception_4a/output
I0509 17:02:51.410032 119807 net.cpp:406] inception_4a/output <- inception_4a/1x1
I0509 17:02:51.410037 119807 net.cpp:406] inception_4a/output <- inception_4a/3x3
I0509 17:02:51.410043 119807 net.cpp:406] inception_4a/output <- inception_4a/5x5
I0509 17:02:51.410048 119807 net.cpp:406] inception_4a/output <- inception_4a/pool_proj
I0509 17:02:51.410056 119807 net.cpp:380] inception_4a/output -> inception_4a/output
I0509 17:02:51.410066 119807 net.cpp:122] Setting up inception_4a/output
I0509 17:02:51.410078 119807 net.cpp:129] Top shape: 32 512 14 14 (3211264)
I0509 17:02:51.410087 119807 net.cpp:137] Memory required for data: 1195393536
I0509 17:02:51.410092 119807 layer_factory.hpp:77] Creating layer inception_4a/output_inception_4a/output_0_split
I0509 17:02:51.410102 119807 net.cpp:84] Creating Layer inception_4a/output_inception_4a/output_0_split
I0509 17:02:51.410106 119807 net.cpp:406] inception_4a/output_inception_4a/output_0_split <- inception_4a/output
I0509 17:02:51.410115 119807 net.cpp:380] inception_4a/output_inception_4a/output_0_split -> inception_4a/output_inception_4a/output_0_split_0
I0509 17:02:51.410123 119807 net.cpp:380] inception_4a/output_inception_4a/output_0_split -> inception_4a/output_inception_4a/output_0_split_1
I0509 17:02:51.410135 119807 net.cpp:380] inception_4a/output_inception_4a/output_0_split -> inception_4a/output_inception_4a/output_0_split_2
I0509 17:02:51.410143 119807 net.cpp:380] inception_4a/output_inception_4a/output_0_split -> inception_4a/output_inception_4a/output_0_split_3
I0509 17:02:51.410151 119807 net.cpp:380] inception_4a/output_inception_4a/output_0_split -> inception_4a/output_inception_4a/output_0_split_4
I0509 17:02:51.410162 119807 net.cpp:122] Setting up inception_4a/output_inception_4a/output_0_split
I0509 17:02:51.410171 119807 net.cpp:129] Top shape: 32 512 14 14 (3211264)
I0509 17:02:51.410176 119807 net.cpp:129] Top shape: 32 512 14 14 (3211264)
I0509 17:02:51.410181 119807 net.cpp:129] Top shape: 32 512 14 14 (3211264)
I0509 17:02:51.410187 119807 net.cpp:129] Top shape: 32 512 14 14 (3211264)
I0509 17:02:51.410193 119807 net.cpp:129] Top shape: 32 512 14 14 (3211264)
I0509 17:02:51.410197 119807 net.cpp:137] Memory required for data: 1259618816
I0509 17:02:51.410202 119807 layer_factory.hpp:77] Creating layer loss1/ave_pool
I0509 17:02:51.410207 119807 net.cpp:84] Creating Layer loss1/ave_pool
I0509 17:02:51.410213 119807 net.cpp:406] loss1/ave_pool <- inception_4a/output_inception_4a/output_0_split_0
I0509 17:02:51.410221 119807 net.cpp:380] loss1/ave_pool -> loss1/ave_pool
I0509 17:02:51.410230 119807 net.cpp:122] Setting up loss1/ave_pool
I0509 17:02:51.410236 119807 net.cpp:129] Top shape: 32 512 4 4 (262144)
I0509 17:02:51.410241 119807 net.cpp:137] Memory required for data: 1260667392
I0509 17:02:51.410245 119807 layer_factory.hpp:77] Creating layer loss1/conv
I0509 17:02:51.410255 119807 net.cpp:84] Creating Layer loss1/conv
I0509 17:02:51.410260 119807 net.cpp:406] loss1/conv <- loss1/ave_pool
I0509 17:02:51.410269 119807 net.cpp:380] loss1/conv -> loss1/conv
I0509 17:02:51.410281 119807 base_conv_layer.cpp:121] Group is 1channel is512number of output is 128
I0509 17:02:51.410909 119807 net.cpp:122] Setting up loss1/conv
I0509 17:02:51.410917 119807 net.cpp:129] Top shape: 32 128 4 4 (65536)
I0509 17:02:51.410923 119807 net.cpp:137] Memory required for data: 1260929536
I0509 17:02:51.410929 119807 layer_factory.hpp:77] Creating layer loss1/relu_conv
I0509 17:02:51.410935 119807 net.cpp:84] Creating Layer loss1/relu_conv
I0509 17:02:51.410939 119807 net.cpp:406] loss1/relu_conv <- loss1/conv
I0509 17:02:51.410948 119807 net.cpp:367] loss1/relu_conv -> loss1/conv (in-place)
I0509 17:02:51.410954 119807 net.cpp:122] Setting up loss1/relu_conv
I0509 17:02:51.410960 119807 net.cpp:129] Top shape: 32 128 4 4 (65536)
I0509 17:02:51.410964 119807 net.cpp:137] Memory required for data: 1261191680
I0509 17:02:51.410969 119807 layer_factory.hpp:77] Creating layer loss1/fc
I0509 17:02:51.410977 119807 net.cpp:84] Creating Layer loss1/fc
I0509 17:02:51.410981 119807 net.cpp:406] loss1/fc <- loss1/conv
I0509 17:02:51.410993 119807 net.cpp:380] loss1/fc -> loss1/fc
I0509 17:02:51.428083 119807 net.cpp:122] Setting up loss1/fc
I0509 17:02:51.428097 119807 net.cpp:129] Top shape: 32 1024 (32768)
I0509 17:02:51.428102 119807 net.cpp:137] Memory required for data: 1261322752
I0509 17:02:51.428110 119807 layer_factory.hpp:77] Creating layer loss1/relu_fc
I0509 17:02:51.428119 119807 net.cpp:84] Creating Layer loss1/relu_fc
I0509 17:02:51.428124 119807 net.cpp:406] loss1/relu_fc <- loss1/fc
I0509 17:02:51.428145 119807 net.cpp:367] loss1/relu_fc -> loss1/fc (in-place)
I0509 17:02:51.428153 119807 net.cpp:122] Setting up loss1/relu_fc
I0509 17:02:51.428159 119807 net.cpp:129] Top shape: 32 1024 (32768)
I0509 17:02:51.428164 119807 net.cpp:137] Memory required for data: 1261453824
I0509 17:02:51.428167 119807 layer_factory.hpp:77] Creating layer loss1/drop_fc
I0509 17:02:51.428190 119807 net.cpp:84] Creating Layer loss1/drop_fc
I0509 17:02:51.428196 119807 net.cpp:406] loss1/drop_fc <- loss1/fc
I0509 17:02:51.428202 119807 net.cpp:367] loss1/drop_fc -> loss1/fc (in-place)
I0509 17:02:51.428213 119807 net.cpp:122] Setting up loss1/drop_fc
I0509 17:02:51.428220 119807 net.cpp:129] Top shape: 32 1024 (32768)
I0509 17:02:51.428223 119807 net.cpp:137] Memory required for data: 1261584896
I0509 17:02:51.428228 119807 layer_factory.hpp:77] Creating layer loss1/classifier
I0509 17:02:51.428236 119807 net.cpp:84] Creating Layer loss1/classifier
I0509 17:02:51.428241 119807 net.cpp:406] loss1/classifier <- loss1/fc
I0509 17:02:51.428259 119807 net.cpp:380] loss1/classifier -> loss1/classifier
#           time             counts unit events
     0.100386615        425,432,252      instructions:u           
     0.100386615        167,964,036      cycles:u                 
I0509 17:02:51.436327 119807 net.cpp:122] Setting up loss1/classifier
I0509 17:02:51.436337 119807 net.cpp:129] Top shape: 32 1000 (32000)
I0509 17:02:51.436342 119807 net.cpp:137] Memory required for data: 1261712896
I0509 17:02:51.436349 119807 layer_factory.hpp:77] Creating layer loss1/loss
I0509 17:02:51.436357 119807 net.cpp:84] Creating Layer loss1/loss
I0509 17:02:51.436362 119807 net.cpp:406] loss1/loss <- loss1/classifier
I0509 17:02:51.436367 119807 net.cpp:406] loss1/loss <- label_data_1_split_0
I0509 17:02:51.436374 119807 net.cpp:380] loss1/loss -> loss1/loss1
I0509 17:02:51.436384 119807 layer_factory.hpp:77] Creating layer loss1/loss
I0509 17:02:51.436468 119807 net.cpp:122] Setting up loss1/loss
I0509 17:02:51.436475 119807 net.cpp:129] Top shape: (1)
I0509 17:02:51.436480 119807 net.cpp:132]     with loss weight 0.3
I0509 17:02:51.436499 119807 net.cpp:137] Memory required for data: 1261712900
I0509 17:02:51.436503 119807 layer_factory.hpp:77] Creating layer inception_4b/1x1
I0509 17:02:51.436516 119807 net.cpp:84] Creating Layer inception_4b/1x1
I0509 17:02:51.436522 119807 net.cpp:406] inception_4b/1x1 <- inception_4a/output_inception_4a/output_0_split_1
I0509 17:02:51.436532 119807 net.cpp:380] inception_4b/1x1 -> inception_4b/1x1
I0509 17:02:51.436543 119807 base_conv_layer.cpp:121] Group is 1channel is512number of output is 160
I0509 17:02:51.437249 119807 net.cpp:122] Setting up inception_4b/1x1
I0509 17:02:51.437258 119807 net.cpp:129] Top shape: 32 160 14 14 (1003520)
I0509 17:02:51.437261 119807 net.cpp:137] Memory required for data: 1265726980
I0509 17:02:51.437268 119807 layer_factory.hpp:77] Creating layer inception_4b/relu_1x1
I0509 17:02:51.437274 119807 net.cpp:84] Creating Layer inception_4b/relu_1x1
I0509 17:02:51.437279 119807 net.cpp:406] inception_4b/relu_1x1 <- inception_4b/1x1
I0509 17:02:51.437288 119807 net.cpp:367] inception_4b/relu_1x1 -> inception_4b/1x1 (in-place)
I0509 17:02:51.437294 119807 net.cpp:122] Setting up inception_4b/relu_1x1
I0509 17:02:51.437299 119807 net.cpp:129] Top shape: 32 160 14 14 (1003520)
I0509 17:02:51.437304 119807 net.cpp:137] Memory required for data: 1269741060
I0509 17:02:51.437309 119807 layer_factory.hpp:77] Creating layer inception_4b/3x3_reduce
I0509 17:02:51.437319 119807 net.cpp:84] Creating Layer inception_4b/3x3_reduce
I0509 17:02:51.437324 119807 net.cpp:406] inception_4b/3x3_reduce <- inception_4a/output_inception_4a/output_0_split_2
I0509 17:02:51.437331 119807 net.cpp:380] inception_4b/3x3_reduce -> inception_4b/3x3_reduce
I0509 17:02:51.437341 119807 base_conv_layer.cpp:121] Group is 1channel is512number of output is 112
I0509 17:02:51.437836 119807 net.cpp:122] Setting up inception_4b/3x3_reduce
I0509 17:02:51.437844 119807 net.cpp:129] Top shape: 32 112 14 14 (702464)
I0509 17:02:51.437852 119807 net.cpp:137] Memory required for data: 1272550916
I0509 17:02:51.437860 119807 layer_factory.hpp:77] Creating layer inception_4b/relu_3x3_reduce
I0509 17:02:51.437875 119807 net.cpp:84] Creating Layer inception_4b/relu_3x3_reduce
I0509 17:02:51.437880 119807 net.cpp:406] inception_4b/relu_3x3_reduce <- inception_4b/3x3_reduce
I0509 17:02:51.437887 119807 net.cpp:367] inception_4b/relu_3x3_reduce -> inception_4b/3x3_reduce (in-place)
I0509 17:02:51.437893 119807 net.cpp:122] Setting up inception_4b/relu_3x3_reduce
I0509 17:02:51.437899 119807 net.cpp:129] Top shape: 32 112 14 14 (702464)
I0509 17:02:51.437903 119807 net.cpp:137] Memory required for data: 1275360772
I0509 17:02:51.437908 119807 layer_factory.hpp:77] Creating layer inception_4b/3x3
I0509 17:02:51.437918 119807 net.cpp:84] Creating Layer inception_4b/3x3
I0509 17:02:51.437922 119807 net.cpp:406] inception_4b/3x3 <- inception_4b/3x3_reduce
I0509 17:02:51.437932 119807 net.cpp:380] inception_4b/3x3 -> inception_4b/3x3
I0509 17:02:51.437942 119807 base_conv_layer.cpp:121] Group is 1channel is112number of output is 224
I0509 17:02:51.439833 119807 net.cpp:122] Setting up inception_4b/3x3
I0509 17:02:51.439841 119807 net.cpp:129] Top shape: 32 224 14 14 (1404928)
I0509 17:02:51.439846 119807 net.cpp:137] Memory required for data: 1280980484
I0509 17:02:51.439852 119807 layer_factory.hpp:77] Creating layer inception_4b/relu_3x3
I0509 17:02:51.439858 119807 net.cpp:84] Creating Layer inception_4b/relu_3x3
I0509 17:02:51.439862 119807 net.cpp:406] inception_4b/relu_3x3 <- inception_4b/3x3
I0509 17:02:51.439868 119807 net.cpp:367] inception_4b/relu_3x3 -> inception_4b/3x3 (in-place)
I0509 17:02:51.439875 119807 net.cpp:122] Setting up inception_4b/relu_3x3
I0509 17:02:51.439880 119807 net.cpp:129] Top shape: 32 224 14 14 (1404928)
I0509 17:02:51.439884 119807 net.cpp:137] Memory required for data: 1286600196
I0509 17:02:51.439888 119807 layer_factory.hpp:77] Creating layer inception_4b/5x5_reduce
I0509 17:02:51.439899 119807 net.cpp:84] Creating Layer inception_4b/5x5_reduce
I0509 17:02:51.439904 119807 net.cpp:406] inception_4b/5x5_reduce <- inception_4a/output_inception_4a/output_0_split_3
I0509 17:02:51.439911 119807 net.cpp:380] inception_4b/5x5_reduce -> inception_4b/5x5_reduce
I0509 17:02:51.439921 119807 base_conv_layer.cpp:121] Group is 1channel is512number of output is 24
I0509 17:02:51.440032 119807 net.cpp:122] Setting up inception_4b/5x5_reduce
I0509 17:02:51.440047 119807 net.cpp:129] Top shape: 32 24 14 14 (150528)
I0509 17:02:51.440052 119807 net.cpp:137] Memory required for data: 1287202308
I0509 17:02:51.440058 119807 layer_factory.hpp:77] Creating layer inception_4b/relu_5x5_reduce
I0509 17:02:51.440068 119807 net.cpp:84] Creating Layer inception_4b/relu_5x5_reduce
I0509 17:02:51.440073 119807 net.cpp:406] inception_4b/relu_5x5_reduce <- inception_4b/5x5_reduce
I0509 17:02:51.440078 119807 net.cpp:367] inception_4b/relu_5x5_reduce -> inception_4b/5x5_reduce (in-place)
I0509 17:02:51.440084 119807 net.cpp:122] Setting up inception_4b/relu_5x5_reduce
I0509 17:02:51.440090 119807 net.cpp:129] Top shape: 32 24 14 14 (150528)
I0509 17:02:51.440094 119807 net.cpp:137] Memory required for data: 1287804420
I0509 17:02:51.440099 119807 layer_factory.hpp:77] Creating layer inception_4b/5x5
I0509 17:02:51.440109 119807 net.cpp:84] Creating Layer inception_4b/5x5
I0509 17:02:51.440114 119807 net.cpp:406] inception_4b/5x5 <- inception_4b/5x5_reduce
I0509 17:02:51.440122 119807 net.cpp:380] inception_4b/5x5 -> inception_4b/5x5
I0509 17:02:51.440132 119807 base_conv_layer.cpp:121] Group is 1channel is24number of output is 64
I0509 17:02:51.440470 119807 net.cpp:122] Setting up inception_4b/5x5
I0509 17:02:51.440479 119807 net.cpp:129] Top shape: 32 64 14 14 (401408)
I0509 17:02:51.440482 119807 net.cpp:137] Memory required for data: 1289410052
I0509 17:02:51.440488 119807 layer_factory.hpp:77] Creating layer inception_4b/relu_5x5
I0509 17:02:51.440495 119807 net.cpp:84] Creating Layer inception_4b/relu_5x5
I0509 17:02:51.440503 119807 net.cpp:406] inception_4b/relu_5x5 <- inception_4b/5x5
I0509 17:02:51.440510 119807 net.cpp:367] inception_4b/relu_5x5 -> inception_4b/5x5 (in-place)
I0509 17:02:51.440517 119807 net.cpp:122] Setting up inception_4b/relu_5x5
I0509 17:02:51.440531 119807 net.cpp:129] Top shape: 32 64 14 14 (401408)
I0509 17:02:51.440536 119807 net.cpp:137] Memory required for data: 1291015684
I0509 17:02:51.440539 119807 layer_factory.hpp:77] Creating layer inception_4b/pool
I0509 17:02:51.440546 119807 net.cpp:84] Creating Layer inception_4b/pool
I0509 17:02:51.440551 119807 net.cpp:406] inception_4b/pool <- inception_4a/output_inception_4a/output_0_split_4
I0509 17:02:51.440557 119807 net.cpp:380] inception_4b/pool -> inception_4b/pool
I0509 17:02:51.440582 119807 net.cpp:122] Setting up inception_4b/pool
I0509 17:02:51.440587 119807 net.cpp:129] Top shape: 32 512 14 14 (3211264)
I0509 17:02:51.440590 119807 net.cpp:137] Memory required for data: 1303860740
I0509 17:02:51.440595 119807 layer_factory.hpp:77] Creating layer inception_4b/pool_proj
I0509 17:02:51.440603 119807 net.cpp:84] Creating Layer inception_4b/pool_proj
I0509 17:02:51.440608 119807 net.cpp:406] inception_4b/pool_proj <- inception_4b/pool
I0509 17:02:51.440614 119807 net.cpp:380] inception_4b/pool_proj -> inception_4b/pool_proj
I0509 17:02:51.440624 119807 base_conv_layer.cpp:121] Group is 1channel is512number of output is 64
I0509 17:02:51.440903 119807 net.cpp:122] Setting up inception_4b/pool_proj
I0509 17:02:51.440910 119807 net.cpp:129] Top shape: 32 64 14 14 (401408)
I0509 17:02:51.440914 119807 net.cpp:137] Memory required for data: 1305466372
I0509 17:02:51.440922 119807 layer_factory.hpp:77] Creating layer inception_4b/relu_pool_proj
I0509 17:02:51.440927 119807 net.cpp:84] Creating Layer inception_4b/relu_pool_proj
I0509 17:02:51.440930 119807 net.cpp:406] inception_4b/relu_pool_proj <- inception_4b/pool_proj
I0509 17:02:51.440938 119807 net.cpp:367] inception_4b/relu_pool_proj -> inception_4b/pool_proj (in-place)
I0509 17:02:51.440945 119807 net.cpp:122] Setting up inception_4b/relu_pool_proj
I0509 17:02:51.440950 119807 net.cpp:129] Top shape: 32 64 14 14 (401408)
I0509 17:02:51.440953 119807 net.cpp:137] Memory required for data: 1307072004
I0509 17:02:51.440958 119807 layer_factory.hpp:77] Creating layer inception_4b/output
I0509 17:02:51.440964 119807 net.cpp:84] Creating Layer inception_4b/output
I0509 17:02:51.440968 119807 net.cpp:406] inception_4b/output <- inception_4b/1x1
I0509 17:02:51.440973 119807 net.cpp:406] inception_4b/output <- inception_4b/3x3
I0509 17:02:51.440978 119807 net.cpp:406] inception_4b/output <- inception_4b/5x5
I0509 17:02:51.440982 119807 net.cpp:406] inception_4b/output <- inception_4b/pool_proj
I0509 17:02:51.440989 119807 net.cpp:380] inception_4b/output -> inception_4b/output
I0509 17:02:51.440997 119807 net.cpp:122] Setting up inception_4b/output
I0509 17:02:51.441002 119807 net.cpp:129] Top shape: 32 512 14 14 (3211264)
I0509 17:02:51.441007 119807 net.cpp:137] Memory required for data: 1319917060
I0509 17:02:51.441010 119807 layer_factory.hpp:77] Creating layer inception_4b/output_inception_4b/output_0_split
I0509 17:02:51.441017 119807 net.cpp:84] Creating Layer inception_4b/output_inception_4b/output_0_split
I0509 17:02:51.441021 119807 net.cpp:406] inception_4b/output_inception_4b/output_0_split <- inception_4b/output
I0509 17:02:51.441030 119807 net.cpp:380] inception_4b/output_inception_4b/output_0_split -> inception_4b/output_inception_4b/output_0_split_0
I0509 17:02:51.441037 119807 net.cpp:380] inception_4b/output_inception_4b/output_0_split -> inception_4b/output_inception_4b/output_0_split_1
I0509 17:02:51.441045 119807 net.cpp:380] inception_4b/output_inception_4b/output_0_split -> inception_4b/output_inception_4b/output_0_split_2
I0509 17:02:51.441052 119807 net.cpp:380] inception_4b/output_inception_4b/output_0_split -> inception_4b/output_inception_4b/output_0_split_3
I0509 17:02:51.441061 119807 net.cpp:122] Setting up inception_4b/output_inception_4b/output_0_split
I0509 17:02:51.441071 119807 net.cpp:129] Top shape: 32 512 14 14 (3211264)
I0509 17:02:51.441076 119807 net.cpp:129] Top shape: 32 512 14 14 (3211264)
I0509 17:02:51.441082 119807 net.cpp:129] Top shape: 32 512 14 14 (3211264)
I0509 17:02:51.441094 119807 net.cpp:129] Top shape: 32 512 14 14 (3211264)
I0509 17:02:51.441097 119807 net.cpp:137] Memory required for data: 1371297284
I0509 17:02:51.441102 119807 layer_factory.hpp:77] Creating layer inception_4c/1x1
I0509 17:02:51.441112 119807 net.cpp:84] Creating Layer inception_4c/1x1
I0509 17:02:51.441117 119807 net.cpp:406] inception_4c/1x1 <- inception_4b/output_inception_4b/output_0_split_0
I0509 17:02:51.441124 119807 net.cpp:380] inception_4c/1x1 -> inception_4c/1x1
I0509 17:02:51.441134 119807 base_conv_layer.cpp:121] Group is 1channel is512number of output is 128
I0509 17:02:51.441673 119807 net.cpp:122] Setting up inception_4c/1x1
I0509 17:02:51.441680 119807 net.cpp:129] Top shape: 32 128 14 14 (802816)
I0509 17:02:51.441684 119807 net.cpp:137] Memory required for data: 1374508548
I0509 17:02:51.441690 119807 layer_factory.hpp:77] Creating layer inception_4c/relu_1x1
I0509 17:02:51.441695 119807 net.cpp:84] Creating Layer inception_4c/relu_1x1
I0509 17:02:51.441700 119807 net.cpp:406] inception_4c/relu_1x1 <- inception_4c/1x1
I0509 17:02:51.441707 119807 net.cpp:367] inception_4c/relu_1x1 -> inception_4c/1x1 (in-place)
I0509 17:02:51.441714 119807 net.cpp:122] Setting up inception_4c/relu_1x1
I0509 17:02:51.441718 119807 net.cpp:129] Top shape: 32 128 14 14 (802816)
I0509 17:02:51.441723 119807 net.cpp:137] Memory required for data: 1377719812
I0509 17:02:51.441726 119807 layer_factory.hpp:77] Creating layer inception_4c/3x3_reduce
I0509 17:02:51.441735 119807 net.cpp:84] Creating Layer inception_4c/3x3_reduce
I0509 17:02:51.441740 119807 net.cpp:406] inception_4c/3x3_reduce <- inception_4b/output_inception_4b/output_0_split_1
I0509 17:02:51.441747 119807 net.cpp:380] inception_4c/3x3_reduce -> inception_4c/3x3_reduce
I0509 17:02:51.441758 119807 base_conv_layer.cpp:121] Group is 1channel is512number of output is 128
I0509 17:02:51.442294 119807 net.cpp:122] Setting up inception_4c/3x3_reduce
I0509 17:02:51.442301 119807 net.cpp:129] Top shape: 32 128 14 14 (802816)
I0509 17:02:51.442306 119807 net.cpp:137] Memory required for data: 1380931076
I0509 17:02:51.442311 119807 layer_factory.hpp:77] Creating layer inception_4c/relu_3x3_reduce
I0509 17:02:51.442322 119807 net.cpp:84] Creating Layer inception_4c/relu_3x3_reduce
I0509 17:02:51.442325 119807 net.cpp:406] inception_4c/relu_3x3_reduce <- inception_4c/3x3_reduce
I0509 17:02:51.442332 119807 net.cpp:367] inception_4c/relu_3x3_reduce -> inception_4c/3x3_reduce (in-place)
I0509 17:02:51.442337 119807 net.cpp:122] Setting up inception_4c/relu_3x3_reduce
I0509 17:02:51.442342 119807 net.cpp:129] Top shape: 32 128 14 14 (802816)
I0509 17:02:51.442345 119807 net.cpp:137] Memory required for data: 1384142340
I0509 17:02:51.442349 119807 layer_factory.hpp:77] Creating layer inception_4c/3x3
I0509 17:02:51.442358 119807 net.cpp:84] Creating Layer inception_4c/3x3
I0509 17:02:51.442361 119807 net.cpp:406] inception_4c/3x3 <- inception_4c/3x3_reduce
I0509 17:02:51.442369 119807 net.cpp:380] inception_4c/3x3 -> inception_4c/3x3
I0509 17:02:51.442379 119807 base_conv_layer.cpp:121] Group is 1channel is128number of output is 256
I0509 17:02:51.444735 119807 net.cpp:122] Setting up inception_4c/3x3
I0509 17:02:51.444742 119807 net.cpp:129] Top shape: 32 256 14 14 (1605632)
I0509 17:02:51.444746 119807 net.cpp:137] Memory required for data: 1390564868
I0509 17:02:51.444761 119807 layer_factory.hpp:77] Creating layer inception_4c/relu_3x3
I0509 17:02:51.444767 119807 net.cpp:84] Creating Layer inception_4c/relu_3x3
I0509 17:02:51.444772 119807 net.cpp:406] inception_4c/relu_3x3 <- inception_4c/3x3
I0509 17:02:51.444779 119807 net.cpp:367] inception_4c/relu_3x3 -> inception_4c/3x3 (in-place)
I0509 17:02:51.444787 119807 net.cpp:122] Setting up inception_4c/relu_3x3
I0509 17:02:51.444792 119807 net.cpp:129] Top shape: 32 256 14 14 (1605632)
I0509 17:02:51.444798 119807 net.cpp:137] Memory required for data: 1396987396
I0509 17:02:51.444802 119807 layer_factory.hpp:77] Creating layer inception_4c/5x5_reduce
I0509 17:02:51.444811 119807 net.cpp:84] Creating Layer inception_4c/5x5_reduce
I0509 17:02:51.444823 119807 net.cpp:406] inception_4c/5x5_reduce <- inception_4b/output_inception_4b/output_0_split_2
I0509 17:02:51.444830 119807 net.cpp:380] inception_4c/5x5_reduce -> inception_4c/5x5_reduce
I0509 17:02:51.444840 119807 base_conv_layer.cpp:121] Group is 1channel is512number of output is 24
I0509 17:02:51.444947 119807 net.cpp:122] Setting up inception_4c/5x5_reduce
I0509 17:02:51.444952 119807 net.cpp:129] Top shape: 32 24 14 14 (150528)
I0509 17:02:51.444957 119807 net.cpp:137] Memory required for data: 1397589508
I0509 17:02:51.444962 119807 layer_factory.hpp:77] Creating layer inception_4c/relu_5x5_reduce
I0509 17:02:51.444968 119807 net.cpp:84] Creating Layer inception_4c/relu_5x5_reduce
I0509 17:02:51.444972 119807 net.cpp:406] inception_4c/relu_5x5_reduce <- inception_4c/5x5_reduce
I0509 17:02:51.444988 119807 net.cpp:367] inception_4c/relu_5x5_reduce -> inception_4c/5x5_reduce (in-place)
I0509 17:02:51.444994 119807 net.cpp:122] Setting up inception_4c/relu_5x5_reduce
I0509 17:02:51.445000 119807 net.cpp:129] Top shape: 32 24 14 14 (150528)
I0509 17:02:51.445004 119807 net.cpp:137] Memory required for data: 1398191620
I0509 17:02:51.445008 119807 layer_factory.hpp:77] Creating layer inception_4c/5x5
I0509 17:02:51.445017 119807 net.cpp:84] Creating Layer inception_4c/5x5
I0509 17:02:51.445022 119807 net.cpp:406] inception_4c/5x5 <- inception_4c/5x5_reduce
I0509 17:02:51.445029 119807 net.cpp:380] inception_4c/5x5 -> inception_4c/5x5
I0509 17:02:51.445039 119807 base_conv_layer.cpp:121] Group is 1channel is24number of output is 64
I0509 17:02:51.445397 119807 net.cpp:122] Setting up inception_4c/5x5
I0509 17:02:51.445408 119807 net.cpp:129] Top shape: 32 64 14 14 (401408)
I0509 17:02:51.445412 119807 net.cpp:137] Memory required for data: 1399797252
I0509 17:02:51.445420 119807 layer_factory.hpp:77] Creating layer inception_4c/relu_5x5
I0509 17:02:51.445425 119807 net.cpp:84] Creating Layer inception_4c/relu_5x5
I0509 17:02:51.445430 119807 net.cpp:406] inception_4c/relu_5x5 <- inception_4c/5x5
I0509 17:02:51.445436 119807 net.cpp:367] inception_4c/relu_5x5 -> inception_4c/5x5 (in-place)
I0509 17:02:51.445442 119807 net.cpp:122] Setting up inception_4c/relu_5x5
I0509 17:02:51.445447 119807 net.cpp:129] Top shape: 32 64 14 14 (401408)
I0509 17:02:51.445451 119807 net.cpp:137] Memory required for data: 1401402884
I0509 17:02:51.445454 119807 layer_factory.hpp:77] Creating layer inception_4c/pool
I0509 17:02:51.445461 119807 net.cpp:84] Creating Layer inception_4c/pool
I0509 17:02:51.445464 119807 net.cpp:406] inception_4c/pool <- inception_4b/output_inception_4b/output_0_split_3
I0509 17:02:51.445472 119807 net.cpp:380] inception_4c/pool -> inception_4c/pool
I0509 17:02:51.445482 119807 net.cpp:122] Setting up inception_4c/pool
I0509 17:02:51.445488 119807 net.cpp:129] Top shape: 32 512 14 14 (3211264)
I0509 17:02:51.445492 119807 net.cpp:137] Memory required for data: 1414247940
I0509 17:02:51.445497 119807 layer_factory.hpp:77] Creating layer inception_4c/pool_proj
I0509 17:02:51.445505 119807 net.cpp:84] Creating Layer inception_4c/pool_proj
I0509 17:02:51.445509 119807 net.cpp:406] inception_4c/pool_proj <- inception_4c/pool
I0509 17:02:51.445518 119807 net.cpp:380] inception_4c/pool_proj -> inception_4c/pool_proj
I0509 17:02:51.445528 119807 base_conv_layer.cpp:121] Group is 1channel is512number of output is 64
I0509 17:02:51.445808 119807 net.cpp:122] Setting up inception_4c/pool_proj
I0509 17:02:51.445816 119807 net.cpp:129] Top shape: 32 64 14 14 (401408)
I0509 17:02:51.445819 119807 net.cpp:137] Memory required for data: 1415853572
I0509 17:02:51.445827 119807 layer_factory.hpp:77] Creating layer inception_4c/relu_pool_proj
I0509 17:02:51.445832 119807 net.cpp:84] Creating Layer inception_4c/relu_pool_proj
I0509 17:02:51.445842 119807 net.cpp:406] inception_4c/relu_pool_proj <- inception_4c/pool_proj
I0509 17:02:51.445847 119807 net.cpp:367] inception_4c/relu_pool_proj -> inception_4c/pool_proj (in-place)
I0509 17:02:51.445854 119807 net.cpp:122] Setting up inception_4c/relu_pool_proj
I0509 17:02:51.445865 119807 net.cpp:129] Top shape: 32 64 14 14 (401408)
I0509 17:02:51.445869 119807 net.cpp:137] Memory required for data: 1417459204
I0509 17:02:51.445873 119807 layer_factory.hpp:77] Creating layer inception_4c/output
I0509 17:02:51.445879 119807 net.cpp:84] Creating Layer inception_4c/output
I0509 17:02:51.445883 119807 net.cpp:406] inception_4c/output <- inception_4c/1x1
I0509 17:02:51.445888 119807 net.cpp:406] inception_4c/output <- inception_4c/3x3
I0509 17:02:51.445893 119807 net.cpp:406] inception_4c/output <- inception_4c/5x5
I0509 17:02:51.445899 119807 net.cpp:406] inception_4c/output <- inception_4c/pool_proj
I0509 17:02:51.445905 119807 net.cpp:380] inception_4c/output -> inception_4c/output
I0509 17:02:51.445914 119807 net.cpp:122] Setting up inception_4c/output
I0509 17:02:51.445919 119807 net.cpp:129] Top shape: 32 512 14 14 (3211264)
I0509 17:02:51.445922 119807 net.cpp:137] Memory required for data: 1430304260
I0509 17:02:51.445926 119807 layer_factory.hpp:77] Creating layer inception_4c/output_inception_4c/output_0_split
I0509 17:02:51.445932 119807 net.cpp:84] Creating Layer inception_4c/output_inception_4c/output_0_split
I0509 17:02:51.445936 119807 net.cpp:406] inception_4c/output_inception_4c/output_0_split <- inception_4c/output
I0509 17:02:51.445945 119807 net.cpp:380] inception_4c/output_inception_4c/output_0_split -> inception_4c/output_inception_4c/output_0_split_0
I0509 17:02:51.445952 119807 net.cpp:380] inception_4c/output_inception_4c/output_0_split -> inception_4c/output_inception_4c/output_0_split_1
I0509 17:02:51.445960 119807 net.cpp:380] inception_4c/output_inception_4c/output_0_split -> inception_4c/output_inception_4c/output_0_split_2
I0509 17:02:51.445968 119807 net.cpp:380] inception_4c/output_inception_4c/output_0_split -> inception_4c/output_inception_4c/output_0_split_3
I0509 17:02:51.445976 119807 net.cpp:122] Setting up inception_4c/output_inception_4c/output_0_split
I0509 17:02:51.445982 119807 net.cpp:129] Top shape: 32 512 14 14 (3211264)
I0509 17:02:51.445986 119807 net.cpp:129] Top shape: 32 512 14 14 (3211264)
I0509 17:02:51.445991 119807 net.cpp:129] Top shape: 32 512 14 14 (3211264)
I0509 17:02:51.445997 119807 net.cpp:129] Top shape: 32 512 14 14 (3211264)
I0509 17:02:51.446000 119807 net.cpp:137] Memory required for data: 1481684484
I0509 17:02:51.446004 119807 layer_factory.hpp:77] Creating layer inception_4d/1x1
I0509 17:02:51.446013 119807 net.cpp:84] Creating Layer inception_4d/1x1
I0509 17:02:51.446018 119807 net.cpp:406] inception_4d/1x1 <- inception_4c/output_inception_4c/output_0_split_0
I0509 17:02:51.446027 119807 net.cpp:380] inception_4d/1x1 -> inception_4d/1x1
I0509 17:02:51.446036 119807 base_conv_layer.cpp:121] Group is 1channel is512number of output is 112
I0509 17:02:51.446511 119807 net.cpp:122] Setting up inception_4d/1x1
I0509 17:02:51.446518 119807 net.cpp:129] Top shape: 32 112 14 14 (702464)
I0509 17:02:51.446521 119807 net.cpp:137] Memory required for data: 1484494340
I0509 17:02:51.446527 119807 layer_factory.hpp:77] Creating layer inception_4d/relu_1x1
I0509 17:02:51.446532 119807 net.cpp:84] Creating Layer inception_4d/relu_1x1
I0509 17:02:51.446537 119807 net.cpp:406] inception_4d/relu_1x1 <- inception_4d/1x1
I0509 17:02:51.446545 119807 net.cpp:367] inception_4d/relu_1x1 -> inception_4d/1x1 (in-place)
I0509 17:02:51.446552 119807 net.cpp:122] Setting up inception_4d/relu_1x1
I0509 17:02:51.446557 119807 net.cpp:129] Top shape: 32 112 14 14 (702464)
I0509 17:02:51.446561 119807 net.cpp:137] Memory required for data: 1487304196
I0509 17:02:51.446564 119807 layer_factory.hpp:77] Creating layer inception_4d/3x3_reduce
I0509 17:02:51.446573 119807 net.cpp:84] Creating Layer inception_4d/3x3_reduce
I0509 17:02:51.446578 119807 net.cpp:406] inception_4d/3x3_reduce <- inception_4c/output_inception_4c/output_0_split_1
I0509 17:02:51.446588 119807 net.cpp:380] inception_4d/3x3_reduce -> inception_4d/3x3_reduce
I0509 17:02:51.446599 119807 base_conv_layer.cpp:121] Group is 1channel is512number of output is 144
I0509 17:02:51.447206 119807 net.cpp:122] Setting up inception_4d/3x3_reduce
I0509 17:02:51.447214 119807 net.cpp:129] Top shape: 32 144 14 14 (903168)
I0509 17:02:51.447218 119807 net.cpp:137] Memory required for data: 1490916868
I0509 17:02:51.447224 119807 layer_factory.hpp:77] Creating layer inception_4d/relu_3x3_reduce
I0509 17:02:51.447230 119807 net.cpp:84] Creating Layer inception_4d/relu_3x3_reduce
I0509 17:02:51.447234 119807 net.cpp:406] inception_4d/relu_3x3_reduce <- inception_4d/3x3_reduce
I0509 17:02:51.447242 119807 net.cpp:367] inception_4d/relu_3x3_reduce -> inception_4d/3x3_reduce (in-place)
I0509 17:02:51.447247 119807 net.cpp:122] Setting up inception_4d/relu_3x3_reduce
I0509 17:02:51.447252 119807 net.cpp:129] Top shape: 32 144 14 14 (903168)
I0509 17:02:51.447255 119807 net.cpp:137] Memory required for data: 1494529540
I0509 17:02:51.447259 119807 layer_factory.hpp:77] Creating layer inception_4d/3x3
I0509 17:02:51.447268 119807 net.cpp:84] Creating Layer inception_4d/3x3
I0509 17:02:51.447273 119807 net.cpp:406] inception_4d/3x3 <- inception_4d/3x3_reduce
I0509 17:02:51.447279 119807 net.cpp:380] inception_4d/3x3 -> inception_4d/3x3
I0509 17:02:51.447289 119807 base_conv_layer.cpp:121] Group is 1channel is144number of output is 288
I0509 17:02:51.450280 119807 net.cpp:122] Setting up inception_4d/3x3
I0509 17:02:51.450289 119807 net.cpp:129] Top shape: 32 288 14 14 (1806336)
I0509 17:02:51.450292 119807 net.cpp:137] Memory required for data: 1501754884
I0509 17:02:51.450299 119807 layer_factory.hpp:77] Creating layer inception_4d/relu_3x3
I0509 17:02:51.450306 119807 net.cpp:84] Creating Layer inception_4d/relu_3x3
I0509 17:02:51.450310 119807 net.cpp:406] inception_4d/relu_3x3 <- inception_4d/3x3
I0509 17:02:51.450316 119807 net.cpp:367] inception_4d/relu_3x3 -> inception_4d/3x3 (in-place)
I0509 17:02:51.450323 119807 net.cpp:122] Setting up inception_4d/relu_3x3
I0509 17:02:51.450328 119807 net.cpp:129] Top shape: 32 288 14 14 (1806336)
I0509 17:02:51.450331 119807 net.cpp:137] Memory required for data: 1508980228
I0509 17:02:51.450335 119807 layer_factory.hpp:77] Creating layer inception_4d/5x5_reduce
I0509 17:02:51.450343 119807 net.cpp:84] Creating Layer inception_4d/5x5_reduce
I0509 17:02:51.450347 119807 net.cpp:406] inception_4d/5x5_reduce <- inception_4c/output_inception_4c/output_0_split_2
I0509 17:02:51.450356 119807 net.cpp:380] inception_4d/5x5_reduce -> inception_4d/5x5_reduce
I0509 17:02:51.450366 119807 base_conv_layer.cpp:121] Group is 1channel is512number of output is 32
I0509 17:02:51.450502 119807 net.cpp:122] Setting up inception_4d/5x5_reduce
I0509 17:02:51.450508 119807 net.cpp:129] Top shape: 32 32 14 14 (200704)
I0509 17:02:51.450512 119807 net.cpp:137] Memory required for data: 1509783044
I0509 17:02:51.450518 119807 layer_factory.hpp:77] Creating layer inception_4d/relu_5x5_reduce
I0509 17:02:51.450525 119807 net.cpp:84] Creating Layer inception_4d/relu_5x5_reduce
I0509 17:02:51.450531 119807 net.cpp:406] inception_4d/relu_5x5_reduce <- inception_4d/5x5_reduce
I0509 17:02:51.450536 119807 net.cpp:367] inception_4d/relu_5x5_reduce -> inception_4d/5x5_reduce (in-place)
I0509 17:02:51.450542 119807 net.cpp:122] Setting up inception_4d/relu_5x5_reduce
I0509 17:02:51.450548 119807 net.cpp:129] Top shape: 32 32 14 14 (200704)
I0509 17:02:51.450551 119807 net.cpp:137] Memory required for data: 1510585860
I0509 17:02:51.450556 119807 layer_factory.hpp:77] Creating layer inception_4d/5x5
I0509 17:02:51.450562 119807 net.cpp:84] Creating Layer inception_4d/5x5
I0509 17:02:51.450567 119807 net.cpp:406] inception_4d/5x5 <- inception_4d/5x5_reduce
I0509 17:02:51.450574 119807 net.cpp:380] inception_4d/5x5 -> inception_4d/5x5
I0509 17:02:51.450583 119807 base_conv_layer.cpp:121] Group is 1channel is32number of output is 64
I0509 17:02:51.451014 119807 net.cpp:122] Setting up inception_4d/5x5
I0509 17:02:51.451021 119807 net.cpp:129] Top shape: 32 64 14 14 (401408)
I0509 17:02:51.451025 119807 net.cpp:137] Memory required for data: 1512191492
I0509 17:02:51.451030 119807 layer_factory.hpp:77] Creating layer inception_4d/relu_5x5
I0509 17:02:51.451042 119807 net.cpp:84] Creating Layer inception_4d/relu_5x5
I0509 17:02:51.451047 119807 net.cpp:406] inception_4d/relu_5x5 <- inception_4d/5x5
I0509 17:02:51.451055 119807 net.cpp:367] inception_4d/relu_5x5 -> inception_4d/5x5 (in-place)
I0509 17:02:51.451061 119807 net.cpp:122] Setting up inception_4d/relu_5x5
I0509 17:02:51.451066 119807 net.cpp:129] Top shape: 32 64 14 14 (401408)
I0509 17:02:51.451071 119807 net.cpp:137] Memory required for data: 1513797124
I0509 17:02:51.451073 119807 layer_factory.hpp:77] Creating layer inception_4d/pool
I0509 17:02:51.451079 119807 net.cpp:84] Creating Layer inception_4d/pool
I0509 17:02:51.451083 119807 net.cpp:406] inception_4d/pool <- inception_4c/output_inception_4c/output_0_split_3
I0509 17:02:51.451092 119807 net.cpp:380] inception_4d/pool -> inception_4d/pool
I0509 17:02:51.451100 119807 net.cpp:122] Setting up inception_4d/pool
I0509 17:02:51.451107 119807 net.cpp:129] Top shape: 32 512 14 14 (3211264)
I0509 17:02:51.451109 119807 net.cpp:137] Memory required for data: 1526642180
I0509 17:02:51.451114 119807 layer_factory.hpp:77] Creating layer inception_4d/pool_proj
I0509 17:02:51.451123 119807 net.cpp:84] Creating Layer inception_4d/pool_proj
I0509 17:02:51.451128 119807 net.cpp:406] inception_4d/pool_proj <- inception_4d/pool
I0509 17:02:51.451136 119807 net.cpp:380] inception_4d/pool_proj -> inception_4d/pool_proj
I0509 17:02:51.451148 119807 base_conv_layer.cpp:121] Group is 1channel is512number of output is 64
I0509 17:02:51.451589 119807 net.cpp:122] Setting up inception_4d/pool_proj
I0509 17:02:51.451597 119807 net.cpp:129] Top shape: 32 64 14 14 (401408)
I0509 17:02:51.451601 119807 net.cpp:137] Memory required for data: 1528247812
I0509 17:02:51.451607 119807 layer_factory.hpp:77] Creating layer inception_4d/relu_pool_proj
I0509 17:02:51.451614 119807 net.cpp:84] Creating Layer inception_4d/relu_pool_proj
I0509 17:02:51.451619 119807 net.cpp:406] inception_4d/relu_pool_proj <- inception_4d/pool_proj
I0509 17:02:51.451627 119807 net.cpp:367] inception_4d/relu_pool_proj -> inception_4d/pool_proj (in-place)
I0509 17:02:51.451633 119807 net.cpp:122] Setting up inception_4d/relu_pool_proj
I0509 17:02:51.451638 119807 net.cpp:129] Top shape: 32 64 14 14 (401408)
I0509 17:02:51.451642 119807 net.cpp:137] Memory required for data: 1529853444
I0509 17:02:51.451645 119807 layer_factory.hpp:77] Creating layer inception_4d/output
I0509 17:02:51.451652 119807 net.cpp:84] Creating Layer inception_4d/output
I0509 17:02:51.451655 119807 net.cpp:406] inception_4d/output <- inception_4d/1x1
I0509 17:02:51.451660 119807 net.cpp:406] inception_4d/output <- inception_4d/3x3
I0509 17:02:51.451664 119807 net.cpp:406] inception_4d/output <- inception_4d/5x5
I0509 17:02:51.451669 119807 net.cpp:406] inception_4d/output <- inception_4d/pool_proj
I0509 17:02:51.451675 119807 net.cpp:380] inception_4d/output -> inception_4d/output
I0509 17:02:51.451683 119807 net.cpp:122] Setting up inception_4d/output
I0509 17:02:51.451689 119807 net.cpp:129] Top shape: 32 528 14 14 (3311616)
I0509 17:02:51.451692 119807 net.cpp:137] Memory required for data: 1543099908
I0509 17:02:51.451696 119807 layer_factory.hpp:77] Creating layer inception_4d/output_inception_4d/output_0_split
I0509 17:02:51.451704 119807 net.cpp:84] Creating Layer inception_4d/output_inception_4d/output_0_split
I0509 17:02:51.451707 119807 net.cpp:406] inception_4d/output_inception_4d/output_0_split <- inception_4d/output
I0509 17:02:51.451716 119807 net.cpp:380] inception_4d/output_inception_4d/output_0_split -> inception_4d/output_inception_4d/output_0_split_0
I0509 17:02:51.451725 119807 net.cpp:380] inception_4d/output_inception_4d/output_0_split -> inception_4d/output_inception_4d/output_0_split_1
I0509 17:02:51.451731 119807 net.cpp:380] inception_4d/output_inception_4d/output_0_split -> inception_4d/output_inception_4d/output_0_split_2
I0509 17:02:51.451741 119807 net.cpp:380] inception_4d/output_inception_4d/output_0_split -> inception_4d/output_inception_4d/output_0_split_3
I0509 17:02:51.451755 119807 net.cpp:380] inception_4d/output_inception_4d/output_0_split -> inception_4d/output_inception_4d/output_0_split_4
I0509 17:02:51.451764 119807 net.cpp:122] Setting up inception_4d/output_inception_4d/output_0_split
I0509 17:02:51.451771 119807 net.cpp:129] Top shape: 32 528 14 14 (3311616)
I0509 17:02:51.451776 119807 net.cpp:129] Top shape: 32 528 14 14 (3311616)
I0509 17:02:51.451781 119807 net.cpp:129] Top shape: 32 528 14 14 (3311616)
I0509 17:02:51.451786 119807 net.cpp:129] Top shape: 32 528 14 14 (3311616)
I0509 17:02:51.451791 119807 net.cpp:129] Top shape: 32 528 14 14 (3311616)
I0509 17:02:51.451793 119807 net.cpp:137] Memory required for data: 1609332228
I0509 17:02:51.451798 119807 layer_factory.hpp:77] Creating layer loss2/ave_pool
I0509 17:02:51.451804 119807 net.cpp:84] Creating Layer loss2/ave_pool
I0509 17:02:51.451808 119807 net.cpp:406] loss2/ave_pool <- inception_4d/output_inception_4d/output_0_split_0
I0509 17:02:51.451814 119807 net.cpp:380] loss2/ave_pool -> loss2/ave_pool
I0509 17:02:51.451823 119807 net.cpp:122] Setting up loss2/ave_pool
I0509 17:02:51.451828 119807 net.cpp:129] Top shape: 32 528 4 4 (270336)
I0509 17:02:51.451831 119807 net.cpp:137] Memory required for data: 1610413572
I0509 17:02:51.451835 119807 layer_factory.hpp:77] Creating layer loss2/conv
I0509 17:02:51.451848 119807 net.cpp:84] Creating Layer loss2/conv
I0509 17:02:51.451853 119807 net.cpp:406] loss2/conv <- loss2/ave_pool
I0509 17:02:51.451860 119807 net.cpp:380] loss2/conv -> loss2/conv
I0509 17:02:51.451870 119807 base_conv_layer.cpp:121] Group is 1channel is528number of output is 128
I0509 17:02:51.452428 119807 net.cpp:122] Setting up loss2/conv
I0509 17:02:51.452437 119807 net.cpp:129] Top shape: 32 128 4 4 (65536)
I0509 17:02:51.452441 119807 net.cpp:137] Memory required for data: 1610675716
I0509 17:02:51.452447 119807 layer_factory.hpp:77] Creating layer loss2/relu_conv
I0509 17:02:51.452455 119807 net.cpp:84] Creating Layer loss2/relu_conv
I0509 17:02:51.452458 119807 net.cpp:406] loss2/relu_conv <- loss2/conv
I0509 17:02:51.452463 119807 net.cpp:367] loss2/relu_conv -> loss2/conv (in-place)
I0509 17:02:51.452469 119807 net.cpp:122] Setting up loss2/relu_conv
I0509 17:02:51.452474 119807 net.cpp:129] Top shape: 32 128 4 4 (65536)
I0509 17:02:51.452478 119807 net.cpp:137] Memory required for data: 1610937860
I0509 17:02:51.452481 119807 layer_factory.hpp:77] Creating layer loss2/fc
I0509 17:02:51.452487 119807 net.cpp:84] Creating Layer loss2/fc
I0509 17:02:51.452492 119807 net.cpp:406] loss2/fc <- loss2/conv
I0509 17:02:51.452498 119807 net.cpp:380] loss2/fc -> loss2/fc
I0509 17:02:51.466730 119807 net.cpp:122] Setting up loss2/fc
I0509 17:02:51.466740 119807 net.cpp:129] Top shape: 32 1024 (32768)
I0509 17:02:51.466744 119807 net.cpp:137] Memory required for data: 1611068932
I0509 17:02:51.466749 119807 layer_factory.hpp:77] Creating layer loss2/relu_fc
I0509 17:02:51.466754 119807 net.cpp:84] Creating Layer loss2/relu_fc
I0509 17:02:51.466758 119807 net.cpp:406] loss2/relu_fc <- loss2/fc
I0509 17:02:51.466763 119807 net.cpp:367] loss2/relu_fc -> loss2/fc (in-place)
I0509 17:02:51.466770 119807 net.cpp:122] Setting up loss2/relu_fc
I0509 17:02:51.466774 119807 net.cpp:129] Top shape: 32 1024 (32768)
I0509 17:02:51.466776 119807 net.cpp:137] Memory required for data: 1611200004
I0509 17:02:51.466780 119807 layer_factory.hpp:77] Creating layer loss2/drop_fc
I0509 17:02:51.466786 119807 net.cpp:84] Creating Layer loss2/drop_fc
I0509 17:02:51.466789 119807 net.cpp:406] loss2/drop_fc <- loss2/fc
I0509 17:02:51.466794 119807 net.cpp:367] loss2/drop_fc -> loss2/fc (in-place)
I0509 17:02:51.466800 119807 net.cpp:122] Setting up loss2/drop_fc
I0509 17:02:51.466804 119807 net.cpp:129] Top shape: 32 1024 (32768)
I0509 17:02:51.466806 119807 net.cpp:137] Memory required for data: 1611331076
I0509 17:02:51.466814 119807 layer_factory.hpp:77] Creating layer loss2/classifier
I0509 17:02:51.466820 119807 net.cpp:84] Creating Layer loss2/classifier
I0509 17:02:51.466823 119807 net.cpp:406] loss2/classifier <- loss2/fc
I0509 17:02:51.466838 119807 net.cpp:380] loss2/classifier -> loss2/classifier
I0509 17:02:51.473320 119807 net.cpp:122] Setting up loss2/classifier
I0509 17:02:51.473328 119807 net.cpp:129] Top shape: 32 1000 (32000)
I0509 17:02:51.473331 119807 net.cpp:137] Memory required for data: 1611459076
I0509 17:02:51.473337 119807 layer_factory.hpp:77] Creating layer loss2/loss
I0509 17:02:51.473343 119807 net.cpp:84] Creating Layer loss2/loss
I0509 17:02:51.473347 119807 net.cpp:406] loss2/loss <- loss2/classifier
I0509 17:02:51.473352 119807 net.cpp:406] loss2/loss <- label_data_1_split_1
I0509 17:02:51.473357 119807 net.cpp:380] loss2/loss -> loss2/loss2
I0509 17:02:51.473364 119807 layer_factory.hpp:77] Creating layer loss2/loss
I0509 17:02:51.473433 119807 net.cpp:122] Setting up loss2/loss
I0509 17:02:51.473439 119807 net.cpp:129] Top shape: (1)
I0509 17:02:51.473443 119807 net.cpp:132]     with loss weight 0.3
I0509 17:02:51.473453 119807 net.cpp:137] Memory required for data: 1611459080
I0509 17:02:51.473457 119807 layer_factory.hpp:77] Creating layer inception_4e/1x1
I0509 17:02:51.473466 119807 net.cpp:84] Creating Layer inception_4e/1x1
I0509 17:02:51.473470 119807 net.cpp:406] inception_4e/1x1 <- inception_4d/output_inception_4d/output_0_split_1
I0509 17:02:51.473477 119807 net.cpp:380] inception_4e/1x1 -> inception_4e/1x1
I0509 17:02:51.473489 119807 base_conv_layer.cpp:121] Group is 1channel is528number of output is 256
I0509 17:02:51.474417 119807 net.cpp:122] Setting up inception_4e/1x1
I0509 17:02:51.474423 119807 net.cpp:129] Top shape: 32 256 14 14 (1605632)
I0509 17:02:51.474426 119807 net.cpp:137] Memory required for data: 1617881608
I0509 17:02:51.474432 119807 layer_factory.hpp:77] Creating layer inception_4e/relu_1x1
I0509 17:02:51.474437 119807 net.cpp:84] Creating Layer inception_4e/relu_1x1
I0509 17:02:51.474441 119807 net.cpp:406] inception_4e/relu_1x1 <- inception_4e/1x1
I0509 17:02:51.474447 119807 net.cpp:367] inception_4e/relu_1x1 -> inception_4e/1x1 (in-place)
I0509 17:02:51.474453 119807 net.cpp:122] Setting up inception_4e/relu_1x1
I0509 17:02:51.474457 119807 net.cpp:129] Top shape: 32 256 14 14 (1605632)
I0509 17:02:51.474460 119807 net.cpp:137] Memory required for data: 1624304136
I0509 17:02:51.474463 119807 layer_factory.hpp:77] Creating layer inception_4e/3x3_reduce
I0509 17:02:51.474472 119807 net.cpp:84] Creating Layer inception_4e/3x3_reduce
I0509 17:02:51.474475 119807 net.cpp:406] inception_4e/3x3_reduce <- inception_4d/output_inception_4d/output_0_split_2
I0509 17:02:51.474481 119807 net.cpp:380] inception_4e/3x3_reduce -> inception_4e/3x3_reduce
I0509 17:02:51.474489 119807 base_conv_layer.cpp:121] Group is 1channel is528number of output is 160
I0509 17:02:51.475076 119807 net.cpp:122] Setting up inception_4e/3x3_reduce
I0509 17:02:51.475081 119807 net.cpp:129] Top shape: 32 160 14 14 (1003520)
I0509 17:02:51.475085 119807 net.cpp:137] Memory required for data: 1628318216
I0509 17:02:51.475090 119807 layer_factory.hpp:77] Creating layer inception_4e/relu_3x3_reduce
I0509 17:02:51.475096 119807 net.cpp:84] Creating Layer inception_4e/relu_3x3_reduce
I0509 17:02:51.475100 119807 net.cpp:406] inception_4e/relu_3x3_reduce <- inception_4e/3x3_reduce
I0509 17:02:51.475105 119807 net.cpp:367] inception_4e/relu_3x3_reduce -> inception_4e/3x3_reduce (in-place)
I0509 17:02:51.475109 119807 net.cpp:122] Setting up inception_4e/relu_3x3_reduce
I0509 17:02:51.475114 119807 net.cpp:129] Top shape: 32 160 14 14 (1003520)
I0509 17:02:51.475117 119807 net.cpp:137] Memory required for data: 1632332296
I0509 17:02:51.475121 119807 layer_factory.hpp:77] Creating layer inception_4e/3x3
I0509 17:02:51.475128 119807 net.cpp:84] Creating Layer inception_4e/3x3
I0509 17:02:51.475132 119807 net.cpp:406] inception_4e/3x3 <- inception_4e/3x3_reduce
I0509 17:02:51.475143 119807 net.cpp:380] inception_4e/3x3 -> inception_4e/3x3
I0509 17:02:51.475152 119807 base_conv_layer.cpp:121] Group is 1channel is160number of output is 320
I0509 17:02:51.478265 119807 net.cpp:122] Setting up inception_4e/3x3
I0509 17:02:51.478279 119807 net.cpp:129] Top shape: 32 320 14 14 (2007040)
I0509 17:02:51.478283 119807 net.cpp:137] Memory required for data: 1640360456
I0509 17:02:51.478288 119807 layer_factory.hpp:77] Creating layer inception_4e/relu_3x3
I0509 17:02:51.478293 119807 net.cpp:84] Creating Layer inception_4e/relu_3x3
I0509 17:02:51.478298 119807 net.cpp:406] inception_4e/relu_3x3 <- inception_4e/3x3
I0509 17:02:51.478303 119807 net.cpp:367] inception_4e/relu_3x3 -> inception_4e/3x3 (in-place)
I0509 17:02:51.478308 119807 net.cpp:122] Setting up inception_4e/relu_3x3
I0509 17:02:51.478312 119807 net.cpp:129] Top shape: 32 320 14 14 (2007040)
I0509 17:02:51.478317 119807 net.cpp:137] Memory required for data: 1648388616
I0509 17:02:51.478319 119807 layer_factory.hpp:77] Creating layer inception_4e/5x5_reduce
I0509 17:02:51.478327 119807 net.cpp:84] Creating Layer inception_4e/5x5_reduce
I0509 17:02:51.478332 119807 net.cpp:406] inception_4e/5x5_reduce <- inception_4d/output_inception_4d/output_0_split_3
I0509 17:02:51.478338 119807 net.cpp:380] inception_4e/5x5_reduce -> inception_4e/5x5_reduce
I0509 17:02:51.478345 119807 base_conv_layer.cpp:121] Group is 1channel is528number of output is 32
I0509 17:02:51.478487 119807 net.cpp:122] Setting up inception_4e/5x5_reduce
I0509 17:02:51.478493 119807 net.cpp:129] Top shape: 32 32 14 14 (200704)
I0509 17:02:51.478497 119807 net.cpp:137] Memory required for data: 1649191432
I0509 17:02:51.478502 119807 layer_factory.hpp:77] Creating layer inception_4e/relu_5x5_reduce
I0509 17:02:51.478508 119807 net.cpp:84] Creating Layer inception_4e/relu_5x5_reduce
I0509 17:02:51.478513 119807 net.cpp:406] inception_4e/relu_5x5_reduce <- inception_4e/5x5_reduce
I0509 17:02:51.478518 119807 net.cpp:367] inception_4e/relu_5x5_reduce -> inception_4e/5x5_reduce (in-place)
I0509 17:02:51.478524 119807 net.cpp:122] Setting up inception_4e/relu_5x5_reduce
I0509 17:02:51.478528 119807 net.cpp:129] Top shape: 32 32 14 14 (200704)
I0509 17:02:51.478543 119807 net.cpp:137] Memory required for data: 1649994248
I0509 17:02:51.478546 119807 layer_factory.hpp:77] Creating layer inception_4e/5x5
I0509 17:02:51.478581 119807 net.cpp:84] Creating Layer inception_4e/5x5
I0509 17:02:51.478585 119807 net.cpp:406] inception_4e/5x5 <- inception_4e/5x5_reduce
I0509 17:02:51.478591 119807 net.cpp:380] inception_4e/5x5 -> inception_4e/5x5
I0509 17:02:51.478600 119807 base_conv_layer.cpp:121] Group is 1channel is32number of output is 128
I0509 17:02:51.479302 119807 net.cpp:122] Setting up inception_4e/5x5
I0509 17:02:51.479310 119807 net.cpp:129] Top shape: 32 128 14 14 (802816)
I0509 17:02:51.479312 119807 net.cpp:137] Memory required for data: 1653205512
I0509 17:02:51.479318 119807 layer_factory.hpp:77] Creating layer inception_4e/relu_5x5
I0509 17:02:51.479323 119807 net.cpp:84] Creating Layer inception_4e/relu_5x5
I0509 17:02:51.479327 119807 net.cpp:406] inception_4e/relu_5x5 <- inception_4e/5x5
I0509 17:02:51.479331 119807 net.cpp:367] inception_4e/relu_5x5 -> inception_4e/5x5 (in-place)
I0509 17:02:51.479337 119807 net.cpp:122] Setting up inception_4e/relu_5x5
I0509 17:02:51.479341 119807 net.cpp:129] Top shape: 32 128 14 14 (802816)
I0509 17:02:51.479344 119807 net.cpp:137] Memory required for data: 1656416776
I0509 17:02:51.479347 119807 layer_factory.hpp:77] Creating layer inception_4e/pool
I0509 17:02:51.479354 119807 net.cpp:84] Creating Layer inception_4e/pool
I0509 17:02:51.479357 119807 net.cpp:406] inception_4e/pool <- inception_4d/output_inception_4d/output_0_split_4
I0509 17:02:51.479363 119807 net.cpp:380] inception_4e/pool -> inception_4e/pool
I0509 17:02:51.479372 119807 net.cpp:122] Setting up inception_4e/pool
I0509 17:02:51.479377 119807 net.cpp:129] Top shape: 32 528 14 14 (3311616)
I0509 17:02:51.479380 119807 net.cpp:137] Memory required for data: 1669663240
I0509 17:02:51.479387 119807 layer_factory.hpp:77] Creating layer inception_4e/pool_proj
I0509 17:02:51.479394 119807 net.cpp:84] Creating Layer inception_4e/pool_proj
I0509 17:02:51.479399 119807 net.cpp:406] inception_4e/pool_proj <- inception_4e/pool
I0509 17:02:51.479411 119807 net.cpp:380] inception_4e/pool_proj -> inception_4e/pool_proj
I0509 17:02:51.479420 119807 base_conv_layer.cpp:121] Group is 1channel is528number of output is 128
I0509 17:02:51.479889 119807 net.cpp:122] Setting up inception_4e/pool_proj
I0509 17:02:51.479895 119807 net.cpp:129] Top shape: 32 128 14 14 (802816)
I0509 17:02:51.479898 119807 net.cpp:137] Memory required for data: 1672874504
I0509 17:02:51.479903 119807 layer_factory.hpp:77] Creating layer inception_4e/relu_pool_proj
I0509 17:02:51.479908 119807 net.cpp:84] Creating Layer inception_4e/relu_pool_proj
I0509 17:02:51.479912 119807 net.cpp:406] inception_4e/relu_pool_proj <- inception_4e/pool_proj
I0509 17:02:51.479921 119807 net.cpp:367] inception_4e/relu_pool_proj -> inception_4e/pool_proj (in-place)
I0509 17:02:51.479926 119807 net.cpp:122] Setting up inception_4e/relu_pool_proj
I0509 17:02:51.479930 119807 net.cpp:129] Top shape: 32 128 14 14 (802816)
I0509 17:02:51.479934 119807 net.cpp:137] Memory required for data: 1676085768
I0509 17:02:51.479938 119807 layer_factory.hpp:77] Creating layer inception_4e/output
I0509 17:02:51.479943 119807 net.cpp:84] Creating Layer inception_4e/output
I0509 17:02:51.479945 119807 net.cpp:406] inception_4e/output <- inception_4e/1x1
I0509 17:02:51.479950 119807 net.cpp:406] inception_4e/output <- inception_4e/3x3
I0509 17:02:51.479954 119807 net.cpp:406] inception_4e/output <- inception_4e/5x5
I0509 17:02:51.479957 119807 net.cpp:406] inception_4e/output <- inception_4e/pool_proj
I0509 17:02:51.479962 119807 net.cpp:380] inception_4e/output -> inception_4e/output
I0509 17:02:51.479970 119807 net.cpp:122] Setting up inception_4e/output
I0509 17:02:51.479975 119807 net.cpp:129] Top shape: 32 832 14 14 (5218304)
I0509 17:02:51.479977 119807 net.cpp:137] Memory required for data: 1696958984
I0509 17:02:51.479980 119807 layer_factory.hpp:77] Creating layer pool4/3x3_s2
I0509 17:02:51.479986 119807 net.cpp:84] Creating Layer pool4/3x3_s2
I0509 17:02:51.479990 119807 net.cpp:406] pool4/3x3_s2 <- inception_4e/output
I0509 17:02:51.479995 119807 net.cpp:380] pool4/3x3_s2 -> pool4/3x3_s2
I0509 17:02:51.480002 119807 net.cpp:122] Setting up pool4/3x3_s2
I0509 17:02:51.480007 119807 net.cpp:129] Top shape: 32 832 7 7 (1304576)
I0509 17:02:51.480010 119807 net.cpp:137] Memory required for data: 1702177288
I0509 17:02:51.480013 119807 layer_factory.hpp:77] Creating layer pool4/3x3_s2_pool4/3x3_s2_0_split
I0509 17:02:51.480020 119807 net.cpp:84] Creating Layer pool4/3x3_s2_pool4/3x3_s2_0_split
I0509 17:02:51.480023 119807 net.cpp:406] pool4/3x3_s2_pool4/3x3_s2_0_split <- pool4/3x3_s2
I0509 17:02:51.480031 119807 net.cpp:380] pool4/3x3_s2_pool4/3x3_s2_0_split -> pool4/3x3_s2_pool4/3x3_s2_0_split_0
I0509 17:02:51.480043 119807 net.cpp:380] pool4/3x3_s2_pool4/3x3_s2_0_split -> pool4/3x3_s2_pool4/3x3_s2_0_split_1
I0509 17:02:51.480051 119807 net.cpp:380] pool4/3x3_s2_pool4/3x3_s2_0_split -> pool4/3x3_s2_pool4/3x3_s2_0_split_2
I0509 17:02:51.480057 119807 net.cpp:380] pool4/3x3_s2_pool4/3x3_s2_0_split -> pool4/3x3_s2_pool4/3x3_s2_0_split_3
I0509 17:02:51.480065 119807 net.cpp:122] Setting up pool4/3x3_s2_pool4/3x3_s2_0_split
I0509 17:02:51.480069 119807 net.cpp:129] Top shape: 32 832 7 7 (1304576)
I0509 17:02:51.480073 119807 net.cpp:129] Top shape: 32 832 7 7 (1304576)
I0509 17:02:51.480078 119807 net.cpp:129] Top shape: 32 832 7 7 (1304576)
I0509 17:02:51.480082 119807 net.cpp:129] Top shape: 32 832 7 7 (1304576)
I0509 17:02:51.480084 119807 net.cpp:137] Memory required for data: 1723050504
I0509 17:02:51.480088 119807 layer_factory.hpp:77] Creating layer inception_5a/1x1
I0509 17:02:51.480098 119807 net.cpp:84] Creating Layer inception_5a/1x1
I0509 17:02:51.480100 119807 net.cpp:406] inception_5a/1x1 <- pool4/3x3_s2_pool4/3x3_s2_0_split_0
I0509 17:02:51.480113 119807 net.cpp:380] inception_5a/1x1 -> inception_5a/1x1
I0509 17:02:51.480120 119807 base_conv_layer.cpp:121] Group is 1channel is832number of output is 256
I0509 17:02:51.481698 119807 net.cpp:122] Setting up inception_5a/1x1
I0509 17:02:51.481714 119807 net.cpp:129] Top shape: 32 256 7 7 (401408)
I0509 17:02:51.481717 119807 net.cpp:137] Memory required for data: 1724656136
I0509 17:02:51.481724 119807 layer_factory.hpp:77] Creating layer inception_5a/relu_1x1
I0509 17:02:51.481730 119807 net.cpp:84] Creating Layer inception_5a/relu_1x1
I0509 17:02:51.481734 119807 net.cpp:406] inception_5a/relu_1x1 <- inception_5a/1x1
I0509 17:02:51.481739 119807 net.cpp:367] inception_5a/relu_1x1 -> inception_5a/1x1 (in-place)
I0509 17:02:51.481745 119807 net.cpp:122] Setting up inception_5a/relu_1x1
I0509 17:02:51.481750 119807 net.cpp:129] Top shape: 32 256 7 7 (401408)
I0509 17:02:51.481753 119807 net.cpp:137] Memory required for data: 1726261768
I0509 17:02:51.481756 119807 layer_factory.hpp:77] Creating layer inception_5a/3x3_reduce
I0509 17:02:51.481763 119807 net.cpp:84] Creating Layer inception_5a/3x3_reduce
I0509 17:02:51.481767 119807 net.cpp:406] inception_5a/3x3_reduce <- pool4/3x3_s2_pool4/3x3_s2_0_split_1
I0509 17:02:51.481775 119807 net.cpp:380] inception_5a/3x3_reduce -> inception_5a/3x3_reduce
I0509 17:02:51.481783 119807 base_conv_layer.cpp:121] Group is 1channel is832number of output is 160
I0509 17:02:51.482692 119807 net.cpp:122] Setting up inception_5a/3x3_reduce
I0509 17:02:51.482698 119807 net.cpp:129] Top shape: 32 160 7 7 (250880)
I0509 17:02:51.482702 119807 net.cpp:137] Memory required for data: 1727265288
I0509 17:02:51.482707 119807 layer_factory.hpp:77] Creating layer inception_5a/relu_3x3_reduce
I0509 17:02:51.482712 119807 net.cpp:84] Creating Layer inception_5a/relu_3x3_reduce
I0509 17:02:51.482715 119807 net.cpp:406] inception_5a/relu_3x3_reduce <- inception_5a/3x3_reduce
I0509 17:02:51.482720 119807 net.cpp:367] inception_5a/relu_3x3_reduce -> inception_5a/3x3_reduce (in-place)
I0509 17:02:51.482725 119807 net.cpp:122] Setting up inception_5a/relu_3x3_reduce
I0509 17:02:51.482729 119807 net.cpp:129] Top shape: 32 160 7 7 (250880)
I0509 17:02:51.482733 119807 net.cpp:137] Memory required for data: 1728268808
I0509 17:02:51.482735 119807 layer_factory.hpp:77] Creating layer inception_5a/3x3
I0509 17:02:51.482743 119807 net.cpp:84] Creating Layer inception_5a/3x3
I0509 17:02:51.482748 119807 net.cpp:406] inception_5a/3x3 <- inception_5a/3x3_reduce
I0509 17:02:51.482753 119807 net.cpp:380] inception_5a/3x3 -> inception_5a/3x3
I0509 17:02:51.482761 119807 base_conv_layer.cpp:121] Group is 1channel is160number of output is 320
I0509 17:02:51.485882 119807 net.cpp:122] Setting up inception_5a/3x3
I0509 17:02:51.485889 119807 net.cpp:129] Top shape: 32 320 7 7 (501760)
I0509 17:02:51.485894 119807 net.cpp:137] Memory required for data: 1730275848
I0509 17:02:51.485899 119807 layer_factory.hpp:77] Creating layer inception_5a/relu_3x3
I0509 17:02:51.485904 119807 net.cpp:84] Creating Layer inception_5a/relu_3x3
I0509 17:02:51.485908 119807 net.cpp:406] inception_5a/relu_3x3 <- inception_5a/3x3
I0509 17:02:51.485913 119807 net.cpp:367] inception_5a/relu_3x3 -> inception_5a/3x3 (in-place)
I0509 17:02:51.485918 119807 net.cpp:122] Setting up inception_5a/relu_3x3
I0509 17:02:51.485924 119807 net.cpp:129] Top shape: 32 320 7 7 (501760)
I0509 17:02:51.485926 119807 net.cpp:137] Memory required for data: 1732282888
I0509 17:02:51.485929 119807 layer_factory.hpp:77] Creating layer inception_5a/5x5_reduce
I0509 17:02:51.485937 119807 net.cpp:84] Creating Layer inception_5a/5x5_reduce
I0509 17:02:51.485941 119807 net.cpp:406] inception_5a/5x5_reduce <- pool4/3x3_s2_pool4/3x3_s2_0_split_2
I0509 17:02:51.485947 119807 net.cpp:380] inception_5a/5x5_reduce -> inception_5a/5x5_reduce
I0509 17:02:51.485956 119807 base_conv_layer.cpp:121] Group is 1channel is832number of output is 32
I0509 17:02:51.486146 119807 net.cpp:122] Setting up inception_5a/5x5_reduce
I0509 17:02:51.486152 119807 net.cpp:129] Top shape: 32 32 7 7 (50176)
I0509 17:02:51.486160 119807 net.cpp:137] Memory required for data: 1732483592
I0509 17:02:51.486166 119807 layer_factory.hpp:77] Creating layer inception_5a/relu_5x5_reduce
I0509 17:02:51.486176 119807 net.cpp:84] Creating Layer inception_5a/relu_5x5_reduce
I0509 17:02:51.486179 119807 net.cpp:406] inception_5a/relu_5x5_reduce <- inception_5a/5x5_reduce
I0509 17:02:51.486184 119807 net.cpp:367] inception_5a/relu_5x5_reduce -> inception_5a/5x5_reduce (in-place)
I0509 17:02:51.486191 119807 net.cpp:122] Setting up inception_5a/relu_5x5_reduce
I0509 17:02:51.486194 119807 net.cpp:129] Top shape: 32 32 7 7 (50176)
I0509 17:02:51.486197 119807 net.cpp:137] Memory required for data: 1732684296
I0509 17:02:51.486201 119807 layer_factory.hpp:77] Creating layer inception_5a/5x5
I0509 17:02:51.486209 119807 net.cpp:84] Creating Layer inception_5a/5x5
I0509 17:02:51.486212 119807 net.cpp:406] inception_5a/5x5 <- inception_5a/5x5_reduce
I0509 17:02:51.486219 119807 net.cpp:380] inception_5a/5x5 -> inception_5a/5x5
I0509 17:02:51.486227 119807 base_conv_layer.cpp:121] Group is 1channel is32number of output is 128
I0509 17:02:51.486927 119807 net.cpp:122] Setting up inception_5a/5x5
I0509 17:02:51.486933 119807 net.cpp:129] Top shape: 32 128 7 7 (200704)
I0509 17:02:51.486937 119807 net.cpp:137] Memory required for data: 1733487112
I0509 17:02:51.486941 119807 layer_factory.hpp:77] Creating layer inception_5a/relu_5x5
I0509 17:02:51.486946 119807 net.cpp:84] Creating Layer inception_5a/relu_5x5
I0509 17:02:51.486949 119807 net.cpp:406] inception_5a/relu_5x5 <- inception_5a/5x5
I0509 17:02:51.486955 119807 net.cpp:367] inception_5a/relu_5x5 -> inception_5a/5x5 (in-place)
I0509 17:02:51.486960 119807 net.cpp:122] Setting up inception_5a/relu_5x5
I0509 17:02:51.486965 119807 net.cpp:129] Top shape: 32 128 7 7 (200704)
I0509 17:02:51.486968 119807 net.cpp:137] Memory required for data: 1734289928
I0509 17:02:51.486971 119807 layer_factory.hpp:77] Creating layer inception_5a/pool
I0509 17:02:51.486976 119807 net.cpp:84] Creating Layer inception_5a/pool
I0509 17:02:51.486980 119807 net.cpp:406] inception_5a/pool <- pool4/3x3_s2_pool4/3x3_s2_0_split_3
I0509 17:02:51.486986 119807 net.cpp:380] inception_5a/pool -> inception_5a/pool
I0509 17:02:51.486994 119807 net.cpp:122] Setting up inception_5a/pool
I0509 17:02:51.486999 119807 net.cpp:129] Top shape: 32 832 7 7 (1304576)
I0509 17:02:51.487002 119807 net.cpp:137] Memory required for data: 1739508232
I0509 17:02:51.487004 119807 layer_factory.hpp:77] Creating layer inception_5a/pool_proj
I0509 17:02:51.487013 119807 net.cpp:84] Creating Layer inception_5a/pool_proj
I0509 17:02:51.487016 119807 net.cpp:406] inception_5a/pool_proj <- inception_5a/pool
I0509 17:02:51.487026 119807 net.cpp:380] inception_5a/pool_proj -> inception_5a/pool_proj
I0509 17:02:51.487035 119807 base_conv_layer.cpp:121] Group is 1channel is832number of output is 128
I0509 17:02:51.487761 119807 net.cpp:122] Setting up inception_5a/pool_proj
I0509 17:02:51.487768 119807 net.cpp:129] Top shape: 32 128 7 7 (200704)
I0509 17:02:51.487771 119807 net.cpp:137] Memory required for data: 1740311048
I0509 17:02:51.487777 119807 layer_factory.hpp:77] Creating layer inception_5a/relu_pool_proj
I0509 17:02:51.487782 119807 net.cpp:84] Creating Layer inception_5a/relu_pool_proj
I0509 17:02:51.487785 119807 net.cpp:406] inception_5a/relu_pool_proj <- inception_5a/pool_proj
I0509 17:02:51.487790 119807 net.cpp:367] inception_5a/relu_pool_proj -> inception_5a/pool_proj (in-place)
I0509 17:02:51.487795 119807 net.cpp:122] Setting up inception_5a/relu_pool_proj
I0509 17:02:51.487799 119807 net.cpp:129] Top shape: 32 128 7 7 (200704)
I0509 17:02:51.487802 119807 net.cpp:137] Memory required for data: 1741113864
I0509 17:02:51.487805 119807 layer_factory.hpp:77] Creating layer inception_5a/output
I0509 17:02:51.487812 119807 net.cpp:84] Creating Layer inception_5a/output
I0509 17:02:51.487814 119807 net.cpp:406] inception_5a/output <- inception_5a/1x1
I0509 17:02:51.487818 119807 net.cpp:406] inception_5a/output <- inception_5a/3x3
I0509 17:02:51.487825 119807 net.cpp:406] inception_5a/output <- inception_5a/5x5
I0509 17:02:51.487829 119807 net.cpp:406] inception_5a/output <- inception_5a/pool_proj
I0509 17:02:51.487835 119807 net.cpp:380] inception_5a/output -> inception_5a/output
I0509 17:02:51.487848 119807 net.cpp:122] Setting up inception_5a/output
I0509 17:02:51.487854 119807 net.cpp:129] Top shape: 32 832 7 7 (1304576)
I0509 17:02:51.487856 119807 net.cpp:137] Memory required for data: 1746332168
I0509 17:02:51.487859 119807 layer_factory.hpp:77] Creating layer inception_5a/output_inception_5a/output_0_split
I0509 17:02:51.487865 119807 net.cpp:84] Creating Layer inception_5a/output_inception_5a/output_0_split
I0509 17:02:51.487869 119807 net.cpp:406] inception_5a/output_inception_5a/output_0_split <- inception_5a/output
I0509 17:02:51.487875 119807 net.cpp:380] inception_5a/output_inception_5a/output_0_split -> inception_5a/output_inception_5a/output_0_split_0
I0509 17:02:51.487881 119807 net.cpp:380] inception_5a/output_inception_5a/output_0_split -> inception_5a/output_inception_5a/output_0_split_1
I0509 17:02:51.487889 119807 net.cpp:380] inception_5a/output_inception_5a/output_0_split -> inception_5a/output_inception_5a/output_0_split_2
I0509 17:02:51.487895 119807 net.cpp:380] inception_5a/output_inception_5a/output_0_split -> inception_5a/output_inception_5a/output_0_split_3
I0509 17:02:51.487902 119807 net.cpp:122] Setting up inception_5a/output_inception_5a/output_0_split
I0509 17:02:51.487906 119807 net.cpp:129] Top shape: 32 832 7 7 (1304576)
I0509 17:02:51.487910 119807 net.cpp:129] Top shape: 32 832 7 7 (1304576)
I0509 17:02:51.487915 119807 net.cpp:129] Top shape: 32 832 7 7 (1304576)
I0509 17:02:51.487920 119807 net.cpp:129] Top shape: 32 832 7 7 (1304576)
I0509 17:02:51.487921 119807 net.cpp:137] Memory required for data: 1767205384
I0509 17:02:51.487924 119807 layer_factory.hpp:77] Creating layer inception_5b/1x1
I0509 17:02:51.487932 119807 net.cpp:84] Creating Layer inception_5b/1x1
I0509 17:02:51.487936 119807 net.cpp:406] inception_5b/1x1 <- inception_5a/output_inception_5a/output_0_split_0
I0509 17:02:51.487942 119807 net.cpp:380] inception_5b/1x1 -> inception_5b/1x1
I0509 17:02:51.487951 119807 base_conv_layer.cpp:121] Group is 1channel is832number of output is 384
I0509 17:02:51.490116 119807 net.cpp:122] Setting up inception_5b/1x1
I0509 17:02:51.490123 119807 net.cpp:129] Top shape: 32 384 7 7 (602112)
I0509 17:02:51.490128 119807 net.cpp:137] Memory required for data: 1769613832
I0509 17:02:51.490133 119807 layer_factory.hpp:77] Creating layer inception_5b/relu_1x1
I0509 17:02:51.490139 119807 net.cpp:84] Creating Layer inception_5b/relu_1x1
I0509 17:02:51.490141 119807 net.cpp:406] inception_5b/relu_1x1 <- inception_5b/1x1
I0509 17:02:51.490146 119807 net.cpp:367] inception_5b/relu_1x1 -> inception_5b/1x1 (in-place)
I0509 17:02:51.490151 119807 net.cpp:122] Setting up inception_5b/relu_1x1
I0509 17:02:51.490156 119807 net.cpp:129] Top shape: 32 384 7 7 (602112)
I0509 17:02:51.490159 119807 net.cpp:137] Memory required for data: 1772022280
I0509 17:02:51.490162 119807 layer_factory.hpp:77] Creating layer inception_5b/3x3_reduce
I0509 17:02:51.490170 119807 net.cpp:84] Creating Layer inception_5b/3x3_reduce
I0509 17:02:51.490175 119807 net.cpp:406] inception_5b/3x3_reduce <- inception_5a/output_inception_5a/output_0_split_1
I0509 17:02:51.490180 119807 net.cpp:380] inception_5b/3x3_reduce -> inception_5b/3x3_reduce
I0509 17:02:51.490188 119807 base_conv_layer.cpp:121] Group is 1channel is832number of output is 192
I0509 17:02:51.491276 119807 net.cpp:122] Setting up inception_5b/3x3_reduce
I0509 17:02:51.491281 119807 net.cpp:129] Top shape: 32 192 7 7 (301056)
I0509 17:02:51.491284 119807 net.cpp:137] Memory required for data: 1773226504
I0509 17:02:51.491289 119807 layer_factory.hpp:77] Creating layer inception_5b/relu_3x3_reduce
I0509 17:02:51.491294 119807 net.cpp:84] Creating Layer inception_5b/relu_3x3_reduce
I0509 17:02:51.491298 119807 net.cpp:406] inception_5b/relu_3x3_reduce <- inception_5b/3x3_reduce
I0509 17:02:51.491307 119807 net.cpp:367] inception_5b/relu_3x3_reduce -> inception_5b/3x3_reduce (in-place)
I0509 17:02:51.491312 119807 net.cpp:122] Setting up inception_5b/relu_3x3_reduce
I0509 17:02:51.491322 119807 net.cpp:129] Top shape: 32 192 7 7 (301056)
I0509 17:02:51.491327 119807 net.cpp:137] Memory required for data: 1774430728
I0509 17:02:51.491329 119807 layer_factory.hpp:77] Creating layer inception_5b/3x3
I0509 17:02:51.491336 119807 net.cpp:84] Creating Layer inception_5b/3x3
I0509 17:02:51.491339 119807 net.cpp:406] inception_5b/3x3 <- inception_5b/3x3_reduce
I0509 17:02:51.491346 119807 net.cpp:380] inception_5b/3x3 -> inception_5b/3x3
I0509 17:02:51.491375 119807 base_conv_layer.cpp:121] Group is 1channel is192number of output is 384
I0509 17:02:51.495427 119807 net.cpp:122] Setting up inception_5b/3x3
I0509 17:02:51.495436 119807 net.cpp:129] Top shape: 32 384 7 7 (602112)
I0509 17:02:51.495440 119807 net.cpp:137] Memory required for data: 1776839176
I0509 17:02:51.495445 119807 layer_factory.hpp:77] Creating layer inception_5b/relu_3x3
I0509 17:02:51.495450 119807 net.cpp:84] Creating Layer inception_5b/relu_3x3
I0509 17:02:51.495455 119807 net.cpp:406] inception_5b/relu_3x3 <- inception_5b/3x3
I0509 17:02:51.495460 119807 net.cpp:367] inception_5b/relu_3x3 -> inception_5b/3x3 (in-place)
I0509 17:02:51.495465 119807 net.cpp:122] Setting up inception_5b/relu_3x3
I0509 17:02:51.495470 119807 net.cpp:129] Top shape: 32 384 7 7 (602112)
I0509 17:02:51.495472 119807 net.cpp:137] Memory required for data: 1779247624
I0509 17:02:51.495476 119807 layer_factory.hpp:77] Creating layer inception_5b/5x5_reduce
I0509 17:02:51.495482 119807 net.cpp:84] Creating Layer inception_5b/5x5_reduce
I0509 17:02:51.495486 119807 net.cpp:406] inception_5b/5x5_reduce <- inception_5a/output_inception_5a/output_0_split_2
I0509 17:02:51.495492 119807 net.cpp:380] inception_5b/5x5_reduce -> inception_5b/5x5_reduce
I0509 17:02:51.495501 119807 base_conv_layer.cpp:121] Group is 1channel is832number of output is 48
I0509 17:02:51.495782 119807 net.cpp:122] Setting up inception_5b/5x5_reduce
I0509 17:02:51.495789 119807 net.cpp:129] Top shape: 32 48 7 7 (75264)
I0509 17:02:51.495791 119807 net.cpp:137] Memory required for data: 1779548680
I0509 17:02:51.495797 119807 layer_factory.hpp:77] Creating layer inception_5b/relu_5x5_reduce
I0509 17:02:51.495802 119807 net.cpp:84] Creating Layer inception_5b/relu_5x5_reduce
I0509 17:02:51.495805 119807 net.cpp:406] inception_5b/relu_5x5_reduce <- inception_5b/5x5_reduce
I0509 17:02:51.495815 119807 net.cpp:367] inception_5b/relu_5x5_reduce -> inception_5b/5x5_reduce (in-place)
I0509 17:02:51.495821 119807 net.cpp:122] Setting up inception_5b/relu_5x5_reduce
I0509 17:02:51.495826 119807 net.cpp:129] Top shape: 32 48 7 7 (75264)
I0509 17:02:51.495828 119807 net.cpp:137] Memory required for data: 1779849736
I0509 17:02:51.495831 119807 layer_factory.hpp:77] Creating layer inception_5b/5x5
I0509 17:02:51.495841 119807 net.cpp:84] Creating Layer inception_5b/5x5
I0509 17:02:51.495844 119807 net.cpp:406] inception_5b/5x5 <- inception_5b/5x5_reduce
I0509 17:02:51.495849 119807 net.cpp:380] inception_5b/5x5 -> inception_5b/5x5
I0509 17:02:51.495858 119807 base_conv_layer.cpp:121] Group is 1channel is48number of output is 128
I0509 17:02:51.496909 119807 net.cpp:122] Setting up inception_5b/5x5
I0509 17:02:51.496917 119807 net.cpp:129] Top shape: 32 128 7 7 (200704)
I0509 17:02:51.496919 119807 net.cpp:137] Memory required for data: 1780652552
I0509 17:02:51.496924 119807 layer_factory.hpp:77] Creating layer inception_5b/relu_5x5
I0509 17:02:51.496929 119807 net.cpp:84] Creating Layer inception_5b/relu_5x5
I0509 17:02:51.496933 119807 net.cpp:406] inception_5b/relu_5x5 <- inception_5b/5x5
I0509 17:02:51.496942 119807 net.cpp:367] inception_5b/relu_5x5 -> inception_5b/5x5 (in-place)
I0509 17:02:51.496948 119807 net.cpp:122] Setting up inception_5b/relu_5x5
I0509 17:02:51.496951 119807 net.cpp:129] Top shape: 32 128 7 7 (200704)
I0509 17:02:51.496954 119807 net.cpp:137] Memory required for data: 1781455368
I0509 17:02:51.496960 119807 layer_factory.hpp:77] Creating layer inception_5b/pool
I0509 17:02:51.496966 119807 net.cpp:84] Creating Layer inception_5b/pool
I0509 17:02:51.496970 119807 net.cpp:406] inception_5b/pool <- inception_5a/output_inception_5a/output_0_split_3
I0509 17:02:51.496983 119807 net.cpp:380] inception_5b/pool -> inception_5b/pool
I0509 17:02:51.496990 119807 net.cpp:122] Setting up inception_5b/pool
I0509 17:02:51.496994 119807 net.cpp:129] Top shape: 32 832 7 7 (1304576)
I0509 17:02:51.496999 119807 net.cpp:137] Memory required for data: 1786673672
I0509 17:02:51.497001 119807 layer_factory.hpp:77] Creating layer inception_5b/pool_proj
I0509 17:02:51.497009 119807 net.cpp:84] Creating Layer inception_5b/pool_proj
I0509 17:02:51.497014 119807 net.cpp:406] inception_5b/pool_proj <- inception_5b/pool
I0509 17:02:51.497020 119807 net.cpp:380] inception_5b/pool_proj -> inception_5b/pool_proj
I0509 17:02:51.497028 119807 base_conv_layer.cpp:121] Group is 1channel is832number of output is 128
I0509 17:02:51.497759 119807 net.cpp:122] Setting up inception_5b/pool_proj
I0509 17:02:51.497766 119807 net.cpp:129] Top shape: 32 128 7 7 (200704)
I0509 17:02:51.497768 119807 net.cpp:137] Memory required for data: 1787476488
I0509 17:02:51.497774 119807 layer_factory.hpp:77] Creating layer inception_5b/relu_pool_proj
I0509 17:02:51.497778 119807 net.cpp:84] Creating Layer inception_5b/relu_pool_proj
I0509 17:02:51.497782 119807 net.cpp:406] inception_5b/relu_pool_proj <- inception_5b/pool_proj
I0509 17:02:51.497787 119807 net.cpp:367] inception_5b/relu_pool_proj -> inception_5b/pool_proj (in-place)
I0509 17:02:51.497792 119807 net.cpp:122] Setting up inception_5b/relu_pool_proj
I0509 17:02:51.497797 119807 net.cpp:129] Top shape: 32 128 7 7 (200704)
I0509 17:02:51.497799 119807 net.cpp:137] Memory required for data: 1788279304
I0509 17:02:51.497803 119807 layer_factory.hpp:77] Creating layer inception_5b/output
I0509 17:02:51.497809 119807 net.cpp:84] Creating Layer inception_5b/output
I0509 17:02:51.497812 119807 net.cpp:406] inception_5b/output <- inception_5b/1x1
I0509 17:02:51.497817 119807 net.cpp:406] inception_5b/output <- inception_5b/3x3
I0509 17:02:51.497822 119807 net.cpp:406] inception_5b/output <- inception_5b/5x5
I0509 17:02:51.497824 119807 net.cpp:406] inception_5b/output <- inception_5b/pool_proj
I0509 17:02:51.497829 119807 net.cpp:380] inception_5b/output -> inception_5b/output
I0509 17:02:51.497836 119807 net.cpp:122] Setting up inception_5b/output
I0509 17:02:51.497843 119807 net.cpp:129] Top shape: 32 1024 7 7 (1605632)
I0509 17:02:51.497845 119807 net.cpp:137] Memory required for data: 1794701832
I0509 17:02:51.497848 119807 layer_factory.hpp:77] Creating layer pool5/7x7_s1
I0509 17:02:51.497853 119807 net.cpp:84] Creating Layer pool5/7x7_s1
I0509 17:02:51.497858 119807 net.cpp:406] pool5/7x7_s1 <- inception_5b/output
I0509 17:02:51.497862 119807 net.cpp:380] pool5/7x7_s1 -> pool5/7x7_s1
I0509 17:02:51.497869 119807 net.cpp:122] Setting up pool5/7x7_s1
I0509 17:02:51.497872 119807 net.cpp:129] Top shape: 32 1024 1 1 (32768)
I0509 17:02:51.497876 119807 net.cpp:137] Memory required for data: 1794832904
I0509 17:02:51.497879 119807 layer_factory.hpp:77] Creating layer pool5/drop_7x7_s1
I0509 17:02:51.497885 119807 net.cpp:84] Creating Layer pool5/drop_7x7_s1
I0509 17:02:51.497889 119807 net.cpp:406] pool5/drop_7x7_s1 <- pool5/7x7_s1
I0509 17:02:51.497895 119807 net.cpp:367] pool5/drop_7x7_s1 -> pool5/7x7_s1 (in-place)
I0509 17:02:51.497901 119807 net.cpp:122] Setting up pool5/drop_7x7_s1
I0509 17:02:51.497905 119807 net.cpp:129] Top shape: 32 1024 1 1 (32768)
I0509 17:02:51.497908 119807 net.cpp:137] Memory required for data: 1794963976
I0509 17:02:51.497911 119807 layer_factory.hpp:77] Creating layer loss3/classifier
I0509 17:02:51.497918 119807 net.cpp:84] Creating Layer loss3/classifier
I0509 17:02:51.497921 119807 net.cpp:406] loss3/classifier <- pool5/7x7_s1
I0509 17:02:51.497926 119807 net.cpp:380] loss3/classifier -> loss3/classifier
I0509 17:02:51.504418 119807 net.cpp:122] Setting up loss3/classifier
I0509 17:02:51.504426 119807 net.cpp:129] Top shape: 32 1000 (32000)
I0509 17:02:51.504429 119807 net.cpp:137] Memory required for data: 1795091976
I0509 17:02:51.504436 119807 layer_factory.hpp:77] Creating layer loss3/loss3
I0509 17:02:51.504448 119807 net.cpp:84] Creating Layer loss3/loss3
I0509 17:02:51.504452 119807 net.cpp:406] loss3/loss3 <- loss3/classifier
I0509 17:02:51.504456 119807 net.cpp:406] loss3/loss3 <- label_data_1_split_2
I0509 17:02:51.504462 119807 net.cpp:380] loss3/loss3 -> loss3/loss3
…
