…
I0509 17:30:30.257546 120071 net.cpp:294] The NetState phase (0) differed from the phase (1) specified by a rule in layer loss3/top-5
I0509 17:30:30.258419 120071 net.cpp:51] Initializing net from parameters: 
name: "GoogleNet"
state {
  phase: TRAIN
  level: 0
  stage: ""
}
layer {
  name: "data"
  type: "Data"
  top: "data"
  top: "label"
  include {
    phase: TRAIN
  }
  transform_param {
    mirror: true
    crop_size: 224
    mean_value: 104
    mean_value: 117
    mean_value: 123
  }
  data_param {
    source: "examples/imagenet/ilsvrc12_train_lmdb"
    batch_size: 32
    backend: LMDB
  }
}
layer {
  name: "conv1/7x7_s2"
  type: "Convolution"
  bottom: "data"
  top: "conv1/7x7_s2"
  param {
    lr_mult: 1
    decay_mult: 1
  }
  param {
    lr_mult: 2
    decay_mult: 0
  }
  convolution_param {
    num_output: 64
    pad: 3
    kernel_size: 7
    stride: 2
    weight_filler {
      type: "xavier"
    }
    bias_filler {
      type: "constant"
      value: 0.2
    }
  }
}
layer {
  name: "conv1/relu_7x7"
  type: "ReLU"
  bottom: "conv1/7x7_s2"
  top: "conv1/7x7_s2"
}
layer {
  name: "pool1/3x3_s2"
  type: "Pooling"
  bottom: "conv1/7x7_s2"
  top: "pool1/3x3_s2"
  pooling_param {
    pool: MAX
    kernel_size: 3
    stride: 2
  }
}
layer {
  name: "pool1/norm1"
  type: "LRN"
  bottom: "pool1/3x3_s2"
  top: "pool1/norm1"
  lrn_param {
    local_size: 5
    alpha: 0.0001
    beta: 0.75
  }
}
layer {
  name: "conv2/3x3_reduce"
  type: "Convolution"
  bottom: "pool1/norm1"
  top: "conv2/3x3_reduce"
  param {
    lr_mult: 1
    decay_mult: 1
  }
  param {
    lr_mult: 2
    decay_mult: 0
  }
  convolution_param {
    num_output: 64
    kernel_size: 1
    weight_filler {
      type: "xavier"
    }
    bias_filler {
      type: "constant"
      value: 0.2
    }
  }
}
layer {
  name: "conv2/relu_3x3_reduce"
  type: "ReLU"
  bottom: "conv2/3x3_reduce"
  top: "conv2/3x3_reduce"
}
layer {
  name: "conv2/3x3"
  type: "Convolution"
  bottom: "conv2/3x3_reduce"
  top: "conv2/3x3"
  param {
    lr_mult: 1
    decay_mult: 1
  }
  param {
    lr_mult: 2
    decay_mult: 0
  }
  convolution_param {
    num_output: 192
    pad: 1
    kernel_size: 3
    weight_filler {
      type: "xavier"
    }
    bias_filler {
      type: "constant"
      value: 0.2
    }
  }
}
layer {
  name: "conv2/relu_3x3"
  type: "ReLU"
  bottom: "conv2/3x3"
  top: "conv2/3x3"
}
layer {
  name: "conv2/norm2"
  type: "LRN"
  bottom: "conv2/3x3"
  top: "conv2/norm2"
  lrn_param {
    local_size: 5
    alpha: 0.0001
    beta: 0.75
  }
}
layer {
  name: "pool2/3x3_s2"
  type: "Pooling"
  bottom: "conv2/norm2"
  top: "pool2/3x3_s2"
  pooling_param {
    pool: MAX
    kernel_size: 3
    stride: 2
  }
}
layer {
  name: "inception_3a/1x1"
  type: "Convolution"
  bottom: "pool2/3x3_s2"
  top: "inception_3a/1x1"
  param {
    lr_mult: 1
    decay_mult: 1
  }
  param {
    lr_mult: 2
    decay_mult: 0
  }
  convolution_param {
    num_output: 64
    kernel_size: 1
    weight_filler {
      type: "xavier"
    }
    bias_filler {
      type: "constant"
      value: 0.2
    }
  }
}
layer {
  name: "inception_3a/relu_1x1"
  type: "ReLU"
  bottom: "inception_3a/1x1"
  top: "inception_3a/1x1"
}
layer {
  name: "inception_3a/3x3_reduce"
  type: "Convolution"
  bottom: "pool2/3x3_s2"
  top: "inception_3a/3x3_reduce"
  param {
    lr_mult: 1
    decay_mult: 1
  }
  param {
    lr_mult: 2
    decay_mult: 0
  }
  convolution_param {
    num_output: 96
    kernel_size: 1
    weight_filler {
      type: "xavier"
    }
    bias_filler {
      type: "constant"
      value: 0.2
    }
  }
}
layer {
  name: "inception_3a/relu_3x3_reduce"
  type: "ReLU"
  bottom: "inception_3a/3x3_reduce"
  top: "inception_3a/3x3_reduce"
}
layer {
  name: "inception_3a/3x3"
  type: "Convolution"
  bottom: "inception_3a/3x3_reduce"
  top: "inception_3a/3x3"
  param {
    lr_mult: 1
    decay_mult: 1
  }
  param {
    lr_mult: 2
    decay_mult: 0
  }
  convolution_param {
    num_output: 128
    pad: 1
    kernel_size: 3
    weight_filler {
      type: "xavier"
    }
    bias_filler {
      type: "constant"
      value: 0.2
    }
  }
}
layer {
  name: "inception_3a/relu_3x3"
  type: "ReLU"
  bottom: "inception_3a/3x3"
  top: "inception_3a/3x3"
}
layer {
  name: "inception_3a/5x5_reduce"
  type: "Convolution"
  bottom: "pool2/3x3_s2"
  top: "inception_3a/5x5_reduce"
  param {
    lr_mult: 1
    decay_mult: 1
  }
  param {
    lr_mult: 2
    decay_mult: 0
  }
  convolution_param {
    num_output: 16
    kernel_size: 1
    weight_filler {
      type: "xavier"
    }
    bias_filler {
      type: "constant"
      value: 0.2
    }
  }
}
layer {
  name: "inception_3a/relu_5x5_reduce"
  type: "ReLU"
  bottom: "inception_3a/5x5_reduce"
  top: "inception_3a/5x5_reduce"
}
layer {
  name: "inception_3a/5x5"
  type: "Convolution"
  bottom: "inception_3a/5x5_reduce"
  top: "inception_3a/5x5"
  param {
    lr_mult: 1
    decay_mult: 1
  }
  param {
    lr_mult: 2
    decay_mult: 0
  }
  convolution_param {
    num_output: 32
    pad: 2
    kernel_size: 5
    weight_filler {
      type: "xavier"
    }
    bias_filler {
      type: "constant"
      value: 0.2
    }
  }
}
layer {
  name: "inception_3a/relu_5x5"
  type: "ReLU"
  bottom: "inception_3a/5x5"
  top: "inception_3a/5x5"
}
layer {
  name: "inception_3a/pool"
  type: "Pooling"
  bottom: "pool2/3x3_s2"
  top: "inception_3a/pool"
  pooling_param {
    pool: MAX
    kernel_size: 3
    stride: 1
    pad: 1
  }
}
layer {
  name: "inception_3a/pool_proj"
  type: "Convolution"
  bottom: "inception_3a/pool"
  top: "inception_3a/pool_proj"
  param {
    lr_mult: 1
    decay_mult: 1
  }
  param {
    lr_mult: 2
    decay_mult: 0
  }
  convolution_param {
    num_output: 32
    kernel_size: 1
    weight_filler {
      type: "xavier"
    }
    bias_filler {
      type: "constant"
      value: 0.2
    }
  }
}
layer {
  name: "inception_3a/relu_pool_proj"
  type: "ReLU"
  bottom: "inception_3a/pool_proj"
  top: "inception_3a/pool_proj"
}
layer {
  name: "inception_3a/output"
  type: "Concat"
  bottom: "inception_3a/1x1"
  bottom: "inception_3a/3x3"
  bottom: "inception_3a/5x5"
  bottom: "inception_3a/pool_proj"
  top: "inception_3a/output"
}
layer {
  name: "inception_3b/1x1"
  type: "Convolution"
  bottom: "inception_3a/output"
  top: "inception_3b/1x1"
  param {
    lr_mult: 1
    decay_mult: 1
  }
  param {
    lr_mult: 2
    decay_mult: 0
  }
  convolution_param {
    num_output: 128
    kernel_size: 1
    weight_filler {
      type: "xavier"
    }
    bias_filler {
      type: "constant"
      value: 0.2
    }
  }
}
layer {
  name: "inception_3b/relu_1x1"
  type: "ReLU"
  bottom: "inception_3b/1x1"
  top: "inception_3b/1x1"
}
layer {
  name: "inception_3b/3x3_reduce"
  type: "Convolution"
  bottom: "inception_3a/output"
  top: "inception_3b/3x3_reduce"
  param {
    lr_mult: 1
    decay_mult: 1
  }
  param {
    lr_mult: 2
    decay_mult: 0
  }
  convolution_param {
    num_output: 128
    kernel_size: 1
    weight_filler {
      type: "xavier"
    }
    bias_filler {
      type: "constant"
      value: 0.2
    }
  }
}
layer {
  name: "inception_3b/relu_3x3_reduce"
  type: "ReLU"
  bottom: "inception_3b/3x3_reduce"
  top: "inception_3b/3x3_reduce"
}
layer {
  name: "inception_3b/3x3"
  type: "Convolution"
  bottom: "inception_3b/3x3_reduce"
  top: "inception_3b/3x3"
  param {
    lr_mult: 1
    decay_mult: 1
  }
  param {
    lr_mult: 2
    decay_mult: 0
  }
  convolution_param {
    num_output: 192
    pad: 1
    kernel_size: 3
    weight_filler {
      type: "xavier"
    }
    bias_filler {
      type: "constant"
      value: 0.2
    }
  }
}
layer {
  name: "inception_3b/relu_3x3"
  type: "ReLU"
  bottom: "inception_3b/3x3"
  top: "inception_3b/3x3"
}
layer {
  name: "inception_3b/5x5_reduce"
  type: "Convolution"
  bottom: "inception_3a/output"
  top: "inception_3b/5x5_reduce"
  param {
    lr_mult: 1
    decay_mult: 1
  }
  param {
    lr_mult: 2
    decay_mult: 0
  }
  convolution_param {
    num_output: 32
    kernel_size: 1
    weight_filler {
      type: "xavier"
    }
    bias_filler {
      type: "constant"
      value: 0.2
    }
  }
}
layer {
  name: "inception_3b/relu_5x5_reduce"
  type: "ReLU"
  bottom: "inception_3b/5x5_reduce"
  top: "inception_3b/5x5_reduce"
}
layer {
  name: "inception_3b/5x5"
  type: "Convolution"
  bottom: "inception_3b/5x5_reduce"
  top: "inception_3b/5x5"
  param {
    lr_mult: 1
    decay_mult: 1
  }
  param {
    lr_mult: 2
    decay_mult: 0
  }
  convolution_param {
    num_output: 96
    pad: 2
    kernel_size: 5
    weight_filler {
      type: "xavier"
    }
    bias_filler {
      type: "constant"
      value: 0.2
    }
  }
}
layer {
  name: "inception_3b/relu_5x5"
  type: "ReLU"
  bottom: "inception_3b/5x5"
  top: "inception_3b/5x5"
}
layer {
  name: "inception_3b/pool"
  type: "Pooling"
  bottom: "inception_3a/output"
  top: "inception_3b/pool"
  pooling_param {
    pool: MAX
    kernel_size: 3
    stride: 1
    pad: 1
  }
}
layer {
  name: "inception_3b/pool_proj"
  type: "Convolution"
  bottom: "inception_3b/pool"
  top: "inception_3b/pool_proj"
  param {
    lr_mult: 1
    decay_mult: 1
  }
  param {
    lr_mult: 2
    decay_mult: 0
  }
  convolution_param {
    num_output: 64
    kernel_size: 1
    weight_filler {
      type: "xavier"
    }
    bias_filler {
      type: "constant"
      value: 0.2
    }
  }
}
layer {
  name: "inception_3b/relu_pool_proj"
  type: "ReLU"
  bottom: "inception_3b/pool_proj"
  top: "inception_3b/pool_proj"
}
layer {
  name: "inception_3b/output"
  type: "Concat"
  bottom: "inception_3b/1x1"
  bottom: "inception_3b/3x3"
  bottom: "inception_3b/5x5"
  bottom: "inception_3b/pool_proj"
  top: "inception_3b/output"
}
layer {
  name: "pool3/3x3_s2"
  type: "Pooling"
  bottom: "inception_3b/output"
  top: "pool3/3x3_s2"
  pooling_param {
    pool: MAX
    kernel_size: 3
    stride: 2
  }
}
layer {
  name: "inception_4a/1x1"
  type: "Convolution"
  bottom: "pool3/3x3_s2"
  top: "inception_4a/1x1"
  param {
    lr_mult: 1
    decay_mult: 1
  }
  param {
    lr_mult: 2
    decay_mult: 0
  }
  convolution_param {
    num_output: 192
    kernel_size: 1
    weight_filler {
      type: "xavier"
    }
    bias_filler {
      type: "constant"
      value: 0.2
    }
  }
}
layer {
  name: "inception_4a/relu_1x1"
  type: "ReLU"
  bottom: "inception_4a/1x1"
  top: "inception_4a/1x1"
}
layer {
  name: "inception_4a/3x3_reduce"
  type: "Convolution"
  bottom: "pool3/3x3_s2"
  top: "inception_4a/3x3_reduce"
  param {
    lr_mult: 1
    decay_mult: 1
  }
  param {
    lr_mult: 2
    decay_mult: 0
  }
  convolution_param {
    num_output: 96
    kernel_size: 1
    weight_filler {
      type: "xavier"
    }
    bias_filler {
      type: "constant"
      value: 0.2
    }
  }
}
layer {
  name: "inception_4a/relu_3x3_reduce"
  type: "ReLU"
  bottom: "inception_4a/3x3_reduce"
  top: "inception_4a/3x3_reduce"
}
layer {
  name: "inception_4a/3x3"
  type: "Convolution"
  bottom: "inception_4a/3x3_reduce"
  top: "inception_4a/3x3"
  param {
    lr_mult: 1
    decay_mult: 1
  }
  param {
    lr_mult: 2
    decay_mult: 0
  }
  convolution_param {
    num_output: 208
    pad: 1
    kernel_size: 3
    weight_filler {
      type: "xavier"
    }
    bias_filler {
      type: "constant"
      value: 0.2
    }
  }
}
layer {
  name: "inception_4a/relu_3x3"
  type: "ReLU"
  bottom: "inception_4a/3x3"
  top: "inception_4a/3x3"
}
layer {
  name: "inception_4a/5x5_reduce"
  type: "Convolution"
  bottom: "pool3/3x3_s2"
  top: "inception_4a/5x5_reduce"
  param {
    lr_mult: 1
    decay_mult: 1
  }
  param {
    lr_mult: 2
    decay_mult: 0
  }
  convolution_param {
    num_output: 16
    kernel_size: 1
    weight_filler {
      type: "xavier"
    }
    bias_filler {
      type: "constant"
      value: 0.2
    }
  }
}
layer {
  name: "inception_4a/relu_5x5_reduce"
  type: "ReLU"
  bottom: "inception_4a/5x5_reduce"
  top: "inception_4a/5x5_reduce"
}
layer {
  name: "inception_4a/5x5"
  type: "Convolution"
  bottom: "inception_4a/5x5_reduce"
  top: "inception_4a/5x5"
  param {
    lr_mult: 1
    decay_mult: 1
  }
  param {
    lr_mult: 2
    decay_mult: 0
  }
  convolution_param {
    num_output: 48
    pad: 2
    kernel_size: 5
    weight_filler {
      type: "xavier"
    }
    bias_filler {
      type: "constant"
      value: 0.2
    }
  }
}
layer {
  name: "inception_4a/relu_5x5"
  type: "ReLU"
  bottom: "inception_4a/5x5"
  top: "inception_4a/5x5"
}
layer {
  name: "inception_4a/pool"
  type: "Pooling"
  bottom: "pool3/3x3_s2"
  top: "inception_4a/pool"
  pooling_param {
    pool: MAX
    kernel_size: 3
    stride: 1
    pad: 1
  }
}
layer {
  name: "inception_4a/pool_proj"
  type: "Convolution"
  bottom: "inception_4a/pool"
  top: "inception_4a/pool_proj"
  param {
    lr_mult: 1
    decay_mult: 1
  }
  param {
    lr_mult: 2
    decay_mult: 0
  }
  convolution_param {
    num_output: 64
    kernel_size: 1
    weight_filler {
      type: "xavier"
    }
    bias_filler {
      type: "constant"
      value: 0.2
    }
  }
}
layer {
  name: "inception_4a/relu_pool_proj"
  type: "ReLU"
  bottom: "inception_4a/pool_proj"
  top: "inception_4a/pool_proj"
}
layer {
  name: "inception_4a/output"
  type: "Concat"
  bottom: "inception_4a/1x1"
  bottom: "inception_4a/3x3"
  bottom: "inception_4a/5x5"
  bottom: "inception_4a/pool_proj"
  top: "inception_4a/output"
}
layer {
  name: "loss1/ave_pool"
  type: "Pooling"
  bottom: "inception_4a/output"
  top: "loss1/ave_pool"
  pooling_param {
    pool: AVE
    kernel_size: 5
    stride: 3
  }
}
layer {
  name: "loss1/conv"
  type: "Convolution"
  bottom: "loss1/ave_pool"
  top: "loss1/conv"
  param {
    lr_mult: 1
    decay_mult: 1
  }
  param {
    lr_mult: 2
    decay_mult: 0
  }
  convolution_param {
    num_output: 128
    kernel_size: 1
    weight_filler {
      type: "xavier"
    }
    bias_filler {
      type: "constant"
      value: 0.2
    }
  }
}
layer {
  name: "loss1/relu_conv"
  type: "ReLU"
  bottom: "loss1/conv"
  top: "loss1/conv"
}
layer {
  name: "loss1/fc"
  type: "InnerProduct"
  bottom: "loss1/conv"
  top: "loss1/fc"
  param {
    lr_mult: 1
    decay_mult: 1
  }
  param {
    lr_mult: 2
    decay_mult: 0
  }
  inner_product_param {
    num_output: 1024
    weight_filler {
      type: "xavier"
    }
    bias_filler {
      type: "constant"
      value: 0.2
    }
  }
}
layer {
  name: "loss1/relu_fc"
  type: "ReLU"
  bottom: "loss1/fc"
  top: "loss1/fc"
}
layer {
  name: "loss1/drop_fc"
  type: "Dropout"
  bottom: "loss1/fc"
  top: "loss1/fc"
  dropout_param {
    dropout_ratio: 0.7
  }
}
layer {
  name: "loss1/classifier"
  type: "InnerProduct"
  bottom: "loss1/fc"
  top: "loss1/classifier"
  param {
    lr_mult: 1
    decay_mult: 1
  }
  param {
    lr_mult: 2
    decay_mult: 0
  }
  inner_product_param {
    num_output: 1000
    weight_filler {
      type: "xavier"
    }
    bias_filler {
      type: "constant"
      value: 0
    }
  }
}
layer {
  name: "loss1/loss"
  type: "SoftmaxWithLoss"
  bottom: "loss1/classifier"
  bottom: "label"
  top: "loss1/loss1"
  loss_weight: 0.3
}
layer {
  name: "inception_4b/1x1"
  type: "Convolution"
  bottom: "inception_4a/output"
  top: "inception_4b/1x1"
  param {
    lr_mult: 1
    decay_mult: 1
  }
  param {
    lr_mult: 2
    decay_mult: 0
  }
  convolution_param {
    num_output: 160
    kernel_size: 1
    weight_filler {
      type: "xavier"
    }
    bias_filler {
      type: "constant"
      value: 0.2
    }
  }
}
layer {
  name: "inception_4b/relu_1x1"
  type: "ReLU"
  bottom: "inception_4b/1x1"
  top: "inception_4b/1x1"
}
layer {
  name: "inception_4b/3x3_reduce"
  type: "Convolution"
  bottom: "inception_4a/output"
  top: "inception_4b/3x3_reduce"
  param {
    lr_mult: 1
    decay_mult: 1
  }
  param {
    lr_mult: 2
    decay_mult: 0
  }
  convolution_param {
    num_output: 112
    kernel_size: 1
    weight_filler {
      type: "xavier"
    }
    bias_filler {
      type: "constant"
      value: 0.2
    }
  }
}
layer {
  name: "inception_4b/relu_3x3_reduce"
  type: "ReLU"
  bottom: "inception_4b/3x3_reduce"
  top: "inception_4b/3x3_reduce"
}
layer {
  name: "inception_4b/3x3"
  type: "Convolution"
  bottom: "inception_4b/3x3_reduce"
  top: "inception_4b/3x3"
  param {
    lr_mult: 1
    decay_mult: 1
  }
  param {
    lr_mult: 2
    decay_mult: 0
  }
  convolution_param {
    num_output: 224
    pad: 1
    kernel_size: 3
    weight_filler {
      type: "xavier"
    }
    bias_filler {
      type: "constant"
      value: 0.2
    }
  }
}
layer {
  name: "inception_4b/relu_3x3"
  type: "ReLU"
  bottom: "inception_4b/3x3"
  top: "inception_4b/3x3"
}
layer {
  name: "inception_4b/5x5_reduce"
  type: "Convolution"
  bottom: "inception_4a/output"
  top: "inception_4b/5x5_reduce"
  param {
    lr_mult: 1
    decay_mult: 1
  }
  param {
    lr_mult: 2
    decay_mult: 0
  }
  convolution_param {
    num_output: 24
    kernel_size: 1
    weight_filler {
      type: "xavier"
    }
    bias_filler {
      type: "constant"
      value: 0.2
    }
  }
}
layer {
  name: "inception_4b/relu_5x5_reduce"
  type: "ReLU"
  bottom: "inception_4b/5x5_reduce"
  top: "inception_4b/5x5_reduce"
}
layer {
  name: "inception_4b/5x5"
  type: "Convolution"
  bottom: "inception_4b/5x5_reduce"
  top: "inception_4b/5x5"
  param {
    lr_mult: 1
    decay_mult: 1
  }
  param {
    lr_mult: 2
    decay_mult: 0
  }
  convolution_param {
    num_output: 64
    pad: 2
    kernel_size: 5
    weight_filler {
      type: "xavier"
    }
    bias_filler {
      type: "constant"
      value: 0.2
    }
  }
}
layer {
  name: "inception_4b/relu_5x5"
  type: "ReLU"
  bottom: "inception_4b/5x5"
  top: "inception_4b/5x5"
}
layer {
  name: "inception_4b/pool"
  type: "Pooling"
  bottom: "inception_4a/output"
  top: "inception_4b/pool"
  pooling_param {
    pool: MAX
    kernel_size: 3
    stride: 1
    pad: 1
  }
}
layer {
  name: "inception_4b/pool_proj"
  type: "Convolution"
  bottom: "inception_4b/pool"
  top: "inception_4b/pool_proj"
  param {
    lr_mult: 1
    decay_mult: 1
  }
  param {
    lr_mult: 2
    decay_mult: 0
  }
  convolution_param {
    num_output: 64
    kernel_size: 1
    weight_filler {
      type: "xavier"
    }
    bias_filler {
      type: "constant"
      value: 0.2
    }
  }
}
layer {
  name: "inception_4b/relu_pool_proj"
  type: "ReLU"
  bottom: "inception_4b/pool_proj"
  top: "inception_4b/pool_proj"
}
layer {
  name: "inception_4b/output"
  type: "Concat"
  bottom: "inception_4b/1x1"
  bottom: "inception_4b/3x3"
  bottom: "inception_4b/5x5"
  bottom: "inception_4b/pool_proj"
  top: "inception_4b/output"
}
layer {
  name: "inception_4c/1x1"
  type: "Convolution"
  bottom: "inception_4b/output"
  top: "inception_4c/1x1"
  param {
    lr_mult: 1
    decay_mult: 1
  }
  param {
    lr_mult: 2
    decay_mult: 0
  }
  convolution_param {
    num_output: 128
    kernel_size: 1
    weight_filler {
      type: "xavier"
    }
    bias_filler {
      type: "constant"
      value: 0.2
    }
  }
}
layer {
  name: "inception_4c/relu_1x1"
  type: "ReLU"
  bottom: "inception_4c/1x1"
  top: "inception_4c/1x1"
}
layer {
  name: "inception_4c/3x3_reduce"
  type: "Convolution"
  bottom: "inception_4b/output"
  top: "inception_4c/3x3_reduce"
  param {
    lr_mult: 1
    decay_mult: 1
  }
  param {
    lr_mult: 2
    decay_mult: 0
  }
  convolution_param {
    num_output: 128
    kernel_size: 1
    weight_filler {
      type: "xavier"
    }
    bias_filler {
      type: "constant"
      value: 0.2
    }
  }
}
layer {
  name: "inception_4c/relu_3x3_reduce"
  type: "ReLU"
  bottom: "inception_4c/3x3_reduce"
  top: "inception_4c/3x3_reduce"
}
layer {
  name: "inception_4c/3x3"
  type: "Convolution"
  bottom: "inception_4c/3x3_reduce"
  top: "inception_4c/3x3"
  param {
    lr_mult: 1
    decay_mult: 1
  }
  param {
    lr_mult: 2
    decay_mult: 0
  }
  convolution_param {
    num_output: 256
    pad: 1
    kernel_size: 3
    weight_filler {
      type: "xavier"
    }
    bias_filler {
      type: "constant"
      value: 0.2
    }
  }
}
layer {
  name: "inception_4c/relu_3x3"
  type: "ReLU"
  bottom: "inception_4c/3x3"
  top: "inception_4c/3x3"
}
layer {
  name: "inception_4c/5x5_reduce"
  type: "Convolution"
  bottom: "inception_4b/output"
  top: "inception_4c/5x5_reduce"
  param {
    lr_mult: 1
    decay_mult: 1
  }
  param {
    lr_mult: 2
    decay_mult: 0
  }
  convolution_param {
    num_output: 24
    kernel_size: 1
    weight_filler {
      type: "xavier"
    }
    bias_filler {
      type: "constant"
      value: 0.2
    }
  }
}
layer {
  name: "inception_4c/relu_5x5_reduce"
  type: "ReLU"
  bottom: "inception_4c/5x5_reduce"
  top: "inception_4c/5x5_reduce"
}
layer {
  name: "inception_4c/5x5"
  type: "Convolution"
  bottom: "inception_4c/5x5_reduce"
  top: "inception_4c/5x5"
  param {
    lr_mult: 1
    decay_mult: 1
  }
  param {
    lr_mult: 2
    decay_mult: 0
  }
  convolution_param {
    num_output: 64
    pad: 2
    kernel_size: 5
    weight_filler {
      type: "xavier"
    }
    bias_filler {
      type: "constant"
      value: 0.2
    }
  }
}
layer {
  name: "inception_4c/relu_5x5"
  type: "ReLU"
  bottom: "inception_4c/5x5"
  top: "inception_4c/5x5"
}
layer {
  name: "inception_4c/pool"
  type: "Pooling"
  bottom: "inception_4b/output"
  top: "inception_4c/pool"
  pooling_param {
    pool: MAX
    kernel_size: 3
    stride: 1
    pad: 1
  }
}
layer {
  name: "inception_4c/pool_proj"
  type: "Convolution"
  bottom: "inception_4c/pool"
  top: "inception_4c/pool_proj"
  param {
    lr_mult: 1
    decay_mult: 1
  }
  param {
    lr_mult: 2
    decay_mult: 0
  }
  convolution_param {
    num_output: 64
    kernel_size: 1
    weight_filler {
      type: "xavier"
    }
    bias_filler {
      type: "constant"
      value: 0.2
    }
  }
}
layer {
  name: "inception_4c/relu_pool_proj"
  type: "ReLU"
  bottom: "inception_4c/pool_proj"
  top: "inception_4c/pool_proj"
}
layer {
  name: "inception_4c/output"
  type: "Concat"
  bottom: "inception_4c/1x1"
  bottom: "inception_4c/3x3"
  bottom: "inception_4c/5x5"
  bottom: "inception_4c/pool_proj"
  top: "inception_4c/output"
}
layer {
  name: "inception_4d/1x1"
  type: "Convolution"
  bottom: "inception_4c/output"
  top: "inception_4d/1x1"
  param {
    lr_mult: 1
    decay_mult: 1
  }
  param {
    lr_mult: 2
    decay_mult: 0
  }
  convolution_param {
    num_output: 112
    kernel_size: 1
    weight_filler {
      type: "xavier"
    }
    bias_filler {
      type: "constant"
      value: 0.2
    }
  }
}
layer {
  name: "inception_4d/relu_1x1"
  type: "ReLU"
  bottom: "inception_4d/1x1"
  top: "inception_4d/1x1"
}
layer {
  name: "inception_4d/3x3_reduce"
  type: "Convolution"
  bottom: "inception_4c/output"
  top: "inception_4d/3x3_reduce"
  param {
    lr_mult: 1
    decay_mult: 1
  }
  param {
    lr_mult: 2
    decay_mult: 0
  }
  convolution_param {
    num_output: 144
    kernel_size: 1
    weight_filler {
      type: "xavier"
    }
    bias_filler {
      type: "constant"
      value: 0.2
    }
  }
}
layer {
  name: "inception_4d/relu_3x3_reduce"
  type: "ReLU"
  bottom: "inception_4d/3x3_reduce"
  top: "inception_4d/3x3_reduce"
}
layer {
  name: "inception_4d/3x3"
  type: "Convolution"
  bottom: "inception_4d/3x3_reduce"
  top: "inception_4d/3x3"
  param {
    lr_mult: 1
    decay_mult: 1
  }
  param {
    lr_mult: 2
    decay_mult: 0
  }
  convolution_param {
    num_output: 288
    pad: 1
    kernel_size: 3
    weight_filler {
      type: "xavier"
    }
    bias_filler {
      type: "constant"
      value: 0.2
    }
  }
}
layer {
  name: "inception_4d/relu_3x3"
  type: "ReLU"
  bottom: "inception_4d/3x3"
  top: "inception_4d/3x3"
}
layer {
  name: "inception_4d/5x5_reduce"
  type: "Convolution"
  bottom: "inception_4c/output"
  top: "inception_4d/5x5_reduce"
  param {
    lr_mult: 1
    decay_mult: 1
  }
  param {
    lr_mult: 2
    decay_mult: 0
  }
  convolution_param {
    num_output: 32
    kernel_size: 1
    weight_filler {
      type: "xavier"
    }
    bias_filler {
      type: "constant"
      value: 0.2
    }
  }
}
layer {
  name: "inception_4d/relu_5x5_reduce"
  type: "ReLU"
  bottom: "inception_4d/5x5_reduce"
  top: "inception_4d/5x5_reduce"
}
layer {
  name: "inception_4d/5x5"
  type: "Convolution"
  bottom: "inception_4d/5x5_reduce"
  top: "inception_4d/5x5"
  param {
    lr_mult: 1
    decay_mult: 1
  }
  param {
    lr_mult: 2
    decay_mult: 0
  }
  convolution_param {
    num_output: 64
    pad: 2
    kernel_size: 5
    weight_filler {
      type: "xavier"
    }
    bias_filler {
      type: "constant"
      value: 0.2
    }
  }
}
layer {
  name: "inception_4d/relu_5x5"
  type: "ReLU"
  bottom: "inception_4d/5x5"
  top: "inception_4d/5x5"
}
layer {
  name: "inception_4d/pool"
  type: "Pooling"
  bottom: "inception_4c/output"
  top: "inception_4d/pool"
  pooling_param {
    pool: MAX
    kernel_size: 3
    stride: 1
    pad: 1
  }
}
layer {
  name: "inception_4d/pool_proj"
  type: "Convolution"
  bottom: "inception_4d/pool"
  top: "inception_4d/pool_proj"
  param {
    lr_mult: 1
    decay_mult: 1
  }
  param {
    lr_mult: 2
    decay_mult: 0
  }
  convolution_param {
    num_output: 64
    kernel_size: 1
    weight_filler {
      type: "xavier"
    }
    bias_filler {
      type: "constant"
      value: 0.2
    }
  }
}
layer {
  name: "inception_4d/relu_pool_proj"
  type: "ReLU"
  bottom: "inception_4d/pool_proj"
  top: "inception_4d/pool_proj"
}
layer {
  name: "inception_4d/output"
  type: "Concat"
  bottom: "inception_4d/1x1"
  bottom: "inception_4d/3x3"
  bottom: "inception_4d/5x5"
  bottom: "inception_4d/pool_proj"
  top: "inception_4d/output"
}
layer {
  name: "loss2/ave_pool"
  type: "Pooling"
  bottom: "inception_4d/output"
  top: "loss2/ave_pool"
  pooling_param {
    pool: AVE
    kernel_size: 5
    stride: 3
  }
}
layer {
  name: "loss2/conv"
  type: "Convolution"
  bottom: "loss2/ave_pool"
  top: "loss2/conv"
  param {
    lr_mult: 1
    decay_mult: 1
  }
  param {
    lr_mult: 2
    decay_mult: 0
  }
  convolution_param {
    num_output: 128
    kernel_size: 1
    weight_filler {
      type: "xavier"
    }
    bias_filler {
      type: "constant"
      value: 0.2
    }
  }
}
layer {
  name: "loss2/relu_conv"
  type: "ReLU"
  bottom: "loss2/conv"
  top: "loss2/conv"
}
layer {
  name: "loss2/fc"
  type: "InnerProduct"
  bottom: "loss2/conv"
  top: "loss2/fc"
  param {
    lr_mult: 1
    decay_mult: 1
  }
  param {
    lr_mult: 2
    decay_mult: 0
  }
  inner_product_param {
    num_output: 1024
    weight_filler {
      type: "xavier"
    }
    bias_filler {
      type: "constant"
      value: 0.2
    }
  }
}
layer {
  name: "loss2/relu_fc"
  type: "ReLU"
  bottom: "loss2/fc"
  top: "loss2/fc"
}
layer {
  name: "loss2/drop_fc"
  type: "Dropout"
  bottom: "loss2/fc"
  top: "loss2/fc"
  dropout_param {
    dropout_ratio: 0.7
  }
}
layer {
  name: "loss2/classifier"
  type: "InnerProduct"
  bottom: "loss2/fc"
  top: "loss2/classifier"
  param {
    lr_mult: 1
    decay_mult: 1
  }
  param {
    lr_mult: 2
    decay_mult: 0
  }
  inner_product_param {
    num_output: 1000
    weight_filler {
      type: "xavier"
    }
    bias_filler {
      type: "constant"
      value: 0
    }
  }
}
layer {
  name: "loss2/loss"
  type: "SoftmaxWithLoss"
  bottom: "loss2/classifier"
  bottom: "label"
  top: "loss2/loss2"
  loss_weight: 0.3
}
layer {
  name: "inception_4e/1x1"
  type: "Convolution"
  bottom: "inception_4d/output"
  top: "inception_4e/1x1"
  param {
    lr_mult: 1
    decay_mult: 1
  }
  param {
    lr_mult: 2
    decay_mult: 0
  }
  convolution_param {
    num_output: 256
    kernel_size: 1
    weight_filler {
      type: "xavier"
    }
    bias_filler {
      type: "constant"
      value: 0.2
    }
  }
}
layer {
  name: "inception_4e/relu_1x1"
  type: "ReLU"
  bottom: "inception_4e/1x1"
  top: "inception_4e/1x1"
}
layer {
  name: "inception_4e/3x3_reduce"
  type: "Convolution"
  bottom: "inception_4d/output"
  top: "inception_4e/3x3_reduce"
  param {
    lr_mult: 1
    decay_mult: 1
  }
  param {
    lr_mult: 2
    decay_mult: 0
  }
  convolution_param {
    num_output: 160
    kernel_size: 1
    weight_filler {
      type: "xavier"
    }
    bias_filler {
      type: "constant"
      value: 0.2
    }
  }
}
layer {
  name: "inception_4e/relu_3x3_reduce"
  type: "ReLU"
  bottom: "inception_4e/3x3_reduce"
  top: "inception_4e/3x3_reduce"
}
layer {
  name: "inception_4e/3x3"
  type: "Convolution"
  bottom: "inception_4e/3x3_reduce"
  top: "inception_4e/3x3"
  param {
    lr_mult: 1
    decay_mult: 1
  }
  param {
    lr_mult: 2
    decay_mult: 0
  }
  convolution_param {
    num_output: 320
    pad: 1
    kernel_size: 3
    weight_filler {
      type: "xavier"
    }
    bias_filler {
      type: "constant"
      value: 0.2
    }
  }
}
layer {
  name: "inception_4e/relu_3x3"
  type: "ReLU"
  bottom: "inception_4e/3x3"
  top: "inception_4e/3x3"
}
layer {
  name: "inception_4e/5x5_reduce"
  type: "Convolution"
  bottom: "inception_4d/output"
  top: "inception_4e/5x5_reduce"
  param {
    lr_mult: 1
    decay_mult: 1
  }
  param {
    lr_mult: 2
    decay_mult: 0
  }
  convolution_param {
    num_output: 32
    kernel_size: 1
    weight_filler {
      type: "xavier"
    }
    bias_filler {
      type: "constant"
      value: 0.2
    }
  }
}
layer {
  name: "inception_4e/relu_5x5_reduce"
  type: "ReLU"
  bottom: "inception_4e/5x5_reduce"
  top: "inception_4e/5x5_reduce"
}
layer {
  name: "inception_4e/5x5"
  type: "Convolution"
  bottom: "inception_4e/5x5_reduce"
  top: "inception_4e/5x5"
  param {
    lr_mult: 1
    decay_mult: 1
  }
  param {
    lr_mult: 2
    decay_mult: 0
  }
  convolution_param {
    num_output: 128
    pad: 2
    kernel_size: 5
    weight_filler {
      type: "xavier"
    }
    bias_filler {
      type: "constant"
      value: 0.2
    }
  }
}
layer {
  name: "inception_4e/relu_5x5"
  type: "ReLU"
  bottom: "inception_4e/5x5"
  top: "inception_4e/5x5"
}
layer {
  name: "inception_4e/pool"
  type: "Pooling"
  bottom: "inception_4d/output"
  top: "inception_4e/pool"
  pooling_param {
    pool: MAX
    kerne
I0509 17:30:30.259064 120071 layer_factory.hpp:77] Creating layer data
I0509 17:30:30.259140 120071 db_lmdb.cpp:35] Opened lmdb examples/imagenet/ilsvrc12_train_lmdb
I0509 17:30:30.259166 120071 net.cpp:84] Creating Layer data
I0509 17:30:30.259172 120071 net.cpp:380] data -> data
I0509 17:30:30.259188 120071 net.cpp:380] data -> label
I0509 17:30:30.259707 120071 data_layer.cpp:45] output data size: 32,3,224,224
I0509 17:30:30.259766 120071 net.cpp:122] Setting up data
I0509 17:30:30.259776 120071 net.cpp:129] Top shape: 32 3 224 224 (4816896)
I0509 17:30:30.259780 120071 net.cpp:129] Top shape: 32 (32)
I0509 17:30:30.259783 120071 net.cpp:137] Memory required for data: 19267712
I0509 17:30:30.259789 120071 layer_factory.hpp:77] Creating layer label_data_1_split
I0509 17:30:30.259796 120071 net.cpp:84] Creating Layer label_data_1_split
I0509 17:30:30.259800 120071 net.cpp:406] label_data_1_split <- label
I0509 17:30:30.259809 120071 net.cpp:380] label_data_1_split -> label_data_1_split_0
I0509 17:30:30.259817 120071 net.cpp:380] label_data_1_split -> label_data_1_split_1
I0509 17:30:30.259822 120071 net.cpp:380] label_data_1_split -> label_data_1_split_2
I0509 17:30:30.259830 120071 net.cpp:122] Setting up label_data_1_split
I0509 17:30:30.259840 120071 net.cpp:129] Top shape: 32 (32)
I0509 17:30:30.259850 120071 net.cpp:129] Top shape: 32 (32)
I0509 17:30:30.259852 120071 net.cpp:129] Top shape: 32 (32)
I0509 17:30:30.259855 120071 net.cpp:137] Memory required for data: 19268096
I0509 17:30:30.259857 120071 layer_factory.hpp:77] Creating layer conv1/7x7_s2
I0509 17:30:30.259868 120071 net.cpp:84] Creating Layer conv1/7x7_s2
I0509 17:30:30.259872 120071 net.cpp:406] conv1/7x7_s2 <- data
I0509 17:30:30.259878 120071 net.cpp:380] conv1/7x7_s2 -> conv1/7x7_s2
I0509 17:30:30.259888 120071 base_conv_layer.cpp:121] Group is 1channel is3number of output is 64
I0509 17:30:30.260004 120071 net.cpp:122] Setting up conv1/7x7_s2
I0509 17:30:30.260012 120071 net.cpp:129] Top shape: 32 64 112 112 (25690112)
I0509 17:30:30.260015 120071 net.cpp:137] Memory required for data: 122028544
I0509 17:30:30.260027 120071 layer_factory.hpp:77] Creating layer conv1/relu_7x7
I0509 17:30:30.260035 120071 net.cpp:84] Creating Layer conv1/relu_7x7
I0509 17:30:30.260063 120071 net.cpp:406] conv1/relu_7x7 <- conv1/7x7_s2
I0509 17:30:30.260069 120071 net.cpp:367] conv1/relu_7x7 -> conv1/7x7_s2 (in-place)
I0509 17:30:30.260076 120071 net.cpp:122] Setting up conv1/relu_7x7
I0509 17:30:30.260082 120071 net.cpp:129] Top shape: 32 64 112 112 (25690112)
I0509 17:30:30.260084 120071 net.cpp:137] Memory required for data: 224788992
I0509 17:30:30.260087 120071 layer_factory.hpp:77] Creating layer pool1/3x3_s2
I0509 17:30:30.260095 120071 net.cpp:84] Creating Layer pool1/3x3_s2
I0509 17:30:30.260099 120071 net.cpp:406] pool1/3x3_s2 <- conv1/7x7_s2
I0509 17:30:30.260104 120071 net.cpp:380] pool1/3x3_s2 -> pool1/3x3_s2
I0509 17:30:30.260118 120071 net.cpp:122] Setting up pool1/3x3_s2
I0509 17:30:30.260123 120071 net.cpp:129] Top shape: 32 64 56 56 (6422528)
I0509 17:30:30.260126 120071 net.cpp:137] Memory required for data: 250479104
I0509 17:30:30.260129 120071 layer_factory.hpp:77] Creating layer pool1/norm1
I0509 17:30:30.260135 120071 net.cpp:84] Creating Layer pool1/norm1
I0509 17:30:30.260138 120071 net.cpp:406] pool1/norm1 <- pool1/3x3_s2
I0509 17:30:30.260144 120071 net.cpp:380] pool1/norm1 -> pool1/norm1
I0509 17:30:30.260151 120071 net.cpp:122] Setting up pool1/norm1
I0509 17:30:30.260156 120071 net.cpp:129] Top shape: 32 64 56 56 (6422528)
I0509 17:30:30.260159 120071 net.cpp:137] Memory required for data: 276169216
I0509 17:30:30.260164 120071 layer_factory.hpp:77] Creating layer conv2/3x3_reduce
I0509 17:30:30.260171 120071 net.cpp:84] Creating Layer conv2/3x3_reduce
I0509 17:30:30.260175 120071 net.cpp:406] conv2/3x3_reduce <- pool1/norm1
I0509 17:30:30.260181 120071 net.cpp:380] conv2/3x3_reduce -> conv2/3x3_reduce
I0509 17:30:30.260192 120071 base_conv_layer.cpp:121] Group is 1channel is64number of output is 64
I0509 17:30:30.260236 120071 net.cpp:122] Setting up conv2/3x3_reduce
I0509 17:30:30.260242 120071 net.cpp:129] Top shape: 32 64 56 56 (6422528)
I0509 17:30:30.260246 120071 net.cpp:137] Memory required for data: 301859328
I0509 17:30:30.260254 120071 layer_factory.hpp:77] Creating layer conv2/relu_3x3_reduce
I0509 17:30:30.260259 120071 net.cpp:84] Creating Layer conv2/relu_3x3_reduce
I0509 17:30:30.260262 120071 net.cpp:406] conv2/relu_3x3_reduce <- conv2/3x3_reduce
I0509 17:30:30.260270 120071 net.cpp:367] conv2/relu_3x3_reduce -> conv2/3x3_reduce (in-place)
I0509 17:30:30.260275 120071 net.cpp:122] Setting up conv2/relu_3x3_reduce
I0509 17:30:30.260280 120071 net.cpp:129] Top shape: 32 64 56 56 (6422528)
I0509 17:30:30.260283 120071 net.cpp:137] Memory required for data: 327549440
I0509 17:30:30.260287 120071 layer_factory.hpp:77] Creating layer conv2/3x3
I0509 17:30:30.260295 120071 net.cpp:84] Creating Layer conv2/3x3
I0509 17:30:30.260299 120071 net.cpp:406] conv2/3x3 <- conv2/3x3_reduce
I0509 17:30:30.260304 120071 net.cpp:380] conv2/3x3 -> conv2/3x3
I0509 17:30:30.260313 120071 base_conv_layer.cpp:121] Group is 1channel is64number of output is 192
I0509 17:30:30.261020 120071 net.cpp:122] Setting up conv2/3x3
I0509 17:30:30.261026 120071 net.cpp:129] Top shape: 32 192 56 56 (19267584)
I0509 17:30:30.261034 120071 net.cpp:137] Memory required for data: 404619776
I0509 17:30:30.261047 120071 layer_factory.hpp:77] Creating layer conv2/relu_3x3
I0509 17:30:30.261052 120071 net.cpp:84] Creating Layer conv2/relu_3x3
I0509 17:30:30.261055 120071 net.cpp:406] conv2/relu_3x3 <- conv2/3x3
I0509 17:30:30.261059 120071 net.cpp:367] conv2/relu_3x3 -> conv2/3x3 (in-place)
I0509 17:30:30.261063 120071 net.cpp:122] Setting up conv2/relu_3x3
I0509 17:30:30.261068 120071 net.cpp:129] Top shape: 32 192 56 56 (19267584)
I0509 17:30:30.261070 120071 net.cpp:137] Memory required for data: 481690112
I0509 17:30:30.261073 120071 layer_factory.hpp:77] Creating layer conv2/norm2
I0509 17:30:30.261078 120071 net.cpp:84] Creating Layer conv2/norm2
I0509 17:30:30.261081 120071 net.cpp:406] conv2/norm2 <- conv2/3x3
I0509 17:30:30.261085 120071 net.cpp:380] conv2/norm2 -> conv2/norm2
I0509 17:30:30.261090 120071 net.cpp:122] Setting up conv2/norm2
I0509 17:30:30.261095 120071 net.cpp:129] Top shape: 32 192 56 56 (19267584)
I0509 17:30:30.261097 120071 net.cpp:137] Memory required for data: 558760448
I0509 17:30:30.261101 120071 layer_factory.hpp:77] Creating layer pool2/3x3_s2
I0509 17:30:30.261103 120071 net.cpp:84] Creating Layer pool2/3x3_s2
I0509 17:30:30.261106 120071 net.cpp:406] pool2/3x3_s2 <- conv2/norm2
I0509 17:30:30.261111 120071 net.cpp:380] pool2/3x3_s2 -> pool2/3x3_s2
I0509 17:30:30.261116 120071 net.cpp:122] Setting up pool2/3x3_s2
I0509 17:30:30.261121 120071 net.cpp:129] Top shape: 32 192 28 28 (4816896)
I0509 17:30:30.261123 120071 net.cpp:137] Memory required for data: 578028032
I0509 17:30:30.261126 120071 layer_factory.hpp:77] Creating layer pool2/3x3_s2_pool2/3x3_s2_0_split
I0509 17:30:30.261132 120071 net.cpp:84] Creating Layer pool2/3x3_s2_pool2/3x3_s2_0_split
I0509 17:30:30.261134 120071 net.cpp:406] pool2/3x3_s2_pool2/3x3_s2_0_split <- pool2/3x3_s2
I0509 17:30:30.261138 120071 net.cpp:380] pool2/3x3_s2_pool2/3x3_s2_0_split -> pool2/3x3_s2_pool2/3x3_s2_0_split_0
I0509 17:30:30.261144 120071 net.cpp:380] pool2/3x3_s2_pool2/3x3_s2_0_split -> pool2/3x3_s2_pool2/3x3_s2_0_split_1
I0509 17:30:30.261150 120071 net.cpp:380] pool2/3x3_s2_pool2/3x3_s2_0_split -> pool2/3x3_s2_pool2/3x3_s2_0_split_2
I0509 17:30:30.261154 120071 net.cpp:380] pool2/3x3_s2_pool2/3x3_s2_0_split -> pool2/3x3_s2_pool2/3x3_s2_0_split_3
I0509 17:30:30.261160 120071 net.cpp:122] Setting up pool2/3x3_s2_pool2/3x3_s2_0_split
I0509 17:30:30.261165 120071 net.cpp:129] Top shape: 32 192 28 28 (4816896)
I0509 17:30:30.261168 120071 net.cpp:129] Top shape: 32 192 28 28 (4816896)
I0509 17:30:30.261173 120071 net.cpp:129] Top shape: 32 192 28 28 (4816896)
I0509 17:30:30.261175 120071 net.cpp:129] Top shape: 32 192 28 28 (4816896)
I0509 17:30:30.261178 120071 net.cpp:137] Memory required for data: 655098368
I0509 17:30:30.261181 120071 layer_factory.hpp:77] Creating layer inception_3a/1x1
I0509 17:30:30.261188 120071 net.cpp:84] Creating Layer inception_3a/1x1
I0509 17:30:30.261191 120071 net.cpp:406] inception_3a/1x1 <- pool2/3x3_s2_pool2/3x3_s2_0_split_0
I0509 17:30:30.261196 120071 net.cpp:380] inception_3a/1x1 -> inception_3a/1x1
I0509 17:30:30.261206 120071 base_conv_layer.cpp:121] Group is 1channel is192number of output is 64
I0509 17:30:30.261291 120071 net.cpp:122] Setting up inception_3a/1x1
I0509 17:30:30.261297 120071 net.cpp:129] Top shape: 32 64 28 28 (1605632)
I0509 17:30:30.261301 120071 net.cpp:137] Memory required for data: 661520896
I0509 17:30:30.261306 120071 layer_factory.hpp:77] Creating layer inception_3a/relu_1x1
I0509 17:30:30.261309 120071 net.cpp:84] Creating Layer inception_3a/relu_1x1
I0509 17:30:30.261312 120071 net.cpp:406] inception_3a/relu_1x1 <- inception_3a/1x1
I0509 17:30:30.261318 120071 net.cpp:367] inception_3a/relu_1x1 -> inception_3a/1x1 (in-place)
I0509 17:30:30.261323 120071 net.cpp:122] Setting up inception_3a/relu_1x1
I0509 17:30:30.261327 120071 net.cpp:129] Top shape: 32 64 28 28 (1605632)
I0509 17:30:30.261329 120071 net.cpp:137] Memory required for data: 667943424
I0509 17:30:30.261332 120071 layer_factory.hpp:77] Creating layer inception_3a/3x3_reduce
I0509 17:30:30.261348 120071 net.cpp:84] Creating Layer inception_3a/3x3_reduce
I0509 17:30:30.261350 120071 net.cpp:406] inception_3a/3x3_reduce <- pool2/3x3_s2_pool2/3x3_s2_0_split_1
I0509 17:30:30.261355 120071 net.cpp:380] inception_3a/3x3_reduce -> inception_3a/3x3_reduce
I0509 17:30:30.261364 120071 base_conv_layer.cpp:121] Group is 1channel is192number of output is 96
I0509 17:30:30.261487 120071 net.cpp:122] Setting up inception_3a/3x3_reduce
I0509 17:30:30.261493 120071 net.cpp:129] Top shape: 32 96 28 28 (2408448)
I0509 17:30:30.261497 120071 net.cpp:137] Memory required for data: 677577216
I0509 17:30:30.261503 120071 layer_factory.hpp:77] Creating layer inception_3a/relu_3x3_reduce
I0509 17:30:30.261510 120071 net.cpp:84] Creating Layer inception_3a/relu_3x3_reduce
I0509 17:30:30.261514 120071 net.cpp:406] inception_3a/relu_3x3_reduce <- inception_3a/3x3_reduce
I0509 17:30:30.261518 120071 net.cpp:367] inception_3a/relu_3x3_reduce -> inception_3a/3x3_reduce (in-place)
I0509 17:30:30.261523 120071 net.cpp:122] Setting up inception_3a/relu_3x3_reduce
I0509 17:30:30.261528 120071 net.cpp:129] Top shape: 32 96 28 28 (2408448)
I0509 17:30:30.261529 120071 net.cpp:137] Memory required for data: 687211008
I0509 17:30:30.261533 120071 layer_factory.hpp:77] Creating layer inception_3a/3x3
I0509 17:30:30.261540 120071 net.cpp:84] Creating Layer inception_3a/3x3
I0509 17:30:30.261543 120071 net.cpp:406] inception_3a/3x3 <- inception_3a/3x3_reduce
I0509 17:30:30.261549 120071 net.cpp:380] inception_3a/3x3 -> inception_3a/3x3
I0509 17:30:30.261556 120071 base_conv_layer.cpp:121] Group is 1channel is96number of output is 128
I0509 17:30:30.262213 120071 net.cpp:122] Setting up inception_3a/3x3
I0509 17:30:30.262219 120071 net.cpp:129] Top shape: 32 128 28 28 (3211264)
I0509 17:30:30.262223 120071 net.cpp:137] Memory required for data: 700056064
I0509 17:30:30.262226 120071 layer_factory.hpp:77] Creating layer inception_3a/relu_3x3
I0509 17:30:30.262231 120071 net.cpp:84] Creating Layer inception_3a/relu_3x3
I0509 17:30:30.262234 120071 net.cpp:406] inception_3a/relu_3x3 <- inception_3a/3x3
I0509 17:30:30.262239 120071 net.cpp:367] inception_3a/relu_3x3 -> inception_3a/3x3 (in-place)
I0509 17:30:30.262244 120071 net.cpp:122] Setting up inception_3a/relu_3x3
I0509 17:30:30.262248 120071 net.cpp:129] Top shape: 32 128 28 28 (3211264)
I0509 17:30:30.262251 120071 net.cpp:137] Memory required for data: 712901120
I0509 17:30:30.262253 120071 layer_factory.hpp:77] Creating layer inception_3a/5x5_reduce
I0509 17:30:30.262260 120071 net.cpp:84] Creating Layer inception_3a/5x5_reduce
I0509 17:30:30.262264 120071 net.cpp:406] inception_3a/5x5_reduce <- pool2/3x3_s2_pool2/3x3_s2_0_split_2
I0509 17:30:30.262269 120071 net.cpp:380] inception_3a/5x5_reduce -> inception_3a/5x5_reduce
I0509 17:30:30.262279 120071 base_conv_layer.cpp:121] Group is 1channel is192number of output is 16
I0509 17:30:30.262306 120071 net.cpp:122] Setting up inception_3a/5x5_reduce
I0509 17:30:30.262312 120071 net.cpp:129] Top shape: 32 16 28 28 (401408)
I0509 17:30:30.262315 120071 net.cpp:137] Memory required for data: 714506752
I0509 17:30:30.262320 120071 layer_factory.hpp:77] Creating layer inception_3a/relu_5x5_reduce
I0509 17:30:30.262323 120071 net.cpp:84] Creating Layer inception_3a/relu_5x5_reduce
I0509 17:30:30.262326 120071 net.cpp:406] inception_3a/relu_5x5_reduce <- inception_3a/5x5_reduce
I0509 17:30:30.262331 120071 net.cpp:367] inception_3a/relu_5x5_reduce -> inception_3a/5x5_reduce (in-place)
I0509 17:30:30.262334 120071 net.cpp:122] Setting up inception_3a/relu_5x5_reduce
I0509 17:30:30.262338 120071 net.cpp:129] Top shape: 32 16 28 28 (401408)
I0509 17:30:30.262341 120071 net.cpp:137] Memory required for data: 716112384
I0509 17:30:30.262344 120071 layer_factory.hpp:77] Creating layer inception_3a/5x5
I0509 17:30:30.262351 120071 net.cpp:84] Creating Layer inception_3a/5x5
I0509 17:30:30.262353 120071 net.cpp:406] inception_3a/5x5 <- inception_3a/5x5_reduce
I0509 17:30:30.262362 120071 net.cpp:380] inception_3a/5x5 -> inception_3a/5x5
I0509 17:30:30.262372 120071 base_conv_layer.cpp:121] Group is 1channel is16number of output is 32
I0509 17:30:30.262457 120071 net.cpp:122] Setting up inception_3a/5x5
I0509 17:30:30.262462 120071 net.cpp:129] Top shape: 32 32 28 28 (802816)
I0509 17:30:30.262466 120071 net.cpp:137] Memory required for data: 719323648
I0509 17:30:30.262470 120071 layer_factory.hpp:77] Creating layer inception_3a/relu_5x5
I0509 17:30:30.262475 120071 net.cpp:84] Creating Layer inception_3a/relu_5x5
I0509 17:30:30.262477 120071 net.cpp:406] inception_3a/relu_5x5 <- inception_3a/5x5
I0509 17:30:30.262483 120071 net.cpp:367] inception_3a/relu_5x5 -> inception_3a/5x5 (in-place)
I0509 17:30:30.262487 120071 net.cpp:122] Setting up inception_3a/relu_5x5
I0509 17:30:30.262491 120071 net.cpp:129] Top shape: 32 32 28 28 (802816)
I0509 17:30:30.262495 120071 net.cpp:137] Memory required for data: 722534912
I0509 17:30:30.262497 120071 layer_factory.hpp:77] Creating layer inception_3a/pool
I0509 17:30:30.262501 120071 net.cpp:84] Creating Layer inception_3a/pool
I0509 17:30:30.262504 120071 net.cpp:406] inception_3a/pool <- pool2/3x3_s2_pool2/3x3_s2_0_split_3
I0509 17:30:30.262509 120071 net.cpp:380] inception_3a/pool -> inception_3a/pool
I0509 17:30:30.262516 120071 net.cpp:122] Setting up inception_3a/pool
I0509 17:30:30.262521 120071 net.cpp:129] Top shape: 32 192 28 28 (4816896)
I0509 17:30:30.262523 120071 net.cpp:137] Memory required for data: 741802496
I0509 17:30:30.262526 120071 layer_factory.hpp:77] Creating layer inception_3a/pool_proj
I0509 17:30:30.262533 120071 net.cpp:84] Creating Layer inception_3a/pool_proj
I0509 17:30:30.262537 120071 net.cpp:406] inception_3a/pool_proj <- inception_3a/pool
I0509 17:30:30.262543 120071 net.cpp:380] inception_3a/pool_proj -> inception_3a/pool_proj
I0509 17:30:30.262549 120071 base_conv_layer.cpp:121] Group is 1channel is192number of output is 32
I0509 17:30:30.262598 120071 net.cpp:122] Setting up inception_3a/pool_proj
I0509 17:30:30.262603 120071 net.cpp:129] Top shape: 32 32 28 28 (802816)
I0509 17:30:30.262606 120071 net.cpp:137] Memory required for data: 745013760
I0509 17:30:30.262615 120071 layer_factory.hpp:77] Creating layer inception_3a/relu_pool_proj
I0509 17:30:30.262620 120071 net.cpp:84] Creating Layer inception_3a/relu_pool_proj
I0509 17:30:30.262624 120071 net.cpp:406] inception_3a/relu_pool_proj <- inception_3a/pool_proj
I0509 17:30:30.262629 120071 net.cpp:367] inception_3a/relu_pool_proj -> inception_3a/pool_proj (in-place)
I0509 17:30:30.262634 120071 net.cpp:122] Setting up inception_3a/relu_pool_proj
I0509 17:30:30.262637 120071 net.cpp:129] Top shape: 32 32 28 28 (802816)
I0509 17:30:30.262640 120071 net.cpp:137] Memory required for data: 748225024
I0509 17:30:30.262642 120071 layer_factory.hpp:77] Creating layer inception_3a/output
I0509 17:30:30.262646 120071 net.cpp:84] Creating Layer inception_3a/output
I0509 17:30:30.262650 120071 net.cpp:406] inception_3a/output <- inception_3a/1x1
I0509 17:30:30.262653 120071 net.cpp:406] inception_3a/output <- inception_3a/3x3
I0509 17:30:30.262656 120071 net.cpp:406] inception_3a/output <- inception_3a/5x5
I0509 17:30:30.262660 120071 net.cpp:406] inception_3a/output <- inception_3a/pool_proj
I0509 17:30:30.262665 120071 net.cpp:380] inception_3a/output -> inception_3a/output
I0509 17:30:30.262672 120071 net.cpp:122] Setting up inception_3a/output
I0509 17:30:30.262676 120071 net.cpp:129] Top shape: 32 256 28 28 (6422528)
I0509 17:30:30.262679 120071 net.cpp:137] Memory required for data: 773915136
I0509 17:30:30.262682 120071 layer_factory.hpp:77] Creating layer inception_3a/output_inception_3a/output_0_split
I0509 17:30:30.262686 120071 net.cpp:84] Creating Layer inception_3a/output_inception_3a/output_0_split
I0509 17:30:30.262689 120071 net.cpp:406] inception_3a/output_inception_3a/output_0_split <- inception_3a/output
I0509 17:30:30.262696 120071 net.cpp:380] inception_3a/output_inception_3a/output_0_split -> inception_3a/output_inception_3a/output_0_split_0
I0509 17:30:30.262704 120071 net.cpp:380] inception_3a/output_inception_3a/output_0_split -> inception_3a/output_inception_3a/output_0_split_1
I0509 17:30:30.262714 120071 net.cpp:380] inception_3a/output_inception_3a/output_0_split -> inception_3a/output_inception_3a/output_0_split_2
I0509 17:30:30.262720 120071 net.cpp:380] inception_3a/output_inception_3a/output_0_split -> inception_3a/output_inception_3a/output_0_split_3
I0509 17:30:30.262727 120071 net.cpp:122] Setting up inception_3a/output_inception_3a/output_0_split
I0509 17:30:30.262732 120071 net.cpp:129] Top shape: 32 256 28 28 (6422528)
I0509 17:30:30.262735 120071 net.cpp:129] Top shape: 32 256 28 28 (6422528)
I0509 17:30:30.262738 120071 net.cpp:129] Top shape: 32 256 28 28 (6422528)
I0509 17:30:30.262742 120071 net.cpp:129] Top shape: 32 256 28 28 (6422528)
I0509 17:30:30.262745 120071 net.cpp:137] Memory required for data: 876675584
I0509 17:30:30.262748 120071 layer_factory.hpp:77] Creating layer inception_3b/1x1
I0509 17:30:30.262754 120071 net.cpp:84] Creating Layer inception_3b/1x1
I0509 17:30:30.262758 120071 net.cpp:406] inception_3b/1x1 <- inception_3a/output_inception_3a/output_0_split_0
I0509 17:30:30.262765 120071 net.cpp:380] inception_3b/1x1 -> inception_3b/1x1
I0509 17:30:30.262773 120071 base_conv_layer.cpp:121] Group is 1channel is256number of output is 128
I0509 17:30:30.262975 120071 net.cpp:122] Setting up inception_3b/1x1
I0509 17:30:30.262981 120071 net.cpp:129] Top shape: 32 128 28 28 (3211264)
I0509 17:30:30.262985 120071 net.cpp:137] Memory required for data: 889520640
I0509 17:30:30.262989 120071 layer_factory.hpp:77] Creating layer inception_3b/relu_1x1
I0509 17:30:30.262994 120071 net.cpp:84] Creating Layer inception_3b/relu_1x1
I0509 17:30:30.262996 120071 net.cpp:406] inception_3b/relu_1x1 <- inception_3b/1x1
I0509 17:30:30.263002 120071 net.cpp:367] inception_3b/relu_1x1 -> inception_3b/1x1 (in-place)
I0509 17:30:30.263007 120071 net.cpp:122] Setting up inception_3b/relu_1x1
I0509 17:30:30.263011 120071 net.cpp:129] Top shape: 32 128 28 28 (3211264)
I0509 17:30:30.263013 120071 net.cpp:137] Memory required for data: 902365696
I0509 17:30:30.263016 120071 layer_factory.hpp:77] Creating layer inception_3b/3x3_reduce
I0509 17:30:30.263023 120071 net.cpp:84] Creating Layer inception_3b/3x3_reduce
I0509 17:30:30.263026 120071 net.cpp:406] inception_3b/3x3_reduce <- inception_3a/output_inception_3a/output_0_split_1
I0509 17:30:30.263032 120071 net.cpp:380] inception_3b/3x3_reduce -> inception_3b/3x3_reduce
I0509 17:30:30.263039 120071 base_conv_layer.cpp:121] Group is 1channel is256number of output is 128
I0509 17:30:30.263245 120071 net.cpp:122] Setting up inception_3b/3x3_reduce
I0509 17:30:30.263252 120071 net.cpp:129] Top shape: 32 128 28 28 (3211264)
I0509 17:30:30.263254 120071 net.cpp:137] Memory required for data: 915210752
I0509 17:30:30.263259 120071 layer_factory.hpp:77] Creating layer inception_3b/relu_3x3_reduce
I0509 17:30:30.263263 120071 net.cpp:84] Creating Layer inception_3b/relu_3x3_reduce
I0509 17:30:30.263267 120071 net.cpp:406] inception_3b/relu_3x3_reduce <- inception_3b/3x3_reduce
I0509 17:30:30.263273 120071 net.cpp:367] inception_3b/relu_3x3_reduce -> inception_3b/3x3_reduce (in-place)
I0509 17:30:30.263278 120071 net.cpp:122] Setting up inception_3b/relu_3x3_reduce
I0509 17:30:30.263281 120071 net.cpp:129] Top shape: 32 128 28 28 (3211264)
I0509 17:30:30.263283 120071 net.cpp:137] Memory required for data: 928055808
I0509 17:30:30.263286 120071 layer_factory.hpp:77] Creating layer inception_3b/3x3
I0509 17:30:30.263298 120071 net.cpp:84] Creating Layer inception_3b/3x3
I0509 17:30:30.263301 120071 net.cpp:406] inception_3b/3x3 <- inception_3b/3x3_reduce
I0509 17:30:30.263306 120071 net.cpp:380] inception_3b/3x3 -> inception_3b/3x3
I0509 17:30:30.263314 120071 base_conv_layer.cpp:121] Group is 1channel is128number of output is 192
I0509 17:30:30.264730 120071 net.cpp:122] Setting up inception_3b/3x3
I0509 17:30:30.264737 120071 net.cpp:129] Top shape: 32 192 28 28 (4816896)
I0509 17:30:30.264740 120071 net.cpp:137] Memory required for data: 947323392
I0509 17:30:30.264752 120071 layer_factory.hpp:77] Creating layer inception_3b/relu_3x3
I0509 17:30:30.264760 120071 net.cpp:84] Creating Layer inception_3b/relu_3x3
I0509 17:30:30.264762 120071 net.cpp:406] inception_3b/relu_3x3 <- inception_3b/3x3
I0509 17:30:30.264766 120071 net.cpp:367] inception_3b/relu_3x3 -> inception_3b/3x3 (in-place)
I0509 17:30:30.264771 120071 net.cpp:122] Setting up inception_3b/relu_3x3
I0509 17:30:30.264775 120071 net.cpp:129] Top shape: 32 192 28 28 (4816896)
I0509 17:30:30.264778 120071 net.cpp:137] Memory required for data: 966590976
I0509 17:30:30.264780 120071 layer_factory.hpp:77] Creating layer inception_3b/5x5_reduce
I0509 17:30:30.264787 120071 net.cpp:84] Creating Layer inception_3b/5x5_reduce
I0509 17:30:30.264791 120071 net.cpp:406] inception_3b/5x5_reduce <- inception_3a/output_inception_3a/output_0_split_2
I0509 17:30:30.264797 120071 net.cpp:380] inception_3b/5x5_reduce -> inception_3b/5x5_reduce
I0509 17:30:30.264803 120071 base_conv_layer.cpp:121] Group is 1channel is256number of output is 32
I0509 17:30:30.264863 120071 net.cpp:122] Setting up inception_3b/5x5_reduce
I0509 17:30:30.264869 120071 net.cpp:129] Top shape: 32 32 28 28 (802816)
I0509 17:30:30.264871 120071 net.cpp:137] Memory required for data: 969802240
I0509 17:30:30.264876 120071 layer_factory.hpp:77] Creating layer inception_3b/relu_5x5_reduce
I0509 17:30:30.264880 120071 net.cpp:84] Creating Layer inception_3b/relu_5x5_reduce
I0509 17:30:30.264883 120071 net.cpp:406] inception_3b/relu_5x5_reduce <- inception_3b/5x5_reduce
I0509 17:30:30.264889 120071 net.cpp:367] inception_3b/relu_5x5_reduce -> inception_3b/5x5_reduce (in-place)
I0509 17:30:30.264894 120071 net.cpp:122] Setting up inception_3b/relu_5x5_reduce
I0509 17:30:30.264896 120071 net.cpp:129] Top shape: 32 32 28 28 (802816)
I0509 17:30:30.264900 120071 net.cpp:137] Memory required for data: 973013504
I0509 17:30:30.264902 120071 layer_factory.hpp:77] Creating layer inception_3b/5x5
I0509 17:30:30.264909 120071 net.cpp:84] Creating Layer inception_3b/5x5
I0509 17:30:30.264911 120071 net.cpp:406] inception_3b/5x5 <- inception_3b/5x5_reduce
I0509 17:30:30.264917 120071 net.cpp:380] inception_3b/5x5 -> inception_3b/5x5
I0509 17:30:30.264930 120071 base_conv_layer.cpp:121] Group is 1channel is32number of output is 96
I0509 17:30:30.265393 120071 net.cpp:122] Setting up inception_3b/5x5
I0509 17:30:30.265399 120071 net.cpp:129] Top shape: 32 96 28 28 (2408448)
I0509 17:30:30.265403 120071 net.cpp:137] Memory required for data: 982647296
I0509 17:30:30.265408 120071 layer_factory.hpp:77] Creating layer inception_3b/relu_5x5
I0509 17:30:30.265413 120071 net.cpp:84] Creating Layer inception_3b/relu_5x5
I0509 17:30:30.265415 120071 net.cpp:406] inception_3b/relu_5x5 <- inception_3b/5x5
I0509 17:30:30.265420 120071 net.cpp:367] inception_3b/relu_5x5 -> inception_3b/5x5 (in-place)
I0509 17:30:30.265424 120071 net.cpp:122] Setting up inception_3b/relu_5x5
I0509 17:30:30.265429 120071 net.cpp:129] Top shape: 32 96 28 28 (2408448)
I0509 17:30:30.265430 120071 net.cpp:137] Memory required for data: 992281088
I0509 17:30:30.265434 120071 layer_factory.hpp:77] Creating layer inception_3b/pool
I0509 17:30:30.265439 120071 net.cpp:84] Creating Layer inception_3b/pool
I0509 17:30:30.265442 120071 net.cpp:406] inception_3b/pool <- inception_3a/output_inception_3a/output_0_split_3
I0509 17:30:30.265446 120071 net.cpp:380] inception_3b/pool -> inception_3b/pool
I0509 17:30:30.265453 120071 net.cpp:122] Setting up inception_3b/pool
I0509 17:30:30.265457 120071 net.cpp:129] Top shape: 32 256 28 28 (6422528)
I0509 17:30:30.265460 120071 net.cpp:137] Memory required for data: 1017971200
I0509 17:30:30.265463 120071 layer_factory.hpp:77] Creating layer inception_3b/pool_proj
I0509 17:30:30.265470 120071 net.cpp:84] Creating Layer inception_3b/pool_proj
I0509 17:30:30.265473 120071 net.cpp:406] inception_3b/pool_proj <- inception_3b/pool
I0509 17:30:30.265480 120071 net.cpp:380] inception_3b/pool_proj -> inception_3b/pool_proj
I0509 17:30:30.265488 120071 base_conv_layer.cpp:121] Group is 1channel is256number of output is 64
I0509 17:30:30.265601 120071 net.cpp:122] Setting up inception_3b/pool_proj
I0509 17:30:30.265607 120071 net.cpp:129] Top shape: 32 64 28 28 (1605632)
I0509 17:30:30.265609 120071 net.cpp:137] Memory required for data: 1024393728
I0509 17:30:30.265614 120071 layer_factory.hpp:77] Creating layer inception_3b/relu_pool_proj
I0509 17:30:30.265620 120071 net.cpp:84] Creating Layer inception_3b/relu_pool_proj
I0509 17:30:30.265624 120071 net.cpp:406] inception_3b/relu_pool_proj <- inception_3b/pool_proj
I0509 17:30:30.265627 120071 net.cpp:367] inception_3b/relu_pool_proj -> inception_3b/pool_proj (in-place)
I0509 17:30:30.265632 120071 net.cpp:122] Setting up inception_3b/relu_pool_proj
I0509 17:30:30.265636 120071 net.cpp:129] Top shape: 32 64 28 28 (1605632)
I0509 17:30:30.265640 120071 net.cpp:137] Memory required for data: 1030816256
I0509 17:30:30.265641 120071 layer_factory.hpp:77] Creating layer inception_3b/output
I0509 17:30:30.265645 120071 net.cpp:84] Creating Layer inception_3b/output
I0509 17:30:30.265650 120071 net.cpp:406] inception_3b/output <- inception_3b/1x1
I0509 17:30:30.265652 120071 net.cpp:406] inception_3b/output <- inception_3b/3x3
I0509 17:30:30.265655 120071 net.cpp:406] inception_3b/output <- inception_3b/5x5
I0509 17:30:30.265660 120071 net.cpp:406] inception_3b/output <- inception_3b/pool_proj
I0509 17:30:30.265664 120071 net.cpp:380] inception_3b/output -> inception_3b/output
I0509 17:30:30.265671 120071 net.cpp:122] Setting up inception_3b/output
I0509 17:30:30.265674 120071 net.cpp:129] Top shape: 32 480 28 28 (12042240)
I0509 17:30:30.265677 120071 net.cpp:137] Memory required for data: 1078985216
I0509 17:30:30.265681 120071 layer_factory.hpp:77] Creating layer pool3/3x3_s2
I0509 17:30:30.265686 120071 net.cpp:84] Creating Layer pool3/3x3_s2
I0509 17:30:30.265688 120071 net.cpp:406] pool3/3x3_s2 <- inception_3b/output
I0509 17:30:30.265693 120071 net.cpp:380] pool3/3x3_s2 -> pool3/3x3_s2
I0509 17:30:30.265699 120071 net.cpp:122] Setting up pool3/3x3_s2
I0509 17:30:30.265703 120071 net.cpp:129] Top shape: 32 480 14 14 (3010560)
I0509 17:30:30.265707 120071 net.cpp:137] Memory required for data: 1091027456
I0509 17:30:30.265708 120071 layer_factory.hpp:77] Creating layer pool3/3x3_s2_pool3/3x3_s2_0_split
I0509 17:30:30.265713 120071 net.cpp:84] Creating Layer pool3/3x3_s2_pool3/3x3_s2_0_split
I0509 17:30:30.265717 120071 net.cpp:406] pool3/3x3_s2_pool3/3x3_s2_0_split <- pool3/3x3_s2
I0509 17:30:30.265722 120071 net.cpp:380] pool3/3x3_s2_pool3/3x3_s2_0_split -> pool3/3x3_s2_pool3/3x3_s2_0_split_0
I0509 17:30:30.265727 120071 net.cpp:380] pool3/3x3_s2_pool3/3x3_s2_0_split -> pool3/3x3_s2_pool3/3x3_s2_0_split_1
I0509 17:30:30.265734 120071 net.cpp:380] pool3/3x3_s2_pool3/3x3_s2_0_split -> pool3/3x3_s2_pool3/3x3_s2_0_split_2
I0509 17:30:30.265739 120071 net.cpp:380] pool3/3x3_s2_pool3/3x3_s2_0_split -> pool3/3x3_s2_pool3/3x3_s2_0_split_3
I0509 17:30:30.265745 120071 net.cpp:122] Setting up pool3/3x3_s2_pool3/3x3_s2_0_split
I0509 17:30:30.265749 120071 net.cpp:129] Top shape: 32 480 14 14 (3010560)
I0509 17:30:30.265753 120071 net.cpp:129] Top shape: 32 480 14 14 (3010560)
I0509 17:30:30.265756 120071 net.cpp:129] Top shape: 32 480 14 14 (3010560)
I0509 17:30:30.265760 120071 net.cpp:129] Top shape: 32 480 14 14 (3010560)
I0509 17:30:30.265763 120071 net.cpp:137] Memory required for data: 1139196416
I0509 17:30:30.265766 120071 layer_factory.hpp:77] Creating layer inception_4a/1x1
I0509 17:30:30.265772 120071 net.cpp:84] Creating Layer inception_4a/1x1
I0509 17:30:30.265775 120071 net.cpp:406] inception_4a/1x1 <- pool3/3x3_s2_pool3/3x3_s2_0_split_0
I0509 17:30:30.265781 120071 net.cpp:380] inception_4a/1x1 -> inception_4a/1x1
I0509 17:30:30.265789 120071 base_conv_layer.cpp:121] Group is 1channel is480number of output is 192
I0509 17:30:30.266345 120071 net.cpp:122] Setting up inception_4a/1x1
I0509 17:30:30.266350 120071 net.cpp:129] Top shape: 32 192 14 14 (1204224)
I0509 17:30:30.266353 120071 net.cpp:137] Memory required for data: 1144013312
I0509 17:30:30.266361 120071 layer_factory.hpp:77] Creating layer inception_4a/relu_1x1
I0509 17:30:30.266369 120071 net.cpp:84] Creating Layer inception_4a/relu_1x1
I0509 17:30:30.266372 120071 net.cpp:406] inception_4a/relu_1x1 <- inception_4a/1x1
I0509 17:30:30.266377 120071 net.cpp:367] inception_4a/relu_1x1 -> inception_4a/1x1 (in-place)
I0509 17:30:30.266383 120071 net.cpp:122] Setting up inception_4a/relu_1x1
I0509 17:30:30.266387 120071 net.cpp:129] Top shape: 32 192 14 14 (1204224)
I0509 17:30:30.266389 120071 net.cpp:137] Memory required for data: 1148830208
I0509 17:30:30.266392 120071 layer_factory.hpp:77] Creating layer inception_4a/3x3_reduce
I0509 17:30:30.266399 120071 net.cpp:84] Creating Layer inception_4a/3x3_reduce
I0509 17:30:30.266402 120071 net.cpp:406] inception_4a/3x3_reduce <- pool3/3x3_s2_pool3/3x3_s2_0_split_1
I0509 17:30:30.266407 120071 net.cpp:380] inception_4a/3x3_reduce -> inception_4a/3x3_reduce
I0509 17:30:30.266415 120071 base_conv_layer.cpp:121] Group is 1channel is480number of output is 96
I0509 17:30:30.266695 120071 net.cpp:122] Setting up inception_4a/3x3_reduce
I0509 17:30:30.266701 120071 net.cpp:129] Top shape: 32 96 14 14 (602112)
I0509 17:30:30.266705 120071 net.cpp:137] Memory required for data: 1151238656
I0509 17:30:30.266715 120071 layer_factory.hpp:77] Creating layer inception_4a/relu_3x3_reduce
I0509 17:30:30.266719 120071 net.cpp:84] Creating Layer inception_4a/relu_3x3_reduce
I0509 17:30:30.266722 120071 net.cpp:406] inception_4a/relu_3x3_reduce <- inception_4a/3x3_reduce
I0509 17:30:30.266731 120071 net.cpp:367] inception_4a/relu_3x3_reduce -> inception_4a/3x3_reduce (in-place)
I0509 17:30:30.266736 120071 net.cpp:122] Setting up inception_4a/relu_3x3_reduce
I0509 17:30:30.266739 120071 net.cpp:129] Top shape: 32 96 14 14 (602112)
I0509 17:30:30.266742 120071 net.cpp:137] Memory required for data: 1153647104
I0509 17:30:30.266744 120071 layer_factory.hpp:77] Creating layer inception_4a/3x3
I0509 17:30:30.266752 120071 net.cpp:84] Creating Layer inception_4a/3x3
I0509 17:30:30.266754 120071 net.cpp:406] inception_4a/3x3 <- inception_4a/3x3_reduce
I0509 17:30:30.266759 120071 net.cpp:380] inception_4a/3x3 -> inception_4a/3x3
I0509 17:30:30.266765 120071 base_conv_layer.cpp:121] Group is 1channel is96number of output is 208
I0509 17:30:30.267829 120071 net.cpp:122] Setting up inception_4a/3x3
I0509 17:30:30.267835 120071 net.cpp:129] Top shape: 32 208 14 14 (1304576)
I0509 17:30:30.267838 120071 net.cpp:137] Memory required for data: 1158865408
I0509 17:30:30.267843 120071 layer_factory.hpp:77] Creating layer inception_4a/relu_3x3
I0509 17:30:30.267848 120071 net.cpp:84] Creating Layer inception_4a/relu_3x3
I0509 17:30:30.267851 120071 net.cpp:406] inception_4a/relu_3x3 <- inception_4a/3x3
I0509 17:30:30.267855 120071 net.cpp:367] inception_4a/relu_3x3 -> inception_4a/3x3 (in-place)
I0509 17:30:30.267859 120071 net.cpp:122] Setting up inception_4a/relu_3x3
I0509 17:30:30.267863 120071 net.cpp:129] Top shape: 32 208 14 14 (1304576)
I0509 17:30:30.267866 120071 net.cpp:137] Memory required for data: 1164083712
I0509 17:30:30.267868 120071 layer_factory.hpp:77] Creating layer inception_4a/5x5_reduce
I0509 17:30:30.267874 120071 net.cpp:84] Creating Layer inception_4a/5x5_reduce
I0509 17:30:30.267877 120071 net.cpp:406] inception_4a/5x5_reduce <- pool3/3x3_s2_pool3/3x3_s2_0_split_2
I0509 17:30:30.267884 120071 net.cpp:380] inception_4a/5x5_reduce -> inception_4a/5x5_reduce
I0509 17:30:30.267891 120071 base_conv_layer.cpp:121] Group is 1channel is480number of output is 16
I0509 17:30:30.267946 120071 net.cpp:122] Setting up inception_4a/5x5_reduce
I0509 17:30:30.267951 120071 net.cpp:129] Top shape: 32 16 14 14 (100352)
I0509 17:30:30.267953 120071 net.cpp:137] Memory required for data: 1164485120
I0509 17:30:30.267958 120071 layer_factory.hpp:77] Creating layer inception_4a/relu_5x5_reduce
I0509 17:30:30.267962 120071 net.cpp:84] Creating Layer inception_4a/relu_5x5_reduce
I0509 17:30:30.267966 120071 net.cpp:406] inception_4a/relu_5x5_reduce <- inception_4a/5x5_reduce
I0509 17:30:30.267973 120071 net.cpp:367] inception_4a/relu_5x5_reduce -> inception_4a/5x5_reduce (in-place)
I0509 17:30:30.267982 120071 net.cpp:122] Setting up inception_4a/relu_5x5_reduce
I0509 17:30:30.267985 120071 net.cpp:129] Top shape: 32 16 14 14 (100352)
I0509 17:30:30.267988 120071 net.cpp:137] Memory required for data: 1164886528
I0509 17:30:30.267992 120071 layer_factory.hpp:77] Creating layer inception_4a/5x5
I0509 17:30:30.267997 120071 net.cpp:84] Creating Layer inception_4a/5x5
I0509 17:30:30.268000 120071 net.cpp:406] inception_4a/5x5 <- inception_4a/5x5_reduce
I0509 17:30:30.268004 120071 net.cpp:380] inception_4a/5x5 -> inception_4a/5x5
I0509 17:30:30.268012 120071 base_conv_layer.cpp:121] Group is 1channel is16number of output is 48
I0509 17:30:30.268211 120071 net.cpp:122] Setting up inception_4a/5x5
I0509 17:30:30.268221 120071 net.cpp:129] Top shape: 32 48 14 14 (301056)
I0509 17:30:30.268224 120071 net.cpp:137] Memory required for data: 1166090752
I0509 17:30:30.268230 120071 layer_factory.hpp:77] Creating layer inception_4a/relu_5x5
I0509 17:30:30.268234 120071 net.cpp:84] Creating Layer inception_4a/relu_5x5
I0509 17:30:30.268239 120071 net.cpp:406] inception_4a/relu_5x5 <- inception_4a/5x5
I0509 17:30:30.268242 120071 net.cpp:367] inception_4a/relu_5x5 -> inception_4a/5x5 (in-place)
I0509 17:30:30.268251 120071 net.cpp:122] Setting up inception_4a/relu_5x5
I0509 17:30:30.268255 120071 net.cpp:129] Top shape: 32 48 14 14 (301056)
I0509 17:30:30.268259 120071 net.cpp:137] Memory required for data: 1167294976
I0509 17:30:30.268261 120071 layer_factory.hpp:77] Creating layer inception_4a/pool
I0509 17:30:30.268266 120071 net.cpp:84] Creating Layer inception_4a/pool
I0509 17:30:30.268270 120071 net.cpp:406] inception_4a/pool <- pool3/3x3_s2_pool3/3x3_s2_0_split_3
I0509 17:30:30.268275 120071 net.cpp:380] inception_4a/pool -> inception_4a/pool
I0509 17:30:30.268283 120071 net.cpp:122] Setting up inception_4a/pool
I0509 17:30:30.268288 120071 net.cpp:129] Top shape: 32 480 14 14 (3010560)
I0509 17:30:30.268291 120071 net.cpp:137] Memory required for data: 1179337216
I0509 17:30:30.268295 120071 layer_factory.hpp:77] Creating layer inception_4a/pool_proj
I0509 17:30:30.268301 120071 net.cpp:84] Creating Layer inception_4a/pool_proj
I0509 17:30:30.268306 120071 net.cpp:406] inception_4a/pool_proj <- inception_4a/pool
I0509 17:30:30.268311 120071 net.cpp:380] inception_4a/pool_proj -> inception_4a/pool_proj
I0509 17:30:30.268319 120071 base_conv_layer.cpp:121] Group is 1channel is480number of output is 64
I0509 17:30:30.268651 120071 net.cpp:122] Setting up inception_4a/pool_proj
I0509 17:30:30.268661 120071 net.cpp:129] Top shape: 32 64 14 14 (401408)
I0509 17:30:30.268664 120071 net.cpp:137] Memory required for data: 1180942848
I0509 17:30:30.268668 120071 layer_factory.hpp:77] Creating layer inception_4a/relu_pool_proj
I0509 17:30:30.268673 120071 net.cpp:84] Creating Layer inception_4a/relu_pool_proj
I0509 17:30:30.268676 120071 net.cpp:406] inception_4a/relu_pool_proj <- inception_4a/pool_proj
I0509 17:30:30.268682 120071 net.cpp:367] inception_4a/relu_pool_proj -> inception_4a/pool_proj (in-place)
I0509 17:30:30.268685 120071 net.cpp:122] Setting up inception_4a/relu_pool_proj
I0509 17:30:30.268689 120071 net.cpp:129] Top shape: 32 64 14 14 (401408)
I0509 17:30:30.268692 120071 net.cpp:137] Memory required for data: 1182548480
I0509 17:30:30.268694 120071 layer_factory.hpp:77] Creating layer inception_4a/output
I0509 17:30:30.268698 120071 net.cpp:84] Creating Layer inception_4a/output
I0509 17:30:30.268702 120071 net.cpp:406] inception_4a/output <- inception_4a/1x1
I0509 17:30:30.268705 120071 net.cpp:406] inception_4a/output <- inception_4a/3x3
I0509 17:30:30.268708 120071 net.cpp:406] inception_4a/output <- inception_4a/5x5
I0509 17:30:30.268712 120071 net.cpp:406] inception_4a/output <- inception_4a/pool_proj
I0509 17:30:30.268718 120071 net.cpp:380] inception_4a/output -> inception_4a/output
I0509 17:30:30.268723 120071 net.cpp:122] Setting up inception_4a/output
I0509 17:30:30.268730 120071 net.cpp:129] Top shape: 32 512 14 14 (3211264)
I0509 17:30:30.268738 120071 net.cpp:137] Memory required for data: 1195393536
I0509 17:30:30.268740 120071 layer_factory.hpp:77] Creating layer inception_4a/output_inception_4a/output_0_split
I0509 17:30:30.268746 120071 net.cpp:84] Creating Layer inception_4a/output_inception_4a/output_0_split
I0509 17:30:30.268749 120071 net.cpp:406] inception_4a/output_inception_4a/output_0_split <- inception_4a/output
I0509 17:30:30.268754 120071 net.cpp:380] inception_4a/output_inception_4a/output_0_split -> inception_4a/output_inception_4a/output_0_split_0
I0509 17:30:30.268760 120071 net.cpp:380] inception_4a/output_inception_4a/output_0_split -> inception_4a/output_inception_4a/output_0_split_1
I0509 17:30:30.268766 120071 net.cpp:380] inception_4a/output_inception_4a/output_0_split -> inception_4a/output_inception_4a/output_0_split_2
I0509 17:30:30.268772 120071 net.cpp:380] inception_4a/output_inception_4a/output_0_split -> inception_4a/output_inception_4a/output_0_split_3
I0509 17:30:30.268776 120071 net.cpp:380] inception_4a/output_inception_4a/output_0_split -> inception_4a/output_inception_4a/output_0_split_4
I0509 17:30:30.268786 120071 net.cpp:122] Setting up inception_4a/output_inception_4a/output_0_split
I0509 17:30:30.268791 120071 net.cpp:129] Top shape: 32 512 14 14 (3211264)
I0509 17:30:30.268795 120071 net.cpp:129] Top shape: 32 512 14 14 (3211264)
I0509 17:30:30.268798 120071 net.cpp:129] Top shape: 32 512 14 14 (3211264)
I0509 17:30:30.268801 120071 net.cpp:129] Top shape: 32 512 14 14 (3211264)
I0509 17:30:30.268805 120071 net.cpp:129] Top shape: 32 512 14 14 (3211264)
I0509 17:30:30.268808 120071 net.cpp:137] Memory required for data: 1259618816
I0509 17:30:30.268810 120071 layer_factory.hpp:77] Creating layer loss1/ave_pool
I0509 17:30:30.268815 120071 net.cpp:84] Creating Layer loss1/ave_pool
I0509 17:30:30.268818 120071 net.cpp:406] loss1/ave_pool <- inception_4a/output_inception_4a/output_0_split_0
I0509 17:30:30.268823 120071 net.cpp:380] loss1/ave_pool -> loss1/ave_pool
I0509 17:30:30.268829 120071 net.cpp:122] Setting up loss1/ave_pool
I0509 17:30:30.268832 120071 net.cpp:129] Top shape: 32 512 4 4 (262144)
I0509 17:30:30.268836 120071 net.cpp:137] Memory required for data: 1260667392
I0509 17:30:30.268838 120071 layer_factory.hpp:77] Creating layer loss1/conv
I0509 17:30:30.268846 120071 net.cpp:84] Creating Layer loss1/conv
I0509 17:30:30.268847 120071 net.cpp:406] loss1/conv <- loss1/ave_pool
I0509 17:30:30.268853 120071 net.cpp:380] loss1/conv -> loss1/conv
I0509 17:30:30.268860 120071 base_conv_layer.cpp:121] Group is 1channel is512number of output is 128
I0509 17:30:30.269259 120071 net.cpp:122] Setting up loss1/conv
I0509 17:30:30.269265 120071 net.cpp:129] Top shape: 32 128 4 4 (65536)
I0509 17:30:30.269268 120071 net.cpp:137] Memory required for data: 1260929536
I0509 17:30:30.269273 120071 layer_factory.hpp:77] Creating layer loss1/relu_conv
I0509 17:30:30.269276 120071 net.cpp:84] Creating Layer loss1/relu_conv
I0509 17:30:30.269279 120071 net.cpp:406] loss1/relu_conv <- loss1/conv
I0509 17:30:30.269285 120071 net.cpp:367] loss1/relu_conv -> loss1/conv (in-place)
I0509 17:30:30.269290 120071 net.cpp:122] Setting up loss1/relu_conv
I0509 17:30:30.269294 120071 net.cpp:129] Top shape: 32 128 4 4 (65536)
I0509 17:30:30.269296 120071 net.cpp:137] Memory required for data: 1261191680
I0509 17:30:30.269299 120071 layer_factory.hpp:77] Creating layer loss1/fc
I0509 17:30:30.269304 120071 net.cpp:84] Creating Layer loss1/fc
I0509 17:30:30.269307 120071 net.cpp:406] loss1/fc <- loss1/conv
I0509 17:30:30.269312 120071 net.cpp:380] loss1/fc -> loss1/fc
I0509 17:30:30.280267 120071 net.cpp:122] Setting up loss1/fc
I0509 17:30:30.280277 120071 net.cpp:129] Top shape: 32 1024 (32768)
I0509 17:30:30.280279 120071 net.cpp:137] Memory required for data: 1261322752
I0509 17:30:30.280284 120071 layer_factory.hpp:77] Creating layer loss1/relu_fc
I0509 17:30:30.280292 120071 net.cpp:84] Creating Layer loss1/relu_fc
I0509 17:30:30.280294 120071 net.cpp:406] loss1/relu_fc <- loss1/fc
I0509 17:30:30.280306 120071 net.cpp:367] loss1/relu_fc -> loss1/fc (in-place)
I0509 17:30:30.280311 120071 net.cpp:122] Setting up loss1/relu_fc
I0509 17:30:30.280315 120071 net.cpp:129] Top shape: 32 1024 (32768)
I0509 17:30:30.280318 120071 net.cpp:137] Memory required for data: 1261453824
I0509 17:30:30.280320 120071 layer_factory.hpp:77] Creating layer loss1/drop_fc
I0509 17:30:30.280335 120071 net.cpp:84] Creating Layer loss1/drop_fc
I0509 17:30:30.280339 120071 net.cpp:406] loss1/drop_fc <- loss1/fc
I0509 17:30:30.280342 120071 net.cpp:367] loss1/drop_fc -> loss1/fc (in-place)
I0509 17:30:30.280350 120071 net.cpp:122] Setting up loss1/drop_fc
I0509 17:30:30.280354 120071 net.cpp:129] Top shape: 32 1024 (32768)
I0509 17:30:30.280357 120071 net.cpp:137] Memory required for data: 1261584896
I0509 17:30:30.280360 120071 layer_factory.hpp:77] Creating layer loss1/classifier
I0509 17:30:30.280365 120071 net.cpp:84] Creating Layer loss1/classifier
I0509 17:30:30.280369 120071 net.cpp:406] loss1/classifier <- loss1/fc
I0509 17:30:30.280374 120071 net.cpp:380] loss1/classifier -> loss1/classifier
I0509 17:30:30.286403 120071 net.cpp:122] Setting up loss1/classifier
I0509 17:30:30.286412 120071 net.cpp:129] Top shape: 32 1000 (32000)
I0509 17:30:30.286414 120071 net.cpp:137] Memory required for data: 1261712896
I0509 17:30:30.286420 120071 layer_factory.hpp:77] Creating layer loss1/loss
I0509 17:30:30.286427 120071 net.cpp:84] Creating Layer loss1/loss
I0509 17:30:30.286429 120071 net.cpp:406] loss1/loss <- loss1/classifier
I0509 17:30:30.286433 120071 net.cpp:406] loss1/loss <- label_data_1_split_0
I0509 17:30:30.286438 120071 net.cpp:380] loss1/loss -> loss1/loss1
I0509 17:30:30.286445 120071 layer_factory.hpp:77] Creating layer loss1/loss
I0509 17:30:30.286507 120071 net.cpp:122] Setting up loss1/loss
I0509 17:30:30.286514 120071 net.cpp:129] Top shape: (1)
I0509 17:30:30.286516 120071 net.cpp:132]     with loss weight 0.3
I0509 17:30:30.286536 120071 net.cpp:137] Memory required for data: 1261712900
I0509 17:30:30.286540 120071 layer_factory.hpp:77] Creating layer inception_4b/1x1
I0509 17:30:30.286548 120071 net.cpp:84] Creating Layer inception_4b/1x1
I0509 17:30:30.286552 120071 net.cpp:406] inception_4b/1x1 <- inception_4a/output_inception_4a/output_0_split_1
I0509 17:30:30.286559 120071 net.cpp:380] inception_4b/1x1 -> inception_4b/1x1
I0509 17:30:30.286567 120071 base_conv_layer.cpp:121] Group is 1channel is512number of output is 160
I0509 17:30:30.287065 120071 net.cpp:122] Setting up inception_4b/1x1
I0509 17:30:30.287072 120071 net.cpp:129] Top shape: 32 160 14 14 (1003520)
I0509 17:30:30.287075 120071 net.cpp:137] Memory required for data: 1265726980
I0509 17:30:30.287080 120071 layer_factory.hpp:77] Creating layer inception_4b/relu_1x1
I0509 17:30:30.287083 120071 net.cpp:84] Creating Layer inception_4b/relu_1x1
I0509 17:30:30.287087 120071 net.cpp:406] inception_4b/relu_1x1 <- inception_4b/1x1
I0509 17:30:30.287092 120071 net.cpp:367] inception_4b/relu_1x1 -> inception_4b/1x1 (in-place)
I0509 17:30:30.287097 120071 net.cpp:122] Setting up inception_4b/relu_1x1
I0509 17:30:30.287101 120071 net.cpp:129] Top shape: 32 160 14 14 (1003520)
I0509 17:30:30.287104 120071 net.cpp:137] Memory required for data: 1269741060
I0509 17:30:30.287107 120071 layer_factory.hpp:77] Creating layer inception_4b/3x3_reduce
I0509 17:30:30.287114 120071 net.cpp:84] Creating Layer inception_4b/3x3_reduce
I0509 17:30:30.287117 120071 net.cpp:406] inception_4b/3x3_reduce <- inception_4a/output_inception_4a/output_0_split_2
I0509 17:30:30.287123 120071 net.cpp:380] inception_4b/3x3_reduce -> inception_4b/3x3_reduce
I0509 17:30:30.287130 120071 base_conv_layer.cpp:121] Group is 1channel is512number of output is 112
I0509 17:30:30.287482 120071 net.cpp:122] Setting up inception_4b/3x3_reduce
I0509 17:30:30.287487 120071 net.cpp:129] Top shape: 32 112 14 14 (702464)
I0509 17:30:30.287490 120071 net.cpp:137] Memory required for data: 1272550916
I0509 17:30:30.287494 120071 layer_factory.hpp:77] Creating layer inception_4b/relu_3x3_reduce
I0509 17:30:30.287508 120071 net.cpp:84] Creating Layer inception_4b/relu_3x3_reduce
I0509 17:30:30.287513 120071 net.cpp:406] inception_4b/relu_3x3_reduce <- inception_4b/3x3_reduce
I0509 17:30:30.287518 120071 net.cpp:367] inception_4b/relu_3x3_reduce -> inception_4b/3x3_reduce (in-place)
I0509 17:30:30.287523 120071 net.cpp:122] Setting up inception_4b/relu_3x3_reduce
I0509 17:30:30.287526 120071 net.cpp:129] Top shape: 32 112 14 14 (702464)
I0509 17:30:30.287528 120071 net.cpp:137] Memory required for data: 1275360772
I0509 17:30:30.287531 120071 layer_factory.hpp:77] Creating layer inception_4b/3x3
I0509 17:30:30.287539 120071 net.cpp:84] Creating Layer inception_4b/3x3
I0509 17:30:30.287541 120071 net.cpp:406] inception_4b/3x3 <- inception_4b/3x3_reduce
I0509 17:30:30.287547 120071 net.cpp:380] inception_4b/3x3 -> inception_4b/3x3
I0509 17:30:30.287555 120071 base_conv_layer.cpp:121] Group is 1channel is112number of output is 224
I0509 17:30:30.288893 120071 net.cpp:122] Setting up inception_4b/3x3
I0509 17:30:30.288902 120071 net.cpp:129] Top shape: 32 224 14 14 (1404928)
I0509 17:30:30.288903 120071 net.cpp:137] Memory required for data: 1280980484
I0509 17:30:30.288909 120071 layer_factory.hpp:77] Creating layer inception_4b/relu_3x3
I0509 17:30:30.288913 120071 net.cpp:84] Creating Layer inception_4b/relu_3x3
I0509 17:30:30.288916 120071 net.cpp:406] inception_4b/relu_3x3 <- inception_4b/3x3
I0509 17:30:30.288920 120071 net.cpp:367] inception_4b/relu_3x3 -> inception_4b/3x3 (in-place)
I0509 17:30:30.288926 120071 net.cpp:122] Setting up inception_4b/relu_3x3
I0509 17:30:30.288929 120071 net.cpp:129] Top shape: 32 224 14 14 (1404928)
I0509 17:30:30.288933 120071 net.cpp:137] Memory required for data: 1286600196
I0509 17:30:30.288935 120071 layer_factory.hpp:77] Creating layer inception_4b/5x5_reduce
I0509 17:30:30.288944 120071 net.cpp:84] Creating Layer inception_4b/5x5_reduce
I0509 17:30:30.288946 120071 net.cpp:406] inception_4b/5x5_reduce <- inception_4a/output_inception_4a/output_0_split_3
I0509 17:30:30.288951 120071 net.cpp:380] inception_4b/5x5_reduce -> inception_4b/5x5_reduce
I0509 17:30:30.288959 120071 base_conv_layer.cpp:121] Group is 1channel is512number of output is 24
I0509 17:30:30.289038 120071 net.cpp:122] Setting up inception_4b/5x5_reduce
I0509 17:30:30.289044 120071 net.cpp:129] Top shape: 32 24 14 14 (150528)
I0509 17:30:30.289047 120071 net.cpp:137] Memory required for data: 1287202308
I0509 17:30:30.289052 120071 layer_factory.hpp:77] Creating layer inception_4b/relu_5x5_reduce
I0509 17:30:30.289058 120071 net.cpp:84] Creating Layer inception_4b/relu_5x5_reduce
I0509 17:30:30.289062 120071 net.cpp:406] inception_4b/relu_5x5_reduce <- inception_4b/5x5_reduce
I0509 17:30:30.289064 120071 net.cpp:367] inception_4b/relu_5x5_reduce -> inception_4b/5x5_reduce (in-place)
I0509 17:30:30.289069 120071 net.cpp:122] Setting up inception_4b/relu_5x5_reduce
I0509 17:30:30.289073 120071 net.cpp:129] Top shape: 32 24 14 14 (150528)
I0509 17:30:30.289077 120071 net.cpp:137] Memory required for data: 1287804420
I0509 17:30:30.289078 120071 layer_factory.hpp:77] Creating layer inception_4b/5x5
I0509 17:30:30.289086 120071 net.cpp:84] Creating Layer inception_4b/5x5
I0509 17:30:30.289089 120071 net.cpp:406] inception_4b/5x5 <- inception_4b/5x5_reduce
I0509 17:30:30.289095 120071 net.cpp:380] inception_4b/5x5 -> inception_4b/5x5
I0509 17:30:30.289103 120071 base_conv_layer.cpp:121] Group is 1channel is24number of output is 64
I0509 17:30:30.289340 120071 net.cpp:122] Setting up inception_4b/5x5
I0509 17:30:30.289345 120071 net.cpp:129] Top shape: 32 64 14 14 (401408)
I0509 17:30:30.289348 120071 net.cpp:137] Memory required for data: 1289410052
I0509 17:30:30.289353 120071 layer_factory.hpp:77] Creating layer inception_4b/relu_5x5
I0509 17:30:30.289357 120071 net.cpp:84] Creating Layer inception_4b/relu_5x5
I0509 17:30:30.289361 120071 net.cpp:406] inception_4b/relu_5x5 <- inception_4b/5x5
I0509 17:30:30.289366 120071 net.cpp:367] inception_4b/relu_5x5 -> inception_4b/5x5 (in-place)
I0509 17:30:30.289373 120071 net.cpp:122] Setting up inception_4b/relu_5x5
I0509 17:30:30.289382 120071 net.cpp:129] Top shape: 32 64 14 14 (401408)
I0509 17:30:30.289386 120071 net.cpp:137] Memory required for data: 1291015684
I0509 17:30:30.289388 120071 layer_factory.hpp:77] Creating layer inception_4b/pool
I0509 17:30:30.289393 120071 net.cpp:84] Creating Layer inception_4b/pool
I0509 17:30:30.289397 120071 net.cpp:406] inception_4b/pool <- inception_4a/output_inception_4a/output_0_split_4
I0509 17:30:30.289402 120071 net.cpp:380] inception_4b/pool -> inception_4b/pool
I0509 17:30:30.289420 120071 net.cpp:122] Setting up inception_4b/pool
I0509 17:30:30.289424 120071 net.cpp:129] Top shape: 32 512 14 14 (3211264)
I0509 17:30:30.289427 120071 net.cpp:137] Memory required for data: 1303860740
I0509 17:30:30.289430 120071 layer_factory.hpp:77] Creating layer inception_4b/pool_proj
I0509 17:30:30.289436 120071 net.cpp:84] Creating Layer inception_4b/pool_proj
I0509 17:30:30.289439 120071 net.cpp:406] inception_4b/pool_proj <- inception_4b/pool
I0509 17:30:30.289444 120071 net.cpp:380] inception_4b/pool_proj -> inception_4b/pool_proj
I0509 17:30:30.289453 120071 base_conv_layer.cpp:121] Group is 1channel is512number of output is 64
I0509 17:30:30.289657 120071 net.cpp:122] Setting up inception_4b/pool_proj
I0509 17:30:30.289664 120071 net.cpp:129] Top shape: 32 64 14 14 (401408)
I0509 17:30:30.289666 120071 net.cpp:137] Memory required for data: 1305466372
I0509 17:30:30.289671 120071 layer_factory.hpp:77] Creating layer inception_4b/relu_pool_proj
I0509 17:30:30.289676 120071 net.cpp:84] Creating Layer inception_4b/relu_pool_proj
I0509 17:30:30.289680 120071 net.cpp:406] inception_4b/relu_pool_proj <- inception_4b/pool_proj
I0509 17:30:30.289685 120071 net.cpp:367] inception_4b/relu_pool_proj -> inception_4b/pool_proj (in-place)
I0509 17:30:30.289690 120071 net.cpp:122] Setting up inception_4b/relu_pool_proj
I0509 17:30:30.289693 120071 net.cpp:129] Top shape: 32 64 14 14 (401408)
I0509 17:30:30.289695 120071 net.cpp:137] Memory required for data: 1307072004
I0509 17:30:30.289698 120071 layer_factory.hpp:77] Creating layer inception_4b/output
I0509 17:30:30.289703 120071 net.cpp:84] Creating Layer inception_4b/output
I0509 17:30:30.289706 120071 net.cpp:406] inception_4b/output <- inception_4b/1x1
I0509 17:30:30.289710 120071 net.cpp:406] inception_4b/output <- inception_4b/3x3
I0509 17:30:30.289712 120071 net.cpp:406] inception_4b/output <- inception_4b/5x5
I0509 17:30:30.289716 120071 net.cpp:406] inception_4b/output <- inception_4b/pool_proj
I0509 17:30:30.289721 120071 net.cpp:380] inception_4b/output -> inception_4b/output
I0509 17:30:30.289727 120071 net.cpp:122] Setting up inception_4b/output
I0509 17:30:30.289731 120071 net.cpp:129] Top shape: 32 512 14 14 (3211264)
I0509 17:30:30.289734 120071 net.cpp:137] Memory required for data: 1319917060
I0509 17:30:30.289737 120071 layer_factory.hpp:77] Creating layer inception_4b/output_inception_4b/output_0_split
I0509 17:30:30.289741 120071 net.cpp:84] Creating Layer inception_4b/output_inception_4b/output_0_split
I0509 17:30:30.289744 120071 net.cpp:406] inception_4b/output_inception_4b/output_0_split <- inception_4b/output
I0509 17:30:30.289750 120071 net.cpp:380] inception_4b/output_inception_4b/output_0_split -> inception_4b/output_inception_4b/output_0_split_0
I0509 17:30:30.289757 120071 net.cpp:380] inception_4b/output_inception_4b/output_0_split -> inception_4b/output_inception_4b/output_0_split_1
I0509 17:30:30.289762 120071 net.cpp:380] inception_4b/output_inception_4b/output_0_split -> inception_4b/output_inception_4b/output_0_split_2
I0509 17:30:30.289767 120071 net.cpp:380] inception_4b/output_inception_4b/output_0_split -> inception_4b/output_inception_4b/output_0_split_3
I0509 17:30:30.289773 120071 net.cpp:122] Setting up inception_4b/output_inception_4b/output_0_split
I0509 17:30:30.289777 120071 net.cpp:129] Top shape: 32 512 14 14 (3211264)
I0509 17:30:30.289780 120071 net.cpp:129] Top shape: 32 512 14 14 (3211264)
I0509 17:30:30.289786 120071 net.cpp:129] Top shape: 32 512 14 14 (3211264)
I0509 17:30:30.289796 120071 net.cpp:129] Top shape: 32 512 14 14 (3211264)
I0509 17:30:30.289799 120071 net.cpp:137] Memory required for data: 1371297284
I0509 17:30:30.289803 120071 layer_factory.hpp:77] Creating layer inception_4c/1x1
I0509 17:30:30.289809 120071 net.cpp:84] Creating Layer inception_4c/1x1
I0509 17:30:30.289813 120071 net.cpp:406] inception_4c/1x1 <- inception_4b/output_inception_4b/output_0_split_0
I0509 17:30:30.289819 120071 net.cpp:380] inception_4c/1x1 -> inception_4c/1x1
I0509 17:30:30.289825 120071 base_conv_layer.cpp:121] Group is 1channel is512number of output is 128
I0509 17:30:30.290223 120071 net.cpp:122] Setting up inception_4c/1x1
I0509 17:30:30.290230 120071 net.cpp:129] Top shape: 32 128 14 14 (802816)
I0509 17:30:30.290232 120071 net.cpp:137] Memory required for data: 1374508548
I0509 17:30:30.290237 120071 layer_factory.hpp:77] Creating layer inception_4c/relu_1x1
I0509 17:30:30.290241 120071 net.cpp:84] Creating Layer inception_4c/relu_1x1
I0509 17:30:30.290244 120071 net.cpp:406] inception_4c/relu_1x1 <- inception_4c/1x1
I0509 17:30:30.290253 120071 net.cpp:367] inception_4c/relu_1x1 -> inception_4c/1x1 (in-place)
I0509 17:30:30.290257 120071 net.cpp:122] Setting up inception_4c/relu_1x1
I0509 17:30:30.290261 120071 net.cpp:129] Top shape: 32 128 14 14 (802816)
I0509 17:30:30.290264 120071 net.cpp:137] Memory required for data: 1377719812
I0509 17:30:30.290266 120071 layer_factory.hpp:77] Creating layer inception_4c/3x3_reduce
I0509 17:30:30.290273 120071 net.cpp:84] Creating Layer inception_4c/3x3_reduce
I0509 17:30:30.290277 120071 net.cpp:406] inception_4c/3x3_reduce <- inception_4b/output_inception_4b/output_0_split_1
I0509 17:30:30.290282 120071 net.cpp:380] inception_4c/3x3_reduce -> inception_4c/3x3_reduce
I0509 17:30:30.290289 120071 base_conv_layer.cpp:121] Group is 1channel is512number of output is 128
I0509 17:30:30.290688 120071 net.cpp:122] Setting up inception_4c/3x3_reduce
I0509 17:30:30.290693 120071 net.cpp:129] Top shape: 32 128 14 14 (802816)
I0509 17:30:30.290695 120071 net.cpp:137] Memory required for data: 1380931076
I0509 17:30:30.290699 120071 layer_factory.hpp:77] Creating layer inception_4c/relu_3x3_reduce
I0509 17:30:30.290705 120071 net.cpp:84] Creating Layer inception_4c/relu_3x3_reduce
I0509 17:30:30.290709 120071 net.cpp:406] inception_4c/relu_3x3_reduce <- inception_4c/3x3_reduce
I0509 17:30:30.290714 120071 net.cpp:367] inception_4c/relu_3x3_reduce -> inception_4c/3x3_reduce (in-place)
I0509 17:30:30.290717 120071 net.cpp:122] Setting up inception_4c/relu_3x3_reduce
I0509 17:30:30.290721 120071 net.cpp:129] Top shape: 32 128 14 14 (802816)
I0509 17:30:30.290724 120071 net.cpp:137] Memory required for data: 1384142340
I0509 17:30:30.290726 120071 layer_factory.hpp:77] Creating layer inception_4c/3x3
I0509 17:30:30.290732 120071 net.cpp:84] Creating Layer inception_4c/3x3
I0509 17:30:30.290735 120071 net.cpp:406] inception_4c/3x3 <- inception_4c/3x3_reduce
I0509 17:30:30.290740 120071 net.cpp:380] inception_4c/3x3 -> inception_4c/3x3
I0509 17:30:30.290747 120071 base_conv_layer.cpp:121] Group is 1channel is128number of output is 256
I0509 17:30:30.292488 120071 net.cpp:122] Setting up inception_4c/3x3
I0509 17:30:30.292495 120071 net.cpp:129] Top shape: 32 256 14 14 (1605632)
I0509 17:30:30.292498 120071 net.cpp:137] Memory required for data: 1390564868
I0509 17:30:30.292510 120071 layer_factory.hpp:77] Creating layer inception_4c/relu_3x3
I0509 17:30:30.292515 120071 net.cpp:84] Creating Layer inception_4c/relu_3x3
I0509 17:30:30.292518 120071 net.cpp:406] inception_4c/relu_3x3 <- inception_4c/3x3
I0509 17:30:30.292524 120071 net.cpp:367] inception_4c/relu_3x3 -> inception_4c/3x3 (in-place)
I0509 17:30:30.292529 120071 net.cpp:122] Setting up inception_4c/relu_3x3
I0509 17:30:30.292533 120071 net.cpp:129] Top shape: 32 256 14 14 (1605632)
I0509 17:30:30.292536 120071 net.cpp:137] Memory required for data: 1396987396
I0509 17:30:30.292538 120071 layer_factory.hpp:77] Creating layer inception_4c/5x5_reduce
I0509 17:30:30.292547 120071 net.cpp:84] Creating Layer inception_4c/5x5_reduce
I0509 17:30:30.292556 120071 net.cpp:406] inception_4c/5x5_reduce <- inception_4b/output_inception_4b/output_0_split_2
I0509 17:30:30.292560 120071 net.cpp:380] inception_4c/5x5_reduce -> inception_4c/5x5_reduce
I0509 17:30:30.292567 120071 base_conv_layer.cpp:121] Group is 1channel is512number of output is 24
I0509 17:30:30.292649 120071 net.cpp:122] Setting up inception_4c/5x5_reduce
I0509 17:30:30.292654 120071 net.cpp:129] Top shape: 32 24 14 14 (150528)
I0509 17:30:30.292656 120071 net.cpp:137] Memory required for data: 1397589508
I0509 17:30:30.292660 120071 layer_factory.hpp:77] Creating layer inception_4c/relu_5x5_reduce
I0509 17:30:30.292665 120071 net.cpp:84] Creating Layer inception_4c/relu_5x5_reduce
I0509 17:30:30.292668 120071 net.cpp:406] inception_4c/relu_5x5_reduce <- inception_4c/5x5_reduce
I0509 17:30:30.292675 120071 net.cpp:367] inception_4c/relu_5x5_reduce -> inception_4c/5x5_reduce (in-place)
I0509 17:30:30.292680 120071 net.cpp:122] Setting up inception_4c/relu_5x5_reduce
I0509 17:30:30.292685 120071 net.cpp:129] Top shape: 32 24 14 14 (150528)
I0509 17:30:30.292686 120071 net.cpp:137] Memory required for data: 1398191620
I0509 17:30:30.292690 120071 layer_factory.hpp:77] Creating layer inception_4c/5x5
I0509 17:30:30.292696 120071 net.cpp:84] Creating Layer inception_4c/5x5
I0509 17:30:30.292701 120071 net.cpp:406] inception_4c/5x5 <- inception_4c/5x5_reduce
I0509 17:30:30.292704 120071 net.cpp:380] inception_4c/5x5 -> inception_4c/5x5
I0509 17:30:30.292712 120071 base_conv_layer.cpp:121] Group is 1channel is24number of output is 64
I0509 17:30:30.292950 120071 net.cpp:122] Setting up inception_4c/5x5
I0509 17:30:30.292958 120071 net.cpp:129] Top shape: 32 64 14 14 (401408)
I0509 17:30:30.292960 120071 net.cpp:137] Memory required for data: 1399797252
I0509 17:30:30.292965 120071 layer_factory.hpp:77] Creating layer inception_4c/relu_5x5
I0509 17:30:30.292969 120071 net.cpp:84] Creating Layer inception_4c/relu_5x5
I0509 17:30:30.292973 120071 net.cpp:406] inception_4c/relu_5x5 <- inception_4c/5x5
I0509 17:30:30.292976 120071 net.cpp:367] inception_4c/relu_5x5 -> inception_4c/5x5 (in-place)
I0509 17:30:30.292981 120071 net.cpp:122] Setting up inception_4c/relu_5x5
I0509 17:30:30.292984 120071 net.cpp:129] Top shape: 32 64 14 14 (401408)
I0509 17:30:30.292987 120071 net.cpp:137] Memory required for data: 1401402884
I0509 17:30:30.292990 120071 layer_factory.hpp:77] Creating layer inception_4c/pool
I0509 17:30:30.292994 120071 net.cpp:84] Creating Layer inception_4c/pool
I0509 17:30:30.292997 120071 net.cpp:406] inception_4c/pool <- inception_4b/output_inception_4b/output_0_split_3
I0509 17:30:30.293004 120071 net.cpp:380] inception_4c/pool -> inception_4c/pool
I0509 17:30:30.293009 120071 net.cpp:122] Setting up inception_4c/pool
I0509 17:30:30.293015 120071 net.cpp:129] Top shape: 32 512 14 14 (3211264)
I0509 17:30:30.293017 120071 net.cpp:137] Memory required for data: 1414247940
I0509 17:30:30.293020 120071 layer_factory.hpp:77] Creating layer inception_4c/pool_proj
I0509 17:30:30.293026 120071 net.cpp:84] Creating Layer inception_4c/pool_proj
I0509 17:30:30.293030 120071 net.cpp:406] inception_4c/pool_proj <- inception_4c/pool
I0509 17:30:30.293035 120071 net.cpp:380] inception_4c/pool_proj -> inception_4c/pool_proj
I0509 17:30:30.293041 120071 base_conv_layer.cpp:121] Group is 1channel is512number of output is 64
I0509 17:30:30.293256 120071 net.cpp:122] Setting up inception_4c/pool_proj
I0509 17:30:30.293262 120071 net.cpp:129] Top shape: 32 64 14 14 (401408)
I0509 17:30:30.293264 120071 net.cpp:137] Memory required for data: 1415853572
I0509 17:30:30.293270 120071 layer_factory.hpp:77] Creating layer inception_4c/relu_pool_proj
I0509 17:30:30.293274 120071 net.cpp:84] Creating Layer inception_4c/relu_pool_proj
I0509 17:30:30.293278 120071 net.cpp:406] inception_4c/relu_pool_proj <- inception_4c/pool_proj
I0509 17:30:30.293282 120071 net.cpp:367] inception_4c/relu_pool_proj -> inception_4c/pool_proj (in-place)
I0509 17:30:30.293290 120071 net.cpp:122] Setting up inception_4c/relu_pool_proj
I0509 17:30:30.293298 120071 net.cpp:129] Top shape: 32 64 14 14 (401408)
I0509 17:30:30.293300 120071 net.cpp:137] Memory required for data: 1417459204
I0509 17:30:30.293303 120071 layer_factory.hpp:77] Creating layer inception_4c/output
I0509 17:30:30.293309 120071 net.cpp:84] Creating Layer inception_4c/output
I0509 17:30:30.293311 120071 net.cpp:406] inception_4c/output <- inception_4c/1x1
I0509 17:30:30.293315 120071 net.cpp:406] inception_4c/output <- inception_4c/3x3
I0509 17:30:30.293318 120071 net.cpp:406] inception_4c/output <- inception_4c/5x5
I0509 17:30:30.293323 120071 net.cpp:406] inception_4c/output <- inception_4c/pool_proj
I0509 17:30:30.293328 120071 net.cpp:380] inception_4c/output -> inception_4c/output
I0509 17:30:30.293332 120071 net.cpp:122] Setting up inception_4c/output
I0509 17:30:30.293336 120071 net.cpp:129] Top shape: 32 512 14 14 (3211264)
I0509 17:30:30.293339 120071 net.cpp:137] Memory required for data: 1430304260
I0509 17:30:30.293342 120071 layer_factory.hpp:77] Creating layer inception_4c/output_inception_4c/output_0_split
I0509 17:30:30.293346 120071 net.cpp:84] Creating Layer inception_4c/output_inception_4c/output_0_split
I0509 17:30:30.293349 120071 net.cpp:406] inception_4c/output_inception_4c/output_0_split <- inception_4c/output
I0509 17:30:30.293355 120071 net.cpp:380] inception_4c/output_inception_4c/output_0_split -> inception_4c/output_inception_4c/output_0_split_0
I0509 17:30:30.293361 120071 net.cpp:380] inception_4c/output_inception_4c/output_0_split -> inception_4c/output_inception_4c/output_0_split_1
I0509 17:30:30.293366 120071 net.cpp:380] inception_4c/output_inception_4c/output_0_split -> inception_4c/output_inception_4c/output_0_split_2
I0509 17:30:30.293372 120071 net.cpp:380] inception_4c/output_inception_4c/output_0_split -> inception_4c/output_inception_4c/output_0_split_3
I0509 17:30:30.293378 120071 net.cpp:122] Setting up inception_4c/output_inception_4c/output_0_split
I0509 17:30:30.293382 120071 net.cpp:129] Top shape: 32 512 14 14 (3211264)
I0509 17:30:30.293385 120071 net.cpp:129] Top shape: 32 512 14 14 (3211264)
I0509 17:30:30.293390 120071 net.cpp:129] Top shape: 32 512 14 14 (3211264)
I0509 17:30:30.293393 120071 net.cpp:129] Top shape: 32 512 14 14 (3211264)
I0509 17:30:30.293395 120071 net.cpp:137] Memory required for data: 1481684484
I0509 17:30:30.293397 120071 layer_factory.hpp:77] Creating layer inception_4d/1x1
I0509 17:30:30.293406 120071 net.cpp:84] Creating Layer inception_4d/1x1
I0509 17:30:30.293408 120071 net.cpp:406] inception_4d/1x1 <- inception_4c/output_inception_4c/output_0_split_0
I0509 17:30:30.293414 120071 net.cpp:380] inception_4d/1x1 -> inception_4d/1x1
I0509 17:30:30.293421 120071 base_conv_layer.cpp:121] Group is 1channel is512number of output is 112
I0509 17:30:30.293776 120071 net.cpp:122] Setting up inception_4d/1x1
I0509 17:30:30.293781 120071 net.cpp:129] Top shape: 32 112 14 14 (702464)
I0509 17:30:30.293784 120071 net.cpp:137] Memory required for data: 1484494340
I0509 17:30:30.293788 120071 layer_factory.hpp:77] Creating layer inception_4d/relu_1x1
I0509 17:30:30.293792 120071 net.cpp:84] Creating Layer inception_4d/relu_1x1
I0509 17:30:30.293797 120071 net.cpp:406] inception_4d/relu_1x1 <- inception_4d/1x1
I0509 17:30:30.293802 120071 net.cpp:367] inception_4d/relu_1x1 -> inception_4d/1x1 (in-place)
I0509 17:30:30.293807 120071 net.cpp:122] Setting up inception_4d/relu_1x1
I0509 17:30:30.293810 120071 net.cpp:129] Top shape: 32 112 14 14 (702464)
I0509 17:30:30.293813 120071 net.cpp:137] Memory required for data: 1487304196
I0509 17:30:30.293815 120071 layer_factory.hpp:77] Creating layer inception_4d/3x3_reduce
I0509 17:30:30.293823 120071 net.cpp:84] Creating Layer inception_4d/3x3_reduce
I0509 17:30:30.293825 120071 net.cpp:406] inception_4d/3x3_reduce <- inception_4c/output_inception_4c/output_0_split_1
I0509 17:30:30.293830 120071 net.cpp:380] inception_4d/3x3_reduce -> inception_4d/3x3_reduce
I0509 17:30:30.293838 120071 base_conv_layer.cpp:121] Group is 1channel is512number of output is 144
I0509 17:30:30.294291 120071 net.cpp:122] Setting up inception_4d/3x3_reduce
I0509 17:30:30.294297 120071 net.cpp:129] Top shape: 32 144 14 14 (903168)
I0509 17:30:30.294301 120071 net.cpp:137] Memory required for data: 1490916868
I0509 17:30:30.294306 120071 layer_factory.hpp:77] Creating layer inception_4d/relu_3x3_reduce
I0509 17:30:30.294309 120071 net.cpp:84] Creating Layer inception_4d/relu_3x3_reduce
I0509 17:30:30.294312 120071 net.cpp:406] inception_4d/relu_3x3_reduce <- inception_4d/3x3_reduce
I0509 17:30:30.294317 120071 net.cpp:367] inception_4d/relu_3x3_reduce -> inception_4d/3x3_reduce (in-place)
I0509 17:30:30.294322 120071 net.cpp:122] Setting up inception_4d/relu_3x3_reduce
I0509 17:30:30.294325 120071 net.cpp:129] Top shape: 32 144 14 14 (903168)
I0509 17:30:30.294327 120071 net.cpp:137] Memory required for data: 1494529540
I0509 17:30:30.294330 120071 layer_factory.hpp:77] Creating layer inception_4d/3x3
I0509 17:30:30.294337 120071 net.cpp:84] Creating Layer inception_4d/3x3
I0509 17:30:30.294340 120071 net.cpp:406] inception_4d/3x3 <- inception_4d/3x3_reduce
I0509 17:30:30.294344 120071 net.cpp:380] inception_4d/3x3 -> inception_4d/3x3
I0509 17:30:30.294351 120071 base_conv_layer.cpp:121] Group is 1channel is144number of output is 288
I0509 17:30:30.296550 120071 net.cpp:122] Setting up inception_4d/3x3
I0509 17:30:30.296556 120071 net.cpp:129] Top shape: 32 288 14 14 (1806336)
I0509 17:30:30.296560 120071 net.cpp:137] Memory required for data: 1501754884
I0509 17:30:30.296564 120071 layer_factory.hpp:77] Creating layer inception_4d/relu_3x3
I0509 17:30:30.296571 120071 net.cpp:84] Creating Layer inception_4d/relu_3x3
I0509 17:30:30.296573 120071 net.cpp:406] inception_4d/relu_3x3 <- inception_4d/3x3
I0509 17:30:30.296577 120071 net.cpp:367] inception_4d/relu_3x3 -> inception_4d/3x3 (in-place)
I0509 17:30:30.296582 120071 net.cpp:122] Setting up inception_4d/relu_3x3
I0509 17:30:30.296586 120071 net.cpp:129] Top shape: 32 288 14 14 (1806336)
I0509 17:30:30.296588 120071 net.cpp:137] Memory required for data: 1508980228
I0509 17:30:30.296591 120071 layer_factory.hpp:77] Creating layer inception_4d/5x5_reduce
I0509 17:30:30.296597 120071 net.cpp:84] Creating Layer inception_4d/5x5_reduce
I0509 17:30:30.296600 120071 net.cpp:406] inception_4d/5x5_reduce <- inception_4c/output_inception_4c/output_0_split_2
I0509 17:30:30.296607 120071 net.cpp:380] inception_4d/5x5_reduce -> inception_4d/5x5_reduce
I0509 17:30:30.296613 120071 base_conv_layer.cpp:121] Group is 1channel is512number of output is 32
I0509 17:30:30.296715 120071 net.cpp:122] Setting up inception_4d/5x5_reduce
I0509 17:30:30.296720 120071 net.cpp:129] Top shape: 32 32 14 14 (200704)
I0509 17:30:30.296722 120071 net.cpp:137] Memory required for data: 1509783044
I0509 17:30:30.296726 120071 layer_factory.hpp:77] Creating layer inception_4d/relu_5x5_reduce
I0509 17:30:30.296732 120071 net.cpp:84] Creating Layer inception_4d/relu_5x5_reduce
I0509 17:30:30.296736 120071 net.cpp:406] inception_4d/relu_5x5_reduce <- inception_4d/5x5_reduce
I0509 17:30:30.296741 120071 net.cpp:367] inception_4d/relu_5x5_reduce -> inception_4d/5x5_reduce (in-place)
I0509 17:30:30.296744 120071 net.cpp:122] Setting up inception_4d/relu_5x5_reduce
I0509 17:30:30.296748 120071 net.cpp:129] Top shape: 32 32 14 14 (200704)
I0509 17:30:30.296751 120071 net.cpp:137] Memory required for data: 1510585860
I0509 17:30:30.296753 120071 layer_factory.hpp:77] Creating layer inception_4d/5x5
I0509 17:30:30.296759 120071 net.cpp:84] Creating Layer inception_4d/5x5
I0509 17:30:30.296762 120071 net.cpp:406] inception_4d/5x5 <- inception_4d/5x5_reduce
I0509 17:30:30.296767 120071 net.cpp:380] inception_4d/5x5 -> inception_4d/5x5
I0509 17:30:30.296774 120071 base_conv_layer.cpp:121] Group is 1channel is32number of output is 64
I0509 17:30:30.297088 120071 net.cpp:122] Setting up inception_4d/5x5
I0509 17:30:30.297094 120071 net.cpp:129] Top shape: 32 64 14 14 (401408)
I0509 17:30:30.297097 120071 net.cpp:137] Memory required for data: 1512191492
I0509 17:30:30.297104 120071 layer_factory.hpp:77] Creating layer inception_4d/relu_5x5
I0509 17:30:30.297113 120071 net.cpp:84] Creating Layer inception_4d/relu_5x5
I0509 17:30:30.297116 120071 net.cpp:406] inception_4d/relu_5x5 <- inception_4d/5x5
I0509 17:30:30.297122 120071 net.cpp:367] inception_4d/relu_5x5 -> inception_4d/5x5 (in-place)
I0509 17:30:30.297127 120071 net.cpp:122] Setting up inception_4d/relu_5x5
I0509 17:30:30.297129 120071 net.cpp:129] Top shape: 32 64 14 14 (401408)
I0509 17:30:30.297132 120071 net.cpp:137] Memory required for data: 1513797124
I0509 17:30:30.297135 120071 layer_factory.hpp:77] Creating layer inception_4d/pool
I0509 17:30:30.297139 120071 net.cpp:84] Creating Layer inception_4d/pool
I0509 17:30:30.297142 120071 net.cpp:406] inception_4d/pool <- inception_4c/output_inception_4c/output_0_split_3
I0509 17:30:30.297149 120071 net.cpp:380] inception_4d/pool -> inception_4d/pool
I0509 17:30:30.297155 120071 net.cpp:122] Setting up inception_4d/pool
I0509 17:30:30.297159 120071 net.cpp:129] Top shape: 32 512 14 14 (3211264)
I0509 17:30:30.297161 120071 net.cpp:137] Memory required for data: 1526642180
I0509 17:30:30.297164 120071 layer_factory.hpp:77] Creating layer inception_4d/pool_proj
I0509 17:30:30.297171 120071 net.cpp:84] Creating Layer inception_4d/pool_proj
I0509 17:30:30.297174 120071 net.cpp:406] inception_4d/pool_proj <- inception_4d/pool
I0509 17:30:30.297180 120071 net.cpp:380] inception_4d/pool_proj -> inception_4d/pool_proj
I0509 17:30:30.297188 120071 base_conv_layer.cpp:121] Group is 1channel is512number of output is 64
I0509 17:30:30.297570 120071 net.cpp:122] Setting up inception_4d/pool_proj
I0509 17:30:30.297579 120071 net.cpp:129] Top shape: 32 64 14 14 (401408)
I0509 17:30:30.297581 120071 net.cpp:137] Memory required for data: 1528247812
I0509 17:30:30.297586 120071 layer_factory.hpp:77] Creating layer inception_4d/relu_pool_proj
I0509 17:30:30.297592 120071 net.cpp:84] Creating Layer inception_4d/relu_pool_proj
I0509 17:30:30.297595 120071 net.cpp:406] inception_4d/relu_pool_proj <- inception_4d/pool_proj
I0509 17:30:30.297600 120071 net.cpp:367] inception_4d/relu_pool_proj -> inception_4d/pool_proj (in-place)
I0509 17:30:30.297606 120071 net.cpp:122] Setting up inception_4d/relu_pool_proj
I0509 17:30:30.297610 120071 net.cpp:129] Top shape: 32 64 14 14 (401408)
I0509 17:30:30.297612 120071 net.cpp:137] Memory required for data: 1529853444
I0509 17:30:30.297615 120071 layer_factory.hpp:77] Creating layer inception_4d/output
I0509 17:30:30.297619 120071 net.cpp:84] Creating Layer inception_4d/output
I0509 17:30:30.297622 120071 net.cpp:406] inception_4d/output <- inception_4d/1x1
I0509 17:30:30.297626 120071 net.cpp:406] inception_4d/output <- inception_4d/3x3
I0509 17:30:30.297628 120071 net.cpp:406] inception_4d/output <- inception_4d/5x5
I0509 17:30:30.297632 120071 net.cpp:406] inception_4d/output <- inception_4d/pool_proj
I0509 17:30:30.297636 120071 net.cpp:380] inception_4d/output -> inception_4d/output
I0509 17:30:30.297642 120071 net.cpp:122] Setting up inception_4d/output
I0509 17:30:30.297646 120071 net.cpp:129] Top shape: 32 528 14 14 (3311616)
I0509 17:30:30.297649 120071 net.cpp:137] Memory required for data: 1543099908
I0509 17:30:30.297652 120071 layer_factory.hpp:77] Creating layer inception_4d/output_inception_4d/output_0_split
I0509 17:30:30.297657 120071 net.cpp:84] Creating Layer inception_4d/output_inception_4d/output_0_split
I0509 17:30:30.297660 120071 net.cpp:406] inception_4d/output_inception_4d/output_0_split <- inception_4d/output
I0509 17:30:30.297667 120071 net.cpp:380] inception_4d/output_inception_4d/output_0_split -> inception_4d/output_inception_4d/output_0_split_0
I0509 17:30:30.297672 120071 net.cpp:380] inception_4d/output_inception_4d/output_0_split -> inception_4d/output_inception_4d/output_0_split_1
I0509 17:30:30.297677 120071 net.cpp:380] inception_4d/output_inception_4d/output_0_split -> inception_4d/output_inception_4d/output_0_split_2
I0509 17:30:30.297682 120071 net.cpp:380] inception_4d/output_inception_4d/output_0_split -> inception_4d/output_inception_4d/output_0_split_3
I0509 17:30:30.297694 120071 net.cpp:380] inception_4d/output_inception_4d/output_0_split -> inception_4d/output_inception_4d/output_0_split_4
I0509 17:30:30.297701 120071 net.cpp:122] Setting up inception_4d/output_inception_4d/output_0_split
I0509 17:30:30.297705 120071 net.cpp:129] Top shape: 32 528 14 14 (3311616)
I0509 17:30:30.297709 120071 net.cpp:129] Top shape: 32 528 14 14 (3311616)
I0509 17:30:30.297713 120071 net.cpp:129] Top shape: 32 528 14 14 (3311616)
I0509 17:30:30.297716 120071 net.cpp:129] Top shape: 32 528 14 14 (3311616)
I0509 17:30:30.297719 120071 net.cpp:129] Top shape: 32 528 14 14 (3311616)
I0509 17:30:30.297722 120071 net.cpp:137] Memory required for data: 1609332228
I0509 17:30:30.297725 120071 layer_factory.hpp:77] Creating layer loss2/ave_pool
I0509 17:30:30.297730 120071 net.cpp:84] Creating Layer loss2/ave_pool
I0509 17:30:30.297734 120071 net.cpp:406] loss2/ave_pool <- inception_4d/output_inception_4d/output_0_split_0
I0509 17:30:30.297739 120071 net.cpp:380] loss2/ave_pool -> loss2/ave_pool
I0509 17:30:30.297744 120071 net.cpp:122] Setting up loss2/ave_pool
I0509 17:30:30.297749 120071 net.cpp:129] Top shape: 32 528 4 4 (270336)
I0509 17:30:30.297750 120071 net.cpp:137] Memory required for data: 1610413572
I0509 17:30:30.297752 120071 layer_factory.hpp:77] Creating layer loss2/conv
I0509 17:30:30.297760 120071 net.cpp:84] Creating Layer loss2/conv
I0509 17:30:30.297763 120071 net.cpp:406] loss2/conv <- loss2/ave_pool
I0509 17:30:30.297770 120071 net.cpp:380] loss2/conv -> loss2/conv
I0509 17:30:30.297776 120071 base_conv_layer.cpp:121] Group is 1channel is528number of output is 128
I0509 17:30:30.298187 120071 net.cpp:122] Setting up loss2/conv
I0509 17:30:30.298192 120071 net.cpp:129] Top shape: 32 128 4 4 (65536)
I0509 17:30:30.298195 120071 net.cpp:137] Memory required for data: 1610675716
I0509 17:30:30.298200 120071 layer_factory.hpp:77] Creating layer loss2/relu_conv
I0509 17:30:30.298205 120071 net.cpp:84] Creating Layer loss2/relu_conv
I0509 17:30:30.298208 120071 net.cpp:406] loss2/relu_conv <- loss2/conv
I0509 17:30:30.298212 120071 net.cpp:367] loss2/relu_conv -> loss2/conv (in-place)
I0509 17:30:30.298216 120071 net.cpp:122] Setting up loss2/relu_conv
I0509 17:30:30.298220 120071 net.cpp:129] Top shape: 32 128 4 4 (65536)
I0509 17:30:30.298223 120071 net.cpp:137] Memory required for data: 1610937860
I0509 17:30:30.298225 120071 layer_factory.hpp:77] Creating layer loss2/fc
I0509 17:30:30.298230 120071 net.cpp:84] Creating Layer loss2/fc
I0509 17:30:30.298233 120071 net.cpp:406] loss2/fc <- loss2/conv
I0509 17:30:30.298239 120071 net.cpp:380] loss2/fc -> loss2/fc
I0509 17:30:30.309412 120071 net.cpp:122] Setting up loss2/fc
I0509 17:30:30.309420 120071 net.cpp:129] Top shape: 32 1024 (32768)
I0509 17:30:30.309423 120071 net.cpp:137] Memory required for data: 1611068932
I0509 17:30:30.309428 120071 layer_factory.hpp:77] Creating layer loss2/relu_fc
I0509 17:30:30.309433 120071 net.cpp:84] Creating Layer loss2/relu_fc
I0509 17:30:30.309437 120071 net.cpp:406] loss2/relu_fc <- loss2/fc
I0509 17:30:30.309442 120071 net.cpp:367] loss2/relu_fc -> loss2/fc (in-place)
I0509 17:30:30.309447 120071 net.cpp:122] Setting up loss2/relu_fc
I0509 17:30:30.309450 120071 net.cpp:129] Top shape: 32 1024 (32768)
I0509 17:30:30.309453 120071 net.cpp:137] Memory required for data: 1611200004
I0509 17:30:30.309455 120071 layer_factory.hpp:77] Creating layer loss2/drop_fc
I0509 17:30:30.309460 120071 net.cpp:84] Creating Layer loss2/drop_fc
I0509 17:30:30.309463 120071 net.cpp:406] loss2/drop_fc <- loss2/fc
I0509 17:30:30.309466 120071 net.cpp:367] loss2/drop_fc -> loss2/fc (in-place)
I0509 17:30:30.309473 120071 net.cpp:122] Setting up loss2/drop_fc
I0509 17:30:30.309475 120071 net.cpp:129] Top shape: 32 1024 (32768)
I0509 17:30:30.309478 120071 net.cpp:137] Memory required for data: 1611331076
I0509 17:30:30.309480 120071 layer_factory.hpp:77] Creating layer loss2/classifier
I0509 17:30:30.309485 120071 net.cpp:84] Creating Layer loss2/classifier
I0509 17:30:30.309492 120071 net.cpp:406] loss2/classifier <- loss2/fc
I0509 17:30:30.309502 120071 net.cpp:380] loss2/classifier -> loss2/classifier
I0509 17:30:30.315187 120071 net.cpp:122] Setting up loss2/classifier
I0509 17:30:30.315196 120071 net.cpp:129] Top shape: 32 1000 (32000)
I0509 17:30:30.315199 120071 net.cpp:137] Memory required for data: 1611459076
I0509 17:30:30.315204 120071 layer_factory.hpp:77] Creating layer loss2/loss
I0509 17:30:30.315209 120071 net.cpp:84] Creating Layer loss2/loss
I0509 17:30:30.315213 120071 net.cpp:406] loss2/loss <- loss2/classifier
I0509 17:30:30.315217 120071 net.cpp:406] loss2/loss <- label_data_1_split_1
I0509 17:30:30.315222 120071 net.cpp:380] loss2/loss -> loss2/loss2
I0509 17:30:30.315228 120071 layer_factory.hpp:77] Creating layer loss2/loss
I0509 17:30:30.315356 120071 net.cpp:122] Setting up loss2/loss
I0509 17:30:30.315362 120071 net.cpp:129] Top shape: (1)
I0509 17:30:30.315366 120071 net.cpp:132]     with loss weight 0.3
I0509 17:30:30.315376 120071 net.cpp:137] Memory required for data: 1611459080
I0509 17:30:30.315378 120071 layer_factory.hpp:77] Creating layer inception_4e/1x1
I0509 17:30:30.315387 120071 net.cpp:84] Creating Layer inception_4e/1x1
I0509 17:30:30.315392 120071 net.cpp:406] inception_4e/1x1 <- inception_4d/output_inception_4d/output_0_split_1
I0509 17:30:30.315397 120071 net.cpp:380] inception_4e/1x1 -> inception_4e/1x1
I0509 17:30:30.315407 120071 base_conv_layer.cpp:121] Group is 1channel is528number of output is 256
I0509 17:30:30.316220 120071 net.cpp:122] Setting up inception_4e/1x1
I0509 17:30:30.316226 120071 net.cpp:129] Top shape: 32 256 14 14 (1605632)
I0509 17:30:30.316229 120071 net.cpp:137] Memory required for data: 1617881608
I0509 17:30:30.316234 120071 layer_factory.hpp:77] Creating layer inception_4e/relu_1x1
I0509 17:30:30.316239 120071 net.cpp:84] Creating Layer inception_4e/relu_1x1
I0509 17:30:30.316242 120071 net.cpp:406] inception_4e/relu_1x1 <- inception_4e/1x1
I0509 17:30:30.316248 120071 net.cpp:367] inception_4e/relu_1x1 -> inception_4e/1x1 (in-place)
I0509 17:30:30.316254 120071 net.cpp:122] Setting up inception_4e/relu_1x1
I0509 17:30:30.316257 120071 net.cpp:129] Top shape: 32 256 14 14 (1605632)
I0509 17:30:30.316260 120071 net.cpp:137] Memory required for data: 1624304136
I0509 17:30:30.316262 120071 layer_factory.hpp:77] Creating layer inception_4e/3x3_reduce
I0509 17:30:30.316270 120071 net.cpp:84] Creating Layer inception_4e/3x3_reduce
I0509 17:30:30.316273 120071 net.cpp:406] inception_4e/3x3_reduce <- inception_4d/output_inception_4d/output_0_split_2
I0509 17:30:30.316277 120071 net.cpp:380] inception_4e/3x3_reduce -> inception_4e/3x3_reduce
I0509 17:30:30.316284 120071 base_conv_layer.cpp:121] Group is 1channel is528number of output is 160
I0509 17:30:30.316793 120071 net.cpp:122] Setting up inception_4e/3x3_reduce
I0509 17:30:30.316799 120071 net.cpp:129] Top shape: 32 160 14 14 (1003520)
I0509 17:30:30.316802 120071 net.cpp:137] Memory required for data: 1628318216
I0509 17:30:30.316805 120071 layer_factory.hpp:77] Creating layer inception_4e/relu_3x3_reduce
I0509 17:30:30.316812 120071 net.cpp:84] Creating Layer inception_4e/relu_3x3_reduce
I0509 17:30:30.316815 120071 net.cpp:406] inception_4e/relu_3x3_reduce <- inception_4e/3x3_reduce
I0509 17:30:30.316818 120071 net.cpp:367] inception_4e/relu_3x3_reduce -> inception_4e/3x3_reduce (in-place)
I0509 17:30:30.316823 120071 net.cpp:122] Setting up inception_4e/relu_3x3_reduce
I0509 17:30:30.316828 120071 net.cpp:129] Top shape: 32 160 14 14 (1003520)
I0509 17:30:30.316830 120071 net.cpp:137] Memory required for data: 1632332296
I0509 17:30:30.316833 120071 layer_factory.hpp:77] Creating layer inception_4e/3x3
I0509 17:30:30.316839 120071 net.cpp:84] Creating Layer inception_4e/3x3
I0509 17:30:30.316843 120071 net.cpp:406] inception_4e/3x3 <- inception_4e/3x3_reduce
I0509 17:30:30.316848 120071 net.cpp:380] inception_4e/3x3 -> inception_4e/3x3
I0509 17:30:30.316854 120071 base_conv_layer.cpp:121] Group is 1channel is160number of output is 320
I0509 17:30:30.319581 120071 net.cpp:122] Setting up inception_4e/3x3
I0509 17:30:30.319593 120071 net.cpp:129] Top shape: 32 320 14 14 (2007040)
I0509 17:30:30.319597 120071 net.cpp:137] Memory required for data: 1640360456
I0509 17:30:30.319602 120071 layer_factory.hpp:77] Creating layer inception_4e/relu_3x3
I0509 17:30:30.319605 120071 net.cpp:84] Creating Layer inception_4e/relu_3x3
I0509 17:30:30.319609 120071 net.cpp:406] inception_4e/relu_3x3 <- inception_4e/3x3
I0509 17:30:30.319613 120071 net.cpp:367] inception_4e/relu_3x3 -> inception_4e/3x3 (in-place)
I0509 17:30:30.319617 120071 net.cpp:122] Setting up inception_4e/relu_3x3
I0509 17:30:30.319622 120071 net.cpp:129] Top shape: 32 320 14 14 (2007040)
I0509 17:30:30.319624 120071 net.cpp:137] Memory required for data: 1648388616
I0509 17:30:30.319628 120071 layer_factory.hpp:77] Creating layer inception_4e/5x5_reduce
I0509 17:30:30.319634 120071 net.cpp:84] Creating Layer inception_4e/5x5_reduce
I0509 17:30:30.319638 120071 net.cpp:406] inception_4e/5x5_reduce <- inception_4d/output_inception_4d/output_0_split_3
I0509 17:30:30.319643 120071 net.cpp:380] inception_4e/5x5_reduce -> inception_4e/5x5_reduce
I0509 17:30:30.319649 120071 base_conv_layer.cpp:121] Group is 1channel is528number of output is 32
I0509 17:30:30.319756 120071 net.cpp:122] Setting up inception_4e/5x5_reduce
I0509 17:30:30.319761 120071 net.cpp:129] Top shape: 32 32 14 14 (200704)
I0509 17:30:30.319766 120071 net.cpp:137] Memory required for data: 1649191432
I0509 17:30:30.319769 120071 layer_factory.hpp:77] Creating layer inception_4e/relu_5x5_reduce
I0509 17:30:30.319775 120071 net.cpp:84] Creating Layer inception_4e/relu_5x5_reduce
I0509 17:30:30.319779 120071 net.cpp:406] inception_4e/relu_5x5_reduce <- inception_4e/5x5_reduce
I0509 17:30:30.319784 120071 net.cpp:367] inception_4e/relu_5x5_reduce -> inception_4e/5x5_reduce (in-place)
I0509 17:30:30.319789 120071 net.cpp:122] Setting up inception_4e/relu_5x5_reduce
I0509 17:30:30.319792 120071 net.cpp:129] Top shape: 32 32 14 14 (200704)
I0509 17:30:30.319795 120071 net.cpp:137] Memory required for data: 1649994248
I0509 17:30:30.319798 120071 layer_factory.hpp:77] Creating layer inception_4e/5x5
I0509 17:30:30.319828 120071 net.cpp:84] Creating Layer inception_4e/5x5
I0509 17:30:30.319831 120071 net.cpp:406] inception_4e/5x5 <- inception_4e/5x5_reduce
I0509 17:30:30.319836 120071 net.cpp:380] inception_4e/5x5 -> inception_4e/5x5
I0509 17:30:30.319844 120071 base_conv_layer.cpp:121] Group is 1channel is32number of output is 128
I0509 17:30:30.320472 120071 net.cpp:122] Setting up inception_4e/5x5
I0509 17:30:30.320479 120071 net.cpp:129] Top shape: 32 128 14 14 (802816)
I0509 17:30:30.320482 120071 net.cpp:137] Memory required for data: 1653205512
I0509 17:30:30.320487 120071 layer_factory.hpp:77] Creating layer inception_4e/relu_5x5
I0509 17:30:30.320492 120071 net.cpp:84] Creating Layer inception_4e/relu_5x5
I0509 17:30:30.320495 120071 net.cpp:406] inception_4e/relu_5x5 <- inception_4e/5x5
I0509 17:30:30.320499 120071 net.cpp:367] inception_4e/relu_5x5 -> inception_4e/5x5 (in-place)
I0509 17:30:30.320504 120071 net.cpp:122] Setting up inception_4e/relu_5x5
I0509 17:30:30.320508 120071 net.cpp:129] Top shape: 32 128 14 14 (802816)
I0509 17:30:30.320510 120071 net.cpp:137] Memory required for data: 1656416776
I0509 17:30:30.320513 120071 layer_factory.hpp:77] Creating layer inception_4e/pool
I0509 17:30:30.320518 120071 net.cpp:84] Creating Layer inception_4e/pool
I0509 17:30:30.320521 120071 net.cpp:406] inception_4e/pool <- inception_4d/output_inception_4d/output_0_split_4
I0509 17:30:30.320528 120071 net.cpp:380] inception_4e/pool -> inception_4e/pool
I0509 17:30:30.320534 120071 net.cpp:122] Setting up inception_4e/pool
I0509 17:30:30.320539 120071 net.cpp:129] Top shape: 32 528 14 14 (3311616)
I0509 17:30:30.320543 120071 net.cpp:137] Memory required for data: 1669663240
I0509 17:30:30.320544 120071 layer_factory.hpp:77] Creating layer inception_4e/pool_proj
I0509 17:30:30.320551 120071 net.cpp:84] Creating Layer inception_4e/pool_proj
I0509 17:30:30.320559 120071 net.cpp:406] inception_4e/pool_proj <- inception_4e/pool
I0509 17:30:30.320569 120071 net.cpp:380] inception_4e/pool_proj -> inception_4e/pool_proj
I0509 17:30:30.320576 120071 base_conv_layer.cpp:121] Group is 1channel is528number of output is 128
I0509 17:30:30.320994 120071 net.cpp:122] Setting up inception_4e/pool_proj
I0509 17:30:30.321002 120071 net.cpp:129] Top shape: 32 128 14 14 (802816)
I0509 17:30:30.321003 120071 net.cpp:137] Memory required for data: 1672874504
I0509 17:30:30.321008 120071 layer_factory.hpp:77] Creating layer inception_4e/relu_pool_proj
I0509 17:30:30.321012 120071 net.cpp:84] Creating Layer inception_4e/relu_pool_proj
I0509 17:30:30.321017 120071 net.cpp:406] inception_4e/relu_pool_proj <- inception_4e/pool_proj
I0509 17:30:30.321022 120071 net.cpp:367] inception_4e/relu_pool_proj -> inception_4e/pool_proj (in-place)
I0509 17:30:30.321025 120071 net.cpp:122] Setting up inception_4e/relu_pool_proj
I0509 17:30:30.321029 120071 net.cpp:129] Top shape: 32 128 14 14 (802816)
I0509 17:30:30.321033 120071 net.cpp:137] Memory required for data: 1676085768
I0509 17:30:30.321034 120071 layer_factory.hpp:77] Creating layer inception_4e/output
I0509 17:30:30.321039 120071 net.cpp:84] Creating Layer inception_4e/output
I0509 17:30:30.321043 120071 net.cpp:406] inception_4e/output <- inception_4e/1x1
I0509 17:30:30.321046 120071 net.cpp:406] inception_4e/output <- inception_4e/3x3
I0509 17:30:30.321049 120071 net.cpp:406] inception_4e/output <- inception_4e/5x5
I0509 17:30:30.321053 120071 net.cpp:406] inception_4e/output <- inception_4e/pool_proj
I0509 17:30:30.321056 120071 net.cpp:380] inception_4e/output -> inception_4e/output
I0509 17:30:30.321063 120071 net.cpp:122] Setting up inception_4e/output
I0509 17:30:30.321066 120071 net.cpp:129] Top shape: 32 832 14 14 (5218304)
I0509 17:30:30.321069 120071 net.cpp:137] Memory required for data: 1696958984
I0509 17:30:30.321071 120071 layer_factory.hpp:77] Creating layer pool4/3x3_s2
I0509 17:30:30.321076 120071 net.cpp:84] Creating Layer pool4/3x3_s2
I0509 17:30:30.321079 120071 net.cpp:406] pool4/3x3_s2 <- inception_4e/output
I0509 17:30:30.321084 120071 net.cpp:380] pool4/3x3_s2 -> pool4/3x3_s2
I0509 17:30:30.321090 120071 net.cpp:122] Setting up pool4/3x3_s2
I0509 17:30:30.321094 120071 net.cpp:129] Top shape: 32 832 7 7 (1304576)
I0509 17:30:30.321097 120071 net.cpp:137] Memory required for data: 1702177288
I0509 17:30:30.321099 120071 layer_factory.hpp:77] Creating layer pool4/3x3_s2_pool4/3x3_s2_0_split
I0509 17:30:30.321105 120071 net.cpp:84] Creating Layer pool4/3x3_s2_pool4/3x3_s2_0_split
I0509 17:30:30.321108 120071 net.cpp:406] pool4/3x3_s2_pool4/3x3_s2_0_split <- pool4/3x3_s2
I0509 17:30:30.321113 120071 net.cpp:380] pool4/3x3_s2_pool4/3x3_s2_0_split -> pool4/3x3_s2_pool4/3x3_s2_0_split_0
I0509 17:30:30.321120 120071 net.cpp:380] pool4/3x3_s2_pool4/3x3_s2_0_split -> pool4/3x3_s2_pool4/3x3_s2_0_split_1
I0509 17:30:30.321125 120071 net.cpp:380] pool4/3x3_s2_pool4/3x3_s2_0_split -> pool4/3x3_s2_pool4/3x3_s2_0_split_2
I0509 17:30:30.321130 120071 net.cpp:380] pool4/3x3_s2_pool4/3x3_s2_0_split -> pool4/3x3_s2_pool4/3x3_s2_0_split_3
I0509 17:30:30.321136 120071 net.cpp:122] Setting up pool4/3x3_s2_pool4/3x3_s2_0_split
I0509 17:30:30.321141 120071 net.cpp:129] Top shape: 32 832 7 7 (1304576)
I0509 17:30:30.321143 120071 net.cpp:129] Top shape: 32 832 7 7 (1304576)
I0509 17:30:30.321147 120071 net.cpp:129] Top shape: 32 832 7 7 (1304576)
I0509 17:30:30.321151 120071 net.cpp:129] Top shape: 32 832 7 7 (1304576)
I0509 17:30:30.321153 120071 net.cpp:137] Memory required for data: 1723050504
I0509 17:30:30.321156 120071 layer_factory.hpp:77] Creating layer inception_5a/1x1
I0509 17:30:30.321163 120071 net.cpp:84] Creating Layer inception_5a/1x1
I0509 17:30:30.321166 120071 net.cpp:406] inception_5a/1x1 <- pool4/3x3_s2_pool4/3x3_s2_0_split_0
I0509 17:30:30.321173 120071 net.cpp:380] inception_5a/1x1 -> inception_5a/1x1
I0509 17:30:30.321180 120071 base_conv_layer.cpp:121] Group is 1channel is832number of output is 256
#           time             counts unit events
     0.100370660          5,889,890      L1-dcache-load-misses    
     0.100370660        169,181,041      L1-dcache-loads          
I0509 17:30:30.322528 120071 net.cpp:122] Setting up inception_5a/1x1
I0509 17:30:30.322540 120071 net.cpp:129] Top shape: 32 256 7 7 (401408)
I0509 17:30:30.322542 120071 net.cpp:137] Memory required for data: 1724656136
I0509 17:30:30.322546 120071 layer_factory.hpp:77] Creating layer inception_5a/relu_1x1
I0509 17:30:30.322553 120071 net.cpp:84] Creating Layer inception_5a/relu_1x1
I0509 17:30:30.322556 120071 net.cpp:406] inception_5a/relu_1x1 <- inception_5a/1x1
I0509 17:30:30.322561 120071 net.cpp:367] inception_5a/relu_1x1 -> inception_5a/1x1 (in-place)
I0509 17:30:30.322566 120071 net.cpp:122] Setting up inception_5a/relu_1x1
I0509 17:30:30.322569 120071 net.cpp:129] Top shape: 32 256 7 7 (401408)
I0509 17:30:30.322572 120071 net.cpp:137] Memory required for data: 1726261768
I0509 17:30:30.322574 120071 layer_factory.hpp:77] Creating layer inception_5a/3x3_reduce
I0509 17:30:30.322580 120071 net.cpp:84] Creating Layer inception_5a/3x3_reduce
I0509 17:30:30.322584 120071 net.cpp:406] inception_5a/3x3_reduce <- pool4/3x3_s2_pool4/3x3_s2_0_split_1
I0509 17:30:30.322590 120071 net.cpp:380] inception_5a/3x3_reduce -> inception_5a/3x3_reduce
I0509 17:30:30.322597 120071 base_conv_layer.cpp:121] Group is 1channel is832number of output is 160
I0509 17:30:30.323388 120071 net.cpp:122] Setting up inception_5a/3x3_reduce
I0509 17:30:30.323395 120071 net.cpp:129] Top shape: 32 160 7 7 (250880)
I0509 17:30:30.323397 120071 net.cpp:137] Memory required for data: 1727265288
I0509 17:30:30.323401 120071 layer_factory.hpp:77] Creating layer inception_5a/relu_3x3_reduce
I0509 17:30:30.323406 120071 net.cpp:84] Creating Layer inception_5a/relu_3x3_reduce
I0509 17:30:30.323410 120071 net.cpp:406] inception_5a/relu_3x3_reduce <- inception_5a/3x3_reduce
I0509 17:30:30.323413 120071 net.cpp:367] inception_5a/relu_3x3_reduce -> inception_5a/3x3_reduce (in-place)
I0509 17:30:30.323418 120071 net.cpp:122] Setting up inception_5a/relu_3x3_reduce
I0509 17:30:30.323421 120071 net.cpp:129] Top shape: 32 160 7 7 (250880)
I0509 17:30:30.323426 120071 net.cpp:137] Memory required for data: 1728268808
I0509 17:30:30.323428 120071 layer_factory.hpp:77] Creating layer inception_5a/3x3
I0509 17:30:30.323437 120071 net.cpp:84] Creating Layer inception_5a/3x3
I0509 17:30:30.323441 120071 net.cpp:406] inception_5a/3x3 <- inception_5a/3x3_reduce
I0509 17:30:30.323446 120071 net.cpp:380] inception_5a/3x3 -> inception_5a/3x3
I0509 17:30:30.323452 120071 base_conv_layer.cpp:121] Group is 1channel is160number of output is 320
I0509 17:30:30.326203 120071 net.cpp:122] Setting up inception_5a/3x3
I0509 17:30:30.326211 120071 net.cpp:129] Top shape: 32 320 7 7 (501760)
I0509 17:30:30.326215 120071 net.cpp:137] Memory required for data: 1730275848
I0509 17:30:30.326218 120071 layer_factory.hpp:77] Creating layer inception_5a/relu_3x3
I0509 17:30:30.326223 120071 net.cpp:84] Creating Layer inception_5a/relu_3x3
I0509 17:30:30.326226 120071 net.cpp:406] inception_5a/relu_3x3 <- inception_5a/3x3
I0509 17:30:30.326231 120071 net.cpp:367] inception_5a/relu_3x3 -> inception_5a/3x3 (in-place)
I0509 17:30:30.326236 120071 net.cpp:122] Setting up inception_5a/relu_3x3
I0509 17:30:30.326238 120071 net.cpp:129] Top shape: 32 320 7 7 (501760)
I0509 17:30:30.326241 120071 net.cpp:137] Memory required for data: 1732282888
I0509 17:30:30.326244 120071 layer_factory.hpp:77] Creating layer inception_5a/5x5_reduce
I0509 17:30:30.326251 120071 net.cpp:84] Creating Layer inception_5a/5x5_reduce
I0509 17:30:30.326254 120071 net.cpp:406] inception_5a/5x5_reduce <- pool4/3x3_s2_pool4/3x3_s2_0_split_2
I0509 17:30:30.326261 120071 net.cpp:380] inception_5a/5x5_reduce -> inception_5a/5x5_reduce
I0509 17:30:30.326268 120071 base_conv_layer.cpp:121] Group is 1channel is832number of output is 32
I0509 17:30:30.326436 120071 net.cpp:122] Setting up inception_5a/5x5_reduce
I0509 17:30:30.326442 120071 net.cpp:129] Top shape: 32 32 7 7 (50176)
I0509 17:30:30.326447 120071 net.cpp:137] Memory required for data: 1732483592
I0509 17:30:30.326452 120071 layer_factory.hpp:77] Creating layer inception_5a/relu_5x5_reduce
I0509 17:30:30.326462 120071 net.cpp:84] Creating Layer inception_5a/relu_5x5_reduce
I0509 17:30:30.326465 120071 net.cpp:406] inception_5a/relu_5x5_reduce <- inception_5a/5x5_reduce
I0509 17:30:30.326469 120071 net.cpp:367] inception_5a/relu_5x5_reduce -> inception_5a/5x5_reduce (in-place)
I0509 17:30:30.326474 120071 net.cpp:122] Setting up inception_5a/relu_5x5_reduce
I0509 17:30:30.326478 120071 net.cpp:129] Top shape: 32 32 7 7 (50176)
I0509 17:30:30.326480 120071 net.cpp:137] Memory required for data: 1732684296
I0509 17:30:30.326483 120071 layer_factory.hpp:77] Creating layer inception_5a/5x5
I0509 17:30:30.326490 120071 net.cpp:84] Creating Layer inception_5a/5x5
I0509 17:30:30.326493 120071 net.cpp:406] inception_5a/5x5 <- inception_5a/5x5_reduce
I0509 17:30:30.326498 120071 net.cpp:380] inception_5a/5x5 -> inception_5a/5x5
I0509 17:30:30.326505 120071 base_conv_layer.cpp:121] Group is 1channel is32number of output is 128
I0509 17:30:30.327118 120071 net.cpp:122] Setting up inception_5a/5x5
I0509 17:30:30.327123 120071 net.cpp:129] Top shape: 32 128 7 7 (200704)
I0509 17:30:30.327126 120071 net.cpp:137] Memory required for data: 1733487112
I0509 17:30:30.327131 120071 layer_factory.hpp:77] Creating layer inception_5a/relu_5x5
I0509 17:30:30.327136 120071 net.cpp:84] Creating Layer inception_5a/relu_5x5
I0509 17:30:30.327138 120071 net.cpp:406] inception_5a/relu_5x5 <- inception_5a/5x5
I0509 17:30:30.327143 120071 net.cpp:367] inception_5a/relu_5x5 -> inception_5a/5x5 (in-place)
I0509 17:30:30.327147 120071 net.cpp:122] Setting up inception_5a/relu_5x5
I0509 17:30:30.327152 120071 net.cpp:129] Top shape: 32 128 7 7 (200704)
I0509 17:30:30.327154 120071 net.cpp:137] Memory required for data: 1734289928
I0509 17:30:30.327157 120071 layer_factory.hpp:77] Creating layer inception_5a/pool
I0509 17:30:30.327162 120071 net.cpp:84] Creating Layer inception_5a/pool
I0509 17:30:30.327164 120071 net.cpp:406] inception_5a/pool <- pool4/3x3_s2_pool4/3x3_s2_0_split_3
I0509 17:30:30.327169 120071 net.cpp:380] inception_5a/pool -> inception_5a/pool
I0509 17:30:30.327177 120071 net.cpp:122] Setting up inception_5a/pool
I0509 17:30:30.327180 120071 net.cpp:129] Top shape: 32 832 7 7 (1304576)
I0509 17:30:30.327183 120071 net.cpp:137] Memory required for data: 1739508232
I0509 17:30:30.327185 120071 layer_factory.hpp:77] Creating layer inception_5a/pool_proj
I0509 17:30:30.327193 120071 net.cpp:84] Creating Layer inception_5a/pool_proj
I0509 17:30:30.327195 120071 net.cpp:406] inception_5a/pool_proj <- inception_5a/pool
I0509 17:30:30.327201 120071 net.cpp:380] inception_5a/pool_proj -> inception_5a/pool_proj
I0509 17:30:30.327208 120071 base_conv_layer.cpp:121] Group is 1channel is832number of output is 128
I0509 17:30:30.327846 120071 net.cpp:122] Setting up inception_5a/pool_proj
I0509 17:30:30.327852 120071 net.cpp:129] Top shape: 32 128 7 7 (200704)
I0509 17:30:30.327855 120071 net.cpp:137] Memory required for data: 1740311048
I0509 17:30:30.327860 120071 layer_factory.hpp:77] Creating layer inception_5a/relu_pool_proj
I0509 17:30:30.327864 120071 net.cpp:84] Creating Layer inception_5a/relu_pool_proj
I0509 17:30:30.327867 120071 net.cpp:406] inception_5a/relu_pool_proj <- inception_5a/pool_proj
I0509 17:30:30.327872 120071 net.cpp:367] inception_5a/relu_pool_proj -> inception_5a/pool_proj (in-place)
I0509 17:30:30.327877 120071 net.cpp:122] Setting up inception_5a/relu_pool_proj
I0509 17:30:30.327880 120071 net.cpp:129] Top shape: 32 128 7 7 (200704)
I0509 17:30:30.327883 120071 net.cpp:137] Memory required for data: 1741113864
I0509 17:30:30.327885 120071 layer_factory.hpp:77] Creating layer inception_5a/output
I0509 17:30:30.327890 120071 net.cpp:84] Creating Layer inception_5a/output
I0509 17:30:30.327893 120071 net.cpp:406] inception_5a/output <- inception_5a/1x1
I0509 17:30:30.327896 120071 net.cpp:406] inception_5a/output <- inception_5a/3x3
I0509 17:30:30.327904 120071 net.cpp:406] inception_5a/output <- inception_5a/5x5
I0509 17:30:30.327908 120071 net.cpp:406] inception_5a/output <- inception_5a/pool_proj
I0509 17:30:30.327913 120071 net.cpp:380] inception_5a/output -> inception_5a/output
I0509 17:30:30.327924 120071 net.cpp:122] Setting up inception_5a/output
I0509 17:30:30.327929 120071 net.cpp:129] Top shape: 32 832 7 7 (1304576)
I0509 17:30:30.327930 120071 net.cpp:137] Memory required for data: 1746332168
I0509 17:30:30.327934 120071 layer_factory.hpp:77] Creating layer inception_5a/output_inception_5a/output_0_split
I0509 17:30:30.327939 120071 net.cpp:84] Creating Layer inception_5a/output_inception_5a/output_0_split
I0509 17:30:30.327942 120071 net.cpp:406] inception_5a/output_inception_5a/output_0_split <- inception_5a/output
I0509 17:30:30.327947 120071 net.cpp:380] inception_5a/output_inception_5a/output_0_split -> inception_5a/output_inception_5a/output_0_split_0
I0509 17:30:30.327952 120071 net.cpp:380] inception_5a/output_inception_5a/output_0_split -> inception_5a/output_inception_5a/output_0_split_1
I0509 17:30:30.327960 120071 net.cpp:380] inception_5a/output_inception_5a/output_0_split -> inception_5a/output_inception_5a/output_0_split_2
I0509 17:30:30.327965 120071 net.cpp:380] inception_5a/output_inception_5a/output_0_split -> inception_5a/output_inception_5a/output_0_split_3
I0509 17:30:30.327970 120071 net.cpp:122] Setting up inception_5a/output_inception_5a/output_0_split
I0509 17:30:30.327975 120071 net.cpp:129] Top shape: 32 832 7 7 (1304576)
I0509 17:30:30.327977 120071 net.cpp:129] Top shape: 32 832 7 7 (1304576)
I0509 17:30:30.327981 120071 net.cpp:129] Top shape: 32 832 7 7 (1304576)
I0509 17:30:30.327986 120071 net.cpp:129] Top shape: 32 832 7 7 (1304576)
I0509 17:30:30.327987 120071 net.cpp:137] Memory required for data: 1767205384
I0509 17:30:30.327991 120071 layer_factory.hpp:77] Creating layer inception_5b/1x1
I0509 17:30:30.327996 120071 net.cpp:84] Creating Layer inception_5b/1x1
I0509 17:30:30.327999 120071 net.cpp:406] inception_5b/1x1 <- inception_5a/output_inception_5a/output_0_split_0
I0509 17:30:30.328006 120071 net.cpp:380] inception_5b/1x1 -> inception_5b/1x1
I0509 17:30:30.328012 120071 base_conv_layer.cpp:121] Group is 1channel is832number of output is 384
I0509 17:30:30.329898 120071 net.cpp:122] Setting up inception_5b/1x1
I0509 17:30:30.329905 120071 net.cpp:129] Top shape: 32 384 7 7 (602112)
I0509 17:30:30.329907 120071 net.cpp:137] Memory required for data: 1769613832
I0509 17:30:30.329912 120071 layer_factory.hpp:77] Creating layer inception_5b/relu_1x1
I0509 17:30:30.329917 120071 net.cpp:84] Creating Layer inception_5b/relu_1x1
I0509 17:30:30.329921 120071 net.cpp:406] inception_5b/relu_1x1 <- inception_5b/1x1
I0509 17:30:30.329924 120071 net.cpp:367] inception_5b/relu_1x1 -> inception_5b/1x1 (in-place)
I0509 17:30:30.329929 120071 net.cpp:122] Setting up inception_5b/relu_1x1
I0509 17:30:30.329933 120071 net.cpp:129] Top shape: 32 384 7 7 (602112)
I0509 17:30:30.329936 120071 net.cpp:137] Memory required for data: 1772022280
I0509 17:30:30.329938 120071 layer_factory.hpp:77] Creating layer inception_5b/3x3_reduce
I0509 17:30:30.329946 120071 net.cpp:84] Creating Layer inception_5b/3x3_reduce
I0509 17:30:30.329949 120071 net.cpp:406] inception_5b/3x3_reduce <- inception_5a/output_inception_5a/output_0_split_1
I0509 17:30:30.329953 120071 net.cpp:380] inception_5b/3x3_reduce -> inception_5b/3x3_reduce
I0509 17:30:30.329960 120071 base_conv_layer.cpp:121] Group is 1channel is832number of output is 192
I0509 17:30:30.330911 120071 net.cpp:122] Setting up inception_5b/3x3_reduce
I0509 17:30:30.330917 120071 net.cpp:129] Top shape: 32 192 7 7 (301056)
I0509 17:30:30.330920 120071 net.cpp:137] Memory required for data: 1773226504
I0509 17:30:30.330924 120071 layer_factory.hpp:77] Creating layer inception_5b/relu_3x3_reduce
I0509 17:30:30.330929 120071 net.cpp:84] Creating Layer inception_5b/relu_3x3_reduce
I0509 17:30:30.330932 120071 net.cpp:406] inception_5b/relu_3x3_reduce <- inception_5b/3x3_reduce
I0509 17:30:30.330940 120071 net.cpp:367] inception_5b/relu_3x3_reduce -> inception_5b/3x3_reduce (in-place)
I0509 17:30:30.330945 120071 net.cpp:122] Setting up inception_5b/relu_3x3_reduce
I0509 17:30:30.330953 120071 net.cpp:129] Top shape: 32 192 7 7 (301056)
I0509 17:30:30.330957 120071 net.cpp:137] Memory required for data: 1774430728
I0509 17:30:30.330960 120071 layer_factory.hpp:77] Creating layer inception_5b/3x3
I0509 17:30:30.330965 120071 net.cpp:84] Creating Layer inception_5b/3x3
I0509 17:30:30.330968 120071 net.cpp:406] inception_5b/3x3 <- inception_5b/3x3_reduce
I0509 17:30:30.330973 120071 net.cpp:380] inception_5b/3x3 -> inception_5b/3x3
I0509 17:30:30.330999 120071 base_conv_layer.cpp:121] Group is 1channel is192number of output is 384
I0509 17:30:30.334929 120071 net.cpp:122] Setting up inception_5b/3x3
I0509 17:30:30.334939 120071 net.cpp:129] Top shape: 32 384 7 7 (602112)
I0509 17:30:30.334941 120071 net.cpp:137] Memory required for data: 1776839176
I0509 17:30:30.334946 120071 layer_factory.hpp:77] Creating layer inception_5b/relu_3x3
I0509 17:30:30.334951 120071 net.cpp:84] Creating Layer inception_5b/relu_3x3
I0509 17:30:30.334954 120071 net.cpp:406] inception_5b/relu_3x3 <- inception_5b/3x3
I0509 17:30:30.334959 120071 net.cpp:367] inception_5b/relu_3x3 -> inception_5b/3x3 (in-place)
I0509 17:30:30.334964 120071 net.cpp:122] Setting up inception_5b/relu_3x3
I0509 17:30:30.334967 120071 net.cpp:129] Top shape: 32 384 7 7 (602112)
I0509 17:30:30.334970 120071 net.cpp:137] Memory required for data: 1779247624
I0509 17:30:30.334974 120071 layer_factory.hpp:77] Creating layer inception_5b/5x5_reduce
I0509 17:30:30.334980 120071 net.cpp:84] Creating Layer inception_5b/5x5_reduce
I0509 17:30:30.334982 120071 net.cpp:406] inception_5b/5x5_reduce <- inception_5a/output_inception_5a/output_0_split_2
I0509 17:30:30.334987 120071 net.cpp:380] inception_5b/5x5_reduce -> inception_5b/5x5_reduce
I0509 17:30:30.334995 120071 base_conv_layer.cpp:121] Group is 1channel is832number of output is 48
I0509 17:30:30.335242 120071 net.cpp:122] Setting up inception_5b/5x5_reduce
I0509 17:30:30.335248 120071 net.cpp:129] Top shape: 32 48 7 7 (75264)
I0509 17:30:30.335250 120071 net.cpp:137] Memory required for data: 1779548680
I0509 17:30:30.335255 120071 layer_factory.hpp:77] Creating layer inception_5b/relu_5x5_reduce
I0509 17:30:30.335260 120071 net.cpp:84] Creating Layer inception_5b/relu_5x5_reduce
I0509 17:30:30.335263 120071 net.cpp:406] inception_5b/relu_5x5_reduce <- inception_5b/5x5_reduce
I0509 17:30:30.335268 120071 net.cpp:367] inception_5b/relu_5x5_reduce -> inception_5b/5x5_reduce (in-place)
I0509 17:30:30.335273 120071 net.cpp:122] Setting up inception_5b/relu_5x5_reduce
I0509 17:30:30.335278 120071 net.cpp:129] Top shape: 32 48 7 7 (75264)
I0509 17:30:30.335279 120071 net.cpp:137] Memory required for data: 1779849736
I0509 17:30:30.335283 120071 layer_factory.hpp:77] Creating layer inception_5b/5x5
I0509 17:30:30.335290 120071 net.cpp:84] Creating Layer inception_5b/5x5
I0509 17:30:30.335292 120071 net.cpp:406] inception_5b/5x5 <- inception_5b/5x5_reduce
I0509 17:30:30.335297 120071 net.cpp:380] inception_5b/5x5 -> inception_5b/5x5
I0509 17:30:30.335305 120071 base_conv_layer.cpp:121] Group is 1channel is48number of output is 128
I0509 17:30:30.336227 120071 net.cpp:122] Setting up inception_5b/5x5
I0509 17:30:30.336233 120071 net.cpp:129] Top shape: 32 128 7 7 (200704)
I0509 17:30:30.336236 120071 net.cpp:137] Memory required for data: 1780652552
I0509 17:30:30.336241 120071 layer_factory.hpp:77] Creating layer inception_5b/relu_5x5
I0509 17:30:30.336246 120071 net.cpp:84] Creating Layer inception_5b/relu_5x5
I0509 17:30:30.336248 120071 net.cpp:406] inception_5b/relu_5x5 <- inception_5b/5x5
I0509 17:30:30.336253 120071 net.cpp:367] inception_5b/relu_5x5 -> inception_5b/5x5 (in-place)
I0509 17:30:30.336258 120071 net.cpp:122] Setting up inception_5b/relu_5x5
I0509 17:30:30.336262 120071 net.cpp:129] Top shape: 32 128 7 7 (200704)
I0509 17:30:30.336266 120071 net.cpp:137] Memory required for data: 1781455368
I0509 17:30:30.336271 120071 layer_factory.hpp:77] Creating layer inception_5b/pool
I0509 17:30:30.336275 120071 net.cpp:84] Creating Layer inception_5b/pool
I0509 17:30:30.336279 120071 net.cpp:406] inception_5b/pool <- inception_5a/output_inception_5a/output_0_split_3
I0509 17:30:30.336290 120071 net.cpp:380] inception_5b/pool -> inception_5b/pool
I0509 17:30:30.336297 120071 net.cpp:122] Setting up inception_5b/pool
I0509 17:30:30.336302 120071 net.cpp:129] Top shape: 32 832 7 7 (1304576)
I0509 17:30:30.336304 120071 net.cpp:137] Memory required for data: 1786673672
I0509 17:30:30.336308 120071 layer_factory.hpp:77] Creating layer inception_5b/pool_proj
I0509 17:30:30.336313 120071 net.cpp:84] Creating Layer inception_5b/pool_proj
I0509 17:30:30.336316 120071 net.cpp:406] inception_5b/pool_proj <- inception_5b/pool
I0509 17:30:30.336323 120071 net.cpp:380] inception_5b/pool_proj -> inception_5b/pool_proj
I0509 17:30:30.336330 120071 base_conv_layer.cpp:121] Group is 1channel is832number of output is 128
I0509 17:30:30.336971 120071 net.cpp:122] Setting up inception_5b/pool_proj
I0509 17:30:30.336977 120071 net.cpp:129] Top shape: 32 128 7 7 (200704)
I0509 17:30:30.336980 120071 net.cpp:137] Memory required for data: 1787476488
I0509 17:30:30.336984 120071 layer_factory.hpp:77] Creating layer inception_5b/relu_pool_proj
I0509 17:30:30.336988 120071 net.cpp:84] Creating Layer inception_5b/relu_pool_proj
I0509 17:30:30.336992 120071 net.cpp:406] inception_5b/relu_pool_proj <- inception_5b/pool_proj
I0509 17:30:30.336997 120071 net.cpp:367] inception_5b/relu_pool_proj -> inception_5b/pool_proj (in-place)
I0509 17:30:30.337000 120071 net.cpp:122] Setting up inception_5b/relu_pool_proj
I0509 17:30:30.337004 120071 net.cpp:129] Top shape: 32 128 7 7 (200704)
I0509 17:30:30.337007 120071 net.cpp:137] Memory required for data: 1788279304
I0509 17:30:30.337009 120071 layer_factory.hpp:77] Creating layer inception_5b/output
I0509 17:30:30.337015 120071 net.cpp:84] Creating Layer inception_5b/output
I0509 17:30:30.337018 120071 net.cpp:406] inception_5b/output <- inception_5b/1x1
I0509 17:30:30.337021 120071 net.cpp:406] inception_5b/output <- inception_5b/3x3
I0509 17:30:30.337025 120071 net.cpp:406] inception_5b/output <- inception_5b/5x5
I0509 17:30:30.337028 120071 net.cpp:406] inception_5b/output <- inception_5b/pool_proj
I0509 17:30:30.337033 120071 net.cpp:380] inception_5b/output -> inception_5b/output
I0509 17:30:30.337038 120071 net.cpp:122] Setting up inception_5b/output
I0509 17:30:30.337044 120071 net.cpp:129] Top shape: 32 1024 7 7 (1605632)
I0509 17:30:30.337046 120071 net.cpp:137] Memory required for data: 1794701832
I0509 17:30:30.337049 120071 layer_factory.hpp:77] Creating layer pool5/7x7_s1
I0509 17:30:30.337054 120071 net.cpp:84] Creating Layer pool5/7x7_s1
I0509 17:30:30.337056 120071 net.cpp:406] pool5/7x7_s1 <- inception_5b/output
I0509 17:30:30.337060 120071 net.cpp:380] pool5/7x7_s1 -> pool5/7x7_s1
I0509 17:30:30.337067 120071 net.cpp:122] Setting up pool5/7x7_s1
I0509 17:30:30.337071 120071 net.cpp:129] Top shape: 32 1024 1 1 (32768)
I0509 17:30:30.337074 120071 net.cpp:137] Memory required for data: 1794832904
I0509 17:30:30.337077 120071 layer_factory.hpp:77] Creating layer pool5/drop_7x7_s1
I0509 17:30:30.337083 120071 net.cpp:84] Creating Layer pool5/drop_7x7_s1
I0509 17:30:30.337086 120071 net.cpp:406] pool5/drop_7x7_s1 <- pool5/7x7_s1
I0509 17:30:30.337090 120071 net.cpp:367] pool5/drop_7x7_s1 -> pool5/7x7_s1 (in-place)
I0509 17:30:30.337096 120071 net.cpp:122] Setting up pool5/drop_7x7_s1
I0509 17:30:30.337100 120071 net.cpp:129] Top shape: 32 1024 1 1 (32768)
I0509 17:30:30.337102 120071 net.cpp:137] Memory required for data: 1794963976
I0509 17:30:30.337105 120071 layer_factory.hpp:77] Creating layer loss3/classifier
I0509 17:30:30.337111 120071 net.cpp:84] Creating Layer loss3/classifier
I0509 17:30:30.337115 120071 net.cpp:406] loss3/classifier <- pool5/7x7_s1
I0509 17:30:30.337118 120071 net.cpp:380] loss3/classifier -> loss3/classifier
I0509 17:30:30.342770 120071 net.cpp:122] Setting up loss3/classifier
I0509 17:30:30.342777 120071 net.cpp:129] Top shape: 32 1000 (32000)
I0509 17:30:30.342780 120071 net.cpp:137] Memory required for data: 1795091976
I0509 17:30:30.342785 120071 layer_factory.hpp:77] Creating layer loss3/loss3
I0509 17:30:30.342797 120071 net.cpp:84] Creating Layer loss3/loss3
I0509 17:30:30.342799 120071 net.cpp:406] loss3/loss3 <- loss3/classifier
I0509 17:30:30.342803 120071 net.cpp:406] loss3/loss3 <- label_data_1_split_2
I0509 17:30:30.342808 120071 net.cpp:380] loss3/loss3 -> loss3/loss3
…
