…
I0509 17:24:15.821748 120027 net.cpp:294] The NetState phase (0) differed from the phase (1) specified by a rule in layer loss3/top-5
I0509 17:24:15.823205 120027 net.cpp:51] Initializing net from parameters: 
name: "GoogleNet"
state {
  phase: TRAIN
  level: 0
  stage: ""
}
layer {
  name: "data"
  type: "Data"
  top: "data"
  top: "label"
  include {
    phase: TRAIN
  }
  transform_param {
    mirror: true
    crop_size: 224
    mean_value: 104
    mean_value: 117
    mean_value: 123
  }
  data_param {
    source: "examples/imagenet/ilsvrc12_train_lmdb"
    batch_size: 32
    backend: LMDB
  }
}
layer {
  name: "conv1/7x7_s2"
  type: "Convolution"
  bottom: "data"
  top: "conv1/7x7_s2"
  param {
    lr_mult: 1
    decay_mult: 1
  }
  param {
    lr_mult: 2
    decay_mult: 0
  }
  convolution_param {
    num_output: 64
    pad: 3
    kernel_size: 7
    stride: 2
    weight_filler {
      type: "xavier"
    }
    bias_filler {
      type: "constant"
      value: 0.2
    }
  }
}
layer {
  name: "conv1/relu_7x7"
  type: "ReLU"
  bottom: "conv1/7x7_s2"
  top: "conv1/7x7_s2"
}
layer {
  name: "pool1/3x3_s2"
  type: "Pooling"
  bottom: "conv1/7x7_s2"
  top: "pool1/3x3_s2"
  pooling_param {
    pool: MAX
    kernel_size: 3
    stride: 2
  }
}
layer {
  name: "pool1/norm1"
  type: "LRN"
  bottom: "pool1/3x3_s2"
  top: "pool1/norm1"
  lrn_param {
    local_size: 5
    alpha: 0.0001
    beta: 0.75
  }
}
layer {
  name: "conv2/3x3_reduce"
  type: "Convolution"
  bottom: "pool1/norm1"
  top: "conv2/3x3_reduce"
  param {
    lr_mult: 1
    decay_mult: 1
  }
  param {
    lr_mult: 2
    decay_mult: 0
  }
  convolution_param {
    num_output: 64
    kernel_size: 1
    weight_filler {
      type: "xavier"
    }
    bias_filler {
      type: "constant"
      value: 0.2
    }
  }
}
layer {
  name: "conv2/relu_3x3_reduce"
  type: "ReLU"
  bottom: "conv2/3x3_reduce"
  top: "conv2/3x3_reduce"
}
layer {
  name: "conv2/3x3"
  type: "Convolution"
  bottom: "conv2/3x3_reduce"
  top: "conv2/3x3"
  param {
    lr_mult: 1
    decay_mult: 1
  }
  param {
    lr_mult: 2
    decay_mult: 0
  }
  convolution_param {
    num_output: 192
    pad: 1
    kernel_size: 3
    weight_filler {
      type: "xavier"
    }
    bias_filler {
      type: "constant"
      value: 0.2
    }
  }
}
layer {
  name: "conv2/relu_3x3"
  type: "ReLU"
  bottom: "conv2/3x3"
  top: "conv2/3x3"
}
layer {
  name: "conv2/norm2"
  type: "LRN"
  bottom: "conv2/3x3"
  top: "conv2/norm2"
  lrn_param {
    local_size: 5
    alpha: 0.0001
    beta: 0.75
  }
}
layer {
  name: "pool2/3x3_s2"
  type: "Pooling"
  bottom: "conv2/norm2"
  top: "pool2/3x3_s2"
  pooling_param {
    pool: MAX
    kernel_size: 3
    stride: 2
  }
}
layer {
  name: "inception_3a/1x1"
  type: "Convolution"
  bottom: "pool2/3x3_s2"
  top: "inception_3a/1x1"
  param {
    lr_mult: 1
    decay_mult: 1
  }
  param {
    lr_mult: 2
    decay_mult: 0
  }
  convolution_param {
    num_output: 64
    kernel_size: 1
    weight_filler {
      type: "xavier"
    }
    bias_filler {
      type: "constant"
      value: 0.2
    }
  }
}
layer {
  name: "inception_3a/relu_1x1"
  type: "ReLU"
  bottom: "inception_3a/1x1"
  top: "inception_3a/1x1"
}
layer {
  name: "inception_3a/3x3_reduce"
  type: "Convolution"
  bottom: "pool2/3x3_s2"
  top: "inception_3a/3x3_reduce"
  param {
    lr_mult: 1
    decay_mult: 1
  }
  param {
    lr_mult: 2
    decay_mult: 0
  }
  convolution_param {
    num_output: 96
    kernel_size: 1
    weight_filler {
      type: "xavier"
    }
    bias_filler {
      type: "constant"
      value: 0.2
    }
  }
}
layer {
  name: "inception_3a/relu_3x3_reduce"
  type: "ReLU"
  bottom: "inception_3a/3x3_reduce"
  top: "inception_3a/3x3_reduce"
}
layer {
  name: "inception_3a/3x3"
  type: "Convolution"
  bottom: "inception_3a/3x3_reduce"
  top: "inception_3a/3x3"
  param {
    lr_mult: 1
    decay_mult: 1
  }
  param {
    lr_mult: 2
    decay_mult: 0
  }
  convolution_param {
    num_output: 128
    pad: 1
    kernel_size: 3
    weight_filler {
      type: "xavier"
    }
    bias_filler {
      type: "constant"
      value: 0.2
    }
  }
}
layer {
  name: "inception_3a/relu_3x3"
  type: "ReLU"
  bottom: "inception_3a/3x3"
  top: "inception_3a/3x3"
}
layer {
  name: "inception_3a/5x5_reduce"
  type: "Convolution"
  bottom: "pool2/3x3_s2"
  top: "inception_3a/5x5_reduce"
  param {
    lr_mult: 1
    decay_mult: 1
  }
  param {
    lr_mult: 2
    decay_mult: 0
  }
  convolution_param {
    num_output: 16
    kernel_size: 1
    weight_filler {
      type: "xavier"
    }
    bias_filler {
      type: "constant"
      value: 0.2
    }
  }
}
layer {
  name: "inception_3a/relu_5x5_reduce"
  type: "ReLU"
  bottom: "inception_3a/5x5_reduce"
  top: "inception_3a/5x5_reduce"
}
layer {
  name: "inception_3a/5x5"
  type: "Convolution"
  bottom: "inception_3a/5x5_reduce"
  top: "inception_3a/5x5"
  param {
    lr_mult: 1
    decay_mult: 1
  }
  param {
    lr_mult: 2
    decay_mult: 0
  }
  convolution_param {
    num_output: 32
    pad: 2
    kernel_size: 5
    weight_filler {
      type: "xavier"
    }
    bias_filler {
      type: "constant"
      value: 0.2
    }
  }
}
layer {
  name: "inception_3a/relu_5x5"
  type: "ReLU"
  bottom: "inception_3a/5x5"
  top: "inception_3a/5x5"
}
layer {
  name: "inception_3a/pool"
  type: "Pooling"
  bottom: "pool2/3x3_s2"
  top: "inception_3a/pool"
  pooling_param {
    pool: MAX
    kernel_size: 3
    stride: 1
    pad: 1
  }
}
layer {
  name: "inception_3a/pool_proj"
  type: "Convolution"
  bottom: "inception_3a/pool"
  top: "inception_3a/pool_proj"
  param {
    lr_mult: 1
    decay_mult: 1
  }
  param {
    lr_mult: 2
    decay_mult: 0
  }
  convolution_param {
    num_output: 32
    kernel_size: 1
    weight_filler {
      type: "xavier"
    }
    bias_filler {
      type: "constant"
      value: 0.2
    }
  }
}
layer {
  name: "inception_3a/relu_pool_proj"
  type: "ReLU"
  bottom: "inception_3a/pool_proj"
  top: "inception_3a/pool_proj"
}
layer {
  name: "inception_3a/output"
  type: "Concat"
  bottom: "inception_3a/1x1"
  bottom: "inception_3a/3x3"
  bottom: "inception_3a/5x5"
  bottom: "inception_3a/pool_proj"
  top: "inception_3a/output"
}
layer {
  name: "inception_3b/1x1"
  type: "Convolution"
  bottom: "inception_3a/output"
  top: "inception_3b/1x1"
  param {
    lr_mult: 1
    decay_mult: 1
  }
  param {
    lr_mult: 2
    decay_mult: 0
  }
  convolution_param {
    num_output: 128
    kernel_size: 1
    weight_filler {
      type: "xavier"
    }
    bias_filler {
      type: "constant"
      value: 0.2
    }
  }
}
layer {
  name: "inception_3b/relu_1x1"
  type: "ReLU"
  bottom: "inception_3b/1x1"
  top: "inception_3b/1x1"
}
layer {
  name: "inception_3b/3x3_reduce"
  type: "Convolution"
  bottom: "inception_3a/output"
  top: "inception_3b/3x3_reduce"
  param {
    lr_mult: 1
    decay_mult: 1
  }
  param {
    lr_mult: 2
    decay_mult: 0
  }
  convolution_param {
    num_output: 128
    kernel_size: 1
    weight_filler {
      type: "xavier"
    }
    bias_filler {
      type: "constant"
      value: 0.2
    }
  }
}
layer {
  name: "inception_3b/relu_3x3_reduce"
  type: "ReLU"
  bottom: "inception_3b/3x3_reduce"
  top: "inception_3b/3x3_reduce"
}
layer {
  name: "inception_3b/3x3"
  type: "Convolution"
  bottom: "inception_3b/3x3_reduce"
  top: "inception_3b/3x3"
  param {
    lr_mult: 1
    decay_mult: 1
  }
  param {
    lr_mult: 2
    decay_mult: 0
  }
  convolution_param {
    num_output: 192
    pad: 1
    kernel_size: 3
    weight_filler {
      type: "xavier"
    }
    bias_filler {
      type: "constant"
      value: 0.2
    }
  }
}
layer {
  name: "inception_3b/relu_3x3"
  type: "ReLU"
  bottom: "inception_3b/3x3"
  top: "inception_3b/3x3"
}
layer {
  name: "inception_3b/5x5_reduce"
  type: "Convolution"
  bottom: "inception_3a/output"
  top: "inception_3b/5x5_reduce"
  param {
    lr_mult: 1
    decay_mult: 1
  }
  param {
    lr_mult: 2
    decay_mult: 0
  }
  convolution_param {
    num_output: 32
    kernel_size: 1
    weight_filler {
      type: "xavier"
    }
    bias_filler {
      type: "constant"
      value: 0.2
    }
  }
}
layer {
  name: "inception_3b/relu_5x5_reduce"
  type: "ReLU"
  bottom: "inception_3b/5x5_reduce"
  top: "inception_3b/5x5_reduce"
}
layer {
  name: "inception_3b/5x5"
  type: "Convolution"
  bottom: "inception_3b/5x5_reduce"
  top: "inception_3b/5x5"
  param {
    lr_mult: 1
    decay_mult: 1
  }
  param {
    lr_mult: 2
    decay_mult: 0
  }
  convolution_param {
    num_output: 96
    pad: 2
    kernel_size: 5
    weight_filler {
      type: "xavier"
    }
    bias_filler {
      type: "constant"
      value: 0.2
    }
  }
}
layer {
  name: "inception_3b/relu_5x5"
  type: "ReLU"
  bottom: "inception_3b/5x5"
  top: "inception_3b/5x5"
}
layer {
  name: "inception_3b/pool"
  type: "Pooling"
  bottom: "inception_3a/output"
  top: "inception_3b/pool"
  pooling_param {
    pool: MAX
    kernel_size: 3
    stride: 1
    pad: 1
  }
}
layer {
  name: "inception_3b/pool_proj"
  type: "Convolution"
  bottom: "inception_3b/pool"
  top: "inception_3b/pool_proj"
  param {
    lr_mult: 1
    decay_mult: 1
  }
  param {
    lr_mult: 2
    decay_mult: 0
  }
  convolution_param {
    num_output: 64
    kernel_size: 1
    weight_filler {
      type: "xavier"
    }
    bias_filler {
      type: "constant"
      value: 0.2
    }
  }
}
layer {
  name: "inception_3b/relu_pool_proj"
  type: "ReLU"
  bottom: "inception_3b/pool_proj"
  top: "inception_3b/pool_proj"
}
layer {
  name: "inception_3b/output"
  type: "Concat"
  bottom: "inception_3b/1x1"
  bottom: "inception_3b/3x3"
  bottom: "inception_3b/5x5"
  bottom: "inception_3b/pool_proj"
  top: "inception_3b/output"
}
layer {
  name: "pool3/3x3_s2"
  type: "Pooling"
  bottom: "inception_3b/output"
  top: "pool3/3x3_s2"
  pooling_param {
    pool: MAX
    kernel_size: 3
    stride: 2
  }
}
layer {
  name: "inception_4a/1x1"
  type: "Convolution"
  bottom: "pool3/3x3_s2"
  top: "inception_4a/1x1"
  param {
    lr_mult: 1
    decay_mult: 1
  }
  param {
    lr_mult: 2
    decay_mult: 0
  }
  convolution_param {
    num_output: 192
    kernel_size: 1
    weight_filler {
      type: "xavier"
    }
    bias_filler {
      type: "constant"
      value: 0.2
    }
  }
}
layer {
  name: "inception_4a/relu_1x1"
  type: "ReLU"
  bottom: "inception_4a/1x1"
  top: "inception_4a/1x1"
}
layer {
  name: "inception_4a/3x3_reduce"
  type: "Convolution"
  bottom: "pool3/3x3_s2"
  top: "inception_4a/3x3_reduce"
  param {
    lr_mult: 1
    decay_mult: 1
  }
  param {
    lr_mult: 2
    decay_mult: 0
  }
  convolution_param {
    num_output: 96
    kernel_size: 1
    weight_filler {
      type: "xavier"
    }
    bias_filler {
      type: "constant"
      value: 0.2
    }
  }
}
layer {
  name: "inception_4a/relu_3x3_reduce"
  type: "ReLU"
  bottom: "inception_4a/3x3_reduce"
  top: "inception_4a/3x3_reduce"
}
layer {
  name: "inception_4a/3x3"
  type: "Convolution"
  bottom: "inception_4a/3x3_reduce"
  top: "inception_4a/3x3"
  param {
    lr_mult: 1
    decay_mult: 1
  }
  param {
    lr_mult: 2
    decay_mult: 0
  }
  convolution_param {
    num_output: 208
    pad: 1
    kernel_size: 3
    weight_filler {
      type: "xavier"
    }
    bias_filler {
      type: "constant"
      value: 0.2
    }
  }
}
layer {
  name: "inception_4a/relu_3x3"
  type: "ReLU"
  bottom: "inception_4a/3x3"
  top: "inception_4a/3x3"
}
layer {
  name: "inception_4a/5x5_reduce"
  type: "Convolution"
  bottom: "pool3/3x3_s2"
  top: "inception_4a/5x5_reduce"
  param {
    lr_mult: 1
    decay_mult: 1
  }
  param {
    lr_mult: 2
    decay_mult: 0
  }
  convolution_param {
    num_output: 16
    kernel_size: 1
    weight_filler {
      type: "xavier"
    }
    bias_filler {
      type: "constant"
      value: 0.2
    }
  }
}
layer {
  name: "inception_4a/relu_5x5_reduce"
  type: "ReLU"
  bottom: "inception_4a/5x5_reduce"
  top: "inception_4a/5x5_reduce"
}
layer {
  name: "inception_4a/5x5"
  type: "Convolution"
  bottom: "inception_4a/5x5_reduce"
  top: "inception_4a/5x5"
  param {
    lr_mult: 1
    decay_mult: 1
  }
  param {
    lr_mult: 2
    decay_mult: 0
  }
  convolution_param {
    num_output: 48
    pad: 2
    kernel_size: 5
    weight_filler {
      type: "xavier"
    }
    bias_filler {
      type: "constant"
      value: 0.2
    }
  }
}
layer {
  name: "inception_4a/relu_5x5"
  type: "ReLU"
  bottom: "inception_4a/5x5"
  top: "inception_4a/5x5"
}
layer {
  name: "inception_4a/pool"
  type: "Pooling"
  bottom: "pool3/3x3_s2"
  top: "inception_4a/pool"
  pooling_param {
    pool: MAX
    kernel_size: 3
    stride: 1
    pad: 1
  }
}
layer {
  name: "inception_4a/pool_proj"
  type: "Convolution"
  bottom: "inception_4a/pool"
  top: "inception_4a/pool_proj"
  param {
    lr_mult: 1
    decay_mult: 1
  }
  param {
    lr_mult: 2
    decay_mult: 0
  }
  convolution_param {
    num_output: 64
    kernel_size: 1
    weight_filler {
      type: "xavier"
    }
    bias_filler {
      type: "constant"
      value: 0.2
    }
  }
}
layer {
  name: "inception_4a/relu_pool_proj"
  type: "ReLU"
  bottom: "inception_4a/pool_proj"
  top: "inception_4a/pool_proj"
}
layer {
  name: "inception_4a/output"
  type: "Concat"
  bottom: "inception_4a/1x1"
  bottom: "inception_4a/3x3"
  bottom: "inception_4a/5x5"
  bottom: "inception_4a/pool_proj"
  top: "inception_4a/output"
}
layer {
  name: "loss1/ave_pool"
  type: "Pooling"
  bottom: "inception_4a/output"
  top: "loss1/ave_pool"
  pooling_param {
    pool: AVE
    kernel_size: 5
    stride: 3
  }
}
layer {
  name: "loss1/conv"
  type: "Convolution"
  bottom: "loss1/ave_pool"
  top: "loss1/conv"
  param {
    lr_mult: 1
    decay_mult: 1
  }
  param {
    lr_mult: 2
    decay_mult: 0
  }
  convolution_param {
    num_output: 128
    kernel_size: 1
    weight_filler {
      type: "xavier"
    }
    bias_filler {
      type: "constant"
      value: 0.2
    }
  }
}
layer {
  name: "loss1/relu_conv"
  type: "ReLU"
  bottom: "loss1/conv"
  top: "loss1/conv"
}
layer {
  name: "loss1/fc"
  type: "InnerProduct"
  bottom: "loss1/conv"
  top: "loss1/fc"
  param {
    lr_mult: 1
    decay_mult: 1
  }
  param {
    lr_mult: 2
    decay_mult: 0
  }
  inner_product_param {
    num_output: 1024
    weight_filler {
      type: "xavier"
    }
    bias_filler {
      type: "constant"
      value: 0.2
    }
  }
}
layer {
  name: "loss1/relu_fc"
  type: "ReLU"
  bottom: "loss1/fc"
  top: "loss1/fc"
}
layer {
  name: "loss1/drop_fc"
  type: "Dropout"
  bottom: "loss1/fc"
  top: "loss1/fc"
  dropout_param {
    dropout_ratio: 0.7
  }
}
layer {
  name: "loss1/classifier"
  type: "InnerProduct"
  bottom: "loss1/fc"
  top: "loss1/classifier"
  param {
    lr_mult: 1
    decay_mult: 1
  }
  param {
    lr_mult: 2
    decay_mult: 0
  }
  inner_product_param {
    num_output: 1000
    weight_filler {
      type: "xavier"
    }
    bias_filler {
      type: "constant"
      value: 0
    }
  }
}
layer {
  name: "loss1/loss"
  type: "SoftmaxWithLoss"
  bottom: "loss1/classifier"
  bottom: "label"
  top: "loss1/loss1"
  loss_weight: 0.3
}
layer {
  name: "inception_4b/1x1"
  type: "Convolution"
  bottom: "inception_4a/output"
  top: "inception_4b/1x1"
  param {
    lr_mult: 1
    decay_mult: 1
  }
  param {
    lr_mult: 2
    decay_mult: 0
  }
  convolution_param {
    num_output: 160
    kernel_size: 1
    weight_filler {
      type: "xavier"
    }
    bias_filler {
      type: "constant"
      value: 0.2
    }
  }
}
layer {
  name: "inception_4b/relu_1x1"
  type: "ReLU"
  bottom: "inception_4b/1x1"
  top: "inception_4b/1x1"
}
layer {
  name: "inception_4b/3x3_reduce"
  type: "Convolution"
  bottom: "inception_4a/output"
  top: "inception_4b/3x3_reduce"
  param {
    lr_mult: 1
    decay_mult: 1
  }
  param {
    lr_mult: 2
    decay_mult: 0
  }
  convolution_param {
    num_output: 112
    kernel_size: 1
    weight_filler {
      type: "xavier"
    }
    bias_filler {
      type: "constant"
      value: 0.2
    }
  }
}
layer {
  name: "inception_4b/relu_3x3_reduce"
  type: "ReLU"
  bottom: "inception_4b/3x3_reduce"
  top: "inception_4b/3x3_reduce"
}
layer {
  name: "inception_4b/3x3"
  type: "Convolution"
  bottom: "inception_4b/3x3_reduce"
  top: "inception_4b/3x3"
  param {
    lr_mult: 1
    decay_mult: 1
  }
  param {
    lr_mult: 2
    decay_mult: 0
  }
  convolution_param {
    num_output: 224
    pad: 1
    kernel_size: 3
    weight_filler {
      type: "xavier"
    }
    bias_filler {
      type: "constant"
      value: 0.2
    }
  }
}
layer {
  name: "inception_4b/relu_3x3"
  type: "ReLU"
  bottom: "inception_4b/3x3"
  top: "inception_4b/3x3"
}
layer {
  name: "inception_4b/5x5_reduce"
  type: "Convolution"
  bottom: "inception_4a/output"
  top: "inception_4b/5x5_reduce"
  param {
    lr_mult: 1
    decay_mult: 1
  }
  param {
    lr_mult: 2
    decay_mult: 0
  }
  convolution_param {
    num_output: 24
    kernel_size: 1
    weight_filler {
      type: "xavier"
    }
    bias_filler {
      type: "constant"
      value: 0.2
    }
  }
}
layer {
  name: "inception_4b/relu_5x5_reduce"
  type: "ReLU"
  bottom: "inception_4b/5x5_reduce"
  top: "inception_4b/5x5_reduce"
}
layer {
  name: "inception_4b/5x5"
  type: "Convolution"
  bottom: "inception_4b/5x5_reduce"
  top: "inception_4b/5x5"
  param {
    lr_mult: 1
    decay_mult: 1
  }
  param {
    lr_mult: 2
    decay_mult: 0
  }
  convolution_param {
    num_output: 64
    pad: 2
    kernel_size: 5
    weight_filler {
      type: "xavier"
    }
    bias_filler {
      type: "constant"
      value: 0.2
    }
  }
}
layer {
  name: "inception_4b/relu_5x5"
  type: "ReLU"
  bottom: "inception_4b/5x5"
  top: "inception_4b/5x5"
}
layer {
  name: "inception_4b/pool"
  type: "Pooling"
  bottom: "inception_4a/output"
  top: "inception_4b/pool"
  pooling_param {
    pool: MAX
    kernel_size: 3
    stride: 1
    pad: 1
  }
}
layer {
  name: "inception_4b/pool_proj"
  type: "Convolution"
  bottom: "inception_4b/pool"
  top: "inception_4b/pool_proj"
  param {
    lr_mult: 1
    decay_mult: 1
  }
  param {
    lr_mult: 2
    decay_mult: 0
  }
  convolution_param {
    num_output: 64
    kernel_size: 1
    weight_filler {
      type: "xavier"
    }
    bias_filler {
      type: "constant"
      value: 0.2
    }
  }
}
layer {
  name: "inception_4b/relu_pool_proj"
  type: "ReLU"
  bottom: "inception_4b/pool_proj"
  top: "inception_4b/pool_proj"
}
layer {
  name: "inception_4b/output"
  type: "Concat"
  bottom: "inception_4b/1x1"
  bottom: "inception_4b/3x3"
  bottom: "inception_4b/5x5"
  bottom: "inception_4b/pool_proj"
  top: "inception_4b/output"
}
layer {
  name: "inception_4c/1x1"
  type: "Convolution"
  bottom: "inception_4b/output"
  top: "inception_4c/1x1"
  param {
    lr_mult: 1
    decay_mult: 1
  }
  param {
    lr_mult: 2
    decay_mult: 0
  }
  convolution_param {
    num_output: 128
    kernel_size: 1
    weight_filler {
      type: "xavier"
    }
    bias_filler {
      type: "constant"
      value: 0.2
    }
  }
}
layer {
  name: "inception_4c/relu_1x1"
  type: "ReLU"
  bottom: "inception_4c/1x1"
  top: "inception_4c/1x1"
}
layer {
  name: "inception_4c/3x3_reduce"
  type: "Convolution"
  bottom: "inception_4b/output"
  top: "inception_4c/3x3_reduce"
  param {
    lr_mult: 1
    decay_mult: 1
  }
  param {
    lr_mult: 2
    decay_mult: 0
  }
  convolution_param {
    num_output: 128
    kernel_size: 1
    weight_filler {
      type: "xavier"
    }
    bias_filler {
      type: "constant"
      value: 0.2
    }
  }
}
layer {
  name: "inception_4c/relu_3x3_reduce"
  type: "ReLU"
  bottom: "inception_4c/3x3_reduce"
  top: "inception_4c/3x3_reduce"
}
layer {
  name: "inception_4c/3x3"
  type: "Convolution"
  bottom: "inception_4c/3x3_reduce"
  top: "inception_4c/3x3"
  param {
    lr_mult: 1
    decay_mult: 1
  }
  param {
    lr_mult: 2
    decay_mult: 0
  }
  convolution_param {
    num_output: 256
    pad: 1
    kernel_size: 3
    weight_filler {
      type: "xavier"
    }
    bias_filler {
      type: "constant"
      value: 0.2
    }
  }
}
layer {
  name: "inception_4c/relu_3x3"
  type: "ReLU"
  bottom: "inception_4c/3x3"
  top: "inception_4c/3x3"
}
layer {
  name: "inception_4c/5x5_reduce"
  type: "Convolution"
  bottom: "inception_4b/output"
  top: "inception_4c/5x5_reduce"
  param {
    lr_mult: 1
    decay_mult: 1
  }
  param {
    lr_mult: 2
    decay_mult: 0
  }
  convolution_param {
    num_output: 24
    kernel_size: 1
    weight_filler {
      type: "xavier"
    }
    bias_filler {
      type: "constant"
      value: 0.2
    }
  }
}
layer {
  name: "inception_4c/relu_5x5_reduce"
  type: "ReLU"
  bottom: "inception_4c/5x5_reduce"
  top: "inception_4c/5x5_reduce"
}
layer {
  name: "inception_4c/5x5"
  type: "Convolution"
  bottom: "inception_4c/5x5_reduce"
  top: "inception_4c/5x5"
  param {
    lr_mult: 1
    decay_mult: 1
  }
  param {
    lr_mult: 2
    decay_mult: 0
  }
  convolution_param {
    num_output: 64
    pad: 2
    kernel_size: 5
    weight_filler {
      type: "xavier"
    }
    bias_filler {
      type: "constant"
      value: 0.2
    }
  }
}
layer {
  name: "inception_4c/relu_5x5"
  type: "ReLU"
  bottom: "inception_4c/5x5"
  top: "inception_4c/5x5"
}
layer {
  name: "inception_4c/pool"
  type: "Pooling"
  bottom: "inception_4b/output"
  top: "inception_4c/pool"
  pooling_param {
    pool: MAX
    kernel_size: 3
    stride: 1
    pad: 1
  }
}
layer {
  name: "inception_4c/pool_proj"
  type: "Convolution"
  bottom: "inception_4c/pool"
  top: "inception_4c/pool_proj"
  param {
    lr_mult: 1
    decay_mult: 1
  }
  param {
    lr_mult: 2
    decay_mult: 0
  }
  convolution_param {
    num_output: 64
    kernel_size: 1
    weight_filler {
      type: "xavier"
    }
    bias_filler {
      type: "constant"
      value: 0.2
    }
  }
}
layer {
  name: "inception_4c/relu_pool_proj"
  type: "ReLU"
  bottom: "inception_4c/pool_proj"
  top: "inception_4c/pool_proj"
}
layer {
  name: "inception_4c/output"
  type: "Concat"
  bottom: "inception_4c/1x1"
  bottom: "inception_4c/3x3"
  bottom: "inception_4c/5x5"
  bottom: "inception_4c/pool_proj"
  top: "inception_4c/output"
}
layer {
  name: "inception_4d/1x1"
  type: "Convolution"
  bottom: "inception_4c/output"
  top: "inception_4d/1x1"
  param {
    lr_mult: 1
    decay_mult: 1
  }
  param {
    lr_mult: 2
    decay_mult: 0
  }
  convolution_param {
    num_output: 112
    kernel_size: 1
    weight_filler {
      type: "xavier"
    }
    bias_filler {
      type: "constant"
      value: 0.2
    }
  }
}
layer {
  name: "inception_4d/relu_1x1"
  type: "ReLU"
  bottom: "inception_4d/1x1"
  top: "inception_4d/1x1"
}
layer {
  name: "inception_4d/3x3_reduce"
  type: "Convolution"
  bottom: "inception_4c/output"
  top: "inception_4d/3x3_reduce"
  param {
    lr_mult: 1
    decay_mult: 1
  }
  param {
    lr_mult: 2
    decay_mult: 0
  }
  convolution_param {
    num_output: 144
    kernel_size: 1
    weight_filler {
      type: "xavier"
    }
    bias_filler {
      type: "constant"
      value: 0.2
    }
  }
}
layer {
  name: "inception_4d/relu_3x3_reduce"
  type: "ReLU"
  bottom: "inception_4d/3x3_reduce"
  top: "inception_4d/3x3_reduce"
}
layer {
  name: "inception_4d/3x3"
  type: "Convolution"
  bottom: "inception_4d/3x3_reduce"
  top: "inception_4d/3x3"
  param {
    lr_mult: 1
    decay_mult: 1
  }
  param {
    lr_mult: 2
    decay_mult: 0
  }
  convolution_param {
    num_output: 288
    pad: 1
    kernel_size: 3
    weight_filler {
      type: "xavier"
    }
    bias_filler {
      type: "constant"
      value: 0.2
    }
  }
}
layer {
  name: "inception_4d/relu_3x3"
  type: "ReLU"
  bottom: "inception_4d/3x3"
  top: "inception_4d/3x3"
}
layer {
  name: "inception_4d/5x5_reduce"
  type: "Convolution"
  bottom: "inception_4c/output"
  top: "inception_4d/5x5_reduce"
  param {
    lr_mult: 1
    decay_mult: 1
  }
  param {
    lr_mult: 2
    decay_mult: 0
  }
  convolution_param {
    num_output: 32
    kernel_size: 1
    weight_filler {
      type: "xavier"
    }
    bias_filler {
      type: "constant"
      value: 0.2
    }
  }
}
layer {
  name: "inception_4d/relu_5x5_reduce"
  type: "ReLU"
  bottom: "inception_4d/5x5_reduce"
  top: "inception_4d/5x5_reduce"
}
layer {
  name: "inception_4d/5x5"
  type: "Convolution"
  bottom: "inception_4d/5x5_reduce"
  top: "inception_4d/5x5"
  param {
    lr_mult: 1
    decay_mult: 1
  }
  param {
    lr_mult: 2
    decay_mult: 0
  }
  convolution_param {
    num_output: 64
    pad: 2
    kernel_size: 5
    weight_filler {
      type: "xavier"
    }
    bias_filler {
      type: "constant"
      value: 0.2
    }
  }
}
layer {
  name: "inception_4d/relu_5x5"
  type: "ReLU"
  bottom: "inception_4d/5x5"
  top: "inception_4d/5x5"
}
layer {
  name: "inception_4d/pool"
  type: "Pooling"
  bottom: "inception_4c/output"
  top: "inception_4d/pool"
  pooling_param {
    pool: MAX
    kernel_size: 3
    stride: 1
    pad: 1
  }
}
layer {
  name: "inception_4d/pool_proj"
  type: "Convolution"
  bottom: "inception_4d/pool"
  top: "inception_4d/pool_proj"
  param {
    lr_mult: 1
    decay_mult: 1
  }
  param {
    lr_mult: 2
    decay_mult: 0
  }
  convolution_param {
    num_output: 64
    kernel_size: 1
    weight_filler {
      type: "xavier"
    }
    bias_filler {
      type: "constant"
      value: 0.2
    }
  }
}
layer {
  name: "inception_4d/relu_pool_proj"
  type: "ReLU"
  bottom: "inception_4d/pool_proj"
  top: "inception_4d/pool_proj"
}
layer {
  name: "inception_4d/output"
  type: "Concat"
  bottom: "inception_4d/1x1"
  bottom: "inception_4d/3x3"
  bottom: "inception_4d/5x5"
  bottom: "inception_4d/pool_proj"
  top: "inception_4d/output"
}
layer {
  name: "loss2/ave_pool"
  type: "Pooling"
  bottom: "inception_4d/output"
  top: "loss2/ave_pool"
  pooling_param {
    pool: AVE
    kernel_size: 5
    stride: 3
  }
}
layer {
  name: "loss2/conv"
  type: "Convolution"
  bottom: "loss2/ave_pool"
  top: "loss2/conv"
  param {
    lr_mult: 1
    decay_mult: 1
  }
  param {
    lr_mult: 2
    decay_mult: 0
  }
  convolution_param {
    num_output: 128
    kernel_size: 1
    weight_filler {
      type: "xavier"
    }
    bias_filler {
      type: "constant"
      value: 0.2
    }
  }
}
layer {
  name: "loss2/relu_conv"
  type: "ReLU"
  bottom: "loss2/conv"
  top: "loss2/conv"
}
layer {
  name: "loss2/fc"
  type: "InnerProduct"
  bottom: "loss2/conv"
  top: "loss2/fc"
  param {
    lr_mult: 1
    decay_mult: 1
  }
  param {
    lr_mult: 2
    decay_mult: 0
  }
  inner_product_param {
    num_output: 1024
    weight_filler {
      type: "xavier"
    }
    bias_filler {
      type: "constant"
      value: 0.2
    }
  }
}
layer {
  name: "loss2/relu_fc"
  type: "ReLU"
  bottom: "loss2/fc"
  top: "loss2/fc"
}
layer {
  name: "loss2/drop_fc"
  type: "Dropout"
  bottom: "loss2/fc"
  top: "loss2/fc"
  dropout_param {
    dropout_ratio: 0.7
  }
}
layer {
  name: "loss2/classifier"
  type: "InnerProduct"
  bottom: "loss2/fc"
  top: "loss2/classifier"
  param {
    lr_mult: 1
    decay_mult: 1
  }
  param {
    lr_mult: 2
    decay_mult: 0
  }
  inner_product_param {
    num_output: 1000
    weight_filler {
      type: "xavier"
    }
    bias_filler {
      type: "constant"
      value: 0
    }
  }
}
layer {
  name: "loss2/loss"
  type: "SoftmaxWithLoss"
  bottom: "loss2/classifier"
  bottom: "label"
  top: "loss2/loss2"
  loss_weight: 0.3
}
layer {
  name: "inception_4e/1x1"
  type: "Convolution"
  bottom: "inception_4d/output"
  top: "inception_4e/1x1"
  param {
    lr_mult: 1
    decay_mult: 1
  }
  param {
    lr_mult: 2
    decay_mult: 0
  }
  convolution_param {
    num_output: 256
    kernel_size: 1
    weight_filler {
      type: "xavier"
    }
    bias_filler {
      type: "constant"
      value: 0.2
    }
  }
}
layer {
  name: "inception_4e/relu_1x1"
  type: "ReLU"
  bottom: "inception_4e/1x1"
  top: "inception_4e/1x1"
}
layer {
  name: "inception_4e/3x3_reduce"
  type: "Convolution"
  bottom: "inception_4d/output"
  top: "inception_4e/3x3_reduce"
  param {
    lr_mult: 1
    decay_mult: 1
  }
  param {
    lr_mult: 2
    decay_mult: 0
  }
  convolution_param {
    num_output: 160
    kernel_size: 1
    weight_filler {
      type: "xavier"
    }
    bias_filler {
      type: "constant"
      value: 0.2
    }
  }
}
layer {
  name: "inception_4e/relu_3x3_reduce"
  type: "ReLU"
  bottom: "inception_4e/3x3_reduce"
  top: "inception_4e/3x3_reduce"
}
layer {
  name: "inception_4e/3x3"
  type: "Convolution"
  bottom: "inception_4e/3x3_reduce"
  top: "inception_4e/3x3"
  param {
    lr_mult: 1
    decay_mult: 1
  }
  param {
    lr_mult: 2
    decay_mult: 0
  }
  convolution_param {
    num_output: 320
    pad: 1
    kernel_size: 3
    weight_filler {
      type: "xavier"
    }
    bias_filler {
      type: "constant"
      value: 0.2
    }
  }
}
layer {
  name: "inception_4e/relu_3x3"
  type: "ReLU"
  bottom: "inception_4e/3x3"
  top: "inception_4e/3x3"
}
layer {
  name: "inception_4e/5x5_reduce"
  type: "Convolution"
  bottom: "inception_4d/output"
  top: "inception_4e/5x5_reduce"
  param {
    lr_mult: 1
    decay_mult: 1
  }
  param {
    lr_mult: 2
    decay_mult: 0
  }
  convolution_param {
    num_output: 32
    kernel_size: 1
    weight_filler {
      type: "xavier"
    }
    bias_filler {
      type: "constant"
      value: 0.2
    }
  }
}
layer {
  name: "inception_4e/relu_5x5_reduce"
  type: "ReLU"
  bottom: "inception_4e/5x5_reduce"
  top: "inception_4e/5x5_reduce"
}
layer {
  name: "inception_4e/5x5"
  type: "Convolution"
  bottom: "inception_4e/5x5_reduce"
  top: "inception_4e/5x5"
  param {
    lr_mult: 1
    decay_mult: 1
  }
  param {
    lr_mult: 2
    decay_mult: 0
  }
  convolution_param {
    num_output: 128
    pad: 2
    kernel_size: 5
    weight_filler {
      type: "xavier"
    }
    bias_filler {
      type: "constant"
      value: 0.2
    }
  }
}
layer {
  name: "inception_4e/relu_5x5"
  type: "ReLU"
  bottom: "inception_4e/5x5"
  top: "inception_4e/5x5"
}
layer {
  name: "inception_4e/pool"
  type: "Pooling"
  bottom: "inception_4d/output"
  top: "inception_4e/pool"
  pooling_param {
    pool: MAX
    kerne
I0509 17:24:15.824285 120027 layer_factory.hpp:77] Creating layer data
I0509 17:24:15.824389 120027 db_lmdb.cpp:35] Opened lmdb examples/imagenet/ilsvrc12_train_lmdb
I0509 17:24:15.824422 120027 net.cpp:84] Creating Layer data
I0509 17:24:15.824432 120027 net.cpp:380] data -> data
I0509 17:24:15.824455 120027 net.cpp:380] data -> label
I0509 17:24:15.825230 120027 data_layer.cpp:45] output data size: 32,3,224,224
I0509 17:24:15.825317 120027 net.cpp:122] Setting up data
I0509 17:24:15.825330 120027 net.cpp:129] Top shape: 32 3 224 224 (4816896)
I0509 17:24:15.825337 120027 net.cpp:129] Top shape: 32 (32)
I0509 17:24:15.825341 120027 net.cpp:137] Memory required for data: 19267712
I0509 17:24:15.825351 120027 layer_factory.hpp:77] Creating layer label_data_1_split
I0509 17:24:15.825361 120027 net.cpp:84] Creating Layer label_data_1_split
I0509 17:24:15.825367 120027 net.cpp:406] label_data_1_split <- label
I0509 17:24:15.825381 120027 net.cpp:380] label_data_1_split -> label_data_1_split_0
I0509 17:24:15.825394 120027 net.cpp:380] label_data_1_split -> label_data_1_split_1
I0509 17:24:15.825403 120027 net.cpp:380] label_data_1_split -> label_data_1_split_2
I0509 17:24:15.825415 120027 net.cpp:122] Setting up label_data_1_split
I0509 17:24:15.825431 120027 net.cpp:129] Top shape: 32 (32)
I0509 17:24:15.825446 120027 net.cpp:129] Top shape: 32 (32)
I0509 17:24:15.825453 120027 net.cpp:129] Top shape: 32 (32)
I0509 17:24:15.825456 120027 net.cpp:137] Memory required for data: 19268096
I0509 17:24:15.825461 120027 layer_factory.hpp:77] Creating layer conv1/7x7_s2
I0509 17:24:15.825479 120027 net.cpp:84] Creating Layer conv1/7x7_s2
I0509 17:24:15.825484 120027 net.cpp:406] conv1/7x7_s2 <- data
I0509 17:24:15.825495 120027 net.cpp:380] conv1/7x7_s2 -> conv1/7x7_s2
I0509 17:24:15.825510 120027 base_conv_layer.cpp:121] Group is 1channel is3number of output is 64
I0509 17:24:15.825700 120027 net.cpp:122] Setting up conv1/7x7_s2
I0509 17:24:15.825711 120027 net.cpp:129] Top shape: 32 64 112 112 (25690112)
I0509 17:24:15.825716 120027 net.cpp:137] Memory required for data: 122028544
I0509 17:24:15.825734 120027 layer_factory.hpp:77] Creating layer conv1/relu_7x7
I0509 17:24:15.825743 120027 net.cpp:84] Creating Layer conv1/relu_7x7
I0509 17:24:15.825748 120027 net.cpp:406] conv1/relu_7x7 <- conv1/7x7_s2
I0509 17:24:15.825755 120027 net.cpp:367] conv1/relu_7x7 -> conv1/7x7_s2 (in-place)
I0509 17:24:15.825763 120027 net.cpp:122] Setting up conv1/relu_7x7
I0509 17:24:15.825772 120027 net.cpp:129] Top shape: 32 64 112 112 (25690112)
I0509 17:24:15.825775 120027 net.cpp:137] Memory required for data: 224788992
I0509 17:24:15.825780 120027 layer_factory.hpp:77] Creating layer pool1/3x3_s2
I0509 17:24:15.825791 120027 net.cpp:84] Creating Layer pool1/3x3_s2
I0509 17:24:15.825796 120027 net.cpp:406] pool1/3x3_s2 <- conv1/7x7_s2
I0509 17:24:15.825803 120027 net.cpp:380] pool1/3x3_s2 -> pool1/3x3_s2
I0509 17:24:15.825821 120027 net.cpp:122] Setting up pool1/3x3_s2
I0509 17:24:15.825829 120027 net.cpp:129] Top shape: 32 64 56 56 (6422528)
I0509 17:24:15.825834 120027 net.cpp:137] Memory required for data: 250479104
I0509 17:24:15.825839 120027 layer_factory.hpp:77] Creating layer pool1/norm1
I0509 17:24:15.825845 120027 net.cpp:84] Creating Layer pool1/norm1
I0509 17:24:15.825850 120027 net.cpp:406] pool1/norm1 <- pool1/3x3_s2
I0509 17:24:15.825858 120027 net.cpp:380] pool1/norm1 -> pool1/norm1
I0509 17:24:15.825868 120027 net.cpp:122] Setting up pool1/norm1
I0509 17:24:15.825875 120027 net.cpp:129] Top shape: 32 64 56 56 (6422528)
I0509 17:24:15.825881 120027 net.cpp:137] Memory required for data: 276169216
I0509 17:24:15.825886 120027 layer_factory.hpp:77] Creating layer conv2/3x3_reduce
I0509 17:24:15.825897 120027 net.cpp:84] Creating Layer conv2/3x3_reduce
I0509 17:24:15.825902 120027 net.cpp:406] conv2/3x3_reduce <- pool1/norm1
I0509 17:24:15.825911 120027 net.cpp:380] conv2/3x3_reduce -> conv2/3x3_reduce
I0509 17:24:15.825927 120027 base_conv_layer.cpp:121] Group is 1channel is64number of output is 64
I0509 17:24:15.825987 120027 net.cpp:122] Setting up conv2/3x3_reduce
I0509 17:24:15.825995 120027 net.cpp:129] Top shape: 32 64 56 56 (6422528)
I0509 17:24:15.825999 120027 net.cpp:137] Memory required for data: 301859328
I0509 17:24:15.826011 120027 layer_factory.hpp:77] Creating layer conv2/relu_3x3_reduce
I0509 17:24:15.826020 120027 net.cpp:84] Creating Layer conv2/relu_3x3_reduce
I0509 17:24:15.826025 120027 net.cpp:406] conv2/relu_3x3_reduce <- conv2/3x3_reduce
I0509 17:24:15.826035 120027 net.cpp:367] conv2/relu_3x3_reduce -> conv2/3x3_reduce (in-place)
I0509 17:24:15.826042 120027 net.cpp:122] Setting up conv2/relu_3x3_reduce
I0509 17:24:15.826050 120027 net.cpp:129] Top shape: 32 64 56 56 (6422528)
I0509 17:24:15.826053 120027 net.cpp:137] Memory required for data: 327549440
I0509 17:24:15.826057 120027 layer_factory.hpp:77] Creating layer conv2/3x3
I0509 17:24:15.826071 120027 net.cpp:84] Creating Layer conv2/3x3
I0509 17:24:15.826076 120027 net.cpp:406] conv2/3x3 <- conv2/3x3_reduce
I0509 17:24:15.826084 120027 net.cpp:380] conv2/3x3 -> conv2/3x3
I0509 17:24:15.826097 120027 base_conv_layer.cpp:121] Group is 1channel is64number of output is 192
I0509 17:24:15.827196 120027 net.cpp:122] Setting up conv2/3x3
I0509 17:24:15.827204 120027 net.cpp:129] Top shape: 32 192 56 56 (19267584)
I0509 17:24:15.827214 120027 net.cpp:137] Memory required for data: 404619776
I0509 17:24:15.827234 120027 layer_factory.hpp:77] Creating layer conv2/relu_3x3
I0509 17:24:15.827241 120027 net.cpp:84] Creating Layer conv2/relu_3x3
I0509 17:24:15.827246 120027 net.cpp:406] conv2/relu_3x3 <- conv2/3x3
I0509 17:24:15.827252 120027 net.cpp:367] conv2/relu_3x3 -> conv2/3x3 (in-place)
I0509 17:24:15.827260 120027 net.cpp:122] Setting up conv2/relu_3x3
I0509 17:24:15.827267 120027 net.cpp:129] Top shape: 32 192 56 56 (19267584)
I0509 17:24:15.827271 120027 net.cpp:137] Memory required for data: 481690112
I0509 17:24:15.827276 120027 layer_factory.hpp:77] Creating layer conv2/norm2
I0509 17:24:15.827285 120027 net.cpp:84] Creating Layer conv2/norm2
I0509 17:24:15.827291 120027 net.cpp:406] conv2/norm2 <- conv2/3x3
I0509 17:24:15.827296 120027 net.cpp:380] conv2/norm2 -> conv2/norm2
I0509 17:24:15.827304 120027 net.cpp:122] Setting up conv2/norm2
I0509 17:24:15.827311 120027 net.cpp:129] Top shape: 32 192 56 56 (19267584)
I0509 17:24:15.827316 120027 net.cpp:137] Memory required for data: 558760448
I0509 17:24:15.827320 120027 layer_factory.hpp:77] Creating layer pool2/3x3_s2
I0509 17:24:15.827327 120027 net.cpp:84] Creating Layer pool2/3x3_s2
I0509 17:24:15.827332 120027 net.cpp:406] pool2/3x3_s2 <- conv2/norm2
I0509 17:24:15.827339 120027 net.cpp:380] pool2/3x3_s2 -> pool2/3x3_s2
I0509 17:24:15.827348 120027 net.cpp:122] Setting up pool2/3x3_s2
I0509 17:24:15.827354 120027 net.cpp:129] Top shape: 32 192 28 28 (4816896)
I0509 17:24:15.827358 120027 net.cpp:137] Memory required for data: 578028032
I0509 17:24:15.827364 120027 layer_factory.hpp:77] Creating layer pool2/3x3_s2_pool2/3x3_s2_0_split
I0509 17:24:15.827373 120027 net.cpp:84] Creating Layer pool2/3x3_s2_pool2/3x3_s2_0_split
I0509 17:24:15.827378 120027 net.cpp:406] pool2/3x3_s2_pool2/3x3_s2_0_split <- pool2/3x3_s2
I0509 17:24:15.827385 120027 net.cpp:380] pool2/3x3_s2_pool2/3x3_s2_0_split -> pool2/3x3_s2_pool2/3x3_s2_0_split_0
I0509 17:24:15.827395 120027 net.cpp:380] pool2/3x3_s2_pool2/3x3_s2_0_split -> pool2/3x3_s2_pool2/3x3_s2_0_split_1
I0509 17:24:15.827404 120027 net.cpp:380] pool2/3x3_s2_pool2/3x3_s2_0_split -> pool2/3x3_s2_pool2/3x3_s2_0_split_2
I0509 17:24:15.827412 120027 net.cpp:380] pool2/3x3_s2_pool2/3x3_s2_0_split -> pool2/3x3_s2_pool2/3x3_s2_0_split_3
I0509 17:24:15.827421 120027 net.cpp:122] Setting up pool2/3x3_s2_pool2/3x3_s2_0_split
I0509 17:24:15.827430 120027 net.cpp:129] Top shape: 32 192 28 28 (4816896)
I0509 17:24:15.827435 120027 net.cpp:129] Top shape: 32 192 28 28 (4816896)
I0509 17:24:15.827441 120027 net.cpp:129] Top shape: 32 192 28 28 (4816896)
I0509 17:24:15.827447 120027 net.cpp:129] Top shape: 32 192 28 28 (4816896)
I0509 17:24:15.827452 120027 net.cpp:137] Memory required for data: 655098368
I0509 17:24:15.827456 120027 layer_factory.hpp:77] Creating layer inception_3a/1x1
I0509 17:24:15.827468 120027 net.cpp:84] Creating Layer inception_3a/1x1
I0509 17:24:15.827473 120027 net.cpp:406] inception_3a/1x1 <- pool2/3x3_s2_pool2/3x3_s2_0_split_0
I0509 17:24:15.827482 120027 net.cpp:380] inception_3a/1x1 -> inception_3a/1x1
I0509 17:24:15.827499 120027 base_conv_layer.cpp:121] Group is 1channel is192number of output is 64
I0509 17:24:15.827642 120027 net.cpp:122] Setting up inception_3a/1x1
I0509 17:24:15.827651 120027 net.cpp:129] Top shape: 32 64 28 28 (1605632)
I0509 17:24:15.827656 120027 net.cpp:137] Memory required for data: 661520896
I0509 17:24:15.827664 120027 layer_factory.hpp:77] Creating layer inception_3a/relu_1x1
I0509 17:24:15.827672 120027 net.cpp:84] Creating Layer inception_3a/relu_1x1
I0509 17:24:15.827677 120027 net.cpp:406] inception_3a/relu_1x1 <- inception_3a/1x1
I0509 17:24:15.827685 120027 net.cpp:367] inception_3a/relu_1x1 -> inception_3a/1x1 (in-place)
I0509 17:24:15.827693 120027 net.cpp:122] Setting up inception_3a/relu_1x1
I0509 17:24:15.827700 120027 net.cpp:129] Top shape: 32 64 28 28 (1605632)
I0509 17:24:15.827704 120027 net.cpp:137] Memory required for data: 667943424
I0509 17:24:15.827710 120027 layer_factory.hpp:77] Creating layer inception_3a/3x3_reduce
I0509 17:24:15.827733 120027 net.cpp:84] Creating Layer inception_3a/3x3_reduce
I0509 17:24:15.827739 120027 net.cpp:406] inception_3a/3x3_reduce <- pool2/3x3_s2_pool2/3x3_s2_0_split_1
I0509 17:24:15.827747 120027 net.cpp:380] inception_3a/3x3_reduce -> inception_3a/3x3_reduce
I0509 17:24:15.827761 120027 base_conv_layer.cpp:121] Group is 1channel is192number of output is 96
I0509 17:24:15.827960 120027 net.cpp:122] Setting up inception_3a/3x3_reduce
I0509 17:24:15.827970 120027 net.cpp:129] Top shape: 32 96 28 28 (2408448)
I0509 17:24:15.827973 120027 net.cpp:137] Memory required for data: 677577216
I0509 17:24:15.827986 120027 layer_factory.hpp:77] Creating layer inception_3a/relu_3x3_reduce
I0509 17:24:15.827997 120027 net.cpp:84] Creating Layer inception_3a/relu_3x3_reduce
I0509 17:24:15.828002 120027 net.cpp:406] inception_3a/relu_3x3_reduce <- inception_3a/3x3_reduce
I0509 17:24:15.828009 120027 net.cpp:367] inception_3a/relu_3x3_reduce -> inception_3a/3x3_reduce (in-place)
I0509 17:24:15.828017 120027 net.cpp:122] Setting up inception_3a/relu_3x3_reduce
I0509 17:24:15.828024 120027 net.cpp:129] Top shape: 32 96 28 28 (2408448)
I0509 17:24:15.828028 120027 net.cpp:137] Memory required for data: 687211008
I0509 17:24:15.828032 120027 layer_factory.hpp:77] Creating layer inception_3a/3x3
I0509 17:24:15.828063 120027 net.cpp:84] Creating Layer inception_3a/3x3
I0509 17:24:15.828068 120027 net.cpp:406] inception_3a/3x3 <- inception_3a/3x3_reduce
I0509 17:24:15.828078 120027 net.cpp:380] inception_3a/3x3 -> inception_3a/3x3
I0509 17:24:15.828089 120027 base_conv_layer.cpp:121] Group is 1channel is96number of output is 128
I0509 17:24:15.829198 120027 net.cpp:122] Setting up inception_3a/3x3
I0509 17:24:15.829206 120027 net.cpp:129] Top shape: 32 128 28 28 (3211264)
I0509 17:24:15.829210 120027 net.cpp:137] Memory required for data: 700056064
I0509 17:24:15.829218 120027 layer_factory.hpp:77] Creating layer inception_3a/relu_3x3
I0509 17:24:15.829226 120027 net.cpp:84] Creating Layer inception_3a/relu_3x3
I0509 17:24:15.829231 120027 net.cpp:406] inception_3a/relu_3x3 <- inception_3a/3x3
I0509 17:24:15.829239 120027 net.cpp:367] inception_3a/relu_3x3 -> inception_3a/3x3 (in-place)
I0509 17:24:15.829247 120027 net.cpp:122] Setting up inception_3a/relu_3x3
I0509 17:24:15.829254 120027 net.cpp:129] Top shape: 32 128 28 28 (3211264)
I0509 17:24:15.829259 120027 net.cpp:137] Memory required for data: 712901120
I0509 17:24:15.829263 120027 layer_factory.hpp:77] Creating layer inception_3a/5x5_reduce
I0509 17:24:15.829275 120027 net.cpp:84] Creating Layer inception_3a/5x5_reduce
I0509 17:24:15.829282 120027 net.cpp:406] inception_3a/5x5_reduce <- pool2/3x3_s2_pool2/3x3_s2_0_split_2
I0509 17:24:15.829290 120027 net.cpp:380] inception_3a/5x5_reduce -> inception_3a/5x5_reduce
I0509 17:24:15.829313 120027 base_conv_layer.cpp:121] Group is 1channel is192number of output is 16
I0509 17:24:15.829358 120027 net.cpp:122] Setting up inception_3a/5x5_reduce
I0509 17:24:15.829366 120027 net.cpp:129] Top shape: 32 16 28 28 (401408)
I0509 17:24:15.829371 120027 net.cpp:137] Memory required for data: 714506752
I0509 17:24:15.829378 120027 layer_factory.hpp:77] Creating layer inception_3a/relu_5x5_reduce
I0509 17:24:15.829385 120027 net.cpp:84] Creating Layer inception_3a/relu_5x5_reduce
I0509 17:24:15.829391 120027 net.cpp:406] inception_3a/relu_5x5_reduce <- inception_3a/5x5_reduce
I0509 17:24:15.829397 120027 net.cpp:367] inception_3a/relu_5x5_reduce -> inception_3a/5x5_reduce (in-place)
I0509 17:24:15.829404 120027 net.cpp:122] Setting up inception_3a/relu_5x5_reduce
I0509 17:24:15.829411 120027 net.cpp:129] Top shape: 32 16 28 28 (401408)
I0509 17:24:15.829416 120027 net.cpp:137] Memory required for data: 716112384
I0509 17:24:15.829421 120027 layer_factory.hpp:77] Creating layer inception_3a/5x5
I0509 17:24:15.829432 120027 net.cpp:84] Creating Layer inception_3a/5x5
I0509 17:24:15.829437 120027 net.cpp:406] inception_3a/5x5 <- inception_3a/5x5_reduce
I0509 17:24:15.829449 120027 net.cpp:380] inception_3a/5x5 -> inception_3a/5x5
I0509 17:24:15.829469 120027 base_conv_layer.cpp:121] Group is 1channel is16number of output is 32
I0509 17:24:15.829612 120027 net.cpp:122] Setting up inception_3a/5x5
I0509 17:24:15.829619 120027 net.cpp:129] Top shape: 32 32 28 28 (802816)
I0509 17:24:15.829625 120027 net.cpp:137] Memory required for data: 719323648
I0509 17:24:15.829632 120027 layer_factory.hpp:77] Creating layer inception_3a/relu_5x5
I0509 17:24:15.829639 120027 net.cpp:84] Creating Layer inception_3a/relu_5x5
I0509 17:24:15.829644 120027 net.cpp:406] inception_3a/relu_5x5 <- inception_3a/5x5
I0509 17:24:15.829653 120027 net.cpp:367] inception_3a/relu_5x5 -> inception_3a/5x5 (in-place)
I0509 17:24:15.829660 120027 net.cpp:122] Setting up inception_3a/relu_5x5
I0509 17:24:15.829668 120027 net.cpp:129] Top shape: 32 32 28 28 (802816)
I0509 17:24:15.829671 120027 net.cpp:137] Memory required for data: 722534912
I0509 17:24:15.829676 120027 layer_factory.hpp:77] Creating layer inception_3a/pool
I0509 17:24:15.829684 120027 net.cpp:84] Creating Layer inception_3a/pool
I0509 17:24:15.829689 120027 net.cpp:406] inception_3a/pool <- pool2/3x3_s2_pool2/3x3_s2_0_split_3
I0509 17:24:15.829697 120027 net.cpp:380] inception_3a/pool -> inception_3a/pool
I0509 17:24:15.829710 120027 net.cpp:122] Setting up inception_3a/pool
I0509 17:24:15.829715 120027 net.cpp:129] Top shape: 32 192 28 28 (4816896)
I0509 17:24:15.829720 120027 net.cpp:137] Memory required for data: 741802496
I0509 17:24:15.829725 120027 layer_factory.hpp:77] Creating layer inception_3a/pool_proj
I0509 17:24:15.829736 120027 net.cpp:84] Creating Layer inception_3a/pool_proj
I0509 17:24:15.829741 120027 net.cpp:406] inception_3a/pool_proj <- inception_3a/pool
I0509 17:24:15.829752 120027 net.cpp:380] inception_3a/pool_proj -> inception_3a/pool_proj
I0509 17:24:15.829763 120027 base_conv_layer.cpp:121] Group is 1channel is192number of output is 32
I0509 17:24:15.829838 120027 net.cpp:122] Setting up inception_3a/pool_proj
I0509 17:24:15.829845 120027 net.cpp:129] Top shape: 32 32 28 28 (802816)
I0509 17:24:15.829850 120027 net.cpp:137] Memory required for data: 745013760
I0509 17:24:15.829864 120027 layer_factory.hpp:77] Creating layer inception_3a/relu_pool_proj
I0509 17:24:15.829872 120027 net.cpp:84] Creating Layer inception_3a/relu_pool_proj
I0509 17:24:15.829877 120027 net.cpp:406] inception_3a/relu_pool_proj <- inception_3a/pool_proj
I0509 17:24:15.829885 120027 net.cpp:367] inception_3a/relu_pool_proj -> inception_3a/pool_proj (in-place)
I0509 17:24:15.829891 120027 net.cpp:122] Setting up inception_3a/relu_pool_proj
I0509 17:24:15.829898 120027 net.cpp:129] Top shape: 32 32 28 28 (802816)
I0509 17:24:15.829903 120027 net.cpp:137] Memory required for data: 748225024
I0509 17:24:15.829907 120027 layer_factory.hpp:77] Creating layer inception_3a/output
I0509 17:24:15.829915 120027 net.cpp:84] Creating Layer inception_3a/output
I0509 17:24:15.829921 120027 net.cpp:406] inception_3a/output <- inception_3a/1x1
I0509 17:24:15.829926 120027 net.cpp:406] inception_3a/output <- inception_3a/3x3
I0509 17:24:15.829931 120027 net.cpp:406] inception_3a/output <- inception_3a/5x5
I0509 17:24:15.829936 120027 net.cpp:406] inception_3a/output <- inception_3a/pool_proj
I0509 17:24:15.829946 120027 net.cpp:380] inception_3a/output -> inception_3a/output
I0509 17:24:15.829957 120027 net.cpp:122] Setting up inception_3a/output
I0509 17:24:15.829963 120027 net.cpp:129] Top shape: 32 256 28 28 (6422528)
I0509 17:24:15.829967 120027 net.cpp:137] Memory required for data: 773915136
I0509 17:24:15.829973 120027 layer_factory.hpp:77] Creating layer inception_3a/output_inception_3a/output_0_split
I0509 17:24:15.829980 120027 net.cpp:84] Creating Layer inception_3a/output_inception_3a/output_0_split
I0509 17:24:15.829985 120027 net.cpp:406] inception_3a/output_inception_3a/output_0_split <- inception_3a/output
I0509 17:24:15.829995 120027 net.cpp:380] inception_3a/output_inception_3a/output_0_split -> inception_3a/output_inception_3a/output_0_split_0
I0509 17:24:15.830009 120027 net.cpp:380] inception_3a/output_inception_3a/output_0_split -> inception_3a/output_inception_3a/output_0_split_1
I0509 17:24:15.830027 120027 net.cpp:380] inception_3a/output_inception_3a/output_0_split -> inception_3a/output_inception_3a/output_0_split_2
I0509 17:24:15.830036 120027 net.cpp:380] inception_3a/output_inception_3a/output_0_split -> inception_3a/output_inception_3a/output_0_split_3
I0509 17:24:15.830046 120027 net.cpp:122] Setting up inception_3a/output_inception_3a/output_0_split
I0509 17:24:15.830054 120027 net.cpp:129] Top shape: 32 256 28 28 (6422528)
I0509 17:24:15.830060 120027 net.cpp:129] Top shape: 32 256 28 28 (6422528)
I0509 17:24:15.830066 120027 net.cpp:129] Top shape: 32 256 28 28 (6422528)
I0509 17:24:15.830072 120027 net.cpp:129] Top shape: 32 256 28 28 (6422528)
I0509 17:24:15.830078 120027 net.cpp:137] Memory required for data: 876675584
I0509 17:24:15.830082 120027 layer_factory.hpp:77] Creating layer inception_3b/1x1
I0509 17:24:15.830093 120027 net.cpp:84] Creating Layer inception_3b/1x1
I0509 17:24:15.830098 120027 net.cpp:406] inception_3b/1x1 <- inception_3a/output_inception_3a/output_0_split_0
I0509 17:24:15.830111 120027 net.cpp:380] inception_3b/1x1 -> inception_3b/1x1
I0509 17:24:15.830122 120027 base_conv_layer.cpp:121] Group is 1channel is256number of output is 128
I0509 17:24:15.830459 120027 net.cpp:122] Setting up inception_3b/1x1
I0509 17:24:15.830467 120027 net.cpp:129] Top shape: 32 128 28 28 (3211264)
I0509 17:24:15.830473 120027 net.cpp:137] Memory required for data: 889520640
I0509 17:24:15.830482 120027 layer_factory.hpp:77] Creating layer inception_3b/relu_1x1
I0509 17:24:15.830488 120027 net.cpp:84] Creating Layer inception_3b/relu_1x1
I0509 17:24:15.830492 120027 net.cpp:406] inception_3b/relu_1x1 <- inception_3b/1x1
I0509 17:24:15.830502 120027 net.cpp:367] inception_3b/relu_1x1 -> inception_3b/1x1 (in-place)
I0509 17:24:15.830509 120027 net.cpp:122] Setting up inception_3b/relu_1x1
I0509 17:24:15.830516 120027 net.cpp:129] Top shape: 32 128 28 28 (3211264)
I0509 17:24:15.830520 120027 net.cpp:137] Memory required for data: 902365696
I0509 17:24:15.830525 120027 layer_factory.hpp:77] Creating layer inception_3b/3x3_reduce
I0509 17:24:15.830536 120027 net.cpp:84] Creating Layer inception_3b/3x3_reduce
I0509 17:24:15.830541 120027 net.cpp:406] inception_3b/3x3_reduce <- inception_3a/output_inception_3a/output_0_split_1
I0509 17:24:15.830551 120027 net.cpp:380] inception_3b/3x3_reduce -> inception_3b/3x3_reduce
I0509 17:24:15.830564 120027 base_conv_layer.cpp:121] Group is 1channel is256number of output is 128
I0509 17:24:15.830904 120027 net.cpp:122] Setting up inception_3b/3x3_reduce
I0509 17:24:15.830914 120027 net.cpp:129] Top shape: 32 128 28 28 (3211264)
I0509 17:24:15.830917 120027 net.cpp:137] Memory required for data: 915210752
I0509 17:24:15.830926 120027 layer_factory.hpp:77] Creating layer inception_3b/relu_3x3_reduce
I0509 17:24:15.830932 120027 net.cpp:84] Creating Layer inception_3b/relu_3x3_reduce
I0509 17:24:15.830937 120027 net.cpp:406] inception_3b/relu_3x3_reduce <- inception_3b/3x3_reduce
I0509 17:24:15.830946 120027 net.cpp:367] inception_3b/relu_3x3_reduce -> inception_3b/3x3_reduce (in-place)
I0509 17:24:15.830955 120027 net.cpp:122] Setting up inception_3b/relu_3x3_reduce
I0509 17:24:15.830961 120027 net.cpp:129] Top shape: 32 128 28 28 (3211264)
I0509 17:24:15.830965 120027 net.cpp:137] Memory required for data: 928055808
I0509 17:24:15.830970 120027 layer_factory.hpp:77] Creating layer inception_3b/3x3
I0509 17:24:15.830989 120027 net.cpp:84] Creating Layer inception_3b/3x3
I0509 17:24:15.830994 120027 net.cpp:406] inception_3b/3x3 <- inception_3b/3x3_reduce
I0509 17:24:15.831002 120027 net.cpp:380] inception_3b/3x3 -> inception_3b/3x3
I0509 17:24:15.831014 120027 base_conv_layer.cpp:121] Group is 1channel is128number of output is 192
I0509 17:24:15.833176 120027 net.cpp:122] Setting up inception_3b/3x3
I0509 17:24:15.833186 120027 net.cpp:129] Top shape: 32 192 28 28 (4816896)
I0509 17:24:15.833191 120027 net.cpp:137] Memory required for data: 947323392
I0509 17:24:15.833212 120027 layer_factory.hpp:77] Creating layer inception_3b/relu_3x3
I0509 17:24:15.833222 120027 net.cpp:84] Creating Layer inception_3b/relu_3x3
I0509 17:24:15.833228 120027 net.cpp:406] inception_3b/relu_3x3 <- inception_3b/3x3
I0509 17:24:15.833235 120027 net.cpp:367] inception_3b/relu_3x3 -> inception_3b/3x3 (in-place)
I0509 17:24:15.833242 120027 net.cpp:122] Setting up inception_3b/relu_3x3
I0509 17:24:15.833250 120027 net.cpp:129] Top shape: 32 192 28 28 (4816896)
I0509 17:24:15.833253 120027 net.cpp:137] Memory required for data: 966590976
I0509 17:24:15.833257 120027 layer_factory.hpp:77] Creating layer inception_3b/5x5_reduce
I0509 17:24:15.833267 120027 net.cpp:84] Creating Layer inception_3b/5x5_reduce
I0509 17:24:15.833273 120027 net.cpp:406] inception_3b/5x5_reduce <- inception_3a/output_inception_3a/output_0_split_2
I0509 17:24:15.833283 120027 net.cpp:380] inception_3b/5x5_reduce -> inception_3b/5x5_reduce
I0509 17:24:15.833294 120027 base_conv_layer.cpp:121] Group is 1channel is256number of output is 32
I0509 17:24:15.833381 120027 net.cpp:122] Setting up inception_3b/5x5_reduce
I0509 17:24:15.833389 120027 net.cpp:129] Top shape: 32 32 28 28 (802816)
I0509 17:24:15.833394 120027 net.cpp:137] Memory required for data: 969802240
I0509 17:24:15.833400 120027 layer_factory.hpp:77] Creating layer inception_3b/relu_5x5_reduce
I0509 17:24:15.833406 120027 net.cpp:84] Creating Layer inception_3b/relu_5x5_reduce
I0509 17:24:15.833412 120027 net.cpp:406] inception_3b/relu_5x5_reduce <- inception_3b/5x5_reduce
I0509 17:24:15.833420 120027 net.cpp:367] inception_3b/relu_5x5_reduce -> inception_3b/5x5_reduce (in-place)
I0509 17:24:15.833426 120027 net.cpp:122] Setting up inception_3b/relu_5x5_reduce
I0509 17:24:15.833432 120027 net.cpp:129] Top shape: 32 32 28 28 (802816)
I0509 17:24:15.833438 120027 net.cpp:137] Memory required for data: 973013504
I0509 17:24:15.833442 120027 layer_factory.hpp:77] Creating layer inception_3b/5x5
I0509 17:24:15.833452 120027 net.cpp:84] Creating Layer inception_3b/5x5
I0509 17:24:15.833456 120027 net.cpp:406] inception_3b/5x5 <- inception_3b/5x5_reduce
I0509 17:24:15.833465 120027 net.cpp:380] inception_3b/5x5 -> inception_3b/5x5
I0509 17:24:15.833483 120027 base_conv_layer.cpp:121] Group is 1channel is32number of output is 96
I0509 17:24:15.834214 120027 net.cpp:122] Setting up inception_3b/5x5
I0509 17:24:15.834223 120027 net.cpp:129] Top shape: 32 96 28 28 (2408448)
I0509 17:24:15.834228 120027 net.cpp:137] Memory required for data: 982647296
I0509 17:24:15.834235 120027 layer_factory.hpp:77] Creating layer inception_3b/relu_5x5
I0509 17:24:15.834244 120027 net.cpp:84] Creating Layer inception_3b/relu_5x5
I0509 17:24:15.834247 120027 net.cpp:406] inception_3b/relu_5x5 <- inception_3b/5x5
I0509 17:24:15.834255 120027 net.cpp:367] inception_3b/relu_5x5 -> inception_3b/5x5 (in-place)
I0509 17:24:15.834261 120027 net.cpp:122] Setting up inception_3b/relu_5x5
I0509 17:24:15.834267 120027 net.cpp:129] Top shape: 32 96 28 28 (2408448)
I0509 17:24:15.834271 120027 net.cpp:137] Memory required for data: 992281088
I0509 17:24:15.834276 120027 layer_factory.hpp:77] Creating layer inception_3b/pool
I0509 17:24:15.834288 120027 net.cpp:84] Creating Layer inception_3b/pool
I0509 17:24:15.834293 120027 net.cpp:406] inception_3b/pool <- inception_3a/output_inception_3a/output_0_split_3
I0509 17:24:15.834300 120027 net.cpp:380] inception_3b/pool -> inception_3b/pool
I0509 17:24:15.834311 120027 net.cpp:122] Setting up inception_3b/pool
I0509 17:24:15.834316 120027 net.cpp:129] Top shape: 32 256 28 28 (6422528)
I0509 17:24:15.834321 120027 net.cpp:137] Memory required for data: 1017971200
I0509 17:24:15.834326 120027 layer_factory.hpp:77] Creating layer inception_3b/pool_proj
I0509 17:24:15.834336 120027 net.cpp:84] Creating Layer inception_3b/pool_proj
I0509 17:24:15.834342 120027 net.cpp:406] inception_3b/pool_proj <- inception_3b/pool
I0509 17:24:15.834350 120027 net.cpp:380] inception_3b/pool_proj -> inception_3b/pool_proj
I0509 17:24:15.834365 120027 base_conv_layer.cpp:121] Group is 1channel is256number of output is 64
I0509 17:24:15.834537 120027 net.cpp:122] Setting up inception_3b/pool_proj
I0509 17:24:15.834544 120027 net.cpp:129] Top shape: 32 64 28 28 (1605632)
I0509 17:24:15.834549 120027 net.cpp:137] Memory required for data: 1024393728
I0509 17:24:15.834556 120027 layer_factory.hpp:77] Creating layer inception_3b/relu_pool_proj
I0509 17:24:15.834565 120027 net.cpp:84] Creating Layer inception_3b/relu_pool_proj
I0509 17:24:15.834570 120027 net.cpp:406] inception_3b/relu_pool_proj <- inception_3b/pool_proj
I0509 17:24:15.834576 120027 net.cpp:367] inception_3b/relu_pool_proj -> inception_3b/pool_proj (in-place)
I0509 17:24:15.834583 120027 net.cpp:122] Setting up inception_3b/relu_pool_proj
I0509 17:24:15.834590 120027 net.cpp:129] Top shape: 32 64 28 28 (1605632)
I0509 17:24:15.834594 120027 net.cpp:137] Memory required for data: 1030816256
I0509 17:24:15.834599 120027 layer_factory.hpp:77] Creating layer inception_3b/output
I0509 17:24:15.834605 120027 net.cpp:84] Creating Layer inception_3b/output
I0509 17:24:15.834611 120027 net.cpp:406] inception_3b/output <- inception_3b/1x1
I0509 17:24:15.834616 120027 net.cpp:406] inception_3b/output <- inception_3b/3x3
I0509 17:24:15.834621 120027 net.cpp:406] inception_3b/output <- inception_3b/5x5
I0509 17:24:15.834626 120027 net.cpp:406] inception_3b/output <- inception_3b/pool_proj
I0509 17:24:15.834635 120027 net.cpp:380] inception_3b/output -> inception_3b/output
I0509 17:24:15.834645 120027 net.cpp:122] Setting up inception_3b/output
I0509 17:24:15.834651 120027 net.cpp:129] Top shape: 32 480 28 28 (12042240)
I0509 17:24:15.834656 120027 net.cpp:137] Memory required for data: 1078985216
I0509 17:24:15.834661 120027 layer_factory.hpp:77] Creating layer pool3/3x3_s2
I0509 17:24:15.834668 120027 net.cpp:84] Creating Layer pool3/3x3_s2
I0509 17:24:15.834673 120027 net.cpp:406] pool3/3x3_s2 <- inception_3b/output
I0509 17:24:15.834679 120027 net.cpp:380] pool3/3x3_s2 -> pool3/3x3_s2
I0509 17:24:15.834689 120027 net.cpp:122] Setting up pool3/3x3_s2
I0509 17:24:15.834695 120027 net.cpp:129] Top shape: 32 480 14 14 (3010560)
I0509 17:24:15.834699 120027 net.cpp:137] Memory required for data: 1091027456
I0509 17:24:15.834704 120027 layer_factory.hpp:77] Creating layer pool3/3x3_s2_pool3/3x3_s2_0_split
I0509 17:24:15.834712 120027 net.cpp:84] Creating Layer pool3/3x3_s2_pool3/3x3_s2_0_split
I0509 17:24:15.834717 120027 net.cpp:406] pool3/3x3_s2_pool3/3x3_s2_0_split <- pool3/3x3_s2
I0509 17:24:15.834724 120027 net.cpp:380] pool3/3x3_s2_pool3/3x3_s2_0_split -> pool3/3x3_s2_pool3/3x3_s2_0_split_0
I0509 17:24:15.834733 120027 net.cpp:380] pool3/3x3_s2_pool3/3x3_s2_0_split -> pool3/3x3_s2_pool3/3x3_s2_0_split_1
I0509 17:24:15.834744 120027 net.cpp:380] pool3/3x3_s2_pool3/3x3_s2_0_split -> pool3/3x3_s2_pool3/3x3_s2_0_split_2
I0509 17:24:15.834753 120027 net.cpp:380] pool3/3x3_s2_pool3/3x3_s2_0_split -> pool3/3x3_s2_pool3/3x3_s2_0_split_3
I0509 17:24:15.834761 120027 net.cpp:122] Setting up pool3/3x3_s2_pool3/3x3_s2_0_split
I0509 17:24:15.834769 120027 net.cpp:129] Top shape: 32 480 14 14 (3010560)
I0509 17:24:15.834776 120027 net.cpp:129] Top shape: 32 480 14 14 (3010560)
I0509 17:24:15.834781 120027 net.cpp:129] Top shape: 32 480 14 14 (3010560)
I0509 17:24:15.834787 120027 net.cpp:129] Top shape: 32 480 14 14 (3010560)
I0509 17:24:15.834791 120027 net.cpp:137] Memory required for data: 1139196416
I0509 17:24:15.834796 120027 layer_factory.hpp:77] Creating layer inception_4a/1x1
I0509 17:24:15.834807 120027 net.cpp:84] Creating Layer inception_4a/1x1
I0509 17:24:15.834812 120027 net.cpp:406] inception_4a/1x1 <- pool3/3x3_s2_pool3/3x3_s2_0_split_0
I0509 17:24:15.834821 120027 net.cpp:380] inception_4a/1x1 -> inception_4a/1x1
I0509 17:24:15.834833 120027 base_conv_layer.cpp:121] Group is 1channel is480number of output is 192
I0509 17:24:15.835707 120027 net.cpp:122] Setting up inception_4a/1x1
I0509 17:24:15.835714 120027 net.cpp:129] Top shape: 32 192 14 14 (1204224)
I0509 17:24:15.835718 120027 net.cpp:137] Memory required for data: 1144013312
I0509 17:24:15.835731 120027 layer_factory.hpp:77] Creating layer inception_4a/relu_1x1
I0509 17:24:15.835744 120027 net.cpp:84] Creating Layer inception_4a/relu_1x1
I0509 17:24:15.835748 120027 net.cpp:406] inception_4a/relu_1x1 <- inception_4a/1x1
I0509 17:24:15.835757 120027 net.cpp:367] inception_4a/relu_1x1 -> inception_4a/1x1 (in-place)
I0509 17:24:15.835765 120027 net.cpp:122] Setting up inception_4a/relu_1x1
I0509 17:24:15.835772 120027 net.cpp:129] Top shape: 32 192 14 14 (1204224)
I0509 17:24:15.835777 120027 net.cpp:137] Memory required for data: 1148830208
I0509 17:24:15.835782 120027 layer_factory.hpp:77] Creating layer inception_4a/3x3_reduce
I0509 17:24:15.835793 120027 net.cpp:84] Creating Layer inception_4a/3x3_reduce
I0509 17:24:15.835798 120027 net.cpp:406] inception_4a/3x3_reduce <- pool3/3x3_s2_pool3/3x3_s2_0_split_1
I0509 17:24:15.835805 120027 net.cpp:380] inception_4a/3x3_reduce -> inception_4a/3x3_reduce
I0509 17:24:15.835819 120027 base_conv_layer.cpp:121] Group is 1channel is480number of output is 96
I0509 17:24:15.836297 120027 net.cpp:122] Setting up inception_4a/3x3_reduce
I0509 17:24:15.836308 120027 net.cpp:129] Top shape: 32 96 14 14 (602112)
I0509 17:24:15.836313 120027 net.cpp:137] Memory required for data: 1151238656
I0509 17:24:15.836328 120027 layer_factory.hpp:77] Creating layer inception_4a/relu_3x3_reduce
I0509 17:24:15.836335 120027 net.cpp:84] Creating Layer inception_4a/relu_3x3_reduce
I0509 17:24:15.836340 120027 net.cpp:406] inception_4a/relu_3x3_reduce <- inception_4a/3x3_reduce
I0509 17:24:15.836349 120027 net.cpp:367] inception_4a/relu_3x3_reduce -> inception_4a/3x3_reduce (in-place)
I0509 17:24:15.836356 120027 net.cpp:122] Setting up inception_4a/relu_3x3_reduce
I0509 17:24:15.836364 120027 net.cpp:129] Top shape: 32 96 14 14 (602112)
I0509 17:24:15.836367 120027 net.cpp:137] Memory required for data: 1153647104
I0509 17:24:15.836371 120027 layer_factory.hpp:77] Creating layer inception_4a/3x3
I0509 17:24:15.836381 120027 net.cpp:84] Creating Layer inception_4a/3x3
I0509 17:24:15.836387 120027 net.cpp:406] inception_4a/3x3 <- inception_4a/3x3_reduce
I0509 17:24:15.836395 120027 net.cpp:380] inception_4a/3x3 -> inception_4a/3x3
I0509 17:24:15.836405 120027 base_conv_layer.cpp:121] Group is 1channel is96number of output is 208
I0509 17:24:15.838081 120027 net.cpp:122] Setting up inception_4a/3x3
I0509 17:24:15.838090 120027 net.cpp:129] Top shape: 32 208 14 14 (1304576)
I0509 17:24:15.838094 120027 net.cpp:137] Memory required for data: 1158865408
I0509 17:24:15.838101 120027 layer_factory.hpp:77] Creating layer inception_4a/relu_3x3
I0509 17:24:15.838109 120027 net.cpp:84] Creating Layer inception_4a/relu_3x3
I0509 17:24:15.838114 120027 net.cpp:406] inception_4a/relu_3x3 <- inception_4a/3x3
I0509 17:24:15.838120 120027 net.cpp:367] inception_4a/relu_3x3 -> inception_4a/3x3 (in-place)
I0509 17:24:15.838126 120027 net.cpp:122] Setting up inception_4a/relu_3x3
I0509 17:24:15.838132 120027 net.cpp:129] Top shape: 32 208 14 14 (1304576)
I0509 17:24:15.838137 120027 net.cpp:137] Memory required for data: 1164083712
I0509 17:24:15.838141 120027 layer_factory.hpp:77] Creating layer inception_4a/5x5_reduce
I0509 17:24:15.838150 120027 net.cpp:84] Creating Layer inception_4a/5x5_reduce
I0509 17:24:15.838155 120027 net.cpp:406] inception_4a/5x5_reduce <- pool3/3x3_s2_pool3/3x3_s2_0_split_2
I0509 17:24:15.838165 120027 net.cpp:380] inception_4a/5x5_reduce -> inception_4a/5x5_reduce
I0509 17:24:15.838176 120027 base_conv_layer.cpp:121] Group is 1channel is480number of output is 16
I0509 17:24:15.838255 120027 net.cpp:122] Setting up inception_4a/5x5_reduce
I0509 17:24:15.838263 120027 net.cpp:129] Top shape: 32 16 14 14 (100352)
I0509 17:24:15.838268 120027 net.cpp:137] Memory required for data: 1164485120
I0509 17:24:15.838274 120027 layer_factory.hpp:77] Creating layer inception_4a/relu_5x5_reduce
I0509 17:24:15.838279 120027 net.cpp:84] Creating Layer inception_4a/relu_5x5_reduce
I0509 17:24:15.838284 120027 net.cpp:406] inception_4a/relu_5x5_reduce <- inception_4a/5x5_reduce
I0509 17:24:15.838297 120027 net.cpp:367] inception_4a/relu_5x5_reduce -> inception_4a/5x5_reduce (in-place)
I0509 17:24:15.838311 120027 net.cpp:122] Setting up inception_4a/relu_5x5_reduce
I0509 17:24:15.838317 120027 net.cpp:129] Top shape: 32 16 14 14 (100352)
I0509 17:24:15.838321 120027 net.cpp:137] Memory required for data: 1164886528
I0509 17:24:15.838326 120027 layer_factory.hpp:77] Creating layer inception_4a/5x5
I0509 17:24:15.838336 120027 net.cpp:84] Creating Layer inception_4a/5x5
I0509 17:24:15.838341 120027 net.cpp:406] inception_4a/5x5 <- inception_4a/5x5_reduce
I0509 17:24:15.838348 120027 net.cpp:380] inception_4a/5x5 -> inception_4a/5x5
I0509 17:24:15.838359 120027 base_conv_layer.cpp:121] Group is 1channel is16number of output is 48
I0509 17:24:15.838554 120027 net.cpp:122] Setting up inception_4a/5x5
I0509 17:24:15.838562 120027 net.cpp:129] Top shape: 32 48 14 14 (301056)
I0509 17:24:15.838565 120027 net.cpp:137] Memory required for data: 1166090752
I0509 17:24:15.838573 120027 layer_factory.hpp:77] Creating layer inception_4a/relu_5x5
I0509 17:24:15.838579 120027 net.cpp:84] Creating Layer inception_4a/relu_5x5
I0509 17:24:15.838584 120027 net.cpp:406] inception_4a/relu_5x5 <- inception_4a/5x5
I0509 17:24:15.838589 120027 net.cpp:367] inception_4a/relu_5x5 -> inception_4a/5x5 (in-place)
I0509 17:24:15.838599 120027 net.cpp:122] Setting up inception_4a/relu_5x5
I0509 17:24:15.838605 120027 net.cpp:129] Top shape: 32 48 14 14 (301056)
I0509 17:24:15.838609 120027 net.cpp:137] Memory required for data: 1167294976
I0509 17:24:15.838613 120027 layer_factory.hpp:77] Creating layer inception_4a/pool
I0509 17:24:15.838620 120027 net.cpp:84] Creating Layer inception_4a/pool
I0509 17:24:15.838624 120027 net.cpp:406] inception_4a/pool <- pool3/3x3_s2_pool3/3x3_s2_0_split_3
I0509 17:24:15.838631 120027 net.cpp:380] inception_4a/pool -> inception_4a/pool
I0509 17:24:15.838642 120027 net.cpp:122] Setting up inception_4a/pool
I0509 17:24:15.838649 120027 net.cpp:129] Top shape: 32 480 14 14 (3010560)
I0509 17:24:15.838654 120027 net.cpp:137] Memory required for data: 1179337216
I0509 17:24:15.838657 120027 layer_factory.hpp:77] Creating layer inception_4a/pool_proj
I0509 17:24:15.838666 120027 net.cpp:84] Creating Layer inception_4a/pool_proj
I0509 17:24:15.838672 120027 net.cpp:406] inception_4a/pool_proj <- inception_4a/pool
I0509 17:24:15.838680 120027 net.cpp:380] inception_4a/pool_proj -> inception_4a/pool_proj
I0509 17:24:15.838691 120027 base_conv_layer.cpp:121] Group is 1channel is480number of output is 64
I0509 17:24:15.838990 120027 net.cpp:122] Setting up inception_4a/pool_proj
I0509 17:24:15.839000 120027 net.cpp:129] Top shape: 32 64 14 14 (401408)
I0509 17:24:15.839005 120027 net.cpp:137] Memory required for data: 1180942848
I0509 17:24:15.839011 120027 layer_factory.hpp:77] Creating layer inception_4a/relu_pool_proj
I0509 17:24:15.839017 120027 net.cpp:84] Creating Layer inception_4a/relu_pool_proj
I0509 17:24:15.839023 120027 net.cpp:406] inception_4a/relu_pool_proj <- inception_4a/pool_proj
I0509 17:24:15.839030 120027 net.cpp:367] inception_4a/relu_pool_proj -> inception_4a/pool_proj (in-place)
I0509 17:24:15.839035 120027 net.cpp:122] Setting up inception_4a/relu_pool_proj
I0509 17:24:15.839041 120027 net.cpp:129] Top shape: 32 64 14 14 (401408)
I0509 17:24:15.839046 120027 net.cpp:137] Memory required for data: 1182548480
I0509 17:24:15.839051 120027 layer_factory.hpp:77] Creating layer inception_4a/output
I0509 17:24:15.839056 120027 net.cpp:84] Creating Layer inception_4a/output
I0509 17:24:15.839061 120027 net.cpp:406] inception_4a/output <- inception_4a/1x1
I0509 17:24:15.839067 120027 net.cpp:406] inception_4a/output <- inception_4a/3x3
I0509 17:24:15.839072 120027 net.cpp:406] inception_4a/output <- inception_4a/5x5
I0509 17:24:15.839077 120027 net.cpp:406] inception_4a/output <- inception_4a/pool_proj
I0509 17:24:15.839085 120027 net.cpp:380] inception_4a/output -> inception_4a/output
I0509 17:24:15.839095 120027 net.cpp:122] Setting up inception_4a/output
I0509 17:24:15.839105 120027 net.cpp:129] Top shape: 32 512 14 14 (3211264)
I0509 17:24:15.839117 120027 net.cpp:137] Memory required for data: 1195393536
I0509 17:24:15.839120 120027 layer_factory.hpp:77] Creating layer inception_4a/output_inception_4a/output_0_split
I0509 17:24:15.839130 120027 net.cpp:84] Creating Layer inception_4a/output_inception_4a/output_0_split
I0509 17:24:15.839134 120027 net.cpp:406] inception_4a/output_inception_4a/output_0_split <- inception_4a/output
I0509 17:24:15.839143 120027 net.cpp:380] inception_4a/output_inception_4a/output_0_split -> inception_4a/output_inception_4a/output_0_split_0
I0509 17:24:15.839150 120027 net.cpp:380] inception_4a/output_inception_4a/output_0_split -> inception_4a/output_inception_4a/output_0_split_1
I0509 17:24:15.839161 120027 net.cpp:380] inception_4a/output_inception_4a/output_0_split -> inception_4a/output_inception_4a/output_0_split_2
I0509 17:24:15.839169 120027 net.cpp:380] inception_4a/output_inception_4a/output_0_split -> inception_4a/output_inception_4a/output_0_split_3
I0509 17:24:15.839177 120027 net.cpp:380] inception_4a/output_inception_4a/output_0_split -> inception_4a/output_inception_4a/output_0_split_4
I0509 17:24:15.839188 120027 net.cpp:122] Setting up inception_4a/output_inception_4a/output_0_split
I0509 17:24:15.839195 120027 net.cpp:129] Top shape: 32 512 14 14 (3211264)
I0509 17:24:15.839201 120027 net.cpp:129] Top shape: 32 512 14 14 (3211264)
I0509 17:24:15.839206 120027 net.cpp:129] Top shape: 32 512 14 14 (3211264)
I0509 17:24:15.839212 120027 net.cpp:129] Top shape: 32 512 14 14 (3211264)
I0509 17:24:15.839218 120027 net.cpp:129] Top shape: 32 512 14 14 (3211264)
I0509 17:24:15.839222 120027 net.cpp:137] Memory required for data: 1259618816
I0509 17:24:15.839226 120027 layer_factory.hpp:77] Creating layer loss1/ave_pool
I0509 17:24:15.839232 120027 net.cpp:84] Creating Layer loss1/ave_pool
I0509 17:24:15.839237 120027 net.cpp:406] loss1/ave_pool <- inception_4a/output_inception_4a/output_0_split_0
I0509 17:24:15.839246 120027 net.cpp:380] loss1/ave_pool -> loss1/ave_pool
I0509 17:24:15.839253 120027 net.cpp:122] Setting up loss1/ave_pool
I0509 17:24:15.839259 120027 net.cpp:129] Top shape: 32 512 4 4 (262144)
I0509 17:24:15.839264 120027 net.cpp:137] Memory required for data: 1260667392
I0509 17:24:15.839268 120027 layer_factory.hpp:77] Creating layer loss1/conv
I0509 17:24:15.839278 120027 net.cpp:84] Creating Layer loss1/conv
I0509 17:24:15.839282 120027 net.cpp:406] loss1/conv <- loss1/ave_pool
I0509 17:24:15.839292 120027 net.cpp:380] loss1/conv -> loss1/conv
I0509 17:24:15.839303 120027 base_conv_layer.cpp:121] Group is 1channel is512number of output is 128
I0509 17:24:15.839926 120027 net.cpp:122] Setting up loss1/conv
I0509 17:24:15.839932 120027 net.cpp:129] Top shape: 32 128 4 4 (65536)
I0509 17:24:15.839937 120027 net.cpp:137] Memory required for data: 1260929536
I0509 17:24:15.839944 120027 layer_factory.hpp:77] Creating layer loss1/relu_conv
I0509 17:24:15.839951 120027 net.cpp:84] Creating Layer loss1/relu_conv
I0509 17:24:15.839956 120027 net.cpp:406] loss1/relu_conv <- loss1/conv
I0509 17:24:15.839963 120027 net.cpp:367] loss1/relu_conv -> loss1/conv (in-place)
I0509 17:24:15.839970 120027 net.cpp:122] Setting up loss1/relu_conv
I0509 17:24:15.839977 120027 net.cpp:129] Top shape: 32 128 4 4 (65536)
I0509 17:24:15.839980 120027 net.cpp:137] Memory required for data: 1261191680
I0509 17:24:15.839984 120027 layer_factory.hpp:77] Creating layer loss1/fc
I0509 17:24:15.839993 120027 net.cpp:84] Creating Layer loss1/fc
I0509 17:24:15.839996 120027 net.cpp:406] loss1/fc <- loss1/conv
I0509 17:24:15.840004 120027 net.cpp:380] loss1/fc -> loss1/fc
I0509 17:24:15.857030 120027 net.cpp:122] Setting up loss1/fc
I0509 17:24:15.857043 120027 net.cpp:129] Top shape: 32 1024 (32768)
I0509 17:24:15.857046 120027 net.cpp:137] Memory required for data: 1261322752
I0509 17:24:15.857053 120027 layer_factory.hpp:77] Creating layer loss1/relu_fc
I0509 17:24:15.857062 120027 net.cpp:84] Creating Layer loss1/relu_fc
I0509 17:24:15.857067 120027 net.cpp:406] loss1/relu_fc <- loss1/fc
I0509 17:24:15.857086 120027 net.cpp:367] loss1/relu_fc -> loss1/fc (in-place)
I0509 17:24:15.857092 120027 net.cpp:122] Setting up loss1/relu_fc
I0509 17:24:15.857100 120027 net.cpp:129] Top shape: 32 1024 (32768)
I0509 17:24:15.857102 120027 net.cpp:137] Memory required for data: 1261453824
I0509 17:24:15.857106 120027 layer_factory.hpp:77] Creating layer loss1/drop_fc
I0509 17:24:15.857127 120027 net.cpp:84] Creating Layer loss1/drop_fc
I0509 17:24:15.857132 120027 net.cpp:406] loss1/drop_fc <- loss1/fc
I0509 17:24:15.857137 120027 net.cpp:367] loss1/drop_fc -> loss1/fc (in-place)
I0509 17:24:15.857147 120027 net.cpp:122] Setting up loss1/drop_fc
I0509 17:24:15.857152 120027 net.cpp:129] Top shape: 32 1024 (32768)
I0509 17:24:15.857156 120027 net.cpp:137] Memory required for data: 1261584896
I0509 17:24:15.857161 120027 layer_factory.hpp:77] Creating layer loss1/classifier
I0509 17:24:15.857168 120027 net.cpp:84] Creating Layer loss1/classifier
I0509 17:24:15.857172 120027 net.cpp:406] loss1/classifier <- loss1/fc
I0509 17:24:15.857180 120027 net.cpp:380] loss1/classifier -> loss1/classifier
#           time             counts unit events
     0.100125782             69,020      r02c0:u                  
I0509 17:24:15.865227 120027 net.cpp:122] Setting up loss1/classifier
I0509 17:24:15.865236 120027 net.cpp:129] Top shape: 32 1000 (32000)
I0509 17:24:15.865241 120027 net.cpp:137] Memory required for data: 1261712896
I0509 17:24:15.865247 120027 layer_factory.hpp:77] Creating layer loss1/loss
I0509 17:24:15.865255 120027 net.cpp:84] Creating Layer loss1/loss
I0509 17:24:15.865259 120027 net.cpp:406] loss1/loss <- loss1/classifier
I0509 17:24:15.865265 120027 net.cpp:406] loss1/loss <- label_data_1_split_0
I0509 17:24:15.865272 120027 net.cpp:380] loss1/loss -> loss1/loss1
I0509 17:24:15.865283 120027 layer_factory.hpp:77] Creating layer loss1/loss
I0509 17:24:15.865366 120027 net.cpp:122] Setting up loss1/loss
I0509 17:24:15.865372 120027 net.cpp:129] Top shape: (1)
I0509 17:24:15.865376 120027 net.cpp:132]     with loss weight 0.3
I0509 17:24:15.865399 120027 net.cpp:137] Memory required for data: 1261712900
I0509 17:24:15.865403 120027 layer_factory.hpp:77] Creating layer inception_4b/1x1
I0509 17:24:15.865416 120027 net.cpp:84] Creating Layer inception_4b/1x1
I0509 17:24:15.865422 120027 net.cpp:406] inception_4b/1x1 <- inception_4a/output_inception_4a/output_0_split_1
I0509 17:24:15.865430 120027 net.cpp:380] inception_4b/1x1 -> inception_4b/1x1
I0509 17:24:15.865442 120027 base_conv_layer.cpp:121] Group is 1channel is512number of output is 160
I0509 17:24:15.866147 120027 net.cpp:122] Setting up inception_4b/1x1
I0509 17:24:15.866154 120027 net.cpp:129] Top shape: 32 160 14 14 (1003520)
I0509 17:24:15.866158 120027 net.cpp:137] Memory required for data: 1265726980
I0509 17:24:15.866165 120027 layer_factory.hpp:77] Creating layer inception_4b/relu_1x1
I0509 17:24:15.866171 120027 net.cpp:84] Creating Layer inception_4b/relu_1x1
I0509 17:24:15.866176 120027 net.cpp:406] inception_4b/relu_1x1 <- inception_4b/1x1
I0509 17:24:15.866184 120027 net.cpp:367] inception_4b/relu_1x1 -> inception_4b/1x1 (in-place)
I0509 17:24:15.866190 120027 net.cpp:122] Setting up inception_4b/relu_1x1
I0509 17:24:15.866196 120027 net.cpp:129] Top shape: 32 160 14 14 (1003520)
I0509 17:24:15.866201 120027 net.cpp:137] Memory required for data: 1269741060
I0509 17:24:15.866204 120027 layer_factory.hpp:77] Creating layer inception_4b/3x3_reduce
I0509 17:24:15.866214 120027 net.cpp:84] Creating Layer inception_4b/3x3_reduce
I0509 17:24:15.866219 120027 net.cpp:406] inception_4b/3x3_reduce <- inception_4a/output_inception_4a/output_0_split_2
I0509 17:24:15.866227 120027 net.cpp:380] inception_4b/3x3_reduce -> inception_4b/3x3_reduce
I0509 17:24:15.866236 120027 base_conv_layer.cpp:121] Group is 1channel is512number of output is 112
I0509 17:24:15.866732 120027 net.cpp:122] Setting up inception_4b/3x3_reduce
I0509 17:24:15.866739 120027 net.cpp:129] Top shape: 32 112 14 14 (702464)
I0509 17:24:15.866747 120027 net.cpp:137] Memory required for data: 1272550916
I0509 17:24:15.866755 120027 layer_factory.hpp:77] Creating layer inception_4b/relu_3x3_reduce
I0509 17:24:15.866770 120027 net.cpp:84] Creating Layer inception_4b/relu_3x3_reduce
I0509 17:24:15.866775 120027 net.cpp:406] inception_4b/relu_3x3_reduce <- inception_4b/3x3_reduce
I0509 17:24:15.866781 120027 net.cpp:367] inception_4b/relu_3x3_reduce -> inception_4b/3x3_reduce (in-place)
I0509 17:24:15.866787 120027 net.cpp:122] Setting up inception_4b/relu_3x3_reduce
I0509 17:24:15.866792 120027 net.cpp:129] Top shape: 32 112 14 14 (702464)
I0509 17:24:15.866796 120027 net.cpp:137] Memory required for data: 1275360772
I0509 17:24:15.866801 120027 layer_factory.hpp:77] Creating layer inception_4b/3x3
I0509 17:24:15.866816 120027 net.cpp:84] Creating Layer inception_4b/3x3
I0509 17:24:15.866819 120027 net.cpp:406] inception_4b/3x3 <- inception_4b/3x3_reduce
I0509 17:24:15.866827 120027 net.cpp:380] inception_4b/3x3 -> inception_4b/3x3
I0509 17:24:15.866838 120027 base_conv_layer.cpp:121] Group is 1channel is112number of output is 224
I0509 17:24:15.868741 120027 net.cpp:122] Setting up inception_4b/3x3
I0509 17:24:15.868748 120027 net.cpp:129] Top shape: 32 224 14 14 (1404928)
I0509 17:24:15.868752 120027 net.cpp:137] Memory required for data: 1280980484
I0509 17:24:15.868759 120027 layer_factory.hpp:77] Creating layer inception_4b/relu_3x3
I0509 17:24:15.868765 120027 net.cpp:84] Creating Layer inception_4b/relu_3x3
I0509 17:24:15.868770 120027 net.cpp:406] inception_4b/relu_3x3 <- inception_4b/3x3
I0509 17:24:15.868775 120027 net.cpp:367] inception_4b/relu_3x3 -> inception_4b/3x3 (in-place)
I0509 17:24:15.868782 120027 net.cpp:122] Setting up inception_4b/relu_3x3
I0509 17:24:15.868788 120027 net.cpp:129] Top shape: 32 224 14 14 (1404928)
I0509 17:24:15.868791 120027 net.cpp:137] Memory required for data: 1286600196
I0509 17:24:15.868795 120027 layer_factory.hpp:77] Creating layer inception_4b/5x5_reduce
I0509 17:24:15.868805 120027 net.cpp:84] Creating Layer inception_4b/5x5_reduce
I0509 17:24:15.868810 120027 net.cpp:406] inception_4b/5x5_reduce <- inception_4a/output_inception_4a/output_0_split_3
I0509 17:24:15.868816 120027 net.cpp:380] inception_4b/5x5_reduce -> inception_4b/5x5_reduce
I0509 17:24:15.868826 120027 base_conv_layer.cpp:121] Group is 1channel is512number of output is 24
I0509 17:24:15.868930 120027 net.cpp:122] Setting up inception_4b/5x5_reduce
I0509 17:24:15.868937 120027 net.cpp:129] Top shape: 32 24 14 14 (150528)
I0509 17:24:15.868940 120027 net.cpp:137] Memory required for data: 1287202308
I0509 17:24:15.868947 120027 layer_factory.hpp:77] Creating layer inception_4b/relu_5x5_reduce
I0509 17:24:15.868954 120027 net.cpp:84] Creating Layer inception_4b/relu_5x5_reduce
I0509 17:24:15.868958 120027 net.cpp:406] inception_4b/relu_5x5_reduce <- inception_4b/5x5_reduce
I0509 17:24:15.868963 120027 net.cpp:367] inception_4b/relu_5x5_reduce -> inception_4b/5x5_reduce (in-place)
I0509 17:24:15.868969 120027 net.cpp:122] Setting up inception_4b/relu_5x5_reduce
I0509 17:24:15.868975 120027 net.cpp:129] Top shape: 32 24 14 14 (150528)
I0509 17:24:15.868979 120027 net.cpp:137] Memory required for data: 1287804420
I0509 17:24:15.868983 120027 layer_factory.hpp:77] Creating layer inception_4b/5x5
I0509 17:24:15.868993 120027 net.cpp:84] Creating Layer inception_4b/5x5
I0509 17:24:15.868998 120027 net.cpp:406] inception_4b/5x5 <- inception_4b/5x5_reduce
I0509 17:24:15.869005 120027 net.cpp:380] inception_4b/5x5 -> inception_4b/5x5
I0509 17:24:15.869014 120027 base_conv_layer.cpp:121] Group is 1channel is24number of output is 64
I0509 17:24:15.869334 120027 net.cpp:122] Setting up inception_4b/5x5
I0509 17:24:15.869341 120027 net.cpp:129] Top shape: 32 64 14 14 (401408)
I0509 17:24:15.869345 120027 net.cpp:137] Memory required for data: 1289410052
I0509 17:24:15.869351 120027 layer_factory.hpp:77] Creating layer inception_4b/relu_5x5
I0509 17:24:15.869356 120027 net.cpp:84] Creating Layer inception_4b/relu_5x5
I0509 17:24:15.869361 120027 net.cpp:406] inception_4b/relu_5x5 <- inception_4b/5x5
I0509 17:24:15.869372 120027 net.cpp:367] inception_4b/relu_5x5 -> inception_4b/5x5 (in-place)
I0509 17:24:15.869379 120027 net.cpp:122] Setting up inception_4b/relu_5x5
I0509 17:24:15.869390 120027 net.cpp:129] Top shape: 32 64 14 14 (401408)
I0509 17:24:15.869395 120027 net.cpp:137] Memory required for data: 1291015684
I0509 17:24:15.869398 120027 layer_factory.hpp:77] Creating layer inception_4b/pool
I0509 17:24:15.869405 120027 net.cpp:84] Creating Layer inception_4b/pool
I0509 17:24:15.869410 120027 net.cpp:406] inception_4b/pool <- inception_4a/output_inception_4a/output_0_split_4
I0509 17:24:15.869416 120027 net.cpp:380] inception_4b/pool -> inception_4b/pool
I0509 17:24:15.869441 120027 net.cpp:122] Setting up inception_4b/pool
I0509 17:24:15.869446 120027 net.cpp:129] Top shape: 32 512 14 14 (3211264)
I0509 17:24:15.869449 120027 net.cpp:137] Memory required for data: 1303860740
I0509 17:24:15.869453 120027 layer_factory.hpp:77] Creating layer inception_4b/pool_proj
I0509 17:24:15.869462 120027 net.cpp:84] Creating Layer inception_4b/pool_proj
I0509 17:24:15.869465 120027 net.cpp:406] inception_4b/pool_proj <- inception_4b/pool
I0509 17:24:15.869472 120027 net.cpp:380] inception_4b/pool_proj -> inception_4b/pool_proj
I0509 17:24:15.869482 120027 base_conv_layer.cpp:121] Group is 1channel is512number of output is 64
I0509 17:24:15.869760 120027 net.cpp:122] Setting up inception_4b/pool_proj
I0509 17:24:15.869766 120027 net.cpp:129] Top shape: 32 64 14 14 (401408)
I0509 17:24:15.869771 120027 net.cpp:137] Memory required for data: 1305466372
I0509 17:24:15.869777 120027 layer_factory.hpp:77] Creating layer inception_4b/relu_pool_proj
I0509 17:24:15.869782 120027 net.cpp:84] Creating Layer inception_4b/relu_pool_proj
I0509 17:24:15.869786 120027 net.cpp:406] inception_4b/relu_pool_proj <- inception_4b/pool_proj
I0509 17:24:15.869797 120027 net.cpp:367] inception_4b/relu_pool_proj -> inception_4b/pool_proj (in-place)
I0509 17:24:15.869804 120027 net.cpp:122] Setting up inception_4b/relu_pool_proj
I0509 17:24:15.869809 120027 net.cpp:129] Top shape: 32 64 14 14 (401408)
I0509 17:24:15.869812 120027 net.cpp:137] Memory required for data: 1307072004
I0509 17:24:15.869815 120027 layer_factory.hpp:77] Creating layer inception_4b/output
I0509 17:24:15.869822 120027 net.cpp:84] Creating Layer inception_4b/output
I0509 17:24:15.869827 120027 net.cpp:406] inception_4b/output <- inception_4b/1x1
I0509 17:24:15.869832 120027 net.cpp:406] inception_4b/output <- inception_4b/3x3
I0509 17:24:15.869835 120027 net.cpp:406] inception_4b/output <- inception_4b/5x5
I0509 17:24:15.869840 120027 net.cpp:406] inception_4b/output <- inception_4b/pool_proj
I0509 17:24:15.869848 120027 net.cpp:380] inception_4b/output -> inception_4b/output
I0509 17:24:15.869855 120027 net.cpp:122] Setting up inception_4b/output
I0509 17:24:15.869860 120027 net.cpp:129] Top shape: 32 512 14 14 (3211264)
I0509 17:24:15.869865 120027 net.cpp:137] Memory required for data: 1319917060
I0509 17:24:15.869868 120027 layer_factory.hpp:77] Creating layer inception_4b/output_inception_4b/output_0_split
I0509 17:24:15.869874 120027 net.cpp:84] Creating Layer inception_4b/output_inception_4b/output_0_split
I0509 17:24:15.869879 120027 net.cpp:406] inception_4b/output_inception_4b/output_0_split <- inception_4b/output
I0509 17:24:15.869887 120027 net.cpp:380] inception_4b/output_inception_4b/output_0_split -> inception_4b/output_inception_4b/output_0_split_0
I0509 17:24:15.869894 120027 net.cpp:380] inception_4b/output_inception_4b/output_0_split -> inception_4b/output_inception_4b/output_0_split_1
I0509 17:24:15.869901 120027 net.cpp:380] inception_4b/output_inception_4b/output_0_split -> inception_4b/output_inception_4b/output_0_split_2
I0509 17:24:15.869910 120027 net.cpp:380] inception_4b/output_inception_4b/output_0_split -> inception_4b/output_inception_4b/output_0_split_3
I0509 17:24:15.869918 120027 net.cpp:122] Setting up inception_4b/output_inception_4b/output_0_split
I0509 17:24:15.869923 120027 net.cpp:129] Top shape: 32 512 14 14 (3211264)
I0509 17:24:15.869931 120027 net.cpp:129] Top shape: 32 512 14 14 (3211264)
I0509 17:24:15.869936 120027 net.cpp:129] Top shape: 32 512 14 14 (3211264)
I0509 17:24:15.869949 120027 net.cpp:129] Top shape: 32 512 14 14 (3211264)
I0509 17:24:15.869953 120027 net.cpp:137] Memory required for data: 1371297284
I0509 17:24:15.869956 120027 layer_factory.hpp:77] Creating layer inception_4c/1x1
I0509 17:24:15.869966 120027 net.cpp:84] Creating Layer inception_4c/1x1
I0509 17:24:15.869971 120027 net.cpp:406] inception_4c/1x1 <- inception_4b/output_inception_4b/output_0_split_0
I0509 17:24:15.869978 120027 net.cpp:380] inception_4c/1x1 -> inception_4c/1x1
I0509 17:24:15.869987 120027 base_conv_layer.cpp:121] Group is 1channel is512number of output is 128
I0509 17:24:15.870527 120027 net.cpp:122] Setting up inception_4c/1x1
I0509 17:24:15.870533 120027 net.cpp:129] Top shape: 32 128 14 14 (802816)
I0509 17:24:15.870537 120027 net.cpp:137] Memory required for data: 1374508548
I0509 17:24:15.870543 120027 layer_factory.hpp:77] Creating layer inception_4c/relu_1x1
I0509 17:24:15.870549 120027 net.cpp:84] Creating Layer inception_4c/relu_1x1
I0509 17:24:15.870553 120027 net.cpp:406] inception_4c/relu_1x1 <- inception_4c/1x1
I0509 17:24:15.870560 120027 net.cpp:367] inception_4c/relu_1x1 -> inception_4c/1x1 (in-place)
I0509 17:24:15.870566 120027 net.cpp:122] Setting up inception_4c/relu_1x1
I0509 17:24:15.870571 120027 net.cpp:129] Top shape: 32 128 14 14 (802816)
I0509 17:24:15.870575 120027 net.cpp:137] Memory required for data: 1377719812
I0509 17:24:15.870579 120027 layer_factory.hpp:77] Creating layer inception_4c/3x3_reduce
I0509 17:24:15.870587 120027 net.cpp:84] Creating Layer inception_4c/3x3_reduce
I0509 17:24:15.870591 120027 net.cpp:406] inception_4c/3x3_reduce <- inception_4b/output_inception_4b/output_0_split_1
I0509 17:24:15.870599 120027 net.cpp:380] inception_4c/3x3_reduce -> inception_4c/3x3_reduce
I0509 17:24:15.870609 120027 base_conv_layer.cpp:121] Group is 1channel is512number of output is 128
I0509 17:24:15.871145 120027 net.cpp:122] Setting up inception_4c/3x3_reduce
I0509 17:24:15.871151 120027 net.cpp:129] Top shape: 32 128 14 14 (802816)
I0509 17:24:15.871155 120027 net.cpp:137] Memory required for data: 1380931076
I0509 17:24:15.871161 120027 layer_factory.hpp:77] Creating layer inception_4c/relu_3x3_reduce
I0509 17:24:15.871168 120027 net.cpp:84] Creating Layer inception_4c/relu_3x3_reduce
I0509 17:24:15.871172 120027 net.cpp:406] inception_4c/relu_3x3_reduce <- inception_4c/3x3_reduce
I0509 17:24:15.871178 120027 net.cpp:367] inception_4c/relu_3x3_reduce -> inception_4c/3x3_reduce (in-place)
I0509 17:24:15.871184 120027 net.cpp:122] Setting up inception_4c/relu_3x3_reduce
I0509 17:24:15.871189 120027 net.cpp:129] Top shape: 32 128 14 14 (802816)
I0509 17:24:15.871192 120027 net.cpp:137] Memory required for data: 1384142340
I0509 17:24:15.871196 120027 layer_factory.hpp:77] Creating layer inception_4c/3x3
I0509 17:24:15.871204 120027 net.cpp:84] Creating Layer inception_4c/3x3
I0509 17:24:15.871207 120027 net.cpp:406] inception_4c/3x3 <- inception_4c/3x3_reduce
I0509 17:24:15.871214 120027 net.cpp:380] inception_4c/3x3 -> inception_4c/3x3
I0509 17:24:15.871224 120027 base_conv_layer.cpp:121] Group is 1channel is128number of output is 256
I0509 17:24:15.873581 120027 net.cpp:122] Setting up inception_4c/3x3
I0509 17:24:15.873589 120027 net.cpp:129] Top shape: 32 256 14 14 (1605632)
I0509 17:24:15.873592 120027 net.cpp:137] Memory required for data: 1390564868
I0509 17:24:15.873608 120027 layer_factory.hpp:77] Creating layer inception_4c/relu_3x3
I0509 17:24:15.873615 120027 net.cpp:84] Creating Layer inception_4c/relu_3x3
I0509 17:24:15.873618 120027 net.cpp:406] inception_4c/relu_3x3 <- inception_4c/3x3
I0509 17:24:15.873625 120027 net.cpp:367] inception_4c/relu_3x3 -> inception_4c/3x3 (in-place)
I0509 17:24:15.873632 120027 net.cpp:122] Setting up inception_4c/relu_3x3
I0509 17:24:15.873637 120027 net.cpp:129] Top shape: 32 256 14 14 (1605632)
I0509 17:24:15.873641 120027 net.cpp:137] Memory required for data: 1396987396
I0509 17:24:15.873647 120027 layer_factory.hpp:77] Creating layer inception_4c/5x5_reduce
I0509 17:24:15.873656 120027 net.cpp:84] Creating Layer inception_4c/5x5_reduce
I0509 17:24:15.873667 120027 net.cpp:406] inception_4c/5x5_reduce <- inception_4b/output_inception_4b/output_0_split_2
I0509 17:24:15.873673 120027 net.cpp:380] inception_4c/5x5_reduce -> inception_4c/5x5_reduce
I0509 17:24:15.873682 120027 base_conv_layer.cpp:121] Group is 1channel is512number of output is 24
I0509 17:24:15.873792 120027 net.cpp:122] Setting up inception_4c/5x5_reduce
I0509 17:24:15.873798 120027 net.cpp:129] Top shape: 32 24 14 14 (150528)
I0509 17:24:15.873801 120027 net.cpp:137] Memory required for data: 1397589508
I0509 17:24:15.873807 120027 layer_factory.hpp:77] Creating layer inception_4c/relu_5x5_reduce
I0509 17:24:15.873813 120027 net.cpp:84] Creating Layer inception_4c/relu_5x5_reduce
I0509 17:24:15.873817 120027 net.cpp:406] inception_4c/relu_5x5_reduce <- inception_4c/5x5_reduce
I0509 17:24:15.873826 120027 net.cpp:367] inception_4c/relu_5x5_reduce -> inception_4c/5x5_reduce (in-place)
I0509 17:24:15.873832 120027 net.cpp:122] Setting up inception_4c/relu_5x5_reduce
I0509 17:24:15.873838 120027 net.cpp:129] Top shape: 32 24 14 14 (150528)
I0509 17:24:15.873842 120027 net.cpp:137] Memory required for data: 1398191620
I0509 17:24:15.873845 120027 layer_factory.hpp:77] Creating layer inception_4c/5x5
I0509 17:24:15.873854 120027 net.cpp:84] Creating Layer inception_4c/5x5
I0509 17:24:15.873859 120027 net.cpp:406] inception_4c/5x5 <- inception_4c/5x5_reduce
I0509 17:24:15.873865 120027 net.cpp:380] inception_4c/5x5 -> inception_4c/5x5
I0509 17:24:15.873875 120027 base_conv_layer.cpp:121] Group is 1channel is24number of output is 64
I0509 17:24:15.874195 120027 net.cpp:122] Setting up inception_4c/5x5
I0509 17:24:15.874204 120027 net.cpp:129] Top shape: 32 64 14 14 (401408)
I0509 17:24:15.874208 120027 net.cpp:137] Memory required for data: 1399797252
I0509 17:24:15.874213 120027 layer_factory.hpp:77] Creating layer inception_4c/relu_5x5
I0509 17:24:15.874219 120027 net.cpp:84] Creating Layer inception_4c/relu_5x5
I0509 17:24:15.874224 120027 net.cpp:406] inception_4c/relu_5x5 <- inception_4c/5x5
I0509 17:24:15.874228 120027 net.cpp:367] inception_4c/relu_5x5 -> inception_4c/5x5 (in-place)
I0509 17:24:15.874234 120027 net.cpp:122] Setting up inception_4c/relu_5x5
I0509 17:24:15.874239 120027 net.cpp:129] Top shape: 32 64 14 14 (401408)
I0509 17:24:15.874243 120027 net.cpp:137] Memory required for data: 1401402884
I0509 17:24:15.874248 120027 layer_factory.hpp:77] Creating layer inception_4c/pool
I0509 17:24:15.874253 120027 net.cpp:84] Creating Layer inception_4c/pool
I0509 17:24:15.874256 120027 net.cpp:406] inception_4c/pool <- inception_4b/output_inception_4b/output_0_split_3
I0509 17:24:15.874264 120027 net.cpp:380] inception_4c/pool -> inception_4c/pool
I0509 17:24:15.874272 120027 net.cpp:122] Setting up inception_4c/pool
I0509 17:24:15.874279 120027 net.cpp:129] Top shape: 32 512 14 14 (3211264)
I0509 17:24:15.874282 120027 net.cpp:137] Memory required for data: 1414247940
I0509 17:24:15.874286 120027 layer_factory.hpp:77] Creating layer inception_4c/pool_proj
I0509 17:24:15.874294 120027 net.cpp:84] Creating Layer inception_4c/pool_proj
I0509 17:24:15.874299 120027 net.cpp:406] inception_4c/pool_proj <- inception_4c/pool
I0509 17:24:15.874306 120027 net.cpp:380] inception_4c/pool_proj -> inception_4c/pool_proj
I0509 17:24:15.874316 120027 base_conv_layer.cpp:121] Group is 1channel is512number of output is 64
I0509 17:24:15.874594 120027 net.cpp:122] Setting up inception_4c/pool_proj
I0509 17:24:15.874601 120027 net.cpp:129] Top shape: 32 64 14 14 (401408)
I0509 17:24:15.874604 120027 net.cpp:137] Memory required for data: 1415853572
I0509 17:24:15.874611 120027 layer_factory.hpp:77] Creating layer inception_4c/relu_pool_proj
I0509 17:24:15.874617 120027 net.cpp:84] Creating Layer inception_4c/relu_pool_proj
I0509 17:24:15.874622 120027 net.cpp:406] inception_4c/relu_pool_proj <- inception_4c/pool_proj
I0509 17:24:15.874631 120027 net.cpp:367] inception_4c/relu_pool_proj -> inception_4c/pool_proj (in-place)
I0509 17:24:15.874639 120027 net.cpp:122] Setting up inception_4c/relu_pool_proj
I0509 17:24:15.874649 120027 net.cpp:129] Top shape: 32 64 14 14 (401408)
I0509 17:24:15.874652 120027 net.cpp:137] Memory required for data: 1417459204
I0509 17:24:15.874656 120027 layer_factory.hpp:77] Creating layer inception_4c/output
I0509 17:24:15.874662 120027 net.cpp:84] Creating Layer inception_4c/output
I0509 17:24:15.874666 120027 net.cpp:406] inception_4c/output <- inception_4c/1x1
I0509 17:24:15.874671 120027 net.cpp:406] inception_4c/output <- inception_4c/3x3
I0509 17:24:15.874675 120027 net.cpp:406] inception_4c/output <- inception_4c/5x5
I0509 17:24:15.874680 120027 net.cpp:406] inception_4c/output <- inception_4c/pool_proj
I0509 17:24:15.874687 120027 net.cpp:380] inception_4c/output -> inception_4c/output
I0509 17:24:15.874696 120027 net.cpp:122] Setting up inception_4c/output
I0509 17:24:15.874701 120027 net.cpp:129] Top shape: 32 512 14 14 (3211264)
I0509 17:24:15.874704 120027 net.cpp:137] Memory required for data: 1430304260
I0509 17:24:15.874708 120027 layer_factory.hpp:77] Creating layer inception_4c/output_inception_4c/output_0_split
I0509 17:24:15.874714 120027 net.cpp:84] Creating Layer inception_4c/output_inception_4c/output_0_split
I0509 17:24:15.874718 120027 net.cpp:406] inception_4c/output_inception_4c/output_0_split <- inception_4c/output
I0509 17:24:15.874727 120027 net.cpp:380] inception_4c/output_inception_4c/output_0_split -> inception_4c/output_inception_4c/output_0_split_0
I0509 17:24:15.874733 120027 net.cpp:380] inception_4c/output_inception_4c/output_0_split -> inception_4c/output_inception_4c/output_0_split_1
I0509 17:24:15.874740 120027 net.cpp:380] inception_4c/output_inception_4c/output_0_split -> inception_4c/output_inception_4c/output_0_split_2
I0509 17:24:15.874748 120027 net.cpp:380] inception_4c/output_inception_4c/output_0_split -> inception_4c/output_inception_4c/output_0_split_3
I0509 17:24:15.874758 120027 net.cpp:122] Setting up inception_4c/output_inception_4c/output_0_split
I0509 17:24:15.874763 120027 net.cpp:129] Top shape: 32 512 14 14 (3211264)
I0509 17:24:15.874768 120027 net.cpp:129] Top shape: 32 512 14 14 (3211264)
I0509 17:24:15.874773 120027 net.cpp:129] Top shape: 32 512 14 14 (3211264)
I0509 17:24:15.874778 120027 net.cpp:129] Top shape: 32 512 14 14 (3211264)
I0509 17:24:15.874780 120027 net.cpp:137] Memory required for data: 1481684484
I0509 17:24:15.874784 120027 layer_factory.hpp:77] Creating layer inception_4d/1x1
I0509 17:24:15.874794 120027 net.cpp:84] Creating Layer inception_4d/1x1
I0509 17:24:15.874799 120027 net.cpp:406] inception_4d/1x1 <- inception_4c/output_inception_4c/output_0_split_0
I0509 17:24:15.874805 120027 net.cpp:380] inception_4d/1x1 -> inception_4d/1x1
I0509 17:24:15.874814 120027 base_conv_layer.cpp:121] Group is 1channel is512number of output is 112
I0509 17:24:15.875290 120027 net.cpp:122] Setting up inception_4d/1x1
I0509 17:24:15.875298 120027 net.cpp:129] Top shape: 32 112 14 14 (702464)
I0509 17:24:15.875301 120027 net.cpp:137] Memory required for data: 1484494340
I0509 17:24:15.875308 120027 layer_factory.hpp:77] Creating layer inception_4d/relu_1x1
I0509 17:24:15.875313 120027 net.cpp:84] Creating Layer inception_4d/relu_1x1
I0509 17:24:15.875318 120027 net.cpp:406] inception_4d/relu_1x1 <- inception_4d/1x1
I0509 17:24:15.875324 120027 net.cpp:367] inception_4d/relu_1x1 -> inception_4d/1x1 (in-place)
I0509 17:24:15.875330 120027 net.cpp:122] Setting up inception_4d/relu_1x1
I0509 17:24:15.875335 120027 net.cpp:129] Top shape: 32 112 14 14 (702464)
I0509 17:24:15.875339 120027 net.cpp:137] Memory required for data: 1487304196
I0509 17:24:15.875344 120027 layer_factory.hpp:77] Creating layer inception_4d/3x3_reduce
I0509 17:24:15.875352 120027 net.cpp:84] Creating Layer inception_4d/3x3_reduce
I0509 17:24:15.875356 120027 net.cpp:406] inception_4d/3x3_reduce <- inception_4c/output_inception_4c/output_0_split_1
I0509 17:24:15.875366 120027 net.cpp:380] inception_4d/3x3_reduce -> inception_4d/3x3_reduce
I0509 17:24:15.875377 120027 base_conv_layer.cpp:121] Group is 1channel is512number of output is 144
I0509 17:24:15.875986 120027 net.cpp:122] Setting up inception_4d/3x3_reduce
I0509 17:24:15.875993 120027 net.cpp:129] Top shape: 32 144 14 14 (903168)
I0509 17:24:15.875998 120027 net.cpp:137] Memory required for data: 1490916868
I0509 17:24:15.876004 120027 layer_factory.hpp:77] Creating layer inception_4d/relu_3x3_reduce
I0509 17:24:15.876010 120027 net.cpp:84] Creating Layer inception_4d/relu_3x3_reduce
I0509 17:24:15.876014 120027 net.cpp:406] inception_4d/relu_3x3_reduce <- inception_4d/3x3_reduce
I0509 17:24:15.876020 120027 net.cpp:367] inception_4d/relu_3x3_reduce -> inception_4d/3x3_reduce (in-place)
I0509 17:24:15.876025 120027 net.cpp:122] Setting up inception_4d/relu_3x3_reduce
I0509 17:24:15.876030 120027 net.cpp:129] Top shape: 32 144 14 14 (903168)
I0509 17:24:15.876034 120027 net.cpp:137] Memory required for data: 1494529540
I0509 17:24:15.876044 120027 layer_factory.hpp:77] Creating layer inception_4d/3x3
I0509 17:24:15.876054 120027 net.cpp:84] Creating Layer inception_4d/3x3
I0509 17:24:15.876057 120027 net.cpp:406] inception_4d/3x3 <- inception_4d/3x3_reduce
I0509 17:24:15.876063 120027 net.cpp:380] inception_4d/3x3 -> inception_4d/3x3
I0509 17:24:15.876073 120027 base_conv_layer.cpp:121] Group is 1channel is144number of output is 288
I0509 17:24:15.879050 120027 net.cpp:122] Setting up inception_4d/3x3
I0509 17:24:15.879056 120027 net.cpp:129] Top shape: 32 288 14 14 (1806336)
I0509 17:24:15.879060 120027 net.cpp:137] Memory required for data: 1501754884
I0509 17:24:15.879067 120027 layer_factory.hpp:77] Creating layer inception_4d/relu_3x3
I0509 17:24:15.879075 120027 net.cpp:84] Creating Layer inception_4d/relu_3x3
I0509 17:24:15.879078 120027 net.cpp:406] inception_4d/relu_3x3 <- inception_4d/3x3
I0509 17:24:15.879083 120027 net.cpp:367] inception_4d/relu_3x3 -> inception_4d/3x3 (in-place)
I0509 17:24:15.879089 120027 net.cpp:122] Setting up inception_4d/relu_3x3
I0509 17:24:15.879094 120027 net.cpp:129] Top shape: 32 288 14 14 (1806336)
I0509 17:24:15.879098 120027 net.cpp:137] Memory required for data: 1508980228
I0509 17:24:15.879101 120027 layer_factory.hpp:77] Creating layer inception_4d/5x5_reduce
I0509 17:24:15.879109 120027 net.cpp:84] Creating Layer inception_4d/5x5_reduce
I0509 17:24:15.879113 120027 net.cpp:406] inception_4d/5x5_reduce <- inception_4c/output_inception_4c/output_0_split_2
I0509 17:24:15.879122 120027 net.cpp:380] inception_4d/5x5_reduce -> inception_4d/5x5_reduce
I0509 17:24:15.879132 120027 base_conv_layer.cpp:121] Group is 1channel is512number of output is 32
I0509 17:24:15.879266 120027 net.cpp:122] Setting up inception_4d/5x5_reduce
I0509 17:24:15.879272 120027 net.cpp:129] Top shape: 32 32 14 14 (200704)
I0509 17:24:15.879276 120027 net.cpp:137] Memory required for data: 1509783044
I0509 17:24:15.879282 120027 layer_factory.hpp:77] Creating layer inception_4d/relu_5x5_reduce
I0509 17:24:15.879289 120027 net.cpp:84] Creating Layer inception_4d/relu_5x5_reduce
I0509 17:24:15.879293 120027 net.cpp:406] inception_4d/relu_5x5_reduce <- inception_4d/5x5_reduce
I0509 17:24:15.879300 120027 net.cpp:367] inception_4d/relu_5x5_reduce -> inception_4d/5x5_reduce (in-place)
I0509 17:24:15.879305 120027 net.cpp:122] Setting up inception_4d/relu_5x5_reduce
I0509 17:24:15.879312 120027 net.cpp:129] Top shape: 32 32 14 14 (200704)
I0509 17:24:15.879314 120027 net.cpp:137] Memory required for data: 1510585860
I0509 17:24:15.879318 120027 layer_factory.hpp:77] Creating layer inception_4d/5x5
I0509 17:24:15.879325 120027 net.cpp:84] Creating Layer inception_4d/5x5
I0509 17:24:15.879330 120027 net.cpp:406] inception_4d/5x5 <- inception_4d/5x5_reduce
I0509 17:24:15.879338 120027 net.cpp:380] inception_4d/5x5 -> inception_4d/5x5
I0509 17:24:15.879345 120027 base_conv_layer.cpp:121] Group is 1channel is32number of output is 64
I0509 17:24:15.879772 120027 net.cpp:122] Setting up inception_4d/5x5
I0509 17:24:15.879782 120027 net.cpp:129] Top shape: 32 64 14 14 (401408)
I0509 17:24:15.879786 120027 net.cpp:137] Memory required for data: 1512191492
I0509 17:24:15.879791 120027 layer_factory.hpp:77] Creating layer inception_4d/relu_5x5
I0509 17:24:15.879803 120027 net.cpp:84] Creating Layer inception_4d/relu_5x5
I0509 17:24:15.879808 120027 net.cpp:406] inception_4d/relu_5x5 <- inception_4d/5x5
I0509 17:24:15.879814 120027 net.cpp:367] inception_4d/relu_5x5 -> inception_4d/5x5 (in-place)
I0509 17:24:15.879820 120027 net.cpp:122] Setting up inception_4d/relu_5x5
I0509 17:24:15.879825 120027 net.cpp:129] Top shape: 32 64 14 14 (401408)
I0509 17:24:15.879829 120027 net.cpp:137] Memory required for data: 1513797124
I0509 17:24:15.879833 120027 layer_factory.hpp:77] Creating layer inception_4d/pool
I0509 17:24:15.879839 120027 net.cpp:84] Creating Layer inception_4d/pool
I0509 17:24:15.879843 120027 net.cpp:406] inception_4d/pool <- inception_4c/output_inception_4c/output_0_split_3
I0509 17:24:15.879851 120027 net.cpp:380] inception_4d/pool -> inception_4d/pool
I0509 17:24:15.879860 120027 net.cpp:122] Setting up inception_4d/pool
I0509 17:24:15.879865 120027 net.cpp:129] Top shape: 32 512 14 14 (3211264)
I0509 17:24:15.879868 120027 net.cpp:137] Memory required for data: 1526642180
I0509 17:24:15.879873 120027 layer_factory.hpp:77] Creating layer inception_4d/pool_proj
I0509 17:24:15.879881 120027 net.cpp:84] Creating Layer inception_4d/pool_proj
I0509 17:24:15.879885 120027 net.cpp:406] inception_4d/pool_proj <- inception_4d/pool
I0509 17:24:15.879894 120027 net.cpp:380] inception_4d/pool_proj -> inception_4d/pool_proj
I0509 17:24:15.879904 120027 base_conv_layer.cpp:121] Group is 1channel is512number of output is 64
I0509 17:24:15.880182 120027 net.cpp:122] Setting up inception_4d/pool_proj
I0509 17:24:15.880189 120027 net.cpp:129] Top shape: 32 64 14 14 (401408)
I0509 17:24:15.880193 120027 net.cpp:137] Memory required for data: 1528247812
I0509 17:24:15.880200 120027 layer_factory.hpp:77] Creating layer inception_4d/relu_pool_proj
I0509 17:24:15.880208 120027 net.cpp:84] Creating Layer inception_4d/relu_pool_proj
I0509 17:24:15.880211 120027 net.cpp:406] inception_4d/relu_pool_proj <- inception_4d/pool_proj
I0509 17:24:15.880218 120027 net.cpp:367] inception_4d/relu_pool_proj -> inception_4d/pool_proj (in-place)
I0509 17:24:15.880225 120027 net.cpp:122] Setting up inception_4d/relu_pool_proj
I0509 17:24:15.880230 120027 net.cpp:129] Top shape: 32 64 14 14 (401408)
I0509 17:24:15.880234 120027 net.cpp:137] Memory required for data: 1529853444
I0509 17:24:15.880236 120027 layer_factory.hpp:77] Creating layer inception_4d/output
I0509 17:24:15.880244 120027 net.cpp:84] Creating Layer inception_4d/output
I0509 17:24:15.880247 120027 net.cpp:406] inception_4d/output <- inception_4d/1x1
I0509 17:24:15.880251 120027 net.cpp:406] inception_4d/output <- inception_4d/3x3
I0509 17:24:15.880256 120027 net.cpp:406] inception_4d/output <- inception_4d/5x5
I0509 17:24:15.880261 120027 net.cpp:406] inception_4d/output <- inception_4d/pool_proj
I0509 17:24:15.880266 120027 net.cpp:380] inception_4d/output -> inception_4d/output
I0509 17:24:15.880275 120027 net.cpp:122] Setting up inception_4d/output
I0509 17:24:15.880280 120027 net.cpp:129] Top shape: 32 528 14 14 (3311616)
I0509 17:24:15.880283 120027 net.cpp:137] Memory required for data: 1543099908
I0509 17:24:15.880287 120027 layer_factory.hpp:77] Creating layer inception_4d/output_inception_4d/output_0_split
I0509 17:24:15.880295 120027 net.cpp:84] Creating Layer inception_4d/output_inception_4d/output_0_split
I0509 17:24:15.880298 120027 net.cpp:406] inception_4d/output_inception_4d/output_0_split <- inception_4d/output
I0509 17:24:15.880307 120027 net.cpp:380] inception_4d/output_inception_4d/output_0_split -> inception_4d/output_inception_4d/output_0_split_0
I0509 17:24:15.880314 120027 net.cpp:380] inception_4d/output_inception_4d/output_0_split -> inception_4d/output_inception_4d/output_0_split_1
I0509 17:24:15.880322 120027 net.cpp:380] inception_4d/output_inception_4d/output_0_split -> inception_4d/output_inception_4d/output_0_split_2
I0509 17:24:15.880332 120027 net.cpp:380] inception_4d/output_inception_4d/output_0_split -> inception_4d/output_inception_4d/output_0_split_3
I0509 17:24:15.880345 120027 net.cpp:380] inception_4d/output_inception_4d/output_0_split -> inception_4d/output_inception_4d/output_0_split_4
I0509 17:24:15.880355 120027 net.cpp:122] Setting up inception_4d/output_inception_4d/output_0_split
I0509 17:24:15.880360 120027 net.cpp:129] Top shape: 32 528 14 14 (3311616)
I0509 17:24:15.880365 120027 net.cpp:129] Top shape: 32 528 14 14 (3311616)
I0509 17:24:15.880372 120027 net.cpp:129] Top shape: 32 528 14 14 (3311616)
I0509 17:24:15.880375 120027 net.cpp:129] Top shape: 32 528 14 14 (3311616)
I0509 17:24:15.880380 120027 net.cpp:129] Top shape: 32 528 14 14 (3311616)
I0509 17:24:15.880383 120027 net.cpp:137] Memory required for data: 1609332228
I0509 17:24:15.880388 120027 layer_factory.hpp:77] Creating layer loss2/ave_pool
I0509 17:24:15.880395 120027 net.cpp:84] Creating Layer loss2/ave_pool
I0509 17:24:15.880398 120027 net.cpp:406] loss2/ave_pool <- inception_4d/output_inception_4d/output_0_split_0
I0509 17:24:15.880404 120027 net.cpp:380] loss2/ave_pool -> loss2/ave_pool
I0509 17:24:15.880412 120027 net.cpp:122] Setting up loss2/ave_pool
I0509 17:24:15.880429 120027 net.cpp:129] Top shape: 32 528 4 4 (270336)
I0509 17:24:15.880431 120027 net.cpp:137] Memory required for data: 1610413572
I0509 17:24:15.880435 120027 layer_factory.hpp:77] Creating layer loss2/conv
I0509 17:24:15.880445 120027 net.cpp:84] Creating Layer loss2/conv
I0509 17:24:15.880450 120027 net.cpp:406] loss2/conv <- loss2/ave_pool
I0509 17:24:15.880456 120027 net.cpp:380] loss2/conv -> loss2/conv
I0509 17:24:15.880465 120027 base_conv_layer.cpp:121] Group is 1channel is528number of output is 128
I0509 17:24:15.880995 120027 net.cpp:122] Setting up loss2/conv
I0509 17:24:15.881006 120027 net.cpp:129] Top shape: 32 128 4 4 (65536)
I0509 17:24:15.881009 120027 net.cpp:137] Memory required for data: 1610675716
I0509 17:24:15.881016 120027 layer_factory.hpp:77] Creating layer loss2/relu_conv
I0509 17:24:15.881021 120027 net.cpp:84] Creating Layer loss2/relu_conv
I0509 17:24:15.881026 120027 net.cpp:406] loss2/relu_conv <- loss2/conv
I0509 17:24:15.881031 120027 net.cpp:367] loss2/relu_conv -> loss2/conv (in-place)
I0509 17:24:15.881036 120027 net.cpp:122] Setting up loss2/relu_conv
I0509 17:24:15.881041 120027 net.cpp:129] Top shape: 32 128 4 4 (65536)
I0509 17:24:15.881044 120027 net.cpp:137] Memory required for data: 1610937860
I0509 17:24:15.881047 120027 layer_factory.hpp:77] Creating layer loss2/fc
I0509 17:24:15.881054 120027 net.cpp:84] Creating Layer loss2/fc
I0509 17:24:15.881058 120027 net.cpp:406] loss2/fc <- loss2/conv
I0509 17:24:15.881065 120027 net.cpp:380] loss2/fc -> loss2/fc
I0509 17:24:15.894870 120027 net.cpp:122] Setting up loss2/fc
I0509 17:24:15.894878 120027 net.cpp:129] Top shape: 32 1024 (32768)
I0509 17:24:15.894881 120027 net.cpp:137] Memory required for data: 1611068932
I0509 17:24:15.894886 120027 layer_factory.hpp:77] Creating layer loss2/relu_fc
I0509 17:24:15.894891 120027 net.cpp:84] Creating Layer loss2/relu_fc
I0509 17:24:15.894894 120027 net.cpp:406] loss2/relu_fc <- loss2/fc
I0509 17:24:15.894899 120027 net.cpp:367] loss2/relu_fc -> loss2/fc (in-place)
I0509 17:24:15.894906 120027 net.cpp:122] Setting up loss2/relu_fc
I0509 17:24:15.894908 120027 net.cpp:129] Top shape: 32 1024 (32768)
I0509 17:24:15.894911 120027 net.cpp:137] Memory required for data: 1611200004
I0509 17:24:15.894914 120027 layer_factory.hpp:77] Creating layer loss2/drop_fc
I0509 17:24:15.894919 120027 net.cpp:84] Creating Layer loss2/drop_fc
I0509 17:24:15.894922 120027 net.cpp:406] loss2/drop_fc <- loss2/fc
I0509 17:24:15.894925 120027 net.cpp:367] loss2/drop_fc -> loss2/fc (in-place)
I0509 17:24:15.894932 120027 net.cpp:122] Setting up loss2/drop_fc
I0509 17:24:15.894934 120027 net.cpp:129] Top shape: 32 1024 (32768)
I0509 17:24:15.894937 120027 net.cpp:137] Memory required for data: 1611331076
I0509 17:24:15.894943 120027 layer_factory.hpp:77] Creating layer loss2/classifier
I0509 17:24:15.894949 120027 net.cpp:84] Creating Layer loss2/classifier
I0509 17:24:15.894953 120027 net.cpp:406] loss2/classifier <- loss2/fc
I0509 17:24:15.894963 120027 net.cpp:380] loss2/classifier -> loss2/classifier
I0509 17:24:15.900596 120027 net.cpp:122] Setting up loss2/classifier
I0509 17:24:15.900604 120027 net.cpp:129] Top shape: 32 1000 (32000)
I0509 17:24:15.900606 120027 net.cpp:137] Memory required for data: 1611459076
I0509 17:24:15.900610 120027 layer_factory.hpp:77] Creating layer loss2/loss
I0509 17:24:15.900616 120027 net.cpp:84] Creating Layer loss2/loss
I0509 17:24:15.900620 120027 net.cpp:406] loss2/loss <- loss2/classifier
I0509 17:24:15.900624 120027 net.cpp:406] loss2/loss <- label_data_1_split_1
I0509 17:24:15.900629 120027 net.cpp:380] loss2/loss -> loss2/loss2
I0509 17:24:15.900635 120027 layer_factory.hpp:77] Creating layer loss2/loss
I0509 17:24:15.900696 120027 net.cpp:122] Setting up loss2/loss
I0509 17:24:15.900701 120027 net.cpp:129] Top shape: (1)
I0509 17:24:15.900702 120027 net.cpp:132]     with loss weight 0.3
I0509 17:24:15.900712 120027 net.cpp:137] Memory required for data: 1611459080
I0509 17:24:15.900715 120027 layer_factory.hpp:77] Creating layer inception_4e/1x1
I0509 17:24:15.900724 120027 net.cpp:84] Creating Layer inception_4e/1x1
I0509 17:24:15.900728 120027 net.cpp:406] inception_4e/1x1 <- inception_4d/output_inception_4d/output_0_split_1
I0509 17:24:15.900733 120027 net.cpp:380] inception_4e/1x1 -> inception_4e/1x1
I0509 17:24:15.900743 120027 base_conv_layer.cpp:121] Group is 1channel is528number of output is 256
I0509 17:24:15.901551 120027 net.cpp:122] Setting up inception_4e/1x1
I0509 17:24:15.901556 120027 net.cpp:129] Top shape: 32 256 14 14 (1605632)
I0509 17:24:15.901558 120027 net.cpp:137] Memory required for data: 1617881608
I0509 17:24:15.901563 120027 layer_factory.hpp:77] Creating layer inception_4e/relu_1x1
I0509 17:24:15.901567 120027 net.cpp:84] Creating Layer inception_4e/relu_1x1
I0509 17:24:15.901571 120027 net.cpp:406] inception_4e/relu_1x1 <- inception_4e/1x1
I0509 17:24:15.901576 120027 net.cpp:367] inception_4e/relu_1x1 -> inception_4e/1x1 (in-place)
I0509 17:24:15.901582 120027 net.cpp:122] Setting up inception_4e/relu_1x1
I0509 17:24:15.901585 120027 net.cpp:129] Top shape: 32 256 14 14 (1605632)
I0509 17:24:15.901587 120027 net.cpp:137] Memory required for data: 1624304136
I0509 17:24:15.901590 120027 layer_factory.hpp:77] Creating layer inception_4e/3x3_reduce
I0509 17:24:15.901597 120027 net.cpp:84] Creating Layer inception_4e/3x3_reduce
I0509 17:24:15.901600 120027 net.cpp:406] inception_4e/3x3_reduce <- inception_4d/output_inception_4d/output_0_split_2
I0509 17:24:15.901605 120027 net.cpp:380] inception_4e/3x3_reduce -> inception_4e/3x3_reduce
I0509 17:24:15.901612 120027 base_conv_layer.cpp:121] Group is 1channel is528number of output is 160
I0509 17:24:15.902115 120027 net.cpp:122] Setting up inception_4e/3x3_reduce
I0509 17:24:15.902120 120027 net.cpp:129] Top shape: 32 160 14 14 (1003520)
I0509 17:24:15.902122 120027 net.cpp:137] Memory required for data: 1628318216
I0509 17:24:15.902127 120027 layer_factory.hpp:77] Creating layer inception_4e/relu_3x3_reduce
I0509 17:24:15.902135 120027 net.cpp:84] Creating Layer inception_4e/relu_3x3_reduce
I0509 17:24:15.902138 120027 net.cpp:406] inception_4e/relu_3x3_reduce <- inception_4e/3x3_reduce
I0509 17:24:15.902143 120027 net.cpp:367] inception_4e/relu_3x3_reduce -> inception_4e/3x3_reduce (in-place)
I0509 17:24:15.902146 120027 net.cpp:122] Setting up inception_4e/relu_3x3_reduce
I0509 17:24:15.902151 120027 net.cpp:129] Top shape: 32 160 14 14 (1003520)
I0509 17:24:15.902153 120027 net.cpp:137] Memory required for data: 1632332296
I0509 17:24:15.902156 120027 layer_factory.hpp:77] Creating layer inception_4e/3x3
I0509 17:24:15.902163 120027 net.cpp:84] Creating Layer inception_4e/3x3
I0509 17:24:15.902166 120027 net.cpp:406] inception_4e/3x3 <- inception_4e/3x3_reduce
I0509 17:24:15.902173 120027 net.cpp:380] inception_4e/3x3 -> inception_4e/3x3
I0509 17:24:15.902182 120027 base_conv_layer.cpp:121] Group is 1channel is160number of output is 320
I0509 17:24:15.904882 120027 net.cpp:122] Setting up inception_4e/3x3
I0509 17:24:15.904896 120027 net.cpp:129] Top shape: 32 320 14 14 (2007040)
I0509 17:24:15.904897 120027 net.cpp:137] Memory required for data: 1640360456
I0509 17:24:15.904902 120027 layer_factory.hpp:77] Creating layer inception_4e/relu_3x3
I0509 17:24:15.904907 120027 net.cpp:84] Creating Layer inception_4e/relu_3x3
I0509 17:24:15.904913 120027 net.cpp:406] inception_4e/relu_3x3 <- inception_4e/3x3
I0509 17:24:15.904917 120027 net.cpp:367] inception_4e/relu_3x3 -> inception_4e/3x3 (in-place)
I0509 17:24:15.904922 120027 net.cpp:122] Setting up inception_4e/relu_3x3
I0509 17:24:15.904925 120027 net.cpp:129] Top shape: 32 320 14 14 (2007040)
I0509 17:24:15.904928 120027 net.cpp:137] Memory required for data: 1648388616
I0509 17:24:15.904932 120027 layer_factory.hpp:77] Creating layer inception_4e/5x5_reduce
I0509 17:24:15.904938 120027 net.cpp:84] Creating Layer inception_4e/5x5_reduce
I0509 17:24:15.904942 120027 net.cpp:406] inception_4e/5x5_reduce <- inception_4d/output_inception_4d/output_0_split_3
I0509 17:24:15.904947 120027 net.cpp:380] inception_4e/5x5_reduce -> inception_4e/5x5_reduce
I0509 17:24:15.904953 120027 base_conv_layer.cpp:121] Group is 1channel is528number of output is 32
I0509 17:24:15.905062 120027 net.cpp:122] Setting up inception_4e/5x5_reduce
I0509 17:24:15.905067 120027 net.cpp:129] Top shape: 32 32 14 14 (200704)
I0509 17:24:15.905071 120027 net.cpp:137] Memory required for data: 1649191432
I0509 17:24:15.905076 120027 layer_factory.hpp:77] Creating layer inception_4e/relu_5x5_reduce
I0509 17:24:15.905081 120027 net.cpp:84] Creating Layer inception_4e/relu_5x5_reduce
I0509 17:24:15.905083 120027 net.cpp:406] inception_4e/relu_5x5_reduce <- inception_4e/5x5_reduce
I0509 17:24:15.905089 120027 net.cpp:367] inception_4e/relu_5x5_reduce -> inception_4e/5x5_reduce (in-place)
I0509 17:24:15.905093 120027 net.cpp:122] Setting up inception_4e/relu_5x5_reduce
I0509 17:24:15.905097 120027 net.cpp:129] Top shape: 32 32 14 14 (200704)
I0509 17:24:15.905099 120027 net.cpp:137] Memory required for data: 1649994248
I0509 17:24:15.905102 120027 layer_factory.hpp:77] Creating layer inception_4e/5x5
I0509 17:24:15.905133 120027 net.cpp:84] Creating Layer inception_4e/5x5
I0509 17:24:15.905136 120027 net.cpp:406] inception_4e/5x5 <- inception_4e/5x5_reduce
I0509 17:24:15.905141 120027 net.cpp:380] inception_4e/5x5 -> inception_4e/5x5
I0509 17:24:15.905148 120027 base_conv_layer.cpp:121] Group is 1channel is32number of output is 128
I0509 17:24:15.905757 120027 net.cpp:122] Setting up inception_4e/5x5
I0509 17:24:15.905762 120027 net.cpp:129] Top shape: 32 128 14 14 (802816)
I0509 17:24:15.905764 120027 net.cpp:137] Memory required for data: 1653205512
I0509 17:24:15.905771 120027 layer_factory.hpp:77] Creating layer inception_4e/relu_5x5
I0509 17:24:15.905774 120027 net.cpp:84] Creating Layer inception_4e/relu_5x5
I0509 17:24:15.905777 120027 net.cpp:406] inception_4e/relu_5x5 <- inception_4e/5x5
I0509 17:24:15.905781 120027 net.cpp:367] inception_4e/relu_5x5 -> inception_4e/5x5 (in-place)
I0509 17:24:15.905786 120027 net.cpp:122] Setting up inception_4e/relu_5x5
I0509 17:24:15.905789 120027 net.cpp:129] Top shape: 32 128 14 14 (802816)
I0509 17:24:15.905792 120027 net.cpp:137] Memory required for data: 1656416776
I0509 17:24:15.905794 120027 layer_factory.hpp:77] Creating layer inception_4e/pool
I0509 17:24:15.905800 120027 net.cpp:84] Creating Layer inception_4e/pool
I0509 17:24:15.905803 120027 net.cpp:406] inception_4e/pool <- inception_4d/output_inception_4d/output_0_split_4
I0509 17:24:15.905808 120027 net.cpp:380] inception_4e/pool -> inception_4e/pool
I0509 17:24:15.905815 120027 net.cpp:122] Setting up inception_4e/pool
I0509 17:24:15.905820 120027 net.cpp:129] Top shape: 32 528 14 14 (3311616)
I0509 17:24:15.905822 120027 net.cpp:137] Memory required for data: 1669663240
I0509 17:24:15.905825 120027 layer_factory.hpp:77] Creating layer inception_4e/pool_proj
I0509 17:24:15.905834 120027 net.cpp:84] Creating Layer inception_4e/pool_proj
I0509 17:24:15.905838 120027 net.cpp:406] inception_4e/pool_proj <- inception_4e/pool
I0509 17:24:15.905849 120027 net.cpp:380] inception_4e/pool_proj -> inception_4e/pool_proj
I0509 17:24:15.905856 120027 base_conv_layer.cpp:121] Group is 1channel is528number of output is 128
I0509 17:24:15.906262 120027 net.cpp:122] Setting up inception_4e/pool_proj
I0509 17:24:15.906268 120027 net.cpp:129] Top shape: 32 128 14 14 (802816)
I0509 17:24:15.906271 120027 net.cpp:137] Memory required for data: 1672874504
I0509 17:24:15.906275 120027 layer_factory.hpp:77] Creating layer inception_4e/relu_pool_proj
I0509 17:24:15.906280 120027 net.cpp:84] Creating Layer inception_4e/relu_pool_proj
I0509 17:24:15.906282 120027 net.cpp:406] inception_4e/relu_pool_proj <- inception_4e/pool_proj
I0509 17:24:15.906287 120027 net.cpp:367] inception_4e/relu_pool_proj -> inception_4e/pool_proj (in-place)
I0509 17:24:15.906292 120027 net.cpp:122] Setting up inception_4e/relu_pool_proj
I0509 17:24:15.906296 120027 net.cpp:129] Top shape: 32 128 14 14 (802816)
I0509 17:24:15.906298 120027 net.cpp:137] Memory required for data: 1676085768
I0509 17:24:15.906301 120027 layer_factory.hpp:77] Creating layer inception_4e/output
I0509 17:24:15.906306 120027 net.cpp:84] Creating Layer inception_4e/output
I0509 17:24:15.906309 120027 net.cpp:406] inception_4e/output <- inception_4e/1x1
I0509 17:24:15.906312 120027 net.cpp:406] inception_4e/output <- inception_4e/3x3
I0509 17:24:15.906316 120027 net.cpp:406] inception_4e/output <- inception_4e/5x5
I0509 17:24:15.906319 120027 net.cpp:406] inception_4e/output <- inception_4e/pool_proj
I0509 17:24:15.906323 120027 net.cpp:380] inception_4e/output -> inception_4e/output
I0509 17:24:15.906330 120027 net.cpp:122] Setting up inception_4e/output
I0509 17:24:15.906333 120027 net.cpp:129] Top shape: 32 832 14 14 (5218304)
I0509 17:24:15.906337 120027 net.cpp:137] Memory required for data: 1696958984
I0509 17:24:15.906338 120027 layer_factory.hpp:77] Creating layer pool4/3x3_s2
I0509 17:24:15.906343 120027 net.cpp:84] Creating Layer pool4/3x3_s2
I0509 17:24:15.906347 120027 net.cpp:406] pool4/3x3_s2 <- inception_4e/output
I0509 17:24:15.906350 120027 net.cpp:380] pool4/3x3_s2 -> pool4/3x3_s2
I0509 17:24:15.906357 120027 net.cpp:122] Setting up pool4/3x3_s2
I0509 17:24:15.906360 120027 net.cpp:129] Top shape: 32 832 7 7 (1304576)
I0509 17:24:15.906363 120027 net.cpp:137] Memory required for data: 1702177288
I0509 17:24:15.906365 120027 layer_factory.hpp:77] Creating layer pool4/3x3_s2_pool4/3x3_s2_0_split
I0509 17:24:15.906374 120027 net.cpp:84] Creating Layer pool4/3x3_s2_pool4/3x3_s2_0_split
I0509 17:24:15.906378 120027 net.cpp:406] pool4/3x3_s2_pool4/3x3_s2_0_split <- pool4/3x3_s2
I0509 17:24:15.906383 120027 net.cpp:380] pool4/3x3_s2_pool4/3x3_s2_0_split -> pool4/3x3_s2_pool4/3x3_s2_0_split_0
I0509 17:24:15.906388 120027 net.cpp:380] pool4/3x3_s2_pool4/3x3_s2_0_split -> pool4/3x3_s2_pool4/3x3_s2_0_split_1
I0509 17:24:15.906394 120027 net.cpp:380] pool4/3x3_s2_pool4/3x3_s2_0_split -> pool4/3x3_s2_pool4/3x3_s2_0_split_2
I0509 17:24:15.906399 120027 net.cpp:380] pool4/3x3_s2_pool4/3x3_s2_0_split -> pool4/3x3_s2_pool4/3x3_s2_0_split_3
I0509 17:24:15.906405 120027 net.cpp:122] Setting up pool4/3x3_s2_pool4/3x3_s2_0_split
I0509 17:24:15.906409 120027 net.cpp:129] Top shape: 32 832 7 7 (1304576)
I0509 17:24:15.906412 120027 net.cpp:129] Top shape: 32 832 7 7 (1304576)
I0509 17:24:15.906416 120027 net.cpp:129] Top shape: 32 832 7 7 (1304576)
I0509 17:24:15.906419 120027 net.cpp:129] Top shape: 32 832 7 7 (1304576)
I0509 17:24:15.906421 120027 net.cpp:137] Memory required for data: 1723050504
I0509 17:24:15.906424 120027 layer_factory.hpp:77] Creating layer inception_5a/1x1
I0509 17:24:15.906431 120027 net.cpp:84] Creating Layer inception_5a/1x1
I0509 17:24:15.906435 120027 net.cpp:406] inception_5a/1x1 <- pool4/3x3_s2_pool4/3x3_s2_0_split_0
I0509 17:24:15.906441 120027 net.cpp:380] inception_5a/1x1 -> inception_5a/1x1
I0509 17:24:15.906450 120027 base_conv_layer.cpp:121] Group is 1channel is832number of output is 256
I0509 17:24:15.907703 120027 net.cpp:122] Setting up inception_5a/1x1
I0509 17:24:15.907713 120027 net.cpp:129] Top shape: 32 256 7 7 (401408)
I0509 17:24:15.907716 120027 net.cpp:137] Memory required for data: 1724656136
I0509 17:24:15.907721 120027 layer_factory.hpp:77] Creating layer inception_5a/relu_1x1
I0509 17:24:15.907729 120027 net.cpp:84] Creating Layer inception_5a/relu_1x1
I0509 17:24:15.907732 120027 net.cpp:406] inception_5a/relu_1x1 <- inception_5a/1x1
I0509 17:24:15.907737 120027 net.cpp:367] inception_5a/relu_1x1 -> inception_5a/1x1 (in-place)
I0509 17:24:15.907742 120027 net.cpp:122] Setting up inception_5a/relu_1x1
I0509 17:24:15.907745 120027 net.cpp:129] Top shape: 32 256 7 7 (401408)
I0509 17:24:15.907747 120027 net.cpp:137] Memory required for data: 1726261768
I0509 17:24:15.907750 120027 layer_factory.hpp:77] Creating layer inception_5a/3x3_reduce
I0509 17:24:15.907757 120027 net.cpp:84] Creating Layer inception_5a/3x3_reduce
I0509 17:24:15.907759 120027 net.cpp:406] inception_5a/3x3_reduce <- pool4/3x3_s2_pool4/3x3_s2_0_split_1
I0509 17:24:15.907765 120027 net.cpp:380] inception_5a/3x3_reduce -> inception_5a/3x3_reduce
I0509 17:24:15.907773 120027 base_conv_layer.cpp:121] Group is 1channel is832number of output is 160
I0509 17:24:15.908563 120027 net.cpp:122] Setting up inception_5a/3x3_reduce
I0509 17:24:15.908570 120027 net.cpp:129] Top shape: 32 160 7 7 (250880)
I0509 17:24:15.908572 120027 net.cpp:137] Memory required for data: 1727265288
I0509 17:24:15.908576 120027 layer_factory.hpp:77] Creating layer inception_5a/relu_3x3_reduce
I0509 17:24:15.908581 120027 net.cpp:84] Creating Layer inception_5a/relu_3x3_reduce
I0509 17:24:15.908586 120027 net.cpp:406] inception_5a/relu_3x3_reduce <- inception_5a/3x3_reduce
I0509 17:24:15.908589 120027 net.cpp:367] inception_5a/relu_3x3_reduce -> inception_5a/3x3_reduce (in-place)
I0509 17:24:15.908593 120027 net.cpp:122] Setting up inception_5a/relu_3x3_reduce
I0509 17:24:15.908597 120027 net.cpp:129] Top shape: 32 160 7 7 (250880)
I0509 17:24:15.908601 120027 net.cpp:137] Memory required for data: 1728268808
I0509 17:24:15.908602 120027 layer_factory.hpp:77] Creating layer inception_5a/3x3
I0509 17:24:15.908609 120027 net.cpp:84] Creating Layer inception_5a/3x3
I0509 17:24:15.908612 120027 net.cpp:406] inception_5a/3x3 <- inception_5a/3x3_reduce
I0509 17:24:15.908617 120027 net.cpp:380] inception_5a/3x3 -> inception_5a/3x3
I0509 17:24:15.908624 120027 base_conv_layer.cpp:121] Group is 1channel is160number of output is 320
I0509 17:24:15.911337 120027 net.cpp:122] Setting up inception_5a/3x3
I0509 17:24:15.911344 120027 net.cpp:129] Top shape: 32 320 7 7 (501760)
I0509 17:24:15.911346 120027 net.cpp:137] Memory required for data: 1730275848
I0509 17:24:15.911350 120027 layer_factory.hpp:77] Creating layer inception_5a/relu_3x3
I0509 17:24:15.911355 120027 net.cpp:84] Creating Layer inception_5a/relu_3x3
I0509 17:24:15.911357 120027 net.cpp:406] inception_5a/relu_3x3 <- inception_5a/3x3
I0509 17:24:15.911362 120027 net.cpp:367] inception_5a/relu_3x3 -> inception_5a/3x3 (in-place)
I0509 17:24:15.911366 120027 net.cpp:122] Setting up inception_5a/relu_3x3
I0509 17:24:15.911370 120027 net.cpp:129] Top shape: 32 320 7 7 (501760)
I0509 17:24:15.911372 120027 net.cpp:137] Memory required for data: 1732282888
I0509 17:24:15.911375 120027 layer_factory.hpp:77] Creating layer inception_5a/5x5_reduce
I0509 17:24:15.911382 120027 net.cpp:84] Creating Layer inception_5a/5x5_reduce
I0509 17:24:15.911386 120027 net.cpp:406] inception_5a/5x5_reduce <- pool4/3x3_s2_pool4/3x3_s2_0_split_2
I0509 17:24:15.911391 120027 net.cpp:380] inception_5a/5x5_reduce -> inception_5a/5x5_reduce
I0509 17:24:15.911397 120027 base_conv_layer.cpp:121] Group is 1channel is832number of output is 32
I0509 17:24:15.911563 120027 net.cpp:122] Setting up inception_5a/5x5_reduce
I0509 17:24:15.911568 120027 net.cpp:129] Top shape: 32 32 7 7 (50176)
I0509 17:24:15.911571 120027 net.cpp:137] Memory required for data: 1732483592
I0509 17:24:15.911578 120027 layer_factory.hpp:77] Creating layer inception_5a/relu_5x5_reduce
I0509 17:24:15.911587 120027 net.cpp:84] Creating Layer inception_5a/relu_5x5_reduce
I0509 17:24:15.911590 120027 net.cpp:406] inception_5a/relu_5x5_reduce <- inception_5a/5x5_reduce
I0509 17:24:15.911594 120027 net.cpp:367] inception_5a/relu_5x5_reduce -> inception_5a/5x5_reduce (in-place)
I0509 17:24:15.911599 120027 net.cpp:122] Setting up inception_5a/relu_5x5_reduce
I0509 17:24:15.911603 120027 net.cpp:129] Top shape: 32 32 7 7 (50176)
I0509 17:24:15.911605 120027 net.cpp:137] Memory required for data: 1732684296
I0509 17:24:15.911608 120027 layer_factory.hpp:77] Creating layer inception_5a/5x5
I0509 17:24:15.911615 120027 net.cpp:84] Creating Layer inception_5a/5x5
I0509 17:24:15.911618 120027 net.cpp:406] inception_5a/5x5 <- inception_5a/5x5_reduce
I0509 17:24:15.911624 120027 net.cpp:380] inception_5a/5x5 -> inception_5a/5x5
I0509 17:24:15.911630 120027 base_conv_layer.cpp:121] Group is 1channel is32number of output is 128
I0509 17:24:15.912251 120027 net.cpp:122] Setting up inception_5a/5x5
I0509 17:24:15.912257 120027 net.cpp:129] Top shape: 32 128 7 7 (200704)
I0509 17:24:15.912259 120027 net.cpp:137] Memory required for data: 1733487112
I0509 17:24:15.912264 120027 layer_factory.hpp:77] Creating layer inception_5a/relu_5x5
I0509 17:24:15.912269 120027 net.cpp:84] Creating Layer inception_5a/relu_5x5
I0509 17:24:15.912272 120027 net.cpp:406] inception_5a/relu_5x5 <- inception_5a/5x5
I0509 17:24:15.912277 120027 net.cpp:367] inception_5a/relu_5x5 -> inception_5a/5x5 (in-place)
I0509 17:24:15.912281 120027 net.cpp:122] Setting up inception_5a/relu_5x5
I0509 17:24:15.912286 120027 net.cpp:129] Top shape: 32 128 7 7 (200704)
I0509 17:24:15.912288 120027 net.cpp:137] Memory required for data: 1734289928
I0509 17:24:15.912292 120027 layer_factory.hpp:77] Creating layer inception_5a/pool
I0509 17:24:15.912295 120027 net.cpp:84] Creating Layer inception_5a/pool
I0509 17:24:15.912298 120027 net.cpp:406] inception_5a/pool <- pool4/3x3_s2_pool4/3x3_s2_0_split_3
I0509 17:24:15.912304 120027 net.cpp:380] inception_5a/pool -> inception_5a/pool
I0509 17:24:15.912310 120027 net.cpp:122] Setting up inception_5a/pool
I0509 17:24:15.912314 120027 net.cpp:129] Top shape: 32 832 7 7 (1304576)
I0509 17:24:15.912317 120027 net.cpp:137] Memory required for data: 1739508232
I0509 17:24:15.912319 120027 layer_factory.hpp:77] Creating layer inception_5a/pool_proj
I0509 17:24:15.912327 120027 net.cpp:84] Creating Layer inception_5a/pool_proj
I0509 17:24:15.912329 120027 net.cpp:406] inception_5a/pool_proj <- inception_5a/pool
I0509 17:24:15.912335 120027 net.cpp:380] inception_5a/pool_proj -> inception_5a/pool_proj
I0509 17:24:15.912343 120027 base_conv_layer.cpp:121] Group is 1channel is832number of output is 128
I0509 17:24:15.912994 120027 net.cpp:122] Setting up inception_5a/pool_proj
I0509 17:24:15.913000 120027 net.cpp:129] Top shape: 32 128 7 7 (200704)
I0509 17:24:15.913003 120027 net.cpp:137] Memory required for data: 1740311048
I0509 17:24:15.913008 120027 layer_factory.hpp:77] Creating layer inception_5a/relu_pool_proj
I0509 17:24:15.913012 120027 net.cpp:84] Creating Layer inception_5a/relu_pool_proj
I0509 17:24:15.913015 120027 net.cpp:406] inception_5a/relu_pool_proj <- inception_5a/pool_proj
I0509 17:24:15.913020 120027 net.cpp:367] inception_5a/relu_pool_proj -> inception_5a/pool_proj (in-place)
I0509 17:24:15.913024 120027 net.cpp:122] Setting up inception_5a/relu_pool_proj
I0509 17:24:15.913028 120027 net.cpp:129] Top shape: 32 128 7 7 (200704)
I0509 17:24:15.913030 120027 net.cpp:137] Memory required for data: 1741113864
I0509 17:24:15.913033 120027 layer_factory.hpp:77] Creating layer inception_5a/output
I0509 17:24:15.913038 120027 net.cpp:84] Creating Layer inception_5a/output
I0509 17:24:15.913040 120027 net.cpp:406] inception_5a/output <- inception_5a/1x1
I0509 17:24:15.913044 120027 net.cpp:406] inception_5a/output <- inception_5a/3x3
I0509 17:24:15.913048 120027 net.cpp:406] inception_5a/output <- inception_5a/5x5
I0509 17:24:15.913053 120027 net.cpp:406] inception_5a/output <- inception_5a/pool_proj
I0509 17:24:15.913058 120027 net.cpp:380] inception_5a/output -> inception_5a/output
I0509 17:24:15.913069 120027 net.cpp:122] Setting up inception_5a/output
I0509 17:24:15.913074 120027 net.cpp:129] Top shape: 32 832 7 7 (1304576)
I0509 17:24:15.913076 120027 net.cpp:137] Memory required for data: 1746332168
I0509 17:24:15.913079 120027 layer_factory.hpp:77] Creating layer inception_5a/output_inception_5a/output_0_split
I0509 17:24:15.913084 120027 net.cpp:84] Creating Layer inception_5a/output_inception_5a/output_0_split
I0509 17:24:15.913089 120027 net.cpp:406] inception_5a/output_inception_5a/output_0_split <- inception_5a/output
I0509 17:24:15.913092 120027 net.cpp:380] inception_5a/output_inception_5a/output_0_split -> inception_5a/output_inception_5a/output_0_split_0
I0509 17:24:15.913099 120027 net.cpp:380] inception_5a/output_inception_5a/output_0_split -> inception_5a/output_inception_5a/output_0_split_1
I0509 17:24:15.913105 120027 net.cpp:380] inception_5a/output_inception_5a/output_0_split -> inception_5a/output_inception_5a/output_0_split_2
I0509 17:24:15.913110 120027 net.cpp:380] inception_5a/output_inception_5a/output_0_split -> inception_5a/output_inception_5a/output_0_split_3
I0509 17:24:15.913115 120027 net.cpp:122] Setting up inception_5a/output_inception_5a/output_0_split
I0509 17:24:15.913120 120027 net.cpp:129] Top shape: 32 832 7 7 (1304576)
I0509 17:24:15.913123 120027 net.cpp:129] Top shape: 32 832 7 7 (1304576)
I0509 17:24:15.913126 120027 net.cpp:129] Top shape: 32 832 7 7 (1304576)
I0509 17:24:15.913130 120027 net.cpp:129] Top shape: 32 832 7 7 (1304576)
I0509 17:24:15.913132 120027 net.cpp:137] Memory required for data: 1767205384
I0509 17:24:15.913136 120027 layer_factory.hpp:77] Creating layer inception_5b/1x1
I0509 17:24:15.913141 120027 net.cpp:84] Creating Layer inception_5b/1x1
I0509 17:24:15.913144 120027 net.cpp:406] inception_5b/1x1 <- inception_5a/output_inception_5a/output_0_split_0
I0509 17:24:15.913153 120027 net.cpp:380] inception_5b/1x1 -> inception_5b/1x1
I0509 17:24:15.913161 120027 base_conv_layer.cpp:121] Group is 1channel is832number of output is 384
I0509 17:24:15.915092 120027 net.cpp:122] Setting up inception_5b/1x1
I0509 17:24:15.915098 120027 net.cpp:129] Top shape: 32 384 7 7 (602112)
I0509 17:24:15.915101 120027 net.cpp:137] Memory required for data: 1769613832
I0509 17:24:15.915105 120027 layer_factory.hpp:77] Creating layer inception_5b/relu_1x1
I0509 17:24:15.915110 120027 net.cpp:84] Creating Layer inception_5b/relu_1x1
I0509 17:24:15.915113 120027 net.cpp:406] inception_5b/relu_1x1 <- inception_5b/1x1
I0509 17:24:15.915117 120027 net.cpp:367] inception_5b/relu_1x1 -> inception_5b/1x1 (in-place)
I0509 17:24:15.915122 120027 net.cpp:122] Setting up inception_5b/relu_1x1
I0509 17:24:15.915127 120027 net.cpp:129] Top shape: 32 384 7 7 (602112)
I0509 17:24:15.915128 120027 net.cpp:137] Memory required for data: 1772022280
I0509 17:24:15.915132 120027 layer_factory.hpp:77] Creating layer inception_5b/3x3_reduce
I0509 17:24:15.915138 120027 net.cpp:84] Creating Layer inception_5b/3x3_reduce
I0509 17:24:15.915141 120027 net.cpp:406] inception_5b/3x3_reduce <- inception_5a/output_inception_5a/output_0_split_1
I0509 17:24:15.915146 120027 net.cpp:380] inception_5b/3x3_reduce -> inception_5b/3x3_reduce
I0509 17:24:15.915153 120027 base_conv_layer.cpp:121] Group is 1channel is832number of output is 192
I0509 17:24:15.916101 120027 net.cpp:122] Setting up inception_5b/3x3_reduce
I0509 17:24:15.916107 120027 net.cpp:129] Top shape: 32 192 7 7 (301056)
I0509 17:24:15.916110 120027 net.cpp:137] Memory required for data: 1773226504
I0509 17:24:15.916115 120027 layer_factory.hpp:77] Creating layer inception_5b/relu_3x3_reduce
I0509 17:24:15.916119 120027 net.cpp:84] Creating Layer inception_5b/relu_3x3_reduce
I0509 17:24:15.916123 120027 net.cpp:406] inception_5b/relu_3x3_reduce <- inception_5b/3x3_reduce
I0509 17:24:15.916128 120027 net.cpp:367] inception_5b/relu_3x3_reduce -> inception_5b/3x3_reduce (in-place)
I0509 17:24:15.916136 120027 net.cpp:122] Setting up inception_5b/relu_3x3_reduce
I0509 17:24:15.916144 120027 net.cpp:129] Top shape: 32 192 7 7 (301056)
I0509 17:24:15.916147 120027 net.cpp:137] Memory required for data: 1774430728
I0509 17:24:15.916151 120027 layer_factory.hpp:77] Creating layer inception_5b/3x3
I0509 17:24:15.916157 120027 net.cpp:84] Creating Layer inception_5b/3x3
I0509 17:24:15.916159 120027 net.cpp:406] inception_5b/3x3 <- inception_5b/3x3_reduce
I0509 17:24:15.916164 120027 net.cpp:380] inception_5b/3x3 -> inception_5b/3x3
I0509 17:24:15.916190 120027 base_conv_layer.cpp:121] Group is 1channel is192number of output is 384
I0509 17:24:15.920078 120027 net.cpp:122] Setting up inception_5b/3x3
I0509 17:24:15.920085 120027 net.cpp:129] Top shape: 32 384 7 7 (602112)
I0509 17:24:15.920089 120027 net.cpp:137] Memory required for data: 1776839176
I0509 17:24:15.920094 120027 layer_factory.hpp:77] Creating layer inception_5b/relu_3x3
I0509 17:24:15.920097 120027 net.cpp:84] Creating Layer inception_5b/relu_3x3
I0509 17:24:15.920100 120027 net.cpp:406] inception_5b/relu_3x3 <- inception_5b/3x3
I0509 17:24:15.920105 120027 net.cpp:367] inception_5b/relu_3x3 -> inception_5b/3x3 (in-place)
I0509 17:24:15.920111 120027 net.cpp:122] Setting up inception_5b/relu_3x3
I0509 17:24:15.920115 120027 net.cpp:129] Top shape: 32 384 7 7 (602112)
I0509 17:24:15.920117 120027 net.cpp:137] Memory required for data: 1779247624
I0509 17:24:15.920120 120027 layer_factory.hpp:77] Creating layer inception_5b/5x5_reduce
I0509 17:24:15.920127 120027 net.cpp:84] Creating Layer inception_5b/5x5_reduce
I0509 17:24:15.920130 120027 net.cpp:406] inception_5b/5x5_reduce <- inception_5a/output_inception_5a/output_0_split_2
I0509 17:24:15.920135 120027 net.cpp:380] inception_5b/5x5_reduce -> inception_5b/5x5_reduce
I0509 17:24:15.920142 120027 base_conv_layer.cpp:121] Group is 1channel is832number of output is 48
I0509 17:24:15.920387 120027 net.cpp:122] Setting up inception_5b/5x5_reduce
I0509 17:24:15.920392 120027 net.cpp:129] Top shape: 32 48 7 7 (75264)
I0509 17:24:15.920395 120027 net.cpp:137] Memory required for data: 1779548680
I0509 17:24:15.920400 120027 layer_factory.hpp:77] Creating layer inception_5b/relu_5x5_reduce
I0509 17:24:15.920404 120027 net.cpp:84] Creating Layer inception_5b/relu_5x5_reduce
I0509 17:24:15.920408 120027 net.cpp:406] inception_5b/relu_5x5_reduce <- inception_5b/5x5_reduce
I0509 17:24:15.920413 120027 net.cpp:367] inception_5b/relu_5x5_reduce -> inception_5b/5x5_reduce (in-place)
I0509 17:24:15.920418 120027 net.cpp:122] Setting up inception_5b/relu_5x5_reduce
I0509 17:24:15.920421 120027 net.cpp:129] Top shape: 32 48 7 7 (75264)
I0509 17:24:15.920423 120027 net.cpp:137] Memory required for data: 1779849736
I0509 17:24:15.920426 120027 layer_factory.hpp:77] Creating layer inception_5b/5x5
I0509 17:24:15.920433 120027 net.cpp:84] Creating Layer inception_5b/5x5
I0509 17:24:15.920436 120027 net.cpp:406] inception_5b/5x5 <- inception_5b/5x5_reduce
I0509 17:24:15.920441 120027 net.cpp:380] inception_5b/5x5 -> inception_5b/5x5
I0509 17:24:15.920449 120027 base_conv_layer.cpp:121] Group is 1channel is48number of output is 128
I0509 17:24:15.921361 120027 net.cpp:122] Setting up inception_5b/5x5
I0509 17:24:15.921366 120027 net.cpp:129] Top shape: 32 128 7 7 (200704)
I0509 17:24:15.921368 120027 net.cpp:137] Memory required for data: 1780652552
I0509 17:24:15.921372 120027 layer_factory.hpp:77] Creating layer inception_5b/relu_5x5
I0509 17:24:15.921377 120027 net.cpp:84] Creating Layer inception_5b/relu_5x5
I0509 17:24:15.921380 120027 net.cpp:406] inception_5b/relu_5x5 <- inception_5b/5x5
I0509 17:24:15.921386 120027 net.cpp:367] inception_5b/relu_5x5 -> inception_5b/5x5 (in-place)
I0509 17:24:15.921389 120027 net.cpp:122] Setting up inception_5b/relu_5x5
I0509 17:24:15.921393 120027 net.cpp:129] Top shape: 32 128 7 7 (200704)
I0509 17:24:15.921396 120027 net.cpp:137] Memory required for data: 1781455368
I0509 17:24:15.921398 120027 layer_factory.hpp:77] Creating layer inception_5b/pool
I0509 17:24:15.921406 120027 net.cpp:84] Creating Layer inception_5b/pool
I0509 17:24:15.921409 120027 net.cpp:406] inception_5b/pool <- inception_5a/output_inception_5a/output_0_split_3
I0509 17:24:15.921422 120027 net.cpp:380] inception_5b/pool -> inception_5b/pool
I0509 17:24:15.921427 120027 net.cpp:122] Setting up inception_5b/pool
I0509 17:24:15.921432 120027 net.cpp:129] Top shape: 32 832 7 7 (1304576)
I0509 17:24:15.921434 120027 net.cpp:137] Memory required for data: 1786673672
I0509 17:24:15.921437 120027 layer_factory.hpp:77] Creating layer inception_5b/pool_proj
I0509 17:24:15.921443 120027 net.cpp:84] Creating Layer inception_5b/pool_proj
I0509 17:24:15.921447 120027 net.cpp:406] inception_5b/pool_proj <- inception_5b/pool
I0509 17:24:15.921453 120027 net.cpp:380] inception_5b/pool_proj -> inception_5b/pool_proj
I0509 17:24:15.921459 120027 base_conv_layer.cpp:121] Group is 1channel is832number of output is 128
I0509 17:24:15.922097 120027 net.cpp:122] Setting up inception_5b/pool_proj
I0509 17:24:15.922102 120027 net.cpp:129] Top shape: 32 128 7 7 (200704)
I0509 17:24:15.922106 120027 net.cpp:137] Memory required for data: 1787476488
I0509 17:24:15.922109 120027 layer_factory.hpp:77] Creating layer inception_5b/relu_pool_proj
I0509 17:24:15.922114 120027 net.cpp:84] Creating Layer inception_5b/relu_pool_proj
I0509 17:24:15.922116 120027 net.cpp:406] inception_5b/relu_pool_proj <- inception_5b/pool_proj
I0509 17:24:15.922122 120027 net.cpp:367] inception_5b/relu_pool_proj -> inception_5b/pool_proj (in-place)
I0509 17:24:15.922125 120027 net.cpp:122] Setting up inception_5b/relu_pool_proj
I0509 17:24:15.922129 120027 net.cpp:129] Top shape: 32 128 7 7 (200704)
I0509 17:24:15.922132 120027 net.cpp:137] Memory required for data: 1788279304
I0509 17:24:15.922135 120027 layer_factory.hpp:77] Creating layer inception_5b/output
I0509 17:24:15.922142 120027 net.cpp:84] Creating Layer inception_5b/output
I0509 17:24:15.922143 120027 net.cpp:406] inception_5b/output <- inception_5b/1x1
I0509 17:24:15.922147 120027 net.cpp:406] inception_5b/output <- inception_5b/3x3
I0509 17:24:15.922152 120027 net.cpp:406] inception_5b/output <- inception_5b/5x5
I0509 17:24:15.922154 120027 net.cpp:406] inception_5b/output <- inception_5b/pool_proj
I0509 17:24:15.922158 120027 net.cpp:380] inception_5b/output -> inception_5b/output
I0509 17:24:15.922164 120027 net.cpp:122] Setting up inception_5b/output
I0509 17:24:15.922170 120027 net.cpp:129] Top shape: 32 1024 7 7 (1605632)
I0509 17:24:15.922173 120027 net.cpp:137] Memory required for data: 1794701832
I0509 17:24:15.922175 120027 layer_factory.hpp:77] Creating layer pool5/7x7_s1
I0509 17:24:15.922179 120027 net.cpp:84] Creating Layer pool5/7x7_s1
I0509 17:24:15.922183 120027 net.cpp:406] pool5/7x7_s1 <- inception_5b/output
I0509 17:24:15.922186 120027 net.cpp:380] pool5/7x7_s1 -> pool5/7x7_s1
I0509 17:24:15.922193 120027 net.cpp:122] Setting up pool5/7x7_s1
I0509 17:24:15.922195 120027 net.cpp:129] Top shape: 32 1024 1 1 (32768)
I0509 17:24:15.922199 120027 net.cpp:137] Memory required for data: 1794832904
I0509 17:24:15.922201 120027 layer_factory.hpp:77] Creating layer pool5/drop_7x7_s1
I0509 17:24:15.922207 120027 net.cpp:84] Creating Layer pool5/drop_7x7_s1
I0509 17:24:15.922210 120027 net.cpp:406] pool5/drop_7x7_s1 <- pool5/7x7_s1
I0509 17:24:15.922214 120027 net.cpp:367] pool5/drop_7x7_s1 -> pool5/7x7_s1 (in-place)
I0509 17:24:15.922220 120027 net.cpp:122] Setting up pool5/drop_7x7_s1
I0509 17:24:15.922224 120027 net.cpp:129] Top shape: 32 1024 1 1 (32768)
I0509 17:24:15.922226 120027 net.cpp:137] Memory required for data: 1794963976
I0509 17:24:15.922230 120027 layer_factory.hpp:77] Creating layer loss3/classifier
I0509 17:24:15.922235 120027 net.cpp:84] Creating Layer loss3/classifier
I0509 17:24:15.922237 120027 net.cpp:406] loss3/classifier <- pool5/7x7_s1
I0509 17:24:15.922242 120027 net.cpp:380] loss3/classifier -> loss3/classifier
I0509 17:24:15.927886 120027 net.cpp:122] Setting up loss3/classifier
I0509 17:24:15.927896 120027 net.cpp:129] Top shape: 32 1000 (32000)
I0509 17:24:15.927899 120027 net.cpp:137] Memory required for data: 1795091976
I0509 17:24:15.927904 120027 layer_factory.hpp:77] Creating layer loss3/loss3
I0509 17:24:15.927917 120027 net.cpp:84] Creating Layer loss3/loss3
I0509 17:24:15.927919 120027 net.cpp:406] loss3/loss3 <- loss3/classifier
I0509 17:24:15.927923 120027 net.cpp:406] loss3/loss3 <- label_data_1_split_2
I0509 17:24:15.927927 120027 net.cpp:380] loss3/loss3 -> loss3/loss3
…
