…
I0509 17:16:55.995193 119981 net.cpp:294] The NetState phase (0) differed from the phase (1) specified by a rule in layer loss3/top-5
I0509 17:16:55.996673 119981 net.cpp:51] Initializing net from parameters: 
name: "GoogleNet"
state {
  phase: TRAIN
  level: 0
  stage: ""
}
layer {
  name: "data"
  type: "Data"
  top: "data"
  top: "label"
  include {
    phase: TRAIN
  }
  transform_param {
    mirror: true
    crop_size: 224
    mean_value: 104
    mean_value: 117
    mean_value: 123
  }
  data_param {
    source: "examples/imagenet/ilsvrc12_train_lmdb"
    batch_size: 32
    backend: LMDB
  }
}
layer {
  name: "conv1/7x7_s2"
  type: "Convolution"
  bottom: "data"
  top: "conv1/7x7_s2"
  param {
    lr_mult: 1
    decay_mult: 1
  }
  param {
    lr_mult: 2
    decay_mult: 0
  }
  convolution_param {
    num_output: 64
    pad: 3
    kernel_size: 7
    stride: 2
    weight_filler {
      type: "xavier"
    }
    bias_filler {
      type: "constant"
      value: 0.2
    }
  }
}
layer {
  name: "conv1/relu_7x7"
  type: "ReLU"
  bottom: "conv1/7x7_s2"
  top: "conv1/7x7_s2"
}
layer {
  name: "pool1/3x3_s2"
  type: "Pooling"
  bottom: "conv1/7x7_s2"
  top: "pool1/3x3_s2"
  pooling_param {
    pool: MAX
    kernel_size: 3
    stride: 2
  }
}
layer {
  name: "pool1/norm1"
  type: "LRN"
  bottom: "pool1/3x3_s2"
  top: "pool1/norm1"
  lrn_param {
    local_size: 5
    alpha: 0.0001
    beta: 0.75
  }
}
layer {
  name: "conv2/3x3_reduce"
  type: "Convolution"
  bottom: "pool1/norm1"
  top: "conv2/3x3_reduce"
  param {
    lr_mult: 1
    decay_mult: 1
  }
  param {
    lr_mult: 2
    decay_mult: 0
  }
  convolution_param {
    num_output: 64
    kernel_size: 1
    weight_filler {
      type: "xavier"
    }
    bias_filler {
      type: "constant"
      value: 0.2
    }
  }
}
layer {
  name: "conv2/relu_3x3_reduce"
  type: "ReLU"
  bottom: "conv2/3x3_reduce"
  top: "conv2/3x3_reduce"
}
layer {
  name: "conv2/3x3"
  type: "Convolution"
  bottom: "conv2/3x3_reduce"
  top: "conv2/3x3"
  param {
    lr_mult: 1
    decay_mult: 1
  }
  param {
    lr_mult: 2
    decay_mult: 0
  }
  convolution_param {
    num_output: 192
    pad: 1
    kernel_size: 3
    weight_filler {
      type: "xavier"
    }
    bias_filler {
      type: "constant"
      value: 0.2
    }
  }
}
layer {
  name: "conv2/relu_3x3"
  type: "ReLU"
  bottom: "conv2/3x3"
  top: "conv2/3x3"
}
layer {
  name: "conv2/norm2"
  type: "LRN"
  bottom: "conv2/3x3"
  top: "conv2/norm2"
  lrn_param {
    local_size: 5
    alpha: 0.0001
    beta: 0.75
  }
}
layer {
  name: "pool2/3x3_s2"
  type: "Pooling"
  bottom: "conv2/norm2"
  top: "pool2/3x3_s2"
  pooling_param {
    pool: MAX
    kernel_size: 3
    stride: 2
  }
}
layer {
  name: "inception_3a/1x1"
  type: "Convolution"
  bottom: "pool2/3x3_s2"
  top: "inception_3a/1x1"
  param {
    lr_mult: 1
    decay_mult: 1
  }
  param {
    lr_mult: 2
    decay_mult: 0
  }
  convolution_param {
    num_output: 64
    kernel_size: 1
    weight_filler {
      type: "xavier"
    }
    bias_filler {
      type: "constant"
      value: 0.2
    }
  }
}
layer {
  name: "inception_3a/relu_1x1"
  type: "ReLU"
  bottom: "inception_3a/1x1"
  top: "inception_3a/1x1"
}
layer {
  name: "inception_3a/3x3_reduce"
  type: "Convolution"
  bottom: "pool2/3x3_s2"
  top: "inception_3a/3x3_reduce"
  param {
    lr_mult: 1
    decay_mult: 1
  }
  param {
    lr_mult: 2
    decay_mult: 0
  }
  convolution_param {
    num_output: 96
    kernel_size: 1
    weight_filler {
      type: "xavier"
    }
    bias_filler {
      type: "constant"
      value: 0.2
    }
  }
}
layer {
  name: "inception_3a/relu_3x3_reduce"
  type: "ReLU"
  bottom: "inception_3a/3x3_reduce"
  top: "inception_3a/3x3_reduce"
}
layer {
  name: "inception_3a/3x3"
  type: "Convolution"
  bottom: "inception_3a/3x3_reduce"
  top: "inception_3a/3x3"
  param {
    lr_mult: 1
    decay_mult: 1
  }
  param {
    lr_mult: 2
    decay_mult: 0
  }
  convolution_param {
    num_output: 128
    pad: 1
    kernel_size: 3
    weight_filler {
      type: "xavier"
    }
    bias_filler {
      type: "constant"
      value: 0.2
    }
  }
}
layer {
  name: "inception_3a/relu_3x3"
  type: "ReLU"
  bottom: "inception_3a/3x3"
  top: "inception_3a/3x3"
}
layer {
  name: "inception_3a/5x5_reduce"
  type: "Convolution"
  bottom: "pool2/3x3_s2"
  top: "inception_3a/5x5_reduce"
  param {
    lr_mult: 1
    decay_mult: 1
  }
  param {
    lr_mult: 2
    decay_mult: 0
  }
  convolution_param {
    num_output: 16
    kernel_size: 1
    weight_filler {
      type: "xavier"
    }
    bias_filler {
      type: "constant"
      value: 0.2
    }
  }
}
layer {
  name: "inception_3a/relu_5x5_reduce"
  type: "ReLU"
  bottom: "inception_3a/5x5_reduce"
  top: "inception_3a/5x5_reduce"
}
layer {
  name: "inception_3a/5x5"
  type: "Convolution"
  bottom: "inception_3a/5x5_reduce"
  top: "inception_3a/5x5"
  param {
    lr_mult: 1
    decay_mult: 1
  }
  param {
    lr_mult: 2
    decay_mult: 0
  }
  convolution_param {
    num_output: 32
    pad: 2
    kernel_size: 5
    weight_filler {
      type: "xavier"
    }
    bias_filler {
      type: "constant"
      value: 0.2
    }
  }
}
layer {
  name: "inception_3a/relu_5x5"
  type: "ReLU"
  bottom: "inception_3a/5x5"
  top: "inception_3a/5x5"
}
layer {
  name: "inception_3a/pool"
  type: "Pooling"
  bottom: "pool2/3x3_s2"
  top: "inception_3a/pool"
  pooling_param {
    pool: MAX
    kernel_size: 3
    stride: 1
    pad: 1
  }
}
layer {
  name: "inception_3a/pool_proj"
  type: "Convolution"
  bottom: "inception_3a/pool"
  top: "inception_3a/pool_proj"
  param {
    lr_mult: 1
    decay_mult: 1
  }
  param {
    lr_mult: 2
    decay_mult: 0
  }
  convolution_param {
    num_output: 32
    kernel_size: 1
    weight_filler {
      type: "xavier"
    }
    bias_filler {
      type: "constant"
      value: 0.2
    }
  }
}
layer {
  name: "inception_3a/relu_pool_proj"
  type: "ReLU"
  bottom: "inception_3a/pool_proj"
  top: "inception_3a/pool_proj"
}
layer {
  name: "inception_3a/output"
  type: "Concat"
  bottom: "inception_3a/1x1"
  bottom: "inception_3a/3x3"
  bottom: "inception_3a/5x5"
  bottom: "inception_3a/pool_proj"
  top: "inception_3a/output"
}
layer {
  name: "inception_3b/1x1"
  type: "Convolution"
  bottom: "inception_3a/output"
  top: "inception_3b/1x1"
  param {
    lr_mult: 1
    decay_mult: 1
  }
  param {
    lr_mult: 2
    decay_mult: 0
  }
  convolution_param {
    num_output: 128
    kernel_size: 1
    weight_filler {
      type: "xavier"
    }
    bias_filler {
      type: "constant"
      value: 0.2
    }
  }
}
layer {
  name: "inception_3b/relu_1x1"
  type: "ReLU"
  bottom: "inception_3b/1x1"
  top: "inception_3b/1x1"
}
layer {
  name: "inception_3b/3x3_reduce"
  type: "Convolution"
  bottom: "inception_3a/output"
  top: "inception_3b/3x3_reduce"
  param {
    lr_mult: 1
    decay_mult: 1
  }
  param {
    lr_mult: 2
    decay_mult: 0
  }
  convolution_param {
    num_output: 128
    kernel_size: 1
    weight_filler {
      type: "xavier"
    }
    bias_filler {
      type: "constant"
      value: 0.2
    }
  }
}
layer {
  name: "inception_3b/relu_3x3_reduce"
  type: "ReLU"
  bottom: "inception_3b/3x3_reduce"
  top: "inception_3b/3x3_reduce"
}
layer {
  name: "inception_3b/3x3"
  type: "Convolution"
  bottom: "inception_3b/3x3_reduce"
  top: "inception_3b/3x3"
  param {
    lr_mult: 1
    decay_mult: 1
  }
  param {
    lr_mult: 2
    decay_mult: 0
  }
  convolution_param {
    num_output: 192
    pad: 1
    kernel_size: 3
    weight_filler {
      type: "xavier"
    }
    bias_filler {
      type: "constant"
      value: 0.2
    }
  }
}
layer {
  name: "inception_3b/relu_3x3"
  type: "ReLU"
  bottom: "inception_3b/3x3"
  top: "inception_3b/3x3"
}
layer {
  name: "inception_3b/5x5_reduce"
  type: "Convolution"
  bottom: "inception_3a/output"
  top: "inception_3b/5x5_reduce"
  param {
    lr_mult: 1
    decay_mult: 1
  }
  param {
    lr_mult: 2
    decay_mult: 0
  }
  convolution_param {
    num_output: 32
    kernel_size: 1
    weight_filler {
      type: "xavier"
    }
    bias_filler {
      type: "constant"
      value: 0.2
    }
  }
}
layer {
  name: "inception_3b/relu_5x5_reduce"
  type: "ReLU"
  bottom: "inception_3b/5x5_reduce"
  top: "inception_3b/5x5_reduce"
}
layer {
  name: "inception_3b/5x5"
  type: "Convolution"
  bottom: "inception_3b/5x5_reduce"
  top: "inception_3b/5x5"
  param {
    lr_mult: 1
    decay_mult: 1
  }
  param {
    lr_mult: 2
    decay_mult: 0
  }
  convolution_param {
    num_output: 96
    pad: 2
    kernel_size: 5
    weight_filler {
      type: "xavier"
    }
    bias_filler {
      type: "constant"
      value: 0.2
    }
  }
}
layer {
  name: "inception_3b/relu_5x5"
  type: "ReLU"
  bottom: "inception_3b/5x5"
  top: "inception_3b/5x5"
}
layer {
  name: "inception_3b/pool"
  type: "Pooling"
  bottom: "inception_3a/output"
  top: "inception_3b/pool"
  pooling_param {
    pool: MAX
    kernel_size: 3
    stride: 1
    pad: 1
  }
}
layer {
  name: "inception_3b/pool_proj"
  type: "Convolution"
  bottom: "inception_3b/pool"
  top: "inception_3b/pool_proj"
  param {
    lr_mult: 1
    decay_mult: 1
  }
  param {
    lr_mult: 2
    decay_mult: 0
  }
  convolution_param {
    num_output: 64
    kernel_size: 1
    weight_filler {
      type: "xavier"
    }
    bias_filler {
      type: "constant"
      value: 0.2
    }
  }
}
layer {
  name: "inception_3b/relu_pool_proj"
  type: "ReLU"
  bottom: "inception_3b/pool_proj"
  top: "inception_3b/pool_proj"
}
layer {
  name: "inception_3b/output"
  type: "Concat"
  bottom: "inception_3b/1x1"
  bottom: "inception_3b/3x3"
  bottom: "inception_3b/5x5"
  bottom: "inception_3b/pool_proj"
  top: "inception_3b/output"
}
layer {
  name: "pool3/3x3_s2"
  type: "Pooling"
  bottom: "inception_3b/output"
  top: "pool3/3x3_s2"
  pooling_param {
    pool: MAX
    kernel_size: 3
    stride: 2
  }
}
layer {
  name: "inception_4a/1x1"
  type: "Convolution"
  bottom: "pool3/3x3_s2"
  top: "inception_4a/1x1"
  param {
    lr_mult: 1
    decay_mult: 1
  }
  param {
    lr_mult: 2
    decay_mult: 0
  }
  convolution_param {
    num_output: 192
    kernel_size: 1
    weight_filler {
      type: "xavier"
    }
    bias_filler {
      type: "constant"
      value: 0.2
    }
  }
}
layer {
  name: "inception_4a/relu_1x1"
  type: "ReLU"
  bottom: "inception_4a/1x1"
  top: "inception_4a/1x1"
}
layer {
  name: "inception_4a/3x3_reduce"
  type: "Convolution"
  bottom: "pool3/3x3_s2"
  top: "inception_4a/3x3_reduce"
  param {
    lr_mult: 1
    decay_mult: 1
  }
  param {
    lr_mult: 2
    decay_mult: 0
  }
  convolution_param {
    num_output: 96
    kernel_size: 1
    weight_filler {
      type: "xavier"
    }
    bias_filler {
      type: "constant"
      value: 0.2
    }
  }
}
layer {
  name: "inception_4a/relu_3x3_reduce"
  type: "ReLU"
  bottom: "inception_4a/3x3_reduce"
  top: "inception_4a/3x3_reduce"
}
layer {
  name: "inception_4a/3x3"
  type: "Convolution"
  bottom: "inception_4a/3x3_reduce"
  top: "inception_4a/3x3"
  param {
    lr_mult: 1
    decay_mult: 1
  }
  param {
    lr_mult: 2
    decay_mult: 0
  }
  convolution_param {
    num_output: 208
    pad: 1
    kernel_size: 3
    weight_filler {
      type: "xavier"
    }
    bias_filler {
      type: "constant"
      value: 0.2
    }
  }
}
layer {
  name: "inception_4a/relu_3x3"
  type: "ReLU"
  bottom: "inception_4a/3x3"
  top: "inception_4a/3x3"
}
layer {
  name: "inception_4a/5x5_reduce"
  type: "Convolution"
  bottom: "pool3/3x3_s2"
  top: "inception_4a/5x5_reduce"
  param {
    lr_mult: 1
    decay_mult: 1
  }
  param {
    lr_mult: 2
    decay_mult: 0
  }
  convolution_param {
    num_output: 16
    kernel_size: 1
    weight_filler {
      type: "xavier"
    }
    bias_filler {
      type: "constant"
      value: 0.2
    }
  }
}
layer {
  name: "inception_4a/relu_5x5_reduce"
  type: "ReLU"
  bottom: "inception_4a/5x5_reduce"
  top: "inception_4a/5x5_reduce"
}
layer {
  name: "inception_4a/5x5"
  type: "Convolution"
  bottom: "inception_4a/5x5_reduce"
  top: "inception_4a/5x5"
  param {
    lr_mult: 1
    decay_mult: 1
  }
  param {
    lr_mult: 2
    decay_mult: 0
  }
  convolution_param {
    num_output: 48
    pad: 2
    kernel_size: 5
    weight_filler {
      type: "xavier"
    }
    bias_filler {
      type: "constant"
      value: 0.2
    }
  }
}
layer {
  name: "inception_4a/relu_5x5"
  type: "ReLU"
  bottom: "inception_4a/5x5"
  top: "inception_4a/5x5"
}
layer {
  name: "inception_4a/pool"
  type: "Pooling"
  bottom: "pool3/3x3_s2"
  top: "inception_4a/pool"
  pooling_param {
    pool: MAX
    kernel_size: 3
    stride: 1
    pad: 1
  }
}
layer {
  name: "inception_4a/pool_proj"
  type: "Convolution"
  bottom: "inception_4a/pool"
  top: "inception_4a/pool_proj"
  param {
    lr_mult: 1
    decay_mult: 1
  }
  param {
    lr_mult: 2
    decay_mult: 0
  }
  convolution_param {
    num_output: 64
    kernel_size: 1
    weight_filler {
      type: "xavier"
    }
    bias_filler {
      type: "constant"
      value: 0.2
    }
  }
}
layer {
  name: "inception_4a/relu_pool_proj"
  type: "ReLU"
  bottom: "inception_4a/pool_proj"
  top: "inception_4a/pool_proj"
}
layer {
  name: "inception_4a/output"
  type: "Concat"
  bottom: "inception_4a/1x1"
  bottom: "inception_4a/3x3"
  bottom: "inception_4a/5x5"
  bottom: "inception_4a/pool_proj"
  top: "inception_4a/output"
}
layer {
  name: "loss1/ave_pool"
  type: "Pooling"
  bottom: "inception_4a/output"
  top: "loss1/ave_pool"
  pooling_param {
    pool: AVE
    kernel_size: 5
    stride: 3
  }
}
layer {
  name: "loss1/conv"
  type: "Convolution"
  bottom: "loss1/ave_pool"
  top: "loss1/conv"
  param {
    lr_mult: 1
    decay_mult: 1
  }
  param {
    lr_mult: 2
    decay_mult: 0
  }
  convolution_param {
    num_output: 128
    kernel_size: 1
    weight_filler {
      type: "xavier"
    }
    bias_filler {
      type: "constant"
      value: 0.2
    }
  }
}
layer {
  name: "loss1/relu_conv"
  type: "ReLU"
  bottom: "loss1/conv"
  top: "loss1/conv"
}
layer {
  name: "loss1/fc"
  type: "InnerProduct"
  bottom: "loss1/conv"
  top: "loss1/fc"
  param {
    lr_mult: 1
    decay_mult: 1
  }
  param {
    lr_mult: 2
    decay_mult: 0
  }
  inner_product_param {
    num_output: 1024
    weight_filler {
      type: "xavier"
    }
    bias_filler {
      type: "constant"
      value: 0.2
    }
  }
}
layer {
  name: "loss1/relu_fc"
  type: "ReLU"
  bottom: "loss1/fc"
  top: "loss1/fc"
}
layer {
  name: "loss1/drop_fc"
  type: "Dropout"
  bottom: "loss1/fc"
  top: "loss1/fc"
  dropout_param {
    dropout_ratio: 0.7
  }
}
layer {
  name: "loss1/classifier"
  type: "InnerProduct"
  bottom: "loss1/fc"
  top: "loss1/classifier"
  param {
    lr_mult: 1
    decay_mult: 1
  }
  param {
    lr_mult: 2
    decay_mult: 0
  }
  inner_product_param {
    num_output: 1000
    weight_filler {
      type: "xavier"
    }
    bias_filler {
      type: "constant"
      value: 0
    }
  }
}
layer {
  name: "loss1/loss"
  type: "SoftmaxWithLoss"
  bottom: "loss1/classifier"
  bottom: "label"
  top: "loss1/loss1"
  loss_weight: 0.3
}
layer {
  name: "inception_4b/1x1"
  type: "Convolution"
  bottom: "inception_4a/output"
  top: "inception_4b/1x1"
  param {
    lr_mult: 1
    decay_mult: 1
  }
  param {
    lr_mult: 2
    decay_mult: 0
  }
  convolution_param {
    num_output: 160
    kernel_size: 1
    weight_filler {
      type: "xavier"
    }
    bias_filler {
      type: "constant"
      value: 0.2
    }
  }
}
layer {
  name: "inception_4b/relu_1x1"
  type: "ReLU"
  bottom: "inception_4b/1x1"
  top: "inception_4b/1x1"
}
layer {
  name: "inception_4b/3x3_reduce"
  type: "Convolution"
  bottom: "inception_4a/output"
  top: "inception_4b/3x3_reduce"
  param {
    lr_mult: 1
    decay_mult: 1
  }
  param {
    lr_mult: 2
    decay_mult: 0
  }
  convolution_param {
    num_output: 112
    kernel_size: 1
    weight_filler {
      type: "xavier"
    }
    bias_filler {
      type: "constant"
      value: 0.2
    }
  }
}
layer {
  name: "inception_4b/relu_3x3_reduce"
  type: "ReLU"
  bottom: "inception_4b/3x3_reduce"
  top: "inception_4b/3x3_reduce"
}
layer {
  name: "inception_4b/3x3"
  type: "Convolution"
  bottom: "inception_4b/3x3_reduce"
  top: "inception_4b/3x3"
  param {
    lr_mult: 1
    decay_mult: 1
  }
  param {
    lr_mult: 2
    decay_mult: 0
  }
  convolution_param {
    num_output: 224
    pad: 1
    kernel_size: 3
    weight_filler {
      type: "xavier"
    }
    bias_filler {
      type: "constant"
      value: 0.2
    }
  }
}
layer {
  name: "inception_4b/relu_3x3"
  type: "ReLU"
  bottom: "inception_4b/3x3"
  top: "inception_4b/3x3"
}
layer {
  name: "inception_4b/5x5_reduce"
  type: "Convolution"
  bottom: "inception_4a/output"
  top: "inception_4b/5x5_reduce"
  param {
    lr_mult: 1
    decay_mult: 1
  }
  param {
    lr_mult: 2
    decay_mult: 0
  }
  convolution_param {
    num_output: 24
    kernel_size: 1
    weight_filler {
      type: "xavier"
    }
    bias_filler {
      type: "constant"
      value: 0.2
    }
  }
}
layer {
  name: "inception_4b/relu_5x5_reduce"
  type: "ReLU"
  bottom: "inception_4b/5x5_reduce"
  top: "inception_4b/5x5_reduce"
}
layer {
  name: "inception_4b/5x5"
  type: "Convolution"
  bottom: "inception_4b/5x5_reduce"
  top: "inception_4b/5x5"
  param {
    lr_mult: 1
    decay_mult: 1
  }
  param {
    lr_mult: 2
    decay_mult: 0
  }
  convolution_param {
    num_output: 64
    pad: 2
    kernel_size: 5
    weight_filler {
      type: "xavier"
    }
    bias_filler {
      type: "constant"
      value: 0.2
    }
  }
}
layer {
  name: "inception_4b/relu_5x5"
  type: "ReLU"
  bottom: "inception_4b/5x5"
  top: "inception_4b/5x5"
}
layer {
  name: "inception_4b/pool"
  type: "Pooling"
  bottom: "inception_4a/output"
  top: "inception_4b/pool"
  pooling_param {
    pool: MAX
    kernel_size: 3
    stride: 1
    pad: 1
  }
}
layer {
  name: "inception_4b/pool_proj"
  type: "Convolution"
  bottom: "inception_4b/pool"
  top: "inception_4b/pool_proj"
  param {
    lr_mult: 1
    decay_mult: 1
  }
  param {
    lr_mult: 2
    decay_mult: 0
  }
  convolution_param {
    num_output: 64
    kernel_size: 1
    weight_filler {
      type: "xavier"
    }
    bias_filler {
      type: "constant"
      value: 0.2
    }
  }
}
layer {
  name: "inception_4b/relu_pool_proj"
  type: "ReLU"
  bottom: "inception_4b/pool_proj"
  top: "inception_4b/pool_proj"
}
layer {
  name: "inception_4b/output"
  type: "Concat"
  bottom: "inception_4b/1x1"
  bottom: "inception_4b/3x3"
  bottom: "inception_4b/5x5"
  bottom: "inception_4b/pool_proj"
  top: "inception_4b/output"
}
layer {
  name: "inception_4c/1x1"
  type: "Convolution"
  bottom: "inception_4b/output"
  top: "inception_4c/1x1"
  param {
    lr_mult: 1
    decay_mult: 1
  }
  param {
    lr_mult: 2
    decay_mult: 0
  }
  convolution_param {
    num_output: 128
    kernel_size: 1
    weight_filler {
      type: "xavier"
    }
    bias_filler {
      type: "constant"
      value: 0.2
    }
  }
}
layer {
  name: "inception_4c/relu_1x1"
  type: "ReLU"
  bottom: "inception_4c/1x1"
  top: "inception_4c/1x1"
}
layer {
  name: "inception_4c/3x3_reduce"
  type: "Convolution"
  bottom: "inception_4b/output"
  top: "inception_4c/3x3_reduce"
  param {
    lr_mult: 1
    decay_mult: 1
  }
  param {
    lr_mult: 2
    decay_mult: 0
  }
  convolution_param {
    num_output: 128
    kernel_size: 1
    weight_filler {
      type: "xavier"
    }
    bias_filler {
      type: "constant"
      value: 0.2
    }
  }
}
layer {
  name: "inception_4c/relu_3x3_reduce"
  type: "ReLU"
  bottom: "inception_4c/3x3_reduce"
  top: "inception_4c/3x3_reduce"
}
layer {
  name: "inception_4c/3x3"
  type: "Convolution"
  bottom: "inception_4c/3x3_reduce"
  top: "inception_4c/3x3"
  param {
    lr_mult: 1
    decay_mult: 1
  }
  param {
    lr_mult: 2
    decay_mult: 0
  }
  convolution_param {
    num_output: 256
    pad: 1
    kernel_size: 3
    weight_filler {
      type: "xavier"
    }
    bias_filler {
      type: "constant"
      value: 0.2
    }
  }
}
layer {
  name: "inception_4c/relu_3x3"
  type: "ReLU"
  bottom: "inception_4c/3x3"
  top: "inception_4c/3x3"
}
layer {
  name: "inception_4c/5x5_reduce"
  type: "Convolution"
  bottom: "inception_4b/output"
  top: "inception_4c/5x5_reduce"
  param {
    lr_mult: 1
    decay_mult: 1
  }
  param {
    lr_mult: 2
    decay_mult: 0
  }
  convolution_param {
    num_output: 24
    kernel_size: 1
    weight_filler {
      type: "xavier"
    }
    bias_filler {
      type: "constant"
      value: 0.2
    }
  }
}
layer {
  name: "inception_4c/relu_5x5_reduce"
  type: "ReLU"
  bottom: "inception_4c/5x5_reduce"
  top: "inception_4c/5x5_reduce"
}
layer {
  name: "inception_4c/5x5"
  type: "Convolution"
  bottom: "inception_4c/5x5_reduce"
  top: "inception_4c/5x5"
  param {
    lr_mult: 1
    decay_mult: 1
  }
  param {
    lr_mult: 2
    decay_mult: 0
  }
  convolution_param {
    num_output: 64
    pad: 2
    kernel_size: 5
    weight_filler {
      type: "xavier"
    }
    bias_filler {
      type: "constant"
      value: 0.2
    }
  }
}
layer {
  name: "inception_4c/relu_5x5"
  type: "ReLU"
  bottom: "inception_4c/5x5"
  top: "inception_4c/5x5"
}
layer {
  name: "inception_4c/pool"
  type: "Pooling"
  bottom: "inception_4b/output"
  top: "inception_4c/pool"
  pooling_param {
    pool: MAX
    kernel_size: 3
    stride: 1
    pad: 1
  }
}
layer {
  name: "inception_4c/pool_proj"
  type: "Convolution"
  bottom: "inception_4c/pool"
  top: "inception_4c/pool_proj"
  param {
    lr_mult: 1
    decay_mult: 1
  }
  param {
    lr_mult: 2
    decay_mult: 0
  }
  convolution_param {
    num_output: 64
    kernel_size: 1
    weight_filler {
      type: "xavier"
    }
    bias_filler {
      type: "constant"
      value: 0.2
    }
  }
}
layer {
  name: "inception_4c/relu_pool_proj"
  type: "ReLU"
  bottom: "inception_4c/pool_proj"
  top: "inception_4c/pool_proj"
}
layer {
  name: "inception_4c/output"
  type: "Concat"
  bottom: "inception_4c/1x1"
  bottom: "inception_4c/3x3"
  bottom: "inception_4c/5x5"
  bottom: "inception_4c/pool_proj"
  top: "inception_4c/output"
}
layer {
  name: "inception_4d/1x1"
  type: "Convolution"
  bottom: "inception_4c/output"
  top: "inception_4d/1x1"
  param {
    lr_mult: 1
    decay_mult: 1
  }
  param {
    lr_mult: 2
    decay_mult: 0
  }
  convolution_param {
    num_output: 112
    kernel_size: 1
    weight_filler {
      type: "xavier"
    }
    bias_filler {
      type: "constant"
      value: 0.2
    }
  }
}
layer {
  name: "inception_4d/relu_1x1"
  type: "ReLU"
  bottom: "inception_4d/1x1"
  top: "inception_4d/1x1"
}
layer {
  name: "inception_4d/3x3_reduce"
  type: "Convolution"
  bottom: "inception_4c/output"
  top: "inception_4d/3x3_reduce"
  param {
    lr_mult: 1
    decay_mult: 1
  }
  param {
    lr_mult: 2
    decay_mult: 0
  }
  convolution_param {
    num_output: 144
    kernel_size: 1
    weight_filler {
      type: "xavier"
    }
    bias_filler {
      type: "constant"
      value: 0.2
    }
  }
}
layer {
  name: "inception_4d/relu_3x3_reduce"
  type: "ReLU"
  bottom: "inception_4d/3x3_reduce"
  top: "inception_4d/3x3_reduce"
}
layer {
  name: "inception_4d/3x3"
  type: "Convolution"
  bottom: "inception_4d/3x3_reduce"
  top: "inception_4d/3x3"
  param {
    lr_mult: 1
    decay_mult: 1
  }
  param {
    lr_mult: 2
    decay_mult: 0
  }
  convolution_param {
    num_output: 288
    pad: 1
    kernel_size: 3
    weight_filler {
      type: "xavier"
    }
    bias_filler {
      type: "constant"
      value: 0.2
    }
  }
}
layer {
  name: "inception_4d/relu_3x3"
  type: "ReLU"
  bottom: "inception_4d/3x3"
  top: "inception_4d/3x3"
}
layer {
  name: "inception_4d/5x5_reduce"
  type: "Convolution"
  bottom: "inception_4c/output"
  top: "inception_4d/5x5_reduce"
  param {
    lr_mult: 1
    decay_mult: 1
  }
  param {
    lr_mult: 2
    decay_mult: 0
  }
  convolution_param {
    num_output: 32
    kernel_size: 1
    weight_filler {
      type: "xavier"
    }
    bias_filler {
      type: "constant"
      value: 0.2
    }
  }
}
layer {
  name: "inception_4d/relu_5x5_reduce"
  type: "ReLU"
  bottom: "inception_4d/5x5_reduce"
  top: "inception_4d/5x5_reduce"
}
layer {
  name: "inception_4d/5x5"
  type: "Convolution"
  bottom: "inception_4d/5x5_reduce"
  top: "inception_4d/5x5"
  param {
    lr_mult: 1
    decay_mult: 1
  }
  param {
    lr_mult: 2
    decay_mult: 0
  }
  convolution_param {
    num_output: 64
    pad: 2
    kernel_size: 5
    weight_filler {
      type: "xavier"
    }
    bias_filler {
      type: "constant"
      value: 0.2
    }
  }
}
layer {
  name: "inception_4d/relu_5x5"
  type: "ReLU"
  bottom: "inception_4d/5x5"
  top: "inception_4d/5x5"
}
layer {
  name: "inception_4d/pool"
  type: "Pooling"
  bottom: "inception_4c/output"
  top: "inception_4d/pool"
  pooling_param {
    pool: MAX
    kernel_size: 3
    stride: 1
    pad: 1
  }
}
layer {
  name: "inception_4d/pool_proj"
  type: "Convolution"
  bottom: "inception_4d/pool"
  top: "inception_4d/pool_proj"
  param {
    lr_mult: 1
    decay_mult: 1
  }
  param {
    lr_mult: 2
    decay_mult: 0
  }
  convolution_param {
    num_output: 64
    kernel_size: 1
    weight_filler {
      type: "xavier"
    }
    bias_filler {
      type: "constant"
      value: 0.2
    }
  }
}
layer {
  name: "inception_4d/relu_pool_proj"
  type: "ReLU"
  bottom: "inception_4d/pool_proj"
  top: "inception_4d/pool_proj"
}
layer {
  name: "inception_4d/output"
  type: "Concat"
  bottom: "inception_4d/1x1"
  bottom: "inception_4d/3x3"
  bottom: "inception_4d/5x5"
  bottom: "inception_4d/pool_proj"
  top: "inception_4d/output"
}
layer {
  name: "loss2/ave_pool"
  type: "Pooling"
  bottom: "inception_4d/output"
  top: "loss2/ave_pool"
  pooling_param {
    pool: AVE
    kernel_size: 5
    stride: 3
  }
}
layer {
  name: "loss2/conv"
  type: "Convolution"
  bottom: "loss2/ave_pool"
  top: "loss2/conv"
  param {
    lr_mult: 1
    decay_mult: 1
  }
  param {
    lr_mult: 2
    decay_mult: 0
  }
  convolution_param {
    num_output: 128
    kernel_size: 1
    weight_filler {
      type: "xavier"
    }
    bias_filler {
      type: "constant"
      value: 0.2
    }
  }
}
layer {
  name: "loss2/relu_conv"
  type: "ReLU"
  bottom: "loss2/conv"
  top: "loss2/conv"
}
layer {
  name: "loss2/fc"
  type: "InnerProduct"
  bottom: "loss2/conv"
  top: "loss2/fc"
  param {
    lr_mult: 1
    decay_mult: 1
  }
  param {
    lr_mult: 2
    decay_mult: 0
  }
  inner_product_param {
    num_output: 1024
    weight_filler {
      type: "xavier"
    }
    bias_filler {
      type: "constant"
      value: 0.2
    }
  }
}
layer {
  name: "loss2/relu_fc"
  type: "ReLU"
  bottom: "loss2/fc"
  top: "loss2/fc"
}
layer {
  name: "loss2/drop_fc"
  type: "Dropout"
  bottom: "loss2/fc"
  top: "loss2/fc"
  dropout_param {
    dropout_ratio: 0.7
  }
}
layer {
  name: "loss2/classifier"
  type: "InnerProduct"
  bottom: "loss2/fc"
  top: "loss2/classifier"
  param {
    lr_mult: 1
    decay_mult: 1
  }
  param {
    lr_mult: 2
    decay_mult: 0
  }
  inner_product_param {
    num_output: 1000
    weight_filler {
      type: "xavier"
    }
    bias_filler {
      type: "constant"
      value: 0
    }
  }
}
layer {
  name: "loss2/loss"
  type: "SoftmaxWithLoss"
  bottom: "loss2/classifier"
  bottom: "label"
  top: "loss2/loss2"
  loss_weight: 0.3
}
layer {
  name: "inception_4e/1x1"
  type: "Convolution"
  bottom: "inception_4d/output"
  top: "inception_4e/1x1"
  param {
    lr_mult: 1
    decay_mult: 1
  }
  param {
    lr_mult: 2
    decay_mult: 0
  }
  convolution_param {
    num_output: 256
    kernel_size: 1
    weight_filler {
      type: "xavier"
    }
    bias_filler {
      type: "constant"
      value: 0.2
    }
  }
}
layer {
  name: "inception_4e/relu_1x1"
  type: "ReLU"
  bottom: "inception_4e/1x1"
  top: "inception_4e/1x1"
}
layer {
  name: "inception_4e/3x3_reduce"
  type: "Convolution"
  bottom: "inception_4d/output"
  top: "inception_4e/3x3_reduce"
  param {
    lr_mult: 1
    decay_mult: 1
  }
  param {
    lr_mult: 2
    decay_mult: 0
  }
  convolution_param {
    num_output: 160
    kernel_size: 1
    weight_filler {
      type: "xavier"
    }
    bias_filler {
      type: "constant"
      value: 0.2
    }
  }
}
layer {
  name: "inception_4e/relu_3x3_reduce"
  type: "ReLU"
  bottom: "inception_4e/3x3_reduce"
  top: "inception_4e/3x3_reduce"
}
layer {
  name: "inception_4e/3x3"
  type: "Convolution"
  bottom: "inception_4e/3x3_reduce"
  top: "inception_4e/3x3"
  param {
    lr_mult: 1
    decay_mult: 1
  }
  param {
    lr_mult: 2
    decay_mult: 0
  }
  convolution_param {
    num_output: 320
    pad: 1
    kernel_size: 3
    weight_filler {
      type: "xavier"
    }
    bias_filler {
      type: "constant"
      value: 0.2
    }
  }
}
layer {
  name: "inception_4e/relu_3x3"
  type: "ReLU"
  bottom: "inception_4e/3x3"
  top: "inception_4e/3x3"
}
layer {
  name: "inception_4e/5x5_reduce"
  type: "Convolution"
  bottom: "inception_4d/output"
  top: "inception_4e/5x5_reduce"
  param {
    lr_mult: 1
    decay_mult: 1
  }
  param {
    lr_mult: 2
    decay_mult: 0
  }
  convolution_param {
    num_output: 32
    kernel_size: 1
    weight_filler {
      type: "xavier"
    }
    bias_filler {
      type: "constant"
      value: 0.2
    }
  }
}
layer {
  name: "inception_4e/relu_5x5_reduce"
  type: "ReLU"
  bottom: "inception_4e/5x5_reduce"
  top: "inception_4e/5x5_reduce"
}
layer {
  name: "inception_4e/5x5"
  type: "Convolution"
  bottom: "inception_4e/5x5_reduce"
  top: "inception_4e/5x5"
  param {
    lr_mult: 1
    decay_mult: 1
  }
  param {
    lr_mult: 2
    decay_mult: 0
  }
  convolution_param {
    num_output: 128
    pad: 2
    kernel_size: 5
    weight_filler {
      type: "xavier"
    }
    bias_filler {
      type: "constant"
      value: 0.2
    }
  }
}
layer {
  name: "inception_4e/relu_5x5"
  type: "ReLU"
  bottom: "inception_4e/5x5"
  top: "inception_4e/5x5"
}
layer {
  name: "inception_4e/pool"
  type: "Pooling"
  bottom: "inception_4d/output"
  top: "inception_4e/pool"
  pooling_param {
    pool: MAX
    kerne
I0509 17:16:55.997748 119981 layer_factory.hpp:77] Creating layer data
I0509 17:16:55.997853 119981 db_lmdb.cpp:35] Opened lmdb examples/imagenet/ilsvrc12_train_lmdb
I0509 17:16:55.997886 119981 net.cpp:84] Creating Layer data
I0509 17:16:55.997897 119981 net.cpp:380] data -> data
I0509 17:16:55.997920 119981 net.cpp:380] data -> label
I0509 17:16:55.998693 119981 data_layer.cpp:45] output data size: 32,3,224,224
I0509 17:16:55.998783 119981 net.cpp:122] Setting up data
I0509 17:16:55.998797 119981 net.cpp:129] Top shape: 32 3 224 224 (4816896)
I0509 17:16:55.998805 119981 net.cpp:129] Top shape: 32 (32)
I0509 17:16:55.998808 119981 net.cpp:137] Memory required for data: 19267712
I0509 17:16:55.998817 119981 layer_factory.hpp:77] Creating layer label_data_1_split
I0509 17:16:55.998827 119981 net.cpp:84] Creating Layer label_data_1_split
I0509 17:16:55.998834 119981 net.cpp:406] label_data_1_split <- label
I0509 17:16:55.998847 119981 net.cpp:380] label_data_1_split -> label_data_1_split_0
I0509 17:16:55.998860 119981 net.cpp:380] label_data_1_split -> label_data_1_split_1
I0509 17:16:55.998869 119981 net.cpp:380] label_data_1_split -> label_data_1_split_2
I0509 17:16:55.998881 119981 net.cpp:122] Setting up label_data_1_split
I0509 17:16:55.998898 119981 net.cpp:129] Top shape: 32 (32)
I0509 17:16:55.998911 119981 net.cpp:129] Top shape: 32 (32)
I0509 17:16:55.998917 119981 net.cpp:129] Top shape: 32 (32)
I0509 17:16:55.998921 119981 net.cpp:137] Memory required for data: 19268096
I0509 17:16:55.998926 119981 layer_factory.hpp:77] Creating layer conv1/7x7_s2
I0509 17:16:55.998944 119981 net.cpp:84] Creating Layer conv1/7x7_s2
I0509 17:16:55.998949 119981 net.cpp:406] conv1/7x7_s2 <- data
I0509 17:16:55.998958 119981 net.cpp:380] conv1/7x7_s2 -> conv1/7x7_s2
I0509 17:16:55.998975 119981 base_conv_layer.cpp:121] Group is 1channel is3number of output is 64
I0509 17:16:55.999140 119981 net.cpp:122] Setting up conv1/7x7_s2
I0509 17:16:55.999150 119981 net.cpp:129] Top shape: 32 64 112 112 (25690112)
I0509 17:16:55.999155 119981 net.cpp:137] Memory required for data: 122028544
I0509 17:16:55.999173 119981 layer_factory.hpp:77] Creating layer conv1/relu_7x7
I0509 17:16:55.999182 119981 net.cpp:84] Creating Layer conv1/relu_7x7
I0509 17:16:55.999187 119981 net.cpp:406] conv1/relu_7x7 <- conv1/7x7_s2
I0509 17:16:55.999194 119981 net.cpp:367] conv1/relu_7x7 -> conv1/7x7_s2 (in-place)
I0509 17:16:55.999202 119981 net.cpp:122] Setting up conv1/relu_7x7
I0509 17:16:55.999212 119981 net.cpp:129] Top shape: 32 64 112 112 (25690112)
I0509 17:16:55.999215 119981 net.cpp:137] Memory required for data: 224788992
I0509 17:16:55.999220 119981 layer_factory.hpp:77] Creating layer pool1/3x3_s2
I0509 17:16:55.999230 119981 net.cpp:84] Creating Layer pool1/3x3_s2
I0509 17:16:55.999236 119981 net.cpp:406] pool1/3x3_s2 <- conv1/7x7_s2
I0509 17:16:55.999243 119981 net.cpp:380] pool1/3x3_s2 -> pool1/3x3_s2
I0509 17:16:55.999261 119981 net.cpp:122] Setting up pool1/3x3_s2
I0509 17:16:55.999269 119981 net.cpp:129] Top shape: 32 64 56 56 (6422528)
I0509 17:16:55.999274 119981 net.cpp:137] Memory required for data: 250479104
I0509 17:16:55.999279 119981 layer_factory.hpp:77] Creating layer pool1/norm1
I0509 17:16:55.999285 119981 net.cpp:84] Creating Layer pool1/norm1
I0509 17:16:55.999290 119981 net.cpp:406] pool1/norm1 <- pool1/3x3_s2
I0509 17:16:55.999300 119981 net.cpp:380] pool1/norm1 -> pool1/norm1
I0509 17:16:55.999310 119981 net.cpp:122] Setting up pool1/norm1
I0509 17:16:55.999316 119981 net.cpp:129] Top shape: 32 64 56 56 (6422528)
I0509 17:16:55.999320 119981 net.cpp:137] Memory required for data: 276169216
I0509 17:16:55.999326 119981 layer_factory.hpp:77] Creating layer conv2/3x3_reduce
I0509 17:16:55.999337 119981 net.cpp:84] Creating Layer conv2/3x3_reduce
I0509 17:16:55.999342 119981 net.cpp:406] conv2/3x3_reduce <- pool1/norm1
I0509 17:16:55.999352 119981 net.cpp:380] conv2/3x3_reduce -> conv2/3x3_reduce
I0509 17:16:55.999368 119981 base_conv_layer.cpp:121] Group is 1channel is64number of output is 64
I0509 17:16:55.999428 119981 net.cpp:122] Setting up conv2/3x3_reduce
I0509 17:16:55.999438 119981 net.cpp:129] Top shape: 32 64 56 56 (6422528)
I0509 17:16:55.999441 119981 net.cpp:137] Memory required for data: 301859328
I0509 17:16:55.999454 119981 layer_factory.hpp:77] Creating layer conv2/relu_3x3_reduce
I0509 17:16:55.999461 119981 net.cpp:84] Creating Layer conv2/relu_3x3_reduce
I0509 17:16:55.999466 119981 net.cpp:406] conv2/relu_3x3_reduce <- conv2/3x3_reduce
I0509 17:16:55.999476 119981 net.cpp:367] conv2/relu_3x3_reduce -> conv2/3x3_reduce (in-place)
I0509 17:16:55.999485 119981 net.cpp:122] Setting up conv2/relu_3x3_reduce
I0509 17:16:55.999492 119981 net.cpp:129] Top shape: 32 64 56 56 (6422528)
I0509 17:16:55.999496 119981 net.cpp:137] Memory required for data: 327549440
I0509 17:16:55.999501 119981 layer_factory.hpp:77] Creating layer conv2/3x3
I0509 17:16:55.999514 119981 net.cpp:84] Creating Layer conv2/3x3
I0509 17:16:55.999519 119981 net.cpp:406] conv2/3x3 <- conv2/3x3_reduce
I0509 17:16:55.999528 119981 net.cpp:380] conv2/3x3 -> conv2/3x3
I0509 17:16:55.999541 119981 base_conv_layer.cpp:121] Group is 1channel is64number of output is 192
I0509 17:16:56.000653 119981 net.cpp:122] Setting up conv2/3x3
I0509 17:16:56.000663 119981 net.cpp:129] Top shape: 32 192 56 56 (19267584)
I0509 17:16:56.000672 119981 net.cpp:137] Memory required for data: 404619776
I0509 17:16:56.000694 119981 layer_factory.hpp:77] Creating layer conv2/relu_3x3
I0509 17:16:56.000702 119981 net.cpp:84] Creating Layer conv2/relu_3x3
I0509 17:16:56.000707 119981 net.cpp:406] conv2/relu_3x3 <- conv2/3x3
I0509 17:16:56.000715 119981 net.cpp:367] conv2/relu_3x3 -> conv2/3x3 (in-place)
I0509 17:16:56.000721 119981 net.cpp:122] Setting up conv2/relu_3x3
I0509 17:16:56.000730 119981 net.cpp:129] Top shape: 32 192 56 56 (19267584)
I0509 17:16:56.000733 119981 net.cpp:137] Memory required for data: 481690112
I0509 17:16:56.000738 119981 layer_factory.hpp:77] Creating layer conv2/norm2
I0509 17:16:56.000751 119981 net.cpp:84] Creating Layer conv2/norm2
I0509 17:16:56.000756 119981 net.cpp:406] conv2/norm2 <- conv2/3x3
I0509 17:16:56.000762 119981 net.cpp:380] conv2/norm2 -> conv2/norm2
I0509 17:16:56.000772 119981 net.cpp:122] Setting up conv2/norm2
I0509 17:16:56.000778 119981 net.cpp:129] Top shape: 32 192 56 56 (19267584)
I0509 17:16:56.000784 119981 net.cpp:137] Memory required for data: 558760448
I0509 17:16:56.000788 119981 layer_factory.hpp:77] Creating layer pool2/3x3_s2
I0509 17:16:56.000795 119981 net.cpp:84] Creating Layer pool2/3x3_s2
I0509 17:16:56.000799 119981 net.cpp:406] pool2/3x3_s2 <- conv2/norm2
I0509 17:16:56.000808 119981 net.cpp:380] pool2/3x3_s2 -> pool2/3x3_s2
I0509 17:16:56.000816 119981 net.cpp:122] Setting up pool2/3x3_s2
I0509 17:16:56.000823 119981 net.cpp:129] Top shape: 32 192 28 28 (4816896)
I0509 17:16:56.000828 119981 net.cpp:137] Memory required for data: 578028032
I0509 17:16:56.000833 119981 layer_factory.hpp:77] Creating layer pool2/3x3_s2_pool2/3x3_s2_0_split
I0509 17:16:56.000841 119981 net.cpp:84] Creating Layer pool2/3x3_s2_pool2/3x3_s2_0_split
I0509 17:16:56.000846 119981 net.cpp:406] pool2/3x3_s2_pool2/3x3_s2_0_split <- pool2/3x3_s2
I0509 17:16:56.000854 119981 net.cpp:380] pool2/3x3_s2_pool2/3x3_s2_0_split -> pool2/3x3_s2_pool2/3x3_s2_0_split_0
I0509 17:16:56.000864 119981 net.cpp:380] pool2/3x3_s2_pool2/3x3_s2_0_split -> pool2/3x3_s2_pool2/3x3_s2_0_split_1
I0509 17:16:56.000872 119981 net.cpp:380] pool2/3x3_s2_pool2/3x3_s2_0_split -> pool2/3x3_s2_pool2/3x3_s2_0_split_2
I0509 17:16:56.000880 119981 net.cpp:380] pool2/3x3_s2_pool2/3x3_s2_0_split -> pool2/3x3_s2_pool2/3x3_s2_0_split_3
I0509 17:16:56.000890 119981 net.cpp:122] Setting up pool2/3x3_s2_pool2/3x3_s2_0_split
I0509 17:16:56.000897 119981 net.cpp:129] Top shape: 32 192 28 28 (4816896)
I0509 17:16:56.000905 119981 net.cpp:129] Top shape: 32 192 28 28 (4816896)
I0509 17:16:56.000910 119981 net.cpp:129] Top shape: 32 192 28 28 (4816896)
I0509 17:16:56.000916 119981 net.cpp:129] Top shape: 32 192 28 28 (4816896)
I0509 17:16:56.000921 119981 net.cpp:137] Memory required for data: 655098368
I0509 17:16:56.000926 119981 layer_factory.hpp:77] Creating layer inception_3a/1x1
I0509 17:16:56.000937 119981 net.cpp:84] Creating Layer inception_3a/1x1
I0509 17:16:56.000942 119981 net.cpp:406] inception_3a/1x1 <- pool2/3x3_s2_pool2/3x3_s2_0_split_0
I0509 17:16:56.000952 119981 net.cpp:380] inception_3a/1x1 -> inception_3a/1x1
I0509 17:16:56.000969 119981 base_conv_layer.cpp:121] Group is 1channel is192number of output is 64
I0509 17:16:56.001109 119981 net.cpp:122] Setting up inception_3a/1x1
I0509 17:16:56.001118 119981 net.cpp:129] Top shape: 32 64 28 28 (1605632)
I0509 17:16:56.001124 119981 net.cpp:137] Memory required for data: 661520896
I0509 17:16:56.001132 119981 layer_factory.hpp:77] Creating layer inception_3a/relu_1x1
I0509 17:16:56.001138 119981 net.cpp:84] Creating Layer inception_3a/relu_1x1
I0509 17:16:56.001143 119981 net.cpp:406] inception_3a/relu_1x1 <- inception_3a/1x1
I0509 17:16:56.001153 119981 net.cpp:367] inception_3a/relu_1x1 -> inception_3a/1x1 (in-place)
I0509 17:16:56.001161 119981 net.cpp:122] Setting up inception_3a/relu_1x1
I0509 17:16:56.001168 119981 net.cpp:129] Top shape: 32 64 28 28 (1605632)
I0509 17:16:56.001173 119981 net.cpp:137] Memory required for data: 667943424
I0509 17:16:56.001178 119981 layer_factory.hpp:77] Creating layer inception_3a/3x3_reduce
I0509 17:16:56.001200 119981 net.cpp:84] Creating Layer inception_3a/3x3_reduce
I0509 17:16:56.001206 119981 net.cpp:406] inception_3a/3x3_reduce <- pool2/3x3_s2_pool2/3x3_s2_0_split_1
I0509 17:16:56.001214 119981 net.cpp:380] inception_3a/3x3_reduce -> inception_3a/3x3_reduce
I0509 17:16:56.001230 119981 base_conv_layer.cpp:121] Group is 1channel is192number of output is 96
I0509 17:16:56.001430 119981 net.cpp:122] Setting up inception_3a/3x3_reduce
I0509 17:16:56.001441 119981 net.cpp:129] Top shape: 32 96 28 28 (2408448)
I0509 17:16:56.001446 119981 net.cpp:137] Memory required for data: 677577216
I0509 17:16:56.001457 119981 layer_factory.hpp:77] Creating layer inception_3a/relu_3x3_reduce
I0509 17:16:56.001468 119981 net.cpp:84] Creating Layer inception_3a/relu_3x3_reduce
I0509 17:16:56.001474 119981 net.cpp:406] inception_3a/relu_3x3_reduce <- inception_3a/3x3_reduce
I0509 17:16:56.001482 119981 net.cpp:367] inception_3a/relu_3x3_reduce -> inception_3a/3x3_reduce (in-place)
I0509 17:16:56.001490 119981 net.cpp:122] Setting up inception_3a/relu_3x3_reduce
I0509 17:16:56.001497 119981 net.cpp:129] Top shape: 32 96 28 28 (2408448)
I0509 17:16:56.001502 119981 net.cpp:137] Memory required for data: 687211008
I0509 17:16:56.001505 119981 layer_factory.hpp:77] Creating layer inception_3a/3x3
I0509 17:16:56.001518 119981 net.cpp:84] Creating Layer inception_3a/3x3
I0509 17:16:56.001523 119981 net.cpp:406] inception_3a/3x3 <- inception_3a/3x3_reduce
I0509 17:16:56.001533 119981 net.cpp:380] inception_3a/3x3 -> inception_3a/3x3
I0509 17:16:56.001545 119981 base_conv_layer.cpp:121] Group is 1channel is96number of output is 128
I0509 17:16:56.002645 119981 net.cpp:122] Setting up inception_3a/3x3
I0509 17:16:56.002653 119981 net.cpp:129] Top shape: 32 128 28 28 (3211264)
I0509 17:16:56.002657 119981 net.cpp:137] Memory required for data: 700056064
I0509 17:16:56.002665 119981 layer_factory.hpp:77] Creating layer inception_3a/relu_3x3
I0509 17:16:56.002672 119981 net.cpp:84] Creating Layer inception_3a/relu_3x3
I0509 17:16:56.002677 119981 net.cpp:406] inception_3a/relu_3x3 <- inception_3a/3x3
I0509 17:16:56.002686 119981 net.cpp:367] inception_3a/relu_3x3 -> inception_3a/3x3 (in-place)
I0509 17:16:56.002693 119981 net.cpp:122] Setting up inception_3a/relu_3x3
I0509 17:16:56.002701 119981 net.cpp:129] Top shape: 32 128 28 28 (3211264)
I0509 17:16:56.002706 119981 net.cpp:137] Memory required for data: 712901120
I0509 17:16:56.002709 119981 layer_factory.hpp:77] Creating layer inception_3a/5x5_reduce
I0509 17:16:56.002720 119981 net.cpp:84] Creating Layer inception_3a/5x5_reduce
I0509 17:16:56.002727 119981 net.cpp:406] inception_3a/5x5_reduce <- pool2/3x3_s2_pool2/3x3_s2_0_split_2
I0509 17:16:56.002734 119981 net.cpp:380] inception_3a/5x5_reduce -> inception_3a/5x5_reduce
I0509 17:16:56.002750 119981 base_conv_layer.cpp:121] Group is 1channel is192number of output is 16
I0509 17:16:56.002799 119981 net.cpp:122] Setting up inception_3a/5x5_reduce
I0509 17:16:56.002807 119981 net.cpp:129] Top shape: 32 16 28 28 (401408)
I0509 17:16:56.002813 119981 net.cpp:137] Memory required for data: 714506752
I0509 17:16:56.002820 119981 layer_factory.hpp:77] Creating layer inception_3a/relu_5x5_reduce
I0509 17:16:56.002827 119981 net.cpp:84] Creating Layer inception_3a/relu_5x5_reduce
I0509 17:16:56.002832 119981 net.cpp:406] inception_3a/relu_5x5_reduce <- inception_3a/5x5_reduce
I0509 17:16:56.002840 119981 net.cpp:367] inception_3a/relu_5x5_reduce -> inception_3a/5x5_reduce (in-place)
I0509 17:16:56.002847 119981 net.cpp:122] Setting up inception_3a/relu_5x5_reduce
I0509 17:16:56.002853 119981 net.cpp:129] Top shape: 32 16 28 28 (401408)
I0509 17:16:56.002857 119981 net.cpp:137] Memory required for data: 716112384
I0509 17:16:56.002863 119981 layer_factory.hpp:77] Creating layer inception_3a/5x5
I0509 17:16:56.002874 119981 net.cpp:84] Creating Layer inception_3a/5x5
I0509 17:16:56.002879 119981 net.cpp:406] inception_3a/5x5 <- inception_3a/5x5_reduce
I0509 17:16:56.002892 119981 net.cpp:380] inception_3a/5x5 -> inception_3a/5x5
I0509 17:16:56.002910 119981 base_conv_layer.cpp:121] Group is 1channel is16number of output is 32
I0509 17:16:56.003049 119981 net.cpp:122] Setting up inception_3a/5x5
I0509 17:16:56.003058 119981 net.cpp:129] Top shape: 32 32 28 28 (802816)
I0509 17:16:56.003062 119981 net.cpp:137] Memory required for data: 719323648
I0509 17:16:56.003072 119981 layer_factory.hpp:77] Creating layer inception_3a/relu_5x5
I0509 17:16:56.003077 119981 net.cpp:84] Creating Layer inception_3a/relu_5x5
I0509 17:16:56.003082 119981 net.cpp:406] inception_3a/relu_5x5 <- inception_3a/5x5
I0509 17:16:56.003090 119981 net.cpp:367] inception_3a/relu_5x5 -> inception_3a/5x5 (in-place)
I0509 17:16:56.003099 119981 net.cpp:122] Setting up inception_3a/relu_5x5
I0509 17:16:56.003105 119981 net.cpp:129] Top shape: 32 32 28 28 (802816)
I0509 17:16:56.003110 119981 net.cpp:137] Memory required for data: 722534912
I0509 17:16:56.003114 119981 layer_factory.hpp:77] Creating layer inception_3a/pool
I0509 17:16:56.003123 119981 net.cpp:84] Creating Layer inception_3a/pool
I0509 17:16:56.003127 119981 net.cpp:406] inception_3a/pool <- pool2/3x3_s2_pool2/3x3_s2_0_split_3
I0509 17:16:56.003136 119981 net.cpp:380] inception_3a/pool -> inception_3a/pool
I0509 17:16:56.003147 119981 net.cpp:122] Setting up inception_3a/pool
I0509 17:16:56.003154 119981 net.cpp:129] Top shape: 32 192 28 28 (4816896)
I0509 17:16:56.003159 119981 net.cpp:137] Memory required for data: 741802496
I0509 17:16:56.003163 119981 layer_factory.hpp:77] Creating layer inception_3a/pool_proj
I0509 17:16:56.003175 119981 net.cpp:84] Creating Layer inception_3a/pool_proj
I0509 17:16:56.003180 119981 net.cpp:406] inception_3a/pool_proj <- inception_3a/pool
I0509 17:16:56.003191 119981 net.cpp:380] inception_3a/pool_proj -> inception_3a/pool_proj
I0509 17:16:56.003202 119981 base_conv_layer.cpp:121] Group is 1channel is192number of output is 32
I0509 17:16:56.003278 119981 net.cpp:122] Setting up inception_3a/pool_proj
I0509 17:16:56.003286 119981 net.cpp:129] Top shape: 32 32 28 28 (802816)
I0509 17:16:56.003290 119981 net.cpp:137] Memory required for data: 745013760
I0509 17:16:56.003304 119981 layer_factory.hpp:77] Creating layer inception_3a/relu_pool_proj
I0509 17:16:56.003312 119981 net.cpp:84] Creating Layer inception_3a/relu_pool_proj
I0509 17:16:56.003319 119981 net.cpp:406] inception_3a/relu_pool_proj <- inception_3a/pool_proj
I0509 17:16:56.003324 119981 net.cpp:367] inception_3a/relu_pool_proj -> inception_3a/pool_proj (in-place)
I0509 17:16:56.003331 119981 net.cpp:122] Setting up inception_3a/relu_pool_proj
I0509 17:16:56.003338 119981 net.cpp:129] Top shape: 32 32 28 28 (802816)
I0509 17:16:56.003343 119981 net.cpp:137] Memory required for data: 748225024
I0509 17:16:56.003348 119981 layer_factory.hpp:77] Creating layer inception_3a/output
I0509 17:16:56.003355 119981 net.cpp:84] Creating Layer inception_3a/output
I0509 17:16:56.003360 119981 net.cpp:406] inception_3a/output <- inception_3a/1x1
I0509 17:16:56.003366 119981 net.cpp:406] inception_3a/output <- inception_3a/3x3
I0509 17:16:56.003372 119981 net.cpp:406] inception_3a/output <- inception_3a/5x5
I0509 17:16:56.003377 119981 net.cpp:406] inception_3a/output <- inception_3a/pool_proj
I0509 17:16:56.003386 119981 net.cpp:380] inception_3a/output -> inception_3a/output
I0509 17:16:56.003397 119981 net.cpp:122] Setting up inception_3a/output
I0509 17:16:56.003404 119981 net.cpp:129] Top shape: 32 256 28 28 (6422528)
I0509 17:16:56.003408 119981 net.cpp:137] Memory required for data: 773915136
I0509 17:16:56.003412 119981 layer_factory.hpp:77] Creating layer inception_3a/output_inception_3a/output_0_split
I0509 17:16:56.003422 119981 net.cpp:84] Creating Layer inception_3a/output_inception_3a/output_0_split
I0509 17:16:56.003427 119981 net.cpp:406] inception_3a/output_inception_3a/output_0_split <- inception_3a/output
I0509 17:16:56.003437 119981 net.cpp:380] inception_3a/output_inception_3a/output_0_split -> inception_3a/output_inception_3a/output_0_split_0
I0509 17:16:56.003450 119981 net.cpp:380] inception_3a/output_inception_3a/output_0_split -> inception_3a/output_inception_3a/output_0_split_1
I0509 17:16:56.003471 119981 net.cpp:380] inception_3a/output_inception_3a/output_0_split -> inception_3a/output_inception_3a/output_0_split_2
I0509 17:16:56.003481 119981 net.cpp:380] inception_3a/output_inception_3a/output_0_split -> inception_3a/output_inception_3a/output_0_split_3
I0509 17:16:56.003491 119981 net.cpp:122] Setting up inception_3a/output_inception_3a/output_0_split
I0509 17:16:56.003499 119981 net.cpp:129] Top shape: 32 256 28 28 (6422528)
I0509 17:16:56.003505 119981 net.cpp:129] Top shape: 32 256 28 28 (6422528)
I0509 17:16:56.003511 119981 net.cpp:129] Top shape: 32 256 28 28 (6422528)
I0509 17:16:56.003517 119981 net.cpp:129] Top shape: 32 256 28 28 (6422528)
I0509 17:16:56.003522 119981 net.cpp:137] Memory required for data: 876675584
I0509 17:16:56.003527 119981 layer_factory.hpp:77] Creating layer inception_3b/1x1
I0509 17:16:56.003540 119981 net.cpp:84] Creating Layer inception_3b/1x1
I0509 17:16:56.003545 119981 net.cpp:406] inception_3b/1x1 <- inception_3a/output_inception_3a/output_0_split_0
I0509 17:16:56.003556 119981 net.cpp:380] inception_3b/1x1 -> inception_3b/1x1
I0509 17:16:56.003568 119981 base_conv_layer.cpp:121] Group is 1channel is256number of output is 128
I0509 17:16:56.003906 119981 net.cpp:122] Setting up inception_3b/1x1
I0509 17:16:56.003916 119981 net.cpp:129] Top shape: 32 128 28 28 (3211264)
I0509 17:16:56.003919 119981 net.cpp:137] Memory required for data: 889520640
I0509 17:16:56.003928 119981 layer_factory.hpp:77] Creating layer inception_3b/relu_1x1
I0509 17:16:56.003934 119981 net.cpp:84] Creating Layer inception_3b/relu_1x1
I0509 17:16:56.003939 119981 net.cpp:406] inception_3b/relu_1x1 <- inception_3b/1x1
I0509 17:16:56.003948 119981 net.cpp:367] inception_3b/relu_1x1 -> inception_3b/1x1 (in-place)
I0509 17:16:56.003957 119981 net.cpp:122] Setting up inception_3b/relu_1x1
I0509 17:16:56.003963 119981 net.cpp:129] Top shape: 32 128 28 28 (3211264)
I0509 17:16:56.003968 119981 net.cpp:137] Memory required for data: 902365696
I0509 17:16:56.003973 119981 layer_factory.hpp:77] Creating layer inception_3b/3x3_reduce
I0509 17:16:56.003984 119981 net.cpp:84] Creating Layer inception_3b/3x3_reduce
I0509 17:16:56.003990 119981 net.cpp:406] inception_3b/3x3_reduce <- inception_3a/output_inception_3a/output_0_split_1
I0509 17:16:56.004000 119981 net.cpp:380] inception_3b/3x3_reduce -> inception_3b/3x3_reduce
I0509 17:16:56.004011 119981 base_conv_layer.cpp:121] Group is 1channel is256number of output is 128
I0509 17:16:56.004390 119981 net.cpp:122] Setting up inception_3b/3x3_reduce
I0509 17:16:56.004401 119981 net.cpp:129] Top shape: 32 128 28 28 (3211264)
I0509 17:16:56.004405 119981 net.cpp:137] Memory required for data: 915210752
I0509 17:16:56.004413 119981 layer_factory.hpp:77] Creating layer inception_3b/relu_3x3_reduce
I0509 17:16:56.004420 119981 net.cpp:84] Creating Layer inception_3b/relu_3x3_reduce
I0509 17:16:56.004426 119981 net.cpp:406] inception_3b/relu_3x3_reduce <- inception_3b/3x3_reduce
I0509 17:16:56.004434 119981 net.cpp:367] inception_3b/relu_3x3_reduce -> inception_3b/3x3_reduce (in-place)
I0509 17:16:56.004441 119981 net.cpp:122] Setting up inception_3b/relu_3x3_reduce
I0509 17:16:56.004449 119981 net.cpp:129] Top shape: 32 128 28 28 (3211264)
I0509 17:16:56.004453 119981 net.cpp:137] Memory required for data: 928055808
I0509 17:16:56.004457 119981 layer_factory.hpp:77] Creating layer inception_3b/3x3
I0509 17:16:56.004475 119981 net.cpp:84] Creating Layer inception_3b/3x3
I0509 17:16:56.004482 119981 net.cpp:406] inception_3b/3x3 <- inception_3b/3x3_reduce
I0509 17:16:56.004489 119981 net.cpp:380] inception_3b/3x3 -> inception_3b/3x3
I0509 17:16:56.004501 119981 base_conv_layer.cpp:121] Group is 1channel is128number of output is 192
I0509 17:16:56.006608 119981 net.cpp:122] Setting up inception_3b/3x3
I0509 17:16:56.006619 119981 net.cpp:129] Top shape: 32 192 28 28 (4816896)
I0509 17:16:56.006623 119981 net.cpp:137] Memory required for data: 947323392
I0509 17:16:56.006642 119981 layer_factory.hpp:77] Creating layer inception_3b/relu_3x3
I0509 17:16:56.006651 119981 net.cpp:84] Creating Layer inception_3b/relu_3x3
I0509 17:16:56.006659 119981 net.cpp:406] inception_3b/relu_3x3 <- inception_3b/3x3
I0509 17:16:56.006665 119981 net.cpp:367] inception_3b/relu_3x3 -> inception_3b/3x3 (in-place)
I0509 17:16:56.006674 119981 net.cpp:122] Setting up inception_3b/relu_3x3
I0509 17:16:56.006680 119981 net.cpp:129] Top shape: 32 192 28 28 (4816896)
I0509 17:16:56.006685 119981 net.cpp:137] Memory required for data: 966590976
I0509 17:16:56.006688 119981 layer_factory.hpp:77] Creating layer inception_3b/5x5_reduce
I0509 17:16:56.006700 119981 net.cpp:84] Creating Layer inception_3b/5x5_reduce
I0509 17:16:56.006705 119981 net.cpp:406] inception_3b/5x5_reduce <- inception_3a/output_inception_3a/output_0_split_2
I0509 17:16:56.006716 119981 net.cpp:380] inception_3b/5x5_reduce -> inception_3b/5x5_reduce
I0509 17:16:56.006726 119981 base_conv_layer.cpp:121] Group is 1channel is256number of output is 32
I0509 17:16:56.006815 119981 net.cpp:122] Setting up inception_3b/5x5_reduce
I0509 17:16:56.006822 119981 net.cpp:129] Top shape: 32 32 28 28 (802816)
I0509 17:16:56.006829 119981 net.cpp:137] Memory required for data: 969802240
I0509 17:16:56.006834 119981 layer_factory.hpp:77] Creating layer inception_3b/relu_5x5_reduce
I0509 17:16:56.006840 119981 net.cpp:84] Creating Layer inception_3b/relu_5x5_reduce
I0509 17:16:56.006845 119981 net.cpp:406] inception_3b/relu_5x5_reduce <- inception_3b/5x5_reduce
I0509 17:16:56.006855 119981 net.cpp:367] inception_3b/relu_5x5_reduce -> inception_3b/5x5_reduce (in-place)
I0509 17:16:56.006861 119981 net.cpp:122] Setting up inception_3b/relu_5x5_reduce
I0509 17:16:56.006867 119981 net.cpp:129] Top shape: 32 32 28 28 (802816)
I0509 17:16:56.006871 119981 net.cpp:137] Memory required for data: 973013504
I0509 17:16:56.006876 119981 layer_factory.hpp:77] Creating layer inception_3b/5x5
I0509 17:16:56.006887 119981 net.cpp:84] Creating Layer inception_3b/5x5
I0509 17:16:56.006891 119981 net.cpp:406] inception_3b/5x5 <- inception_3b/5x5_reduce
I0509 17:16:56.006899 119981 net.cpp:380] inception_3b/5x5 -> inception_3b/5x5
I0509 17:16:56.006919 119981 base_conv_layer.cpp:121] Group is 1channel is32number of output is 96
I0509 17:16:56.007652 119981 net.cpp:122] Setting up inception_3b/5x5
I0509 17:16:56.007660 119981 net.cpp:129] Top shape: 32 96 28 28 (2408448)
I0509 17:16:56.007664 119981 net.cpp:137] Memory required for data: 982647296
I0509 17:16:56.007673 119981 layer_factory.hpp:77] Creating layer inception_3b/relu_5x5
I0509 17:16:56.007680 119981 net.cpp:84] Creating Layer inception_3b/relu_5x5
I0509 17:16:56.007685 119981 net.cpp:406] inception_3b/relu_5x5 <- inception_3b/5x5
I0509 17:16:56.007691 119981 net.cpp:367] inception_3b/relu_5x5 -> inception_3b/5x5 (in-place)
I0509 17:16:56.007700 119981 net.cpp:122] Setting up inception_3b/relu_5x5
I0509 17:16:56.007706 119981 net.cpp:129] Top shape: 32 96 28 28 (2408448)
I0509 17:16:56.007710 119981 net.cpp:137] Memory required for data: 992281088
I0509 17:16:56.007714 119981 layer_factory.hpp:77] Creating layer inception_3b/pool
I0509 17:16:56.007724 119981 net.cpp:84] Creating Layer inception_3b/pool
I0509 17:16:56.007728 119981 net.cpp:406] inception_3b/pool <- inception_3a/output_inception_3a/output_0_split_3
I0509 17:16:56.007735 119981 net.cpp:380] inception_3b/pool -> inception_3b/pool
I0509 17:16:56.007745 119981 net.cpp:122] Setting up inception_3b/pool
I0509 17:16:56.007752 119981 net.cpp:129] Top shape: 32 256 28 28 (6422528)
I0509 17:16:56.007756 119981 net.cpp:137] Memory required for data: 1017971200
I0509 17:16:56.007761 119981 layer_factory.hpp:77] Creating layer inception_3b/pool_proj
I0509 17:16:56.007771 119981 net.cpp:84] Creating Layer inception_3b/pool_proj
I0509 17:16:56.007777 119981 net.cpp:406] inception_3b/pool_proj <- inception_3b/pool
I0509 17:16:56.007786 119981 net.cpp:380] inception_3b/pool_proj -> inception_3b/pool_proj
I0509 17:16:56.007802 119981 base_conv_layer.cpp:121] Group is 1channel is256number of output is 64
I0509 17:16:56.007972 119981 net.cpp:122] Setting up inception_3b/pool_proj
I0509 17:16:56.007982 119981 net.cpp:129] Top shape: 32 64 28 28 (1605632)
I0509 17:16:56.007987 119981 net.cpp:137] Memory required for data: 1024393728
I0509 17:16:56.007993 119981 layer_factory.hpp:77] Creating layer inception_3b/relu_pool_proj
I0509 17:16:56.008002 119981 net.cpp:84] Creating Layer inception_3b/relu_pool_proj
I0509 17:16:56.008008 119981 net.cpp:406] inception_3b/relu_pool_proj <- inception_3b/pool_proj
I0509 17:16:56.008014 119981 net.cpp:367] inception_3b/relu_pool_proj -> inception_3b/pool_proj (in-place)
I0509 17:16:56.008021 119981 net.cpp:122] Setting up inception_3b/relu_pool_proj
I0509 17:16:56.008028 119981 net.cpp:129] Top shape: 32 64 28 28 (1605632)
I0509 17:16:56.008033 119981 net.cpp:137] Memory required for data: 1030816256
I0509 17:16:56.008050 119981 layer_factory.hpp:77] Creating layer inception_3b/output
I0509 17:16:56.008057 119981 net.cpp:84] Creating Layer inception_3b/output
I0509 17:16:56.008062 119981 net.cpp:406] inception_3b/output <- inception_3b/1x1
I0509 17:16:56.008069 119981 net.cpp:406] inception_3b/output <- inception_3b/3x3
I0509 17:16:56.008074 119981 net.cpp:406] inception_3b/output <- inception_3b/5x5
I0509 17:16:56.008080 119981 net.cpp:406] inception_3b/output <- inception_3b/pool_proj
I0509 17:16:56.008090 119981 net.cpp:380] inception_3b/output -> inception_3b/output
I0509 17:16:56.008102 119981 net.cpp:122] Setting up inception_3b/output
I0509 17:16:56.008108 119981 net.cpp:129] Top shape: 32 480 28 28 (12042240)
I0509 17:16:56.008113 119981 net.cpp:137] Memory required for data: 1078985216
I0509 17:16:56.008117 119981 layer_factory.hpp:77] Creating layer pool3/3x3_s2
I0509 17:16:56.008126 119981 net.cpp:84] Creating Layer pool3/3x3_s2
I0509 17:16:56.008131 119981 net.cpp:406] pool3/3x3_s2 <- inception_3b/output
I0509 17:16:56.008138 119981 net.cpp:380] pool3/3x3_s2 -> pool3/3x3_s2
I0509 17:16:56.008147 119981 net.cpp:122] Setting up pool3/3x3_s2
I0509 17:16:56.008154 119981 net.cpp:129] Top shape: 32 480 14 14 (3010560)
I0509 17:16:56.008158 119981 net.cpp:137] Memory required for data: 1091027456
I0509 17:16:56.008162 119981 layer_factory.hpp:77] Creating layer pool3/3x3_s2_pool3/3x3_s2_0_split
I0509 17:16:56.008169 119981 net.cpp:84] Creating Layer pool3/3x3_s2_pool3/3x3_s2_0_split
I0509 17:16:56.008175 119981 net.cpp:406] pool3/3x3_s2_pool3/3x3_s2_0_split <- pool3/3x3_s2
I0509 17:16:56.008183 119981 net.cpp:380] pool3/3x3_s2_pool3/3x3_s2_0_split -> pool3/3x3_s2_pool3/3x3_s2_0_split_0
I0509 17:16:56.008193 119981 net.cpp:380] pool3/3x3_s2_pool3/3x3_s2_0_split -> pool3/3x3_s2_pool3/3x3_s2_0_split_1
I0509 17:16:56.008203 119981 net.cpp:380] pool3/3x3_s2_pool3/3x3_s2_0_split -> pool3/3x3_s2_pool3/3x3_s2_0_split_2
I0509 17:16:56.008213 119981 net.cpp:380] pool3/3x3_s2_pool3/3x3_s2_0_split -> pool3/3x3_s2_pool3/3x3_s2_0_split_3
I0509 17:16:56.008221 119981 net.cpp:122] Setting up pool3/3x3_s2_pool3/3x3_s2_0_split
I0509 17:16:56.008227 119981 net.cpp:129] Top shape: 32 480 14 14 (3010560)
I0509 17:16:56.008234 119981 net.cpp:129] Top shape: 32 480 14 14 (3010560)
I0509 17:16:56.008240 119981 net.cpp:129] Top shape: 32 480 14 14 (3010560)
I0509 17:16:56.008245 119981 net.cpp:129] Top shape: 32 480 14 14 (3010560)
I0509 17:16:56.008249 119981 net.cpp:137] Memory required for data: 1139196416
I0509 17:16:56.008255 119981 layer_factory.hpp:77] Creating layer inception_4a/1x1
I0509 17:16:56.008265 119981 net.cpp:84] Creating Layer inception_4a/1x1
I0509 17:16:56.008270 119981 net.cpp:406] inception_4a/1x1 <- pool3/3x3_s2_pool3/3x3_s2_0_split_0
I0509 17:16:56.008280 119981 net.cpp:380] inception_4a/1x1 -> inception_4a/1x1
I0509 17:16:56.008291 119981 base_conv_layer.cpp:121] Group is 1channel is480number of output is 192
I0509 17:16:56.009167 119981 net.cpp:122] Setting up inception_4a/1x1
I0509 17:16:56.009176 119981 net.cpp:129] Top shape: 32 192 14 14 (1204224)
I0509 17:16:56.009179 119981 net.cpp:137] Memory required for data: 1144013312
I0509 17:16:56.009191 119981 layer_factory.hpp:77] Creating layer inception_4a/relu_1x1
I0509 17:16:56.009207 119981 net.cpp:84] Creating Layer inception_4a/relu_1x1
I0509 17:16:56.009212 119981 net.cpp:406] inception_4a/relu_1x1 <- inception_4a/1x1
I0509 17:16:56.009220 119981 net.cpp:367] inception_4a/relu_1x1 -> inception_4a/1x1 (in-place)
I0509 17:16:56.009228 119981 net.cpp:122] Setting up inception_4a/relu_1x1
I0509 17:16:56.009235 119981 net.cpp:129] Top shape: 32 192 14 14 (1204224)
I0509 17:16:56.009239 119981 net.cpp:137] Memory required for data: 1148830208
I0509 17:16:56.009243 119981 layer_factory.hpp:77] Creating layer inception_4a/3x3_reduce
I0509 17:16:56.009254 119981 net.cpp:84] Creating Layer inception_4a/3x3_reduce
I0509 17:16:56.009260 119981 net.cpp:406] inception_4a/3x3_reduce <- pool3/3x3_s2_pool3/3x3_s2_0_split_1
I0509 17:16:56.009268 119981 net.cpp:380] inception_4a/3x3_reduce -> inception_4a/3x3_reduce
I0509 17:16:56.009281 119981 base_conv_layer.cpp:121] Group is 1channel is480number of output is 96
I0509 17:16:56.009722 119981 net.cpp:122] Setting up inception_4a/3x3_reduce
I0509 17:16:56.009732 119981 net.cpp:129] Top shape: 32 96 14 14 (602112)
I0509 17:16:56.009737 119981 net.cpp:137] Memory required for data: 1151238656
I0509 17:16:56.009750 119981 layer_factory.hpp:77] Creating layer inception_4a/relu_3x3_reduce
I0509 17:16:56.009757 119981 net.cpp:84] Creating Layer inception_4a/relu_3x3_reduce
I0509 17:16:56.009763 119981 net.cpp:406] inception_4a/relu_3x3_reduce <- inception_4a/3x3_reduce
I0509 17:16:56.009773 119981 net.cpp:367] inception_4a/relu_3x3_reduce -> inception_4a/3x3_reduce (in-place)
I0509 17:16:56.009779 119981 net.cpp:122] Setting up inception_4a/relu_3x3_reduce
I0509 17:16:56.009785 119981 net.cpp:129] Top shape: 32 96 14 14 (602112)
I0509 17:16:56.009790 119981 net.cpp:137] Memory required for data: 1153647104
I0509 17:16:56.009794 119981 layer_factory.hpp:77] Creating layer inception_4a/3x3
I0509 17:16:56.009804 119981 net.cpp:84] Creating Layer inception_4a/3x3
I0509 17:16:56.009809 119981 net.cpp:406] inception_4a/3x3 <- inception_4a/3x3_reduce
I0509 17:16:56.009817 119981 net.cpp:380] inception_4a/3x3 -> inception_4a/3x3
I0509 17:16:56.009827 119981 base_conv_layer.cpp:121] Group is 1channel is96number of output is 208
I0509 17:16:56.011504 119981 net.cpp:122] Setting up inception_4a/3x3
I0509 17:16:56.011512 119981 net.cpp:129] Top shape: 32 208 14 14 (1304576)
I0509 17:16:56.011518 119981 net.cpp:137] Memory required for data: 1158865408
I0509 17:16:56.011523 119981 layer_factory.hpp:77] Creating layer inception_4a/relu_3x3
I0509 17:16:56.011531 119981 net.cpp:84] Creating Layer inception_4a/relu_3x3
I0509 17:16:56.011536 119981 net.cpp:406] inception_4a/relu_3x3 <- inception_4a/3x3
I0509 17:16:56.011543 119981 net.cpp:367] inception_4a/relu_3x3 -> inception_4a/3x3 (in-place)
I0509 17:16:56.011550 119981 net.cpp:122] Setting up inception_4a/relu_3x3
I0509 17:16:56.011555 119981 net.cpp:129] Top shape: 32 208 14 14 (1304576)
I0509 17:16:56.011559 119981 net.cpp:137] Memory required for data: 1164083712
I0509 17:16:56.011564 119981 layer_factory.hpp:77] Creating layer inception_4a/5x5_reduce
I0509 17:16:56.011574 119981 net.cpp:84] Creating Layer inception_4a/5x5_reduce
I0509 17:16:56.011579 119981 net.cpp:406] inception_4a/5x5_reduce <- pool3/3x3_s2_pool3/3x3_s2_0_split_2
I0509 17:16:56.011590 119981 net.cpp:380] inception_4a/5x5_reduce -> inception_4a/5x5_reduce
I0509 17:16:56.011600 119981 base_conv_layer.cpp:121] Group is 1channel is480number of output is 16
I0509 17:16:56.011682 119981 net.cpp:122] Setting up inception_4a/5x5_reduce
I0509 17:16:56.011688 119981 net.cpp:129] Top shape: 32 16 14 14 (100352)
I0509 17:16:56.011693 119981 net.cpp:137] Memory required for data: 1164485120
I0509 17:16:56.011700 119981 layer_factory.hpp:77] Creating layer inception_4a/relu_5x5_reduce
I0509 17:16:56.011706 119981 net.cpp:84] Creating Layer inception_4a/relu_5x5_reduce
I0509 17:16:56.011710 119981 net.cpp:406] inception_4a/relu_5x5_reduce <- inception_4a/5x5_reduce
I0509 17:16:56.011723 119981 net.cpp:367] inception_4a/relu_5x5_reduce -> inception_4a/5x5_reduce (in-place)
I0509 17:16:56.011736 119981 net.cpp:122] Setting up inception_4a/relu_5x5_reduce
I0509 17:16:56.011744 119981 net.cpp:129] Top shape: 32 16 14 14 (100352)
I0509 17:16:56.011747 119981 net.cpp:137] Memory required for data: 1164886528
I0509 17:16:56.011751 119981 layer_factory.hpp:77] Creating layer inception_4a/5x5
I0509 17:16:56.011762 119981 net.cpp:84] Creating Layer inception_4a/5x5
I0509 17:16:56.011766 119981 net.cpp:406] inception_4a/5x5 <- inception_4a/5x5_reduce
I0509 17:16:56.011773 119981 net.cpp:380] inception_4a/5x5 -> inception_4a/5x5
I0509 17:16:56.011785 119981 base_conv_layer.cpp:121] Group is 1channel is16number of output is 48
I0509 17:16:56.011983 119981 net.cpp:122] Setting up inception_4a/5x5
I0509 17:16:56.011991 119981 net.cpp:129] Top shape: 32 48 14 14 (301056)
I0509 17:16:56.011996 119981 net.cpp:137] Memory required for data: 1166090752
I0509 17:16:56.012002 119981 layer_factory.hpp:77] Creating layer inception_4a/relu_5x5
I0509 17:16:56.012009 119981 net.cpp:84] Creating Layer inception_4a/relu_5x5
I0509 17:16:56.012013 119981 net.cpp:406] inception_4a/relu_5x5 <- inception_4a/5x5
I0509 17:16:56.012019 119981 net.cpp:367] inception_4a/relu_5x5 -> inception_4a/5x5 (in-place)
I0509 17:16:56.012028 119981 net.cpp:122] Setting up inception_4a/relu_5x5
I0509 17:16:56.012042 119981 net.cpp:129] Top shape: 32 48 14 14 (301056)
I0509 17:16:56.012046 119981 net.cpp:137] Memory required for data: 1167294976
I0509 17:16:56.012050 119981 layer_factory.hpp:77] Creating layer inception_4a/pool
I0509 17:16:56.012056 119981 net.cpp:84] Creating Layer inception_4a/pool
I0509 17:16:56.012063 119981 net.cpp:406] inception_4a/pool <- pool3/3x3_s2_pool3/3x3_s2_0_split_3
I0509 17:16:56.012069 119981 net.cpp:380] inception_4a/pool -> inception_4a/pool
I0509 17:16:56.012080 119981 net.cpp:122] Setting up inception_4a/pool
I0509 17:16:56.012086 119981 net.cpp:129] Top shape: 32 480 14 14 (3010560)
I0509 17:16:56.012091 119981 net.cpp:137] Memory required for data: 1179337216
I0509 17:16:56.012095 119981 layer_factory.hpp:77] Creating layer inception_4a/pool_proj
I0509 17:16:56.012106 119981 net.cpp:84] Creating Layer inception_4a/pool_proj
I0509 17:16:56.012111 119981 net.cpp:406] inception_4a/pool_proj <- inception_4a/pool
I0509 17:16:56.012120 119981 net.cpp:380] inception_4a/pool_proj -> inception_4a/pool_proj
I0509 17:16:56.012131 119981 base_conv_layer.cpp:121] Group is 1channel is480number of output is 64
I0509 17:16:56.012434 119981 net.cpp:122] Setting up inception_4a/pool_proj
I0509 17:16:56.012444 119981 net.cpp:129] Top shape: 32 64 14 14 (401408)
I0509 17:16:56.012449 119981 net.cpp:137] Memory required for data: 1180942848
I0509 17:16:56.012455 119981 layer_factory.hpp:77] Creating layer inception_4a/relu_pool_proj
I0509 17:16:56.012461 119981 net.cpp:84] Creating Layer inception_4a/relu_pool_proj
I0509 17:16:56.012466 119981 net.cpp:406] inception_4a/relu_pool_proj <- inception_4a/pool_proj
I0509 17:16:56.012473 119981 net.cpp:367] inception_4a/relu_pool_proj -> inception_4a/pool_proj (in-place)
I0509 17:16:56.012480 119981 net.cpp:122] Setting up inception_4a/relu_pool_proj
I0509 17:16:56.012486 119981 net.cpp:129] Top shape: 32 64 14 14 (401408)
I0509 17:16:56.012490 119981 net.cpp:137] Memory required for data: 1182548480
I0509 17:16:56.012495 119981 layer_factory.hpp:77] Creating layer inception_4a/output
I0509 17:16:56.012501 119981 net.cpp:84] Creating Layer inception_4a/output
I0509 17:16:56.012506 119981 net.cpp:406] inception_4a/output <- inception_4a/1x1
I0509 17:16:56.012511 119981 net.cpp:406] inception_4a/output <- inception_4a/3x3
I0509 17:16:56.012517 119981 net.cpp:406] inception_4a/output <- inception_4a/5x5
I0509 17:16:56.012522 119981 net.cpp:406] inception_4a/output <- inception_4a/pool_proj
I0509 17:16:56.012531 119981 net.cpp:380] inception_4a/output -> inception_4a/output
I0509 17:16:56.012539 119981 net.cpp:122] Setting up inception_4a/output
I0509 17:16:56.012550 119981 net.cpp:129] Top shape: 32 512 14 14 (3211264)
I0509 17:16:56.012562 119981 net.cpp:137] Memory required for data: 1195393536
I0509 17:16:56.012565 119981 layer_factory.hpp:77] Creating layer inception_4a/output_inception_4a/output_0_split
I0509 17:16:56.012574 119981 net.cpp:84] Creating Layer inception_4a/output_inception_4a/output_0_split
I0509 17:16:56.012580 119981 net.cpp:406] inception_4a/output_inception_4a/output_0_split <- inception_4a/output
I0509 17:16:56.012588 119981 net.cpp:380] inception_4a/output_inception_4a/output_0_split -> inception_4a/output_inception_4a/output_0_split_0
I0509 17:16:56.012596 119981 net.cpp:380] inception_4a/output_inception_4a/output_0_split -> inception_4a/output_inception_4a/output_0_split_1
I0509 17:16:56.012606 119981 net.cpp:380] inception_4a/output_inception_4a/output_0_split -> inception_4a/output_inception_4a/output_0_split_2
I0509 17:16:56.012615 119981 net.cpp:380] inception_4a/output_inception_4a/output_0_split -> inception_4a/output_inception_4a/output_0_split_3
I0509 17:16:56.012624 119981 net.cpp:380] inception_4a/output_inception_4a/output_0_split -> inception_4a/output_inception_4a/output_0_split_4
I0509 17:16:56.012635 119981 net.cpp:122] Setting up inception_4a/output_inception_4a/output_0_split
I0509 17:16:56.012641 119981 net.cpp:129] Top shape: 32 512 14 14 (3211264)
I0509 17:16:56.012647 119981 net.cpp:129] Top shape: 32 512 14 14 (3211264)
I0509 17:16:56.012653 119981 net.cpp:129] Top shape: 32 512 14 14 (3211264)
I0509 17:16:56.012658 119981 net.cpp:129] Top shape: 32 512 14 14 (3211264)
I0509 17:16:56.012665 119981 net.cpp:129] Top shape: 32 512 14 14 (3211264)
I0509 17:16:56.012670 119981 net.cpp:137] Memory required for data: 1259618816
I0509 17:16:56.012673 119981 layer_factory.hpp:77] Creating layer loss1/ave_pool
I0509 17:16:56.012679 119981 net.cpp:84] Creating Layer loss1/ave_pool
I0509 17:16:56.012684 119981 net.cpp:406] loss1/ave_pool <- inception_4a/output_inception_4a/output_0_split_0
I0509 17:16:56.012693 119981 net.cpp:380] loss1/ave_pool -> loss1/ave_pool
I0509 17:16:56.012701 119981 net.cpp:122] Setting up loss1/ave_pool
I0509 17:16:56.012707 119981 net.cpp:129] Top shape: 32 512 4 4 (262144)
I0509 17:16:56.012712 119981 net.cpp:137] Memory required for data: 1260667392
I0509 17:16:56.012717 119981 layer_factory.hpp:77] Creating layer loss1/conv
I0509 17:16:56.012727 119981 net.cpp:84] Creating Layer loss1/conv
I0509 17:16:56.012732 119981 net.cpp:406] loss1/conv <- loss1/ave_pool
I0509 17:16:56.012738 119981 net.cpp:380] loss1/conv -> loss1/conv
I0509 17:16:56.012751 119981 base_conv_layer.cpp:121] Group is 1channel is512number of output is 128
I0509 17:16:56.013371 119981 net.cpp:122] Setting up loss1/conv
I0509 17:16:56.013380 119981 net.cpp:129] Top shape: 32 128 4 4 (65536)
I0509 17:16:56.013383 119981 net.cpp:137] Memory required for data: 1260929536
I0509 17:16:56.013391 119981 layer_factory.hpp:77] Creating layer loss1/relu_conv
I0509 17:16:56.013397 119981 net.cpp:84] Creating Layer loss1/relu_conv
I0509 17:16:56.013402 119981 net.cpp:406] loss1/relu_conv <- loss1/conv
I0509 17:16:56.013411 119981 net.cpp:367] loss1/relu_conv -> loss1/conv (in-place)
I0509 17:16:56.013417 119981 net.cpp:122] Setting up loss1/relu_conv
I0509 17:16:56.013423 119981 net.cpp:129] Top shape: 32 128 4 4 (65536)
I0509 17:16:56.013427 119981 net.cpp:137] Memory required for data: 1261191680
I0509 17:16:56.013432 119981 layer_factory.hpp:77] Creating layer loss1/fc
I0509 17:16:56.013439 119981 net.cpp:84] Creating Layer loss1/fc
I0509 17:16:56.013444 119981 net.cpp:406] loss1/fc <- loss1/conv
I0509 17:16:56.013453 119981 net.cpp:380] loss1/fc -> loss1/fc
I0509 17:16:56.030328 119981 net.cpp:122] Setting up loss1/fc
I0509 17:16:56.030341 119981 net.cpp:129] Top shape: 32 1024 (32768)
I0509 17:16:56.030345 119981 net.cpp:137] Memory required for data: 1261322752
I0509 17:16:56.030352 119981 layer_factory.hpp:77] Creating layer loss1/relu_fc
I0509 17:16:56.030360 119981 net.cpp:84] Creating Layer loss1/relu_fc
I0509 17:16:56.030365 119981 net.cpp:406] loss1/relu_fc <- loss1/fc
I0509 17:16:56.030383 119981 net.cpp:367] loss1/relu_fc -> loss1/fc (in-place)
I0509 17:16:56.030390 119981 net.cpp:122] Setting up loss1/relu_fc
I0509 17:16:56.030395 119981 net.cpp:129] Top shape: 32 1024 (32768)
I0509 17:16:56.030400 119981 net.cpp:137] Memory required for data: 1261453824
I0509 17:16:56.030405 119981 layer_factory.hpp:77] Creating layer loss1/drop_fc
I0509 17:16:56.030424 119981 net.cpp:84] Creating Layer loss1/drop_fc
I0509 17:16:56.030429 119981 net.cpp:406] loss1/drop_fc <- loss1/fc
I0509 17:16:56.030436 119981 net.cpp:367] loss1/drop_fc -> loss1/fc (in-place)
I0509 17:16:56.030447 119981 net.cpp:122] Setting up loss1/drop_fc
I0509 17:16:56.030452 119981 net.cpp:129] Top shape: 32 1024 (32768)
I0509 17:16:56.030454 119981 net.cpp:137] Memory required for data: 1261584896
I0509 17:16:56.030459 119981 layer_factory.hpp:77] Creating layer loss1/classifier
I0509 17:16:56.030467 119981 net.cpp:84] Creating Layer loss1/classifier
I0509 17:16:56.030472 119981 net.cpp:406] loss1/classifier <- loss1/fc
I0509 17:16:56.030478 119981 net.cpp:380] loss1/classifier -> loss1/classifier
#           time             counts unit events
     0.100377280             94,054      LLC-load-misses          
     0.100377280            773,244      LLC-loads                
I0509 17:16:56.038561 119981 net.cpp:122] Setting up loss1/classifier
I0509 17:16:56.038573 119981 net.cpp:129] Top shape: 32 1000 (32000)
I0509 17:16:56.038575 119981 net.cpp:137] Memory required for data: 1261712896
I0509 17:16:56.038583 119981 layer_factory.hpp:77] Creating layer loss1/loss
I0509 17:16:56.038591 119981 net.cpp:84] Creating Layer loss1/loss
I0509 17:16:56.038596 119981 net.cpp:406] loss1/loss <- loss1/classifier
I0509 17:16:56.038602 119981 net.cpp:406] loss1/loss <- label_data_1_split_0
I0509 17:16:56.038609 119981 net.cpp:380] loss1/loss -> loss1/loss1
I0509 17:16:56.038620 119981 layer_factory.hpp:77] Creating layer loss1/loss
I0509 17:16:56.038703 119981 net.cpp:122] Setting up loss1/loss
I0509 17:16:56.038710 119981 net.cpp:129] Top shape: (1)
I0509 17:16:56.038713 119981 net.cpp:132]     with loss weight 0.3
I0509 17:16:56.038739 119981 net.cpp:137] Memory required for data: 1261712900
I0509 17:16:56.038743 119981 layer_factory.hpp:77] Creating layer inception_4b/1x1
I0509 17:16:56.038755 119981 net.cpp:84] Creating Layer inception_4b/1x1
I0509 17:16:56.038760 119981 net.cpp:406] inception_4b/1x1 <- inception_4a/output_inception_4a/output_0_split_1
I0509 17:16:56.038771 119981 net.cpp:380] inception_4b/1x1 -> inception_4b/1x1
I0509 17:16:56.038784 119981 base_conv_layer.cpp:121] Group is 1channel is512number of output is 160
I0509 17:16:56.039486 119981 net.cpp:122] Setting up inception_4b/1x1
I0509 17:16:56.039494 119981 net.cpp:129] Top shape: 32 160 14 14 (1003520)
I0509 17:16:56.039499 119981 net.cpp:137] Memory required for data: 1265726980
I0509 17:16:56.039505 119981 layer_factory.hpp:77] Creating layer inception_4b/relu_1x1
I0509 17:16:56.039511 119981 net.cpp:84] Creating Layer inception_4b/relu_1x1
I0509 17:16:56.039516 119981 net.cpp:406] inception_4b/relu_1x1 <- inception_4b/1x1
I0509 17:16:56.039525 119981 net.cpp:367] inception_4b/relu_1x1 -> inception_4b/1x1 (in-place)
I0509 17:16:56.039531 119981 net.cpp:122] Setting up inception_4b/relu_1x1
I0509 17:16:56.039537 119981 net.cpp:129] Top shape: 32 160 14 14 (1003520)
I0509 17:16:56.039541 119981 net.cpp:137] Memory required for data: 1269741060
I0509 17:16:56.039546 119981 layer_factory.hpp:77] Creating layer inception_4b/3x3_reduce
I0509 17:16:56.039556 119981 net.cpp:84] Creating Layer inception_4b/3x3_reduce
I0509 17:16:56.039561 119981 net.cpp:406] inception_4b/3x3_reduce <- inception_4a/output_inception_4a/output_0_split_2
I0509 17:16:56.039567 119981 net.cpp:380] inception_4b/3x3_reduce -> inception_4b/3x3_reduce
I0509 17:16:56.039578 119981 base_conv_layer.cpp:121] Group is 1channel is512number of output is 112
I0509 17:16:56.040086 119981 net.cpp:122] Setting up inception_4b/3x3_reduce
I0509 17:16:56.040094 119981 net.cpp:129] Top shape: 32 112 14 14 (702464)
I0509 17:16:56.040102 119981 net.cpp:137] Memory required for data: 1272550916
I0509 17:16:56.040109 119981 layer_factory.hpp:77] Creating layer inception_4b/relu_3x3_reduce
I0509 17:16:56.040124 119981 net.cpp:84] Creating Layer inception_4b/relu_3x3_reduce
I0509 17:16:56.040129 119981 net.cpp:406] inception_4b/relu_3x3_reduce <- inception_4b/3x3_reduce
I0509 17:16:56.040136 119981 net.cpp:367] inception_4b/relu_3x3_reduce -> inception_4b/3x3_reduce (in-place)
I0509 17:16:56.040143 119981 net.cpp:122] Setting up inception_4b/relu_3x3_reduce
I0509 17:16:56.040149 119981 net.cpp:129] Top shape: 32 112 14 14 (702464)
I0509 17:16:56.040153 119981 net.cpp:137] Memory required for data: 1275360772
I0509 17:16:56.040156 119981 layer_factory.hpp:77] Creating layer inception_4b/3x3
I0509 17:16:56.040168 119981 net.cpp:84] Creating Layer inception_4b/3x3
I0509 17:16:56.040172 119981 net.cpp:406] inception_4b/3x3 <- inception_4b/3x3_reduce
I0509 17:16:56.040180 119981 net.cpp:380] inception_4b/3x3 -> inception_4b/3x3
I0509 17:16:56.040191 119981 base_conv_layer.cpp:121] Group is 1channel is112number of output is 224
I0509 17:16:56.042014 119981 net.cpp:122] Setting up inception_4b/3x3
I0509 17:16:56.042022 119981 net.cpp:129] Top shape: 32 224 14 14 (1404928)
I0509 17:16:56.042026 119981 net.cpp:137] Memory required for data: 1280980484
I0509 17:16:56.042032 119981 layer_factory.hpp:77] Creating layer inception_4b/relu_3x3
I0509 17:16:56.042038 119981 net.cpp:84] Creating Layer inception_4b/relu_3x3
I0509 17:16:56.042042 119981 net.cpp:406] inception_4b/relu_3x3 <- inception_4b/3x3
I0509 17:16:56.042048 119981 net.cpp:367] inception_4b/relu_3x3 -> inception_4b/3x3 (in-place)
I0509 17:16:56.042054 119981 net.cpp:122] Setting up inception_4b/relu_3x3
I0509 17:16:56.042060 119981 net.cpp:129] Top shape: 32 224 14 14 (1404928)
I0509 17:16:56.042063 119981 net.cpp:137] Memory required for data: 1286600196
I0509 17:16:56.042068 119981 layer_factory.hpp:77] Creating layer inception_4b/5x5_reduce
I0509 17:16:56.042076 119981 net.cpp:84] Creating Layer inception_4b/5x5_reduce
I0509 17:16:56.042081 119981 net.cpp:406] inception_4b/5x5_reduce <- inception_4a/output_inception_4a/output_0_split_3
I0509 17:16:56.042088 119981 net.cpp:380] inception_4b/5x5_reduce -> inception_4b/5x5_reduce
I0509 17:16:56.042098 119981 base_conv_layer.cpp:121] Group is 1channel is512number of output is 24
I0509 17:16:56.042201 119981 net.cpp:122] Setting up inception_4b/5x5_reduce
I0509 17:16:56.042209 119981 net.cpp:129] Top shape: 32 24 14 14 (150528)
I0509 17:16:56.042213 119981 net.cpp:137] Memory required for data: 1287202308
I0509 17:16:56.042219 119981 layer_factory.hpp:77] Creating layer inception_4b/relu_5x5_reduce
I0509 17:16:56.042227 119981 net.cpp:84] Creating Layer inception_4b/relu_5x5_reduce
I0509 17:16:56.042232 119981 net.cpp:406] inception_4b/relu_5x5_reduce <- inception_4b/5x5_reduce
I0509 17:16:56.042237 119981 net.cpp:367] inception_4b/relu_5x5_reduce -> inception_4b/5x5_reduce (in-place)
I0509 17:16:56.042243 119981 net.cpp:122] Setting up inception_4b/relu_5x5_reduce
I0509 17:16:56.042248 119981 net.cpp:129] Top shape: 32 24 14 14 (150528)
I0509 17:16:56.042253 119981 net.cpp:137] Memory required for data: 1287804420
I0509 17:16:56.042255 119981 layer_factory.hpp:77] Creating layer inception_4b/5x5
I0509 17:16:56.042265 119981 net.cpp:84] Creating Layer inception_4b/5x5
I0509 17:16:56.042269 119981 net.cpp:406] inception_4b/5x5 <- inception_4b/5x5_reduce
I0509 17:16:56.042279 119981 net.cpp:380] inception_4b/5x5 -> inception_4b/5x5
I0509 17:16:56.042287 119981 base_conv_layer.cpp:121] Group is 1channel is24number of output is 64
I0509 17:16:56.042608 119981 net.cpp:122] Setting up inception_4b/5x5
I0509 17:16:56.042614 119981 net.cpp:129] Top shape: 32 64 14 14 (401408)
I0509 17:16:56.042618 119981 net.cpp:137] Memory required for data: 1289410052
I0509 17:16:56.042624 119981 layer_factory.hpp:77] Creating layer inception_4b/relu_5x5
I0509 17:16:56.042630 119981 net.cpp:84] Creating Layer inception_4b/relu_5x5
I0509 17:16:56.042637 119981 net.cpp:406] inception_4b/relu_5x5 <- inception_4b/5x5
I0509 17:16:56.042645 119981 net.cpp:367] inception_4b/relu_5x5 -> inception_4b/5x5 (in-place)
I0509 17:16:56.042651 119981 net.cpp:122] Setting up inception_4b/relu_5x5
I0509 17:16:56.042666 119981 net.cpp:129] Top shape: 32 64 14 14 (401408)
I0509 17:16:56.042670 119981 net.cpp:137] Memory required for data: 1291015684
I0509 17:16:56.042675 119981 layer_factory.hpp:77] Creating layer inception_4b/pool
I0509 17:16:56.042681 119981 net.cpp:84] Creating Layer inception_4b/pool
I0509 17:16:56.042685 119981 net.cpp:406] inception_4b/pool <- inception_4a/output_inception_4a/output_0_split_4
I0509 17:16:56.042691 119981 net.cpp:380] inception_4b/pool -> inception_4b/pool
I0509 17:16:56.042717 119981 net.cpp:122] Setting up inception_4b/pool
I0509 17:16:56.042723 119981 net.cpp:129] Top shape: 32 512 14 14 (3211264)
I0509 17:16:56.042727 119981 net.cpp:137] Memory required for data: 1303860740
I0509 17:16:56.042731 119981 layer_factory.hpp:77] Creating layer inception_4b/pool_proj
I0509 17:16:56.042739 119981 net.cpp:84] Creating Layer inception_4b/pool_proj
I0509 17:16:56.042743 119981 net.cpp:406] inception_4b/pool_proj <- inception_4b/pool
I0509 17:16:56.042749 119981 net.cpp:380] inception_4b/pool_proj -> inception_4b/pool_proj
I0509 17:16:56.042758 119981 base_conv_layer.cpp:121] Group is 1channel is512number of output is 64
I0509 17:16:56.043038 119981 net.cpp:122] Setting up inception_4b/pool_proj
I0509 17:16:56.043045 119981 net.cpp:129] Top shape: 32 64 14 14 (401408)
I0509 17:16:56.043048 119981 net.cpp:137] Memory required for data: 1305466372
I0509 17:16:56.043054 119981 layer_factory.hpp:77] Creating layer inception_4b/relu_pool_proj
I0509 17:16:56.043061 119981 net.cpp:84] Creating Layer inception_4b/relu_pool_proj
I0509 17:16:56.043066 119981 net.cpp:406] inception_4b/relu_pool_proj <- inception_4b/pool_proj
I0509 17:16:56.043072 119981 net.cpp:367] inception_4b/relu_pool_proj -> inception_4b/pool_proj (in-place)
I0509 17:16:56.043078 119981 net.cpp:122] Setting up inception_4b/relu_pool_proj
I0509 17:16:56.043084 119981 net.cpp:129] Top shape: 32 64 14 14 (401408)
I0509 17:16:56.043087 119981 net.cpp:137] Memory required for data: 1307072004
I0509 17:16:56.043092 119981 layer_factory.hpp:77] Creating layer inception_4b/output
I0509 17:16:56.043097 119981 net.cpp:84] Creating Layer inception_4b/output
I0509 17:16:56.043102 119981 net.cpp:406] inception_4b/output <- inception_4b/1x1
I0509 17:16:56.043107 119981 net.cpp:406] inception_4b/output <- inception_4b/3x3
I0509 17:16:56.043110 119981 net.cpp:406] inception_4b/output <- inception_4b/5x5
I0509 17:16:56.043114 119981 net.cpp:406] inception_4b/output <- inception_4b/pool_proj
I0509 17:16:56.043123 119981 net.cpp:380] inception_4b/output -> inception_4b/output
I0509 17:16:56.043131 119981 net.cpp:122] Setting up inception_4b/output
I0509 17:16:56.043136 119981 net.cpp:129] Top shape: 32 512 14 14 (3211264)
I0509 17:16:56.043139 119981 net.cpp:137] Memory required for data: 1319917060
I0509 17:16:56.043143 119981 layer_factory.hpp:77] Creating layer inception_4b/output_inception_4b/output_0_split
I0509 17:16:56.043150 119981 net.cpp:84] Creating Layer inception_4b/output_inception_4b/output_0_split
I0509 17:16:56.043154 119981 net.cpp:406] inception_4b/output_inception_4b/output_0_split <- inception_4b/output
I0509 17:16:56.043161 119981 net.cpp:380] inception_4b/output_inception_4b/output_0_split -> inception_4b/output_inception_4b/output_0_split_0
I0509 17:16:56.043170 119981 net.cpp:380] inception_4b/output_inception_4b/output_0_split -> inception_4b/output_inception_4b/output_0_split_1
I0509 17:16:56.043177 119981 net.cpp:380] inception_4b/output_inception_4b/output_0_split -> inception_4b/output_inception_4b/output_0_split_2
I0509 17:16:56.043186 119981 net.cpp:380] inception_4b/output_inception_4b/output_0_split -> inception_4b/output_inception_4b/output_0_split_3
I0509 17:16:56.043195 119981 net.cpp:122] Setting up inception_4b/output_inception_4b/output_0_split
I0509 17:16:56.043203 119981 net.cpp:129] Top shape: 32 512 14 14 (3211264)
I0509 17:16:56.043208 119981 net.cpp:129] Top shape: 32 512 14 14 (3211264)
I0509 17:16:56.043213 119981 net.cpp:129] Top shape: 32 512 14 14 (3211264)
I0509 17:16:56.043226 119981 net.cpp:129] Top shape: 32 512 14 14 (3211264)
I0509 17:16:56.043231 119981 net.cpp:137] Memory required for data: 1371297284
I0509 17:16:56.043233 119981 layer_factory.hpp:77] Creating layer inception_4c/1x1
I0509 17:16:56.043243 119981 net.cpp:84] Creating Layer inception_4c/1x1
I0509 17:16:56.043247 119981 net.cpp:406] inception_4c/1x1 <- inception_4b/output_inception_4b/output_0_split_0
I0509 17:16:56.043256 119981 net.cpp:380] inception_4c/1x1 -> inception_4c/1x1
I0509 17:16:56.043265 119981 base_conv_layer.cpp:121] Group is 1channel is512number of output is 128
I0509 17:16:56.043813 119981 net.cpp:122] Setting up inception_4c/1x1
I0509 17:16:56.043820 119981 net.cpp:129] Top shape: 32 128 14 14 (802816)
I0509 17:16:56.043824 119981 net.cpp:137] Memory required for data: 1374508548
I0509 17:16:56.043830 119981 layer_factory.hpp:77] Creating layer inception_4c/relu_1x1
I0509 17:16:56.043836 119981 net.cpp:84] Creating Layer inception_4c/relu_1x1
I0509 17:16:56.043840 119981 net.cpp:406] inception_4c/relu_1x1 <- inception_4c/1x1
I0509 17:16:56.043848 119981 net.cpp:367] inception_4c/relu_1x1 -> inception_4c/1x1 (in-place)
I0509 17:16:56.043853 119981 net.cpp:122] Setting up inception_4c/relu_1x1
I0509 17:16:56.043859 119981 net.cpp:129] Top shape: 32 128 14 14 (802816)
I0509 17:16:56.043862 119981 net.cpp:137] Memory required for data: 1377719812
I0509 17:16:56.043866 119981 layer_factory.hpp:77] Creating layer inception_4c/3x3_reduce
I0509 17:16:56.043875 119981 net.cpp:84] Creating Layer inception_4c/3x3_reduce
I0509 17:16:56.043879 119981 net.cpp:406] inception_4c/3x3_reduce <- inception_4b/output_inception_4b/output_0_split_1
I0509 17:16:56.043886 119981 net.cpp:380] inception_4c/3x3_reduce -> inception_4c/3x3_reduce
I0509 17:16:56.043897 119981 base_conv_layer.cpp:121] Group is 1channel is512number of output is 128
I0509 17:16:56.044438 119981 net.cpp:122] Setting up inception_4c/3x3_reduce
I0509 17:16:56.044445 119981 net.cpp:129] Top shape: 32 128 14 14 (802816)
I0509 17:16:56.044448 119981 net.cpp:137] Memory required for data: 1380931076
I0509 17:16:56.044456 119981 layer_factory.hpp:77] Creating layer inception_4c/relu_3x3_reduce
I0509 17:16:56.044462 119981 net.cpp:84] Creating Layer inception_4c/relu_3x3_reduce
I0509 17:16:56.044466 119981 net.cpp:406] inception_4c/relu_3x3_reduce <- inception_4c/3x3_reduce
I0509 17:16:56.044472 119981 net.cpp:367] inception_4c/relu_3x3_reduce -> inception_4c/3x3_reduce (in-place)
I0509 17:16:56.044479 119981 net.cpp:122] Setting up inception_4c/relu_3x3_reduce
I0509 17:16:56.044484 119981 net.cpp:129] Top shape: 32 128 14 14 (802816)
I0509 17:16:56.044487 119981 net.cpp:137] Memory required for data: 1384142340
I0509 17:16:56.044492 119981 layer_factory.hpp:77] Creating layer inception_4c/3x3
I0509 17:16:56.044500 119981 net.cpp:84] Creating Layer inception_4c/3x3
I0509 17:16:56.044503 119981 net.cpp:406] inception_4c/3x3 <- inception_4c/3x3_reduce
I0509 17:16:56.044512 119981 net.cpp:380] inception_4c/3x3 -> inception_4c/3x3
I0509 17:16:56.044520 119981 base_conv_layer.cpp:121] Group is 1channel is128number of output is 256
I0509 17:16:56.046875 119981 net.cpp:122] Setting up inception_4c/3x3
I0509 17:16:56.046881 119981 net.cpp:129] Top shape: 32 256 14 14 (1605632)
I0509 17:16:56.046885 119981 net.cpp:137] Memory required for data: 1390564868
I0509 17:16:56.046900 119981 layer_factory.hpp:77] Creating layer inception_4c/relu_3x3
I0509 17:16:56.046906 119981 net.cpp:84] Creating Layer inception_4c/relu_3x3
I0509 17:16:56.046911 119981 net.cpp:406] inception_4c/relu_3x3 <- inception_4c/3x3
I0509 17:16:56.046917 119981 net.cpp:367] inception_4c/relu_3x3 -> inception_4c/3x3 (in-place)
I0509 17:16:56.046924 119981 net.cpp:122] Setting up inception_4c/relu_3x3
I0509 17:16:56.046929 119981 net.cpp:129] Top shape: 32 256 14 14 (1605632)
I0509 17:16:56.046936 119981 net.cpp:137] Memory required for data: 1396987396
I0509 17:16:56.046941 119981 layer_factory.hpp:77] Creating layer inception_4c/5x5_reduce
I0509 17:16:56.046948 119981 net.cpp:84] Creating Layer inception_4c/5x5_reduce
I0509 17:16:56.046959 119981 net.cpp:406] inception_4c/5x5_reduce <- inception_4b/output_inception_4b/output_0_split_2
I0509 17:16:56.046967 119981 net.cpp:380] inception_4c/5x5_reduce -> inception_4c/5x5_reduce
I0509 17:16:56.046975 119981 base_conv_layer.cpp:121] Group is 1channel is512number of output is 24
I0509 17:16:56.047080 119981 net.cpp:122] Setting up inception_4c/5x5_reduce
I0509 17:16:56.047087 119981 net.cpp:129] Top shape: 32 24 14 14 (150528)
I0509 17:16:56.047091 119981 net.cpp:137] Memory required for data: 1397589508
I0509 17:16:56.047097 119981 layer_factory.hpp:77] Creating layer inception_4c/relu_5x5_reduce
I0509 17:16:56.047102 119981 net.cpp:84] Creating Layer inception_4c/relu_5x5_reduce
I0509 17:16:56.047107 119981 net.cpp:406] inception_4c/relu_5x5_reduce <- inception_4c/5x5_reduce
I0509 17:16:56.047116 119981 net.cpp:367] inception_4c/relu_5x5_reduce -> inception_4c/5x5_reduce (in-place)
I0509 17:16:56.047122 119981 net.cpp:122] Setting up inception_4c/relu_5x5_reduce
I0509 17:16:56.047127 119981 net.cpp:129] Top shape: 32 24 14 14 (150528)
I0509 17:16:56.047132 119981 net.cpp:137] Memory required for data: 1398191620
I0509 17:16:56.047135 119981 layer_factory.hpp:77] Creating layer inception_4c/5x5
I0509 17:16:56.047145 119981 net.cpp:84] Creating Layer inception_4c/5x5
I0509 17:16:56.047149 119981 net.cpp:406] inception_4c/5x5 <- inception_4c/5x5_reduce
I0509 17:16:56.047157 119981 net.cpp:380] inception_4c/5x5 -> inception_4c/5x5
I0509 17:16:56.047166 119981 base_conv_layer.cpp:121] Group is 1channel is24number of output is 64
I0509 17:16:56.047487 119981 net.cpp:122] Setting up inception_4c/5x5
I0509 17:16:56.047497 119981 net.cpp:129] Top shape: 32 64 14 14 (401408)
I0509 17:16:56.047500 119981 net.cpp:137] Memory required for data: 1399797252
I0509 17:16:56.047507 119981 layer_factory.hpp:77] Creating layer inception_4c/relu_5x5
I0509 17:16:56.047513 119981 net.cpp:84] Creating Layer inception_4c/relu_5x5
I0509 17:16:56.047516 119981 net.cpp:406] inception_4c/relu_5x5 <- inception_4c/5x5
I0509 17:16:56.047523 119981 net.cpp:367] inception_4c/relu_5x5 -> inception_4c/5x5 (in-place)
I0509 17:16:56.047528 119981 net.cpp:122] Setting up inception_4c/relu_5x5
I0509 17:16:56.047533 119981 net.cpp:129] Top shape: 32 64 14 14 (401408)
I0509 17:16:56.047536 119981 net.cpp:137] Memory required for data: 1401402884
I0509 17:16:56.047540 119981 layer_factory.hpp:77] Creating layer inception_4c/pool
I0509 17:16:56.047546 119981 net.cpp:84] Creating Layer inception_4c/pool
I0509 17:16:56.047550 119981 net.cpp:406] inception_4c/pool <- inception_4b/output_inception_4b/output_0_split_3
I0509 17:16:56.047557 119981 net.cpp:380] inception_4c/pool -> inception_4c/pool
I0509 17:16:56.047566 119981 net.cpp:122] Setting up inception_4c/pool
I0509 17:16:56.047574 119981 net.cpp:129] Top shape: 32 512 14 14 (3211264)
I0509 17:16:56.047576 119981 net.cpp:137] Memory required for data: 1414247940
I0509 17:16:56.047580 119981 layer_factory.hpp:77] Creating layer inception_4c/pool_proj
I0509 17:16:56.047588 119981 net.cpp:84] Creating Layer inception_4c/pool_proj
I0509 17:16:56.047592 119981 net.cpp:406] inception_4c/pool_proj <- inception_4c/pool
I0509 17:16:56.047603 119981 net.cpp:380] inception_4c/pool_proj -> inception_4c/pool_proj
I0509 17:16:56.047612 119981 base_conv_layer.cpp:121] Group is 1channel is512number of output is 64
I0509 17:16:56.047894 119981 net.cpp:122] Setting up inception_4c/pool_proj
I0509 17:16:56.047901 119981 net.cpp:129] Top shape: 32 64 14 14 (401408)
I0509 17:16:56.047904 119981 net.cpp:137] Memory required for data: 1415853572
I0509 17:16:56.047910 119981 layer_factory.hpp:77] Creating layer inception_4c/relu_pool_proj
I0509 17:16:56.047916 119981 net.cpp:84] Creating Layer inception_4c/relu_pool_proj
I0509 17:16:56.047925 119981 net.cpp:406] inception_4c/relu_pool_proj <- inception_4c/pool_proj
I0509 17:16:56.047931 119981 net.cpp:367] inception_4c/relu_pool_proj -> inception_4c/pool_proj (in-place)
I0509 17:16:56.047937 119981 net.cpp:122] Setting up inception_4c/relu_pool_proj
I0509 17:16:56.047948 119981 net.cpp:129] Top shape: 32 64 14 14 (401408)
I0509 17:16:56.047952 119981 net.cpp:137] Memory required for data: 1417459204
I0509 17:16:56.047955 119981 layer_factory.hpp:77] Creating layer inception_4c/output
I0509 17:16:56.047961 119981 net.cpp:84] Creating Layer inception_4c/output
I0509 17:16:56.047966 119981 net.cpp:406] inception_4c/output <- inception_4c/1x1
I0509 17:16:56.047971 119981 net.cpp:406] inception_4c/output <- inception_4c/3x3
I0509 17:16:56.047976 119981 net.cpp:406] inception_4c/output <- inception_4c/5x5
I0509 17:16:56.047979 119981 net.cpp:406] inception_4c/output <- inception_4c/pool_proj
I0509 17:16:56.047987 119981 net.cpp:380] inception_4c/output -> inception_4c/output
I0509 17:16:56.047996 119981 net.cpp:122] Setting up inception_4c/output
I0509 17:16:56.048001 119981 net.cpp:129] Top shape: 32 512 14 14 (3211264)
I0509 17:16:56.048003 119981 net.cpp:137] Memory required for data: 1430304260
I0509 17:16:56.048007 119981 layer_factory.hpp:77] Creating layer inception_4c/output_inception_4c/output_0_split
I0509 17:16:56.048013 119981 net.cpp:84] Creating Layer inception_4c/output_inception_4c/output_0_split
I0509 17:16:56.048017 119981 net.cpp:406] inception_4c/output_inception_4c/output_0_split <- inception_4c/output
I0509 17:16:56.048025 119981 net.cpp:380] inception_4c/output_inception_4c/output_0_split -> inception_4c/output_inception_4c/output_0_split_0
I0509 17:16:56.048033 119981 net.cpp:380] inception_4c/output_inception_4c/output_0_split -> inception_4c/output_inception_4c/output_0_split_1
I0509 17:16:56.048046 119981 net.cpp:380] inception_4c/output_inception_4c/output_0_split -> inception_4c/output_inception_4c/output_0_split_2
I0509 17:16:56.048055 119981 net.cpp:380] inception_4c/output_inception_4c/output_0_split -> inception_4c/output_inception_4c/output_0_split_3
I0509 17:16:56.048063 119981 net.cpp:122] Setting up inception_4c/output_inception_4c/output_0_split
I0509 17:16:56.048069 119981 net.cpp:129] Top shape: 32 512 14 14 (3211264)
I0509 17:16:56.048074 119981 net.cpp:129] Top shape: 32 512 14 14 (3211264)
I0509 17:16:56.048079 119981 net.cpp:129] Top shape: 32 512 14 14 (3211264)
I0509 17:16:56.048084 119981 net.cpp:129] Top shape: 32 512 14 14 (3211264)
I0509 17:16:56.048087 119981 net.cpp:137] Memory required for data: 1481684484
I0509 17:16:56.048090 119981 layer_factory.hpp:77] Creating layer inception_4d/1x1
I0509 17:16:56.048105 119981 net.cpp:84] Creating Layer inception_4d/1x1
I0509 17:16:56.048108 119981 net.cpp:406] inception_4d/1x1 <- inception_4c/output_inception_4c/output_0_split_0
I0509 17:16:56.048117 119981 net.cpp:380] inception_4d/1x1 -> inception_4d/1x1
I0509 17:16:56.048126 119981 base_conv_layer.cpp:121] Group is 1channel is512number of output is 112
I0509 17:16:56.048600 119981 net.cpp:122] Setting up inception_4d/1x1
I0509 17:16:56.048606 119981 net.cpp:129] Top shape: 32 112 14 14 (702464)
I0509 17:16:56.048611 119981 net.cpp:137] Memory required for data: 1484494340
I0509 17:16:56.048617 119981 layer_factory.hpp:77] Creating layer inception_4d/relu_1x1
I0509 17:16:56.048622 119981 net.cpp:84] Creating Layer inception_4d/relu_1x1
I0509 17:16:56.048626 119981 net.cpp:406] inception_4d/relu_1x1 <- inception_4d/1x1
I0509 17:16:56.048635 119981 net.cpp:367] inception_4d/relu_1x1 -> inception_4d/1x1 (in-place)
I0509 17:16:56.048641 119981 net.cpp:122] Setting up inception_4d/relu_1x1
I0509 17:16:56.048646 119981 net.cpp:129] Top shape: 32 112 14 14 (702464)
I0509 17:16:56.048650 119981 net.cpp:137] Memory required for data: 1487304196
I0509 17:16:56.048655 119981 layer_factory.hpp:77] Creating layer inception_4d/3x3_reduce
I0509 17:16:56.048663 119981 net.cpp:84] Creating Layer inception_4d/3x3_reduce
I0509 17:16:56.048667 119981 net.cpp:406] inception_4d/3x3_reduce <- inception_4c/output_inception_4c/output_0_split_1
I0509 17:16:56.048676 119981 net.cpp:380] inception_4d/3x3_reduce -> inception_4d/3x3_reduce
I0509 17:16:56.048688 119981 base_conv_layer.cpp:121] Group is 1channel is512number of output is 144
I0509 17:16:56.049295 119981 net.cpp:122] Setting up inception_4d/3x3_reduce
I0509 17:16:56.049304 119981 net.cpp:129] Top shape: 32 144 14 14 (903168)
I0509 17:16:56.049307 119981 net.cpp:137] Memory required for data: 1490916868
I0509 17:16:56.049314 119981 layer_factory.hpp:77] Creating layer inception_4d/relu_3x3_reduce
I0509 17:16:56.049319 119981 net.cpp:84] Creating Layer inception_4d/relu_3x3_reduce
I0509 17:16:56.049324 119981 net.cpp:406] inception_4d/relu_3x3_reduce <- inception_4d/3x3_reduce
I0509 17:16:56.049329 119981 net.cpp:367] inception_4d/relu_3x3_reduce -> inception_4d/3x3_reduce (in-place)
I0509 17:16:56.049335 119981 net.cpp:122] Setting up inception_4d/relu_3x3_reduce
I0509 17:16:56.049340 119981 net.cpp:129] Top shape: 32 144 14 14 (903168)
I0509 17:16:56.049343 119981 net.cpp:137] Memory required for data: 1494529540
I0509 17:16:56.049346 119981 layer_factory.hpp:77] Creating layer inception_4d/3x3
I0509 17:16:56.049356 119981 net.cpp:84] Creating Layer inception_4d/3x3
I0509 17:16:56.049360 119981 net.cpp:406] inception_4d/3x3 <- inception_4d/3x3_reduce
I0509 17:16:56.049366 119981 net.cpp:380] inception_4d/3x3 -> inception_4d/3x3
I0509 17:16:56.049376 119981 base_conv_layer.cpp:121] Group is 1channel is144number of output is 288
I0509 17:16:56.052356 119981 net.cpp:122] Setting up inception_4d/3x3
I0509 17:16:56.052366 119981 net.cpp:129] Top shape: 32 288 14 14 (1806336)
I0509 17:16:56.052368 119981 net.cpp:137] Memory required for data: 1501754884
I0509 17:16:56.052374 119981 layer_factory.hpp:77] Creating layer inception_4d/relu_3x3
I0509 17:16:56.052382 119981 net.cpp:84] Creating Layer inception_4d/relu_3x3
I0509 17:16:56.052386 119981 net.cpp:406] inception_4d/relu_3x3 <- inception_4d/3x3
I0509 17:16:56.052392 119981 net.cpp:367] inception_4d/relu_3x3 -> inception_4d/3x3 (in-place)
I0509 17:16:56.052398 119981 net.cpp:122] Setting up inception_4d/relu_3x3
I0509 17:16:56.052404 119981 net.cpp:129] Top shape: 32 288 14 14 (1806336)
I0509 17:16:56.052407 119981 net.cpp:137] Memory required for data: 1508980228
I0509 17:16:56.052412 119981 layer_factory.hpp:77] Creating layer inception_4d/5x5_reduce
I0509 17:16:56.052418 119981 net.cpp:84] Creating Layer inception_4d/5x5_reduce
I0509 17:16:56.052433 119981 net.cpp:406] inception_4d/5x5_reduce <- inception_4c/output_inception_4c/output_0_split_2
I0509 17:16:56.052441 119981 net.cpp:380] inception_4d/5x5_reduce -> inception_4d/5x5_reduce
I0509 17:16:56.052450 119981 base_conv_layer.cpp:121] Group is 1channel is512number of output is 32
I0509 17:16:56.052580 119981 net.cpp:122] Setting up inception_4d/5x5_reduce
I0509 17:16:56.052587 119981 net.cpp:129] Top shape: 32 32 14 14 (200704)
I0509 17:16:56.052592 119981 net.cpp:137] Memory required for data: 1509783044
I0509 17:16:56.052597 119981 layer_factory.hpp:77] Creating layer inception_4d/relu_5x5_reduce
I0509 17:16:56.052606 119981 net.cpp:84] Creating Layer inception_4d/relu_5x5_reduce
I0509 17:16:56.052611 119981 net.cpp:406] inception_4d/relu_5x5_reduce <- inception_4d/5x5_reduce
I0509 17:16:56.052618 119981 net.cpp:367] inception_4d/relu_5x5_reduce -> inception_4d/5x5_reduce (in-place)
I0509 17:16:56.052623 119981 net.cpp:122] Setting up inception_4d/relu_5x5_reduce
I0509 17:16:56.052628 119981 net.cpp:129] Top shape: 32 32 14 14 (200704)
I0509 17:16:56.052631 119981 net.cpp:137] Memory required for data: 1510585860
I0509 17:16:56.052635 119981 layer_factory.hpp:77] Creating layer inception_4d/5x5
I0509 17:16:56.052642 119981 net.cpp:84] Creating Layer inception_4d/5x5
I0509 17:16:56.052645 119981 net.cpp:406] inception_4d/5x5 <- inception_4d/5x5_reduce
I0509 17:16:56.052654 119981 net.cpp:380] inception_4d/5x5 -> inception_4d/5x5
I0509 17:16:56.052662 119981 base_conv_layer.cpp:121] Group is 1channel is32number of output is 64
I0509 17:16:56.053069 119981 net.cpp:122] Setting up inception_4d/5x5
I0509 17:16:56.053076 119981 net.cpp:129] Top shape: 32 64 14 14 (401408)
I0509 17:16:56.053081 119981 net.cpp:137] Memory required for data: 1512191492
I0509 17:16:56.053086 119981 layer_factory.hpp:77] Creating layer inception_4d/relu_5x5
I0509 17:16:56.053097 119981 net.cpp:84] Creating Layer inception_4d/relu_5x5
I0509 17:16:56.053102 119981 net.cpp:406] inception_4d/relu_5x5 <- inception_4d/5x5
I0509 17:16:56.053109 119981 net.cpp:367] inception_4d/relu_5x5 -> inception_4d/5x5 (in-place)
I0509 17:16:56.053114 119981 net.cpp:122] Setting up inception_4d/relu_5x5
I0509 17:16:56.053119 119981 net.cpp:129] Top shape: 32 64 14 14 (401408)
I0509 17:16:56.053122 119981 net.cpp:137] Memory required for data: 1513797124
I0509 17:16:56.053128 119981 layer_factory.hpp:77] Creating layer inception_4d/pool
I0509 17:16:56.053133 119981 net.cpp:84] Creating Layer inception_4d/pool
I0509 17:16:56.053136 119981 net.cpp:406] inception_4d/pool <- inception_4c/output_inception_4c/output_0_split_3
I0509 17:16:56.053144 119981 net.cpp:380] inception_4d/pool -> inception_4d/pool
I0509 17:16:56.053153 119981 net.cpp:122] Setting up inception_4d/pool
I0509 17:16:56.053158 119981 net.cpp:129] Top shape: 32 512 14 14 (3211264)
I0509 17:16:56.053161 119981 net.cpp:137] Memory required for data: 1526642180
I0509 17:16:56.053165 119981 layer_factory.hpp:77] Creating layer inception_4d/pool_proj
I0509 17:16:56.053174 119981 net.cpp:84] Creating Layer inception_4d/pool_proj
I0509 17:16:56.053179 119981 net.cpp:406] inception_4d/pool_proj <- inception_4d/pool
I0509 17:16:56.053187 119981 net.cpp:380] inception_4d/pool_proj -> inception_4d/pool_proj
I0509 17:16:56.053195 119981 base_conv_layer.cpp:121] Group is 1channel is512number of output is 64
I0509 17:16:56.053457 119981 net.cpp:122] Setting up inception_4d/pool_proj
I0509 17:16:56.053462 119981 net.cpp:129] Top shape: 32 64 14 14 (401408)
I0509 17:16:56.053467 119981 net.cpp:137] Memory required for data: 1528247812
I0509 17:16:56.053472 119981 layer_factory.hpp:77] Creating layer inception_4d/relu_pool_proj
I0509 17:16:56.053478 119981 net.cpp:84] Creating Layer inception_4d/relu_pool_proj
I0509 17:16:56.053483 119981 net.cpp:406] inception_4d/relu_pool_proj <- inception_4d/pool_proj
I0509 17:16:56.053489 119981 net.cpp:367] inception_4d/relu_pool_proj -> inception_4d/pool_proj (in-place)
I0509 17:16:56.053495 119981 net.cpp:122] Setting up inception_4d/relu_pool_proj
I0509 17:16:56.053500 119981 net.cpp:129] Top shape: 32 64 14 14 (401408)
I0509 17:16:56.053503 119981 net.cpp:137] Memory required for data: 1529853444
I0509 17:16:56.053506 119981 layer_factory.hpp:77] Creating layer inception_4d/output
I0509 17:16:56.053513 119981 net.cpp:84] Creating Layer inception_4d/output
I0509 17:16:56.053516 119981 net.cpp:406] inception_4d/output <- inception_4d/1x1
I0509 17:16:56.053521 119981 net.cpp:406] inception_4d/output <- inception_4d/3x3
I0509 17:16:56.053525 119981 net.cpp:406] inception_4d/output <- inception_4d/5x5
I0509 17:16:56.053529 119981 net.cpp:406] inception_4d/output <- inception_4d/pool_proj
I0509 17:16:56.053535 119981 net.cpp:380] inception_4d/output -> inception_4d/output
I0509 17:16:56.053542 119981 net.cpp:122] Setting up inception_4d/output
I0509 17:16:56.053546 119981 net.cpp:129] Top shape: 32 528 14 14 (3311616)
I0509 17:16:56.053550 119981 net.cpp:137] Memory required for data: 1543099908
I0509 17:16:56.053555 119981 layer_factory.hpp:77] Creating layer inception_4d/output_inception_4d/output_0_split
I0509 17:16:56.053562 119981 net.cpp:84] Creating Layer inception_4d/output_inception_4d/output_0_split
I0509 17:16:56.053566 119981 net.cpp:406] inception_4d/output_inception_4d/output_0_split <- inception_4d/output
I0509 17:16:56.053576 119981 net.cpp:380] inception_4d/output_inception_4d/output_0_split -> inception_4d/output_inception_4d/output_0_split_0
I0509 17:16:56.053584 119981 net.cpp:380] inception_4d/output_inception_4d/output_0_split -> inception_4d/output_inception_4d/output_0_split_1
I0509 17:16:56.053591 119981 net.cpp:380] inception_4d/output_inception_4d/output_0_split -> inception_4d/output_inception_4d/output_0_split_2
I0509 17:16:56.053601 119981 net.cpp:380] inception_4d/output_inception_4d/output_0_split -> inception_4d/output_inception_4d/output_0_split_3
I0509 17:16:56.053612 119981 net.cpp:380] inception_4d/output_inception_4d/output_0_split -> inception_4d/output_inception_4d/output_0_split_4
I0509 17:16:56.053622 119981 net.cpp:122] Setting up inception_4d/output_inception_4d/output_0_split
I0509 17:16:56.053627 119981 net.cpp:129] Top shape: 32 528 14 14 (3311616)
I0509 17:16:56.053632 119981 net.cpp:129] Top shape: 32 528 14 14 (3311616)
I0509 17:16:56.053637 119981 net.cpp:129] Top shape: 32 528 14 14 (3311616)
I0509 17:16:56.053642 119981 net.cpp:129] Top shape: 32 528 14 14 (3311616)
I0509 17:16:56.053648 119981 net.cpp:129] Top shape: 32 528 14 14 (3311616)
I0509 17:16:56.053652 119981 net.cpp:137] Memory required for data: 1609332228
I0509 17:16:56.053655 119981 layer_factory.hpp:77] Creating layer loss2/ave_pool
I0509 17:16:56.053663 119981 net.cpp:84] Creating Layer loss2/ave_pool
I0509 17:16:56.053666 119981 net.cpp:406] loss2/ave_pool <- inception_4d/output_inception_4d/output_0_split_0
I0509 17:16:56.053673 119981 net.cpp:380] loss2/ave_pool -> loss2/ave_pool
I0509 17:16:56.053679 119981 net.cpp:122] Setting up loss2/ave_pool
I0509 17:16:56.053684 119981 net.cpp:129] Top shape: 32 528 4 4 (270336)
I0509 17:16:56.053689 119981 net.cpp:137] Memory required for data: 1610413572
I0509 17:16:56.053691 119981 layer_factory.hpp:77] Creating layer loss2/conv
I0509 17:16:56.053700 119981 net.cpp:84] Creating Layer loss2/conv
I0509 17:16:56.053705 119981 net.cpp:406] loss2/conv <- loss2/ave_pool
I0509 17:16:56.053712 119981 net.cpp:380] loss2/conv -> loss2/conv
I0509 17:16:56.053721 119981 base_conv_layer.cpp:121] Group is 1channel is528number of output is 128
I0509 17:16:56.054250 119981 net.cpp:122] Setting up loss2/conv
I0509 17:16:56.054258 119981 net.cpp:129] Top shape: 32 128 4 4 (65536)
I0509 17:16:56.054261 119981 net.cpp:137] Memory required for data: 1610675716
I0509 17:16:56.054267 119981 layer_factory.hpp:77] Creating layer loss2/relu_conv
I0509 17:16:56.054272 119981 net.cpp:84] Creating Layer loss2/relu_conv
I0509 17:16:56.054277 119981 net.cpp:406] loss2/relu_conv <- loss2/conv
I0509 17:16:56.054282 119981 net.cpp:367] loss2/relu_conv -> loss2/conv (in-place)
I0509 17:16:56.054287 119981 net.cpp:122] Setting up loss2/relu_conv
I0509 17:16:56.054292 119981 net.cpp:129] Top shape: 32 128 4 4 (65536)
I0509 17:16:56.054296 119981 net.cpp:137] Memory required for data: 1610937860
I0509 17:16:56.054299 119981 layer_factory.hpp:77] Creating layer loss2/fc
I0509 17:16:56.054306 119981 net.cpp:84] Creating Layer loss2/fc
I0509 17:16:56.054311 119981 net.cpp:406] loss2/fc <- loss2/conv
I0509 17:16:56.054317 119981 net.cpp:380] loss2/fc -> loss2/fc
I0509 17:16:56.068001 119981 net.cpp:122] Setting up loss2/fc
I0509 17:16:56.068011 119981 net.cpp:129] Top shape: 32 1024 (32768)
I0509 17:16:56.068012 119981 net.cpp:137] Memory required for data: 1611068932
I0509 17:16:56.068019 119981 layer_factory.hpp:77] Creating layer loss2/relu_fc
I0509 17:16:56.068024 119981 net.cpp:84] Creating Layer loss2/relu_fc
I0509 17:16:56.068027 119981 net.cpp:406] loss2/relu_fc <- loss2/fc
I0509 17:16:56.068032 119981 net.cpp:367] loss2/relu_fc -> loss2/fc (in-place)
I0509 17:16:56.068042 119981 net.cpp:122] Setting up loss2/relu_fc
I0509 17:16:56.068047 119981 net.cpp:129] Top shape: 32 1024 (32768)
I0509 17:16:56.068049 119981 net.cpp:137] Memory required for data: 1611200004
I0509 17:16:56.068053 119981 layer_factory.hpp:77] Creating layer loss2/drop_fc
I0509 17:16:56.068058 119981 net.cpp:84] Creating Layer loss2/drop_fc
I0509 17:16:56.068060 119981 net.cpp:406] loss2/drop_fc <- loss2/fc
I0509 17:16:56.068064 119981 net.cpp:367] loss2/drop_fc -> loss2/fc (in-place)
I0509 17:16:56.068069 119981 net.cpp:122] Setting up loss2/drop_fc
I0509 17:16:56.068074 119981 net.cpp:129] Top shape: 32 1024 (32768)
I0509 17:16:56.068076 119981 net.cpp:137] Memory required for data: 1611331076
I0509 17:16:56.068083 119981 layer_factory.hpp:77] Creating layer loss2/classifier
I0509 17:16:56.068089 119981 net.cpp:84] Creating Layer loss2/classifier
I0509 17:16:56.068092 119981 net.cpp:406] loss2/classifier <- loss2/fc
I0509 17:16:56.068102 119981 net.cpp:380] loss2/classifier -> loss2/classifier
I0509 17:16:56.074331 119981 net.cpp:122] Setting up loss2/classifier
I0509 17:16:56.074338 119981 net.cpp:129] Top shape: 32 1000 (32000)
I0509 17:16:56.074342 119981 net.cpp:137] Memory required for data: 1611459076
I0509 17:16:56.074347 119981 layer_factory.hpp:77] Creating layer loss2/loss
I0509 17:16:56.074353 119981 net.cpp:84] Creating Layer loss2/loss
I0509 17:16:56.074357 119981 net.cpp:406] loss2/loss <- loss2/classifier
I0509 17:16:56.074362 119981 net.cpp:406] loss2/loss <- label_data_1_split_1
I0509 17:16:56.074367 119981 net.cpp:380] loss2/loss -> loss2/loss2
I0509 17:16:56.074373 119981 layer_factory.hpp:77] Creating layer loss2/loss
I0509 17:16:56.074434 119981 net.cpp:122] Setting up loss2/loss
I0509 17:16:56.074440 119981 net.cpp:129] Top shape: (1)
I0509 17:16:56.074442 119981 net.cpp:132]     with loss weight 0.3
I0509 17:16:56.074455 119981 net.cpp:137] Memory required for data: 1611459080
I0509 17:16:56.074456 119981 layer_factory.hpp:77] Creating layer inception_4e/1x1
I0509 17:16:56.074466 119981 net.cpp:84] Creating Layer inception_4e/1x1
I0509 17:16:56.074470 119981 net.cpp:406] inception_4e/1x1 <- inception_4d/output_inception_4d/output_0_split_1
I0509 17:16:56.074476 119981 net.cpp:380] inception_4e/1x1 -> inception_4e/1x1
I0509 17:16:56.074491 119981 base_conv_layer.cpp:121] Group is 1channel is528number of output is 256
I0509 17:16:56.075350 119981 net.cpp:122] Setting up inception_4e/1x1
I0509 17:16:56.075356 119981 net.cpp:129] Top shape: 32 256 14 14 (1605632)
I0509 17:16:56.075358 119981 net.cpp:137] Memory required for data: 1617881608
I0509 17:16:56.075363 119981 layer_factory.hpp:77] Creating layer inception_4e/relu_1x1
I0509 17:16:56.075368 119981 net.cpp:84] Creating Layer inception_4e/relu_1x1
I0509 17:16:56.075371 119981 net.cpp:406] inception_4e/relu_1x1 <- inception_4e/1x1
I0509 17:16:56.075378 119981 net.cpp:367] inception_4e/relu_1x1 -> inception_4e/1x1 (in-place)
I0509 17:16:56.075383 119981 net.cpp:122] Setting up inception_4e/relu_1x1
I0509 17:16:56.075388 119981 net.cpp:129] Top shape: 32 256 14 14 (1605632)
I0509 17:16:56.075390 119981 net.cpp:137] Memory required for data: 1624304136
I0509 17:16:56.075393 119981 layer_factory.hpp:77] Creating layer inception_4e/3x3_reduce
I0509 17:16:56.075400 119981 net.cpp:84] Creating Layer inception_4e/3x3_reduce
I0509 17:16:56.075404 119981 net.cpp:406] inception_4e/3x3_reduce <- inception_4d/output_inception_4d/output_0_split_2
I0509 17:16:56.075409 119981 net.cpp:380] inception_4e/3x3_reduce -> inception_4e/3x3_reduce
I0509 17:16:56.075417 119981 base_conv_layer.cpp:121] Group is 1channel is528number of output is 160
I0509 17:16:56.075958 119981 net.cpp:122] Setting up inception_4e/3x3_reduce
I0509 17:16:56.075964 119981 net.cpp:129] Top shape: 32 160 14 14 (1003520)
I0509 17:16:56.075968 119981 net.cpp:137] Memory required for data: 1628318216
I0509 17:16:56.075971 119981 layer_factory.hpp:77] Creating layer inception_4e/relu_3x3_reduce
I0509 17:16:56.075978 119981 net.cpp:84] Creating Layer inception_4e/relu_3x3_reduce
I0509 17:16:56.075981 119981 net.cpp:406] inception_4e/relu_3x3_reduce <- inception_4e/3x3_reduce
I0509 17:16:56.075985 119981 net.cpp:367] inception_4e/relu_3x3_reduce -> inception_4e/3x3_reduce (in-place)
I0509 17:16:56.075990 119981 net.cpp:122] Setting up inception_4e/relu_3x3_reduce
I0509 17:16:56.075994 119981 net.cpp:129] Top shape: 32 160 14 14 (1003520)
I0509 17:16:56.075997 119981 net.cpp:137] Memory required for data: 1632332296
I0509 17:16:56.076000 119981 layer_factory.hpp:77] Creating layer inception_4e/3x3
I0509 17:16:56.076007 119981 net.cpp:84] Creating Layer inception_4e/3x3
I0509 17:16:56.076011 119981 net.cpp:406] inception_4e/3x3 <- inception_4e/3x3_reduce
I0509 17:16:56.076021 119981 net.cpp:380] inception_4e/3x3 -> inception_4e/3x3
I0509 17:16:56.076030 119981 base_conv_layer.cpp:121] Group is 1channel is160number of output is 320
I0509 17:16:56.079079 119981 net.cpp:122] Setting up inception_4e/3x3
I0509 17:16:56.079095 119981 net.cpp:129] Top shape: 32 320 14 14 (2007040)
I0509 17:16:56.079098 119981 net.cpp:137] Memory required for data: 1640360456
I0509 17:16:56.079104 119981 layer_factory.hpp:77] Creating layer inception_4e/relu_3x3
I0509 17:16:56.079108 119981 net.cpp:84] Creating Layer inception_4e/relu_3x3
I0509 17:16:56.079113 119981 net.cpp:406] inception_4e/relu_3x3 <- inception_4e/3x3
I0509 17:16:56.079118 119981 net.cpp:367] inception_4e/relu_3x3 -> inception_4e/3x3 (in-place)
I0509 17:16:56.079123 119981 net.cpp:122] Setting up inception_4e/relu_3x3
I0509 17:16:56.079126 119981 net.cpp:129] Top shape: 32 320 14 14 (2007040)
I0509 17:16:56.079129 119981 net.cpp:137] Memory required for data: 1648388616
I0509 17:16:56.079133 119981 layer_factory.hpp:77] Creating layer inception_4e/5x5_reduce
I0509 17:16:56.079140 119981 net.cpp:84] Creating Layer inception_4e/5x5_reduce
I0509 17:16:56.079144 119981 net.cpp:406] inception_4e/5x5_reduce <- inception_4d/output_inception_4d/output_0_split_3
I0509 17:16:56.079149 119981 net.cpp:380] inception_4e/5x5_reduce -> inception_4e/5x5_reduce
I0509 17:16:56.079157 119981 base_conv_layer.cpp:121] Group is 1channel is528number of output is 32
I0509 17:16:56.079273 119981 net.cpp:122] Setting up inception_4e/5x5_reduce
I0509 17:16:56.079279 119981 net.cpp:129] Top shape: 32 32 14 14 (200704)
I0509 17:16:56.079282 119981 net.cpp:137] Memory required for data: 1649191432
I0509 17:16:56.079288 119981 layer_factory.hpp:77] Creating layer inception_4e/relu_5x5_reduce
I0509 17:16:56.079293 119981 net.cpp:84] Creating Layer inception_4e/relu_5x5_reduce
I0509 17:16:56.079295 119981 net.cpp:406] inception_4e/relu_5x5_reduce <- inception_4e/5x5_reduce
I0509 17:16:56.079301 119981 net.cpp:367] inception_4e/relu_5x5_reduce -> inception_4e/5x5_reduce (in-place)
I0509 17:16:56.079306 119981 net.cpp:122] Setting up inception_4e/relu_5x5_reduce
I0509 17:16:56.079310 119981 net.cpp:129] Top shape: 32 32 14 14 (200704)
I0509 17:16:56.079313 119981 net.cpp:137] Memory required for data: 1649994248
I0509 17:16:56.079315 119981 layer_factory.hpp:77] Creating layer inception_4e/5x5
I0509 17:16:56.079349 119981 net.cpp:84] Creating Layer inception_4e/5x5
I0509 17:16:56.079352 119981 net.cpp:406] inception_4e/5x5 <- inception_4e/5x5_reduce
I0509 17:16:56.079357 119981 net.cpp:380] inception_4e/5x5 -> inception_4e/5x5
I0509 17:16:56.079365 119981 base_conv_layer.cpp:121] Group is 1channel is32number of output is 128
I0509 17:16:56.080018 119981 net.cpp:122] Setting up inception_4e/5x5
I0509 17:16:56.080024 119981 net.cpp:129] Top shape: 32 128 14 14 (802816)
I0509 17:16:56.080026 119981 net.cpp:137] Memory required for data: 1653205512
I0509 17:16:56.080031 119981 layer_factory.hpp:77] Creating layer inception_4e/relu_5x5
I0509 17:16:56.080042 119981 net.cpp:84] Creating Layer inception_4e/relu_5x5
I0509 17:16:56.080046 119981 net.cpp:406] inception_4e/relu_5x5 <- inception_4e/5x5
I0509 17:16:56.080050 119981 net.cpp:367] inception_4e/relu_5x5 -> inception_4e/5x5 (in-place)
I0509 17:16:56.080055 119981 net.cpp:122] Setting up inception_4e/relu_5x5
I0509 17:16:56.080060 119981 net.cpp:129] Top shape: 32 128 14 14 (802816)
I0509 17:16:56.080062 119981 net.cpp:137] Memory required for data: 1656416776
I0509 17:16:56.080065 119981 layer_factory.hpp:77] Creating layer inception_4e/pool
I0509 17:16:56.080070 119981 net.cpp:84] Creating Layer inception_4e/pool
I0509 17:16:56.080075 119981 net.cpp:406] inception_4e/pool <- inception_4d/output_inception_4d/output_0_split_4
I0509 17:16:56.080080 119981 net.cpp:380] inception_4e/pool -> inception_4e/pool
I0509 17:16:56.080088 119981 net.cpp:122] Setting up inception_4e/pool
I0509 17:16:56.080092 119981 net.cpp:129] Top shape: 32 528 14 14 (3311616)
I0509 17:16:56.080096 119981 net.cpp:137] Memory required for data: 1669663240
I0509 17:16:56.080101 119981 layer_factory.hpp:77] Creating layer inception_4e/pool_proj
I0509 17:16:56.080108 119981 net.cpp:84] Creating Layer inception_4e/pool_proj
I0509 17:16:56.080112 119981 net.cpp:406] inception_4e/pool_proj <- inception_4e/pool
I0509 17:16:56.080124 119981 net.cpp:380] inception_4e/pool_proj -> inception_4e/pool_proj
I0509 17:16:56.080132 119981 base_conv_layer.cpp:121] Group is 1channel is528number of output is 128
I0509 17:16:56.080569 119981 net.cpp:122] Setting up inception_4e/pool_proj
I0509 17:16:56.080574 119981 net.cpp:129] Top shape: 32 128 14 14 (802816)
I0509 17:16:56.080579 119981 net.cpp:137] Memory required for data: 1672874504
I0509 17:16:56.080582 119981 layer_factory.hpp:77] Creating layer inception_4e/relu_pool_proj
I0509 17:16:56.080587 119981 net.cpp:84] Creating Layer inception_4e/relu_pool_proj
I0509 17:16:56.080590 119981 net.cpp:406] inception_4e/relu_pool_proj <- inception_4e/pool_proj
I0509 17:16:56.080596 119981 net.cpp:367] inception_4e/relu_pool_proj -> inception_4e/pool_proj (in-place)
I0509 17:16:56.080601 119981 net.cpp:122] Setting up inception_4e/relu_pool_proj
I0509 17:16:56.080605 119981 net.cpp:129] Top shape: 32 128 14 14 (802816)
I0509 17:16:56.080608 119981 net.cpp:137] Memory required for data: 1676085768
I0509 17:16:56.080611 119981 layer_factory.hpp:77] Creating layer inception_4e/output
I0509 17:16:56.080616 119981 net.cpp:84] Creating Layer inception_4e/output
I0509 17:16:56.080620 119981 net.cpp:406] inception_4e/output <- inception_4e/1x1
I0509 17:16:56.080623 119981 net.cpp:406] inception_4e/output <- inception_4e/3x3
I0509 17:16:56.080627 119981 net.cpp:406] inception_4e/output <- inception_4e/5x5
I0509 17:16:56.080631 119981 net.cpp:406] inception_4e/output <- inception_4e/pool_proj
I0509 17:16:56.080636 119981 net.cpp:380] inception_4e/output -> inception_4e/output
I0509 17:16:56.080641 119981 net.cpp:122] Setting up inception_4e/output
I0509 17:16:56.080646 119981 net.cpp:129] Top shape: 32 832 14 14 (5218304)
I0509 17:16:56.080648 119981 net.cpp:137] Memory required for data: 1696958984
I0509 17:16:56.080651 119981 layer_factory.hpp:77] Creating layer pool4/3x3_s2
I0509 17:16:56.080655 119981 net.cpp:84] Creating Layer pool4/3x3_s2
I0509 17:16:56.080659 119981 net.cpp:406] pool4/3x3_s2 <- inception_4e/output
I0509 17:16:56.080664 119981 net.cpp:380] pool4/3x3_s2 -> pool4/3x3_s2
I0509 17:16:56.080670 119981 net.cpp:122] Setting up pool4/3x3_s2
I0509 17:16:56.080674 119981 net.cpp:129] Top shape: 32 832 7 7 (1304576)
I0509 17:16:56.080678 119981 net.cpp:137] Memory required for data: 1702177288
I0509 17:16:56.080680 119981 layer_factory.hpp:77] Creating layer pool4/3x3_s2_pool4/3x3_s2_0_split
I0509 17:16:56.080687 119981 net.cpp:84] Creating Layer pool4/3x3_s2_pool4/3x3_s2_0_split
I0509 17:16:56.080690 119981 net.cpp:406] pool4/3x3_s2_pool4/3x3_s2_0_split <- pool4/3x3_s2
I0509 17:16:56.080696 119981 net.cpp:380] pool4/3x3_s2_pool4/3x3_s2_0_split -> pool4/3x3_s2_pool4/3x3_s2_0_split_0
I0509 17:16:56.080703 119981 net.cpp:380] pool4/3x3_s2_pool4/3x3_s2_0_split -> pool4/3x3_s2_pool4/3x3_s2_0_split_1
I0509 17:16:56.080708 119981 net.cpp:380] pool4/3x3_s2_pool4/3x3_s2_0_split -> pool4/3x3_s2_pool4/3x3_s2_0_split_2
I0509 17:16:56.080713 119981 net.cpp:380] pool4/3x3_s2_pool4/3x3_s2_0_split -> pool4/3x3_s2_pool4/3x3_s2_0_split_3
I0509 17:16:56.080720 119981 net.cpp:122] Setting up pool4/3x3_s2_pool4/3x3_s2_0_split
I0509 17:16:56.080724 119981 net.cpp:129] Top shape: 32 832 7 7 (1304576)
I0509 17:16:56.080729 119981 net.cpp:129] Top shape: 32 832 7 7 (1304576)
I0509 17:16:56.080731 119981 net.cpp:129] Top shape: 32 832 7 7 (1304576)
I0509 17:16:56.080735 119981 net.cpp:129] Top shape: 32 832 7 7 (1304576)
I0509 17:16:56.080739 119981 net.cpp:137] Memory required for data: 1723050504
I0509 17:16:56.080741 119981 layer_factory.hpp:77] Creating layer inception_5a/1x1
I0509 17:16:56.080749 119981 net.cpp:84] Creating Layer inception_5a/1x1
I0509 17:16:56.080752 119981 net.cpp:406] inception_5a/1x1 <- pool4/3x3_s2_pool4/3x3_s2_0_split_0
I0509 17:16:56.080762 119981 net.cpp:380] inception_5a/1x1 -> inception_5a/1x1
I0509 17:16:56.080770 119981 base_conv_layer.cpp:121] Group is 1channel is832number of output is 256
I0509 17:16:56.082111 119981 net.cpp:122] Setting up inception_5a/1x1
I0509 17:16:56.082123 119981 net.cpp:129] Top shape: 32 256 7 7 (401408)
I0509 17:16:56.082125 119981 net.cpp:137] Memory required for data: 1724656136
I0509 17:16:56.082130 119981 layer_factory.hpp:77] Creating layer inception_5a/relu_1x1
I0509 17:16:56.082136 119981 net.cpp:84] Creating Layer inception_5a/relu_1x1
I0509 17:16:56.082140 119981 net.cpp:406] inception_5a/relu_1x1 <- inception_5a/1x1
I0509 17:16:56.082144 119981 net.cpp:367] inception_5a/relu_1x1 -> inception_5a/1x1 (in-place)
I0509 17:16:56.082149 119981 net.cpp:122] Setting up inception_5a/relu_1x1
I0509 17:16:56.082154 119981 net.cpp:129] Top shape: 32 256 7 7 (401408)
I0509 17:16:56.082156 119981 net.cpp:137] Memory required for data: 1726261768
I0509 17:16:56.082159 119981 layer_factory.hpp:77] Creating layer inception_5a/3x3_reduce
I0509 17:16:56.082165 119981 net.cpp:84] Creating Layer inception_5a/3x3_reduce
I0509 17:16:56.082168 119981 net.cpp:406] inception_5a/3x3_reduce <- pool4/3x3_s2_pool4/3x3_s2_0_split_1
I0509 17:16:56.082175 119981 net.cpp:380] inception_5a/3x3_reduce -> inception_5a/3x3_reduce
I0509 17:16:56.082183 119981 base_conv_layer.cpp:121] Group is 1channel is832number of output is 160
I0509 17:16:56.083031 119981 net.cpp:122] Setting up inception_5a/3x3_reduce
I0509 17:16:56.083037 119981 net.cpp:129] Top shape: 32 160 7 7 (250880)
I0509 17:16:56.083040 119981 net.cpp:137] Memory required for data: 1727265288
I0509 17:16:56.083045 119981 layer_factory.hpp:77] Creating layer inception_5a/relu_3x3_reduce
I0509 17:16:56.083050 119981 net.cpp:84] Creating Layer inception_5a/relu_3x3_reduce
I0509 17:16:56.083052 119981 net.cpp:406] inception_5a/relu_3x3_reduce <- inception_5a/3x3_reduce
I0509 17:16:56.083057 119981 net.cpp:367] inception_5a/relu_3x3_reduce -> inception_5a/3x3_reduce (in-place)
I0509 17:16:56.083062 119981 net.cpp:122] Setting up inception_5a/relu_3x3_reduce
I0509 17:16:56.083066 119981 net.cpp:129] Top shape: 32 160 7 7 (250880)
I0509 17:16:56.083070 119981 net.cpp:137] Memory required for data: 1728268808
I0509 17:16:56.083072 119981 layer_factory.hpp:77] Creating layer inception_5a/3x3
I0509 17:16:56.083079 119981 net.cpp:84] Creating Layer inception_5a/3x3
I0509 17:16:56.083082 119981 net.cpp:406] inception_5a/3x3 <- inception_5a/3x3_reduce
I0509 17:16:56.083087 119981 net.cpp:380] inception_5a/3x3 -> inception_5a/3x3
I0509 17:16:56.083096 119981 base_conv_layer.cpp:121] Group is 1channel is160number of output is 320
I0509 17:16:56.086005 119981 net.cpp:122] Setting up inception_5a/3x3
I0509 17:16:56.086011 119981 net.cpp:129] Top shape: 32 320 7 7 (501760)
I0509 17:16:56.086014 119981 net.cpp:137] Memory required for data: 1730275848
I0509 17:16:56.086020 119981 layer_factory.hpp:77] Creating layer inception_5a/relu_3x3
I0509 17:16:56.086024 119981 net.cpp:84] Creating Layer inception_5a/relu_3x3
I0509 17:16:56.086027 119981 net.cpp:406] inception_5a/relu_3x3 <- inception_5a/3x3
I0509 17:16:56.086031 119981 net.cpp:367] inception_5a/relu_3x3 -> inception_5a/3x3 (in-place)
I0509 17:16:56.086037 119981 net.cpp:122] Setting up inception_5a/relu_3x3
I0509 17:16:56.086041 119981 net.cpp:129] Top shape: 32 320 7 7 (501760)
I0509 17:16:56.086043 119981 net.cpp:137] Memory required for data: 1732282888
I0509 17:16:56.086046 119981 layer_factory.hpp:77] Creating layer inception_5a/5x5_reduce
I0509 17:16:56.086055 119981 net.cpp:84] Creating Layer inception_5a/5x5_reduce
I0509 17:16:56.086058 119981 net.cpp:406] inception_5a/5x5_reduce <- pool4/3x3_s2_pool4/3x3_s2_0_split_2
I0509 17:16:56.086063 119981 net.cpp:380] inception_5a/5x5_reduce -> inception_5a/5x5_reduce
I0509 17:16:56.086071 119981 base_conv_layer.cpp:121] Group is 1channel is832number of output is 32
I0509 17:16:56.086246 119981 net.cpp:122] Setting up inception_5a/5x5_reduce
I0509 17:16:56.086251 119981 net.cpp:129] Top shape: 32 32 7 7 (50176)
I0509 17:16:56.086256 119981 net.cpp:137] Memory required for data: 1732483592
I0509 17:16:56.086261 119981 layer_factory.hpp:77] Creating layer inception_5a/relu_5x5_reduce
I0509 17:16:56.086272 119981 net.cpp:84] Creating Layer inception_5a/relu_5x5_reduce
I0509 17:16:56.086275 119981 net.cpp:406] inception_5a/relu_5x5_reduce <- inception_5a/5x5_reduce
I0509 17:16:56.086279 119981 net.cpp:367] inception_5a/relu_5x5_reduce -> inception_5a/5x5_reduce (in-place)
I0509 17:16:56.086284 119981 net.cpp:122] Setting up inception_5a/relu_5x5_reduce
I0509 17:16:56.086289 119981 net.cpp:129] Top shape: 32 32 7 7 (50176)
I0509 17:16:56.086292 119981 net.cpp:137] Memory required for data: 1732684296
I0509 17:16:56.086294 119981 layer_factory.hpp:77] Creating layer inception_5a/5x5
I0509 17:16:56.086302 119981 net.cpp:84] Creating Layer inception_5a/5x5
I0509 17:16:56.086305 119981 net.cpp:406] inception_5a/5x5 <- inception_5a/5x5_reduce
I0509 17:16:56.086311 119981 net.cpp:380] inception_5a/5x5 -> inception_5a/5x5
I0509 17:16:56.086318 119981 base_conv_layer.cpp:121] Group is 1channel is32number of output is 128
I0509 17:16:56.086980 119981 net.cpp:122] Setting up inception_5a/5x5
I0509 17:16:56.086987 119981 net.cpp:129] Top shape: 32 128 7 7 (200704)
I0509 17:16:56.086988 119981 net.cpp:137] Memory required for data: 1733487112
I0509 17:16:56.086993 119981 layer_factory.hpp:77] Creating layer inception_5a/relu_5x5
I0509 17:16:56.086997 119981 net.cpp:84] Creating Layer inception_5a/relu_5x5
I0509 17:16:56.087002 119981 net.cpp:406] inception_5a/relu_5x5 <- inception_5a/5x5
I0509 17:16:56.087007 119981 net.cpp:367] inception_5a/relu_5x5 -> inception_5a/5x5 (in-place)
I0509 17:16:56.087011 119981 net.cpp:122] Setting up inception_5a/relu_5x5
I0509 17:16:56.087015 119981 net.cpp:129] Top shape: 32 128 7 7 (200704)
I0509 17:16:56.087018 119981 net.cpp:137] Memory required for data: 1734289928
I0509 17:16:56.087021 119981 layer_factory.hpp:77] Creating layer inception_5a/pool
I0509 17:16:56.087026 119981 net.cpp:84] Creating Layer inception_5a/pool
I0509 17:16:56.087029 119981 net.cpp:406] inception_5a/pool <- pool4/3x3_s2_pool4/3x3_s2_0_split_3
I0509 17:16:56.087035 119981 net.cpp:380] inception_5a/pool -> inception_5a/pool
I0509 17:16:56.087043 119981 net.cpp:122] Setting up inception_5a/pool
I0509 17:16:56.087046 119981 net.cpp:129] Top shape: 32 832 7 7 (1304576)
I0509 17:16:56.087049 119981 net.cpp:137] Memory required for data: 1739508232
I0509 17:16:56.087052 119981 layer_factory.hpp:77] Creating layer inception_5a/pool_proj
I0509 17:16:56.087059 119981 net.cpp:84] Creating Layer inception_5a/pool_proj
I0509 17:16:56.087064 119981 net.cpp:406] inception_5a/pool_proj <- inception_5a/pool
I0509 17:16:56.087069 119981 net.cpp:380] inception_5a/pool_proj -> inception_5a/pool_proj
I0509 17:16:56.087077 119981 base_conv_layer.cpp:121] Group is 1channel is832number of output is 128
I0509 17:16:56.087764 119981 net.cpp:122] Setting up inception_5a/pool_proj
I0509 17:16:56.087770 119981 net.cpp:129] Top shape: 32 128 7 7 (200704)
I0509 17:16:56.087774 119981 net.cpp:137] Memory required for data: 1740311048
I0509 17:16:56.087779 119981 layer_factory.hpp:77] Creating layer inception_5a/relu_pool_proj
I0509 17:16:56.087783 119981 net.cpp:84] Creating Layer inception_5a/relu_pool_proj
I0509 17:16:56.087786 119981 net.cpp:406] inception_5a/relu_pool_proj <- inception_5a/pool_proj
I0509 17:16:56.087790 119981 net.cpp:367] inception_5a/relu_pool_proj -> inception_5a/pool_proj (in-place)
I0509 17:16:56.087795 119981 net.cpp:122] Setting up inception_5a/relu_pool_proj
I0509 17:16:56.087800 119981 net.cpp:129] Top shape: 32 128 7 7 (200704)
I0509 17:16:56.087802 119981 net.cpp:137] Memory required for data: 1741113864
I0509 17:16:56.087805 119981 layer_factory.hpp:77] Creating layer inception_5a/output
I0509 17:16:56.087810 119981 net.cpp:84] Creating Layer inception_5a/output
I0509 17:16:56.087813 119981 net.cpp:406] inception_5a/output <- inception_5a/1x1
I0509 17:16:56.087816 119981 net.cpp:406] inception_5a/output <- inception_5a/3x3
I0509 17:16:56.087823 119981 net.cpp:406] inception_5a/output <- inception_5a/5x5
I0509 17:16:56.087827 119981 net.cpp:406] inception_5a/output <- inception_5a/pool_proj
I0509 17:16:56.087832 119981 net.cpp:380] inception_5a/output -> inception_5a/output
I0509 17:16:56.087844 119981 net.cpp:122] Setting up inception_5a/output
I0509 17:16:56.087848 119981 net.cpp:129] Top shape: 32 832 7 7 (1304576)
I0509 17:16:56.087852 119981 net.cpp:137] Memory required for data: 1746332168
I0509 17:16:56.087854 119981 layer_factory.hpp:77] Creating layer inception_5a/output_inception_5a/output_0_split
I0509 17:16:56.087862 119981 net.cpp:84] Creating Layer inception_5a/output_inception_5a/output_0_split
I0509 17:16:56.087864 119981 net.cpp:406] inception_5a/output_inception_5a/output_0_split <- inception_5a/output
I0509 17:16:56.087869 119981 net.cpp:380] inception_5a/output_inception_5a/output_0_split -> inception_5a/output_inception_5a/output_0_split_0
I0509 17:16:56.087875 119981 net.cpp:380] inception_5a/output_inception_5a/output_0_split -> inception_5a/output_inception_5a/output_0_split_1
I0509 17:16:56.087882 119981 net.cpp:380] inception_5a/output_inception_5a/output_0_split -> inception_5a/output_inception_5a/output_0_split_2
I0509 17:16:56.087888 119981 net.cpp:380] inception_5a/output_inception_5a/output_0_split -> inception_5a/output_inception_5a/output_0_split_3
I0509 17:16:56.087895 119981 net.cpp:122] Setting up inception_5a/output_inception_5a/output_0_split
I0509 17:16:56.087899 119981 net.cpp:129] Top shape: 32 832 7 7 (1304576)
I0509 17:16:56.087903 119981 net.cpp:129] Top shape: 32 832 7 7 (1304576)
I0509 17:16:56.087906 119981 net.cpp:129] Top shape: 32 832 7 7 (1304576)
I0509 17:16:56.087910 119981 net.cpp:129] Top shape: 32 832 7 7 (1304576)
I0509 17:16:56.087913 119981 net.cpp:137] Memory required for data: 1767205384
I0509 17:16:56.087916 119981 layer_factory.hpp:77] Creating layer inception_5b/1x1
I0509 17:16:56.087923 119981 net.cpp:84] Creating Layer inception_5b/1x1
I0509 17:16:56.087926 119981 net.cpp:406] inception_5b/1x1 <- inception_5a/output_inception_5a/output_0_split_0
I0509 17:16:56.087932 119981 net.cpp:380] inception_5b/1x1 -> inception_5b/1x1
I0509 17:16:56.087939 119981 base_conv_layer.cpp:121] Group is 1channel is832number of output is 384
I0509 17:16:56.090122 119981 net.cpp:122] Setting up inception_5b/1x1
I0509 17:16:56.090131 119981 net.cpp:129] Top shape: 32 384 7 7 (602112)
I0509 17:16:56.090134 119981 net.cpp:137] Memory required for data: 1769613832
I0509 17:16:56.090139 119981 layer_factory.hpp:77] Creating layer inception_5b/relu_1x1
I0509 17:16:56.090144 119981 net.cpp:84] Creating Layer inception_5b/relu_1x1
I0509 17:16:56.090148 119981 net.cpp:406] inception_5b/relu_1x1 <- inception_5b/1x1
I0509 17:16:56.090152 119981 net.cpp:367] inception_5b/relu_1x1 -> inception_5b/1x1 (in-place)
I0509 17:16:56.090158 119981 net.cpp:122] Setting up inception_5b/relu_1x1
I0509 17:16:56.090162 119981 net.cpp:129] Top shape: 32 384 7 7 (602112)
I0509 17:16:56.090165 119981 net.cpp:137] Memory required for data: 1772022280
I0509 17:16:56.090168 119981 layer_factory.hpp:77] Creating layer inception_5b/3x3_reduce
I0509 17:16:56.090175 119981 net.cpp:84] Creating Layer inception_5b/3x3_reduce
I0509 17:16:56.090179 119981 net.cpp:406] inception_5b/3x3_reduce <- inception_5a/output_inception_5a/output_0_split_1
I0509 17:16:56.090184 119981 net.cpp:380] inception_5b/3x3_reduce -> inception_5b/3x3_reduce
I0509 17:16:56.090193 119981 base_conv_layer.cpp:121] Group is 1channel is832number of output is 192
I0509 17:16:56.091202 119981 net.cpp:122] Setting up inception_5b/3x3_reduce
I0509 17:16:56.091208 119981 net.cpp:129] Top shape: 32 192 7 7 (301056)
I0509 17:16:56.091212 119981 net.cpp:137] Memory required for data: 1773226504
I0509 17:16:56.091217 119981 layer_factory.hpp:77] Creating layer inception_5b/relu_3x3_reduce
I0509 17:16:56.091222 119981 net.cpp:84] Creating Layer inception_5b/relu_3x3_reduce
I0509 17:16:56.091224 119981 net.cpp:406] inception_5b/relu_3x3_reduce <- inception_5b/3x3_reduce
I0509 17:16:56.091233 119981 net.cpp:367] inception_5b/relu_3x3_reduce -> inception_5b/3x3_reduce (in-place)
I0509 17:16:56.091238 119981 net.cpp:122] Setting up inception_5b/relu_3x3_reduce
I0509 17:16:56.091248 119981 net.cpp:129] Top shape: 32 192 7 7 (301056)
I0509 17:16:56.091251 119981 net.cpp:137] Memory required for data: 1774430728
I0509 17:16:56.091254 119981 layer_factory.hpp:77] Creating layer inception_5b/3x3
I0509 17:16:56.091261 119981 net.cpp:84] Creating Layer inception_5b/3x3
I0509 17:16:56.091264 119981 net.cpp:406] inception_5b/3x3 <- inception_5b/3x3_reduce
I0509 17:16:56.091269 119981 net.cpp:380] inception_5b/3x3 -> inception_5b/3x3
I0509 17:16:56.091296 119981 base_conv_layer.cpp:121] Group is 1channel is192number of output is 384
I0509 17:16:56.095491 119981 net.cpp:122] Setting up inception_5b/3x3
I0509 17:16:56.095499 119981 net.cpp:129] Top shape: 32 384 7 7 (602112)
I0509 17:16:56.095501 119981 net.cpp:137] Memory required for data: 1776839176
I0509 17:16:56.095507 119981 layer_factory.hpp:77] Creating layer inception_5b/relu_3x3
I0509 17:16:56.095511 119981 net.cpp:84] Creating Layer inception_5b/relu_3x3
I0509 17:16:56.095515 119981 net.cpp:406] inception_5b/relu_3x3 <- inception_5b/3x3
I0509 17:16:56.095520 119981 net.cpp:367] inception_5b/relu_3x3 -> inception_5b/3x3 (in-place)
I0509 17:16:56.095525 119981 net.cpp:122] Setting up inception_5b/relu_3x3
I0509 17:16:56.095530 119981 net.cpp:129] Top shape: 32 384 7 7 (602112)
I0509 17:16:56.095532 119981 net.cpp:137] Memory required for data: 1779247624
I0509 17:16:56.095535 119981 layer_factory.hpp:77] Creating layer inception_5b/5x5_reduce
I0509 17:16:56.095542 119981 net.cpp:84] Creating Layer inception_5b/5x5_reduce
I0509 17:16:56.095546 119981 net.cpp:406] inception_5b/5x5_reduce <- inception_5a/output_inception_5a/output_0_split_2
I0509 17:16:56.095551 119981 net.cpp:380] inception_5b/5x5_reduce -> inception_5b/5x5_reduce
I0509 17:16:56.095558 119981 base_conv_layer.cpp:121] Group is 1channel is832number of output is 48
I0509 17:16:56.095824 119981 net.cpp:122] Setting up inception_5b/5x5_reduce
I0509 17:16:56.095829 119981 net.cpp:129] Top shape: 32 48 7 7 (75264)
I0509 17:16:56.095832 119981 net.cpp:137] Memory required for data: 1779548680
I0509 17:16:56.095836 119981 layer_factory.hpp:77] Creating layer inception_5b/relu_5x5_reduce
I0509 17:16:56.095841 119981 net.cpp:84] Creating Layer inception_5b/relu_5x5_reduce
I0509 17:16:56.095844 119981 net.cpp:406] inception_5b/relu_5x5_reduce <- inception_5b/5x5_reduce
I0509 17:16:56.095850 119981 net.cpp:367] inception_5b/relu_5x5_reduce -> inception_5b/5x5_reduce (in-place)
I0509 17:16:56.095855 119981 net.cpp:122] Setting up inception_5b/relu_5x5_reduce
I0509 17:16:56.095860 119981 net.cpp:129] Top shape: 32 48 7 7 (75264)
I0509 17:16:56.095862 119981 net.cpp:137] Memory required for data: 1779849736
I0509 17:16:56.095865 119981 layer_factory.hpp:77] Creating layer inception_5b/5x5
I0509 17:16:56.095873 119981 net.cpp:84] Creating Layer inception_5b/5x5
I0509 17:16:56.095876 119981 net.cpp:406] inception_5b/5x5 <- inception_5b/5x5_reduce
I0509 17:16:56.095881 119981 net.cpp:380] inception_5b/5x5 -> inception_5b/5x5
I0509 17:16:56.095890 119981 base_conv_layer.cpp:121] Group is 1channel is48number of output is 128
I0509 17:16:56.096911 119981 net.cpp:122] Setting up inception_5b/5x5
I0509 17:16:56.096918 119981 net.cpp:129] Top shape: 32 128 7 7 (200704)
I0509 17:16:56.096921 119981 net.cpp:137] Memory required for data: 1780652552
I0509 17:16:56.096925 119981 layer_factory.hpp:77] Creating layer inception_5b/relu_5x5
I0509 17:16:56.096930 119981 net.cpp:84] Creating Layer inception_5b/relu_5x5
I0509 17:16:56.096935 119981 net.cpp:406] inception_5b/relu_5x5 <- inception_5b/5x5
I0509 17:16:56.096940 119981 net.cpp:367] inception_5b/relu_5x5 -> inception_5b/5x5 (in-place)
I0509 17:16:56.096945 119981 net.cpp:122] Setting up inception_5b/relu_5x5
I0509 17:16:56.096948 119981 net.cpp:129] Top shape: 32 128 7 7 (200704)
I0509 17:16:56.096951 119981 net.cpp:137] Memory required for data: 1781455368
I0509 17:16:56.096957 119981 layer_factory.hpp:77] Creating layer inception_5b/pool
I0509 17:16:56.096962 119981 net.cpp:84] Creating Layer inception_5b/pool
I0509 17:16:56.096966 119981 net.cpp:406] inception_5b/pool <- inception_5a/output_inception_5a/output_0_split_3
I0509 17:16:56.096978 119981 net.cpp:380] inception_5b/pool -> inception_5b/pool
I0509 17:16:56.096985 119981 net.cpp:122] Setting up inception_5b/pool
I0509 17:16:56.096989 119981 net.cpp:129] Top shape: 32 832 7 7 (1304576)
I0509 17:16:56.096992 119981 net.cpp:137] Memory required for data: 1786673672
I0509 17:16:56.096995 119981 layer_factory.hpp:77] Creating layer inception_5b/pool_proj
I0509 17:16:56.097003 119981 net.cpp:84] Creating Layer inception_5b/pool_proj
I0509 17:16:56.097007 119981 net.cpp:406] inception_5b/pool_proj <- inception_5b/pool
I0509 17:16:56.097012 119981 net.cpp:380] inception_5b/pool_proj -> inception_5b/pool_proj
I0509 17:16:56.097020 119981 base_conv_layer.cpp:121] Group is 1channel is832number of output is 128
I0509 17:16:56.097712 119981 net.cpp:122] Setting up inception_5b/pool_proj
I0509 17:16:56.097718 119981 net.cpp:129] Top shape: 32 128 7 7 (200704)
I0509 17:16:56.097720 119981 net.cpp:137] Memory required for data: 1787476488
I0509 17:16:56.097725 119981 layer_factory.hpp:77] Creating layer inception_5b/relu_pool_proj
I0509 17:16:56.097730 119981 net.cpp:84] Creating Layer inception_5b/relu_pool_proj
I0509 17:16:56.097733 119981 net.cpp:406] inception_5b/relu_pool_proj <- inception_5b/pool_proj
I0509 17:16:56.097738 119981 net.cpp:367] inception_5b/relu_pool_proj -> inception_5b/pool_proj (in-place)
I0509 17:16:56.097743 119981 net.cpp:122] Setting up inception_5b/relu_pool_proj
I0509 17:16:56.097748 119981 net.cpp:129] Top shape: 32 128 7 7 (200704)
I0509 17:16:56.097750 119981 net.cpp:137] Memory required for data: 1788279304
I0509 17:16:56.097754 119981 layer_factory.hpp:77] Creating layer inception_5b/output
I0509 17:16:56.097759 119981 net.cpp:84] Creating Layer inception_5b/output
I0509 17:16:56.097764 119981 net.cpp:406] inception_5b/output <- inception_5b/1x1
I0509 17:16:56.097766 119981 net.cpp:406] inception_5b/output <- inception_5b/3x3
I0509 17:16:56.097770 119981 net.cpp:406] inception_5b/output <- inception_5b/5x5
I0509 17:16:56.097774 119981 net.cpp:406] inception_5b/output <- inception_5b/pool_proj
I0509 17:16:56.097779 119981 net.cpp:380] inception_5b/output -> inception_5b/output
I0509 17:16:56.097785 119981 net.cpp:122] Setting up inception_5b/output
I0509 17:16:56.097791 119981 net.cpp:129] Top shape: 32 1024 7 7 (1605632)
I0509 17:16:56.097795 119981 net.cpp:137] Memory required for data: 1794701832
I0509 17:16:56.097797 119981 layer_factory.hpp:77] Creating layer pool5/7x7_s1
I0509 17:16:56.097802 119981 net.cpp:84] Creating Layer pool5/7x7_s1
I0509 17:16:56.097805 119981 net.cpp:406] pool5/7x7_s1 <- inception_5b/output
I0509 17:16:56.097810 119981 net.cpp:380] pool5/7x7_s1 -> pool5/7x7_s1
I0509 17:16:56.097816 119981 net.cpp:122] Setting up pool5/7x7_s1
I0509 17:16:56.097820 119981 net.cpp:129] Top shape: 32 1024 1 1 (32768)
I0509 17:16:56.097822 119981 net.cpp:137] Memory required for data: 1794832904
I0509 17:16:56.097826 119981 layer_factory.hpp:77] Creating layer pool5/drop_7x7_s1
I0509 17:16:56.097832 119981 net.cpp:84] Creating Layer pool5/drop_7x7_s1
I0509 17:16:56.097836 119981 net.cpp:406] pool5/drop_7x7_s1 <- pool5/7x7_s1
I0509 17:16:56.097841 119981 net.cpp:367] pool5/drop_7x7_s1 -> pool5/7x7_s1 (in-place)
I0509 17:16:56.097846 119981 net.cpp:122] Setting up pool5/drop_7x7_s1
I0509 17:16:56.097851 119981 net.cpp:129] Top shape: 32 1024 1 1 (32768)
I0509 17:16:56.097853 119981 net.cpp:137] Memory required for data: 1794963976
I0509 17:16:56.097856 119981 layer_factory.hpp:77] Creating layer loss3/classifier
I0509 17:16:56.097862 119981 net.cpp:84] Creating Layer loss3/classifier
I0509 17:16:56.097865 119981 net.cpp:406] loss3/classifier <- pool5/7x7_s1
I0509 17:16:56.097870 119981 net.cpp:380] loss3/classifier -> loss3/classifier
I0509 17:16:56.103952 119981 net.cpp:122] Setting up loss3/classifier
I0509 17:16:56.103961 119981 net.cpp:129] Top shape: 32 1000 (32000)
I0509 17:16:56.103963 119981 net.cpp:137] Memory required for data: 1795091976
I0509 17:16:56.103970 119981 layer_factory.hpp:77] Creating layer loss3/loss3
I0509 17:16:56.103981 119981 net.cpp:84] Creating Layer loss3/loss3
I0509 17:16:56.103986 119981 net.cpp:406] loss3/loss3 <- loss3/classifier
I0509 17:16:56.103989 119981 net.cpp:406] loss3/loss3 <- label_data_1_split_2
I0509 17:16:56.103994 119981 net.cpp:380] loss3/loss3 -> loss3/loss3
…
