…
I0509 17:09:22.555338 119925 net.cpp:294] The NetState phase (0) differed from the phase (1) specified by a rule in layer loss3/top-5
I0509 17:09:22.556813 119925 net.cpp:51] Initializing net from parameters: 
name: "GoogleNet"
state {
  phase: TRAIN
  level: 0
  stage: ""
}
layer {
  name: "data"
  type: "Data"
  top: "data"
  top: "label"
  include {
    phase: TRAIN
  }
  transform_param {
    mirror: true
    crop_size: 224
    mean_value: 104
    mean_value: 117
    mean_value: 123
  }
  data_param {
    source: "examples/imagenet/ilsvrc12_train_lmdb"
    batch_size: 32
    backend: LMDB
  }
}
layer {
  name: "conv1/7x7_s2"
  type: "Convolution"
  bottom: "data"
  top: "conv1/7x7_s2"
  param {
    lr_mult: 1
    decay_mult: 1
  }
  param {
    lr_mult: 2
    decay_mult: 0
  }
  convolution_param {
    num_output: 64
    pad: 3
    kernel_size: 7
    stride: 2
    weight_filler {
      type: "xavier"
    }
    bias_filler {
      type: "constant"
      value: 0.2
    }
  }
}
layer {
  name: "conv1/relu_7x7"
  type: "ReLU"
  bottom: "conv1/7x7_s2"
  top: "conv1/7x7_s2"
}
layer {
  name: "pool1/3x3_s2"
  type: "Pooling"
  bottom: "conv1/7x7_s2"
  top: "pool1/3x3_s2"
  pooling_param {
    pool: MAX
    kernel_size: 3
    stride: 2
  }
}
layer {
  name: "pool1/norm1"
  type: "LRN"
  bottom: "pool1/3x3_s2"
  top: "pool1/norm1"
  lrn_param {
    local_size: 5
    alpha: 0.0001
    beta: 0.75
  }
}
layer {
  name: "conv2/3x3_reduce"
  type: "Convolution"
  bottom: "pool1/norm1"
  top: "conv2/3x3_reduce"
  param {
    lr_mult: 1
    decay_mult: 1
  }
  param {
    lr_mult: 2
    decay_mult: 0
  }
  convolution_param {
    num_output: 64
    kernel_size: 1
    weight_filler {
      type: "xavier"
    }
    bias_filler {
      type: "constant"
      value: 0.2
    }
  }
}
layer {
  name: "conv2/relu_3x3_reduce"
  type: "ReLU"
  bottom: "conv2/3x3_reduce"
  top: "conv2/3x3_reduce"
}
layer {
  name: "conv2/3x3"
  type: "Convolution"
  bottom: "conv2/3x3_reduce"
  top: "conv2/3x3"
  param {
    lr_mult: 1
    decay_mult: 1
  }
  param {
    lr_mult: 2
    decay_mult: 0
  }
  convolution_param {
    num_output: 192
    pad: 1
    kernel_size: 3
    weight_filler {
      type: "xavier"
    }
    bias_filler {
      type: "constant"
      value: 0.2
    }
  }
}
layer {
  name: "conv2/relu_3x3"
  type: "ReLU"
  bottom: "conv2/3x3"
  top: "conv2/3x3"
}
layer {
  name: "conv2/norm2"
  type: "LRN"
  bottom: "conv2/3x3"
  top: "conv2/norm2"
  lrn_param {
    local_size: 5
    alpha: 0.0001
    beta: 0.75
  }
}
layer {
  name: "pool2/3x3_s2"
  type: "Pooling"
  bottom: "conv2/norm2"
  top: "pool2/3x3_s2"
  pooling_param {
    pool: MAX
    kernel_size: 3
    stride: 2
  }
}
layer {
  name: "inception_3a/1x1"
  type: "Convolution"
  bottom: "pool2/3x3_s2"
  top: "inception_3a/1x1"
  param {
    lr_mult: 1
    decay_mult: 1
  }
  param {
    lr_mult: 2
    decay_mult: 0
  }
  convolution_param {
    num_output: 64
    kernel_size: 1
    weight_filler {
      type: "xavier"
    }
    bias_filler {
      type: "constant"
      value: 0.2
    }
  }
}
layer {
  name: "inception_3a/relu_1x1"
  type: "ReLU"
  bottom: "inception_3a/1x1"
  top: "inception_3a/1x1"
}
layer {
  name: "inception_3a/3x3_reduce"
  type: "Convolution"
  bottom: "pool2/3x3_s2"
  top: "inception_3a/3x3_reduce"
  param {
    lr_mult: 1
    decay_mult: 1
  }
  param {
    lr_mult: 2
    decay_mult: 0
  }
  convolution_param {
    num_output: 96
    kernel_size: 1
    weight_filler {
      type: "xavier"
    }
    bias_filler {
      type: "constant"
      value: 0.2
    }
  }
}
layer {
  name: "inception_3a/relu_3x3_reduce"
  type: "ReLU"
  bottom: "inception_3a/3x3_reduce"
  top: "inception_3a/3x3_reduce"
}
layer {
  name: "inception_3a/3x3"
  type: "Convolution"
  bottom: "inception_3a/3x3_reduce"
  top: "inception_3a/3x3"
  param {
    lr_mult: 1
    decay_mult: 1
  }
  param {
    lr_mult: 2
    decay_mult: 0
  }
  convolution_param {
    num_output: 128
    pad: 1
    kernel_size: 3
    weight_filler {
      type: "xavier"
    }
    bias_filler {
      type: "constant"
      value: 0.2
    }
  }
}
layer {
  name: "inception_3a/relu_3x3"
  type: "ReLU"
  bottom: "inception_3a/3x3"
  top: "inception_3a/3x3"
}
layer {
  name: "inception_3a/5x5_reduce"
  type: "Convolution"
  bottom: "pool2/3x3_s2"
  top: "inception_3a/5x5_reduce"
  param {
    lr_mult: 1
    decay_mult: 1
  }
  param {
    lr_mult: 2
    decay_mult: 0
  }
  convolution_param {
    num_output: 16
    kernel_size: 1
    weight_filler {
      type: "xavier"
    }
    bias_filler {
      type: "constant"
      value: 0.2
    }
  }
}
layer {
  name: "inception_3a/relu_5x5_reduce"
  type: "ReLU"
  bottom: "inception_3a/5x5_reduce"
  top: "inception_3a/5x5_reduce"
}
layer {
  name: "inception_3a/5x5"
  type: "Convolution"
  bottom: "inception_3a/5x5_reduce"
  top: "inception_3a/5x5"
  param {
    lr_mult: 1
    decay_mult: 1
  }
  param {
    lr_mult: 2
    decay_mult: 0
  }
  convolution_param {
    num_output: 32
    pad: 2
    kernel_size: 5
    weight_filler {
      type: "xavier"
    }
    bias_filler {
      type: "constant"
      value: 0.2
    }
  }
}
layer {
  name: "inception_3a/relu_5x5"
  type: "ReLU"
  bottom: "inception_3a/5x5"
  top: "inception_3a/5x5"
}
layer {
  name: "inception_3a/pool"
  type: "Pooling"
  bottom: "pool2/3x3_s2"
  top: "inception_3a/pool"
  pooling_param {
    pool: MAX
    kernel_size: 3
    stride: 1
    pad: 1
  }
}
layer {
  name: "inception_3a/pool_proj"
  type: "Convolution"
  bottom: "inception_3a/pool"
  top: "inception_3a/pool_proj"
  param {
    lr_mult: 1
    decay_mult: 1
  }
  param {
    lr_mult: 2
    decay_mult: 0
  }
  convolution_param {
    num_output: 32
    kernel_size: 1
    weight_filler {
      type: "xavier"
    }
    bias_filler {
      type: "constant"
      value: 0.2
    }
  }
}
layer {
  name: "inception_3a/relu_pool_proj"
  type: "ReLU"
  bottom: "inception_3a/pool_proj"
  top: "inception_3a/pool_proj"
}
layer {
  name: "inception_3a/output"
  type: "Concat"
  bottom: "inception_3a/1x1"
  bottom: "inception_3a/3x3"
  bottom: "inception_3a/5x5"
  bottom: "inception_3a/pool_proj"
  top: "inception_3a/output"
}
layer {
  name: "inception_3b/1x1"
  type: "Convolution"
  bottom: "inception_3a/output"
  top: "inception_3b/1x1"
  param {
    lr_mult: 1
    decay_mult: 1
  }
  param {
    lr_mult: 2
    decay_mult: 0
  }
  convolution_param {
    num_output: 128
    kernel_size: 1
    weight_filler {
      type: "xavier"
    }
    bias_filler {
      type: "constant"
      value: 0.2
    }
  }
}
layer {
  name: "inception_3b/relu_1x1"
  type: "ReLU"
  bottom: "inception_3b/1x1"
  top: "inception_3b/1x1"
}
layer {
  name: "inception_3b/3x3_reduce"
  type: "Convolution"
  bottom: "inception_3a/output"
  top: "inception_3b/3x3_reduce"
  param {
    lr_mult: 1
    decay_mult: 1
  }
  param {
    lr_mult: 2
    decay_mult: 0
  }
  convolution_param {
    num_output: 128
    kernel_size: 1
    weight_filler {
      type: "xavier"
    }
    bias_filler {
      type: "constant"
      value: 0.2
    }
  }
}
layer {
  name: "inception_3b/relu_3x3_reduce"
  type: "ReLU"
  bottom: "inception_3b/3x3_reduce"
  top: "inception_3b/3x3_reduce"
}
layer {
  name: "inception_3b/3x3"
  type: "Convolution"
  bottom: "inception_3b/3x3_reduce"
  top: "inception_3b/3x3"
  param {
    lr_mult: 1
    decay_mult: 1
  }
  param {
    lr_mult: 2
    decay_mult: 0
  }
  convolution_param {
    num_output: 192
    pad: 1
    kernel_size: 3
    weight_filler {
      type: "xavier"
    }
    bias_filler {
      type: "constant"
      value: 0.2
    }
  }
}
layer {
  name: "inception_3b/relu_3x3"
  type: "ReLU"
  bottom: "inception_3b/3x3"
  top: "inception_3b/3x3"
}
layer {
  name: "inception_3b/5x5_reduce"
  type: "Convolution"
  bottom: "inception_3a/output"
  top: "inception_3b/5x5_reduce"
  param {
    lr_mult: 1
    decay_mult: 1
  }
  param {
    lr_mult: 2
    decay_mult: 0
  }
  convolution_param {
    num_output: 32
    kernel_size: 1
    weight_filler {
      type: "xavier"
    }
    bias_filler {
      type: "constant"
      value: 0.2
    }
  }
}
layer {
  name: "inception_3b/relu_5x5_reduce"
  type: "ReLU"
  bottom: "inception_3b/5x5_reduce"
  top: "inception_3b/5x5_reduce"
}
layer {
  name: "inception_3b/5x5"
  type: "Convolution"
  bottom: "inception_3b/5x5_reduce"
  top: "inception_3b/5x5"
  param {
    lr_mult: 1
    decay_mult: 1
  }
  param {
    lr_mult: 2
    decay_mult: 0
  }
  convolution_param {
    num_output: 96
    pad: 2
    kernel_size: 5
    weight_filler {
      type: "xavier"
    }
    bias_filler {
      type: "constant"
      value: 0.2
    }
  }
}
layer {
  name: "inception_3b/relu_5x5"
  type: "ReLU"
  bottom: "inception_3b/5x5"
  top: "inception_3b/5x5"
}
layer {
  name: "inception_3b/pool"
  type: "Pooling"
  bottom: "inception_3a/output"
  top: "inception_3b/pool"
  pooling_param {
    pool: MAX
    kernel_size: 3
    stride: 1
    pad: 1
  }
}
layer {
  name: "inception_3b/pool_proj"
  type: "Convolution"
  bottom: "inception_3b/pool"
  top: "inception_3b/pool_proj"
  param {
    lr_mult: 1
    decay_mult: 1
  }
  param {
    lr_mult: 2
    decay_mult: 0
  }
  convolution_param {
    num_output: 64
    kernel_size: 1
    weight_filler {
      type: "xavier"
    }
    bias_filler {
      type: "constant"
      value: 0.2
    }
  }
}
layer {
  name: "inception_3b/relu_pool_proj"
  type: "ReLU"
  bottom: "inception_3b/pool_proj"
  top: "inception_3b/pool_proj"
}
layer {
  name: "inception_3b/output"
  type: "Concat"
  bottom: "inception_3b/1x1"
  bottom: "inception_3b/3x3"
  bottom: "inception_3b/5x5"
  bottom: "inception_3b/pool_proj"
  top: "inception_3b/output"
}
layer {
  name: "pool3/3x3_s2"
  type: "Pooling"
  bottom: "inception_3b/output"
  top: "pool3/3x3_s2"
  pooling_param {
    pool: MAX
    kernel_size: 3
    stride: 2
  }
}
layer {
  name: "inception_4a/1x1"
  type: "Convolution"
  bottom: "pool3/3x3_s2"
  top: "inception_4a/1x1"
  param {
    lr_mult: 1
    decay_mult: 1
  }
  param {
    lr_mult: 2
    decay_mult: 0
  }
  convolution_param {
    num_output: 192
    kernel_size: 1
    weight_filler {
      type: "xavier"
    }
    bias_filler {
      type: "constant"
      value: 0.2
    }
  }
}
layer {
  name: "inception_4a/relu_1x1"
  type: "ReLU"
  bottom: "inception_4a/1x1"
  top: "inception_4a/1x1"
}
layer {
  name: "inception_4a/3x3_reduce"
  type: "Convolution"
  bottom: "pool3/3x3_s2"
  top: "inception_4a/3x3_reduce"
  param {
    lr_mult: 1
    decay_mult: 1
  }
  param {
    lr_mult: 2
    decay_mult: 0
  }
  convolution_param {
    num_output: 96
    kernel_size: 1
    weight_filler {
      type: "xavier"
    }
    bias_filler {
      type: "constant"
      value: 0.2
    }
  }
}
layer {
  name: "inception_4a/relu_3x3_reduce"
  type: "ReLU"
  bottom: "inception_4a/3x3_reduce"
  top: "inception_4a/3x3_reduce"
}
layer {
  name: "inception_4a/3x3"
  type: "Convolution"
  bottom: "inception_4a/3x3_reduce"
  top: "inception_4a/3x3"
  param {
    lr_mult: 1
    decay_mult: 1
  }
  param {
    lr_mult: 2
    decay_mult: 0
  }
  convolution_param {
    num_output: 208
    pad: 1
    kernel_size: 3
    weight_filler {
      type: "xavier"
    }
    bias_filler {
      type: "constant"
      value: 0.2
    }
  }
}
layer {
  name: "inception_4a/relu_3x3"
  type: "ReLU"
  bottom: "inception_4a/3x3"
  top: "inception_4a/3x3"
}
layer {
  name: "inception_4a/5x5_reduce"
  type: "Convolution"
  bottom: "pool3/3x3_s2"
  top: "inception_4a/5x5_reduce"
  param {
    lr_mult: 1
    decay_mult: 1
  }
  param {
    lr_mult: 2
    decay_mult: 0
  }
  convolution_param {
    num_output: 16
    kernel_size: 1
    weight_filler {
      type: "xavier"
    }
    bias_filler {
      type: "constant"
      value: 0.2
    }
  }
}
layer {
  name: "inception_4a/relu_5x5_reduce"
  type: "ReLU"
  bottom: "inception_4a/5x5_reduce"
  top: "inception_4a/5x5_reduce"
}
layer {
  name: "inception_4a/5x5"
  type: "Convolution"
  bottom: "inception_4a/5x5_reduce"
  top: "inception_4a/5x5"
  param {
    lr_mult: 1
    decay_mult: 1
  }
  param {
    lr_mult: 2
    decay_mult: 0
  }
  convolution_param {
    num_output: 48
    pad: 2
    kernel_size: 5
    weight_filler {
      type: "xavier"
    }
    bias_filler {
      type: "constant"
      value: 0.2
    }
  }
}
layer {
  name: "inception_4a/relu_5x5"
  type: "ReLU"
  bottom: "inception_4a/5x5"
  top: "inception_4a/5x5"
}
layer {
  name: "inception_4a/pool"
  type: "Pooling"
  bottom: "pool3/3x3_s2"
  top: "inception_4a/pool"
  pooling_param {
    pool: MAX
    kernel_size: 3
    stride: 1
    pad: 1
  }
}
layer {
  name: "inception_4a/pool_proj"
  type: "Convolution"
  bottom: "inception_4a/pool"
  top: "inception_4a/pool_proj"
  param {
    lr_mult: 1
    decay_mult: 1
  }
  param {
    lr_mult: 2
    decay_mult: 0
  }
  convolution_param {
    num_output: 64
    kernel_size: 1
    weight_filler {
      type: "xavier"
    }
    bias_filler {
      type: "constant"
      value: 0.2
    }
  }
}
layer {
  name: "inception_4a/relu_pool_proj"
  type: "ReLU"
  bottom: "inception_4a/pool_proj"
  top: "inception_4a/pool_proj"
}
layer {
  name: "inception_4a/output"
  type: "Concat"
  bottom: "inception_4a/1x1"
  bottom: "inception_4a/3x3"
  bottom: "inception_4a/5x5"
  bottom: "inception_4a/pool_proj"
  top: "inception_4a/output"
}
layer {
  name: "loss1/ave_pool"
  type: "Pooling"
  bottom: "inception_4a/output"
  top: "loss1/ave_pool"
  pooling_param {
    pool: AVE
    kernel_size: 5
    stride: 3
  }
}
layer {
  name: "loss1/conv"
  type: "Convolution"
  bottom: "loss1/ave_pool"
  top: "loss1/conv"
  param {
    lr_mult: 1
    decay_mult: 1
  }
  param {
    lr_mult: 2
    decay_mult: 0
  }
  convolution_param {
    num_output: 128
    kernel_size: 1
    weight_filler {
      type: "xavier"
    }
    bias_filler {
      type: "constant"
      value: 0.2
    }
  }
}
layer {
  name: "loss1/relu_conv"
  type: "ReLU"
  bottom: "loss1/conv"
  top: "loss1/conv"
}
layer {
  name: "loss1/fc"
  type: "InnerProduct"
  bottom: "loss1/conv"
  top: "loss1/fc"
  param {
    lr_mult: 1
    decay_mult: 1
  }
  param {
    lr_mult: 2
    decay_mult: 0
  }
  inner_product_param {
    num_output: 1024
    weight_filler {
      type: "xavier"
    }
    bias_filler {
      type: "constant"
      value: 0.2
    }
  }
}
layer {
  name: "loss1/relu_fc"
  type: "ReLU"
  bottom: "loss1/fc"
  top: "loss1/fc"
}
layer {
  name: "loss1/drop_fc"
  type: "Dropout"
  bottom: "loss1/fc"
  top: "loss1/fc"
  dropout_param {
    dropout_ratio: 0.7
  }
}
layer {
  name: "loss1/classifier"
  type: "InnerProduct"
  bottom: "loss1/fc"
  top: "loss1/classifier"
  param {
    lr_mult: 1
    decay_mult: 1
  }
  param {
    lr_mult: 2
    decay_mult: 0
  }
  inner_product_param {
    num_output: 1000
    weight_filler {
      type: "xavier"
    }
    bias_filler {
      type: "constant"
      value: 0
    }
  }
}
layer {
  name: "loss1/loss"
  type: "SoftmaxWithLoss"
  bottom: "loss1/classifier"
  bottom: "label"
  top: "loss1/loss1"
  loss_weight: 0.3
}
layer {
  name: "inception_4b/1x1"
  type: "Convolution"
  bottom: "inception_4a/output"
  top: "inception_4b/1x1"
  param {
    lr_mult: 1
    decay_mult: 1
  }
  param {
    lr_mult: 2
    decay_mult: 0
  }
  convolution_param {
    num_output: 160
    kernel_size: 1
    weight_filler {
      type: "xavier"
    }
    bias_filler {
      type: "constant"
      value: 0.2
    }
  }
}
layer {
  name: "inception_4b/relu_1x1"
  type: "ReLU"
  bottom: "inception_4b/1x1"
  top: "inception_4b/1x1"
}
layer {
  name: "inception_4b/3x3_reduce"
  type: "Convolution"
  bottom: "inception_4a/output"
  top: "inception_4b/3x3_reduce"
  param {
    lr_mult: 1
    decay_mult: 1
  }
  param {
    lr_mult: 2
    decay_mult: 0
  }
  convolution_param {
    num_output: 112
    kernel_size: 1
    weight_filler {
      type: "xavier"
    }
    bias_filler {
      type: "constant"
      value: 0.2
    }
  }
}
layer {
  name: "inception_4b/relu_3x3_reduce"
  type: "ReLU"
  bottom: "inception_4b/3x3_reduce"
  top: "inception_4b/3x3_reduce"
}
layer {
  name: "inception_4b/3x3"
  type: "Convolution"
  bottom: "inception_4b/3x3_reduce"
  top: "inception_4b/3x3"
  param {
    lr_mult: 1
    decay_mult: 1
  }
  param {
    lr_mult: 2
    decay_mult: 0
  }
  convolution_param {
    num_output: 224
    pad: 1
    kernel_size: 3
    weight_filler {
      type: "xavier"
    }
    bias_filler {
      type: "constant"
      value: 0.2
    }
  }
}
layer {
  name: "inception_4b/relu_3x3"
  type: "ReLU"
  bottom: "inception_4b/3x3"
  top: "inception_4b/3x3"
}
layer {
  name: "inception_4b/5x5_reduce"
  type: "Convolution"
  bottom: "inception_4a/output"
  top: "inception_4b/5x5_reduce"
  param {
    lr_mult: 1
    decay_mult: 1
  }
  param {
    lr_mult: 2
    decay_mult: 0
  }
  convolution_param {
    num_output: 24
    kernel_size: 1
    weight_filler {
      type: "xavier"
    }
    bias_filler {
      type: "constant"
      value: 0.2
    }
  }
}
layer {
  name: "inception_4b/relu_5x5_reduce"
  type: "ReLU"
  bottom: "inception_4b/5x5_reduce"
  top: "inception_4b/5x5_reduce"
}
layer {
  name: "inception_4b/5x5"
  type: "Convolution"
  bottom: "inception_4b/5x5_reduce"
  top: "inception_4b/5x5"
  param {
    lr_mult: 1
    decay_mult: 1
  }
  param {
    lr_mult: 2
    decay_mult: 0
  }
  convolution_param {
    num_output: 64
    pad: 2
    kernel_size: 5
    weight_filler {
      type: "xavier"
    }
    bias_filler {
      type: "constant"
      value: 0.2
    }
  }
}
layer {
  name: "inception_4b/relu_5x5"
  type: "ReLU"
  bottom: "inception_4b/5x5"
  top: "inception_4b/5x5"
}
layer {
  name: "inception_4b/pool"
  type: "Pooling"
  bottom: "inception_4a/output"
  top: "inception_4b/pool"
  pooling_param {
    pool: MAX
    kernel_size: 3
    stride: 1
    pad: 1
  }
}
layer {
  name: "inception_4b/pool_proj"
  type: "Convolution"
  bottom: "inception_4b/pool"
  top: "inception_4b/pool_proj"
  param {
    lr_mult: 1
    decay_mult: 1
  }
  param {
    lr_mult: 2
    decay_mult: 0
  }
  convolution_param {
    num_output: 64
    kernel_size: 1
    weight_filler {
      type: "xavier"
    }
    bias_filler {
      type: "constant"
      value: 0.2
    }
  }
}
layer {
  name: "inception_4b/relu_pool_proj"
  type: "ReLU"
  bottom: "inception_4b/pool_proj"
  top: "inception_4b/pool_proj"
}
layer {
  name: "inception_4b/output"
  type: "Concat"
  bottom: "inception_4b/1x1"
  bottom: "inception_4b/3x3"
  bottom: "inception_4b/5x5"
  bottom: "inception_4b/pool_proj"
  top: "inception_4b/output"
}
layer {
  name: "inception_4c/1x1"
  type: "Convolution"
  bottom: "inception_4b/output"
  top: "inception_4c/1x1"
  param {
    lr_mult: 1
    decay_mult: 1
  }
  param {
    lr_mult: 2
    decay_mult: 0
  }
  convolution_param {
    num_output: 128
    kernel_size: 1
    weight_filler {
      type: "xavier"
    }
    bias_filler {
      type: "constant"
      value: 0.2
    }
  }
}
layer {
  name: "inception_4c/relu_1x1"
  type: "ReLU"
  bottom: "inception_4c/1x1"
  top: "inception_4c/1x1"
}
layer {
  name: "inception_4c/3x3_reduce"
  type: "Convolution"
  bottom: "inception_4b/output"
  top: "inception_4c/3x3_reduce"
  param {
    lr_mult: 1
    decay_mult: 1
  }
  param {
    lr_mult: 2
    decay_mult: 0
  }
  convolution_param {
    num_output: 128
    kernel_size: 1
    weight_filler {
      type: "xavier"
    }
    bias_filler {
      type: "constant"
      value: 0.2
    }
  }
}
layer {
  name: "inception_4c/relu_3x3_reduce"
  type: "ReLU"
  bottom: "inception_4c/3x3_reduce"
  top: "inception_4c/3x3_reduce"
}
layer {
  name: "inception_4c/3x3"
  type: "Convolution"
  bottom: "inception_4c/3x3_reduce"
  top: "inception_4c/3x3"
  param {
    lr_mult: 1
    decay_mult: 1
  }
  param {
    lr_mult: 2
    decay_mult: 0
  }
  convolution_param {
    num_output: 256
    pad: 1
    kernel_size: 3
    weight_filler {
      type: "xavier"
    }
    bias_filler {
      type: "constant"
      value: 0.2
    }
  }
}
layer {
  name: "inception_4c/relu_3x3"
  type: "ReLU"
  bottom: "inception_4c/3x3"
  top: "inception_4c/3x3"
}
layer {
  name: "inception_4c/5x5_reduce"
  type: "Convolution"
  bottom: "inception_4b/output"
  top: "inception_4c/5x5_reduce"
  param {
    lr_mult: 1
    decay_mult: 1
  }
  param {
    lr_mult: 2
    decay_mult: 0
  }
  convolution_param {
    num_output: 24
    kernel_size: 1
    weight_filler {
      type: "xavier"
    }
    bias_filler {
      type: "constant"
      value: 0.2
    }
  }
}
layer {
  name: "inception_4c/relu_5x5_reduce"
  type: "ReLU"
  bottom: "inception_4c/5x5_reduce"
  top: "inception_4c/5x5_reduce"
}
layer {
  name: "inception_4c/5x5"
  type: "Convolution"
  bottom: "inception_4c/5x5_reduce"
  top: "inception_4c/5x5"
  param {
    lr_mult: 1
    decay_mult: 1
  }
  param {
    lr_mult: 2
    decay_mult: 0
  }
  convolution_param {
    num_output: 64
    pad: 2
    kernel_size: 5
    weight_filler {
      type: "xavier"
    }
    bias_filler {
      type: "constant"
      value: 0.2
    }
  }
}
layer {
  name: "inception_4c/relu_5x5"
  type: "ReLU"
  bottom: "inception_4c/5x5"
  top: "inception_4c/5x5"
}
layer {
  name: "inception_4c/pool"
  type: "Pooling"
  bottom: "inception_4b/output"
  top: "inception_4c/pool"
  pooling_param {
    pool: MAX
    kernel_size: 3
    stride: 1
    pad: 1
  }
}
layer {
  name: "inception_4c/pool_proj"
  type: "Convolution"
  bottom: "inception_4c/pool"
  top: "inception_4c/pool_proj"
  param {
    lr_mult: 1
    decay_mult: 1
  }
  param {
    lr_mult: 2
    decay_mult: 0
  }
  convolution_param {
    num_output: 64
    kernel_size: 1
    weight_filler {
      type: "xavier"
    }
    bias_filler {
      type: "constant"
      value: 0.2
    }
  }
}
layer {
  name: "inception_4c/relu_pool_proj"
  type: "ReLU"
  bottom: "inception_4c/pool_proj"
  top: "inception_4c/pool_proj"
}
layer {
  name: "inception_4c/output"
  type: "Concat"
  bottom: "inception_4c/1x1"
  bottom: "inception_4c/3x3"
  bottom: "inception_4c/5x5"
  bottom: "inception_4c/pool_proj"
  top: "inception_4c/output"
}
layer {
  name: "inception_4d/1x1"
  type: "Convolution"
  bottom: "inception_4c/output"
  top: "inception_4d/1x1"
  param {
    lr_mult: 1
    decay_mult: 1
  }
  param {
    lr_mult: 2
    decay_mult: 0
  }
  convolution_param {
    num_output: 112
    kernel_size: 1
    weight_filler {
      type: "xavier"
    }
    bias_filler {
      type: "constant"
      value: 0.2
    }
  }
}
layer {
  name: "inception_4d/relu_1x1"
  type: "ReLU"
  bottom: "inception_4d/1x1"
  top: "inception_4d/1x1"
}
layer {
  name: "inception_4d/3x3_reduce"
  type: "Convolution"
  bottom: "inception_4c/output"
  top: "inception_4d/3x3_reduce"
  param {
    lr_mult: 1
    decay_mult: 1
  }
  param {
    lr_mult: 2
    decay_mult: 0
  }
  convolution_param {
    num_output: 144
    kernel_size: 1
    weight_filler {
      type: "xavier"
    }
    bias_filler {
      type: "constant"
      value: 0.2
    }
  }
}
layer {
  name: "inception_4d/relu_3x3_reduce"
  type: "ReLU"
  bottom: "inception_4d/3x3_reduce"
  top: "inception_4d/3x3_reduce"
}
layer {
  name: "inception_4d/3x3"
  type: "Convolution"
  bottom: "inception_4d/3x3_reduce"
  top: "inception_4d/3x3"
  param {
    lr_mult: 1
    decay_mult: 1
  }
  param {
    lr_mult: 2
    decay_mult: 0
  }
  convolution_param {
    num_output: 288
    pad: 1
    kernel_size: 3
    weight_filler {
      type: "xavier"
    }
    bias_filler {
      type: "constant"
      value: 0.2
    }
  }
}
layer {
  name: "inception_4d/relu_3x3"
  type: "ReLU"
  bottom: "inception_4d/3x3"
  top: "inception_4d/3x3"
}
layer {
  name: "inception_4d/5x5_reduce"
  type: "Convolution"
  bottom: "inception_4c/output"
  top: "inception_4d/5x5_reduce"
  param {
    lr_mult: 1
    decay_mult: 1
  }
  param {
    lr_mult: 2
    decay_mult: 0
  }
  convolution_param {
    num_output: 32
    kernel_size: 1
    weight_filler {
      type: "xavier"
    }
    bias_filler {
      type: "constant"
      value: 0.2
    }
  }
}
layer {
  name: "inception_4d/relu_5x5_reduce"
  type: "ReLU"
  bottom: "inception_4d/5x5_reduce"
  top: "inception_4d/5x5_reduce"
}
layer {
  name: "inception_4d/5x5"
  type: "Convolution"
  bottom: "inception_4d/5x5_reduce"
  top: "inception_4d/5x5"
  param {
    lr_mult: 1
    decay_mult: 1
  }
  param {
    lr_mult: 2
    decay_mult: 0
  }
  convolution_param {
    num_output: 64
    pad: 2
    kernel_size: 5
    weight_filler {
      type: "xavier"
    }
    bias_filler {
      type: "constant"
      value: 0.2
    }
  }
}
layer {
  name: "inception_4d/relu_5x5"
  type: "ReLU"
  bottom: "inception_4d/5x5"
  top: "inception_4d/5x5"
}
layer {
  name: "inception_4d/pool"
  type: "Pooling"
  bottom: "inception_4c/output"
  top: "inception_4d/pool"
  pooling_param {
    pool: MAX
    kernel_size: 3
    stride: 1
    pad: 1
  }
}
layer {
  name: "inception_4d/pool_proj"
  type: "Convolution"
  bottom: "inception_4d/pool"
  top: "inception_4d/pool_proj"
  param {
    lr_mult: 1
    decay_mult: 1
  }
  param {
    lr_mult: 2
    decay_mult: 0
  }
  convolution_param {
    num_output: 64
    kernel_size: 1
    weight_filler {
      type: "xavier"
    }
    bias_filler {
      type: "constant"
      value: 0.2
    }
  }
}
layer {
  name: "inception_4d/relu_pool_proj"
  type: "ReLU"
  bottom: "inception_4d/pool_proj"
  top: "inception_4d/pool_proj"
}
layer {
  name: "inception_4d/output"
  type: "Concat"
  bottom: "inception_4d/1x1"
  bottom: "inception_4d/3x3"
  bottom: "inception_4d/5x5"
  bottom: "inception_4d/pool_proj"
  top: "inception_4d/output"
}
layer {
  name: "loss2/ave_pool"
  type: "Pooling"
  bottom: "inception_4d/output"
  top: "loss2/ave_pool"
  pooling_param {
    pool: AVE
    kernel_size: 5
    stride: 3
  }
}
layer {
  name: "loss2/conv"
  type: "Convolution"
  bottom: "loss2/ave_pool"
  top: "loss2/conv"
  param {
    lr_mult: 1
    decay_mult: 1
  }
  param {
    lr_mult: 2
    decay_mult: 0
  }
  convolution_param {
    num_output: 128
    kernel_size: 1
    weight_filler {
      type: "xavier"
    }
    bias_filler {
      type: "constant"
      value: 0.2
    }
  }
}
layer {
  name: "loss2/relu_conv"
  type: "ReLU"
  bottom: "loss2/conv"
  top: "loss2/conv"
}
layer {
  name: "loss2/fc"
  type: "InnerProduct"
  bottom: "loss2/conv"
  top: "loss2/fc"
  param {
    lr_mult: 1
    decay_mult: 1
  }
  param {
    lr_mult: 2
    decay_mult: 0
  }
  inner_product_param {
    num_output: 1024
    weight_filler {
      type: "xavier"
    }
    bias_filler {
      type: "constant"
      value: 0.2
    }
  }
}
layer {
  name: "loss2/relu_fc"
  type: "ReLU"
  bottom: "loss2/fc"
  top: "loss2/fc"
}
layer {
  name: "loss2/drop_fc"
  type: "Dropout"
  bottom: "loss2/fc"
  top: "loss2/fc"
  dropout_param {
    dropout_ratio: 0.7
  }
}
layer {
  name: "loss2/classifier"
  type: "InnerProduct"
  bottom: "loss2/fc"
  top: "loss2/classifier"
  param {
    lr_mult: 1
    decay_mult: 1
  }
  param {
    lr_mult: 2
    decay_mult: 0
  }
  inner_product_param {
    num_output: 1000
    weight_filler {
      type: "xavier"
    }
    bias_filler {
      type: "constant"
      value: 0
    }
  }
}
layer {
  name: "loss2/loss"
  type: "SoftmaxWithLoss"
  bottom: "loss2/classifier"
  bottom: "label"
  top: "loss2/loss2"
  loss_weight: 0.3
}
layer {
  name: "inception_4e/1x1"
  type: "Convolution"
  bottom: "inception_4d/output"
  top: "inception_4e/1x1"
  param {
    lr_mult: 1
    decay_mult: 1
  }
  param {
    lr_mult: 2
    decay_mult: 0
  }
  convolution_param {
    num_output: 256
    kernel_size: 1
    weight_filler {
      type: "xavier"
    }
    bias_filler {
      type: "constant"
      value: 0.2
    }
  }
}
layer {
  name: "inception_4e/relu_1x1"
  type: "ReLU"
  bottom: "inception_4e/1x1"
  top: "inception_4e/1x1"
}
layer {
  name: "inception_4e/3x3_reduce"
  type: "Convolution"
  bottom: "inception_4d/output"
  top: "inception_4e/3x3_reduce"
  param {
    lr_mult: 1
    decay_mult: 1
  }
  param {
    lr_mult: 2
    decay_mult: 0
  }
  convolution_param {
    num_output: 160
    kernel_size: 1
    weight_filler {
      type: "xavier"
    }
    bias_filler {
      type: "constant"
      value: 0.2
    }
  }
}
layer {
  name: "inception_4e/relu_3x3_reduce"
  type: "ReLU"
  bottom: "inception_4e/3x3_reduce"
  top: "inception_4e/3x3_reduce"
}
layer {
  name: "inception_4e/3x3"
  type: "Convolution"
  bottom: "inception_4e/3x3_reduce"
  top: "inception_4e/3x3"
  param {
    lr_mult: 1
    decay_mult: 1
  }
  param {
    lr_mult: 2
    decay_mult: 0
  }
  convolution_param {
    num_output: 320
    pad: 1
    kernel_size: 3
    weight_filler {
      type: "xavier"
    }
    bias_filler {
      type: "constant"
      value: 0.2
    }
  }
}
layer {
  name: "inception_4e/relu_3x3"
  type: "ReLU"
  bottom: "inception_4e/3x3"
  top: "inception_4e/3x3"
}
layer {
  name: "inception_4e/5x5_reduce"
  type: "Convolution"
  bottom: "inception_4d/output"
  top: "inception_4e/5x5_reduce"
  param {
    lr_mult: 1
    decay_mult: 1
  }
  param {
    lr_mult: 2
    decay_mult: 0
  }
  convolution_param {
    num_output: 32
    kernel_size: 1
    weight_filler {
      type: "xavier"
    }
    bias_filler {
      type: "constant"
      value: 0.2
    }
  }
}
layer {
  name: "inception_4e/relu_5x5_reduce"
  type: "ReLU"
  bottom: "inception_4e/5x5_reduce"
  top: "inception_4e/5x5_reduce"
}
layer {
  name: "inception_4e/5x5"
  type: "Convolution"
  bottom: "inception_4e/5x5_reduce"
  top: "inception_4e/5x5"
  param {
    lr_mult: 1
    decay_mult: 1
  }
  param {
    lr_mult: 2
    decay_mult: 0
  }
  convolution_param {
    num_output: 128
    pad: 2
    kernel_size: 5
    weight_filler {
      type: "xavier"
    }
    bias_filler {
      type: "constant"
      value: 0.2
    }
  }
}
layer {
  name: "inception_4e/relu_5x5"
  type: "ReLU"
  bottom: "inception_4e/5x5"
  top: "inception_4e/5x5"
}
layer {
  name: "inception_4e/pool"
  type: "Pooling"
  bottom: "inception_4d/output"
  top: "inception_4e/pool"
  pooling_param {
    pool: MAX
    kerne
I0509 17:09:22.557912 119925 layer_factory.hpp:77] Creating layer data
I0509 17:09:22.558017 119925 db_lmdb.cpp:35] Opened lmdb examples/imagenet/ilsvrc12_train_lmdb
I0509 17:09:22.558051 119925 net.cpp:84] Creating Layer data
I0509 17:09:22.558061 119925 net.cpp:380] data -> data
I0509 17:09:22.558085 119925 net.cpp:380] data -> label
I0509 17:09:22.558853 119925 data_layer.cpp:45] output data size: 32,3,224,224
I0509 17:09:22.558940 119925 net.cpp:122] Setting up data
I0509 17:09:22.558954 119925 net.cpp:129] Top shape: 32 3 224 224 (4816896)
I0509 17:09:22.558960 119925 net.cpp:129] Top shape: 32 (32)
I0509 17:09:22.558964 119925 net.cpp:137] Memory required for data: 19267712
I0509 17:09:22.558974 119925 layer_factory.hpp:77] Creating layer label_data_1_split
I0509 17:09:22.558984 119925 net.cpp:84] Creating Layer label_data_1_split
I0509 17:09:22.558991 119925 net.cpp:406] label_data_1_split <- label
I0509 17:09:22.559005 119925 net.cpp:380] label_data_1_split -> label_data_1_split_0
I0509 17:09:22.559017 119925 net.cpp:380] label_data_1_split -> label_data_1_split_1
I0509 17:09:22.559026 119925 net.cpp:380] label_data_1_split -> label_data_1_split_2
I0509 17:09:22.559039 119925 net.cpp:122] Setting up label_data_1_split
I0509 17:09:22.559054 119925 net.cpp:129] Top shape: 32 (32)
I0509 17:09:22.559068 119925 net.cpp:129] Top shape: 32 (32)
I0509 17:09:22.559074 119925 net.cpp:129] Top shape: 32 (32)
I0509 17:09:22.559078 119925 net.cpp:137] Memory required for data: 19268096
I0509 17:09:22.559083 119925 layer_factory.hpp:77] Creating layer conv1/7x7_s2
I0509 17:09:22.559100 119925 net.cpp:84] Creating Layer conv1/7x7_s2
I0509 17:09:22.559105 119925 net.cpp:406] conv1/7x7_s2 <- data
I0509 17:09:22.559116 119925 net.cpp:380] conv1/7x7_s2 -> conv1/7x7_s2
I0509 17:09:22.559131 119925 base_conv_layer.cpp:121] Group is 1channel is3number of output is 64
I0509 17:09:22.559314 119925 net.cpp:122] Setting up conv1/7x7_s2
I0509 17:09:22.559325 119925 net.cpp:129] Top shape: 32 64 112 112 (25690112)
I0509 17:09:22.559329 119925 net.cpp:137] Memory required for data: 122028544
I0509 17:09:22.559350 119925 layer_factory.hpp:77] Creating layer conv1/relu_7x7
I0509 17:09:22.559358 119925 net.cpp:84] Creating Layer conv1/relu_7x7
I0509 17:09:22.559363 119925 net.cpp:406] conv1/relu_7x7 <- conv1/7x7_s2
I0509 17:09:22.559371 119925 net.cpp:367] conv1/relu_7x7 -> conv1/7x7_s2 (in-place)
I0509 17:09:22.559379 119925 net.cpp:122] Setting up conv1/relu_7x7
I0509 17:09:22.559387 119925 net.cpp:129] Top shape: 32 64 112 112 (25690112)
I0509 17:09:22.559391 119925 net.cpp:137] Memory required for data: 224788992
I0509 17:09:22.559396 119925 layer_factory.hpp:77] Creating layer pool1/3x3_s2
I0509 17:09:22.559407 119925 net.cpp:84] Creating Layer pool1/3x3_s2
I0509 17:09:22.559412 119925 net.cpp:406] pool1/3x3_s2 <- conv1/7x7_s2
I0509 17:09:22.559419 119925 net.cpp:380] pool1/3x3_s2 -> pool1/3x3_s2
I0509 17:09:22.559437 119925 net.cpp:122] Setting up pool1/3x3_s2
I0509 17:09:22.559444 119925 net.cpp:129] Top shape: 32 64 56 56 (6422528)
I0509 17:09:22.559450 119925 net.cpp:137] Memory required for data: 250479104
I0509 17:09:22.559454 119925 layer_factory.hpp:77] Creating layer pool1/norm1
I0509 17:09:22.559463 119925 net.cpp:84] Creating Layer pool1/norm1
I0509 17:09:22.559466 119925 net.cpp:406] pool1/norm1 <- pool1/3x3_s2
I0509 17:09:22.559476 119925 net.cpp:380] pool1/norm1 -> pool1/norm1
I0509 17:09:22.559486 119925 net.cpp:122] Setting up pool1/norm1
I0509 17:09:22.559494 119925 net.cpp:129] Top shape: 32 64 56 56 (6422528)
I0509 17:09:22.559497 119925 net.cpp:137] Memory required for data: 276169216
I0509 17:09:22.559504 119925 layer_factory.hpp:77] Creating layer conv2/3x3_reduce
I0509 17:09:22.559514 119925 net.cpp:84] Creating Layer conv2/3x3_reduce
I0509 17:09:22.559520 119925 net.cpp:406] conv2/3x3_reduce <- pool1/norm1
I0509 17:09:22.559530 119925 net.cpp:380] conv2/3x3_reduce -> conv2/3x3_reduce
I0509 17:09:22.559545 119925 base_conv_layer.cpp:121] Group is 1channel is64number of output is 64
I0509 17:09:22.559607 119925 net.cpp:122] Setting up conv2/3x3_reduce
I0509 17:09:22.559614 119925 net.cpp:129] Top shape: 32 64 56 56 (6422528)
I0509 17:09:22.559618 119925 net.cpp:137] Memory required for data: 301859328
I0509 17:09:22.559630 119925 layer_factory.hpp:77] Creating layer conv2/relu_3x3_reduce
I0509 17:09:22.559638 119925 net.cpp:84] Creating Layer conv2/relu_3x3_reduce
I0509 17:09:22.559643 119925 net.cpp:406] conv2/relu_3x3_reduce <- conv2/3x3_reduce
I0509 17:09:22.559653 119925 net.cpp:367] conv2/relu_3x3_reduce -> conv2/3x3_reduce (in-place)
I0509 17:09:22.559662 119925 net.cpp:122] Setting up conv2/relu_3x3_reduce
I0509 17:09:22.559669 119925 net.cpp:129] Top shape: 32 64 56 56 (6422528)
I0509 17:09:22.559674 119925 net.cpp:137] Memory required for data: 327549440
I0509 17:09:22.559677 119925 layer_factory.hpp:77] Creating layer conv2/3x3
I0509 17:09:22.559691 119925 net.cpp:84] Creating Layer conv2/3x3
I0509 17:09:22.559696 119925 net.cpp:406] conv2/3x3 <- conv2/3x3_reduce
I0509 17:09:22.559705 119925 net.cpp:380] conv2/3x3 -> conv2/3x3
I0509 17:09:22.559717 119925 base_conv_layer.cpp:121] Group is 1channel is64number of output is 192
I0509 17:09:22.560837 119925 net.cpp:122] Setting up conv2/3x3
I0509 17:09:22.560847 119925 net.cpp:129] Top shape: 32 192 56 56 (19267584)
I0509 17:09:22.560856 119925 net.cpp:137] Memory required for data: 404619776
I0509 17:09:22.560875 119925 layer_factory.hpp:77] Creating layer conv2/relu_3x3
I0509 17:09:22.560883 119925 net.cpp:84] Creating Layer conv2/relu_3x3
I0509 17:09:22.560889 119925 net.cpp:406] conv2/relu_3x3 <- conv2/3x3
I0509 17:09:22.560894 119925 net.cpp:367] conv2/relu_3x3 -> conv2/3x3 (in-place)
I0509 17:09:22.560902 119925 net.cpp:122] Setting up conv2/relu_3x3
I0509 17:09:22.560909 119925 net.cpp:129] Top shape: 32 192 56 56 (19267584)
I0509 17:09:22.560914 119925 net.cpp:137] Memory required for data: 481690112
I0509 17:09:22.560917 119925 layer_factory.hpp:77] Creating layer conv2/norm2
I0509 17:09:22.560925 119925 net.cpp:84] Creating Layer conv2/norm2
I0509 17:09:22.560930 119925 net.cpp:406] conv2/norm2 <- conv2/3x3
I0509 17:09:22.560936 119925 net.cpp:380] conv2/norm2 -> conv2/norm2
I0509 17:09:22.560945 119925 net.cpp:122] Setting up conv2/norm2
I0509 17:09:22.560951 119925 net.cpp:129] Top shape: 32 192 56 56 (19267584)
I0509 17:09:22.560956 119925 net.cpp:137] Memory required for data: 558760448
I0509 17:09:22.560961 119925 layer_factory.hpp:77] Creating layer pool2/3x3_s2
I0509 17:09:22.560967 119925 net.cpp:84] Creating Layer pool2/3x3_s2
I0509 17:09:22.560971 119925 net.cpp:406] pool2/3x3_s2 <- conv2/norm2
I0509 17:09:22.560978 119925 net.cpp:380] pool2/3x3_s2 -> pool2/3x3_s2
I0509 17:09:22.560987 119925 net.cpp:122] Setting up pool2/3x3_s2
I0509 17:09:22.560993 119925 net.cpp:129] Top shape: 32 192 28 28 (4816896)
I0509 17:09:22.560997 119925 net.cpp:137] Memory required for data: 578028032
I0509 17:09:22.561002 119925 layer_factory.hpp:77] Creating layer pool2/3x3_s2_pool2/3x3_s2_0_split
I0509 17:09:22.561012 119925 net.cpp:84] Creating Layer pool2/3x3_s2_pool2/3x3_s2_0_split
I0509 17:09:22.561017 119925 net.cpp:406] pool2/3x3_s2_pool2/3x3_s2_0_split <- pool2/3x3_s2
I0509 17:09:22.561023 119925 net.cpp:380] pool2/3x3_s2_pool2/3x3_s2_0_split -> pool2/3x3_s2_pool2/3x3_s2_0_split_0
I0509 17:09:22.561033 119925 net.cpp:380] pool2/3x3_s2_pool2/3x3_s2_0_split -> pool2/3x3_s2_pool2/3x3_s2_0_split_1
I0509 17:09:22.561041 119925 net.cpp:380] pool2/3x3_s2_pool2/3x3_s2_0_split -> pool2/3x3_s2_pool2/3x3_s2_0_split_2
I0509 17:09:22.561049 119925 net.cpp:380] pool2/3x3_s2_pool2/3x3_s2_0_split -> pool2/3x3_s2_pool2/3x3_s2_0_split_3
I0509 17:09:22.561058 119925 net.cpp:122] Setting up pool2/3x3_s2_pool2/3x3_s2_0_split
I0509 17:09:22.561066 119925 net.cpp:129] Top shape: 32 192 28 28 (4816896)
I0509 17:09:22.561071 119925 net.cpp:129] Top shape: 32 192 28 28 (4816896)
I0509 17:09:22.561077 119925 net.cpp:129] Top shape: 32 192 28 28 (4816896)
I0509 17:09:22.561084 119925 net.cpp:129] Top shape: 32 192 28 28 (4816896)
I0509 17:09:22.561089 119925 net.cpp:137] Memory required for data: 655098368
I0509 17:09:22.561092 119925 layer_factory.hpp:77] Creating layer inception_3a/1x1
I0509 17:09:22.561102 119925 net.cpp:84] Creating Layer inception_3a/1x1
I0509 17:09:22.561107 119925 net.cpp:406] inception_3a/1x1 <- pool2/3x3_s2_pool2/3x3_s2_0_split_0
I0509 17:09:22.561116 119925 net.cpp:380] inception_3a/1x1 -> inception_3a/1x1
I0509 17:09:22.561132 119925 base_conv_layer.cpp:121] Group is 1channel is192number of output is 64
I0509 17:09:22.561267 119925 net.cpp:122] Setting up inception_3a/1x1
I0509 17:09:22.561276 119925 net.cpp:129] Top shape: 32 64 28 28 (1605632)
I0509 17:09:22.561281 119925 net.cpp:137] Memory required for data: 661520896
I0509 17:09:22.561290 119925 layer_factory.hpp:77] Creating layer inception_3a/relu_1x1
I0509 17:09:22.561295 119925 net.cpp:84] Creating Layer inception_3a/relu_1x1
I0509 17:09:22.561300 119925 net.cpp:406] inception_3a/relu_1x1 <- inception_3a/1x1
I0509 17:09:22.561309 119925 net.cpp:367] inception_3a/relu_1x1 -> inception_3a/1x1 (in-place)
I0509 17:09:22.561316 119925 net.cpp:122] Setting up inception_3a/relu_1x1
I0509 17:09:22.561322 119925 net.cpp:129] Top shape: 32 64 28 28 (1605632)
I0509 17:09:22.561327 119925 net.cpp:137] Memory required for data: 667943424
I0509 17:09:22.561332 119925 layer_factory.hpp:77] Creating layer inception_3a/3x3_reduce
I0509 17:09:22.561353 119925 net.cpp:84] Creating Layer inception_3a/3x3_reduce
I0509 17:09:22.561358 119925 net.cpp:406] inception_3a/3x3_reduce <- pool2/3x3_s2_pool2/3x3_s2_0_split_1
I0509 17:09:22.561367 119925 net.cpp:380] inception_3a/3x3_reduce -> inception_3a/3x3_reduce
I0509 17:09:22.561380 119925 base_conv_layer.cpp:121] Group is 1channel is192number of output is 96
I0509 17:09:22.561569 119925 net.cpp:122] Setting up inception_3a/3x3_reduce
I0509 17:09:22.561578 119925 net.cpp:129] Top shape: 32 96 28 28 (2408448)
I0509 17:09:22.561583 119925 net.cpp:137] Memory required for data: 677577216
I0509 17:09:22.561594 119925 layer_factory.hpp:77] Creating layer inception_3a/relu_3x3_reduce
I0509 17:09:22.561605 119925 net.cpp:84] Creating Layer inception_3a/relu_3x3_reduce
I0509 17:09:22.561610 119925 net.cpp:406] inception_3a/relu_3x3_reduce <- inception_3a/3x3_reduce
I0509 17:09:22.561617 119925 net.cpp:367] inception_3a/relu_3x3_reduce -> inception_3a/3x3_reduce (in-place)
I0509 17:09:22.561625 119925 net.cpp:122] Setting up inception_3a/relu_3x3_reduce
I0509 17:09:22.561631 119925 net.cpp:129] Top shape: 32 96 28 28 (2408448)
I0509 17:09:22.561635 119925 net.cpp:137] Memory required for data: 687211008
I0509 17:09:22.561640 119925 layer_factory.hpp:77] Creating layer inception_3a/3x3
I0509 17:09:22.561651 119925 net.cpp:84] Creating Layer inception_3a/3x3
I0509 17:09:22.561656 119925 net.cpp:406] inception_3a/3x3 <- inception_3a/3x3_reduce
I0509 17:09:22.561666 119925 net.cpp:380] inception_3a/3x3 -> inception_3a/3x3
I0509 17:09:22.561676 119925 base_conv_layer.cpp:121] Group is 1channel is96number of output is 128
I0509 17:09:22.562721 119925 net.cpp:122] Setting up inception_3a/3x3
I0509 17:09:22.562728 119925 net.cpp:129] Top shape: 32 128 28 28 (3211264)
I0509 17:09:22.562732 119925 net.cpp:137] Memory required for data: 700056064
I0509 17:09:22.562739 119925 layer_factory.hpp:77] Creating layer inception_3a/relu_3x3
I0509 17:09:22.562747 119925 net.cpp:84] Creating Layer inception_3a/relu_3x3
I0509 17:09:22.562752 119925 net.cpp:406] inception_3a/relu_3x3 <- inception_3a/3x3
I0509 17:09:22.562759 119925 net.cpp:367] inception_3a/relu_3x3 -> inception_3a/3x3 (in-place)
I0509 17:09:22.562767 119925 net.cpp:122] Setting up inception_3a/relu_3x3
I0509 17:09:22.562773 119925 net.cpp:129] Top shape: 32 128 28 28 (3211264)
I0509 17:09:22.562777 119925 net.cpp:137] Memory required for data: 712901120
I0509 17:09:22.562782 119925 layer_factory.hpp:77] Creating layer inception_3a/5x5_reduce
I0509 17:09:22.562793 119925 net.cpp:84] Creating Layer inception_3a/5x5_reduce
I0509 17:09:22.562798 119925 net.cpp:406] inception_3a/5x5_reduce <- pool2/3x3_s2_pool2/3x3_s2_0_split_2
I0509 17:09:22.562805 119925 net.cpp:380] inception_3a/5x5_reduce -> inception_3a/5x5_reduce
I0509 17:09:22.562819 119925 base_conv_layer.cpp:121] Group is 1channel is192number of output is 16
I0509 17:09:22.562862 119925 net.cpp:122] Setting up inception_3a/5x5_reduce
I0509 17:09:22.562870 119925 net.cpp:129] Top shape: 32 16 28 28 (401408)
I0509 17:09:22.562875 119925 net.cpp:137] Memory required for data: 714506752
I0509 17:09:22.562881 119925 layer_factory.hpp:77] Creating layer inception_3a/relu_5x5_reduce
I0509 17:09:22.562887 119925 net.cpp:84] Creating Layer inception_3a/relu_5x5_reduce
I0509 17:09:22.562893 119925 net.cpp:406] inception_3a/relu_5x5_reduce <- inception_3a/5x5_reduce
I0509 17:09:22.562899 119925 net.cpp:367] inception_3a/relu_5x5_reduce -> inception_3a/5x5_reduce (in-place)
I0509 17:09:22.562906 119925 net.cpp:122] Setting up inception_3a/relu_5x5_reduce
I0509 17:09:22.562912 119925 net.cpp:129] Top shape: 32 16 28 28 (401408)
I0509 17:09:22.562917 119925 net.cpp:137] Memory required for data: 716112384
I0509 17:09:22.562922 119925 layer_factory.hpp:77] Creating layer inception_3a/5x5
I0509 17:09:22.562932 119925 net.cpp:84] Creating Layer inception_3a/5x5
I0509 17:09:22.562937 119925 net.cpp:406] inception_3a/5x5 <- inception_3a/5x5_reduce
I0509 17:09:22.562948 119925 net.cpp:380] inception_3a/5x5 -> inception_3a/5x5
I0509 17:09:22.562965 119925 base_conv_layer.cpp:121] Group is 1channel is16number of output is 32
I0509 17:09:22.563099 119925 net.cpp:122] Setting up inception_3a/5x5
I0509 17:09:22.563107 119925 net.cpp:129] Top shape: 32 32 28 28 (802816)
I0509 17:09:22.563112 119925 net.cpp:137] Memory required for data: 719323648
I0509 17:09:22.563119 119925 layer_factory.hpp:77] Creating layer inception_3a/relu_5x5
I0509 17:09:22.563125 119925 net.cpp:84] Creating Layer inception_3a/relu_5x5
I0509 17:09:22.563130 119925 net.cpp:406] inception_3a/relu_5x5 <- inception_3a/5x5
I0509 17:09:22.563138 119925 net.cpp:367] inception_3a/relu_5x5 -> inception_3a/5x5 (in-place)
I0509 17:09:22.563145 119925 net.cpp:122] Setting up inception_3a/relu_5x5
I0509 17:09:22.563151 119925 net.cpp:129] Top shape: 32 32 28 28 (802816)
I0509 17:09:22.563156 119925 net.cpp:137] Memory required for data: 722534912
I0509 17:09:22.563161 119925 layer_factory.hpp:77] Creating layer inception_3a/pool
I0509 17:09:22.563168 119925 net.cpp:84] Creating Layer inception_3a/pool
I0509 17:09:22.563172 119925 net.cpp:406] inception_3a/pool <- pool2/3x3_s2_pool2/3x3_s2_0_split_3
I0509 17:09:22.563180 119925 net.cpp:380] inception_3a/pool -> inception_3a/pool
I0509 17:09:22.563192 119925 net.cpp:122] Setting up inception_3a/pool
I0509 17:09:22.563199 119925 net.cpp:129] Top shape: 32 192 28 28 (4816896)
I0509 17:09:22.563202 119925 net.cpp:137] Memory required for data: 741802496
I0509 17:09:22.563206 119925 layer_factory.hpp:77] Creating layer inception_3a/pool_proj
I0509 17:09:22.563217 119925 net.cpp:84] Creating Layer inception_3a/pool_proj
I0509 17:09:22.563222 119925 net.cpp:406] inception_3a/pool_proj <- inception_3a/pool
I0509 17:09:22.563232 119925 net.cpp:380] inception_3a/pool_proj -> inception_3a/pool_proj
I0509 17:09:22.563243 119925 base_conv_layer.cpp:121] Group is 1channel is192number of output is 32
I0509 17:09:22.563314 119925 net.cpp:122] Setting up inception_3a/pool_proj
I0509 17:09:22.563321 119925 net.cpp:129] Top shape: 32 32 28 28 (802816)
I0509 17:09:22.563326 119925 net.cpp:137] Memory required for data: 745013760
I0509 17:09:22.563341 119925 layer_factory.hpp:77] Creating layer inception_3a/relu_pool_proj
I0509 17:09:22.563349 119925 net.cpp:84] Creating Layer inception_3a/relu_pool_proj
I0509 17:09:22.563354 119925 net.cpp:406] inception_3a/relu_pool_proj <- inception_3a/pool_proj
I0509 17:09:22.563360 119925 net.cpp:367] inception_3a/relu_pool_proj -> inception_3a/pool_proj (in-place)
I0509 17:09:22.563367 119925 net.cpp:122] Setting up inception_3a/relu_pool_proj
I0509 17:09:22.563375 119925 net.cpp:129] Top shape: 32 32 28 28 (802816)
I0509 17:09:22.563380 119925 net.cpp:137] Memory required for data: 748225024
I0509 17:09:22.563383 119925 layer_factory.hpp:77] Creating layer inception_3a/output
I0509 17:09:22.563390 119925 net.cpp:84] Creating Layer inception_3a/output
I0509 17:09:22.563395 119925 net.cpp:406] inception_3a/output <- inception_3a/1x1
I0509 17:09:22.563400 119925 net.cpp:406] inception_3a/output <- inception_3a/3x3
I0509 17:09:22.563406 119925 net.cpp:406] inception_3a/output <- inception_3a/5x5
I0509 17:09:22.563411 119925 net.cpp:406] inception_3a/output <- inception_3a/pool_proj
I0509 17:09:22.563421 119925 net.cpp:380] inception_3a/output -> inception_3a/output
I0509 17:09:22.563431 119925 net.cpp:122] Setting up inception_3a/output
I0509 17:09:22.563437 119925 net.cpp:129] Top shape: 32 256 28 28 (6422528)
I0509 17:09:22.563441 119925 net.cpp:137] Memory required for data: 773915136
I0509 17:09:22.563446 119925 layer_factory.hpp:77] Creating layer inception_3a/output_inception_3a/output_0_split
I0509 17:09:22.563453 119925 net.cpp:84] Creating Layer inception_3a/output_inception_3a/output_0_split
I0509 17:09:22.563457 119925 net.cpp:406] inception_3a/output_inception_3a/output_0_split <- inception_3a/output
I0509 17:09:22.563467 119925 net.cpp:380] inception_3a/output_inception_3a/output_0_split -> inception_3a/output_inception_3a/output_0_split_0
I0509 17:09:22.563482 119925 net.cpp:380] inception_3a/output_inception_3a/output_0_split -> inception_3a/output_inception_3a/output_0_split_1
I0509 17:09:22.563498 119925 net.cpp:380] inception_3a/output_inception_3a/output_0_split -> inception_3a/output_inception_3a/output_0_split_2
I0509 17:09:22.563506 119925 net.cpp:380] inception_3a/output_inception_3a/output_0_split -> inception_3a/output_inception_3a/output_0_split_3
I0509 17:09:22.563516 119925 net.cpp:122] Setting up inception_3a/output_inception_3a/output_0_split
I0509 17:09:22.563524 119925 net.cpp:129] Top shape: 32 256 28 28 (6422528)
I0509 17:09:22.563530 119925 net.cpp:129] Top shape: 32 256 28 28 (6422528)
I0509 17:09:22.563536 119925 net.cpp:129] Top shape: 32 256 28 28 (6422528)
I0509 17:09:22.563541 119925 net.cpp:129] Top shape: 32 256 28 28 (6422528)
I0509 17:09:22.563546 119925 net.cpp:137] Memory required for data: 876675584
I0509 17:09:22.563551 119925 layer_factory.hpp:77] Creating layer inception_3b/1x1
I0509 17:09:22.563561 119925 net.cpp:84] Creating Layer inception_3b/1x1
I0509 17:09:22.563566 119925 net.cpp:406] inception_3b/1x1 <- inception_3a/output_inception_3a/output_0_split_0
I0509 17:09:22.563577 119925 net.cpp:380] inception_3b/1x1 -> inception_3b/1x1
I0509 17:09:22.563588 119925 base_conv_layer.cpp:121] Group is 1channel is256number of output is 128
I0509 17:09:22.563906 119925 net.cpp:122] Setting up inception_3b/1x1
I0509 17:09:22.563915 119925 net.cpp:129] Top shape: 32 128 28 28 (3211264)
I0509 17:09:22.563920 119925 net.cpp:137] Memory required for data: 889520640
I0509 17:09:22.563926 119925 layer_factory.hpp:77] Creating layer inception_3b/relu_1x1
I0509 17:09:22.563932 119925 net.cpp:84] Creating Layer inception_3b/relu_1x1
I0509 17:09:22.563937 119925 net.cpp:406] inception_3b/relu_1x1 <- inception_3b/1x1
I0509 17:09:22.563946 119925 net.cpp:367] inception_3b/relu_1x1 -> inception_3b/1x1 (in-place)
I0509 17:09:22.563953 119925 net.cpp:122] Setting up inception_3b/relu_1x1
I0509 17:09:22.563959 119925 net.cpp:129] Top shape: 32 128 28 28 (3211264)
I0509 17:09:22.563963 119925 net.cpp:137] Memory required for data: 902365696
I0509 17:09:22.563968 119925 layer_factory.hpp:77] Creating layer inception_3b/3x3_reduce
I0509 17:09:22.563978 119925 net.cpp:84] Creating Layer inception_3b/3x3_reduce
I0509 17:09:22.563983 119925 net.cpp:406] inception_3b/3x3_reduce <- inception_3a/output_inception_3a/output_0_split_1
I0509 17:09:22.563992 119925 net.cpp:380] inception_3b/3x3_reduce -> inception_3b/3x3_reduce
I0509 17:09:22.564004 119925 base_conv_layer.cpp:121] Group is 1channel is256number of output is 128
I0509 17:09:22.564334 119925 net.cpp:122] Setting up inception_3b/3x3_reduce
I0509 17:09:22.564343 119925 net.cpp:129] Top shape: 32 128 28 28 (3211264)
I0509 17:09:22.564348 119925 net.cpp:137] Memory required for data: 915210752
I0509 17:09:22.564355 119925 layer_factory.hpp:77] Creating layer inception_3b/relu_3x3_reduce
I0509 17:09:22.564363 119925 net.cpp:84] Creating Layer inception_3b/relu_3x3_reduce
I0509 17:09:22.564368 119925 net.cpp:406] inception_3b/relu_3x3_reduce <- inception_3b/3x3_reduce
I0509 17:09:22.564375 119925 net.cpp:367] inception_3b/relu_3x3_reduce -> inception_3b/3x3_reduce (in-place)
I0509 17:09:22.564383 119925 net.cpp:122] Setting up inception_3b/relu_3x3_reduce
I0509 17:09:22.564389 119925 net.cpp:129] Top shape: 32 128 28 28 (3211264)
I0509 17:09:22.564394 119925 net.cpp:137] Memory required for data: 928055808
I0509 17:09:22.564399 119925 layer_factory.hpp:77] Creating layer inception_3b/3x3
I0509 17:09:22.564416 119925 net.cpp:84] Creating Layer inception_3b/3x3
I0509 17:09:22.564421 119925 net.cpp:406] inception_3b/3x3 <- inception_3b/3x3_reduce
I0509 17:09:22.564429 119925 net.cpp:380] inception_3b/3x3 -> inception_3b/3x3
I0509 17:09:22.564440 119925 base_conv_layer.cpp:121] Group is 1channel is128number of output is 192
I0509 17:09:22.566504 119925 net.cpp:122] Setting up inception_3b/3x3
I0509 17:09:22.566512 119925 net.cpp:129] Top shape: 32 192 28 28 (4816896)
I0509 17:09:22.566516 119925 net.cpp:137] Memory required for data: 947323392
I0509 17:09:22.566534 119925 layer_factory.hpp:77] Creating layer inception_3b/relu_3x3
I0509 17:09:22.566543 119925 net.cpp:84] Creating Layer inception_3b/relu_3x3
I0509 17:09:22.566548 119925 net.cpp:406] inception_3b/relu_3x3 <- inception_3b/3x3
I0509 17:09:22.566555 119925 net.cpp:367] inception_3b/relu_3x3 -> inception_3b/3x3 (in-place)
I0509 17:09:22.566562 119925 net.cpp:122] Setting up inception_3b/relu_3x3
I0509 17:09:22.566570 119925 net.cpp:129] Top shape: 32 192 28 28 (4816896)
I0509 17:09:22.566573 119925 net.cpp:137] Memory required for data: 966590976
I0509 17:09:22.566577 119925 layer_factory.hpp:77] Creating layer inception_3b/5x5_reduce
I0509 17:09:22.566587 119925 net.cpp:84] Creating Layer inception_3b/5x5_reduce
I0509 17:09:22.566593 119925 net.cpp:406] inception_3b/5x5_reduce <- inception_3a/output_inception_3a/output_0_split_2
I0509 17:09:22.566602 119925 net.cpp:380] inception_3b/5x5_reduce -> inception_3b/5x5_reduce
I0509 17:09:22.566613 119925 base_conv_layer.cpp:121] Group is 1channel is256number of output is 32
I0509 17:09:22.566701 119925 net.cpp:122] Setting up inception_3b/5x5_reduce
I0509 17:09:22.566709 119925 net.cpp:129] Top shape: 32 32 28 28 (802816)
I0509 17:09:22.566714 119925 net.cpp:137] Memory required for data: 969802240
I0509 17:09:22.566720 119925 layer_factory.hpp:77] Creating layer inception_3b/relu_5x5_reduce
I0509 17:09:22.566726 119925 net.cpp:84] Creating Layer inception_3b/relu_5x5_reduce
I0509 17:09:22.566731 119925 net.cpp:406] inception_3b/relu_5x5_reduce <- inception_3b/5x5_reduce
I0509 17:09:22.566740 119925 net.cpp:367] inception_3b/relu_5x5_reduce -> inception_3b/5x5_reduce (in-place)
I0509 17:09:22.566746 119925 net.cpp:122] Setting up inception_3b/relu_5x5_reduce
I0509 17:09:22.566752 119925 net.cpp:129] Top shape: 32 32 28 28 (802816)
I0509 17:09:22.566757 119925 net.cpp:137] Memory required for data: 973013504
I0509 17:09:22.566761 119925 layer_factory.hpp:77] Creating layer inception_3b/5x5
I0509 17:09:22.566771 119925 net.cpp:84] Creating Layer inception_3b/5x5
I0509 17:09:22.566776 119925 net.cpp:406] inception_3b/5x5 <- inception_3b/5x5_reduce
I0509 17:09:22.566784 119925 net.cpp:380] inception_3b/5x5 -> inception_3b/5x5
I0509 17:09:22.566804 119925 base_conv_layer.cpp:121] Group is 1channel is32number of output is 96
I0509 17:09:22.567533 119925 net.cpp:122] Setting up inception_3b/5x5
I0509 17:09:22.567540 119925 net.cpp:129] Top shape: 32 96 28 28 (2408448)
I0509 17:09:22.567545 119925 net.cpp:137] Memory required for data: 982647296
I0509 17:09:22.567553 119925 layer_factory.hpp:77] Creating layer inception_3b/relu_5x5
I0509 17:09:22.567562 119925 net.cpp:84] Creating Layer inception_3b/relu_5x5
I0509 17:09:22.567567 119925 net.cpp:406] inception_3b/relu_5x5 <- inception_3b/5x5
I0509 17:09:22.567575 119925 net.cpp:367] inception_3b/relu_5x5 -> inception_3b/5x5 (in-place)
I0509 17:09:22.567582 119925 net.cpp:122] Setting up inception_3b/relu_5x5
I0509 17:09:22.567589 119925 net.cpp:129] Top shape: 32 96 28 28 (2408448)
I0509 17:09:22.567592 119925 net.cpp:137] Memory required for data: 992281088
I0509 17:09:22.567597 119925 layer_factory.hpp:77] Creating layer inception_3b/pool
I0509 17:09:22.567606 119925 net.cpp:84] Creating Layer inception_3b/pool
I0509 17:09:22.567610 119925 net.cpp:406] inception_3b/pool <- inception_3a/output_inception_3a/output_0_split_3
I0509 17:09:22.567617 119925 net.cpp:380] inception_3b/pool -> inception_3b/pool
I0509 17:09:22.567628 119925 net.cpp:122] Setting up inception_3b/pool
I0509 17:09:22.567636 119925 net.cpp:129] Top shape: 32 256 28 28 (6422528)
I0509 17:09:22.567639 119925 net.cpp:137] Memory required for data: 1017971200
I0509 17:09:22.567643 119925 layer_factory.hpp:77] Creating layer inception_3b/pool_proj
I0509 17:09:22.567654 119925 net.cpp:84] Creating Layer inception_3b/pool_proj
I0509 17:09:22.567659 119925 net.cpp:406] inception_3b/pool_proj <- inception_3b/pool
I0509 17:09:22.567668 119925 net.cpp:380] inception_3b/pool_proj -> inception_3b/pool_proj
I0509 17:09:22.567683 119925 base_conv_layer.cpp:121] Group is 1channel is256number of output is 64
I0509 17:09:22.567854 119925 net.cpp:122] Setting up inception_3b/pool_proj
I0509 17:09:22.567862 119925 net.cpp:129] Top shape: 32 64 28 28 (1605632)
I0509 17:09:22.567867 119925 net.cpp:137] Memory required for data: 1024393728
I0509 17:09:22.567873 119925 layer_factory.hpp:77] Creating layer inception_3b/relu_pool_proj
I0509 17:09:22.567883 119925 net.cpp:84] Creating Layer inception_3b/relu_pool_proj
I0509 17:09:22.567888 119925 net.cpp:406] inception_3b/relu_pool_proj <- inception_3b/pool_proj
I0509 17:09:22.567893 119925 net.cpp:367] inception_3b/relu_pool_proj -> inception_3b/pool_proj (in-place)
I0509 17:09:22.567900 119925 net.cpp:122] Setting up inception_3b/relu_pool_proj
I0509 17:09:22.567908 119925 net.cpp:129] Top shape: 32 64 28 28 (1605632)
I0509 17:09:22.567911 119925 net.cpp:137] Memory required for data: 1030816256
I0509 17:09:22.567916 119925 layer_factory.hpp:77] Creating layer inception_3b/output
I0509 17:09:22.567922 119925 net.cpp:84] Creating Layer inception_3b/output
I0509 17:09:22.567929 119925 net.cpp:406] inception_3b/output <- inception_3b/1x1
I0509 17:09:22.567934 119925 net.cpp:406] inception_3b/output <- inception_3b/3x3
I0509 17:09:22.567939 119925 net.cpp:406] inception_3b/output <- inception_3b/5x5
I0509 17:09:22.567944 119925 net.cpp:406] inception_3b/output <- inception_3b/pool_proj
I0509 17:09:22.567953 119925 net.cpp:380] inception_3b/output -> inception_3b/output
I0509 17:09:22.567962 119925 net.cpp:122] Setting up inception_3b/output
I0509 17:09:22.567968 119925 net.cpp:129] Top shape: 32 480 28 28 (12042240)
I0509 17:09:22.567973 119925 net.cpp:137] Memory required for data: 1078985216
I0509 17:09:22.567978 119925 layer_factory.hpp:77] Creating layer pool3/3x3_s2
I0509 17:09:22.567986 119925 net.cpp:84] Creating Layer pool3/3x3_s2
I0509 17:09:22.567991 119925 net.cpp:406] pool3/3x3_s2 <- inception_3b/output
I0509 17:09:22.567997 119925 net.cpp:380] pool3/3x3_s2 -> pool3/3x3_s2
I0509 17:09:22.568007 119925 net.cpp:122] Setting up pool3/3x3_s2
I0509 17:09:22.568013 119925 net.cpp:129] Top shape: 32 480 14 14 (3010560)
I0509 17:09:22.568017 119925 net.cpp:137] Memory required for data: 1091027456
I0509 17:09:22.568022 119925 layer_factory.hpp:77] Creating layer pool3/3x3_s2_pool3/3x3_s2_0_split
I0509 17:09:22.568029 119925 net.cpp:84] Creating Layer pool3/3x3_s2_pool3/3x3_s2_0_split
I0509 17:09:22.568042 119925 net.cpp:406] pool3/3x3_s2_pool3/3x3_s2_0_split <- pool3/3x3_s2
I0509 17:09:22.568053 119925 net.cpp:380] pool3/3x3_s2_pool3/3x3_s2_0_split -> pool3/3x3_s2_pool3/3x3_s2_0_split_0
I0509 17:09:22.568063 119925 net.cpp:380] pool3/3x3_s2_pool3/3x3_s2_0_split -> pool3/3x3_s2_pool3/3x3_s2_0_split_1
I0509 17:09:22.568073 119925 net.cpp:380] pool3/3x3_s2_pool3/3x3_s2_0_split -> pool3/3x3_s2_pool3/3x3_s2_0_split_2
I0509 17:09:22.568081 119925 net.cpp:380] pool3/3x3_s2_pool3/3x3_s2_0_split -> pool3/3x3_s2_pool3/3x3_s2_0_split_3
I0509 17:09:22.568090 119925 net.cpp:122] Setting up pool3/3x3_s2_pool3/3x3_s2_0_split
I0509 17:09:22.568097 119925 net.cpp:129] Top shape: 32 480 14 14 (3010560)
I0509 17:09:22.568104 119925 net.cpp:129] Top shape: 32 480 14 14 (3010560)
I0509 17:09:22.568109 119925 net.cpp:129] Top shape: 32 480 14 14 (3010560)
I0509 17:09:22.568114 119925 net.cpp:129] Top shape: 32 480 14 14 (3010560)
I0509 17:09:22.568119 119925 net.cpp:137] Memory required for data: 1139196416
I0509 17:09:22.568125 119925 layer_factory.hpp:77] Creating layer inception_4a/1x1
I0509 17:09:22.568135 119925 net.cpp:84] Creating Layer inception_4a/1x1
I0509 17:09:22.568140 119925 net.cpp:406] inception_4a/1x1 <- pool3/3x3_s2_pool3/3x3_s2_0_split_0
I0509 17:09:22.568150 119925 net.cpp:380] inception_4a/1x1 -> inception_4a/1x1
I0509 17:09:22.568161 119925 base_conv_layer.cpp:121] Group is 1channel is480number of output is 192
I0509 17:09:22.569033 119925 net.cpp:122] Setting up inception_4a/1x1
I0509 17:09:22.569041 119925 net.cpp:129] Top shape: 32 192 14 14 (1204224)
I0509 17:09:22.569044 119925 net.cpp:137] Memory required for data: 1144013312
I0509 17:09:22.569057 119925 layer_factory.hpp:77] Creating layer inception_4a/relu_1x1
I0509 17:09:22.569072 119925 net.cpp:84] Creating Layer inception_4a/relu_1x1
I0509 17:09:22.569077 119925 net.cpp:406] inception_4a/relu_1x1 <- inception_4a/1x1
I0509 17:09:22.569085 119925 net.cpp:367] inception_4a/relu_1x1 -> inception_4a/1x1 (in-place)
I0509 17:09:22.569093 119925 net.cpp:122] Setting up inception_4a/relu_1x1
I0509 17:09:22.569100 119925 net.cpp:129] Top shape: 32 192 14 14 (1204224)
I0509 17:09:22.569104 119925 net.cpp:137] Memory required for data: 1148830208
I0509 17:09:22.569108 119925 layer_factory.hpp:77] Creating layer inception_4a/3x3_reduce
I0509 17:09:22.569119 119925 net.cpp:84] Creating Layer inception_4a/3x3_reduce
I0509 17:09:22.569124 119925 net.cpp:406] inception_4a/3x3_reduce <- pool3/3x3_s2_pool3/3x3_s2_0_split_1
I0509 17:09:22.569133 119925 net.cpp:380] inception_4a/3x3_reduce -> inception_4a/3x3_reduce
I0509 17:09:22.569144 119925 base_conv_layer.cpp:121] Group is 1channel is480number of output is 96
I0509 17:09:22.569586 119925 net.cpp:122] Setting up inception_4a/3x3_reduce
I0509 17:09:22.569594 119925 net.cpp:129] Top shape: 32 96 14 14 (602112)
I0509 17:09:22.569598 119925 net.cpp:137] Memory required for data: 1151238656
I0509 17:09:22.569612 119925 layer_factory.hpp:77] Creating layer inception_4a/relu_3x3_reduce
I0509 17:09:22.569620 119925 net.cpp:84] Creating Layer inception_4a/relu_3x3_reduce
I0509 17:09:22.569624 119925 net.cpp:406] inception_4a/relu_3x3_reduce <- inception_4a/3x3_reduce
I0509 17:09:22.569633 119925 net.cpp:367] inception_4a/relu_3x3_reduce -> inception_4a/3x3_reduce (in-place)
I0509 17:09:22.569641 119925 net.cpp:122] Setting up inception_4a/relu_3x3_reduce
I0509 17:09:22.569648 119925 net.cpp:129] Top shape: 32 96 14 14 (602112)
I0509 17:09:22.569653 119925 net.cpp:137] Memory required for data: 1153647104
I0509 17:09:22.569655 119925 layer_factory.hpp:77] Creating layer inception_4a/3x3
I0509 17:09:22.569665 119925 net.cpp:84] Creating Layer inception_4a/3x3
I0509 17:09:22.569671 119925 net.cpp:406] inception_4a/3x3 <- inception_4a/3x3_reduce
I0509 17:09:22.569679 119925 net.cpp:380] inception_4a/3x3 -> inception_4a/3x3
I0509 17:09:22.569689 119925 base_conv_layer.cpp:121] Group is 1channel is96number of output is 208
I0509 17:09:22.571367 119925 net.cpp:122] Setting up inception_4a/3x3
I0509 17:09:22.571374 119925 net.cpp:129] Top shape: 32 208 14 14 (1304576)
I0509 17:09:22.571378 119925 net.cpp:137] Memory required for data: 1158865408
I0509 17:09:22.571385 119925 layer_factory.hpp:77] Creating layer inception_4a/relu_3x3
I0509 17:09:22.571393 119925 net.cpp:84] Creating Layer inception_4a/relu_3x3
I0509 17:09:22.571398 119925 net.cpp:406] inception_4a/relu_3x3 <- inception_4a/3x3
I0509 17:09:22.571404 119925 net.cpp:367] inception_4a/relu_3x3 -> inception_4a/3x3 (in-place)
I0509 17:09:22.571411 119925 net.cpp:122] Setting up inception_4a/relu_3x3
I0509 17:09:22.571418 119925 net.cpp:129] Top shape: 32 208 14 14 (1304576)
I0509 17:09:22.571421 119925 net.cpp:137] Memory required for data: 1164083712
I0509 17:09:22.571425 119925 layer_factory.hpp:77] Creating layer inception_4a/5x5_reduce
I0509 17:09:22.571435 119925 net.cpp:84] Creating Layer inception_4a/5x5_reduce
I0509 17:09:22.571440 119925 net.cpp:406] inception_4a/5x5_reduce <- pool3/3x3_s2_pool3/3x3_s2_0_split_2
I0509 17:09:22.571450 119925 net.cpp:380] inception_4a/5x5_reduce -> inception_4a/5x5_reduce
I0509 17:09:22.571461 119925 base_conv_layer.cpp:121] Group is 1channel is480number of output is 16
I0509 17:09:22.571540 119925 net.cpp:122] Setting up inception_4a/5x5_reduce
I0509 17:09:22.571547 119925 net.cpp:129] Top shape: 32 16 14 14 (100352)
I0509 17:09:22.571552 119925 net.cpp:137] Memory required for data: 1164485120
I0509 17:09:22.571558 119925 layer_factory.hpp:77] Creating layer inception_4a/relu_5x5_reduce
I0509 17:09:22.571564 119925 net.cpp:84] Creating Layer inception_4a/relu_5x5_reduce
I0509 17:09:22.571569 119925 net.cpp:406] inception_4a/relu_5x5_reduce <- inception_4a/5x5_reduce
I0509 17:09:22.571581 119925 net.cpp:367] inception_4a/relu_5x5_reduce -> inception_4a/5x5_reduce (in-place)
I0509 17:09:22.571595 119925 net.cpp:122] Setting up inception_4a/relu_5x5_reduce
I0509 17:09:22.571602 119925 net.cpp:129] Top shape: 32 16 14 14 (100352)
I0509 17:09:22.571606 119925 net.cpp:137] Memory required for data: 1164886528
I0509 17:09:22.571611 119925 layer_factory.hpp:77] Creating layer inception_4a/5x5
I0509 17:09:22.571620 119925 net.cpp:84] Creating Layer inception_4a/5x5
I0509 17:09:22.571625 119925 net.cpp:406] inception_4a/5x5 <- inception_4a/5x5_reduce
I0509 17:09:22.571632 119925 net.cpp:380] inception_4a/5x5 -> inception_4a/5x5
I0509 17:09:22.571643 119925 base_conv_layer.cpp:121] Group is 1channel is16number of output is 48
I0509 17:09:22.571841 119925 net.cpp:122] Setting up inception_4a/5x5
I0509 17:09:22.571848 119925 net.cpp:129] Top shape: 32 48 14 14 (301056)
I0509 17:09:22.571852 119925 net.cpp:137] Memory required for data: 1166090752
I0509 17:09:22.571861 119925 layer_factory.hpp:77] Creating layer inception_4a/relu_5x5
I0509 17:09:22.571866 119925 net.cpp:84] Creating Layer inception_4a/relu_5x5
I0509 17:09:22.571871 119925 net.cpp:406] inception_4a/relu_5x5 <- inception_4a/5x5
I0509 17:09:22.571877 119925 net.cpp:367] inception_4a/relu_5x5 -> inception_4a/5x5 (in-place)
I0509 17:09:22.571887 119925 net.cpp:122] Setting up inception_4a/relu_5x5
I0509 17:09:22.571893 119925 net.cpp:129] Top shape: 32 48 14 14 (301056)
I0509 17:09:22.571897 119925 net.cpp:137] Memory required for data: 1167294976
I0509 17:09:22.571902 119925 layer_factory.hpp:77] Creating layer inception_4a/pool
I0509 17:09:22.571909 119925 net.cpp:84] Creating Layer inception_4a/pool
I0509 17:09:22.571913 119925 net.cpp:406] inception_4a/pool <- pool3/3x3_s2_pool3/3x3_s2_0_split_3
I0509 17:09:22.571920 119925 net.cpp:380] inception_4a/pool -> inception_4a/pool
I0509 17:09:22.571931 119925 net.cpp:122] Setting up inception_4a/pool
I0509 17:09:22.571938 119925 net.cpp:129] Top shape: 32 480 14 14 (3010560)
I0509 17:09:22.571943 119925 net.cpp:137] Memory required for data: 1179337216
I0509 17:09:22.571946 119925 layer_factory.hpp:77] Creating layer inception_4a/pool_proj
I0509 17:09:22.571956 119925 net.cpp:84] Creating Layer inception_4a/pool_proj
I0509 17:09:22.571961 119925 net.cpp:406] inception_4a/pool_proj <- inception_4a/pool
I0509 17:09:22.571969 119925 net.cpp:380] inception_4a/pool_proj -> inception_4a/pool_proj
I0509 17:09:22.571980 119925 base_conv_layer.cpp:121] Group is 1channel is480number of output is 64
I0509 17:09:22.572288 119925 net.cpp:122] Setting up inception_4a/pool_proj
I0509 17:09:22.572299 119925 net.cpp:129] Top shape: 32 64 14 14 (401408)
I0509 17:09:22.572302 119925 net.cpp:137] Memory required for data: 1180942848
I0509 17:09:22.572309 119925 layer_factory.hpp:77] Creating layer inception_4a/relu_pool_proj
I0509 17:09:22.572315 119925 net.cpp:84] Creating Layer inception_4a/relu_pool_proj
I0509 17:09:22.572321 119925 net.cpp:406] inception_4a/relu_pool_proj <- inception_4a/pool_proj
I0509 17:09:22.572327 119925 net.cpp:367] inception_4a/relu_pool_proj -> inception_4a/pool_proj (in-place)
I0509 17:09:22.572335 119925 net.cpp:122] Setting up inception_4a/relu_pool_proj
I0509 17:09:22.572340 119925 net.cpp:129] Top shape: 32 64 14 14 (401408)
I0509 17:09:22.572345 119925 net.cpp:137] Memory required for data: 1182548480
I0509 17:09:22.572350 119925 layer_factory.hpp:77] Creating layer inception_4a/output
I0509 17:09:22.572355 119925 net.cpp:84] Creating Layer inception_4a/output
I0509 17:09:22.572360 119925 net.cpp:406] inception_4a/output <- inception_4a/1x1
I0509 17:09:22.572366 119925 net.cpp:406] inception_4a/output <- inception_4a/3x3
I0509 17:09:22.572371 119925 net.cpp:406] inception_4a/output <- inception_4a/5x5
I0509 17:09:22.572376 119925 net.cpp:406] inception_4a/output <- inception_4a/pool_proj
I0509 17:09:22.572384 119925 net.cpp:380] inception_4a/output -> inception_4a/output
I0509 17:09:22.572396 119925 net.cpp:122] Setting up inception_4a/output
I0509 17:09:22.572404 119925 net.cpp:129] Top shape: 32 512 14 14 (3211264)
I0509 17:09:22.572415 119925 net.cpp:137] Memory required for data: 1195393536
I0509 17:09:22.572420 119925 layer_factory.hpp:77] Creating layer inception_4a/output_inception_4a/output_0_split
I0509 17:09:22.572429 119925 net.cpp:84] Creating Layer inception_4a/output_inception_4a/output_0_split
I0509 17:09:22.572434 119925 net.cpp:406] inception_4a/output_inception_4a/output_0_split <- inception_4a/output
I0509 17:09:22.572443 119925 net.cpp:380] inception_4a/output_inception_4a/output_0_split -> inception_4a/output_inception_4a/output_0_split_0
I0509 17:09:22.572450 119925 net.cpp:380] inception_4a/output_inception_4a/output_0_split -> inception_4a/output_inception_4a/output_0_split_1
I0509 17:09:22.572461 119925 net.cpp:380] inception_4a/output_inception_4a/output_0_split -> inception_4a/output_inception_4a/output_0_split_2
I0509 17:09:22.572470 119925 net.cpp:380] inception_4a/output_inception_4a/output_0_split -> inception_4a/output_inception_4a/output_0_split_3
I0509 17:09:22.572479 119925 net.cpp:380] inception_4a/output_inception_4a/output_0_split -> inception_4a/output_inception_4a/output_0_split_4
I0509 17:09:22.572489 119925 net.cpp:122] Setting up inception_4a/output_inception_4a/output_0_split
I0509 17:09:22.572496 119925 net.cpp:129] Top shape: 32 512 14 14 (3211264)
I0509 17:09:22.572502 119925 net.cpp:129] Top shape: 32 512 14 14 (3211264)
I0509 17:09:22.572507 119925 net.cpp:129] Top shape: 32 512 14 14 (3211264)
I0509 17:09:22.572513 119925 net.cpp:129] Top shape: 32 512 14 14 (3211264)
I0509 17:09:22.572520 119925 net.cpp:129] Top shape: 32 512 14 14 (3211264)
I0509 17:09:22.572523 119925 net.cpp:137] Memory required for data: 1259618816
I0509 17:09:22.572527 119925 layer_factory.hpp:77] Creating layer loss1/ave_pool
I0509 17:09:22.572533 119925 net.cpp:84] Creating Layer loss1/ave_pool
I0509 17:09:22.572538 119925 net.cpp:406] loss1/ave_pool <- inception_4a/output_inception_4a/output_0_split_0
I0509 17:09:22.572546 119925 net.cpp:380] loss1/ave_pool -> loss1/ave_pool
I0509 17:09:22.572556 119925 net.cpp:122] Setting up loss1/ave_pool
I0509 17:09:22.572561 119925 net.cpp:129] Top shape: 32 512 4 4 (262144)
I0509 17:09:22.572566 119925 net.cpp:137] Memory required for data: 1260667392
I0509 17:09:22.572569 119925 layer_factory.hpp:77] Creating layer loss1/conv
I0509 17:09:22.572579 119925 net.cpp:84] Creating Layer loss1/conv
I0509 17:09:22.572584 119925 net.cpp:406] loss1/conv <- loss1/ave_pool
I0509 17:09:22.572592 119925 net.cpp:380] loss1/conv -> loss1/conv
I0509 17:09:22.572604 119925 base_conv_layer.cpp:121] Group is 1channel is512number of output is 128
I0509 17:09:22.573225 119925 net.cpp:122] Setting up loss1/conv
I0509 17:09:22.573231 119925 net.cpp:129] Top shape: 32 128 4 4 (65536)
I0509 17:09:22.573236 119925 net.cpp:137] Memory required for data: 1260929536
I0509 17:09:22.573243 119925 layer_factory.hpp:77] Creating layer loss1/relu_conv
I0509 17:09:22.573249 119925 net.cpp:84] Creating Layer loss1/relu_conv
I0509 17:09:22.573253 119925 net.cpp:406] loss1/relu_conv <- loss1/conv
I0509 17:09:22.573262 119925 net.cpp:367] loss1/relu_conv -> loss1/conv (in-place)
I0509 17:09:22.573269 119925 net.cpp:122] Setting up loss1/relu_conv
I0509 17:09:22.573276 119925 net.cpp:129] Top shape: 32 128 4 4 (65536)
I0509 17:09:22.573279 119925 net.cpp:137] Memory required for data: 1261191680
I0509 17:09:22.573284 119925 layer_factory.hpp:77] Creating layer loss1/fc
I0509 17:09:22.573292 119925 net.cpp:84] Creating Layer loss1/fc
I0509 17:09:22.573297 119925 net.cpp:406] loss1/fc <- loss1/conv
I0509 17:09:22.573304 119925 net.cpp:380] loss1/fc -> loss1/fc
I0509 17:09:22.590710 119925 net.cpp:122] Setting up loss1/fc
I0509 17:09:22.590725 119925 net.cpp:129] Top shape: 32 1024 (32768)
I0509 17:09:22.590729 119925 net.cpp:137] Memory required for data: 1261322752
I0509 17:09:22.590737 119925 layer_factory.hpp:77] Creating layer loss1/relu_fc
I0509 17:09:22.590747 119925 net.cpp:84] Creating Layer loss1/relu_fc
I0509 17:09:22.590754 119925 net.cpp:406] loss1/relu_fc <- loss1/fc
I0509 17:09:22.590772 119925 net.cpp:367] loss1/relu_fc -> loss1/fc (in-place)
I0509 17:09:22.590781 119925 net.cpp:122] Setting up loss1/relu_fc
I0509 17:09:22.590787 119925 net.cpp:129] Top shape: 32 1024 (32768)
I0509 17:09:22.590791 119925 net.cpp:137] Memory required for data: 1261453824
I0509 17:09:22.590795 119925 layer_factory.hpp:77] Creating layer loss1/drop_fc
I0509 17:09:22.590818 119925 net.cpp:84] Creating Layer loss1/drop_fc
I0509 17:09:22.590824 119925 net.cpp:406] loss1/drop_fc <- loss1/fc
I0509 17:09:22.590831 119925 net.cpp:367] loss1/drop_fc -> loss1/fc (in-place)
I0509 17:09:22.590842 119925 net.cpp:122] Setting up loss1/drop_fc
I0509 17:09:22.590847 119925 net.cpp:129] Top shape: 32 1024 (32768)
I0509 17:09:22.590852 119925 net.cpp:137] Memory required for data: 1261584896
I0509 17:09:22.590855 119925 layer_factory.hpp:77] Creating layer loss1/classifier
I0509 17:09:22.590863 119925 net.cpp:84] Creating Layer loss1/classifier
I0509 17:09:22.590868 119925 net.cpp:406] loss1/classifier <- loss1/fc
I0509 17:09:22.590876 119925 net.cpp:380] loss1/classifier -> loss1/classifier
#           time             counts unit events
     0.100382558            458,966      branch-misses:u          
     0.100382558         69,966,534      branches:u               
I0509 17:09:22.599184 119925 net.cpp:122] Setting up loss1/classifier
I0509 17:09:22.599192 119925 net.cpp:129] Top shape: 32 1000 (32000)
I0509 17:09:22.599195 119925 net.cpp:137] Memory required for data: 1261712896
I0509 17:09:22.599203 119925 layer_factory.hpp:77] Creating layer loss1/loss
I0509 17:09:22.599211 119925 net.cpp:84] Creating Layer loss1/loss
I0509 17:09:22.599216 119925 net.cpp:406] loss1/loss <- loss1/classifier
I0509 17:09:22.599221 119925 net.cpp:406] loss1/loss <- label_data_1_split_0
I0509 17:09:22.599230 119925 net.cpp:380] loss1/loss -> loss1/loss1
I0509 17:09:22.599239 119925 layer_factory.hpp:77] Creating layer loss1/loss
I0509 17:09:22.599328 119925 net.cpp:122] Setting up loss1/loss
I0509 17:09:22.599334 119925 net.cpp:129] Top shape: (1)
I0509 17:09:22.599339 119925 net.cpp:132]     with loss weight 0.3
I0509 17:09:22.599364 119925 net.cpp:137] Memory required for data: 1261712900
I0509 17:09:22.599367 119925 layer_factory.hpp:77] Creating layer inception_4b/1x1
I0509 17:09:22.599380 119925 net.cpp:84] Creating Layer inception_4b/1x1
I0509 17:09:22.599386 119925 net.cpp:406] inception_4b/1x1 <- inception_4a/output_inception_4a/output_0_split_1
I0509 17:09:22.599395 119925 net.cpp:380] inception_4b/1x1 -> inception_4b/1x1
I0509 17:09:22.599408 119925 base_conv_layer.cpp:121] Group is 1channel is512number of output is 160
I0509 17:09:22.600213 119925 net.cpp:122] Setting up inception_4b/1x1
I0509 17:09:22.600224 119925 net.cpp:129] Top shape: 32 160 14 14 (1003520)
I0509 17:09:22.600227 119925 net.cpp:137] Memory required for data: 1265726980
I0509 17:09:22.600234 119925 layer_factory.hpp:77] Creating layer inception_4b/relu_1x1
I0509 17:09:22.600241 119925 net.cpp:84] Creating Layer inception_4b/relu_1x1
I0509 17:09:22.600247 119925 net.cpp:406] inception_4b/relu_1x1 <- inception_4b/1x1
I0509 17:09:22.600255 119925 net.cpp:367] inception_4b/relu_1x1 -> inception_4b/1x1 (in-place)
I0509 17:09:22.600262 119925 net.cpp:122] Setting up inception_4b/relu_1x1
I0509 17:09:22.600268 119925 net.cpp:129] Top shape: 32 160 14 14 (1003520)
I0509 17:09:22.600272 119925 net.cpp:137] Memory required for data: 1269741060
I0509 17:09:22.600276 119925 layer_factory.hpp:77] Creating layer inception_4b/3x3_reduce
I0509 17:09:22.600291 119925 net.cpp:84] Creating Layer inception_4b/3x3_reduce
I0509 17:09:22.600294 119925 net.cpp:406] inception_4b/3x3_reduce <- inception_4a/output_inception_4a/output_0_split_2
I0509 17:09:22.600302 119925 net.cpp:380] inception_4b/3x3_reduce -> inception_4b/3x3_reduce
I0509 17:09:22.600313 119925 base_conv_layer.cpp:121] Group is 1channel is512number of output is 112
I0509 17:09:22.600805 119925 net.cpp:122] Setting up inception_4b/3x3_reduce
I0509 17:09:22.600812 119925 net.cpp:129] Top shape: 32 112 14 14 (702464)
I0509 17:09:22.600821 119925 net.cpp:137] Memory required for data: 1272550916
I0509 17:09:22.600828 119925 layer_factory.hpp:77] Creating layer inception_4b/relu_3x3_reduce
I0509 17:09:22.600845 119925 net.cpp:84] Creating Layer inception_4b/relu_3x3_reduce
I0509 17:09:22.600850 119925 net.cpp:406] inception_4b/relu_3x3_reduce <- inception_4b/3x3_reduce
I0509 17:09:22.600857 119925 net.cpp:367] inception_4b/relu_3x3_reduce -> inception_4b/3x3_reduce (in-place)
I0509 17:09:22.600864 119925 net.cpp:122] Setting up inception_4b/relu_3x3_reduce
I0509 17:09:22.600869 119925 net.cpp:129] Top shape: 32 112 14 14 (702464)
I0509 17:09:22.600873 119925 net.cpp:137] Memory required for data: 1275360772
I0509 17:09:22.600878 119925 layer_factory.hpp:77] Creating layer inception_4b/3x3
I0509 17:09:22.600888 119925 net.cpp:84] Creating Layer inception_4b/3x3
I0509 17:09:22.600893 119925 net.cpp:406] inception_4b/3x3 <- inception_4b/3x3_reduce
I0509 17:09:22.600900 119925 net.cpp:380] inception_4b/3x3 -> inception_4b/3x3
I0509 17:09:22.600911 119925 base_conv_layer.cpp:121] Group is 1channel is112number of output is 224
I0509 17:09:22.602800 119925 net.cpp:122] Setting up inception_4b/3x3
I0509 17:09:22.602807 119925 net.cpp:129] Top shape: 32 224 14 14 (1404928)
I0509 17:09:22.602811 119925 net.cpp:137] Memory required for data: 1280980484
I0509 17:09:22.602818 119925 layer_factory.hpp:77] Creating layer inception_4b/relu_3x3
I0509 17:09:22.602824 119925 net.cpp:84] Creating Layer inception_4b/relu_3x3
I0509 17:09:22.602828 119925 net.cpp:406] inception_4b/relu_3x3 <- inception_4b/3x3
I0509 17:09:22.602834 119925 net.cpp:367] inception_4b/relu_3x3 -> inception_4b/3x3 (in-place)
I0509 17:09:22.602841 119925 net.cpp:122] Setting up inception_4b/relu_3x3
I0509 17:09:22.602846 119925 net.cpp:129] Top shape: 32 224 14 14 (1404928)
I0509 17:09:22.602850 119925 net.cpp:137] Memory required for data: 1286600196
I0509 17:09:22.602854 119925 layer_factory.hpp:77] Creating layer inception_4b/5x5_reduce
I0509 17:09:22.602864 119925 net.cpp:84] Creating Layer inception_4b/5x5_reduce
I0509 17:09:22.602869 119925 net.cpp:406] inception_4b/5x5_reduce <- inception_4a/output_inception_4a/output_0_split_3
I0509 17:09:22.602875 119925 net.cpp:380] inception_4b/5x5_reduce -> inception_4b/5x5_reduce
I0509 17:09:22.602885 119925 base_conv_layer.cpp:121] Group is 1channel is512number of output is 24
I0509 17:09:22.602995 119925 net.cpp:122] Setting up inception_4b/5x5_reduce
I0509 17:09:22.603001 119925 net.cpp:129] Top shape: 32 24 14 14 (150528)
I0509 17:09:22.603005 119925 net.cpp:137] Memory required for data: 1287202308
I0509 17:09:22.603011 119925 layer_factory.hpp:77] Creating layer inception_4b/relu_5x5_reduce
I0509 17:09:22.603019 119925 net.cpp:84] Creating Layer inception_4b/relu_5x5_reduce
I0509 17:09:22.603024 119925 net.cpp:406] inception_4b/relu_5x5_reduce <- inception_4b/5x5_reduce
I0509 17:09:22.603029 119925 net.cpp:367] inception_4b/relu_5x5_reduce -> inception_4b/5x5_reduce (in-place)
I0509 17:09:22.603036 119925 net.cpp:122] Setting up inception_4b/relu_5x5_reduce
I0509 17:09:22.603042 119925 net.cpp:129] Top shape: 32 24 14 14 (150528)
I0509 17:09:22.603046 119925 net.cpp:137] Memory required for data: 1287804420
I0509 17:09:22.603049 119925 layer_factory.hpp:77] Creating layer inception_4b/5x5
I0509 17:09:22.603060 119925 net.cpp:84] Creating Layer inception_4b/5x5
I0509 17:09:22.603065 119925 net.cpp:406] inception_4b/5x5 <- inception_4b/5x5_reduce
I0509 17:09:22.603072 119925 net.cpp:380] inception_4b/5x5 -> inception_4b/5x5
I0509 17:09:22.603082 119925 base_conv_layer.cpp:121] Group is 1channel is24number of output is 64
I0509 17:09:22.603417 119925 net.cpp:122] Setting up inception_4b/5x5
I0509 17:09:22.603425 119925 net.cpp:129] Top shape: 32 64 14 14 (401408)
I0509 17:09:22.603428 119925 net.cpp:137] Memory required for data: 1289410052
I0509 17:09:22.603435 119925 layer_factory.hpp:77] Creating layer inception_4b/relu_5x5
I0509 17:09:22.603440 119925 net.cpp:84] Creating Layer inception_4b/relu_5x5
I0509 17:09:22.603449 119925 net.cpp:406] inception_4b/relu_5x5 <- inception_4b/5x5
I0509 17:09:22.603456 119925 net.cpp:367] inception_4b/relu_5x5 -> inception_4b/5x5 (in-place)
I0509 17:09:22.603463 119925 net.cpp:122] Setting up inception_4b/relu_5x5
I0509 17:09:22.603474 119925 net.cpp:129] Top shape: 32 64 14 14 (401408)
I0509 17:09:22.603479 119925 net.cpp:137] Memory required for data: 1291015684
I0509 17:09:22.603483 119925 layer_factory.hpp:77] Creating layer inception_4b/pool
I0509 17:09:22.603490 119925 net.cpp:84] Creating Layer inception_4b/pool
I0509 17:09:22.603494 119925 net.cpp:406] inception_4b/pool <- inception_4a/output_inception_4a/output_0_split_4
I0509 17:09:22.603502 119925 net.cpp:380] inception_4b/pool -> inception_4b/pool
I0509 17:09:22.603528 119925 net.cpp:122] Setting up inception_4b/pool
I0509 17:09:22.603533 119925 net.cpp:129] Top shape: 32 512 14 14 (3211264)
I0509 17:09:22.603538 119925 net.cpp:137] Memory required for data: 1303860740
I0509 17:09:22.603541 119925 layer_factory.hpp:77] Creating layer inception_4b/pool_proj
I0509 17:09:22.603550 119925 net.cpp:84] Creating Layer inception_4b/pool_proj
I0509 17:09:22.603554 119925 net.cpp:406] inception_4b/pool_proj <- inception_4b/pool
I0509 17:09:22.603561 119925 net.cpp:380] inception_4b/pool_proj -> inception_4b/pool_proj
I0509 17:09:22.603572 119925 base_conv_layer.cpp:121] Group is 1channel is512number of output is 64
I0509 17:09:22.603863 119925 net.cpp:122] Setting up inception_4b/pool_proj
I0509 17:09:22.603870 119925 net.cpp:129] Top shape: 32 64 14 14 (401408)
I0509 17:09:22.603874 119925 net.cpp:137] Memory required for data: 1305466372
I0509 17:09:22.603881 119925 layer_factory.hpp:77] Creating layer inception_4b/relu_pool_proj
I0509 17:09:22.603888 119925 net.cpp:84] Creating Layer inception_4b/relu_pool_proj
I0509 17:09:22.603891 119925 net.cpp:406] inception_4b/relu_pool_proj <- inception_4b/pool_proj
I0509 17:09:22.603899 119925 net.cpp:367] inception_4b/relu_pool_proj -> inception_4b/pool_proj (in-place)
I0509 17:09:22.603906 119925 net.cpp:122] Setting up inception_4b/relu_pool_proj
I0509 17:09:22.603911 119925 net.cpp:129] Top shape: 32 64 14 14 (401408)
I0509 17:09:22.603915 119925 net.cpp:137] Memory required for data: 1307072004
I0509 17:09:22.603919 119925 layer_factory.hpp:77] Creating layer inception_4b/output
I0509 17:09:22.603925 119925 net.cpp:84] Creating Layer inception_4b/output
I0509 17:09:22.603929 119925 net.cpp:406] inception_4b/output <- inception_4b/1x1
I0509 17:09:22.603935 119925 net.cpp:406] inception_4b/output <- inception_4b/3x3
I0509 17:09:22.603940 119925 net.cpp:406] inception_4b/output <- inception_4b/5x5
I0509 17:09:22.603945 119925 net.cpp:406] inception_4b/output <- inception_4b/pool_proj
I0509 17:09:22.603955 119925 net.cpp:380] inception_4b/output -> inception_4b/output
I0509 17:09:22.603963 119925 net.cpp:122] Setting up inception_4b/output
I0509 17:09:22.603970 119925 net.cpp:129] Top shape: 32 512 14 14 (3211264)
I0509 17:09:22.603973 119925 net.cpp:137] Memory required for data: 1319917060
I0509 17:09:22.603977 119925 layer_factory.hpp:77] Creating layer inception_4b/output_inception_4b/output_0_split
I0509 17:09:22.603984 119925 net.cpp:84] Creating Layer inception_4b/output_inception_4b/output_0_split
I0509 17:09:22.603988 119925 net.cpp:406] inception_4b/output_inception_4b/output_0_split <- inception_4b/output
I0509 17:09:22.603997 119925 net.cpp:380] inception_4b/output_inception_4b/output_0_split -> inception_4b/output_inception_4b/output_0_split_0
I0509 17:09:22.604005 119925 net.cpp:380] inception_4b/output_inception_4b/output_0_split -> inception_4b/output_inception_4b/output_0_split_1
I0509 17:09:22.604012 119925 net.cpp:380] inception_4b/output_inception_4b/output_0_split -> inception_4b/output_inception_4b/output_0_split_2
I0509 17:09:22.604022 119925 net.cpp:380] inception_4b/output_inception_4b/output_0_split -> inception_4b/output_inception_4b/output_0_split_3
I0509 17:09:22.604030 119925 net.cpp:122] Setting up inception_4b/output_inception_4b/output_0_split
I0509 17:09:22.604044 119925 net.cpp:129] Top shape: 32 512 14 14 (3211264)
I0509 17:09:22.604051 119925 net.cpp:129] Top shape: 32 512 14 14 (3211264)
I0509 17:09:22.604055 119925 net.cpp:129] Top shape: 32 512 14 14 (3211264)
I0509 17:09:22.604069 119925 net.cpp:129] Top shape: 32 512 14 14 (3211264)
I0509 17:09:22.604074 119925 net.cpp:137] Memory required for data: 1371297284
I0509 17:09:22.604077 119925 layer_factory.hpp:77] Creating layer inception_4c/1x1
I0509 17:09:22.604087 119925 net.cpp:84] Creating Layer inception_4c/1x1
I0509 17:09:22.604092 119925 net.cpp:406] inception_4c/1x1 <- inception_4b/output_inception_4b/output_0_split_0
I0509 17:09:22.604100 119925 net.cpp:380] inception_4c/1x1 -> inception_4c/1x1
I0509 17:09:22.604111 119925 base_conv_layer.cpp:121] Group is 1channel is512number of output is 128
I0509 17:09:22.604674 119925 net.cpp:122] Setting up inception_4c/1x1
I0509 17:09:22.604682 119925 net.cpp:129] Top shape: 32 128 14 14 (802816)
I0509 17:09:22.604686 119925 net.cpp:137] Memory required for data: 1374508548
I0509 17:09:22.604692 119925 layer_factory.hpp:77] Creating layer inception_4c/relu_1x1
I0509 17:09:22.604697 119925 net.cpp:84] Creating Layer inception_4c/relu_1x1
I0509 17:09:22.604702 119925 net.cpp:406] inception_4c/relu_1x1 <- inception_4c/1x1
I0509 17:09:22.604709 119925 net.cpp:367] inception_4c/relu_1x1 -> inception_4c/1x1 (in-place)
I0509 17:09:22.604717 119925 net.cpp:122] Setting up inception_4c/relu_1x1
I0509 17:09:22.604722 119925 net.cpp:129] Top shape: 32 128 14 14 (802816)
I0509 17:09:22.604725 119925 net.cpp:137] Memory required for data: 1377719812
I0509 17:09:22.604729 119925 layer_factory.hpp:77] Creating layer inception_4c/3x3_reduce
I0509 17:09:22.604738 119925 net.cpp:84] Creating Layer inception_4c/3x3_reduce
I0509 17:09:22.604743 119925 net.cpp:406] inception_4c/3x3_reduce <- inception_4b/output_inception_4b/output_0_split_1
I0509 17:09:22.604750 119925 net.cpp:380] inception_4c/3x3_reduce -> inception_4c/3x3_reduce
I0509 17:09:22.604761 119925 base_conv_layer.cpp:121] Group is 1channel is512number of output is 128
I0509 17:09:22.605322 119925 net.cpp:122] Setting up inception_4c/3x3_reduce
I0509 17:09:22.605329 119925 net.cpp:129] Top shape: 32 128 14 14 (802816)
I0509 17:09:22.605334 119925 net.cpp:137] Memory required for data: 1380931076
I0509 17:09:22.605340 119925 layer_factory.hpp:77] Creating layer inception_4c/relu_3x3_reduce
I0509 17:09:22.605346 119925 net.cpp:84] Creating Layer inception_4c/relu_3x3_reduce
I0509 17:09:22.605350 119925 net.cpp:406] inception_4c/relu_3x3_reduce <- inception_4c/3x3_reduce
I0509 17:09:22.605356 119925 net.cpp:367] inception_4c/relu_3x3_reduce -> inception_4c/3x3_reduce (in-place)
I0509 17:09:22.605362 119925 net.cpp:122] Setting up inception_4c/relu_3x3_reduce
I0509 17:09:22.605368 119925 net.cpp:129] Top shape: 32 128 14 14 (802816)
I0509 17:09:22.605371 119925 net.cpp:137] Memory required for data: 1384142340
I0509 17:09:22.605376 119925 layer_factory.hpp:77] Creating layer inception_4c/3x3
I0509 17:09:22.605384 119925 net.cpp:84] Creating Layer inception_4c/3x3
I0509 17:09:22.605388 119925 net.cpp:406] inception_4c/3x3 <- inception_4c/3x3_reduce
I0509 17:09:22.605396 119925 net.cpp:380] inception_4c/3x3 -> inception_4c/3x3
I0509 17:09:22.605406 119925 base_conv_layer.cpp:121] Group is 1channel is128number of output is 256
I0509 17:09:22.608068 119925 net.cpp:122] Setting up inception_4c/3x3
I0509 17:09:22.608079 119925 net.cpp:129] Top shape: 32 256 14 14 (1605632)
I0509 17:09:22.608083 119925 net.cpp:137] Memory required for data: 1390564868
I0509 17:09:22.608099 119925 layer_factory.hpp:77] Creating layer inception_4c/relu_3x3
I0509 17:09:22.608105 119925 net.cpp:84] Creating Layer inception_4c/relu_3x3
I0509 17:09:22.608110 119925 net.cpp:406] inception_4c/relu_3x3 <- inception_4c/3x3
I0509 17:09:22.608117 119925 net.cpp:367] inception_4c/relu_3x3 -> inception_4c/3x3 (in-place)
I0509 17:09:22.608126 119925 net.cpp:122] Setting up inception_4c/relu_3x3
I0509 17:09:22.608131 119925 net.cpp:129] Top shape: 32 256 14 14 (1605632)
I0509 17:09:22.608139 119925 net.cpp:137] Memory required for data: 1396987396
I0509 17:09:22.608142 119925 layer_factory.hpp:77] Creating layer inception_4c/5x5_reduce
I0509 17:09:22.608152 119925 net.cpp:84] Creating Layer inception_4c/5x5_reduce
I0509 17:09:22.608163 119925 net.cpp:406] inception_4c/5x5_reduce <- inception_4b/output_inception_4b/output_0_split_2
I0509 17:09:22.608170 119925 net.cpp:380] inception_4c/5x5_reduce -> inception_4c/5x5_reduce
I0509 17:09:22.608180 119925 base_conv_layer.cpp:121] Group is 1channel is512number of output is 24
I0509 17:09:22.608299 119925 net.cpp:122] Setting up inception_4c/5x5_reduce
I0509 17:09:22.608305 119925 net.cpp:129] Top shape: 32 24 14 14 (150528)
I0509 17:09:22.608309 119925 net.cpp:137] Memory required for data: 1397589508
I0509 17:09:22.608314 119925 layer_factory.hpp:77] Creating layer inception_4c/relu_5x5_reduce
I0509 17:09:22.608320 119925 net.cpp:84] Creating Layer inception_4c/relu_5x5_reduce
I0509 17:09:22.608325 119925 net.cpp:406] inception_4c/relu_5x5_reduce <- inception_4c/5x5_reduce
I0509 17:09:22.608333 119925 net.cpp:367] inception_4c/relu_5x5_reduce -> inception_4c/5x5_reduce (in-place)
I0509 17:09:22.608340 119925 net.cpp:122] Setting up inception_4c/relu_5x5_reduce
I0509 17:09:22.608345 119925 net.cpp:129] Top shape: 32 24 14 14 (150528)
I0509 17:09:22.608348 119925 net.cpp:137] Memory required for data: 1398191620
I0509 17:09:22.608352 119925 layer_factory.hpp:77] Creating layer inception_4c/5x5
I0509 17:09:22.608361 119925 net.cpp:84] Creating Layer inception_4c/5x5
I0509 17:09:22.608366 119925 net.cpp:406] inception_4c/5x5 <- inception_4c/5x5_reduce
I0509 17:09:22.608372 119925 net.cpp:380] inception_4c/5x5 -> inception_4c/5x5
I0509 17:09:22.608382 119925 base_conv_layer.cpp:121] Group is 1channel is24number of output is 64
I0509 17:09:22.608716 119925 net.cpp:122] Setting up inception_4c/5x5
I0509 17:09:22.608726 119925 net.cpp:129] Top shape: 32 64 14 14 (401408)
I0509 17:09:22.608729 119925 net.cpp:137] Memory required for data: 1399797252
I0509 17:09:22.608736 119925 layer_factory.hpp:77] Creating layer inception_4c/relu_5x5
I0509 17:09:22.608741 119925 net.cpp:84] Creating Layer inception_4c/relu_5x5
I0509 17:09:22.608747 119925 net.cpp:406] inception_4c/relu_5x5 <- inception_4c/5x5
I0509 17:09:22.608752 119925 net.cpp:367] inception_4c/relu_5x5 -> inception_4c/5x5 (in-place)
I0509 17:09:22.608757 119925 net.cpp:122] Setting up inception_4c/relu_5x5
I0509 17:09:22.608762 119925 net.cpp:129] Top shape: 32 64 14 14 (401408)
I0509 17:09:22.608767 119925 net.cpp:137] Memory required for data: 1401402884
I0509 17:09:22.608770 119925 layer_factory.hpp:77] Creating layer inception_4c/pool
I0509 17:09:22.608777 119925 net.cpp:84] Creating Layer inception_4c/pool
I0509 17:09:22.608780 119925 net.cpp:406] inception_4c/pool <- inception_4b/output_inception_4b/output_0_split_3
I0509 17:09:22.608788 119925 net.cpp:380] inception_4c/pool -> inception_4c/pool
I0509 17:09:22.608798 119925 net.cpp:122] Setting up inception_4c/pool
I0509 17:09:22.608804 119925 net.cpp:129] Top shape: 32 512 14 14 (3211264)
I0509 17:09:22.608808 119925 net.cpp:137] Memory required for data: 1414247940
I0509 17:09:22.608811 119925 layer_factory.hpp:77] Creating layer inception_4c/pool_proj
I0509 17:09:22.608819 119925 net.cpp:84] Creating Layer inception_4c/pool_proj
I0509 17:09:22.608824 119925 net.cpp:406] inception_4c/pool_proj <- inception_4c/pool
I0509 17:09:22.608831 119925 net.cpp:380] inception_4c/pool_proj -> inception_4c/pool_proj
I0509 17:09:22.608841 119925 base_conv_layer.cpp:121] Group is 1channel is512number of output is 64
I0509 17:09:22.609122 119925 net.cpp:122] Setting up inception_4c/pool_proj
I0509 17:09:22.609128 119925 net.cpp:129] Top shape: 32 64 14 14 (401408)
I0509 17:09:22.609132 119925 net.cpp:137] Memory required for data: 1415853572
I0509 17:09:22.609138 119925 layer_factory.hpp:77] Creating layer inception_4c/relu_pool_proj
I0509 17:09:22.609143 119925 net.cpp:84] Creating Layer inception_4c/relu_pool_proj
I0509 17:09:22.609153 119925 net.cpp:406] inception_4c/relu_pool_proj <- inception_4c/pool_proj
I0509 17:09:22.609158 119925 net.cpp:367] inception_4c/relu_pool_proj -> inception_4c/pool_proj (in-place)
I0509 17:09:22.609165 119925 net.cpp:122] Setting up inception_4c/relu_pool_proj
I0509 17:09:22.609176 119925 net.cpp:129] Top shape: 32 64 14 14 (401408)
I0509 17:09:22.609179 119925 net.cpp:137] Memory required for data: 1417459204
I0509 17:09:22.609184 119925 layer_factory.hpp:77] Creating layer inception_4c/output
I0509 17:09:22.609190 119925 net.cpp:84] Creating Layer inception_4c/output
I0509 17:09:22.609194 119925 net.cpp:406] inception_4c/output <- inception_4c/1x1
I0509 17:09:22.609199 119925 net.cpp:406] inception_4c/output <- inception_4c/3x3
I0509 17:09:22.609203 119925 net.cpp:406] inception_4c/output <- inception_4c/5x5
I0509 17:09:22.609208 119925 net.cpp:406] inception_4c/output <- inception_4c/pool_proj
I0509 17:09:22.609218 119925 net.cpp:380] inception_4c/output -> inception_4c/output
I0509 17:09:22.609227 119925 net.cpp:122] Setting up inception_4c/output
I0509 17:09:22.609232 119925 net.cpp:129] Top shape: 32 512 14 14 (3211264)
I0509 17:09:22.609236 119925 net.cpp:137] Memory required for data: 1430304260
I0509 17:09:22.609241 119925 layer_factory.hpp:77] Creating layer inception_4c/output_inception_4c/output_0_split
I0509 17:09:22.609246 119925 net.cpp:84] Creating Layer inception_4c/output_inception_4c/output_0_split
I0509 17:09:22.609251 119925 net.cpp:406] inception_4c/output_inception_4c/output_0_split <- inception_4c/output
I0509 17:09:22.609258 119925 net.cpp:380] inception_4c/output_inception_4c/output_0_split -> inception_4c/output_inception_4c/output_0_split_0
I0509 17:09:22.609266 119925 net.cpp:380] inception_4c/output_inception_4c/output_0_split -> inception_4c/output_inception_4c/output_0_split_1
I0509 17:09:22.609273 119925 net.cpp:380] inception_4c/output_inception_4c/output_0_split -> inception_4c/output_inception_4c/output_0_split_2
I0509 17:09:22.609282 119925 net.cpp:380] inception_4c/output_inception_4c/output_0_split -> inception_4c/output_inception_4c/output_0_split_3
I0509 17:09:22.609290 119925 net.cpp:122] Setting up inception_4c/output_inception_4c/output_0_split
I0509 17:09:22.609295 119925 net.cpp:129] Top shape: 32 512 14 14 (3211264)
I0509 17:09:22.609300 119925 net.cpp:129] Top shape: 32 512 14 14 (3211264)
I0509 17:09:22.609305 119925 net.cpp:129] Top shape: 32 512 14 14 (3211264)
I0509 17:09:22.609310 119925 net.cpp:129] Top shape: 32 512 14 14 (3211264)
I0509 17:09:22.609314 119925 net.cpp:137] Memory required for data: 1481684484
I0509 17:09:22.609318 119925 layer_factory.hpp:77] Creating layer inception_4d/1x1
I0509 17:09:22.609326 119925 net.cpp:84] Creating Layer inception_4d/1x1
I0509 17:09:22.609331 119925 net.cpp:406] inception_4d/1x1 <- inception_4c/output_inception_4c/output_0_split_0
I0509 17:09:22.609338 119925 net.cpp:380] inception_4d/1x1 -> inception_4d/1x1
I0509 17:09:22.609349 119925 base_conv_layer.cpp:121] Group is 1channel is512number of output is 112
I0509 17:09:22.609822 119925 net.cpp:122] Setting up inception_4d/1x1
I0509 17:09:22.609829 119925 net.cpp:129] Top shape: 32 112 14 14 (702464)
I0509 17:09:22.609833 119925 net.cpp:137] Memory required for data: 1484494340
I0509 17:09:22.609838 119925 layer_factory.hpp:77] Creating layer inception_4d/relu_1x1
I0509 17:09:22.609843 119925 net.cpp:84] Creating Layer inception_4d/relu_1x1
I0509 17:09:22.609848 119925 net.cpp:406] inception_4d/relu_1x1 <- inception_4d/1x1
I0509 17:09:22.609856 119925 net.cpp:367] inception_4d/relu_1x1 -> inception_4d/1x1 (in-place)
I0509 17:09:22.609863 119925 net.cpp:122] Setting up inception_4d/relu_1x1
I0509 17:09:22.609868 119925 net.cpp:129] Top shape: 32 112 14 14 (702464)
I0509 17:09:22.609871 119925 net.cpp:137] Memory required for data: 1487304196
I0509 17:09:22.609875 119925 layer_factory.hpp:77] Creating layer inception_4d/3x3_reduce
I0509 17:09:22.609884 119925 net.cpp:84] Creating Layer inception_4d/3x3_reduce
I0509 17:09:22.609887 119925 net.cpp:406] inception_4d/3x3_reduce <- inception_4c/output_inception_4c/output_0_split_1
I0509 17:09:22.609897 119925 net.cpp:380] inception_4d/3x3_reduce -> inception_4d/3x3_reduce
I0509 17:09:22.609908 119925 base_conv_layer.cpp:121] Group is 1channel is512number of output is 144
I0509 17:09:22.610513 119925 net.cpp:122] Setting up inception_4d/3x3_reduce
I0509 17:09:22.610520 119925 net.cpp:129] Top shape: 32 144 14 14 (903168)
I0509 17:09:22.610525 119925 net.cpp:137] Memory required for data: 1490916868
I0509 17:09:22.610532 119925 layer_factory.hpp:77] Creating layer inception_4d/relu_3x3_reduce
I0509 17:09:22.610536 119925 net.cpp:84] Creating Layer inception_4d/relu_3x3_reduce
I0509 17:09:22.610540 119925 net.cpp:406] inception_4d/relu_3x3_reduce <- inception_4d/3x3_reduce
I0509 17:09:22.610546 119925 net.cpp:367] inception_4d/relu_3x3_reduce -> inception_4d/3x3_reduce (in-place)
I0509 17:09:22.610553 119925 net.cpp:122] Setting up inception_4d/relu_3x3_reduce
I0509 17:09:22.610558 119925 net.cpp:129] Top shape: 32 144 14 14 (903168)
I0509 17:09:22.610560 119925 net.cpp:137] Memory required for data: 1494529540
I0509 17:09:22.610564 119925 layer_factory.hpp:77] Creating layer inception_4d/3x3
I0509 17:09:22.610574 119925 net.cpp:84] Creating Layer inception_4d/3x3
I0509 17:09:22.610577 119925 net.cpp:406] inception_4d/3x3 <- inception_4d/3x3_reduce
I0509 17:09:22.610584 119925 net.cpp:380] inception_4d/3x3 -> inception_4d/3x3
I0509 17:09:22.610594 119925 base_conv_layer.cpp:121] Group is 1channel is144number of output is 288
I0509 17:09:22.613581 119925 net.cpp:122] Setting up inception_4d/3x3
I0509 17:09:22.613590 119925 net.cpp:129] Top shape: 32 288 14 14 (1806336)
I0509 17:09:22.613593 119925 net.cpp:137] Memory required for data: 1501754884
I0509 17:09:22.613600 119925 layer_factory.hpp:77] Creating layer inception_4d/relu_3x3
I0509 17:09:22.613606 119925 net.cpp:84] Creating Layer inception_4d/relu_3x3
I0509 17:09:22.613610 119925 net.cpp:406] inception_4d/relu_3x3 <- inception_4d/3x3
I0509 17:09:22.613615 119925 net.cpp:367] inception_4d/relu_3x3 -> inception_4d/3x3 (in-place)
I0509 17:09:22.613623 119925 net.cpp:122] Setting up inception_4d/relu_3x3
I0509 17:09:22.613628 119925 net.cpp:129] Top shape: 32 288 14 14 (1806336)
I0509 17:09:22.613631 119925 net.cpp:137] Memory required for data: 1508980228
I0509 17:09:22.613634 119925 layer_factory.hpp:77] Creating layer inception_4d/5x5_reduce
I0509 17:09:22.613643 119925 net.cpp:84] Creating Layer inception_4d/5x5_reduce
I0509 17:09:22.613646 119925 net.cpp:406] inception_4d/5x5_reduce <- inception_4c/output_inception_4c/output_0_split_2
I0509 17:09:22.613656 119925 net.cpp:380] inception_4d/5x5_reduce -> inception_4d/5x5_reduce
I0509 17:09:22.613664 119925 base_conv_layer.cpp:121] Group is 1channel is512number of output is 32
I0509 17:09:22.613801 119925 net.cpp:122] Setting up inception_4d/5x5_reduce
I0509 17:09:22.613806 119925 net.cpp:129] Top shape: 32 32 14 14 (200704)
I0509 17:09:22.613809 119925 net.cpp:137] Memory required for data: 1509783044
I0509 17:09:22.613816 119925 layer_factory.hpp:77] Creating layer inception_4d/relu_5x5_reduce
I0509 17:09:22.613823 119925 net.cpp:84] Creating Layer inception_4d/relu_5x5_reduce
I0509 17:09:22.613827 119925 net.cpp:406] inception_4d/relu_5x5_reduce <- inception_4d/5x5_reduce
I0509 17:09:22.613833 119925 net.cpp:367] inception_4d/relu_5x5_reduce -> inception_4d/5x5_reduce (in-place)
I0509 17:09:22.613839 119925 net.cpp:122] Setting up inception_4d/relu_5x5_reduce
I0509 17:09:22.613845 119925 net.cpp:129] Top shape: 32 32 14 14 (200704)
I0509 17:09:22.613848 119925 net.cpp:137] Memory required for data: 1510585860
I0509 17:09:22.613852 119925 layer_factory.hpp:77] Creating layer inception_4d/5x5
I0509 17:09:22.613859 119925 net.cpp:84] Creating Layer inception_4d/5x5
I0509 17:09:22.613864 119925 net.cpp:406] inception_4d/5x5 <- inception_4d/5x5_reduce
I0509 17:09:22.613872 119925 net.cpp:380] inception_4d/5x5 -> inception_4d/5x5
I0509 17:09:22.613880 119925 base_conv_layer.cpp:121] Group is 1channel is32number of output is 64
I0509 17:09:22.614310 119925 net.cpp:122] Setting up inception_4d/5x5
I0509 17:09:22.614316 119925 net.cpp:129] Top shape: 32 64 14 14 (401408)
I0509 17:09:22.614320 119925 net.cpp:137] Memory required for data: 1512191492
I0509 17:09:22.614326 119925 layer_factory.hpp:77] Creating layer inception_4d/relu_5x5
I0509 17:09:22.614337 119925 net.cpp:84] Creating Layer inception_4d/relu_5x5
I0509 17:09:22.614343 119925 net.cpp:406] inception_4d/relu_5x5 <- inception_4d/5x5
I0509 17:09:22.614349 119925 net.cpp:367] inception_4d/relu_5x5 -> inception_4d/5x5 (in-place)
I0509 17:09:22.614356 119925 net.cpp:122] Setting up inception_4d/relu_5x5
I0509 17:09:22.614361 119925 net.cpp:129] Top shape: 32 64 14 14 (401408)
I0509 17:09:22.614364 119925 net.cpp:137] Memory required for data: 1513797124
I0509 17:09:22.614368 119925 layer_factory.hpp:77] Creating layer inception_4d/pool
I0509 17:09:22.614374 119925 net.cpp:84] Creating Layer inception_4d/pool
I0509 17:09:22.614378 119925 net.cpp:406] inception_4d/pool <- inception_4c/output_inception_4c/output_0_split_3
I0509 17:09:22.614387 119925 net.cpp:380] inception_4d/pool -> inception_4d/pool
I0509 17:09:22.614394 119925 net.cpp:122] Setting up inception_4d/pool
I0509 17:09:22.614400 119925 net.cpp:129] Top shape: 32 512 14 14 (3211264)
I0509 17:09:22.614403 119925 net.cpp:137] Memory required for data: 1526642180
I0509 17:09:22.614408 119925 layer_factory.hpp:77] Creating layer inception_4d/pool_proj
I0509 17:09:22.614416 119925 net.cpp:84] Creating Layer inception_4d/pool_proj
I0509 17:09:22.614421 119925 net.cpp:406] inception_4d/pool_proj <- inception_4d/pool
I0509 17:09:22.614429 119925 net.cpp:380] inception_4d/pool_proj -> inception_4d/pool_proj
I0509 17:09:22.614439 119925 base_conv_layer.cpp:121] Group is 1channel is512number of output is 64
I0509 17:09:22.614711 119925 net.cpp:122] Setting up inception_4d/pool_proj
I0509 17:09:22.614717 119925 net.cpp:129] Top shape: 32 64 14 14 (401408)
I0509 17:09:22.614720 119925 net.cpp:137] Memory required for data: 1528247812
I0509 17:09:22.614727 119925 layer_factory.hpp:77] Creating layer inception_4d/relu_pool_proj
I0509 17:09:22.614733 119925 net.cpp:84] Creating Layer inception_4d/relu_pool_proj
I0509 17:09:22.614738 119925 net.cpp:406] inception_4d/relu_pool_proj <- inception_4d/pool_proj
I0509 17:09:22.614744 119925 net.cpp:367] inception_4d/relu_pool_proj -> inception_4d/pool_proj (in-place)
I0509 17:09:22.614751 119925 net.cpp:122] Setting up inception_4d/relu_pool_proj
I0509 17:09:22.614756 119925 net.cpp:129] Top shape: 32 64 14 14 (401408)
I0509 17:09:22.614760 119925 net.cpp:137] Memory required for data: 1529853444
I0509 17:09:22.614763 119925 layer_factory.hpp:77] Creating layer inception_4d/output
I0509 17:09:22.614770 119925 net.cpp:84] Creating Layer inception_4d/output
I0509 17:09:22.614773 119925 net.cpp:406] inception_4d/output <- inception_4d/1x1
I0509 17:09:22.614778 119925 net.cpp:406] inception_4d/output <- inception_4d/3x3
I0509 17:09:22.614783 119925 net.cpp:406] inception_4d/output <- inception_4d/5x5
I0509 17:09:22.614787 119925 net.cpp:406] inception_4d/output <- inception_4d/pool_proj
I0509 17:09:22.614794 119925 net.cpp:380] inception_4d/output -> inception_4d/output
I0509 17:09:22.614800 119925 net.cpp:122] Setting up inception_4d/output
I0509 17:09:22.614806 119925 net.cpp:129] Top shape: 32 528 14 14 (3311616)
I0509 17:09:22.614810 119925 net.cpp:137] Memory required for data: 1543099908
I0509 17:09:22.614814 119925 layer_factory.hpp:77] Creating layer inception_4d/output_inception_4d/output_0_split
I0509 17:09:22.614821 119925 net.cpp:84] Creating Layer inception_4d/output_inception_4d/output_0_split
I0509 17:09:22.614826 119925 net.cpp:406] inception_4d/output_inception_4d/output_0_split <- inception_4d/output
I0509 17:09:22.614835 119925 net.cpp:380] inception_4d/output_inception_4d/output_0_split -> inception_4d/output_inception_4d/output_0_split_0
I0509 17:09:22.614842 119925 net.cpp:380] inception_4d/output_inception_4d/output_0_split -> inception_4d/output_inception_4d/output_0_split_1
I0509 17:09:22.614850 119925 net.cpp:380] inception_4d/output_inception_4d/output_0_split -> inception_4d/output_inception_4d/output_0_split_2
I0509 17:09:22.614858 119925 net.cpp:380] inception_4d/output_inception_4d/output_0_split -> inception_4d/output_inception_4d/output_0_split_3
I0509 17:09:22.614871 119925 net.cpp:380] inception_4d/output_inception_4d/output_0_split -> inception_4d/output_inception_4d/output_0_split_4
I0509 17:09:22.614881 119925 net.cpp:122] Setting up inception_4d/output_inception_4d/output_0_split
I0509 17:09:22.614887 119925 net.cpp:129] Top shape: 32 528 14 14 (3311616)
I0509 17:09:22.614892 119925 net.cpp:129] Top shape: 32 528 14 14 (3311616)
I0509 17:09:22.614897 119925 net.cpp:129] Top shape: 32 528 14 14 (3311616)
I0509 17:09:22.614902 119925 net.cpp:129] Top shape: 32 528 14 14 (3311616)
I0509 17:09:22.614907 119925 net.cpp:129] Top shape: 32 528 14 14 (3311616)
I0509 17:09:22.614909 119925 net.cpp:137] Memory required for data: 1609332228
I0509 17:09:22.614914 119925 layer_factory.hpp:77] Creating layer loss2/ave_pool
I0509 17:09:22.614924 119925 net.cpp:84] Creating Layer loss2/ave_pool
I0509 17:09:22.614928 119925 net.cpp:406] loss2/ave_pool <- inception_4d/output_inception_4d/output_0_split_0
I0509 17:09:22.614933 119925 net.cpp:380] loss2/ave_pool -> loss2/ave_pool
I0509 17:09:22.614943 119925 net.cpp:122] Setting up loss2/ave_pool
I0509 17:09:22.614948 119925 net.cpp:129] Top shape: 32 528 4 4 (270336)
I0509 17:09:22.614950 119925 net.cpp:137] Memory required for data: 1610413572
I0509 17:09:22.614954 119925 layer_factory.hpp:77] Creating layer loss2/conv
I0509 17:09:22.614964 119925 net.cpp:84] Creating Layer loss2/conv
I0509 17:09:22.614969 119925 net.cpp:406] loss2/conv <- loss2/ave_pool
I0509 17:09:22.614976 119925 net.cpp:380] loss2/conv -> loss2/conv
I0509 17:09:22.614985 119925 base_conv_layer.cpp:121] Group is 1channel is528number of output is 128
I0509 17:09:22.615540 119925 net.cpp:122] Setting up loss2/conv
I0509 17:09:22.615546 119925 net.cpp:129] Top shape: 32 128 4 4 (65536)
I0509 17:09:22.615550 119925 net.cpp:137] Memory required for data: 1610675716
I0509 17:09:22.615556 119925 layer_factory.hpp:77] Creating layer loss2/relu_conv
I0509 17:09:22.615562 119925 net.cpp:84] Creating Layer loss2/relu_conv
I0509 17:09:22.615566 119925 net.cpp:406] loss2/relu_conv <- loss2/conv
I0509 17:09:22.615571 119925 net.cpp:367] loss2/relu_conv -> loss2/conv (in-place)
I0509 17:09:22.615577 119925 net.cpp:122] Setting up loss2/relu_conv
I0509 17:09:22.615583 119925 net.cpp:129] Top shape: 32 128 4 4 (65536)
I0509 17:09:22.615586 119925 net.cpp:137] Memory required for data: 1610937860
I0509 17:09:22.615591 119925 layer_factory.hpp:77] Creating layer loss2/fc
I0509 17:09:22.615597 119925 net.cpp:84] Creating Layer loss2/fc
I0509 17:09:22.615602 119925 net.cpp:406] loss2/fc <- loss2/conv
I0509 17:09:22.615608 119925 net.cpp:380] loss2/fc -> loss2/fc
I0509 17:09:22.630331 119925 net.cpp:122] Setting up loss2/fc
I0509 17:09:22.630342 119925 net.cpp:129] Top shape: 32 1024 (32768)
I0509 17:09:22.630347 119925 net.cpp:137] Memory required for data: 1611068932
I0509 17:09:22.630353 119925 layer_factory.hpp:77] Creating layer loss2/relu_fc
I0509 17:09:22.630359 119925 net.cpp:84] Creating Layer loss2/relu_fc
I0509 17:09:22.630363 119925 net.cpp:406] loss2/relu_fc <- loss2/fc
I0509 17:09:22.630369 119925 net.cpp:367] loss2/relu_fc -> loss2/fc (in-place)
I0509 17:09:22.630378 119925 net.cpp:122] Setting up loss2/relu_fc
I0509 17:09:22.630381 119925 net.cpp:129] Top shape: 32 1024 (32768)
I0509 17:09:22.630385 119925 net.cpp:137] Memory required for data: 1611200004
I0509 17:09:22.630389 119925 layer_factory.hpp:77] Creating layer loss2/drop_fc
I0509 17:09:22.630395 119925 net.cpp:84] Creating Layer loss2/drop_fc
I0509 17:09:22.630398 119925 net.cpp:406] loss2/drop_fc <- loss2/fc
I0509 17:09:22.630403 119925 net.cpp:367] loss2/drop_fc -> loss2/fc (in-place)
I0509 17:09:22.630410 119925 net.cpp:122] Setting up loss2/drop_fc
I0509 17:09:22.630415 119925 net.cpp:129] Top shape: 32 1024 (32768)
I0509 17:09:22.630419 119925 net.cpp:137] Memory required for data: 1611331076
I0509 17:09:22.630425 119925 layer_factory.hpp:77] Creating layer loss2/classifier
I0509 17:09:22.630432 119925 net.cpp:84] Creating Layer loss2/classifier
I0509 17:09:22.630436 119925 net.cpp:406] loss2/classifier <- loss2/fc
I0509 17:09:22.630448 119925 net.cpp:380] loss2/classifier -> loss2/classifier
I0509 17:09:22.636474 119925 net.cpp:122] Setting up loss2/classifier
I0509 17:09:22.636482 119925 net.cpp:129] Top shape: 32 1000 (32000)
I0509 17:09:22.636484 119925 net.cpp:137] Memory required for data: 1611459076
I0509 17:09:22.636489 119925 layer_factory.hpp:77] Creating layer loss2/loss
I0509 17:09:22.636495 119925 net.cpp:84] Creating Layer loss2/loss
I0509 17:09:22.636499 119925 net.cpp:406] loss2/loss <- loss2/classifier
I0509 17:09:22.636503 119925 net.cpp:406] loss2/loss <- label_data_1_split_1
I0509 17:09:22.636507 119925 net.cpp:380] loss2/loss -> loss2/loss2
I0509 17:09:22.636513 119925 layer_factory.hpp:77] Creating layer loss2/loss
I0509 17:09:22.636574 119925 net.cpp:122] Setting up loss2/loss
I0509 17:09:22.636579 119925 net.cpp:129] Top shape: (1)
I0509 17:09:22.636581 119925 net.cpp:132]     with loss weight 0.3
I0509 17:09:22.636592 119925 net.cpp:137] Memory required for data: 1611459080
I0509 17:09:22.636595 119925 layer_factory.hpp:77] Creating layer inception_4e/1x1
I0509 17:09:22.636603 119925 net.cpp:84] Creating Layer inception_4e/1x1
I0509 17:09:22.636607 119925 net.cpp:406] inception_4e/1x1 <- inception_4d/output_inception_4d/output_0_split_1
I0509 17:09:22.636613 119925 net.cpp:380] inception_4e/1x1 -> inception_4e/1x1
I0509 17:09:22.636623 119925 base_conv_layer.cpp:121] Group is 1channel is528number of output is 256
I0509 17:09:22.637429 119925 net.cpp:122] Setting up inception_4e/1x1
I0509 17:09:22.637434 119925 net.cpp:129] Top shape: 32 256 14 14 (1605632)
I0509 17:09:22.637437 119925 net.cpp:137] Memory required for data: 1617881608
I0509 17:09:22.637442 119925 layer_factory.hpp:77] Creating layer inception_4e/relu_1x1
I0509 17:09:22.637446 119925 net.cpp:84] Creating Layer inception_4e/relu_1x1
I0509 17:09:22.637449 119925 net.cpp:406] inception_4e/relu_1x1 <- inception_4e/1x1
I0509 17:09:22.637455 119925 net.cpp:367] inception_4e/relu_1x1 -> inception_4e/1x1 (in-place)
I0509 17:09:22.637461 119925 net.cpp:122] Setting up inception_4e/relu_1x1
I0509 17:09:22.637465 119925 net.cpp:129] Top shape: 32 256 14 14 (1605632)
I0509 17:09:22.637467 119925 net.cpp:137] Memory required for data: 1624304136
I0509 17:09:22.637470 119925 layer_factory.hpp:77] Creating layer inception_4e/3x3_reduce
I0509 17:09:22.637477 119925 net.cpp:84] Creating Layer inception_4e/3x3_reduce
I0509 17:09:22.637480 119925 net.cpp:406] inception_4e/3x3_reduce <- inception_4d/output_inception_4d/output_0_split_2
I0509 17:09:22.637485 119925 net.cpp:380] inception_4e/3x3_reduce -> inception_4e/3x3_reduce
I0509 17:09:22.637492 119925 base_conv_layer.cpp:121] Group is 1channel is528number of output is 160
I0509 17:09:22.637998 119925 net.cpp:122] Setting up inception_4e/3x3_reduce
I0509 17:09:22.638003 119925 net.cpp:129] Top shape: 32 160 14 14 (1003520)
I0509 17:09:22.638005 119925 net.cpp:137] Memory required for data: 1628318216
I0509 17:09:22.638010 119925 layer_factory.hpp:77] Creating layer inception_4e/relu_3x3_reduce
I0509 17:09:22.638016 119925 net.cpp:84] Creating Layer inception_4e/relu_3x3_reduce
I0509 17:09:22.638020 119925 net.cpp:406] inception_4e/relu_3x3_reduce <- inception_4e/3x3_reduce
I0509 17:09:22.638023 119925 net.cpp:367] inception_4e/relu_3x3_reduce -> inception_4e/3x3_reduce (in-place)
I0509 17:09:22.638027 119925 net.cpp:122] Setting up inception_4e/relu_3x3_reduce
I0509 17:09:22.638031 119925 net.cpp:129] Top shape: 32 160 14 14 (1003520)
I0509 17:09:22.638034 119925 net.cpp:137] Memory required for data: 1632332296
I0509 17:09:22.638036 119925 layer_factory.hpp:77] Creating layer inception_4e/3x3
I0509 17:09:22.638043 119925 net.cpp:84] Creating Layer inception_4e/3x3
I0509 17:09:22.638046 119925 net.cpp:406] inception_4e/3x3 <- inception_4e/3x3_reduce
I0509 17:09:22.638056 119925 net.cpp:380] inception_4e/3x3 -> inception_4e/3x3
I0509 17:09:22.638063 119925 base_conv_layer.cpp:121] Group is 1channel is160number of output is 320
I0509 17:09:22.640760 119925 net.cpp:122] Setting up inception_4e/3x3
I0509 17:09:22.640774 119925 net.cpp:129] Top shape: 32 320 14 14 (2007040)
I0509 17:09:22.640775 119925 net.cpp:137] Memory required for data: 1640360456
I0509 17:09:22.640780 119925 layer_factory.hpp:77] Creating layer inception_4e/relu_3x3
I0509 17:09:22.640785 119925 net.cpp:84] Creating Layer inception_4e/relu_3x3
I0509 17:09:22.640789 119925 net.cpp:406] inception_4e/relu_3x3 <- inception_4e/3x3
I0509 17:09:22.640794 119925 net.cpp:367] inception_4e/relu_3x3 -> inception_4e/3x3 (in-place)
I0509 17:09:22.640797 119925 net.cpp:122] Setting up inception_4e/relu_3x3
I0509 17:09:22.640801 119925 net.cpp:129] Top shape: 32 320 14 14 (2007040)
I0509 17:09:22.640805 119925 net.cpp:137] Memory required for data: 1648388616
I0509 17:09:22.640806 119925 layer_factory.hpp:77] Creating layer inception_4e/5x5_reduce
I0509 17:09:22.640813 119925 net.cpp:84] Creating Layer inception_4e/5x5_reduce
I0509 17:09:22.640817 119925 net.cpp:406] inception_4e/5x5_reduce <- inception_4d/output_inception_4d/output_0_split_3
I0509 17:09:22.640822 119925 net.cpp:380] inception_4e/5x5_reduce -> inception_4e/5x5_reduce
I0509 17:09:22.640830 119925 base_conv_layer.cpp:121] Group is 1channel is528number of output is 32
I0509 17:09:22.640938 119925 net.cpp:122] Setting up inception_4e/5x5_reduce
I0509 17:09:22.640941 119925 net.cpp:129] Top shape: 32 32 14 14 (200704)
I0509 17:09:22.640945 119925 net.cpp:137] Memory required for data: 1649191432
I0509 17:09:22.640949 119925 layer_factory.hpp:77] Creating layer inception_4e/relu_5x5_reduce
I0509 17:09:22.640954 119925 net.cpp:84] Creating Layer inception_4e/relu_5x5_reduce
I0509 17:09:22.640957 119925 net.cpp:406] inception_4e/relu_5x5_reduce <- inception_4e/5x5_reduce
I0509 17:09:22.640964 119925 net.cpp:367] inception_4e/relu_5x5_reduce -> inception_4e/5x5_reduce (in-place)
I0509 17:09:22.640967 119925 net.cpp:122] Setting up inception_4e/relu_5x5_reduce
I0509 17:09:22.640971 119925 net.cpp:129] Top shape: 32 32 14 14 (200704)
I0509 17:09:22.640974 119925 net.cpp:137] Memory required for data: 1649994248
I0509 17:09:22.640977 119925 layer_factory.hpp:77] Creating layer inception_4e/5x5
I0509 17:09:22.641008 119925 net.cpp:84] Creating Layer inception_4e/5x5
I0509 17:09:22.641011 119925 net.cpp:406] inception_4e/5x5 <- inception_4e/5x5_reduce
I0509 17:09:22.641016 119925 net.cpp:380] inception_4e/5x5 -> inception_4e/5x5
I0509 17:09:22.641024 119925 base_conv_layer.cpp:121] Group is 1channel is32number of output is 128
I0509 17:09:22.641630 119925 net.cpp:122] Setting up inception_4e/5x5
I0509 17:09:22.641638 119925 net.cpp:129] Top shape: 32 128 14 14 (802816)
I0509 17:09:22.641640 119925 net.cpp:137] Memory required for data: 1653205512
I0509 17:09:22.641646 119925 layer_factory.hpp:77] Creating layer inception_4e/relu_5x5
I0509 17:09:22.641650 119925 net.cpp:84] Creating Layer inception_4e/relu_5x5
I0509 17:09:22.641654 119925 net.cpp:406] inception_4e/relu_5x5 <- inception_4e/5x5
I0509 17:09:22.641657 119925 net.cpp:367] inception_4e/relu_5x5 -> inception_4e/5x5 (in-place)
I0509 17:09:22.641662 119925 net.cpp:122] Setting up inception_4e/relu_5x5
I0509 17:09:22.641665 119925 net.cpp:129] Top shape: 32 128 14 14 (802816)
I0509 17:09:22.641669 119925 net.cpp:137] Memory required for data: 1656416776
I0509 17:09:22.641670 119925 layer_factory.hpp:77] Creating layer inception_4e/pool
I0509 17:09:22.641676 119925 net.cpp:84] Creating Layer inception_4e/pool
I0509 17:09:22.641680 119925 net.cpp:406] inception_4e/pool <- inception_4d/output_inception_4d/output_0_split_4
I0509 17:09:22.641685 119925 net.cpp:380] inception_4e/pool -> inception_4e/pool
I0509 17:09:22.641692 119925 net.cpp:122] Setting up inception_4e/pool
I0509 17:09:22.641696 119925 net.cpp:129] Top shape: 32 528 14 14 (3311616)
I0509 17:09:22.641700 119925 net.cpp:137] Memory required for data: 1669663240
I0509 17:09:22.641705 119925 layer_factory.hpp:77] Creating layer inception_4e/pool_proj
I0509 17:09:22.641711 119925 net.cpp:84] Creating Layer inception_4e/pool_proj
I0509 17:09:22.641716 119925 net.cpp:406] inception_4e/pool_proj <- inception_4e/pool
I0509 17:09:22.641726 119925 net.cpp:380] inception_4e/pool_proj -> inception_4e/pool_proj
I0509 17:09:22.641733 119925 base_conv_layer.cpp:121] Group is 1channel is528number of output is 128
I0509 17:09:22.642140 119925 net.cpp:122] Setting up inception_4e/pool_proj
I0509 17:09:22.642146 119925 net.cpp:129] Top shape: 32 128 14 14 (802816)
I0509 17:09:22.642148 119925 net.cpp:137] Memory required for data: 1672874504
I0509 17:09:22.642153 119925 layer_factory.hpp:77] Creating layer inception_4e/relu_pool_proj
I0509 17:09:22.642158 119925 net.cpp:84] Creating Layer inception_4e/relu_pool_proj
I0509 17:09:22.642160 119925 net.cpp:406] inception_4e/relu_pool_proj <- inception_4e/pool_proj
I0509 17:09:22.642165 119925 net.cpp:367] inception_4e/relu_pool_proj -> inception_4e/pool_proj (in-place)
I0509 17:09:22.642170 119925 net.cpp:122] Setting up inception_4e/relu_pool_proj
I0509 17:09:22.642174 119925 net.cpp:129] Top shape: 32 128 14 14 (802816)
I0509 17:09:22.642176 119925 net.cpp:137] Memory required for data: 1676085768
I0509 17:09:22.642179 119925 layer_factory.hpp:77] Creating layer inception_4e/output
I0509 17:09:22.642184 119925 net.cpp:84] Creating Layer inception_4e/output
I0509 17:09:22.642186 119925 net.cpp:406] inception_4e/output <- inception_4e/1x1
I0509 17:09:22.642190 119925 net.cpp:406] inception_4e/output <- inception_4e/3x3
I0509 17:09:22.642194 119925 net.cpp:406] inception_4e/output <- inception_4e/5x5
I0509 17:09:22.642197 119925 net.cpp:406] inception_4e/output <- inception_4e/pool_proj
I0509 17:09:22.642201 119925 net.cpp:380] inception_4e/output -> inception_4e/output
I0509 17:09:22.642208 119925 net.cpp:122] Setting up inception_4e/output
I0509 17:09:22.642211 119925 net.cpp:129] Top shape: 32 832 14 14 (5218304)
I0509 17:09:22.642215 119925 net.cpp:137] Memory required for data: 1696958984
I0509 17:09:22.642216 119925 layer_factory.hpp:77] Creating layer pool4/3x3_s2
I0509 17:09:22.642221 119925 net.cpp:84] Creating Layer pool4/3x3_s2
I0509 17:09:22.642225 119925 net.cpp:406] pool4/3x3_s2 <- inception_4e/output
I0509 17:09:22.642228 119925 net.cpp:380] pool4/3x3_s2 -> pool4/3x3_s2
I0509 17:09:22.642235 119925 net.cpp:122] Setting up pool4/3x3_s2
I0509 17:09:22.642240 119925 net.cpp:129] Top shape: 32 832 7 7 (1304576)
I0509 17:09:22.642241 119925 net.cpp:137] Memory required for data: 1702177288
I0509 17:09:22.642244 119925 layer_factory.hpp:77] Creating layer pool4/3x3_s2_pool4/3x3_s2_0_split
I0509 17:09:22.642249 119925 net.cpp:84] Creating Layer pool4/3x3_s2_pool4/3x3_s2_0_split
I0509 17:09:22.642253 119925 net.cpp:406] pool4/3x3_s2_pool4/3x3_s2_0_split <- pool4/3x3_s2
I0509 17:09:22.642258 119925 net.cpp:380] pool4/3x3_s2_pool4/3x3_s2_0_split -> pool4/3x3_s2_pool4/3x3_s2_0_split_0
I0509 17:09:22.642264 119925 net.cpp:380] pool4/3x3_s2_pool4/3x3_s2_0_split -> pool4/3x3_s2_pool4/3x3_s2_0_split_1
I0509 17:09:22.642269 119925 net.cpp:380] pool4/3x3_s2_pool4/3x3_s2_0_split -> pool4/3x3_s2_pool4/3x3_s2_0_split_2
I0509 17:09:22.642274 119925 net.cpp:380] pool4/3x3_s2_pool4/3x3_s2_0_split -> pool4/3x3_s2_pool4/3x3_s2_0_split_3
I0509 17:09:22.642282 119925 net.cpp:122] Setting up pool4/3x3_s2_pool4/3x3_s2_0_split
I0509 17:09:22.642285 119925 net.cpp:129] Top shape: 32 832 7 7 (1304576)
I0509 17:09:22.642288 119925 net.cpp:129] Top shape: 32 832 7 7 (1304576)
I0509 17:09:22.642292 119925 net.cpp:129] Top shape: 32 832 7 7 (1304576)
I0509 17:09:22.642297 119925 net.cpp:129] Top shape: 32 832 7 7 (1304576)
I0509 17:09:22.642298 119925 net.cpp:137] Memory required for data: 1723050504
I0509 17:09:22.642300 119925 layer_factory.hpp:77] Creating layer inception_5a/1x1
I0509 17:09:22.642308 119925 net.cpp:84] Creating Layer inception_5a/1x1
I0509 17:09:22.642312 119925 net.cpp:406] inception_5a/1x1 <- pool4/3x3_s2_pool4/3x3_s2_0_split_0
I0509 17:09:22.642320 119925 net.cpp:380] inception_5a/1x1 -> inception_5a/1x1
I0509 17:09:22.642328 119925 base_conv_layer.cpp:121] Group is 1channel is832number of output is 256
I0509 17:09:22.643579 119925 net.cpp:122] Setting up inception_5a/1x1
I0509 17:09:22.643589 119925 net.cpp:129] Top shape: 32 256 7 7 (401408)
I0509 17:09:22.643592 119925 net.cpp:137] Memory required for data: 1724656136
I0509 17:09:22.643596 119925 layer_factory.hpp:77] Creating layer inception_5a/relu_1x1
I0509 17:09:22.643602 119925 net.cpp:84] Creating Layer inception_5a/relu_1x1
I0509 17:09:22.643606 119925 net.cpp:406] inception_5a/relu_1x1 <- inception_5a/1x1
I0509 17:09:22.643610 119925 net.cpp:367] inception_5a/relu_1x1 -> inception_5a/1x1 (in-place)
I0509 17:09:22.643615 119925 net.cpp:122] Setting up inception_5a/relu_1x1
I0509 17:09:22.643618 119925 net.cpp:129] Top shape: 32 256 7 7 (401408)
I0509 17:09:22.643621 119925 net.cpp:137] Memory required for data: 1726261768
I0509 17:09:22.643623 119925 layer_factory.hpp:77] Creating layer inception_5a/3x3_reduce
I0509 17:09:22.643630 119925 net.cpp:84] Creating Layer inception_5a/3x3_reduce
I0509 17:09:22.643633 119925 net.cpp:406] inception_5a/3x3_reduce <- pool4/3x3_s2_pool4/3x3_s2_0_split_1
I0509 17:09:22.643638 119925 net.cpp:380] inception_5a/3x3_reduce -> inception_5a/3x3_reduce
I0509 17:09:22.643646 119925 base_conv_layer.cpp:121] Group is 1channel is832number of output is 160
I0509 17:09:22.644439 119925 net.cpp:122] Setting up inception_5a/3x3_reduce
I0509 17:09:22.644445 119925 net.cpp:129] Top shape: 32 160 7 7 (250880)
I0509 17:09:22.644448 119925 net.cpp:137] Memory required for data: 1727265288
I0509 17:09:22.644454 119925 layer_factory.hpp:77] Creating layer inception_5a/relu_3x3_reduce
I0509 17:09:22.644457 119925 net.cpp:84] Creating Layer inception_5a/relu_3x3_reduce
I0509 17:09:22.644461 119925 net.cpp:406] inception_5a/relu_3x3_reduce <- inception_5a/3x3_reduce
I0509 17:09:22.644465 119925 net.cpp:367] inception_5a/relu_3x3_reduce -> inception_5a/3x3_reduce (in-place)
I0509 17:09:22.644469 119925 net.cpp:122] Setting up inception_5a/relu_3x3_reduce
I0509 17:09:22.644474 119925 net.cpp:129] Top shape: 32 160 7 7 (250880)
I0509 17:09:22.644476 119925 net.cpp:137] Memory required for data: 1728268808
I0509 17:09:22.644479 119925 layer_factory.hpp:77] Creating layer inception_5a/3x3
I0509 17:09:22.644485 119925 net.cpp:84] Creating Layer inception_5a/3x3
I0509 17:09:22.644489 119925 net.cpp:406] inception_5a/3x3 <- inception_5a/3x3_reduce
I0509 17:09:22.644493 119925 net.cpp:380] inception_5a/3x3 -> inception_5a/3x3
I0509 17:09:22.644500 119925 base_conv_layer.cpp:121] Group is 1channel is160number of output is 320
I0509 17:09:22.647202 119925 net.cpp:122] Setting up inception_5a/3x3
I0509 17:09:22.647207 119925 net.cpp:129] Top shape: 32 320 7 7 (501760)
I0509 17:09:22.647212 119925 net.cpp:137] Memory required for data: 1730275848
I0509 17:09:22.647215 119925 layer_factory.hpp:77] Creating layer inception_5a/relu_3x3
I0509 17:09:22.647219 119925 net.cpp:84] Creating Layer inception_5a/relu_3x3
I0509 17:09:22.647222 119925 net.cpp:406] inception_5a/relu_3x3 <- inception_5a/3x3
I0509 17:09:22.647228 119925 net.cpp:367] inception_5a/relu_3x3 -> inception_5a/3x3 (in-place)
I0509 17:09:22.647231 119925 net.cpp:122] Setting up inception_5a/relu_3x3
I0509 17:09:22.647235 119925 net.cpp:129] Top shape: 32 320 7 7 (501760)
I0509 17:09:22.647238 119925 net.cpp:137] Memory required for data: 1732282888
I0509 17:09:22.647240 119925 layer_factory.hpp:77] Creating layer inception_5a/5x5_reduce
I0509 17:09:22.647248 119925 net.cpp:84] Creating Layer inception_5a/5x5_reduce
I0509 17:09:22.647250 119925 net.cpp:406] inception_5a/5x5_reduce <- pool4/3x3_s2_pool4/3x3_s2_0_split_2
I0509 17:09:22.647255 119925 net.cpp:380] inception_5a/5x5_reduce -> inception_5a/5x5_reduce
I0509 17:09:22.647263 119925 base_conv_layer.cpp:121] Group is 1channel is832number of output is 32
I0509 17:09:22.647426 119925 net.cpp:122] Setting up inception_5a/5x5_reduce
I0509 17:09:22.647431 119925 net.cpp:129] Top shape: 32 32 7 7 (50176)
I0509 17:09:22.647436 119925 net.cpp:137] Memory required for data: 1732483592
I0509 17:09:22.647442 119925 layer_factory.hpp:77] Creating layer inception_5a/relu_5x5_reduce
I0509 17:09:22.647451 119925 net.cpp:84] Creating Layer inception_5a/relu_5x5_reduce
I0509 17:09:22.647454 119925 net.cpp:406] inception_5a/relu_5x5_reduce <- inception_5a/5x5_reduce
I0509 17:09:22.647459 119925 net.cpp:367] inception_5a/relu_5x5_reduce -> inception_5a/5x5_reduce (in-place)
I0509 17:09:22.647464 119925 net.cpp:122] Setting up inception_5a/relu_5x5_reduce
I0509 17:09:22.647467 119925 net.cpp:129] Top shape: 32 32 7 7 (50176)
I0509 17:09:22.647469 119925 net.cpp:137] Memory required for data: 1732684296
I0509 17:09:22.647472 119925 layer_factory.hpp:77] Creating layer inception_5a/5x5
I0509 17:09:22.647480 119925 net.cpp:84] Creating Layer inception_5a/5x5
I0509 17:09:22.647482 119925 net.cpp:406] inception_5a/5x5 <- inception_5a/5x5_reduce
I0509 17:09:22.647488 119925 net.cpp:380] inception_5a/5x5 -> inception_5a/5x5
I0509 17:09:22.647495 119925 base_conv_layer.cpp:121] Group is 1channel is32number of output is 128
I0509 17:09:22.648128 119925 net.cpp:122] Setting up inception_5a/5x5
I0509 17:09:22.648134 119925 net.cpp:129] Top shape: 32 128 7 7 (200704)
I0509 17:09:22.648136 119925 net.cpp:137] Memory required for data: 1733487112
I0509 17:09:22.648141 119925 layer_factory.hpp:77] Creating layer inception_5a/relu_5x5
I0509 17:09:22.648146 119925 net.cpp:84] Creating Layer inception_5a/relu_5x5
I0509 17:09:22.648149 119925 net.cpp:406] inception_5a/relu_5x5 <- inception_5a/5x5
I0509 17:09:22.648155 119925 net.cpp:367] inception_5a/relu_5x5 -> inception_5a/5x5 (in-place)
I0509 17:09:22.648160 119925 net.cpp:122] Setting up inception_5a/relu_5x5
I0509 17:09:22.648164 119925 net.cpp:129] Top shape: 32 128 7 7 (200704)
I0509 17:09:22.648167 119925 net.cpp:137] Memory required for data: 1734289928
I0509 17:09:22.648170 119925 layer_factory.hpp:77] Creating layer inception_5a/pool
I0509 17:09:22.648175 119925 net.cpp:84] Creating Layer inception_5a/pool
I0509 17:09:22.648178 119925 net.cpp:406] inception_5a/pool <- pool4/3x3_s2_pool4/3x3_s2_0_split_3
I0509 17:09:22.648187 119925 net.cpp:380] inception_5a/pool -> inception_5a/pool
I0509 17:09:22.648195 119925 net.cpp:122] Setting up inception_5a/pool
I0509 17:09:22.648198 119925 net.cpp:129] Top shape: 32 832 7 7 (1304576)
I0509 17:09:22.648201 119925 net.cpp:137] Memory required for data: 1739508232
I0509 17:09:22.648205 119925 layer_factory.hpp:77] Creating layer inception_5a/pool_proj
I0509 17:09:22.648211 119925 net.cpp:84] Creating Layer inception_5a/pool_proj
I0509 17:09:22.648214 119925 net.cpp:406] inception_5a/pool_proj <- inception_5a/pool
I0509 17:09:22.648221 119925 net.cpp:380] inception_5a/pool_proj -> inception_5a/pool_proj
I0509 17:09:22.648228 119925 base_conv_layer.cpp:121] Group is 1channel is832number of output is 128
I0509 17:09:22.648885 119925 net.cpp:122] Setting up inception_5a/pool_proj
I0509 17:09:22.648890 119925 net.cpp:129] Top shape: 32 128 7 7 (200704)
I0509 17:09:22.648893 119925 net.cpp:137] Memory required for data: 1740311048
I0509 17:09:22.648897 119925 layer_factory.hpp:77] Creating layer inception_5a/relu_pool_proj
I0509 17:09:22.648901 119925 net.cpp:84] Creating Layer inception_5a/relu_pool_proj
I0509 17:09:22.648905 119925 net.cpp:406] inception_5a/relu_pool_proj <- inception_5a/pool_proj
I0509 17:09:22.648908 119925 net.cpp:367] inception_5a/relu_pool_proj -> inception_5a/pool_proj (in-place)
I0509 17:09:22.648913 119925 net.cpp:122] Setting up inception_5a/relu_pool_proj
I0509 17:09:22.648916 119925 net.cpp:129] Top shape: 32 128 7 7 (200704)
I0509 17:09:22.648919 119925 net.cpp:137] Memory required for data: 1741113864
I0509 17:09:22.648922 119925 layer_factory.hpp:77] Creating layer inception_5a/output
I0509 17:09:22.648926 119925 net.cpp:84] Creating Layer inception_5a/output
I0509 17:09:22.648929 119925 net.cpp:406] inception_5a/output <- inception_5a/1x1
I0509 17:09:22.648933 119925 net.cpp:406] inception_5a/output <- inception_5a/3x3
I0509 17:09:22.648939 119925 net.cpp:406] inception_5a/output <- inception_5a/5x5
I0509 17:09:22.648943 119925 net.cpp:406] inception_5a/output <- inception_5a/pool_proj
I0509 17:09:22.648948 119925 net.cpp:380] inception_5a/output -> inception_5a/output
I0509 17:09:22.648959 119925 net.cpp:122] Setting up inception_5a/output
I0509 17:09:22.648964 119925 net.cpp:129] Top shape: 32 832 7 7 (1304576)
I0509 17:09:22.648967 119925 net.cpp:137] Memory required for data: 1746332168
I0509 17:09:22.648969 119925 layer_factory.hpp:77] Creating layer inception_5a/output_inception_5a/output_0_split
I0509 17:09:22.648975 119925 net.cpp:84] Creating Layer inception_5a/output_inception_5a/output_0_split
I0509 17:09:22.648978 119925 net.cpp:406] inception_5a/output_inception_5a/output_0_split <- inception_5a/output
I0509 17:09:22.648983 119925 net.cpp:380] inception_5a/output_inception_5a/output_0_split -> inception_5a/output_inception_5a/output_0_split_0
I0509 17:09:22.648989 119925 net.cpp:380] inception_5a/output_inception_5a/output_0_split -> inception_5a/output_inception_5a/output_0_split_1
I0509 17:09:22.648995 119925 net.cpp:380] inception_5a/output_inception_5a/output_0_split -> inception_5a/output_inception_5a/output_0_split_2
I0509 17:09:22.649001 119925 net.cpp:380] inception_5a/output_inception_5a/output_0_split -> inception_5a/output_inception_5a/output_0_split_3
I0509 17:09:22.649008 119925 net.cpp:122] Setting up inception_5a/output_inception_5a/output_0_split
I0509 17:09:22.649010 119925 net.cpp:129] Top shape: 32 832 7 7 (1304576)
I0509 17:09:22.649014 119925 net.cpp:129] Top shape: 32 832 7 7 (1304576)
I0509 17:09:22.649019 119925 net.cpp:129] Top shape: 32 832 7 7 (1304576)
I0509 17:09:22.649021 119925 net.cpp:129] Top shape: 32 832 7 7 (1304576)
I0509 17:09:22.649024 119925 net.cpp:137] Memory required for data: 1767205384
I0509 17:09:22.649026 119925 layer_factory.hpp:77] Creating layer inception_5b/1x1
I0509 17:09:22.649032 119925 net.cpp:84] Creating Layer inception_5b/1x1
I0509 17:09:22.649035 119925 net.cpp:406] inception_5b/1x1 <- inception_5a/output_inception_5a/output_0_split_0
I0509 17:09:22.649041 119925 net.cpp:380] inception_5b/1x1 -> inception_5b/1x1
I0509 17:09:22.649047 119925 base_conv_layer.cpp:121] Group is 1channel is832number of output is 384
I0509 17:09:22.650918 119925 net.cpp:122] Setting up inception_5b/1x1
I0509 17:09:22.650923 119925 net.cpp:129] Top shape: 32 384 7 7 (602112)
I0509 17:09:22.650926 119925 net.cpp:137] Memory required for data: 1769613832
I0509 17:09:22.650930 119925 layer_factory.hpp:77] Creating layer inception_5b/relu_1x1
I0509 17:09:22.650935 119925 net.cpp:84] Creating Layer inception_5b/relu_1x1
I0509 17:09:22.650938 119925 net.cpp:406] inception_5b/relu_1x1 <- inception_5b/1x1
I0509 17:09:22.650943 119925 net.cpp:367] inception_5b/relu_1x1 -> inception_5b/1x1 (in-place)
I0509 17:09:22.650948 119925 net.cpp:122] Setting up inception_5b/relu_1x1
I0509 17:09:22.650951 119925 net.cpp:129] Top shape: 32 384 7 7 (602112)
I0509 17:09:22.650954 119925 net.cpp:137] Memory required for data: 1772022280
I0509 17:09:22.650956 119925 layer_factory.hpp:77] Creating layer inception_5b/3x3_reduce
I0509 17:09:22.650964 119925 net.cpp:84] Creating Layer inception_5b/3x3_reduce
I0509 17:09:22.650967 119925 net.cpp:406] inception_5b/3x3_reduce <- inception_5a/output_inception_5a/output_0_split_1
I0509 17:09:22.650971 119925 net.cpp:380] inception_5b/3x3_reduce -> inception_5b/3x3_reduce
I0509 17:09:22.650979 119925 base_conv_layer.cpp:121] Group is 1channel is832number of output is 192
I0509 17:09:22.652086 119925 net.cpp:122] Setting up inception_5b/3x3_reduce
I0509 17:09:22.652094 119925 net.cpp:129] Top shape: 32 192 7 7 (301056)
I0509 17:09:22.652096 119925 net.cpp:137] Memory required for data: 1773226504
I0509 17:09:22.652101 119925 layer_factory.hpp:77] Creating layer inception_5b/relu_3x3_reduce
I0509 17:09:22.652107 119925 net.cpp:84] Creating Layer inception_5b/relu_3x3_reduce
I0509 17:09:22.652110 119925 net.cpp:406] inception_5b/relu_3x3_reduce <- inception_5b/3x3_reduce
I0509 17:09:22.652122 119925 net.cpp:367] inception_5b/relu_3x3_reduce -> inception_5b/3x3_reduce (in-place)
I0509 17:09:22.652127 119925 net.cpp:122] Setting up inception_5b/relu_3x3_reduce
I0509 17:09:22.652135 119925 net.cpp:129] Top shape: 32 192 7 7 (301056)
I0509 17:09:22.652139 119925 net.cpp:137] Memory required for data: 1774430728
I0509 17:09:22.652142 119925 layer_factory.hpp:77] Creating layer inception_5b/3x3
I0509 17:09:22.652148 119925 net.cpp:84] Creating Layer inception_5b/3x3
I0509 17:09:22.652150 119925 net.cpp:406] inception_5b/3x3 <- inception_5b/3x3_reduce
I0509 17:09:22.652156 119925 net.cpp:380] inception_5b/3x3 -> inception_5b/3x3
I0509 17:09:22.652181 119925 base_conv_layer.cpp:121] Group is 1channel is192number of output is 384
I0509 17:09:22.656059 119925 net.cpp:122] Setting up inception_5b/3x3
I0509 17:09:22.656066 119925 net.cpp:129] Top shape: 32 384 7 7 (602112)
I0509 17:09:22.656070 119925 net.cpp:137] Memory required for data: 1776839176
I0509 17:09:22.656075 119925 layer_factory.hpp:77] Creating layer inception_5b/relu_3x3
I0509 17:09:22.656080 119925 net.cpp:84] Creating Layer inception_5b/relu_3x3
I0509 17:09:22.656082 119925 net.cpp:406] inception_5b/relu_3x3 <- inception_5b/3x3
I0509 17:09:22.656087 119925 net.cpp:367] inception_5b/relu_3x3 -> inception_5b/3x3 (in-place)
I0509 17:09:22.656092 119925 net.cpp:122] Setting up inception_5b/relu_3x3
I0509 17:09:22.656095 119925 net.cpp:129] Top shape: 32 384 7 7 (602112)
I0509 17:09:22.656098 119925 net.cpp:137] Memory required for data: 1779247624
I0509 17:09:22.656101 119925 layer_factory.hpp:77] Creating layer inception_5b/5x5_reduce
I0509 17:09:22.656107 119925 net.cpp:84] Creating Layer inception_5b/5x5_reduce
I0509 17:09:22.656111 119925 net.cpp:406] inception_5b/5x5_reduce <- inception_5a/output_inception_5a/output_0_split_2
I0509 17:09:22.656114 119925 net.cpp:380] inception_5b/5x5_reduce -> inception_5b/5x5_reduce
I0509 17:09:22.656122 119925 base_conv_layer.cpp:121] Group is 1channel is832number of output is 48
I0509 17:09:22.656365 119925 net.cpp:122] Setting up inception_5b/5x5_reduce
I0509 17:09:22.656370 119925 net.cpp:129] Top shape: 32 48 7 7 (75264)
I0509 17:09:22.656373 119925 net.cpp:137] Memory required for data: 1779548680
I0509 17:09:22.656378 119925 layer_factory.hpp:77] Creating layer inception_5b/relu_5x5_reduce
I0509 17:09:22.656383 119925 net.cpp:84] Creating Layer inception_5b/relu_5x5_reduce
I0509 17:09:22.656386 119925 net.cpp:406] inception_5b/relu_5x5_reduce <- inception_5b/5x5_reduce
I0509 17:09:22.656391 119925 net.cpp:367] inception_5b/relu_5x5_reduce -> inception_5b/5x5_reduce (in-place)
I0509 17:09:22.656396 119925 net.cpp:122] Setting up inception_5b/relu_5x5_reduce
I0509 17:09:22.656400 119925 net.cpp:129] Top shape: 32 48 7 7 (75264)
I0509 17:09:22.656402 119925 net.cpp:137] Memory required for data: 1779849736
I0509 17:09:22.656405 119925 layer_factory.hpp:77] Creating layer inception_5b/5x5
I0509 17:09:22.656412 119925 net.cpp:84] Creating Layer inception_5b/5x5
I0509 17:09:22.656415 119925 net.cpp:406] inception_5b/5x5 <- inception_5b/5x5_reduce
I0509 17:09:22.656420 119925 net.cpp:380] inception_5b/5x5 -> inception_5b/5x5
I0509 17:09:22.656427 119925 base_conv_layer.cpp:121] Group is 1channel is48number of output is 128
I0509 17:09:22.657341 119925 net.cpp:122] Setting up inception_5b/5x5
I0509 17:09:22.657346 119925 net.cpp:129] Top shape: 32 128 7 7 (200704)
I0509 17:09:22.657348 119925 net.cpp:137] Memory required for data: 1780652552
I0509 17:09:22.657353 119925 layer_factory.hpp:77] Creating layer inception_5b/relu_5x5
I0509 17:09:22.657358 119925 net.cpp:84] Creating Layer inception_5b/relu_5x5
I0509 17:09:22.657361 119925 net.cpp:406] inception_5b/relu_5x5 <- inception_5b/5x5
I0509 17:09:22.657366 119925 net.cpp:367] inception_5b/relu_5x5 -> inception_5b/5x5 (in-place)
I0509 17:09:22.657371 119925 net.cpp:122] Setting up inception_5b/relu_5x5
I0509 17:09:22.657374 119925 net.cpp:129] Top shape: 32 128 7 7 (200704)
I0509 17:09:22.657377 119925 net.cpp:137] Memory required for data: 1781455368
I0509 17:09:22.657385 119925 layer_factory.hpp:77] Creating layer inception_5b/pool
I0509 17:09:22.657390 119925 net.cpp:84] Creating Layer inception_5b/pool
I0509 17:09:22.657393 119925 net.cpp:406] inception_5b/pool <- inception_5a/output_inception_5a/output_0_split_3
I0509 17:09:22.657405 119925 net.cpp:380] inception_5b/pool -> inception_5b/pool
I0509 17:09:22.657411 119925 net.cpp:122] Setting up inception_5b/pool
I0509 17:09:22.657415 119925 net.cpp:129] Top shape: 32 832 7 7 (1304576)
I0509 17:09:22.657418 119925 net.cpp:137] Memory required for data: 1786673672
I0509 17:09:22.657421 119925 layer_factory.hpp:77] Creating layer inception_5b/pool_proj
I0509 17:09:22.657428 119925 net.cpp:84] Creating Layer inception_5b/pool_proj
I0509 17:09:22.657431 119925 net.cpp:406] inception_5b/pool_proj <- inception_5b/pool
I0509 17:09:22.657438 119925 net.cpp:380] inception_5b/pool_proj -> inception_5b/pool_proj
I0509 17:09:22.657444 119925 base_conv_layer.cpp:121] Group is 1channel is832number of output is 128
I0509 17:09:22.658078 119925 net.cpp:122] Setting up inception_5b/pool_proj
I0509 17:09:22.658083 119925 net.cpp:129] Top shape: 32 128 7 7 (200704)
I0509 17:09:22.658087 119925 net.cpp:137] Memory required for data: 1787476488
I0509 17:09:22.658092 119925 layer_factory.hpp:77] Creating layer inception_5b/relu_pool_proj
I0509 17:09:22.658095 119925 net.cpp:84] Creating Layer inception_5b/relu_pool_proj
I0509 17:09:22.658098 119925 net.cpp:406] inception_5b/relu_pool_proj <- inception_5b/pool_proj
I0509 17:09:22.658102 119925 net.cpp:367] inception_5b/relu_pool_proj -> inception_5b/pool_proj (in-place)
I0509 17:09:22.658107 119925 net.cpp:122] Setting up inception_5b/relu_pool_proj
I0509 17:09:22.658110 119925 net.cpp:129] Top shape: 32 128 7 7 (200704)
I0509 17:09:22.658113 119925 net.cpp:137] Memory required for data: 1788279304
I0509 17:09:22.658116 119925 layer_factory.hpp:77] Creating layer inception_5b/output
I0509 17:09:22.658121 119925 net.cpp:84] Creating Layer inception_5b/output
I0509 17:09:22.658124 119925 net.cpp:406] inception_5b/output <- inception_5b/1x1
I0509 17:09:22.658128 119925 net.cpp:406] inception_5b/output <- inception_5b/3x3
I0509 17:09:22.658131 119925 net.cpp:406] inception_5b/output <- inception_5b/5x5
I0509 17:09:22.658135 119925 net.cpp:406] inception_5b/output <- inception_5b/pool_proj
I0509 17:09:22.658139 119925 net.cpp:380] inception_5b/output -> inception_5b/output
I0509 17:09:22.658144 119925 net.cpp:122] Setting up inception_5b/output
I0509 17:09:22.658151 119925 net.cpp:129] Top shape: 32 1024 7 7 (1605632)
I0509 17:09:22.658154 119925 net.cpp:137] Memory required for data: 1794701832
I0509 17:09:22.658156 119925 layer_factory.hpp:77] Creating layer pool5/7x7_s1
I0509 17:09:22.658160 119925 net.cpp:84] Creating Layer pool5/7x7_s1
I0509 17:09:22.658164 119925 net.cpp:406] pool5/7x7_s1 <- inception_5b/output
I0509 17:09:22.658167 119925 net.cpp:380] pool5/7x7_s1 -> pool5/7x7_s1
I0509 17:09:22.658174 119925 net.cpp:122] Setting up pool5/7x7_s1
I0509 17:09:22.658176 119925 net.cpp:129] Top shape: 32 1024 1 1 (32768)
I0509 17:09:22.658179 119925 net.cpp:137] Memory required for data: 1794832904
I0509 17:09:22.658182 119925 layer_factory.hpp:77] Creating layer pool5/drop_7x7_s1
I0509 17:09:22.658188 119925 net.cpp:84] Creating Layer pool5/drop_7x7_s1
I0509 17:09:22.658191 119925 net.cpp:406] pool5/drop_7x7_s1 <- pool5/7x7_s1
I0509 17:09:22.658195 119925 net.cpp:367] pool5/drop_7x7_s1 -> pool5/7x7_s1 (in-place)
I0509 17:09:22.658201 119925 net.cpp:122] Setting up pool5/drop_7x7_s1
I0509 17:09:22.658205 119925 net.cpp:129] Top shape: 32 1024 1 1 (32768)
I0509 17:09:22.658207 119925 net.cpp:137] Memory required for data: 1794963976
I0509 17:09:22.658210 119925 layer_factory.hpp:77] Creating layer loss3/classifier
I0509 17:09:22.658216 119925 net.cpp:84] Creating Layer loss3/classifier
I0509 17:09:22.658219 119925 net.cpp:406] loss3/classifier <- pool5/7x7_s1
I0509 17:09:22.658223 119925 net.cpp:380] loss3/classifier -> loss3/classifier
I0509 17:09:22.663853 119925 net.cpp:122] Setting up loss3/classifier
I0509 17:09:22.663861 119925 net.cpp:129] Top shape: 32 1000 (32000)
I0509 17:09:22.663862 119925 net.cpp:137] Memory required for data: 1795091976
I0509 17:09:22.663867 119925 layer_factory.hpp:77] Creating layer loss3/loss3
I0509 17:09:22.663878 119925 net.cpp:84] Creating Layer loss3/loss3
I0509 17:09:22.663882 119925 net.cpp:406] loss3/loss3 <- loss3/classifier
I0509 17:09:22.663885 119925 net.cpp:406] loss3/loss3 <- label_data_1_split_2
I0509 17:09:22.663892 119925 net.cpp:380] loss3/loss3 -> loss3/loss3
…
